Projects/GuoxiangGrayson_T_A study of multi-fidelity graph neural networks/Model_save/Quarter2D/Rank=94-GNN-nB-64-Lr-0.005/model.pth (torch, 114781 bytes, 24 tensors)

node_function_neighbor.0.weight f4 [64, 2]
00000000: 2bcc 83bd 328c c03e 984e 15bf fb4d e1be
00000010: 79f3 dc3d 9ff9 d5bd 553a e33e 5fd7 99bb
00000020: 264a 01bf 9552 debe 4f29 c43e 50f8 81be
00000030: fd97 f7be 7835 87be ac0b 1f3f 6837 9a3e
00000040: d12f 193f bfde 053f dc30 e53e c1ad 18bf
00000050: d20c 1f3f 9704 bdbe 470e 0f3f 62d8 4abe
00000060: 1cfd 3abe 1666 273e 4564 b5bd 2bb3 043f
00000070: 863f 303e 30de 633d 211b 03bf 7298 07bd
00000080: 674f bbbd c76c 833d dc44 b7bd 3d90 cfbd
00000090: b5e2 523e ebaf 8fbe feaa 72bc 0d83 c83e
000000a0: 15db ec3e 7206 1fbf 1f26 1d3f c644 413e
000000b0: bbc9 043d 0860 82be 6046 c73e 6df2 083e
000000c0: 429e 1bbf 6939 f5be b6e7 cc3e 32b6 3a3e
000000d0: 1c8f acbe 87ac 27be f794 013f 2fc7 78be
000000e0: 58be 513e 61da b3bd 4897 febe 8357 8a3e
000000f0: 75f4 9f3d 3453 9a3e 4548 233f 7114 9abe
00000100: 5a63 8dbe 490f 98be 0dc6 283e fec6 c8be
00000110: d903 863e 9b74 62be aa60 2dbe 3adb aa3e
00000120: 8af1 063e ff91 993b 029d 5f3c cdd4 53bc
00000130: f1c9 a33e a3dd 78be a65d bf3d f60f a63d
00000140: 4d7e 0f3f 85bf d53d bfcf ce3d 9094 b73e
00000150: 16d4 b73e 7ad2 163f ae1f f0be 3525 e63c
00000160: d955 d0bd ca9d 1a3f 85d6 a73e 4855 ba3e
00000170: 8f43 6dbe 8757 6d3e 5648 50bc 9ab1 9e3e
00000180: 7d0b 063f 6d40 f83e 14cd 3dbe c4b8 d63e
00000190: ac22 9ebe 7184 20bf 7c55 0f3e 3c4d f83e
000001a0: 6c66 833e edd0 ccbe f13c c13e d6c6 3c3e
000001b0: 0164 273f 1487 f7be e1a0 083e 00df e3bd
000001c0: 4ab6 9ebd b51e 01bf 6829 ecbe 11b4 4abe
000001d0: 24c2 dbbe 13ca cc3e 7354 08bf 4eab 43be
000001e0: 8379 143f ccdb a43e d156 92be 015c fdbd
000001f0: bbff 1cbf d8ce 1cbe f078 04be 8e84 bd3e
-0.06435426 0.3760696 -0.5832305 -0.44004807 0.10788626 -0.10448002 0.4438044 -0.0046948637
-0.50503767 -0.4342238 0.38312766 -0.2538476 -0.48358145 -0.2640798 0.62127185 0.30120397
0.5983859 0.5229301 0.4476384 -0.5964013 0.6212894 -0.36917564 0.5588116 -0.19809106
-0.18260616 0.16347536 -0.088570155 0.5183589 0.17211732 0.055631816 -0.5121327 -0.033104368
-0.09146004 0.06417232 -0.08948681 -0.10134933 0.20594294 -0.28063902 -0.0148112755 0.39162484
0.46260896 -0.6211921 0.61386293 0.18873891 0.032418948 -0.2546389 0.3892088 0.13373728
-0.6078836 -0.47895363 0.4002053 0.18233564 -0.33702934 -0.16374408 0.5061793 -0.24294733
0.20482767 -0.08781887 -0.49724793 0.2701989 0.07810298 0.30141604 0.6378215 -0.3009372
-0.27614862 -0.29699162 0.164818 -0.3921432 0.2617481 -0.22114794 -0.16931406 0.33370382
0.13178077 0.0046865935 0.013648273 -0.012929154 0.31990007 -0.24303298 0.09344034 0.08108513
0.56052095 0.1043692 0.10098218 0.35855532 0.35903996 0.5891491 -0.4689917 0.028093914
-0.10172624 0.60397017 0.32780853 0.3639319 -0.23170303 0.2317792 -0.012712559 0.30994874
0.5236128 0.48486653 -0.18535262 0.4193784 -0.30885828 -0.6270209 0.13997453 0.48496425
0.2566408 -0.40003148 0.37741807 0.18435225 0.6538697 -0.48345244 0.1334262 -0.11126518
-0.07749613 -0.5043748 -0.4612534 -0.19795252 -0.42921555 0.3999792 -0.5325386 -0.19108316
0.5799791 0.32198942 -0.2858186 -0.12371064 -0.61327714 -0.1531328 -0.12936759 0.37015194

node_function_neighbor.0.bias f4 [64]
00000000: 1bab 9fbd 7521 78be 67f4 873e 49c5 0f3e
00000010: 131e 91bb aaa4 68be 465e cf3d 70ef 063f
00000020: c5e3 d0bd bef6 863e d389 833e 8dfb ccbe
00000030: 8fa6 a23d d856 fbbd 56a0 d53e 188a f7bc
00000040: 654e 21bf 7e5a 0e3f c337 87be 099b 07bf
00000050: 6271 c73e c9f2 9ebe fa1d e3bd 8718 f4be
00000060: 7283 a93e a771 3c3d 8f26 55bf 17a6 00bf
00000070: 733f 263e d78d 8dbd 89fe 4d3f fc2d bebe
00000080: bf64 bf3e 30af 0a3f c9ea d33e 3c7c 30bf
00000090: 41ca 88be 4fe3 183f 937a 013d ee9f 033f
000000a0: 3250 1b3f 8453 8a3e b0cf cdbe 2b40 65bb
000000b0: 119b ecbe def2 163f d216 d8be 9d74 323f
000000c0: aef5 883d cc49 fe3e c8ff bc3a 8093 d5bd
000000d0: b937 23bf 3245 0d3e cbfb f2be 156b 643e
000000e0: 319c 89be e774 583e 0a1c 2b3e 7b2e 453e
000000f0: 4c16 17bf 2170 843e 131c 383f 76b8 133f
-0.07796308 -0.24231513 0.26553652 0.14040102 -0.004428634 -0.22719064 0.10125403 0.527091
-0.101996936 0.26360124 0.2569109 -0.40035668 0.07941925 -0.122724235 0.4172389 -0.030217215
-0.63010246 0.5560683 -0.2640973 -0.5297094 0.38953692 -0.31044605 -0.11089702 -0.47674963
0.33108097 0.046006825 -0.8326196 -0.50253433 0.16235141 -0.069118194 0.80466515 -0.37144458
0.3738155 0.54173565 0.41390064 -0.68939567 -0.26716807 0.59721845 0.031611037 0.5141591
0.60669243 0.27016842 -0.40197515 -0.0034980874 -0.46212056 0.58964336 -0.4220491 0.6970919
0.06687485 0.49665678 0.001441949 -0.10428524 -0.637569 0.13795927 -0.47457728 0.22306474
-0.26876977 0.21138345 0.16709915 0.19256012 -0.590184 0.25866798 0.7191784 0.5770334

node_function_neighbor.2.weight f4 [64, 64]
00000000: 4d4a c9bd e4d7 92bc 0ad9 153e b2e6 f33b
00000010: 791a d33d 57f1 f53d a490 da3d db52 a43d
00000020: 6a1f aabd 165d 793d a535 b9bd c427 603d
00000030: e119 c2bd 020c 003d 14df 6bbd 821e 913c
00000040: 328c d43d 2e73 a2bd 3874 eb3d 2f0b f7bc
00000050: 6a9e 043c 6170 b23c e898 4abd 9d71 213c
00000060: c0f7 01be e144 ccbd 8efb a1bd 19de 843d
00000070: 6db7 a6bd e1b2 9f3d 2f3e bc3d d93e ed3d
00000080: d4a4 d73d 3db8 cfbb febf be3d 6ff2 12bd
00000090: 1ca3 973d 446e eb3d 7919 b13c a766 7b3d
000000a0: a003 103d 593f f2bc 0764 d43d 6d1c 22bc
000000b0: 8c4b 223c b8e5 093c 0709 cebc 3961 b0bc
000000c0: 7875 48bd 165d d0bb b8f0 efbc ed62 b4bd
000000d0: 632f 193d af7f 8e3d 77f9 86bd 17f7 e3bc
000000e0: 30e6 2bbd 06b0 eb3d 8c51 dabd 21ef 373b
000000f0: 2f5e 10bd 8d3e 1ebb 8560 8fbd 3e5d d73d
00000100: 839c e1bd 6aca 6a3d 37fd ef3d 554a 0dbc
00000110: 8da6 85bd c784 97bd ef24 963c 96a3 8d3d
00000120: 3690 1fbd 8130 513d c6e5 afbd 222d e13c
00000130: 469b db3d af34 d2bc 5723 ca3d eb13 a53c
00000140: 6244 4dbd bb63 ac3c f1c9 cf3d 8bb7 9b3d
00000150: 97c9 c53c b0a1 d4bd 9826 90bd 6511 cfbd
00000160: 6557 30bd bea0 a8bd 00bf 69bc 3660 983d
00000170: 4154 073e ff55 24bd 1041 c33d cce0 9fbd
00000180: c229 ab3d aac0 763d 8a89 ef3d 812e 9dbd
00000190: 7d9a 0ebe 0437 883d 5000 c73d 649d 71bc
000001a0: a841 2dbd e7ef cebd 18fc 36bd eaa9 c43d
000001b0: e20c 8ebd 5f01 a2bd 25ad ec3c b8ba c5bb
000001c0: cdae 703d eecc 89bd 454d 803d c380 35bd
000001d0: 839f b03d 0429 2bbd 308b abbd ad74 113e
000001e0: 7169 85bc 35b5 af3d cca9 e73c 9e29 6fbd
000001f0: 1e19 e9b9 a24f 00be 9e71 02be 65a7 56bc
00000200: 951d eebd c843 803c 4895 2d3b 6e15 7b3d
00000210: c1fe 8b3d 33e6 e2bd 81db d73c 0f9b d83c
00000220: 25df e93c c896 2abc 78ba 863b f791 163d
00000230: 7b32 8f3d 2726 e7bc 4621 623c 88ac 85bd
00000240: cd55 0fbd 3ae9 613d 47e0 d33d 9c69 90bd
00000250: cddf 7a3d b485 883c f8d6 6abd 054b f0bd
00000260: fb1d c3bd 713a a93d 9ec2 873d 3b1e 9a3d
00000270: 83c1 93bd be65 8abd cda9 c0bd 288f 3cbd
00000280: 28d9 d33d 6801 bebd c2f6 f1bd 35e2 423d
00000290: a563 693d bd2a 633c 5380 4f3d 5381 19bc
000002a0: f49f e5bc 6c59 693d 8427 c6bd 521c babd
000002b0: 560a 463b 6668 1ebe 73c0 1ebe a9ec c6ba
000002c0: feb4 e13b ab94 8bbd a628 06be 0816 7cbd
000002d0: fe19 26bd b057 a9bd 6de1 cb3d ea51 063d
000002e0: 8222 babd 6dfd 193b fb0a 05be 3fa4 0e3e
000002f0: 163b 193c 700c bbbd d2cf e3bd ba66 4fbd
00000300: 8685 c33c d71e dc3c d1b9 563d c801 813c
00000310: 8f9a 64bd cfa0 8b3c d99a ccbc d97c 9f3d
00000320: 902d 103e 23ee 99bd 89f9 823b 2e54 b4bd
00000330: 278a c8bd 3040 013d d720 1b3e 2ae4 23be
00000340: 3179 8c3d 8e60 50be 1165 dcbc 2bd5 d73d
00000350: 2f42 b43d ec69 d63d 8115 42bd d365 823c
00000360: 852d b43c 2e98 a43d df7d e8bd ae20 3a3d
00000370: 50a5 93bd 17fd 0cbe 9ff4 84bd 2f0f bf3c
00000380: ea59 30be 499f d0bd 7944 3ebc 0847 31be
00000390: b7aa ae3c 64fd 963d 1f2d 11bd 4a76 db3d
000003a0: c060 e63c 68ea 133e 25e9 743d 08d7 0abe
000003b0: 5d28 dc3d 17e0 7bbd 436a 90be a7e0 46bb
000003c0: d3ad 16bd c7d5 da3b 9a57 c5bd 35d8 1abd
000003d0: f9b9 873d 4620 fc3d af9d 473d 2b4c cdbd
000003e0: b1d3 8e3a f376 16be f1e4 08be 0514 2abe
000003f0: 29b3 413d a036 833c 2958 d3bd 6fdd 5c3d
-0.09828625 -0.01792521 0.14633575 0.0074432725 0.10307784 0.120089225 0.10672119 0.08023616
-0.08306773 0.06087979 -0.09043435 0.054725423 -0.09477592 0.03126145 -0.05758579 0.017714743
0.10378303 -0.07932125 0.11496776 -0.0301567 0.0080944095 0.021782102 -0.04946223 0.009853748
-0.12692165 -0.09974075 -0.079093084 0.06487674 -0.081404544 0.0779779 0.09191548 0.11584253
0.10529485 -0.0063391016 0.09313963 -0.035875734 0.074041575 0.11495641 0.021618592 0.061377194
0.035159707 -0.029571222 0.10370641 -0.009894473 0.009905707 0.008416586 -0.025150789 -0.021530734
-0.048940152 -0.006358753 -0.029289588 -0.08807931 0.037398707 0.069579475 -0.065905504 -0.027827783
-0.04196757 0.11508183 -0.10660085 0.0028066116 -0.03524607 -0.002414617 -0.070008315 0.105158314
-0.1101618 0.057321943 0.11718219 -0.008623679 -0.06525908 -0.07398372 0.018328158 0.06915967
-0.03895589 0.051071648 -0.08588748 0.027487341 0.107229754 -0.025659887 0.09870022 0.0201511
-0.050114043 0.021043649 0.10145939 0.076033674 0.024143977 -0.10382402 -0.07038611 -0.101107396
-0.043052096 -0.08233784 -0.014266729 0.07440226 0.13215734 -0.040121075 0.09533894 -0.078065485
0.08357574 0.060242333 0.11696155 -0.076748855 -0.1392612 0.066511184 0.097168565 -0.0147469975
-0.042298943 -0.101043515 -0.04467401 0.09602721 -0.06936051 -0.07910418 0.028891155 -0.0060342215
0.058760453 -0.0672854 0.06264738 -0.04431225 0.086241744 -0.041787162 -0.08376157 0.14204665
-0.01628563 0.085794844 0.028279208 -0.0583893 -0.00044459937 -0.12530378 -0.12738654 -0.013101433
-0.11626736 0.01565732 0.0026486684 0.061299734 0.068357 -0.11079063 0.026349785 0.026441125
0.028548786 -0.010411926 0.0041115843 0.036760297 0.0699205 -0.028216435 0.013801878 -0.06527048
-0.034993935 0.055154063 0.10345512 -0.070513934 0.06124859 0.016665317 -0.057333916 -0.11733059
-0.09527203 0.082631 0.06628917 0.07525297 -0.07214644 -0.06757687 -0.09407387 -0.046034962
0.10344154 -0.09277612 -0.118146434 0.04757901 0.056979794 0.01386517 0.05065949 -0.009369212
-0.028030373 0.056970045 -0.09675506 -0.09087433 0.0030218563 -0.15469512 -0.15503101 -0.0015176731
0.006888031 -0.068154655 -0.13101444 -0.061544448 -0.04055213 -0.08268678 0.09955106 0.032792963
-0.09088613 0.0023497 -0.1299247 0.13929842 0.009352466 -0.09133232 -0.11123623 -0.050635077
0.02386738 0.026870174 0.052423302 0.01574792 -0.05581146 0.017044453 -0.02497618 0.07787485
0.1407988 -0.07516124 0.003997032 -0.088051185 -0.097919755 0.031555355 0.15149246 -0.16005006
0.06859053 -0.20349333 -0.026903661 0.105387054 0.08801686 0.10469422 -0.04738379 0.015917694
0.021994362 0.080368385 -0.11352133 0.045441322 -0.07209265 -0.13768421 -0.0649197 0.02332267
-0.172218 -0.10186631 -0.011613005 -0.17312253 0.021321638 0.07372549 -0.03544342 0.10715921
0.028122306 0.14444888 0.059792656 -0.1355859 0.10749886 -0.061493006 -0.2820607 -0.0030346306
-0.036786865 0.0066783163 -0.09635849 -0.037803847 0.06627268 0.12310843 0.048734363 -0.100242935
0.0010896829 -0.14693813 -0.13368584 -0.166092 0.04729 0.016017258 -0.103195496 0.053922113

node_function_neighbor.2.bias f4 [64]
00000000: ba75 14bc 4888 953d 5c7b 07be 27f1 1b3e
00000010: e29e e03d d177 be3d 206e 14bd 0da3 35bd
00000020: 3655 b13c aa5a e53d f322 31bc c03c c8bc
00000030: 0cf5 6f3d 1d3a a43d fbda fabc aba7 1f3e
00000040: 7d6d 153d fa14 403e ab4d b93d c7a7 433d
00000050: 13d2 09bd 2dee 6f3e f9b7 a73d ba4a 2a3d
00000060: 79c0 c43d 24f4 abbd 6588 b43d 38ec 813d
00000070: e358 e83c 6692 053e 39d8 ad3c 65a5 ba3d
00000080: 5066 88bd 1bdc f3bd f8bf 983d 56ba 86bc
00000090: c44a fabc a739 8d3d 7018 813d 4059 b43d
000000a0: 3089 9a3d ec16 3a3d 4f73 9cbd 4651 d53d
000000b0: b371 cd3d 5c0b a13d d171 cdbd 2b4a 0e3d
000000c0: 208f cfbc 5ad9 963d d078 013e 7cfd c13b
000000d0: 61d9 69bd df59 393e bc02 a6bd ebc1 1d3e
000000e0: 48be 1abd 0de6 893d e55c 923d 0777 993d
000000f0: a903 1dbe 518c b6bd df7c 13bd e812 663d
-0.009061271 0.07301384 -0.13230652 0.15228711 0.109678045 0.09300197 -0.036237836 -0.04434495
0.021647077 0.111989334 -0.010811555 -0.02444303 0.058583304 0.08018897 -0.030621996 0.15591304
0.03648137 0.18758002 0.09048017 0.047767427 -0.033647608 0.234307 0.08189387 0.04157517
0.09607024 -0.083961755 0.08815078 0.06343883 0.028362697 0.13044128 0.021221267 0.09113578
-0.066601396 -0.11907216 0.0745849 -0.016446274 -0.03055323 0.06895762 0.06303489 0.088060856
0.07545698 0.045432016 -0.07639181 0.10415892 0.10031452 0.07863495 -0.100314744 0.0347387
-0.025336802 0.07365675 0.12643743 0.0059201103 -0.057092074 0.1810069 -0.0810599 0.15406005
-0.037779123 0.06733332 0.071466245 0.07493406 -0.15333427 -0.08913482 -0.03600776 0.056170374

node_function_neighbor.4.weight f4 [64, 64]
00000000: 045e 563d b871 26be 00f8 513c 097e f3bc
00000010: 7ba1 bbbd 4e2d 50bd 3061 eb3c a8ab fd3c
00000020: 8441 debd 8fc4 3a3e c8b1 4bbd 5435 d3bd
00000030: f828 f8bd cc3e 91bd 909e 203c c855 a8bc
00000040: 7922 223d bfa9 88bc 0204 c6bd 4013 f63b
00000050: f4a5 4b3d 4720 553e b7d1 4cbd eb82 0dbd
00000060: 6c07 013d f2c8 033e f8ad 8f3c a1c6 943d
00000070: 3880 5b3d b97f d73d 9176 883c 6654 97bd
00000080: 46a6 09bd f4c6 babd 2011 7a3d 78fa 2dbd
00000090: 04c6 11be e0a7 4c3c f58c 8c3c f6de 073d
000000a0: 8e4a 91bd 3abe d3bd 09ff 553d b8c6 9c3d
000000b0: fac2 6b3e 11e8 b9bd 9ab3 f43c 9903 233e
000000c0: b186 b1bd e8de ad3d 5878 183e 3650 f1bd
000000d0: fff8 0abf 7108 c6bc d0b2 813d 7634 723b
000000e0: 75ab 0bbd 2484 56bd 0ec4 be3d 4e6e 54be
000000f0: 7c7f da3d 519b 6b3c a09e 03bd f32e db3c
00000100: c404 19bd 182e a1bd d034 86bd 6bea 113d
00000110: 92e1 28bd f1b5 e4bc 605b 853c d622 cdbb
00000120: 9cbf 9f3d da23 97bb 2439 fcbd 9eb3 983d
00000130: 36ab a0bd 1f62 94bd 6b39 e43c d763 303d
00000140: b57d 58bd 5726 f2bc 8ea4 c4bd 1364 00be
00000150: 7fc8 68bd e644 bebc bdd8 f3bd 0494 a7bd
00000160: 785c 1cbe cbbc 0c3d 8eb7 1bbe 2953 debc
00000170: 4268 adbd 1924 ec3c 64db 26bc 0735 6d3d
00000180: 662a 70bd c9a6 c43c 165b c4bd 52ad bc3d
00000190: 9217 d73d db5f 623c 27ad 89bd a741 a43d
000001a0: c02f f83b d283 cebc 59be dabd e6fd e3bd
000001b0: bd89 1b3d d6e5 a1bc 2faa 573d 73b4 acbd
000001c0: 2fc2 0ebe 6816 8a3c f0cf 58bd 624a 093d
000001d0: eb4b 66bc 6cef 923b 79eb 8abd 75c3 0ebe
000001e0: 1098 543d ce3f b7bd 33e7 91bb 3ecb a5bb
000001f0: 5597 843d c2d1 8abd b606 fc3c a074 c7bc
00000200: 86bc 8bbc 6dee 8abd 81b1 903d b140 17be
00000210: c3e2 92bd 79a4 30be 6d5e 273d 55f2 3d3c
00000220: 60df 4c3d de27 15be 5cdc f53c 2ea6 403d
00000230: 5cad 0dbe c550 f2bd 2ab5 9a3c abbd 853d
00000240: 577f 1bbd c6ec eabd 0fab 87bb 68d4 ff3d
00000250: aff8 10be 8319 8cbb d171 5cbd f43e 47bb
00000260: fca9 d1bc 8608 c2bc 1b83 c7bc e917 a2bd
00000270: 05de 1fbe 1279 92bd e682 1fbd f825 f93c
00000280: a321 b03c 3cc9 883d 8b92 02be e8bd efbc
00000290: 7cb4 1cbd 885e 98bb c1f7 853d 2525 79bb
000002a0: 7e2d d33d a927 b6bd cdc0 13bd 0bd6 5a3d
000002b0: 8556 3ebd 1565 f93c a318 b4bd 3e48 f5bd
000002c0: d284 13be 1484 52bd 9364 0fbe 49aa 0cbe
000002d0: 72fc efbd fd3f 28be 1e69 413d 987c 67bc
000002e0: 22fd 19be 296a 2ebc 1a4d 42bd 2452 acbd
000002f0: b8e3 9c3d d510 ffbd 3d9c 973d 6ce5 043d
00000300: 49d6 85bd 41a1 16be 48c4 44bd c175 85bd
00000310: 14bb 30be 63de e1bd 7baa 893d 9e0f 0abe
00000320: a70f 123d 4465 ab3d 5276 7bbd fc70 533a
00000330: c982 0cbd be20 5d3d 4e25 febd ee1f 33be
00000340: d7aa 213c f684 a3bd 116f d3bc b545 ffbd
00000350: 1f60 d9bd 2362 373b 3c7c 01be 7207 443d
00000360: a307 043d 023c c43c 5aa3 f23d 44ef 19be
00000370: 8e8f afbd be22 7fbd 4625 d93c e8ac 0abe
00000380: 0aea 5a3c 6f94 823c 29d6 ea3a 8b84 5f3c
00000390: 704c 9c3d f24d ab3d 2b59 2fbe 5def 043d
000003a0: d01d d2bd 0484 a2bc 78e4 993d 4e37 2ebb
000003b0: 8737 aabd f742 88bd a58f 88bc 18a7 e7bd
000003c0: d3c9 2a3d 0c92 98bd 8b45 92bd a6e5 303d
000003d0: 1567 e7bd d2bb 823d b5c6 f2bd a210 713c
000003e0: a96b 13be a5eb aebd aae2 cfbd 4053 2abd
000003f0: 7f63 09be 5a33 eebd fe94 4f3d 68f5 96bd
0.052335754 -0.16254318 0.012815475 -0.029723184 -0.09161659 -0.050824456 0.028732866 0.030965641
-0.1085234 0.18239044 -0.049730092 -0.10312906 -0.12117189 -0.07092056 0.009803429 -0.020548716
0.039583657 -0.016682504 -0.09668733 0.007509619 0.049718812 0.20813094 -0.050004687 -0.03454868
0.03150122 0.12869623 0.01753901 0.07264448 0.053589076 0.10522408 0.0166581 -0.073891446
-0.033605836 -0.091199785 0.061051488 -0.042475194 -0.14235693 0.012491196 0.017157057 0.033171616
-0.07094298 -0.10339017 0.052245174 0.0765509 0.23023596 -0.09077466 0.029870797 0.15919341
-0.086682685 0.084897816 0.14889657 -0.11782877 -0.5428619 -0.024173947 0.06332934 0.0036957539
-0.03409906 -0.052372113 0.09314738 -0.20745203 0.10668847 0.014380292 -0.0321337 0.026755786
-0.03735806 -0.0787012 -0.06553042 0.03562395 -0.041230746 -0.027918788 0.016278923 -0.0062602563
0.078002185 -0.004612428 -0.12315586 0.07456134 -0.07845156 -0.072452776 0.02785941 0.043063965
-0.05285426 -0.029559297 -0.09601699 -0.12538175 -0.056831833 -0.023226213 -0.11906574 -0.081825286
-0.15269649 0.034359735 -0.1520674 -0.027139263 -0.08467151 0.028825806 -0.010184143 0.0579119
-0.058634184 0.02400531 -0.09587686 0.09212746 0.105025426 0.013816799 -0.06722479 0.08020335
0.0075740516 -0.025209341 -0.10680837 -0.11132412 0.037973154 -0.019762915 0.052652534 -0.084328555
-0.13941263 0.016856387 -0.05293268 0.033518203 -0.014056186 0.0044841077 -0.06783194 -0.13941748
0.05190283 -0.08947717 -0.00445261 -0.0050596287 0.06474177 -0.067782894 0.030764919 -0.024347603
-0.017057668 -0.06783757 0.07065106 -0.14770772 -0.071721576 -0.17250241 0.040861536 0.011593421
0.050017715 -0.1456599 0.030012302 0.04703348 -0.13835663 -0.11831812 0.018885214 0.06530317
-0.037963238 -0.11470942 -0.004140265 0.12491685 -0.14157365 -0.004275502 -0.05381948 -0.0030402513
-0.02559375 -0.023685705 -0.024354508 -0.07914717 -0.15612037 -0.071519986 -0.038943194 0.030413613
0.021500414 0.066790074 -0.12751214 -0.029265359 -0.03825806 -0.004649941 0.06541396 -0.0038016525
0.10311411 -0.08894283 -0.03607254 0.053426784 -0.04646923 0.030443707 -0.087937616 -0.1197667
-0.14406136 -0.05139549 -0.1400321 -0.13736834 -0.11718072 -0.1643066 0.04721939 -0.014128827
-0.15037969 -0.010645428 -0.04743681 -0.084141046 0.076606214 -0.12454382 0.07402847 0.032445356
-0.06535012 -0.14709951 -0.04803875 -0.065166004 -0.17258865 -0.11028745 0.0672197 -0.1348252
0.03565946 0.08368924 -0.061392136 0.0008065847 -0.034304414 0.053986304 -0.12409459 -0.17492649
0.009867392 -0.07984345 -0.025809797 -0.124644674 -0.10614037 0.0027982078 -0.12645048 0.047858663
0.032233845 0.023954395 0.11847563 -0.15032679 -0.08572303 -0.062288992 0.026507031 -0.13542521
0.013361463 0.01593992 0.0017916608 0.013642441 0.07631767 0.08364476 -0.17123859 0.032454837
-0.102595925 -0.01983834 0.0751428 -0.0026583257 -0.08311372 -0.066533975 -0.016670058 -0.113111675
0.04169638 -0.07449731 -0.071421705 0.04318776 -0.11298958 0.0638348 -0.118543066 0.014713438
-0.14396538 -0.085410394 -0.101506546 -0.0415833 -0.13416861 -0.11630888 0.0506792 -0.07371026

node_function_neighbor.4.bias f4 [64]
00000000: 81b6 833e 8d60 01be 83f4 943c f308 b9bc
00000010: dc7d 0abb 3e25 fa3c 7c35 993d ad99 30be
00000020: 560d a6bd d390 09bd 6ea0 153e 90d3 4f3d
00000030: f495 883d db7b bc3d e7dc f33d 1826 803d
00000040: dd98 423d bc10 bbbc bf2c 743c 3ed1 dd3d
00000050: c9b3 28bd c61e 473e d5b0 b33d d30d c9bd
00000060: 8ed5 1a3e 153a 95bd 63c6 913d cd01 76bd
00000070: bc53 5ebd adaf 953d 09e6 bebd fe75 03be
00000080: b1d3 07bd 6b28 22be e9d8 91bd 1305 cdbb
00000090: b14e 173c d32e 553c d48e 2d3e cf33 733e
000000a0: 080a 8cbd 79dc 183d 64f2 2fbe 6ed6 fabd
000000b0: 00cc 48bc dbfa 063c cc8e e03d 150b 013e
000000c0: be9d 1e3d 2618 bcbd d87d e43c 63ab 8a3d
000000d0: 5a0d 83bd 0d1d 293e 9c52 053e 8fd6 8d3d
000000e0: 8b5b 17be 34c4 8fbd 8b90 5dbc 9e5f 1abe
000000f0: 558e a63d 7b74 833d 99de 85bc 331f 0d3e
0.25725177 -0.12634487 0.018182999 -0.022587275 -0.0021132147 0.030535337 0.074809045 -0.17246123
-0.081080124 -0.03358538 0.1461198 0.05073887 0.06669226 0.09203311 0.11907368 0.06257266
0.047509063 -0.022835128 0.014903246 0.108309254 -0.04118708 0.19445333 0.087739624 -0.0981709
0.15120527 -0.07286469 0.071179174 -0.06006031 -0.054279074 0.07308898 -0.093212195 -0.12837979
-0.03316087 -0.1583573 -0.071214505 -0.0062567084 0.00923507 0.013011652 0.16949016 0.23750232
-0.06837851 0.037319634 -0.17182308 -0.122479305 -0.012255669 0.00823852 0.10964736 0.12601884
0.038724653 -0.091842934 0.027892038 0.06770971 -0.06399031 0.16514988 0.13019794 0.069256894
-0.14781015 -0.07019845 -0.013523231 -0.15075538 0.081326164 0.06418701 -0.016341494 0.13781433

node_function_neighbor.6.weight f4 [4, 64]
00000000: 6346 ef3d 3621 c2bd d343 8fbc 2785 5ebc
00000010: 7412 8ebd 2b04 863d 653a e43d 17ed 84bd
00000020: a4dc feba 34c2 77bc 0075 7f3d 5f3f 02be
00000030: 0d1d b43d a31e 09bd 8359 eb3d 8760 1bbd
00000040: 63dd 6bbd 08c1 19bd 66c5 0b3c 2667 e93c
00000050: d0c5 2dbc 7b16 0d3e 1059 323d 0444 1abd
00000060: 9956 0c3e 0c18 e73b 95e5 6b3d ad06 3dbc
00000070: 8f07 e2bc 7e35 86bd e1b5 9cbc cfee 10bd
00000080: 5c33 203d c2e6 3abc dd71 0dbd 2548 91bd
00000090: c3c6 9f3c 60ed 89bd f008 003e bb64 aa3d
000000a0: 6c25 f43d 2921 aebd 8006 7abd e3ba 633d
000000b0: 9081 f7bd 6f0c 9ebc 23c1 ec3d 8abc 8e3d
000000c0: d45d ed3d 9f05 35bd a2a3 a53c 512d aabc
000000d0: d8ca 6ebe f834 113e 2fc8 e93d 2811 2b3d
000000e0: 9f68 c13c d6bb 37bc 5b36 0439 7865 b1bd
000000f0: 63ec 913c 3a73 e93d 15c8 083e f382 0f3e
00000100: 4660 513c 966c ff3d 06d6 34bd 981f ab3d
00000110: caf4 e43d f2c4 9dbd a619 cf3d 7da1 35bb
00000120: 31a6 69bd 84e0 80bd aa14 52bc 60f4 933d
00000130: 4fdf e53d 6770 04bc fb05 e2bb 8a14 17bd
00000140: 0e6c 2bbd aa77 84bb f432 a63d 7b8f f63d
00000150: 0c13 a73d 9ec2 b03d 69a4 713d c250 84bc
00000160: df88 3bbd 47fc 7f3d d645 ad3b 26f6 beba
00000170: f7b4 a83d da13 b53d a1f1 2bbb 705d 2dbd
00000180: a909 253d 7ad5 053e 0e9a c53c d80b c73d
00000190: 5a50 30bd c616 ed3d 4241 123e 4bad de3d
000001a0: 1b73 d33d e204 19bd 40a7 273e 93a5 cb3b
000001b0: f8a1 6c3d 4dfa 00bd d65a d43d f1e0 be3d
000001c0: 7b58 73bd ae28 58bd 9735 48bd 9be4 48bd
000001d0: 8c78 413c 94ba 31bd 53cb 10bd 1cb9 25bc
000001e0: 523e 9f3d 5a19 07bd 4df3 69bd 20b9 bc3c
000001f0: ec9b 54bd e31a e8bd ff72 d03c 795b 5a3c
00000200: 1bbf 983b ec1f ab3c 6d23 d5bd fe70 7f3d
00000210: 847f d63b 2b53 b13d f1a1 88bd dd8a 063d
00000220: f22d 023e 529e 46bd e85e 08bd e6cd 223d
00000230: af8f 50bd fe29 eabd 8ed3 83bd 8b9b fd3c
00000240: 2f44 9abd 996f d53d f27e dfbd e546 a33d
00000250: 049b c3bd 26ca a6bd 2e3a 8d3d d84b 36bb
00000260: 6082 d2bd 5763 64bd 4595 b83d 4440 5a3d
00000270: 9177 fb3c c409 d03d ff35 9a3d 0426 a2bd
00000280: c618 b43c b311 243e a060 973d 870e a6bd
00000290: 9faf 843d 93a3 a5bd 0330 e0bd 2336 03be
000002a0: 844e efbd 289b 9abd e811 bebd 1ed9 88bd
000002b0: e81f 1f3d 37ac 823d 30b7 6fbc 88d6 f33c
000002c0: 36c0 2a3d c9c7 0c3e 7a9e f93c 191c a9bc
000002d0: a71b e8bc 2e82 d1bd 5ce7 01bc 1111 113c
000002e0: 7e1e 3cbd 02ac f13d 93ac 6f3c 3464 a7bd
000002f0: fdd9 eebd a8f0 dcbc d9df 98bc a82d be3d
00000300: 5538 0bbe 1971 afbd 3f13 9abd 5dfe 0cbd
00000310: a8a3 c53d 908a 14bd 00c0 a4bd ff38 9a3d
00000320: aede e63d d41b db3d 39d2 a23d abfd 17bc
00000330: f333 953d 7d60 eebd f65b d7bd 4605 6ebd
00000340: 7010 c1bd a1d1 003d 9b2d fdbd 8fd7 6c3d
00000350: b2fc 973d 9628 90bd a890 99bd e282 493d
00000360: 9c8c d93c a0b0 993d 8ad9 8abd fcbf 23bc
00000370: 01b3 273d c2a9 74bc 557c 003d e5ae 37bd
00000380: e6b4 3d3d 8044 ee3c 0c4c 013e 372b 5bbd
00000390: 0f58 3bbd e1f8 173e a735 093c 7390 51bd
000003a0: 2fb2 8d3d ccb8 013e a7b8 07be 2585 073d
000003b0: 5806 67bd 79c8 b43d dd03 7d3d 7c40 adbc
000003c0: 505d b2bd a8d4 9d3d 8306 d2bc 6219 d8bd
000003d0: 9b7e 083e 8311 27bc 56e2 41bc de19 7f3d
000003e0: 5c39 ed3d da39 1abe 80ed 5bbd 834b 17bd
000003f0: 6520 9abd 65c2 7c3d 69d9 d73c c43e b2ba
0.11683347 -0.09478991 -0.017488396 -0.013581551 -0.069371134 0.06543764 0.111439504 -0.06490534
-0.0019444418 -0.015121985 0.06236744 -0.12719487 0.087946035 -0.033476483 0.114916824 -0.037933853
-0.057584178 -0.037537605 0.00853095 0.028491568 -0.010606244 0.13778107 0.043541968 -0.03766252
0.1370491 0.007052427 0.057591993 -0.011537236 -0.027591495 -0.065531716 -0.019129695 -0.035383996
0.03911148 -0.011407556 -0.034532417 -0.070938386 0.019503957 -0.06734729 0.1250341 0.08319994
0.119212 -0.085024185 -0.061041355 0.05559815 -0.12085259 -0.019293038 0.115602754 0.06969555
0.11590162 -0.044194814 0.020219628 -0.020773562 -0.23319566 0.14180362 0.11415135 0.04176441
0.023609458 -0.011214217 0.0001260875 -0.08661932 0.017812913 0.11398931 0.13357575 0.14014797
0.012779301 0.12471883 -0.04414942 0.083556354 0.11179502 -0.0770358 0.10112314 -0.0027714663
-0.057043258 -0.06292823 -0.0128223095 0.07224345 0.11224233 -0.008083439 -0.0068976856 -0.036884822
-0.041851096 -0.0040425854 0.08115187 0.120390855 0.0815793 0.0863087 0.058994684 -0.01615179
-0.045784827 0.06249645 0.005287866 -0.0014569208 0.08237641 0.08841677 -0.0026236551 -0.042325437
0.040292416 0.13069716 0.02412131 0.09719056 -0.04304538 0.11576609 0.14282706 0.10872897
0.10324689 -0.037358172 0.16372395 0.0062148063 0.057771653 -0.031488705 0.10368888 0.09320248
-0.059410553 -0.05277317 -0.048879232 -0.04904614 0.011808526 -0.043390825 -0.035350155 -0.010114934
0.077755585 -0.03298316 -0.057116795 0.023037493 -0.05190651 -0.11333253 0.02544546 0.013327473
0.0046614534 0.020889245 -0.104071476 0.062363617 0.0065459628 0.08658441 -0.06671513 0.032847274
0.12712839 -0.04849083 -0.033293635 0.03974714 -0.050918277 -0.114337906 -0.06436835 0.030957958
-0.07532536 0.10421676 -0.10912885 0.079725064 -0.09551051 -0.081440255 0.068958625 -0.0027816202
-0.10278773 -0.0557588 0.09012846 0.053283945 0.030696662 0.10158113 0.0752983 -0.07917407
0.02198447 0.16022377 0.07391477 -0.081082396 0.064788096 -0.0808784 -0.109466575 -0.1281362
-0.116848975 -0.07549125 -0.09280759 -0.06682037 0.038848788 0.063805036 -0.014631078 0.029765382
0.041687213 0.13748087 0.030471075 -0.02064328 -0.028333498 -0.10229908 -0.0079286955 0.008854167
-0.045927517 0.11800386 0.014628547 -0.08173409 -0.11662672 -0.026970223 -0.018661426 0.09286052
-0.13595708 -0.085664935 -0.07523202 -0.034422267 0.096503556 -0.036264956 -0.080444336 0.075304024
0.112729415 0.10698667 0.07950253 -0.009276788 0.07285299 -0.116394974 -0.10515587 -0.058110498
-0.09426963 0.031449918 -0.12362214 0.05782276 0.07421245 -0.07038991 -0.07498294 0.049197085
0.026556306 0.07504392 -0.067797735 -0.009994503 0.040942196 -0.014933052 0.031368572 -0.044844527
0.046315096 0.029085398 0.12626666 -0.05350801 -0.045738276 0.14841034 0.008374608 -0.051163148
0.069187514 0.1266815 -0.13254033 0.03308596 -0.056402534 0.088272996 0.061771262 -0.021148913
-0.08709204 0.077065766 -0.02563787 -0.105517164 0.13329546 -0.010197046 -0.011833748 0.06228053
0.11583206 -0.15061131 -0.053693295 -0.036937248 -0.0752571 0.061708827 0.026348786 -0.0013599028

node_function_neighbor.6.bias f4 [4]
00000000: dfbc cf3d 8ab0 28bc c976 17be 0f58 bf3d
0.10143446 -0.010295996 -0.14791407 0.09342968

edge_function.0.weight f4 [64, 4]
00000000: 4883 963e fa13 083d fcc7 d4be e48f 183e
00000010: 6a44 1abe 3d7e d63c 04b9 ebbe dbbe ab3e
00000020: c4b5 05be b0c0 08bd df40 d0be 9c34 c33e
00000030: b7e9 aabe 0357 0fbe a194 1a3d dbff ce3e
00000040: c11d 6bbe fbeb 533e 1a8c e63e f817 063d
00000050: 474c c93e d6ea b53e a210 f8be 84a3 b5be
00000060: 8e0d cbbe 5304 b1be a2e0 933e fd59 ecbe
00000070: 0814 c0be 0a93 82bd abd5 51be 1901 98be
00000080: e227 35be d72b aabe 2d52 eabe eecf 1fbe
00000090: 1664 44be f8e1 1b3e b950 8b3d b391 c9bc
000000a0: 82ff 40be dea2 813e becc e33e c75e db3e
000000b0: 7275 9bbc 12cf 863e 1c19 c13d 9b28 a43e
000000c0: 5524 01be f167 823e 4ab8 39be fd15 ac3e
000000d0: 0042 803e 9b2c c5be a178 d1be b338 923e
000000e0: cba2 8b3e e8b9 333a e727 c73e 4b4a 28be
000000f0: 9dcc b7bd afc1 283e 4fd4 813d 7dd4 6dbe
00000100: d025 b83e 0442 773e 5921 a0be 50e9 9c3e
00000110: 2aa3 aabd f876 7e3e 43d0 9dbe cb70 ca3e
00000120: 7861 853e e739 f7bd 1c21 413e fe6f c63d
00000130: 1854 6dbe 12c8 febc 47fd 0cbd 14e4 10be
00000140: 70ae 9f3d 9583 efbe 9b35 85be d4ee 653d
00000150: c6f4 4fbe 7eff 00bf 298b 37be 378d 50be
00000160: 7290 7a3e a9c7 7bbe 7d79 e3be 1e37 dc3e
00000170: efd9 e73e d82a 443d 32f0 acbe 1301 c23d
00000180: 1228 393e d13c f4be e66a 003e 32e6 f7be
00000190: 5aad c0bd dbf4 aabe e330 813e 9412 da3d
000001a0: 763f cabe 8ee6 f3be 133e cdbe cd00 c6be
000001b0: 47f3 a9bd c120 bbbe bfbf 403e 64db 7b3e
000001c0: 487a 703e d8a7 a73e 657a 6b3d 7e2b 943e
000001d0: 9520 fb3e 93f4 06be e8c5 aa3e aeea ab3e
000001e0: 67af b1bd c881 9f3e 7a9d c23e 423d e6be
000001f0: ae77 f4bc b179 d73e 7ea2 03be c944 debd
00000200: eb79 6b3e dbc8 953e 8eab 6e3d bfd7 b9be
00000210: 54ba 8fbe d1ab d23e f20f ec3c 13a4 20be
00000220: f551 1f3e bf1f 99be 238f 93be 67b0 353e
00000230: 78a6 bdbe f577 46be b873 c7bd 8a91 4c3e
00000240: faef 06bd 4caa 6dbd 8bd0 fb3e 3caa 2f3e
00000250: 056c 4c3e c81e 89be d6d9 c83e dcd9 e0be
00000260: f266 93bc 2174 6a3e 3c04 55be 6314 b63d
00000270: 65eb 7dbe dfb4 8e3e 6ba2 46be 0276 babe
00000280: 478d f0be 6c61 6b3e db06 d13e 19c0 85bd
00000290: 557a bebe 97ef c9be b8eb fabe e75b d63d
000002a0: c65c b0ba a814 13bd 5413 e7be 5bf4 a13d
000002b0: ee49 d1be 1512 033d 93fb b83e 0d44 d1be
000002c0: 9f31 60be 9513 fe3e de8e 8ebe 5c49 533e
000002d0: 6337 cdbe 267e f33c b432 353e e324 49be
000002e0: b263 c23e 00e2 03be b570 94be e526 80be
000002f0: 252d 503e 4a38 683e 25c5 033e 274b 89bd
00000300: 2369 fd3d 1de6 793e eb94 54be 8c39 673c
00000310: 5375 8f3d bf58 f8bb 6d55 89bc ad80 9b3e
00000320: aa13 97be 9f59 c6be 613b ae3c 4238 af3e
00000330: 66de 2fbe f8a1 893e 065d 613e 2568 f0bd
00000340: e921 97be 2d12 90bd 86e4 833e f36a e0bd
00000350: 574c 88be d2d1 81bd 10f7 0b3e c29c 8a3d
00000360: ee69 323e 2d96 8f3d 4948 613c 0aee 35be
00000370: 0a41 c33e cb4a ae3e f1f0 dc3e 3560 953d
00000380: e228 a0be 777e ce3b 5652 4b3e 2edd bf3e
00000390: 1d5b c3be 31ea 02bd adbb f4bd 0a8e c03e
000003a0: 9cda 92be 41cf 633e 9dbe 803c 39aa fc3d
000003b0: 4a1e dc3d 4b81 f0be 655a 983d 49ca ec3e
000003c0: 59dc b8be 7519 3a3d 8cb4 a83e 55a8 39be
000003d0: 0b6e 4abe 4443 91be cd98 cd3e f9cc 05bd
000003e0: 902c d23e ee01 09be 7cee 73be 2dea a63e
000003f0: ab14 d2be d9d1 3cbe b8b6 4f3e 339d 263e
0.29397035 0.033222176 -0.41558826 0.1489864 -0.1506516 0.026183242 -0.46039593 0.3354405
-0.1305762 -0.033386886 -0.40674493 0.38126075 -0.33381435 -0.13998036 0.0377394 0.40429577
-0.22960569 0.20695488 0.45028764 0.032737702 0.39316007 0.35530728 -0.4845019 -0.35476315
-0.3965878 -0.34573612 0.2888232 -0.46162406 -0.37515283 -0.06375702 -0.20491664 -0.29688337
-0.17690995 -0.33236572 -0.4576582 -0.15606663 -0.19178805 0.15222919 0.06802506 -0.024605608
-0.18847468 0.2531957 0.44492143 0.42845747 -0.0189769 0.26329857 0.09428617 0.3206223
-0.12611516 0.25469926 -0.18136707 0.33610526 0.25050354 -0.38510594 -0.40912345 0.28558883
0.2727264 0.00068560103 0.3889763 -0.1643459 -0.08974574 0.16480134 0.06339323 -0.23225589
0.3596635 0.24146277 -0.31275442 0.30646753 -0.08331902 0.2485007 -0.30822954 0.3953918
0.26050925 -0.12071591 0.18860286 0.096893296 -0.2317661 -0.03110126 -0.03442123 -0.14149505
0.07796943 -0.46780077 -0.2601746 0.056135967 -0.20308217 -0.5038985 -0.17924179 -0.20366369
0.24469164 -0.24587883 -0.44428626 0.430108 0.45283458 0.04789242 -0.33777004 0.09472861
0.18081692 -0.4770265 0.12540779 -0.48417813 -0.09408064 -0.33389935 0.2523261 0.10648075
-0.39501542 -0.47636837 -0.4008642 -0.38672486 -0.082983546 -0.36548427 0.18823145 0.2459541
0.23484147 0.32745242 0.05748977 0.28939432 0.49048296 -0.13179235 0.33354115 0.33577484
-0.086760335 0.31153703 0.3801077 -0.4496861 -0.029842224 0.4208503 -0.12854955 -0.108529635
0.22995727 0.29254803 0.058269076 -0.36297414 -0.28071845 0.4114671 0.028816197 -0.1568759
0.15558608 -0.29907033 -0.28820142 0.17743073 -0.37041068 -0.19381697 -0.097388685 0.19977394
-0.032943703 -0.058023736 0.49182543 0.17154783 0.19963081 -0.26781297 0.39228696 -0.43916214
-0.017993424 0.22895862 -0.20802397 0.08890607 -0.24796827 0.2787237 -0.19397895 -0.36418158
-0.46982786 0.22986382 0.40825543 -0.0653078 -0.37202707 -0.39440605 -0.49007964 0.10466748
-0.0013455383 -0.03590837 -0.45131934 0.07907935 -0.40876716 0.031999666 0.36129436 -0.4087223
-0.21893929 0.49624315 -0.27843374 0.20633453 -0.4008132 0.029723238 0.17695123 -0.19642977
0.37966686 -0.12879181 -0.2899224 -0.25029674 0.20329721 0.22677723 0.12868173 -0.06703787
0.12373569 0.24404188 -0.20759933 0.014112841 0.070048 -0.0075789387 -0.016764367 0.3037161
-0.2950719 -0.3874025 0.021268548 0.3422261 -0.17174682 0.26881385 0.22008142 -0.11738614
-0.2951806 -0.07034717 0.25760287 -0.10957899 -0.26620743 -0.06338848 0.13668466 0.067681804
0.17423221 0.07011066 0.013750144 -0.17766586 0.38135558 0.34041438 0.43152574 0.07293741
-0.3128119 0.006301697 0.19855627 0.37473434 -0.3815545 -0.031961624 -0.11949859 0.37608367
-0.2868241 0.2224703 0.015715891 0.12337155 0.10747965 -0.46973643 0.074391164 0.4624808
-0.36105612 0.045434434 0.32950246 -0.1813062 -0.1976854 -0.28371632 0.4015564 -0.03266618
0.41049623 -0.13379642 -0.23821443 0.32600537 -0.41031393 -0.18439426 0.20284545 0.16270904

edge_function.0.bias f4 [64]
00000000: b61e b5be d0ba f03e 939d c1be 863b 1abd
00000010: 62e6 79be 5fec aebd d20a 7dbe be77 c7be
00000020: 7a4d 4e3d 941c c63e bf8d e63e 61fb c1be
00000030: 386a 203c 93f1 453d f1d8 52bd ea79 493e
00000040: 6267 c13d b90d 1ebd 0b8b e1bc 2878 9ebe
00000050: 8822 efbe 8ff2 1e3d c651 9dbe fd38 e93e
00000060: 2f19 4dbe 19ef 9fbe 946f efbe cfc6 96be
00000070: ea03 c23d ada4 aebe c58d ca3d 1a93 cc3e
00000080: 382b a13e 40bb a03e 4b01 82be 984f 5dbe
00000090: 17f2 a73e e5e6 c43e 1081 e7bc e038 69be
000000a0: a342 d33e e359 e63e 87ce 35bd 7ad8 67be
000000b0: dc1e f5be be19 223e d1f1 033f 6f92 c1be
000000c0: a649 563e 9aac 893e 3e30 633e 1781 a03e
000000d0: 19d4 09bf 66f7 ef3e 2fb2 853e 1c2b ca3e
000000e0: 59e9 803e 3050 b63d 9017 533e 1a02 803d
000000f0: 07ca f5bd 4b45 c2be 13c7 8b3e c8d1 babe
-0.35374993 0.47017527 -0.37815532 -0.037654422 -0.2440429 -0.08541178 -0.24711159 -0.38958544
0.050366856 0.38693678 0.4503002 -0.378871 0.0097909495 0.048326086 -0.051476423 0.19675413
0.09443547 -0.038587306 -0.027532121 -0.30951047 -0.46706033 0.03880554 -0.3072645 0.4555129
-0.20029138 -0.31237105 -0.46764815 -0.29448554 0.09473403 -0.34110013 0.09890322 0.3995598
0.31478286 0.3139286 -0.2539161 -0.21612394 0.32801887 0.3845741 -0.028259784 -0.22775602
0.41261777 0.44990453 -0.044386413 -0.22641173 -0.47875106 0.15830132 0.5154086 -0.37807032
0.20926532 0.26889497 0.22186372 0.31348488 -0.5383926 0.46868438 0.26112506 0.39486015
0.2517803 0.08902013 0.20614457 0.06250401 -0.12001424 -0.3794349 0.2730032 -0.36488175

edge_function.2.weight f4 [64, 64]
00000000: 64c4 ae3b 030e e13d 5ff2 8bbc 6a2c 9cbd
00000010: 879a 0ebe 7fdc a73d 7395 64bd f354 c83d
00000020: 6d4c 95bc 3fc2 d53d 0900 873d ee52 dcbb
00000030: 5b10 4cbc c978 c2bb d7eb 80bd 964f db3d
00000040: b25a 2dbb 054c 9a3c dadc 2cbd 2ec3 e6bd
00000050: b0a5 17bd a9d3 f2bc 1da7 c0bd 7711 67bd
00000060: 0e01 90bd 20b7 b5bd 5d4b d2bd 085c 713d
00000070: 6902 a1bd 85cb 16be bc16 293d 15cd 6abd
00000080: 0094 903c 9b6b 9fbd f854 573d 1627 6e3d
00000090: 0865 00be b022 3abd cb26 263c 8328 50bd
000000a0: 548b fbbd ee62 9a3d de8c f1bd d826 a5bd
000000b0: 92d5 df3d 2c82 8d3c b6b0 d63c c01b ebbd
000000c0: 3156 1fbd 142a cd3c 71bf 813d 5398 dd3d
000000d0: a366 493d ea94 b7bd 6609 c9bb 6acf 30be
000000e0: 71ae 99bd 0098 c33d 2f0b e03d 452c 173d
000000f0: 308d 343d 89f8 08be fa4b 38bd 2530 17bd
00000100: 9499 cb3d 0d9b e0bd ab3c d4bc c0bb d5bd
00000110: 4767 66bd 3e31 c0bd b1b3 9cbd 0367 e0bd
00000120: 5487 15bc 941a bb3c a532 af3d 87e4 963d
00000130: 8bdb 983d 34b2 f1bc 9e73 5b3d f84f 423d
00000140: dce3 4c3d f490 843d ec64 0c3e e9c9 883d
00000150: f892 91bd d0e3 e5bd 58a0 363c a162 4b3d
00000160: 03e7 e5ba 8700 033e 2c17 ed3d 9a33 c4bd
00000170: 0d3a f93d a0a8 013e 7381 b2bc a8df 0cbe
00000180: 18f8 e0bd c359 16be 25b6 163c 6e8e 2fbd
00000190: c979 133e be05 ff3d eb2f c83d 2b3f c23d
000001a0: 7f0a 7d3d 18f7 cebd c966 483d 55ab 0dbe
000001b0: 76c2 90bd 315d ffbc 5285 653d f869 b83c
000001c0: 3fc7 53bd 5655 60bd 5158 3b3d 38af 87bd
000001d0: f9c7 42bb cfa0 ff3c a1c3 b73d d96b 0f3d
000001e0: 9002 55bc d51c 18bd 7b01 973d fd91 a13d
000001f0: cf93 babd 72df d7bd d384 d8bc c085 013d
00000200: c878 6c3d 0cec dbbd 7013 31bc a2e4 b1bd
00000210: 2af0 98bd 8088 d2bc a0bc ab3c 7c93 c4bd
00000220: d88e b9bd 7025 3dbc 9a45 bb3d 40b1 8a3b
00000230: d071 51bc fc9d cbbd f0df f4bd b0a2 bdbc
00000240: 0021 a23c 3a80 8ebd 0018 fe38 0068 ecb8
00000250: daf9 fd3d 50dd 9d3c b6d6 fcbd f8fe 263d
00000260: 3254 86bd 0e6a 8abd 8ed8 dfbd b42e d33d
00000270: 5425 593d f84d b23c 584e aebc 6834 0d3d
00000280: 9632 82bd e8aa d83d 184e fb3c f012 51bc
00000290: 141a e3bd f4ed e43d 2ce8 9abd f6a0 ab3d
000002a0: 7240 e8bd 884d 26bd d69f 94bd 1a9a 843d
000002b0: a896 fdbd 68c7 8cbd d4d1 f9bd 986e 9abc
000002c0: f8f6 da3c 70ab d4bd 2031 b7bc 6807 bcbd
000002d0: 808a 1bbb 72fe 87bd 488e 3c3d 141e 78bd
000002e0: be84 9abd d84b ffbd 3409 d3bd 12ed d8bd
000002f0: f8dc 9abc 60f6 eabd 4025 cdbd 5cd5 633d
00000300: 5603 973d 2cc1 9e3c 1b7e febd d1ea ba3d
00000310: 579c 87bc ef84 6d3b a99f 51bc 974a df3c
00000320: b432 b23d 5f16 103e 7b93 753d b592 0abc
00000330: ac0d 16bd 2ce2 5b3d 5736 24be 729f 573d
00000340: 01bf 0ebe 06fa bebc c10e 6e3d 1904 6b3d
00000350: deb6 09be 1c7c a73d ef5a 8abd b7a1 02be
00000360: 104d 25be c74b 8c3d 33c5 e73d 14aa e9bb
00000370: 9f96 51bd 01f4 a9bc ea1a 14bd 8f2a 483d
00000380: 737e 753d a698 c03d c356 fcbc 1921 dc3c
00000390: c880 c13b 2339 8abd fd35 0b3d cc95 11bd
000003a0: 25a9 0a3e f590 453c f48d debc fbe4 5abd
000003b0: 0f02 f53d 9f7c fa3d 5417 f3bd eac8 a9bd
000003c0: 76c4 563d a934 e2bd d6f3 063d ae9f 84bd
000003d0: d803 69bd e558 5fbd 75c3 933d c105 2dbe
000003e0: 897a e9bd 174f 043c 530f 46bd 24c4 93bd
000003f0: 09d7 94bd 0597 10bd 407e 73bd ea54 62bc
0.00533347 0.10989001 -0.017083345 -0.07625659 -0.13926135 0.08196353 -0.05580659 0.09781828
-0.01822492 0.1043744 0.065918036 -0.006723753 -0.012455071 -0.005934809 -0.06294983 0.10708539
-0.0026451764 0.018835077 -0.042202808 -0.11267696 -0.037023246 -0.029641943 -0.09406874 -0.05641314
-0.07031451 -0.08872819 -0.10268281 0.05892566 -0.07861788 -0.14726074 0.041281447 -0.057324488
0.017648697 -0.07784196 0.052571267 0.058142744 -0.1253854 -0.045443237 0.010141085 -0.050819885
-0.12282434 0.075384006 -0.117944464 -0.080640495 0.10929407 0.017273985 0.02620731 -0.11479902
-0.038900558 0.025044478 0.06335343 0.10820069 0.049170148 -0.0896395 -0.0061351536 -0.17266622
-0.07503975 0.09550476 0.10939633 0.036907453 0.04407996 -0.13376059 -0.044994332 -0.03691115
0.09941402 -0.109670736 -0.025907835 -0.10436201 -0.056250837 -0.09384392 -0.07651461 -0.10957148
-0.009126503 0.022839822 0.085545816 0.07367807 0.074637495 -0.02950392 0.053577058 0.047439545
0.05002199 0.0647296 0.13710374 0.06679136 -0.0710811 -0.112250924 0.011146627 0.049654607
-0.001754016 0.1279317 0.11576685 -0.09580155 0.121692754 0.12661982 -0.021790242 -0.13757193
-0.1098482 -0.14682679 0.0091987 -0.04286044 0.14401926 0.12452267 0.097747646 0.094847046
0.061777588 -0.10105723 0.04892615 -0.13834889 -0.070683405 -0.031172367 0.056035347 0.022511467
-0.051703688 -0.054768883 0.045738522 -0.06625217 -0.0029721244 0.03120461 0.0897286 0.03501496
-0.013001099 -0.03713687 0.07373329 0.07889173 -0.091102235 -0.10540666 -0.026430523 0.031621695
0.057732373 -0.10738382 -0.010807857 -0.086861864 -0.07467683 -0.025699854 0.020963967 -0.09598443
-0.090604484 -0.01154457 0.09144135 0.0042325556 -0.012783483 -0.099422425 -0.11956775 -0.023148865
0.019791126 -0.06958051 0.00012116134 -0.000112727284 0.12401171 0.01927057 -0.1234564 0.0407705
-0.06559028 -0.067585096 -0.109299764 0.10311642 0.053014114 0.021765694 -0.021277592 0.034473807
-0.06357305 0.10579473 0.030676886 -0.012760863 -0.110889584 0.111781985 -0.075638145 0.0838031
-0.11340417 -0.040601283 -0.07257049 0.06474705 -0.12382251 -0.06873971 -0.12198225 -0.018851563
0.026729092 -0.103842616 -0.022362292 -0.091811 -0.0023733675 -0.066403285 0.046034127 -0.06057556
-0.0754485 -0.12465638 -0.1030449 -0.105920926 -0.018904194 -0.114727736 -0.100168705 0.055623397
0.07373683 0.01937922 -0.124263965 0.09126819 -0.01655404 0.0036242565 -0.012794414 0.027257247
0.08701077 0.14071034 0.0599551 -0.008457829 -0.036634132 0.05368249 -0.16036354 0.052642293
-0.1394005 -0.02331258 0.05811954 0.057376955 -0.13448665 0.08177969 -0.067556255 -0.12757002
-0.16142678 0.06850391 0.1131691 -0.0071308706 -0.051169034 -0.020746233 -0.03615848 0.048868712
0.059935044 0.094041154 -0.03080309 0.026871251 0.0059052445 -0.06749179 0.033987034 -0.035543248
0.13541086 0.012058486 -0.027167298 -0.05344103 0.11963283 0.12230801 -0.11869684 -0.082902744
0.052433454 -0.110452004 0.032947384 -0.06475769 -0.05688843 -0.054528136 0.07215015 -0.16896726
-0.11400325 0.008075497 -0.048354458 -0.07215145 -0.07267577 -0.035300273 -0.059446573 -0.01381419

edge_function.2.bias f4 [64]
00000000: cb23 173d 8a92 f8bc b80d a0bc 7e1e bdba
00000010: 5312 843b 1600 97bd a84e 753d ad2a 13be
00000020: f979 16be 56cd 29bc 24a2 883d 519c 92bc
00000030: a72a 0cbd 9ad3 27bd 5cc9 6fbd ccaf b23c
00000040: a5d2 db3d 784b 14be 4e28 e3bd 48c7 3dbd
00000050: 0fc9 12ba ab34 303d 4792 b53d e721 123e
00000060: 2df0 75bd d7fb 1abd 0d51 d53d b9f1 593d
00000070: a562 5ebc 6608 aabc d986 07bd 5eb5 253c
00000080: ebc4 8bbd dde2 adbd 15ad 833d 33b4 38bd
00000090: 2b83 07be fe31 bb3d c8b0 993d 5b59 24be
000000a0: 98fe 693d bae0 4e3d 7af2 41bd 8982 04bd
000000b0: 8123 39bb ed0a a3bd ccb5 38bd c513 d3bd
000000c0: c0e2 d93c 650d 8ebd aa01 1bbe 98af 67bd
000000d0: dd98 14bd 4a1b 0dbe 675a 00bd 481d ad3d
000000e0: 6281 af3d a4a0 b8bd bd24 1c3c 8e14 dcbc
000000f0: c8f9 fdbd a484 2c3b 3b43 ea3d 7ec7 96bd
0.03689937 -0.030343313 -0.019537792 -0.0014428643 0.0040305047 -0.07373063 0.059889466 -0.14371748
-0.14694966 -0.010363897 0.06671551 -0.017896803 -0.034220364 -0.040973283 -0.05854164 0.021812342
0.10733537 -0.14481914 -0.11091672 -0.046332628 -0.0005599418 0.043018978 0.08865791 0.14270745
-0.060043503 -0.03783783 0.1041585 0.05320904 -0.013573323 -0.020755958 -0.033087585 0.010114042
-0.068246685 -0.08490536 0.06429497 -0.045093726 -0.1323363 0.09140395 0.075044215 -0.16049711
0.057127565 0.050507285 -0.047350384 -0.03235105 -0.0028249922 -0.07961068 -0.04509525 -0.10306505
0.02659738 -0.069361486 -0.15137354 -0.056563944 -0.036278594 -0.13779941 -0.031336214 0.084528506
0.085696 -0.09015015 0.009530243 -0.02686527 -0.124011576 0.0026324177 0.114386044 -0.07362269

edge_function.4.weight f4 [64, 64]
00000000: eda6 32bd 90c0 d33c 689e 7a3d 8d85 ab3d
00000010: 498c a0bd 1878 cb3c fda6 b03d 1c51 22bd
00000020: 83bd 023d d067 b73d dc81 3a3d 5c8e 8cbd
00000030: e8b6 0cbd 24dc ac3c c5cb 76bc 2010 f1bd
00000040: f713 57bd 325b cc3c 27f0 13be 8c2b 08be
00000050: bead 65bc 00ec 50bb 88bd 7ebd 82c2 b83c
00000060: 4fcd 573b 8bca c8b9 3523 b93d 5b76 abbd
00000070: 19a6 04be 7949 603c 3331 b93d 12ed db3d
00000080: 2006 2ebd 1ab3 1dbd 857b 3fbd ec93 f13c
00000090: 746a 1d3d ffc9 dcbd c445 2bbd ad30 efbd
000000a0: 3a0d 19be 8153 43bb 30de 05bd 3a5d 25be
000000b0: 0f5d e73c c8d2 5d3d 9fab 273d 000a dfbc
000000c0: 3727 d1bc 33b3 78bd a45e 1d3d bb46 0d3e
000000d0: dba5 e4bc fcbe ffbd cae3 c2bd ca3b 7b3d
000000e0: 70e7 02bd f740 b2bd 4794 74bc a058 b73c
000000f0: 8006 893a a3e6 16bd ae8f 3abc aa82 7cbc
00000100: ed5c 5cbd 104e fb3d 80a3 5cbd b114 3bbd
00000110: fd71 37bd 1033 aabc d637 123d e9ab 77bd
00000120: 705b 25bd d8a2 9bbb 0e89 783d 2e5d d8bd
00000130: 46a1 d4bd 2a18 ca3d 81f5 21bd 09c9 7a3d
00000140: ca14 06be ebbd b93d 7000 a7bc a44c 3ebe
00000150: 0d54 11bd 98d0 edbd 8bf6 003d 41fc 9b3d
00000160: f59e cabd 4703 c23d e8dc 3bbd 2e7a bbbb
00000170: 2c35 a6bd 29dc 143e 322d b7bc d9b7 e63c
00000180: 919a fabc 7c7a 193e 1c04 b0bc 187d c63d
00000190: 43c2 f8bd a9ad 7b3d ac92 d4bc 91d5 e33d
000001a0: 0370 a73d 1901 0f3e bfb9 abbd 2c47 a13c
000001b0: 5b50 c7bd 49f8 ad3c 6fd4 a8bd 4e59 06bd
000001c0: cf08 91bd 6723 3bbd e02c d63b eaf1 4e3c
000001d0: e5fb a7bd d78c 35bd 559c 9a3d ed49 e9bd
000001e0: 1c1b 063e 3022 ee3d 4b16 123a 08b7 f53d
000001f0: fc48 63bd 3de3 1bbe 6e63 75be cc48 ecbb
00000200: f27b 5cbd d326 9bbd a0e8 01bd 34ba 13bd
00000210: b6aa 8bbb d876 86bc e3c2 da3d 1575 e4ba
00000220: 0857 c93c 6258 383b 0c97 93bd 1c97 eb3c
00000230: d8e8 8dbd 8cf3 54bc 151e 5c3d 7a49 53bc
00000240: fb96 6f3d c375 dfbd 3d39 663d 11bb b03d
00000250: 2c0d 49bd fbb0 9d3c c113 d93c d6dd 333c
00000260: e1af 2fbd c002 87bc 762f abbd 9118 d83c
00000270: 1de2 2c3c 00bf 053d ff9b d93c b8d4 0bbe
00000280: 0459 90bd b6a4 b7bd feb1 cfbc 5261 56bd
00000290: 6097 a3bd b324 aabc 2db5 ecbd 8ab4 033d
000002a0: d9d9 13be d5e4 1fbe 7ba1 763d c26f b33d
000002b0: 318c 22bd a7e4 873d 8b0c 21be 5b3e ad3b
000002c0: 2034 c93d 7dbf aebd a69b 15bd b6e0 c8bd
000002d0: 754f 80bd ede8 2cbd af6c 833d e73e 8fbd
000002e0: c90b dabc 40b5 033e 6462 923d 4364 6cba
000002f0: c0c8 c6bc a0a2 463d f262 cf3d 0a76 8f3d
00000300: a3d4 eb3b 478a 0fbd 14ce f73d ebb7 adbd
00000310: 4a09 16be 0099 6c3b f760 c7ba 33bd 0cbe
00000320: 641b bcbd 0602 25be 1321 0cbc 0186 01bd
00000330: 57cf bc3d fdec c03b bcd2 90bd fb1e d0bd
00000340: b0ed 813d ee79 ca3d 1494 3abd 127b 9a3c
00000350: aed5 e33d 43a0 f83a d789 02be 4a32 a3bd
00000360: 439c 20bd dc90 afbd 7547 89bd c7df 0a3b
00000370: 5ff5 9d3d f84b f2bd 7eec a9bc 7cc7 63bd
00000380: 2af3 d43d fcbf d4bd 8dea c33d 53fa a53d
00000390: 2f22 83bd 9697 383d 610c 08be 122b fe3d
000003a0: ffbb 88bd a26a f63d 3dc2 b13c 207d ac3c
000003b0: 25d7 07bd d08e 40bd 493c 083c 51aa a93d
000003c0: 88af 953d 8be5 e3bd f717 ae3d a511 4b3c
000003d0: 1cb9 ca3b bb39 e83d b248 3bbd f475 f13d
000003e0: b4f4 fdbd 0163 0abd 1bf4 48bd 7f33 2fbd
000003f0: 6880 413d b8e8 d33d 967b a6bd 6d30 dfbd
-0.043616224 0.025848657 0.061186224 0.08375082 -0.07839257 0.024837539 0.086256005 -0.039628133
0.031919014 0.089553475 0.045534 -0.068630904 -0.03435412 0.021101065 -0.015063231 -0.11770654
-0.052509274 0.024945829 -0.1444708 -0.13297862 -0.014018474 -0.0031878948 -0.06219247 0.022553686
0.003292877 -0.0003829788 0.09039918 -0.08372184 -0.12953986 0.013689392 0.09042587 0.10738577
-0.04248631 -0.038500883 -0.046748657 0.02948948 0.0384316 -0.10780715 -0.04181458 -0.11679206
-0.14946452 -0.002980441 -0.032682598 -0.16148844 0.028242616 0.054156095 0.040935155 -0.027226448
-0.025531394 -0.060717773 0.038420334 0.13796513 -0.027911117 -0.12487599 -0.095161036 0.061336316
-0.031958997 -0.08703797 -0.01492793 0.022381127 0.0010454208 -0.036841046 -0.011386795 -0.015412012
-0.05379956 0.122707486 -0.053866863 -0.04567403 -0.044786442 -0.020776302 0.03569778 -0.06046668
-0.040370405 -0.004749637 0.06067758 -0.105646476 -0.10382323 0.0986789 -0.03954077 0.06122688
-0.13093868 0.09069427 -0.02038595 -0.18583924 -0.035480548 -0.11612052 0.03148512 0.07616473
-0.098936 0.09473281 -0.04586497 -0.005721352 -0.081156105 0.1453711 -0.022360418 0.028163837
-0.030591281 0.1498813 -0.021486335 0.096918285 -0.121464275 0.061444912 -0.025948845 0.11124719
0.081756614 0.13965262 -0.08385038 0.019687258 -0.097321235 0.021236556 -0.082436435 -0.03280001
-0.07081758 -0.04568806 0.0065361112 0.012630919 -0.08202342 -0.04432377 0.07549349 -0.11391053
0.13096279 0.116276145 0.000557278 0.11997801 -0.055489525 -0.15223403 -0.2396371 -0.0072108265
-0.05382914 -0.075757645 -0.03171599 -0.03606625 -0.0042622937 -0.016414091 0.10681703 -0.0017429913
0.024577633 0.0028128852 -0.07206544 0.028758578 -0.06929177 -0.012997519 0.053739626 -0.012895936
0.058493596 -0.10911133 0.05620693 0.0862943 -0.049084827 0.01924943 0.026498677 0.010978183
-0.04289234 -0.016480803 -0.08358662 0.026378902 0.0105519565 0.032652855 0.026563643 -0.13655365
-0.070482284 -0.08966963 -0.025353428 -0.052338906 -0.07987857 -0.020769453 -0.11557994 0.032154597
-0.14438571 -0.15614636 0.060212594 0.087615505 -0.03968448 0.06635409 -0.15727441 0.0052869744
0.09824395 -0.08532617 -0.03652539 -0.09808485 -0.06265155 -0.042214323 0.06417214 -0.069944195
-0.026616948 0.1286211 0.07147673 -0.00090176257 -0.024265647 0.048494935 0.10126294 0.07004936
0.007196979 -0.03504398 0.12099853 -0.08482345 -0.14651981 0.0036101937 -0.0015211393 -0.13744049
-0.09184912 -0.16114053 -0.008552807 -0.031621937 0.092192344 0.005887626 -0.070714444 -0.10162159
0.063441634 0.098865375 -0.045551375 0.018857513 0.111247405 0.001896866 -0.12747894 -0.07968576
-0.039211523 -0.085725516 -0.067030825 0.002119051 0.077128164 -0.11830896 -0.020742651 -0.055610165
0.10397942 -0.103881806 0.095662214 0.08104386 -0.064030044 0.04506644 -0.13285972 0.12410559
-0.066764824 0.12032057 0.021699065 0.021055758 -0.033164162 -0.047011197 0.008315154 0.082844384
0.073088706 -0.11127766 0.08500665 0.0123943435 0.0061866175 0.11339136 -0.045723625 0.11790076
-0.12400189 -0.033785824 -0.049060922 -0.04277372 0.0472416 0.10347122 -0.08129041 -0.10897908

edge_function.4.bias f4 [64]
00000000: cee0 f7bd 0863 cc3d d89b 123b 0316 4c3d
00000010: ec0d e73b 2589 583d 3575 f73d 74aa e1bc
00000020: 740d 593d 2251 1cbd b356 f23c 3ef8 873d
00000030: a451 1dbd dd9d f73b 11e8 25be 386c 40bd
00000040: 56d2 54bc 4d3a a8bd fad5 163e 40b7 dc3d
00000050: dfc9 203d 2f57 58bd 9505 63bd ab8d b0bd
00000060: 239e 203e 5177 7f3d 180a 9dba 5d5f 47bd
00000070: fe9f 763c 5fb5 3b3e 7e2e 4e3d 16eb 733d
00000080: 2f37 593e 0377 cc3d 1441 58bd ba43 b6bd
00000090: 8ced 8a3d 7635 b7bd 0dc8 11bc 0f0f 1e3d
000000a0: 26f4 363e 847f e13d 5573 fc3d c24e cc3d
000000b0: e52b 22bd 8b6c 10bc 9f38 70bb 286e 9c3e
000000c0: 0621 9abb 865e 783d c6a2 debd 6620 963d
000000d0: b295 b03d 24d1 b23d 1ade 343d 199c 473d
000000e0: 736f bf3d b02c 19be e408 103d 2373 4c3e
000000f0: 8838 1cbc f4bc 29bd eab4 c1bd c786 15be
-0.12103425 0.09979826 0.0022370722 0.04982568 0.00705122 0.052865166 0.12082902 -0.027547099
0.052991346 -0.03816331 0.029582357 0.06639145 -0.038407937 0.0075566606 -0.16201808 -0.046978205
-0.012989601 -0.08214245 0.14730063 0.1077714 0.03925502 -0.05281752 -0.055425245 -0.08620771
0.15685324 0.06236965 -0.0011981158 -0.04867493 0.015052794 0.18330906 0.050337307 0.059550367
0.21212457 0.09983637 -0.05279644 -0.088996366 0.0678359 -0.08945744 -0.0088977935 0.03858858
0.17866573 0.1101065 0.12326685 0.09975959 -0.039592642 -0.008814941 -0.0036654843 0.30552793
-0.0047036437 0.06063702 -0.1087089 0.07330398 0.08622302 0.08731297 0.044157125 0.04873285
0.09347429 -0.14958453 0.03516473 0.19965796 -0.0095349625 -0.041439965 -0.09458335 -0.14602195
