Projects/GuoxiangGrayson_T_A study of multi-fidelity graph neural networks/Model_save/Quarter2D/Rank=72-GNN-nB-64-Lr-0.005/model.pth (torch, 114781 bytes, 24 tensors)

node_function_neighbor.0.weight f4 [64, 2]
0	0xbeda4d82	-0.4263726
1	0xbd92f55c	-0.07175705
2	0xbe4f1b7f	-0.20225333
3	0x3d9bef9d	0.07614062
4	0xbe79d696	-0.24398264
5	0xbf185c33	-0.59515685
6	0xbe90ba61	-0.28267196
7	0x3f0bd64f	0.54623884
8	0x3e5bab28	0.2145201
9	0x3f004eac	0.50120044
10	0x3c8bbb71	0.017057152
11	0xbee21b55	-0.44161478
12	0x3f118832	0.5684844
13	0xbd93c88f	-0.07215988
14	0xbf21af54	-0.63158154
15	0xbeb462c1	-0.35231593
16	0xbeef1dc2	-0.4670239
17	0xbd6594af	-0.05605
18	0xbe182cae	-0.14860794
19	0xbda86ad7	-0.08223503
20	0x3e12fe9a	0.14354935
21	0x3e22239d	0.15833898
22	0x3dad4934	0.08461228
23	0xbe1ca0fc	-0.15295786
24	0xbda58115	-0.08081261
25	0xbf1f6f40	-0.6227913
26	0x3eaddc7f	0.33957288
27	0xbf2fedd3	-0.68722266
28	0xbde303c4	-0.110847026
29	0xbf257c6f	-0.64642996
30	0xbea4031a	-0.32033616
31	0xbf114f9a	-0.5676209
32	0x3ef0c019	0.4702156
33	0xbee9f89f	-0.45697495
34	0xbe23af9e	-0.15984961
35	0x3f0e0902	0.55482495
36	0x3d9e0bca	0.07717092
37	0xbec3f794	-0.38274825
38	0xbe994c82	-0.29941183
39	0xbe0d8c88	-0.1382314
40	0xbf1598c4	-0.58436227
41	0xbf10df34	-0.5659058
42	0xbe73e4b6	-0.23817715
43	0x3e7cf023	0.2470098
44	0xbf28d0be	-0.65943515
45	0x3ea2ca62	0.3179503
46	0xbedd309c	-0.4320115
47	0xbd63aaae	-0.055582695
48	0xbdb02693	-0.086011074
49	0xbef88c9b	-0.48544773
50	0xbc91d0f3	-0.01779983
51	0xbd0bf448	-0.03416851
52	0x3f0745db	0.52840966
53	0x3d83bae8	0.06432134
54	0xbe9f3024	-0.31091416
55	0xbd1314cf	-0.035908516
56	0x3e4b1d47	0.19835387
57	0xbea7d683	-0.32780847
58	0xbf077554	-0.52913404
59	0x3f031773	0.51207656
60	0x3f039674	0.5140145
61	0x3e714ae0	0.23563719
62	0xbf1aa1a1	-0.60402876
63	0x3e87baed	0.265098
64	0xbe0afa68	-0.13572085
65	0x3f17e239	0.59329563
66	0xbe6fe781	-0.23428155
67	0xbf03f42b	-0.51544446
68	0x3efc5be3	0.49288854
69	0x3ec184a2	0.37796503
70	0x3ddf1938	0.10893482
71	0xbf15d68a	-0.58530486
72	0x3f1e2859	0.61780316
73	0xbdffa8ba	-0.12483354
74	0xbeae6f32	-0.3406921
75	0x3ea519f8	0.32246375
76	0xbe626041	-0.2210703
77	0x3f0d4e79	0.55197865
78	0xbf28e529	-0.6597467
79	0x3ef7ebe6	0.48422164
80	0x3d46b051	0.048507992
81	0x3e74664e	0.23867151
82	0xbf2794c3	-0.6546137
83	0xbeb8837b	-0.36037812
84	0xbddaa1da	-0.10675402
85	0xbea57cd6	-0.32321805
86	0x3ea639a1	0.32465842
87	0xbd5e6a0e	-0.05430036
88	0xbf28b9bb	-0.659084
89	0x3f08369e	0.5320834
90	0x3e99d5ea	0.30046016
91	0xbe99eff9	-0.30065897
92	0xbf19245e	-0.59821117
93	0xbe2475bd	-0.16060539
94	0xbec51f14	-0.38500273
95	0x3e5df517	0.21675526
96	0xbf07b053	-0.53003424
97	0x3eb3a35c	0.3508557
98	0xbe33c410	-0.1755526
99	0xbe925153	-0.2857767
100	0xbedf8ccb	-0.43662104
101	0xbe9671f1	-0.29383805
102	0x3e4d1d65	0.20030744
103	0x3f0c9345	0.54912215
104	0xbec848f9	-0.39118174
105	0xbed8d979	-0.42353418
106	0xbf0da706	-0.5533298
107	0xbec848fb	-0.3911818
108	0x3f03432d	0.5127438
109	0x3f20cd34	0.62813115
110	0xbe557cc0	-0.2084837
111	0x3f043af8	0.5165248
112	0xbe30384e	-0.17208979
113	0xbefa8b6e	-0.489345
114	0xbe61aa6f	-0.22037672
115	0x3ed34f68	0.4127152
116	0x3e5a002b	0.21289127
117	0xbe981b04	-0.2970811
118	0x3c2f5778	0.0107020065
119	0x3e92dddc	0.2868489
120	0x3d02de68	0.031950384
121	0xbd8523ba	-0.06500955
122	0x3da9eed3	0.08297505
123	0xbe068ae7	-0.13138925
124	0xbe9d38a7	-0.30707285
125	0xbdff05df	-0.12452292
126	0xbe78dc08	-0.24302685
127	0xbf3150cd	-0.6926392

node_function_neighbor.0.bias f4 [64]
0	0xbd2d7dc8	-0.042356282
1	0xbe22a700	-0.15884018
2	0x3e97b962	0.29633623
3	0x3f03af74	0.51439595
4	0x3f00ff18	0.5038924
5	0x3e289b25	0.16465433
6	0xbf02f035	-0.51147777
7	0xbe40a384	-0.18812376
8	0x3f0314eb	0.51203793
9	0x3f2f301c	0.68432784
10	0xbf195c1c	-0.5990617
11	0x3e7d8d36	0.24760899
12	0xbeb1946f	-0.34683558
13	0xbdc183e4	-0.09448984
14	0x3ec8c097	0.39209434
15	0x3e24366f	0.1603639
16	0xbeba37dc	-0.36370742
17	0x3e1a041e	0.15040633
18	0xbef7ec87	-0.48422644
19	0x3ea90f62	0.3301955
20	0xbe35b516	-0.1774486
21	0x3ea4da65	0.32197872
22	0x3e4b688e	0.19864103
23	0xbf2df4e4	-0.679518
24	0x3eeca00f	0.46215865
25	0xbed6f5e3	-0.41984472
26	0x3f03e224	0.5151694
27	0x3d42e8cd	0.047585297
28	0xbead87ba	-0.33892614
29	0xbe368daa	-0.17827478
30	0x3e849e7d	0.25902167
31	0x3dbf0666	0.09327392
32	0x3f00cb77	0.5031046
33	0x3eba5112	0.36389977
34	0xbdf7927b	-0.12088486
35	0x3ef26549	0.473429
36	0xbef54772	-0.4790607
37	0x3f1eded6	0.6205877
38	0xbe6c29ad	-0.23062773
39	0x3ec2b3ab	0.380277
40	0xbf070455	-0.52740985
41	0x3f2fd400	0.6868286
42	0xbe795029	-0.24346985
43	0xbe53d2df	-0.2068591
44	0xbf1f333b	-0.62187546
45	0x3e95a178	0.29224753
46	0x3f2f5352	0.6848651
47	0x3f270ab0	0.6525068
48	0xbf18ad0b	-0.5963904
49	0xbe29bb1c	-0.16575283
50	0x3e3f5db6	0.18688092
51	0x3d48e8b1	0.049050037
52	0x3ea7c8bd	0.3277034
53	0xbf02c421	-0.5108052
54	0xbf2598d0	-0.646863
55	0xbe98e26a	-0.2986024
56	0x3f311d1f	0.6918506
57	0x3ec1d801	0.3786011
58	0xbcbd886b	-0.023136338
59	0xbe875a7c	-0.26436222
60	0x3ea8634b	0.32888255
61	0x3dba7c23	0.091057085
62	0x3ebac58e	0.36478847
63	0x3f0cbe8f	0.5497827

node_function_neighbor.2.weight f4 [64, 64]
0	0x3d6ecaa0	0.058298707
1	0xbc9ab015	-0.01888279
2	0xbba9d9dc	-0.0051834416
3	0xbd9b0a44	-0.075703174
4	0xbe0f19bc	-0.1397466
5	0xbdb2e79b	-0.087355815
6	0xbcbf3dd0	-0.023344904
7	0x3da1feee	0.07909952
8	0xbd6eb23f	-0.058275457
9	0x3da828a1	0.08210874
10	0x3db02ad8	0.08601922
11	0xbd8046f7	-0.062635355
12	0x3b872ec1	0.0041254465
13	0xbe2ce0ea	-0.16882673
14	0xbdd87b93	-0.10570445
15	0xbdd4070d	-0.10352907
16	0xbe1b47a9	-0.15164055
17	0xbe23765a	-0.15963116
18	0xbdf21d0f	-0.11821949
19	0xbd0275c7	-0.031850602
20	0xbd57f07a	-0.05271957
21	0x3c7743a9	0.015091815
22	0xbdfb3cc9	-0.12267453
23	0x3c229baf	0.009924813
24	0xbdf6c449	-0.12049157
25	0x3d40e85c	0.047096595
26	0xbd811379	-0.06302542
27	0xbdc51469	-0.096230336
28	0xbd845b64	-0.06462744
29	0xbcee90f3	-0.029121852
30	0xbd14b587	-0.03630593
31	0xbe2d915b	-0.1694998
32	0xbdd02c60	-0.10164714
33	0x3da13d77	0.078730516
34	0xbd046604	-0.032323852
35	0xbcd23ab5	-0.02566276
36	0xbd128ec2	-0.035780676
37	0x3d82317c	0.06357095
38	0xbe2d51e4	-0.1692577
39	0x3d3cd379	0.046100114
40	0xbe350818	-0.17678869
41	0x3b3db95c	0.0028949594
42	0x3c5e98c2	0.013586225
43	0xbd4fd539	-0.050740454
44	0x3ce9493c	0.028477304
45	0xbe2895b1	-0.16463353
46	0x3b411375	0.002946106
47	0xbe307a07	-0.1723405
48	0x3d84fde1	0.06493736
49	0x3d8ef00f	0.06979381
50	0xbdbdb9d4	-0.092639595
51	0xbdf52056	-0.11969058
52	0xbe204a39	-0.15653314
53	0xbe0d1143	-0.13776116
54	0xbccd4cd0	-0.025061041
55	0xbdc3b235	-0.09555475
56	0xbbf0b4b2	-0.0073457593
57	0x3cbad54b	0.022806784
58	0x3d8cdbad	0.06877837
59	0xbe291d8c	-0.16515177
60	0xbde048eb	-0.10951408
61	0xbe06e1a8	-0.13172019
62	0xbdaaaef4	-0.08334151
63	0xbe10fc1f	-0.14158677
64	0xbd6a227f	-0.057161804
65	0xbe2f30b3	-0.17108421
66	0x3d31bef2	0.04339499
67	0xbd27dc95	-0.040981848
68	0xbd26af4c	-0.04069452
69	0xbcaa38d8	-0.020779058
70	0x3db610fe	0.0888996
71	0x3d444c4a	0.047924317
72	0xbd3794f2	-0.04481978
73	0xbd896350	-0.067083955
74	0x3ca68e7f	0.02033162
75	0xbc229a42	-0.009924473
76	0xbe1d04fc	-0.15333933
77	0x3d84a09d	0.06475947
78	0xbc37f0f9	-0.011226886
79	0x3c70fa02	0.014708044
80	0x3d228c44	0.03968455
81	0xbb934f42	-0.0044955323
82	0xbb9b59e5	-0.004740941
83	0x3cabf894	0.020992555
84	0xbdd0f43c	-0.10202834
85	0xbe1a9cef	-0.15098928
86	0xbdb16275	-0.08661357
87	0xbe153a89	-0.1457311
88	0xbdcdc43f	-0.100471966
89	0xbe289549	-0.16463198
90	0xbd1107d4	-0.035407856
91	0x3d69809e	0.057007425
92	0xbd41d37a	-0.04732082
93	0xbdc05328	-0.09390861
94	0xbca47682	-0.02007604
95	0xbd90a3df	-0.07062506
96	0xbe36c755	-0.17849477
97	0xbc905382	-0.017617945
98	0x3c9ed2db	0.019387653
99	0x3dd72522	0.105051294
100	0x3e1410cd	0.14459534
101	0xbdad6e05	-0.0846825
102	0x3d27ca76	0.040964566
103	0x3d1896c5	0.03725316
104	0xbc9db939	-0.01925336
105	0x3bc242d4	0.0059283767
106	0xbcdc37d9	-0.026882099
107	0x3dc107e1	0.09425331
108	0xbe1fb1c0	-0.1559515
109	0xbda85d62	-0.08220936
110	0xbdbaeb84	-0.09126952
111	0xbdaef6f2	-0.08543195
112	0xbad7e300	-0.001647085
113	0x3d91309f	0.07089352
114	0xbd83631d	-0.06415389
115	0xbe0a0834	-0.13479692
116	0x3d5e5e95	0.05428942
117	0xbdc82448	-0.09772545
118	0xbd3ef65c	-0.046621665
119	0xbdaa24d1	-0.083078034
120	0xbd202c21	-0.039104585
121	0xbd47975a	-0.048728324
122	0x3db46e8c	0.08810148
123	0x3c9915f2	0.018687222
124	0xbd8d2255	-0.06891314
125	0xbdbfb3b2	-0.09360446
126	0xbd34987d	-0.044090737
127	0xbdbd3f95	-0.09240643
128	0xbcc4248c	-0.023943208
129	0xbe035b61	-0.12827827
130	0xbd2fb09a	-0.04289303
131	0x3d78aa7b	0.060709458
132	0x3d8afc4f	0.06786405
133	0xbd57d1d2	-0.052690335
134	0x3cdcd646	0.026957642
135	0xbdf1949e	-0.117959246
136	0x3d7b4a42	0.061350115
137	0x3da5a159	0.08087415
138	0x3dd4a9a7	0.10383921
139	0x3cc1be15	0.023650208
140	0x3bbcbb2f	0.0057596187
141	0x3d818159	0.06323499
142	0x38921bde	6.967013e-05
143	0x3c7c9744	0.015416924
144	0x3a450b77	0.0007516662
145	0xbdc9d8aa	-0.098557785
146	0xbd45dfaf	-0.048309024
147	0x3da0d65b	0.07853385
148	0x3d5faf5b	0.05461059
149	0x3dbd49ad	0.09242568
150	0xbdcff6eb	-0.10154518
151	0xbdf31ecd	-0.11871109
152	0x3df465ba	0.11933465
153	0x3c1508b6	0.009096315
154	0xbc69b3e0	-0.014264077
155	0x3d185d5e	0.037198417
156	0x3cd621fd	0.026139254
157	0xbdc96994	-0.098345906
158	0xbdab679c	-0.08369371
159	0xbd417f44	-0.04724051
160	0xbe02e23e	-0.12781617
161	0x3d4ee78e	0.050513797
162	0x3d3c35b5	0.045949657
163	0xbd609e18	-0.05483827
164	0x3d781023	0.060562264
165	0xbd1c6072	-0.038177915
166	0xbd9d4bb0	-0.07680452
167	0x3cdaf3e4	0.026727624
168	0xbe05d597	-0.1306976
169	0xbdf45a90	-0.11931336
170	0x3d1ef50b	0.03880791
171	0x3e1717de	0.14755198
172	0xbdd9076a	-0.10597117
173	0xbcf7f7ac	-0.030269466
174	0xbdf00dbe	-0.11721371
175	0x3db7b48e	0.08969985
176	0xbe15cfaf	-0.14630006
177	0xbe0759cc	-0.13217849
178	0xbd9215d3	-0.07133069
179	0x3c53e78e	0.012933625
180	0x3d0fcd7f	0.035108086
181	0x3ce40ce9	0.027838187
182	0xbc306cb3	-0.010768103
183	0xbdef2f49	-0.11678941
184	0xbd0a22d8	-0.033724636
185	0x3dad14a3	0.08451202
186	0xbd53c335	-0.051699836
187	0xbe009ffb	-0.12561028
188	0x3d80be19	0.06286258
189	0xbd6acb3d	-0.05732273
190	0x3d9bdf87	0.07610994
191	0xbd8b5bf8	-0.06804651
192	0xbdb4e878	-0.088334024
193	0x3ba416bc	0.005007593
194	0x3d55eef2	0.05222983
195	0x3dd49efe	0.10381888
196	0xbd60ae8a	-0.054853953
197	0xbd07da7f	-0.03316736
198	0xbd068c0b	-0.0328484
199	0x3d0eeecc	0.034895703
200	0xbd47f220	-0.048814893
201	0xbd8cae69	-0.068692036
202	0xbd6a4ba4	-0.057201043
203	0x3db3811b	0.08764859
204	0x3dcfdae7	0.10149174
205	0x3d94d04b	0.07266291
206	0xbd9fc28c	-0.07800779
207	0x3d441bf7	0.04787823
208	0x3db18857	0.08668583
209	0xbd57a382	-0.052646168
210	0x3db919b9	0.09038109
211	0x3ddd8a4d	0.108173944
212	0x3d0a94d4	0.03383334
213	0x3d9d242d	0.076729156
214	0x3e1afd12	0.15135601
215	0xbd65ac36	-0.056072436
216	0x3dcd3a2f	0.10020863
217	0xbd9b913d	-0.075960614
218	0x3ccbaebf	0.024863599
219	0xbcb0bdb1	-0.021574827
220	0x3cbcb167	0.02303381
221	0xbc35462c	-0.011064094
222	0x3deb6fee	0.11495958
223	0x3d960209	0.07324607
224	0x3d3f2677	0.046667542
225	0x3da62daa	0.081141785
226	0x3dfc7a61	0.123280294
227	0x3d33b2b3	0.043871593
228	0x3dd80d19	0.10549373
229	0x3cdd2169	0.02699347
230	0xbd075be9	-0.033046637
231	0x3dcf4bec	0.10121903
232	0xbdd3f5d1	-0.1034962
233	0xbca494ac	-0.020090424
234	0xbbd2512b	-0.0064183674
235	0x3c43adae	0.011943264
236	0xbd4a0f59	-0.049331043
237	0x3d9b6205	0.07587055
238	0x3bc95750	0.0061444417
239	0x3cbdb70d	0.023158574
240	0x3d8a9940	0.06767511
241	0xbdd4fe05	-0.10400013
242	0xbd9316dd	-0.07182095
243	0xbd067d75	-0.03283449
244	0x3dec0c4d	0.11525784
245	0x3d58d6e8	0.052939326
246	0x3d8e9204	0.06961444
247	0xbdcb0fc9	-0.0991512
248	0x3e05a208	0.13050091
249	0xbc6017d4	-0.013677556
250	0x3d9493f7	0.072547846
251	0xbdc58c19	-0.09645862
252	0xbd379fef	-0.04483026
253	0x3d67fb94	0.056636408
254	0x3d81da72	0.06340493
255	0x3dfae0a2	0.122498766

node_function_neighbor.2.bias f4 [64]
0	0x3d8ab755	0.06773249
1	0x3d2f79af	0.042840656
2	0xbd01a2ec	-0.031649515
3	0x3dcf132f	0.10111081
4	0xbc4440ab	-0.011978309
5	0x3d76da1d	0.060266603
6	0x3b7eb412	0.0038864654
7	0x3da4f8a2	0.080552354
8	0xbd92cf64	-0.07168463
9	0x3d9eef3f	0.07760476
10	0x3dbcf34c	0.09226093
11	0x3e0e2c4f	0.1388409
12	0xbdbe97f4	-0.093063265
13	0xbe1ce3c9	-0.15321268
14	0xbdc803e6	-0.097663686
15	0xba85c23c	-0.0010204981
16	0x3cbba605	0.022906313
17	0x3c91cf44	0.017799027
18	0x3d4b09d0	0.049569905
19	0xbe009265	-0.12555845
20	0x3daf7f53	0.08569207
21	0x3dca5fdc	0.09881565
22	0x3e07178e	0.13192579
23	0xbdcf39c1	-0.101184376
24	0x3d77c3c5	0.060489435
25	0xbdb7c3e0	-0.08972907
26	0x3b8df5b7	0.00433227
27	0x3d9bad95	0.076014675
28	0xbd89e358	-0.067328155
29	0xbe0b3144	-0.13593012
30	0xbd577509	-0.052601848
31	0x3dcb5d56	0.09929912
32	0xbceecb31	-0.029149624
33	0xbdbf25f1	-0.093334086
34	0x3d9e88ef	0.07740962
35	0xbdf4ff47	-0.11962753
36	0xbd6aca0f	-0.057321604
37	0xbab05542	-0.0013453143
38	0x3ca03e51	0.019560965
39	0xbcbffd15	-0.023436109
40	0x3dbcec71	0.09224785
41	0x3e3ec5f4	0.186302
42	0x3dbdb145	0.09262327
43	0xbdd736b4	-0.10508481
44	0x3c1c7532	0.009549426
45	0xbd2b320c	-0.041795775
46	0x3dd6a730	0.10481107
47	0x3dba77ff	0.09104919
48	0x3d1c1934	0.038109973
49	0x3e1c1a8a	0.15244499
50	0x3e09f3dc	0.13471931
51	0x3e08df81	0.1336651
52	0xbcfc9d92	-0.030836854
53	0xbd423840	-0.047416925
54	0x3e00cb04	0.12577444
55	0x3d27258c	0.040807292
56	0x3cfc1698	0.030772492
57	0xbd87ae98	-0.06625098
58	0x3e082270	0.13294387
59	0x3d34df68	0.04415837
60	0x3cf2239f	0.029558001
61	0x3c1890b0	0.00931184
62	0xbc1c3aca	-0.009535501
63	0xbdb6bc30	-0.08922613

node_function_neighbor.4.weight f4 [64, 64]
0	0x3da4bc7e	0.080437645
1	0xbdd6d5f2	-0.104900256
2	0xbdd039cf	-0.10167276
3	0xbd5c12df	-0.053728934
4	0xbdee8ae5	-0.11647586
5	0x3da2a8de	0.07942365
6	0xbbe56be0	-0.007001385
7	0xbde85987	-0.11345201
8	0xbd82fdea	-0.063960865
9	0xbc8477f8	-0.016170487
10	0xbd33f6f0	-0.04393667
11	0xbdbeceec	-0.09316811
12	0x3deb819a	0.11499329
13	0x3cd1ea70	0.025624484
14	0xbde9b310	-0.114111066
15	0xbd22f324	-0.03978266
16	0x3d9f2d69	0.07772333
17	0xbdb711d4	-0.08938947
18	0x3d823706	0.06358151
19	0xbdf0c152	-0.11755623
20	0x3d80f108	0.06295973
21	0xbc299080	-0.010349393
22	0xbd235640	-0.039877176
23	0xbd6dd22c	-0.058061764
24	0x3d1ca2ed	0.038241316
25	0x3d292760	0.041297317
26	0xbc10f980	-0.008848548
27	0xbd54f924	-0.05199541
28	0x3d14ec6c	0.036358282
29	0x3d556c58	0.052105278
30	0x3d35851f	0.044316407
31	0x3b09233a	0.0020925538
32	0xbdedda37	-0.11613887
33	0xbdaeef92	-0.08541788
34	0x3dd76d12	0.105188504
35	0xbc5bb5dd	-0.013410059
36	0xbdb5c72e	-0.08875881
37	0x3dd91e86	0.10601525
38	0xbdf6f596	-0.120585606
39	0x3c214da1	0.009845168
40	0x3b139e00	0.0022524595
41	0xbdac4a8c	-0.08412656
42	0x3d834f4a	0.064116076
43	0x3d768f3c	0.060195193
44	0xbc61bb77	-0.013777605
45	0xbdd38ea5	-0.10329942
46	0xbcfa0e9b	-0.030524543
47	0xbda334d6	-0.07969062
48	0xbde14c98	-0.11000937
49	0xbdbdb28c	-0.09262571
50	0xbcf03fb8	-0.029327258
51	0xbc89da7d	-0.016827816
52	0x3d02fdc8	0.031980306
53	0x3d58922b	0.05287377
54	0xbdcbb482	-0.099465385
55	0xbcc74440	-0.024324536
56	0x3ce69347	0.0281464
57	0xbdfabb5f	-0.122427694
58	0xbde649ee	-0.1124457
59	0xbd93e7f6	-0.072219774
60	0xbd704d0c	-0.058667228
61	0xbcb36018	-0.021896407
62	0x3d80aded	0.06283174
63	0x3d730be4	0.05933751
64	0x3d99c7f8	0.07508844
65	0xbdd7c91e	-0.10536407
66	0xbe1e3889	-0.15451254
67	0x3e046be0	0.12931776
68	0xbb426db1	-0.0029667432
69	0x3d98b77e	0.07456873
70	0xbd218f93	-0.039443564
71	0xbc604def	-0.013690456
72	0xbd20be9d	-0.039244283
73	0x3c6f9770	0.014623508
74	0x3ddb52bc	0.1070914
75	0x3de5a61e	0.11213325
76	0xbdd6698c	-0.1046935
77	0x3c64c6bf	0.0139634
78	0x3c5aa220	0.013344318
79	0xbdf257cc	-0.11833152
80	0xbdf0f5ec	-0.11765656
81	0xbcbb712a	-0.02288111
82	0x3dbae2f8	0.09125322
83	0xbdf14a6a	-0.117817715
84	0x3cba1674	0.022715785
85	0xbca1f504	-0.019770153
86	0xbcc3d8c1	-0.023907067
87	0x3db5af9f	0.08871388
88	0x3dee5433	0.116371535
89	0xbe0f45ed	-0.13991518
90	0xbceac5f6	-0.028658848
91	0xbe1c741a	-0.15278664
92	0x3b82e281	0.0039942865
93	0xbd6fd05d	-0.05854832
94	0xbda0f384	-0.07858947
95	0xbd559e71	-0.052153055
96	0xbc1b82d3	-0.00949164
97	0xbccdb6e8	-0.02511163
98	0x3da03668	0.07822877
99	0xbba023b2	-0.0048870677
100	0xbd813ed9	-0.06310815
101	0xbd0b8a0c	-0.0340672
102	0xbe14eb94	-0.14542991
103	0x3c754b1e	0.014971523
104	0x3d36b95d	0.04461037
105	0x3ca9b703	0.02071715
106	0x3eb603d0	0.35549784
107	0x3d9334e7	0.07187825
108	0x3e355b25	0.1771055
109	0xbe0466d7	-0.12929855
110	0x3d738937	0.05945703
111	0xbd83cef5	-0.06435958
112	0x3d99df04	0.0751324
113	0xbc8c9094	-0.017158784
114	0x3de50cfe	0.11184119
115	0x3daaeeda	0.083463386
116	0xbcdba100	-0.02681017
117	0xbdce22a4	-0.10065201
118	0x3d33b8fe	0.043877594
119	0x3dbce4da	0.092233375
120	0x3d81a252	0.06329788
121	0xbdca1995	-0.09868161
122	0x3d8b6413	0.06806197
123	0x3e91f8f4	0.2851025
124	0xbdc52065	-0.096253194
125	0x3c2c9b0a	0.010535011
126	0xbd62cc4c	-0.055370614
127	0x3c45ab39	0.012064748
128	0x3cfcbbef	0.030851332
129	0x3c5341ff	0.012894153
130	0x3db53d96	0.08849637
131	0xbddfc14a	-0.10925539
132	0xbba682c6	-0.0050815074
133	0x3e11edc9	0.14250864
134	0xbaa704f4	-0.0012742565
135	0x3d9b202b	0.07574495
136	0x3da40ffc	0.08010861
137	0xbdabe080	-0.08392429
138	0xbd81fcd5	-0.06347052
139	0xbd1c70ba	-0.038193442
140	0x3d2fbcf0	0.042904794
141	0x3d0ed158	0.034867615
142	0xbd329ca0	-0.0436064
143	0x3d2ed1f4	0.042680696
144	0x3d97cb9a	0.07411881
145	0x3d31dbbe	0.043422453
146	0x3dbd18dc	0.09233257
147	0xbd9c8a8e	-0.07643615
148	0xbdc38306	-0.09546475
149	0x3dbefe60	0.09325862
150	0xbdb91048	-0.090363085
151	0x3d5ea75a	0.054358818
152	0xbb420424	-0.0029604519
153	0x3e20fbff	0.15721129
154	0x3d80c94c	0.06288394
155	0xbc419e03	-0.011817458
156	0xbd114319	-0.03546438
157	0xbcd095de	-0.025462087
158	0x3c744c76	0.014910808
159	0x3dad5a60	0.08464503
160	0x3df3f368	0.119116604
161	0x3da4031f	0.08008408
162	0x3d2bfc77	0.041988816
163	0xbdd12a36	-0.10213129
164	0x3dab535b	0.08365508
165	0xbd8e5aef	-0.06950938
166	0x3db23aa4	0.08702591
167	0xbc1fb7d9	-0.009748423
168	0x3dac9cbd	0.08428333
169	0x3dfeac66	0.12435226
170	0x3c943d60	0.018095672
171	0x3c43b849	0.0119457925
172	0xbdb30abd	-0.087422825
173	0x3d6df109	0.058091197
174	0x3c2d58d3	0.010580259
175	0x3d8be55e	0.06830858
176	0x3e04b4cc	0.12959594
177	0x3d354fb5	0.044265468
178	0x3d7411d5	0.05958732
179	0x3d1f6cf1	0.038922254
180	0xbca8af3a	-0.020591367
181	0xbe007c8c	-0.12547511
182	0x3d952a1e	0.07283424
183	0xbdb5a41a	-0.088691905
184	0x3dd16323	0.10223987
185	0x3cfd247e	0.03090119
186	0x3e07b028	0.13250792
187	0x3dab7ee4	0.08373812
188	0x3da1ca56	0.07899921
189	0xbd8c5cd2	-0.068536416
190	0xbd9a732a	-0.07541497
191	0x3db8b82f	0.09019505
192	0xbcc42e60	-0.023947895
193	0xbdd0651d	-0.10175536
194	0xbd955656	-0.07291858
195	0x3c23e415	0.010003109
196	0xbd6a7214	-0.0572377
197	0xbd730f11	-0.05934054
198	0x3d5ee110	0.054413855
199	0xbd191959	-0.03737769
200	0xbc924c1a	-0.017858554
201	0xbc8587ef	-0.01630017
202	0xbe16fd94	-0.1474517
203	0xbde4817b	-0.11157509
204	0xbdd867ee	-0.10566698
205	0xbdb765ce	-0.089549646
206	0xbd146028	-0.036224514
207	0xbe25e20a	-0.16199508
208	0x3d763fc6	0.060119413
209	0xbc92e5db	-0.01793187
210	0xbb871140	-0.0041219294
211	0x3dd87769	0.10569651
212	0xbdb12538	-0.08649677
213	0xbd2b3581	-0.041799072
214	0xbdcd5c4d	-0.100273706
215	0x3ddd04ba	0.10791917
216	0x3d216915	0.039406855
217	0xbc6ab78e	-0.014325989
218	0xbd0bba13	-0.034113
219	0xbd2a74ff	-0.041615482
220	0xbc4e6513	-0.01259734
221	0x3dd4e91c	0.103960246
222	0xbdf1bd2b	-0.11803659
223	0xbe1e8196	-0.1547912
224	0xbdac0b4f	-0.084005944
225	0xbd1dce09	-0.03852657
226	0xbbad8fa1	-0.005296663
227	0xbd076bc6	-0.033061765
228	0x3db83831	0.08995093
229	0x3cf3afee	0.029746976
230	0x3dd78894	0.10524097
231	0x3d10992b	0.035302322
232	0xbd3cc97e	-0.046090595
233	0xbbfa746a	-0.007643272
234	0xbd16d2e5	-0.03682222
235	0x3d23c914	0.039986685
236	0xbdf726a6	-0.120679185
237	0xbc2350e6	-0.009968018
238	0xbd8c3238	-0.06845516
239	0xbd85057f	-0.06495189
240	0x3d2f1169	0.042741213
241	0xbe175a06	-0.14780435
242	0xbe0c1c45	-0.13682659
243	0x3d28974d	0.041159917
244	0x3d294e7e	0.04133462
245	0xbe21c40c	-0.15797442
246	0x3cc513f9	0.024057375
247	0xb9c99f25	-0.0003845628
248	0xbd4b908d	-0.0496984
249	0x3d1202d7	0.03564724
250	0xbe124e0e	-0.14287588
251	0x3cc27cad	0.02374109
252	0x3d044d86	0.032300495
253	0xbc0495dc	-0.00809237
254	0xbcb63570	-0.022242278
255	0xbc91f288	-0.017815843

node_function_neighbor.4.bias f4 [64]
0	0xbd8d1e07	-0.06890493
1	0x3e645760	0.22298956
2	0x3d3ee2c8	0.046602994
3	0xbd673694	-0.056448534
4	0xbdad23ae	-0.08454071
5	0x3ca55158	0.02018039
6	0x3e0a315b	0.1349539
7	0xbd8325a2	-0.06403662
8	0x3d29ad66	0.04142513
9	0x3d6a6a01	0.05723
10	0xbdfd8e88	-0.12380701
11	0x3e376583	0.17909817
12	0x3e270351	0.16309859
13	0x3ce6ea30	0.028187841
14	0x3e10981a	0.14120522
15	0x3d829efa	0.063779786
16	0xbdef7cc5	-0.1169372
17	0xbd49f59a	-0.04930649
18	0x3d5a066d	0.053228784
19	0x3dd56a57	0.10420673
20	0x3e55e203	0.20886998
21	0xbc51d5b2	-0.012807297
22	0x3d154a61	0.036447886
23	0x3da75bc9	0.081718035
24	0x3d5ef496	0.054432474
25	0xbcf892fb	-0.030343523
26	0x3dbc054c	0.09180698
27	0x3e35b0e0	0.17743254
28	0x3dac85a5	0.08423928
29	0x3e38868a	0.18020073
30	0x3a86cd2d	0.0010284536
31	0x3bd21c4d	0.006412065
32	0x3cd014a9	0.025400477
33	0x3d2ea439	0.042637084
34	0x3bfb0aa6	0.0076611815
35	0x3d4a3605	0.049367923
36	0x3d618f85	0.05506851
37	0x3d8ac56c	0.067759365
38	0xbdfcaa0a	-0.1233712
39	0x3d0bb9f6	0.034112893
40	0x3db4836a	0.08814128
41	0xbbab2665	-0.005223083
42	0xbe01c2aa	-0.12671915
43	0xbd93e1b7	-0.07220786
44	0x3e0438e4	0.12912327
45	0x3d347d62	0.044064887
46	0xbdd985de	-0.10621236
47	0xbd6ad4a5	-0.0573317
48	0x3db0fb96	0.08641736
49	0x3dfacce0	0.12246108
50	0xbd8e1bea	-0.06938918
51	0x3de50613	0.11182799
52	0x3b1fd134	0.002438617
53	0x3de4956b	0.11161312
54	0xbd4bc47f	-0.04974794
55	0xbe0367a9	-0.12832512
56	0xbda29ad0	-0.079396844
57	0xbc5d96d5	-0.013524731
58	0x3be2fc6d	0.006927064
59	0xbe1e0e46	-0.15435132
60	0x3d8eb5dd	0.069682814
61	0x3e24622b	0.16053073
62	0x3d43623d	0.04770111
63	0xbd6d1d02	-0.057888992

node_function_neighbor.6.weight f4 [4, 64]
0	0xbc9b9270	-0.018990725
1	0x3e37f540	0.17964649
2	0x3de0b96c	0.109728664
3	0xbd142b23	-0.03617395
4	0xbca37e5c	-0.019957714
5	0xbd041bec	-0.03225319
6	0x3d422571	0.04739899
7	0xbca88d7c	-0.020575278
8	0xbd1ade41	-0.037809614
9	0x3cb1f30b	0.021722337
10	0xbd2d28c4	-0.042275205
11	0xbbacac97	-0.0052695978
12	0x3cd2da7f	0.025738953
13	0x3e13dab9	0.14438905
14	0x3d574075	0.052551705
15	0xbd042f42	-0.03227163
16	0x3d341d94	0.04397352
17	0x3d1958e9	0.037438307
18	0x3d90e921	0.07075716
19	0x3db96a0e	0.090534315
20	0x3e3b90b1	0.18316914
21	0x3d1f7ac8	0.038935453
22	0xbda5613e	-0.08075188
23	0x3d8610cf	0.06546175
24	0xbd66e5fc	-0.056371674
25	0xbcd048ab	-0.025425276
26	0x3e0b63cd	0.1361229
27	0x3de4b06d	0.11166463
28	0x3c0fc352	0.008774595
29	0x3dea016b	0.11426052
30	0x3d3fc5a4	0.046819344
31	0xbd9acfa8	-0.075591385
32	0x3d869aae	0.065724716
33	0x3c50e59a	0.012750054
34	0x3c98f16f	0.018669812
35	0x3d7e0c90	0.0620237
36	0x3dcdd482	0.10050298
37	0xbd6ce6b6	-0.05783721
38	0x3d830e5c	0.06399223
39	0x3c1f0f6f	0.0097082695
40	0x3db070c4	0.08615258
41	0x3ce8cbe8	0.028417543
42	0xbd829a78	-0.06377119
43	0xbca6d3f9	-0.020364748
44	0x3b8612cf	0.0040915976
45	0x3d3dbcd2	0.04632265
46	0x3d56530e	0.0523253
47	0xbc14633c	-0.009056862
48	0x3be47985	0.006972494
49	0xbd45d87b	-0.048302155
50	0x3d8d350e	0.06894885
51	0x3e08b2da	0.13349476
52	0x3d2b98c0	0.04189372
53	0x3dc1cd29	0.09462959
54	0xbcb1cc55	-0.021703878
55	0x3cb96947	0.022633208
56	0xbd94cfed	-0.07266221
57	0xbd6d62e7	-0.05795565
58	0x3db65edf	0.08904814
59	0xbd8c7dd5	-0.06859938
60	0x3d306cd3	0.043072533
61	0x3deff4aa	0.11716588
62	0xbc004d99	-0.007831001
63	0x3cf22c18	0.029562041
64	0x3c10990c	0.008825552
65	0xbd3e4088	-0.04644826
66	0x3dd2d229	0.10293991
67	0xbd3891f9	-0.045061085
68	0x3daadf32	0.083433524
69	0xbd975e23	-0.07391002
70	0x3c0c3871	0.008558379
71	0xbdb82a7f	-0.089924805
72	0xbd6b720f	-0.05748182
73	0xbc3a90c9	-0.0113870585
74	0x3dc695b2	0.09696521
75	0x3cb81be2	0.022474233
76	0x3d29bbcc	0.041438863
77	0x3c35579a	0.011068249
78	0xbd00cd5e	-0.031445853
79	0x3d5bad5a	0.053632118
80	0xbda08ea7	-0.07839709
81	0xbd324116	-0.043519102
82	0x3cbe6146	0.023239743
83	0xbc8cb12e	-0.01717433
84	0x3d6d54ec	0.057942316
85	0xbbcbd221	-0.0062201177
86	0x3c062bbd	0.008189139
87	0x3d06a57c	0.032872662
88	0x3d8eb9c3	0.06969025
89	0x3b60e061	0.0034313428
90	0xbda4aeb0	-0.080411315
91	0xbcd593a3	-0.026071375
92	0xbda123cc	-0.07868156
93	0x3dd6d250	0.10489333
94	0x3c1e4d63	0.009662005
95	0x3dc638bf	0.09678792
96	0x3de9dcc2	0.11419059
97	0x3dcf448f	0.101204984
98	0x3d336895	0.04380091
99	0x3c85a401	0.016313555
100	0xbd6b31f2	-0.05742068
101	0xbda7efb8	-0.082000196
102	0xbd403ec8	-0.046934873
103	0x3d52b364	0.05144061
104	0x3ba0d88a	0.004908626
105	0xba28c943	-0.0006438682
106	0xbd946340	-0.07245493
107	0x3d730d81	0.05933905
108	0xbd29d665	-0.04146423
109	0xbdd4d9be	-0.103930935
110	0xbd73bcfd	-0.059506405
111	0xbd0c74f0	-0.034291208
112	0xbda4ff5c	-0.080565184
113	0xbd3f64a7	-0.04672685
114	0xbd6751f2	-0.056474634
115	0x3dd902bc	0.10596225
116	0x3dda53f4	0.10660544
117	0xbb0bc405	-0.0021326554
118	0x3df2ee70	0.118618846
119	0x3d30e497	0.04318675
120	0xbd40af5e	-0.047042243
121	0xbce11fde	-0.027481016
122	0xbd4dfbfd	-0.050289143
123	0xbdedfbff	-0.1162033
124	0x3d2d3e76	0.042295896
125	0xbddd580e	-0.10807811
126	0xbdb9199b	-0.09038087
127	0xbc075422	-0.008259805
128	0xbcac1832	-0.021007631
129	0xbc3e6418	-0.011620544
130	0x3d2eae86	0.042646907
131	0xbda14e48	-0.07876259
132	0xbd117728	-0.035514027
133	0xbad6e685	-0.0016395604
134	0xbe061f28	-0.13097823
135	0xbd253a69	-0.040338907
136	0x3d6c838e	0.057742648
137	0xbd161921	-0.03664506
138	0xbdef5d42	-0.116877094
139	0xbdd1839b	-0.1023018
140	0xbd0fb8ba	-0.03508828
141	0x3dbe7aa5	0.09300736
142	0xbdc67384	-0.096900016
143	0xbc5b768d	-0.013394964
144	0x3d9bcf0c	0.076078504
145	0x3d172055	0.03689607
146	0xba3abe3b	-0.00071236835
147	0xbd82d1ff	-0.0638771
148	0x3cb0d955	0.021588007
149	0xbe2d2d07	-0.16911708
150	0x3d95527d	0.07291124
151	0xbda5e1c7	-0.08099704
152	0xbd66e1f6	-0.056367837
153	0xbda5bd33	-0.080927275
154	0xbd96aa2e	-0.07356678
155	0x3d86cfd4	0.06582609
156	0x3cb334e3	0.021875804
157	0xbddb223d	-0.1069989
158	0xbdaf5b27	-0.08562308
159	0xbdc7badd	-0.09752438
160	0xbd0ea5d4	-0.034826115
161	0x3cf6b525	0.030115673
162	0xbd536888	-0.05161336
163	0x3c3866f8	0.011255018
164	0x3de4532f	0.111486785
165	0xbd0129ef	-0.03153413
166	0x3df1276c	0.11775097
167	0xbd148023	-0.036255013
168	0xbd14ca15	-0.036325533
169	0x3cc6d258	0.024270222
170	0xbdee230c	-0.116277784
171	0xbc07e0c9	-0.008293339
172	0xbcd91956	-0.026501339
173	0xbddcb222	-0.10776164
174	0x3c10a6c0	0.008828819
175	0x3db4986a	0.08818133
176	0x3ba97fd5	0.0051727095
177	0xbe02950a	-0.12752166
178	0xbcdcd2a6	-0.026955914
179	0x3da42a9a	0.08015938
180	0xbdfe2ba0	-0.124106646
181	0x3d8525ba	0.065013364
182	0xbe016513	-0.12636213
183	0x3c96ec74	0.018423297
184	0xbb945511	-0.0045267423
185	0xbdfdd64c	-0.123943895
186	0x3d73a4a1	0.059483174
187	0xbd406b0a	-0.04697708
188	0x3d799c80	0.060940266
189	0xbe04a79a	-0.1295456
190	0xbb77532d	-0.0037738786
191	0xbdf57c9e	-0.119866595
192	0x3cd2bfe5	0.025726268
193	0xbd3da096	-0.046295725
194	0x3dc19ed9	0.09454126
195	0xbd966b1b	-0.073446475
196	0x3d6920b5	0.056915957
197	0xbd921baa	-0.07134183
198	0xbc4117c3	-0.01178545
199	0xbd5baac4	-0.05362965
200	0x3cf775a1	0.030207457
201	0xbdf17939	-0.117906995
202	0x3cb55da8	0.022139385
203	0xbd992b79	-0.07478995
204	0x3d452d5a	0.048138954
205	0x3da8a76a	0.08235057
206	0x3cb22ef1	0.021750899
207	0xbdd2e04e	-0.10296689
208	0xbc92c939	-0.017918216
209	0xbde6f48a	-0.11277111
210	0xbaaea506	-0.0013324327
211	0xbdb5b1bd	-0.088717915
212	0xbc1cac11	-0.009562508
213	0x3d196dea	0.037458338
214	0xbc558233	-0.01303153
215	0xbd536230	-0.05160731
216	0x3d2d1c82	0.042263515
217	0x3d120b6b	0.03565542
218	0xbd05e987	-0.032693412
219	0xbd86c521	-0.06580568
220	0xbdf0b9a2	-0.11754157
221	0xbd5c6744	-0.05380942
222	0xbc933772	-0.017970774
223	0xbddc476f	-0.107558124
224	0x3cc1b484	0.023645647
225	0xbd6bfe73	-0.05761571
226	0x3d9f2e36	0.07772486
227	0xbc924ccf	-0.01785889
228	0xbd38e322	-0.045138486
229	0xbcc7e7b2	-0.024402473
230	0xbcbe7108	-0.023247257
231	0x3c05bdd4	0.008162934
232	0x3d7e7a47	0.06212833
233	0xba9e4995	-0.0012076373
234	0xbd772d7c	-0.06034611
235	0xbd515940	-0.051110506
236	0xbd6ddbfb	-0.058071118
237	0x3c2c6052	0.010521011
238	0x3cb29530	0.021799654
239	0x3d189ae1	0.03725708
240	0x3cff4123	0.03115899
241	0xbdc6c2c9	-0.09705121
242	0x3d04ec72	0.032452054
243	0xbdebc892	-0.11512865
244	0xbd96bcb2	-0.073602095
245	0xbd268dfd	-0.040662754
246	0xbc2a86d1	-0.010408119
247	0x3bb14089	0.0054093045
248	0xbdcbe0db	-0.09954997
249	0xbdca4151	-0.09875739
250	0xbdbe237a	-0.0928411
251	0xbdad0a56	-0.08449237
252	0xbd8c4301	-0.068487175
253	0x3d061ffc	0.032745346
254	0x3d7b9390	0.061420023
255	0xbcb90e47	-0.022589816

node_function_neighbor.6.bias f4 [4]
0	0x3e1b89bd	0.15189262
1	0xbda39f31	-0.07989348
2	0xbdb4a22b	-0.088199936
3	0xbd368a4a	-0.044565476

edge_function.0.weight f4 [64, 4]
0	0xbed8dc57	-0.42355606
1	0x3ec9c3f3	0.3940731
2	0xbe9f02fa	-0.31056958
3	0xbe861dfa	-0.26194745
4	0x3ed5d9a2	0.41767603
5	0x3d0723c1	0.032993082
6	0x3e996816	0.29962224
7	0x3e31dea8	0.17370093
8	0xbe6d384b	-0.23166005
9	0x3d157830	0.036491573
10	0xbea65a64	-0.32490838
11	0xbef35823	-0.4752818
12	0xbed429e7	-0.4143822
13	0xbdc2a589	-0.095042296
14	0x3ed7147b	0.42007813
15	0xbec97f45	-0.3935491
16	0xbccb6026	-0.02482612
17	0xbe6c9987	-0.23105441
18	0x3ef8a111	0.48560384
19	0xbed226f1	-0.41045335
20	0xbd220a8f	-0.03956085
21	0x3db63d4b	0.088984095
22	0x3ef756c9	0.483084
23	0xbe16d137	-0.14728247
24	0x3e7a16aa	0.24422708
25	0xbde0b0d9	-0.10971231
26	0xbeda460d	-0.4263157
27	0x3ea255f4	0.31706202
28	0x3ca72bf7	0.020406706
29	0xbeb34250	-0.3501153
30	0xbe36f255	-0.1786588
31	0xbf04326c	-0.5163944
32	0xbedb2ef4	-0.4280926
33	0xbee63e1e	-0.44969267
34	0xbeba861e	-0.36430448
35	0x3e08e582	0.133688
36	0xbede7e80	-0.43455887
37	0x3ec90e71	0.3926883
38	0xbb6033e7	-0.0034210624
39	0xbe842abc	-0.25813854
40	0xbd3a5895	-0.045494635
41	0xbe854192	-0.2602659
42	0xbe57cd0f	-0.21074317
43	0x3bed5a57	0.0072434354
44	0x3cea5e36	0.028609376
45	0x3e59fa2c	0.21286839
46	0xbeefab28	-0.4681027
47	0xbebf410c	-0.37354314
48	0xbe703f38	-0.23461616
49	0xbea564bf	-0.32303426
50	0xbd078548	-0.03308609
51	0x3e7f8495	0.2495292
52	0xbeda0fc0	-0.4259014
53	0xbd857928	-0.06517249
54	0x3d92b987	0.07164293
55	0x3db8a468	0.09015733
56	0xbd7446b5	-0.059637744
57	0x3d753894	0.05986841
58	0x3e999eb6	0.300039
59	0xbed58ad3	-0.41707477
60	0xbeea1b0b	-0.45723757
61	0xbee7898c	-0.45222127
62	0x3e71dda6	0.23619708
63	0xbeba419e	-0.36378187
64	0x3e6fa377	0.234022
65	0x3e042379	0.12904157
66	0x3ee329a9	0.44367722
67	0xbe793a0d	-0.24338551
68	0x3eabdb8f	0.33565947
69	0xbeda493b	-0.42633995
70	0x3dc34ebe	0.09536503
71	0xbe1e3885	-0.15451248
72	0x3e1216d7	0.14266525
73	0x3ece9e5d	0.40355197
74	0x3ed42758	0.41436267
75	0xbdb8b38b	-0.0901862
76	0x3e52c40a	0.20582595
77	0xbee99142	-0.45618635
78	0x3ec4b163	0.38416585
79	0xbdfd382b	-0.12364229
80	0x3db0af5d	0.08627198
81	0x3de34971	0.11097992
82	0x3df7534f	0.12076437
83	0xbd70424c	-0.058656976
84	0xbd8bcde2	-0.068263784
85	0x3e8da8e4	0.27667916
86	0x3ec03140	0.37537575
87	0x3e46cce3	0.19414096
88	0xbd613914	-0.054986075
89	0x3e164385	0.14674194
90	0x3d6e6c3d	0.058208693
91	0x3e11df55	0.1424535
92	0xbee3ebad	-0.44515744
93	0xbe996862	-0.2996245
94	0x3e19a9fa	0.15006247
95	0x3ec4eb48	0.38460755
96	0x3eb1199f	0.3458986
97	0xbe5855af	-0.21126436
98	0xbe27dd39	-0.16392983
99	0xbe890e54	-0.26768744
100	0x3e5ca482	0.2154713
101	0xbe84f585	-0.25968567
102	0xbec3e2fa	-0.38259107
103	0xbec151f0	-0.37757826
104	0xbe7632b3	-0.24042778
105	0x3e1ddf8b	0.15417306
106	0xbe8e6a7d	-0.2781562
107	0xbeb6c703	-0.3569871
108	0x3ea129b9	0.31477144
109	0xbba795c6	-0.00511429
110	0xbe85dad0	-0.26143503
111	0xbe2c68d1	-0.1683686
112	0xbd4fbc62	-0.050716765
113	0x3ef57040	0.47937202
114	0x3ef1e4eb	0.47244963
115	0x3eb07ce2	0.34470278
116	0xbeeaf80b	-0.45892367
117	0x3e15f55a	0.14644375
118	0x3e72ea43	0.23722176
119	0x3e325938	0.17416847
120	0x3ebbaf93	0.3665739
121	0xbe2ce477	-0.16884027
122	0xbe46c279	-0.19410123
123	0x3c8055c0	0.015665889
124	0x3ebf2889	0.37335613
125	0xbd6df1cd	-0.058091927
126	0xbe2a1119	-0.16608085
127	0x3e70233c	0.23450941
128	0xbe78a987	-0.2428342
129	0xbe9d46b8	-0.30718017
130	0xbdf692c4	-0.12039712
131	0xbed0daaa	-0.40791827
132	0x3ea0e078	0.31421256
133	0xbe95566a	-0.2916749
134	0xbda7ee84	-0.0819979
135	0x3ed4d56d	0.4156908
136	0x3e1e000f	0.1542971
137	0xbee841c7	-0.45362684
138	0x3e54d0f2	0.20782831
139	0x3eac0ba7	0.3360264
140	0xbcf93c91	-0.030424388
141	0xbeede856	-0.4646632
142	0x3ee619ec	0.44941652
143	0xbe2778f1	-0.16354729
144	0x3e55b741	0.20870687
145	0x3ec33dc2	0.38133055
146	0x3e769b40	0.2408266
147	0x3ee360ad	0.44409695
148	0xbebf99e0	-0.37422085
149	0xbdc54cc1	-0.0963378
150	0x3e4ea564	0.20180279
151	0x3c7fedce	0.015620662
152	0x3eb8518a	0.3599971
153	0xbe312449	-0.17298998
154	0xbeb65d5b	-0.356181
155	0xbe8c2c0d	-0.27377358
156	0x3deea7d8	0.116531074
157	0x3e9f9f0b	0.31176028
158	0xbd9881a3	-0.07446601
159	0x3e483564	0.19551617
160	0xbe3de7ee	-0.18545505
161	0x3e086e79	0.13323392
162	0xbeccd687	-0.4000742
163	0xbe2f6104	-0.17126852
164	0xbd017dce	-0.031614117
165	0xbd72875b	-0.059211116
166	0x3daa23f1	0.083076365
167	0xbc03a931	-0.008035944
168	0xbe2caa7e	-0.16861913
169	0x3dbab04b	0.091156565
170	0xbe1cc006	-0.15307626
171	0x3e5a941f	0.21345566
172	0x3f003ebf	0.5009574
173	0x3e557637	0.20845877
174	0x3ea7a907	0.32746145
175	0xbe4b45d8	-0.19850862
176	0x3eae1baa	0.3400548
177	0xbef05b79	-0.46944788
178	0x3d4e6298	0.050386995
179	0x3e97cdd3	0.2964922
180	0xbeafd67a	-0.3434332
181	0x3ef11042	0.47082716
182	0xbeb15757	-0.34636948
183	0xbb97b224	-0.0046293903
184	0xbe5e1a2b	-0.2168967
185	0xbe043e9f	-0.12914513
186	0x3ee16bd4	0.4402758
187	0xbede0b1e	-0.43367857
188	0x3eac3d4a	0.3364051
189	0xbed7608f	-0.42065856
190	0x3b99670d	0.004681474
191	0xbea5d400	-0.32388306
192	0xbea1d40b	-0.31607088
193	0x3ea3db11	0.32003072
194	0x3e828d0f	0.25498244
195	0xbe2ff295	-0.17182381
196	0x3ea07f23	0.31346998
197	0x3ead6c1a	0.33871537
198	0xbe88f62c	-0.26750314
199	0xbea170ff	-0.31531522
200	0x3ef96919	0.48712996
201	0xbe216c59	-0.15763988
202	0x3eb7f55b	0.3592938
203	0xbdf8d6af	-0.12150323
204	0xbd89bfd8	-0.067260444
205	0x3edf1556	0.43570966
206	0x3ecc11c5	0.39857307
207	0x3ef29d57	0.47385666
208	0x3e622a4e	0.2208645
209	0xbef098d4	-0.469916
210	0xbbd1213c	-0.0063821357
211	0x3e2ec3bf	0.17066859
212	0x3ebd3d08	0.36960626
213	0xbdfe5954	-0.12419382
214	0x3ca2c789	0.019870536
215	0x3e58ae8c	0.21160334
216	0xbe9bfff0	-0.30468702
217	0x3e00d149	0.12579836
218	0xbda192f9	-0.07889361
219	0xbe00ab52	-0.12565354
220	0xbe70ecff	-0.23527907
221	0x3e9d23a2	0.30691248
222	0x3eddc0e3	0.43311223
223	0x3d8b8067	0.068116
224	0xbc8d1853	-0.017223513
225	0x3ec0dc21	0.37667945
226	0x3edbba5d	0.4291562
227	0x3ee8195d	0.4533185
228	0x3ec18914	0.37799895
229	0x3c245e39	0.01003223
230	0xbe67f076	-0.22650322
231	0x3d0e0e1c	0.034681424
232	0xbe258333	-0.1616333
233	0x3d742941	0.059609655
234	0x3e2cf3e3	0.1688991
235	0x3d9f5e97	0.077817135
236	0x3e112842	0.14175513
237	0xbe38fc02	-0.18064883
238	0x3db8cf27	0.09023886
239	0x3e579086	0.21051225
240	0xbe8c1fd9	-0.27368048
241	0x3d3d837a	0.046267964
242	0xbee23b64	-0.44185936
243	0xbe81fa43	-0.25386247
244	0xbec7f6d8	-0.39055514
245	0x3ea7eea0	0.32799244
246	0x3d919d81	0.071101196
247	0xbebe0fa3	-0.37121305
248	0xbedd61b1	-0.43238595
249	0xbe1bb4cd	-0.15205689
250	0xbe2872d2	-0.1645005
251	0xbf02c20b	-0.51077336
252	0x3ca0a5d6	0.019610327
253	0x3ee3f9e7	0.44526598
254	0xbee02455	-0.4377772
255	0x3ee9064c	0.45512617

edge_function.0.bias f4 [64]
0	0x3ef37f8f	0.47558257
1	0xbe51d4e3	-0.20491366
2	0xbc57798e	-0.0131515395
3	0x3ef11331	0.47084954
4	0xbe759519	-0.23982657
5	0x3d985530	0.07438123
6	0xbe4c1d57	-0.19933067
7	0x3eae00f5	0.33985105
8	0x3e6b49ed	0.22977419
9	0x3eac68f8	0.33673835
10	0x3ea7cce3	0.32773504
11	0x3eee2984	0.4651605
12	0x3e9b5b48	0.3034308
13	0x3dc0f7bd	0.09422252
14	0x3ed933e4	0.42422402
15	0x3de07eac	0.10961661
16	0xbe97d132	-0.2965179
17	0x3e91b5c3	0.28458986
18	0xbde244cc	-0.11048278
19	0xbebe40a5	-0.37158695
20	0x3e6f19a1	0.2334962
21	0x3e36b88e	0.1784384
22	0xbe82c8e3	-0.2554389
23	0xbe78e8f6	-0.24307618
24	0xbe6df0fa	-0.23236457
25	0xbeaf0bd4	-0.34188712
26	0xbac66f1c	-0.0015139314
27	0x3e07fd5a	0.1328024
28	0xbe860cf5	-0.2618176
29	0xbecc467c	-0.39897525
30	0x3e1ef42e	0.15522835
31	0x3e7b2363	0.24525218
32	0x3e386abc	0.18009466
33	0xbd362fe3	-0.044479262
34	0xbee52f86	-0.4476282
35	0x3e66f0e2	0.22552827
36	0xbe089db1	-0.13341404
37	0x3da4f216	0.08053987
38	0xbdf04a0b	-0.117328726
39	0x3ee1e502	0.44120032
40	0xbee516fc	-0.44744098
41	0xbf03920e	-0.51394737
42	0xbe9c4e2d	-0.30528393
43	0xbe253b35	-0.16135867
44	0x3d13207f	0.035919663
45	0xbea8af60	-0.329463
46	0xbee3791c	-0.44428337
47	0x3c124be2	0.008929225
48	0x3e747560	0.238729
49	0xbbc97843	-0.0061483695
50	0xbea2b376	-0.31777543
51	0x3da3d197	0.079989605
52	0xbea844a4	-0.3286487
53	0x3d212fba	0.039352156
54	0x3eba296e	0.36359733
55	0xbd2ebe3b	-0.042661887
56	0xbe9b2afb	-0.3030623
57	0x3e47e182	0.19519618
58	0x3e774d6c	0.24150628
59	0xbe883ca4	-0.26608765
60	0xbef48b94	-0.4776274
61	0xbecbf328	-0.3983395
62	0x3efd1c21	0.49435523
63	0x3e6762b1	0.22596242

edge_function.2.weight f4 [64, 64]
0	0x3dda5ab6	0.10661833
1	0x3d8c0b1f	0.06838059
2	0xbe23c605	-0.15993507
3	0xbc6a6f19	-0.014308714
4	0xbc80c872	-0.01572058
5	0x3dcad3e0	0.09903693
6	0x3d0d50c0	0.034500837
7	0x3c7ec887	0.015550739
8	0x3d8c1310	0.068395734
9	0xb7b67d0f	-2.1754326e-05
10	0xb9cf528b	-0.00039543616
11	0xbd94d003	-0.072662376
12	0xbba23f13	-0.0049513667
13	0xbdf85ca7	-0.12127047
14	0xbce22b3c	-0.027608506
15	0x3d45e76a	0.048316397
16	0xbb96e361	-0.0046047424
17	0x3d90abfb	0.07064053
18	0xbc68d38c	-0.014210593
19	0xbcf26aff	-0.029592035
20	0xbd92bd04	-0.07164958
21	0x3dfd98ff	0.12382697
22	0x3df91eac	0.12164053
23	0xbd2dc642	-0.0424254
24	0xbd04efb8	-0.032455176
25	0xbe185e1c	-0.1487965
26	0xbd89d59a	-0.067301944
27	0xbdbd1e75	-0.09234325
28	0x3dd8116b	0.10550197
29	0x3decdeae	0.1156591
30	0xbdd58bbe	-0.10427044
31	0x3df4724e	0.119358644
32	0xbc016dff	-0.00789976
33	0xbcb944dd	-0.022615844
34	0x3c38fcd7	0.0112907505
35	0x3d210ef7	0.039320912
36	0x3d4917bb	0.049094897
37	0xbde24444	-0.11048177
38	0x3d92a549	0.07160432
39	0xbd555b39	-0.05208895
40	0xbde9c896	-0.11415212
41	0x3c938c2d	0.018011177
42	0x3d2e1e42	0.042509325
43	0x3dd4e158	0.103945434
44	0xbde4aba8	-0.11165553
45	0xbc98fa56	-0.018674057
46	0x3b9df505	0.0048204684
47	0xbd193dee	-0.037412576
48	0x3d6dd7ac	0.05806701
49	0xbc31c539	-0.010850244
50	0xbdc5b8d0	-0.09654391
51	0xbdb34692	-0.087536946
52	0xbbd324b5	-0.006443585
53	0x3da4380c	0.080185026
54	0x3d381509	0.044941936
55	0x3cffe96a	0.03123923
56	0xbcd3224f	-0.025773196
57	0x3c81dc49	0.01585211
58	0x3d5154dd	0.051106323
59	0xbdceec78	-0.101036966
60	0x3c0d845c	0.008637514
61	0xb99960f5	-0.00029254673
62	0xbd93c4bd	-0.07215259
63	0x3ce12a6c	0.027486049
64	0x3dd44523	0.10364749
65	0xbd34c5ed	-0.04413407
66	0x3d98123e	0.074253544
67	0xbcbd2ff4	-0.023094155
68	0xbbd470a2	-0.0064831534
69	0x3d71cf56	0.05903562
70	0xbc609c44	-0.013709132
71	0xbe10cc26	-0.14140376
72	0x3d8bc5de	0.068248495
73	0x3daca884	0.08430579
74	0xbb26836b	-0.002540792
75	0xbda06762	-0.07832219
76	0xbdc7e5db	-0.09760638
77	0xbdc9dd05	-0.09856609
78	0x3c87241f	0.016496716
79	0x3dcbc908	0.09950453
80	0xbdb4bce1	-0.08825088
81	0xbcfa0ff7	-0.03052519
82	0x3c81e877	0.015857918
83	0x3d449067	0.047989275
84	0xbdb75b4c	-0.0895296
85	0xbd58d32b	-0.05293576
86	0xbdc696c3	-0.09696724
87	0xbc855465	-0.016275594
88	0x3d569873	0.05239148
89	0x3c9537f9	0.018215166
90	0xbe06eb22	-0.13175634
91	0xbd9e1f72	-0.077208415
92	0x3db3d1a0	0.08780217
93	0xbddc1e32	-0.10747947
94	0xbd959260	-0.073033094
95	0x3db118af	0.08647286
96	0xbc8951cf	-0.016762642
97	0x3d54b53c	0.05193065
98	0xbe16ce6c	-0.14727181
99	0x3d458709	0.048224483
100	0xbe02d253	-0.12775545
101	0xbdd653bb	-0.10465189
102	0xbc8be28a	-0.017075796
103	0x3d7feb4c	0.062480256
104	0xbd8116c2	-0.06303169
105	0x3d80b9bf	0.06285428
106	0xbd2dbe7c	-0.04241799
107	0xbcdef090	-0.027214319
108	0x3db8eaf4	0.09029189
109	0xbdc99cc3	-0.09844353
110	0x3c9b2925	0.018940518
111	0xbc936c98	-0.017996117
112	0x3d8cc531	0.06873549
113	0xbdc215a2	-0.094767824
114	0xbde23c21	-0.11046625
115	0xbbce47f3	-0.006295198
116	0xbd8e1e03	-0.06939318
117	0x3ba0e040	0.004909545
118	0x3d65b0eb	0.056076925
119	0xbda40f98	-0.08010787
120	0xbde148d0	-0.11000216
121	0x3db0386f	0.08604514
122	0x3cead050	0.028663784
123	0xbdc470f6	-0.09591858
124	0xbd4743a4	-0.04864849
125	0x3daa7ebf	0.08324956
126	0xbdbaf82e	-0.09129368
127	0xbe1603c9	-0.14649881
128	0xbd96d637	-0.07365077
129	0x3c7006cf	0.014650061
130	0xbdbc9ae6	-0.09209232
131	0x3caf5776	0.02140401
132	0x3d0c15f6	0.03420063
133	0xbd518ad5	-0.05115779
134	0x3dea8b3e	0.114523396
135	0xbc6f6fd0	-0.0146140605
136	0x3db45120	0.08804536
137	0xbe2234fd	-0.15840526
138	0x3da632f2	0.08115186
139	0x3d669771	0.05629677
140	0x3da0c87f	0.078507416
141	0xbde9f7ca	-0.11424215
142	0xbdff42b7	-0.12463897
143	0xbcfd18d5	-0.03089563
144	0xbde3a31a	-0.111150935
145	0xbda12efb	-0.07870289
146	0x3dc9ae52	0.09847702
147	0xbe3e2075	-0.18567069
148	0x3df06e2e	0.11739765
149	0xbd2a311d	-0.041550744
150	0x3c440934	0.011965085
151	0x3c523638	0.01283031
152	0xbd55e98a	-0.052224673
153	0xbda691e6	-0.08133297
154	0xbc69176d	-0.014226777
155	0xbdc97079	-0.098359056
156	0x3db2f864	0.08738783
157	0xbd125d44	-0.035733476
158	0x3d40decd	0.04708748
159	0x3dbb8618	0.09156436
160	0x3d1485c5	0.036260385
161	0x3d2eaa5d	0.04264294
162	0x3d79e330	0.06100768
163	0xbd374a59	-0.044748638
164	0xbd0f0e2a	-0.034925617
165	0xbc520b47	-0.012820072
166	0x3cfc0a9c	0.030766778
167	0x3cc11961	0.023571672
168	0x3da0d01a	0.07852192
169	0x3cf6f2d0	0.030145079
170	0xbdd81551	-0.10550941
171	0x3d1a25f6	0.03763386
172	0xbd5c7e1b	-0.0538312
173	0x3d6381c9	0.055543695
174	0xbe09d9d1	-0.13461997
175	0xbc75d638	-0.015004687
176	0xbcc055b5	-0.023478368
177	0xbd29bf3a	-0.041442133
178	0x3d428955	0.04749425
179	0x3aa520a4	0.0012598229
180	0xbb7d3326	-0.0038635223
181	0xbcffee4b	-0.031241557
182	0x3c3a335b	0.011364783
183	0xbda9fd81	-0.08300305
184	0x3cbddc77	0.023176415
185	0x3cb8e8d6	0.022571962
186	0xbdde575e	-0.10856508
187	0xbdf468c6	-0.119340464
188	0xbd9cf905	-0.07664684
189	0xbdd64b14	-0.10463539
190	0xbd7c9969	-0.06166974
191	0x3d32d57f	0.043660637
192	0xbd981ce0	-0.074273825
193	0x3b92d580	0.0044810176
194	0x3d6c0db5	0.05763026
195	0xbe2c6207	-0.1683427
196	0xbd6a5fae	-0.057220154
197	0xbdb1271a	-0.08650036
198	0xbdc42364	-0.09577063
199	0x3d0d05ed	0.03442948
200	0xbdca979e	-0.098922
201	0xbd671755	-0.056418736
202	0xbd9eb5e4	-0.07749537
203	0xbbe0f5b1	-0.006865226
204	0xbd1f7a50	-0.038935006
205	0x3d5f146b	0.05446283
206	0xbe299864	-0.16562039
207	0xbe3b9356	-0.18317923
208	0xbcd9ad65	-0.026571939
209	0xbd6abe68	-0.05731049
210	0xbd69d81c	-0.057090864
211	0xbc80e664	-0.015734859
212	0xbd5dd613	-0.054159235
213	0x3dbeeeae	0.09322868
214	0x3c5d8ff0	0.013523087
215	0x3dcffb23	0.101553224
216	0x3d5780e4	0.052613154
217	0xbdf43818	-0.119247615
218	0xbdb86c0f	-0.090049855
219	0xbdc91286	-0.09817986
220	0xbd5a8670	-0.053350866
221	0xbc67fa78	-0.0141588375
222	0xbd0377dc	-0.03209673
223	0xbd8a4bcc	-0.06752738
224	0xbdb27268	-0.087132275
225	0xbb3acdc0	-0.0028503984
226	0x3d722bf4	0.05912395
227	0xba698919	-0.0008908674
228	0x3d27b9c4	0.040948644
229	0x3d0cb8d9	0.034355972
230	0xbc80a660	-0.015704334
231	0x3da04da2	0.07827307
232	0xbca7099b	-0.020390322
233	0xbdaad1f9	-0.0834083
234	0x3dea1a8e	0.11430846
235	0xbdbe2d32	-0.09285964
236	0xbdcb2b54	-0.099203736
237	0xbdae743d	-0.085182644
238	0xbd78aad1	-0.06070978
239	0xbd8bdaf8	-0.06828874
240	0xbda59924	-0.0808585
241	0x3cbf1000	0.02332306
242	0x3d652ae0	0.055949092
243	0xbc175fd0	-0.009239152
244	0x3da67680	0.08128071
245	0x3caa7348	0.020806924
246	0xbc3b96a3	-0.011449489
247	0x3c45cc40	0.012072623
248	0xbdd5fefc	-0.10449025
249	0xbd05c034	-0.032654002
250	0xbd9969a4	-0.074908525
251	0x3d86d7fe	0.06584166
252	0x3d78d38e	0.06074863
253	0x3d595aae	0.053064995
254	0xbde6ec7a	-0.11275573
255	0xbda99a92	-0.08281435

edge_function.2.bias f4 [64]
0	0x3c787442	0.015164437
1	0x3d67734b	0.056506436
2	0x3d21aa41	0.039469007
3	0xbd759d4b	-0.05996446
4	0x3decc3b8	0.11560768
5	0x3cca3ebd	0.02468812
6	0x3d847e00	0.06469345
7	0x3dccbe20	0.09997201
8	0xbdbf6eb5	-0.093472876
9	0xbd5e58ab	-0.05428378
10	0x3d1a7837	0.037712302
11	0x3d636233	0.055513572
12	0x3e215d12	0.1575816
13	0xbe1d64b9	-0.15370454
14	0x3e25263c	0.16127867
15	0xbdccb8ae	-0.09996162
16	0xbc7a2dc7	-0.015269703
17	0x3d1f17a6	0.038840912
18	0xbdbd254a	-0.09235628
19	0xbd5eef51	-0.05442745
20	0xbda678de	-0.08128522
21	0x3eaa5cb2	0.33273846
22	0xbdf1b2f2	-0.11801709
23	0x3d8fe556	0.07026164
24	0xbda99072	-0.08279504
25	0xbdbfeaec	-0.0937098
26	0x3db832f4	0.089940935
27	0x3d7932a6	0.060839318
28	0x3d66b75b	0.056327205
29	0xbdb0c769	-0.086317845
30	0x3cf1ab53	0.029500639
31	0x3ce673f5	0.028131464
32	0xbdb5cc16	-0.08876817
33	0x3dc0be93	0.09411349
34	0x3de8269b	0.113354884
35	0x3c79e0f0	0.015251383
36	0x3d83697a	0.064166024
37	0xbcf6bf61	-0.030120553
38	0x3e356b5f	0.1771674
39	0x3deaa652	0.11457504
40	0xbcd58b70	-0.026067466
41	0x3e05603e	0.13024995
42	0x3c991e3a	0.018691171
43	0x3dc9bc17	0.098503284
44	0x3b86f151	0.0041181226
45	0xbcafd676	-0.021464568
46	0xbdc7b34b	-0.09750994
47	0xbd25b1d3	-0.04045279
48	0xbdb8c1bb	-0.09021326
49	0x3d4d85b0	0.050176322
50	0x3d97efdf	0.07418799
51	0x3ddebd51	0.10875953
52	0xbe11c73f	-0.14236163
53	0x3bc9de92	0.0061605657
54	0x3cd69ae1	0.026196899
55	0x3cf4b399	0.029870795
56	0xbdcddd5d	-0.10051987
57	0x3d1b921b	0.037981134
58	0x3db262df	0.087102644
59	0xbdbb0f60	-0.09133792
60	0x3dbc3d2e	0.091913566
61	0xbe1ab6f3	-0.15108852
62	0xbdca6f27	-0.09884482
63	0xbd49fc36	-0.049312793
