Projects/GuoxiangGrayson_T_A study of multi-fidelity graph neural networks/Model_save/Quarter2D/Rank=63-GNN-nB-64-Lr-0.005/model.pth (torch, 114781 bytes, 24 tensors)

node_function_neighbor.0.weight f4 [64, 2]
-0.33192548 -0.1064673 0.5639705 0.26177922 -0.3813522 0.5431907 -0.47017476 -0.6782273
-0.5144981 -0.38093975 -0.54030734 0.31716716 0.25549847 -0.22307053 0.04620384 0.044210706
0.45704985 -0.23943244 -0.4651914 0.06521165 0.22104476 0.11210744 -0.3551658 0.24780422
0.6275053 -0.66371346 -0.59487885 0.52714086 0.4013893 -0.46203342 -0.1906772 0.11707103
0.5235693 -0.03969308 -0.35836136 -0.55997765 0.40767747 -0.4702769 0.17212075 -0.14340869
0.5059345 0.3370062 -0.11863685 -0.30744997 -0.7298275 0.6425952 -0.042799197 -0.5867474
0.07577097 0.2709466 -0.08034589 -0.38182044 -0.12003926 0.06214064 -0.32046545 0.18331906
0.5071895 0.5606636 0.17916226 -0.41753107 0.4783756 0.22378942 -0.088330075 -0.50142175
0.6851103 -0.17778468 0.64080405 0.65446204 -0.6286265 0.5749902 -0.003480142 -0.5390778
-0.43641755 -0.55782306 -0.6327565 -0.47101766 0.09142397 -0.22253041 0.60440165 0.51848364
-0.5988458 0.37654015 0.2230882 -0.7082751 0.39332226 0.517681 -0.54106 0.4980539
-0.49710724 0.6273806 -0.17702205 0.60756475 0.30124965 0.42260757 0.53462595 -0.2763643
0.47035366 -0.19116214 -0.39674398 -0.64234096 0.6349616 -0.33071092 0.2199078 -0.50897604
0.45948502 -0.05388258 -0.6683475 -0.5552842 0.5504505 0.21457602 0.16397932 -0.6967271
0.67376834 0.10451964 -0.5243242 0.3975903 -0.09128036 0.23481658 -0.16851085 0.36839464
0.106218405 -0.022147177 -0.5522044 0.23119257 -0.09464029 -0.3128895 -0.70989627 0.42542174
00000000: 23f2 a9be 870b dabd 5f60 103f ed07 863e
00000010: 9840 c3be 8c0e 0b3f bfba f0be 4ea0 2dbf
00000020: 26b6 03bf 890a c3be 9551 0abf bc63 a23e
00000030: b2d0 823e 9a6c 64be 3d40 3d3d 4916 353d
00000040: 7002 ea3e c72d 75be 912d eebe b08d 853d
00000050: 8f59 623e 9698 e53d 4bd8 b5be 64c0 7d3e
00000060: 30a4 203f 20e9 29bf fb49 18bf b4f2 063f
00000070: e682 cd3e a58f ecbe e240 43be f0c2 ef3d
00000080: a308 063f 3695 22bd 247b b7be b25a 0fbf
00000090: 1abb d03e 22c8 f0be 6c40 303e bad9 12be
000000a0: ec84 013f 148c ac3e e0f7 f2bd 156a 9dbe
000000b0: fad5 3abf 1e81 243f 364e 2fbd 1435 16bf
000000c0: cf2d 9b3d 83b9 8a3e 638c a4bd f87d c3be
000000d0: 25d7 f5bd 2f87 7e3d 0c14 a4be feb7 3b3e
000000e0: 2cd7 013f a687 0f3f 5076 373e a2c6 d5be
000000f0: a6ed f43e 0e29 653e 66e6 b4bd 2d5d 00bf
00000100: 6363 2f3f 300d 36be bc0b 243f d38a 273f
00000110: abed 20bf 8f32 133f 1813 64bb 0101 0abf
00000120: 1f72 dfbe 7ecd 0ebf 54fc 21bf 3a29 f1be
00000130: 7e3c bb3d 03df 63be 11ba 1a3f 58bb 043f
00000140: f54d 19bf dfc9 c03e 3c71 643e 8451 35bf
00000150: 8961 c93e be86 043f e882 0abf ec00 ff3e
00000160: d784 febe 049c 203f 4545 35be 5d89 1b3f
00000170: 653d 9a3e 0560 d83e 3fdd 083f 9f7f 8dbe
00000180: 32d2 f03e 02c0 43be 0722 cbbe 7570 24bf
00000190: d88c 223f f152 a9be 832f 613e 414c 02bf
000001a0: 9f41 eb3e fbb3 5cbd d218 2bbf 1b27 0ebf
000001b0: 53ea 0c3f d1b9 5b3e 32ea 273e b55c 32bf
000001c0: 157c 2c3f 650e d63d 1c3a 06bf f590 cb3e
000001d0: 33f1 babd c273 703e 1c8e 2cbe 399e bc3e
000001e0: 0989 d93d ff6d b5bc 445d 0dbf bfbd 6c3e
000001f0: c5d2 c1bd 0d33 a0be c3bb 35bf e1d0 d93e

node_function_neighbor.0.bias f4 [64]
-0.5870933 0.65758085 -0.7057044 0.32652286 0.34093615 -0.24911942 0.5587124 0.49485165
-0.42702103 0.2759235 0.5644704 -0.30579007 0.62201816 0.3197838 0.62398535 -0.06463186
0.511544 -0.5831633 -0.08681998 -0.2705474 -0.12567678 0.30992866 -0.62431306 0.172667
0.3560089 0.38439044 0.018695544 -0.65515953 0.5993466 -0.12218545 -0.51838595 -0.4628038
-0.49239618 0.4614086 0.333189 -0.4187781 0.31052634 -0.34013227 -0.6462314 -0.43352523
-0.4298202 -0.25239533 0.24526013 0.2525499 -0.1366093 -0.45924887 -0.28940973 0.51137906
-0.09850162 -0.44274637 0.47278664 -0.37494457 -0.13608986 -0.6954321 -0.22041534 -0.2987752
0.32186598 -0.24350588 0.05706365 -0.04140397 0.25911596 -0.2101199 0.10471704 -0.47231355
00000000: bf4b 16bf 3857 283f 0ba9 34bf 012e a73e
00000010: 2f8f ae3e 2919 7fbe c707 0f3f 325d fd3e
00000020: 80a2 dabe d845 8d3e 2281 103f 8490 9cbe
00000030: 953c 1f3f b4ba a33e 81bd 1f3f b55d 84bd
00000040: 8cf4 023f 314a 15bf acce b1bd 3085 8abe
00000050: 6ab1 00be f8ae 9e3e fbd2 1fbf 9ecf 303e
00000060: cc46 b63e d3ce c43e 6627 993c 89b8 27bf
00000070: c76e 193f 5d3c fabd f1b4 04bf 9ff4 ecbe
00000080: 5a1b fcbe bf3d ec3e c097 aa3e 156a d6be
00000090: 4ffd 9e3e d125 aebe 6c6f 25bf 05f7 ddbe
000000a0: 6511 dcbe f639 81be 7925 7b3e 384e 813e
000000b0: 4fe3 0bbe ab22 ebbe 832d 94be bde9 023f
000000c0: 38bb c9bd a7af e2be 1711 f23e bcf8 bfbe
000000d0: 245b 0bbe d707 32bf 8fb4 61be 10f9 98be
000000e0: 9ecb a43e 9b59 79be 93bb 693d 3697 29bd
000000f0: d9aa 843e ac29 57be e375 d63d 15d3 f1be

node_function_neighbor.2.weight f4 [64, 64]
-0.1274317 -0.039047826 -0.072520144 -0.06882008 0.106014416 0.059380483 -0.06821835 -0.13100983
0.001911382 -0.028941717 0.07114466 -0.12541157 -0.101912424 0.08987653 -0.086327285 0.056486193
-0.102857344 -0.11884373 0.060289137 -0.018972842 0.017018007 0.096248366 -0.08717038 -0.14532536
-0.101405874 -0.12362824 -0.10105703 0.08538494 0.078637004 0.0068890154 -0.15789106 -0.13420622
-0.018436644 0.07176475 -0.11614037 -0.10297564 -0.044405364 0.11606183 0.017999966 0.0060564363
-0.01698283 -0.009680915 0.07866858 0.02917884 -0.077220544 0.11117791 -0.11659137 -0.17685738
-0.11784592 0.09498477 -0.020176359 -0.09504487 0.07635808 -0.07921394 -0.048357327 -0.07581758
-0.019262489 -0.004570354 -0.0028737944 -0.0054133697 -0.018096613 -0.09729648 -0.07839496 -0.11589406
-0.05116436 -0.088585794 -0.09104861 0.025529757 0.09019518 -0.011626586 -0.014386073 -0.08465037
-0.010283038 -0.060594007 0.09559743 -0.10001513 -0.019862846 -0.10316822 -0.082275 0.07316305
-0.019371659 -0.06056285 0.010266274 -0.028037116 -0.060300082 -0.03316912 -0.09163357 0.046046644
-0.04496713 -0.032773152 -0.06660727 -0.019768879 -0.05427985 0.026469305 -0.017687201 -0.021072239
-0.11817175 -0.110533476 -0.0890916 0.0689522 -0.014578998 -0.05590348 -0.022750854 -0.052580297
0.089346334 -0.010988027 -0.122170836 -0.018123612 0.046611667 0.08719246 -0.0001526624 0.057560757
-0.07050313 0.09608543 0.013330802 -0.03114891 0.06361359 0.02190791 0.055787995 -0.063124
0.02613756 0.012135446 -0.03592074 0.12277475 -0.104963675 -0.068442315 -0.07323268 0.0057542026
-0.0020688702 0.04926311 0.055189718 0.098847635 0.08027619 -0.039374016 0.067481644 -0.010365162
0.09313937 0.083178416 -0.018385345 0.14009824 0.04391565 -0.031940717 -0.07615657 0.014992367
0.025522256 -0.008613615 -0.03571467 0.05985829 0.028349038 0.023931144 0.04685503 -0.084715955
-0.061540116 0.06904412 -0.0033968405 0.1274204 0.04590448 -0.036488008 -0.011991135 -0.02140809
-0.019295173 -0.02003401 -0.07774879 -0.026890028 0.10310636 -0.012524882 0.09642914 -0.1112271
0.010753225 0.12145311 -0.11543765 -0.016601948 -0.054442376 -0.07498576 -0.087343924 -0.0542725
0.032842204 -0.07563064 0.013370524 -0.095154315 0.024401298 0.047457356 -0.12931159 -0.029105026
-0.057785083 -0.077538796 -0.085031375 -0.07535015 0.063084155 -0.05647845 -0.0515046 -0.059059486
0.061853033 -0.037910026 0.080966026 -0.072919145 0.04434922 -0.06372848 -0.03737513 -0.11980932
-0.024329886 0.0678414 -0.119074464 -0.045540273 0.04789604 -0.050365023 -0.018499428 -0.00036022067
0.07195976 -0.057977825 0.022729982 -0.07254047 0.02405309 0.08196489 0.06604055 0.028852198
-0.08970333 -0.012759465 -0.033257693 -0.004042208 -0.012644301 0.060904954 -0.10972844 0.056923136
-0.049445126 -0.14740215 0.03055015 -0.091226436 -0.08211301 -0.0989101 -0.08934729 -0.04384786
-0.08551888 -0.08269494 0.07180028 -0.04307475 -0.05921762 -0.1599345 0.07202353 -0.0017956636
0.0057583256 -0.084801495 -0.15491904 0.010334918 0.043220304 -0.06105568 -0.0872409 0.014098278
-0.08735826 0.048965532 0.06272478 -0.030066893 0.06073561 -0.028053345 0.06730174 0.009098157
00000000: 757d 02be 9df0 1fbd 7185 94bd 8bf1 8cbd
00000010: 161e d93d f338 733d 10b6 8bbd 7127 06be
00000020: 5687 fa3a 2e17 edbc 4bb4 913d e46b 00be
00000030: 76b7 d0bd 3011 b83d 5ccc b0bd 115e 673d
00000040: dfa6 d2bd 5764 f3bd bef1 763d ef6c 9bbc
00000050: 5969 8b3c dd1d c53d 6286 b2bd 2cd0 14be
00000060: e2ad cfbd cd30 fdbd fdf6 cebd 4dde ae3d
00000070: 700c a13d 40bd e13b 32ae 21be 5b6d 09be
00000080: 7208 97bc 66f9 923d 01db edbd e4e4 d2bd
00000090: 66e2 35bd d3b1 ed3d aa74 933c 1275 c63b
000000a0: 931f 8bbc b39c 1ebc fe1c a13d 7608 ef3c
000000b0: ce25 9ebd 3eb1 e33d 75c7 eebd 1a1a 35be
000000c0: 3459 f1bd 6087 c23d e448 a5bc e3a6 c2bd
000000d0: a061 9c3d eb3a a2bd 5512 46bd 3f46 9bbd
000000e0: 5ecc 9dbc e8c2 95bb 4556 3cbb a362 b1bb
000000f0: 593f 94bc 6043 c7bd 898d a0bd dd59 edbd
00000100: b891 51bd 786c b5bd b277 babd c823 d13c
00000110: 40b8 b83d 707d 3ebc 90b3 6bbc 2c5d adbd
00000120: 307a 28bc 6c31 78bd 96c8 c33d bcd4 ccbd
00000130: 68b7 a2bc dc49 d3bd cc7f a8bd 82d6 953d
00000140: 50b1 9ebc c010 78bd e033 283c 18ae e5bc
00000150: 38fd 76bd 58dc 07bd 62aa bbbd 689b 3c3d
00000160: 742f 38bd 243d 06bd 6469 88bd 58f2 a1bc
00000170: 8c54 5ebd 28d6 d83c c0e4 90bc b09f acbc
00000180: 0804 f2bd 605f e2bd a875 b6bd d036 8d3d
00000190: c0dc 6ebc 0cfb 64bd 0060 babc 705e 57bd
000001a0: 36fb b63d 2007 34bc b434 fabd f877 94bc
000001b0: e0eb 3e3d f691 b23d 0014 20b9 d4c4 6b3d
000001c0: f263 90bd 70c8 c43d 7069 5a3c 002c ffbc
000001d0: d847 823d 3878 b33c f481 643d 2847 81bd
000001e0: 701e d63c c0d3 463c a021 13bd 5471 fb3d
000001f0: 32f7 d6bd 7c2b 8cbd 04fb 95bd c08d bc3b
00000200: e295 07bb 1dc8 493d 9d0e 623d a170 ca3d
00000210: d867 a43d a646 21bd d133 8a3d a4d2 29bc
00000220: dbbf be3d 7259 aa3d dd9c 96bc ea75 0f3e
00000230: e6e0 333d 45d4 02bd faf7 9bbd 8ba2 753c
00000240: 0d14 d13c 1f20 0dbc 8c49 12bd f72d 753d
00000250: 3e3c e83c 3f0b c43c 0feb 3f3d 8f7f adbd
00000260: 7d11 7cbd 0167 8d3d 879d 5ebb 7e7a 023e
00000270: 5606 3c3d 7374 15bd 7776 44bc 0560 afbc
00000280: e910 9ebc 5d1e a4bc c23a 9fbd 7a48 dcbc
00000290: 6d29 d33d 2a35 4dbc a47c c53d 09cb e3bd
000002a0: 4b2e 303c 68bc f83d 936a ecbd cf00 88bc
000002b0: f8fe 5ebd 2292 99bd 5fe1 b2bd d74c 5ebd
000002c0: 8c85 063d 3de4 9abd 0b10 5b3c 44e0 c2bd
000002d0: 3be5 c73c a562 423d 426a 04be aa6d eebc
000002e0: 0db0 6cbd a9cc 9ebd ee24 aebd 2e51 9abd
000002f0: 4432 813d f255 67bd 7df6 52bd 5ce8 71bd
00000300: 9b59 7d3d 8b47 1bbd 84d1 a53d a256 95bd
00000310: 87a7 353d 1484 82bd aa16 19bd 975e f5bd
00000320: 784f c7bc 6ff0 8a3d 50dd f3bd 7088 3abd
00000330: a32e 443d 8e4b 4ebd 1d8c 97bc 00dc bcb9
00000340: a35f 933d 287a 6dbd 3a34 ba3c 1990 94bd
00000350: fc0a c53c 35dd a73d 4540 873d 725b ec3c
00000360: 61b6 b7bd 130d 51bc 3839 08bd 8074 84bb
00000370: 0b2a 4fbc 7977 793d 4eb9 e0bd 3c28 693d
00000380: f986 4abd 97f0 16be 4f44 fa3c edd4 babd
00000390: de2a a8bd 6191 cabd b6fb b6bd d099 33bd
000003a0: 8624 afbd f75b a9bd 060c 933d 266f 30bd
000003b0: 2d8e 72bd dfc5 23be 1381 933d 795c ebba
000003c0: 56b0 bc3b 68ac adbd 19a3 1ebe ca53 293c
000003d0: c607 313d 8515 7abd 5bab b2bd 77fc 663c
000003e0: e3e8 b2bd 1590 483d d975 803d d84e f6bc
000003f0: e7c5 783d 21d0 e5bc 7fd5 893d 7010 153c

node_function_neighbor.2.bias f4 [64]
0.057505332 0.005625263 -0.02081726 0.009064918 0.010887937 -0.0022680922 -0.06507138 0.08614022
-0.12945975 0.16025524 -0.057520136 0.034604788 -0.043524634 -0.011425727 -0.1466173 -0.020818148
0.08187725 0.025910273 -0.104886994 -0.038317297 -0.065612175 -0.13535038 0.11467386 -0.011978809
-0.07821858 -0.14324914 -0.108841695 0.065924734 0.047012813 0.075470015 0.0030132886 0.091595344
-0.016298547 0.07100046 0.07199679 -0.031797774 -0.0057007223 -0.13815609 -0.13675454 0.07067209
0.07343979 -0.11509545 -0.007913071 0.07145119 0.053722907 -0.083661966 -0.037852336 -0.011109187
-0.019378662 0.03968593 0.089643076 -0.08116359 -0.08395419 0.053597677 -0.021792272 -0.09306139
0.12382741 0.068540834 -0.10390722 -0.09320903 0.07886496 -0.11400064 -0.1354852 -0.089352034
00000000: b68a 6b3d 2054 b83b f588 aabc 0685 143c
00000010: 5163 323c 46a4 14bb 2544 85bd 496a b03d
00000020: 1991 04be f319 243e 3c9a 6bbd c0bd 0d3d
00000030: e346 32bd f932 3bbc d822 16be d28a aabc
00000040: 42af a73d c841 d43c fece d6bd 99f2 1cbd
00000050: ad5f 86bd 4a99 0abe 21da ea3d c442 44bc
00000060: 1031 a0bd e7af 12be 65e8 debd 8c03 873d
00000070: 8290 403d 0690 9a3d 987a 453b 5796 bb3d
00000080: 8884 85bc b068 913d 0e73 933d 623e 02bd
00000090: 20cd babb ca78 0dbe 6209 0cbe 87bc 903d
000000a0: 9a67 963d 2ab7 ebbd d3a5 01bc 0055 923d
000000b0: 8d0c 5c3d f756 abbd 0d0b 1bbd 4f03 36bc
000000c0: 00c0 9ebc b78d 223d ca96 b73d 1939 a6bd
000000d0: 2df0 abbd 3d89 5b3d b585 b2bc f896 bebd
000000e0: 3a99 fd3d 235f 8c3d 4fcd d4bd 60e4 bebd
000000f0: f483 a13d 2b79 e9bd a2bc 0abe 33fe b6bd

node_function_neighbor.4.weight f4 [64, 64]
-0.10192053 -0.011973485 -0.062802926 -0.023328831 0.095482156 0.08097704 -0.07392299 0.024719283
-0.14234674 -0.03955289 -0.032215 0.082694285 -0.014209564 -0.09384259 0.085645445 0.11310404
-0.03307821 -0.052430794 0.028423635 0.11740333 0.11365377 0.07342259 0.10682062 0.04402849
-0.09701232 0.008495391 0.036709674 -0.1052329 -0.11768354 -0.02886504 -0.00012989587 0.002550163
0.059872285 0.017477114 -0.06990422 0.09942252 0.05188763 0.013903896 0.050827492 0.07814251
0.02098462 0.08149042 0.029235044 0.071680464 0.013951768 -0.11144707 -0.10761493 0.07807757
0.008872598 0.09033348 -0.10892061 -0.08903496 -0.07535427 0.023425411 0.071570754 0.10780892
0.0002617687 0.025438534 0.049570624 0.070353106 -0.07596139 -0.03812055 -0.13401726 -0.1269205
-0.018711645 0.10309437 0.050184038 -0.059422065 -0.06040888 0.056198373 -0.10804035 0.09378457
0.07882961 0.08229345 0.013185099 -0.044417363 -0.08434209 -0.13883415 -0.12999162 0.042997222
0.060351644 -0.119833015 -0.016878517 -0.021135528 0.087932386 0.038347602 0.074184954 0.03377595
-0.020985575 0.03552171 -0.030172575 -0.00095947605 0.03608669 -0.06421384 0.067238525 0.010603453
0.025090247 0.07548903 -0.14793795 0.0043228753 -0.0106217265 0.020891406 0.119536 0.039293464
-0.06337372 -0.047096 -0.030961629 0.05805905 0.0020356157 0.0955592 0.014958978 -0.009032141
0.004073441 -0.05098608 0.042342946 -0.075340375 -0.040507037 0.108283095 -0.025561092 0.10543393
-0.0168477 0.03703643 0.1198788 -0.1294411 -0.058298703 -0.07710153 0.07849057 0.117963485
-0.036566284 -0.12321775 0.1308152 0.035587564 0.116729826 -0.039540976 0.10532529 -0.0037975607
-0.041153975 0.12413934 -0.04292121 -0.024167882 -0.15139212 0.0006705296 0.05818507 -0.079839595
0.14369944 -0.026073212 -0.14686759 -0.077081166 0.010999563 0.10112895 -0.07254429 -0.032393858
0.06763813 -0.12277509 -0.081430286 0.060572505 0.09464749 -0.11676584 -0.052850183 0.038409323
-0.024676621 -0.024969773 0.010326541 -0.05187331 -0.06816764 -0.08812986 -0.066668734 0.036376383
-0.040996265 0.02257314 -0.059830382 -0.2859126 -0.09035143 0.10714845 0.1400582 0.10338399
-0.0886455 0.047782123 -0.05962108 0.025508642 0.15657344 -0.07514032 -0.044720586 -0.028284699
0.0015755892 -0.19007944 -0.060122952 -0.11022171 -0.050960578 -0.10988763 0.044406354 -0.046921495
0.08017763 -0.116254 0.026963754 0.104609214 -0.00898118 -0.06231611 -0.15259947 0.071942724
0.10907362 0.040182438 -0.03672506 -0.0071529867 -0.052774362 -0.14727226 0.08377108 -0.11915382
-0.049381435 -0.0025006512 0.001445634 -0.047031287 -0.16336475 0.0795418 0.08673193 -0.09551659
-0.118175216 -0.03415875 0.070937194 -0.10618202 -0.0033495019 0.0096669495 0.05611466 -0.11805918
0.04532048 0.053741798 0.07941296 0.045914926 -0.02117747 -0.14401165 -0.030637333 0.0062382245
0.07330655 -0.14681563 -0.07354159 0.08511194 0.052615404 -0.0779681 0.055692866 -0.077373154
0.09282482 -0.095862284 -0.056482162 0.12469983 -0.12713471 0.056692097 -0.075446896 0.048322096
0.011239797 -0.07047269 -0.11791296 -0.08816971 0.052101467 -0.030463327 -0.02793872 0.011217563
00000000: b6bb d0bd 702c 44bc d29e 80bd 1b1c bfbc
00000010: 268c c33d 4ad7 a53d f064 97bd 1880 ca3c
00000020: 58c3 11be 3602 22bd e0f3 03bd 9f5b a93d
00000030: 3bcf 68bc 8b30 c0bd e166 af3d 17a3 e73d
00000040: 047d 07bd acc1 56bd afd8 e83c 2871 f03d
00000050: 4fc3 e83d 955e 963d c5c4 da3d 3857 343d
00000060: 65ae c6bd 4130 0b3c e25c 163d 5984 d7bd
00000070: 1104 f1bd 6076 ecbc a834 08b9 a320 273b
00000080: a43c 753d 2a2c 8f3c f229 8fbd 099e cb3d
00000090: 2088 543d 2bcd 633c 7d30 503d 2e09 a03d
000000a0: f0e7 ab3c 73e4 a63d 557e ef3c 35cd 923d
000000b0: f595 643c 5d3e e4bd 3765 dcbd 22e7 9f3d
000000c0: 605e 113c c200 b93d c511 dfbd f657 b6bd
000000d0: 5753 9abd a6e6 bf3c b093 923d ecca dc3d
000000e0: 003e 8939 7964 d03c 910a 4b3d 4a15 903d
000000f0: a591 9bbd 4b24 1cbd d23b 09be 73f7 01be
00000100: 2a49 99bc 2423 d33d c78d 4d3d 8d64 73bd
00000110: 4d6f 77bd 4430 663d 4244 ddbd 2012 c03d
00000120: 6b71 a13d 7889 a83d 5006 583c fbee 35bd
00000130: 8cbb acbd 8a2a 0ebe 861c 05be db1d 303d
00000140: 4933 773d 036b f5bd d144 8abc 6a24 adbc
00000150: e515 b43d 6012 1d3d 48ee 973d a758 0a3d
00000160: f1e9 abbc 367f 113d 7a2c f7bc 5985 7bba
00000170: a3cf 133d 8c82 83bd 5ab4 893d 1bba 2d3c
00000180: 108a cd3c fe99 9a3d 0c7d 17be e8a6 8d3b
00000190: c006 2ebc 7424 ab3c 4acf f43d 2ff2 203d
000001a0: 15ca 81bd bce7 40bd 3ea3 fdbc 54cf 6d3d
000001b0: f767 053b 8bb4 c33d 8016 753c 8cfb 13bc
000001c0: 807a 853b c8d6 50bd cc6f 2d3d 0e4c 9abd
000001d0: b5ea 25bd 87c3 dd3d 7f65 d1bc bfed d73d
000001e0: 3004 8abc 83b3 173d 0483 f53d 358c 04be
000001f0: 9fca 6ebd 68e7 9dbd aabf a03d d796 f13d
00000200: 87c6 15bd 9659 fcbd 6bf4 053e 44c4 113d
00000210: 0c10 ef3d b8f5 21bd c9b4 d73d 7fe0 78bb
00000220: 1291 28bd c43c fe3d 27ce 2fbd b9fb c5bc
00000230: 8906 1bbe 7bc6 2f3a 7853 6e3d f182 a3bd
00000240: f225 133e 7d97 d5bc 7564 16be bbdc 9dbd
00000250: 8337 343c b21c cf3d 1a92 94bd 6caf 04bd
00000260: dc85 8a3d 8271 fbbd ecc4 a6bd e01a 783d
00000270: 8bd6 c13d ee22 efbd 6f79 58bd 1853 1d3d
00000280: a026 cabc 698d ccbc a730 293c 1c79 54bd
00000290: 7a9b 8bbd 6e7d b4bd 9e89 88bd 67ff 143d
000002a0: b3eb 27bd 4eeb b83c b410 75bd 2363 92be
000002b0: 2c0a b9bd a670 db3d 6b6b 0f3e fcba d33d
000002c0: c68b b5bd 30b7 433d 3c35 74bd 80f7 d03c
000002d0: ca54 203e 2be3 99bd ef2c 37bd 50b5 e7bc
000002e0: 0084 ce3a 2fa4 42be 7c43 76bd ebbb e1bd
000002f0: 0abc 50bd c40c e1bd 70e3 353d c130 40bd
00000300: 2b34 a43d 9416 eebd 17e3 dc3c 5b3d d63d
00000310: cd25 13bc 2d3f 7fbd 0943 1cbe b556 933d
00000320: fd61 df3d 5796 243d 046d 16bd 9a63 eabb
00000330: ee29 58bd 8ace 16be 2c90 ab3d eb06 f4bd
00000340: 3044 4abd f7e1 23bb 6e7b bd3a e1a3 40bd
00000350: 1749 27be d0e6 a23d 83a0 b13d 349e c3bd
00000360: d905 f2bd 0cea 0bbd 8547 913d f575 d9bd
00000370: 5183 5bbb 2062 1e3c 7cd8 653d 03c9 f1bd
00000380: f8a1 393d 5c20 5c3d 43a3 a23d 4a11 3c3d
00000390: 607c adbc ca77 13be 25fb fabc 056a cc3b
000003a0: bf21 963d d656 16be f99c 96bd 2b4f ae3d
000003b0: 4083 573d bdad 9fbd 341e 643d d175 9ebd
000003c0: f01a be3d 7253 c4bd d759 67bd a062 ff3d
000003d0: 9a2f 02be f935 683d e783 9abd 64ed 453d
000003e0: 2027 383c fc53 90bd 5a7c f1bd 5292 b4bd
000003f0: 5968 553d 3a8e f9bc bedf e4bc dfc9 373c

node_function_neighbor.4.bias f4 [64]
-0.12345773 0.0067746122 -0.061293095 -0.028050756 0.025428029 -0.14122936 0.07850566 -0.036054168
0.010879028 0.009080361 -0.07523773 -0.09498335 -0.14655559 -0.019876288 -0.09727944 -0.1167809
0.12614965 0.12609872 -0.015700301 -0.011676901 0.102513686 -0.062841 -0.08179561 -0.08331233
-0.021994526 -0.05373232 -0.0355414 -0.11781335 -0.020769598 0.027165143 -0.003697335 0.098063454
0.13111542 -0.1471359 0.045220856 -0.08622319 0.055183213 0.07637455 -0.07012946 -0.06176015
0.013416814 0.09764386 -0.008218174 0.10842462 -0.10125239 0.058709092 -0.09482802 0.11221981
0.03416686 -0.08261535 0.037366543 -0.017379098 -0.06787854 -0.016360885 0.043230698 -0.109713756
0.05752551 -0.05007263 0.048174094 -0.07687305 -0.11905868 -0.08855678 -0.07617858 0.11741061
00000000: 68d7 fcbd 91fd dd3b 780e 7bbd b3ca e5bc
00000010: 714e d03c 6e9e 10be 93c7 a03d 89ad 13bd
00000020: f33d 323c cbc5 143c 3d16 9abd a186 c2bd
00000030: ab12 16be 99d3 a2bc 713a c7bd d32a efbd
00000040: 602d 013e 0620 013e eb9d 80bc 7950 3fbc
00000050: b2f2 d13d c8b2 80bd 7584 a7bd a89f aabd
00000060: dd2d b4bc 6c16 5cbd dc93 11bd 2048 f1bd
00000070: 0125 aabc 6f89 de3c fd4e 72bb 7ed5 c83d
00000080: 1f43 063e cbaa 16be 8139 393d c995 b0bd
00000090: cb07 623d 436a 9c3d 09a0 8fbd 36f8 7cbd
000000a0: 32d2 5b3c 81f9 c73d 85a5 06bc ba0d de3d
000000b0: 6a5d cfbd f278 703d 3135 c2bd 80d3 e53d
000000c0: 8df2 0b3d 3d32 a9bd a90d 193d 9c5e 8ebc
000000d0: e703 8bbd 4307 86bc ac12 313d 9bb1 e0bd
000000e0: df9f 6b3d f518 4dbd 3352 453d 9e6f 9dbd
000000f0: 0ad5 f3bd 425d b5bd 8403 9cbd f974 f03d

node_function_neighbor.6.weight f4 [4, 64]
0.09094348 0.12986259 -0.006978156 0.0072672903 0.08078763 0.080035865 0.049119007 0.04618143
-0.08687667 -0.08658123 0.0787311 0.020743957 -0.13704176 0.029712772 -0.053724922 0.024376925
0.075165644 0.14163256 -0.03939043 -0.01466676 0.07798645 -0.09403621 0.13180628 -0.0697688
0.04457057 0.058960516 -0.027724374 -0.018037038 -0.009237071 0.046962667 0.0795924 -0.014756686
0.00010656053 0.02307379 0.045568824 0.059737667 0.010540263 -0.017625013 -0.051814646 0.09385316
0.0036991858 0.08280623 0.011589422 -0.069535285 0.00862595 -0.023624165 -0.010238078 0.06846765
-0.0705125 -0.010968158 0.076193206 -0.033280343 -0.095539294 0.101539984 0.04308071 -0.038113024
0.12459036 -0.050397687 -0.06566491 -0.0190549 0.11137678 0.114609145 -0.031775262 0.02000663
0.05318004 -0.10002649 -0.13736564 -0.04579008 -0.08468441 -0.008832777 -0.020142777 0.11662539
-0.087987356 -0.057805214 0.09977501 -0.09354819 -0.03503918 0.055355106 0.073953666 0.024437042
0.06477385 -0.0043193866 0.0013754664 -0.1021641 0.07386355 0.09067956 -0.04481147 -0.020262338
-0.061579008 -0.059903067 -0.1320378 0.099200994 -0.04948824 0.008195897 -0.0076951417 0.06240714
0.03449442 -0.015950749 -0.09412119 0.15007819 -0.017549166 -0.09672117 0.03423262 0.05727409
-0.03607295 0.014881511 0.02919548 -0.042193796 0.03331727 -0.079176106 -0.092188545 -0.030319368
-0.04860182 -0.08311966 -0.07013621 -0.12753148 0.045809947 0.09030948 0.021317868 -0.004025436
-0.117064595 0.0652409 -0.11036659 -0.056098405 0.02683989 -0.0093941 -0.0025397884 0.12811026
0.06932361 0.06052951 -0.08298559 0.10842659 -0.009983194 -0.12043056 -0.08048752 0.06396388
0.036981568 -0.08955276 0.009232557 -0.002839323 0.010510946 -0.03399226 0.068928935 -0.09035992
-0.055922285 0.0008732401 0.057940263 -0.06442504 0.03193308 0.035613902 0.004608121 0.033504814
0.08470232 -0.087249935 0.01581638 0.04145584 0.03997352 -0.027653946 0.055576056 -0.11846492
-0.10656178 0.024677636 -0.083103254 0.011575783 -0.1322321 -0.03521331 -0.021221962 -0.030813979
0.02386358 -0.11972439 -0.06965608 -0.08901874 -0.082927346 -0.037651837 0.07904757 -0.07515301
-0.09083825 0.030591426 -0.06454126 -0.06885292 -0.05117413 -0.16914794 -0.03956931 0.0023135736
-0.074813545 -0.11185541 0.044792373 -0.07164582 -0.03067535 -0.09356495 0.09493331 -0.031496935
-0.10495322 -0.090304166 -0.041340854 -0.055724688 0.016269268 0.04774398 -0.10384811 -0.09701353
-0.11354996 0.02012208 -0.039018374 -0.033027582 -0.14479429 0.038400486 -0.000671756 -0.04147387
0.024153024 -0.10244897 0.026983943 -0.08401003 -0.09992609 -0.036747243 -0.11913004 0.05291078
0.037332907 -0.012740351 0.09646317 -0.014392765 0.06059298 0.05766754 0.012532011 0.057343177
0.060924474 -0.06843209 0.031747214 -0.03869427 -0.05562018 0.08818029 -0.037853744 -0.072901376
0.015768526 -0.070177816 0.08302978 0.09008398 -0.053552635 -0.011643124 -0.129893 0.009888206
0.019951068 0.023959674 -0.06292191 -0.045003146 0.04238059 0.0988403 -0.02274236 -0.07040363
-0.022438535 0.04831136 -0.04740494 -0.08995379 0.043432724 0.06327059 -0.005202541 0.02393149
00000000: 9340 ba3d b3fa 043e 04a9 e4bb 7322 ee3b
00000010: fc73 a53d d8e9 a33d 0331 493d bd28 3d3d
00000020: 65ec b1bd 8051 b1bd c53d a13d 3bef a93c
00000030: ad54 0cbe 3368 f33c aa0e 5cbd 1eb2 c73c
00000040: 72f0 993d 2008 113e dc57 21bd da4c 70bc
00000050: 5cb7 9f3d 0e96 c0bd 3af8 063e f2e2 8ebd
00000060: a18f 363d 9580 713d 3a1e e3bc 69c2 93bc
00000070: 1557 17bc ed5b 403d 5701 a33d 07c6 71bc
00000080: 4079 df38 3f05 bd3c 60a6 3a3d 7caf 743d
00000090: 11b1 2c3c 5562 90bc 983b 54bd 1636 c03d
000000a0: 0a6e 723b 5096 a93d 8fe1 3d3c 8468 8ebd
000000b0: db53 0d3c 7787 c1bc 9dbd 27bc c438 8c3d
000000c0: dc68 90bd cab3 33bc 2f0b 9c3d f850 08bd
000000d0: 1baa c3bd 32f4 cf3d 6675 303d 671c 1cbd
000000e0: 3b29 ff3d ce6d 4ebd 537b 86bd 0619 9cbc
000000f0: 8219 e43d 33b8 ea3d c726 02bd f2e4 a33c
00000100: 50d3 593d b0da ccbd 94a9 0cbe 618e 3bbd
00000110: 056f adbd 5ab7 10bc 7702 a5bc 4bd9 ee3d
00000120: b732 b4bd 29c5 6cbd d756 cc3d 3296 bfbd
00000130: 3e85 0fbd 09bc 623d 0575 973d 3130 c83c
00000140: 27a8 843d a489 8dbb fe48 b43a 693b d1bd
00000150: c645 973d 35b6 b93d 3b8c 37bd 34fd a5bc
00000160: 453a 7cbd eb5c 75bd eb34 07be e429 cb3d
00000170: 2eb4 4abd 1548 063c 8727 fcbb a19e 7f3d
00000180: 054a 0d3d 25ab 82bc 9cc2 c0bd 19ae 193e
00000190: 45c3 8fbc c015 c6bd 8137 0c3d 3c98 6a3d
000001a0: 3bc1 13bd 95d1 733c 5c2b ef3c 67d3 2cbd
000001b0: b177 083d 1527 a2bd 59cd bcbd 5360 f8bc
000001c0: b412 47bd a43a aabd 93a3 8fbd 9d97 02be
000001d0: 36a3 3b3d 2df4 b83d cfa2 ae3c cee7 83bb
000001e0: 90bf efbd 059d 853d e107 e2bd 71c7 65bd
000001f0: 54df db3c b6e9 19bc 9472 26bb 562f 033e
00000200: 89f9 8d3d cbed 773d 59f4 a9bd c30e de3d
00000210: 8d90 23bc 4ca4 f6bd a4d6 a4bd 7fff 823d
00000220: fc79 173d 7067 b7bd 2744 173c ef13 3abb
00000230: 1a36 2c3c 783b 0bbd 9d2a 8d3d 9f0e b9bd
00000240: c40e 65bd 27ea 643a c552 6d3d 46f1 83bd
00000250: 43cc 023d e2df 113d b8ff 963b 583c 093d
00000260: 6978 ad3d 18b0 b2bd 5a91 813c 99cd 293d
00000270: 46bb 233d 878a e2bc b8a3 633d bc9d f2bd
00000280: 103d dabd c128 ca3c 0a32 aabd 5aa8 3d3c
00000290: da67 07be d53b 10bd aed9 adbc 996d fcbc
000002a0: 8e7d c33c 1032 f5bd d9a7 8ebd 754f b6bd
000002b0: d0d5 a9bd d038 1abd b1e3 a13d d2e9 99bd
000002c0: 6809 babd df9a fa3c 352e 84bd c202 8dbd
000002d0: f79b 51bd 1e35 2dbe 6e13 22bd 539f 173b
000002e0: d837 99bd 7314 e5bd 3578 373d 0bbb 92bd
000002f0: df4a fbbc fb9e bfbd 656c c23d ee02 01bd
00000300: b7f1 d6bd 64f1 b8bd 0755 29bd 923f 64bd
00000310: 2147 853c 318f 433d 51ae d4bd 08af c6bd
00000320: e28c e8bd 0fd7 a43c bbd1 1fbd ee47 07bd
00000330: f444 14be d449 1d3d c818 30ba 81e0 29bd
00000340: 90dc c53c c4d0 d1bd 6e0d dd3c 730d acbd
00000350: 0da6 ccbd 4784 16bd 73fa f3bd f9b8 583d
00000360: 64ea 183d e8bc 50bc 7c8e c53d a2cf 6bbc
00000370: 5830 783d cc34 6c3d 1053 4d3c aee0 6a3d
00000380: f18b 793d 2026 8cbd 5e09 023d e27d 1ebd
00000390: fcd1 63bd de97 b43d 870c 1bbd 514d 95bd
000003a0: ff2c 813c 63b9 8fbd 840b aa3d f37d b83d
000003b0: 025a 5bbd cdc2 3ebc ac02 05be 2402 223c
000003c0: 6c70 a33c 1447 c43c 34dd 80bd 3855 38bd
000003d0: 4597 2d3d c96c ca3d 304e babc c72f 90bd
000003e0: 05d1 b7bc 22e2 453d af2b 42bd b139 b8bd
000003f0: 83e6 313d 0394 813d 147a aabb f90b c43c

node_function_neighbor.6.bias f4 [4]
0.034762356 -0.024624826 0.04429855 -0.05504346
00000000: f962 0e3d 01ba c9bc 6572 353d 4075 61bd

edge_function.0.weight f4 [64, 4]
-0.13222294 0.009893262 0.15888499 -0.29490387 -0.026847653 -0.32622406 0.44251633 -0.0040512765
0.0069176056 0.011403045 0.36742604 -0.33512726 -0.349944 -0.14169967 0.0646905 -0.46035007
-0.21265358 0.46909592 -0.10142454 0.22829136 -0.46961486 -0.36431277 -0.34802985 -0.061368212
-0.0055617485 0.13389185 0.24379857 -0.31465247 0.4250616 0.20291133 -0.08562734 0.32031715
-0.3044774 -0.47363955 -0.33482978 0.21873756 -0.09399669 0.012985299 -0.19807476 0.15070337
0.11571491 0.4303988 0.39506367 -0.22789295 -0.1842289 0.28973648 -0.44505516 0.25540364
-0.03247815 -0.35925174 0.21153815 0.3133331 -0.40658295 -0.011552279 -0.04204062 -0.06314797
-0.17808577 0.46679726 0.46863553 -0.44628036 0.41258872 -0.42485344 0.4444306 -0.08104002
0.12707624 -0.26550546 0.48155245 0.21065366 0.20984094 0.2557932 -0.44112504 -0.16587442
0.0649907 0.18329924 0.2468549 -0.22961678 0.06730251 -0.3019821 0.5076653 -0.21485545
-0.43188784 -0.24486144 0.2826758 0.27692145 0.23166902 0.3411946 -0.45457098 -0.28032
-0.1375895 -0.26029122 -0.23558684 -0.018016387 0.41060987 -0.072244845 0.41623127 -0.08447392
-0.15158443 -0.36086562 0.0802609 -0.19481683 0.04918515 0.4643844 -0.21650085 -0.45195404
0.4846993 -0.24642009 0.46398044 -0.23935856 -0.41491595 0.2987097 0.21505933 -0.16666637
0.021652581 0.48205125 -0.38393837 0.15507887 -0.17711443 -0.17631839 0.06795991 -0.37497595
0.30643407 -0.060311962 -0.16482252 -0.05582294 0.25728038 -0.28861204 0.32024398 -0.1256633
0.30966318 -0.3271786 0.16981761 -0.0086594885 -0.41246974 -0.08854243 0.39306408 0.27551007
-0.27148563 -0.044872813 -0.09713563 0.46088833 0.46810573 -0.06932073 0.40374497 0.36834916
-0.28511685 0.28595912 0.14977491 -0.27209234 -0.22106561 -0.3310448 -0.33715695 0.046796776
0.15323557 0.00064293767 -0.41499752 -0.43690684 0.16007821 0.32098904 -0.18838872 -0.10344092
0.46982262 0.44743007 -0.44864017 0.13883823 -0.27848938 -0.03454874 0.12818195 0.16005552
-0.22951888 0.28888965 0.15600944 0.040066507 0.2530562 0.048574567 -0.4102127 -0.034318227
-0.53128386 0.15761556 -0.046900146 0.3635061 -0.11030206 0.32804057 -0.0010979294 -0.30178702
0.3966615 0.39774328 0.17539199 0.32148662 -0.27923664 -0.0384131 0.2756657 -0.079412125
0.29043588 -0.15405276 0.27421382 -0.4228035 0.44473878 -0.42286897 -0.015132267 0.10734281
-0.39092207 0.3634218 0.4333996 0.31256646 0.13058913 0.23082538 -0.18821572 0.028295426
-0.16913761 0.014076162 0.1898906 -0.18532604 -0.2580577 -0.07364757 -0.46203533 -0.0040266495
-0.06848747 -0.33945507 0.22281523 -0.010149968 -0.25424454 -0.063553914 0.14906952 0.40749076
0.50505143 0.45415533 0.22836266 -0.107768536 -0.09597827 0.31891522 -0.3666003 -0.11714165
-0.32068032 0.22187072 -0.2463808 0.4707695 0.24444497 -0.48075247 -0.30933085 -0.3884568
-0.41239002 0.40853217 0.025232332 0.42759287 0.15793361 -0.38420847 0.43425876 0.26597333
-0.05321231 0.3854023 -0.5161937 0.25905827 -0.33975217 0.11823302 0.03820654 0.11542469
00000000: 7365 07be 5917 223c bfb2 223e a4fd 96be
00000010: 9cef dbbc d706 a7be 8091 e23e 92c0 84bb
00000020: 15ad e23b d6d3 3a3c 441f bc3e cd95 abbe
00000030: dc2b b3be b819 11be 747c 843d 01b3 ebbe
00000040: dcc1 59be 572d f03e abb7 cfbd 36c5 693e
00000050: 5c71 f0be 3487 babe f830 b2be 3c5d 7bbd
00000060: 543f b6bb f21a 093e 55a6 793e 211a a1be
00000070: ada1 d93e fdc7 4f3e 635d afbd 9c00 a43e
00000080: 76e4 9bbe e280 f2be cf6e abbe bdfc 5f3e
00000090: 5681 c0bd 4bc0 543c 1cd4 4abe fc51 1a3e
000000a0: f0fb ec3d 3b5d dc3e c945 ca3e c55c 69be
000000b0: 80a6 3cbe 5758 943e 45de e3be 44c4 823e
000000c0: cf07 05bd d8ef b7be 759d 583e 326d a03e
000000d0: a42b d0be c545 3dbc c932 2cbd b953 81bd
000000e0: 1e5c 36be 0d00 ef3e fff0 ef3e dc7e e4be
000000f0: d43e d33e 6486 d9be 688c e33e 4ff8 a5bd
00000100: 4620 023e 55f0 87be 0b8e f63e 98b5 573e
00000110: 8be0 563e 54f7 823e 24db e1be fcda 29be
00000120: d819 853d ccb2 3b3e 88c7 7c3e a920 6bbe
00000130: e6d5 893d 669d 9abe 5af6 013f 1103 5cbe
00000140: 6720 ddbe f5bc 7abe e2ba 903e a6c8 8d3e
00000150: a53a 6d3e 0fb1 ae3e 87bd e8be 1a86 8fbe
00000160: 43e4 0cbe e444 85be ad3d 71be 1a97 93bc
00000170: 753b d23e 1bf5 93bd 441c d53e aa00 adbd
00000180: f338 1bbe 61c3 b8be d45f a43d 107e 47be
00000190: 5e76 493d cbc3 ed3e 66b2 5dbe 8566 e7be
000001a0: 822a f83e 8c55 7cbe d88e ed3e 691a 75be
000001b0: dd6f d4be 7af0 983e 8338 5c3e 97aa 2abe
000001c0: c160 b13c 6ccf f63e 9293 c4be ffcc 1e3e
000001d0: 7c5d 35be cf8c 34be 912e 8b3d d9fc bfbe
000001e0: ede4 9c3e ad09 77bd 3cc7 28be 98a6 64bd
000001f0: 41ba 833e f5c4 93be 05f7 a33e e1ad 00be
00000200: 2c8c 9e3e f483 a7be abe4 2d3e 87e0 0dbc
00000210: 3c2f d3be bc55 b5bd b23f c93e a80f 8d3e
00000220: 2a00 8bbe 8ecc 37bd 0cef c6bd 8ef9 eb3e
00000230: 8eab ef3e 07f8 8dbd a9b7 ce3e 4398 bc3e
00000240: d6fa 91be 3c69 923e 985e 193e b04f 8bbe
00000250: 065f 62be b47e a9be d69f acbe faad 3f3d
00000260: c9e9 1c3e d18a 283a 8e7a d4be 41b2 dfbe
00000270: 8beb 233e ad58 a43e f9e8 40be d5d8 d3bd
00000280: 978c f03e 8e15 e53e 2ab4 e5be 9c2b 0e3e
00000290: 2996 8ebe fb82 0dbd 2142 033e 98e5 233e
000002a0: ff06 6bbe 58e9 933e f0c0 1f3e c71c 243d
000002b0: 9590 813e 20f6 463d 6607 d2be 4591 0cbd
000002c0: 3802 08bf f965 213e 5e1a 40bd 791d ba3e
000002d0: 0ce6 e1bd eff4 a73e 66e8 8fba d483 9abe
000002e0: 3717 cb3e 02a5 cb3e f599 333e e599 a43e
000002f0: 1bf8 8ebe 0e57 1dbd 0e24 8d3e d3a2 a2bd
00000300: 03b4 943e 02c0 1dbe c165 8c3e b379 d8be
00000310: cdb4 e33e 4882 d8be 54ed 77bc 8cd6 db3d
00000320: f026 c8be 6c12 ba3e 8de6 dd3e b608 a03e
00000330: 28b9 053e 7d5d 6c3e 9fbb 40be cfcb e73c
00000340: 6932 2dbe b49f 663c ae72 423e 1cc6 3dbe
00000350: 2420 84be 8ad4 96bd e58f ecbe fcf1 83bb
00000360: 2943 8cbd 0ecd adbe ad29 643e 0d4c 26bc
00000370: 572c 82be 8e28 82bd aea5 183e a1a2 d03e
00000380: 0d4b 013f 0c87 e83e e7d7 693e c0b5 dcbd
00000390: 4190 c4bd db48 a33e 09b3 bbbe f6e7 efbd
000003a0: 3630 a4be 1432 633e 404b 7cbe b308 f13e
000003b0: c84f 7a3e 3025 f6be 9d60 9ebe cfe3 c6be
000003c0: c924 d3be 212b d13e 09b4 ce3c 74ed da3e
000003d0: 59b9 213e f9b6 c4be 2a57 de3e a82d 883e
000003e0: 27f5 59bd 7353 c53e 4525 04bf 49a3 843e
000003f0: fff3 adbe 2724 f23d 767e 1c3d c863 ec3d

edge_function.0.bias f4 [64]
0.11388056 0.5157694 0.5102087 0.4139709 -0.2629495 0.4635892 -0.018363988 0.16709608
0.23115022 -0.35865787 -0.17695391 0.10001101 0.4157086 0.35185182 0.18503167 -0.038119994
0.0031827525 0.1294156 0.17661443 -0.2955389 0.5020408 -0.24681368 0.31851748 -0.2813174
0.33986506 0.006196271 -0.14004438 0.3323563 0.4307972 0.15684146 0.12995039 0.18684068
-0.0742948 -0.25883776 -0.3165834 0.11360716 -0.32931265 0.5134305 0.30095527 0.1365183
0.19879498 0.22597979 -0.20360251 0.2057436 -0.44427517 -0.10408001 0.39185265 -0.20394512
-0.39020032 -0.026202736 -0.047402825 -0.3287511 0.47862366 0.3440599 0.29492426 -0.45135185
-0.06886088 -0.71834636 -0.37692627 -0.36922595 -0.48021904 -0.26241234 -0.23832786 -0.017090565
00000000: 363a e93d 7709 043f 0a9d 023f fef3 d33e
00000010: 51a1 86be 905b ed3e 1370 96bc 3c1b 2b3e
00000020: a5b2 6c3e 01a2 b7be 6833 35be 93d2 cc3d
00000030: c2d7 d43e ec25 b43e f178 3d3e b623 1cbd
00000040: ba95 503b 8685 043e 6ada 343e e050 97be
00000050: bf85 003f babc 7cbe b914 a33e d608 90be
00000060: cb02 ae3e 170a cb3b cb67 0fbe 9b2a aa3e
00000070: 7391 dc3e 0c9b 203e b711 053e 2a53 3f3e
00000080: df27 98bd 6286 84be 3817 a2be dfaa e83d
00000090: ab9b a8be 2e70 033f cf16 9a3e 74cb 0b3e
000000a0: e990 4b3e 3f67 673e 2d7d 50be 73ae 523e
000000b0: 0978 e3be e627 d5bd e9a0 c83e fdd6 50be
000000c0: 56c8 c7be 1fa7 d6bc 7729 42bd 1052 a8be
000000d0: 290e f53e 9f28 b03e 5000 973e 9717 e7be
000000e0: ef06 8dbd 8ce5 37bf 7bfc c0be 2f0b bdbe
000000f0: 45df f5be e95a 86be 380c 74be 8301 8cbc

edge_function.2.weight f4 [64, 64]
-0.07463362 -0.0352645 -0.052644003 0.027822193 0.079801485 0.00063662755 -0.015873663 -0.010068517
-0.046913635 -0.02360403 -0.044744857 -0.07033543 -0.06283327 0.077296756 0.07312863 -0.06800377
0.05130253 -0.07034007 0.10351337 -0.028307255 0.12874514 -0.15621299 -0.049020793 0.111947335
0.014797355 0.10927184 0.06676004 -0.035723466 -0.078241974 0.021477079 -0.0988373 0.089760706
-0.119743854 0.07622518 -0.035293806 0.014604924 0.061639737 -0.003090484 -0.14254795 0.045570556
-0.05237613 -0.08027702 -0.08771475 0.061727412 -0.08865809 -0.03630171 -0.028380675 0.058472212
-0.059856556 0.051923007 0.067935124 0.104930036 0.057288844 -0.09705511 0.05314718 0.029480526
-0.08517702 0.062159333 0.1085574 0.014047162 0.059397977 0.031041581 -0.028588502 -0.03667197
0.072413385 0.051424026 0.026898857 -0.06470125 0.023766825 0.031403273 0.096796915 0.1247324
-0.07647721 0.026455004 0.0009829929 0.11192538 -0.085135765 -0.01624354 0.091883086 0.036785908
-0.11541609 -0.11042094 0.07329416 0.14070183 0.1932565 -0.13712054 -0.05227182 -0.006606802
0.10014769 -0.028145868 0.014958879 0.10385237 -0.068827264 -0.011423973 -0.09648477 -0.01820855
-0.035749625 0.09353326 0.022676717 -0.003914187 0.022286212 -0.13235413 -0.057093628 0.070448115
-0.11836818 0.05707702 -0.08485652 0.05571886 0.047906052 0.017676199 0.045553755 0.02306984
0.11274501 0.024091361 0.07651181 0.013890679 0.021994205 -0.14628507 0.12278992 0.102356486
-0.047790475 -0.1556974 0.022712579 -0.1560607 0.060472865 0.012249656 -0.0017985825 0.033358578
-0.06605232 0.08740603 0.0130367 -0.03317592 -0.0011357774 0.041475296 -0.08033771 -0.058168266
-0.115370825 0.0073096342 -0.051009707 0.103678286 -0.049902357 0.08952355 -0.04310948 -0.022479063
-0.10794242 0.06973012 0.031629145 0.084626876 -0.11337658 0.011245089 -0.12633942 0.06695059
0.02442594 0.028432518 0.09260992 0.08484501 -0.019054253 -0.13215955 0.07250419 0.0036057667
0.030079056 0.09638629 0.08436676 -0.031907465 -0.044724736 -0.00970199 -0.029968472 0.11094177
0.116162 -0.15108085 0.06724119 -0.00067248166 -0.005992292 -0.10724352 -0.10714275 -0.050420072
-0.17157431 -0.02029875 -0.030813117 0.123868 0.011338469 -0.004251521 -0.12436162 0.004338679
0.02832383 -0.023790432 -0.097667724 -0.047178097 -0.04253565 -0.0020361121 -0.12370728 -0.0938292
-0.046636753 -0.032175224 0.08733445 0.112631276 -0.048474424 -0.08436866 -0.07601709 -0.053706802
-0.053323314 0.033652183 -0.09532467 0.01013071 -0.018303439 -0.033884257 0.036559872 0.060861833
0.034421448 -0.053917725 -0.07765022 0.080506206 0.053149402 -0.1625573 -0.13726172 0.0970371
0.122658655 0.102750875 0.02183365 -0.05133713 0.023777872 0.08409821 0.012962879 -0.061995793
-0.08169784 0.09861562 0.03383429 0.11024082 -0.0721003 -0.17834377 -0.017079653 0.08562954
0.07789048 -0.0638768 -0.11374408 -0.01788674 0.07934797 0.023884049 0.110144645 0.07295947
0.0668025 0.052415725 0.06913273 0.018978473 -0.02958049 -0.12739702 0.008843144 0.10728745
-0.093421906 0.08134863 -0.01678655 -0.19320306 0.06787599 -0.079036295 0.05538363 0.052304566
00000000: 83d9 98bd 8271 10bd 3da1 57bd 5eeb e33c
00000010: f66e a33d 5ae3 263a 7c09 82bc 6cf6 24bc
00000020: 8328 40bd 3d5d c1bc 6246 37bd 060c 90bd
00000030: bbae 80bd c34d 9e3d 77c4 953d 9045 8bbd
00000040: 9a22 523d 740e 90bd d1fe d33d 9ee4 e7bc
00000050: c4d5 033e 4cf6 1fbe 07ca 48bd a544 e53d
00000060: 9b70 723c eac9 df3d 7db9 883d c552 12bd
00000070: 543d a0bd b3f0 af3c 366b cabd 76d4 b73d
00000080: 443c f5bd f21b 9c3d 3d90 10bd 7e49 6f3c
00000090: f379 7c3d b889 4abb 17f8 11be 31a8 3a3d
000000a0: 5a88 56bd 4768 a4bd caa3 b3bd e2d5 7c3d
000000b0: 5f92 b5bd 1ab1 14bd 977e e8bc 8f80 6f3d
000000c0: 262c 75bd 38ad 543d 9221 8b3d 8fe5 d63d
000000d0: b5a7 6a3d d4c4 c6bd dbb0 593d 2581 f13c
000000e0: 4a71 aebd c99a 7e3d 5853 de3d 1126 663c
000000f0: 4b4b 733d ea4a fe3c 6f32 eabc 5935 16bd
00000100: 784d 943d 00a2 523d fe5a dc3c 1782 84bd
00000110: a5b2 c23c b8a0 003d 763d c63d b373 ff3d
00000120: 15a0 9cbd 2ab8 d83c c5d7 803a 2239 e53d
00000130: a95b aebd 2c11 85bc 332d bc3d d2ac 163d
00000140: 455f ecbd 6024 e2bd 401b 963d 2414 103e
00000150: 08e5 453e 5469 0cbe fa1a 56bd df7d d8bb
00000160: 3b1a cd3d 2a92 e6bc 1616 753c 8db0 d43d
00000170: 4ff5 8cbd 9e2b 3bbc cf99 c5bd 192a 95bc
00000180: 336e 12bd 5e8e bf3d 86c4 b93c 9542 80bb
00000190: 9391 b63c d787 07be 02db 69bd 1a47 903d
000001a0: 046b f2bd 98c9 693d 41c9 adbd 7639 643d
000001b0: 2339 443d adcd 903c 9396 3a3d f6fc bc3c
000001c0: dbe6 e63d 3f5b c53c 39b2 9c3d bb95 633c
000001d0: 312d b43c c1cb 15be 4879 fb3d 47a0 d13d
000001e0: f2bf 43bd 246f 1fbe bb0f ba3c 60ce 1fbe
000001f0: 65b2 773d c8b2 483c 6abe ebba 01a3 083d
00000200: 7046 87bd ef01 b33d e297 553c 79e3 07bd
00000210: 5ede 94ba 00e2 293d 1988 a4bd d941 6ebd
00000220: 8a47 ecbd a885 ef3b 8eef 50bd 4855 d43d
00000230: 6a66 4cbd 1f58 b73d 9193 30bd 0326 b8bc
00000240: ea10 ddbd aace 8e3d 908d 013d db50 ad3d
00000250: fb31 e8bd 523d 383c 1f5f 01be 641d 893d
00000260: e918 c83c 50eb e83c 45aa bd3d 38c3 ad3d
00000270: aa17 9cbc d554 07be 147d 943d ba4e 6c3b
00000280: 5a68 f63c 2d66 c53d 7bc8 ac3d 67b1 02bd
00000290: 4931 37bd 18f5 1ebc 7180 f5bc 7035 e33d
000002a0: 58e6 ed3d f0b4 1abe c0b5 893d 7b49 30ba
000002b0: fd5a c4bb 7ea2 dbbd a86d dbbd 4785 4ebd
000002c0: 2db1 2fbe 9049 a6bc ca6b fcbc 82ae fd3d
000002d0: fcc4 393c 5850 8bbb 4eb1 febd 7a2b 8e3b
000002e0: 6007 e83c 27e4 c2bc 0406 c8bd d23d 41bd
000002f0: dd39 2ebd 4b70 05bb 3e5a fdbd 8629 c0bd
00000300: 2e06 3fbd 2bca 03bd 67dc b23d 3aab e63d
00000310: 1e8d 46bd 7ac9 acbd d9ae 9bbd aafb 5bbd
00000320: 8c69 5abd dfd6 093d 9539 c3bd 47fb 253c
00000330: 18f1 95bc 38ca 0abd cebf 153d 424a 793d
00000340: 81fd 0c3d d5d8 5cbd 1407 9fbd 70e0 a43d
00000350: 30b3 593d 6c75 26be 568e 0cbe 63bb c63d
00000360: 7634 fb3d 0d6f d23d 7cdc b23c e246 52bd
00000370: d0c9 c23c af3b ac3d 4162 543c 4def 7dbd
00000380: 3251 a7bd fcf6 c93d d395 0a3d f0c5 e13d
00000390: 52a9 93bd c09f 36be a1ea 8bbc 8a5e af3d
000003a0: 0b85 9f3d d7d1 82bd a8f2 e8bd 3687 92bc
000003b0: 3081 a23d 7ba8 c33c 8493 e13d c66b 953d
000003c0: c0cf 883d dfb1 563d 7695 8d3d be78 9b3c
000003d0: c952 f2bc 5d74 02be d6e2 103c 86b9 db3d
000003e0: fc53 bfbd 1c9a a63d f283 89bc 06d7 45be
000003f0: 9102 8b3d c8dd a1bd f2d9 623d 503d 563d

edge_function.2.bias f4 [64]
0.12380685 -0.056195043 0.096310064 0.1281801 -0.09715216 -0.04507499 0.15699737 -0.06981864
-0.033195633 0.113249876 0.081919566 0.015585179 0.13840921 0.07846375 0.096928395 0.006341334
-0.037584014 -0.10182997 0.043222982 0.09201812 0.1639941 -0.022232652 0.058610838 0.004312292
0.016907323 0.027984962 -0.034053467 -0.007043251 0.055737413 -0.066582 0.09163567 -0.02285301
0.052660342 -0.10638522 0.027363697 0.14933327 -0.15967162 -0.09417691 0.05095901 0.15325832
-0.12466887 0.075669594 0.028875876 -0.065805495 0.07501393 -0.020501703 0.058042876 -0.09400031
-0.06388192 -0.10576117 -0.060330853 0.1460881 -0.007574977 0.13786688 0.028402086 -0.0065865917
-0.05955774 0.007798461 0.19286019 0.04677548 -0.059933275 -0.049787257 0.08797742 0.0049347808
00000000: 728e fd3d c62c 66bd 363e c53d a541 033e
00000010: b6f7 c6bd 8da0 38bd ebc3 203e 13fd 8ebd
00000020: 25f8 07bd 8def e73d 72c5 a73d fb58 7f3c
00000030: 25bb 0d3e 9ab1 a03d 6582 c63d f7ca cf3b
00000040: b2f1 19bd 3b8c d0bd 950a 313d ff73 bc3d
00000050: 12ee 273e 4021 b6bc eb11 703d 214e 8d3b
00000060: 3a81 8a3c b840 e53c a67b 0bbd 12cb e6bb
00000070: ea4c 643d 255c 88bd 7bab bb3d 3c36 bbbc
00000080: 5fb2 573d 7fe0 d9bd d529 e03c d2ea 183e
00000090: f580 23be d3df c0bd 65ba 503d c0ef 1c3e
000000a0: 6452 ffbd a9f8 9a3d 1a8d ec3c 08c5 86bd
000000b0: e7a0 993d 30f3 a7bc 5ebe 6d3d 3c83 c0bd
000000c0: 86d4 82bd 5099 d8bd 7c1d 77bd 1e98 153e
000000d0: 8337 f8bb fa2c 0d3e 7eab e83c 56d4 d7bb
000000e0: d1f2 73bd 3b8a ff3b 247d 453e a597 3f3d
000000f0: 987c 75bd b9ed 4bbd 812d b43d f1b3 a13b

edge_function.4.weight f4 [64, 64]
-0.05471556 0.094297655 -0.024987303 -0.094909064 0.034366224 -0.054020204 0.008204931 0.034545653
-0.07173265 0.10036468 0.020873144 0.1134972 -0.031160062 -0.09027123 -0.037256863 -0.073012695
-0.052734222 0.039643727 0.07008923 0.10792006 -0.04169592 0.091173515 0.13809247 0.021269271
-0.08815856 -0.044191312 0.032126542 -0.07281535 -0.14280069 -0.104838595 0.0009379893 -0.0029355625
0.10960582 0.012076273 0.069685705 -0.13485433 -0.064753786 0.100703284 -0.10098548 0.013227142
-0.061123982 -0.04379171 0.0314037 -0.10300051 0.016423363 0.04563698 -0.02615313 -0.023835028
0.143283 -0.0895678 0.03073226 -0.11815615 -0.0004962566 -0.058502838 0.024379876 -0.05882607
-0.126224 -0.034807917 0.053138524 0.07722015 0.10440259 -0.022811443 -0.02836968 0.05962661
0.10326396 -0.10164276 -0.061585926 -0.055583652 0.04065549 -0.055667296 0.019009396 -0.12419747
-0.13523759 0.049335506 0.056567296 0.09855965 -0.021237811 -0.07906867 -0.0021708582 0.06915079
0.00011743566 -0.1310198 0.031132411 -0.034510504 -0.0738251 -0.07256517 -0.08404714 0.05752464
-0.11967198 0.062340476 -0.05152847 -0.103159904 -0.13470969 0.0799222 0.0020637973 -0.0027155925
0.125009 -0.062424414 -0.018354526 -0.1292645 -0.088113956 -0.08065269 -0.018040378 -0.10905643
0.04544109 -0.034347486 0.0077481517 0.0016740942 0.007940082 0.07165786 -0.15045324 -0.0699555
0.07166537 -0.019206373 0.018874973 -0.16926244 -0.14716582 0.0016997161 0.06744315 0.11160655
0.045237016 0.03906602 -0.12826122 0.08657378 0.06496245 -0.04412728 0.008333886 -0.030746497
0.061203275 -0.013729268 0.081218615 0.09273757 0.13826792 -0.049571622 -0.007961532 0.082211316
-0.026123036 -0.011468944 0.111196056 -0.019332336 -0.0038725482 0.055146854 -0.07570048 0.05262386
0.0057772594 0.0072853807 -0.011165814 0.10029667 0.10173894 -0.008119196 0.06491843 0.04451443
-0.013866009 0.085665256 0.09767809 0.09062965 0.019615073 0.093296014 0.10247585 -0.027173372
0.04471551 -0.08053206 -0.13719755 0.07011752 -0.08790748 -0.09302869 0.06778462 -0.037316747
0.032677885 0.097437024 0.11673211 0.093876734 -0.02257116 -0.07226186 0.008385051 -0.0505248
0.030098576 0.091836944 -0.101312846 -0.031993646 0.032322954 0.07536993 0.110819854 0.035960928
-0.06457858 0.11649686 0.07377793 0.0058329636 -0.080233164 -0.09602566 0.0534473 0.14095494
-0.014956947 -0.1399126 -0.00839182 -0.09829423 -0.15629584 0.0113079045 0.039169203 -0.08978638
0.012254721 0.013044934 0.08039792 0.07030382 0.052537218 -0.0033176057 0.061871246 0.051228747
0.07923946 -0.041019216 -0.04170668 -0.01986452 0.02690939 0.010305524 -0.105266094 -0.029950859
-0.14970256 0.01894262 0.07724859 0.08952022 0.029040605 -0.117027655 0.06438434 0.020353185
-0.09460813 0.043567713 -0.03437011 -0.10874263 -0.06541529 0.0026449116 0.118125804 0.04978786
0.0626698 0.058912247 -0.02766664 0.11944442 -0.062276755 0.011700701 -0.16061866 -0.1198323
-0.015049063 -0.08759994 -0.029974952 -0.10959516 -0.08709529 0.0798279 0.11203031 0.11504752
0.045908853 0.07906647 0.03602642 0.044554207 0.07440593 -0.108820304 -0.10653421 0.09823135
00000000: 6c1d 60bd 211f c13d 2cb2 ccbc af5f c2bd
00000010: 99c3 0c3d 4a44 5dbd fa6d 063c be7f 0d3d
00000020: 91e8 92bd ff8b cd3d 28fe aa3c 3871 e83d
00000030: 6343 ffbc 1fe0 b8bd a79a 18bd ae87 95bd
00000040: d7ff 57bd 7661 223d f18a 8f3d 3105 dd3d
00000050: 57c9 2abd 2eb9 ba3d 1d68 0d3e e53c ae3c
00000060: 7a8c b4bd f301 35bd 1f97 033d 3720 95bd
00000070: 583a 12be 9eb5 d6bd 65e3 753a 9162 40bb
00000080: 0479 e03d 8fdb 453c 61b7 8e3d 4117 0abe
00000090: a29d 84bd 863d ce3d 7ad1 cebd a8b6 583c
000000a0: 245d 7abd f05e 33bd 2ba1 003d eef1 d2bd
000000b0: 4a8a 863c d8ed 3a3d 173f d6bc ad41 c3bc
000000c0: c7b8 123e 536f b7bd 38c2 fb3c dafb f1bd
000000d0: 3717 02ba aca0 6fbd 4eb8 c73c 9bf3 70bd
000000e0: dd40 01be bf92 0ebd c8a7 593d 9925 9e3d
000000f0: 06d1 d53d 10df babc 8867 e8bc 083b 743d
00000100: 0e7c d33d 142a d0bd 8641 7cbd afab 63bd
00000110: 5f86 263d 6403 64bd 98b9 9b3c 3e5b febd
00000120: b97b 0abe 0714 4a3d 1cb3 673d a4d9 c93d
00000130: ebfa adbc c1ee a1bd f544 0ebb ee9e 8d3d
00000140: ca47 f638 0e2a 06be 6609 ff3c e35a 0dbd
00000150: 9d31 97bd 0c9d 94bd e820 acbd f59e 6b3d
00000160: 9516 f5bd ba58 7f3d 840f 53bd 8045 d3bd
00000170: 56f1 09be 40ae a33d c640 073b 15f8 31bb
00000180: 5c02 003e beb0 7fbd 3b5c 96bc ea5d 04be
00000190: 1775 b4bd 3d2d a5bd 6ac9 93bc fa58 dfbd
000001a0: 7020 3a3d f3af 0cbd 35e4 fd3b 486d db3a
000001b0: 1e17 023c 5bc1 923d 6a10 1abe d444 8fbd
000001c0: 4bc5 923d af56 9dbc b09f 9a3c 2253 2dbe
000001d0: a3b2 16be 02c9 de3a a21f 8a3d fa91 e43d
000001e0: 734a 393d b103 203d e956 03be 984d b13d
000001f0: 080b 853d cfbe 34bd da8a 083c 14e0 fbbc
00000200: 49b0 7a3d b9f0 60bc f255 a63d 32ed bd3d
00000210: 1b96 0d3e 9d0b 4bbd 1671 02bc 685e a83d
00000220: faff d5bc 3de8 3bbc c2ba e33d d95e 9ebc
00000230: 94ca 7dbb abe1 613d da08 9bbd 1e8c 573d
00000240: 2a4f bd3b 34ba ee3b d1f0 36bc 5768 cd3d
00000250: 815c d03d 6006 05bc f4f3 843d c354 363d
00000260: 422e 63bc 4471 af3d 730b c83d 0a9c b93d
00000270: caaf a03c fb11 bf3d dcde d13d b19a debc
00000280: 9c27 373d feed a4bd 847d 0cbe c699 8f3d
00000290: d608 b4bd d385 bebd aad2 8a3d 72d9 18bd
000002a0: 3fd9 053d 108d c73d 3f11 ef3d 7242 c03d
000002b0: 27e7 b8bc 07fe 93bd 7461 093c 18f3 4ebd
000002c0: 4a91 f63c 0215 bc3d 1c7d cfbd c50b 03bd
000002d0: 1365 043d 8d5b 9a3d 85f5 e23d c44b 133d
000002e0: c641 84bd e895 ee3d e218 973d 7222 bf3b
000002f0: 4951 a4bd 1aa9 c4bd 8eeb 5a3d 7e56 103e
00000300: fc0d 75bc 4045 0fbe d87d 09bc 7c4e c9bd
00000310: 040c 20be ca44 393c e36f 203d ece1 b7bd
00000320: 06c8 483c 6bba 553c aaa7 a43d 73fb 8f3d
00000330: 4431 573d 306c 59bb b46c 7d3d 3cd5 513d
00000340: 4c48 a23d c403 28bd a0d4 2abd ebba a2bc
00000350: 1571 dc3c 80d8 283c c095 d7bd 815b f5bc
00000360: a14b 19be 8e2d 9b3c 8234 9e3d 6156 b73d
00000370: 90e6 ed3c 32ac efbd f0db 833d b9bb a63c
00000380: e8c1 c1bd 0f74 323d acc7 0cbd 75b4 debd
00000390: 74f8 85bd 4156 2d3b f1eb f13d 5bee 4b3d
000003a0: 0659 803d f84d 713d 26a5 e2bc 479f f43d
000003b0: e915 7fbd 4cb4 3f3c 3879 24be a36a f5bd
000003c0: 5890 76bc 9967 b3bd 088e f5bc 6d73 e0bd
000003d0: 045f b2bd cf7c a33d 2670 e53d 099e eb3d
000003e0: ec0a 3c3d 9aed a13d 7090 133d 797e 363d
000003f0: 2362 983d 2edd debd 9c2e dabd 852d c93d

edge_function.4.bias f4 [64]
0.12728947 -0.06278864 0.19565149 -0.009256361 -0.0675826 -0.053679593 0.047398 -0.096855976
-0.123823695 -0.12467471 0.05714511 0.11700311 -0.009072678 0.006998656 -0.099461325 -0.09325159
-0.12006032 0.05737538 0.035646603 0.006947192 0.021727182 -0.072310105 -0.124881275 0.06466802
-0.12968157 0.042870745 -0.12638079 -0.0313547 -0.0043000826 0.16808084 -0.09899506 0.071824715
0.061449166 -0.08613084 0.025887128 0.03967412 0.0920973 -0.13803159 0.028831497 0.21101756
0.097429566 -0.12931083 0.016568895 0.1101706 -0.03418604 -0.034751505 -0.033341527 0.027410053
0.041580644 0.008601692 -0.1569009 -0.05857034 0.16677593 0.09971807 -0.09098331 -0.101382606
0.14561102 -0.054129537 0.24569358 -0.0042407536 0.06560126 0.0049426975 0.014932407 -0.121489964
00000000: 2c58 023e 5597 80bd dd58 483e fea7 17bc
00000010: bf68 8abd 22df 5bbd 6824 423d 6d5c c6bd
00000020: 4797 fdbd 7455 ffbd fe10 6a3d 549f ef3d
00000030: 92a5 14bc fb54 e53b 61b2 cbbd b1fa bebd
00000040: 2fe2 f5bd 7202 6b3d 2c02 123d 45a5 e33b
00000050: 34fd b13c 5217 94bd c1c1 ffbd ab70 843d
00000060: 3fcb 04be 3c99 2f3d f769 01be c96d 00bd
00000070: b5e7 8cbb 621d 2c3e ecbd cabd d618 933d
00000080: 1fb2 7b3d 5e65 b0bd 3e11 d43c 5481 223d
00000090: 829d bc3d 2758 0dbe 0830 ec3c fd14 583e
000000a0: 2789 c73d 0f6a 04be 7ebb 873c 20a1 e13d
000000b0: a906 0cbd 9857 0ebd 2091 08bd 0c8b e03c
000000c0: 7750 2a3d 1cee 0c3c a1aa 20be 74e7 6fbd
000000d0: 4fc7 2a3e fd38 cc3d 7555 babd afa1 cfbd
000000e0: 0e1b 153e efb6 5dbd 1997 7b3e 05f6 8abb
000000f0: f459 863d 5af6 a13b 0ea7 743c bbcf f8bd
