Projects/GuoxiangGrayson_T_A study of multi-fidelity graph neural networks/Model_save/Quarter2D/Rank=32-GNN-nB-64-Lr-0.005/model.pth (torch, 114781 bytes, 24 tensors)

node_function_neighbor.0.weight f4 [64, 2]
0.66098005 -0.47303277 0.59767884 -0.4535235 0.09805586 -0.2331278 -0.21227758 -0.038973026
-0.1655409 -0.19410543 -0.62822115 -0.6261045 0.09863934 0.31203228 -0.4568613 -0.6788634
0.37079707 -0.32987115 -0.36777824 0.35604474 0.23695748 -0.60658777 0.5909314 -0.45181102
-0.23117536 0.6271507 0.24482241 0.123963356 -0.35138032 -0.055803508 0.49427542 0.67682725
-0.59441525 -0.434761 -0.09947594 0.1762706 -0.15071821 0.023820242 0.59293646 0.062570736
-0.51184607 -0.26860628 0.49465537 0.07864659 0.5740153 -0.2008012 -0.27077636 -0.007958224
-0.45219874 0.38523972 -0.22114353 0.15057267 0.46242172 0.14130434 0.46546197 -0.2137898
-0.17778182 0.06728631 0.0011300606 -0.4572412 -0.188298 0.049788512 0.05098952 -0.07345695
-0.5742016 -0.0980384 -0.531134 -0.2434728 0.11883975 0.040627185 -0.5604792 0.42331743
-0.11308914 -0.40369448 -0.16210145 0.40315688 0.5639112 0.37094694 0.64507186 0.06422311
0.26268902 0.45804065 0.51799095 0.5461875 0.64374155 0.13877271 -0.43046114 0.17390619
0.6587903 -0.38913676 -0.52244955 -0.14572755 0.15360312 0.21915482 -0.18708573 -0.63017964
-0.2307057 0.20919578 0.47500193 -0.51377743 0.63986266 0.24128403 0.23418185 -0.62572324
0.30727595 -0.47687703 0.13724095 -0.3197559 0.6037598 0.62645864 -0.16224176 -0.30674115
-0.18222465 0.3112959 0.6384976 0.6782592 0.620554 -0.6310561 -0.54842806 -0.55025977
0.00430369 0.024344763 -0.19131938 -0.17766976 -0.63998556 0.6417158 -0.109131314 0.5953076
00000000: fd35 293f 5a31 f2be 7b01 193f 3b34 e8be
00000010: 83d1 c83d 0eb9 6ebe 4b5f 59be 2ea2 1fbd
00000020: 8e83 29be 93c3 46be 1ad3 20bf 6248 20bf
00000030: 6c03 ca3d b2c2 9f3e b9e9 e9be fec9 2dbf
00000040: 1dd9 bd3e dfe4 a8be 6e4d bcbe 7f4b b63e
00000050: fba4 723e 5649 1bbf 4847 173f c653 e7be
00000060: 3cb9 6cbe f38c 203f bab2 7a3e 80e0 fd3d
00000070: 1fe8 b3be 3892 64bd ab11 fd3e 8d44 2d3f
00000080: 992b 18bf fe98 debe 0bba cbbd 4880 343e
00000090: e055 1abe ab22 c33c afca 173f 1625 803d
000000a0: 5808 03bf c386 89be 7843 fd3e 7711 a13d
000000b0: abf2 123f d49e 4dbe 33a3 8abe 3663 02bc
000000c0: 9886 e7be 243e c53e 7373 62be b92f 1a3e
000000d0: 8ac2 ec3e 16b2 103e 0851 ee3e b7eb 5abe
000000e0: 700c 36be 68cd 893d 8b1e 943a 851b eabe
000000f0: 31d1 40be 0aef 4b3d 63da 503d 9970 96bd
00000100: e0fe 12bf 5bc8 c8bd 66f8 07bf ef50 79be
00000110: 4162 f33d b168 263d 917b 0fbf 10bd d83e
00000120: 479b e7bd 0bb1 cebe ecfd 25be 946a ce3e
00000130: 7c5c 103f c2ec bd3e 6e23 253f 6887 833d
00000140: 2d7f 863e 4e84 ea3e 0e9b 043f f2d2 0b3f
00000150: 3fcc 243f 6f1a 0e3e 6765 dcbe 7714 323e
00000160: 7ba6 283f ef3c c7be 41bf 05bf 9a39 15be
00000170: 234a 1d3e 1f6a 603e 6793 3fbe 7453 21bf
00000180: 1d3e 6cbe 6b37 563e 7433 f33e eb86 03bf
00000190: 0ace 233f 2913 773e 5ecd 6f3e 662f 20bf
000001a0: 4653 9d3e 3a29 f4be e488 0c3e 0cb7 a3be
000001b0: 0190 1a3f 985f 203f b422 26be 2d0d 9dbe
000001c0: 1999 3abe 2d62 9f3e 9474 233f 65a2 2d3f
000001d0: a0dc 1e3f e48c 21bf c865 0cbf d3dd 0cbf
000001e0: f805 8d3b ab6e c73c 3ae9 43be 10ef 35be
000001f0: 18d6 23bf 7d47 243f 3d80 dfbd 1466 183f

node_function_neighbor.0.bias f4 [64]
-0.28995708 0.20899372 -0.20427738 -0.08687207 -0.85332525 0.43796217 -0.082959995 -0.5230216
-0.14346212 0.50115496 -0.05082097 -0.5324214 -0.1719315 0.2600408 -0.40649533 0.6892701
-0.4147834 0.25958297 0.6048358 0.3244373 0.26222235 -0.032199215 -0.6291619 -0.4549941
-0.4837736 0.5841893 -0.5470669 -0.15552258 -0.632017 -0.051221997 -0.589199 0.22656374
0.49740243 -0.06623695 -0.047095396 0.43935788 0.39142182 0.1960444 -0.21803163 -0.10938543
-0.17718308 0.49534354 0.07330608 0.5086138 0.51361394 -0.3013359 0.28623113 0.4733697
0.49123085 -0.2170385 0.14495628 0.44522983 0.37201425 -0.5187286 -0.60633004 -0.58671355
0.28458783 0.29970413 -0.4995446 0.40203455 0.16883326 -0.3371347 0.04116868 0.25824165
00000000: 4175 94be 7302 563e 172e 51be fce9 b1bd
00000010: 8673 5abf 943c e03e eee6 a9bd bee4 05bf
00000020: bce7 12be b14b 003f a629 50bd c54c 08bf
00000030: d00e 30be 1124 853e 2820 d0be 0174 303f
00000040: 7d5e d4be 0fe8 843e 85d6 1a3f a51c a63e
00000050: 0242 863e 53e3 03bd c110 21bf fdf4 e8be
00000060: 2cb1 f7be 6e8d 153f 940c 0cbf 5041 1fbe
00000070: decb 21bf 28ce 51bd bfd5 16bf 5300 683e
00000080: 88ab fe3e 3da7 87bd 1ae7 40bd 84f3 e03e
00000090: 7168 c83e ddbf 483e af43 5fbe 7805 e0bd
000000a0: 7b6f 35be ab9d fd3e 8021 963d 8434 023f
000000b0: 347c 033f b348 9abe e38c 923e 835d f23e
000000c0: 9c82 fb3e 573f 5ebe 6b6f 143e 2af5 e33e
000000d0: a778 be3e 66cb 04bf 7238 1bbf dc32 16bf
000000e0: 7fb5 913e d272 993e 4fc4 ffbe 79d7 cd3e
000000f0: a0e2 2c3e eb9c acbe 7da0 283d 4038 843e

node_function_neighbor.2.weight f4 [64, 64]
-0.04865803 0.086071745 0.09259133 -0.0001167357 -0.11214189 -0.03334184 -0.034295917 -0.035804495
0.08103855 -0.0899141 0.019884154 -0.10392094 -0.113753945 0.044869542 0.06414764 -0.04520324
-0.10228427 0.03881654 0.012933001 -0.117708445 0.05273363 -0.11905025 -0.07303795 0.10490647
-0.004945129 0.06587754 0.09357606 0.023767844 -0.072637245 -0.06317218 0.016391039 0.04715599
-0.11649455 -0.09898201 -0.023827344 -0.04473704 0.017443359 0.03806287 0.09704301 -0.05828598
-0.054365247 -0.032694638 -0.087800324 0.048534825 0.021416098 0.053599805 -0.10952644 -0.085233405
-0.040078864 -0.09253447 0.051508218 0.07637951 -0.116418764 -0.03318982 -0.10774724 -0.039980307
-0.09233089 -0.018332064 -0.062841505 0.10439168 -0.12108073 -0.07911725 0.08184759 -0.0988525
0.084950626 0.03554925 -0.06721307 0.05972955 -0.033971034 0.08313022 0.07931709 -0.061762236
0.0630214 0.061400592 0.06861691 -0.1549634 0.082410716 -0.050991092 0.051160116 0.022492941
0.032339428 0.024008827 0.01960054 0.019959522 -0.08974742 -0.04535597 -0.15499991 0.012388583
-0.11219549 0.09322345 0.05439023 -0.05354825 -0.06788538 -0.119862475 -0.09695581 -0.081402056
0.021222072 0.10435871 -0.13280363 -0.060719166 -0.1148193 0.024670817 0.014429132 0.06614032
-0.14421184 0.053839732 0.040637683 0.049769133 -0.10374133 -0.03652917 -0.07516721 -0.016827684
-0.014573907 0.00024300323 -0.10680804 -0.107836336 -0.10676467 -0.028645426 -0.00017982487 -0.08296633
0.029973501 0.048869472 0.013775664 -0.11486282 0.095558435 -0.027626798 0.006983674 0.065242894
-0.14156571 -0.1214981 -0.013804127 0.012325188 -0.049547806 0.016314683 -0.058305647 0.005409524
0.023449482 -0.022602888 -0.09487305 -0.026405739 -0.11468016 0.07644458 -0.062735155 -0.13474672
0.0052714795 -0.14487906 0.103819475 -0.099290535 -0.10113738 0.04642206 -0.03636005 -0.030568033
-0.121646434 0.04381669 -0.029149095 0.08303174 -0.071268275 -0.03430493 0.05165896 0.08048598
0.023859944 -0.019116664 0.07520905 0.009215922 0.10573885 -0.060008522 0.06312244 -0.021326305
-0.051829863 -0.099100724 -0.02207017 -0.001422758 -0.061047863 0.0103168795 0.03245477 -0.056281224
-0.13577653 0.056726806 -0.035363313 -0.05914275 -0.06806698 -0.0634864 -0.10181356 -0.007989675
-0.08407703 0.08759413 -0.029205557 0.039889112 0.021757487 -0.025332108 0.07099266 0.07083674
0.013703872 0.10213992 -0.07580242 0.09653583 -0.03970986 -0.028323395 0.06489666 -0.09837214
-0.05828119 0.08141294 0.03966304 0.045280624 0.11055028 0.0584406 0.036742747 0.0075775883
-0.068476856 -0.049251664 -0.09722187 -0.0058303624 -0.09414223 0.08484315 -0.060040295 0.10090924
-0.014657147 0.029206008 -0.028869696 -0.09960352 0.04441646 0.020800536 0.004231465 0.13828364
-0.087623246 -0.14437436 0.047280736 0.084188014 -0.054958913 0.054884452 0.013066061 -0.058717035
0.08680024 0.11818125 0.074711196 -0.09484813 0.101963826 -0.104070954 0.112580836 -0.15111537
0.07378706 0.010377215 -0.034166235 -0.09495937 0.01657967 -0.10234409 0.06073938 -0.040976577
0.08152137 -0.042978816 0.0736044 0.02865257 -0.1054472 0.03459042 -0.10808902 0.13454452
00000000: a44d 47bd 6246 b03d 86a0 bd3d 00d0 f4b8
00000010: a6aa e5bd 7491 08bd e079 0cbd bca7 12bd
00000020: 8af7 a53d e224 b8bd 18e4 a23c 80d4 d4bd
00000030: d4f7 e8bd 20c9 373d d65f 833d 0827 39bd
00000040: 6a7a d1bd 18fe 1e3d f0e4 533c 2011 f1bd
00000050: 38ff 573d 9ed0 f3bd ec94 95bd 34d9 d63d
00000060: c00a a2bb ceea 863d cea4 bf3d c8b4 c23c
00000070: d6c2 94bd 6a60 81bd 8046 863c a426 413d
00000080: b294 eebd 14b7 cabd 9031 c3bc 303e 37bd
00000090: 60e5 8e3c d0e7 1b3d 7cbe c63d 48bd 6ebd
000000a0: 18ae 5ebd d0ea 05bd a8d0 b3bd 74cc 463d
000000b0: d070 af3c 788b 5b3d 664f e0bd da8e aebd
000000c0: bc29 24bd b682 bdbd 48fa 523d dc6c 9c3d
000000d0: f66c eebd 0cf2 07bd 96aa dcbd 64c2 23bd
000000e0: fa17 bdbd 202d 96bc 0cb3 80bd 4ecb d53d
000000f0: 2cf9 f7bd 3a08 a2bd b69f a73d 2e73 cabd
00000100: 98fa ad3d 179c 113d 02a7 89bd f9a6 743d
00000110: 3625 0bbd 2d40 aa3d 0071 a23d 66fa 7cbd
00000120: 5d11 813d 307f 7b3d 0687 8c3d baae 1ebe
00000130: f3c6 a83d 09dc 50bd 458d 513d 1e43 b83c
00000140: 5976 043d 29ae c43c 5091 a03c 2782 a33c
00000150: 7fcd b7bd 2ec7 39bd 4cb8 1ebe 7cf9 4a3c
00000160: c0c6 e5bd f0eb be3d 4ac8 5e3d 6955 5bbd
00000170: 7d07 8bbd 757a f5bd c590 c6bd 1fb6 a6bd
00000180: e9d9 ad3c 05ba d53d adfd 07be a9b4 78bd
00000190: 6226 ebbd 741a ca3c 2b68 6c3c 9374 873d
000001a0: 45ac 13be 0d87 5c3d b373 263d b8da 4b3d
000001b0: 5676 d4bd 9c9f 15bd 44f1 99bd 36da 89bc
000001c0: 65c7 6ebc afce 7e39 2cbe dabd 4cd9 dcbd
000001d0: 6fa7 dabd d0a9 eabc 5f8f 3cb9 40ea a9bd
000001e0: fd8a f53c 5b2b 483d 53b3 613c 333d ebbd
000001f0: 24b4 c33d 9851 e2bc 4ed7 e43b 119e 853d
00000200: 9af6 10be ffd3 f8bd b52a 62bc 96ef 493c
00000210: a4f2 4abd 5fa6 853c e7d1 6ebd 6042 b13b
00000220: 2119 c03c b129 b9bc cd4c c2bd d950 d8bc
00000230: 6fdd eabd fa8e 9c3d 4a7b 80bd 0bfb 09be
00000240: 60bc ac3b 2d5b 14be 4e9f d43d d658 cbbd
00000250: 1d21 cfbd 0f25 3e3d 47ee 14bd d069 fabc
00000260: c421 f9bd 2179 333d 15ca eebc 8b0c aa3d
00000270: 1af5 91bd 5483 0cbd 5898 533d d5d5 a43d
00000280: ee75 c33c 8d9a 9cbc 3407 9a3d 61fe 163c
00000290: 9c8d d83d 7fcb 75bd 5646 813d 81b4 aebc
000002a0: 8d4b 54bd 52f5 cabd 80cc b4bc d67b baba
000002b0: 530d 7abd 2108 293c 4bef 043d 2487 66bd
000002c0: 0109 0bbe 5e5a 683d 1fd9 10bd ab3f 72bd
000002d0: b366 8bbd 2805 82bd a183 d0bd 20e7 02bc
000002e0: 9430 acbd 8d64 b33d 7e40 efbc c462 233d
000002f0: c23c b23c 4885 cfbc 9a64 913d da12 913d
00000300: 3586 603c bc2e d13d 4d3e 9bbd 94b4 c53d
00000310: cea6 22bd 7706 e8bc 8ae8 843d 5577 c9bd
00000320: 42b8 6ebd d4bb a63d b675 223d 2d78 393d
00000330: 2f68 e23d 695f 6f3d 907f 163d 6b4d f83b
00000340: 983d 8cbd 1dbc 49bd 431c c7bd a00c bfbb
00000350: a4cd c0bd 3fc2 ad3d d0ec 75bd 81a9 ce3d
00000360: 8824 70bc 7041 ef3c 2480 ecbc eefc cbbd
00000370: 09ee 353d e365 aa3c 1aa8 8a3b 3a9a 0d3e
00000380: d173 b3bd dfd6 13be 72a9 413d c46a ac3d
00000390: 991c 61bd 85ce 603d 0813 563c 4681 70bd
000003a0: 53c4 b13d 0309 f23d 2f02 993d bd3f c2bd
000003b0: 69d2 d03d 2723 d5bd c890 e63d fdbd 1abe
000003c0: ac1d 973d 3205 2a3c e5f1 0bbd 0f7a c2bd
000003d0: 17d2 873c c799 d1bd dbc9 783d 0ed7 27bd
000003e0: adf4 a63d 8e0a 30bd e7bd 963d cbb8 ea3c
000003f0: b4f4 d7bd afae 0d3d c75d ddbd 0ac6 093e

node_function_neighbor.2.bias f4 [64]
0.08328964 0.027585363 0.018460594 0.15752044 0.03856296 -0.02878832 0.053453747 0.030847035
-0.01465992 -0.08154782 0.036634043 0.07695522 -0.081959784 -0.025488995 -0.020889131 -0.07191642
0.09460404 -0.15126951 0.06908476 0.14305116 0.0034883716 -0.14891952 0.07915428 -0.16591533
-0.130455 0.09245302 -0.12092868 -0.05368431 0.10981865 -0.1501963 0.07736112 0.07882994
0.1022165 0.03207747 -0.15213768 -0.11106546 0.064322054 0.025292773 -0.015795672 -0.015800457
0.05663949 -0.1789491 0.046494164 -0.031119974 -0.010954406 -0.0673177 0.041702796 -0.08665447
0.11383764 -0.103488 -0.057005975 -0.07559804 0.032635257 -0.09511824 0.050953574 -0.10660354
0.07044483 -0.13154356 -0.058911245 0.011965069 0.038202018 -0.052689645 0.029050596 -0.077655666
00000000: c293 aa3d b3fa e13c ac3a 973c 0a4d 213e
00000010: 32f4 1d3d 7cd5 ebbc 51f2 5a3d ecb2 fc3c
00000020: 2930 70bc 8b02 a7bd 940d 163d b39a 9d3d
00000030: 88da a7bd 4cce d0bc af1f abbc ea48 93bd
00000040: c3bf c13d 65e6 1abe 507c 8d3d 017c 123e
00000050: 2a9d 643b 5c7e 18be a41b a23d b5e5 29be
00000060: ff95 05be 0258 bd3d 75a9 f7bd 14e4 5bbd
00000070: 9ae8 e03d 0fcd 19be 826f 9e3d 9771 a13d
00000080: e256 d13d aa63 033d fbc9 1bbe 4a76 e3bd
00000090: 48bb 833d ca32 cf3c ed65 81bc f66f 81bc
000000a0: cffe 673d 6f3e 37be aa70 3e3d 51ef febc
000000b0: 1c7a 33bc dddd 89bd 8dd0 2a3d e677 b1bd
000000c0: b523 e93d 84f1 d3bd 197f 69bd 25d3 9abd
000000d0: 8cac 053d 5acd c2bd b2b4 503d f552 dabd
000000e0: 6145 903d 5bb3 06be eb4c 71bd 2309 443c
000000f0: b879 1c3d 19d1 57bd 84fb ed3c ef09 9fbd

node_function_neighbor.4.weight f4 [64, 64]
0.007050678 0.041463558 0.030901458 -0.04091031 -0.0119045535 0.00789207 -0.11595374 -0.067248546
-0.045748614 0.046080917 0.044622466 0.011031668 -0.08212262 -0.043065216 -0.022313835 0.11797179
0.12717582 -0.057311628 0.043765947 -0.11232417 -0.043775573 -0.009925551 -0.10997472 0.015500174
0.07924556 -0.041523233 0.000109734196 0.05636449 -0.009042142 0.095079176 0.09780286 -0.023806648
0.0006928539 -0.12790702 0.03878657 -0.0013592094 -0.0073202597 -0.078841574 0.0819958 0.047764894
-0.09810171 0.062378805 -0.0016748207 0.038862605 -0.13420105 -0.14565052 -0.051526308 -0.13135125
0.067415714 0.09089587 0.012321955 -0.07865938 0.06525269 0.03438353 -0.11930861 0.05013631
-0.10217161 0.039099157 0.025549185 -0.07687556 -0.16771984 -0.10750528 -0.014634115 -0.022044545
0.098868504 0.343163 -0.044313446 0.09629203 0.069612265 0.12819074 -0.057337333 0.001357542
-0.24361199 0.090269044 0.09566638 0.20232289 -0.673014 -0.31710124 0.0779772 -0.06429647
-0.092586495 -0.042423338 0.12349141 0.17613125 -0.09297748 -0.016511546 0.029277746 0.11776467
-0.018233716 0.006924336 -0.114552826 0.10244815 -0.18769065 0.03265834 0.07318955 -0.74284494
-0.11105488 -0.42737725 -1.4209791 0.114693075 0.20065966 0.14665921 -0.048843294 -0.01564806
-0.059868917 -0.09405346 -0.012935966 -0.049843445 0.17185186 -0.9182038 -0.14056228 -0.097277954
0.02606512 -0.25099486 -8.097238e-06 -0.09635295 -0.08235408 0.16766092 -0.10213597 -0.072224304
-0.20481104 -0.14740703 -0.2956116 0.023774162 0.021937637 0.18722631 0.21022673 -0.3110649
0.119010985 0.016732257 0.03461947 -0.08603647 -0.033771615 -0.030980669 -0.12723862 0.087197386
-0.017466329 -0.009982124 0.06186281 -0.116930395 -0.021277003 0.020880261 -0.0027911272 -0.0011252165
-0.03115103 0.09625998 -0.06124054 0.10634356 0.043050464 0.020033222 -0.094781965 -0.020256147
0.14106981 0.024466513 -0.04976788 0.117179275 -0.06324486 -0.038215447 -0.086159036 0.026031775
0.08874349 -0.033414423 0.019863518 0.020870954 -0.12573834 -0.011862375 -0.0062508434 -0.14344658
0.09083502 -0.0015622589 0.031466458 0.12323445 0.097701125 0.026847182 0.05942112 -0.04574793
0.06731909 -0.023085063 0.07246864 -0.064862676 0.09431782 0.066585355 -0.017836357 0.044579264
-0.08001202 -0.060659237 -0.11876051 -0.07130348 0.09083469 -0.10042685 -0.05915831 0.05344245
-0.013720736 0.01589472 -0.052639462 -0.019663163 -0.043085083 0.0043837545 -0.099916525 -0.05429195
0.06987121 -0.07670255 -0.01349785 -0.113388054 -0.07157123 -0.110973366 -0.09825655 0.08890052
0.044299822 0.11291659 -0.04349956 -0.15270299 -0.08312826 0.06842256 -0.107531935 -0.07468197
-0.104834765 -0.06962331 0.07949271 -0.11733191 0.09963591 -0.12914574 -0.04896241 -0.12768643
-0.026814386 -0.04665925 0.0022387225 0.03981559 0.03646772 -0.06967768 -0.104346514 -0.110477954
-0.09613092 0.04002776 -0.095877334 -0.0079449415 -0.11265503 0.08979719 -0.11871824 -0.14646462
0.036741912 0.07502093 -0.09274514 0.08289021 0.11056312 -0.09852022 0.014217969 -0.035692826
-0.053671643 0.08707328 -0.0630596 -0.11600815 -0.07516246 -0.030373147 -0.069842614 0.058717035
00000000: 6009 e73b b1d5 293d 0e25 fd3c 9291 27bd
00000010: 510b 43bc be4d 013c 2879 edbd 9bb9 89bd
00000020: e662 3bbd 58bf 3c3d 0cc6 363d 2bbe 343c
00000030: e72f a8bd 2765 30bd 81cb b6bc 329b f13d
00000040: 613a 023e 99bf 6abd ec43 333d 370a e6bd
00000050: 044e 33bd c79e 22bc 6d3a e1bd 71f4 7d3c
00000060: 7f4b a23d 4414 2abd 1921 e638 74de 663d
00000070: 7e25 14bc dfb8 c23d de4c c83d 2906 c3bc
00000080: a3a0 353a 0ffa 02be abde 1e3d 8027 b2ba
00000090: cade efbb b177 a1bd 6aed a73d 1fa5 433d
000000a0: 8de9 c8bd eb80 7f3d a885 dbba 652e 1f3d
000000b0: 006c 09be 6925 15be 400d 53bd f180 06be
000000c0: 4011 8a3d 9d27 ba3d 06e2 493c 2b18 a1bd
000000d0: 34a3 853d bfd5 0c3d 1358 f4bd bb5b 4d3d
000000e0: 593f d1bd 7026 203d 864c d13c ef70 9dbd
000000f0: c0be 2bbe ba2b dcbd edc3 6fbc c396 b4bc
00000100: 927b ca3d 10b3 af3e 0482 35bd c134 c53d
00000110: e090 8e3d 6f44 033e 8dda 6abd 8def b13a
00000120: 6c75 79be fade b83d bcec c33d bb2d 4f3e
00000130: a54a 2cbf 185b a2be 83b2 9f3d dead 83bd
00000140: fd9d bdbd 18c4 2dbd 10e9 fc3d c05b 343e
00000150: fa6a bebd 3943 87bc e2d7 ef3c 9a2e f13d
00000160: e05e 95bc 8ae5 e23b ac9a eabd 56d0 d13d
00000170: fa31 40be c0c4 053d 67e4 953d 162b 3ebf
00000180: be70 e3bd 31d1 dabe a5e2 b5bf 34e4 ea3d
00000190: ba79 4d3e d52d 163e e80f 48bd 5c30 80bc
000001a0: 1c39 75bd 1a9f c0bd 60f1 53bc a428 4cbd
000001b0: eff9 2f3e 670f 6bbf 8fef 0fbe aa39 c7bd
000001c0: 8586 d53c 6682 80be 5fd9 07b7 b254 c5bd
000001d0: 42a9 a8bd 4eaf 2b3e aa2c d1bd 56ea 93bd
000001e0: fcb9 51be def1 16be 675a 97be 08c2 c23c
000001f0: 8fb6 b33c 41b8 3f3e ad45 573e e643 9fbe
00000200: 08bc f33d 1612 893c 25cd 0d3d e433 b0bd
00000210: 1b54 0abd 2ccb fdbc d74a 02be 8b94 b23d
00000220: 8c15 8fbc 108c 23bc dc63 7d3d 3479 efbd
00000230: 1c4d aebc 150d ab3c 58eb 36bb 007c 93ba
00000240: 7230 ffbc f423 c53d 5cd7 7abd a7ca d93d
00000250: af55 303d b61c a43c 0c1d c2bd 38f0 a5bc
00000260: 9b74 103e ff6d c83c 68d9 4bbd b0fb ef3d
00000270: 8586 81bd cd87 1cbd 2674 b0bd 9740 d53c
00000280: 26bf b53d 90dd 08bd d1b8 a23c 90f9 aa3c
00000290: 8dc1 00be 685a 42bc e0d3 ccbb a9e3 12be
000002a0: b607 ba3d b6c4 ccba f9e2 003d 5862 fc3d
000002b0: 8717 c83d 9fee db3c 8f63 733d 2e62 3bbd
000002c0: 97de 893d e31c bdbc 706a 943d b9d6 84bd
000002d0: b429 c13d e75d 883d 8d1d 92bc bf98 363d
000002e0: 58dd a3bd d275 78bd b638 f3bd 8f07 92bd
000002f0: 8a07 ba3d 98ac cdbd fc4f 72bd 78e6 5a3d
00000300: f0cc 60bc a535 823c 7a9c 57bd a414 a1bc
00000310: fc79 30bd 99a5 8f3b 09a1 ccbd 3c61 5ebd
00000320: a318 8f3d 3a16 9dbd 1626 5dbc ff37 e8bd
00000330: f093 92bd 0146 e3bd bb3a c9bd 7a11 b63d
00000340: bb73 353d d040 e73d 982c 32bd 2c5e 1cbe
00000350: 263f aabd 2121 8c3d b439 dcbd dcf2 98bd
00000360: 9cb3 d6bd aa96 8ebd 13cd a23d b64b f0bd
00000370: e90d cc3d c83e 04be cf8c 48bd 3bc0 02be
00000380: d8a9 dbbc c51d 3fbd 88b7 123b ac15 233d
00000390: 2d5f 153d 2cb3 8ebd a0b3 d5bd 4442 e2bd
000003a0: 4ae0 c4bd 26f4 233d 565b c4bd 802b 02bc
000003b0: aeb7 e6bd 97e7 b73d 8c22 f3bd d2fa 15be
000003c0: b07e 163d 93a4 993d 2af1 bdbd 58c2 a93d
000003d0: eb6e e23d f8c4 c9bd 7cf2 683c a432 12bd
000003e0: ccd6 5bbd 7a53 b23d 6425 81bd ae95 edbd
000003f0: c7ee 99bd 1bd1 f8bc a509 8fbd 4681 703d

node_function_neighbor.4.bias f4 [64]
-0.1037665 -0.12271526 -0.14164644 0.07605188 0.002642171 0.08971538 0.047983818 -0.09364312
0.17630324 0.010873771 0.083930574 -0.081994556 0.14647552 0.099686176 0.04847918 0.013396919
-0.019261835 0.022647718 0.14031895 -0.02157232 0.0685899 0.20069832 -0.004388428 0.03994214
0.22883438 -0.09999466 -0.088009655 -0.024168225 0.041834127 -0.12509085 0.08554193 0.0016180808
-0.023837887 -0.036232963 0.15478174 -0.034350503 -0.07462348 -0.078441225 0.004921694 -0.04547225
-0.13909587 -0.093542255 0.011670773 -0.0379145 0.06474751 -0.17502593 -0.1831716 -0.11337126
-0.1207991 0.11497052 0.08755635 -0.14779086 -0.12206442 0.022743328 -0.14462383 0.041769806
-0.11331752 0.09931247 -0.08542142 0.07001759 -0.003833363 0.06716717 -0.05670469 -0.0126958275
00000000: 8883 d4bd 2352 fbbd c40b 11be 17c1 9b3d
00000010: 4628 2d3b b2bc b73d ae8a 443d f7c7 bfbd
00000020: d688 343e e727 323c cbe3 ab3d c3ec a7bd
00000030: aefd 153e 4428 cc3d 1b92 463d c07e 5b3c
00000040: ffca 9dbc b587 b93c c5af 0f3e 6fb8 b0bc
00000050: dd78 8c3d dc83 4d3e cdcc 8fbb 5f9a 233d
00000060: 8f53 6a3e 00ca ccbd 683e b4bd 71fc c5bc
00000070: 435a 2b3d d117 00be 9b30 af3d c815 d43a
00000080: ac47 c3bc 0469 14bd 1b7f 1e3e 1db3 0cbd
00000090: 32d4 98bd cba5 a0bd 2946 a13b 1c41 3abd
000000a0: 266f 0ebe 1593 bfbd c536 3f3c 3c4c 1bbd
000000b0: 589a 843d ff39 33be 5691 3bbe 312f e8bd
000000c0: 8565 f7bd aa75 eb3d be50 b33d 7d56 17be
000000d0: e9fc f9bd 3750 ba3c 4518 14be d116 2b3d
000000e0: 0413 e8bd 5664 cb3d 6df1 aebd 6265 8f3d
000000f0: 2939 7bbb f18e 893d 2d43 68bd 2902 50bc

node_function_neighbor.6.weight f4 [4, 64]
-0.054719463 -0.38853365 -0.051128004 0.018737996 0.08840262 -0.077938624 -0.08388538 -0.04773802
-0.31386104 0.062114492 -0.031858474 -0.11647343 -0.091582894 -0.090904884 -0.038065106 -0.12210682
0.014238468 -0.008322125 -0.122282684 -0.0026164756 0.09291777 -0.032391 -0.012978133 -0.00017562465
-0.020120459 -0.032782245 0.0726061 -0.0286578 -0.09520572 -0.04278576 -0.05301125 0.14691877
0.077352986 0.06203359 -0.045447264 0.07587837 0.12361738 0.025633449 -0.065404646 0.11100664
0.06609649 0.028232552 0.06299703 -0.12321646 -0.06477502 -0.13628626 0.10038609 -0.13646866
-0.07751962 -0.010752943 -0.039523877 -0.021067599 -0.07018642 -0.090149015 0.008178245 -0.013755951
0.059781227 -0.030194838 -0.06357403 0.03054318 0.09909727 -0.048344307 0.08641353 -0.02670122
-0.09204608 -0.080773026 0.13192683 0.08413131 0.070639856 -0.026061252 0.04710064 0.100792095
-0.22856519 0.03527115 0.1556847 -0.090054035 0.06522743 -0.10570618 -0.06679621 -0.109621435
0.049011163 -0.027109388 0.066779256 -0.060948946 -0.031817585 0.064553596 0.05360936 0.007891236
0.09666127 -0.036359943 -0.07297005 0.04532865 0.13479309 -0.056281444 0.04391868 -0.0618964
0.061344847 -0.073359504 -0.047419634 0.041436 -0.013727605 -0.023689821 0.0018123508 -0.07603013
-0.041383892 0.10921349 -0.07051986 -0.024376767 0.14316884 0.21378577 -0.05596549 -0.049294822
0.07814978 0.08323574 0.012099961 -0.003050176 -0.045173466 -0.056420855 -0.08599406 0.0104689095
-0.04810368 -0.12389555 -0.09324251 0.107310176 -0.051065635 0.07722475 0.09617016 -0.013447375
-0.094841436 0.22074692 -0.0028396114 -0.09328637 -0.072250865 0.11469119 -0.09949697 0.07673643
0.062402777 -0.09053726 -0.062465306 0.087623194 -0.028755555 -0.048294805 -0.07363824 -0.050225675
0.076878436 -0.02715409 -0.018174242 0.0053468514 -0.028965198 0.08083395 -0.09663562 0.079272546
0.08053419 0.043965954 -0.025935888 0.008695794 0.09794595 -0.048263628 -0.061489444 0.019398026
0.13841566 -0.041252587 -0.07678283 -0.037802562 0.0895395 0.037770953 -0.09222331 -0.024835888
0.09504889 -0.07170674 -0.05100732 0.08833873 -0.10915563 -0.30618826 0.041922342 0.022357384
0.11520434 -0.06302349 -0.11072419 -0.0068995706 0.11291729 -0.077867486 -0.09274219 0.025416473
-0.09890293 0.008662504 -0.06350065 0.044950526 0.033095077 -0.03135622 0.045797694 0.026620634
0.026952805 0.08265147 0.026818711 -0.0607725 -0.07604566 0.038309753 0.026526155 -0.084347196
-0.07258601 -0.112538025 -0.016728796 -0.116732895 -0.076975115 -0.09263693 0.05414718 -0.063203335
-0.023408584 -0.047703423 -0.07790875 -0.08556942 -0.034509253 -0.11375541 -0.041694757 -0.036571585
-0.08664412 -0.030569669 -0.011641436 0.028139068 0.07627417 -0.03172886 -0.10915956 -0.09316481
0.005504856 0.03914542 -0.13569401 -0.044802986 0.103535116 -0.010550363 -0.013313444 0.090466976
-0.08944461 0.07988113 0.0007936226 -0.017786305 -0.09504797 -0.15293795 -0.0073032486 -0.06383997
0.05509367 -0.08572524 -0.113023244 -0.040284187 -0.07752062 -0.0881247 0.05525244 -0.03698135
-0.019904861 0.06589103 -0.06755295 0.0042068176 -0.080434814 0.06001156 -0.07391207 0.100164555
00000000: 8421 60bd e2ed c6be 996b 51bd 6d80 993c
00000010: 6f0c b53d 499e 9fbd 19cc abbd f188 43bd
00000020: 65b2 a0be c46b 7e3d 087e 02bd 9f89 eebd
00000030: d08f bbbd 572c babd 28ea 1bbd 2413 fabd
00000040: 7748 693c 8659 08bc 586f fabd 2d79 2bbb
00000050: ac4b be3d 6dac 04bd 3ca2 54bc e227 38b9
00000060: a9d3 a4bc ad46 06bd 82b2 943d c3c3 eabc
00000070: 37fb c2bd 1f40 2fbd 5322 59bd e071 163e
00000080: 3e6b 9e3d ef16 7e3d e926 3abd 1e66 9b3d
00000090: 1c2b fd3d 3dfd d13c dff2 85bd 7357 e33d
000000a0: 995d 873d f447 e73c 9604 813d e958 fcbd
000000b0: c4a8 84bd a08e 0bbe 3997 cd3d 71be 0bbe
000000c0: 9bc2 9ebd 1d2d 30bc cae3 21bd f595 acbc
000000d0: e6bd 8fbd 0ca0 b8bd 0cfe 053c a460 61bc
000000e0: 29dd 743d 2a5b f7bc 1a33 82bd b135 fa3c
000000f0: 82f3 ca3d ae04 46bd 94f9 b03d 84bc dabc
00000100: a882 bcbd 546c a5bd d417 073e 094d ac3d
00000110: a1ab 903d 687e d5bc 9aec 403d 166c ce3d
00000120: fe0c 6abe 7b78 103d cf6b 1f3e 406e b8bd
00000130: f595 853d 7b7c d8bd 74cc 88bd 3481 e0bd
00000140: eebf 483d 8214 debc 90c3 883d 9aa5 79bd
00000150: 2853 02bd ad34 843d 7d95 5b3d 3e4a 013c
00000160: 58f6 c53d 2aee 14bd 5271 95bd 89aa 393d
00000170: 3307 0a3e 5f87 66bd 13e4 333d 1487 7dbd
00000180: bc44 7b3d 823d 96bd 173b 42bd ccb8 293d
00000190: c0e9 60bc 2811 c2bc 678c ed3a afb5 9bbd
000001a0: 2882 29bd 52ab df3d b76c 90bd c9b1 c7bc
000001b0: da9a 123e a8ea 5a3e 123c 65bd 5ee9 49bd
000001c0: fe0c a03d 8077 aa3d ea3e 463c 76e5 47bb
000001d0: d007 39bd 8e19 67bd a71d b0bd ca85 2b3c
000001e0: 5d08 45bd f3bc fdbd eef5 bebd 70c5 db3d
000001f0: 332a 51bd 0228 9e3d dcf4 c43d 6152 5cbc
00000200: 3a3c c2bd 7b0b 623e c618 3abb ed0c bfbd
00000210: 43f8 93bd 37e3 ea3d 11c5 cbbd fd27 9d3d
00000220: 0e9a 7f3d 996b b9bd 9fdb 7fbd ca73 b33d
00000230: c590 ebbc c6d0 45bd a5cf 96bd 70b9 4dbd
00000240: 7172 9d3d 4172 debc 26e2 94bc a434 af3b
00000250: 6c48 edbc 458c a53d e5e8 c5bd a559 a23d
00000260: 1cef a43d a515 343d 8077 d4bc ce78 0e3c
00000270: e397 c83d 15b0 45bd 5bdc 7bbd 9ce8 9e3c
00000280: d6bc 0d3e 79f8 28bd 5140 9dbd dcd6 1abd
00000290: 7c60 b73d b7b5 1a3d 93df bcbd a274 cbbc
000002a0: fea8 c23d fcda 92bd 0ded 50bd f0ea b43d
000002b0: fd8c dfbd b5c4 9cbe c3b6 2b3d d526 b73c
000002c0: 41f0 eb3d 7612 81bd 5dc3 e2bd cb15 e2bb
000002d0: 2e41 e73d fd78 9fbd 9eef bdbd 3536 d03c
000002e0: 9f8d cabd 2ded 0d3c a10c 82bd 0b1e 383d
000002f0: b48e 073d 616f 00bd 5d96 3b3d 8413 da3c
00000300: 21cc dc3c 2d45 a93d eab2 db3c 96ec 78bd
00000310: d4bd 9bbd b0ea 1c3d 614d d93c 39be acbd
00000320: f9a7 94bd 567a e6bd d40a 89bc a811 efbd
00000330: 21a5 9dbd 6eb8 bdbd 6fc9 5d3d c070 81bd
00000340: 5cc3 bfbc aa64 43bd 9f8e 9fbd 053f afbd
00000350: 9359 0dbd 99f8 e8bd 1fc8 2abd 16cc 15bd
00000360: 7972 b1bd 3e6d fabc b9bb 3ebc e783 e63c
00000370: a235 9c3d 1ff6 01bd 0c8f dfbd 31cd bebd
00000380: 1462 b43b f356 203d 5ff3 0abe 5683 37bd
00000390: 380a d43d 6edb 2cbc a220 5abc c046 b93d
000003a0: bc2e b7bd b898 a33d 1c0b 503a 96b4 91bc
000003b0: 83a8 c2bd c49b 1cbe 1750 efbb 88be 82bd
000003c0: e6a9 613d b790 afbd bb78 e7bd 0801 25bd
000003d0: 21c3 9ebd b97a b4bd 6250 623d c279 17bd
000003e0: 850f a3bc e0f1 863d 3359 8abd 58d9 893b
000003f0: 02bb a4bd aece 753d 365f 97bd 1323 cd3d

node_function_neighbor.6.bias f4 [4]
-0.051857147 0.09745471 0.062476475 -0.1437123
00000000: 2968 54bd 5696 c73d 55e7 7f3d 5129 13be

edge_function.0.weight f4 [64, 4]
0.1795976 0.15892965 -0.10091312 -0.1285919 -0.43936387 -0.3317136 -0.044604827 0.35706326
-0.4806225 -0.37849864 -0.2473356 0.4260803 0.19987059 -0.077997 0.16929312 -0.030362966
-0.33886728 -0.30021903 0.46640924 0.2523831 -0.20194659 0.36313295 -0.44013312 0.27846095
-0.01579111 0.298257 -0.005430867 0.32527035 -0.18251467 0.24169606 -0.08154813 0.23971474
0.27650928 -0.011429185 -0.019650243 0.033542246 0.34906638 -0.19934046 0.21763866 -0.21275042
-0.072209224 0.3621442 -0.4501146 0.0057038907 -0.5144347 -0.12600498 -0.20124346 0.40498653
0.297496 -0.17243154 -0.14460075 -0.29426754 0.06500937 -0.39179635 0.0206302 -0.41236043
0.38480198 0.41053998 0.29951653 0.016888296 0.37321377 0.07874312 -0.103858285 -0.21135156
0.1724606 -0.13387667 0.28517842 -0.22040358 -0.3797073 -0.013349465 -0.08736007 -0.19635575
0.45003653 -0.06074715 0.4538511 0.100762606 -0.31973037 0.40013543 -0.08091999 0.06356024
0.09344227 0.06038391 0.114072934 0.51070803 0.3044168 -0.045187153 0.30223805 -0.18409221
0.2877682 0.13214147 0.47280458 0.08776886 -0.3923974 -0.51364833 -0.2154917 0.07851892
-0.23323996 0.49134263 -0.19978921 0.25866786 -0.45392117 0.27519047 -0.09347347 -0.2970072
-0.11911616 0.31391314 -0.28096712 -0.39820892 0.23227732 -0.18633841 -0.07985571 -0.12098014
-0.12737648 0.4054068 0.42796996 -0.15539707 -0.17151058 -0.09874229 0.3722121 -0.050361503
0.30505142 0.40473625 0.12937409 0.055536933 -0.44694287 0.2775505 0.21305804 0.45256683
-0.38632122 0.49448285 0.043054838 0.41771305 -0.4272824 0.3959594 -0.24379365 -0.240743
-0.14609377 0.23317079 -1.735338e-05 0.15382177 0.4022334 -0.30129448 0.16582048 -0.1617197
-0.28573307 -0.33788 -0.2731575 0.4238325 0.18185282 0.40942457 -0.37508214 -0.44059932
0.35118783 0.46081984 -0.30861777 0.23281215 0.09799498 0.17931712 -0.25495186 0.4545385
0.2570628 0.26134053 -0.4169733 0.20922534 0.0052852803 -0.12547338 -0.17266077 -0.2736651
-0.25622812 0.2899727 -0.2465372 -0.2963524 0.15675002 0.007813165 0.24243869 -0.07060959
-0.002636974 0.31812355 -0.38618007 0.18666838 -0.27613443 -0.45152313 0.2517369 -0.17337057
0.0038839246 -0.017322764 0.3579475 0.34457445 0.31863078 0.10432076 -0.4705287 0.4435232
0.1168071 -0.09260734 0.25872612 0.30661997 -0.43779764 -0.44846502 0.41480267 -0.055970192
-0.4262323 0.50064766 0.17386717 0.30064413 -0.40004215 -0.2431779 -0.31379673 -0.11451493
-0.0033737042 0.065861054 0.22420686 -0.4067721 -0.31623042 -0.47114024 -0.38806954 0.32209536
0.23302783 -0.230374 -0.18123688 0.32754573 0.5063326 -0.24036217 0.4355111 0.226713
-0.39641163 0.24805854 0.19986567 0.08132269 -0.20236409 0.36697733 -0.4663186 0.28773105
0.09657091 -0.48894027 0.323199 -0.28523895 -0.42801654 0.26837096 0.054226343 0.37820467
-0.17732222 -0.17542522 0.39552766 -0.28656587 0.20237659 0.18288714 -0.13429226 -0.14408663
-0.122851916 0.10357655 0.46733093 -0.29648277 0.18888442 0.34768605 0.19943269 -0.30967337
00000000: 6fe8 373e 74be 223e 8aab cebd 98ad 03be
00000010: 4df4 e0be 5dd6 a9be 8db3 36bd ffd0 b63e
00000020: 2714 f6be 93ca c1be 8b45 7dbe 3227 da3e
00000030: e0aa 4c3e e4bc 9fbd 2d5b 2d3e c1bb f8bc
00000040: 0380 adbe 4fb6 99be 31cd ee3e 5c38 813e
00000050: 16cb 4ebe 90ec b93e 2159 e1be 6f92 8e3e
00000060: 5c5c 81bc 24b5 983e 6af5 b1bb d689 a63e
00000070: 20e5 3abe 2c7f 773e b502 a7bd c877 753e
00000080: a092 8d3e 7a41 3bbc 8cf9 a0bc 9863 093d
00000090: d4b8 b23e e81f 4cbe abdc 5e3e 3fdb 59be
000000a0: 6ee2 93bd f76a b93e 6c75 e6be b4e7 ba3b
000000b0: feb1 03bf 7307 01be c412 4ebe 655a cf3e
000000c0: 6551 983e e591 30be 3812 14be 3caa 96be
000000d0: a223 853d 8899 c8be aa00 a93c e820 d3be
000000e0: c404 c53e 4c32 d23e 3b5a 993e 5359 8a3c
000000f0: e015 bf3e 1344 a13d a7b3 d4bd 8b6c 58be
00000100: 8399 303e f716 09be e802 923e 7ab1 61be
00000110: ff68 c2be b7b7 5abc d6e9 b2bd 7b11 49be
00000120: 306b e63e 01d2 78bd 2c5f e83e a05c ce3d
00000130: b3b3 a3be 8dde cc3e 61b9 a5bd df2b 823d
00000140: a95e bf3d 1e55 773d 129f e93d c3bd 023f
00000150: 85dc 9b3e 2a16 39bd f2be 9a3e ab82 3cbe
00000160: 5a56 933e 1850 073e 7113 f23e 29c0 b33d
00000170: 50e8 c8be 757e 03bf dba9 5cbe 87ce a03d
00000180: 75d6 6ebe 4391 fb3e 8b95 4cbe 1d70 843e
00000190: 5b68 e8be c4e5 8c3e 056f bfbd 5411 98be
000001a0: 2cf3 f3bd 39b9 a03e ecda 8fbe 0ae2 cbbe
000001b0: 1bda 6d3e 7fcf 3ebe 648b a3bd 70c4 f7bd
000001c0: fb6e 02be 7b91 cf3e e11e db3e 6920 1fbe
000001d0: 78a0 2fbe 6639 cabd 9692 be3e dd47 4ebd
000001e0: b32f 9c3e 9739 cf3e a47a 043e b27a 633d
000001f0: b2d5 e4be 191b 8e3e e32b 5a3e d7b6 e73e
00000200: e5cb c5be db2c fd3e 455a 303d 7cde d53e
00000210: c2c4 dabe 31bb ca3e 0ba5 79be 5585 76be
00000220: 9b99 15be 53c4 6e3e 1a92 91b7 7483 1d3e
00000230: 89f1 cd3e 4543 9abe d8cc 293e d999 25be
00000240: 9b4b 92be 9bfe acbe 4ddb 8bbe 9300 d93e
00000250: a037 3a3e 19a0 d13e c40a c0be 3c96 e1be
00000260: e4ce b33e 94f0 eb3e 2603 9ebe 4f66 6e3e
00000270: 98b1 c83d e89e 373e 0d89 82be 45b9 e83e
00000280: bc9d 833e 6dce 853e 867d d5be 2b3f 563e
00000290: 2530 ad3b 187c 00be fccd 30be d51d 8cbe
000002a0: 5530 83be 4d77 943e 3f74 7cbe 80bb 97be
000002b0: 1483 203e ca02 003c d941 783e c39b 90bd
000002c0: 15d1 2cbb 17e1 a23e 65b9 c5be ff25 3f3e
000002d0: 7e61 8dbe 0a2e e7be a9e3 803e 0e88 31be
000002e0: 7189 7e3b 78e8 8dbc e544 b73e 106c b03e
000002f0: 9323 a33e 1fa6 d53d 23e9 f0be 7915 e33e
00000300: 9038 ef3d eba8 bdbd c077 843e 4bfd 9c3e
00000310: 0327 e0be 359d e5be 0461 d43e 0041 65bd
00000320: 1f3b dabe 722a 003f 3c0a 323e 07ee 993e
00000330: 53d2 ccbe a103 79be f7a9 a0be ce86 eabd
00000340: 5d19 5dbb 29e2 863d 7c96 653e 6f44 d0be
00000350: f4e8 a1be 4b39 f1be 0db1 c6be afe9 a43e
00000360: d99e 6e3e 29e7 6bbe 2996 39be 13b4 a73e
00000370: 039f 013f 8021 76be 50fb de3e 7427 683e
00000380: 77f6 cabe 0f03 7e3e 96a9 4c3e 838c a63d
00000390: 8838 4fbe 74e4 bb3e 50c1 eebe 7c51 933e
000003a0: f8c6 c53d 6156 fabe 577a a53e d70a 92be
000003b0: fc24 dbbe eb67 893e 711c 5e3d 0ba4 c13e
000003c0: f593 35be aba2 33be 9a82 ca3e c3b8 92be
000003d0: cf3b 4f3e c446 3b3e e983 09be 728b 13be
000003e0: c999 fbbd f11f d43d 0046 ef3e 97cc 97be
000003f0: eb6a 413e e803 b23e 1538 4c3e 828d 9ebe

edge_function.0.bias f4 [64]
0.25982875 -0.11055268 -0.013883423 0.41838396 -0.48110735 0.21529458 -0.26017562 -0.34343633
0.11819304 0.18276414 -0.12841922 -0.4691733 0.21378417 -0.11080324 0.45138484 0.42822507
0.2802403 -0.3805994 0.049614668 -0.16470003 -0.1287811 -0.18974878 0.27681136 -0.41471443
-0.3145493 -0.31254357 -0.46844232 -0.32333356 -0.22899 -0.48318517 -0.16728428 -0.04015936
-0.40862337 0.16928914 -0.27365023 0.22044793 -0.27629867 0.4798438 0.27560523 -0.17390257
0.4800982 0.17878987 -0.16755836 -0.02122992 -0.10924364 0.1361963 -0.14571355 0.3354658
0.06298767 0.3660815 -0.15893388 -0.40179855 0.101756446 -0.27554882 -0.14852005 0.07810367
0.083049506 -0.11371515 0.34432006 0.4165419 0.42718214 -0.18523054 0.33391422 -0.17238836
00000000: 4608 853e 7269 e2bd 4c77 63bc 6c36 d63e
00000010: b453 f6be 2f76 5c3e bd35 85be e3d6 afbe
00000020: 310f f23d 8626 3b3e 5480 03be 7c37 f0be
00000030: 3dea 5a3e cfec e2bd ea1b e73e 5140 db3e
00000040: a87b 8f3e eddd c2be c038 4b3d 20a7 28be
00000050: 31df 03be 814d 42be 38ba 8d3e 7355 d4be
00000060: 9b0c a1be b605 a0be acd7 efbe fa8b a5be
00000070: 5b7c 6abe 0c64 f7be 924c 2bbe 247e 24bd
00000080: 1537 d1be 225a 2d3e e21b 8cbe 1abd 613e
00000090: 0577 8dbe 16ae f53e 211c 8d3e 8413 32be
000000a0: 6ecf f53e b114 373e 6b94 2bbe 5fea adbc
000000b0: 21bb dfbd 0b77 0b3e ef35 15be 2cc2 ab3e
000000c0: aeff 803d 096f bb3e 90bf 22be 8ab8 cdbe
000000d0: af65 d03d bc14 8dbe a415 18be d1f4 9f3d
000000e0: dc15 aa3d 7de3 e8bd b84a b03e fb44 d53e
000000f0: 9eb7 da3e 13ad 3dbe cef6 aa3e 9386 30be

edge_function.2.weight f4 [64, 64]
-0.11202829 0.07770325 0.06238213 -0.089650646 0.003094925 -0.06739703 0.06419668 -0.09847887
-0.13271357 0.01557928 0.02855671 0.011535108 0.07823086 0.041303802 0.043246273 0.010702947
-0.0078692585 0.017971791 0.0693675 -0.039088473 0.02186166 -0.06838844 -0.1011231 -0.085726835
-0.118519306 -0.06585775 0.09620937 -0.07424383 0.058316857 -0.106166914 -0.102548696 0.01688552
0.116365284 0.019641286 0.065353006 0.040698647 0.10769166 0.11512529 -0.1434288 0.050852165
-0.08991334 -0.030922294 -0.117527075 0.054620054 -0.1428344 -0.020480623 -0.034276966 -0.07503269
-0.12376884 0.08401577 0.11394848 -0.09440166 -0.011654721 0.07544262 -0.07515149 -0.16278738
0.13418838 -0.14352912 0.11815201 0.02607736 -0.044957608 0.06417851 0.08921239 0.06556855
0.05969452 -0.08602464 -0.048784815 0.07905685 0.06632249 0.014020773 -0.11126805 -0.08549397
0.12798813 0.033454485 -0.07229155 -0.0517138 0.08497598 0.035530902 -0.02735357 0.12904938
-0.032075804 -0.15010445 0.014981511 -0.14147592 0.10427235 -0.025785415 -0.0034469983 -0.056260057
-0.114971146 -0.06930201 0.013146597 0.068030976 -0.0636523 0.089465894 -0.11292979 -0.03732969
-0.0146768335 0.08978037 -0.09115713 0.079295225 0.0002828659 0.14566356 -0.007906306 -0.005988784
0.13174461 0.009628882 0.024965245 -0.04936438 -0.037367538 -0.12570453 -0.10198322 0.087553754
-0.11242986 -0.011804965 -0.16601394 -0.11420799 -0.14371112 0.059089586 -0.107638225 0.060983483
-0.055805128 -0.03441731 -0.059493534 -0.106441885 -0.10096233 0.0786063 -0.09298962 -0.10555093
-0.049988586 -0.080831796 0.031788472 0.06475782 -0.052394725 0.07862647 0.070606515 0.07612925
0.03979888 0.06175549 -0.0448061 0.030489087 0.036511 -0.07492012 -0.089139774 -0.16656032
-0.10820538 -0.05515545 0.08193974 0.0048838756 0.088159904 0.031374462 0.09095121 -0.042858656
-0.060097866 -0.0108070895 0.06334686 -0.08731084 0.10018781 -0.1168604 -0.04069245 0.011760442
-0.10163174 -0.08555222 -0.08734163 -0.07506962 0.065309234 0.09245138 -0.056061275 -0.13491036
-0.15267144 -0.13850313 0.0011599471 -0.10088149 -0.09754528 -0.014185172 0.12603721 -0.09337749
-0.06334211 -0.07249173 -0.022015065 -0.15380508 0.03868213 -0.03390743 0.07757524 -0.08171868
0.038325567 0.03116829 -0.099563874 0.07977974 0.012107301 -0.13671361 0.10271616 -0.045448594
0.03201661 -0.13191524 -0.04220301 -0.036861215 0.015999967 -0.08188733 -0.05415685 -0.110038765
-0.10007116 0.044403017 0.03806214 0.04578164 -0.007812823 0.07162246 0.09799152 -0.013858014
0.062334817 -0.11690165 0.04832453 -0.05255962 -0.002989434 0.11232023 0.08909935 -0.11860357
0.0033418532 0.021828419 0.07600231 -0.098985635 -0.071504556 -0.034035314 -0.0041428437 0.02176688
0.012115806 0.10956064 0.088620566 0.022762537 0.01183973 -0.0421973 0.0614391 -0.12548512
-0.10721995 -0.14105055 0.07548582 0.073941775 -0.09991291 0.006419883 0.09235306 0.045741227
0.051583357 0.11825077 0.07478503 -0.075906545 -0.10139184 -0.14320531 0.025864523 -0.09655871
0.12947042 -0.11312639 -0.05940395 0.0758983 0.058928322 -0.08824941 0.034422636 -0.08967067
00000000: 176f e5bd e222 9f3d 6884 7f3d c29a b7bd
00000010: 3ad4 4a3b 7407 8abd 8d79 833d 4aaf c9bd
00000020: 11e6 07be 3d40 7f3c c3ef e93c c0fd 3c3c
00000030: 8037 a03d 2d2e 293d 0123 313d 6a5b 2f3c
00000040: 10ee 00bc 9439 933c 8c10 8e3d 3c1b 20bd
00000050: 3917 b33c 3d0f 8cbd a119 cfbd 8d91 afbd
00000060: 40ba f2bd 6ee0 86bd 6b09 c53d 260d 98bd
00000070: a8dd 6e3d 0a6e d9bd 0d05 d2bd 8153 8a3c
00000080: ec50 ee3d c3e6 a03c ccd7 853d a0b3 263d
00000090: 728d dc3d cfc6 eb3d 00df 12be 5c4a 503d
000000a0: 7c24 b8bd c050 fdbc 09b2 f0bd 47b9 5f3d
000000b0: 2e43 12be fbc6 a7bc 0166 0cbd bdaa 99bd
000000c0: 857a fdbd 7610 ac3d d25d e93d a855 c1bd
000000d0: 71f3 3ebc a981 9a3d 06e9 99bd bcb1 26be
000000e0: ae68 093e 4cf9 12be aef9 f13d 30a0 d53c
000000f0: 7825 38bd 0670 833d fcb4 b63d ce48 863d
00000100: 3e82 743d b02d b0bd 96d2 47bd 8fe8 a13d
00000110: 16d4 873d 62b7 653c 81e0 e3bd 7617 afbd
00000120: 520f 033e 9207 093d 980d 94bd d9d1 53bd
00000130: e307 ae3d da88 113d 9814 e0bc 8525 043e
00000140: eb61 03bd fbb4 19be 0375 753c 10df 10be
00000150: be8c d53d ef3b d3bc 09e7 61bb f270 66bd
00000160: fe75 ebbd 36ee 8dbd d364 573c d353 8b3d
00000170: 235c 82bd e539 b73d bc47 e7bd 04e7 18bd
00000180: 1a77 70bc c5de b73d 97b0 babd 8965 a23d
00000190: 9e4d 9439 d428 153e 7389 01bc 903d c4bb
000001a0: 0fe8 063e 75c2 1d3c ea83 cc3c 4e32 4abd
000001b0: b40e 19bd b0b8 00be 94dc d0bd 624f b33d
000001c0: a041 e6bd 9d69 41bc 8fff 29be e1e5 e9bd
000001d0: 0229 13be ec07 723d 6e71 dcbd d1c9 793d
000001e0: eb93 64bd 2af9 0cbd 7eaf 73bd 34fe d9bd
000001f0: 57c5 cebd 57fc a03d 5871 bebd 162b d8bd
00000200: d5c0 4cbd 248b a5bd a134 023d bf9f 843d
00000210: da9b 56bd ea06 a13d 269a 903d a7e9 9b3d
00000220: 2704 233d 53f3 7c3d 9a86 37bd 40c4 f93c
00000230: 8f8c 153d b86f 99bd ea8e b6bd ca8e 2abe
00000240: c89a ddbd aeea 61bd 06d0 a73d eb08 a03b
00000250: 2e8d b43d 8282 003d a144 ba3d 8f8c 2fbd
00000260: 2e29 76bd 3810 31bc 00bc 813d 07d0 b2bd
00000270: 442f cd3d 8154 efbd 20ad 26bd deae 403c
00000280: 4d24 d0bd 0136 afbd 2be0 b2bd 1abe 99bd
00000290: d9c0 853d 2657 bd3d 82a0 65bd f125 0abe
000002a0: e755 1cbe c4d3 0dbe 5e09 983a f49a cebd
000002b0: d2c5 c7bd ec68 68bc e60f 013e b33c bfbd
000002c0: 82b9 81bd 8b76 94bd f058 b4bc 147f 1dbe
000002d0: 2771 1e3d 84e2 0abd c4df 9e3d 205c a7bd
000002e0: 45fb 1c3d a454 ff3c 25e8 cbbd 8f63 a33d
000002f0: b35d 463c a7fe 0bbe da5c d23d 4e28 3abd
00000300: d923 033d ca14 07be 10dd 2cbd c9fb 16bd
00000310: 5d12 833c 8bb4 a7bd 93d3 5dbd 015c e1bd
00000320: 1cf2 ccbd f0df 353d 0ce7 1b3d 8785 3b3d
00000330: 5b01 00bc ccae 923d c7af c83d b90c 63bc
00000340: cb52 7f3d 226a efbd f1ef 453d c248 57bd
00000350: 61ea 43bb 2608 e63d b879 b63d 6ee6 f2bd
00000360: fe02 5b3b 83d1 b23c 19a7 9b3d fbb8 cabd
00000370: fb70 92bd 9d68 0bbd b1c0 87bb 7550 b23c
00000380: 6081 463c 5461 e03d b37e b53d 8078 ba3c
00000390: 6dfb 413c 13d7 2cbd 91a7 7b3d 2c7f 00be
000003a0: 2296 dbbd 8e6f 10be 4f98 9a3d c96e 973d
000003b0: 249f ccbd e25d d23b 9a23 bd3d 275b 3b3d
000003c0: 1249 533d 762d f23d e528 993d e474 9bbd
000003d0: 86a6 cfbd 6aa4 12be d6e1 d33c 93c0 c5bd
000003e0: e593 043e cfae e7bd 8e51 73bd 9170 9b3d
000003f0: d35e 713d 1bbc b4bd c0fe 0c3d 42a5 b7bd

edge_function.2.bias f4 [64]
-0.13490877 0.03718077 -0.10471112 -0.034288585 -0.1455036 0.047089342 -0.043676868 -0.010777017
-0.070746996 0.11097088 -0.092906594 0.062281076 0.048449185 0.0056203874 0.022000456 0.09473804
0.047256194 0.07664487 -0.057732116 0.0652878 0.115754254 0.080203064 -0.007741063 -0.116550006
-0.02883552 0.08933105 0.043771613 0.0044733826 -0.031020109 0.04776752 0.16423142 -0.05620909
0.0069824816 -0.03283988 -0.036409236 0.09657814 -0.028541248 -0.056607924 -0.019705385 0.11579245
0.062361863 -0.076808214 -0.013945649 0.06603588 0.04001217 0.09982841 -0.042865783 0.15227406
-0.01548251 -0.10324294 -0.055408888 -0.095735595 -0.1392494 0.05255403 0.014256498 -0.010147673
-0.019943813 0.10909005 0.07278182 0.054108806 0.19578394 -0.07563662 0.11214701 -0.111979164
00000000: 8625 0abe dd4a 183d c972 d6bd 3072 0cbd
00000010: e5fe 14be c1e0 403d 84e6 32bd 1692 30bc
00000020: cde3 90bd b344 e33d d045 bebd 711a 7f3d
00000030: a772 463d 3a2b b83b 4d3a b43c 0406 c23d
00000040: b68f 413d fcf7 9c3d 8378 6cbd 9cb5 853d
00000050: 9110 ed3d 8141 a43d bea8 fdbb c5b1 eebd
00000060: 7838 ecbc 33f3 b63d dd49 333d 7495 923b
00000070: e21d febc e0a7 433d 482c 283e 813b 66bd
00000080: 4dcd e43b 1c83 06bd da21 15bd c3ca c53d
00000090: 56cf e9bc b6dd 67bd 306d a1bc 9824 ed3d
000000a0: 276f 7f3d a04d 9dbd 4b7c 64bc d23d 873d
000000b0: cde3 233d d672 cc3d 0894 2fbd bbed 1b3e
000000c0: 5baa 7dbc 0971 d3bd 6ef4 62bd 0611 c4bd
000000d0: 6597 0ebe e542 573d 1694 693c 6d42 26bc
000000e0: 3561 a3bc 9b6a df3d a30e 953d 32a1 5d3d
000000f0: 967b 483e 5fe7 9abd 55ad e53d 5555 e5bd

edge_function.4.weight f4 [64, 64]
-0.07776304 0.08115916 -0.025015958 0.02033679 0.054087903 -0.04154564 0.066403165 -0.1294074
0.028851897 -0.03210822 -0.01808757 0.095626585 0.11625306 -0.056512747 -0.07948975 0.048645653
-0.040590778 -0.024149543 0.08962867 -0.11630803 0.06880264 -0.08182806 -0.0043950696 -0.04208082
0.041285187 -0.067217655 0.022661023 -0.03226959 0.10575346 -0.022320846 0.018604727 0.045454867
-0.039725177 0.110229865 -0.054761123 -0.10048799 0.10783889 0.0138164 -0.09610937 -0.098052464
-0.07585398 -0.06843146 -0.04059037 -0.06786394 0.07128946 0.0411957 0.05362413 0.067865685
-0.1692381 -0.09932252 0.07997749 -0.14280264 0.028306875 0.029233664 -0.022554886 0.03797208
0.040408183 -0.09866166 -0.064787045 -0.09038134 -0.0754987 -0.036731467 -0.110928915 0.11969908
0.03993314 -0.13073918 0.053587943 0.1166347 -0.07179585 0.13506284 0.0054289103 0.11322431
0.04843171 0.123847395 0.064798884 -0.08596625 -0.01782705 -0.12050964 0.06949815 0.024610737
-0.0542479 -0.1505743 -0.083613984 -0.036245476 0.09414831 0.07394134 -0.041424006 -0.057441577
-0.05245647 -0.021293707 0.009950111 0.047255382 -0.11161451 -0.0830575 0.075941324 -0.025634617
-0.040769838 0.102385506 0.00070602784 -0.033313725 0.050949153 0.06760328 -0.10787082 0.05579628
-0.1040536 -0.07020399 -0.069583885 0.004769281 -0.060744632 0.027846072 0.113956645 -0.08243617
0.09857857 0.024285525 -0.09179308 0.07961464 -0.08181854 0.08723101 0.060763486 -0.11810007
0.039849903 0.09964676 0.06294644 -0.06327128 0.0066543375 0.03973768 0.077440344 0.03854304
0.09850586 -0.040987656 0.03954501 0.04589744 0.015844733 0.13319434 -0.049767345 0.0100389775
0.013211545 0.055058718 0.09993951 -0.039044783 -0.13959758 0.038721237 0.043208566 -0.1161216
0.122594096 -0.022374414 0.08899027 -0.044570945 0.04875237 0.06920367 -0.10260743 -0.07508733
0.0002476126 -0.020035129 -0.048733693 0.10469523 0.011279208 -0.035283774 0.0077975113 -0.07015325
-0.05473048 0.036023647 -0.094990864 0.048178636 0.054743845 0.071682036 -0.027582128 -0.089508906
0.020010969 0.06920984 0.030707706 -0.11543071 -0.041641396 -0.016584447 0.12626876 -0.060254168
0.020762257 -0.1031686 0.086136274 0.043206874 0.06901206 -0.049039073 -0.100200124 0.025336774
0.04017887 0.040504146 -0.033386614 -0.008322511 0.023854088 0.10978965 0.13293369 -0.05282866
0.038749356 -0.09859767 -0.061125435 0.07397701 -0.11937841 -0.05888887 0.019843936 0.0790174
-0.07879879 -0.011311443 0.024207847 0.05737168 -0.020477936 -0.007900376 0.050076842 -0.03181345
-0.106120534 0.02612219 -0.044202276 -0.016514828 0.124654315 0.056813747 0.07353384 -0.010207836
0.101628646 0.015609858 -0.069436446 0.105714165 0.017419843 -0.10510483 0.09873303 -0.035543043
0.13953163 -0.022581235 0.04741285 -0.025737328 -0.05010587 -0.040215507 -0.08961545 -0.01012419
-0.05347716 -0.13660842 -0.079449475 0.040673696 -0.069889106 -0.022387872 -0.10776758 0.11471688
-0.06682515 0.10123253 -0.0922344 0.14073485 0.030781245 0.031659685 0.023375344 -0.09824209
-0.0035472203 -0.019262422 -0.004037634 0.116984606 0.07550783 0.10114299 0.0076966695 -0.056215998
00000000: 3b42 9fbd c636 a63d 44ee ccbc 5799 a63c
00000010: 478b 5d3d c32b 2abd 62fe 873d 6083 04be
00000020: d05a ec3c e983 03bd 622c 94bc dfd7 c33d
00000030: 1616 ee3d e979 67bd 86cb a2bd aa40 473d
00000040: 8442 26bd 43d5 c5bc 3c8f b73d e832 eebd
00000050: 66e8 8c3d 7895 a7bd 8404 90bb f05c 2cbd
00000060: a81a 293d 69a9 89bd 9ca3 b93c 1e2d 04bd
00000070: 4595 d83d 35da b6bc f168 983c e22e 3a3d
00000080: deb6 22bd 32c0 e13d 334d 60bd a6cc cdbd
00000090: a3da dc3d 2f5e 623c fdd4 c4bd bbcf c8bd
000000a0: 5559 9bbd cb25 8cbd 1642 26bd 40fc 8abd
000000b0: 3500 923d d3bc 283d faa4 5b3d 2afd 8a3d
000000c0: c14c 2dbe 9b69 cbbd 3dcb a33d db3a 12be
000000d0: d2e3 e73c 707b ef3c 06c5 b8bc 9d88 1b3d
000000e0: 0d83 253d 200f cabd 12af 84bd da19 b9bd
000000f0: 109f 9abd bc73 16bd b32e e3bd cb24 f53d
00000100: ef90 233d 7ee0 05be 087f 5b3d 2cde ee3d
00000110: b409 93bd ea4d 0a3e 00e5 b13b 26e2 e73d
00000120: 5460 463d b4a3 fd3d 47b5 843d 130f b0bd
00000130: 090a 92bc c2cd f6bd 0c55 8e3d 759c c93c
00000140: 0c33 5ebd 2630 1abe cf3d abbd 2376 14bd
00000150: d4d0 c03d 8f6e 973d 38ac 29bd dc47 6bbd
00000160: 98dc 56bd 2470 aebc ca05 233c dc8e 413d
00000170: 2696 e4bd 0d1a aabd 2087 9b3d b0ff d1bc
00000180: 46fe 26bd 7eaf d13d ba14 393a f973 08bd
00000190: 0fb0 503d 9773 8a3d 60eb dcbd a48a 643d
000001a0: 0e1a d5bd 1cc7 8fbd ff81 8ebd a147 9c3b
000001b0: 5dcf 78bd 721d e43c 1a62 e93d 4bd4 a8bd
000001c0: 90e3 c93d 70f2 c63c 03fe bbbd 000d a33d
000001d0: 7b90 a7bd 2ca6 b23d 22e3 783d 73de f1bd
000001e0: a739 233d 9a13 cc3d 10ea 803d 5f94 81bd
000001f0: a10c da3b fac3 223d 0b99 9e3d 4fdf 1d3d
00000200: 71bd c93d ace2 27bd f3f9 213d f4fe 3b3d
00000210: d0cc 813c 1964 083e d8d8 4bbd 867a 243c
00000220: 3c75 583c 4085 613d 16ad cc3d 6ced 1fbd
00000230: abf2 0ebe 299a 1e3d 77fb 303d 29d1 edbd
00000240: 9d12 fb3d 8c4a b7bc 8840 b63d 0690 36bd
00000250: 91b0 473d a7ba 8d3d d823 d2bd 63c7 99bd
00000260: 00d2 8139 b620 a4bc fb9c 47bd 746a d63d
00000270: 6dcc 383c b885 10bd 4482 ff3b 82ac 8fbd
00000280: 112d 60bd 888d 133d 928a c2bd f656 453d
00000290: 153b 603d 08ce 923d eaf3 e1bc 7250 b7bd
000002a0: 0bee a33c e3bd 8d3d ba8e fb3c f066 ecbd
000002b0: 2b90 2abd 1bdc 87bc 994c 013e 13cd 76bd
000002c0: 9c15 aa3c 0f4a d3bd 3768 b03d b1f9 303d
000002d0: 3256 8d3d 32dd 48bd b935 cdbd 118f cf3c
000002e0: 9992 243d ade7 253d 67c0 08bd 245b 08bc
000002f0: a669 c33c 65d9 e03d c51f 083e dd62 58bd
00000300: a5b7 1e3d 93ed c9bd aa5e 7abd 4281 973d
00000310: ab7c f4bd 7535 71bd c08f a23c e0d3 a13d
00000320: 4361 a1bd a153 39bc 894f c63c 91fe 6a3d
00000330: 58c1 a7bc 9470 01bc 601d 4d3d d24e 02bd
00000340: b955 d9bd 34fe d53c 720d 35bd 1b4a 87bc
00000350: c34a ff3d 88b5 683d e998 963d c43e 27bc
00000360: ae22 d03d 7dc0 7f3c b234 8ebd ab80 d83d
00000370: 0fb4 8e3c 3341 d7bd 8b34 ca3d 9595 11bd
00000380: 61e1 0e3e 48fc b8bc fa33 423d 17d7 d2bc
00000390: d03b 4dbd 04b9 24bd 4e88 b7bd eedf 25bc
000003a0: de0a 5bbd 14e3 0bbe 68b6 a2bd 7699 263d
000003b0: 0522 8fbd c566 b7bc 40b5 dcbd aff0 ea3d
000003c0: a0db 88bd 0053 cf3d 64e5 bcbd cc1c 103e
000003d0: f328 fc3c 96ad 013d a67d bf3c 2633 c9bd
000003e0: 7b78 68bb 3acc 9dbc 214e 84bb a095 ef3d
000003f0: d9a3 9a3d 0e24 cf3d 5834 fc3b bf42 66bd

edge_function.4.bias f4 [64]
-0.06635191 -0.07433738 -0.066040814 0.022719266 0.054573983 0.059966236 0.009427068 -0.16199072
0.08259895 -0.048817076 -0.08666228 -0.09917108 0.06515781 0.10225938 0.0021357194 -0.026314128
0.07430172 -0.111063585 0.063662596 0.03813807 -0.048749935 -0.019169485 0.11854004 0.045214653
-0.06467596 0.17170916 0.10586018 -0.05094668 0.17886509 0.07672094 0.11972808 -0.04279635
0.090988606 0.084011845 -0.12999389 -0.06699495 0.005414831 -0.16238573 0.04991862 0.04337545
0.020111345 0.25914663 0.028272985 0.0038844908 0.12216824 0.07974916 0.0019716143 -0.0031091871
-0.08365819 -0.056220908 0.016070392 0.021928687 0.009333387 -0.10680972 0.039362665 0.0797546
0.22692859 -0.1548054 -0.09457516 0.123551436 -0.10072721 -0.004641752 -0.02910441 0.067983516
00000000: 83e3 87bd 323e 98bd 6840 87bd c11d ba3c
00000010: f888 5f3d 289f 753d fd73 1a3c e5e0 25be
00000020: a329 a93d 6af4 47bd fe7b b1bd 351a cbbd
00000030: 7571 853d 5e6d d13d 6df7 0b3b ba90 d7bc
00000040: 802b 983d 4e75 e3bd 8961 823d aa36 1c3d
00000050: 03ae 47bd 5309 9dbc 1fc5 f23d 0033 393d
00000060: d474 84bd 87d4 2f3e 39cd d83d 77ad 50bd
00000070: 6928 373e de1f 9d3d ff33 f53d 3a4b 2fbd
00000080: 3c58 ba3d 670e ac3d 1e1d 05be a634 89bd
00000090: e56e b13b 7248 26be 7877 4c3d 75aa 313d
000000a0: 8cc0 a43c deae 843e bf9c e73c f192 7e3b
000000b0: 5833 fa3d 8753 a33d 3336 013b 81c3 4bbb
000000c0: fc54 abbd e547 66bd 0ea6 833c caa3 b33c
000000d0: 10eb 183c 0ebf dabd bf3a 213d 6156 a33d
000000e0: f85f 683e 4f85 1ebe 9fb0 c1bd 8908 fd3d
000000f0: 114a cebd d719 98bb 5f6c eebc f13a 8b3d
