Projects/GuoxiangGrayson_T_A study of multi-fidelity graph neural networks/Model_save/Quarter2D/Rank=0-GNN-nB-64-Lr-0.005/model.pth (torch, 114781 bytes, 24 tensors)

node_function_neighbor.0.weight f4 [64, 2]
00000000: d0e5 29bf 8804 193f 4554 e4be 6241 323e
00000010: e292 ad3e c3b5 193f 02f6 0fbf 3c88 65be
00000020: 6efa 48be 9e34 423e 74ec d23e a929 23bf
00000030: 2af0 18bf 8188 dcbe 5e95 6ebe 8c69 d8be
00000040: bf7a 1d3c 25eb f83e 14ae 073f a8aa 5fbd
00000050: 07a7 d53d 943b 94bc 2df6 b33e ba1e ffbe
00000060: 9f4d ecbe 8ae5 eebe e4c2 99be bf67 f6be
00000070: e253 273e bd52 39bd 58b3 2d3f d310 fbbe
00000080: 8142 d6be 2866 9e3e 7572 053e 361e 70be
00000090: 6291 c63e 56f6 e2be 01fb babe 08df dc3e
000000a0: 43c5 debe c44a 24bf fa39 f9bd 055d fcbe
000000b0: 8dd9 d73e 985f c83d 3fa9 20bf 3e2b a3be
000000c0: 5e6d 183f 6503 f2be 2e48 443e fc4d b93d
000000d0: 4b2a b93e baa4 0e3d 9f78 a13e d681 bbbd
000000e0: 1dc6 273f 493f ea3e 5b4d cdbe b817 eabe
000000f0: ef73 a3be 19be 25bb 674a a1be d156 ccbe
00000100: 5732 bdbe 4f8b c03d fc91 20bf 83e4 0cbe
00000110: 135d d5be 55c1 863e b42d ddbe e959 753d
00000120: e31b 0f3f 86b6 9cbe 2281 71be f0c4 22bf
00000130: 8fab ff3e 4c9e 13bf 8840 71be 817b d7be
00000140: 8c5b 483e bc6f 76be 1822 0e3f dfd9 03bf
00000150: 4b09 87be 337f 9bbd 4262 60be be09 d73e
00000160: 9aa2 923e c6df babe 8ac0 843e 5aa8 063f
00000170: fb95 8fbe 4d3f 20be 7c32 963e 3004 8e3e
00000180: a075 d23d 96d0 e8be 1300 75be ef29 10bf
00000190: 1a80 e03e f0c1 7db5 666a 2c3f b980 e33e
000001a0: 2a69 a9bd eacd 2b3f 33b7 bebd 0ae3 cc3e
000001b0: 465d 723e e481 4bbe e810 1c3f 268b 003f
000001c0: afb4 cdbe ef59 0f3f dc33 c2be db38 e13e
000001d0: 62dc bc3d 87e4 a73e 803f 06bf 2c56 3d3d
000001e0: 6dfa 0ebf 8baf 8abe 7faf 0dbe 6982 0b3f
000001f0: 1b15 09bf f80d e4be b40a f13d 9ed1 043f
-0.6636629 0.5977254 -0.44595543 0.17407754 0.33901125 0.6004297 -0.56234753 -0.2241525
-0.19626781 0.18965384 0.41196024 -0.63735443 -0.5974146 -0.43072894 -0.23299167 -0.42268026
0.0096117845 0.486169 0.53 -0.05460611 0.104322486 -0.018094815 0.35148755 -0.4982813
-0.4615297 -0.466595 -0.30031502 -0.48126027 0.16340593 -0.04524492 0.6785178 -0.49036273
-0.41847613 0.30937314 0.13031943 -0.23449025 0.38782793 -0.44328564 -0.36519626 0.4313891
-0.43509874 -0.64176583 -0.12169261 -0.49289718 0.42158166 0.09783858 -0.6275825 -0.3186893
0.5954188 -0.47268215 0.1916816 0.090480775 0.3616508 0.034825064 0.3153734 -0.091556236
0.6553667 0.45751408 -0.4009808 -0.4572122 -0.31924388 -0.002529031 -0.31502077 -0.39909986
-0.3695247 0.09401571 -0.62722754 -0.13759045 -0.41672572 0.26319376 -0.4319893 0.059900198
0.55901927 -0.30608004 -0.23584417 -0.6358175 0.49935576 -0.57663417 -0.23559773 -0.42086414
0.19566172 -0.24066061 0.5552077 -0.5150432 -0.26374277 -0.07592621 -0.21912482 0.4199962
0.2863968 -0.3649885 0.25928146 0.52600634 -0.28044114 -0.15649147 0.29335392 0.2773757
0.102763414 -0.45471638 -0.2392581 -0.56313986 0.43847734 -9.453206e-07 0.6734985 0.44434145
-0.082720116 0.67111075 -0.09312286 0.40016967 0.23668393 -0.19873768 0.60963297 0.50212324
-0.40176913 0.559966 -0.3793019 0.4398869 0.09221722 0.3279154 -0.52440643 0.046224758
-0.5585087 -0.27087054 -0.13836478 0.54495865 -0.5354783 -0.44541907 0.117696196 0.5188235

node_function_neighbor.0.bias f4 [64]
00000000: 2539 13bf 958a f3be bd21 923e 4703 1d3f
00000010: a73a 1fbf f3ee 11be e048 7e3e 7c61 66bd
00000020: d40f b83e e224 46be fcd8 01be fc38 3e3f
00000030: fe66 cebe 8cdc 07bf 408d c83e 1890 203f
00000040: 5d0b a93d c68c d0be 4318 0abe 5392 303f
00000050: cd1e d1be f35d e63d 257e 1f3f aa8d 0abf
00000060: b35b 1ebf 392a e23d 9606 efbd 3838 403f
00000070: ea80 75be 811f babd af9c 1cbf 20b6 523e
00000080: f322 86be 3263 fa3e 1914 023f 45b2 f33e
00000090: 4efa 1cbf f02e f83e a7a6 1a3e 585a e03d
000000a0: 1680 0c3f 2113 7bbe 8adc 073f 5372 71be
000000b0: 4695 043f f4d1 bfbe 5c47 d73e d25c be3e
000000c0: 7157 013f 0892 123f 3125 10bf a8af 973e
000000d0: de7d 1abf ec1b f43e a2f5 e8be aa14 0f3d
000000e0: 44ad 2abf 779a 06bf 47f2 b7bc 77ae 2c3f
000000f0: 01da 1fbf dc89 123f fbe8 dfbe 3237 fa3e
-0.5750907 -0.47566667 0.28541365 0.61333126 -0.6219887 -0.14251308 0.24832487 -0.056245312
0.35949576 -0.19350007 -0.12680429 0.743057 -0.40312952 -0.530709 0.39170265 0.6271987
0.082541205 -0.40732402 -0.13485818 0.68973273 -0.40843812 0.11248388 0.62301856 -0.5412241
-0.6185867 0.110432096 -0.11671178 0.75085783 -0.23974958 -0.0908804 -0.6117658 0.20577288
-0.2619854 0.48903805 0.50811917 0.47596946 -0.61319435 0.4847331 0.15102635 0.10954732
0.54882944 -0.24519016 0.5307089 -0.23578767 0.51790273 -0.3746487 0.4204663 0.3718019
0.5052405 0.57254076 -0.5630675 0.29626203 -0.6034831 0.47677553 -0.45499903 0.034931816
-0.6667063 -0.52579445 -0.022454394 0.6745371 -0.6244202 0.57241607 -0.43732437 0.48870236

node_function_neighbor.2.weight f4 [64, 64]
00000000: b659 afbd 44cf 07bd fc07 85bd a0e3 bcbd
00000010: 4845 7dbd b329 7d3c bb0e c2bd d8ce f9bd
00000020: 311e a13d 6faa 623d 288e 0a3d 42a6 f43c
00000030: f8d4 b4bd a654 f1bc 5887 96bc 8c41 623d
00000040: 9021 93bc e362 8fbd 4b1a a63c a303 fbbd
00000050: 295a 313d d12c 843c afca e8bc 9979 09bd
00000060: 6ab9 21be 536a 02be f947 12be a138 debd
00000070: 212e c3bc 597c 02be 80d0 cabd 01a4 73bd
00000080: 24cc b33d e485 cdb9 c0bb dbbb c94b 573c
00000090: 682d 87bd 5d5c ae3c ab37 c9bc 5066 c33c
000000a0: e48f c0bd f1cb eebc 3695 e2bd b4db 2fbd
000000b0: 6805 1fbe 1941 7c3d d703 0fbe 23ad 8ebd
000000c0: 9685 13bd a4f0 9c3c 6161 82bd 11d1 cfbd
000000d0: 6562 17be 6dec 913c 6ae9 183d 51eb 943d
000000e0: 924d 83bd 2e5a f73d 0da2 04be e8e3 f3bd
000000f0: 2548 03be b204 68bd d9fc 4ebd 84b8 883d
00000100: a145 e2bd feee 993b 2b79 cf3c e8ae d8bd
00000110: 4c67 20be 291c 9bbc ab94 b5bd 7502 2abd
00000120: b157 91bd 8a01 51bc 5bb8 c2bc 0e14 72bd
00000130: c91d 73bc d304 2fbd 97f7 4cbd c1c5 afbc
00000140: 8162 30be 585e 7c3d 2f9c c9bb 80ae 32be
00000150: fa60 8a3d db80 183d 9f0a af3d 5cf5 cb3b
00000160: 9677 c73d aaec cd3d f278 02be 5515 aa3d
00000170: 737c febc ff65 04be 0969 02be 0867 693d
00000180: 7147 23be d8ce 813d 4775 1c3d a6c0 613d
00000190: a59b 83bc 3135 b23c f716 53bc 2ff2 e7bd
000001a0: 150d c0bb 5a13 d73c c42a ecbd 1898 a93d
000001b0: c1b8 c8bd 314c 36bd 1270 10be 4d78 a83d
000001c0: 759b 9abc 1cca 383d 865a 8a3d d195 06bd
000001d0: b9c1 fe3c ac28 9ebc 87cf a0bd 9952 a5bd
000001e0: 518c fcbd adca cabb 8ae7 c3bd fd3f 853a
000001f0: d74b d2bd a0f5 f2bc 2182 15bc a246 f63c
00000200: d6d9 033e 882d ccbd 1768 a83d de7c c13d
00000210: ad47 b8bd a06b 1dbe 237b 1b3d ef25 6e3d
00000220: d634 f4bd d07c a83d 877e b6bd 1e9a 0d3d
00000230: 0001 d6bd 83d2 29bb 763c 463d 4225 aabd
00000240: 1f76 afbd 1f94 d5bd 3355 803d 03aa 58bd
00000250: 4fb1 aabc 402c 10b9 e67a 6abb fd68 42bd
00000260: 3289 03be 9192 e73d 9ccf babd f151 943d
00000270: 1285 4e3b 48d4 213d 5d87 f13c f158 253c
00000280: 699e fcbc 105a d93c b855 e83d 1354 603d
00000290: 5cc3 6dbc b2b8 f9bd 88a9 70bd 3e9c 90bd
000002a0: 3602 b73d 00c7 1c3d 13f6 f13d e7df db3d
000002b0: 9481 6ebd 53f6 3a3d b6ae c83d 8a99 7abd
000002c0: 89b4 cbbc a6a6 d6bd 003c c43c 7e87 45bd
000002d0: 12e9 983d 8854 9abc a0b7 7a3d 0087 d13d
000002e0: 85d5 e93d cd21 e2bd 6aa5 e53c 4fda 863d
000002f0: 01b3 5c3b 2ac4 c6bd dfbd 1fbe 2bab aabd
00000300: c75a 8fbd 18a4 c0bc c75b ecbd 087c eabc
00000310: b9fa 35bd 4407 d33c e378 a93d ad63 aa3c
00000320: 81eb 823d 5465 e4bd 7cda 5c3d eac5 0bbe
00000330: 9816 223c 5992 39bd 85c1 8f3d dc6c d33c
00000340: bec3 56bd bf3e 19be bf5b 91bd ffc2 ebbd
00000350: fe50 bdbd b945 ae3c 6af8 5a3d 94ea ca3d
00000360: 5cc5 883d b4fb b0bd ff05 1abe fe95 163d
00000370: a22a d4bc f12b a63d c05d 17bd a0fc 96bd
00000380: 7812 e5bd e06e 81bc 6266 c6bd cf4a 4fbd
00000390: abb8 803c 743e 0cbe f75d edbd 038d cdbd
000003a0: 3b4a 1bbc d08f f5bb 1be8 15be c93e 97bd
000003b0: 91c8 8f3d 982c ad3d 9274 893d 0575 1cbe
000003c0: 4d5a 9fbc 4a84 5fbd 28da 7bbd c2d1 09be
000003d0: c310 823d c849 f83c d940 ecbc 1a2a 443d
000003e0: f137 07be 99a2 42bd 4508 b9bc db14 c6bd
000003f0: b817 8a3c 3eb7 03bd 0c6e cd3d b5cc 17bb
-0.08562033 -0.03315665 -0.064956635 -0.092231035 -0.06183365 0.015451836 -0.09475466 -0.121976554
0.07867087 0.05533832 0.033826977 0.029864434 -0.08829683 -0.029459309 -0.018375084 0.05523829
-0.01796034 -0.07001283 0.02027621 -0.12256553 0.043298874 0.016134651 -0.02841696 -0.03356323
-0.15793386 -0.12735872 -0.14285268 -0.10850645 -0.023825707 -0.12742747 -0.099030495 -0.05948258
0.08779171 -0.00039200403 -0.006705731 0.013140627 -0.066004574 0.021284277 -0.024562677 0.023852497
-0.09402445 -0.029149981 -0.11063616 -0.042934135 -0.15529406 0.06158552 -0.13966309 -0.06966617
-0.03601607 0.019157715 -0.0636623 -0.10147298 -0.14783628 0.017812932 0.037331976 0.072714455
-0.0641128 0.12077747 -0.12952442 -0.11908704 -0.1282049 -0.056645103 -0.050534103 0.066758186
-0.11048437 0.0046976795 0.025326332 -0.10580236 -0.15664405 -0.018934326 -0.08866247 -0.04150625
-0.07096804 -0.012756715 -0.023769548 -0.059101157 -0.014838644 -0.04272921 -0.050040808 -0.021456601
-0.17225076 0.06161341 -0.0061526517 -0.17449379 0.06756778 0.03723226 0.08546948 0.0062243175
0.09739606 0.10054906 -0.1274145 0.0830485 -0.031065201 -0.12929533 -0.1273538 0.056983024
-0.15945221 0.063382804 0.038197782 0.055115364 -0.016065428 0.02175388 -0.012883893 -0.1132549
-0.0058609345 0.026254345 -0.115315944 0.08280963 -0.09800864 -0.044506256 -0.14105251 0.082260706
-0.018872956 0.04511462 0.06755547 -0.03285772 0.031098234 -0.019306503 -0.07852083 -0.08072395
-0.12331451 -0.0061887116 -0.09565647 0.0010166165 -0.102683716 -0.029658139 -0.009125263 0.030062977
0.12876067 -0.09969622 0.082229786 0.09447645 -0.08998046 -0.15373087 0.03795923 0.058141645
-0.1192414 0.08226931 -0.08910852 0.034570806 -0.104494095 -0.0025912828 0.048397504 -0.083078876
-0.08567452 -0.104286425 0.062662505 -0.05289651 -0.0208365 -0.00013749395 -0.003577882 -0.047463406
-0.12845305 0.11307252 -0.091216296 0.072421916 0.0031512422 0.039509088 0.029483492 0.010092006
-0.030837255 0.026532203 0.113444746 0.05476768 -0.014511909 -0.12193431 -0.058755428 -0.07061051
0.089359686 0.03827572 0.11814513 0.10736065 -0.058229044 0.04564507 0.097989485 -0.061181583
-0.02486636 -0.104810044 0.023954391 -0.04822492 0.0746633 -0.018839136 0.061210275 0.10230827
0.11417679 -0.11041603 0.028032977 0.06584608 0.003367603 -0.09705384 -0.15599774 -0.08333429
-0.06999736 -0.023515746 -0.11540943 -0.028623596 -0.04442856 0.0257603 0.082750104 0.020799482
0.06392575 -0.11152139 0.0539193 -0.13649717 0.009893082 -0.045305584 0.07019333 0.025808744
-0.052432768 -0.14965342 -0.07097577 -0.11511802 -0.09243964 0.02127348 0.053459562 0.099080235
0.06678268 -0.086417586 -0.1504135 0.036764137 -0.025899235 0.0811385 -0.03695464 -0.07372403
-0.11185163 -0.01579994 -0.09687497 -0.050608452 0.015713057 -0.13695699 -0.11590188 -0.100366615
-0.009478147 -0.0074939504 -0.14639322 -0.07385022 0.07020677 0.08455771 0.06711687 -0.15279014
-0.019452238 -0.05456952 -0.061487347 -0.13458923 0.06350853 0.03030862 -0.028839516 0.047891714
-0.13204934 -0.047518346 -0.022586951 -0.096719466 0.016857013 -0.032157175 0.100307554 -0.0023162786

node_function_neighbor.2.bias f4 [64]
00000000: 0d0f 3abb d672 f5bd 2e07 033e 462d 84bd
00000010: e4fc 08be 7056 17be 5cd6 c83d b8e1 893c
00000020: 237c 2ebd c887 0bbd 2026 e5bd 0dad efbd
00000030: 2cb6 8abd a56a 15bd 2b5c 473d 70af 1cbb
00000040: 152b 663d f3ce 3d3c 0c2d cbbd 8d0b 433d
00000050: b8e5 97bd 8d45 00be 4eb9 df3c 1940 0cbe
00000060: 3f9a 51bd 7e35 70bd 3623 c6bd 6350 433e
00000070: b998 3d3d ca58 0cbe 0327 b03c 83e9 bb3d
00000080: 132d 233c 7c5d c03d 0a4c 04bd 23a6 a83d
00000090: ae72 8a3d 8014 92bd ea61 8dbc ac75 0d3e
000000a0: 6c6b 7ebd 03bd 543d 6df3 253e c468 153e
000000b0: a926 0a3d 8bb1 863b cc28 bdbd 8a10 75bc
000000c0: 6f3f 00bd 0e19 a7bd c0c8 5ebe 650c 7dbd
000000d0: 4762 c23d 61c4 f5bd 2d15 1fbc 8003 6f3b
000000e0: 0429 673d ccf6 ab3d de71 593c 769c 9ebd
000000f0: 8a60 273e 53c8 90bd b5c7 c2bd 14e0 1c3d
-0.0028390319 -0.11984794 0.12795708 -0.06453948 -0.1337772 -0.14779067 0.09806511 0.016831264
-0.042598855 -0.034065038 -0.111889124 -0.11702929 -0.06773028 -0.036478657 0.048671883 -0.002390828
0.05619343 0.011584985 -0.099207014 0.047618438 -0.07416862 -0.12526532 0.02731004 -0.13696326
-0.05117249 -0.058644764 -0.09674685 0.19073634 0.046288226 -0.13705745 0.021502977 0.09175398
0.009959477 0.09392831 -0.03229908 0.08234813 0.06760155 -0.07132816 -0.017258603 0.1381442
-0.062114164 0.051938068 0.16206141 0.14590746 0.033728275 0.0041105202 -0.09236297 -0.0149575565
-0.031310495 -0.08159076 -0.21756268 -0.0617794 0.09491401 -0.12000347 -0.009709639 0.0036470592
0.0564356 0.08396682 0.013271777 -0.07744686 0.1634542 -0.07069459 -0.09510747 0.038299635

node_function_neighbor.4.weight f4 [64, 64]
00000000: 8f83 9ebd f212 33bd 8154 32be 5925 e4bd
00000010: 4ee2 0c3d cd97 22bd 5612 c2bd a885 c83c
00000020: 9673 f1bd b566 e9bb 807f 513d 04c4 7dbd
00000030: 2441 12bc 2a6d 9cbd b927 2e3d d754 cfbd
00000040: 69a0 65bd 46f9 e1bd dd5a 3bbd 7aa3 453d
00000050: 1815 ba3d 6232 74bc 975c 063d 01ae b23b
00000060: 8070 e3bc 92ae 7bbd c1ed 5dbc 9ede f539
00000070: e8f3 30be 3899 d83c 18d4 9d3d eb70 a5bc
00000080: 218a 883d 3a90 19be e485 19bd af2a c7bd
00000090: 90ca 49bd 1d86 79bd 5459 0cbe a671 063d
000000a0: 705a bebc cc26 f3bb f87a 98bd 2150 e0bd
000000b0: 584a 353d 9118 b3bd 77c7 85bd c8c7 e43c
000000c0: 0b33 d8bd 82e9 83bd 5c57 d23d 9483 a43d
000000d0: e6d3 a43d 920e 06be c7fa e33c 3a77 f13d
000000e0: 4f50 07be 7170 bbbd 1cdc 06be a069 abbb
000000f0: f202 803d 4032 cdbb 254f 21be f76c d53c
00000100: c0c5 8a3b d533 51bd 2a38 04be 4230 da3d
00000110: 9040 f1bc f4fd 783d 8caf 913d 4b8b c3bd
00000120: aa9d cb3d 14b3 323d 28dd febc ce15 d23d
00000130: 165d f8bd fe02 803c 3ef2 e5bd 0cc3 603d
00000140: d3d5 fcbd 848a 5fbd 6b8d a53d 44a2 593d
00000150: 8035 603b a9a3 553c 3b28 19be 299d 9a3d
00000160: 9656 ab3d e082 d1bb 4c04 03be d15f 2a3c
00000170: 7fab 783d 34b2 b63d 869c 893d 8a01 06be
00000180: 3361 1b3d 8366 50bd f8a5 e3bc e0f2 dbbd
00000190: 2d3d be3d 8036 bd3d 42ea dd3d 9cac 6f3c
000001a0: 3017 233d 1f14 99bd 743b 59bc a0f9 943a
000001b0: 0eec c23d f2cf a3bd efe6 d9bd ad01 95bd
000001c0: ccc4 f2bd 2841 17bd 708f c1bd 1b9f d0bd
000001d0: 937f ac3d 9e94 eebd 0131 6c3d 1644 b2bd
000001e0: e085 f9ba b963 8dbd 8da3 67bd b021 b6bc
000001f0: cbea 27bd 6ea8 bcbd 0289 e13d 68b1 c73d
00000200: 07a9 bfbd f1d6 103d ae70 8d3d 4eea bfbd
00000210: 436f 92bd 08ba cabc 297d 9abd 9213 d2bd
00000220: f03b f23c 5e32 f1bc f443 303d ab9b 8d3d
00000230: f534 f5bc 6c0f 563d d8f2 a23c 79a8 cbbd
00000240: e7c3 b1bd 1a7a d4bc ce70 22bd e221 713c
00000250: 196a b83d 4f3c 94bc 9d20 f5bd 66fc c73b
00000260: 521f 833d d7c4 61bc 6e2b c6bd 077d 1cbe
00000270: d1b8 68bd b64a dcbd 27a9 8cbb a266 9e3d
00000280: b77f d9bd e01f bcbd 6903 97bc c787 c6bd
00000290: 0219 903d b0d8 6fbc 105b b03c e183 00be
000002a0: 8035 003c e79f 633d 3d4d 13bd 7034 0dbe
000002b0: 0e31 41bd 4d15 103d cf25 15be 821a 5bbd
000002c0: 07b1 50bd ae5c 4fba b000 f8bd bfcd 903d
000002d0: 5810 18bd fcec 83bd a026 09be c08a b0bc
000002e0: ffc2 a03d 3b85 6e3d ae14 c9bd a029 6f3d
000002f0: e235 37bd 3a61 72bc 420d d13b 1a2a 5bbc
00000300: d222 c83c 013d fd3d 4e23 3bbd d19b 9f3b
00000310: e25a 1c3d df14 353e a813 e33d f838 053e
00000320: 88b9 9f3d 7416 a0bd 4c38 d73d ac46 bf3d
00000330: 1bd0 6fbd 6910 f83d c437 363c cb32 f4bb
00000340: ae97 9bbd ebb8 ae3d 3774 3d3d 4e43 a5bb
00000350: 8794 4fbd e635 14bc 939b a73d f9d2 863d
00000360: a812 0d3c e9fb 323d 124c f13d aa43 123d
00000370: 6f13 b33d 596c 15bd 0f1c e7bd 42fa 163e
00000380: 54fc e8bc 6633 84bd 4d68 823d 355d c23d
00000390: 9961 1abe 1e7d 18be 5d3d a0bd a4c6 69bb
000003a0: 1404 e43d 8acb 4cbd cc62 a2bd 26d8 493d
000003b0: d86c 45bd 6145 9c3d 84e4 8dbd 5ecc fabd
000003c0: d743 0abe 360e d8bd 084d 83be a956 9abd
000003d0: 8089 92bc 8d18 66bd 754a 9fbb cc3b 88bd
000003e0: 9959 943d 3c27 573d 0a45 f2bc 0051 f2bb
000003f0: 4a05 aebd e9fc c6bd c835 e03d 624c 15be
-0.077399366 -0.04371924 -0.17415048 -0.11139936 0.03439551 -0.03969555 -0.094761536 0.024477795
-0.117896244 -0.0071228393 0.051146984 -0.061954513 -0.008926664 -0.07638009 0.04251835 -0.10123604
-0.056061182 -0.11033873 -0.04574095 0.048251607 0.090860546 -0.01490459 0.032803144 0.005452872
-0.027763605 -0.06144578 -0.0135454545 0.00046895904 -0.17280543 0.026440248 0.07706469 -0.020195445
0.06666971 -0.14996424 -0.037481204 -0.09724938 -0.049265444 -0.060918916 -0.13705951 0.032823227
-0.023236483 -0.0074203964 -0.074453294 -0.109527834 0.044260353 -0.0874492 -0.065321855 0.027927294
-0.10556611 -0.064410225 0.10270569 0.08032909 0.08048229 -0.13091496 0.02782954 0.11790319
-0.13214229 -0.09152306 -0.13169903 -0.0052310973 0.06250562 -0.006262094 -0.15752847 0.026052935
0.0042349994 -0.05107482 -0.1291205 0.10653736 -0.029449731 0.060789064 0.07113561 -0.095480524
0.099421814 0.043627813 -0.031111315 0.10258065 -0.1212713 0.015626427 -0.11227845 0.05487351
-0.12345471 -0.05457546 0.08083614 0.053133264 0.0034211576 0.013039508 -0.14956753 0.07549507
0.08366124 -0.0063937753 -0.12794608 0.010398821 0.060710426 0.08920708 0.067193076 -0.13086525
0.037934493 -0.050879013 -0.027789101 -0.10739684 0.09289012 0.09238911 0.10835697 0.014628556
0.039817035 -0.07474541 -0.013258804 0.0011365898 0.0951768 -0.07998647 -0.1063975 -0.0727571
-0.11853942 -0.036927372 -0.09451187 -0.10186597 0.0842277 -0.1164944 0.05766392 -0.087043926
-0.001903709 -0.06903786 -0.05655246 -0.02223286 -0.0409954 -0.09211813 0.1101246 0.097506344
-0.09358411 0.035361234 0.069062576 -0.09370862 -0.07150128 -0.02474691 -0.07543404 -0.10257639
0.029569596 -0.029442962 0.043033555 0.06914457 -0.029932478 0.0522608 0.019891188 -0.09944243
-0.086799435 -0.025937129 -0.03965836 0.014717551 0.090046115 -0.018095164 -0.11969111 0.0061030863
0.06402458 -0.01377984 -0.09676252 -0.15282069 -0.05681688 -0.107564375 -0.0042926255 0.077344194
-0.10620063 -0.09185767 -0.018434243 -0.09693866 0.0703602 -0.014639065 0.021527797 -0.12550308
0.007825255 0.055572417 -0.035962332 -0.13789535 -0.047165923 0.035176564 -0.14565204 -0.053492077
-0.050950076 -0.00079102337 -0.12109506 0.07070493 -0.03712496 -0.064416856 -0.1339364 -0.021550536
0.078496926 0.058232527 -0.098183975 0.058389306 -0.04472912 -0.014793688 0.0063797543 -0.013376737
0.024430666 0.12365151 -0.045687966 0.0048708697 0.03817261 0.17683743 0.110877335 0.13010013
0.07799059 -0.078167826 0.10508785 0.093396515 -0.058548074 0.12112505 0.011121694 -0.007452344
-0.0759729 0.08531364 0.04625341 -0.0050434237 -0.050678756 -0.0090460535 0.0818397 0.065832086
0.008610405 0.04369727 0.117820874 0.03570906 0.08743941 -0.03648028 -0.112846486 0.14743903
-0.028440632 -0.06455116 0.0636755 0.09490434 -0.15076293 -0.14891478 -0.07824204 -0.0035671378
0.1113359 -0.049998797 -0.07929 0.0492784 -0.048199505 0.076304205 -0.069283515 -0.12246011
-0.13502441 -0.105495855 -0.25644708 -0.0753606 -0.01788783 -0.056175757 -0.004861171 -0.0665203
0.07243652 0.05252765 -0.029573936 -0.00739491 -0.084971026 -0.097162075 0.10947758 -0.14579919

node_function_neighbor.4.bias f4 [64]
00000000: a7fa 10be 745e b9bd 99d3 bf3d fe4f 0c3e
00000010: 6330 1bbc 492c b33c 6f7e 163d cbf4 0d3e
00000020: 7241 17be b28e 92bc 809e 003c 7f42 23bc
00000030: e914 dfbd 2d03 77bd 538b 283d b19a fc3c
00000040: 6ecf ddbd 3c57 7b3c fa2c 8cbc 695f b3bd
00000050: 4453 eabd 2449 ff3a eb9b 18be d3bc 15bd
00000060: 677a febc 786d d73b ef36 c3bd 483f c63c
00000070: f354 203c 8be3 adbd 2ece cd3d 36b2 69bd
00000080: 40e6 f83d 9e18 18b9 9983 8bbc d0dd 50bc
00000090: f667 fa3d 19ba 95bc a947 0dbb d7d0 c5bc
000000a0: 5118 c63d e0fb d13c 5873 cd3c c429 a33d
000000b0: cd5b 20bd 22b0 0bbe df7b c7bd 39c8 d13c
000000c0: 635e 67bd b201 973c ab7a ad3d 6a1e a53d
000000d0: f062 363d 1bfa 1d3e a8a4 9ebd 6728 72bd
000000e0: 53ac 293e 4941 90bd f765 0fbd cc22 47bc
000000f0: ea4e 02be f1e6 01bd 34fb 163e 3e00 05be
-0.14158116 -0.09051219 0.09366531 0.1370239 -0.0094719855 0.021871703 0.03674167 0.13862912
-0.14771059 -0.017890308 0.007850289 -0.009964584 -0.1089266 -0.060305763 0.041148495 0.030835481
-0.1083058 0.0153406225 -0.01711129 -0.087584324 -0.11441663 0.0019476754 -0.14903228 -0.03655703
-0.031064225 0.006574329 -0.09531962 0.024200097 0.0097858785 -0.08490666 0.10049091 -0.05705472
0.12153292 -0.0001450502 -0.017030524 -0.012748197 0.1222686 -0.018277215 -0.0021557605 -0.024147434
0.09672607 0.025632799 0.025079414 0.079669505 -0.039150048 -0.13641408 -0.097404234 0.025608169
-0.0564865 0.018433426 0.08470663 0.08062442 0.044527948 0.15427439 -0.077462494 -0.059120562
0.16569643 -0.07043702 -0.03500935 -0.012154292 -0.12725416 -0.031714384 0.14744264 -0.12988374

node_function_neighbor.6.weight f4 [4, 64]
00000000: bd6c a43d 8f52 dabd fda8 f7bd 510d c63c
00000010: eee4 57bd 173c 0cbe 313c b0bd 62f6 a2bc
00000020: 5569 d43d 9da8 08bd 7a16 623c ea18 7f3c
00000030: cfc3 46bd 07db d23b d40b 8c3d b6ed 63bc
00000040: d19b 98bd 8f4b bbbd 66c2 033d 3f72 0dbe
00000050: 6fa9 7abd 6741 913d 8e00 06bd ed8e 8a3c
00000060: 5135 01bd 95a8 693d 2e64 e0bd d833 ae3d
00000070: 8b17 d43d b656 883d e239 ecbd 52e4 33bd
00000080: 42f9 843d c828 2c3c 2a80 a9bd 0533 8b3d
00000090: b72e 81bd 24b8 95bd 4a75 c73d c268 e9bc
000000a0: 0060 69bd da75 213c 3999 dabd f335 513d
000000b0: 6345 a93d d41a 1f3c c2bc a0bd 073e 923d
000000c0: 1a81 0d3e 1748 dfbd 4783 d43d ffb0 ce3d
000000d0: 66ae dabd 7829 87bd 6a79 85bc 7dd0 cabc
000000e0: e776 a4bd 5af0 ebbd 77e4 acbd b55f afbd
000000f0: 0ac9 fb3c 3382 293d 2959 bb3c bf71 733d
00000100: d31e 7aba dc9c 37bb ee14 babd 1aff 14be
00000110: b60a 513d 617d 983b 07b0 4e3c eb14 8b3d
00000120: 2248 9e3d 9460 bfbd 2567 fd3d 7d8c 13be
00000130: d64e b93d f302 cfbd 8be5 003d e821 b63d
00000140: b424 97bd a6f3 7e3d 7ce0 f8bd b132 203d
00000150: f23b 393d 3afd cebd a6a3 07be c82f bfbd
00000160: 011c b0bd 057d 96b9 5d8b 94bd 4cce 72bd
00000170: 2d58 bcbd 8112 af3d 6df9 8c3d 5347 833d
00000180: 775e 96bd 9548 9f3c d1d3 97bd 1b09 babd
00000190: f05f 09be 2363 99bd 57e0 61bd b063 e7bc
000001a0: a0f0 71bd 207c fdbc 943e 553d 06ff 80bd
000001b0: d6cb 833c 091d d2bd b8c0 aebc a2be 843c
000001c0: 844c 713b d049 853d aabf 5cbc f46e 7abc
000001d0: b4e2 a93d 765a a4bd a417 0a3e 562a 763c
000001e0: bbcb 883c 2f05 42bb cf53 94bc 65f0 8c3d
000001f0: dc3b 35bc 7345 053e 6018 73bd e38e 95bd
00000200: a10c 293d c69c ef3c abdd 873c ef99 ac3d
00000210: e76a 96bd 4bf9 93bc 86e7 adbd bffb 093e
00000220: 0a40 95bd 4bf1 7c3d 86e7 cf3d 65ad aebd
00000230: 91c8 28bd 325e cabd 50b6 d63c eb97 52bd
00000240: ab9b cfbd 28ee d6bc 4d19 3a3d 9e10 bfbc
00000250: fb0d a23d 171a afbd 4e74 d33c 5e16 6ebc
00000260: be28 8b3d e529 3e3d 1050 38bd 3d82 163c
00000270: 0d59 c73d ff7b 4f3c 39d8 253d 87ed 2fbd
00000280: dbb8 b13d 263e df3d cd76 693d e336 85bc
00000290: fcd0 bb3d 1737 9ebd 10d6 d53d b3c3 193c
000002a0: a27d e9bb 0c70 52bd 40b6 e73d 7436 febb
000002b0: 39fb 71bd e991 48bd 6b69 973d 45e5 99bd
000002c0: 82b5 863d 1a08 3b3d 9761 de3d 2199 383d
000002d0: 03a1 d13d 940b 8a3d 96b7 a6bd 6876 32bc
000002e0: baa8 ee3d 8f51 e9bc 23b7 793d a9bd 14bd
000002f0: c790 afbd c891 be3d 4304 463d 2d98 a1bc
00000300: 7a1d 69bd 2439 173d 0b85 a83c 75f3 663c
00000310: e00a 97bd aff6 213d fee9 c93d 1546 8a3d
00000320: ca7c 10ba bb87 633d ea66 c8bd b37f c93c
00000330: 017e 0fbd 685f ea3d e22a cebd 5426 c5bd
00000340: 56da bc3d 539c 1b3d 76e1 533d 950d 80bd
00000350: dd19 9b3d 035a ccbc 30b0 843d b0cd 033d
00000360: c699 92bd 64e7 77bd da54 a93d 5567 833d
00000370: 2704 a7bd 8789 a7bb eb3d cfbd c5b5 bf3c
00000380: 4c1a 57bd 1019 3e3d b460 c7bd 5e7a bebc
00000390: 4348 28bd eb0f cf3c 5cbe a93c 772c 11bc
000003a0: 0ccc 0bbd e7f1 1f3c 1cfb 94bd 5efc b4bd
000003b0: d079 b13d 7e15 6d3d 3d2b 6fbd c2e4 a53d
000003c0: b75a d3bc fe85 e83d ccff a6bc 932f a63d
000003d0: 27b9 3b3d a579 9f3d 547c 7abb 2752 c53c
000003e0: 2882 03bb 71eb 9a3d 294e 59bc a253 97bb
000003f0: c4dd b73d 3134 9bbd 2444 1ebd a6ca 08bd
0.08028553 -0.10660278 -0.12092779 0.024176272 -0.05270856 -0.13694797 -0.086052306 -0.019892875
0.10371653 -0.033363927 0.013799304 0.015569905 -0.04852658 0.0064348015 0.068381935 -0.013911655
-0.074515946 -0.09145271 0.032167815 -0.13813113 -0.06119674 0.07092553 -0.032715373 0.016913855
-0.031544987 0.057045538 -0.10956608 0.08505982 0.10356053 0.06657164 -0.11534478 -0.043918915
0.06492855 0.01050777 -0.082763985 0.067968406 -0.06307738 -0.07310513 0.09739168 -0.028492335
-0.05697632 0.009854758 -0.10673756 0.05107684 0.082651876 0.009710986 -0.07848503 0.07140737
0.1381878 -0.10902422 0.10376602 0.10092353 -0.10677795 -0.065997064 -0.016293246 -0.024757618
-0.08030491 -0.11520453 -0.08442014 -0.085631765 0.030735511 0.041383933 0.022869663 0.05943465
-0.00095413363 -0.002801708 -0.09086023 -0.14550439 0.051035605 0.004653618 0.01261521 0.06791099
0.07728602 -0.09344593 0.12373189 -0.14409061 0.0904824 -0.101079844 0.03146891 0.08893186
-0.073800474 0.06224408 -0.12152192 0.039110843 0.045223184 -0.10106893 -0.1324602 -0.093352854
-0.08599091 -0.00028703376 -0.07253144 -0.05927877 -0.09196506 0.08548451 0.06883512 0.064100884
-0.073422365 0.01944379 -0.07413448 -0.09083768 -0.13415504 -0.07489612 -0.055145588 -0.028245777
-0.05906737 -0.030942976 0.052061632 -0.06298642 0.016088407 -0.10259444 -0.02133213 0.016204182
0.0036819289 0.06508219 -0.013473431 -0.015285242 0.08295193 -0.080250666 0.1348558 0.015024742
0.016698709 -0.002960514 -0.01810637 0.06881789 -0.011061635 0.13014774 -0.059349418 -0.07302644
0.04127181 0.02924956 0.016585192 0.08427798 -0.07344609 -0.018063208 -0.08491425 0.1347494
-0.07287605 0.061753552 0.101515815 -0.08529166 -0.0412069 -0.098812476 0.02620998 -0.05141441
-0.10137113 -0.026236609 0.045434285 -0.023323353 0.07912823 -0.08549898 0.025812294 -0.0145317
0.0679488 0.046426672 -0.04499823 0.009186325 0.09733782 0.01266384 0.04048941 -0.042951133
0.086778365 0.10900526 0.056998063 -0.016261524 0.0917072 -0.07725351 0.1044122 0.009385037
-0.0071255723 -0.051376387 0.11314058 -0.007757956 -0.059077475 -0.048967276 0.07393154 -0.07514433
0.065775886 0.045662023 0.108584575 0.04506791 0.10235789 0.067404896 -0.08140485 -0.010892488
0.11653276 -0.028481273 0.06096567 -0.036313687 -0.08572536 0.09305149 0.048343908 -0.019725883
-0.056912877 0.036919728 0.020571252 0.014096131 -0.07375121 0.039541896 0.098590836 0.06751648
-0.0005511759 0.055549365 -0.09785254 0.024597025 -0.035032276 0.114439785 -0.10066773 -0.09626451
0.09221332 0.03799088 0.05172869 -0.062525906 0.075732924 -0.024945265 0.064789176 0.03217858
-0.07158236 -0.060523406 0.08268137 0.064161934 -0.08155089 -0.00511283 -0.10119232 0.023402104
-0.052515313 0.04641062 -0.097352415 -0.023251709 -0.04108454 0.025276145 0.020720653 -0.008860699
-0.03413014 0.009762264 -0.07274458 -0.08837198 0.08665812 0.057881825 -0.058390845 0.08100273
-0.025800092 0.11353682 -0.020385645 0.08114543 0.045830872 0.07786874 -0.0038221078 0.024087025
-0.0020066593 0.07564438 -0.013263264 -0.004618124 0.08977845 -0.07578314 -0.038639203 -0.033396386

node_function_neighbor.6.bias f4 [4]
00000000: 9f78 dfbd 27ff 98bc 8d7c 163d 02b9 283c
-0.109116785 -0.018676354 0.036739875 0.010298016

edge_function.0.weight f4 [64, 4]
00000000: 1293 28be cb37 d93e 7b8b 22be 876b b23e
00000010: f554 963e 9a44 07be 5e2a 1d3e 3ce9 61be
00000020: 28bc 883d fbb4 7cbe 29b0 d53d 9aa9 d03e
00000030: 32d5 723e 4c17 6f3d 695d ea3e e5fd 23be
00000040: 95a9 c43d cd47 cabe 60c4 c6be 0dff 01be
00000050: 13fc bc3e 6df4 d03e ea66 0d3c 0abc 773e
00000060: f1a6 7abe acf7 603e 2988 643c a01c c93e
00000070: 631f 4ebe e6f8 d23e a5a9 22be 406c 343e
00000080: ea7d 82bc 4d05 10be 9ef5 4abd f9ca b8be
00000090: b8a8 d73e 54e1 2c3e 129c e23d 96f5 3f3e
000000a0: 1c61 063e bbe8 683d 5428 f8be af47 673d
000000b0: cfd0 9e3d 5f42 8cbe 16c7 453c dea0 403e
000000c0: 817b 78be 3f9d b0be 93eb d63e 9e4f 2fbc
000000d0: db79 dfbe afdb f63e 406d dfbe 346c 09bf
000000e0: 539d 1ebd 1774 85be 2323 41be 8b33 9d3e
000000f0: 8221 b53e 333e e53e 60d1 36be 85d1 123e
00000100: 4ad3 b4be a32a 7d3c d7db a4be 180a cdbc
00000110: cefe dc3e cea1 e73d 057b cc3e 6a94 5a3e
00000120: b0df 91bd 5d12 f6be 9526 55bc d830 a1be
00000130: 0e18 d1be d4bb 903e ac5e 72be 5c79 63bd
00000140: 6823 b63d 1b0f 59bc 4a69 af3d 3736 40be
00000150: 12ea 91be 182f 8a3d 742e 5abe 0836 2d3e
00000160: 5a00 4e3e ba10 41be 6bf4 623e 1a26 fd3d
00000170: 720d 6fbe 4956 fc3e 53ae c9bd a32d 28be
00000180: 6943 c8bd a9ed d53e c305 bebe 3b40 5f3e
00000190: 4e31 2ebe b99e e8be 2396 bf3e 2a1a 91be
000001a0: 297f 94b9 8932 a0be 63d3 973d 3a91 aa3e
000001b0: d5fb bd3e d0bb d8be e072 cb3e f139 263d
000001c0: dcdf c1be e7da 86bd f528 eb3d f06c 96bd
000001d0: e70f c4be 6e0d 473e f346 12bc 7d12 793e
000001e0: a24c ca3c 852e 83be 4959 6d3e a70c 003f
000001f0: 3e98 8a3e 21b5 8dbd 3adc d93e 6b3c c83d
00000200: ba4f 4f3d 934a ab3e 8674 a53e a869 e23e
00000210: fcdd 9abd c27f d7be 4f3f 163e 014c 343d
00000220: 4eba 2d3d 1b4e c93c 5d55 983e a948 0dbd
00000230: ab24 8fbd 62c5 493d a09b 203e 8bf9 d5be
00000240: 9ba2 8bbe 94f0 a1be 5566 003f cafb 103e
00000250: 0853 b53e e894 83be acbb 9d3e 84fb c0bd
00000260: c790 4abd 536f 933c 06f1 b5bd 1973 fc3e
00000270: 8906 70be 35b8 62be a99d 3f3d 9908 9dbc
00000280: a814 2dbe 0acc fa3e 61d2 d4bc 8ebd e03e
00000290: 0c7f 16be fcd2 50be 9b1b 77be 3ccd 683d
000002a0: a78f fe3c 4194 f4bd 1ba9 4fbd 94ec e2be
000002b0: 6440 d33e 4cf0 733e 1a98 09be ec38 b5bd
000002c0: 595d bc3d d330 14be b014 13be a2f8 b0be
000002d0: d0ea 843e 33a6 ee3e 6827 733e 72ac f3be
000002e0: 17cf 9a3e 93c2 84be 339a 613d 8265 833c
000002f0: 8f19 b6be a627 3ebe 00de d73e e9f5 2c3e
00000300: c3ed 393e 347e 9bbe ffc8 53be 4111 a4bc
00000310: 8027 e13e 6c8f 943d 928c c83d 16cf 8a3d
00000320: c20c ea3d 9a49 d0bd c833 e7be 1b44 a1be
00000330: cfe3 ee3e c79f 5dbe 8e78 81be 3335 f2bd
00000340: 6b38 443e b592 903a deca c5bd f957 1dbe
00000350: d078 663d af74 843e f5dc 5ebe 6c34 c2be
00000360: 0d5c 19bd dc2b c3be 45b7 8fbe 57a3 6fbe
00000370: c4d0 ebbe c6ab 7dbe fed5 333e b2b7 cd3e
00000380: c34f d4be a3c3 d1be 6b24 053d a9e6 debe
00000390: 43ec f1be e70d 053f 9d11 d1be 0b80 3f3e
000003a0: b4b8 e73c ff05 2e3e fe83 09be aa4c b53e
000003b0: c46c 3e3e 1d5b 7d3d e556 c43d 30a0 bd3b
000003c0: 1fb5 513d 0d98 febe 8012 d83d f673 03bf
000003d0: fdf1 7dbd f4fd 3abe d2a2 52be 3257 f1bc
000003e0: a701 dcbe 733c e83e 2b2b 98be 7103 aabd
000003f0: fc98 b4be b568 93bd 80b2 c5be 586c c2be
-0.16462353 0.4242538 -0.1587352 0.34847662 0.29361692 -0.13209763 0.15348193 -0.22061628
0.06676513 -0.24678414 0.104339905 0.40754396 0.2371414 0.058371827 0.4577439 -0.16014822
0.09602658 -0.39507905 -0.38821697 -0.1269495 0.36911067 0.40811482 0.008630494 0.24192825
-0.24477746 0.2196948 0.013948479 0.39279652 -0.2012916 0.4120552 -0.15885027 0.17619419
-0.015929181 -0.14064522 -0.049550645 -0.36092356 0.4212091 0.16882831 0.11064924 0.18746027
0.13122982 0.056862574 -0.48468268 0.056464847 0.07754671 -0.27394387 0.012071392 0.18811366
-0.24265863 -0.3449497 0.41976604 -0.010700135 -0.43647656 0.4821448 -0.4363804 -0.5368073
-0.038724255 -0.26065132 -0.1886106 0.30703387 0.35377127 0.44774017 -0.17853308 0.14337738
-0.3531745 0.01545206 -0.32198974 -0.025029227 0.4316315 0.11310159 0.39937606 0.21345678
-0.07122743 -0.48060885 -0.013009687 -0.31482577 -0.40838665 0.282683 -0.23668927 -0.05553566
0.08893472 -0.01324823 0.08565004 -0.18770681 -0.28498894 0.06747264 -0.21306783 0.16915143
0.20117322 -0.18854037 0.2216355 0.12360783 -0.23344973 0.4928458 -0.09847703 -0.16423659
-0.097784825 0.41782883 -0.3711377 0.21801846 -0.17010996 -0.45433596 0.37419233 -0.28340274
-0.00028323501 -0.31288555 0.07413366 0.33313924 0.37106195 -0.4233079 0.3973608 0.0405826
-0.37866104 -0.06584721 0.11482421 -0.07344997 -0.38293383 0.19438717 -0.008928048 0.24323459
0.024694744 -0.2562143 0.23178591 0.50019306 0.27069277 -0.06919313 0.42550832 0.09777149
0.050613143 0.33455333 0.32315463 0.44221234 -0.075618714 -0.4208966 0.14672588 0.044017795
0.042414002 0.024573376 0.29752627 -0.034493122 -0.06989416 0.049260505 0.15684366 -0.4179195
-0.27272496 -0.3162886 0.50156146 0.1415855 0.3541491 -0.25699544 0.30807245 -0.09422973
-0.049454477 0.01799742 -0.08883862 0.49306563 -0.23439993 -0.22140582 0.046781216 -0.019169139
-0.16902411 0.48983794 -0.025979223 0.4389462 -0.14696902 -0.20392984 -0.24131624 0.05683635
0.031074358 -0.1194234 -0.05069838 -0.4432112 0.41260064 0.23822135 -0.13436928 -0.088487476
0.09197492 -0.1447175 -0.1436336 -0.34564692 0.25960398 0.46611175 0.23745501 -0.47592503
0.30236122 -0.25929698 0.055078696 0.016039614 -0.35566375 -0.18569812 0.4216156 0.16890682
0.18157105 -0.30369723 -0.20682143 -0.020027759 0.4397545 0.07253918 0.09792437 0.0677778
0.114282146 -0.101702884 -0.45156693 -0.31497273 0.4665818 -0.21642981 -0.25287288 -0.11826553
0.19162147 0.001103005 -0.096578345 -0.1536559 0.05626756 0.25870273 -0.21763976 -0.3793062
-0.037441302 -0.381194 -0.2806951 -0.23402153 -0.46057713 -0.24772558 0.175621 0.4017921
-0.41467103 -0.4096957 0.032505434 -0.43535355 -0.47250566 0.5197434 -0.4083375 0.18701188
0.028286316 0.16994475 -0.13429257 0.35410053 0.18596178 0.06185447 0.09586886 0.005786918
0.05119812 -0.4972538 0.105504036 -0.5134882 -0.061998356 -0.18260938 -0.20569924 -0.029460523
-0.4297001 0.4535862 -0.29720435 -0.08301438 -0.35272968 -0.07197706 -0.38612747 -0.37973285

edge_function.0.bias f4 [64]
00000000: 4cab 0dbd 74f8 f73e 250a 90be fdeb d0be
00000010: 3211 e3be a8a1 a53e 1ca8 d9be f8e3 8abe
00000020: d0c6 253e 7303 793e 3450 aabe 4093 f0be
00000030: b41c 903d 8556 8b3d ab2c 4dbe 281e 91be
00000040: 41d5 e2be d973 933e 791c c2be 2449 71be
00000050: 4288 67be 29c1 e4be 34ed b8bd d9db c7be
00000060: ac81 f83e 4935 d23e 5e1a 65be 088a e0be
00000070: 80fb f4be 895c 583d a30d acbd fbe0 033f
00000080: 7683 743e 0e08 6abe c4cc 08bf c2b8 eabd
00000090: 9dc8 e5be 3ee9 a13e bb00 4c3d 8cc0 9ebe
000000a0: 1918 06bf 505c f23e 84a9 a4be b75c c1bd
000000b0: cc03 6f3e 84e6 c23e 53c6 4d3e 803c 983e
000000c0: 931f 713e a69e 0fbd ef82 b2bd 6c42 9ebe
000000d0: d23b cc3e ff81 97be 3558 813e 29ee 88be
000000e0: be72 9ebd 0b9d 7fbe 4433 d1bc d761 9f3c
000000f0: e03d 20be 212b 963d 15f0 d73e 951a d33d
-0.03458719 0.48431742 -0.2813274 -0.40805045 -0.44349056 0.32349896 -0.4251107 -0.2712705
0.16189122 0.24317722 -0.33264315 -0.46987343 0.07036725 0.06803612 -0.2003657 -0.2834332
-0.44303325 0.28799322 -0.37912348 -0.23563057 -0.22610572 -0.4467862 -0.09029618 -0.39034918
0.48536432 0.41056278 -0.2237334 -0.4385531 -0.4784813 0.052822623 -0.084010385 0.5151517
0.23878273 -0.22854635 -0.5343745 -0.11461021 -0.44879618 0.31623262 0.049805384 -0.31006277
-0.5238052 0.47336054 -0.3216058 -0.09441512 0.23341292 0.38066494 0.20095186 0.29733658
0.23547201 -0.03506341 -0.0871638 -0.3091005 0.3988939 -0.29591367 0.2526261 -0.26744202
-0.07736729 -0.24962251 -0.02553714 0.019455833 -0.15648603 0.07332445 0.42175356 0.103078045

edge_function.2.weight f4 [64, 64]
00000000: 68ed c4bd 42fa 29be e789 4ebd 7bb3 63bd
00000010: 9ba5 a33d 9590 3dbe b44b 1f3d 2e65 89bd
00000020: dd94 bf3d a138 04be 183b 9a3c 6aaf 5b3d
00000030: 1c5a 42bd 3df4 943d 872b 96bd ba4e 96bd
00000040: 7539 8ebb 568c 3ebe 114d 043d 6cdf 39bd
00000050: 4859 73bd b191 a4bc 4761 29be 83c8 8c3c
00000060: 148b 4d3c e564 da3d 320e e3bc 5fd4 0d3d
00000070: 6584 0cbd 8545 0cbe bd48 30bd c38c e63c
00000080: 5a92 063d 1bfd 883c 426d 8fbc 885b 9e3d
00000090: 50e1 2abe 828c 37be 2a23 13bd 03cb 613d
000000a0: e5d2 8b3b 4cfd 98bb 81ff 71ba daf2 bcbc
000000b0: 1970 fdbd 9e70 babd 6eb6 62bb 745f 07bc
000000c0: f590 18bd 4b55 1abd e197 dd3d b71a 97bd
000000d0: f363 c1bd 5f20 10bd 9bca 02bd f3d4 c2bd
000000e0: 331b a7bd 4a68 95bd b4e2 dbbd ec7f 073d
000000f0: 9ce7 6ebd bb8f 25bc d7b9 3ebc 5499 da3d
00000100: 8abc d33c 0b76 883d 1ca9 80bc a38a 26be
00000110: d562 0f3d 403e 623d cfd8 24bd 6197 8c3c
00000120: 5c0c d13c 5111 b3bd 4d1d c0bc c3e8 393d
00000130: 07c1 843c 5c2e 10be 05f6 a03c 7ea1 b7bc
00000140: 006f 30bd 145a 06bd 65d5 383d 41c2 89bd
00000150: 0dbf 50bd 8069 c1bd 108d 10bd 8b31 d2bd
00000160: d0e6 da3c 67b8 a6bd 75fe c7bd 1d6c a73d
00000170: 5848 0e3d 5b26 8e3c 8384 10bd 9e64 1dbd
00000180: f168 123d 7767 9bbd 599e 753d 1e4a 5c3c
00000190: e332 08be f660 73bd d141 9b3d 48f0 803d
000001a0: 05cd 273d c54d f7bd ea9f a1bd fe16 62bd
000001b0: 1b5e 083d 122d b8bd e03e d6bb 74a9 27be
000001c0: e498 babd f6f0 bc3c 772a a5bd 3efa e4bc
000001d0: aed4 893d faad c33c 58ec cbbc 4c2b b3bd
000001e0: 0969 ef3b 0776 06be 3241 0c3d c4f5 943d
000001f0: 7b70 c0bd 65f2 ce3a e8c3 00be 7bcd 273d
00000200: 83a3 933d e6c9 c0bd bab7 aabd b44b a6bd
00000210: ddb5 f23d 8e84 c0bd 1e26 d5bd f4bc 953c
00000220: 36ed d2bc 0bbb 2bbe 8a9e 62bd 055c 9e3d
00000230: 8ddc 183d 205e cd3c 1dcb ba3d bbd5 03be
00000240: f9a1 6ebc 7c88 67bd 1d55 383c 02f8 cd3d
00000250: 9e76 2abd 2adb c63c 58e5 2cbe 6670 aebc
00000260: 1f8a 0fbd 606f 29bd 9bef e63d 2d51 10be
00000270: ccec 4ebb ec92 62bd c3f3 b33d 0841 04be
00000280: 3c57 07be b8df 53bd dd54 26bd 2169 58bd
00000290: 3293 db3d 7faf 25be ac62 9ebb b3e5 83bd
000002a0: dcc8 02bd 9ffb f63d ff64 3f3d a133 37be
000002b0: fc6e f83c 7aca d63c c6a7 05be cea7 903d
000002c0: 3e3c 9bbc 051a bebd 1437 4dbd c8cc 1eba
000002d0: 8ba1 4bbe 0135 3f3d 5ce8 82bc 4986 4dbd
000002e0: f80c e7bd c959 fb3c f17d 7dbd d421 d43c
000002f0: d08e 1ebe 334a b03c a527 3b3d 5722 523d
00000300: 6096 cfbd 8142 d2bd d52a c53d a3d0 eabc
00000310: 55ac f63d 5256 373d f7a6 aabd d96c 663d
00000320: 787f 93bd 1016 0cbd 3b32 8b3d bf65 b0bd
00000330: 1b0e 0c3c 55b0 2fbd 4752 0ebd d884 22be
00000340: 14b5 8e3c fb20 aabc ed48 ea3d 34a9 a0bd
00000350: b3fc 49bd 947f 693d 1f8f f6bd 1610 eabd
00000360: ddea 87bd f918 c6bd 3d68 51bd f46e d9bc
00000370: 1e66 bcbd 3c59 ffb9 16ba 873d 165d 0bbc
00000380: a682 c6bd fefc d1bd 1baf 20be 2ba0 463d
00000390: 3d48 7c3d 2a6f 843d 3382 ac3d 4098 76bd
000003a0: 642d eebb 213c 943d 24ea 9dbd 47ce a43d
000003b0: 5014 8c3c fb0a 68bd d3a7 abbc 5dda f2bc
000003c0: 45f4 dfbd 4d41 0bbd 907f 9b3c c9ee c33c
000003d0: 637b b1bd b13b c4bd 5ad5 9dbd 2c7f cabd
000003e0: d94b a43d 2b97 b0bd 88d9 963d b478 09be
000003f0: 2c57 10be fada ff3d f537 8cbd be80 643d
-0.09615594 -0.16599372 -0.050424483 -0.055591088 0.07990571 -0.18512185 0.038890556 -0.067087516
0.09354565 -0.12912227 0.018827006 0.053634085 -0.047449216 0.07273147 -0.07332521 -0.07339235
-0.0043403455 -0.18608221 0.03230006 -0.045379087 -0.059411317 -0.020089002 -0.16541015 0.017185455
0.012545366 0.10663775 -0.02771673 0.03462636 -0.03430595 -0.13698395 -0.04303812 0.028143292
0.032854415 0.016722253 -0.017508153 0.07732302 -0.16687512 -0.17924693 -0.035922207 0.055125248
0.004267084 -0.004668867 -0.00092314935 -0.02306502 -0.123748966 -0.09103511 -0.00345936 -0.008262504
-0.037247617 -0.037678998 0.10819984 -0.07378142 -0.09442892 -0.03518712 -0.0319315 -0.09513273
-0.08159485 -0.07295282 -0.107365996 0.03308098 -0.05832635 -0.010105069 -0.011640987 0.10673776
0.025846738 0.0666314 -0.015705638 -0.16263823 0.035006363 0.055235147 -0.040245827 0.017162027
0.025518589 -0.08743537 -0.023451472 0.045387994 0.016205324 -0.14080185 0.019648561 -0.022415873
-0.043074608 -0.03280075 0.045125384 -0.06726504 -0.05096345 -0.09443951 -0.035290778 -0.10263356
0.026721388 -0.08140641 -0.09765331 0.08174918 0.03473696 0.017352274 -0.035282623 -0.038426034
0.03574461 -0.07588094 0.059965465 0.013445405 -0.13300662 -0.05941864 0.07580913 0.0629583
0.040967006 -0.1207538 -0.07891829 -0.05519771 0.03329287 -0.089929715 -0.006538257 -0.16373235
-0.09111193 0.023064118 -0.0806474 -0.027951356 0.067300186 0.02388667 -0.02489297 -0.087484926
0.0073062223 -0.13130961 0.034241863 0.072734386 -0.09396454 0.0015788792 -0.12574732 0.040967446
0.07208922 -0.09413509 -0.08335824 -0.08119908 0.11851094 -0.09400283 -0.10407661 0.018278576
-0.025747877 -0.1677057 -0.055326976 0.07732395 0.03731971 0.025069296 0.09120772 -0.128745
-0.0145649845 -0.056526646 0.011250761 0.10057069 -0.04161703 0.024274427 -0.16884363 -0.02129383
-0.035043832 -0.04136598 0.1127617 -0.14093466 -0.0031574247 -0.055315897 0.08786728 -0.12915432
-0.13216871 -0.051727027 -0.040608276 -0.052834634 0.10721435 -0.16180228 -0.00483354 -0.06440296
-0.031929836 0.12059712 0.046727177 -0.17890789 0.030326359 0.026219595 -0.13052282 0.07063256
-0.018949624 -0.092823066 -0.050101355 -0.00060577365 -0.19885843 0.046681408 -0.015979938 -0.050176892
-0.112817705 0.030682461 -0.061887685 0.025895037 -0.15484166 0.021519756 0.045692105 0.05130228
-0.10136104 -0.10266591 0.0962731 -0.028663939 0.120445885 0.044760056 -0.08332627 0.05625615
-0.07202047 -0.034200728 0.0679669 -0.086131565 0.008548285 -0.042892773 -0.034746435 -0.15870988
0.01742033 -0.02076768 0.11439691 -0.07844773 -0.04931326 0.057006434 -0.12039017 -0.114288494
-0.066365935 -0.09672732 -0.0511248 -0.026542164 -0.09199165 -0.00048703875 0.0662729 -0.00850608
-0.09692888 -0.102533326 -0.15691797 0.04849259 0.06159233 0.06466515 0.08423271 -0.06020379
-0.0072685946 0.07238031 -0.077106744 0.08047157 0.01709953 -0.056651097 -0.020954048 -0.02964514
-0.109352626 -0.033997823 0.018981725 0.023917573 -0.08666112 -0.09581698 -0.07706709 -0.09887537
0.08022279 -0.08622583 0.073657095 -0.13424951 -0.14095753 0.12492938 -0.068466105 0.05578684

edge_function.2.bias f4 [64]
00000000: 4985 ddba fe43 693c f7e0 4cbe e00e 9dbd
00000010: cfe5 0abe 1d5c b8bd 3b58 b13d 9972 303e
00000020: f9f9 ccbc 6f6e 0fbe e0ae 99bc fa5a a73d
00000030: ee72 06bc b6d6 ce3d 54b2 873d 52af 96bd
00000040: 1900 01be da07 333e 77e9 c4bd 4010 8cbd
00000050: c0ac fc3c 78fe c43d f557 ca3d 416b f73d
00000060: 8608 893d 8616 a2bd 5aa7 633d 7be6 ccbd
00000070: 9993 1bbe e1db 47bd 2ef6 d73d 0323 f23c
00000080: 7d1a e13d e495 0dbe 8dbe 9dbd e392 3dbd
00000090: 6be9 a23d bd7a 89bd 92ac acbd a3dd dc3d
000000a0: 53b5 d2bc 83ca 01bd 5450 01bd 9a37 2dbe
000000b0: 389b 0d3e 299f 023e f8b3 02bd 8eed f5ba
000000c0: 4086 95bd e128 323e 3193 5b3d 22cc 98bd
000000d0: 6f3b 04be f45d f7bc 1459 2cbd 00af dfbd
000000e0: 9e76 aa3d 3dcd a53d e265 bebc 5be1 7b3d
000000f0: af28 adbd d2c1 22be 7a93 0e3e f021 afbc
-0.0016900684 0.014237402 -0.20007692 -0.07668853 -0.13564228 -0.09001944 0.08659407 0.17231216
-0.02502154 -0.14006971 -0.018760145 0.08171649 -0.008206112 0.100995466 0.0662581 -0.073576584
-0.12597694 0.17483464 -0.096148424 -0.06839037 0.030844092 0.096188486 0.09880058 0.12081004
0.06691079 -0.07914452 0.05557952 -0.10004898 -0.15193023 -0.048793677 0.10545002 0.02955771
0.1099138 -0.1382671 -0.0770236 -0.04628266 0.07954677 -0.067128636 -0.08431353 0.10784461
-0.025721228 -0.03168727 -0.031570747 -0.16915742 0.13828743 0.12756027 -0.031909913 -0.0018762813
-0.07300997 0.17398407 0.05360717 -0.0746081 -0.12913297 -0.030196168 -0.04207714 -0.109220505
0.08323406 0.08095787 -0.02324194 0.061494213 -0.084550254 -0.15894249 0.13923445 -0.021378487

edge_function.4.weight f4 [64, 64]
00000000: d172 e4bd c8a6 be3d 022b 08be 25a5 a83c
00000010: 4a20 bbbd ecb5 3a3d 6ba6 cd3d fa6a 743d
00000020: 2caf e03d 29fb cbbd 9e92 b4bd 8a5a 783d
00000030: 0083 453b a1d5 ad3d 768d 2dbd 703d 35bd
00000040: 5da7 c43d 933f a13d 89f5 f83d e533 d3bd
00000050: e106 7fbc b840 f9bc 6f5e 8bbd 2e9c 703d
00000060: a09d 11bd 0d11 b93d 3282 193e 3c74 e43d
00000070: bf63 73bb aaca 9dbc dd9f 8fbd 6ea1 cebd
00000080: c86a 6c3d a4e4 b73d 9a0b 303c 267f eb3c
00000090: 50ed bdbc 62ae 48bc 4d3f 7b3d 12fd 023e
000000a0: a93d 4ebd 5041 d53d 4bc6 64bd 5aed 01be
000000b0: ff04 7d3c 735b 723c 04cf bdbd 1d26 1c3d
000000c0: a899 ea3d f21e acbd 9531 653d 14fa ea3d
000000d0: be2e 74bd 71cb 873c e451 1b3d b542 94bb
000000e0: 194b ac3d 8804 0a3d 946e 7f3c 4e33 9abd
000000f0: 5591 873c 093c 023e 8d63 63bb 9a3d 39bb
00000100: 68db 783d 0602 4bbd 21b2 01be 0b82 8ebd
00000110: 4768 df3d 66ff 8b3d ef6e cdbd 5188 273a
00000120: 3c3d 36bd b4ab b4bc b001 96bd 5ca1 3d3d
00000130: 47b4 623d 5090 2a3b 7ccd de3d 63ce 613d
00000140: 6e45 08be febd 833c 658c 5c3d 3295 43bd
00000150: c330 09bb e0ba d43d 9f15 ab3c 7d22 8c3d
00000160: 4803 0a3d 9a95 b83d ad3d c93d 68e2 493d
00000170: 4f7b 823d 130b 023e 7fa7 b83d 2f85 8dbd
00000180: 8630 793d 5aa2 783c d349 253c 7d51 463d
00000190: 3632 e43b a80a bdbc e1e5 6c3d dc7c d53d
000001a0: 2692 5b3b 3b7b 7cbd 6823 ac3c e076 03be
000001b0: f39e e9bc b6de e53c 00e4 cf3b f431 133e
000001c0: 7088 cd3b e121 e83d a284 053e 4455 85bd
000001d0: 4b58 90bd 8202 a63d b4f9 eb3c bdcd c63d
000001e0: 3154 d53d b573 d73d 1fcd dcbc ac1c 983d
000001f0: d566 01bd f132 d8bc df77 02be 3b45 9cbd
00000200: 3056 93bc 7698 03bd 4302 ff3b fe1a 32bd
00000210: e023 07bd 30c1 26bd 19c6 bc3d 5327 923d
00000220: 9ec5 e13d 382d 0c3d 0674 313d a37c 88bd
00000230: ff0c e93d 3460 bbbd da70 473d 479b f5bc
00000240: feb0 e0bc 979b 123e 70eb 05bd 22f5 c23d
00000250: 769f a63d ec61 14be 0df3 55bd 34fb 5dbd
00000260: 54df 6b3d 41bd c0bd 366d 3c3d c0b3 98bd
00000270: 0fef a03c 8a19 e83b a815 79bd 888b 443d
00000280: 8a71 883d 0d8d 17bd e049 40bc 4a90 d63c
00000290: 72b8 d5bc 4297 d73c d0a5 103d b91a 5ebd
000002a0: 6255 823d 2751 863d a29c 7cbd 1349 e7bc
000002b0: 5094 99bd e6d8 54bd d8cf cabd 531f b6bd
000002c0: 6803 963d 5da2 ccbd 116b 803d f08b 973c
000002d0: 65ed c63d c081 59bd 27b4 61bc f630 f53d
000002e0: 177f ab3d 073c d8bc b4d9 cb3b 0fd2 2ebb
000002f0: bd4f 123d 188f cebd 7330 4fbd 22c1 9ebd
00000300: 527a 853d b541 63bd 5671 b3bc b4de 76bd
00000310: 5180 da3c 11c2 6f3c 354f c7bd f35a c0bd
00000320: c420 97bd f0b1 ffbd af45 61bc 0c0d e43d
00000330: c204 fc3d faf4 79bc 8d4c 823d 85b8 073e
00000340: 6ef9 783d c4ce bfbd 11bf f13d 1126 a43c
00000350: ccbb 8a3c 89a3 cebd b642 8abc d855 f9bd
00000360: 2873 f63c af32 e63b 8818 b8bd 261d ca3d
00000370: 4e6d 683d 560c f73d 7ce6 5f3d 0847 8c3c
00000380: 876c 983c 0d92 7b3d c535 8e3d a253 103e
00000390: b259 ffbc ab9a 273d fef0 b43d 9a8e eb3b
000003a0: be31 2cbe 0619 38bd 4c58 acbd ece2 2ebe
000003b0: 4ae8 d03c ca72 8c3d 4c4d 0f3d 3b65 adbd
000003c0: 8c44 fd3c 2826 bcbd 9222 b8bd 7432 863d
000003d0: 5743 433d 06ac 933d 900e 5ebd 77c6 fe3c
000003e0: cb17 76bd 56f3 ae3d 2526 253d 0ec5 6e3d
000003f0: 9607 983d 4acc e03d 1496 503d 644b 40bd
-0.11154712 0.09309155 -0.13297656 0.02058656 -0.09137018 0.04558365 0.10041507 0.059672333
0.109709114 -0.099600144 -0.088170275 0.06063322 0.0030137897 0.08488012 -0.042371236 -0.044248044
0.096022345 0.07873454 0.12156207 -0.103126325 -0.015565605 -0.030426368 -0.06805121 0.058742695
-0.035550714 0.09036455 0.14991072 0.111549824 -0.003713831 -0.019261677 -0.070129134 -0.10089384
0.057719022 0.089791566 0.0107449535 0.028747153 -0.023184448 -0.012248607 0.061339665 0.12791851
-0.050351772 0.10412848 -0.05585317 -0.12688199 0.015443086 0.014792311 -0.09268001 0.038122285
0.11455089 -0.0840434 0.05595549 0.1147348 -0.05961489 0.0165765 0.037919894 -0.0045245537
0.08412761 0.033695728 0.015590329 -0.07529317 0.016548792 0.12718214 -0.0034696788 -0.0028265477
0.060756117 -0.049562477 -0.12665607 -0.069583975 0.10908561 0.06835823 -0.100309245 0.0006390857
-0.04449199 -0.02205453 -0.073245406 0.046296462 0.055347707 0.0026025958 0.10879037 0.055128466
-0.13307735 0.016081806 0.05384483 -0.047749706 -0.0020933605 0.10387206 0.020884333 0.068425156
0.033694535 0.09012909 0.09826217 0.049288183 0.063711755 0.12699537 0.09016322 -0.069101684
0.06083729 0.015175426 0.010088402 0.048417557 0.0069639934 -0.02307637 0.057836417 0.10424206
0.003350386 -0.06164096 0.021012977 -0.12838316 -0.028518176 0.028060298 0.0063443184 0.14374524
0.006272368 0.11334587 0.13038877 -0.06510404 -0.070480905 0.08105947 0.028805591 0.0970721
0.10416449 0.10520116 -0.026953278 0.07427344 -0.03159221 -0.026391478 -0.1274104 -0.07630392
-0.017985433 -0.03212782 0.007782252 -0.043482773 -0.032993197 -0.04071158 0.09217472 0.07136407
0.110240206 0.03422281 0.04332354 -0.066643976 0.11379432 -0.09149209 0.048691608 -0.029981269
-0.027428146 0.14317165 -0.032695234 0.095194116 0.081358835 -0.14490479 -0.052233744 -0.054194644
0.05758603 -0.09411097 0.04600259 -0.074561596 0.019645242 0.0070831226 -0.06081167 0.04798463
0.06662281 -0.03699975 -0.011736363 0.02619185 -0.026088927 0.026317243 0.03531438 -0.054224703
0.06363942 0.06558447 -0.061672814 -0.028233087 -0.074989915 -0.051964663 -0.09902924 -0.08892693
0.073248684 -0.09991906 0.06270421 0.018499345 0.09713248 -0.053102255 -0.013775862 0.11972229
0.0837385 -0.02639581 0.0062210206 -0.0026675498 0.035720576 -0.10085887 -0.050583314 -0.07751681
0.065174714 -0.055482585 -0.021904629 -0.06027098 0.026672514 0.014633671 -0.097319044 -0.09392347
-0.073792964 -0.12485111 -0.013749524 0.11135301 0.12305595 -0.015256161 0.06362257 0.13253982
0.06078475 -0.09365609 0.11804021 0.020037683 0.016935252 -0.100897856 -0.016877513 -0.121745765
0.030084208 0.007025085 -0.08989054 0.09868841 0.056744866 0.120629 0.054663166 0.017123714
0.018606437 0.06141858 0.069438495 0.14094403 -0.0311707 0.040918987 0.08835028 0.0071886303
-0.1681585 -0.04494574 -0.08415279 -0.17078751 0.025501389 0.06857832 0.034985825 -0.08466574
0.030916475 -0.09186965 -0.08990969 0.06552592 0.047671642 0.07210545 -0.054213107 0.031100495
-0.060081284 0.085425064 0.04031958 0.058293395 0.07423322 0.10976465 0.050924376 -0.046946898

edge_function.4.bias f4 [64]
00000000: d440 b63d e53e 683e 75c5 a73b d2df dcbc
00000010: 551a cc3d 1ac0 2abe fd28 363e dfe8 633d
00000020: 4319 ca3b db26 1b3d 1e49 0a3d d455 dcbc
00000030: c5a4 ebbd cd9d 1e3d e482 c3bd 5fd7 41bd
00000040: 370d dc3d a887 0bbe 24a3 09bd 68f3 813d
00000050: b068 d7bd 2e44 d5bd b271 683d 428b afbd
00000060: 3e41 efbd fcdf 1cbd 82b3 13be d256 923d
00000070: 6e36 50bd 590b 20be 6798 c33d 7664 05be
00000080: 6b3a 203e 7765 cebd 53d3 16be fa01 353e
00000090: 1b19 41bd 2734 e2bc 2343 58be 6b6d f1bd
000000a0: 01a2 1a3e 4269 803c 75ec 593d 3934 a73d
000000b0: 0dda abbc 5738 7cbd 2b5e 18be 519f 3bbd
000000c0: d16f 153e 8874 ee3d f481 f43d ff27 4fbd
000000d0: ce71 e9bc d1f3 b73c b036 13be dde9 29be
000000e0: 1713 113e c25d d2bd 39c9 d7bc ca0c 173e
000000f0: 1124 abbd bec1 dbbd 5dc9 0cbe c503 b83c
0.08899084 0.22680242 0.0051199743 -0.026962195 0.0996596 -0.16674843 0.17789073 0.055642005
0.006167562 0.037878852 0.033761136 -0.026896395 -0.11506037 0.03872471 -0.0954645 -0.047324535
0.10744708 -0.13625968 -0.03360285 0.06345254 -0.105180144 -0.10413395 0.056749053 -0.08571483
-0.11682366 -0.038299546 -0.14423946 0.07145466 -0.05083316 -0.15629329 0.09550553 -0.13026604
0.15647285 -0.10077947 -0.14729051 0.17676535 -0.047143083 -0.027612759 -0.2111936 -0.11788448
0.15100862 0.01567519 0.05320402 0.081642576 -0.020977998 -0.061577167 -0.14879672 -0.045806233
0.14593436 0.1164332 0.11938849 -0.050575253 -0.02849665 0.022455128 -0.1437633 -0.16593118
0.14167438 -0.10271789 -0.026341068 0.14750972 -0.083564885 -0.10730313 -0.13748689 0.022462735
