Projects/GuoxiangGrayson_T_A study of multi-fidelity graph neural networks/Model_save/Quarter2D/Rank=148-GNN-nB-64-Lr-0.005/model.pth (torch, 114781 bytes, 24 tensors)

node_function_neighbor.0.weight f4 [64, 2]
-0.3582469 -0.12877329 -0.37391782 0.61118835 0.676588 -0.3605953 0.07129134 0.5858405
0.46260965 0.12707815 0.32246736 0.1415247 0.20130035 -0.6622981 -0.31678945 -0.2909847
0.23630475 0.24209985 0.2797743 0.0169371 -0.509226 -0.36216235 0.35442567 0.63742983
0.1857448 -0.02881447 -0.24320723 -0.36268264 0.59234345 0.49241206 -0.0117000025 -0.5112006
-0.014386219 0.3094621 -0.581488 -0.5724481 -0.42656755 -0.5774872 -0.5057024 0.55660444
-0.67184174 -0.36158627 -0.21150078 0.3884277 -0.40831104 -0.29269883 -0.33238256 0.6639048
-0.5115964 0.6638815 -0.2502776 0.08401785 -0.24436879 0.12162253 0.12162239 -0.05314841
-0.20145786 0.19790916 0.17630881 0.25183114 0.18289427 -0.6895141 -0.39906156 -0.48867732
0.4958674 -0.66483104 0.43780035 -0.11287281 0.36005214 0.501985 -0.11282123 0.53863835
0.39783865 -0.36083892 -0.03565926 0.05575182 -0.54197085 -0.2896591 -0.23453887 0.07709785
0.15555127 0.57932776 -0.5414396 -0.31001106 0.07900539 0.5806829 0.17971922 0.4616467
-0.43239763 -0.5414579 0.03486297 -0.5042096 0.21416101 -0.06501637 0.69241893 0.14042132
-0.026583485 0.33965558 0.37953913 0.6445535 0.6148439 -0.37003258 0.193557 -0.009132078
0.38608837 -0.49791577 0.6392796 0.07751562 -0.4286536 0.41935015 0.33430296 0.4517509
-0.070374966 -0.2878212 0.06519854 -0.22852746 0.6516093 -0.54954344 -0.5402602 -0.6205777
0.70722616 -0.3042584 0.3546924 -0.55218446 0.6791969 -0.058948077 -0.24496795 0.17194931
00000000: 236c b7be 25dd 03be 2872 bfbe d776 1c3f
00000010: df34 2d3f f29f b8be 3201 923d a5f9 153f
00000020: 2cdb ec3e c620 023e 711a a53e daeb 103e
00000030: ae21 4e3e 5e8c 29bf 3a32 a2be f2fb 94be
00000040: dff9 713e 06e9 773e 943e 8f3e acbf 8a3c
00000050: a35c 02bf 586d b9be 4877 b53e 9a2e 233f
00000060: e333 3e3e 530c ecbc 510b 79be 8ab1 b9be
00000070: d2a3 173f 6f1d fc3e 5eb1 3fbc 0bde 02bf
00000080: 2db4 6bbc d171 9e3e 66dc 14bf f58b 12bf
00000090: 1067 dabe 33d6 13bf b675 01bf a17d 0e3f
000000a0: d2fd 2bbf d621 b9be a993 58be ffdf c63e
000000b0: 250e d1be 9fdc 95be 0c2e aabe aaf5 293f
000000c0: fbf7 02bf 23f4 293f 6324 80be 8d11 ac3d
000000d0: d03b 7abe 3c15 f93d 2915 f93d 26b2 59bd
000000e0: f84a 4ebe b3a8 4a3e 4c8a 343e 03f0 803e
000000f0: a348 3b3e ff83 30bf cc51 ccbe ea33 fabe
00000100: 55e2 fd3e 5e32 2abf 5e27 e03e dc29 e7bd
00000110: c158 b83e 1782 003f d10e e7bd 34e4 093f
00000120: 82b1 cb3e e1bf b8be 720f 12bd 055c 643d
00000130: 9abe 0abf 334e 94be f52a 70be 7ae5 9d3d
00000140: d548 1f3e d34e 143f c99b 0abf c5b9 9ebe
00000150: 94cd a13d a2a7 143f 5108 383e f55c ec3e
00000160: 3963 ddbe fc9c 0abf 79cc 0e3d e113 01bf
00000170: 064d 5b3e 4d27 85bd 5e42 313f 9bca 0f3e
00000180: 9cc5 d9bc 56e7 ad3e f452 c23e 7501 253f
00000190: 6966 1d3f e974 bdbe ce33 463e b69e 15bc
000001a0: 60ad c53e d1ee febe d4a7 233f 82c0 9e3d
000001b0: 7c78 dbbe 10b5 d63e c229 ab3e e54b e73e
000001c0: c020 90bd 4d5d 93be d086 853d 1a03 6abe
000001d0: decf 263f e1ae 0cbf 7e4e 0abf 2ede 1ebf
000001e0: c60c 353f c2c7 9bbe 3e9a b53e f65b 0dbf
000001f0: d9df 2d3f 8a73 71bd e1d8 7abe 7b13 303e

node_function_neighbor.0.bias f4 [64]
0.36416152 0.06427099 -0.46027613 0.4773432 0.30935594 0.47211072 -0.6396673 -0.42263213
-0.47586414 -0.7418964 0.71305496 -0.48851472 0.17690238 -0.7839843 -0.28040865 0.45128876
0.07184019 0.6796036 0.61344707 0.07113326 -0.021513361 -0.43039432 -0.2352919 -0.7000657
-0.10943321 -0.23859999 0.60785574 0.6316056 -0.6989492 0.39091584 -0.5525822 0.27692932
-0.58223563 0.5957817 -0.58420324 -0.2472475 -0.03608167 -0.6022387 -0.018331317 -0.6878816
-0.3741508 -0.68295836 0.27706322 0.21756577 0.51146936 0.28461218 -0.18706994 0.24477553
0.4191709 0.63617736 -0.18317205 0.101960644 0.57381797 0.25628367 -0.1237406 -0.1315923
0.5932556 0.73183465 -0.29964605 -0.5101 0.38192645 0.6546623 0.243472 -0.6762034
00000000: 6173 ba3e 82a0 833d 50a9 ebbe 5466 f43e
00000010: e763 9e3e 7fb8 f13e 3cc1 23bf 3d63 d8be
00000020: 77a4 f3be ecec 3dbf c58a 363f 9a1e fabe
00000030: e625 353e 32b3 48bf b991 8fbe 520f e73e
00000040: f320 933d 80fa 2d3f de0a 1d3f 51ae 913d
00000050: ca3c b0bc a55c dcbe 5cf0 70be 8137 33bf
00000060: 851e e0bd 8e53 74be 6f9c 1b3f e8b0 213f
00000070: 56ee 32bf 1f26 c83e 0776 0dbf aec9 8d3e
00000080: 650d 15bf 2685 183f 588e 15bf 732e 7dbe
00000090: 60ca 13bd 512c 1abf 8f2b 96bc 0219 30bf
000000a0: b290 bfbe 5cd6 2ebf 3bdb 8d3e 90c9 5e3e
000000b0: a8ef 023f b0b8 913e 438f 3fbe 70a6 7a3e
000000c0: 919d d63e 85dc 223f 7491 3bbe bed0 d03d
000000d0: bce5 123f 9d37 833e b66b fdbd 22c0 06be
000000e0: 99df 173f 8459 3b3f 356b 99be ea95 02bf
000000f0: dd8b c33e f397 273f b950 793e ab1b 2dbf

node_function_neighbor.2.weight f4 [64, 64]
-0.08185674 0.021011496 -0.10091873 -0.055358734 0.07002926 0.09382413 0.070834205 -0.06343585
0.005931593 -0.03502912 0.13796915 0.08523217 0.07561462 -0.06705994 -0.0136882635 0.032857817
-0.11044045 0.14891903 -0.016236704 -0.023137523 0.016505942 -0.0052560857 0.049651515 0.0903297
-0.09984525 -0.060511876 -0.11357429 0.08816099 -0.04085037 -0.12172416 0.020034574 -0.03838082
-0.07548098 -0.041614857 0.08078057 7.264993e-05 0.017513363 -0.035549685 0.08789806 0.036724772
0.0067344424 0.04921425 -0.025471203 -0.0728142 0.14889412 0.03569532 -0.12789004 -0.11789043
0.035608664 0.078484885 0.043509185 -0.0454124 0.04581658 0.06660616 -0.14693983 0.025485037
0.05742164 -0.042213473 -0.08187165 0.053734925 -0.12634574 -0.03230551 0.06449491 -0.07891774
0.059388403 -0.0064062355 -0.052712113 0.076540954 -0.063004196 0.10260709 -0.13981977 -0.017297616
-0.09115632 -0.013696687 0.023665328 0.06098598 0.0060370127 -0.13042907 0.032827485 -0.12250589
-0.05959157 -0.12200509 0.022256996 0.0656441 -0.04318672 -0.11049464 0.06729349 -0.031394273
0.10597648 -0.14069192 -0.09849054 0.09650312 0.005430739 0.08902545 0.0016153532 0.032123927
0.011790673 0.00087188394 0.11214668 0.08559689 0.11735161 -0.14744483 -0.014716543 -0.097520314
-0.024930198 -0.10480383 0.13251533 0.0052716467 0.088585995 0.06789047 -0.03411474 0.109825134
0.12543261 0.052328132 0.010886478 -0.03388583 0.07476227 -0.046245795 0.015086074 -0.035093162
-0.028581943 -0.07890621 -0.0050076135 0.045261107 0.041169368 0.06586404 0.121698774 0.11742036
0.06439891 -0.09447741 0.07297267 -0.011145339 0.008282258 0.10813183 -0.021628492 -0.08105143
0.12176009 -0.053131647 -0.20681518 0.053590927 -0.04118508 0.06686265 0.044401664 -0.041515715
0.10023965 -0.17075932 -0.11370018 -0.032808945 -0.05668592 -0.10201147 -0.18733934 -0.047193598
-0.06627676 0.002292563 -0.10912175 0.12004461 -0.030309547 -0.024739595 -0.047378633 -0.009946752
0.12828395 -0.023165923 0.09560216 0.0114907585 -0.07081327 0.012018552 -0.14963052 0.013850516
0.097873606 -0.06976462 -0.0036181868 -0.054276202 -0.07575393 -0.076975025 -0.09686906 0.07122039
-0.06774447 -0.08783665 -0.032224283 0.13798065 -0.043827713 -0.016182324 0.055679087 -0.02114903
0.13108422 -0.0343631 -0.088138945 -0.08077308 0.124030165 0.015183745 0.07854469 0.053096663
0.10720154 -0.020863676 -0.10545902 0.021488456 -0.09307166 0.0572024 -0.16057852 0.062084515
-0.022211712 -0.0029891345 -0.076549046 0.09451491 -0.0059727347 -0.052402817 -0.025174078 0.07235032
-0.112874664 0.07422618 -0.025401972 0.010419695 -0.07741781 -0.07140479 -0.062459983 -0.06574974
-0.018471248 0.04875192 0.14510755 0.046932697 -0.1161391 -0.038857207 -0.12345401 -0.109491624
0.012282732 0.080244154 -0.021345885 0.0925154 -0.05356874 -0.009286089 -0.0015456199 -0.0007941873
0.061653513 -0.12763925 0.033020664 0.026684599 0.04988306 0.13251667 -0.070224464 -0.014363819
-0.13065256 -0.09032428 -0.10814913 0.0640661 0.07551716 -0.12337394 -0.029787235 0.0026373575
-0.043130036 0.13648182 0.012615293 -0.0745697 -0.022613447 0.03419502 -0.09828854 0.07775016
00000000: 82a4 a7bd 4d20 ac3c 7bae cebd d7bf 62bd
00000010: 806b 8f3d de26 c03d 8611 913d a8ea 81bd
00000020: cf5d c23b b27a 0fbd c947 0d3e 348e ae3d
00000030: d6db 9a3d b956 89bd bd44 60bc eb95 063d
00000040: 9a2e e2bd 3b7e 183e d602 85bc e78a bdbc
00000050: 7837 873c 3e3b acbb 635f 4b3d c7fe b83d
00000060: ab7b ccbd 4ddb 77bd a399 e8bd c08d b43d
00000070: b852 27bd 844a f9bd 8c1f a43c 3535 1dbd
00000080: c695 9abd 5774 2abd 4970 a53d a25b 9838
00000090: 2f78 8f3c 8c9c 11bd e603 b43d b76c 163d
000000a0: 99ac dc3b e294 493d fca8 d0bc 9c1f 95bd
000000b0: b377 183e 4235 123d 9bf5 02be 8a70 f1bd
000000c0: 64da 113d afbc a03d b036 323d 5a02 3abd
000000d0: 2baa 3b3d cf68 883d 6577 16be ffc5 d03c
000000e0: f432 6b3d 09e8 2cbd 53ac a7bd 2719 5c3d
000000f0: c760 01be c852 04bd e815 843d a09f a1bd
00000100: 4141 733d 66eb d1bb a8e8 57bd 81c1 9c3d
00000110: 5808 81bd aa23 d23d ea2c 0fbe bbb3 8dbc
00000120: 2ab0 babd 1268 60bc cadd c13c 6fcc 793d
00000130: 22d2 c53b 338f 05be 1d76 063d 5ee4 fabd
00000140: 4a16 74bd cedd f9bd 4e54 b63c 6a70 863d
00000150: 8fe4 30bd 044b e2bd 2bd1 893d 4897 00bd
00000160: 320a d93d 8b11 10be 69b5 c9bd 6ea3 c53d
00000170: 57f4 b13b fa52 b63d 42ba d33a 6194 033d
00000180: ab2d 413c 248f 643a 29ad e53d 6c4d af3d
00000190: 0a56 f03d c7fb 16be a81d 71bc bbb8 c7bd
000001a0: 6a3a ccbc 64a3 d6bd 19b2 073e c7bd ac3b
000001b0: 936c b53d 290a 8b3d e6bb 0bbd 00ec e03d
000001c0: 6871 003e 0656 563d 335d 323c decb 0abd
000001d0: f61c 993d 3b6c 3dbd 952b 773c d9bd 0fbd
000001e0: ae24 eabc 9499 a1bd e816 a4bb b663 393d
000001f0: 36a1 283d bae3 863d 353d f93d 167a f03d
00000200: 93e3 833d 5f7d c1bd b272 953d f19a 36bc
00000210: 4fb2 073c 3974 dd3d 3c2e b1bc 4bfe a5bd
00000220: 5b5d f93d 92a0 59bd 5cc7 53be 2982 5b3d
00000230: b0b1 28bd 49ef 883d 85de 353d 620c 2abd
00000240: 724a cd3d 88db 2ebe a4db e8bd ac62 06bd
00000250: 7f2f 68bd 64eb d0bd e2d5 3fbe 134e 41bd
00000260: 1cbc 87bd d33e 163b 397b dfbd f3d9 f53d
00000270: ba4b f8bc b1aa cabc 1910 42bd b4f7 22bc
00000280: de5c 033e 76c6 bdbc 11cb c33d bc43 3c3c
00000290: 8c06 91bd 76e9 443c be38 19be 46ed 623c
000002a0: f571 c83d c1e0 8ebd 1a1f 6dbb b950 5ebd
000002b0: e024 9bbd 15a5 9dbd 4963 c6bd ffdb 913d
000002c0: 9dbd 8abd b4e3 b3bd 9cfd 03bd cd4a 0d3e
000002d0: b084 33bd cb90 84bc c10f 643d bb40 adbc
000002e0: f13a 063e 52c0 0cbd 3182 b4bd 5b6c a5bd
000002f0: 8703 fe3d 3ec5 783c 0adc a03d e37b 593d
00000300: 7b8c db3d 4dea aabc e6fa d7bd 8f08 b03c
00000310: 5b9c bebd 104d 6a3d b26e 24be 554c 7e3d
00000320: 56f5 b5bc 5be5 43bb bfc5 9cbd 0891 c13d
00000330: eeb6 c3bb 56a4 56bd de39 cebc 682c 943d
00000340: d52a e7bd e503 983d cc17 d0bc 5eb7 2a3c
00000350: 3b8d 9ebd ad3c 92bd 0ad6 7fbd cda7 86bd
00000360: 0451 97bc 18b0 473d 1397 143e 803c 403d
00000370: 56da edbd bc28 1fbd 75d5 fcbd 253d e0bd
00000380: 833d 493c 0c57 a43d 91dd aebc b778 bd3d
00000390: e56a 5bbd ae24 18bc 6696 caba 0231 50ba
000003a0: 6588 7c3d ddb3 02be ad40 073d a999 da3c
000003b0: 2e52 4c3d 73b2 073e d8d1 8fbd 3956 6bbc
000003c0: c9c9 05be f0fb b8bd 4b7d ddbd 1635 833d
000003d0: bea8 9a3d 7aab fcbd 5c04 f4bc 84d7 2c3b
000003e0: 1fa9 30bd e4c1 0b3e 60b0 4e3c 00b8 98bd
000003f0: d63f b9bc 1410 0c3d 814b c9bd 7a3b 9f3d

node_function_neighbor.2.bias f4 [64]
0.12410407 0.03073964 -0.04533214 0.124745 0.02036086 -0.11461225 0.18316534 0.29163
0.122623704 -0.020070387 -0.08986198 -0.09471754 -0.0690307 -0.13013008 -0.054962933 -0.07834986
0.092285 0.148937 -0.0009503333 0.048280813 0.20690468 -0.044313807 0.037342604 0.08870456
0.107986525 0.10613409 0.1376149 -0.025889436 -0.071074516 -0.10074267 0.11531549 0.13112526
0.033583906 -0.15149324 -0.035247475 -0.022154652 -0.007821021 -0.0054790624 -0.10500355 -0.00027884508
0.21601255 0.093604386 0.1536816 -0.08604061 0.023114549 -0.093281105 -0.02782503 0.021417433
0.039181918 0.041166764 -0.105132945 -0.02405411 0.027979732 0.103601456 0.040076382 0.12305213
0.027379228 -0.0055722627 0.010309811 -0.032612443 -0.085354395 -0.16013032 0.020408878 0.009602528
00000000: 462a fe3d b3d1 fb3c 32ae 39bd 4e7a ff3d
00000010: d1cb a63c d4b9 eabd b28f 3b3e 8750 953e
00000020: 2322 fb3d a76a a4bc 8f09 b8bd 45fb c1bd
00000030: f85f 8dbd d240 05be d020 61bd e475 a0bd
00000040: ebff bc3d f182 183e ca1f 79ba 1ac2 453d
00000050: d2de 533e 6582 35bd 8ff4 183d bdaa b53d
00000060: 0a28 dd3d d45c d93d ecea 0c3e 1516 d4bc
00000070: 848f 91bd 2c52 cebd 872a ec3d b345 063e
00000080: 478f 093d 0b21 1bbe a85f 10bd ac7d b5bc
00000090: bd23 00bc b589 b3bb 1a0c d7bd f431 92b9
000000a0: 6532 5d3e a8b3 bf3d b65e 1d3e 0f36 b0bd
000000b0: b95a bd3c 2a0a bfbd 51f1 e3bc 9d73 af3c
000000c0: 387d 203d 7b9e 283d f14f d7bd 200d c5bc
000000d0: c035 e53c 002d d43d 2227 243d c102 fc3d
000000e0: 674a e03c 8797 b6bb 7bea 283c a094 05bd
000000f0: 49ce aebd 34f9 23be 8530 a73c ec53 1d3c

node_function_neighbor.4.weight f4 [64, 64]
-0.035242707 -0.1319273 0.0033774613 -0.06936826 -0.098115675 -0.13858867 -0.086695254 -0.112251274
-0.019398361 0.0915066 0.05441217 -0.0018193906 0.07482865 -0.005255665 0.057564408 0.03294565
-0.031214755 -0.014464777 -0.06023261 0.0326002 -0.0065363925 0.046906438 -0.13756356 0.015295581
-0.11525589 0.03572843 0.074057415 -0.035483513 -0.009987891 0.039926175 -0.030778266 -0.023190433
-0.0019053308 0.06506709 0.052919727 -0.13815165 -0.042555973 -0.036278114 -0.12285616 0.07258879
0.06935973 -0.11780724 -0.0829334 -0.14573708 -0.096872024 -0.07929872 -0.0847758 -0.060125057
-0.05523964 -0.13077244 -0.031377796 0.08957286 0.07426923 -0.02231446 -0.007967013 0.028708821
-0.06885915 0.023593538 -0.054897416 -0.03543803 0.00641492 0.06856476 -0.017982282 -0.024588322
0.092931435 -0.003663498 0.114410475 -0.01775484 0.043635484 -0.05225416 -0.083737865 0.018375529
0.091375075 0.06815986 -0.12881763 0.1747757 0.06792649 0.04416912 0.117491215 0.088528305
0.036604825 0.108319506 -0.017834803 -0.048043877 0.06736907 0.14356704 0.021606278 -0.05853252
0.02298939 -0.024148606 -0.13614054 0.027440604 0.12184423 0.10329227 -0.1170612 -0.028587732
-0.06484217 -0.009102054 -0.07932226 -0.04861907 0.07320669 -0.03081799 0.07986007 0.07384313
0.07823065 -0.08972647 0.02459673 0.09761502 0.13459857 0.005521372 -0.11189903 -0.09595897
-0.088917114 -0.101534784 0.066643655 -0.09898722 -0.12164448 -0.027103826 -0.031826686 -0.03280954
0.10985169 -0.003396651 -0.03170605 -0.0787784 0.04853976 -0.085430086 0.093166724 -0.029042339
0.01342215 -0.05550931 0.013171318 0.068824984 -0.015919015 0.017441204 -0.004896206 0.09039545
0.016794283 0.05722846 -0.062386308 0.09507741 -0.008336544 0.14443815 0.019029066 0.091963075
0.07964354 0.110064365 -0.04249846 -0.041054063 0.046196837 -0.022229187 -0.035163753 -0.06673582
0.07269039 0.13866068 -0.013165313 -0.0146497 -0.08415784 -0.012074107 0.12408409 -0.033172827
-0.049491588 0.16300447 -0.06505158 -0.027068857 0.085298724 -0.007993162 -0.076147504 0.0016697111
-0.08821325 0.038286626 0.21918297 0.121216975 -0.03265726 -0.09758517 0.032478146 0.09967994
-0.084309965 0.06298887 0.0551558 0.07535558 -0.07705647 0.006248951 -0.014527557 0.0039778356
-0.08625104 0.12112073 -0.07499457 0.051366135 0.11242531 0.021808954 0.10874493 0.106887765
0.0029062186 -0.096904024 0.09644674 0.07546428 -0.067582 0.03502564 -0.051079288 -0.07063643
0.012384677 0.048501432 -0.116618395 0.0013488233 -0.031234011 -0.05492866 -0.033703804 -0.048997894
-0.025148839 -0.10302569 0.05556947 0.056409135 -0.106765136 0.061586127 0.08226839 -0.03053908
-0.07026546 0.0540061 0.025040174 0.056344584 -0.0558327 -0.116213545 -0.15396471 -0.12163125
-0.086888164 0.005620286 0.07273659 -0.0031955838 0.013248533 0.051458407 0.0053513646 0.00033164024
-0.053497657 -0.08404875 -0.045970768 -0.03879997 -0.029444069 -0.116578475 -0.0718373 0.012974545
0.104299694 -0.041032113 -0.07094543 -0.096096456 -0.06591801 0.08439998 -0.005819691 -0.0052467138
-0.027430296 -0.09232703 0.061935574 0.09501092 0.03985229 -0.00807175 -0.06253128 0.03252132
00000000: a85a 10bd f317 07be 6658 5d3b f210 8ebd
00000010: dff0 c8bd 30ea 0dbe 488d b1bd ffe3 e5bd
00000020: 50e9 9ebc d067 bb3d 4cdf 5e3d 9e78 eeba
00000030: c33f 993d b737 acbb a8c8 6b3d 05f2 063d
00000040: 16b6 ffbc acfd 6cbc 78b6 76bd ca87 053d
00000050: 3c2f d6bb f720 403d 76dd 0cbe 519a 7a3c
00000060: 480b ecbd f957 123d 6aab 973d 2957 11bd
00000070: 40a4 23bc a189 233d b422 fcbc ddf9 bdbc
00000080: 4bbc f9ba e541 853d 5bc2 583d a077 0dbe
00000090: 2c4f 2ebd 5c98 14bd 039c fbbd 6ea9 943d
000000a0: 790c 8e3d ec44 f1bd fdd8 a9bd 1a3c 15be
000000b0: d764 c6bd 5e67 a2bd ef9e adbd b145 76bd
000000c0: f642 62bd 36e9 05be 0186 00bd fa71 b73d
000000d0: 771a 983d d0cc b6bc 1388 02bc c32e eb3c
000000e0: 0706 8dbd 3c47 c13c 1ddc 60bd 7827 11bd
000000f0: 4034 d23b ae6b 8c3d 944f 93bc 736d c9bc
00000100: d652 be3d 4c17 70bb 0a50 ea3d 9972 91bc
00000110: 1fbb 323d 7508 56bd c27e abbd 4788 963c
00000120: db22 bb3d 6697 8b3d c5e8 03be 67f8 323e
00000130: 0b1d 8b3d aeea 343d 3c9f f03d 544e b53d
00000140: f1ee 153d 9ed6 dd3d 4b1a 92bc a8c9 44bd
00000150: ccf8 893d 3d03 133e a6ff b03c ccbf 6fbd
00000160: 3f54 bc3c 4cd3 c5bc 6d68 0bbe 1ecb e03c
00000170: 7889 f93d e68a d33d c8bd efbd d230 eabc
00000180: f9cb 84bd c820 15bc b673 a2bd ca24 47bd
00000190: 64ed 953d 0276 fcbc ad8d a33d 113b 973d
000001a0: 6437 a03d 83c2 b7bd 157f c93c 62ea c73d
000001b0: 35d4 093e a0ec b43b 522b e5bd 2386 c4bd
000001c0: 2d1a b6bd 78f1 cfbd 787c 883d d0b9 cabd
000001d0: be20 f9bd d808 debc b35c 02bd 4c63 06bd
000001e0: ecf9 e03d 599a 5ebb 34de 01bd 9256 a1bd
000001f0: a1d1 463d f8f5 aebd 32ce be3d 33ea edbc
00000200: 94e8 5b3c bb5d 63bd 83cc 573c 1df4 8c3d
00000210: 9868 82bc dbe0 8e3c 5a70 a0bb 4021 b93d
00000220: 2a94 893c 6468 6a3d c988 7fbd f2b7 c23d
00000230: 0096 08bc 98e7 133e d8e2 9b3c 2357 bc3d
00000240: 271c a33d 6d69 e13d dd12 2ebd 4e28 28bd
00000250: e538 3d3d fc19 b6bc de07 10bd caac 88bd
00000260: b3de 943d 11fd 0d3e 53b3 57bc 4c05 70bc
00000270: f25a acbd 7ad2 45bc cd1f fe3d 3be0 07bd
00000280: b1b7 4abd a5ea 263e c339 85bd 82bf ddbc
00000290: 19b1 ae3d c0f5 02bc 39f3 9bbd 35da da3a
000002a0: 26a9 b4bd 70d2 1c3d 8071 603e 9b40 f83d
000002b0: 9ec3 05bd bcda c7bd ce07 053d ff24 cc3d
000002c0: b4aa acbd 4f00 813d 0ceb 613d 0754 9a3d
000002d0: c8cf 9dbd 00c4 cc3b fe04 6ebc 8158 823b
000002e0: 63a4 b0bd 250e f83d c196 99bd 4c65 523d
000002f0: 3e3f e63d b1a8 b23c a9b5 de3d f9e7 da3d
00000300: 4276 3e3b 9e75 c6bd de85 c53d 048d 9a3d
00000310: 6e68 8abd 0c77 0f3d 8438 51bd d5a9 90bd
00000320: 1ae9 4a3c 70a9 463d a0d5 eebd 00cb b03a
00000330: 78de ffbc e0fc 60bd 000d 0abd 04b2 48bd
00000340: f004 cebc 22ff d2bd d09c 633d 440d 673d
00000350: aea7 dabd bc41 7c3d 547c a83d 182d fabc
00000360: 56e7 8fbd 8035 5d3d 0d21 cd3c 94c9 663d
00000370: d4b0 64bd 5e01 eebd eda8 1dbe ce19 f9bd
00000380: 6cf2 b1bd 602a b83b ecf6 943d 006d 51bb
00000390: 6010 593c 0dc6 523d 805a af3b 00e0 ad39
000003a0: 5c20 5bbd c021 acbd d84b 3cbd b8ec 1ebd
000003b0: b034 f1bc b2c0 eebd 6f1f 93bd 3093 543c
000003c0: 149b d53d 4a11 28bd d64b 91bd 38ce c4bd
000003d0: 0600 87bd e6d9 ac3d 1bb3 bebb a0ec abbb
000003e0: 80b5 e0bc f415 bdbd 28b0 7d3d 1695 c23d
000003f0: 283c 233d 603f 04bc 6610 80bd 1335 053d

node_function_neighbor.4.bias f4 [64]
-0.048065927 -0.012416075 -0.039670203 -0.02454831 -0.13687074 0.16280451 0.05932439 0.07531998
0.042310417 -0.14627203 0.09058072 -0.038459346 -0.13192248 0.051481772 -0.11987323 0.06158334
0.17535791 0.075100325 -0.14462784 0.03180934 -0.012694193 -0.0050636623 -0.083592586 0.06430673
0.086194195 0.013789675 -0.02859796 0.020482577 -0.10334756 0.17000468 -0.10209506 0.059374515
0.1482911 0.00038121326 0.09462484 0.10947807 0.098334916 -0.100680865 0.117803335 0.17329405
-0.031879704 0.047500666 -0.040831827 -0.06728418 -0.120852135 -0.015076134 0.058758948 -0.06141881
-0.006129028 0.13042876 -0.11733966 -0.006825775 0.10330612 -0.0027319372 0.0072126766 -0.0038196943
0.017074192 0.10302571 0.123529226 0.055869445 0.08904663 0.10730004 0.073386505 -0.15199561
00000000: c7e0 44bd cb6c 4bbc 397d 22bd 8a19 c9bc
00000010: d827 0cbe 3ab6 263e 22fe 723d 5d41 9a3d
00000020: b04d 2d3d 56c8 15be 6282 b93d 8c87 1dbd
00000030: b016 07be 8dde 523d 1980 f5bd d03e 7c3d
00000040: 0691 333e 33ce 993d 5219 14be 834a 023d
00000050: 4efb 4fbc 14ed a5bb 9732 abbd 3fb3 833d
00000060: 9586 b03d 17ee 613c 4546 eabc 14cb a73c
00000070: e3a7 d3bd b515 2e3e 3717 d1bd b132 733d
00000080: 9fd9 173e 94dd c739 abca c13d 0a36 e03d
00000090: d163 c93d c531 cebd e042 f13d ff73 313e
000000a0: 4b94 02bd 0f90 423d 463f 27bd 4acc 89bd
000000b0: 5381 f7bd e401 77bc 39ad 703d 4a92 7bbd
000000c0: 03d6 c8bb 1e8f 053e c74f f0bd c0aa dfbb
000000d0: 2992 d33d 4d0a 33bb 5158 ec3b d653 7abb
000000e0: 2ddf 8b3c 25ff d23d e4fc fc3d 5cd7 643d
000000f0: 145e b63d 20c0 db3d aa4b 963d bda4 1bbe

node_function_neighbor.6.weight f4 [4, 64]
0.120566055 0.087511756 0.101996414 0.048838772 -0.054999027 0.13253716 -0.011067097 0.10201603
0.07310429 0.059667014 0.0016908201 0.03936715 0.0057237623 -0.08653882 0.036242284 0.11890182
0.12806852 0.06292459 -0.0020658846 -0.00587817 0.055621378 -0.09229278 0.07855374 0.09008425
0.121355936 0.064944215 -0.022512503 0.00082358555 0.055383362 0.07063311 -0.060195997 0.06487735
0.14659251 -0.05725047 -0.0655097 0.0626647 0.009023525 0.055749923 0.07807732 0.10743211
-0.028573686 -0.06853994 -0.04774618 0.07036227 -0.025528552 0.04400677 0.08334953 0.0085464
0.13669792 0.07318928 -0.06497808 -0.093508564 0.07404425 -0.12500821 -0.042700414 0.055325083
0.11941909 0.058315214 0.055519555 -0.010733719 -0.11327543 0.07416259 0.13828723 0.031494353
0.025336893 0.123920344 -0.13106251 -0.09358287 -0.0038077512 0.064885005 -0.010014049 0.07482928
-0.0712434 -0.02899711 -0.113941394 -0.13455527 0.07362146 -0.028029207 0.009940904 0.09942803
-0.00019190724 0.08149731 -0.04946377 0.048821166 -0.11350059 -0.009690921 0.08667922 0.07946864
0.009016917 0.028753038 0.078038864 0.018373858 -0.03600785 -0.0055537266 -0.024040915 -0.071502
0.113026835 0.050445504 -0.020907544 -0.11948601 -0.12321817 -0.004802651 0.051338844 -0.042218704
0.045650538 -0.07133108 0.060142882 0.064977616 -0.038798444 0.053988013 0.073969305 -0.13063888
-0.019063277 -0.01318154 -0.10753816 -0.13689339 0.027353104 0.0017182142 -0.12116032 0.09236708
-0.056437884 0.01354618 -0.073365256 -0.10834419 -0.046418853 -0.13422213 0.07500191 -0.049685813
-0.08166006 0.0207017 0.0507212 0.05989657 0.10633258 0.043037176 -0.07470134 -0.0103967395
0.07020118 -0.09046343 0.03600379 -0.10243417 -0.073992684 -0.0013293219 -0.028636876 0.016794074
-0.058458474 0.02083741 -0.0039993194 0.088806584 -0.0081907455 0.04546165 -0.019968461 -0.015047675
-0.09713689 -0.19778498 -0.05274234 0.039850347 -0.0052195885 -0.034762356 -0.11898198 -0.029254008
0.004050031 0.019577276 0.107165456 -0.047740877 -0.025288092 -0.07251924 -0.08068834 0.07956627
-0.011088545 0.06295973 -0.070018046 -0.0698403 -0.042623274 0.10440667 -0.09279115 -0.03501006
-0.004702461 0.055382136 0.059396278 0.09038333 0.01828825 0.06308602 -0.12702927 0.011345858
0.07813389 0.04877667 -0.049659327 0.07766654 0.067973986 0.113480434 0.08507085 -0.04096372
0.078911304 -0.032640386 -0.03190437 0.07961095 0.0028425194 -0.013710077 0.063947 0.028322292
0.057026353 0.012741371 -0.057881415 0.047715817 -0.045101892 0.10994199 0.0579418 -0.08317344
-0.035477575 -0.0863092 -0.08131841 0.023179684 0.02575201 -0.1465818 0.0808634 0.07250924
-0.035087068 0.026701601 0.096154705 -0.103592925 0.033704557 -0.16350055 0.06032349 -0.07656791
0.11849797 0.056214888 0.029340805 -0.04345384 0.01969215 0.05848818 -0.054599542 -0.071451284
-0.08628418 -0.095379464 -0.07116579 -0.091013804 -0.072162345 -0.05641933 0.056948997 0.016202098
0.13862345 0.051185258 0.09145635 -0.011024126 -0.04043018 -0.21209888 0.044183467 -0.08819507
0.011937111 0.08011416 0.020756874 -0.02172389 -0.15643807 0.045529127 0.15484461 0.02153422
00000000: 56eb f63d 5d39 b33d 7fe3 d03d 2a0b 483d
00000010: a946 61bd d2b7 073e c552 35bc c8ed d03d
00000020: b4b7 953d 6665 743d 829e dd3a 733f 213d
00000030: 668e bb3b 443b b1bd ca72 143d cc82 f33d
00000040: 6524 033e 9cde 803d cb63 07bb aa9d c0bb
00000050: 3ed3 633d ff03 bdbd c9e0 a03d 177e b83d
00000060: 7689 f83d 7901 853d 246c b8bc e4e5 573a
00000070: aad9 623d 18a8 903d 1490 76bd 6bde 843d
00000080: 591c 163e 787f 6abd f329 86bd 5a56 803d
00000090: 68d7 133c 085a 643d 00e7 9f3d 5e05 dc3d
000000a0: 5d13 eabc ab5e 8cbd 8091 43bd 181a 903d
000000b0: 4121 d1bc 7140 343d 29b3 aa3d 3306 0c3c
000000c0: 8afa 0b3e 43e4 953d 3a13 85bd 6b81 bfbd
000000d0: 83a4 973d 2702 00be a1e6 2ebd 8e9c 623d
000000e0: ff91 f43d efdb 6e3d 7968 633d 7bdc 2fbc
000000f0: f3fc e7bd 8ee2 973d 2b9b 0d3e 3900 013d
00000100: 518f cf3c f3c9 fd3d 4035 06be 60a8 bfbd
00000110: 778b 79bb 6ee2 843d f711 24bc 1840 993d
00000120: 0fe8 91bd 598b edbc 1b5a e9bd dbc8 09be
00000130: d9c6 963d 829d e5bc 2cdf 223c eca0 cb3d
00000140: b53a 49b9 10e8 a63d 869a 4abd b4f8 473d
00000150: ff72 e8bd abc6 1ebc e084 b13d 74c0 a23d
00000160: b1bb 133c 7e8b eb3c d7d2 9f3d c684 963c
00000170: f87c 13bd 09fc b5bb 74f1 c4bc a46f 92bd
00000180: 9d7a e73d f29f 4e3d 4c46 abbc 15b5 f4bd
00000190: cf59 fcbd 8e5f 9dbb ae48 523d 85ed 2cbd
000001a0: 0ffc 3a3d 0716 92bd 6258 763d fc12 853d
000001b0: 1eeb 1ebd 8922 5d3d 387d 973d 33c6 05be
000001c0: 972a 9cbc 63f7 57bc f83c dcbd c82d 0cbe
000001d0: 9e13 e03c b435 e13a e722 f8bd f42a bd3d
000001e0: 692b 67bd ccf0 5d3c 8640 96bd 8fe3 ddbd
000001f0: b221 3ebd 8771 09be 9a9a 993d 5a83 4bbd
00000200: 643d a7bd 9d96 a93c 08c1 4f3d 1b56 753d
00000210: e5c4 d93d c047 303d 04fd 98bd 1657 2abc
00000220: a3c5 8f3d e444 b9bd b678 133d 02c9 d1bd
00000230: 7a89 97bd a43c aeba e297 eabc ba93 893c
00000240: 2772 6fbd 37b3 aa3c b90c 83bb 3ae0 b53d
00000250: 7a32 06bc ff35 3a3d e694 a3bc 868a 76bc
00000260: b5ef c6bd 2588 4abe 5a08 58bd 1e3a 233d
00000270: 1509 abbb f962 0ebd d3ac f3bd 1aa6 efbc
00000280: 1fb6 843b 8660 a03c 9079 db3d f08b 43bd
00000290: f928 cfbc f884 94bd ee3f a5bd a4f3 a23d
000002a0: bbac 35bc 08f1 803d 9f65 8fbd 6e08 8fbd
000002b0: be95 2ebd 2ad3 d53d 4909 bebd b566 0fbd
000002c0: 1a17 9abb 61d8 623d 8349 733d e51a b93d
000002d0: 3dd1 953c 3e33 813d f613 02be fae3 393c
000002e0: a904 a03d 0cca 473d 9467 4bbd a30f 9f3d
000002f0: f235 8b3d 6e68 e83d a039 ae3d 93c9 27bd
00000300: 409c a13d edb1 05bd 28ae 02bd 110b a33d
00000310: 9049 3a3b 3ba0 60bc a5f6 823d 2704 e83c
00000320: 7794 693d 2fc1 503c 1015 6dbd a971 433d
00000330: c3bc 38bd 4429 e13d 6254 6d3d d656 aabd
00000340: ef50 11bd e1c2 b0bd 448a a6bd 52e3 bd3c
00000350: e1f5 d23c 8a19 16be b69b a53d b97f 943d
00000360: 75b7 0fbd 51bd da3c c2ec c43d 8728 d4bd
00000370: ca0d 0a3d b06c 27be c415 773d a3cf 9cbd
00000380: 10af f23d 9541 663d 215c f03c a7fc 31bd
00000390: 6f51 a13c 4d91 6f3d c5a3 5fbd 0d55 92bd
000003a0: c3b5 b0bd 4f56 c3bd 5fbf 91bd 7265 babd
000003b0: dac9 93bd f517 67bd 5a43 693d 43ba 843c
000003c0: 4ef3 0d3e a2a7 513d 784d bb3d 899e 34bc
000003d0: 1e9a 25bd 7330 59be b9f9 343d 9e9f b4bd
000003e0: df93 433c e512 a43d 520a aa3c 4df6 b1bc
000003f0: 4d31 20be c07c 3a3d 968f 1e3e 8868 b03c

node_function_neighbor.6.bias f4 [4]
0.16342852 0.07318134 -0.027514629 0.012497622
00000000: ce59 273e 19e0 953d 5c66 e1bc d3c2 4c3c

edge_function.0.weight f4 [64, 4]
-0.09655868 -0.39471054 -0.020225625 0.27754247 0.31873527 -0.28739223 -0.09316906 -0.426194
-0.41452783 -0.34228784 0.08104677 -0.33300966 0.21767332 -0.47754002 -0.06733616 -0.42892188
-0.42586717 -0.30592543 0.040848922 0.026375545 -0.36856025 0.19493403 0.0021094102 -0.16362102
0.3532973 -0.42769906 0.21344614 -0.10367495 -0.1226935 0.15978807 0.070133306 -0.20132284
-0.118861444 0.36374894 0.28913897 -0.44417873 0.48382854 0.34354657 0.04691775 -0.069134444
0.28891602 -0.4368539 -0.41781572 -0.4338868 0.14020167 0.15690425 0.09246165 -0.16761753
-0.26731965 -0.2312275 -0.44834092 -0.27452177 -0.17810416 0.37628052 -0.38387716 -0.14374498
0.38950104 0.29522213 0.3219581 -0.43252122 0.09784255 -0.43923372 -0.029409 0.44000196
0.2688277 0.18296434 0.15044011 -0.13427629 0.340904 -0.49337614 -0.2650139 0.4673036
-0.40729722 -0.07979389 0.02704147 -0.44058564 0.033245645 -0.29741618 0.115619324 -0.32390264
0.11627163 -0.08343822 -0.13107657 -0.16874106 0.3806137 0.29358077 -0.26206818 0.10191106
-0.19193213 -0.21591738 -0.04211307 -0.22899173 -0.41359 -0.08836477 -0.45900613 0.117387295
0.15967695 0.41325298 -0.25869164 -0.16500567 -0.13867891 0.16661125 0.1430089 0.057816118
-0.11917304 -0.23748977 -0.08979712 -0.024458025 0.13498677 -0.41667727 -0.23119 -0.0147960195
0.37541792 0.35049823 -0.22976223 0.5218198 -0.005127492 0.02495087 -0.4022787 -0.08256035
-0.31455815 0.43804315 -0.18033427 0.04720164 -0.006711012 0.2959224 0.278907 0.2734081
-0.15746363 -0.032015827 -0.4057944 -0.2812285 0.10035644 -0.21338756 0.297014 -0.20138788
0.33354098 0.09764721 -0.03491562 0.05789231 -0.06716797 0.110483974 -0.39405635 -0.26807293
0.02841305 -0.3874847 0.47584158 -0.5097939 0.46673107 -0.035337288 -0.4802696 -0.014509198
-0.19643259 -0.17700335 0.2826478 0.16761531 -0.16034143 -0.004242641 -0.3587182 -0.2814443
-0.22043641 0.2796312 0.2186831 0.2672195 0.19149996 -0.16426364 -0.11915266 0.004498301
0.12818398 -0.40248546 0.37526578 -0.42471418 -0.09975121 0.12819204 -0.18833451 0.19418785
-0.31906044 -0.017707784 0.01582897 -0.3463266 0.093649484 -0.17396417 0.023680922 0.40979254
0.062677406 0.12262425 0.3415135 -0.08933913 -0.029920671 -0.1863094 -0.15793075 0.0604501
0.13031594 0.3445548 -0.31827262 -0.14934811 -0.007887881 0.17908564 0.36007088 -0.26420105
-0.39579198 -0.22790003 -0.2730492 0.4902849 -0.088068165 0.26898366 -0.24369386 -0.19631934
-0.24588354 -0.20876685 -0.14642718 -0.36606947 -0.12113997 -0.1698464 0.38496336 0.41401824
-0.38034564 -0.43314853 -0.19925629 0.09837268 0.009802245 -0.119541876 0.08588846 0.04540266
0.35937113 0.07665229 -0.1669891 0.06773926 0.1464517 -0.07645302 -0.43272617 -0.33209267
-0.27577087 0.3398088 -0.43002853 -0.45668235 -0.41676039 -0.19887593 0.3696558 0.17684479
0.031735644 -0.4743812 -0.39326578 0.31850943 -0.41695344 0.049678728 0.46556908 0.30820686
-0.10329719 -0.37935945 0.45658982 -0.27685916 -0.16537175 0.44753167 0.37862596 0.022997161
00000000: 8fc0 c5bd 8017 cabe 36b0 a5bc 0c1a 8e3e
00000010: 4531 a33e 1325 93be 6ccf bebd 1a36 dabe
00000020: fe3c d4be 5a40 afbe d9fb a53d 3e80 aabe
00000030: c1e5 5e3e 2080 f4be 8ae7 89bd a69b dbbe
00000040: 430b dabe 42a2 9cbe 3351 273d 8711 d83c
00000050: eeb3 bcbe c99c 473e 083e 0a3b 458c 27be
00000060: 62e3 b43e 5ffb dabe a091 5a3e 8853 d4bd
00000070: bb46 fbbd 7c9f 233e 0da2 8f3d 9327 4ebe
00000080: a16d f3bd 4d3d ba3e 060a 943e 656b e3be
00000090: 60b8 f73e 56e5 af3e d42c 403d 5c96 8dbd
000000a0: cdec 933e 50ab dfbe f1eb d5be 6926 debe
000000b0: 0791 0f3e 82ab 203e 895c bd3d eea3 2bbe
000000c0: 1fde 88be e7c6 6cbe f18c e5be 1e8e 8cbe
000000d0: f060 36be d7a7 c03e 8c8b c4be e231 13be
000000e0: ae6c c73e 5b27 973e b1d7 a43e 6c73 ddbe
000000f0: ad61 c83d 3ee3 e0be 25eb f0bc f047 e13e
00000100: c9a3 893e 015b 3b3e f90c 1a3e b97f 09be
00000110: f88a ae3e cc9b fcbe e7af 87be 6b42 ef3e
00000120: 4389 d0be fb6a a3bd 1386 dd3c 7194 e1be
00000130: 962c 083d ef46 98be d3c9 ec3d 91d6 a5be
00000140: d21f ee3d a8e1 aabd f038 06be 75ca 2cbe
00000150: cddf c23e 3850 963e cd2d 86be bfb6 d03d
00000160: db89 44be 7219 5dbe c17e 2cbd cf7c 6abe
00000170: 12c2 d3be 97f8 b4bd da02 ebbe c068 f03d
00000180: 5b82 233e e595 d33e 3b73 84be 3ff7 28be
00000190: d801 0ebe 249c 2a3e ed70 123e 98d0 6c3d
000001a0: ff10 f4bd 8530 73be 8de7 b7bd 325c c8bc
000001b0: f939 0a3e b956 d5be 12bd 6cbe 016b 72bc
000001c0: c736 c03e 8174 b33e ca46 6bbe fb95 053f
000001d0: 8504 a8bb c465 cc3c 79f7 cdbe 6715 a9bd
000001e0: c40d a1be 3147 e03e 8ca9 38be 8256 413d
000001f0: 0de8 dbbb 2483 973e e6cc 8e3e 25fc 8b3e
00000200: 253e 21be 0723 03bd 49c4 cfbe 2ffd 8fbe
00000210: ad87 cd3d 4582 5abe 3812 983e a038 4ebe
00000220: e2c5 aa3e 43fb c73d ae03 0fbd 7d20 6d3d
00000230: 5c8f 89bd 6c45 e23d c1c1 c9be db40 89be
00000240: 7cc2 e83c 6564 c6be 82a1 f33e da81 02bf
00000250: 60f7 ee3e d5bd 10bd e6e5 f5be fdb7 6dbc
00000260: a025 49be 5e40 35be 36b7 903e 59a3 2b3e
00000270: 8b30 24be da05 8bbb e9a9 b7be 7819 90be
00000280: 15ba 61be d22b 8f3e 76ee 5f3e ffd0 883e
00000290: 9118 443e ba34 28be 4f06 f4bd 7c66 933b
000002a0: a942 033e 9312 cebe d622 c03e 2374 d9be
000002b0: 5d4a ccbd c644 033e c3da 40be 2ed9 463e
000002c0: e45b a3be ea0f 91bc c2ab 813c b851 b1be
000002d0: 4dcb bf3d aa23 32be 7efe c13c 54d0 d13e
000002e0: 035d 803d 6c22 fb3d dcda ae3e 6ff7 b6bd
000002f0: 321c f5bc e4c7 3ebe 99b8 21be 869a 773d
00000300: 8b71 053e 7d69 b03e a1f4 a2be b6ee 18be
00000310: 2c3c 01bc 3a62 373e 365b b83e 5c45 87be
00000320: 3fa5 cabe a05e 69be 1bcd 8bbe 9f06 fb3e
00000330: 155d b4bd 3ab8 893e e28a 79be f007 49be
00000340: e5c8 7bbe fac6 55be 02f1 15be 756d bbbe
00000350: 3c18 f8bd 37ec 2dbe eb19 c53e 33fa d33e
00000360: aabc c2be a5c5 ddbe d709 4cbe 9e77 c93d
00000370: 9899 203c 5fd2 f4bd 4ae6 af3d 24f8 393d
00000380: 7eff b73e e0fb 9c3d 31ff 2abe e2ba 8a3d
00000390: 6ff7 153e 6793 9cbd 498e ddbe 0d08 aabe
000003a0: d731 8dbe 6bfb ad3e b32c dcbe 45d2 e9be
000003b0: 9e61 d5be 22a6 4bbe 8643 bd3e cd16 353e
000003c0: 3cfd 013d 18e2 f2be 225a c9be ab13 a33e
000003d0: ec7a d5be ec7b 4b3d 125f ee3e 4acd 9d3e
000003e0: 7a8d d3bd 673b c2be 24c6 e93e 7cc0 8dbe
000003f0: 3657 29be df22 e53e 43db c13e 8b64 bc3c

edge_function.0.bias f4 [64]
0.46699658 -0.35697848 0.332273 -0.037563756 -0.028471876 -0.46215862 -0.07234034 -0.3569417
0.20312649 0.31727803 -0.02959512 0.3684886 0.17694736 0.12945785 0.2555298 -0.35551587
-0.36701405 -0.20957972 0.058688086 0.3214988 0.5545667 0.39788952 0.13063751 -0.113528416
-0.05259336 0.29482806 -0.28502163 -0.44652835 -0.26572126 -0.28785956 -0.109698676 0.22819947
0.31945455 -0.36577535 -0.26171505 0.10603516 -0.28102314 -0.19076625 -0.14821818 0.20696883
-0.0029816127 -0.41771832 -0.12596093 0.22489734 0.49506116 -0.31941292 -0.34724578 -0.17873773
0.3287572 0.22936952 -0.28099632 -0.47938374 0.16473268 -0.32194865 -0.1677266 -0.31079078
-0.49261737 0.5069814 -0.03154767 0.28288066 -0.44811156 0.31561095 -0.23776948 0.08294369
00000000: 2d1a ef3e e2c5 b6be b01f aa3e 74dc 19bd
00000010: da3d e9bc 0ea0 ecbe 2c27 94bd 10c1 b6be
00000020: 6400 503e 4472 a23e 7771 f2bc 8aaa bc3e
00000030: b031 353e 9990 043e cdd4 823e 2d06 b6be
00000040: 44e9 bbbe 119c 56be eb62 703d 7e9b a43e
00000050: 15f8 0d3f 2db8 cb3e d7c5 053e 9681 e8bd
00000060: 236c 57bd b4f3 963e 5bee 91be 5d9f e4be
00000070: 9e0c 88be 5462 93be b3a9 e0bd 1fad 693e
00000080: 8c8f a33e e846 bbbe 84ff 85be f628 d93d
00000090: 44e2 8fbe 3a58 43be 82c6 17be a3ef 533e
000000a0: 2967 43bb 2ddf d5be e7fb 00be 7d4b 663e
000000b0: a878 fd3e 178a a3be 33ca b1be 0607 37be
000000c0: dd52 a83e d8df 6a3e c0de 8fbe c971 f5be
000000d0: afaf 283e 74d6 a4be 86c0 2bbe f81f 9fbe
000000e0: 5838 fcbe 88c9 013f 2138 01bd bcd5 903e
000000f0: e16e e5be c297 a13e d879 73be 62de a93d

edge_function.2.weight f4 [64, 64]
-0.011656273 0.02369159 0.078138664 0.08079909 -0.11947233 -0.106903695 -0.13178466 -0.12801968
0.010862939 -0.049786296 -0.06080931 -0.04676386 0.043956604 -0.08156875 -0.04176336 -0.03084778
-0.092198215 0.017386733 0.025835356 0.007550616 -0.08986944 -0.04035185 -0.0818595 0.022266963
0.057449907 0.0688833 -0.15542744 -0.033396065 0.014514146 0.06550313 0.053106584 0.022503715
-0.10959522 -0.14376427 0.06738063 -0.026578302 -0.010075812 -0.046645746 0.10711396 0.017947044
0.07357769 0.043968335 -0.11845333 -0.08733129 -0.08435034 -0.14762576 -0.08660318 -0.081837356
-0.023204306 0.05665525 0.126262 -0.14203541 0.044992708 -0.10859414 -0.08273803 -0.09140056
-0.14414883 -0.061676227 -0.16955136 0.09387735 -0.06707213 -0.08066172 0.021003976 0.024327055
0.059397746 0.036482528 -0.005332425 0.12503964 0.046832472 0.041845683 0.12806891 -0.0017345774
0.044123035 -0.021892777 -0.08970232 -0.027719213 0.06321993 0.019047953 0.017652433 0.06328553
0.064057715 0.11938332 -0.046099514 0.04291591 0.10768438 0.1091064 0.0745171 -0.040071197
-0.08097513 -0.013724033 0.09560007 -0.06800849 0.031363945 -0.005630728 0.1209578 -0.08402829
-0.035755422 0.06984517 -0.029466063 -0.111634836 -0.04829759 0.01817125 0.08903382 0.11209329
0.04295586 0.09775041 0.06011332 -0.0525822 0.044393286 0.0824027 0.020526286 0.076360725
0.086664975 -0.060667045 0.116762824 0.10320178 -0.08777717 -0.037551023 0.0076249074 -0.107018225
-0.04411692 0.033014227 0.057928674 0.129489 0.047972064 0.09307377 -0.057663374 0.10442595
-0.05160858 -0.154881 -0.06251326 0.0701337 -0.007233353 0.06604523 0.106379464 0.05015013
0.111585595 0.099852 -1.2057123e-05 0.10979426 -0.14721143 0.055151008 0.03776752 0.029013814
0.015042317 0.16478284 -0.041094795 0.06251801 -0.0624381 0.12735456 0.06665663 -0.10177719
-0.12201133 0.12483974 0.056410827 -0.01851332 0.12376908 -0.063707836 0.07868923 -0.07067591
-0.12819824 0.05284085 -0.058667928 -0.05875811 -0.05454155 0.046434917 0.028762095 -0.13200098
-0.011900357 -0.017676063 -0.1349206 -0.010217649 -0.013469848 0.12686165 0.1336839 0.08979651
0.06313537 0.052439798 -0.00033522025 -0.10073988 -0.07627305 0.15268369 0.044890694 -0.0012801378
-0.06362928 -0.09528076 0.07650147 0.10128178 -0.010545825 0.07139945 -0.0027213322 0.02308307
-0.00033418994 0.083404884 -0.0650409 -0.035460882 -0.0010289301 -0.0951809 0.05182911 -0.005042136
-0.11260533 0.047049996 -0.13989009 0.04260349 -0.036921546 -0.023602867 0.0726455 -0.06114243
0.08687316 0.019905657 0.008003286 0.025134768 -0.045137305 0.10064792 0.054220144 0.046181653
0.07410558 0.030121004 -0.01627906 -0.16944054 -0.08054213 -0.121483184 -0.06476248 0.08433625
0.09188339 -0.012072239 -0.025196768 0.104916 0.08390364 0.03988759 -0.022980688 -0.012821612
0.049740024 -0.13540971 -0.04050859 -0.05568433 -0.031088326 0.06874675 0.116473705 -0.114977166
-0.0031596238 0.12692742 0.060372364 0.0043791938 -0.087789424 -0.023156062 -0.028373493 0.083573624
-0.084966995 0.060019866 0.02136365 0.003049264 -0.1122976 -0.10491113 -0.11256856 -0.009048005
00000000: f4f9 3ebc de14 c23c 2a07 a03d fe79 a53d
00000010: e9ad f4bd 53f0 dabd 8ff2 06be 9717 03be
00000020: 78fa 313c b7ec 4bbd 2f13 79bd 768b 3fbd
00000030: d70b 343d 840d a7bd 0f10 2bbd 7cb4 fcbc
00000040: 6bd2 bcbd 9f6e 8e3c aba4 d33c 286b f73b
00000050: 780d b8bd fb47 25bd f4a5 a7bd 3569 b63c
00000060: 9850 6b3d b012 8d3d 5f28 1fbe 50ca 08bd
00000070: becc 6d3c 8126 863d 4a86 593d b659 b83c
00000080: 7573 e0bd f136 13be dbfe 893d bdba d9bc
00000090: 0515 25bc 9c0f 3fbd 905e db3d ae05 933c
000000a0: e6af 963d 2418 343d a997 f2bd bfda b2bd
000000b0: dfbf acbd 352b 17be 025d b1bd 589a a7bd
000000c0: f516 bebc 560f 683d d34a 013e bb71 11be
000000d0: 464a 383d 9b66 debd 8e72 a9bd 3830 bbbd
000000e0: c09b 13be 36a0 7cbd df9e 2dbe c542 c03d
000000f0: 1d5d 89bd f931 a5bd 8810 ac3c 8849 c73c
00000100: 0d4b 733d b46e 153d 9fbb aebb 640a 003e
00000110: 68d3 3f3d 6166 2b3d 7f24 033e c25a e3ba
00000120: 5bba 343d 7b58 b3bc dab5 b7bd 6713 e3bc
00000130: 7379 813d 740a 9c3c d69b 903c d89b 813d
00000140: b130 833d 3e7f f43d d8d2 3cbd 98c8 2f3d
00000150: a189 dc3d 2d73 df3d 6c9c 983d b221 24bd
00000160: 4ad6 a5bd c4da 60bc f8c9 c33d 0948 8bbd
00000170: 7b77 003d f881 b8bb b9b8 f73d 0617 acbd
00000180: 4774 12bd fc0a 8f3d d062 f1bc cea0 e4bd
00000190: b2d3 45bd e0db 943c 5d57 b63d 2b91 e53d
000001a0: 7cf2 2f3d 5e31 c83d 6239 763d 6f60 57bd
000001b0: bcd5 353d bfc2 a83d be26 a83c 0363 9c3d
000001c0: 687d b13d 027e 78bd 5921 ef3d 745b d33d
000001d0: 84c4 b3bd 1acf 19bd 5cda f93b 5f2c dbbd
000001e0: f2b3 34bd ed39 073d 9e46 6d3d c498 043e
000001f0: 5b7e 443d 769d be3d 6e30 6cbd 46dd d53d
00000200: 8563 53bd 2099 1ebe f406 80bd 42a2 8f3d
00000210: c305 edbb b942 873d 7add d93d 396a 4d3d
00000220: fd86 e43d 357f cc3d f348 4ab7 d0db e03d
00000230: 98be 16be 06e6 613d 1db2 1a3d 61ae ed3c
00000240: 0d74 763c d5bc 283e 0453 28bd 7109 803d
00000250: 18bf 7fbd 3c69 023e 4583 883d 8f70 d0bd
00000260: 14e1 f9bd faab ff3d 0a0f 673d 3fa9 97bc
00000270: a57a fd3d 4179 82bd d227 a13d 88be 90bd
00000280: 6646 03be a66f 583d c84d 70bd 58ac 70bd
00000290: f666 5fbd 8a32 3e3d 7c9e eb3c 442b 07be
000002a0: b7f9 42bc 64cd 90bc a028 0abe ed67 27bc
000002b0: a3b0 5cbc 05e8 013e 6fe4 083e 3ce7 b73d
000002c0: 1e4d 813d 1dcb 563d 80c0 afb9 b650 cebd
000002d0: 0b35 9cbd 1d59 1c3e 4edf 373d 4cca a7ba
000002e0: 1150 82bd 8f22 c3bd cdac 9c3d d26c cf3d
000002f0: 65c8 2cbc e039 923d 6158 32bb b518 bd3c
00000300: 3736 afb9 2ed0 aa3d 2a34 85bd 6e3f 11bd
00000310: 2add 86ba 34ee c2bd c34a 543d 8138 a5bb
00000320: a09d e6bd 7fb7 403d 593f 0fbe ff80 2e3d
00000330: 0c3b 17bd cd5a c1bc 2ac7 943d 7c70 7abd
00000340: 8eea b13d 3011 a33c 3720 033c 6ee7 cd3c
00000350: e5e1 38bd 7f20 ce3d f115 5e3d f928 3d3d
00000360: abc4 973d 53c0 f63c aa5b 85bc d281 2dbe
00000370: 46f3 a4bd 2dcc f8bd 31a2 84bd 7cb8 ac3d
00000380: 5c2d bc3d a4ca 45bc 7469 cebc 33de d63d
00000390: acd5 ab3d 2b61 233d ff41 bcbc bd11 52bc
000003a0: 32bc 4b3d d8a8 0abe 56ec 25bd 4115 64bd
000003b0: f2ac febc 19cb 8c3d c489 ee3d 2679 ebbd
000003c0: b111 4fbb 43f9 013e 0349 773d 577f 8f3b
000003d0: f1ca b3bd c8b1 bdbc 876f e8bc a628 ab3d
000003e0: 2d03 aebd 64d7 753d d202 af3c 29d6 473b
000003f0: 49fc e5bd a6db d6bd 588a e6bd 153e 14bc

edge_function.2.bias f4 [64]
0.08472416 0.051582135 0.031089546 -0.0124316225 0.05931425 -0.012264612 -0.056179214 0.14353469
0.028157398 -0.04275355 0.22092065 0.14392821 -0.045534946 0.06433279 -0.15896481 0.18256998
-0.077749915 0.094167076 -0.09452358 0.02559134 -0.053431913 -0.018236056 -0.10682981 0.07801937
0.09833677 0.039989725 0.08245228 0.15750724 0.061987523 0.07507607 -0.00920756 -0.0364823
0.07136994 -0.11545849 0.052827153 -0.11651393 0.14734708 0.09107663 0.33097044 -0.059188366
-0.08319501 -0.12128097 -0.116317265 0.0012046192 -0.12624697 -0.086907625 -0.11881288 -0.049102742
0.091438726 0.036939297 0.05268585 -0.0012771913 -0.15252574 -0.089155756 0.10108851 -0.13885675
0.14265767 -0.05630196 -0.14728414 0.07308771 -0.0022554838 -0.058125403 -0.010024491 0.07508264
00000000: dc83 ad3d ca47 533d 81af fe3c 01ae 4bbc
00000010: 80f3 723d 83f1 48bc 2d1c 66bd c2fa 123e
00000020: 58aa e63c 591e 2fbd 0639 623e eb61 133e
00000030: da82 3abd e9c0 833d acc7 22be a0f3 3a3e
00000040: 593b 9fbd abda c03d 9495 c1bd eea4 d13c
00000050: 6cdb 5abd c863 95bc 96c9 dabd 9fc8 9f3d
00000060: ca64 c93d 44cc 233d bedc a83d 9449 213e
00000070: a1e6 7d3d 7cc1 993d 4edb 16bc 776e 15bd
00000080: 672a 923d 8075 ecbd 4961 583d db9e eebd
00000090: 27e2 163e 6286 ba3d f574 a93e 806f 72bd
000000a0: 2562 aabd 2862 f8bd bf37 eebd 50e4 9d3a
000000b0: e346 01be a0fc b1bd 2b54 f3bd f51f 49bd
000000c0: 3a44 bb3d a94d 173d 1ecd 573d 6e67 a7ba
000000d0: b52f 1cbe 4b97 b6bd 7e07 cf3d 7730 0ebe
000000e0: da14 123e e29c 66bd a7d1 16be 02af 953d
000000f0: bdd0 13bb e714 6ebd c33d 24bc edc4 993d

edge_function.4.weight f4 [64, 64]
0.019114766 -0.15115784 -0.11174711 0.059030402 0.092881486 -0.005898893 -0.107426986 0.04196387
0.013656557 -0.13792919 -0.059262674 0.054047294 -0.0035121273 0.053558238 -0.030189179 0.17437306
0.054626938 -0.09195227 0.08829214 -0.028123528 -0.09231617 -0.12264967 -0.13043387 -0.022325544
0.07535524 0.08682126 0.028351016 -0.102044106 -0.14788435 0.12376174 0.0001321137 0.08625451
-0.115478836 0.073789775 0.0199195 0.0054176236 -0.10004095 -0.06847061 -0.20517406 0.047071222
0.058886047 0.07090275 0.047357835 -0.08997654 -0.06279461 -0.06996676 0.031462185 -0.052324764
-0.03549324 -0.042598482 -0.017023934 0.05230827 0.05028081 0.048310097 -0.03379361 0.0032384428
0.113202535 0.062964976 0.04843369 0.07016454 -0.049072385 -0.08189131 0.076748475 -0.15139508
0.10308745 -0.09931311 0.10109845 0.1250267 0.024391305 0.12346794 -0.069314204 -0.037730776
0.11492802 -0.08736426 0.03067011 -0.017233614 -0.098023824 0.050110716 -0.13388418 0.03899646
-0.07777446 0.06500274 -0.1078922 -0.17684463 0.14085332 0.10271016 -0.10611913 -0.042778485
-0.09814498 -0.0133868605 0.0027219725 -0.04462467 -0.106771156 0.07748189 0.0722754 -0.034009855
0.034423944 -0.13408317 -0.04852092 0.021699956 -0.013988043 -0.10430332 -0.043259297 0.028578943
-0.08008359 -0.026982203 -0.06701684 0.048055865 0.008564066 -0.00097352243 -0.010350387 -0.07927245
0.10083187 0.0980925 -0.049767535 0.01169224 0.061692774 -0.10568956 0.07194011 0.02497211
-0.0075987247 0.10939259 -0.10058986 -0.026640298 -0.010394236 0.118199244 -0.003138486 -0.12409223
0.09073034 -0.015374065 -0.0063728006 -0.09065718 0.031621557 -0.08551022 0.120710045 -0.059011273
-0.07798016 -0.050417554 -0.11724498 0.050366357 -0.053895753 0.027142907 0.054635655 -0.0054435325
0.07815521 0.051008087 -0.026803464 -0.011460755 0.023852421 -0.10885565 0.02006 0.03854382
-0.10866538 -0.03897363 -0.062215146 -0.024974387 0.008344691 0.03327003 -0.035642654 0.07981557
-0.020052554 0.11526505 -0.004643071 -0.08198038 -0.014116538 0.13514353 -0.04060374 0.0639252
0.11514966 0.06949481 0.041864067 0.086361155 -0.10876018 0.030583788 -0.101802155 0.053254485
-0.043329414 -0.023695253 -0.012431648 0.039237358 0.024640158 -0.07656547 -0.11388852 0.13006723
0.043443233 -0.12835272 -0.059071273 0.1262097 0.053710572 0.023060441 0.028755683 0.11597954
0.08820997 -0.08159661 -0.05908735 0.07896542 0.10687797 0.13454884 0.01914929 0.13291639
0.09229164 -0.08768113 0.09343898 0.85279596 -0.09086968 -0.08909215 0.11544377 0.016827393
0.04768844 -0.08795969 -0.09033571 0.037463784 -0.031611204 -0.030825883 -0.07198205 0.046595126
0.078166656 -0.028793886 0.017010007 0.027031971 -0.002462785 0.1223988 -0.0049545765 -0.007032639
-0.0242802 -0.092651784 -0.092335746 -0.011855131 -0.107259504 0.02183256 0.7309974 -0.075387016
-0.050473258 -0.067705855 0.063902535 0.02288657 0.017442923 -0.081703514 0.010917495 0.12298336
-0.002840163 -0.0056789014 0.005822148 -0.109832704 0.023647085 -0.06473205 -0.011876415 -0.030579569
-0.024422344 -0.011700536 -0.03359525 -0.09660462 0.13829336 0.013963327 -0.05057162 0.013923644
00000000: 9296 9c3c 1fc9 1abe abdb e4bd ddc9 713d
00000010: a638 be3d 804b c1bb ae02 dcbd 4fe2 2b3d
00000020: c0bf 5f3c 4f3d 0dbe 6bbd 72bd b260 5d3d
00000030: b82b 66bb e25f 5b3d 4c4f f7bc da8e 323e
00000040: 7fc0 5f3d 7951 bcbd 82d2 b43d 5063 e6bc
00000050: 4310 bdbd c02f fbbd 7590 05be 0fe4 b6bc
00000060: d953 9a3d 58cf b13d 6440 e83c 80fc d0bd
00000070: ff6e 17be cc76 fd3d 0088 0a39 34a6 b03d
00000080: 2b80 ecbd 181f 973d 382e a33c 5286 b13b
00000090: 45e2 ccbd 523a 8cbd 2619 52be c1cd 403d
000000a0: 7f32 713d 7635 913d 4afa 413d 9f45 b8bd
000000b0: 769a 80bd bc4a 8fbd 7ede 003d 7e52 56bd
000000c0: 5c61 11bd bf7b 2ebd c775 8bbc 3241 563d
000000d0: 40f3 4d3d cfe0 453d 2b6b 0abd 0e3c 543b
000000e0: bbd6 e73d c8f3 803d 6862 463d 6db2 8f3d
000000f0: 2000 49bd a2b6 a7bd 4e2e 9d3d 5007 1bbe
00000100: 831f d33d ac64 cbbd b40c cf3d 0007 003e
00000110: 46d0 c73c c2dc fc3d 9bf4 8dbd 968b 1abd
00000120: 625f eb3d 08ec b2bd e23f fb3c 822d 8dbc
00000130: b7c0 c8bd e540 4d3d ef18 09be c1ba 1f3d
00000140: 3748 9fbd 2820 853d 96f6 dcbd c216 35be
00000150: da3b 103e b459 d23d fd54 d9bd 7e38 2fbd
00000160: 3c00 c9bd 9054 5bbc 1f63 323b 5cc8 36bd
00000170: d6aa dabd d3ae 9e3d 2005 943d eb4d 0bbd
00000180: 1f00 0d3d 194d 09be dfbd 46bd 1bc4 b13c
00000190: 1b2e 65bc fb9c d5bd a930 31bd 631e ea3c
000001a0: dd02 a4bd c809 ddbc 2040 89bd 3ad6 443d
000001b0: 4c50 0c3c fc33 7fba ab94 29bc 9859 a2bd
000001c0: f180 ce3d b8e4 c83d 0bd9 4bbd cf90 3f3c
000001d0: 90b1 7c3d c573 d8bd 5655 933d 4f92 cc3c
000001e0: b9fe f8bb 3909 e03d 0e02 cebd c13c dabc
000001f0: 964c 2abc 7212 f23d 0faf 4dbb 1124 febd
00000200: d4d0 b93d 81e3 7bbc edd2 d0bb 79aa b9bd
00000210: 9b85 013d fb1f afbd d436 f73d ceb5 71bd
00000220: 10b4 9fbd a382 4ebd 231e f0bd f44c 4e3d
00000230: cbc1 5cbd cd5a de3c a3c9 5f3d a95f b2bb
00000240: d70f a03d dbed 503d f092 dbbc e4c5 3bbc
00000250: 2766 c33c b6ef debd de54 a43c 20e0 1d3d
00000260: f48b debd d0a2 1fbd 4fd5 7ebd 1697 ccbc
00000270: 2cb8 083c 2846 083d 08fe 11bd 5876 a33d
00000280: 4145 a4bc 1510 ec3d e724 98bb 54e5 a7bd
00000290: 0d49 67bc 1163 0a3e 1b50 26bd 37eb 823d
000002a0: 96d3 eb3d 4c53 8e3d a879 2b3d 1ede b03d
000002b0: a8bd debd da8a fa3c a67d d0bd 6021 5a3d
000002c0: 2f7a 31bd 8c1c c2bc 1cae 4bbc 5ab7 203d
000002d0: 28da c93c 5bce 9cbd 623e e9bd 5830 053e
000002e0: 88f1 313d e56e 03be b8f4 71bd 1e3d 013e
000002f0: 9eff 5b3d 40e9 bc3c 0a91 eb3c ae86 ed3d
00000300: 6ea7 b43d 201c a7bd 9405 72bd 9fb8 a13d
00000310: d6e2 da3d 2cc7 093e f9de 9c3c 3c1b 083e
00000320: 6603 bd3d 2a92 b3bd f05c bf3d d650 5a3f
00000330: e219 babd f275 b6bd c96d ec3d 9ad9 893c
00000340: f454 433d 3624 b4bd ee01 b9bd a073 193d
00000350: c07a 01bd 9086 fcbc 536b 93bd 88da 3e3d
00000360: d715 a03d 28e1 ebbc 9258 8b3c 2772 dd3c
00000370: ad66 21bb 39ac fa3d 005a a2bb 0d72 e6bb
00000380: 45e7 c6bc 38c0 bdbd 861a bdbd 063c 42bc
00000390: dfaa dbbd 32da b23c a522 3b3f 8264 9abd
000003a0: 0cbd 4ebd 5ea9 8abd 55df 823d 9e7c bb3c
000003b0: 76e4 8e3c 2c54 a7bd 4bdf 323c b3de fb3d
000003c0: 0722 3abb 1416 babb b8c7 be3b f8ef e0bd
000003d0: 88b7 c13c 3d92 84bd 4c95 42bc 0182 fabc
000003e0: 5e11 c8bc 9bb3 3fbc 2c9b 09bd a5d8 c5bd
000003f0: c69c 0d3e 70c6 643c 3024 4fbd ff1f 643c

edge_function.4.bias f4 [64]
-0.10517087 0.05079545 -0.059852373 0.0012814006 -0.01833419 0.103137486 0.10658631 0.04844621
0.0050308253 -0.028626943 -0.07469187 0.19700153 -0.02424977 0.054778613 0.049668737 0.031000346
0.034687873 -0.02498282 -0.105403304 -0.004317662 0.11492964 -0.016514778 0.0065108743 -0.052584987
-0.09244403 0.010674185 0.1691743 0.09493944 -0.02149028 -0.14490108 -0.017021706 0.112749174
0.027351482 -0.012850277 0.021039382 -0.027885942 -0.052313432 0.17171018 0.04030559 -0.09598523
0.1658037 -0.06304779 -0.05568119 -0.071728304 -0.14344557 0.18777436 -0.13490489 0.14567839
0.28440905 -0.011421868 -0.03138865 -0.0047994065 -0.070666745 -0.09356894 0.04000316 0.12660928
0.33659923 -0.0123657435 -0.13968094 -0.09827843 0.014683884 0.05844369 -0.07837856 -0.016428081
00000000: d363 d7bd e40e 503d c327 75bd abf4 a73a
00000010: 9531 96bc bf39 d33d ec49 da3d 886f 463d
00000020: 9fd9 a43b 0d83 eabc 0df8 98bd c5ba 493e
00000030: 74a7 c6bc 8a5f 603d 7271 4b3d 70f4 fd3c
00000040: df14 0e3d c5a8 ccbc b0dd d7bd 2d7b 8dbb
00000050: 3b60 eb3d 004a 87bc 2c59 d53b 5b63 57bd
00000060: 4c53 bdbd c7e2 2e3c 073c 2d3e 9c6f c23d
00000070: 620c b0bc f360 14be 1b71 8bbc 0ae9 e63d
00000080: 3710 e03c f889 52bc c85a ac3c 0f71 e4bc
00000090: 9c46 56bd cbd4 2f3e 7917 253d e793 c4bd
000000a0: 72c8 293e 331f 81bd f611 64bd 4ae6 92bd
000000b0: 65e3 12be ec47 403e 8224 0abe b72c 153e
000000c0: 109e 913e c922 3bbc 6391 00bd 5744 9dbb
000000d0: bab9 90bd 13a1 bfbd 5ada 233d dda5 013e
000000e0: bc56 ac3e b099 4abc 8508 0fbe 3446 c9bd
000000f0: ac94 703c a762 6f3d f084 a0bd 2f94 86bc
