Projects/GuoxiangGrayson_T_A study of multi-fidelity graph neural networks/Model_save/Quarter2D/Rank=178-GNN-nB-64-Lr-0.005/model.pth (torch, 114781 bytes, 24 tensors)

node_function_neighbor.0.weight f4 [64, 2]
00000000: e9a1 16bd b6fb d43e a765 723e 9686 323f
00000010: 8438 933e 66e7 173e 71b9 0bbf 034a c23e
00000020: 8bf8 ff3e 130e 0bbf 12d7 bbbc caa7 0e3f
00000030: eb10 903e 77a4 93be f047 e7be b3ff babe
00000040: 0fb7 23be 025b fd3e 44dc 83be d2ba 843b
00000050: 2f98 fcbc fc39 1abf 15bd a1be 3b69 613e
00000060: 1779 203f 115f b43d 643b 023e 340f 1b3e
00000070: 0770 2fbf ab9b c23e b838 4ebe 99a9 8bbe
00000080: 05b0 293e 8449 e8be 3f30 b33d 12ec 28bf
00000090: 3e21 3e3e a80f f53e 3961 c1be b95a 2d3e
000000a0: 8d55 43be 7dcc e73e 91a4 8d3e 323b 513e
000000b0: 13b1 54be f670 2dbf ea73 2dbf 0479 a7be
000000c0: bc0a 46bb 0ad8 9a3e 4f5d 023f cb5d 173f
000000d0: e468 cabe 9a9e 853d 0156 17bf 1248 acbe
000000e0: a62b 4c3e f5fc bdbe c277 02bf 1069 e8be
000000f0: aeb9 06bf 1fd6 dfbe 0fd5 23bf c040 063f
00000100: c0f7 1fbe 93a5 fdbe 6bb1 b8be e641 82be
00000110: 280c 863e 82f9 37bd efb2 41bd 4744 913e
00000120: 4813 efbe 4ffa c93d 5071 a2bd f306 8ebe
00000130: e836 773e 53eb 233f 6498 123f 5903 53be
00000140: 4722 15be 6cd1 273f cd20 743e 3d57 b33e
00000150: 2be1 ddbe e0cf cd3e f471 dbbe 1aea 04bf
00000160: 21df ec3e 888c 08bf 1771 fa3e dbfe 8bbd
00000170: 596f 8cbe b2ff 0f3f 91a3 f43e 56b8 033f
00000180: 7a7e 17bf 1a05 ecbd 8b15 033f f4e6 15bf
00000190: a7e3 66be 9e71 c93e 8a7e 43bb d3bf 153f
000001a0: db32 febd 60d4 8b3d 3a47 cebe fe07 8b3e
000001b0: 36c1 073f 1a3a 273f c1d4 c9bd 0e06 b03e
000001c0: 9524 883e a506 e9be d3ca f1be 0e61 05bf
000001d0: a477 6cbd 4eae 043e 1975 91bd 4ae3 dfbe
000001e0: 0c1d 2a3f d3af 37bf 382d 2e3f a07b f6be
000001f0: cc9d 0bbe 6d94 883d 1380 64be 4b88 ca3e
-0.036775503 0.4159829 0.2367159 0.6973661 0.28754056 0.14834365 -0.54579836 0.3794709
0.4999431 -0.5431835 -0.022929702 0.55724776 0.28137907 -0.28836414 -0.4517207 -0.36523208
-0.159878 0.49483496 -0.25753987 0.004050591 -0.030834286 -0.6024473 -0.3158957 0.22012798
0.6268477 0.08807195 0.12717968 0.15142518 -0.68530315 0.3800939 -0.20138824 -0.2727783
0.16571052 -0.45368588 0.087494366 -0.65985215 0.18567368 0.47863507 -0.37769488 0.16929139
-0.19075604 0.452732 0.27664617 0.20432737 -0.20770673 -0.6775049 -0.67754996 -0.32709515
-0.00302188 0.3024295 0.5092363 0.5912749 -0.3953315 0.065243915 -0.59115607 -0.33648735
0.19938526 -0.37107053 -0.50963986 -0.45392656 -0.52627075 -0.4371805 -0.63996977 0.5244255
-0.15621853 -0.49540386 -0.3607286 -0.25440902 0.2618115 -0.044915684 -0.047289785 0.28372404
-0.46694398 0.09862196 -0.07931769 -0.27739677 0.24142039 0.6403095 0.5726378 -0.20606746
-0.14563857 0.6555393 0.23840638 0.35027495 -0.43335852 0.4019766 -0.42860377 -0.5191971
0.46263984 -0.53339434 0.48914406 -0.06835719 -0.27428702 0.56249535 0.4778104 0.5145315
-0.5917736 -0.115244105 0.51204747 -0.5855553 -0.2254778 0.39344496 -0.0029830062 0.58495826
-0.12412044 0.06827617 -0.40288717 0.27154535 0.5302919 0.6532303 -0.09855033 0.3437962
0.2659041 -0.45512882 -0.47225055 -0.5210122 -0.057731286 0.12957117 -0.07102413 -0.43728095
0.6645057 -0.7175266 0.6803775 -0.48141193 -0.13634413 0.06668935 -0.22314481 0.39557108

node_function_neighbor.0.bias f4 [64]
00000000: bd22 443c 93c2 8f3e 71d6 163e 87f9 78be
00000010: 2b19 bf3e 2c62 0ebf 81bb 54bd e626 b63e
00000020: 4bee bd3e 49eb 75be ac6d e13e 2d24 21bf
00000030: 25e4 b63d 537a 31bf 9e31 d4be 5716 053f
00000040: 9a93 1abe 234a 87bd 61d3 253f 0ec4 febe
00000050: 12bf 88be 05a1 bdbe 41f6 99be 9a14 debe
00000060: 9b58 f6bd c885 fe3e 6b75 eebe 0f13 cebd
00000070: 5024 2abf 713f 033e de3f a2be 20a5 8fbe
00000080: 30dd 2abf 3b43 063f 51fb 8cbe 6e30 023f
00000090: af01 1a3e 5716 e23e a1d9 003f b482 5f3d
000000a0: 9d92 f6be d773 cdbc f16d 7f3e 1882 063c
000000b0: af74 11bf d843 92be 977f d3be 89bb 0abf
000000c0: 8767 34be b120 14bf 0565 ed3e a5b4 29bf
000000d0: 1f95 983d 62cd 18bf ae25 253f c116 e4bd
000000e0: 649b 0e3f 87e0 1dbf 3153 de3d b3e0 cebe
000000f0: 4402 943e c0e5 003f a234 033d 907e 963e
0.011971173 0.28078136 0.1473024 -0.24313937 0.3732389 -0.5561855 -0.05193663 0.35576552
0.37095866 -0.24015535 0.44028986 -0.62945825 0.08930234 -0.69327277 -0.41444105 0.5198721
-0.15095368 -0.06605937 0.64775664 -0.49758953 -0.26708275 -0.3703691 -0.3007069 -0.43375093
-0.12028619 0.49711442 -0.46573958 -0.10062229 -0.6646166 0.1281717 -0.31689352 -0.28055668
-0.66743755 0.52446336 -0.2753549 0.5085515 0.15039705 0.4415767 0.50332075 0.054568008
-0.48158732 -0.02507965 0.24944283 0.008209728 -0.5681867 -0.28567386 -0.4130828 -0.54192406
-0.17617618 -0.57862383 0.46366134 -0.66291267 0.074503176 -0.5968839 0.6451062 -0.111371525
0.5570586 -0.61670727 0.10855711 -0.40405807 0.2890798 0.5035057 0.032032616 0.29393435

node_function_neighbor.2.weight f4 [64, 64]
00000000: d712 dfbd 3e81 42bd ceae 723d 9648 433d
00000010: 54be a1bd e048 893d 7105 0bbe f68e 453d
00000020: f791 11be f72e 8c3d 01bf 083d b0fe f6bd
00000030: a22f ebbd 74f4 463d d9dc e6bd 55a8 98bd
00000040: 0cfb 93bd 4ebc 0ebe 8c06 8cbd c2c5 a4bd
00000050: ffeb 99bc cd83 73bc 839b ecbd 1747 b93d
00000060: 8f8a 1fbd 396f 183d f179 3e3d e9f8 083c
00000070: c1a5 b33a f14d b0bd 7251 12bc 452f a93b
00000080: c4aa 49bd 8950 89bc 19f3 87bd b58c 823d
00000090: 816d 10be 8ebe 923d 328c 49bd 2284 f1bd
000000a0: 589e adbb e9ab df3c 7f3b 72bc d7b6 bdbc
000000b0: b680 9b3d e517 d3bd 27c8 26bc 66bf 21bd
000000c0: 571d d4bd 2854 9abc 9dea 10bc d9fd 9d3d
000000d0: 5b9e 15be 437c bbbd b5ec 15be 6028 3f3d
000000e0: 0009 4fbc d1ff a8bd 88c4 2a3d 7e4f 2b3c
000000f0: 32ef 0f3d 746b f9bd b952 edbb 93ab 803c
00000100: dee9 a63d 14bd acbd f65f d0bd b76d 02bd
00000110: 7e8d ab3d 3a7b 573d 0c83 b0bd 7ef5 f5bd
00000120: 0799 2cbd 26f8 de3d d119 d3bd 83f0 bebd
00000130: 4d82 8bbd d7af 48bd 351a c13d ad9d c8bd
00000140: 2ee7 743c 4320 6bbd 2724 a43d 6c63 27bd
00000150: e27c d2bd f6eb 91bb a0bf 223d a651 793d
00000160: 21a6 83bd 33e8 13bc 394e d9bc 212f a53d
00000170: 6e8b 86bd 9594 e6bd 230e a6bc 8ade f13c
00000180: afde 04bd 82ce 88bd 16ec 23bd 0bef 41bc
00000190: 5108 8bbd e7a8 24be 0529 51bd e60c 4d3c
000001a0: 3d4d cdbc f2ec 953d 6b26 013e 7d35 a9bd
000001b0: 53b4 eb3d 4601 513d 9a0c ecbd e1ae 0a3d
000001c0: 9fa3 8d3d 134f 253d 79be dfbd 686d 8bbd
000001d0: 8cc2 953c 1f75 9b3d 646e a9bd 30fd 3c3a
000001e0: 9efd 4ebd f64b 94ba 842c 4a3c c02c f4bc
000001f0: c680 80bd e36e a93b 69bf ea3d 7f24 69bd
00000200: c77f 19be 7bde 9abd de8b d93b 4f2b c3bc
00000210: f751 5cbd e8b2 b73d 4955 953d 3ce7 9d3d
00000220: af0c 95bd 8376 883d cfea 153d 8058 f6ba
00000230: b156 45bd a4de eebd 1494 bcbd 0041 03be
00000240: 04d8 bd3d 483c bd3d dbbc 1bbe 758d d1bc
00000250: 2862 b3bc ba03 603d e191 adbd db4a a2bd
00000260: 04e4 f73d 45d7 9bbd 53b6 03bd 52f5 34ba
00000270: be5f 96bc 57a5 90bd eae3 f5bd 20bb 19be
00000280: 0e05 d83a 934f ecbd bced 6ebd fd08 b13d
00000290: c479 58bd 7700 20be 30ba 16bd 20ad 1fbe
000002a0: 426c 84bd 94e3 c63d 92ca 21bd 5067 9bbc
000002b0: d6f8 02be 9441 debd 50b7 f3bc 54cf d2bd
000002c0: 8123 743a 7e5e c6bd 623c e8bd 88e9 f8bd
000002d0: c184 bcbd 273a ddbd 1695 8f3d c2bc de3d
000002e0: e7f3 a83d 6407 7dbc c22b 0f3d 39d7 bf3d
000002f0: 0a49 c5bd 1c62 dabc d639 9a3b d2f5 d3bc
00000300: 7f3f 3ebd e7a0 863d 1136 a83d e218 a7bb
00000310: 95a7 a0bd 5e17 d83d d833 9ebd 9736 723d
00000320: 6ef9 153e 9f0a 763d dd3c 01be 3f1d 9dbc
00000330: 1458 183e 426b 14bd 88fa 0e3e b544 ce3c
00000340: db03 933d d000 b3bd 120e 85bd 0e18 ad3d
00000350: 922a e93d 4895 c7bd 74bc e5bd 47b1 19be
00000360: 6746 b73c e65f bd3c ecf0 073e 96b6 8fbd
00000370: 48a8 36be 4697 aabd d035 18be 66b5 4dbd
00000380: aeeb 33bd 8e23 8bbd ca28 833c 9b1c c9bd
00000390: 97b6 1f3e 4bb4 56be a3b2 a33d 98f5 023e
000003a0: 3be9 3b3c 56dc ab3c 91b5 b8bd 9117 06be
000003b0: 1c7f abbd fc7d 1e3d d710 8ebd af08 4dbd
000003c0: ec15 b93d 7a09 a3bd 9fec 0bbc 96f3 eb3d
000003d0: d7b6 6c3d 8213 283d aa08 133e 5472 c73d
000003e0: bd01 0cbe 159a 03be 5135 5d3d 5be3 cbbd
000003f0: dded 843d 8340 98bc 93aa 39bd 6228 bc3a
-0.10892265 -0.047486536 0.059248738 0.047676645 -0.0789763 0.06703353 -0.13576294 0.04823204
-0.14215837 0.06844895 0.03338528 -0.120602965 -0.114836946 0.048572972 -0.11272592 -0.07453982
-0.07225618 -0.1393902 -0.06837186 -0.08045532 -0.01878929 -0.014862967 -0.11553099 0.090467624
-0.0389505 0.037215445 0.04650301 0.008360126 0.0013706015 -0.08608616 -0.008930551 0.0051631057
-0.04923512 -0.016762035 -0.06638164 0.06374494 -0.14104272 0.07165252 -0.049205966 -0.117927805
-0.005298417 0.027303653 -0.014784693 -0.023158474 0.07592909 -0.10307292 -0.010179556 -0.039489172
-0.10357159 -0.018838957 -0.008844999 0.07714433 -0.14611189 -0.091545604 -0.14641078 0.046669364
-0.012636423 -0.08251918 0.041691333 0.010455964 0.035140224 -0.12178698 -0.0072425273 0.015706813
0.081500754 -0.08434501 -0.10174553 -0.031842913 0.08376597 0.052607752 -0.08618745 -0.120097145
-0.042138126 0.10887174 -0.103076585 -0.09323218 -0.06811962 -0.04899582 0.09428827 -0.09795699
0.014947696 -0.057403814 0.08014708 -0.0408663 -0.10277726 -0.0044531776 0.03973353 0.06086888
-0.06428171 -0.009027529 -0.026526557 0.0806563 -0.06569563 -0.112588085 -0.020270413 0.02952506
-0.03243893 -0.06680013 -0.04002007 -0.011836777 -0.067886956 -0.16080056 -0.05106451 0.012515282
-0.025061244 0.07320584 0.12612312 -0.08262155 0.115090035 0.051026605 -0.11525841 0.033858184
0.06915974 0.040358614 -0.10925002 -0.06807977 0.018281244 0.075906985 -0.082730085 0.0007209359
-0.050534837 -0.0011314142 0.012339715 -0.029806495 -0.062745616 0.0051706894 0.1146229 -0.05691957
-0.1499015 -0.07561966 0.006638988 -0.023824362 -0.053789105 0.089696705 0.072916575 0.0771012
-0.0727781 0.06663229 0.036600884 -0.0018794686 -0.04817838 -0.11663559 -0.09207931 -0.12817764
0.09269717 0.09240013 -0.15208761 -0.025580147 -0.02189739 0.054691054 -0.0847509 -0.07924434
0.121040374 -0.07609419 -0.0321563 -0.00069030107 -0.0183562 -0.07062786 -0.12006362 -0.15012789
0.0016480999 -0.11538615 -0.05833219 0.086442925 -0.0528505 -0.15625177 -0.036798656 -0.15593386
-0.06465961 0.09711376 -0.039499827 -0.018970162 -0.12790236 -0.10852352 -0.029750496 -0.10293451
0.0009313152 -0.09685992 -0.11339642 -0.121539176 -0.09205008 -0.10802107 0.07010858 0.108758464
0.08249646 -0.015443657 0.03495384 0.09367222 -0.09633072 -0.02665811 0.0047066016 -0.025874052
-0.046447273 0.065736584 0.08213437 -0.005099402 -0.07844464 0.10551332 -0.07724732 0.059134092
0.14645931 0.060068723 -0.12620874 -0.019178985 0.14877349 -0.0362351 0.13962758 0.025179246
0.0717847 -0.08740389 -0.06496824 0.08451854 0.11385073 -0.0974527 -0.11217585 -0.15009032
0.022372438 0.023117017 0.13275498 -0.070172474 -0.17837632 -0.08329634 -0.14864278 -0.050221823
-0.043925934 -0.06793891 0.01601066 -0.09819909 0.15596996 -0.20967214 0.079930566 0.12788999
0.011469181 0.020979088 -0.09019006 -0.13094927 -0.083738536 0.038694367 -0.06936806 -0.05005711
0.090373844 -0.07960792 -0.008540302 0.1152107 0.057791557 0.04103423 0.14358774 0.09738603
-0.13672538 -0.12851746 0.054005925 -0.09955474 0.06490681 -0.01858545 -0.045328688 0.0014355297

node_function_neighbor.2.bias f4 [64]
00000000: 9e77 81bc 17df a5bd adca f83c c7aa 853d
00000010: 4544 8c3d 8277 2abe a4a5 3b3c d469 aabd
00000020: 1520 15be f12c e1bd d353 37bd 99bd cbbd
00000030: f9d1 ff3d 2a60 cd3d 4038 ed3c e0d1 a0bd
00000040: e5b7 eabc df4b e3bd e783 163c 3e9c a43d
00000050: 9f34 04bc 77dc e13d 9a59 493a 9123 a43c
00000060: d626 acbd 12be 173d c957 d2bc d817 f1bc
00000070: 19b1 953d 82c8 c13d 16d5 5d3c 4aa6 e7bd
00000080: dcfc a2bd dc7a 383d f888 b5bc 75eb ebbd
00000090: 171d 813d 503c f23c c630 f1bc 51d4 ddbd
000000a0: 6fdf 3fbd 59a0 d13d f93a 20bd be54 223d
000000b0: 8291 d03d c56f ca3c dfcb fe3d 2cf8 eb3d
000000c0: 0f94 1abe 5763 d4bd 6729 97bd 8a2c bdbd
000000d0: e6d5 1d3e 7b1d 15be d99a 053d 57a3 213a
000000e0: 49e2 55bb e278 a3bd f31d 9ebd ec3c 71bd
000000f0: 6ba9 51bd 389d b5bd 8c29 59bd 2e89 993d
-0.015804108 -0.08099192 0.03037008 0.06526714 0.06848959 -0.16647151 0.011453066 -0.08320966
-0.1456302 -0.109949 -0.044757675 -0.09948272 0.12491221 0.100281075 0.028957486 -0.078525305
-0.02865214 -0.11098456 0.009186721 0.08037613 -0.0080691865 0.110283785 0.0007680893 0.02003649
-0.08405845 0.0370465 -0.025676625 -0.029430315 0.07309169 0.09462072 0.013539573 -0.11311014
-0.07958385 0.045039043 -0.022160038 -0.11519519 0.063043766 0.029569775 -0.029442202 -0.10831512
-0.046843942 0.10235662 -0.03911874 0.039631598 0.101840034 0.024711499 0.12441229 0.115219444
-0.15095542 -0.1037051 -0.07380944 -0.09237011 0.15413627 -0.14562027 0.032618377 0.0006166002
-0.0032636097 -0.07982041 -0.07720556 -0.05889599 -0.05118696 -0.08867878 -0.053018138 0.07496868

node_function_neighbor.4.weight f4 [64, 64]
00000000: 4c37 d83c a531 833d 0122 8dbc 536f 0f3e
00000010: 300d 513c 3fd0 383d 0af9 b53d d26f 00be
00000020: 12d1 823d 5743 6bbd d844 11be 13c4 e1bd
00000030: 4a26 b9bd 20c6 55bd 80cc b7bd 5291 edbd
00000040: 16c9 233d 18ca 28bd c4ae 9c3d 1a94 e83a
00000050: 2075 cc3c f280 f33b 9b73 673d 9333 063e
00000060: 4b9a 86bd 81c0 1cbd 7b15 b0bd 2438 2abd
00000070: 8ccc 8f3d d55e 06bd 5541 e7bd d548 9f3d
00000080: 5495 32bd 791a fcbc 0aa4 c53a ed8f bfbd
00000090: d5d7 b3bd e8d7 9dbd 3c2c 6a3c 3af7 663d
000000a0: 22e6 d1bd 8c9c 07be 988a b73c 4308 cb3d
000000b0: 9594 6fbd 23fb 113d d945 29bc 174f 29bd
000000c0: f8d2 29bc e2d7 e43c aa09 cebb 47f2 233d
000000d0: 3ef7 2f3d dd42 7238 f6a1 7abc 3963 813d
000000e0: ff23 c4bd c3f5 25bd 53e5 dcbc 2bcb 9bbd
000000f0: 4ae2 49bd bc48 04be 3b3b 5bbd cf28 353d
00000100: d308 273e eb0b 70bd 590a fdbd 2b38 93bd
00000110: 6c6c 79bd c64d a3bc 1a5b 87bc d196 0abe
00000120: 9aaa b1bd 3ba1 65bc 3eba cebd 88ea 9fbc
00000130: 5c9d cbbc 7907 773d a6f5 08be 0dfd 5cbd
00000140: 41fb 2cbe 3af5 e63b d1bd df3c 28b4 8d3d
00000150: 900e a53d 27b3 dfbd 4738 d5bd 4c48 bd3d
00000160: ff06 58bd eb30 e7bd 4761 ea3d f4ef 2cbd
00000170: 19e0 0abd aa24 0ebd 26a8 b63c 7986 bd3d
00000180: 001a ae3c fc13 f3bd b006 02be c411 d23c
00000190: 9dcf 82bc b891 2e3d a1af 04be cba4 1cbe
000001a0: 11bf e23d e8e6 cdbc ef0d ad3d 4975 aabd
000001b0: 451a 863d 50ca 8dbd a890 073d ccfa a2bd
000001c0: e092 10bc 2e9b a3bd f617 25bd afbd 1abe
000001d0: cbf7 29bc f214 c8bd 7c52 af3c 5747 07be
000001e0: d364 3a3d 88bd c1bc 8475 393d f981 ec3c
000001f0: 26b6 cdbc 59a4 a83c 7592 8ebd 58bc 66bd
00000200: 6b47 123d 0619 1fbd a4ed 29bd 195c c6bd
00000210: d420 153d 4d5e 49bc eb1b 1c3d 97cb 21be
00000220: 7e2a 663d 3a36 373c a9cb f3bb e01a 893b
00000230: c4c6 cb3d 055c 443d 3afd edbd 62f6 863c
00000240: fce2 05be ddfc a2bd 3f68 26be fa67 c8bd
00000250: 682c d53d b95b d6bc 3ccf d23c 6705 c7bd
00000260: 0029 35bd 402e 02be 250b d7bd 2474 83bd
00000270: c057 b3bd 695b 2cbe e873 bf3a 8432 e73d
00000280: 2114 b2bd 9b8d e1bc 11f0 21be 6e2f e3bd
00000290: d3aa 00be 6218 a8bd 2705 5e3d 825d 823d
000002a0: b4ba 7b3d 931e 153c db86 173e 4664 cf3d
000002b0: 4012 de3c 050c 7bbc b653 cdbd cc70 8c3d
000002c0: 28d4 0abe d37d 3b3d efdf 38bb 2643 15bd
000002d0: 3087 c1bc 1cc1 9d3d ccc3 9abd 1e68 2dbe
000002e0: 6cdc 9ebd 50ed bcbd 596d e9bd 1009 35bd
000002f0: e0c1 aebc 7038 eebd e868 7d3d 2801 3fbc
00000300: 9ca1 77bd 3a66 c5bd b8fd e63c dd72 b0bd
00000310: 5ce9 3ebd 53a6 c1bd 5afc bfbd 2b5b 443d
00000320: 484d af3c ead5 fdbd 39ec 423b f0e9 5bbc
00000330: ef41 b63d d98e 0f3d c5eb 053d 5848 f5bd
00000340: 9f1a 0dbe 7025 a7bc 13b7 07be 8199 6b3c
00000350: 6c9a babd 7e3c f73d afe7 cbbd e851 23bd
00000360: 5f2e 07be b324 03bd aed4 d3bd 8ed9 c63d
00000370: 705b c0bd 4d29 5cbd c349 f8bd b09d 5cbd
00000380: bed9 00be c818 b7bc e3c6 493d 918e bfbd
00000390: 3e91 8b3d 0c01 133d b235 8f3d bc39 41bd
000003a0: 6805 9abc f9ee 023c 42f0 c4bd 292f 1a3d
000003b0: 0fbc 2dbd 8d53 1b3d 6930 12bd 95de debd
000003c0: b27d cebb 99eb 6dbd 6002 b63b b851 8abd
000003d0: d0af 11bd 7054 8fbd ad24 a23c 669e c1bd
000003e0: 7678 b3bd b03a 1bbd 5ce9 fbb9 fe70 02bd
000003f0: 263b b2bd bfcb fabc 89c6 1bbe 41ee a13d
0.026393555 0.06405953 -0.017228128 0.1400731 0.012759492 0.045120474 0.08885391 -0.12542656
0.06387533 -0.057437267 -0.14186418 -0.11023726 -0.09040506 -0.0521909 -0.08974552 -0.11599983
0.039986692 -0.041208357 0.076505214 0.0017744333 0.024958193 0.007431143 0.056506734 0.13105612
-0.06572398 -0.038269524 -0.08597847 -0.041557446 0.07021436 -0.032805283 -0.11291758 0.077775635
-0.04359944 -0.030774342 0.0015078795 -0.093536235 -0.08781401 -0.077071965 0.014292773 0.056388117
-0.102489725 -0.13243312 0.022404954 0.09913685 -0.05849131 0.035639893 -0.010331594 -0.04133519
-0.01036524 0.027934972 -0.006287773 0.040025976 0.042960398 5.7759567e-05 -0.015297404 0.06317753
-0.09577178 -0.04051758 -0.026964819 -0.076071106 -0.04928807 -0.12918371 -0.053523283 0.04422837
0.1631196 -0.058605116 -0.12355489 -0.071884476 -0.060894415 -0.019934546 -0.016522933 -0.13534094
-0.08675118 -0.014015491 -0.10094117 -0.019521013 -0.024855308 0.06030986 -0.13374957 -0.053952266
-0.16892721 0.0070482763 0.027312191 0.06919128 0.08059418 -0.109228425 -0.10411125 0.09242305
-0.052741047 -0.11288627 0.114443354 -0.042221025 -0.033905122 -0.034702934 0.022296976 0.09254164
0.021252632 -0.11869046 -0.12697864 0.025643237 -0.015968138 0.042619437 -0.12957622 -0.15297239
0.11071599 -0.025134519 0.08449923 -0.083231516 0.06547979 -0.06923354 0.03309694 -0.07957992
-0.00882408 -0.079885826 -0.040306054 -0.15111421 -0.01037402 -0.0976962 0.021401636 -0.13210808
0.04550631 -0.023649946 0.045278087 0.02887057 -0.02511127 0.02058618 -0.06961528 -0.056331962
0.03571264 -0.038842224 -0.041486397 -0.09685535 0.03640826 -0.012290549 0.038112562 -0.1580032
0.056192867 0.011182362 -0.0074400497 0.004184112 0.09950021 0.04793932 -0.11620565 0.016474906
-0.13074869 -0.07958386 -0.16250704 -0.09785457 0.104088604 -0.026166784 0.025733583 -0.09717827
-0.044228554 -0.12712955 -0.105001725 -0.064186364 -0.08756971 -0.16831745 0.0014606686 0.11288932
-0.086952455 -0.027533343 -0.15814234 -0.11093031 -0.12565164 -0.08207776 0.054204132 0.063654914
0.06145735 0.009101528 0.14797537 0.101265475 0.027108312 -0.01532269 -0.10025732 0.06857452
-0.13557494 0.045774292 -0.0028209647 -0.03644099 -0.023624033 0.07702848 -0.075568765 -0.16934249
-0.07756886 -0.09224951 -0.113978095 -0.044198096 -0.021332681 -0.11631858 0.061867625 -0.0116579905
-0.060456857 -0.09638639 0.028197154 -0.086156584 -0.046609268 -0.09455552 -0.09374304 0.047938507
0.021399155 -0.123943165 0.002974285 -0.013422474 0.088992946 0.03504834 0.03269555 -0.11976689
-0.13779686 -0.020403594 -0.13253431 0.01437986 -0.09111485 0.12072085 -0.099562995 -0.039873034
-0.13201283 -0.03201742 -0.103433 0.09709464 -0.0939244 -0.053750325 -0.12123444 -0.05386132
-0.12583062 -0.022350684 0.04926194 -0.09353364 0.06814812 0.03588967 0.069926634 -0.0471742
-0.018801406 0.007991546 -0.09616138 0.03764263 -0.042415675 0.037921477 -0.0356907 -0.10882298
-0.006301605 -0.05808601 0.0055544823 -0.06753868 -0.03556806 -0.06998527 0.019792879 -0.0945404
-0.087632105 -0.037897766 -0.00048048317 -0.03184604 -0.08702688 -0.030614732 -0.15212454 0.079067715

node_function_neighbor.4.bias f4 [64]
00000000: ab44 c2bd f2ee 66bd 1e0b 963d 107e 95bd
00000010: 2af9 1bbd fc2d 99bd 4ca6 813d 4c77 5fbd
00000020: 1c7d 08bd 61e7 da3c 27e6 01bd c082 cabd
00000030: f461 f2bd 657f 2fbd c188 223e 6cbe 7e3e
00000040: 30a9 bebc 2946 5fbd 7c84 e0bd db28 913d
00000050: 51f8 0e3d 2662 1e3e 5c59 c8bd 6765 04be
00000060: 855b 0dbe 7436 a9bd 2290 b3bd b44b d4bd
00000070: 3059 983d 6d7c 11be fca1 b03d d5b4 10be
00000080: acb1 1cbe 86b3 f0bd 7ae0 393e 0087 013d
00000090: eeb5 2cbc c269 cabd 0f8e 5e3d 526a b03d
000000a0: 16be db3d 0c31 d9bd 5a52 91bd 282d 403d
000000b0: f2a0 9c3d b162 be3d 8502 883d e3b5 143e
000000c0: cd5c 903d 3112 13be 4d33 04bd 0660 203e
000000d0: 9f96 48bd 5f58 a03d fcf7 223d d578 213d
000000e0: a8f9 a93d 5293 023e c814 cebd 7369 523d
000000f0: 941e b0bd 2099 e6bd 2f9a cf3d bdcf 833d
-0.094857536 -0.05638022 0.07326339 -0.07299435 -0.03807942 -0.07479474 0.06330547 -0.05455713
-0.03332244 0.026721658 -0.03171363 -0.0988822 -0.11835089 -0.042846102 0.1587248 0.24877328
-0.023274034 -0.05451027 -0.109627694 0.07087871 0.03490478 0.15467128 -0.09782669 -0.12929307
-0.13804443 -0.08262339 -0.087677255 -0.10366002 0.07438886 -0.14207621 0.08624646 -0.14131482
-0.15302151 -0.117529914 0.18152037 0.031622887 -0.010541422 -0.09883453 0.054334696 0.08614029
0.107296154 -0.10605058 -0.070957854 0.046918064 0.076478854 0.09296168 0.066411056 0.1452251
0.0704895 -0.14362408 -0.032275487 0.1566163 -0.04897177 0.078293554 0.039787278 0.039421875
0.08299571 0.1275151 -0.100625575 0.051370095 -0.08599582 -0.11259675 0.1013683 0.06436107

node_function_neighbor.6.weight f4 [4, 64]
00000000: f8b5 5bbb 7fd2 df3d b053 f23d 6d81 a23d
00000010: 863b 16bd 97b9 08bd da3a 6a3d 2b2e 873d
00000020: f4ef dabd acc8 6abb 5fc6 893c 558e 5abd
00000030: ea51 c1bd 6d91 e8bc f6dc f9bc 7653 663d
00000040: 3cb7 90bd c22c 08be ddba 4d3d fda3 9f3d
00000050: ef54 b53d 1c62 74bd f499 aabc 80aa 7e3d
00000060: 0bb9 f53d 8606 8fbd 710c e9bc ce64 bcbb
00000070: 41fd 593d e26b 0bbb 2c30 a6bd 190f 9b3c
00000080: 5e51 c0bd 46d9 983d af5e 15bd f5cd f43c
00000090: e231 31bd da9e f13c db55 453d f703 7c3d
000000a0: 2e46 cfbb 2a7b 353d a76a 1fbc 769b b13d
000000b0: c988 823d b8f5 bfbd 65cf bb3d d769 f7bd
000000c0: 7f2d 873d cd7f 263d bd19 8b3c 40a7 e2bc
000000d0: fb11 93bd 8fb0 c33d 8478 db3d d13d 3b3d
000000e0: 67c5 233d 2ae6 febd 48eb a43d 6df2 663d
000000f0: 79ee f6bc 97cc c5bd 6ad5 4a3d 8588 c33c
00000100: d064 87bd 9f54 89bd 1411 12bd 45b6 823d
00000110: f11e b7bc 4655 af3c b901 d5ba 6376 95bc
00000120: 49a7 143e 4035 8a3d 7924 cfbc 08ae a9bd
00000130: 43f8 71bd c87e 5ebd 9662 78bd 9463 3abe
00000140: 6e78 f63d 27f7 ba3c 3022 8cbd a668 bebd
00000150: 6777 75bc 704d c6bd 025e 7b3d 2dd7 433d
00000160: 26fe 093c bceb bebc 325d 2dbd 831e f6bc
00000170: d435 163d 80f6 90bd c8c1 42bd 2cda 40bd
00000180: 92d3 14be 18a1 0dbe c190 713b e5e0 a03d
00000190: c998 f6bd b0bc d1bd 5524 ad3c 427c 5cbd
000001a0: 8bce 81bd 0cb8 66bb f367 7fbd 12fe bebd
000001b0: 14a2 2f3d 209a a7bd 246a e6bd 0664 01be
000001c0: a8df 93bb 6fcd d73d 2b6a a9bd bc4f 09bd
000001d0: c03f b7bd dbda 893c b360 73bd 8cb5 453d
000001e0: f756 eabd 18e6 9bbd 2463 f2bd 5632 443d
000001f0: c835 80bd 5006 8c3d 3c27 c9bd 6d1a 92b8
00000200: c51c eabc b14b 43bd 63ac 74bd f81c 4b3d
00000210: ab4e c4bb 0fa2 62bd cc01 0ebe 9879 00bd
00000220: 7b93 923d ec03 bc3c 59c6 843d cad3 853b
00000230: 41d6 78bd 7c39 af3d 3659 ecbd 0731 243d
00000240: 4894 b3bc b4c4 6d3d cb05 03be 05fe 56bd
00000250: 8f2b 52bc 8730 d3bd f0c9 23bd 1e07 06be
00000260: a89b 94bd 603f c03d f270 5b3d 8489 a6bd
00000270: 0c41 a1bd 6991 c43d a370 843c bcfb e23d
00000280: 0834 abbc 9d26 92bd 4658 2fbe 3b47 a13d
00000290: 9156 edbc e5b0 3cbd b07c dc3d 1551 90bd
000002a0: 6aee c23c 78ec 103c c5dd 39bd 4831 b43d
000002b0: 37d7 203d c6aa 39bc 090c 3f3d 8623 58bd
000002c0: 1787 44bb 81f0 ddbd ddd8 2b3b cda8 bebd
000002d0: 32ac 563d d129 6c3d 9bdd 563d 5de8 223c
000002e0: 1f33 443d ebc7 7cbb 7ed6 fd3d 935b 2c3c
000002f0: e950 7b3d cccf dcbc 9a63 9c3c fd89 f8bd
00000300: fc77 203d e033 74bd 9a42 96bc 8cb1 d43d
00000310: e72a fe3c 1cc6 b53d 6dbd 94bd fa6c 8e3d
00000320: a619 e3bd d6ad 0c3d aa90 133d 7673 a03d
00000330: 1434 2fbd e9f2 49bc 661b 993d a6ab 0ebd
00000340: 4289 cc3d 3030 5c3d 9a6e a9bd d235 0dbd
00000350: 33f2 9dbd 29f7 7a3d bd83 253e 0b69 333d
00000360: 600b a63d 1c15 a83d 4896 ac3c 7808 99bd
00000370: c875 b3bd c633 90bd 7006 533c c4f1 2d3d
00000380: adbc 58bd b495 503d 5bbb 7bbd 9449 903d
00000390: 9ed7 ddbb c8a6 d13d 9a2d 56bb 7b83 eabd
000003a0: bb6a 86bc 73bf b1bd 3071 7dbd 0cd1 243d
000003b0: 5676 773c 4dc2 0f3d dae9 643d 0175 89bd
000003c0: 49ea 8bbe db5f 74bb 544d 43bd 0037 b23d
000003d0: 9778 543d 60ee ce3d 7b0c 3fbc 6d08 853d
000003e0: 1759 213d a03e 203c 5834 d9bd 624a 9e3c
000003f0: 780b a5bd e1a5 51be b631 103c ea62 103d
-0.003352521 0.10928821 0.118323684 0.07934842 -0.03667786 -0.033380117 0.05718503 0.06600603
-0.10690299 -0.0035825176 0.016818224 -0.053358395 -0.09439452 -0.028389657 -0.03050087 0.05623194
-0.07066199 -0.13298324 0.050227035 0.0779495 0.088540904 -0.059663877 -0.020825364 0.06217432
0.11998185 -0.06983666 -0.028448315 -0.0057493215 0.053220037 -0.002127402 -0.08114657 0.018928098
-0.093905196 0.074633166 -0.03646725 0.029883364 -0.043260463 0.029494692 0.04817758 0.06152722
-0.0063255047 0.04430691 -0.009730018 0.0867223 0.06373746 -0.09373039 0.09170417 -0.12080734
0.066004746 0.040649224 0.016980046 -0.027667642 -0.07181164 0.0955516 0.10716346 0.04571325
0.03998318 -0.12446244 0.08052689 0.05638354 -0.03014301 -0.09658163 0.049519934 0.023868809
-0.06611025 -0.06705593 -0.03566082 0.063824214 -0.022353621 0.021402966 -0.0016251124 -0.018244928
0.14516939 0.06748438 -0.025285946 -0.08285147 -0.05907465 -0.054320127 -0.060640894 -0.18202049
0.12034689 0.02282293 -0.06842458 -0.09297304 -0.014982081 -0.09682739 0.06136895 0.04781263
0.00842241 -0.023305766 -0.042325206 -0.030043846 0.03667243 -0.07078266 -0.047548085 -0.047083065
-0.14533833 -0.13830984 0.0036859962 0.07855395 -0.1204086 -0.102410674 0.021135489 -0.05382944
-0.06338223 -0.0035204915 -0.062354993 -0.09325804 0.04287918 -0.08183694 -0.112507135 -0.12635812
-0.004512746 0.1053723 -0.08272203 -0.033523306 -0.08947706 0.016827991 -0.05941839 0.04826884
-0.114423685 -0.07612246 -0.11835316 0.047899567 -0.06260258 0.068371415 -0.098219365 -6.966745e-05
-0.028578172 -0.047679607 -0.059734713 0.049588174 -0.0059908233 -0.055330332 -0.13867873 -0.03136596
0.07157036 0.022951089 0.06483144 0.004084085 -0.060751203 0.08555886 -0.11540453 0.04008582
-0.021921292 0.05804892 -0.12795179 -0.052488346 -0.012827768 -0.1031199 -0.039987504 -0.13088652
-0.072562516 0.09387088 0.05357451 -0.08131698 -0.07873735 0.09598047 0.01616699 0.11083171
-0.020898834 -0.07136271 -0.17123517 0.07874914 -0.028971942 -0.046067137 0.1076597 -0.07046715
0.023795325 0.008845441 -0.04537751 0.08798462 0.039267745 -0.0113322195 0.046642337 -0.052768253
-0.0029987746 -0.10836888 0.002622179 -0.0930954 0.052410312 0.057657067 0.052457433 0.009943095
0.047900315 -0.0038571309 0.12394427 0.01051988 0.06135646 -0.026954554 0.019090462 -0.12135694
0.039176926 -0.059619784 -0.018342305 0.10385427 0.031026317 0.08875677 -0.072626926 0.069543794
-0.110888764 0.03434547 0.036026634 0.078345224 -0.042774275 -0.012325981 0.07475929 -0.034831665
0.09987117 0.053756893 -0.08273049 -0.034475155 -0.077122115 0.061270867 0.16163535 0.04380135
0.08107638 0.08207151 0.021067753 -0.074723184 -0.08762699 -0.07041125 0.012879953 0.042466894
-0.05291431 0.050924018 -0.061457973 0.07045284 -0.0067700883 0.10236889 -0.003268099 -0.11450859
-0.016408315 -0.08679094 -0.061875522 0.040238425 0.015103897 0.03509741 0.05588708 -0.0671177
-0.27327183 -0.003728858 -0.047681168 0.08701897 0.051872816 0.1010406 -0.01166069 0.06495748
0.039391603 0.009780556 -0.10605687 0.019322578 -0.08058828 -0.20473434 0.0088009145 0.03525058

node_function_neighbor.6.bias f4 [4]
00000000: f28a 14be 9840 1fbd d899 a63d 2eaf 92bd
-0.14506128 -0.03887996 0.08134812 -0.07162319

edge_function.0.weight f4 [64, 4]
00000000: fdd4 2b3e 3ee6 c53e c55e e1be 6d00 113e
00000010: 4241 323d 31fa a3be 695e b9be 2e3e b23e
00000020: d525 9bbe 3cc2 73be abc7 003f 6abb 42bd
00000030: 2505 b03e ddd5 043c f5dc 6abe 0d46 ed3d
00000040: 5d8a ac3c b84c cf3d f5f9 45bc 5b4b 593e
00000050: 8336 93be a408 74be 6c50 9cbe 94db c5be
00000060: 7797 dc3d 0a0b f23d 0e92 e03e ef52 173e
00000070: cffd d5be 978d 28be f536 18be 0e4f 9dbe
00000080: d232 f03e 78d2 f0be 9b1b f8be 6395 813d
00000090: 343b cdbc d37e f13e cf94 d3be f6a6 ee3e
000000a0: d682 433e 8794 213e d0c2 0b3e 366b 8a3c
000000b0: f6ae 52bb fb93 d63e 3e91 ccbe 95fc b0bc
000000c0: 238d c83e 881c d8be ecdb 4a3e 2ed1 d03e
000000d0: aaed 99bd f7de 033d 7d49 023e a9ec d33d
000000e0: 0053 88be 1554 6abe 7139 553e 759f a83e
000000f0: fd4e 19be 054c 963c 4ade c03c a55b 78be
00000100: 6427 733e 86c0 b2be 274b 9abd 9aba dfbe
00000110: 18cf 22bd a87f 523e a68a 80bd c4f3 51bd
00000120: 0267 493e c716 843d 9f3c 94be 5020 a4bd
00000130: a569 81be 86a2 7c3e 7a63 c6be cb21 c8bb
00000140: 9ca2 653d 1865 efbe 4eb8 9aba dffe 603e
00000150: 890d ef3e 03ef c53e 8899 91bb 119c a33e
00000160: 1013 f2bd d420 763e 3048 bd3d 80e0 983e
00000170: e4ee 893e 70e0 4a3d e4cc b7be d9de fd3c
00000180: d2e0 603d 0755 fd3e 2465 6c3e e798 8a3d
00000190: a339 63bd e471 b53d b6b5 1ebd e5d8 f53d
000001a0: b950 05bd 3dad 81be bada 9a3d 8d49 b0be
000001b0: 7de4 d8bd d0f8 de3e a914 b6be 693a 813e
000001c0: 53f9 fdbe e6e1 f2be 00b7 7abe cfd8 a73d
000001d0: d2a0 a23e bc44 8ebe c2e8 cf3e 3f06 dfbe
000001e0: c946 20be 3085 3b3e 6445 3a3d 9042 443e
000001f0: b8ac e63e 6e9d e8bd ba9e babd e515 7a3e
00000200: 910a 8dbe fe5b fd3e 7e4a ecbb 83a9 dd3e
00000210: 83bc 3d3c 719c a0be 5e25 abbe e6db debc
00000220: bab0 c3bd a39a c6be c93e c3be 7276 98be
00000230: 89d2 a6be 7b09 793e 1592 9e3d b199 bcbd
00000240: e885 d8be 4978 d13e c2dd b5bc 2970 a53b
00000250: 2235 3bbe a9f3 00be 90e0 fd3e e2f0 d93e
00000260: 0f8f e0be cb19 973e ea82 eabe 44b2 383e
00000270: 6c13 81be 8604 6f3d dc59 efbd a0ae e3be
00000280: 24c5 e03e cbcf fd3e 580e 51bd 73bc c13e
00000290: 88a8 6dbd 827e 853e 5e06 e0be 5803 aebe
000002a0: 7f37 d3be b1da 81bd 6a49 d83c cbdb 4ebe
000002b0: 053e 493e 92a1 fd3e 414d a03d 5258 a13e
000002c0: d36c 84be 88a0 9cbd 2297 a33e 575d d33d
000002d0: d648 8f3e e0a7 363e ebf7 bb3e 4989 d8be
000002e0: 6377 11bd 4e58 e53d 9436 563c 8ab2 823e
000002f0: 647c b33d 767d 043e 9f9f 143d bb1e ea3e
00000300: dbcd c23e 4328 623e 49a1 9abe 3789 ac3e
00000310: dacb 1bbd e9fc 89be 43f1 333d cf9d b23d
00000320: 87e0 d0be 4e70 463e 436d 8a3c c49b 883e
00000330: 41c2 e03d 11da d2be 21e7 79be 2547 68be
00000340: 6498 2abd 88e1 b6be 1ac0 bc3e 60ea 68be
00000350: 2665 e03e 190c a8bd 85ad 8e3e cb89 fe3d
00000360: d90c b0be 3f47 a3bc bae0 c2be b1e2 7f3e
00000370: 3f9b 92bd a05a e53e 10ff 01be 4d2a e1be
00000380: 317c 97be a763 793e ffae 3e3e 9237 e33e
00000390: dec3 b33e a97d 0abc 9831 b03e 9067 c6ba
000003a0: d604 c4be b757 a83d ec60 d03e cc14 653e
000003b0: 1623 82be a029 753e e422 c43e cb68 4dbe
000003c0: 189a d73e 4110 7b3e 4daa e0be 51f8 043f
000003d0: 33dc 9abd e6b1 25be 3f8d 21be 9edf c73c
000003e0: 9d64 c03e 175c 51be f754 853c 7881 573e
000003f0: e61d 9dbe a6da bd3e a464 ef3e 66c6 e7be
0.16780467 0.38652223 -0.44017616 0.14160319 0.043519266 -0.32026818 -0.36204842 0.34813064
-0.303023 -0.23804563 0.5030467 -0.047542013 0.34378925 0.00810763 -0.22935851 0.11585627
0.02106207 0.10122055 -0.01208352 0.21220152 -0.28752527 -0.23831421 -0.30530107 -0.38644087
0.10771077 0.11818512 0.4386143 0.1477773 -0.41795203 -0.16460262 -0.14864714 -0.30724376
0.46913773 -0.47035575 -0.4845856 0.063273214 -0.025052644 0.47167072 -0.4132447 0.46611756
0.19092879 0.15779315 0.13648534 0.016896825 -0.0032147742 0.41909775 -0.3995456 -0.021604815
0.3917018 -0.42209268 0.19810456 0.4078459 -0.07516034 0.032195058 0.12723346 0.10347874
-0.26625824 -0.22883637 0.20822693 0.32934156 -0.14971538 0.018346796 0.023543496 -0.2425371
0.23745495 -0.3491251 -0.075338654 -0.43697053 -0.03974828 0.2055651 -0.06276445 -0.051257864
0.196682 0.06449657 -0.289525 -0.080139756 -0.25275913 0.24671373 -0.3874777 -0.006107544
0.05606328 -0.46756816 -0.0011804195 0.21972226 0.46690014 0.38658914 -0.004443351 0.31955007
-0.11820042 0.2403596 0.09242284 0.2985878 0.26940072 0.049530447 -0.35898507 0.030990051
0.054901905 0.49478933 0.23085457 0.06767445 -0.05547489 0.088596135 -0.03874751 0.1200426
-0.032547686 -0.25327483 0.0756125 -0.34431115 -0.10590456 0.43549204 -0.35562637 0.25239876
-0.49604282 -0.47437972 -0.24483871 0.0819565 0.3176332 -0.27786815 0.40607268 -0.43559453
-0.15652002 0.18312526 0.045476332 0.19166017 0.4505365 -0.11358152 -0.09112306 0.24422415
-0.27547124 0.49484247 -0.0072110286 0.4329339 0.011580589 -0.31369355 -0.33426946 -0.027204465
-0.09555192 -0.38789853 -0.3813384 -0.29777867 -0.325825 0.24320023 0.07742707 -0.09209002
-0.42289662 0.40912083 -0.022200469 0.005048771 -0.18281987 -0.12592949 0.4958539 0.42566592
-0.43859145 0.29511866 -0.45803005 0.18036753 -0.2521013 0.058353923 -0.11687061 -0.44469166
0.43900406 0.49572596 -0.05103907 0.37839088 -0.058022052 0.2607308 -0.43754858 -0.33986926
-0.41253278 -0.0634054 0.026402194 -0.20201032 0.19652565 0.4953733 0.07827235 0.31512696
-0.25864276 -0.076478064 0.31951243 0.103205375 0.27985257 0.17837477 0.36712584 -0.4229224
-0.035514247 0.111984834 0.013074536 0.2552684 0.0876396 0.12938485 0.03628504 0.4572657
0.3804768 0.22085671 -0.30201176 0.33698437 -0.038036205 -0.26950768 0.043931257 0.08721506
-0.407963 0.19378778 0.016897803 0.2668134 0.10974551 -0.41181996 -0.24404575 -0.2268339
-0.041649237 -0.35718942 0.36865312 -0.22745657 0.4382717 -0.082054324 0.2786676 0.12428626
-0.34384802 -0.019931434 -0.38062078 0.2498882 -0.07158517 0.44795704 -0.12694955 -0.43977585
-0.29586938 0.2435442 0.18621443 0.44378334 0.35110372 -0.008452811 0.34412837 -0.0015137065
-0.3828494 0.08219855 0.40698946 0.22371215 -0.25417393 0.2394166 0.3830787 -0.20059507
0.42109752 0.24517919 -0.4387993 0.519414 -0.07561531 -0.16181144 -0.15776537 0.024398621
0.37576762 -0.20445286 0.016275866 0.21045482 -0.30686873 0.37080878 0.4675647 -0.45268553

edge_function.0.bias f4 [64]
00000000: 9219 3fbe 812a b03e a1f4 eabe 5e55 743e
00000010: 8b8a aab9 80fd c0be 9c81 babe 97cb a9be
00000020: 00cf 47be 57c4 0f3e 43b2 98be 0912 79be
00000030: 6c5d 14bc b820 613e 9dcd ecbd 4707 123e
00000040: 4c01 e43e c7a7 763e d67d 053f cf6b 6e3e
00000050: 6d6a fc3e b431 9b3e da68 073f 1537 edbe
00000060: 67bf 9a3e 0a48 e6be 73e4 743e a3da c03c
00000070: cc29 753e fc17 943e 931d c6be d80f 073f
00000080: 80e5 0cbf 1e88 babe 8f2f c2be 9435 6abe
00000090: 0856 d7be dba8 9b3e 44ac a83e d5bb 913e
000000a0: 0904 82be b9c7 0c3e 776f 633e 0c7b 48be
000000b0: 1b8b 65bd c9f4 873e 59ae a1be 95db 7dbe
000000c0: adb3 a73e 667b 44be b59f c63e 68f9 ae3e
000000d0: 33f9 86be 566d 6dbe 0c0b e6be f4e6 f63d
000000e0: 54bc a2be e9af 523d fe5e 3a3e 9de3 e03e
000000f0: 0d58 bfbe 5339 73be 3427 af3e 92d3 c3bd
-0.18662098 0.34407428 -0.45889762 0.2386069 -0.0003252815 -0.37693405 -0.3642701 -0.3316314
-0.19512558 0.14039741 -0.29823503 -0.24323286 -0.009055477 0.21985137 -0.11562655 0.14260589
0.4453224 0.2408744 0.52145135 0.23283313 0.49299946 0.30311358 0.52894366 -0.46331087
0.30224153 -0.44976836 0.23915271 0.023541754 0.23941725 0.2892455 -0.38694438 0.5275855
-0.5503769 -0.36431974 -0.3792691 -0.22872001 -0.42057824 0.30402264 0.32943928 0.28463617
-0.25393704 0.13748063 0.22210489 -0.19578189 -0.056040864 0.26553944 -0.3157833 -0.24790795
0.3275427 -0.19187698 0.38793722 0.34174657 -0.26362 -0.2318624 -0.44930303 0.120557696
-0.31784308 0.051437292 0.18200299 0.43923655 -0.37371865 -0.23752336 0.34209597 -0.09561838

edge_function.2.weight f4 [64, 64]
00000000: 730d 4dbd ecec 493d b433 be3d 32e8 01bd
00000010: 579c f13d 1fe2 feba 5b92 3bbe d80e 1bbe
00000020: c098 b93d fa4c e4bd 33e4 d53c cad6 8abb
00000030: 6bc9 8bbc c488 0abd a0a0 b33d 0e98 27bd
00000040: 8d1b f2bd 2922 24bd 81f2 50be 8fee f63c
00000050: 451a 8fbd 0d19 f6bc 1b51 74bd 50a3 bebd
00000060: f74b 23be befe 6c3d 4e30 d9bc 8921 4bbb
00000070: 1872 67bc 569b 73bc 15c0 3a3e 19b7 0a3d
00000080: e397 703d 0d2f 2ebc 0e65 3ebd c5c3 813d
00000090: ad69 25be 8423 2dbd 2417 dfbd 2b96 07be
000000a0: 9cd6 883c 8dc9 40be c3a9 eebd 3ec2 6ebc
000000b0: 2a50 463d c431 04be 9b0c 3b3c 635e 8c3d
000000c0: 930d 03be 0db8 8e3d 9997 8ebd 7d4a 3abd
000000d0: d551 51bc 9d67 2cbd b1ba 83bc 0427 c6bc
000000e0: b354 bfbd 9999 acbd 1a93 34bd 0713 443d
000000f0: c710 d53d eef5 ca3c 25e6 7f3d d914 fdbd
00000100: 3bcf ac3d 28bb 813d e78e 46bc 5ba1 37bd
00000110: f852 143d 393e 11be b50a 42bc 10a4 883d
00000120: 342b d2bd ece8 31bc 5355 e4bd 5846 973d
00000130: 1390 a6bc d061 e43d c208 383d 7a9b 9b3c
00000140: 7636 ea3b 2647 16bd 21b0 74bc 8b34 10be
00000150: 584c efbd b91d 953d 6c13 dc3c 1cb4 0fbd
00000160: 5f65 2d3c 3329 923d 59d9 ea3a e0c0 e3bc
00000170: cbc7 3bbd 4347 ca3d 2947 c93d 9722 c3b8
00000180: 54d8 b63c 0a48 c23d 4a5d 91bb f7b6 f53c
00000190: 93d8 b43d 10a4 bc3c cb5d 59bd e331 723d
000001a0: aaf3 76bd 55da 8bbc 1a1a 1f3d e524 e4bd
000001b0: 8590 d8bb 70f4 823d d916 c03c d0ed 0ebe
000001c0: 6bf0 143b 8c64 2ebc e98b e7bd 486e 8abd
000001d0: ed1b 02be 63f7 4c3c 76c6 8ebd 0f9e 5c3d
000001e0: 46c5 17bc fb1e 88bd 711d 3cbd 8c97 7bbc
000001f0: 43da 15be f820 b2bd 9843 93bc 73e0 8d3d
00000200: 635e 17be 7e54 923d 9a97 0d3d 4e9e e33c
00000210: cad0 e63c 14b8 8cbd 1511 793d c08d 8dbd
00000220: a977 273d d46d ac3d 2464 9f3d b950 cdbd
00000230: 95b3 e43c ed57 9d3b 1d91 e7bd 1c51 5a3d
00000240: 1e59 6fbd f35c 82bc 3c96 ab3a 1f82 293d
00000250: 9b35 03be b9b4 353c f364 d63d 2114 793d
00000260: a98c bb3d c099 993d 0b5b ebbd c6bf de3d
00000270: 91df be3c 2b41 51bd 11b1 fcbd 4bfe 823d
00000280: 75d1 a9bc 7e52 b93d 6539 a5bd 94a6 3b3c
00000290: 48d8 303d 9ecc de3c 9cde 92bd a914 60bd
000002a0: 6703 49bd 0427 a0bc 656d 00be 404c 9e3d
000002b0: 37ab 6bbd eb4e 75bc a7a6 79bd f35b 48be
000002c0: 12f5 9abc f8de ff3c abc7 d5bd 169c b53d
000002d0: 0cc6 993c 7695 66bd e419 553d 6a9b c5bd
000002e0: 9b40 74bc 538f 953d fc20 8cbd e59b 563d
000002f0: ab7f 18be eda0 0d3c abb4 b5bd 4135 06bd
00000300: 490a c5bc b274 193d 982c 633d 1cf2 1dbc
00000310: a611 6fbb 8b5e 0abd 199d 9c3d 56f1 a7bd
00000320: b21f 89bc 5f60 ea3c d50e 2c3d f977 443d
00000330: 3bdf 643d ac61 24bd 9bc0 bdbd 9393 9bbc
00000340: 6b6f 96bd af3f 02be a6a8 c7bd d671 423c
00000350: b51a b2bd e54a 10bc 4b06 cdbc 1fb3 32bd
00000360: ce57 4f3c 62fc 0c3d fbfb c5bd 7cb2 70bd
00000370: 1c0a 23bd 6f2c bbbc e643 b7bd 8f82 903d
00000380: d9a3 de3d fb05 a2bd c2b2 c43d 9637 bdbd
00000390: 3b72 82bd b1cd 803d 0ce6 61bd f6c3 7f3c
000003a0: ce76 f93c b434 7b3c c986 dcbd 1497 28bd
000003b0: dd01 ddbd 019a bcbd 7659 9abd 1b8b 873c
000003c0: a0e3 8c3d 782b b4bc 8e2c 64bd b4b6 ba3d
000003d0: 49d7 76bc 8050 4bbd da71 ffbc b686 f5bc
000003e0: 8753 c9bd 9ed4 a63c 55aa d93d 5fe7 9dbd
000003f0: 3ace 013e 9969 abbd 391f 5abd 9f51 81bd
-0.050061654 0.049298212 0.09287205 -0.03171558 0.117973976 -0.0019446051 -0.18317549 -0.15142381
0.09062338 -0.111474946 0.02610979 -0.0042370306 -0.017063817 -0.033821836 0.08770871 -0.040916495
-0.11821661 -0.04007164 -0.20405008 0.03014305 -0.069874324 -0.030041242 -0.05964766 -0.09308493
-0.15946947 0.05786013 -0.026512291 -0.003099533 -0.014126323 -0.014868578 0.18237336 0.03386602
0.0587386 -0.010631335 -0.046483092 0.06336168 -0.16153593 -0.0422702 -0.108930856 -0.13240878
0.016703896 -0.18826886 -0.11653473 -0.014572678 0.048416294 -0.12909609 0.01141658 0.0685394
-0.12798147 0.06968699 -0.06962509 -0.045481194 -0.012775858 -0.042091 -0.016080232 -0.024188526
-0.09342327 -0.08427734 -0.0440856 0.04786971 0.10403591 0.024775472 0.062475342 -0.12357492
0.084379636 0.06334525 -0.0121190315 -0.044831615 0.036211938 -0.14183892 -0.011843373 0.066719174
-0.102621466 -0.010858756 -0.11149087 0.07386464 -0.020332372 0.11151469 0.044930227 0.018995035
0.0071476055 -0.036688946 -0.0149345705 -0.14082544 -0.11684483 0.0728106 0.02686473 -0.035083875
0.010583251 0.071367644 0.0017917558 -0.02780193 -0.045844834 0.09876873 0.09828026 -9.3047674e-05
0.02231995 0.094863966 -0.0044361698 0.029994471 0.08830371 0.02302745 -0.053067964 0.059129607
-0.06029097 -0.017071882 0.03884325 -0.111398496 -0.006609025 0.06394279 0.023448395 -0.13957906
0.0022726308 -0.010644089 -0.113059826 -0.06759316 -0.12705965 0.012510153 -0.06971447 0.053861674
-0.009263342 -0.06646534 -0.045926515 -0.015355956 -0.14634041 -0.086976945 -0.017976567 0.06927576
-0.147821 0.07145022 0.034568407 0.027785446 0.02817573 -0.068710476 0.060807306 -0.06911802
0.0408856 0.084193856 0.07782772 -0.10025162 0.027917663 0.0048017413 -0.11306975 0.05330001
-0.0584346 -0.015913462 0.0013091038 0.04138386 -0.12813418 0.011090451 0.10468473 0.060810212
0.09157688 0.075000286 -0.114919744 0.10876422 0.023299964 -0.05108754 -0.1233846 0.06396159
-0.02072976 0.09048937 -0.08067588 0.01145329 0.043175012 0.027197178 -0.071713656 -0.054707203
-0.04907551 -0.019549854 -0.1254173 0.07729387 -0.05753633 -0.014972429 -0.060949948 -0.19566326
-0.018915687 0.03123425 -0.10438474 0.08867662 0.018771194 -0.05629488 0.052026644 -0.096487835
-0.014907981 0.073027276 -0.06842229 0.052394766 -0.14892451 0.008644325 -0.0887235 -0.03276563
-0.024052756 0.037464805 0.05546245 -0.009640243 -0.0036479025 -0.03378157 0.076471515 -0.08200328
-0.016738746 0.028610406 0.042006332 0.047965977 0.05587695 -0.04013221 -0.09265252 -0.018991267
-0.0734547 -0.12719606 -0.09748964 0.011867961 -0.086965 -0.008806919 -0.025027415 -0.043627854
0.012655212 0.03442038 -0.09667202 -0.058763966 -0.039804563 -0.022848336 -0.089484975 0.07056152
0.10871095 -0.07911297 0.09604408 -0.09239118 -0.06369444 0.062892325 -0.05515103 0.015610686
0.030452158 0.01533239 -0.10767896 -0.041159704 -0.10791371 -0.092090614 -0.075365946 0.016545823
0.068793535 -0.021993384 -0.055706553 0.09116879 -0.015065976 -0.049637318 -0.031182218 -0.029971462
-0.09830385 0.020365056 0.106281914 -0.07710146 0.12676325 -0.083697505 -0.053252432 -0.06314396

edge_function.2.bias f4 [64]
00000000: d3ad 2fbe 2640 d43d 3df3 e23d c237 0c3d
00000010: 48be 6b3d 03b0 1b3d a94a 01be f296 febd
00000020: 0a12 cd3d 0dec 393e d6fd 04be 9447 223e
00000030: 4d4a 8bbd 3f11 10be 272f 373e e0f3 dc3c
00000040: 0bf5 b1bc 7ffa 82bc 01bc ca3d 06fe dc3c
00000050: 55af 873d aafc 6c3d 0077 cebd b356 0e3e
00000060: 3c92 623d 9074 31bc 68b5 ffbd 186d 883e
00000070: b252 f9bd 4c32 873c 474f 653d ac65 2b3d
00000080: 297f b13d 2d59 9a3d cb2d 8f3c dd46 ddbd
00000090: eb26 eb3d 80fe b8bd 1000 f93d ec9d babd
000000a0: 442f 3abd 2331 a73d 0ad7 00be 65d1 573c
000000b0: e9f2 993d c269 143e be73 b13d 7bd3 943c
000000c0: 29f8 cbbb 9859 04be 50b6 f13c 647a 2c3e
000000d0: 5cbb 17bd 270e 5e3e 906b a1bd 257a 0c3d
000000e0: bd19 623e b93d 5a3d a6d9 993c aafb 6dbd
000000f0: e8cc 92bd 0285 0fbe 68cd 593d 0d3f 2ebe
-0.17156152 0.10363798 0.1108155 0.034232862 0.057554513 0.038009655 -0.12626137 -0.12431134
0.10013206 0.18156452 -0.12987456 0.15847617 -0.06801281 -0.14069079 0.17889081 0.026971757
-0.02172329 -0.015988586 0.0989914 0.026976597 0.06625239 0.057858147 -0.10081291 0.1390026
0.05531524 -0.010831013 -0.12485772 0.26645732 -0.12173976 0.016503476 0.055983808 0.04184501
0.08666832 0.0753654 0.01747789 -0.10804532 0.114820324 -0.09032917 0.12158215 -0.091121525
-0.045455232 0.08163669 -0.12582031 0.013172482 0.075170346 0.14493468 0.08664654 0.018167248
-0.0062246514 -0.12924802 0.029505879 0.16843563 -0.037043914 0.21685086 -0.07881844 0.034296174
0.22080131 0.05328152 0.01878054 -0.058101334 -0.07167989 -0.14015582 0.053174406 -0.1701624

edge_function.4.weight f4 [64, 64]
00000000: 6cb3 30bd d208 47bd c0d4 0fbe 6065 713d
00000010: d416 ddbd 96e5 3ebd 94aa 883d 668b 263c
00000020: 9b33 b8bd 02bf 10be aa8c d3bd 9a32 08bd
00000030: 289e e43c 65b9 87bd f9a3 ddbd e9d6 18bc
00000040: d517 0fbe fc6a d4bd 4cdb 8dbd a2f6 48bc
00000050: 6e73 64bd aa19 18be bb6b 313d 538c a7bc
00000060: aea7 97bd c405 73bd 9630 a8bd 40c5 4abb
00000070: f208 993d c84d c1bc fe93 afbd 52d3 05be
00000080: 7848 dfbc 706f 8f3c 98d9 b7bc 3861 a43d
00000090: ec0a a8bd 78cc 05bd 64f7 5abd 8a87 b13d
000000a0: 50b7 2dbd 82f5 b53d 38ac 04bd 59e2 033d
000000b0: 1487 0fbe f0a5 2ebc fba7 b9bc c045 293b
000000c0: 00b1 173b c814 693d 565b 1bbe 02ec 543c
000000d0: 5350 84bd 8209 e1bd 4c05 b9bd f8a1 dbbd
000000e0: 82c7 e6bb ee4d fd3d eeed a43d 3aeb d8bd
000000f0: 3cdc acbd ed94 bc3d 8880 963d 8c9c 17be
00000100: b325 8a3d 679b 9bbd 223e 9bbd f6e3 a4bc
00000110: 4425 0ebd eaa3 bcbd c336 25be 6bfa 18be
00000120: 022a 0c3d 3704 33be 6867 debb e99b bbbd
00000130: 8e98 31be ffcb 333d 126a 503d c910 f0bd
00000140: 26a9 483d 5337 4cbd fbd6 713d d141 0ebe
00000150: 8e93 c1bd 690a 45bd 3019 eebd f849 b2bd
00000160: c8d1 98bd e59f d2bd ccb9 6fbd 10a2 7dbc
00000170: 4491 7fbc 2d5e 0b3d db64 423d a523 9bbc
00000180: 911d a838 12a4 42bd e0c7 1fbe 5ab2 9f3d
00000190: c3b1 87bc 485b 87bc 79c4 78bd 222c 39bb
000001a0: 4828 233d 2e9e d7bc 5cc6 31be 937d 833d
000001b0: 9c80 1dbe 65e7 88bd 956e f1bc 702f c3bc
000001c0: 8d41 7ebc ed39 8cbd 4170 493d 7e1b e0bd
000001d0: 60a2 c7bc 4fa1 2cbe 34a9 e7bd 3071 a03d
000001e0: bfda a33d 0e51 303d d55e 85bb 414d ec3c
000001f0: 3d40 843d 5f82 e2bc baf6 833d 7e3a 833c
00000200: 05b2 443d e306 1b3d bcc1 9cbd 847f b9bd
00000210: 33af 343d 1562 13be 797d 34bd 9af4 08be
00000220: 8d91 023e 6749 7b3d aba7 d23d cb83 ac3d
00000230: 4748 0ebe 2769 9b3d d93d dfbd fd1b ec3c
00000240: 0a0d 12bd 2678 2bbd 8648 953b 7d26 7bbd
00000250: 552b 0bbe bd68 093d bf41 72bd 5cda c9bd
00000260: 752e 17bd 157d d7bd 7528 cabd 9d9e 64bd
00000270: 2d76 b6bc e76c 7cbd 4ff7 763d 3856 15bd
00000280: 9905 15ba 4b60 8cbd 9fb6 ab3d 6556 d9bc
00000290: 1957 023d de0c f83d 62b2 86bd 88a6 e5bd
000002a0: aadd 12bc d171 fabd 24ff febd 622d 1dbd
000002b0: 4818 e9bc 7ba8 f1bd 14c3 193d 4fe7 62bd
000002c0: 246b c7bd 74d8 3abd d43d 0abe 94a3 99bd
000002d0: 6203 5f3b 4af1 85bd 4855 5d3d dd2e d13a
000002e0: 04d0 983c c670 8cbd e563 ddbd e00c f0bd
000002f0: 7b5e c5bd 1e9f 7c3c 706d f43b 260a 453d
00000300: 41c5 ddbd 4e6b 983d 692d 3ebd 75b6 103d
00000310: 1273 113e 3249 973d 7474 83bd a8ea df3d
00000320: ca47 023d a65f c73d f01c 9f3c bb32 ac3d
00000330: 74a8 ee3d 8b1f 07bd c50d 02bd e667 d53d
00000340: b1be c73b 266d b93d f1d6 d33c ef2a 15bd
00000350: c048 663c cf54 283d 017f a5bc 048e 003c
00000360: 8977 e3bc f1f6 96bd 8aa7 e63d cdbf 633d
00000370: e093 953d de5a 043e bd81 59bd b020 8c3d
00000380: f822 d53d 5000 d5bb 6475 2dbb cbd9 88bd
00000390: f405 aebd f26b b0bd 4dc3 c3bd 3f80 78bd
000003a0: f404 243d 3669 58bd e8a3 583d 8db4 d43d
000003b0: e16b ec3c 81ed d73d 012d d73d 2928 4bbd
000003c0: 69da e0bc 04d3 7fbd 4ed8 033e 1a00 8c3d
000003d0: eb92 50bd 5c7c f7bd d8a1 babd b608 eebb
000003e0: bb56 97bd 20dd 413d 8c85 66bd efc0 db3d
000003f0: 651e 58bd 1a18 043e abc4 bf3d 0aae a93d
-0.04313986 -0.048592396 -0.14046001 0.05893457 -0.1079537 -0.04660567 0.0667316 0.010165071
-0.08994218 -0.14135364 -0.10329564 -0.033251382 0.027907446 -0.06627158 -0.10822291 -0.009328582
-0.13973935 -0.10371968 -0.06926593 -0.012265833 -0.055774145 -0.1485354 0.04331563 -0.020452654
-0.07405029 -0.05933167 -0.08212392 -0.0030940324 0.07472409 -0.02359666 -0.08573149 -0.13068894
-0.027256235 0.017509192 -0.022442624 0.080263555 -0.08205208 -0.0326657 -0.053458586 0.0866843
-0.04241115 0.088847175 -0.032390803 0.032198284 -0.14016372 -0.01065968 -0.022663107 0.0025828928
0.0023146272 0.056904584 -0.1517156 0.012995722 -0.06460633 -0.109881416 -0.090342134 -0.107242525
-0.007042826 0.123683795 0.08053194 -0.10591741 -0.08440444 0.09208093 0.07348734 -0.14805812
0.06745472 -0.07598 -0.0758021 -0.020128231 -0.034703508 -0.092109516 -0.16134171 -0.14939277
0.03421975 -0.17482077 -0.0067872293 -0.09160597 -0.17343351 0.043895718 0.050882407 -0.117219515
0.048989438 -0.04985745 0.059042912 -0.13892294 -0.09451972 -0.04810563 -0.11625898 -0.08705515
-0.074618876 -0.10284404 -0.0585268 -0.015480533 -0.015598599 0.03402536 0.047459465 -0.018937895
8.0163714e-05 -0.04751975 -0.1560359 0.0779769 -0.016564256 -0.016523018 -0.060734246 -0.0028255065
0.039833337 -0.026320543 -0.17360824 0.06420436 -0.15381092 -0.0668476 -0.029471675 -0.02382633
-0.015518558 -0.06846986 0.04917932 -0.10942744 -0.024369419 -0.1685841 -0.1131157 0.07834089
0.08000707 0.04304605 -0.0040701427 0.028845431 0.06457565 -0.027650056 0.06443544 0.016019102
0.048021335 0.037848365 -0.076541394 -0.09057525 0.044112395 -0.14392884 -0.044064973 -0.13374558
0.12750836 0.0613493 0.102858864 0.08423575 -0.13894759 0.075884156 -0.109004684 0.02882194
-0.035656966 -0.04186263 0.0045557646 -0.061316002 -0.13590749 0.03354715 -0.05914473 -0.09856102
-0.03690954 -0.105219044 -0.09870998 -0.055815328 -0.022273147 -0.061627295 0.060294446 -0.036459178
-0.0005684733 -0.06854304 0.083844416 -0.026530454 0.031821344 0.12111829 -0.065769926 -0.11213404
-0.008963982 -0.1222874 -0.12451008 -0.03837336 -0.028453961 -0.11799713 0.037539557 -0.055396374
-0.09737232 -0.045616582 -0.13500148 -0.07501903 0.0034029116 -0.06540163 0.05403641 0.0015959401
0.018653877 -0.06857447 -0.10810069 -0.11721206 -0.09637161 0.015418796 0.007459335 0.04810538
-0.10828639 0.07442342 -0.046430025 0.035330255 0.14204052 0.07387008 -0.06418696 0.10933429
0.031806745 0.0973504 0.019422978 0.084081136 0.11653224 -0.032989066 -0.031751413 0.10420208
0.0060957302 0.090540215 0.025859328 -0.036417898 0.014055431 0.041096505 -0.020202162 0.007846359
-0.02776696 -0.07371319 0.11262424 0.055602837 0.073035955 0.12925288 -0.053102244 0.06842172
0.104070604 -0.0065002814 -0.0026467675 -0.06682166 -0.08497229 -0.08614339 -0.09558735 -0.06066918
0.040043786 -0.052834712 0.05289069 0.10386 0.028860034 0.10543347 0.10506631 -0.049598847
-0.027447896 -0.0624571 0.12875482 0.06835957 -0.050921362 -0.120842665 -0.091129005 -0.007264222
-0.073895894 0.04733002 -0.056279704 0.107301585 -0.05276336 0.12899819 0.09363683 0.082851484

edge_function.4.bias f4 [64]
00000000: a774 223d 3155 8e3d cd47 c03d 32ec 6bbd
00000010: 0af3 c93a ac62 9d3d b573 34be f04f 07bd
00000020: ca00 82bd 54d7 a9bc 6c25 a1bd 8380 18bd
00000030: 85ff 08bc e0b6 3c3d 5548 0cbe c0ed 2cbd
00000040: a27c d93d d4e6 a6bd dad9 4a3d e7ce 6c3d
00000050: 6e42 18be fcfa c73d 432e 3d3d 986f e13d
00000060: f89e 84bd 9178 24bd 7366 1c3e 3337 153e
00000070: 4f48 303d dcc3 abbb 154a 0f3d 8978 d83a
00000080: c61c 223e 3cfc 8c3d 3e88 183e 9848 35bc
00000090: 5abb c5bd 06e2 b03b 9362 a93c 2ef9 b13c
000000a0: 24bd b63d 61c0 f63d f333 37bc 4534 213d
000000b0: 4d56 c8bd d19e a5bc d438 b0bd ebf4 263e
000000c0: 8732 24bb fe03 af3d 11eb 433e 57ab 253e
000000d0: 2271 8abd 3ce8 2f3e 2be4 b2bd 1a67 0a3e
000000e0: c00a ab3d e90d 07be f3e8 d3bd 53dd 093e
000000f0: 9130 0dbd ea4f 9bbd 370a 36bc 5bcf e23d
0.03966203 0.06949843 0.09388695 -0.0575983 0.0015407514 0.07684836 -0.17622264 -0.03303522
-0.06347807 -0.02073256 -0.07868466 -0.037231933 -0.008361702 0.04607284 -0.13699467 -0.042218924
0.10619475 -0.08149496 0.049524166 0.057814505 -0.14869091 0.09764668 0.046186697 0.11007613
-0.064756334 -0.040154044 0.15273456 0.14571838 0.04303771 -0.005241854 0.03498276 0.0016515414
0.15831289 0.068840474 0.14895722 -0.011064671 -0.09654875 0.005398038 0.020676887 0.021725263
0.089227945 0.12048412 -0.011181819 0.03935649 -0.097820856 -0.020217331 -0.08604589 0.16304366
-0.002505453 0.08545683 0.1913264 0.16178642 -0.067598596 0.17178434 -0.08734926 0.13515893
0.0835166 -0.131889 -0.10347166 0.13463335 -0.034470145 -0.07583602 -0.011110834 0.11074706
