Projects/GuoxiangGrayson_T_A study of multi-fidelity graph neural networks/Model_save/Canti2D/Rank=75-GNN-nB-64-Lr-0.005/model.pth (torch, 114781 bytes, 24 tensors)

node_function_neighbor.0.weight f4 [64, 2]
00000000: 537d cd3e edf7 46be a09a 92be c688 a73d
00000010: 6eab 05bf 0427 b63d 5bd6 46be 01fb fc3e
00000020: 4e56 0c3f a481 3bbe a3b3 243f b979 28bf
00000030: 2cd9 b73d 11f1 623e 8cb0 2b3f c08c 24bf
00000040: 0a52 1abf a73c c53e dd5e bfbe 920b 253d
00000050: f5cc 38be 7df4 163e ecb1 e03e eaf9 553d
00000060: 6a61 f33e 4464 043f fe5d f2be b392 b7be
00000070: 3ec6 b33e 2c22 85be 7aae 723e 93d5 95be
00000080: ae21 253e 701f 113c 1d7a 76be 9610 203c
00000090: 5b73 a0be 5359 3abe 9327 2fbf b958 19be
000000a0: e1fe cc3e 4d44 abbc 2e6a 133f 2125 5fbe
000000b0: b96e ffbc df18 063f 6623 473e 0fc3 aa3d
000000c0: 6034 613e 3f84 96be 534c 233f 632c ffbd
000000d0: 595e 02bf b24e a23e a8cc 81be cae9 cabe
000000e0: aca3 cb3d 70a5 6c3e 0478 b03e 8f32 2bbf
000000f0: 6ef1 10bf cfb5 b73e ceea 853c c407 c03e
00000100: aa7d 1dbf c475 23bf 20b2 3d3d 3007 fd3e
00000110: 8b85 93be 1d6a bebe 98c4 f73d d166 7abe
00000120: 8dc8 a33e 0934 5abe b4fd 253e 4414 40bd
00000130: 646b 7c3e 514e 21bf 21c0 41be 8679 1d3f
00000140: 4e5c 843e 2dcd 3bbd 5752 f6be b19e a43e
00000150: 6769 113f 92f6 7bbd 75b2 1b3e db20 bd3e
00000160: 3628 323e bc6b d6be 3a87 ebbe 82d0 bc3e
00000170: c919 143f 6619 b33d 48b2 ab3e 696b 2abf
00000180: 48e1 843e 86cf 1a3e e32e 99be 95ac ce3d
00000190: 5e04 c23e f0da 883e 1e1b e8be 0964 c33e
000001a0: 66e8 c8be 2861 7c3d b57f 8dbe e0d2 083f
000001b0: 3b38 383d 91a4 6cbd 7d5b ff3e fd8b 27bf
000001c0: 3bff 813e a7bc 523e 3ac7 16bf b3ee cd3d
000001d0: 295d 3ebe 8dba 84bc 93fd e0bc 363a 213f
000001e0: 8a31 cdbd 7bbe 813e d9f3 63be a8a9 0cbe
000001f0: 57c5 e13e bb78 dd3d d9cd 18bf bfc1 ddbd
0.40134677 -0.19430514 -0.28633595 0.08180384 -0.52214706 0.088941604 -0.19417708 0.4941025
0.5481919 -0.18311173 0.64336604 -0.65810734 0.08976969 0.22162272 0.67066264 -0.6427727
-0.6028143 0.38522837 -0.37377062 0.040294237 -0.18046935 0.14741702 0.43885744 0.05224029
0.4753526 0.51715493 -0.47337335 -0.3585411 0.35112184 -0.26002634 0.2369937 -0.29264507
0.16126129 0.008857593 -0.2407002 0.009769579 -0.3133801 -0.18198137 -0.6841976 -0.14975251
0.40038207 -0.020906592 0.5758389 -0.21791507 -0.031180726 0.523817 0.19447097 0.08337986
0.21992636 -0.2939777 0.63788337 -0.12459638 -0.50925213 0.31700665 -0.25351453 -0.39631492
0.09943327 0.23109984 0.34466565 -0.6687402 -0.5661839 0.35880896 0.016347315 0.37505925
-0.61519873 -0.6385157 0.04631245 0.49419546 -0.28812823 -0.37190333 0.12098044 -0.24453284
0.31988946 -0.21308912 0.16210061 -0.046894327 0.24650341 -0.63010126 -0.18920948 0.61513555
0.25851673 -0.045849968 -0.48109695 0.32152322 0.56801456 -0.061514445 0.15204795 0.3693913
0.17398152 -0.4187907 -0.46001607 0.3687783 0.57851845 0.08745079 0.33534455 -0.66570145
0.25953126 0.15118226 -0.29918584 0.10091511 0.37893957 0.26729536 -0.4533319 0.38162258
-0.39239806 0.061616093 -0.27636495 0.5344677 0.0449755 -0.05777413 0.49874488 -0.6544798
0.25390038 0.20579778 -0.58897746 0.10055294 -0.18590225 -0.016202236 -0.027464664 0.6297945
-0.100192145 0.25340638 -0.22260989 -0.13736594 0.4409587 0.10814043 -0.596891 -0.1082797

node_function_neighbor.0.bias f4 [64]
00000000: 8d50 36bf f00a 07bf 6d52 3c3e d78f 383e
00000010: 2b44 0e3f 1678 febc 1989 7cbc a5e6 e33c
00000020: 437b 163e 0acb 97be 10dd 18be f84b b2bd
00000030: 4950 8e3d dcdb 27bf aa4c eb3e 5d95 213e
00000040: 26e5 8c3e 2722 06be 1c35 f3be b07e ef3e
00000050: 0f9f 06bf 94a7 0bbf 24e6 b63e d3f2 9d3e
00000060: 9861 26bf 8e98 1b3f e583 613e 3680 263f
00000070: 2b71 31bf 13c2 71bd f41a f33d 8fd0 a73e
00000080: 2dc5 e93d 48be 3dbf ff4b 28bf c026 e43d
00000090: 30c9 933e 7493 ebbe 15d6 283f b034 04bf
000000a0: 74b4 fbbe 0b86 8c3e 7af6 9f3d 4318 03bf
000000b0: c9da bfbe ff87 bdbe 8a3a b53e fd6f 2abf
000000c0: 92d3 253f 4f64 05bf 32b4 943e bf1c 143f
000000d0: 858d 33bf cc11 25bf 39a6 2f3f b174 2bbf
000000e0: faa3 1c3e 0b46 323f 4d03 5bbe 0c2d 4a3e
000000f0: 9ed4 283f cba3 043f 5b38 25bf 814c 2bbf
-0.7121666 -0.52751064 0.18390818 0.1802362 0.55572766 -0.03106312 -0.015413546 0.02781994
0.14695458 -0.29647094 -0.14928079 -0.08705896 0.06948907 -0.65569854 0.45956928 0.15779634
0.27518576 -0.13098966 -0.47501457 0.46776342 -0.52586454 -0.5455258 0.35722458 0.30849323
-0.64992666 0.60779655 0.2202297 0.65039384 -0.69313306 -0.059022974 0.11870375 0.32776305
0.114145614 -0.7411847 -0.6574096 0.111402035 0.2886443 -0.46010935 0.65951663 -0.51642895
-0.49161112 0.27446017 0.078106835 -0.51208895 -0.37471607 -0.3701782 0.35396224 -0.6657713
0.64775956 -0.52106184 0.29043728 0.57856363 -0.70137817 -0.6448028 0.6861301 -0.6697493
0.15296927 0.6963813 -0.21387978 0.19743747 0.6594943 0.5181243 -0.64539117 -0.6691361

node_function_neighbor.2.weight f4 [64, 64]
00000000: 0210 0f3d a077 f43c 0ca8 703d dcf3 cfbd
00000010: fc23 aa3d 5ab0 af3d 917b 13be a4a8 13be
00000020: bc5e eebd 522e c5bc 4d19 bc3c 63d1 fdbd
00000030: e25e dcbd 461f 443d 7826 b0bc 2a51 803d
00000040: df61 dfbd 918f 53bd 9728 f1bd 68e4 f53c
00000050: 4adf a43d ca7d fe3c 2d97 8c3d 3631 47bd
00000060: f3d3 c13c 4a11 c6bd 7288 0c3d c0a2 103d
00000070: d85d 2b3d 0f09 1bbd 26ba fbbd af50 c43d
00000080: 366b f2bd f900 cbbd 996b f7bd a75b 06be
00000090: 0fcc a7bd 83d9 f5bb 8c6e 33bd 80c1 86bd
000000a0: c6d8 47bd bc22 12be 22f7 cfbd c534 1abe
000000b0: 30eb ad3d b1d0 55bc 080c dbbd bcc8 11bd
000000c0: 84bf 823d 8c16 9a3d f3fa a53d 6c83 a63d
000000d0: 9133 57bd 55ba 913c 92e8 0ebe 14cd bb3d
000000e0: c6d3 3f3c 7bb3 0f3d 21a6 9c3d 4910 9b3d
000000f0: 3c01 7fbd f9f6 03be 9445 453d 359d c13d
00000100: c987 e2bd 349f 98bd e733 bdbd 60c2 a43c
00000110: 0c98 15be ebeb 0fbe 8ebd 2abc 9576 9dbd
00000120: d0ff a7bd e958 ac3d e464 373d 4f55 9ebc
00000130: f0be a9bd 214e d63d 1ceb 87bb e713 15bd
00000140: 0070 07be 4892 113e ec09 a73d bd53 543d
00000150: b8a2 fabd 577f 1cbe 3a61 7bbd df3d ae3d
00000160: 555f 573d 402b ad3d 289c abbc 7a90 5cbd
00000170: 6870 a1bd dbcf 4c3d c8f1 05bd ce36 c83d
00000180: c293 1bbe 40c7 9bbb 2024 a13c 50fe 363d
00000190: 699a e53b 45d0 23bd 2b76 44bd 10e9 74bc
000001a0: ae4c 2bba 002f 633c c5bf 903d 8012 a53b
000001b0: 8d98 993d 7cb6 b7bd 981f 2cbd 59dc 4b3d
000001c0: e3cb 813d c05e 1e3c 755e 53bc 203e d13c
000001d0: e6e6 9dbd 8ee3 cc3d 4fbd d9bb 95b6 d8bc
000001e0: ec22 b13a d408 0c3d 4cb2 a8bd b44d b6bd
000001f0: 795a f03c 5516 7bbb 26f4 cabd 1f39 a8bd
00000200: 3360 afbd 7ac9 29bd 6a92 91bd b351 96bc
00000210: 46c3 cc3d f47d a13d 1b64 7ebc 27a2 54bd
00000220: 804e d3bd b5c8 57bd b7f0 0c3d cf9a 99bd
00000230: 8a14 b03d 929d 0a3d fe61 e7bd 0d1b 833d
00000240: dc2f 8e3d 305f 10bd 1ddb 6ebd cecc 0b3d
00000250: ab35 343c 4bef 803d 2a54 13be fc88 43bd
00000260: e658 c83d e01f cf3d bde6 26be d670 8d3b
00000270: 9885 893c 5b76 b33d c46a 1cbe 7f43 e33c
00000280: be94 eb3c 3b7b 01be 7b7a 54bd cc3d 443d
00000290: e2c6 9bbc 46b5 073c 32ae cebb 67a2 613b
000002a0: 0b90 92bc 2428 d7bd 6975 c0bd f8c3 6b3d
000002b0: 85ae d53d 4c21 2bbe 3f8c 293d 4995 76bb
000002c0: 62f8 fd3d d13c 6cbd b923 bdbb 7049 1bbc
000002d0: 1b50 5a3d b5aa 073d f85a b63d cf81 82bd
000002e0: d6ac 973d d186 1bbd 1faf 09be c7fb 723d
000002f0: ab89 723d a5c0 c93d 8e8f 7abd 59c9 d2bd
00000300: 51ba 8c3d c683 91bd eb5e ff3a 09b3 9f3c
00000310: b120 4fbd d51c eb3c 0f15 c23d dd17 743d
00000320: 0efc cb3c e396 aabd c40b 84bd e2d8 b23d
00000330: 79dd babd b668 38bd 0eed c1bd 1c01 02be
00000340: faea f7bd 995c 37be c4e5 85bd 55a7 6b3c
00000350: a4b4 d53b d282 babd cb7a 45bd 00ec 29bd
00000360: 0a17 09be 77e5 31bd 2355 e9bd 8559 b4bc
00000370: 429c a83d 2000 8d3d 18bb a0bd 86ec 0fbe
00000380: 9870 833c e356 a43d 6aae 02be a24b babd
00000390: a585 a7bd fe24 c7bc 36ff c4bd f2e5 92bd
000003a0: b421 a73d dec2 703b b89b 0fbe a296 a3bd
000003b0: a5d8 e0bc 386b e6bd 4a28 05bd e592 a6bd
000003c0: 89d2 cf3d 7165 02be 1287 d3bd b765 1bbe
000003d0: e3a5 323d 2c33 07be 8eba 0dbd 4dce d23c
000003e0: 471c 64bd e557 84bd f8b5 ea3b effa 3e3d
000003f0: bbb8 caba b38d fc3c 972c 063e 300d 6bbc
0.034927376 0.029842198 0.058754012 -0.10153934 0.08307645 0.08578558 -0.14402606 -0.144198
-0.11639163 -0.024069939 0.022961283 -0.12393453 -0.10760285 0.047881387 -0.021502718 0.06265481
-0.10907339 -0.051650587 -0.1177532 0.03001614 0.080504015 0.03106584 0.06864772 -0.048630916
0.023660636 -0.096712664 0.034309812 0.03531146 0.041837543 -0.037850436 -0.12291364 0.09585702
-0.11836855 -0.09912295 -0.120810695 -0.131209 -0.08193218 -0.007502736 -0.043806598 -0.06579876
-0.048790716 -0.14271063 -0.10154559 -0.15059192 0.08492124 -0.013050244 -0.10695654 -0.035591826
0.06384185 0.07523832 0.081045054 0.081305355 -0.052539412 0.017789045 -0.13955906 0.09169975
0.011708206 0.035083275 0.07648874 0.075714655 -0.062257037 -0.12887181 0.048162058 0.09453813
-0.11061055 -0.074522406 -0.09238415 0.020112216 -0.14608783 -0.1405484 -0.01042117 -0.07688633
-0.08203089 0.08415396 0.04477395 -0.019327788 -0.082883716 0.10464121 -0.0041479003 -0.036395933
-0.13226318 0.14215958 0.08156189 0.05183767 -0.122380674 -0.15282951 -0.06137202 0.08507895
0.05258115 0.08455515 -0.020948485 -0.05384872 -0.07882768 0.050002914 -0.032701284 0.09776078
-0.15193084 -0.004753977 0.019670546 0.044676125 0.0070069325 -0.039993543 -0.047964256 -0.014948145
-0.00065345585 0.013866186 0.07067827 0.0050376058 0.074998 -0.08970353 -0.042022318 0.049770687
0.063377164 0.009666145 -0.012900938 0.025542319 -0.07710056 0.1000434 -0.006644882 -0.02645425
0.0013514436 0.034188107 -0.082371324 -0.089015394 0.029340016 -0.0038312871 -0.09909849 -0.0821402
-0.085632704 -0.04145191 -0.071080044 -0.018349504 0.09998183 0.07885352 -0.015526797 -0.051912453
-0.10317707 -0.052681644 0.03440925 -0.075002305 0.085976675 0.033841677 -0.112979874 0.06401644
0.06942722 -0.035247028 -0.05831443 0.034130864 0.010999124 0.062956415 -0.14387575 -0.04773806
0.09782581 0.101135015 -0.16298957 0.0043164296 0.016787335 0.08762809 -0.15275103 0.027742146
0.02875745 -0.12644665 -0.05187462 0.047910497 -0.019015733 0.008282965 -0.006307387 0.0034429075
-0.01789095 -0.10505703 -0.09397394 0.057559937 0.104336776 -0.1671192 0.041393515 -0.0037625602
0.12400891 -0.057675187 -0.0057720807 -0.009477958 0.05329905 0.033121783 0.0890407 -0.06372415
0.07406013 -0.037970368 -0.1344571 0.059322145 0.05921332 0.09851197 -0.06117206 -0.1029231
0.068714745 -0.07105212 0.0019483244 0.01949455 -0.050568286 0.028700272 0.09476673 0.05959307
0.024900462 -0.083295606 -0.064475566 0.08732773 -0.09124274 -0.045021735 -0.09469043 -0.12695736
-0.12105365 -0.17906417 -0.06537965 0.014383157 0.006521778 -0.09106983 -0.048212808 -0.041484833
-0.13387695 -0.043431725 -0.11393192 -0.022015342 0.08232929 0.068847895 -0.07848185 -0.1405507
0.0160449 0.08024385 -0.12761846 -0.09096457 -0.081797875 -0.024309631 -0.0961899 -0.07172765
0.08160725 0.0036737244 -0.14024246 -0.07987715 -0.027447054 -0.11250919 -0.032509126 -0.08133487
0.10147578 -0.1273401 -0.10328497 -0.1517552 0.043615233 -0.13203114 -0.03460174 0.025733138
-0.05569103 -0.06462077 0.0071628056 0.046626028 -0.0015466431 0.030829286 0.13102947 -0.014346406

node_function_neighbor.2.bias f4 [64]
00000000: 2bb9 a53d 3e0a 19be c542 b23d ccd3 433b
00000010: ca18 0bbe e027 553c 8d60 c23d 2d93 c1bc
00000020: ee11 b3bd 9e1f c2bc 08a3 8bbd 975f ca3c
00000030: 0211 5abd b7e8 70bc caa8 01be 897f fdbc
00000040: f366 ccbd 4a08 173e de02 5a3d 7735 97bd
00000050: dda7 853d 32bf 843b 785d 833d d945 ab3d
00000060: a095 2f3d 49ac 9e3d 9abd 10be 0a7d 24bc
00000070: 0067 bebd 6073 443c 0915 e8bd 77cf cbbd
00000080: d12b 313d 18b3 d0bd 8b78 083e 25f2 8a3c
00000090: b814 833d a85c 593d c98f 293b 14a0 643c
000000a0: 6247 fabd d538 143d ee4d 363d f3e0 5abd
000000b0: e19e 97bd 0a8b 3cbd 08cb babd 9fc7 a5bb
000000c0: a158 b9bd 914c 58bd ff41 d13d bf31 c43d
000000d0: 8f7c c73c fcd2 e2bd c6a7 cfbd a762 a0bd
000000e0: ffa9 fcbd 7f75 9fbd 4f95 113c eee7 0fbe
000000f0: f80f e13c c604 d7bd 8e2c fdbd 55c2 d63d
0.080919586 -0.14945313 0.087041415 0.002988088 -0.13583675 0.013009995 0.09491072 -0.02362975
-0.08743654 -0.023696717 -0.06818205 0.024703784 -0.053238876 -0.014703921 -0.12662044 -0.030944603
-0.099805735 0.14749256 0.05322539 -0.073832445 0.06526158 0.0040511126 0.06414312 0.08362932
0.042867303 0.077477045 -0.14134827 -0.010039577 -0.092969894 0.011990398 -0.11332137 -0.0995168
0.043254677 -0.101904094 0.13327233 0.016961167 0.06400436 0.05306688 0.0025873056 0.013954181
-0.122206464 0.03618701 0.044507913 -0.053437185 -0.074033506 -0.046031035 -0.091207564 -0.005059197
-0.09050108 -0.052807394 0.10217666 0.09579801 0.024351386 -0.11075398 -0.10139422 -0.078313164
-0.12337112 -0.077860825 0.008885696 -0.14053318 0.027473435 -0.10498957 -0.12362014 0.10486285

node_function_neighbor.4.weight f4 [64, 64]
00000000: c615 5ebd 7514 a1bd 4dfa 96bc f8fc c83d
00000010: b31c ebbd a37a a13d 0b42 293d e58b 333d
00000020: 830a e0bc 015c 9bbe 61c3 1bbd b0c3 76bd
00000030: f3e9 0fbd cd78 423c 3a11 67be d86b 8cbd
00000040: 7ae3 b2bd 26d2 1b3e f327 74be 7514 2ebe
00000050: 9bb1 d1bd 4b3d 0abe 8697 b8ba d2b1 d6bd
00000060: d504 cd3c f355 3dbd 50d2 c0bc 1003 96bd
00000070: 7c65 fbbd e6bf c33d aa8f 1ebe 9b94 13bd
00000080: c1ca 8abd 4c41 cf3c 56ad 0ebe cd39 56bd
00000090: c6eb 10bc 374e b93c 8f9d f0bd 0dbd aabd
000000a0: df1e e2b9 549c e8bb 682e 123d a359 bd3d
000000b0: 1e7d 92bd 7328 94bd f0ad 99bd 9f1f 97bd
000000c0: 2698 78bd 2e89 733c bdee 0f3c 8aa8 d7bc
000000d0: 70b6 bbbb e9f8 0cbe c4fb a2bd 0931 8f3b
000000e0: f87d a1bd 5b7c 043e 8f90 da3c 1746 ad3d
000000f0: c482 6a3d 60ee 50bc ee39 1ebc 672b 893d
00000100: 5a79 bb3c a667 cfbd cb8e 2a3c 1770 7e3d
00000110: 3ec8 a1bb 49ce cf3b daff 89bd d5fd 203e
00000120: 3ceb f8bd 2ea9 e7bd a24f a93d d8b3 0bbd
00000130: 1660 98bd 47a4 3d3d 6f42 c9bd 4742 2c3e
00000140: 89d7 253d ed03 a73d 93e5 66bd 036a c63d
00000150: 272c acbc b4c0 8d3d 95a0 a13d 2f31 31bb
00000160: 680c 6bbc cddf 4f3c a64d 733d 3af4 b9bd
00000170: 8c33 32bd 3f0b abba 21f8 1f3c 0598 bb3b
00000180: 9438 f93c 71c2 a93d c549 a03d aaaa 6439
00000190: 799a a73d 4714 d73c 2121 28bd 9f57 92bb
000001a0: 4264 19ba e9f5 c43c 105c bbbd b958 453d
000001b0: 598f 463b 5b6f 0fbe 57ee 7abd 00bc 2bbd
000001c0: f46f 753c c3f1 45bc f1e4 4b3d eb6d adbd
000001d0: 1309 44bc 6f54 1ebe 2c43 893d 824a 3e3c
000001e0: 41ef 373d 7f49 563d 6105 3bbe 9bfb 9c3c
000001f0: a06e 5ebc 54e5 bebd e6af 103d 2b23 f53d
00000200: 0096 3e3b a56c b9bc 7c3d 4ebc e04a 47bc
00000210: 90f6 6ebd 898b 73bd 969b b9bd b595 933c
00000220: 2b42 8ebd 2428 abbd 6fea 473d 6129 09be
00000230: 36bd 7cbd 3609 4f3b f5d5 333d d33d 24bc
00000240: c20a c13b f004 88bd 1c31 8f3d 25f6 90bc
00000250: bd8f a1bd 22c7 b83c 4692 0f3d dd0c 823d
00000260: fc4a 84bc eddb 48bd bd90 44bd 65bb 22bd
00000270: 259c 9cbd b430 92bc 2af1 5fbc 2b0c ac3c
00000280: 11f5 8c3d 82ae 623d 7f47 f0bd 1c83 a6bc
00000290: 5b24 2bbd ab8e 9d3d 498e 903a 5fc4 0cbb
000002a0: d89f 923d 4fb5 c0bd 9c1c 993d 7ce5 09bd
000002b0: d2b6 1fbc 6312 6bbc 447a 53bd e762 843d
000002c0: af22 203d 65eb 21be 2a50 783d c8ab e1bd
000002d0: 2a0f 41bd de6a 873d e031 93bb 2b1c 753d
000002e0: bba9 52bd ca64 90bd ae41 e1bd b963 b7bb
000002f0: a869 fabd 28ec b8bd ef9e 9f3a bcee 1abe
00000300: 4c1f 9ebd 08d7 d13d 193d a6be 60fe 7bbc
00000310: 8784 2abe 1c61 04bd 4675 a33c 42be e7bc
00000320: ea2d 99bc 41c8 15bd 9c0b eb3d 48de 923a
00000330: fd49 f7bd f2b6 cd3c 77a0 f6bd 0381 43bd
00000340: 44d9 82bd 91b7 d43d 233f 07be f8aa 62bd
00000350: e8d9 d7bc ae13 cfbd 7319 40bd d09b 54bc
00000360: 4f63 ecbd b082 d13d fc35 3bbd a633 cfbe
00000370: eee7 2abe 7e91 c23d cec4 19be 889e f2bc
00000380: 28bb 893d f0b2 61bc 65d7 cfbd 6090 d83b
00000390: 382e b7bd 9b3a d3bd 8055 0fbc 5c4f 79bd
000003a0: 10bf a33d 92d2 20be 7086 523d e04c f13d
000003b0: ec72 75bd 9847 183d fc65 88be b946 1bbd
000003c0: 34ed 333d 9b3a a0bd 3f22 793d 8ef5 7cbe
000003d0: 875a 2ebd 9094 11bd 38a0 a23c 5c00 183d
000003e0: b0bc a6bd 0646 953d 1be7 dcbd f448 983d
000003f0: 02ef e3bd 988d 87bc 56c6 c6bd 2957 c33c
-0.054219984 -0.0786523 -0.0184299 0.09813875 -0.11480083 0.07884719 0.04132275 0.043834586
-0.027348762 -0.3034363 -0.038028125 -0.060245216 -0.03513522 0.011869621 -0.22565165 -0.06856507
-0.08734794 0.15216884 -0.23843364 -0.16999991 -0.10238954 -0.13499944 -0.0014083243 -0.10483135
0.025026718 -0.046224546 -0.023537785 -0.07324803 -0.12275216 0.09558086 -0.15484491 -0.036030393
-0.067769535 0.02529969 -0.1393331 -0.052301217 -0.008845275 0.022620304 -0.11748802 -0.0833684
-0.0004312908 -0.007098714 0.035688788 0.092456125 -0.071527705 -0.072342776 -0.07503879 -0.07379078
-0.060691975 0.014864249 0.008784947 -0.026325483 -0.0057285354 -0.13766827 -0.07958177 0.004369859
-0.07885355 0.12938063 0.026680259 0.08460634 0.057253614 -0.0127521455 -0.009657366 0.066977315
0.022885013 -0.10127191 0.010410021 0.062118616 -0.004937201 0.00634173 -0.06738253 0.15721829
-0.121542424 -0.11311565 0.08267142 -0.03410706 -0.07440202 0.046299245 -0.09827124 0.16822158
0.040488753 0.08155046 -0.056371283 0.09688189 -0.021017147 0.06921521 0.07891957 -0.0027037372
-0.01434622 0.012687636 0.059400223 -0.09079786 -0.04350619 -0.0013049616 0.009763748 0.0057249092
0.030422486 0.0828904 0.078265704 0.00021807352 0.0818376 0.026254786 -0.04104722 -0.0044660117
-0.00058514264 0.02404304 -0.09148419 0.048180316 0.0030297844 -0.14007322 -0.061262455 -0.041927338
0.014980305 -0.012081566 0.049778882 -0.08468231 -0.011965054 -0.15461896 0.06702265 0.011614444
0.044905905 0.052316185 -0.1826377 0.019162944 -0.01357618 -0.093210846 0.035324 0.119695984
0.0029081106 -0.022634814 -0.012587901 -0.012163848 -0.05834061 -0.059459243 -0.09062879 0.018015722
-0.06946214 -0.083572656 0.048807558 -0.13394691 -0.061703883 0.0031591184 0.043905217 -0.010024506
0.005891175 -0.06641567 0.06991789 -0.017695496 -0.07888744 0.022555891 0.035051607 0.0635011
-0.016149037 -0.049037863 -0.047989596 -0.039729495 -0.0764697 -0.01784549 -0.013668338 0.021001896
0.0688268 0.055342205 -0.11732387 -0.02032619 -0.04178272 0.076932274 0.0011028732 -0.002147935
0.07159394 -0.09409582 0.0747616 -0.03366612 -0.009748178 -0.014347645 -0.051630273 0.064641766
0.039095577 -0.15812452 0.060623325 -0.11019093 -0.047133602 0.0661218 -0.0044920295 0.059841316
-0.0514314 -0.07050474 -0.109988555 -0.0055966047 -0.122271836 -0.09029418 0.0012178103 -0.15130132
-0.07720813 0.10246092 -0.3246849 -0.015380472 -0.16652118 -0.032319173 0.019953381 -0.028288964
-0.018698651 -0.03656793 0.11476824 0.0011205161 -0.12074659 0.02511165 -0.12042325 -0.047730457
-0.063890964 0.10386575 -0.13207678 -0.05533883 -0.026349023 -0.101111755 -0.04689927 -0.012976602
-0.11542379 0.10230005 -0.04570578 -0.40469092 -0.16690037 0.09500407 -0.15016481 -0.02961661
0.0672515 -0.013775572 -0.10148505 0.0066090077 -0.089443624 -0.103139125 -0.008748412 -0.0608667
0.07995427 -0.15705326 0.05139774 0.11782241 -0.05992405 0.037177652 -0.26640308 -0.037909243
0.043927386 -0.07823678 0.060823675 -0.24703047 -0.042566802 -0.03554207 0.019851789 0.037109718
-0.08141458 0.072887465 -0.10786267 0.0743579 -0.111295715 -0.01654701 -0.09705798 0.023845272

node_function_neighbor.4.bias f4 [64]
00000000: ddcf b73d 4a83 d23c ae93 213d 8bff 1c3e
00000010: 50aa abbd 5b39 a73c e592 92bd ad22 163d
00000020: 5299 733c d4eb 853d 79a2 ff3d 49cb 00be
00000030: 2bd1 8abd 1e39 6abd 5710 a3bd 249b a8bc
00000040: bd88 463c bf94 c0bd 6788 63bd 9686 2dbe
00000050: 9241 b2bd 06c6 abbd faca b0bd d2c4 453d
00000060: bcc7 7fbc 3f33 343b 71ea 853c 103a 13bd
00000070: d9be cd3d 2e91 b9bd 1cd5 b8bc 0197 d03d
00000080: 3e56 96bc fd25 dfbb ab15 b4bb 2c4e 0fbe
00000090: c209 e9bd 6185 f7bd 36b4 cd3d 42ec 503e
000000a0: 8631 a7bd 2929 2d3e 1183 ab3c 9e3b 223d
000000b0: 2598 4cbc cabf 30be 90f1 703d 7364 00be
000000c0: 1302 203e c35c 22bd 86e0 ce3b 3baf c73b
000000d0: e5df ed3c a2d4 c43d 448f 8f3d 68da cd3d
000000e0: 7bb0 acbc 680a 1cbe ea64 a73d db25 a7bc
000000f0: d338 84bd 8047 363d 2555 4c3e f954 1a3d
0.08975194 0.02569737 0.03944748 0.15331857 -0.08382094 0.020413091 -0.07156924 0.036654163
0.014868097 0.06539121 0.12482161 -0.12577547 -0.06778177 -0.057183377 -0.07962101 -0.02058179
0.012117562 -0.09403371 -0.055550005 -0.16945872 -0.08703913 -0.08387379 -0.08632465 0.048283406
-0.015611585 0.0027496365 0.016347142 -0.035944045 0.10046167 -0.09060894 -0.022562556 0.10185052
-0.01835167 -0.0068099485 -0.005495747 -0.13994664 -0.11378814 -0.12085987 0.10044138 0.20402625
-0.08163743 0.16910233 0.02093652 0.039607637 -0.012487446 -0.17260662 0.058824122 -0.12538318
0.15625791 -0.039639246 0.0063133864 0.006093887 0.029037425 0.09610869 0.070097476 0.10051423
-0.021080246 -0.15238345 0.08173545 -0.020403793 -0.06456151 0.04450178 0.19954355 0.037678692

node_function_neighbor.6.weight f4 [4, 64]
00000000: f7a6 013d f7d4 f7bd 3730 a93d c52e 1cbb
00000010: 8f65 7dbd 1915 47bd 2416 983c 955d 123d
00000020: 2396 993d 80a7 c9bd 156d dbbc 4903 703d
00000030: 0791 69ba 10ce 8d3c 294e c9bd 2f91 ae3d
00000040: dd1b b4bb 7463 01bd ed2c 243d c64f 33bd
00000050: df3c e4bd 8d68 a33c 9776 07be 9618 4f3d
00000060: 8adf d33d 0032 b33d c8cb 3abd 5118 bbbd
00000070: 76a0 6c3d e035 423d 7a1e 15bd 5eab 1bbd
00000080: 20cf e1bd 4f37 ce3c b0e5 e73c 7a86 863d
00000090: 7deb 213d c548 bdbc 6960 62bc f50e f9bd
000000a0: e755 5b3d b4dc 9fbd 8274 e73d 0440 703c
000000b0: 00a6 8f3d ecfa 943b 96dd b53d 06fd 673b
000000c0: e82c 9abd a4cf e63b 72df 8f3d c413 7c3d
000000d0: 82a5 08be a7b4 9c3d b680 973c 7898 9bbd
000000e0: 31bd d3bc 1414 8bbd f635 ddbd 8fab d5bc
000000f0: f7aa f33d 2e03 e6bd 77f7 40be 973d d23d
00000100: 505b 4cbd 27cc f3bb b7de be3c f7cd 33bd
00000110: 1a15 7a3d 91b5 75bc fd17 d43a 2f7a 25bd
00000120: bfd1 f1bc 17e8 9fbd d1f2 b33c c8b7 babb
00000130: 064c 06be d397 df3c 3173 5fbc 415c 0b3e
00000140: 41fd 9ebd 2325 c2bd c5b8 453d a791 c43d
00000150: 0988 d0bd 3832 8cbc c640 493d 0db3 e73d
00000160: 9ebe 793c 0354 8abd ce11 02bd 8999 bbbd
00000170: 9f18 103e 3ad5 afbd 8632 8b3d 33a0 103c
00000180: bcac 9c3b 6e1c 623d eba5 97bd 802b 97bd
00000190: 676d 9d3c 48f4 d6bc 6078 b7bd 2b51 49bd
000001a0: 381d ce39 5b13 da3c 8550 a4bd 6268 1a3d
000001b0: f5fa 0cbd b297 e7bc e015 abbc 30eb 21be
000001c0: e711 173c c8d0 d3bd a180 e7bd f622 6e3c
000001d0: 8d86 2abd d05e c23d ce15 1d3c d08a 51bd
000001e0: f14f 16be f4a6 223d 1f72 1cbe 2f73 c3bd
000001f0: 6d09 6ebc d5b7 743d f094 483c 40c7 d43d
00000200: 3fdf eabd d553 633c 91d9 c33d 1460 74be
00000210: c93e cf3c 25e2 a9bd 8c3e cbbc aa41 0d3d
00000220: aa1b 5b3d 78d9 9e3c 8d2e 8d3d 1e34 723d
00000230: f74b 9cbd b141 f9bd d8bb f0bd e73a 8abc
00000240: 0738 bbbd c76e 003c 68ba 29be a26d a93d
00000250: b675 e3bd c923 40bd baf8 0cbd 163a edbd
00000260: d2fa c63b 7c47 0b3d 1c34 42bc 091c ba3d
00000270: 0c6e f2bd 0cf2 11bd c79e a53d 8d69 e1bc
00000280: ec06 b53d c2b0 3a3d 60d1 88bd 074c 2bbd
00000290: 0341 9abd 5f93 013d 55c3 1a3c 052f e6bd
000002a0: d5db 97bd ef88 1ebd 8fbe f6bd 9036 c3bd
000002b0: f91b 29bc 9336 083d 1dd3 acbb deeb 24bc
000002c0: f9eb f53c bf94 b0bc 1292 cbbd c7de 513d
000002d0: c5de 0ebd 6f4d bdbb 641f 86bd 9189 d4bd
000002e0: 0f98 f2bd 11e1 963d 56d1 213c 0441 83bb
000002f0: e645 503d 4305 87bd 6e83 dbbd 06d2 253d
00000300: daf8 babc 883c 4f3d b237 bbbd 9d3d 43be
00000310: 7a40 9e3d 935c ad3d 4f59 623c 00c7 9e3d
00000320: 8538 593d 49a5 01bd 8db7 b3bd bec4 ebbc
00000330: 39fc 42bd 42fb 843d 9f8e 2c3d b819 3fbd
00000340: a46b c6bc 6085 d23c bf73 823d 4d55 d1bc
00000350: cf41 213d a7ca 6c3d f190 873d 63cf b03d
00000360: 0386 33bd a95f 98bd 15b8 32bd 7569 dcbd
00000370: 00eb f9bd eaa7 0abe 1a74 0fbe 65ad 19bd
00000380: 4cb0 6b3d 6671 aebc ec49 253d 29e2 d63c
00000390: 2cd8 1e3c a982 7dbd 7cb5 82bd eb07 ddbd
000003a0: ab1c 86bd bb0a 9bbd a9cc ab3c 383c 593d
000003b0: fb48 833d c145 133c c1a2 85bd 97ec 2a3d
000003c0: aed1 c1bd 1271 7dbd 3add 773d 0761 64bd
000003d0: 2f0b a13c 0edf 66bd 9458 5bbd 2520 80bc
000003e0: 41ec 2abd 7c0d 883d 65fa 67bd 7151 5cbb
000003f0: e069 debc 1cc7 57bd 1c51 0cbd 0035 733d
0.03165337 -0.12101167 0.082611494 -0.0023831588 -0.061864432 -0.048604105 0.018565245 0.035733778
0.074993394 -0.09846401 -0.026785413 0.058596883 -0.00089098554 0.017310172 -0.09829361 0.08523785
-0.0054964856 -0.031588987 0.040081907 -0.04377725 -0.11144423 0.019947315 -0.13228832 0.050560556
0.10345371 0.08749771 -0.045604497 -0.09135497 0.057770215 0.04741466 -0.036406018 -0.038005225
-0.11025834 0.025172858 0.028307766 0.06568618 0.03953122 -0.023105988 -0.013816931 -0.12161056
0.05354872 -0.07805768 0.11301519 0.0146637 0.07014084 0.004546514 0.08880155 0.0035398616
-0.075280964 0.0070437957 0.07025041 0.061542287 -0.13344386 0.07651644 0.018493991 -0.075974405
-0.02584705 -0.06790939 -0.10801308 -0.026082782 0.11897843 -0.11231075 -0.188444 0.102656536
-0.04989177 -0.0074401083 0.023299558 -0.043897595 0.06105528 -0.014996902 0.0016181465 -0.040399726
-0.02951896 -0.078079395 0.02196637 -0.005698178 -0.13114938 0.027294075 -0.013638304 0.13609411
-0.07763148 -0.094797395 0.048271913 0.095980935 -0.10182197 -0.01711379 0.04913404 0.11313448
0.015243201 -0.06754305 -0.03175526 -0.09160144 0.14071892 -0.085855916 0.06796746 0.008827257
0.0047813337 0.055202894 -0.07404693 -0.07381344 0.019217206 -0.02623953 -0.089585066 -0.049149673
0.00039313152 0.026620558 -0.080231704 0.037697203 -0.03441902 -0.028270576 -0.020884454 -0.15812373
0.009220577 -0.10342556 -0.11303831 0.0145347025 -0.041632224 0.0949074 0.009587718 -0.051157773
-0.14678933 0.03971 -0.15277909 -0.09543454 -0.0145286145 0.05974563 0.012242541 0.103895664
-0.11468362 0.013874968 0.09562982 -0.23864776 0.025298493 -0.08295087 -0.024810098 0.03448645
0.05349318 0.019390807 0.068936445 0.059131734 -0.07631677 -0.12170733 -0.11754578 -0.01687379
-0.09141546 0.007838911 -0.16575015 0.08272864 -0.11106436 -0.046909127 -0.03441689 -0.11583345
0.0060723806 0.03400372 -0.011853244 0.090873785 -0.11837396 -0.035631225 0.08086925 -0.02751615
0.08839211 0.045578726 -0.0668056 -0.041820552 -0.07531931 0.031634685 0.009445985 -0.11239437
-0.074149765 -0.03870481 -0.12048065 -0.09531891 -0.010321611 0.03325517 -0.00527419 -0.010066001
0.030019747 -0.021555303 -0.0993997 0.051237848 -0.03488042 -0.005777053 -0.06548956 -0.10377801
-0.11845409 0.07367147 0.00987657 -0.004005553 0.05084791 -0.065928005 -0.107184276 0.040483497
-0.02282374 0.050594836 -0.091414824 -0.19066472 0.07727142 0.08464923 0.013815238 0.077528
0.053032417 -0.03165177 -0.08775244 -0.028780337 -0.04760382 0.06493236 0.0421282 -0.046655387
-0.024221249 0.025698364 0.06369733 -0.02555337 0.0393694 0.05781045 0.06619442 0.08633306
-0.043828975 -0.07440121 -0.043632586 -0.10762302 -0.12203026 -0.13540617 -0.14009133 -0.037518878
0.057541177 -0.021294307 0.0403537 0.026230888 0.009695094 -0.061892185 -0.06382272 -0.10792526
-0.06548437 -0.07570406 0.020971613 0.053035945 0.06410404 0.008988799 -0.065251835 0.041729536
-0.09463821 -0.06187541 0.060513712 -0.055756595 0.019658653 -0.056365065 -0.05355127 -0.015640328
-0.041729216 0.06643197 -0.05663528 -0.0033617879 -0.027150095 -0.05268012 -0.03425704 0.059376717

node_function_neighbor.6.bias f4 [4]
00000000: 057a 673d 9204 943d 24f9 11be 1df5 e1bd
0.05651285 0.07227434 -0.14255196 -0.1103308

edge_function.0.weight f4 [64, 4]
00000000: 5f10 34bd 7410 b6be fd1d dcbe 6093 593e
00000010: bf4a c23e a09d 823d 422a 983e af57 4d3e
00000020: 38a1 ad3e 50f2 d83e 9425 a33e 45d8 81be
00000030: 680f bfbd e5ab 40be 1a91 253e 9e97 a5be
00000040: 37ce 3b3e a2c9 94be 0a35 de3e ed21 b7bd
00000050: 2e67 19be d3a6 9a3d a1dc 333d 3971 953e
00000060: 444e 30be 7b17 383e ad3a 803b 04e6 88bd
00000070: 1c8b bcbd 699c 0f3d 3b85 be3e 394b 55bd
00000080: 676a c43e cbe2 0c3d 7cac 623c 159a d33e
00000090: 5bab d4bc bb8e 823e 5aa9 eabe 5bd5 e83d
000000a0: 5fc5 b83e 3ea9 943d cef6 b7bc d713 823e
000000b0: d755 833e 63c1 1abe 32ad 3c3e 8561 ac3e
000000c0: bece b6be 31a8 aabe 7218 babe 362e ad3e
000000d0: 623e d83e 124a 94be 8e83 a8be 4b8d febd
000000e0: f911 753e 6406 b83e ed02 8e3e 9e64 b83d
000000f0: ded8 3cbb 4879 3a3d 49fa e2be 6c89 3dbe
00000100: 6264 97bc a1e1 e93d 1289 f43e 6ec1 ebbe
00000110: 874c df3e bae1 8cbe 24ad c33c bc53 debe
00000120: 65a7 fd3d 77bb c43e 6376 c43e 3717 a2bd
00000130: aa08 313e a2bd 3d3d d0f2 d8bd 34e8 16be
00000140: d8b0 b33e 8c1c e4be 2af3 f13c 87c3 42be
00000150: 791e e13e 5573 203e ebeb b43d 97d4 dbbe
00000160: b365 8dbe db51 10be f108 52bd 345a c5bd
00000170: 2a4f 593e 4ceb 9abd 6a13 bdbe b8ab b8bd
00000180: 8be3 eebe 4f26 273e c47c a3be 7580 96be
00000190: cf9b e13e 23c2 2a3d 08b2 ae3e 4d88 423e
000001a0: 41a9 623b ee10 38be 8529 c63e 1a59 d13e
000001b0: 8c2f 9fbe 5682 aabd 0899 c0bb aaef 55be
000001c0: fa5a 843e f5b8 f93d 8123 5abd f407 9dbe
000001d0: 444f 7ebe 359b e0bd 15cf 39bd 38c1 8e3e
000001e0: 6bb5 d7be 4b0d 94bd bf7c 33be e657 3d3e
000001f0: 1470 e5be fb28 ce3e 85d7 2f3d 3ade ba3e
00000200: f028 a83e 0f3d 88be 13ac 51be 04c0 98be
00000210: 3e45 eb3e fed2 273e a217 d13e 0136 53be
00000220: 6cbc cdbe a032 923e 4781 19bc d605 d3be
00000230: 52e5 8e3e aa0e f5bc 97a2 ff3c aa9b 9f3e
00000240: 6e19 1dbe cc96 cc3e b8f3 89be 457e f3bb
00000250: 6af0 28be 718e 51be 73ed b1be bfa7 923e
00000260: b0af 2abd 638f 1a3e 7a57 4dbe d632 2e3e
00000270: 9edf fbbe 3c15 e9be 03ea c6be 89e5 813e
00000280: ad5d c33e a3cf 75be 1483 7f3e 6db5 be3e
00000290: 8f2f 94be 3d90 99be 518b 78be 68e6 8e3e
000002a0: 1fd6 5bbe 0486 42bd 5419 ce3e d379 e53e
000002b0: e33b 9dbd c0a0 b13e 375d 3cbe bc04 ddbe
000002c0: 7f91 d8bd 5177 da3d c610 463e 26f9 51be
000002d0: 83e4 92be 6df4 d93e 6b85 ef3e 474f ec3e
000002e0: 7e62 80be c5e6 023e 7749 c2be d873 b6be
000002f0: 1cf9 cdbd e15e 8fba c585 a73e b8ff e23e
00000300: f8bb 753e ac8d 233d 9024 ad3e 5c52 edbd
00000310: e9f5 8f3e a6ec de3e fa05 81bd 279c 64bd
00000320: 0123 01bf 10aa ae3e 1242 193e 7eae 2e3e
00000330: 8662 1bbd 75a9 203d 4c60 52be 26b8 023e
00000340: 065a a5be ecf7 803e dbfa e4be 6a63 a8bd
00000350: 7158 e93e be96 e43d 0b56 b2be adfa d5be
00000360: bb58 383e 06af 153e 0bcb 403e 07e5 29be
00000370: 445f bdbe cba7 89be 4ef4 2ebe 4822 bb3e
00000380: 2a4b e33d d224 913d b177 dfbe 5147 a23e
00000390: b99f 6ebe fa00 a13e b554 76bd 0dc3 f03b
000003a0: 9e61 133e c27a cd3e 03ba 8dbe 2c46 efbe
000003b0: d32f 91be b3e1 08be ea89 e5be b84f 983e
000003c0: 0502 6dbe 7008 9a3d 10ad aa3e 1833 0e3e
000003d0: d9b9 f03e c2a9 9e3d 9565 89bd 2da9 ba3e
000003e0: 9755 8fbe d47d 7abe 665c 37be 4cef b13e
000003f0: 1933 23bd 0085 6dbe 3c9a 91bd bdaa bcbe
-0.043960925 -0.35559428 -0.4299163 0.21247625 0.37947652 0.06377721 0.2971974 0.2005298
0.33912063 0.4237237 0.31864607 -0.25360313 -0.093291104 -0.18815573 0.16168633 -0.32342237
0.18340383 -0.29060084 0.4339984 -0.08942018 -0.14980766 0.075513504 0.04391158 0.29187945
-0.17217356 0.17977707 0.0039132447 -0.06684497 -0.092062205 0.035061274 0.37211022 -0.05207369
0.3836243 0.034395974 0.013835069 0.41328493 -0.025960615 0.2549952 -0.4583233 0.11368819
0.36088082 0.07258843 -0.022456553 0.25405762 0.25651428 -0.15112834 0.18425444 0.33668151
-0.35704607 -0.33331445 -0.36346775 0.3382432 0.42235094 -0.2896276 -0.32912868 -0.12429293
0.23932637 0.35942376 0.27736607 0.09003566 -0.0028815786 0.04552582 -0.44331577 -0.18509454
-0.018480483 0.114199884 0.47760826 -0.46046013 0.43613073 -0.27515966 0.02388627 -0.4342326
0.123854436 0.38424274 0.38371572 -0.07914584 0.17288461 0.046323426 -0.10593188 -0.14737016
0.3509586 -0.4455303 0.029534895 -0.190199 0.4396856 0.15668996 0.0883406 -0.4293563
-0.27616653 -0.14093725 -0.05127806 -0.096363455 0.21221605 -0.075644106 -0.36928874 -0.09017128
-0.46657977 0.16323207 -0.31931126 -0.2939488 0.44064185 0.04168905 0.34120202 0.18997307
0.0034585746 -0.17975208 0.38703552 0.40888292 -0.31090963 -0.08325641 -0.0058776177 -0.20892206
0.2585066 0.12193481 -0.053256515 -0.3067013 -0.24834925 -0.109671034 -0.045363504 0.2788179
-0.42130598 -0.07229098 -0.17528056 0.18490562 -0.4481207 0.4026564 0.042930145 0.3649767
0.32843733 -0.26609084 -0.20475797 -0.29833996 0.45951265 0.16389081 0.40838343 -0.2062607
-0.40182817 0.2855425 -0.009369201 -0.4121539 0.27909333 -0.029914219 0.031205459 0.3117345
-0.15341732 0.399588 -0.26943755 -0.007430824 -0.1649796 -0.20464493 -0.34751472 0.28643605
-0.041671455 0.1509376 -0.20052901 0.1701158 -0.49194044 -0.45524013 -0.38850412 0.25370434
0.38157406 -0.24004988 0.24952346 0.37247792 -0.28942534 -0.29992858 -0.24271895 0.2791016
-0.214684 -0.04749109 0.402537 0.44819507 -0.07677438 0.34692955 -0.18394934 -0.43167675
-0.10574626 0.10667289 0.19342336 -0.20505199 -0.28689966 0.42569295 0.46781477 0.46154234
-0.25075144 0.12783344 -0.37946674 -0.35635257 -0.100572795 -0.001093831 0.32719246 0.44335723
0.23997486 0.03993003 0.33816957 -0.115879744 0.28117302 0.43539923 -0.06299968 -0.05581298
-0.50444037 0.34114122 0.1496661 0.17058751 -0.037935756 0.039224107 -0.20544547 0.1276556
-0.32295245 0.2518915 -0.44722638 -0.08222087 0.45575288 0.11161564 -0.3483127 -0.41792813
0.18002598 0.14617547 0.18827455 -0.16591273 -0.36986744 -0.26885828 -0.17085382 0.36549592
0.11098321 0.07087101 -0.43646005 0.31695035 -0.23303117 0.31446058 -0.060139377 0.0073474706
0.14392707 0.4013272 -0.27680978 -0.46733224 -0.283568 -0.13367347 -0.44831783 0.2974832
-0.23145302 0.075211406 0.3333516 0.13886678 0.4701679 0.077472225 -0.06708828 0.36457196
-0.27994987 -0.24462062 -0.17906341 0.34752882 -0.039843652 -0.23195267 -0.07109496 -0.36849013

edge_function.0.bias f4 [64]
00000000: 0daf cc3e f09f e4be 0c3a 9dbe 033c 833e
00000010: df95 ba3e 0569 00be 745e 39be da3d f2be
00000020: 0bfe f9be 91d9 b53e e8ff 2ebe 644a 643e
00000030: 6b70 38be d37c c53e 315c b93e 9d6c 8dbe
00000040: cc16 c9bd 6627 983e 0d01 0bbe afe3 dbbe
00000050: 958e 9bbd d3b5 8fbe 2233 833d 77da e23e
00000060: d137 45be 200a b63e fe90 ec3e 335d 823e
00000070: c0b8 9e3e 9ee1 d0bd 76f5 983e ce6a 26be
00000080: f2db d03d ef78 d03e cc8d fe3e 83e0 6abe
00000090: bec8 ad3c 5e65 ddbe 3f87 bebe eb8a ff3d
000000a0: 0061 a2be c9b8 f5be 794e bcbe 43c7 1f3e
000000b0: 3b56 6ebe dec4 aabe b1cd 87be b92d b5be
000000c0: ed54 1e3e 9e4a 8bbe da83 6dbe 09e0 813e
000000d0: 009f 5bbe f19a f4be 1461 5e3e 854e db3e
000000e0: b506 8abe ce1c 4dbe 050a 923d 12b8 573e
000000f0: d1d0 2f3e c2b5 f83e e9e4 873e 0f81 07bf
0.39977303 -0.44653273 -0.3070835 0.25631723 0.36442468 -0.12540062 -0.18102437 -0.47312814
-0.48826632 0.35517552 -0.17089808 0.22294003 -0.18011634 0.38571796 0.3620315 -0.27621928
-0.09818801 0.2971756 -0.1357462 -0.42947146 -0.07595555 -0.28068408 0.06406237 0.443073
-0.19259574 0.355546 0.4620437 0.2546173 0.31000328 -0.10199283 0.29874772 -0.1625168
0.10198201 0.40717265 0.49717557 -0.22937207 0.021213885 -0.432414 -0.3721256 0.124776684
-0.3171463 -0.47992542 -0.3677862 0.15603356 -0.23275082 -0.33353323 -0.26524118 -0.35386446
0.15462084 -0.27205366 -0.23194829 0.25366238 -0.21447372 -0.4777446 0.2171672 0.42833343
-0.26958242 -0.2003052 0.07130817 0.21066311 0.17169501 0.4857617 0.26541832 -0.529313

edge_function.2.weight f4 [64, 64]
00000000: cf19 be3c 8925 23bd 75eb bfbd acb6 433d
00000010: ccc6 eabd b828 fc3d c213 d8bd 3bc6 053c
00000020: 65ab 2b3c bcf6 9e3d 1d9d 133e dec5 d13d
00000030: 066d a33c 19e8 55bc 4d40 81bd e930 5cbd
00000040: ffec 4d3d f3ff c6bd b453 4abd 57b7 8f3d
00000050: ad57 b3bd 5648 d23d e3dd ba3c ee25 d4bd
00000060: c874 1a3b 572c 1e3e 089f febd d05c 0e3d
00000070: cac3 c53d 565a 47bd 2ff8 d9bd 498c 97bd
00000080: 5bd6 313c 4c5f ef3a 68d6 f3bb bef8 9c3d
00000090: 7347 853d e3c5 04bd f45f 323d 5223 a6bd
000000a0: 554c 87bd c71b 96bd 91c8 323c e748 5dbd
000000b0: 86e8 9dbd e4de b5bd 299b a13d 635a 87bd
000000c0: 45f7 2dbe f5ff 8e3d 3201 c33d 657c 73bd
000000d0: f39a 293b 2e38 dc3d fa5b 963d ecb7 aa3d
000000e0: cafa 01be 7dd1 eebd 2152 6fbd 0437 f83c
000000f0: 86c1 e9bd 3154 04bb b542 c9bd fe01 f83d
00000100: c650 b5bd 6cef 56bd c803 af3c f5b9 57bd
00000110: 291f 03be a25a 94bd 2902 7dbd 539f fcbc
00000120: 105a 373d f8af 8c3c 1e44 903d 2f65 0ebe
00000130: da96 a7bb 7e85 ecbd a003 43bd da1c aebd
00000140: 51df 113d 086e 913d f252 b93d 405b 6dbb
00000150: e602 38bc b019 823c 80bb 8c3b 1c7b 3abd
00000160: deba bfbc 301f 8bbd 0b41 ab3d bfa3 07bd
00000170: 2ae0 a9bc 3015 c1bc a292 cebc dacc bcbd
00000180: bd6c 03be 7cad bd3b 77b8 e3bd 9033 99bc
00000190: 9010 29bc ac85 653d 2442 5a3d 2ee2 c8bd
000001a0: be01 08be f961 53bd db26 17bd 024d 13be
000001b0: 1e7a a3bd 5f39 813d 6353 9e3d aa58 45bd
000001c0: 6fab 33bd 5807 0e3d 33c2 313d a02a 1e3d
000001d0: d03f a4bd e83f cabc a4b1 87bd 72a6 963d
000001e0: c0e8 363c 023c 323d 3815 f7bb 141f 553d
000001f0: b1d3 39bc 08a2 e5bd 20ff 1dbe cfc7 f9bc
00000200: 0a9a 28bd c6c7 4abd d252 6ebd 7335 d4bd
00000210: 03c5 733c 9aa1 02be 5840 c93d 83e2 d03c
00000220: 63e6 2fbd e778 e1bd 625e 0cbe 9668 c03d
00000230: d15b 553d b494 523c b622 9cbc dad8 c8bd
00000240: 0769 6fbd 760e 55bd e451 34bd 46a7 cebd
00000250: ec62 e03c 49bc c33d adc6 30bd 0a7e f43d
00000260: 5f2a 563d 2413 933d 2fd1 c83d f30f da3b
00000270: a6c3 8c3d aa59 163c 6db8 593d 42ef 4a3d
00000280: 5d2d 393d a713 d6bc 318e 0dbd d105 06be
00000290: 817e 0b3e dea7 ce3d 2d02 7ebd 415c bc3c
000002a0: 4d23 b73d 5ab9 0bbd 05de c6bc dfc8 313d
000002b0: 05a2 203e 92d4 8a3d 9f6d b3bd 45ed 793b
000002c0: 4ecf d73d 93e9 fe3d 7bea 1fbd 1aba 1abd
000002d0: f98f c83c 5185 d03c a6ce d93d 1137 463a
000002e0: a9f0 c83d 9873 66bc c3cb 763d 9cdd ab3d
000002f0: 8c02 4bbb b9f1 d33c 0381 febc 0d78 a4bc
00000300: 70ca 833d 7846 84bd 2a14 febd 7b01 e3bd
00000310: ddcc f53b f49c 88bc 970b b23c 665e 67bd
00000320: 2292 edbd 1cb3 c2bd e7ad c9bd 5c47 a63d
00000330: 0d44 5f3d a2f5 fbbd e23c b8bd e9b0 94bd
00000340: 2b81 2dbc 5bcf 983c b329 123e e0a4 323d
00000350: a48c 0abe 8ee0 db3d 52a8 c7bd 66e9 e9bd
00000360: 2599 d23d e0a8 0cbd 11eb c5bd 8ce0 313d
00000370: c923 dcbc 9988 75bd bfc5 123d 4427 b73d
00000380: 25b9 45bd 08f0 663d 2501 ff3d 9528 353d
00000390: 7a48 8fbd 5063 033e 42a7 e63d ff82 09bd
000003a0: 83a7 3ebd e713 42bd 3549 e9bd fe35 833d
000003b0: 410b aa3d 0818 01bd 49ce c93c 826b 00ba
000003c0: c8a3 983b d0cf d7bc 2b19 acbd 0c5f d5bd
000003d0: 921a 043d 62c5 90bd 1dbd b8bb 2394 74bd
000003e0: e815 543d 7775 903d 44cb f0bd 3a1b ea3d
000003f0: 1f3e a93d a2cb 0dbe 67da 52bd 040e 813d
0.023205666 -0.03983072 -0.09371082 0.04778163 -0.11463699 0.12312454 -0.105506435 0.008164938
0.010477875 0.077619046 0.14415403 0.10242818 0.019949447 -0.013055825 -0.063110925 -0.05375758
0.050274845 -0.09716787 -0.04939623 0.07017391 -0.08756957 0.10267703 0.022810882 -0.10358797
0.0023568142 0.15446602 -0.124326766 0.03475648 0.096564844 -0.048670135 -0.106430404 -0.07399804
0.010854329 0.0018262654 -0.0074413307 0.07664631 0.065077685 -0.032415282 0.04354854 -0.081122056
-0.06606356 -0.07329517 0.010912077 -0.054024603 -0.07710366 -0.08880404 0.078909226 -0.06609037
-0.16988857 0.06982414 0.09521712 -0.059444804 0.002587971 0.10752903 0.07341762 0.083358616
-0.12693325 -0.116610505 -0.058427934 0.030299671 -0.11413865 -0.0020191784 -0.098271765 0.12109755
-0.08853297 -0.052474424 0.021364108 -0.052667577 -0.12804855 -0.07243849 -0.06176964 -0.03083769
0.044763625 0.017173752 0.07044242 -0.13905786 -0.0051144185 -0.11548899 -0.04761088 -0.08501597
0.03561336 0.07101065 0.09049024 -0.003621772 -0.01123116 0.01588139 0.0042948127 -0.045527562
-0.023404535 -0.06793058 0.08362015 -0.033115145 -0.020736773 -0.023569673 -0.025216404 -0.0921876
-0.12834449 0.005788503 -0.11119168 -0.018701345 -0.01031889 0.056035683 0.053285733 -0.09808765
-0.13281915 -0.051607106 -0.03690229 -0.14384845 -0.079822764 0.06309771 0.077307485 -0.04818026
-0.043864664 0.034674972 0.043398093 0.03861487 -0.08019984 -0.024688676 -0.06625679 0.07355966
0.01116389 0.04351426 -0.0075403713 0.05203159 -0.011341975 -0.11212546 -0.15429354 -0.030490784
-0.041162528 -0.049506925 -0.058184452 -0.10361757 0.014878514 -0.12756959 0.09826726 0.025498634
-0.042944323 -0.110093884 -0.13707879 0.09394948 0.052089516 0.012852836 -0.01905952 -0.09806986
-0.05844977 -0.052015744 -0.04402341 -0.100904986 0.02739092 0.09557397 -0.043158222 0.119381025
0.052286502 0.07181385 0.098055236 0.0066547333 0.068732545 0.009176651 0.053154398 0.04954458
0.045209277 -0.026132418 -0.034559432 -0.13088156 0.13622476 0.10090612 -0.062013794 0.022993209
0.0894228 -0.034112312 -0.024275789 0.043404456 0.15686806 0.06778826 -0.08761143 0.0038135808
0.10537587 0.124468945 -0.039041977 -0.037775137 0.024482714 0.025454195 0.10635118 0.0007561306
0.09811527 -0.014065646 0.060252916 0.08391878 -0.003097686 0.025872098 -0.031067377 -0.020076776
0.06435096 -0.06458753 -0.1240619 -0.11084267 0.0075012282 -0.016676404 0.021734042 -0.05648651
-0.11600138 -0.09506819 -0.09847622 0.081190795 0.054508258 -0.1230271 -0.089959875 -0.072603054
-0.010589878 0.018653562 0.1427372 0.04361427 -0.13530213 0.1073619 -0.097489014 -0.1142147
0.10283116 -0.03434074 -0.09663976 0.043427035 -0.026872532 -0.059944723 0.035833117 0.08943036
-0.04827227 0.056381255 0.1245139 0.044228155 -0.06996246 0.12830853 0.11262371 -0.033572193
-0.04654647 -0.04738226 -0.11390916 0.064067826 0.08302928 -0.03151706 0.024634497 -0.00048988324
0.004658196 -0.02634421 -0.08403238 -0.104185194 0.032251902 -0.07068898 -0.0056377784 -0.059711587
0.051778704 0.07053655 -0.1175752 0.11430974 0.08263802 -0.13847211 -0.051477816 0.063015014

edge_function.2.bias f4 [64]
00000000: 3404 db3d 11a1 b7bd a68a 8c3d 0cc6 05bd
00000010: e7a1 d63c c90c 84bd 49c3 04be de34 bfbd
00000020: 9715 8fbd 22f6 fbbb 26ed d93c 5f24 013d
00000030: bd88 e7bd 1158 fa3c 44e1 bf3c b97c 8b3d
00000040: b87a ecbc a9f9 c7bc 6b3a df3c 028e bcbd
00000050: 0c5b 9dbc 4feb ddbd b5e7 8cbd 79db cebd
00000060: c160 edbd cbb4 27bd 262c ba3c f463 f53d
00000070: 8dcd eebc 6f10 35bd 62bf c83c 12e7 b83d
00000080: eb65 ef3d 980d 2b3d e58f 8abd 3b95 763d
00000090: 2044 a63c 22aa 433d 835a 21bd 950b a73d
000000a0: 1167 8abd d8a5 a3bc 1d45 e0bd fe49 0fbe
000000b0: 74c4 c6bb 2b2b ad3d fad9 2a3d c557 0b3a
000000c0: 217f 6c3c 775f c73d b45b dd3d 2a23 bfbd
000000d0: e359 04bd 21a5 84bd 385d eebd 3f6b 1dbe
000000e0: 1ca8 423d a9a8 9dbd 899f 0dbe 487a 23bd
000000f0: 921d 88bc 0cd0 dbbd 369b 55bd f3f6 903d
0.10694161 -0.08966268 0.068623826 -0.032659575 0.026200248 -0.06447751 -0.1296512 -0.093362555
-0.0698654 -0.0076892534 0.026602339 0.031528827 -0.11305378 0.030559571 0.023422845 0.06810898
-0.02886711 -0.02441104 0.027249536 -0.09206773 -0.019208454 -0.10835897 -0.06880132 -0.10100455
-0.1159072 -0.040943902 0.02272613 0.11981955 -0.029150749 -0.044205125 0.024505321 0.09028448
0.11689361 0.04176101 -0.06765727 0.06020091 0.020296156 0.047769673 -0.03939296 0.08156506
-0.067579396 -0.019976541 -0.10950682 -0.1399307 -0.0060658995 0.08455499 0.041711785 0.0005315508
0.014434607 0.09735005 0.108085066 -0.09332879 -0.032312285 -0.06476808 -0.11638874 -0.15372942
0.047523603 -0.07698185 -0.13830389 -0.03991154 -0.016615663 -0.10733041 -0.052149974 0.07078352

edge_function.4.weight f4 [64, 64]
00000000: b866 b1bd 324c f0bd b0d4 c1bd b4d9 9ebd
00000010: cc1a ddbd da06 a7bd a306 00bd 54e2 69bd
00000020: 9cb8 b83d dce9 7cba 0444 35bd 31ce c7bd
00000030: 2a58 a23d 93a8 e9bd c897 18bd 292a 0fbd
00000040: e6f8 08be 2979 1fbd 9c87 2fbd 7002 c53d
00000050: 0cc1 43be 6211 9abd 788a a43d 8028 87bd
00000060: 30ac c53c 2863 8a3c 8442 debd 305f d03c
00000070: 04f8 353d 188f 7e3d 7c83 343d 6a4d e3bd
00000080: 55bc b6bd 4f99 833c a53d 09be 5a6b 81bd
00000090: bd6e 42be c300 583d e4c6 8e3d 18f9 933d
000000a0: 9e88 0fbb a038 ee3b d439 10bd 2094 173c
000000b0: 8484 0fbe 0027 8b3c ec94 35bb 04db cdbd
000000c0: b46e b1bd 1367 23bc 6af4 8bbd 848b 8cbd
000000d0: 1274 fa3d 15b3 f1bd fd3b 42bc 4859 0fbd
000000e0: 0cd3 843d 600c dbbc c8bc 96bd 0c0c 13be
000000f0: ce78 843c 70e8 30bd fa14 f2bd 610a 1ebe
00000100: 44cd e33d ec4e e8bc 7387 583d 14f3 1b3d
00000110: ea2f efbd d913 893d 05c3 bebc 1ebb bcbd
00000120: c965 953d 9c1c 6c3d b903 96bd d200 a63b
00000130: 6414 9f3d 5139 723d fc7d e03d 0672 a63c
00000140: 7fb9 f83d 08fa 833d 0bc7 783d aafe e2bd
00000150: 7037 c8bd 8636 1a3d a6bb 803d 8d71 c73c
00000160: 6a6d 023e 996d 4e3d c185 92bd 00d3 a1ba
00000170: 5b50 ff3d c3dd a63d f8b3 513d 7b8b f93d
00000180: ce72 8cbd 670c 90bd 9385 a8bc 299e f83d
00000190: 5db3 28bc 5d5c 1ebd d717 d2bd 8f30 04bc
000001a0: a0cc d2bc 1d23 11ba 264c 4ebd 6c9b 31bd
000001b0: d192 28bd 5dc4 bebc 0f7a 3f3d b645 a63d
000001c0: a4ab 9cbc a805 80bd 0ce8 d7bd b4fb 63bc
000001d0: ae9d 90bd 3562 813d c571 99bd fce5 0b3d
000001e0: 9ada b0bd 80b7 88bd fea9 d3bd ca8a d53d
000001f0: e868 fe3b 9327 09be a170 fc3d ff57 33bd
00000200: 004a 4cbd 22ff 93bd e67e 65bd 2f9a cabd
00000210: e353 71bc 982b 9c3d 839c 89bc 60ba debd
00000220: f0cd 7dbd 7678 d93b 45d6 c23b 2340 b3bd
00000230: 036f ea3c c4db 263e 3d5a 92bd 5e2b 023e
00000240: bd9f 24bc 8530 ec3d a918 34bd c085 64bc
00000250: c154 2d3c f43f 053d 7c3c 7b3d 4733 913d
00000260: 3a36 ccbc db92 adbd a852 cfbd a0d7 833d
00000270: b4bd f93c c163 04bc 19fd 9e3b 8f24 1f3d
00000280: 953c 70bd 1388 1abe 7a37 973d 99cf e03c
00000290: 2365 01be 391e 833d f658 a1bd ee2e 9d3d
000002a0: 8d4a 053d 0624 d8bc 4e76 ffbd b4cd 103d
000002b0: 3aa3 0abe c623 8bbd 4310 933d 52e2 6dbd
000002c0: f2da 15be c279 f8bc b696 a63d f5ec af3d
000002d0: 4451 b5bb eb93 aebd f01e 033e 6afc 1ebe
000002e0: 0615 f13d bbf9 cfba 0bfb 953d 2e0f 54bd
000002f0: b454 00be e4c2 25bd 5f55 6d3d 6b4a 6fbd
00000300: c915 a6bd d181 c63c 8d66 76bd 8acc 19bb
00000310: f83e 883d 7dce 433c 9647 a5bd 0ecb b6bd
00000320: ce32 c13d 9001 273c e24f 5ebc cfd4 233d
00000330: 18ae d8bc 7662 b9bd 1cf1 4c3d 0a35 7abd
00000340: a649 d5bc 4f57 b2bc 5ed1 1b3d 300e f9bd
00000350: 13d2 883d edfa e2bd 3f7a 0abd c5c8 97bd
00000360: 9a11 b53d bad1 dabd 2413 523d 841c a83d
00000370: 5632 fb3d 9442 563d f026 83bd 2d46 703d
00000380: 2d66 303e c7c0 043e c5fc f4bd 3721 9e3d
00000390: d514 003e addb 94bd 9718 783d 5616 6abd
000003a0: a0b9 403b 7db8 0bbe 2694 44bd baec ebbd
000003b0: d39b a33d 3456 663d c181 e13c 76b1 5d3d
000003c0: 902c f63c 28c6 bc3d 4d39 5d3d 0c57 853b
000003d0: 8c24 1f3d 865e c9bd 3917 93bd 5930 fdbc
000003e0: c01f f93d 1401 813d cb53 6f3d 7f71 f53d
000003f0: b009 2abd 602b 1ebe 3915 f23d c909 913d
-0.0866217 -0.11733283 -0.09464395 -0.07756367 -0.10796127 -0.08155604 -0.03125633 -0.05710061
0.090195864 -0.0009647885 -0.044254318 -0.09756125 0.07926972 -0.11409106 -0.037254125 -0.034952316
-0.13376197 -0.038933907 -0.042853937 0.096196055 -0.1911661 -0.07522847 0.08034223 -0.06599522
0.024129957 0.016892985 -0.108525306 0.025436014 0.04442598 0.062148184 0.044070706 -0.1109875
-0.0892264 0.016064314 -0.13402422 -0.06319304 -0.18987556 0.0527351 0.06971529 0.07225245
-0.0021901499 0.007269934 -0.0352114 0.009251624 -0.14015394 0.01698637 -0.0027707173 -0.100515395
-0.08663693 -0.009973305 -0.06833728 -0.06862548 0.1222917 -0.11801735 -0.011855123 -0.034997255
0.064855665 -0.0267393 -0.07360226 -0.14360064 0.016170885 -0.04319042 -0.11820407 -0.15433647
0.11123136 -0.028357945 0.05286355 0.038073614 -0.11679061 0.06693239 -0.023286352 -0.09215377
0.072948046 0.05764447 -0.07324929 0.0050660158 0.07767561 0.059136692 0.109615296 0.020318042
0.121447556 0.06444174 0.060736697 -0.110837296 -0.09776199 0.037649654 0.06285791 0.024346137
0.1273705 0.05039749 -0.07154418 -0.0012346208 0.124664985 0.081477664 0.051197022 0.12184807
-0.06857835 -0.070336156 -0.020571506 0.12139542 -0.01029667 -0.038662303 -0.10258453 -0.008068218
-0.025732338 -0.00055365433 -0.05036559 -0.043361112 -0.04115564 -0.023286993 0.046747264 0.08118765
-0.019124813 -0.06251079 -0.10542306 -0.013914991 -0.07061325 0.0631756 -0.07492403 0.034154877
-0.08635445 -0.06675625 -0.10335158 0.104268625 0.0077639706 -0.13394003 0.1232617 -0.04378509
-0.04987526 -0.07226397 -0.056029223 -0.098926894 -0.014729473 0.07625502 -0.016798263 -0.10875392
-0.061963975 0.0066366745 0.005945953 -0.087524675 0.028617388 0.16294771 -0.07146118 0.12711856
-0.01004785 0.11532692 -0.04396883 -0.013947904 0.010579289 0.032531694 0.06133698 0.070898585
-0.024928201 -0.08475276 -0.10123187 0.064376116 0.030485965 -0.008080424 0.004851949 0.038853224
-0.058651526 -0.1509097 0.07383628 0.02744274 -0.12636237 0.06402249 -0.07878296 0.07674967
0.0325418 -0.026384365 -0.12473737 0.035352424 -0.13538828 -0.067939326 0.07180836 -0.058077164
-0.14634302 -0.030331496 0.081342146 0.08590118 -0.0055333693 -0.08524307 0.1280477 -0.15525976
0.11771588 -0.0015867272 0.07323273 -0.05177229 -0.12532312 -0.040469065 0.057942744 -0.05842058
-0.08109624 0.024231823 -0.060156394 -0.0023467862 0.06652635 0.011951086 -0.080702946 -0.08925448
0.09433518 0.010193244 -0.01356885 0.039997872 -0.026450202 -0.09051983 0.050034627 -0.06108574
-0.026036095 -0.021770148 0.038041465 -0.12160909 0.066806935 -0.110830165 -0.03380799 -0.074113406
0.08841248 -0.106845334 0.051287785 0.08208564 0.1226546 0.052309588 -0.06403911 0.058660675
0.17226477 0.12964164 -0.119622745 0.07721179 0.12507947 -0.07268462 0.060570326 -0.057150207
0.0029407516 -0.13644595 -0.047992848 -0.115197614 0.079887055 0.056234553 0.027527692 0.054124318
0.030050546 0.09217483 0.054009724 0.0040692147 0.038853213 -0.09832482 -0.07182164 -0.030906843
0.12164259 0.06299034 0.05842952 0.11984538 -0.041513145 -0.15446234 0.11820454 0.070819445
