Projects/GuoxiangGrayson_T_A study of multi-fidelity graph neural networks/Model_save/Quarter2D/Rank=40-GNN-nB-64-Lr-0.005/model.pth (torch, 114781 bytes, 24 tensors)

node_function_neighbor.0.weight f4 [64, 2]
-0.22813511 -0.5675396 0.32631373 -0.28383034 0.49876177 0.37726346 -0.3366773 0.016023355
-0.41084072 -0.40993223 -0.42126396 0.57345974 -0.45220158 -0.30740437 0.417147 -0.036172315
-0.025094386 -0.481892 0.52112037 -0.33460692 -0.47174412 -0.3039767 -0.17545031 -0.14425626
-0.25900838 0.100033194 0.35006067 0.3344132 0.28408298 -0.3833848 0.16424249 -0.02086714
0.26601082 -0.33191544 -0.1455332 -0.52462983 0.6841768 0.5253686 0.25288257 0.13255952
0.32986814 0.4753914 -0.15945935 0.15538904 -0.21134205 0.64467275 -0.4276171 -0.18595283
-0.6650471 -0.22952457 -0.60846955 -0.22449145 0.122002356 0.2565329 -0.086247854 -0.4070942
-0.19692308 -0.16164587 -0.12161392 0.58869195 -0.3621048 0.44318917 -0.57042694 -0.1796175
-0.3520455 0.016925905 0.22229615 -0.07134488 -0.19882569 0.56642735 0.26137093 0.54822224
0.031884503 -0.29366305 -0.451916 -0.10268134 0.25266454 -0.33067876 0.24162377 0.6109808
0.43385836 -0.25413674 -0.48943806 0.54770887 0.41616204 -0.55597425 -0.044503044 0.21174249
-0.07736508 0.16087468 -0.16912414 0.3247894 -0.65294534 0.4237131 -0.31370553 0.21364678
-0.5937714 -0.36029336 -0.09287331 -0.62305504 -0.09035718 0.04468511 0.44945303 0.50190216
0.59730804 0.09100346 0.50417155 -0.16209425 -0.4808264 0.058901027 -0.21741545 -0.31902978
-0.5340683 0.25095698 -0.17198557 -0.33234742 0.5256144 0.26880896 0.36408523 0.21318194
-0.42748562 0.32411233 0.372872 0.37737298 0.36582455 0.4388977 -0.07708232 -0.2795081
00000000: 409c 69be 464a 11bf 9812 a73e 3652 91be
00000010: b45d ff3e ad28 c13e f860 acbe 6943 833c
00000020: b759 d2be a3e2 d1be e9af d7be 42ce 123f
00000030: f786 e7be 1b64 9dbe 4b94 d53e 6c29 14bd
00000040: be92 cdbc 8cba f6be 2568 053f 9951 abbe
00000050: 7288 f1be d6a2 9bbe 3fa9 33be eab7 13be
00000060: bf9c 84be 34de cc3d 273b b33e 3538 ab3e
00000070: 5373 913e 034b c4be 2f2f 283e 90f1 aabc
00000080: 9232 883e d2f0 a9be a806 15be 244e 06bf
00000090: 3626 2f3f 8e7e 063f d379 813e afbd 073e
000000a0: 7ae4 a83e 8066 f33e 5049 23be 4e1e 1f3e
000000b0: 0d6a 58be 4609 253f a1f0 dabe 6b6a 3ebe
000000c0: 8740 2abf 7d08 6bbe a9c4 1bbf 16e1 65be
000000d0: 5fdc f93d 4858 833e b7a2 b0bd a76e d0be
000000e0: 34a6 49be 7f86 25be b810 f9bd 84b4 163f
000000f0: cd65 b9be b1e9 e23e 8007 12bf a6ed 37be
00000100: 4f3f b4be 32a8 8a3c 9aa1 633e 441d 92bd
00000110: f698 4bbe 6201 113f 69d2 853e 4b58 0c3f
00000120: 5399 023d 015b 96be 8961 e7be 984a d2bd
00000130: 3f5d 813e ba4e a9be 396c 773e 3d69 1c3f
00000140: af22 de3e 361e 82be a097 fabe a636 0c3f
00000150: 3113 d53e 5454 0ebf d348 36bd 06d3 583e
00000160: 9571 9ebd 55bc 243e e12e 2dbe cc4a a63e
00000170: 6d27 27bf ecf0 d83e 039e a0be 39c6 5a3e
00000180: 6701 18bf 5f78 b8be 5d34 bebd 8980 1fbf
00000190: 2f0d b9bd bc07 373d b51e e63e a97c 003f
000001a0: 2ee9 183f 0660 ba3d 6311 013f 09fc 25be
000001b0: e12e f6be 3442 713d 28a2 5ebe df57 a3be
000001c0: b3b8 08bf 6f7d 803e fc1c 30be 7129 aabe
000001d0: aa8e 063f 54a1 893e 6169 ba3e 5e4c 5a3e
000001e0: 65df dabe 0df2 a53e 14e9 be3e 0837 c13e
000001f0: 5b4d bb3e 33b7 e03e 56dd 9dbd b01b 8fbe

node_function_neighbor.0.bias f4 [64]
-0.6185684 0.5100217 0.12899001 -0.3228277 -0.38201883 -0.00071981037 0.043087825 0.63536847
-0.361301 -0.3841802 -0.65772426 -0.25562423 0.07071236 -0.04544499 -0.36265835 0.00964991
-0.08444595 0.14333369 0.25029284 -0.40699875 -0.2992297 0.4124523 0.31949207 0.4396697
-0.18565688 -0.75252914 -0.05267203 -0.6073117 -0.6445906 -0.31464928 0.6677364 0.11014926
0.4227608 -0.6965919 -0.57199806 0.46164495 0.5556648 -0.22001277 -0.3099548 0.3775789
0.24150075 -0.6704187 -0.31441465 -0.54325205 -0.5801497 -0.26047137 -0.51149726 0.25796825
-0.37140173 0.5640505 0.45144695 0.31617132 0.7054124 0.47492468 -0.2393804 0.3746648
0.62542206 0.20653765 -0.4838042 -0.41331762 -0.017778693 0.5436435 -0.66588444 0.35976824
00000000: 805a 1ebf c890 023f f515 043e ac49 a5be
00000010: f997 c3be a8b1 3cba dc7c 303d 82a7 223f
00000020: 72fc b8be 44b3 c4be 9e60 28bf 2ee1 82be
00000030: a4d1 903d 8724 3abd 5bae b9be a81a 1e3c
00000040: 00f2 acbd 11c6 123e 6226 803e 2462 d0be
00000050: a334 99be f32c d33e 7794 a33e 631c e13e
00000060: d61c 3ebe c0a5 40bf a0be 57bd c878 1bbf
00000070: e403 25bf b619 a1be c6f0 2a3f ef95 e13d
00000080: 1b74 d83e d953 32bf 776e 12bf ba5c ec3e
00000090: 0c40 0e3f 074b 61be 65b2 9ebe 0652 c13e
000000a0: f94b 773e 8fa0 2bbf f5fa a0be 9112 0bbf
000000b0: b184 14bf 815c 85be 7cf1 02bf 6a14 843e
000000c0: 5e28 bebe 9d65 103f 0e24 e73e 35e1 a13e
000000d0: e895 343f 5429 f33e 2320 75be 11d4 bf3e
000000e0: a91b 203f 9b7e 533e 2fb5 f7be 5e9e d3be
000000f0: 9fa4 91bc 382c 0b3f 6777 2abf 8b33 b83e

node_function_neighbor.2.weight f4 [64, 64]
0.023973439 0.0705296 -0.021038419 -0.10250737 0.01307564 -0.043600198 0.08823454 0.030753257
-0.060790706 -0.10395152 -0.000593579 -0.010057628 0.06367651 -0.14021999 -0.04982234 0.039481755
0.02681468 0.087735064 0.09492517 -0.08388956 0.083478846 0.074845344 -0.01465778 -0.11058529
0.040918656 0.064098746 -0.07043173 -0.09569756 -0.0072594285 0.042399295 0.094355494 -0.14521329
-0.12128001 -0.05373131 0.0634577 -0.10528314 0.056039225 0.00081731577 -0.13326088 0.036984645
-0.01916762 0.058528587 0.09424981 -0.032680757 -0.12269792 -0.02397938 -0.09420695 0.009617231
0.045501236 0.04104835 0.09515283 -0.06151813 0.0073019345 -0.07462029 -0.16430911 -0.06470876
0.060684428 0.07196798 -0.015053982 -0.05316048 0.041552532 -0.08278076 -0.1313237 -0.10362613
0.050937068 0.04583039 -0.104067594 -0.039964568 -0.07670193 -0.02676136 -0.0039182706 0.0054516634
0.08480414 -0.10124192 0.006277348 -0.03216079 0.11482073 -0.026383396 -0.08167148 -0.108830824
-0.079591736 -0.12002607 0.03366089 -0.08124658 -0.154807 0.12741774 -0.060119163 -0.025850872
-0.070355155 0.041359566 0.046661325 -0.07605921 -0.048733413 0.010488633 0.09557643 -0.11595441
0.09369508 0.081705645 0.041437406 -0.14100717 0.052675128 -0.08455296 -0.12725061 -0.06510529
0.0054771174 0.03819376 -0.12748954 0.010037422 0.06869052 -0.09318845 -0.058419432 0.0035742037
-0.05003777 -0.08947172 0.025139421 -0.12332169 0.06618993 -0.048752796 0.07085221 -0.05814358
-0.05077518 0.029616356 -0.0130969295 0.014415042 -0.0056747934 -0.08475372 0.06368555 -0.092955336
-0.04463317 -0.01013974 -0.12608908 0.016433408 -0.06739304 -0.14314404 0.04953604 -0.09500456
0.04383279 0.056419674 -0.067834534 -0.0039569787 -0.030553114 -0.14828429 -0.15029126 0.030423889
0.028692108 -0.026114542 -0.14923179 -0.114106186 -0.10564776 -0.007264519 0.05761562 -0.01015014
0.021775058 -0.11935213 0.0016735494 -0.12305892 0.016571023 -0.112596154 -0.10341753 -0.017097037
-0.012376361 0.07872157 0.07710665 -0.009225104 -0.0022349749 -0.06401048 -0.029261159 0.061157584
0.008594993 -0.0032065278 -0.015237349 0.14376485 0.051918622 -0.03568449 -0.14687136 -0.044943873
0.008014956 -0.13754739 -0.060788717 0.052279465 -0.11297309 0.06658944 -0.109123014 0.058536444
-0.061099473 0.048790224 0.026178245 -0.09198073 -0.15885659 -0.11244639 -0.0037341118 -0.095174804
-0.052930348 -0.031066073 0.07179502 -0.1219885 0.082178436 -0.11050279 -0.09660462 0.02470618
0.05169366 -0.053738207 0.061972994 -0.04174789 -0.03441587 -0.06837311 -0.016268874 -0.072407074
-0.14277013 -0.03685642 0.04796586 0.022581609 -0.035583775 0.04865637 -0.001247126 0.08183682
0.039627347 -0.0289465 0.048998713 0.06899307 0.01613733 -0.167937 0.038449652 -0.11604347
0.045155127 -0.03669199 -0.01060645 -0.12291742 -0.02883958 0.017377257 0.09197715 -0.16041379
0.03586436 -0.02369202 0.050964247 0.0562776 0.036276817 -0.09018732 -0.12581597 -0.14021395
-0.05510669 0.0026464942 0.04812255 0.016581675 -0.113135114 -0.103873394 0.03157168 0.07827905
-0.11982814 -0.10260342 -0.011409637 -0.09032355 -0.11349717 -0.0243055 -0.12113465 0.075953245
00000000: f263 c43c d371 903d c358 acbc 62ef d1bd
00000010: 363b 563c 1f96 32bd 4fb4 b43d 41ee fb3c
00000020: adff 78bd 89e4 d4bd 6a9a 1bba c0c8 24bc
00000030: d468 823d d495 0fbe 8312 4cbd 9fb7 213d
00000040: 76aa db3c 71ae b33d 2168 c23d 4ace abbd
00000050: f5f6 aa3d 8448 993d 2f27 70bc 8a7a e2bd
00000060: 529a 273d 3446 833d 833e 90bd 15fd c3bd
00000070: 80e0 edbb e2aa 2d3d 743d c13d cbb2 14be
00000080: a761 f8bd 5d15 5cbd 1cf6 813d b09e d7bd
00000090: 6389 653d 2241 563a 8a75 08be 367d 173d
000000a0: 6a05 9dbc acbb 6f3d 0b06 c13d 42dc 05bd
000000b0: 0c49 fbbd 6870 c4bc 93ef c0bd 9791 1d3c
000000c0: 815f 3a3d 5122 283d 7ddf c23d 6ffa 7bbd
000000d0: 1145 ef3b 86d2 98bd a640 28be 0786 84bd
000000e0: 3c90 783d f363 933d faa4 76bc cebe 59bd
000000f0: fd32 2a3d f688 a9bd b879 06be f039 d4bd
00000100: 63a3 503d a6b8 3b3d 6421 d5bd e3b1 23bd
00000110: e715 9dbd a43a dbbc d664 80bb dea3 b23b
00000120: cbad ad3d ec57 cfbd 36b2 cd3b 08bb 03bd
00000130: 2227 eb3d fe21 d8bc 6043 a7bd b2e2 debd
00000140: fe00 a3bd 3ad0 f5bd 00e0 093d 9b64 a6bd
00000150: ba85 1ebe cc79 023e 833f 76bd 35c5 d3bc
00000160: 5d16 90bd a668 293d f21f 3f3d eec4 9bbd
00000170: b09c 47bd 84d8 2b3c 93bd c33d 8179 edbd
00000180: 35e3 bf3d 4a55 a73d 45ba 293d 2f64 10be
00000190: e0c1 573d 1a2a adbd fc4d 02be ec55 85bd
000001a0: 6479 b33b 0f71 1c3d 9e8c 02be 0074 243c
000001b0: 9ead 8c3d 96d9 bebd 3749 6fbd 303d 6a3b
000001c0: 68f4 4cbd f33c b7bd 30f1 cd3c 1590 fcbd
000001d0: 968e 873d 03b1 47bd f71a 913d f627 6ebd
000001e0: a3f9 4fbd 009e f23c 8194 56bc 112d 6c3c
000001f0: 9ef3 b9bb 5c93 adbd 926d 823d 5e5f bebd
00000200: 45d1 36bd 2721 26bc 7f1d 01be 5b9f 863c
00000210: 5d05 8abd 5a94 12be 4de6 4a3d c091 c2bd
00000220: 038a 333d 5118 673d d5ec 8abd 8ba9 81bb
00000230: 864a fabc d6d7 17be f4e5 19be 853b f93c
00000240: b60b eb3c 2aee d5bc 38d0 18be 81b0 e9bd
00000250: da5d d8bd 340b eebb 5bfe 6b3d c64c 26bc
00000260: 9b61 b23c e46e f4bd 005b db3a 5106 fcbd
00000270: f4bf 873c d098 e6bd 92cc d3bd 160f 8cbc
00000280: 38c6 4abc c638 a13d 17ea 9d3d e424 17bc
00000290: a878 12bb ed17 83bd 19b5 efbc 6080 7a3d
000002a0: 03d2 0c3c 9c24 52bb 13a6 79bc 1837 133e
000002b0: 9fa8 543d e629 12bd 7265 16be 1117 38bd
000002c0: 2951 033c 39d9 0cbe 97fd 78bd fe22 563d
000002d0: 6f5e e7bd 0b60 883d e37b dfbd e9c3 6f3d
000002e0: 7143 7abd 42d8 473d c273 d63c 6560 bcbd
000002f0: 4dab 22be 4b4a e6bd 00b8 74bb 02eb c2bd
00000300: 7ecd 58bd 477e febc 4409 933d 1bd5 f9bd
00000310: 2b4d a83d 494f e2bd a5d8 c5bd 9d64 ca3c
00000320: bbbc 533d 981c 5cbd 65d7 7d3d d6ff 2abd
00000330: a8f7 0cbd 3307 8cbd 4d46 85bc 294a 94bd
00000340: 5532 12be c2f6 16bd da77 443d 11fd b83c
00000350: 4bc0 11bd e74b 473d 9b76 a3ba 109a a73d
00000360: 4950 223d 3621 edbc e0b2 483d 3d4c 8d3d
00000370: 6f32 843c adf7 2bbe 627d 1d3d 33a8 edbd
00000380: 95f4 383d 574a 16bd adc6 2dbc 21bc fbbd
00000390: fc40 ecbc c05a 8e3c 845e bc3d 8343 24be
000003a0: 82e6 123d c415 c2bc e3bf 503d 5783 663d
000003b0: 0097 143d 21b4 b8bd e7d5 00be 3f94 0fbe
000003c0: 8db7 61bd ce70 2d3b 271c 453d 4bd6 873c
000003d0: 62b3 e7bd 93bb d4bd 4e51 013d c450 a03d
000003e0: 7568 f5bd be21 d2bd 7cef 3abc 8efb b8bd
000003f0: 3471 e8bd 541c c7bc 7215 f8bd 608d 9b3d

node_function_neighbor.2.bias f4 [64]
-0.11470021 0.08460262 -0.04835647 0.08452693 -0.14947326 -0.06793565 -0.08906371 0.08045017
0.025397005 0.05340884 0.07164114 0.0023273441 -0.087733306 0.06747461 -0.109710276 0.022532957
-0.1514267 0.03896659 0.083661795 -0.04520354 -0.14274302 0.05259522 0.028129607 -0.08804007
-0.07122743 -0.028119033 -0.114363894 0.04204274 0.057153482 -0.02882563 0.020690829 0.09681849
0.065381184 -0.07189699 0.05142372 -0.10627109 0.018749235 -0.023982598 0.0072595323 -0.09561633
-0.14631535 0.036167823 -0.06389541 -0.0009306733 0.07768989 0.064331256 -0.011386022 0.019042026
0.06779172 -0.073548436 -0.09259412 0.115008116 0.039679848 0.06946093 0.005574741 -0.038353764
-0.040679287 -0.12595804 0.07748048 -0.09116726 0.03536396 -0.058372844 0.0011547934 0.019954905
00000000: f2e7 eabd 2344 ad3d 6f11 46bd 741c ad3d
00000010: 850f 19be d921 8bbd 0967 b6bd 0fc3 a43d
00000020: 610d d03c 3ac3 5a3d 97b8 923d 5b86 183b
00000030: 85ad b3bd 2130 8a3d c8af e0bd 0997 b83c
00000040: 9a0f 1bbe 6e9b 1f3d e056 ab3d 5927 39bd
00000050: 3a2b 12be 166e 573d 1070 e63c 5a4e b4bd
00000060: b0df 91bd e359 e6bc 9e37 eabd 0235 2c3d
00000070: c519 6a3d ba23 ecbc d07f a93c c648 c63d
00000080: 92e6 853d bb3e 93bd aea1 523d a8a4 d9bd
00000090: ff97 993c 2777 c4bc 5fe1 ed3b 7fd2 c3bd
000000a0: b1d3 15be b624 143d 99db 82bd 6ef8 73ba
000000b0: e11b 9f3d 1bc0 833d 708c 3abc 06fe 9b3c
000000c0: 63d6 8a3d 90a0 96bd fca1 bdbd 6089 eb3d
000000d0: 5687 223d 8841 8e3d 51ac b63b d618 1dbd
000000e0: 539f 26bd 25fb 00be 16ae 9e3d e7b5 babd
000000f0: cdd9 103d 5d18 6fbd 705c 973a 7878 a33c

node_function_neighbor.4.weight f4 [64, 64]
-0.035274964 -0.21373463 -0.031720318 -0.08300343 -0.07668195 -0.06835559 0.044303257 0.023221798
-0.035071902 0.03408948 -0.11369949 -0.053845562 -0.12799902 -0.026045162 -0.090127915 -0.13404867
-0.108632445 -0.07727818 -0.04992111 -0.14380445 0.052095603 -0.07690612 0.034926213 -0.05534713
-0.15801929 -0.08884079 -0.038848795 -0.0006133909 0.14007697 -0.09328547 0.0038837297 -0.04546836
-0.12592708 -0.14621979 -0.0055140844 0.053693466 0.051735558 -0.060049478 0.10319861 0.08299456
0.05414208 0.056673713 -0.07361305 0.043433372 0.003386089 -0.033628985 -0.045469232 -0.026263561
-0.09398422 -0.024464339 0.052438095 -0.08228726 0.1108682 0.042139787 -0.06603043 0.06530605
-0.03926046 0.0806734 0.07190807 -0.113894105 -0.014003243 0.077045046 -0.0908796 0.09341133
-0.026846979 -0.05865798 -0.11932982 -0.14187068 -0.07149069 -0.023734415 -0.08571093 0.009876381
-0.031365156 -0.12776811 -0.073040105 -0.048307166 -0.05304883 -0.030767154 -0.0010999176 -0.06839158
-0.15045303 0.066285335 -0.0699057 -0.01216124 0.033405464 0.03458014 0.09716818 0.11455396
-0.03043656 -0.090128034 -0.05172287 -0.06908069 0.10031189 0.05950109 -0.13649629 -0.041619584
-0.059318848 0.03900873 0.010256108 -0.046657745 -0.09177503 -0.069796264 -0.032622375 0.04488913
-0.07001413 0.014492988 -0.12416275 -0.17013188 0.071585685 -0.11185835 -0.041073404 0.05147636
-0.064528756 0.014848606 0.039977983 -0.11753821 -0.07601288 0.0380164 -0.093885206 -0.011462441
0.073356494 -0.043224197 -0.10939799 -0.124640726 0.0147244185 0.1161524 -0.1010006 0.08227421
0.07819313 0.093559995 -0.08528479 0.13115545 -0.09151469 -0.118804075 -0.028884958 0.053899433
0.0060858894 0.043142267 -0.12378263 0.08102978 -0.09076283 -0.11768815 -0.020673146 0.006440419
0.02921348 0.044411995 -0.00984818 -0.05155244 0.06712276 0.045582816 0.056588903 -0.0058057755
-0.110721365 -0.06926894 0.14612997 -0.14321427 -0.016541634 0.036119316 -0.0027107054 -0.10368742
-0.06134199 -0.015004463 0.011688121 -0.13484891 0.05150966 -0.062718175 0.036397707 -0.099210225
-0.0769101 -0.006908624 -0.0061826054 0.028582387 -0.048345443 0.019211227 -0.09274707 0.072746426
-0.16441421 0.0054349615 0.0503238 0.02517988 0.07840103 -0.07083283 0.06897266 0.09793628
-0.08254333 -0.065290265 0.03339912 -0.107288264 0.08103695 -0.063048095 -0.12195096 0.087514035
-0.1267902 -0.15457194 -0.07460911 0.092406444 -0.079532415 -0.12033319 0.11037977 0.007466408
-0.0050934507 0.021137185 0.05358281 -0.08196297 0.0496829 -0.09914374 -0.071350716 0.07018393
-0.08927609 0.098510265 -0.036064245 -0.0042483816 -0.075645566 -0.07331766 0.07626758 -0.043746978
-0.10283087 0.051938254 -0.12553348 0.11786562 0.11525951 -0.11250968 0.03654151 0.11798683
0.06582095 -0.096409656 -0.120089434 -0.007271753 -0.07250111 0.12719718 -0.11358121 -0.011114836
-0.043975893 0.073518045 -0.06974613 0.050877646 -0.015530422 -0.09542509 0.037353113 -0.057465263
-0.027598107 0.05246508 -0.07531655 0.007275056 -0.02842294 -0.049580663 0.0224589 -0.08816051
-0.11453821 -0.034662362 -0.08635986 0.06177469 0.0611625 0.08237952 -0.017931536 -0.024820969
00000000: 7b7c 10bd 40dd 5abe 2aed 01bd b4fd a9bd
00000010: 6d0b 9dbd 04fe 8bbd 5577 353d a43b be3c
00000020: 8ea7 0fbd 69a1 0b3d 47db e8bd 2a8d 5cbd
00000030: 2d12 03be aa5c d5bc fc94 b8bd 0e44 09be
00000040: b07a debd 0644 9ebd 147a 4cbd 7941 13be
00000050: 3362 553d f580 9dbd ca0e 0f3d acb3 62bd
00000060: cfcf 21be 29f2 b5bd ea1f 1fbd f7cb 20ba
00000070: 5670 0f3e 740c bfbd 2c86 7e3b 083d 3abd
00000080: 07f3 00be a4ba 15be 7eaf b4bb aeed 5b3d
00000090: aae8 533d 71f6 75bd cb59 d33d 0df9 a93d
000000a0: 16c4 5d3d b222 683d 70c2 96bd 31e7 313d
000000b0: 26e9 5d3b 8cbe 09bd f23d 3abd ae26 d7bc
000000c0: cc7a c0bd 7069 c8bc 54c9 563d 3986 a8bd
000000d0: de0e e33d c59a 2c3d f63a 87bd 2ebf 853d
000000e0: 93cf 20bd 1838 a53d 8a44 933d 5041 e9bd
000000f0: dc6d 65bc cbc9 9d3d 151f babd 704e bf3d
00000100: 32ee dbbc 5a43 70bd 3163 f4bd 8c46 11be
00000110: b669 92bd ad6e c2bc 3689 afbd 8bd0 213c
00000120: c078 00bd a5d5 02be 0d96 95bd bcdd 45bd
00000130: bb49 59bd 660b fcbc 1c2b 90ba e210 8cbd
00000140: 5c10 1abe 9bc0 873d b82a 8fbd f03f 47bc
00000150: 2bd4 083d e8a3 0d3d 1c00 c73d 449b ea3d
00000160: 1856 f9bc 0c95 b8bd 5cdb 53bd 2d7a 8dbd
00000170: 5270 cd3d 6ab7 733d afc5 0bbe 4c79 2abd
00000180: 52f8 72bd 9ec7 1f3d 3c09 283c 311c 3fbd
00000190: 8cf4 bbbd 58f1 8ebd 0a9f 05bd aadd 373d
000001a0: 9163 8fbd ff73 6d3c 0a49 febd 0d37 2ebe
000001b0: 849b 923d fe15 e5bd 963c 28bd e0d8 523d
000001c0: a727 84bd 9147 733c f4bf 233d dfb7 f0bd
000001d0: a4ac 9bbd 16b7 1b3d e346 c0bd f6cc 3bbc
000001e0: ee3b 963d db0b 31bd 0e0c e0bd a343 ffbd
000001f0: b03e 713c 4fe1 ed3d 67d9 cebd 627f a83d
00000200: b823 a03d 629c bf3d cba9 aebd 9d4d 063e
00000210: 0e6c bbbd 8d4f f3bd 26a0 ecbc a7c5 5c3d
00000220: 246c c73b f2b5 303d bf81 fdbd f1f2 a53d
00000230: dde1 b9bd 7c06 f1bd bb5a a9bc 260a d33b
00000240: 1c51 ef3c 5ae9 353d 435a 21bc a728 53bd
00000250: a877 893d 0cb5 3a3d c4c9 673d 603e bebb
00000260: e2c1 e2bd e0dc 8dbd 18a3 153e c3a6 12be
00000270: 5282 87bc d9f1 133d 17a6 31bb 125a d4bd
00000280: bd41 7bbd 47d5 75bc 887f 3f3c d515 0abe
00000290: cbfb 523d 6372 80bd c315 153d bb2e cbbd
000002a0: 0b83 9dbd bd61 e2bb 7497 cabb 9c25 ea3c
000002b0: df05 46bd dd60 9d3c 2df2 bdbd 14fc 943d
000002c0: 335c 28be c317 b23b 5420 4e3d 0946 ce3c
000002d0: b890 a03d ce10 91bd 8a41 8d3d d192 c83d
000002e0: 7a0c a9bd e7b6 85bd 84cd 083d f3b9 dbbd
000002f0: b3f6 a53d 5c1f 81bd 6dc1 f9bd 8f3a b33d
00000300: 4ad5 01be 1b48 1ebe a9cc 98bd 973f bd3d
00000310: e4e1 a2bd 3f71 f6bd ca0e e23d c5a8 f43b
00000320: f6e6 a6bb e427 ad3c a679 5b3d 34dc a7bd
00000330: 4c80 4b3d e00b cbbd 5320 92bd 98bc 8f3d
00000340: 62d6 b6bd c0bf c93d 1ab8 13bd 0236 8bbb
00000350: 10ec 9abd 9227 96bd 2d32 9c3d 0830 33bd
00000360: fe98 d2bd 35bd 543d d98b 00be 8863 f13d
00000370: 2e0d ec3d 7a6b e6bd 8dac 153d 14a3 f13d
00000380: 22cd 863d 6d72 c5bd 73f1 f5bd e347 eebb
00000390: 767b 94bd fa3f 023e 449d e8bd 001b 36bc
000003a0: 1120 34bd a190 963d 0fd7 8ebd 1465 503d
000003b0: 5073 7ebc 3b6e c3bd 94ff 183d b260 6bbd
000003c0: 6d15 e2bc a0e5 563d 903f 9abd 9863 ee3b
000003d0: 3ad7 e8bc 1815 4bbd bafb b73c 7f8d b4bd
000003e0: 0293 eabd 1ffa 0dbd 70dd b0bd 7507 7d3d
000003f0: 8885 7a3d 98b6 a83d 28e5 92bc 5855 cbbc

node_function_neighbor.4.bias f4 [64]
-0.14183001 -0.09949363 -0.06502255 -0.09009776 0.010134417 -0.08204042 -0.17754379 0.026411545
0.034039106 -0.090176925 -0.09356606 0.008950361 -0.04667075 -0.020257834 -0.050152443 -0.08814292
0.08461055 0.012998507 0.015197978 -0.10258048 -0.06196242 0.017247641 -0.029983267 -0.061548036
-0.09405871 0.030531114 -0.10355111 -0.10721163 0.06349547 0.064781345 -0.0069260867 -0.057364393
-0.12383506 -0.12568955 -0.05171356 -0.11026747 -0.14856997 0.054065283 -0.015895193 -0.17764394
-0.100208215 -0.0020187595 0.031125637 -0.05781136 0.03144721 -0.12456704 -0.073024556 -0.12253996
-0.18021022 -0.010905054 -0.07315928 0.10518143 -0.08938061 -0.06582697 0.0016531746 -0.032639965
-0.005596348 0.05084682 -0.017680606 0.098971255 -0.15420215 -0.0072925407 0.046067208 0.010189657
00000000: e33b 11be 51c3 cbbd 8b2a 85bd 2d85 b8bd
00000010: d30a 263c cf04 a8bd 0ace 35be 065d d83c
00000020: 976c 0b3d aeae b8bd 909f bfbd 89a4 123c
00000030: d429 3fbd c2f3 a5bc a66c 4dbd 4684 b4bd
00000040: 4c48 ad3d b1f7 543c f100 793c b715 d2bd
00000050: 4ecc 7dbd ed4a 8d3c 789f f5bc cb19 7cbd
00000060: daa1 c0bd 631c fa3c 9b12 d4bd c591 dbbd
00000070: ea09 823d 15ac 843d 3af4 e2bb edf6 6abd
00000080: 3c9d fdbd c3b4 00be 99d1 53bd e9d3 e1bd
00000090: ba22 18be 8f73 5d3d a336 82bc 4be8 35be
000000a0: f739 cdbd 2a4d 04bb 31fb fe3c 9bcb 6cbd
000000b0: cace 003d 011d ffbd e68d 95bd 3bf6 fabd
000000c0: 0789 38be 1dab 32bc 88d4 95bd 5d69 d73d
000000d0: 2e0d b7bd 4ad0 86bd 56af d83a 7cb1 05bd
000000e0: 9261 b7bb c144 503d ebd6 90bc 71b1 ca3d
000000f0: 2be7 1dbe 44f6 eebb f8b0 3c3d 85f2 263c

node_function_neighbor.6.weight f4 [4, 64]
-0.03014662 0.08663303 0.10434305 -0.005658165 0.017284742 0.006926476 0.012691252 -0.088407606
0.07366799 -0.01916258 0.04627478 -0.12244093 -0.0028367992 -0.06202157 0.08442806 0.017688723
-0.014945773 -0.08549724 -0.059701435 0.05461658 0.1756805 0.09100427 0.032592956 -0.0086323675
-0.029947715 -0.084006734 -0.019223096 0.06722986 -0.06890721 0.08840709 0.04580588 -0.008745031
0.13400117 -0.039862636 0.083041824 -0.007848064 -0.023823647 -0.076428324 -0.11274849 -0.04045753
0.05195618 -0.002809037 -0.034819324 0.0512451 0.11228247 0.06718358 0.046965808 -0.033101946
0.18968058 -0.07772064 0.052559428 -0.032495555 -0.079402894 -0.01942518 -0.014228604 0.015106855
-0.018491063 -0.06701419 0.038734302 0.16713649 -0.026898835 0.00981614 -0.02194823 -0.07503479
0.06642579 0.090438664 0.056601092 0.014601775 0.016565032 -0.03856772 -0.13218577 -0.11651013
0.06055542 -0.108105734 -0.062316272 -0.03431351 -0.03760971 -0.11651498 -0.10763814 0.11108267
0.044906035 -0.10302679 0.010892629 0.0382634 0.048900835 0.078055605 0.002793453 -0.0036777959
-0.039541736 -0.07600388 0.06990706 -0.008311419 -0.022986483 0.02484252 -0.029072596 0.012374043
0.075835004 0.10962979 -0.0039472934 -0.036122173 -0.039117195 0.054028016 -0.03075412 -0.044105876
-0.03957065 -0.07794318 -0.041723102 -0.029421834 0.06582963 0.02641892 0.06944909 0.070993476
0.08505751 0.032746516 -0.013333124 0.00057949394 0.027650816 0.0052184067 -0.033452 -0.05032328
-0.01722111 0.084958464 0.003975291 -0.14994925 -0.0420885 -0.025631001 -0.029968366 -0.07905999
0.05462352 0.00043401815 -0.024307447 -0.08984703 -0.038666427 -0.0642515 0.081722364 0.073616035
-0.073884346 0.09090096 -0.07503916 0.04069893 0.06516086 0.07081377 -0.010886363 0.056587275
-0.039234422 -0.07010396 0.051661573 0.08984128 0.11559429 -0.1231988 0.03015117 -0.094594225
-0.062518686 -0.06971479 -0.09025187 -0.07542544 -0.041034687 0.0626852 -0.054761074 0.06617504
-0.14116274 -0.030915227 -0.110717766 0.037924968 0.06352692 0.07326264 -0.06855325 -0.05689349
-0.0313785 0.1182294 0.13016668 0.09852705 0.17640749 0.0047822804 0.0128765665 -0.07827546
-0.026749788 -0.07264041 0.049246445 -0.028916156 0.075387806 0.04438959 0.011046082 -0.045302406
-0.07696285 0.06928105 0.06480102 0.17835987 0.020473868 0.00084397785 0.019663058 -0.057275005
-0.017647956 -0.068488225 0.074218474 -0.011378957 -0.037315153 0.10003661 -0.04461318 0.019974967
-0.06733952 0.10427919 0.0289466 0.050493393 0.033201173 -0.02732013 -0.039604675 -0.04242712
-0.0064786184 0.049022343 0.018412191 -0.0033951355 -0.009935747 -0.032646257 0.011896254 -0.0034504738
0.017246338 0.027582798 0.034522966 0.060365498 0.066089496 0.012013252 0.040575106 0.004239278
0.011592054 -0.013915382 0.075952604 -0.03144364 -0.07931774 0.0025424599 0.10730366 0.010751256
-0.05076429 0.061086573 0.039860833 -0.009771483 0.00029214853 -0.036582462 -0.009532875 0.011382049
0.104360394 -0.11274207 0.009554285 -0.089745186 -0.026461279 -0.034667075 0.072518565 -0.009766561
-0.07517731 0.06623806 0.02360775 0.04409928 0.031968318 0.015489958 -0.11757204 0.038444262
00000000: 0bf6 f6bc a86c b13d cfb1 d53d 2168 b9bb
00000010: bb98 8d3c 7ef7 e23b f8ee 4f3c 0c0f b5bd
00000020: 3edf 963d d8fa 9cbc a08a 3d3d 4fc2 fabd
00000030: 98e9 39bb 540a 7ebd 9ee8 ac3d f1e7 903c
00000040: 1edf 74bc 2d19 afbd 7e89 74bd a3b5 5f3d
00000050: 97e5 333e 7260 ba3d 3180 053d c66e 0dbc
00000060: e954 f5bc b90b acbd c179 9dbc cfaf 893d
00000070: 391f 8dbd c70e b53d f29e 3b3d 5247 0fbc
00000080: 9a37 093e 0147 23bd d511 aa3d 2b95 00bc
00000090: cf29 c3bc 7486 9cbd aee8 e6bd ccb6 25bd
000000a0: 01d0 543d d217 38bb b59e 0ebd 62e6 513d
000000b0: 5af4 e53d 8b97 893d 385f 403d e895 07bd
000000c0: a03b 423e 002c 9fbd 8e48 573d 0f1a 05bd
000000d0: fc9d a2bd 8e21 9fbc 171f 69bc be82 773c
000000e0: 927a 97bc bc3e 89bd dca7 1e3d d425 2b3e
000000f0: f25a dcbc e0d3 203c c6cc b3bc d7ab 99bd
00000100: 3f0a 883d e837 b93d 8cd6 673d 493c 6f3c
00000110: 64b3 873c 30f9 1dbd b55b 07be dd9c eebd
00000120: f608 783d 8a66 ddbd 593f 7fbd 538c 0cbd
00000130: a40c 1abd 689f eebd 6371 dcbd 507f e33d
00000140: 64ef 373d b6ff d2bd ff76 323c 15ba 1c3d
00000150: 3e4c 483d 9edb 9f3d 5d12 373b 2d07 71bb
00000160: 84f6 21bd eca7 9bbd 6f2b 8f3d 9e2c 08bc
00000170: 264e bcbc 8a82 cb3c a729 eebc 80bc 4a3c
00000180: 624f 9b3d 9585 e03d 4c58 81bb d8f4 13bd
00000190: 5a39 20bd 7b4c 5d3d 10f0 fbbc 5da8 34bd
000001a0: d514 22bd ada0 9fbd d8e5 2abd 0f06 f1bc
000001b0: afd1 863d 7e6c d83c 533b 8e3d 0765 913d
000001c0: a232 ae3d 3621 063d 2d73 5abc 2ee9 173a
000001d0: f783 e23c 2bff aa3b f704 09bd c91f 4ebd
000001e0: 4913 8dbc b4fe ad3d 2843 823b 4c8c 19be
000001f0: fe64 2cbd 1bf8 d1bc 3880 f5bc 34ea a1bd
00000200: e9bc 5f3d ee8c e339 6920 c7bc b801 b8bd
00000210: b060 1ebd 4a96 83bd 0e5e a73d 01c4 963d
00000220: ad50 97bd 482a ba3d 22ae 99bd ecb3 263d
00000230: 0f73 853d cf06 913d b75c 32bc 0fc8 673d
00000240: 46b4 20bd aa92 8fbd 169b 533d b4fe b73d
00000250: b3bc ec3d a74f fcbd 96ff f63c 9eba c1bd
00000260: cc09 80bd a1c6 8ebd f9d5 b8bd a778 9abd
00000270: fd13 28bd 1961 803d 264d 60bd c886 873d
00000280: f78c 10be ee41 fdbc ffbf e2bd 3657 1b3d
00000290: 671a 823d b90a 963d a565 8cbd 2609 69bd
000002a0: be86 00bd 4122 f23d 6a4a 053e 8dc8 c93d
000002b0: 2aa4 343e adb4 9c3b 3cf8 523c e24e a0bd
000002c0: 5f22 dbbc 7fc4 94bd a4b6 493d 93e1 ecbc
000002d0: ec64 9a3d dcd1 353d a0fa 343c 048f 39bd
000002e0: b39e 9dbd 39e3 8d3d 66b6 843d f8a3 363e
000002f0: d0b8 a73c 653e 5d3a 6c14 a13c 3299 6abd
00000300: 7292 90bc 8e43 8cbd dbff 973d ce6e 3abc
00000310: c6d7 18bd ffdf cc3d 4fbc 36bd 8ba2 a33c
00000320: 4de9 89bd 5490 d53d 6c21 ed3c 29d2 4e3d
00000330: f4fd 073d 77ce dfbc 8338 22bd 0fc8 2dbd
00000340: 974a d4bb a7cb 483d 2ad5 963c ec80 5ebb
00000350: 8bc9 22bc 15b8 05bd 81e8 423c 5821 62bb
00000360: 3148 8d3c 52f5 e13c f467 0d3d d041 773d
00000370: ee59 873d 3bd3 443c 1532 263d a4e9 8a3b
00000380: 99ec 3d3c 58fd 63bc 0a8d 9b3d 0ccb 00bd
00000390: 5771 a2bd 669f 263b 05c2 db3d 0926 303c
000003a0: 37ee 4fbd ea35 7a3d 1d45 233d 9218 20bc
000003b0: 832b 9939 7ed7 15bd c72f 1cbc c67b 3a3c
000003c0: e7ba d53d 50e5 e6bd 9389 1c3c 53cc b7bd
000003d0: 53c5 d8bc 10ff 0dbd 9d84 943d ed03 20bc
000003e0: 90f6 99bd d2a7 873d 0a65 c13c 72a1 343d
000003f0: 36f1 023d 98c9 7d3c 9cc9 f0bd bb77 1d3d

node_function_neighbor.6.bias f4 [4]
-0.062446766 -0.015924264 0.049125623 -0.0006648733
00000000: 2ec8 7fbd 9a73 82bc f337 493d e44a 2eba

edge_function.0.weight f4 [64, 4]
-0.3057158 -0.33506155 0.3819043 -0.36821544 0.23310862 -0.38024312 -0.40293378 -0.26822093
-0.06524673 -0.3433099 0.4368092 -0.23243704 -0.023376612 -0.46240136 0.022058843 -0.43077347
-0.037533347 0.24849595 0.038230393 -0.43403158 -0.22201067 -0.44184548 -0.00855317 0.06338727
-0.17633598 -0.26313078 -0.11614364 -0.3267567 0.34996662 0.32617298 -0.06856775 -0.4928194
-0.30786338 -0.278236 0.08402973 -0.3025181 0.03387336 -0.05966691 -0.1370628 -0.38924748
0.34239715 -0.34853506 -0.16144152 -0.37982476 0.39496025 0.0005387179 -0.19854821 -0.18143143
0.41016784 -0.07578654 0.3423506 0.087256886 -0.16074814 0.43484512 0.46264645 0.10309218
-0.4023335 -0.31615645 0.33142626 0.30069757 0.461534 -0.2958128 -0.3918526 -0.15906061
0.46991986 -0.06750925 -0.33874726 0.3531389 -0.4357476 -0.39423043 -0.39621136 0.2326663
-0.15995388 -0.11365845 0.2832555 -0.3374113 0.20076334 -0.062693216 0.257869 0.07492962
-0.45559397 -0.5910186 -0.058483884 -0.19191499 -0.11884908 0.24983886 0.16733237 0.15659763
0.4119113 0.3856905 -0.17424785 0.41896352 0.110709175 -0.3975984 -0.32741567 0.014422632
0.3095152 0.10371313 -0.19101311 0.24134725 0.03162291 -0.095464826 0.07507991 -0.0753059
-0.008402714 0.12559894 0.3107521 -0.024243003 -0.029872945 0.35053712 0.30151615 0.42407107
0.35465688 -0.08250168 0.37461588 -0.36975288 0.12823044 -0.009269088 -0.2419767 0.2833839
0.15843906 -0.23148343 0.31501067 0.04877657 0.45288143 -0.4489142 -0.12525918 -0.03781509
-0.16350605 -0.29604986 0.087739 -0.3054301 -0.36514983 0.34660733 0.18321364 0.42067075
-0.039720006 -0.42873582 0.22708918 0.06972915 0.45162734 0.4662072 -0.4388819 -0.04785813
-0.0008874507 -0.25351995 0.33721712 0.059343215 -0.036807265 -0.21235101 -0.38393405 -0.33395085
0.21721336 0.061700054 0.35336718 -0.21353388 -0.35350728 0.1254545 0.2549856 -0.3918079
-0.4569377 0.47748682 0.27510077 0.18608394 0.030509923 -0.4298099 0.39173624 -0.19082373
0.104225256 -0.40240678 -0.121125616 -0.20360361 0.026235351 -0.29053083 -0.38588658 0.43426278
0.20864138 -0.45184708 0.16892016 -0.2295404 -0.4565818 -0.23558532 -0.15361844 0.4286074
0.33952346 0.33597514 -0.46747327 0.4444241 0.18167366 0.3068049 0.3355527 0.09980743
0.51273876 -0.0122045735 -0.28352886 -0.031275302 -0.24335036 0.033985775 -0.1995794 0.13844214
-0.1920417 -0.20820008 -0.20673284 -0.4286302 0.45594978 -0.4614501 -0.34910178 -0.45472747
0.035160337 0.10379042 -0.2769014 0.24858391 -0.3720729 0.20019637 0.15205869 0.25483572
-0.21093002 0.13630374 -0.3802965 0.03107668 0.10446652 -0.015633047 -0.17906204 0.24263449
-0.50820756 0.44802678 -0.17412224 -0.42299035 0.3275638 -0.20348707 -0.43279377 -0.1585539
-0.4227604 0.37797132 0.41427544 0.33126464 0.067951635 -0.4937875 -0.33298635 -0.16134003
-0.25937867 -0.11041398 0.28899193 -0.39958197 -0.43866798 0.36003006 -0.052407168 0.4388514
0.13645948 0.15054314 -0.2327824 -0.38913998 -0.20186982 0.11924943 -0.36359102 -0.06674
00000000: c886 9cbe 308d abbe f688 c33e bc86 bcbe
00000010: 07b4 6e3e 3aaf c2be 564d cebe 4154 89be
00000020: 14a0 85bd 51c6 afbe 75a5 df3e fa03 6ebe
00000030: 4f80 bfbc dfbf ecbe bfb4 b43c 578e dcbe
00000040: 91bc 19bd b975 7e3e 7997 1c3d 6339 debe
00000050: c456 63be 9239 e2be 9822 0cbc 2fd1 813d
00000060: 6b91 34be 14b9 86be b7dc edbd a74c a7be
00000070: d32e b33e 2500 a73e 406d 8cbd d352 fcbe
00000080: 45a0 9dbe f374 8ebe c717 ac3d a7e3 9abe
00000090: cbbe 0a3d 4a65 74bd 315a 0cbe 724b c7be
000000a0: ae4e af3e 3073 b2be ed50 25be 6478 c2be
000000b0: 3b38 ca3e bf38 0d3a 3950 4bbe 29c9 39be
000000c0: 8501 d23e f935 9bbd 9448 af3e bdb3 b23d
000000d0: 299b 24be 05a4 de3e ffdf ec3e fe21 d33d
000000e0: a8fe cdbe 42df a1be b4b0 a93e 08f5 993e
000000f0: 2f4e ec3e c674 97be e7a0 c8be c9e0 22be
00000100: 5699 f03e 4a42 8abd 4870 adbe 9fce b43e
00000110: 4f1a dfbe 92d8 c9be 37dc cabe 1340 6e3e
00000120: f3ca 23be c3c5 e8bd dd06 913e 2dc1 acbe
00000130: e894 4d3e 4d65 80bd 6807 843e b374 993d
00000140: 9d43 e9be ff4c 17bf cc8c 6fbd 5d85 44be
00000150: 2567 f3bd c2d5 7f3e 2d59 2b3e 215b 203e
00000160: 0ae6 d23e 3a79 c53e 076e 32be 6382 d63e
00000170: 7ebb e23d 0492 cbbe 07a3 a7be e74c 6c3c
00000180: c778 9e3e 8d67 d43d f198 43be bc23 773e
00000190: 0687 013d 1083 c3bd 7fc3 993d fb39 9abd
000001a0: 89ab 09bc 029d 003e e61a 9f3e 4399 c6bc
000001b0: 1bb8 f4bc 9a79 b33e 5360 9a3e d81f d93e
000001c0: 9695 b53e a4f6 a8bd a7cd bf3e 4050 bdbe
000001d0: d74e 033e 5fdd 17bc bdc8 77be b217 913e
000001e0: d93d 223e fe09 6dbe 1449 a13e f1c9 473d
000001f0: 13e0 e73e 15d8 e5be f143 00be ffe3 1abd
00000200: 216e 27be d993 97be 81b0 b33d 5661 9cbe
00000210: ebf4 babe 8476 b13e 5b9c 3b3e 2862 d73e
00000220: 72b1 22bd 4383 dbbe 118a 683e 28ce 8e3d
00000230: b33b e73e b6b2 ee3e 21b5 e0be e306 44bd
00000240: cfa3 68ba 5ecd 81be b9a7 ac3e df11 733d
00000250: 37c3 16bd 8b72 59be 0193 c4be 9bfb aabe
00000260: 2e6d 5e3e 32b9 7c3d 8bec b43e a0a8 5abe
00000270: e8fe b4be 2577 003e 798d 823e 0c9b c8be
00000280: bdf3 e9be 2779 f43e 02da 8c3e ca8c 3e3e
00000290: f2ef f93c 0b10 dcbe a791 c83e 4c67 43be
000002a0: 0d74 d53d 4308 cebe b510 f8bd 777d 50be
000002b0: 85eb d63c 75c0 94be ed92 c5be b157 de3e
000002c0: 16a6 553e 8058 e7be 68f9 2c3e a30c 6bbe
000002d0: 17c5 e9be 473d 71be 274e 1dbe 6e72 db3e
000002e0: 05d6 ad3e ef04 ac3e a858 efbe 8e8b e33e
000002f0: a908 3a3e 8815 9d3e 90cd ab3e d667 cc3d
00000300: d942 033f b1f5 47bc b22a 91be 881a 00bd
00000310: d630 79be ab34 0b3d 8b5e 4cbe c7c3 0d3e
00000320: 94a6 44be 6732 55be c6b1 53be 6b75 dbbe
00000330: 4072 e93e 3043 ecbe 78bd b2be 0ad2 e8be
00000340: 4904 103d 1290 d43d 05c6 8dbe c88c 7e3e
00000350: 5780 bebe 4700 4d3e 46b5 1b3e d479 823e
00000360: 0afe 57be 3593 0b3e 39b6 c2be 8694 fe3c
00000370: 8bf2 d53d e010 80bc 0a5c 37be 2d75 783e
00000380: e419 02bf c463 e53e 1a4d 32be 3192 d8be
00000390: 71b6 a73e ea5e 50be 2597 ddbe f45b 22be
000003a0: 0d74 d8be 7585 c13e e91b d43e 859b a93e
000003b0: 3a2a 8b3d b7d1 fcbe 307d aabe 5236 25be
000003c0: 48cd 84be ba20 e2bd c0f6 933e 0296 ccbe
000003d0: 1799 e0be dc55 b83e e6a8 56bd 21b1 e03e
000003e0: 09bc 0b3e fb27 1a3e 825e 6ebe 5b3d c7be
000003f0: f6b6 4ebe 0c39 f43d 9a28 babe fbae 88bd

edge_function.0.bias f4 [64]
-0.5251277 0.27953565 0.07639684 -0.022996437 -0.24275939 -0.24863136 -0.28096715 -0.11500746
0.26558855 -0.4094431 -0.030913068 0.34005094 -0.5375387 -0.30878994 0.49228814 0.07405424
-0.19098018 -0.43620843 -0.34739682 -0.3592774 0.1013016 0.22118118 -0.37472802 -0.055054657
-0.37701276 -0.31564534 -0.2492806 0.044976085 -0.3815857 -0.20784001 0.33053368 0.11180139
0.25122523 0.26223865 0.41296047 -0.3684445 -0.1547023 -0.10905086 -0.35993388 -0.2837875
0.35882154 -0.095868476 -0.11385464 -0.442262 0.025604257 0.42225075 0.23402601 0.29176292
-0.30975407 0.503615 -0.3624385 -0.38378143 0.1960765 0.21459208 0.24908975 0.24079593
0.33796027 -0.18798237 -0.06647748 -0.124611005 -0.27955946 0.22270605 0.099732585 -0.52152956
00000000: c56e 06bf 4c1f 8f3e f275 9c3d 0663 bcbc
00000010: eb95 78be 3899 7ebe edda 8fbe 0889 ebbd
00000020: 39fb 873e 87a2 d1be 673d fdbc 281b ae3e
00000030: 239c 09bf b719 9ebe 310d fc3e c0a9 973d
00000040: 4f90 43be b656 dfbe ffdd b1be 35f3 b7be
00000050: 3777 cf3d 527d 623e 5adc bfbe fe80 61bd
00000060: d107 c1be 449c a1be 6a43 7fbe d838 383d
00000070: 335f c3be 03d4 54be b63b a93e 21f8 e43d
00000080: 98a0 803e 2544 863e 8e6f d33e c2a4 bcbe
00000090: 486a 1ebe 0f56 dfbd 4149 b8be 984c 91be
000000a0: 75b7 b73e b156 c4bd 9f2c e9bd 2a70 e2be
000000b0: 05c0 d13c 4031 d83e 84a4 6f3e f361 953e
000000c0: 1698 9ebe eaec 003f 8a91 b9be 007f c4be
000000d0: 47c8 483e 07be 5b3e 6211 7f3e 3593 763e
000000e0: 2109 ad3e 737e 40be 5825 88bd 0e34 ffbd
000000f0: 6b22 8fbe 0e0d 643e 9940 cc3d f682 05bf

edge_function.2.weight f4 [64, 64]
0.066995785 -0.0528088 -0.11489206 -0.13157175 0.025226083 -0.04443922 -0.11977721 -0.10647687
-0.079075396 -0.14973031 -0.06767228 -0.029284185 -0.046685647 -0.04093451 -0.016073104 -0.15848276
0.0037694243 -0.04876119 -0.1179527 -0.02025228 -0.11731629 0.028222287 -0.053428866 0.022309741
0.10641782 0.014473021 -0.09875286 0.011642173 0.06307578 -0.07091037 0.025973257 -0.018505888
0.071498044 0.034975063 0.04741145 -0.08578963 0.01935946 0.024263855 -0.13201748 0.024467599
0.0007222579 0.04055416 0.054672617 -0.14282092 -0.12533064 -0.07307726 0.021312747 -0.12759201
-0.10256726 0.0063682655 -0.1674092 -0.13591854 -0.0072198613 0.071392484 0.106618784 0.04020733
-0.05466197 -0.174029 -0.09145704 -0.15225433 -0.15550165 -0.06475345 0.027859766 -0.059155386
-0.10832439 0.017035913 -0.05962221 -0.10552257 0.0033416676 -0.12018009 0.008790072 0.013688475
0.08472694 -0.06315864 -0.039142214 -0.101549655 -0.017634392 -0.032407526 0.056711584 0.10484683
0.05444277 -0.08815096 -0.034468353 0.16909017 -0.0132159395 -0.07402911 0.093337946 0.027582431
0.0054802652 0.09802869 0.13131203 0.10190741 -0.08927151 0.09957766 0.07575057 0.030713119
-0.06705898 -0.084053926 -0.033283662 -0.16967492 -0.0017317032 -0.0065260865 -0.09156641 -0.058494303
-0.11054793 0.11200117 -0.10689207 0.016567923 0.07585331 -0.10980683 -0.13380066 -0.10477944
0.042475633 0.07110953 0.096042655 0.056725267 0.022506189 0.031603403 0.0708564 -0.03748582
-0.11075027 0.09579234 -0.0047668703 0.072236 0.050100736 0.03297022 -0.13967147 -0.059108682
-0.09273593 -0.09028911 -0.030091595 0.09201191 0.07603323 0.04395456 0.017693615 0.093408234
0.08098483 0.043802552 0.053820115 0.021449424 -0.15222307 0.02609488 -0.06732302 0.054876156
-0.08735075 -0.10707174 -0.0864506 -0.04925186 -0.12225867 -0.05770882 -0.074701965 -0.10990263
0.051834784 0.049806405 0.08561722 -0.072413996 -0.15930972 0.06246967 0.05044022 -0.10079805
-0.08997828 0.033231452 -0.010074977 0.09766679 0.04027682 -0.036863647 -0.1476928 0.023434838
-0.110923745 0.054643027 -0.20973411 0.00057113735 0.036909055 -0.120615795 0.038010392 -0.043960206
-0.124738626 0.08905218 -0.11584346 0.04664689 -0.14030385 -0.12933336 0.06988269 -0.1136766
0.03339724 -0.095098406 -0.06892913 -0.18918926 -0.044962708 -0.005467209 -0.017638333 -0.110713
0.08337236 -0.046687808 0.100252554 -0.033663064 0.016012035 -0.15640873 0.037672237 -0.12415945
-0.025639746 0.010961076 -0.0072767357 -0.113897264 0.09890531 -0.010895019 -0.16294391 0.016907549
-0.15470031 -0.14695151 0.07258677 -0.04643354 -0.17712373 -0.12542376 -0.1132588 -0.0037493482
-0.033385985 -0.024739938 -0.0651559 0.10687948 0.09225496 0.054694608 0.04848464 0.046960764
-0.13488072 -0.0328411 0.021468082 -0.013618965 0.087977685 -0.1532562 0.09460514 0.019871457
-0.06783883 -0.057274424 -0.14970823 0.019663775 0.07996042 0.03809234 0.07825761 -0.024285326
-0.105800696 -0.09861052 -0.10240328 0.00094255694 0.005266851 -0.12965359 -0.15060268 -0.0031715813
-0.15070693 0.015361382 -0.13146622 0.006356416 0.025566366 -0.13335998 -0.075173266 -0.023112485
00000000: 1635 893d 0a4e 58bd 874c ebbd bfba 06be
00000010: eea6 ce3c e605 36bd c14d f5bd 8c10 dabd
00000020: 48f2 a1bd e752 19be c497 8abd 63e5 efbc
00000030: 7339 3fbd f2aa 27bd beab 83bc 4e49 22be
00000040: 7208 773b d0b9 47bd 2f91 f1bd 1ce8 a5bc
00000050: 8643 f0bd 6d32 e73c 3ad8 5abd ebc2 b63c
00000060: 96f1 d93d 4020 6d3c f13e cabd d0be 3e3c
00000070: e02d 813d 7539 91bd dec5 d43c a999 97bc
00000080: 916d 923d 0342 0f3d 8232 423d 79b2 afbd
00000090: bb97 9e3c fec4 c63c 972f 07be 4670 c83c
000000a0: e855 3d3a 1e1c 263d 65f0 5f3d a63f 12be
000000b0: ad56 00be 88a9 95bd 1298 ae3c 7ba7 02be
000000c0: c90e d2bd e2ac d03b 516d 2bbe 3b2e 0bbe
000000d0: 9694 ecbb 3936 923d f35a da3d 71b0 243d
000000e0: 3be5 5fbd a834 32be d44d bbbd 8fe8 1bbe
000000f0: d33b 1fbe 759d 84bd 2a3a e43c eb4c 72bd
00000100: 2ed9 ddbd e68e 8b3c 6b36 74bd 381c d8bd
00000110: e1ff 5a3b fb20 f6bd 3c04 103c a045 603c
00000120: 5185 ad3d 5159 81bd 9653 20bd 44f9 cfbd
00000130: 0076 90bc c1bd 04bd 684a 683d efb9 d63d
00000140: 62ff 5e3d 7e88 b4bd b02e 0dbd f925 2d3e
00000150: ab87 58bc 939c 97bd f727 bf3d 8df4 e13c
00000160: cc93 b33b 44c3 c83d a976 063e d5b4 d03d
00000170: fbd3 b6bd 5fef cb3d 1d23 9b3d 149a fb3c
00000180: 3856 89bd 7724 acbd 7354 08bd 43bf 2dbe
00000190: 51fa e2ba c8d8 d5bb 2c87 bbbd b997 6fbd
000001a0: f466 e2bd df60 e53d 3bea dabd 74b9 873c
000001b0: fb58 9b3d 67e2 e0bd 0a03 09be 9a96 d6bd
000001c0: eefa 2d3d e0a1 913d 03b2 c43d c158 683d
000001d0: e65e b83c 9272 013d 291d 913d bb8a 19bd
000001e0: 0ad1 e2bd c62e c43d 6833 9cbb 78f0 933d
000001f0: 6e36 4d3d c80b 073d 0a06 0fbe f21b 72bd
00000200: 56ec bdbd 7fe9 b8bd a682 f6bc be70 bc3d
00000210: 4fb7 9b3d b209 343d 33f2 903c d14c bf3d
00000220: 60db a53d 4e6a 333d 7b72 5c3d b4b6 af3c
00000230: 5de0 1bbe eec4 d53c a7e0 89bd d2c5 603d
00000240: f3e4 b2bd 6e48 dbbd 030d b1bd 51bc 49bd
00000250: c162 fabd 1560 6cbd 58fd 98bd a114 e1bd
00000260: b650 543d cd01 4c3d 1558 af3d ca4d 94bd
00000270: 1622 23be 32e0 7f3d 679a 4e3d 356f cebd
00000280: 8846 b8bd b41d 083d 8411 25bc 8705 c83d
00000290: 4ff9 243d 56fe 16bd c83c 17be 6bfa bf3c
000002a0: fd2b e3bd 5ed1 5f3d 8ac4 56be 61b8 153a
000002b0: f32d 173d 6a05 f7bd c9b0 1b3d 9e0f 34bd
000002c0: f776 ffbd fd60 b63d 563f edbd cf10 3f3d
000002d0: d0ab 0fbe f76f 04be a81e 8f3d 47cf e8bd
000002e0: 8bcb 083d f4c2 c2bd b72a 8dbd d4ba 41be
000002f0: d12a 38bd 4626 b3bb 447e 90bc 7fbd e2bd
00000300: 21bf aa3d b73b 3fbd 3651 cd3d 48e2 09bd
00000310: ac2b 833c 9c29 20be 344e 1a3d 4f47 febd
00000320: 720a d2bc 1696 333c af71 eebb f842 e9bd
00000330: de8e ca3d 0681 32bc c5da 26be b381 8a3c
00000340: c269 1ebe 757a 16be 5fa8 943d 1831 3ebd
00000350: ec5f 35be 166f 00be 3bf4 e7bd a0b7 75bb
00000360: bebf 08bd 69ab cabc 7570 85bd a1e3 da3d
00000370: 2bf0 bc3d 7407 603d d497 463d ee59 403d
00000380: 2c1e 0abe 6484 06bd d5dd af3c 1422 5fbc
00000390: a52d b43d 31ef 1cbe 57c0 c13d 77c9 a23c
000003a0: 16ef 8abd 9698 6abd 1d4d 19be ed15 a13c
000003b0: 4ac2 a33d b706 1c3d 8745 a03d 05f2 c6bc
000003c0: 09ae d8bd 50f4 c9bd d0b8 d1bd ed15 773a
000003d0: 8c95 ac3b e9c3 04be 9737 1abe 4eda 4fbb
000003e0: eb52 1abe 4eae 7b3c 159f 06be 7b49 d03b
000003f0: 8e70 d13c 858f 08be 71f4 99bd 6556 bdbc

edge_function.2.bias f4 [64]
-0.017228477 -0.14574763 0.10840062 -0.14085598 -0.02018014 0.015461395 0.0409312 0.017576503
0.14055337 -0.06904337 0.055080734 -0.1347497 -0.06521411 0.020065794 -0.077523276 -0.033648092
-0.07292009 -0.092738144 -0.016845837 0.081639916 0.0753635 -0.07152641 0.0035084665 0.09521222
-0.09325936 -0.047137003 -0.09318915 -0.103487976 -0.14429204 0.059396993 -0.11352901 -0.007831073
-0.16108148 0.06412159 -0.10150793 -0.15873404 -0.0048521347 -0.10235823 -0.11890121 -0.044396166
-0.019241726 -0.09502374 0.076685555 -0.072345674 -0.17170724 0.02447868 0.096762925 -0.07936918
0.026406756 0.022612885 -0.044713143 0.007851922 -0.012285208 -0.03977651 0.04113963 -0.11837895
0.033504944 -0.13238321 -0.15458685 0.034981247 0.03327599 0.037415303 0.030983647 0.059557877
00000000: bc22 8dbc de3e 15be 2501 de3d 8d3c 10be
00000010: d250 a5bc ca51 7d3c 79a7 273d 99fc 8f3c
00000020: 39ed 0f3e 9c66 8dbd 569c 613d d3fb 09be
00000030: fa8e 85bd 0561 a43c 86c4 9ebd 95d2 09bd
00000040: 2157 95bd 7fed bdbd 4800 8abc d432 a73d
00000050: 2e58 9a3d 707c 92bd 4dee 653b a0fe c23d
00000060: c3fe bebd bb12 41bd f4d9 bebd 81f1 d3bd
00000070: 4bc1 13be 434a 733d e681 e8bd e74d 00bc
00000080: 8bf2 24be 2e52 833d 64e3 cfbd 2d8b 22be
00000090: a8fe 9ebb 31a1 d1bd 7a82 f3bd c1d8 35bd
000000a0: d3a0 9dbc ce9b c2bd 510d 9d3d f829 94bd
000000b0: 06d4 2fbe 8387 c83c a42b c63d 4f8c a2bd
000000c0: fb52 d83c a83e b93c 2125 37bd 59a5 003c
000000d0: e647 49bc b2ec 22bd 0782 283d aa70 f2bd
000000e0: 7b3c 093d 778f 07be 044c 1ebe 7f48 0f3d
000000f0: 684c 083d ca40 193d 6bd1 fd3c f6f2 733d

edge_function.4.weight f4 [64, 64]
-0.036654707 -0.013143961 -0.18639982 0.011137563 -0.16031241 -0.08290045 -0.030792883 0.10866894
0.039623328 0.09532011 -0.10121804 0.1109167 -0.08226621 -0.10372364 -0.10132958 0.037579227
0.06877139 -0.039310843 -0.10322563 -0.16324416 -0.005682671 -0.06281798 0.03551463 -0.08254787
-0.08272194 -0.080301724 -0.040638413 0.08469705 -0.09044109 0.019500198 -0.13514702 -0.014000501
0.036914192 0.11116127 0.08682822 0.09679311 0.050965425 -0.053751875 -0.026114544 -0.09052761
-0.031673674 -0.050674483 -0.13774616 -0.10195751 0.10271223 0.045533463 0.11341409 0.080561
-0.0811878 -0.022585317 -0.08443258 -0.016913012 -0.07669636 0.006236387 -0.037094444 -0.09821415
0.036462903 -0.022640707 0.04790664 0.03725672 -0.07250162 -0.11653562 0.07921163 0.06657685
-0.11954221 -0.09025268 -0.08079291 0.0630333 -0.023817074 0.15041012 -0.06848293 -0.007480295
-0.05187924 0.06463849 -0.096303955 0.08239622 -0.07905455 0.0066562733 0.03755471 -0.011027472
0.0691922 0.0045380127 -0.0009294003 0.019432645 -0.114911415 -0.082645 0.05458174 0.04878128
-0.083640054 0.0753122 0.006242651 0.013530454 -0.012642051 0.023042582 0.018205166 0.044696804
0.056909878 -0.03077524 0.018289825 -0.0698082 0.107287645 -0.026248809 0.009372419 -0.08147857
0.008582762 0.082337424 0.09721414 -0.05633974 0.0702523 -0.16037908 -0.057018086 0.02248939
0.09202892 0.042069077 -0.103631034 0.0063097468 -0.09755383 -0.0641951 0.02002479 0.09651501
-0.085223086 0.03814237 -0.01284937 -0.07714316 -0.10943704 -0.03834639 0.05363046 0.036291394
0.15690815 0.043547504 -0.10099681 -0.07130437 0.08979176 0.098403476 0.077879354 0.08758258
0.17383283 0.04592616 -0.06266721 -0.08969624 -0.10978152 -0.025373966 -0.086720735 -0.03918906
-0.028510325 0.052484013 -0.014525026 -0.019815367 0.05782338 0.11172236 0.04287583 0.10352543
0.1444432 0.0041673286 -0.011212465 -0.0048222006 0.05422684 -0.066779025 -0.03296267 0.10672073
-0.10934738 -0.12006988 -0.116751954 -0.09059566 -0.08197674 0.09630112 -0.11831591 0.09783398
0.006533928 0.0660034 0.009430162 -0.037457284 0.017951228 0.054647855 -0.003832868 -0.103546016
0.14815612 0.030204788 0.12496875 -0.06789839 0.030291127 0.05741536 -0.0031405275 -0.011480051
0.09504148 0.06921786 0.07144321 -0.08505481 0.025477517 -0.091785565 -0.02567533 0.06257126
-0.13631052 0.008797953 0.06391125 -0.025442822 -0.10601143 -0.13463514 0.13379435 -0.018861964
0.078333125 0.070288934 0.11426793 -0.020317988 -0.09000217 0.059042558 0.011314943 0.026320897
-0.068407886 0.07752546 -0.10994911 0.042609613 -0.0912421 0.053403992 -0.05396987 -0.0049182996
0.053564765 -0.09071535 -0.0014712245 0.07877172 0.096462846 -0.030520953 0.040301662 0.008551476
0.08096338 0.059603956 0.03673981 -0.10526396 -0.1046064 0.058847476 -0.07365638 0.09283369
0.0796296 -0.03914779 -0.06990443 -0.06406621 0.038456168 0.032294918 -0.006655536 0.08537643
-0.16294561 -0.0583373 -0.07697994 -0.055380754 -0.09479087 0.063993014 -0.050190084 -0.018430883
-0.020372221 0.018372217 -0.03922786 0.0009288982 -0.059501294 -0.11572702 -0.005099498 -0.0900895
00000000: 3f23 16bd c559 57bc 98df 3ebe 537a 363c
00000010: f028 24be b6c7 a9bd 5b41 fcbc d28d de3d
00000020: 124c 223d 3137 c33d 674b cfbd 4b28 e33d
00000030: 307b a8bd 0f6d d4bd e285 cfbd adec 193d
00000040: 04d8 8c3d 6804 21bd f667 d3bd 7a29 27be
00000050: b335 babb b7a6 80bd ca77 113d dc0e a9bd
00000060: 1f6a a9bd 3b75 a4bd 7774 26bd a675 ad3d
00000070: 2e39 b9bd e1be 9f3c fb63 0abe 5b62 65bc
00000080: 5633 173d 85a8 e33d fed2 b13d 773b c63d
00000090: 1fc1 503d ed2a 5cbd 2bee d5bc 8a66 b9bd
000000a0: 41bc 01bd 0c90 4fbd 540d 0dbe 19cf d0bd
000000b0: ca5a d23d 4c81 3a3d a545 e83d 2afd a43d
000000c0: ca45 a6bd d804 b9bc fdea acbd 288d 8abc
000000d0: fb12 9dbd 9b5a cc3b 58f0 17bd 8024 c9bd
000000e0: 205a 153d 0179 b9bc c139 443d 819a 183d
000000f0: bb7b 94bd 3aaa eebd b539 a23d 7259 883d
00000100: 8cd2 f4bd 66d6 b8bd c176 a5bd 9a17 813d
00000110: 061c c3bc 1c05 1a3e c740 8cbd 431d f5bb
00000120: 537f 54bd 2f61 843d 023b c5bd 59bf a83d
00000130: 5ae7 a1bd de1c da3b f8d2 193d 92ac 34bc
00000140: a4b4 8d3d 9cb3 943b 00a3 73ba 3631 9f3c
00000150: ad56 ebbd c841 a9bd 1a91 5f3d e1ce 473d
00000160: 7a4b abbd 483d 9a3d 278f cc3b d6ae 5d3c
00000170: 9b20 4fbc ccc3 bc3c 0023 953c ff13 373d
00000180: 551a 693d 5b1c fcbc 8bd4 953c 9af7 8ebd
00000190: a0b9 db3d be07 d7bc c68e 193c 3dde a6bd
000001a0: b79e 0c3c 86a0 a83d 3518 c73d 80c4 66bd
000001b0: 70e0 8f3d 6a3a 24be cc8b 69bd ab3b b83c
000001c0: a979 bc3d a050 2c3d 823c d4bd fec1 ce3b
000001d0: 4dca c7bd b878 83bd 070b a43c a9a9 c53d
000001e0: 7189 aebd 2c3b 1c3d 2a86 52bc 3cfd 9dbd
000001f0: 8720 e0bd 1b11 1dbd 9dab 5b3d 49a6 143d
00000200: 88ac 203e de5e 323d 6ad7 cebd 0708 92bd
00000210: bee4 b73d c387 c93d 367f 9f3d 7f5e b33d
00000220: 3c01 323e 121d 3c3d ab57 80bd aab2 b7bd
00000230: 22d5 e0bd 10dd cfbc a49a b1bd b584 20bd
00000240: 7c8e e9bc 7af9 563d 60fa 6dbc d653 a2bc
00000250: 35d8 6c3d b1ce e43d 919e 2f3d 2405 d43d
00000260: ebe8 133e 168e 883b 7db4 37bc 8d03 9ebb
00000270: f71c 5e3d 71c3 88bd dd03 07bd 6690 da3d
00000280: 85f1 dfbd 32e7 f5bd a61b efbd 388a b9bd
00000290: 6ce3 a7bd 8639 c53d 9d4f f2bd 2f5d c83d
000002a0: 901a d63b ca2c 873d f780 1a3c cf6c 19bd
000002b0: 740e 933c 6ed6 5f3d db30 7bbb ef0f d4bd
000002c0: 3db6 173e 0870 f73c 9eef ff3d 500e 8bbd
000002d0: 1925 f83c 5e2c 6b3d 4fd1 4dbb d316 3cbc
000002e0: 1ca5 c23d 18c2 8d3d d150 923d 3731 aebd
000002f0: 3ab6 d03c 12fa bbbd 1255 d2bc 5c25 803d
00000300: fc94 0bbe 4a25 103c e7e3 823d 776d d0bc
00000310: 851c d9bd cbdd 09be 6301 093e 6884 9abc
00000320: 1e6d a03d a5f3 8f3d 4e05 ea3d e971 a6bc
00000330: 0f53 b8bd 9cd6 713d 5062 393c ec9e d73c
00000340: 6f19 8cbd abc5 9e3d 002d e1bd 6b87 2e3d
00000350: 23dd babd 25be 5a3d 830f 5dbd b029 a1bb
00000360: ba66 5b3d f8c8 b9bd 1ad6 c0ba 1153 a13d
00000370: 508e c53d 1407 fabc 5b13 253d 7d1b 0c3c
00000380: 21d0 a53d 4723 743d 7c7c 163d a294 d7bd
00000390: e13b d6bd 0d0a 713d 28d9 96bd 971f be3d
000003a0: d814 a33d 6f59 20bd 0e2a 8fbd 2535 83bd
000003b0: 3784 1d3d ad47 043d af16 dabb d6d9 ae3d
000003c0: 37db 26be 18f3 6ebd a9a7 9dbd eed6 62bd
000003d0: b721 c2bd c50e 833d 1e94 4dbd 5dfc 96bc
000003e0: a5e3 a6bc 5581 963c 64ad 20bd 4e81 733a
000003f0: a1b7 73bd 4a02 edbd b119 a7bb d880 b8bd
