Projects/GuoxiangGrayson_T_A study of multi-fidelity graph neural networks/Model_save/Quarter2D/Rank=12-GNN-nB-64-Lr-0.005/model.pth (torch, 114781 bytes, 24 tensors)

node_function_neighbor.0.weight f4 [64, 2]
000000 90 a9 1a 3f c6 d8 be be d1 8c 94 be a3 18 c6 be
       0.6041498 -0.3727476 -0.29013684 -0.3869067
000010 e9 d2 f0 bd db 6b 2f 3e 63 fd 4b be a2 ea 94 3e
       -0.11758978 0.17130987 -0.19920878 0.2908526
000020 93 99 68 3e 89 71 fe 3e 8e 70 09 bf 25 b0 28 bd
       0.22714834 0.49695995 -0.5368737 -0.04118361
000030 de 4c a9 3e 93 b2 d1 3e bc 97 55 be d7 92 3f 3e
       0.33066458 0.40956554 -0.20858663 0.18708359
000040 e9 2e 1d bf ba 5d 50 3e 62 6d 0b bf d4 91 d4 bd
       -0.61399704 0.20348254 -0.5446378 -0.10379377
000050 c9 17 d3 be ff ea 00 be f7 e3 83 bd dc 1d 87 3e
       -0.41229084 -0.12589644 -0.06439965 0.26389968
000060 ae a9 fa 3e 18 3d 9a be dd 2e 1e bf a2 f1 0d 3e
       0.4895758 -0.30124736 -0.6179026 0.13861707
000070 f8 53 a7 3e 7b ec 9b be ea 59 8e 3d 89 62 0e bf
       0.3268125 -0.30453858 0.069507435 -0.556191
000080 e7 5e d1 bd cc ca 87 bc 7b 34 83 be ad 1a fe 3e
       -0.10223179 -0.016576193 -0.25625977 0.49629727
000090 1d 49 b8 3e 7e 25 39 bf 56 2e c1 be 80 25 9b be
       0.3599328 -0.72322834 -0.37730664 -0.30302048
0000a0 04 b1 7e be 28 2d 70 3e 20 ac ad 3e 57 cd ad 3e
       -0.24872214 0.23454726 0.33920383 0.33945724
0000b0 92 82 cb 3e 87 42 e3 be 5e cd fb be ff da 12 3f
       0.39748055 -0.44386694 -0.4918012 0.5736541
0000c0 ee c0 85 be 8f 6e 04 bd 61 88 2f be 38 49 09 3f
       -0.26123756 -0.032332 -0.17141868 0.5362735
0000d0 73 51 a6 be f1 a3 fd be 9b 18 00 3f b3 c0 bf be
       -0.32484016 -0.4953914 0.50037545 -0.37451705
0000e0 1f 1f 25 3e 21 5c ee be 32 4c 2f 3e ef 67 06 be
       0.16125153 -0.46554664 0.1711891 -0.13125585
0000f0 64 e8 a0 be 7d 24 05 bd 1c a8 15 bd 33 9b 13 3f
       -0.314273 -0.0325055 -0.036537275 0.5765869
000100 82 32 11 bf 5e 9d 25 3e b4 42 3d bd a8 54 ca bc
       -0.56717694 0.16173312 -0.04620619 -0.02469857
000110 af e9 6e bd 9c e5 28 3f ba 6d 2e bd c1 27 03 bf
       -0.058328327 0.65975356 -0.042585112 -0.51232535
000120 03 80 fa 3d 8c 80 00 be bb f0 27 be e5 e8 07 bf
       0.122314475 -0.12549037 -0.16400425 -0.53089744
000130 71 c7 6f 3e e5 09 e8 be 8d 02 ed 3e a5 f7 99 bc
       0.23415925 -0.4532005 0.4629101 -0.018794844
000140 fe 8f d0 be 6f af 14 bf b3 20 17 be 3f b1 c7 3d
       -0.40734857 -0.5808019 -0.14758568 0.09750604
000150 72 ed 28 3f 4e ea 25 be 0c a7 6f 3e 61 c0 88 3e
       0.6598731 -0.16202661 0.23403567 0.26709273
000160 6f 2f 99 3e 25 94 dc be b8 54 d3 bd 23 6f 2e bb
       0.29919 -0.43081775 -0.10318893 -0.0026616536
000170 3b 27 f3 3e 18 c5 c5 be f9 fd 1e 3d d6 42 78 3e
       0.47490868 -0.38626933 0.038816426 0.24244246
000180 61 37 50 be 4b 03 8f 3e 1b 3c 01 bf 41 83 fd 3d
       -0.20333625 0.279322 -0.5048234 0.1237855
000190 8a f4 8e 3e 37 52 bc 3e 78 78 0a 3f 92 ce 10 3f
       0.27920943 0.36781475 0.5409007 0.565652
0001a0 d4 99 c9 be 70 b0 9c 3e 98 bf 0d 3e 0a 0a 0b 3f
       -0.39375174 0.3060336 0.13842618 0.54312193
0001b0 ad e9 c6 be d5 2a a7 be fa 7b ee bd 3e 33 e7 be
       -0.38850155 -0.32649866 -0.116447404 -0.45156282
0001c0 c6 7e 8b be 44 92 6f 3e b0 76 a7 bd 80 15 89 3a
       -0.27245158 0.2339564 -0.08176935 0.0010458678
0001d0 42 c8 8c bc 4a fc 12 bf 0f 4f 85 3e 61 31 0c 3f
       -0.017185334 -0.5741621 0.2603688 0.54762846
0001e0 1e 03 b7 3e 3a ce ad be 00 56 c6 be 9b 35 01 3f
       0.35744566 -0.339464 -0.38737488 0.5047242
0001f0 f7 9c d9 3e 92 e6 a2 3e 16 11 18 bf e0 16 b2 be
       0.42502567 0.31816536 -0.5940107 -0.34783077

node_function_neighbor.0.bias f4 [64]
000000 a9 17 2a bf 5a 19 e4 3e 27 c7 67 be ed ea c5 be
       -0.6644235 0.44550592 -0.22634564 -0.38655797
000010 ec d8 ac be 29 7e 24 be ce 4b e4 3e 84 ab 1e be
       -0.33759248 -0.16063751 0.44589084 -0.15495116
000020 a1 f0 85 3d 9d 16 86 be 1b 97 ab be 67 5d d5 be
       0.06540037 -0.26189128 -0.33513722 -0.41672823
000030 72 88 fa be 76 1e 0c bf cb 96 98 be 36 40 1e bf
       -0.48932225 -0.5473398 -0.29802546 -0.6181673
000040 3a a3 30 3e b7 3f c8 3e 7b 7d 87 be 9a 57 97 3d
       0.17249766 0.3911111 -0.26462922 0.073897555
000050 0e 64 1b bf 04 33 33 3e 8d 6a 0a 3f c7 d5 23 3f
       -0.60699546 0.1749993 0.54068834 0.63998073
000060 de b4 03 3d 3c 7e a5 3e df ba c5 be 7b 9f 37 be
       0.03215491 0.32322872 -0.38619134 -0.1793193
000070 5e be b5 3c 47 ae fd 3d e0 2d f0 3e 74 05 a3 3e
       0.0221855 0.123867564 0.4691 0.31840098
000080 b3 27 dc be 55 db e0 be 24 1a d3 3e b9 50 8b be
       -0.42999038 -0.43917337 0.4123088 -0.27210024
000090 60 e6 48 3f 19 a3 b5 3e 05 b5 18 3f ed 70 0a bf
       0.78476524 0.35475996 0.59651214 -0.5407856
0000a0 b7 c4 ed be 6c d4 23 be a8 55 df 3d a8 2c d3 be
       -0.46439144 -0.15999001 0.109050095 -0.41245008
0000b0 f3 2d 17 3e 1e 73 29 be a3 82 bf 3e d3 05 eb be
       0.14763622 -0.1654782 0.37404355 -0.4590288
0000c0 27 6e 84 be e9 65 1c 3f 9c 9d 0b 3f 0d 22 c0 3d
       -0.2586529 0.61093 0.5453737 0.09381495
0000d0 1a c3 06 3d c7 d1 4c 3d 4e 76 e8 3e 9a 47 17 3f
       0.032900907 0.050004747 0.4540276 0.5909363
0000e0 e9 33 f6 be 4c 24 44 3e 59 8b e5 bc 5f d6 12 bf
       -0.4808648 0.19154471 -0.028020548 -0.57358354
0000f0 33 83 17 bf 4b 48 95 be f0 de 89 3e 15 56 20 3f
       -0.5918457 -0.29156718 0.269279 0.6263135

node_function_neighbor.2.weight f4 [64, 64]
000000 a4 98 d4 bd a9 25 d6 bd 9d 79 f1 bd 45 04 3c bd
       -0.103806764 -0.10456402 -0.11790774 -0.04590251
000010 e7 da ce 3c cf a3 11 3d b8 19 58 bc 5b 01 87 3d
       0.025250865 0.03555661 -0.013189726 0.065920554
000020 da 23 88 bd 04 0c 0a be 23 3e d6 3c d2 2a f0 bd
       -0.06647463 -0.13481146 0.026152676 -0.11726917
000030 b4 e6 4a bd 73 48 9c 3d 74 34 cf bd 6e 71 8f bd
       -0.049536422 0.07631006 -0.101174265 -0.07004057
000040 3a 74 0c be 57 68 f5 bd eb 11 8f bd 89 61 f3 bc
       -0.13716212 -0.11982792 -0.069858395 -0.029709594
000050 4c 8e 9d bd af 71 c7 3d ef f7 b7 3d 00 86 1e be
       -0.076931566 0.0973848 0.089828365 -0.15480804
000060 01 b8 0e 3d 61 51 76 3d 5c aa 19 bd 53 d5 4e 3d
       0.03484345 0.060136203 -0.037515983 0.05049641
000070 33 03 cd bd ac 8e 70 3d db 6f 4b bc ed bd 10 be
       -0.10010376 0.058729813 -0.012416805 -0.14134951
000080 a1 00 d8 3c 02 d6 81 3d 3b 2d 49 3b 16 3a 29 3c
       0.026367487 0.06339647 0.0030697125 0.01032879
000090 2a a2 80 bd bd 27 13 be bc b3 e1 3c ef 1b d0 bd
       -0.0628093 -0.14370628 0.027551524 -0.10161578
0000a0 65 7d 77 3d b5 20 b0 bb f1 a1 32 3d 9f bd 52 3c
       0.06042232 -0.0053749927 0.04361147 0.012862592
0000b0 58 0a ed 3d c1 d6 94 3d 06 57 9c 3d 2d be 4d bd
       0.115742385 0.072675236 0.07633786 -0.050230194
0000c0 13 9e 3f bd 1b 9b cb bd a7 f2 5b bd ee 15 cf bd
       -0.04678161 -0.099416934 -0.05369821 -0.10111605
0000d0 28 38 c0 bd 8a 7c 93 3d 47 dd 1f 3c 90 a5 10 3d
       -0.09385711 0.07201488 0.0097573465 0.035314143
0000e0 4c 5b b5 bd 5c a5 bb bd 33 df 70 bd 95 c4 24 3d
       -0.08855304 -0.09162399 -0.05880661 0.040226538
0000f0 b0 c1 bc 3d 5e e8 10 be 4c 25 fc bd aa 9e 18 bd
       0.092166305 -0.14151141 -0.12311801 -0.03726069
000100 63 60 25 3d 9e e8 05 be 41 ff fd bd ce 33 a3 3d
       0.040375125 -0.13077018 -0.124022014 0.07968865
000110 14 06 c3 bd e8 0c 28 be b6 be 68 bd 73 01 3c 3d
       -0.09522644 -0.16411173 -0.0568225 0.04589982
000120 1c 0c b5 bd 9c f4 1d 3d e8 7d 57 bd 40 28 8a bd
       -0.088402 0.038563356 -0.052610308 -0.06745958
000130 14 73 00 be b0 99 9e bc b3 03 1a be 1b 0f 0a be
       -0.12543899 -0.019360393 -0.15040474 -0.13482325
000140 23 eb 56 bb e4 a4 86 bd 52 ce d0 bd 14 68 c1 bd
       -0.003279396 -0.06574419 -0.101956025 -0.094436795
000150 58 20 c1 bc 01 f2 87 bd 3e f1 97 3d 93 0d a5 3c
       -0.023574993 -0.066379555 0.0741906 0.020148074
000160 68 b4 a1 bd a4 7c ff 3c 37 99 78 b9 be dd a4 3c
       -0.07895738 0.031187363 -0.000237082 0.020125266
000170 11 2b 8c bc 42 28 9c 3d f6 d8 0c 3d 1c 03 9a bd
       -0.01711038 0.07624866 0.034386598 -0.07520124
000180 4a 5b 1c 3d 79 0c 95 3b 48 44 a9 3c ed ca aa bc
       0.038172998 0.004548606 0.020662442 -0.020848716
000190 6b 21 4c 3d 45 32 53 3d 6c e7 90 bb 46 aa 6d 3d
       0.049836557 0.051561613 -0.004422119 0.058023714
0001a0 c2 24 4a 3d 3c 4a 96 bc c9 b8 97 bd 5b dc 47 bd
       0.04935146 -0.018345945 -0.07408292 -0.04879413
0001b0 e1 f6 34 bd 43 2d d4 3d 77 a2 0f bd 10 3c 4d 3b
       -0.044180755 0.103601955 -0.035067048 0.0031316318
0001c0 41 d6 0f be f7 82 6c bd 50 a3 86 bc 44 18 c7 3c
       -0.14046575 -0.057742085 -0.016435295 0.024303563
0001d0 66 ea aa bd eb a0 5c 3d 1a ef fe bd 5b ad db bc
       -0.08345489 0.0538644 -0.12447949 -0.02681606
0001e0 82 52 61 3d 5f 39 cf bd d2 bd 12 3d 9a 9c c1 bd
       0.055010326 -0.101183645 0.035825558 -0.094536975
0001f0 19 01 59 bd f8 82 5b bc a5 34 07 be cb c4 cb bd
       -0.052979562 -0.013397925 -0.13203676 -0.09949645
000200 9e 46 96 bc b7 b2 97 3c 47 c4 d8 bd 18 61 6c bc
       -0.01834422 0.018517835 -0.10584312 -0.014427446
000210 7c 3e 4f 3c 5f db ad 3d 4f 68 81 bd 6d c1 7a 3c
       0.012649175 0.08489107 -0.063187234 0.015304905
000220 84 2d fa 3d 9b 72 05 3e 8e c3 f6 3d bf 4a 12 be
       0.12215713 0.13032 0.12049018 -0.14286326
000230 81 91 5b 3d 66 cc 8e bd 3b 2e 82 3d 98 bf 4a bb
       0.05360556 -0.0697258 0.06356474 -0.0030936953
000240 e6 1c 92 bd 9b ab 7c bd 94 f2 09 bd e2 67 18 3e
       -0.07134418 -0.061687093 -0.033678606 0.14883378
000250 a9 5a 25 be ca 46 68 3d b7 b3 de 3d 3b 45 c3 3c
       -0.16147865 0.056708135 0.10874122 0.023836723
000260 a5 04 a4 bd 2a f2 bf bd c8 29 21 bd 85 0b 92 3c
       -0.080086984 -0.09372361 -0.039346486 0.017827759
000270 85 b3 10 bd c3 55 87 3d c9 e9 4e bd f2 69 a6 3d
       -0.035327453 0.066081546 -0.050515924 0.08125676
000280 a3 be f0 bd 17 1f 94 3c 39 6e a6 3c 6b b2 15 3d
       -0.11755111 0.018081231 0.02031623 0.036547106
000290 ef b5 9f ba be 6c 73 bb bf d9 99 3d 22 f4 96 bd
       -0.0012184958 -0.0037143673 0.07512235 -0.073707834
0002a0 f1 4f 0e 3e cb 79 95 bd a1 20 a2 bd ad 41 93 bd
       0.13897683 -0.07298621 -0.0791638 -0.07190261
0002b0 a7 78 c5 bc 18 cb 76 3c 99 fc 6e 3d ed fc 8a bd
       -0.024105383 0.01506307 0.058346365 -0.06786523
0002c0 b1 39 a8 bd d4 5f 81 bd 07 de 84 bd 5c 06 85 3d
       -0.08214129 -0.06317106 -0.06487661 0.064953536
0002d0 d4 b9 79 bc 79 68 d3 3d 50 fc 6d bd db bf 04 bd
       -0.015242059 0.10322661 -0.058101952 -0.03240953
0002e0 20 2d d7 bd 8c a4 83 bd e7 41 f6 3d 87 00 12 be
       -0.10506654 -0.06427869 0.120242886 -0.14258014
0002f0 f8 7a 29 3b 0a af 08 be 53 be be bd 34 57 76 3d
       0.0025860649 -0.13348022 -0.09313645 0.060141757
000300 90 8a 51 3d dd e2 6b 3d 41 cd ac bd b5 05 02 be
       0.051157534 0.0575894 -0.084375866 -0.1269749
000310 10 5a d5 bd 0c 39 9c 3c 20 49 21 3d 68 75 be 3a
       -0.10417569 0.01907017 0.039376378 0.0014530839
000320 c2 78 8c bd 58 52 b7 bd ab eb b2 bb 0b b5 1c bd
       -0.0685897 -0.08951253 -0.0054602227 -0.038258594
000330 11 de 3e bd 9f e9 00 be ac 1b ce bd 20 c2 02 bd
       -0.046598498 -0.1258912 -0.10063872 -0.031923413
000340 e1 06 3c bc 8e 56 bd 3d 95 e5 40 3e 1b fa 03 be
       -0.011476249 0.092450246 0.18837579 -0.12888376
000350 ab ec f0 bc 99 21 78 bd 09 2f 5f bd 7a 37 ae 3d
       -0.029409727 -0.060578916 -0.054488216 0.08506675
000360 3b 1c 02 be 18 af dc 3d 8a c6 a6 bd c0 d5 41 bd
       -0.12706082 0.10775584 -0.08143337 -0.04732299
000370 15 0d b4 3e d4 3b 98 3d 4b 4c 71 3d 59 69 c1 bc
       0.3516623 0.07433286 0.05891065 -0.023609804
000380 0f e6 cd 3c 5e 68 a2 3c a7 e4 e1 bd f1 cd 02 3d
       0.025134115 0.019825157 -0.1102994 0.031934682
000390 32 fa 20 bd b1 f6 13 3d 4f 9e f0 3d c6 f7 b2 bd
       -0.039301105 0.036123935 0.11748945 -0.08738665
0003a0 3c fe c1 bd db f3 70 3c e0 61 09 3d ff 30 aa 3c
       -0.094723195 0.014706577 0.033540606 0.020775316
0003b0 78 8b 23 3e c1 e9 f1 bc fe 15 e5 bc 5c 20 8f 3b
       0.15971172 -0.029530408 -0.027964588 0.004367871
0003c0 45 85 28 3b 26 0e ef 3c 4f 60 dd 3d a4 95 23 bd
       0.00257142 0.029181551 0.10809385 -0.03993763
0003d0 fc e8 ba 3d 5c fe 35 3d 8c 21 13 be 8a 2b bb bc
       0.091264695 0.04443203 -0.14368266 -0.02284791
0003e0 f9 9c d3 3d e1 61 98 3d fa 56 cc 3d 77 35 c7 3b
       0.103326745 0.07440544 0.09977527 0.0060793716
0003f0 12 a2 8d 3c 75 80 96 bd 50 2c 90 bd b5 2e ab bd
       0.017289195 -0.0734872 -0.07039702 -0.08358518

node_function_neighbor.2.bias f4 [64]
000000 f5 30 31 3c 16 54 3e bd 40 d6 2d 3d 22 ab e1 3d
       0.010814895 -0.04646691 0.042440653 0.11018969
000010 fb d2 a7 3d f6 14 00 3e ab df 9b 3d 44 97 01 3c
       0.08194538 0.12507996 0.07611021 0.0079096
000020 a3 a4 77 3d 76 14 d4 3d 28 83 68 3e 36 7c de bd
       0.060459744 0.10355465 0.22706282 -0.10863535
000030 f8 b4 89 bc 73 79 9f bb 46 d6 a4 3c 4d a3 88 bd
       -0.016809925 -0.004866773 0.020121705 -0.06671772
000040 14 26 9a bc 9a a7 0a 3e b4 ac 00 3e e1 31 40 3d
       -0.018816985 0.13540497 0.12565881 0.04692257
000050 88 d8 2c 3d a2 88 c9 bd c0 1e de 3d 6a bf 9f 3d
       0.042198688 -0.09840514 0.10845709 0.07800181
000060 14 9a 15 be 39 51 aa 3d a8 cd a4 bd 46 08 87 bd
       -0.14609557 0.08316273 -0.08047038 -0.06593375
000070 48 d0 de bc 2f e4 18 be 45 fa cd bc 12 69 9c 3d
       -0.027198926 -0.14930795 -0.025143752 0.07637228
000080 0f 03 b0 3c f8 62 bf 3b 6e b6 1f be 98 1f 96 3c
       0.021485833 0.0058406554 -0.15596935 0.018325612
000090 a8 cf 02 bd 91 16 7c 3d 81 af 97 bd 93 de 93 bd
       -0.031936318 0.06154496 -0.074065216 -0.07220187
0000a0 84 34 83 3c 3d 8c c3 bd c9 e6 27 be 78 75 6c bd
       0.016016252 -0.09548233 -0.16396631 -0.057729214
0000b0 98 a8 75 bd 79 66 19 3e 06 5f 3f bd 3b 8c 17 bd
       -0.059975237 0.14980496 -0.04672148 -0.03699897
0000c0 13 0e 0d bd 94 c4 09 be 80 14 d9 3d 9a a3 b7 bc
       -0.03443725 -0.13453895 0.10599613 -0.022416878
0000d0 e2 e5 e3 38 3c 68 dd bb b8 5f eb bc 88 e4 e9 bd
       0.000108670225 -0.0067568105 -0.028732166 -0.11420542
0000e0 0d 07 15 3e 63 e4 9e bd 49 20 c9 bd 8d 85 3d bd
       0.14553471 -0.07758405 -0.09820611 -0.046269942
0000f0 bd 78 10 3e 46 56 12 be 84 c6 a0 3e bf fe a9 3d
       0.14108558 -0.14290723 0.31401455 0.08300542

node_function_neighbor.4.weight f4 [64, 64]
000000 00 34 55 3c 98 68 a6 3d 60 17 16 bd 67 3c 66 bc
       0.013012886 0.081254184 -0.036643386 -0.014052487
000010 3c 65 18 be 52 1a 97 3d 3f 67 bf 3d e7 ce 68 3c
       -0.14882368 0.07378067 0.093458645 0.014209486
000020 ef f3 12 bd 3e 2d 25 3d 20 de 84 3d 8a e4 9f bd
       -0.035877164 0.04032635 0.064876795 -0.07807262
000030 70 ce 56 bc 60 f4 ad bd 19 0f 78 bd e2 e6 e4 bb
       -0.013110742 -0.084938765 -0.060561273 -0.006985531
000040 aa d1 c7 bd 07 1e 8f 3c 54 7e 16 3d b1 3c 0f 39
       -0.09756787 0.017470373 0.03674157 0.00013660152
000050 60 f9 de 3b 79 7e 8d 3d 46 7d c7 39 3b d8 85 bd
       0.00680463 0.06908888 0.00038049574 -0.06535383
000060 11 92 83 3d f2 fc 35 3d d3 b3 fa 3c ed 10 29 3d
       0.06424344 0.04443068 0.030603325 0.041275907
000070 34 77 8b bd c2 e2 fc bd 57 92 eb bd fc f2 f9 3c
       -0.068098456 -0.12347938 -0.115025215 0.030511372
000080 1c 94 d6 bd 8b 6a ce 3c 73 19 4d bc 44 0f b2 bd
       -0.10477468 0.025197288 -0.012518275 -0.08694318
000090 cb 14 26 bb c7 81 20 be a0 51 4e 3c 7d 78 a8 bc
       -0.0025341983 -0.15674506 0.012592703 -0.020565266
0000a0 7a a3 10 bc 03 7d de bd 1c f5 56 3d b6 38 85 3c
       -0.008828038 -0.10863688 0.05247985 0.016262393
0000b0 a9 45 7a bd cc fc 4b 39 00 8e bf bd 08 49 ad bd
       -0.06110159 0.00019453763 -0.09353256 -0.08461195
0000c0 86 c6 33 3d b4 10 0c be ef 97 e3 bb ad d2 b4 3d
       0.0438905 -0.13678247 -0.006945602 0.08829246
0000d0 6b 4e 00 be d7 c9 c3 bd 46 73 97 bd 68 02 c5 bd
       -0.12529914 -0.09559982 -0.073950335 -0.096195996
0000e0 27 df 9d 3d 50 cd 69 bc c8 e9 87 3d 41 04 64 3b
       0.077085786 -0.014270142 0.06636387 0.0034792575
0000f0 df ce 15 be d1 b0 b4 3c 6a d9 de bd 21 32 4f bd
       -0.14629696 0.022056969 -0.10881312 -0.050584916
000100 24 f4 4a 3c 9e 1a b6 bc 54 c0 9b 3d 99 5a e8 bd
       0.012387309 -0.022229489 0.07605043 -0.11345405
000110 87 35 aa 3c 9b 12 a3 3d e6 fc b7 bd ac 7e 93 bd
       0.020777477 0.07962533 -0.089837834 -0.07201895
000120 0b 71 81 bd 7d 6c 98 bd 58 0c 9f bd 41 73 6c bd
       -0.06320389 -0.074425675 -0.07766026 -0.057727102
000130 38 02 7e bd ed 0e f9 3c 04 44 ea bd 67 db dc 3d
       -0.062013835 0.030402625 -0.11438754 0.10784035
000140 ca 6a 58 bd ee 40 19 3d af 18 17 3c d2 75 03 3e
       -0.052836217 0.037415437 0.009222194 0.12837914
000150 38 36 1e 3d e8 9f 21 3d ae 59 91 bd 16 ff 5e bd
       0.038625926 0.03945914 -0.07097183 -0.054442488
000160 cb c1 46 bd d4 51 7d 3d 5d 66 cf 3d 29 4f 96 bd
       -0.04852466 0.061845616 0.10126946 -0.07339317
000170 64 bb 99 3d 68 2e b1 3b 83 11 93 3c 44 9b 7a bd
       0.07506445 0.0054071434 0.017952686 -0.06118323
000180 67 ac 69 bd 80 45 03 3e 5f 86 d7 3c 30 37 1e bd
       -0.05704918 0.12819481 0.02630919 -0.03862685
000190 f1 09 91 3d 13 04 4e bd f5 f8 88 bd 6e 05 f1 bd
       0.07081974 -0.050296854 -0.0668811 -0.11768614
0001a0 4e 9e bf bc eb 95 92 3d 5a 6e 91 3d 33 61 d5 3d
       -0.023390915 0.07157501 0.07101126 0.1041893
0001b0 15 b3 16 3e 1b 2f 8f bd 50 6f e0 3d f0 d3 12 be
       0.14716752 -0.069914065 0.10958731 -0.1433866
0001c0 e7 27 d1 3c 3e 92 02 3e 58 b4 bd bd 47 0d 56 3d
       0.025531722 0.127511 -0.092629135 0.052258756
0001d0 c1 a6 bf 3d 3f f0 63 3c 8a 4c ba bd cb e9 96 bc
       0.09357978 0.01391226 -0.0909663 -0.018422028
0001e0 5d ad 0c 3e 04 aa bd bc 3f 13 ae 3d f0 0d 4c bd
       0.13738008 -0.023152359 0.08499765 -0.04981798
0001f0 89 2d fa 3d 65 63 cb 3d f9 d5 3e 3d d2 c5 4c bd
       0.122157164 0.099310674 0.04659078 -0.049993344
000200 8c dc e8 3d f0 81 8a 3d 14 4f 56 3d 00 5a 1b bc
       0.11370191 0.06763065 0.05232151 -0.009481907
000210 b0 d5 bd bd a0 1d e4 bb 50 e6 2a bc 18 5c 14 bd
       -0.09269273 -0.0069615394 -0.010430887 -0.03622064
000220 94 28 89 bd 66 f8 e3 bd e4 53 3d 3d e2 d4 fd 3d
       -0.06697193 -0.111313626 0.046222582 0.1239412
000230 30 77 70 3c 70 5a 4e bd 40 2f 59 3d 00 9a 8f 39
       0.014676854 -0.050379217 0.053023577 0.00027389824
000240 b4 af 3e 3d 80 98 80 3c c4 5b a4 bd 8a ca f0 bd
       0.046554282 0.015697718 -0.080253154 -0.11757381
000250 68 63 2a bd 4c 6e 1b bd b0 39 70 bd 00 3b 08 bc
       -0.041598707 -0.037946984 -0.058648765 -0.008314848
000260 40 0a ca 3c e8 8e dd 3c 34 03 a9 3d 0c a3 2b 3d
       0.02466309 0.027045682 0.08252564 0.04190354
000270 68 67 19 bd ba e4 80 3d 1c c0 6b bd 6a 72 9b bd
       -0.03745213 0.06293626 -0.057556257 -0.07590182
000280 b8 63 8a bc 00 d4 ec 3c f6 dd bf 3d 40 a6 33 bd
       -0.016893253 0.028909683 0.093685076 -0.04385972
000290 70 05 48 3c e0 45 68 3d a8 73 b8 3c 68 e2 01 bd
       0.012208328 0.056707263 0.022516087 -0.03171006
0002a0 24 86 fe 3d a4 46 94 bd 66 5c d1 3d 18 0c 82 3c
       0.12427929 -0.07240036 0.10222702 0.015874907
0002b0 46 06 9b 3d 1e c0 ed bd a8 98 ae 3d 38 4d ef 3c
       0.07569556 -0.11608909 0.085252106 0.029211625
0002c0 00 b2 66 ba 68 48 6f bd da 5c 88 bd c8 23 9b bd
       -0.0008800328 -0.05841866 -0.06658335 -0.07575184
0002d0 5c b9 d3 3d 5e bb 9e 3d 58 39 8f bd 58 f1 ca 3c
       0.10338089 0.07750581 -0.06993359 0.024773285
0002e0 48 d2 40 bd d6 92 d6 bd 5c b3 7b bd 20 54 a4 3d
       -0.04707554 -0.104772255 -0.061450347 0.08023858
0002f0 b2 e7 eb bd 46 9d ff bd 22 86 f8 bd b0 b7 9e 3c
       -0.11518802 -0.124811694 -0.12134959 0.019374698
000300 81 3e af bd 34 2b b3 3d b5 ca 78 bd dd 5f 9d bd
       -0.085568435 0.08748475 -0.06074019 -0.076843
000310 7e 48 c7 3d c3 e5 d4 3c 41 73 dc bd 3e 8d aa bd
       0.09730624 0.025988465 -0.107641704 -0.08327721
000320 7d 5d 13 bd df 08 02 be 24 b7 26 bd 4a ba 1b be
       -0.03597783 -0.12698697 -0.040702 -0.15207782
000330 90 e8 c7 bd 90 4e 8f bd 63 bd 93 3d d7 0d 02 bd
       -0.09761155 -0.069974065 0.07213857 -0.03175148
000340 9f 5d ff 3c 22 75 09 3d 56 10 17 be 24 5d 4e bd
       0.031172572 0.033558972 -0.14752325 -0.050381795
000350 e4 ea 58 bd 3a 52 ba bd eb 66 3c 3d 4f ea 18 3d
       -0.052958384 -0.09097715 0.045996588 0.03733283
000360 e8 2b 62 3d f2 cc 61 bd 38 10 f1 bd a9 9b ae 3c
       0.055217654 -0.05512709 -0.117706716 0.021314459
000370 d8 49 d9 bd 17 24 fb 3c c1 b3 42 3d b7 a7 fb ba
       -0.10609788 0.030656857 0.047534708 -0.0019199763
000380 5b 63 c9 3d a9 67 95 ba 83 eb e2 bc 48 b3 01 3d
       0.09833404 -0.0011398691 -0.027700191 0.031665117
000390 ad 34 13 be c7 3b 8c bd 13 45 a4 3d b4 3d 02 3d
       -0.14375563 -0.06847339 0.08020987 0.031797126
0003a0 80 bc 2e 3d 0a 1b ba bd 1d 81 c6 bb ec fe 40 bd
       0.042660236 -0.090871885 -0.006057872 -0.047118112
0003b0 f5 85 1c 3d 61 2c 93 3d 27 05 99 bd 20 7c 2a be
       0.03821369 0.07186199 -0.07471686 -0.16648912
0003c0 c7 59 3a 3d 64 9a 48 3d 5b 87 ab bd 84 98 a0 bd
       0.045495775 0.048975363 -0.083754264 -0.0784159
0003d0 cc af 31 bd f1 e7 54 bd 20 04 48 bd 62 e5 d7 bd
       -0.043380544 -0.05197901 -0.04883206 -0.10541798
0003e0 19 36 0e be fc ac 82 bd 06 61 17 be ae a9 2d bd
       -0.13887824 -0.063806504 -0.14783105 -0.042398147
0003f0 e0 6e 8c 3c ca 54 ab 3d b8 5e a2 bd c1 04 15 be
       0.017142713 0.083657816 -0.079282224 -0.14552595

node_function_neighbor.4.bias f4 [64]
000000 72 f2 48 bd c8 a2 cf 3a 80 4b 3b 3b fa 06 d1 3b
       -0.04905934 0.0015841359 0.0028578937 0.0063790055
000010 cd 7d 82 3d 58 29 b4 bc bb 18 5f 3c f3 5f a7 bd
       0.06371651 -0.02199237 0.013616736 -0.08172598
000020 71 eb 69 bd ea 75 21 3b 49 16 33 bd 73 18 79 bd
       -0.0571093 0.0024636933 -0.043722425 -0.060814332
000030 e3 c8 c0 bc 97 20 cb bd a2 3a 8e bc 24 6f 55 bd
       -0.02353329 -0.099183254 -0.017361943 -0.052107945
000040 dc 1b a7 bd b6 33 bc 3e a5 a3 9d bc 0a c3 3a bd
       -0.08159611 0.36758202 -0.01924307 -0.04559616
000050 c6 32 a9 bd d6 a5 96 3d 46 53 75 3d 22 87 a9 bd
       -0.082616374 0.073558494 0.05989387 -0.08277728
000060 d9 2a ff bd 94 94 98 3d 15 42 8f 3d b6 f7 f4 3c
       -0.124593444 0.07450214 0.06995026 0.029903274
000070 8a f7 12 be 19 29 45 bd 0d d3 c1 3d e3 17 d3 3d
       -0.14352241 -0.048134897 0.09464083 0.103072904
000080 a9 77 17 3d 0c 5c ba bb a8 f0 99 3d e8 5d 62 bc
       0.03697935 -0.0056872424 0.07516605 -0.013816334
000090 d5 04 64 3c 7f 88 06 3d 3f 1e 40 3d 5a c8 09 3e
       0.013917168 0.032845017 0.046903845 0.13455334
0000a0 d3 f2 15 3c 0c ee c1 bd 2b 69 b3 bc f3 2f 21 3d
       0.009152132 -0.09469232 -0.021900734 0.03935237
0000b0 7f ff 1a be bd 38 2e bd ab ec e1 bd 38 e8 e8 bd
       -0.15136527 -0.04253458 -0.11031469 -0.11372417
0000c0 67 5d 49 ba 8c e8 58 bd 21 98 c2 3c 44 44 13 3d
       -0.00076814595 -0.05295615 0.023754181 0.035953775
0000d0 97 95 16 3d ad 8e 19 3d 23 fb 26 3e 22 37 24 3d
       0.036763754 0.03748958 0.16306739 0.04009164
0000e0 51 c1 bf bd 8c 03 65 3c e9 9a 0b 3e a1 f9 c1 bd
       -0.09363044 0.013977896 0.13633312 -0.09471441
0000f0 30 ad 87 3d 92 65 6f bd 71 85 3c bd d4 3d ce bd
       0.0662483 -0.058446474 -0.046025697 -0.100703865

node_function_neighbor.6.weight f4 [4, 64]
000000 c9 7c 11 bd 11 9a 57 3d 40 ad 2e 3b 24 36 08 3c
       -0.035519395 0.052637164 0.0026653558 0.008313689
000010 cc aa 5e 3c a3 50 f0 3d 0e 83 8f bd 75 08 d7 bd
       0.013590526 0.1173413 -0.070074186 -0.1049966
000020 3c 3e da 3c f9 f3 42 bd 9b a2 d9 bb 4a 6e 50 ba
       0.026641004 -0.04759595 -0.0066416985 -0.00079510047
000030 6c 2d 57 3e 68 a3 41 bd b6 09 84 3c d0 e7 ca 3d
       0.21013421 -0.047274977 0.016117912 0.09907496
000040 a2 35 a6 bc af 15 b5 3d 4c 4d 9f 3c 39 63 de 3d
       -0.020289246 0.088420264 0.019446038 0.10858769
000050 e0 26 0c bc 1f 90 05 3e 2f d3 0b 3e 35 94 d1 3d
       -0.00855419 0.13043259 0.13654779 0.102333464
000060 e1 bc 4a 3d 10 94 99 bd 53 5b ff 3d 19 c8 9a bd
       0.049496535 -0.07498944 0.124685906 -0.07557697
000070 61 52 72 3d 79 e1 94 bc f9 18 0c 3d 0c a8 1b 3e
       0.059160594 -0.01817392 0.034203503 0.15200824
000080 eb 12 ba 3d 10 3d 34 3c d2 26 3a 3d d5 94 54 bd
       0.090856396 0.011000887 0.04544718 -0.05189975
000090 b2 29 87 3d 22 0b 94 3b fc 15 82 3d 90 8f ac 3d
       0.065997496 0.0045179287 0.063518494 0.0842582
0000a0 17 2c 9a bd c4 ea 9d bd 83 75 90 3d 3e a9 bc 3d
       -0.07527941 -0.077107936 0.070536636 0.09211968
0000b0 30 4c 90 bd 49 dd 04 3e dc f6 23 be 75 9f de 3d
       -0.070457816 0.12975039 -0.16012138 0.10870258
0000c0 18 fa 54 3d ed 26 89 3d f4 97 27 3d c0 e5 f0 3d
       0.05199632 0.06696878 0.0409164 0.11762571
0000d0 14 86 9e 3d 16 b7 81 3d 33 4b 07 3e 4d 2e 9b bc
       0.07740417 0.06333749 0.1321228 -0.018942976
0000e0 b6 d6 63 bd 00 ce 54 bd e4 f6 69 3d 7a 9d 91 bc
       -0.055624686 -0.05195427 0.05712022 -0.017775286
0000f0 58 b8 89 3d 58 cf c6 3d 43 70 08 bc 4a ec 39 3d
       0.06724614 0.097075164 -0.0083275465 0.04539136
000100 69 63 52 3d 42 9e a2 bd 68 9d bd 3c 59 96 03 be
       0.051364336 -0.079403415 0.023146346 -0.12850322
000110 09 cc fb bb 62 fd 6c 3b ec 80 98 3d 79 ca 8c 3d
       -0.007684235 0.003616177 0.07446465 0.06874556
000120 ad 59 f7 3d e5 98 b5 bd 88 7c 8d bd fd bf 2e 3d
       0.12077651 -0.08867053 -0.06908518 0.042663563
000130 38 33 5b bc 36 6a 46 bc 49 e2 42 3d 3b 6a df bc
       -0.013378911 -0.012110284 0.047579084 -0.027272334
000140 09 12 19 be 34 25 32 3e 76 51 24 bc bc c8 ae 3d
       -0.14948286 0.17397004 -0.010029187 0.08534381
000150 7e 73 8c 3d 4e 36 60 bc 96 9f ab 3d a6 0b 5f 3d
       0.06857966 -0.013684822 0.08380048 0.05445447
000160 c0 1b 19 3d 4d 7b 8d bd 67 f3 a4 bd 20 b5 0c bd
       0.03737998 -0.069082834 -0.08054238 -0.03435242
000170 53 c2 ac 3d f1 a5 25 3d 00 33 4e 3d 60 c8 93 bd
       0.08435502 0.040441457 0.050341606 -0.07215953
000180 97 d6 12 bd 2f b4 6f bd b5 27 4f bd 27 05 fa bd
       -0.03584918 -0.058521446 -0.050574977 -0.12208014
000190 ba d4 b8 3b 34 f2 c4 3d e1 e3 a6 3d 4b a7 97 3d
       0.0056405934 0.09616509 0.08148933 0.074049555
0001a0 31 a4 ae 3d dd ac 77 bd 08 c8 d2 bd 02 a5 b7 3d
       0.08527411 -0.06046759 -0.10292059 0.089670196
0001b0 0b 3a db 39 01 87 d1 3c 4d e4 84 bc 19 14 41 bd
       0.0004181418 0.02557707 -0.016222144 -0.047138307
0001c0 2b 7a ba 3d 8c 75 e5 3d c9 53 76 bd b0 39 e1 3d
       0.09105333 0.11204061 -0.060138498 0.10997331
0001d0 2c 15 0d bd de c6 f7 3c 35 88 8b 3d 9b 5b a5 3d
       -0.03444402 0.030246194 0.06813089 0.08074113
0001e0 ca ae f2 bc f0 33 0a be ef f4 9b 3d ff 7c 96 3d
       -0.029624362 -0.13496375 0.07615077 0.0734806
0001f0 d3 43 e0 3d 29 0b 2a bd 21 62 6e bd ec ae 60 3d
       0.109504364 -0.04151455 -0.05819905 0.05485432
000200 d7 6f 96 3d a7 95 8e 3d 5e d1 fc bd 3d 09 c1 bd
       0.073455505 0.06962138 -0.12344621 -0.0942559
000210 ab 4d a9 bc 13 9a bb 3b 6b 8c bb 3d b9 18 10 3d
       -0.020666918 0.005725154 0.09157642 0.035179827
000220 ae 37 9c bc c1 7d 9f 3d dc dc a7 3c ae 9d 72 bd
       -0.019069519 0.077876575 0.020491056 -0.059232406
000230 33 99 bd bc 33 34 87 3d e1 58 3b 3e c4 0d 24 3b
       -0.02314434 0.06601753 0.18295623 0.002503262
000240 79 59 08 be 21 ab 04 3d 4b 22 9c 3d 00 4e dc bb
       -0.13315381 0.032389764 0.07623728 -0.0067231655
000250 28 16 13 3d 52 01 49 bb 58 e2 97 3c cc 83 59 bd
       0.0359098 -0.0030670953 0.018540546 -0.053104207
000260 c9 0c 94 bd e9 41 82 3d 63 97 20 bd 1c f0 99 3d
       -0.07229001 0.063602276 -0.039206874 0.075165
000270 e6 38 1d bd 22 cf c6 bd 85 95 b6 3c 7f e7 98 3b
       -0.03838434 -0.09707476 0.022288093 0.0046662684
000280 88 e2 b8 3d 5d 93 ee 3d 8c 1a e8 3b f8 4c 74 bd
       0.090275824 0.11649201 0.0070832428 -0.059643716
000290 be c0 39 3c e4 fc 07 3e 5a d4 41 3d ee f5 3f bd
       0.011337457 0.13280064 0.047321655 -0.046865396
0002a0 4f a9 7c bc 60 e3 88 3d 71 4b 16 3d be 5a 0f bd
       -0.015421226 0.06683993 0.03669304 -0.034998648
0002b0 2f f1 11 be bf 30 47 bd 9b f0 37 3e f7 b5 85 3c
       -0.1425216 -0.048630472 0.17962877 0.01632212
0002c0 da d1 03 3e ca e9 5d 3c 1b bb 1e 3b 91 da ae bd
       0.12873021 0.013544509 0.002422041 -0.08537782
0002d0 3b 7c a5 3a d1 43 91 bc 87 3e 0a 3e eb e1 13 3d
       0.0012625525 -0.017732533 0.13500415 0.036104124
0002e0 0f d1 30 bd 12 38 81 bb 88 16 0d bd fe 03 b4 3d
       -0.043168124 -0.0039434517 -0.034445316 0.08789824
0002f0 a3 ed 56 3d 20 5c b0 bd b8 a5 26 bd e4 13 a4 bd
       0.05247272 -0.086113214 -0.040685385 -0.08011606
000300 e9 b8 61 bc 0b e9 e1 3c f0 6d 82 3d 4c fd 66 3c
       -0.013776996 0.027576944 0.06368625 0.014098477
000310 d3 a9 df 3c 50 30 57 3d 67 56 15 3d e4 ed 35 3d
       0.027302658 0.05253631 0.036459353 0.044416323
000320 22 d2 5f bc 8b f7 5e bd be 89 96 3d 73 3b 51 3c
       -0.013660939 -0.054435294 0.07350491 0.012770521
000330 d6 94 bd bb e0 70 c0 bb 06 97 02 bd 39 10 93 bd
       -0.005785565 -0.0058728307 -0.03188231 -0.071808286
000340 19 f4 0e bd 77 0e 4c be af 26 82 bd c8 66 b8 3d
       -0.03490076 -0.19927393 -0.063550346 0.09003979
000350 f0 36 89 3d 26 ff c2 3c 53 08 be bd ec 09 01 be
       0.066999316 0.023803305 -0.092789315 -0.12601441
000360 8d 3a 91 3d ff 79 26 bd b0 a2 0b 3d 50 b9 29 bd
       0.07091246 -0.04064369 0.034090698 -0.041436493
000370 8c 96 ea bc b0 76 6f 3c 49 84 b8 bd 50 9c 3b bd
       -0.02863624 0.0146157 -0.090096064 -0.045803368
000380 6d e0 8f bd a9 e2 11 bc 0d c5 05 bc 4a 47 82 bc
       -0.07025228 -0.008904138 -0.008164656 -0.015903134
000390 de bb 9d bd 02 75 17 bc 0e 55 27 3d 1b be 82 3c
       -0.077018484 -0.009244205 0.0408526 0.01595979
0003a0 d6 44 89 b9 41 56 b7 3d 03 c9 82 3d 27 62 8e 3d
       -0.00026181963 0.089519985 0.06385996 0.06952315
0003b0 fb b5 0a be 10 80 dc bb e6 91 68 be 61 1a cf bd
       -0.13545983 -0.0067291334 -0.22711906 -0.10112453
0003c0 9d 81 a9 3d 9d a7 14 3d 38 81 d7 bb 5e b7 1e 3d
       0.08276675 0.03629266 -0.0065766834 0.03874909
0003d0 8c 2e 50 3d 75 7f 36 3d f2 cd 77 bd f5 53 dc bd
       0.05082564 0.044555146 -0.06049914 -0.10758201
0003e0 cb 27 a8 bd 49 cb b1 bd 2b 89 86 3c 35 7f ba bb
       -0.08210715 -0.08681352 0.016422829 -0.005691434
0003f0 03 ea 95 bd 6f e9 bf bd 95 97 b1 bd 64 2e e1 3c
       -0.07320025 -0.09370696 -0.0867149 0.027487941

node_function_neighbor.6.bias f4 [4]
000000 69 bb 04 bd da 42 d6 bc ea b7 db 3d af 49 cc bc
       -0.03240529 -0.026154924 0.10728438 -0.024937479

edge_function.0.weight f4 [64, 4]
000000 d8 bd fb 3d a4 ae 71 bd 71 71 56 be 6c 1e d3 be
       0.12292069 -0.05900444 -0.20941712 -0.41234148
000010 12 a4 b7 3e 14 a2 d9 3d 57 df 38 3e 83 3e ad bd
       0.35867363 0.10626617 0.18053947 -0.08459189
000020 7e 18 e6 be b3 52 cb 3e 19 f6 b1 be 53 5b d6 3e
       -0.4494056 0.39711532 -0.3475807 0.4186655
000030 66 1b ae 3e d0 95 a4 3e c6 9a bf be 2a f7 02 bf
       0.34005278 0.32145548 -0.3742277 -0.5115839
000040 b7 ac 3a be 9e 24 c6 be 05 71 f4 3d 60 91 c4 3e
       -0.18229948 -0.38699812 0.11935619 0.38392162
000050 71 37 26 3e c4 a9 7b 3d 90 e3 b8 3d 0a 09 98 be
       0.16232087 0.061441198 0.09027779 -0.29694396
000060 d9 50 e8 3e 0b f9 4b 3e f3 4b f1 3e 1d 2c 24 3e
       0.45374182 0.19919221 0.47128257 0.16032453
000070 68 4a 7f be 5b c1 ef 3e a7 4f 81 3e bb 26 d1 3d
       -0.24930727 0.46827206 0.25256082 0.102124654
000080 74 ba 69 be 74 c5 07 3f 7f 3e c5 be eb 93 21 be
       -0.22825032 0.53035665 -0.38524243 -0.15779082
000090 24 08 9c 3e fc 02 82 bb 10 cd 7e 3e 58 b9 02 be
       0.3047496 -0.003967641 0.24882913 -0.12766016
0000a0 e7 3e e2 be 9a 48 bf 3e 85 04 33 3d cc 52 57 be
       -0.44188616 0.37360078 0.043705482 -0.21027678
0000b0 33 08 96 be 15 4f d6 3d 9c 83 b1 3e a6 8f d4 be
       -0.2930313 0.104643025 0.34670722 -0.41515845
0000c0 20 ef 9c be 26 0a e2 3c 73 ad be be 3b 95 1d be
       -0.30651188 0.02759273 -0.37241706 -0.15388958
0000d0 a5 24 b7 be a4 f3 de 3e fa b5 d3 be c7 55 18 be
       -0.35770145 0.43545258 -0.41349775 -0.14876471
0000e0 9b 2f 9f be c9 87 e8 3d 2d 58 8e 3e 1c 39 96 be
       -0.31091008 0.11354024 0.27801648 -0.29340446
0000f0 eb 6c e5 be 3f ec 87 be a5 0d dd 3e 4d d5 e7 be
       -0.4480966 -0.2654743 0.43174472 -0.45279923
000100 1a d0 91 3e e2 af 4b bb 79 29 84 3e ec 36 92 bd
       0.2847908 -0.0031080176 0.2581289 -0.07139382
000110 f2 f8 ab be 66 84 e4 3e aa 7a ef 3e 5f 8c 3a 3e
       -0.33588368 0.44632262 0.46773273 0.1821761
000120 8f 94 8b 3e e0 1b f5 be 72 99 f3 bc 4e 3b 82 3e
       0.2726178 -0.4787283 -0.029736254 0.2543587
000130 97 bd fb 3d 2a 50 2b 3d 36 01 c5 bd 41 15 0d be
       0.12292021 0.041824497 -0.096193716 -0.13777639
000140 2b 30 af be 6d 88 ee bd 9a 02 92 be b1 50 dc bd
       -0.34216437 -0.11647115 -0.2851761 -0.10757578
000150 bb c0 df 3e 7a 62 66 be c5 9a 86 3d b9 e1 c9 3c
       0.4370173 -0.22498503 0.06572489 0.024643766
000160 9f 01 1c 3e 5a e2 bb 3e 9e 62 f3 be b6 4b a9 be
       0.15234993 0.3669613 -0.47536176 -0.33065575
000170 41 f9 86 3e cb d5 51 be 8d 3e a2 bd c9 ab 0e bd
       0.2636204 -0.20491712 -0.07922087 -0.034831796
000180 b4 e9 b8 bd 69 24 22 3e db 1c c9 3e 66 81 db 3d
       -0.0902895 0.15834202 0.39279827 0.1071804
000190 37 be 60 3e e6 24 ce 3e 7a 62 fb 3e 0b 6d 1f be
       0.21947561 0.40262526 0.4909857 -0.1556894
0001a0 20 45 44 3e 16 3f b2 be bb fe 29 be d6 17 a8 be
       0.19166994 -0.34813756 -0.16601078 -0.32830685
0001b0 fb 5a c2 be c8 65 d6 3e 92 0e f1 be e3 36 a3 be
       -0.37960038 0.41874528 -0.4708143 -0.31877813
0001c0 6c cc a1 be bd 89 d9 3e f0 06 9a 3e c6 e5 88 be
       -0.31601274 0.42487898 0.30083418 -0.26737803
0001d0 8b c9 75 be db 39 2c be 73 91 91 3d 1b d5 9b be
       -0.24002664 -0.16818945 0.0710782 -0.30436024
0001e0 98 e4 8d be a0 fa e0 3e cc a6 d6 3e cd c8 b8 3e
       -0.27713466 0.43941212 0.4192413 0.360907
0001f0 47 27 da 3a 41 95 b4 3e 81 73 82 bc 71 13 f2 be
       0.0016643786 0.35270122 -0.015924217 -0.47280458
000200 9a bd 07 bd be 24 4c 3d 16 30 2a 3e f6 b8 a5 be
       -0.033139803 0.049839728 0.16619906 -0.32367676
000210 6a 46 7a 3d 32 0b 64 be 08 f4 b6 bc db bc 7f be
       0.06110231 -0.22269896 -0.02233316 -0.24974386
000220 95 7b 1d be 1f c7 d3 be 36 53 56 3e ef 7c b0 3d
       -0.15379174 -0.41362855 0.2093018 0.08617579
000230 b1 2a 37 be af f7 a0 3d 88 3b de 3c 96 1c 9e 3e
       -0.17887379 0.07859742 0.027127996 0.30881184
000240 a4 a9 02 bf 31 e2 d3 3e 20 88 57 3d 45 d7 b1 3e
       -0.510401 0.41383508 0.052620053 0.3473455
000250 34 6b 77 bd 5a 93 8b be 73 4b e7 3e 73 34 fd 3e
       -0.06040497 -0.27260858 0.4517475 0.49454078
000260 76 a8 ff bd 3a 58 3f 3e aa 2b 83 be 11 3b 4d 3e
       -0.12483303 0.18686 -0.2561925 0.20042063
000270 be 05 61 3e 2a 75 f9 3e 82 30 e9 3e 45 79 c5 be
       0.21974847 0.48722202 0.4554482 -0.38569084
000280 42 70 22 be 6f 71 85 3d dd 92 f4 3e ac 66 93 3d
       -0.15863135 0.06515776 0.47768298 0.071973175
000290 b7 9b db 3d ff 6e ed be 97 0c 84 3e bf d1 ea 3e
       0.107230596 -0.46373746 0.25790855 0.4586315
0002a0 b1 34 56 3d 78 d3 ad 3e f9 18 a1 be 33 5b bb 3e
       0.052296344 0.339504 -0.31464365 0.36593017
0002b0 42 19 04 be 93 c2 c8 bd 81 fc bf be 86 b1 c4 be
       -0.1290026 -0.09802737 -0.37497333 -0.3841669
0002c0 ee 74 4f be 05 9b b9 be 2a 3c e6 3e 93 ff b2 3e
       -0.20259449 -0.36251083 0.44967777 0.34960613
0002d0 a2 43 e8 bd a1 8b e8 be ac 3f 78 3e 1b f8 94 3e
       -0.11341025 -0.45419028 0.24243039 0.2909554
0002e0 d4 63 b3 be d6 78 07 be aa 9a a1 3e 3b 84 8e be
       -0.350371 -0.13229689 0.31563312 -0.2783526
0002f0 4e 8c a8 3e f3 cf 7b bb 16 e0 54 3e 2a ba 1e bd
       0.32919544 -0.0038423508 0.20788607 -0.03875176
000300 4c 20 02 be a1 39 e7 3d 2e 0e 96 3e 0e 83 68 3e
       -0.12707633 0.11290289 0.29307693 0.22706243
000310 f0 88 f8 3e aa f2 e8 be 17 71 86 be 08 14 73 3e
       0.48541975 -0.45497638 -0.26258156 0.2373811
000320 d3 e7 19 3c 47 06 af 3e cf b8 ec 3e 68 a9 25 3a
       0.00939365 0.34184477 0.46234748 0.0006319494
000330 c7 ee 40 be ce 62 c7 3d 95 b0 4e be d8 80 42 be
       -0.18841086 0.097356424 -0.20184548 -0.18994462
000340 ba 99 14 bd e8 86 b1 be a4 c3 ca be a9 71 c4 3d
       -0.036279418 -0.34673238 -0.39602387 0.095919915
000350 07 4b f4 3e e4 94 b4 be d4 8a 42 bc 53 7b 13 3e
       0.4771349 -0.35269845 -0.0118739195 0.14402513
000360 bc 5f fb 3e 55 0c dc 3e e6 be e5 bd fe 09 f9 3b
       0.49096477 0.4297816 -0.112180516 0.007600068
000370 43 97 aa 3d 95 83 e7 3d 2e e2 0c 3d 0b 83 68 be
       0.08329632 0.11304394 0.03439539 -0.22706239
000380 e2 2f f4 be 9b da bd 3e 53 42 c1 be 7c 70 55 3e
       -0.47692782 0.37080845 -0.37745914 0.2084369
000390 0e d6 ef 3e e1 b7 af be 6d d0 86 be 16 36 3c be
       0.46842998 -0.34319976 -0.2633089 -0.18380007
0003a0 e9 c2 f7 3e 2f 76 87 3e 39 9e f9 3d 7c fa 8d be
       0.48390892 0.26457354 0.12188382 -0.27730167
0003b0 c2 52 df be 90 e6 69 be 8a 9c fd be c5 8b a9 be
       -0.43617827 -0.22841859 -0.49533492 -0.33114448
0003c0 3a 08 44 be 86 bc fd 3d 7a e1 6b 3e 90 39 19 3e
       -0.19143763 0.123894736 0.23035231 0.14963365
0003d0 11 1e 03 3f 20 9d a2 3e ec 61 f3 3e 73 6f f3 3e
       0.5121775 0.31760502 0.47535646 0.47545967
0003e0 74 82 a1 3d 40 84 69 be 6d 39 e9 3e a8 1b 58 3e
       0.0788621 -0.22804356 0.45551625 0.211043
0003f0 67 a7 c9 be 0b 47 ac 3e ea e7 98 be dd 8a ba be
       -0.3938553 0.3364795 -0.29864436 -0.3643407

edge_function.0.bias f4 [64]
000000 9d 7c 2e 3e 01 1b 53 3c 85 ac 79 be f3 0e e2 bc
       0.17039724 0.012884856 -0.24382217 -0.027595019
000010 db e8 0b 3f 93 c2 1e 3e 4c 04 5e bd 1d d3 65 3e
       0.54652184 0.15503912 -0.054203317 0.22443815
000020 a3 67 88 be 1e 69 ab 3e f3 b3 fe bd 82 ef 16 be
       -0.2664157 0.33478636 -0.12436666 -0.14739802
000030 f5 0a e5 be 1b 67 87 3e 36 fe 8c 3e 10 d7 12 3f
       -0.44734922 0.2644585 0.27537698 0.5735941
000040 ba 46 e2 3d 7c 42 45 3d 2e 1f df be 12 2a 2b 3f
       0.11048646 0.048159108 -0.43578476 0.6686107
000050 fc f2 94 be c6 4a 5e 3e 40 be ca bc 20 a5 df be
       -0.29091632 0.21708211 -0.024748921 -0.43680668
000060 57 ca 9e be a9 b3 3a be 71 a1 ab 3b f2 e5 6e bd
       -0.31013748 -0.18232597 0.005237751 -0.05832476
000070 07 95 0e bf fa 70 23 3e 93 63 d4 bd 36 d7 24 3e
       -0.5569615 0.15961066 -0.10370555 0.16097721
000080 62 cb 18 3e ad 81 0e 3f 40 34 a7 be c4 9e 0c be
       0.14921334 0.5566662 -0.3265705 -0.1373244
000090 73 6b 8e bb ea e9 3b be 1e fc 54 bb c4 a9 c9 3d
       -0.004346305 -0.1835095 -0.0032498906 0.09846833
0000a0 b6 c1 f9 be 55 52 15 3f 99 4d a4 be 18 b7 4f bd
       -0.48780602 0.58328754 -0.32090452 -0.05071172
0000b0 2c 77 88 bd 19 8f 98 bb 36 cc ae 3e 75 23 68 3e
       -0.06663355 -0.0046557304 0.34140176 0.22669776
0000c0 16 1b 95 3c 10 36 e8 3e 73 ca 19 3e c9 72 c5 3e
       0.018201392 0.45353746 0.15018634 0.38564137
0000d0 ef 4e e5 3e f1 e2 9a 3d 6b 19 5e bd 1a 5e 94 3e
       0.44786784 0.07562817 -0.05422346 0.28978044
0000e0 e0 22 8c be 99 be d3 be 64 6d fd 3e b0 62 d0 be
       -0.27370358 -0.41356352 0.4949752 -0.40700293
0000f0 3e 29 96 be 04 bb ba be 76 a6 d7 be bd 27 03 bf
       -0.2932834 -0.36470807 -0.42119187 -0.5123251

edge_function.2.weight f4 [64, 64]
000000 03 e6 22 3d ee ad ad 3d 42 d8 1c 3d e1 80 f3 bd
       0.039770138 0.0848044 0.038292177 -0.11889816
000010 db 3a a1 bd 7b ec 58 bd fe e1 98 bd f7 70 b5 bd
       -0.07872554 -0.0529599 -0.074649796 -0.08859437
000020 19 4c db bd 9d e4 04 3d 9a 93 e0 3c a8 6d 02 bc
       -0.10707874 0.032444585 0.027414132 -0.007960714
000030 46 5a c1 3a 4c b2 33 be 9d d3 b8 bc ac ac 26 be
       0.0014751635 -0.17548484 -0.022561843 -0.16276807
000040 7e ee 1e 3c 40 ae 51 bd 52 77 ad 3d 28 a0 26 3e
       0.009700416 -0.05119157 0.08470024 0.16272032
000050 28 35 a7 3d f8 17 8b 3d c2 94 f7 bc ce 84 f9 3d
       0.081644356 0.06791681 -0.0302223 0.121835336
000060 20 40 b3 3d fe b8 c4 3c 0f 20 1f 3d e4 36 e8 bd
       0.08752465 0.024013992 0.038848933 -0.113385946
000070 27 56 dd bd 6a 6d 16 bd d8 3d 70 3d 07 1a 96 bd
       -0.10807448 -0.03672544 0.05865273 -0.07329183
000080 26 39 39 3d e3 f4 65 bd 72 f9 84 bd 22 d3 8c 3d
       0.045220517 -0.056141745 -0.064928904 0.06876208
000090 72 ec ec 3b b0 e0 bd 3d 83 9c 41 bb 7f 22 40 3d
       0.007230335 0.09271371 -0.002954275 0.046907898
0000a0 96 3a 8c bd 2d 2f b3 3d 9f df d7 bd b1 af a6 3c
       -0.06847112 0.087492324 -0.10540699 0.020347448
0000b0 75 c9 a0 bd 67 de e0 bc 8c 7d ee bd b5 0a e2 bd
       -0.07850925 -0.0274498 -0.1164504 -0.110371985
0000c0 d9 a9 b6 3d 65 16 0a 3e 7a 6a a0 3d 17 23 31 bd
       0.089191146 0.13485105 0.07832809 -0.043246355
0000d0 d8 47 2a 3c 49 80 cf 3d 27 b3 eb 3c 9a c1 e9 3c
       0.010393105 0.1013189 0.02877195 0.0285347
0000e0 fe 25 61 3d da 8c 3a bb 39 1e 6f bc 42 e4 a1 bd
       0.054967873 -0.0028465302 -0.014594608 -0.07904865
0000f0 a3 5f 46 bc c6 23 68 3d aa d9 7f 3b c9 7e f4 bd
       -0.0121077625 0.05667474 0.003903965 -0.11938245
000100 59 f9 38 be 0f 68 40 3d 17 77 ec 3d 6c 8d 19 be
       -0.18063869 0.046974238 0.11546152 -0.14995354
000110 92 d6 08 bc d4 49 cb bd 7b bb 79 bd 94 b2 bb bd
       -0.008351939 -0.09926191 -0.06096981 -0.091649204
000120 26 fd cb bd 39 9e 15 be f0 7b 0e bc 34 b1 d0 bd
       -0.099603936 -0.14611138 -0.008696541 -0.10190049
000130 56 98 26 be 4e c2 b5 bc 20 04 9b bc 88 af df bd
       -0.16269049 -0.022187378 -0.018922865 -0.10922152
000140 36 2f c2 3c 68 49 09 bd d0 5f da 3c 17 ed 65 bd
       0.023704153 -0.03351727 0.026657015 -0.05613431
000150 21 0b 18 be 92 06 8a 3d 12 94 90 3c 69 5c 2b bd
       -0.14847995 0.067395344 0.01764873 -0.041836176
000160 f8 5e 3d bd d9 40 87 bd d8 c3 90 bd 45 e8 f3 3c
       -0.046233147 -0.066041656 -0.07068604 0.02977384
000170 28 b5 fb 3c a4 8e b5 3c eb 5c b5 bd 60 5f 34 3c
       0.03072603 0.022162743 -0.08855613 0.011009067
000180 a4 f7 af 3d 36 d9 92 bd 20 3a 91 3d be a1 53 bd
       0.085921556 -0.07170336 0.070911646 -0.05166792
000190 c6 04 a0 3c f5 a1 c6 3d d2 99 b2 3d d8 d9 e1 bc
       0.019533526 0.096988596 0.08720745 -0.027569696
0001a0 c0 2d 1d 3b a6 14 45 3c 04 0a 33 bd 74 14 21 be
       0.0023983568 0.012028849 -0.043710724 -0.15730458
0001b0 4d 43 3f 3c a4 6c 2e bd 6c 32 ec 3d fa ce d3 3d
       0.011673761 -0.042584077 0.11533055 0.10342212
0001c0 30 35 09 3d 1a 80 bb 3c 50 81 08 be 6f 74 06 be
       0.03349799 0.022888232 -0.13330579 -0.13130353
0001d0 25 09 fe 3d 5e e7 d5 bc 44 df a2 bd b0 2c 47 3d
       0.12404088 -0.026111301 -0.07952741 0.0486266
0001e0 d5 63 8f 3d 13 f4 f5 3a bf 55 4a bd ce 99 43 be
       0.07001463 0.0018764756 -0.04939818 -0.1910164
0001f0 69 3e b3 3d cb 14 bb bd 28 8f a7 3d e4 68 eb bd
       0.08752138 -0.09134825 0.08181602 -0.11494616
000200 74 d0 bd 3d 80 38 94 bd a0 97 6b 3c a4 c9 28 3d
       0.09268275 -0.07237339 0.014379412 0.041207924
000210 9c c2 a3 bd 68 6f fc bc 0c 37 78 bd b2 8d c3 bd
       -0.07996103 -0.030814841 -0.06059937 -0.095485106
000220 a4 78 0c bd d4 a8 b0 bd 40 b2 7e bd 80 bf ee 3a
       -0.03429474 -0.086259514 -0.06218171 0.001821503
000230 ca e0 b1 bd e4 7a 6f bd 46 30 d2 3d 4c ab 06 bd
       -0.08685453 -0.058466807 0.10263114 -0.032878205
000240 08 ca c5 3c 8c 9a e3 bd c0 3f c8 bc ac 58 6b 3d
       0.024144188 -0.11113462 -0.02444446 0.05745761
000250 cc 3b ca bd 3a e9 c2 3d 2c 2d ec bd c0 d7 29 3b
       -0.098746866 0.09517141 -0.11532053 0.002591595
000260 d0 84 ea 3d 18 51 58 bd 80 52 a6 bb 04 9c c6 3d
       0.11451113 -0.052811712 -0.0050757527 0.09697726
000270 10 90 0c bc 20 c0 41 bd cc b7 41 3d 82 ba ae bd
       -0.008579269 -0.047302365 0.047294423 -0.08531667
000280 58 e2 a4 3c 28 57 c3 3d 4e a6 87 3d 4c 7b 9d 3d
       0.02012746 0.09538108 0.06623517 0.07689533
000290 a8 9f dc 3c 44 dc 4c bd 80 25 d9 bd e0 39 8b bd
       0.026931599 -0.05001475 -0.10602856 -0.06798148
0002a0 ca 84 92 bd ee 0c 85 3d f4 13 ac 3d dc d4 11 3d
       -0.07154234 0.06496607 0.08402243 0.03560339
0002b0 3a 21 d4 3d 58 ec d3 bc a4 c3 21 3d 00 94 f1 bb
       0.103579 -0.025869533 0.039493218 -0.0073723793
0002c0 b0 54 45 bd d4 dc cd bd ac 24 ce 3d 68 24 c4 bd
       -0.048176467 -0.10051885 0.10065588 -0.095772564
0002d0 d0 c3 0d 3c c8 e8 87 3c 64 bb 79 bd a8 93 55 3d
       0.008652642 0.016590491 -0.060969725 0.05214277
0002e0 4c a7 7a bd 36 1b 95 3d 70 5a b7 3c e8 f8 81 bd
       -0.061194703 0.07280581 0.022381991 -0.06346303
0002f0 78 eb ba 3d c0 2d f9 bd 88 5b fe bd 84 92 9b bd
       0.09126943 -0.12166929 -0.12419802 -0.07596305
000300 bb b4 04 be 9b cd b0 3d 59 bb 19 3d fb 7a 96 bc
       -0.12959568 0.08632966 0.037532184 -0.018369189
000310 ff db 11 3e 3f 30 62 bb f4 17 d6 3d 94 b1 f9 3d
       0.14244078 -0.003451362 0.104537874 0.121920735
000320 cd 58 6e bd a9 cc 2b bd a0 c8 13 be 0d 09 c9 bd
       -0.058190156 -0.041943226 -0.14432001 -0.098161794
000330 4d 7b 88 3d 95 06 bf bc 1e 02 2c be c5 14 c5 bd
       0.06664143 -0.023318568 -0.16797683 -0.09623102
000340 c8 00 59 bd b6 82 8f bd 34 5f 63 bd 50 63 b3 3d
       -0.05297926 -0.07007353 -0.055510715 0.08759177
000350 ad 6b b3 3d e6 f5 af bc 2e c6 c3 3d 2f a2 da bc
       0.08760772 -0.021479558 0.09559284 -0.026688663
000360 7c f6 c6 3d 5b f0 f4 3c 8c 5d 4b bd bd ea 45 bd
       0.09714982 0.029899767 -0.04964976 -0.048319567
000370 68 3e 3f bb 9b 7c 5d bd 53 09 7b bc d9 93 0d be
       -0.0029181484 -0.05407391 -0.015322047 -0.1382593
000380 9f 15 a1 3d a2 86 2d 3d 69 6c 0e 3d 2b 54 71 3c
       0.07865452 0.042364724 0.034771357 0.01472954
000390 62 17 d6 3d 2f 7a db 3d ad 86 a0 bc 33 ea 8e bd
       0.10453679 0.10716664 -0.019595468 -0.06978264
0003a0 18 d1 a6 bd 82 fe 70 3d 60 dd 23 bc af 83 27 bd
       -0.0814535 0.058836468 -0.01000151 -0.040897068
0003b0 6f d3 a5 bd 61 ee 90 3d 7a e5 85 bd 13 d1 b4 bd
       -0.080969684 0.07076717 -0.0653791 -0.0882894
0003c0 31 4e f5 3d 74 4f 0f bd bd 31 ec 3d ce d7 83 3d
       0.119778045 -0.03498788 0.11532924 0.06437646
0003d0 d6 d7 1b 3e da 35 e7 3d 32 91 29 3d 5d e7 12 bd
       0.15219054 0.11289568 0.041398235 -0.035865176
0003e0 98 3d aa 3d fc 03 0d 3e 50 5b 49 3d 8b ba ce 3d
       0.08312529 0.13771051 0.049159348 0.10094174
0003f0 3a 53 d3 3c 7f b6 4d bc e5 68 c2 3d 62 c0 30 3d
       0.025796521 -0.0125557175 0.09492663 0.04315222

edge_function.2.bias f4 [64]
000000 4a fb 95 3d f7 d2 c4 bd 00 77 fc 3a f5 31 6b 3d
       0.0732332 -0.09610551 0.0019261539 0.05742069
000010 94 20 8f bd 84 58 f8 bd b9 ca 1a be 76 3f 20 bd
       -0.06988636 -0.12126258 -0.15116395 -0.03912302
000020 5e 47 ba 3d e1 59 8a 3d f4 88 10 bd 37 95 8d 3d
       0.090956435 0.06755424 -0.03528686 0.06913226
000030 69 67 60 3c 82 f2 8b 3c 3d 48 c1 3c 4e 4c 82 3c
       0.01369653 0.01708341 0.023594016 0.015905526
000040 d7 55 8c 3d b5 ad 3f 3d dd 6e 71 3e 4e 17 1d 3e
       0.0685231 0.04679652 0.23577447 0.15340921
000050 01 d7 c4 bd b2 f3 61 3d 96 61 cd bd ee 91 a7 bc
       -0.09611321 0.055164047 -0.10028379 -0.020455327
000060 6b 9c 03 3e 10 db 4a bd 80 5c 35 3e 73 17 77 bd
       0.12852637 -0.04952532 0.17711067 -0.060325097
000070 b5 2a b9 3d 7e 73 76 bd 84 7e 14 bd fc 15 ff bd
       0.09041349 -0.060168736 -0.036253467 -0.12455365
000080 17 92 03 3e 1d 0a b7 3e eb 9b db 3d 9b a2 9d 3c
       0.12848698 0.35749903 0.10723098 0.019242575
000090 d5 c9 af bd cc ff f7 bd 97 09 0a 3d ff f6 10 bd
       -0.08583418 -0.12109336 0.03370055 -0.035391804
0000a0 03 93 d9 bc 6a 3f 01 be b1 c5 06 bd 37 46 4d 3c
       -0.026559358 -0.12621847 -0.032903377 0.012528948
0000b0 29 d7 6c 3e f5 de 6f 3d 41 4b 00 be 93 9b 86 bd
       0.23128952 0.058562238 -0.12528707 -0.06572642
0000c0 d9 23 d6 3d 53 7e 76 bd ee 97 ab bd 65 d5 be 3d
       0.10456056 -0.060179066 -0.08378588 0.093180455
0000d0 ec 4a 48 bd 29 ec 16 3e c7 29 65 3b 0e b6 54 bd
       -0.048899576 0.14738525 0.0034967528 -0.051931433
0000e0 78 b2 bb bd 47 39 79 bd 22 ee 80 bd 63 d1 ff bd
       -0.091648996 -0.06084564 -0.0629542 -0.12491109
0000f0 a8 41 35 3e 80 3a 07 3d 80 73 f5 3c d3 98 b2 bb
       0.17700827 0.033014774 0.029962301 -0.005450347
