Projects/GuoxiangGrayson_T_A study of multi-fidelity graph neural networks/Model_save/Quarter2D/Rank=155-GNN-nB-64-Lr-0.005/model.pth (torch, 114781 bytes, 24 tensors)

node_function_neighbor.0.weight f4 [64, 2]
000000 52 10 50 be 1f e3 bd 3e cd 17 06 3d 68 7a 8f bd
       -0.20318726 0.37087342 0.032737542 -0.07005769
000010 16 ec 26 be 0a bd b8 3e 3b af 1a bf 29 3a 98 bd
       -0.16300997 0.36081725 -0.6042363 -0.07432968
000020 33 55 89 3e b6 5a 66 3e c2 a3 25 bf 8e 07 ce bd
       0.26822814 0.22495541 -0.64703 -0.10060035
000030 75 1b fc bd 06 e0 20 3f fc 71 27 3f f9 e2 1b 3f
       -0.123099245 0.6284183 0.654083 0.6089321
000040 2d cd 19 3e fd e5 24 bf 3c e9 91 3e 80 15 db be
       0.15019675 -0.64413434 0.28498256 -0.4278984
000050 27 f5 79 be 32 3d 21 3f e6 1c 06 3c ab e2 5e 3e
       -0.24409924 0.62984 0.008185601 0.21766154
000060 d7 ea 22 bf a9 6b eb be 05 af e6 3e 0c 54 9c 3e
       -0.6363959 -0.45980576 0.45055404 0.30532873
000070 f6 de 70 bd 8d dc 28 bf 48 2d 52 3e 65 69 ad be
       -0.058806382 -0.65961534 0.20525086 -0.33869472
000080 14 16 db 3d 3c bd c6 3e e6 86 80 be 2e 06 e4 3e
       0.106975704 0.3881625 -0.2510292 0.44535965
000090 af 9d c3 3c 9f a0 a9 bd 16 a3 35 3e 87 80 de 3e
       0.0238789 -0.08282589 0.17737994 0.43457434
0000a0 c6 67 1c 3f 37 5c e9 3e c0 55 23 3e b9 4d b3 3e
       0.61095846 0.45578167 0.1595068 0.35020235
0000b0 f9 42 9b be fd f1 b4 be 69 f0 24 3f ab 27 90 be
       -0.30324534 -0.35340872 0.64429337 -0.28155264
0000c0 51 70 2d 3e 58 7c df be 26 51 e6 3e 2a 13 fa 3e
       0.16937377 -0.43649554 0.44983786 0.48842746
0000d0 09 06 66 be 78 0c 1c 3e 35 bb b1 3e 0f 5f 70 3e
       -0.2246324 0.15239131 0.3471314 0.23473762
0000e0 42 54 c1 3d 05 29 4d be 5a 18 11 bf f0 02 ad be
       0.09439899 -0.20035179 -0.5667778 -0.33791304
0000f0 f2 c9 c6 3d 73 e7 39 be f1 ce 9c 3d 16 19 b6 3e
       0.09706487 -0.18154697 0.076566584 0.35566014
000100 61 7f e9 3e 7d 4f 8a 3e f3 fd 0d 3e d1 bc 65 bd
       0.45604995 0.2701377 0.13866405 -0.056088272
000110 0c 8e 12 bf 88 30 24 bf 48 51 31 be d2 28 b1 3e
       -0.57247996 -0.6413655 -0.17316163 0.34601456
000120 ac 5f 87 bd 73 21 1f bf 09 2f 09 bf c4 9a 19 3f
       -0.06610045 -0.62160414 -0.53587395 0.6000178
000130 92 01 fb be f2 b9 0f 3f 1d 9e 9b 3d 3b d2 f1 be
       -0.49024636 0.56143105 0.07598517 -0.47230706
000140 21 0a 19 3f 2f 44 08 bf 25 ec 26 bf b1 0c 04 3e
       0.5978108 -0.5322904 -0.6520408 0.12895466
000150 d5 4c 05 3f 72 64 3d 3e 4c 4a 74 bd 10 50 af bd
       0.5207036 0.18495348 -0.059641168 -0.085601926
000160 3f 71 90 be da f8 de 3e a9 6d 13 3f 5f 2e ff be
       -0.282114 0.43549234 0.57589203 -0.49840066
000170 d3 1e d0 be 17 fb 52 be e0 af 0b bf 93 f9 df bd
       -0.40648517 -0.20603596 -0.5456524 -0.109362744
000180 4e 05 01 bf 18 c1 92 3e 7a c7 9b 3d 8b 0e c4 3e
       -0.5039872 0.28662944 0.076064065 0.38292345
000190 2e 96 07 bf 8d 91 11 bf 5c cb 75 3e eb 94 5d be
       -0.5296353 -0.5686272 0.24003357 -0.21638839
0001a0 e2 a9 aa 3e 77 42 03 3d 15 4e ce be 6d 7b 83 3e
       0.33332735 0.032045808 -0.40293947 0.25680104
0001b0 c5 c1 96 3e af 63 09 be e0 5e d7 bd d1 9f d4 bb
       0.2944471 -0.13416933 -0.10516143 -0.006488778
0001c0 4a e7 2b 3f d9 87 35 bf bf 40 2a be dd 06 1e 3c
       0.67149794 -0.7091041 -0.16626261 0.009645191
0001d0 b1 01 ba 3e 22 1c b4 be 8b e2 24 bf a2 07 e1 3e
       0.36329415 -0.35177714 -0.6440818 0.43951136
0001e0 63 67 d4 be 2d 20 14 bf 78 01 2e be a1 99 03 3b
       -0.41485128 -0.57861596 -0.16992748 0.0020080584
0001f0 e3 9e 06 bf 77 44 51 3d a4 7f e3 3c 23 ce f5 bd
       -0.5258619 0.051090684 0.027770825 -0.12002208

node_function_neighbor.0.bias f4 [64]
000000 84 dd 94 3e b5 a2 76 3e b5 1b de 3d 92 a7 28 bf
       0.29075253 0.24085505 0.108451284 -0.6588069
000010 02 cf ab 3e 40 d7 0b bf fa 72 b3 3d 41 f8 f0 be
       0.33556372 -0.5462532 0.087621644 -0.47064403
000020 36 f7 66 3d 99 64 c6 bd bb 25 ca bd d1 12 f4 3e
       0.056388102 -0.09687156 -0.09870478 0.47670606
000030 c9 e6 0e be 60 85 60 3e a0 9a a8 3d fd ce 03 3e
       -0.13955225 0.21925879 0.082326174 0.12871929
000040 89 4b 31 3e 28 4c e7 3e a6 86 d5 bc 1d 60 29 3e
       0.1731397 0.4517529 -0.026065182 0.1654057
000050 3f 0d 34 bf 98 d8 99 be ee 64 ba 3e 4e 89 20 3e
       -0.7033271 -0.3004806 0.36405128 0.15677378
000060 82 33 89 3e 2a 9e e3 3b aa 71 03 3f 4f 89 13 3d
       0.2679711 0.006946345 0.5134531 0.03601962
000070 bc 6d 96 3d 83 75 b3 be d8 3c 3b bf 34 d1 01 bf
       0.07345149 -0.35050592 -0.73139715 -0.50709844
000080 c3 16 bb 3e 13 da 8f 3c 76 d8 e6 be 47 f7 46 3e
       0.36540803 0.01756004 -0.45087022 0.19430266
000090 df 29 22 bf 2a 0e 04 3e 9c 84 2d 3e 4d 88 02 bf
       -0.6334514 0.12896028 0.16945118 -0.5098923
0000a0 e8 3c ce 3e 3d af a1 3e 9c 51 30 3f d3 8e 87 be
       0.40280843 0.3157901 0.68874526 -0.26476154
0000b0 4d 7c a0 be 4c d7 ed be 52 7f 88 be 57 c0 12 bf
       -0.31344834 -0.4645332 -0.26659638 -0.5732474
0000c0 0f 9a 81 3e 4c 90 46 3e 70 83 21 3f fb 45 f3 be
       0.2531285 0.19390982 0.6309118 -0.47514328
0000d0 57 bb ae 3e 6b 0d a0 be 97 29 3d bf d8 55 86 bd
       0.34127304 -0.31260237 -0.73891586 -0.06559342
0000e0 f0 54 89 be 25 16 b3 bd 51 fb 12 3c 5a bc 02 3f
       -0.26822615 -0.08744458 0.008971051 0.5106865
0000f0 15 23 2c 3f 57 49 d6 be fe 86 ed bd 4a 0c 38 bf
       0.6724103 -0.4185283 -0.11598013 -0.7189375

node_function_neighbor.2.weight f4 [64, 64]
000000 f0 1a 87 3b f3 b3 10 3a de 44 17 bd 00 b3 95 bd
       0.0041230842 0.00055199786 -0.03693091 -0.07309532
000010 ad 12 97 3b 4c 39 8b bd bd c0 b2 bd ff 4b e5 bd
       0.0046103806 -0.06798038 -0.08728168 -0.11196136
000020 75 d2 cb bd 36 25 26 3c 3d 2f 9a bd 50 ac dd bd
       -0.09952251 0.010140708 -0.07528541 -0.108238816
000030 14 58 bb bd e8 f2 cb 3b 16 f5 bf 3d 44 35 c3 bb
       -0.09147659 0.006224025 0.09372918 -0.0059572775
000040 a1 d6 ee bd f9 9c 9d 3c 45 45 fc bd 47 9d 20 bd
       -0.11662031 0.01923989 -0.123178996 -0.03921249
000050 50 94 7c 3d 21 df bd 3c f2 cc 14 be c9 d2 e5 bd
       0.06166488 0.023177685 -0.14531305 -0.11221845
000060 39 78 12 be ec e4 29 3d 2d 61 c6 bd 6d c0 34 bd
       -0.14303674 0.041478083 -0.096865036 -0.044128824
000070 f8 4d 1f 3d be d1 c1 3d e0 5e cc bd 07 e3 a4 3c
       0.038892716 0.09463833 -0.099790335 0.020127786
000080 71 97 8e bd dd 49 7c bd 79 66 1b be e9 7f df bd
       -0.06962479 -0.06159388 -0.15175809 -0.10913069
000090 da be af 3d 9b 36 2e 3d 6c ed c3 3d cd 59 07 3d
       0.08581324 0.042532545 0.09566769 0.033044625
0000a0 10 96 c0 3c 7c 08 a9 bd 2e 40 a5 bd 10 64 1a bd
       0.023509055 -0.082535714 -0.08068882 -0.037693083
0000b0 71 6b 08 bd b7 2b 2d bd c4 80 cc bd 96 00 e0 3d
       -0.03330559 -0.042278018 -0.099854976 0.10937612
0000c0 4f af 6a bd 52 62 ae bd 85 6e 83 3c 1c 49 0d bd
       -0.057296094 -0.08514847 0.01604391 -0.03449355
0000d0 4f 7f 2d 3c 9b b5 63 3d dd 6f 54 3d 90 7c 03 3d
       0.010589435 0.055593114 0.051864494 0.032101214
0000e0 b3 97 db 3c c3 3d 6b 3c 3d 18 16 be 80 66 a8 bd
       0.026805734 0.014357987 -0.14657684 -0.08222675
0000f0 d0 3f 1c 3d e8 b2 00 3d 12 22 94 bc 5d fa b8 3d
       0.038146794 0.03142062 -0.018082652 0.09032128
000100 86 09 b8 bd de 99 b4 bb c6 e1 22 3d 40 9b c9 3d
       -0.089861915 -0.0055115065 0.039766096 0.09844065
000110 a8 6b c7 bb 40 73 57 3c 6b d5 7c 3b be 8f dc bd
       -0.0060858317 0.013150036 0.0038579355 -0.10769604
000120 58 f2 79 bd 9b b3 01 3e 79 e6 22 be 93 89 f9 bd
       -0.061022133 0.1266617 -0.15908231 -0.12184443
000130 59 47 fa bd b2 f3 40 bc d9 46 ee 3d 85 eb 05 3e
       -0.1222064 -0.0117768515 0.11634607 0.13078125
000140 5c 3e d2 3d 78 84 a5 3c b5 f9 48 bd 17 c3 de 3d
       0.102658 0.020204768 -0.049066264 0.10877054
000150 2b d5 b3 3b 3e c0 a7 3d 98 6c f1 bd 08 a1 12 bd
       0.005488058 0.08190964 -0.11788291 -0.035798103
000160 ce b6 bb 3a 6b de 86 3d 0f 97 64 bc c2 90 cc bd
       0.0014321448 0.065853916 -0.013952031 -0.09988548
000170 c0 6b b6 3c 51 d4 58 bd f7 1b c7 3c 62 13 b5 bd
       0.022268176 -0.052936856 0.024305327 -0.088415876
000180 3e d9 48 3d 8a d0 c0 bc f9 c6 dc bd 2b d5 11 bc
       0.049035303 -0.02353694 -0.107801385 -0.008900921
000190 38 f8 8b bc 42 32 21 bd 92 e2 e4 bd 20 7d f4 3d
       -0.017086133 -0.03935457 -0.11176027 0.11937928
0001a0 92 7b 02 3e 4c 32 85 bc 03 79 e0 bc e2 d5 cf bd
       0.12742451 -0.016259335 -0.027401453 -0.10148217
0001b0 f1 3d 90 3d d4 d8 c8 bd 49 7c bf 3d 4c 0f 46 3d
       0.070430644 -0.09806982 0.093498774 0.048354432
0001c0 ae cb 25 be f6 5d 81 bc c5 5b db 3d ea 1c bc 3d
       -0.16190979 -0.015791874 0.10710863 0.091852024
0001d0 b5 33 12 3d 9d 26 6b bd 3f 9a cf 3d f5 fa 70 3c
       0.035693843 -0.05740987 0.10136842 0.01470827
0001e0 23 2a 63 3d 33 9f a5 3b 09 bc a0 3c cf 08 ed bc
       0.055460107 0.0050543784 0.019620912 -0.028934864
0001f0 d3 a5 06 3e ca bf 28 bc c3 b2 c8 3d 38 60 10 be
       0.13149194 -0.010299632 0.09799721 -0.14099205
000200 7f 4f 5d bd dc 52 d8 3c 14 65 e2 bc 00 98 ef 3d
       -0.05403089 0.026406698 -0.027636088 0.116989136
000210 96 fb 85 3d 06 54 9f 3d 9d 1b de bd ca 56 44 3c
       0.06542127 0.07779698 -0.108451106 0.011983583
000220 69 d2 fa 3d 93 3c b7 3d e5 e5 80 3d 86 9c 3f 3d
       0.12247164 0.089471005 0.06293849 0.04678013
000230 0b 5a 1e bd 55 7a 4f bd f1 41 22 bd 98 f9 2b 3d
       -0.03866009 -0.050653774 -0.039613668 0.041986078
000240 ec f7 13 bc ce 81 82 bd 2d e4 88 bc a4 9d 82 3c
       -0.009031277 -0.063724145 -0.016710365 0.01594431
000250 91 f1 cf bd bb 90 a4 bd 20 08 bf 3b 4e 2e 23 3d
       -0.10153497 -0.08035418 0.005829826 0.03983908
000260 74 ac ea 3d c6 23 85 3d a9 f3 36 3d 0e dd eb bc
       0.11458674 0.06500964 0.044665966 -0.02879193
000270 55 ad 85 3b 64 7d dc bd 6f c9 bb 3d 7c 2b 90 3d
       0.0040795007 -0.10766104 0.0916928 0.07039544
000280 55 5d 41 bd 48 24 a4 bd 95 a9 79 3d 5b ca b6 bd
       -0.04720815 -0.080147326 0.06095274 -0.08925315
000290 5f d1 af bd 4b 19 00 be 24 7f b9 bd 3e 39 5a 3d
       -0.08584856 -0.12509649 -0.09057453 0.053277247
0002a0 7c 0b 75 3d e5 30 a0 bd 12 55 1b 3e ea d1 a1 bd
       0.059825405 -0.07821826 0.1516917 -0.07901366
0002b0 ab a8 85 3c 86 59 07 3e ea 17 c0 bc 04 48 8f 3d
       0.016315779 0.13217744 -0.023448903 0.06996158
0002c0 5a 6f cf bc 4a 5e 30 3d ee 44 24 bd 86 06 8e bd
       -0.025321651 0.04305867 -0.0401048 -0.06934838
0002d0 b6 ab a5 3c 0c b4 c6 3d 98 9b 91 bc ef 15 f1 3d
       0.02022348 0.0970231 -0.017774388 0.117717616
0002e0 8a 30 98 3d a5 cd fc bc b7 c3 27 3d 6b e7 be bd
       0.07431133 -0.030859778 0.040958133 -0.09321483
0002f0 a3 43 2f bd a6 b5 40 bd 43 dd ec bc d5 8d 50 3d
       -0.042789113 -0.047048233 -0.0289141 0.05091651
000300 68 df 33 b8 37 37 c6 3c 39 8d c3 3b dc 71 8f bd
       -4.288499e-05 0.02419625 0.005967763 -0.07004139
000310 80 42 7e 3d 3f a7 c1 bd 83 00 2a be c3 ed b6 bd
       0.062075138 -0.09455728 -0.16601758 -0.08932068
000320 93 a5 3a bd 6a b8 83 3d 90 3c 14 3c bd 31 28 be
       -0.04556806 0.064316586 0.009047642 -0.16425224
000330 f5 f4 27 3d be 32 12 3d 29 fd 6d bc a8 5c de bc
       0.041005094 0.035692923 -0.01452569 -0.027143791
000340 b8 ca 24 be 41 ca d6 bd 68 64 ec 3c 83 41 a0 bd
       -0.16092956 -0.104877956 0.028856471 -0.07824995
000350 c3 26 ce bd 95 db 52 3b ca 1e d5 bd 53 82 38 3d
       -0.10065987 0.0032174338 -0.10406263 0.04504616
000360 a1 6d be 3d 54 ba e3 bd 53 62 66 3c 8e 3f 68 3d
       0.09298254 -0.11119524 0.014061528 0.056701235
000370 df a3 e1 bd 39 5d b9 3c dd a2 0a be 87 e6 9d 3c
       -0.11017584 0.02262746 -0.1353869 0.019274963
000380 fa 3e bc 3c 2e d7 86 bd 07 46 ae bd 56 91 80 3c
       0.022979248 -0.06584011 -0.085094504 0.015694302
000390 d6 d5 7b 3d 84 e1 47 3d 68 72 67 3d f3 e4 8a 3d
       0.061483227 0.048799053 0.05650559 0.0678195
0003a0 4f bc ee 3c 6f 36 f8 bd ae ff 4b 3c 54 f5 99 3d
       0.029142527 -0.121197574 0.0124510955 0.07517496
0003b0 7e f8 9a bd 3a d6 a3 3d df 35 45 bc 56 7e bc 3d
       -0.075669274 0.07999845 -0.01203677 0.09203784
0003c0 77 7b e9 bd e4 a5 80 bd 19 55 ba bd 83 8f fc bd
       -0.11400502 -0.06281641 -0.09098262 -0.1233206
0003d0 ae 00 cd 3c ab f1 ac 3d ca c1 40 3d aa 05 98 3d
       0.025024738 0.08444532 0.04705981 0.07422955
0003e0 e4 a1 3f bd 51 07 f6 bd 80 c5 c0 bc 23 47 14 be
       -0.04678525 -0.12013114 -0.023531675 -0.14480262
0003f0 6e 2c 43 bd 57 df ba 3c d2 7e c8 3d 61 a7 1c ba
       -0.047649793 0.022811575 0.09789814 -0.0005975869

node_function_neighbor.2.bias f4 [64]
000000 8a 9d b7 3d f7 82 9d bc 0a 86 c8 3c 10 22 ce bd
       0.08965595 -0.019227488 0.024477977 -0.10065091
000010 ba 08 d5 3d 56 03 62 3d 3a 05 2c be a5 99 0a 3d
       0.10402055 0.055178963 -0.16798869 0.033837933
000020 7f 03 ac 3c c0 2c 80 bd e4 83 16 be 8f 74 18 3e
       0.02099776 -0.062585354 -0.1469875 0.14888214
000030 ad e9 1f bd 56 40 fb bd 14 d7 8f 3c b5 ef 22 3d
       -0.03904121 -0.122681305 0.017558612 0.039779384
000040 f5 e5 5c 3d 41 3b f4 bd 48 a1 0e 3e 8a 9d b7 bd
       0.05393024 -0.11925364 0.13928711 -0.08965595
000050 99 bb f2 bc 9c 78 9e 3d 7c 02 af 3d 1a 1e 20 3d
       -0.02963047 0.07737848 0.08545396 0.039091207
000060 9a 8f 54 3d 36 65 3c 3c a0 61 0a bd 9c b6 9f bd
       0.05189476 0.01149874 -0.03378451 -0.07798502
000070 6b d6 8b 3c 4c 8e 28 3d 10 b0 17 bd ba 95 3e bd
       0.017070016 0.04115133 -0.03703314 -0.04652951
000080 35 3a a7 bd 3b ab fb 3d 1e a5 ff 3d 78 e2 e6 bc
       -0.08165399 0.12288519 0.124826655 -0.02818416
000090 f2 94 4a 3e 84 e6 d8 bb e1 ed b4 bc 47 aa 49 bd
       0.1978338 -0.0066192765 -0.022086086 -0.049234655
0000a0 34 0d 3b 3d 28 aa bb bc fe d0 99 bd 54 ef 0e be
       0.04566689 -0.022908285 -0.07510565 -0.13958484
0000b0 67 02 ea 3c 6c 54 08 bd ef 62 d6 bb e3 b2 c5 bd
       0.028565599 -0.033283636 -0.0065425555 -0.096532606
0000c0 f9 2c a2 bd 9b 9c 22 bd e3 fa a7 3b 89 a2 00 be
       -0.07918734 -0.039700132 0.0051263436 -0.12562002
0000d0 8d 86 a7 3d 19 6a b1 3d 7e 02 c6 3d e1 19 8f 3d
       0.081799604 0.08662815 0.09668444 0.06987358
0000e0 75 74 a1 3d 3d dd 68 bc a9 e3 bb 3d 3c 5c 26 3d
       0.078835405 -0.014212904 0.09174282 0.040615305
0000f0 69 c1 7f bc d3 e4 e5 3d 72 2b 89 bd 6f 6d 1d 3c
       -0.015610077 0.112252854 -0.0669774 0.0096086105

node_function_neighbor.4.weight f4 [64, 64]
000000 eb bc 4d 3d ff 4c 16 3d 9a cb 33 bd 49 1c bd bd
       0.050228994 0.036694523 -0.04389534 -0.092339106
000010 a2 4d 2a be 2e e0 16 be 9f f7 82 3d 7c 2b 8f bc
       -0.16631177 -0.14733955 0.06394886 -0.01747679
000020 4d 7d 85 bb b4 b4 15 bd f5 ed a8 bb 30 d9 1a be
       -0.004073775 -0.036549285 -0.00515532 -0.15121913
000030 32 3f cf 3c f4 8b f7 bd 4b c8 ec bd d9 a4 5e 3c
       0.025298689 -0.12087241 -0.1156164 0.013589107
000040 18 1e 41 3d 00 6a 93 3d c6 ea d9 bd ca 75 0e be
       0.04714784 0.07197952 -0.106404826 -0.1391212
000050 94 a9 db 3b f8 5e 2c be 9a 9d 46 3d 49 6e 7f bd
       0.006703565 -0.16833103 0.048490144 -0.062361035
000060 7a 9e b2 bd 70 87 99 3c 26 d8 da bd b8 05 02 3e
       -0.08721633 0.01874134 -0.10685758 0.12697494
000070 b3 24 0b be a8 8e 3e 3d 85 b4 7b 3d 6f 55 e4 bd
       -0.13588218 0.046522766 0.061451454 -0.11149108
000080 78 c9 81 3d a3 18 b6 bd cf 13 0b be 3c 30 d5 bd
       0.06337255 -0.08891418 -0.13581775 -0.104095906
000090 52 87 15 bd 03 72 64 3c 17 43 34 3d e4 a4 14 3d
       -0.036506005 0.013943198 0.044009294 0.036290064
0000a0 40 8e c0 3c d3 23 41 bd c1 a7 0b 3d 9b cf 08 be
       0.02350533 -0.047153305 0.03409553 -0.13360445
0000b0 59 af 1a be 04 98 4d bd 80 2e a3 bd 90 7b 0a be
       -0.15105952 -0.0501938 -0.079678535 -0.13523698
0000c0 4b d3 ac 3d 90 7b f7 bd d6 42 b9 3d 10 17 b6 bc
       0.084387384 -0.120841146 0.09045951 -0.022227794
0000d0 74 8c ee bd 86 4b db bd d9 3b ce bd a0 93 c5 bc
       -0.11647883 -0.10707764 -0.10070009 -0.024118245
0000e0 b4 5e 57 3d d5 5d 8f bd cb 95 03 3c fb 2a cb 3c
       0.05258055 -0.07000319 0.008031319 0.024800768
0000f0 96 30 9d bd 49 9b 2a be 18 f7 e1 3d a6 c9 d0 3d
       -0.07675283 -0.16660799 0.110334575 0.101947114
000100 f0 38 50 3d d8 aa 6e bc b3 91 33 bd 16 d0 af 3b
       0.05083555 -0.0145670995 -0.04384012 0.005365382
000110 7a 86 fc 3d b5 3d 2c ba d8 c7 ce bc bc de c0 3d
       0.12330337 -0.00065704744 -0.025241777 0.09417483
000120 3e 2e b4 bd ec 48 b5 bd 3f cc 9c bd d9 c2 46 bd
       -0.087978825 -0.08851799 -0.07656144 -0.048525665
000130 2a fd d6 bd bb 48 a9 bb 8d 28 9a 39 e0 c9 6b bd
       -0.10497506 -0.005166141 0.00029403382 -0.05756557
000140 fc ad 78 bd 0b e3 89 bd 69 65 bc 3d f0 10 69 bd
       -0.0607128 -0.06732758 0.0919903 -0.05690092
000150 37 82 c3 3d 55 b6 9b bd 79 95 4a bc 49 e1 36 3c
       0.09546321 -0.076031365 -0.012364739 0.011162111
000160 57 39 ff 3d 7b fd 2b bd a0 6c 82 3d e7 e5 72 be
       0.124621086 -0.041989785 0.06368375 -0.23720513
000170 c3 56 f1 bd 57 89 cd 3d cb a6 25 bd 8c 6d d1 bc
       -0.117841266 0.10035961 -0.04044227 -0.025564931
000180 a5 df 17 bd 74 ba 00 3e d3 18 76 be 80 90 c9 3b
       -0.03707852 0.12571126 -0.24032907 0.006151259
000190 73 6b d1 3c d0 12 77 3d 36 9f b0 3d f4 33 83 3d
       0.025563931 0.060320675 0.08624117 0.06406394
0001a0 df ce 05 bd 34 7b 7f 3d df 65 a5 bc c7 f0 d8 3d
       -0.03266799 0.062373355 -0.020190177 0.105928
0001b0 4e 80 91 bd 60 38 48 bd 26 32 96 bd f0 f7 37 bc
       -0.0710455 -0.04888189 -0.07333784 -0.0112285465
0001c0 d8 59 d6 3c 40 b8 24 3b a4 af 69 bd 98 ba ce bc
       0.026165888 0.0025134236 -0.05705227 -0.02523546
0001d0 59 ae 8d 3d 80 4f 15 3b ca aa 5f bc be 36 b9 bd
       0.0691802 0.0022782981 -0.013651559 -0.09043644
0001e0 1f 8e a4 3d 13 05 d7 bd dd 01 34 3e eb 21 02 3e
       0.0803492 -0.10499015 0.17578836 0.12708251
0001f0 12 7d b6 bd 6f ce 3e bd 24 09 08 3d 04 6d a7 3d
       -0.08910574 -0.04658359 0.033211842 0.0817509
000200 bc 31 86 bd 53 0a 2d 3d 75 5a 8d 3d 30 11 29 3e
       -0.06552455 0.042246174 0.06902019 0.16510463
000210 e7 b2 3c be 96 59 0c be 1f a9 be bd 34 9c 3a 3d
       -0.18427621 -0.1370605 -0.09309601 0.045559123
000220 40 7f 87 bd 6a b6 a4 3d b4 1a 3e bd 3f 89 ee bd
       -0.06616068 0.08042605 -0.046412185 -0.11647271
000230 dd 0f 78 bd 5f 45 7c 3b 9a 82 a1 3c 27 ea 1f bd
       -0.060562003 0.0038493497 0.019715596 -0.039041664
000240 c9 73 34 3d 8f 72 f0 3d 9f 1e b3 3d 97 aa 84 3d
       0.044055734 0.117406 0.08746075 0.0647785
000250 1a 14 d3 bd 09 5c 66 bd c5 d7 84 bd a6 9a 26 3d
       -0.103065684 -0.056240115 -0.06486467 0.040674828
000260 44 06 59 bd d9 90 9c 3d d0 ad 45 bd 85 57 85 bd
       -0.05298449 0.07644815 -0.048261464 -0.06510834
000270 e0 b8 0b 3d 19 72 c7 bc 3d 8a 3d bd 86 b2 b5 3d
       0.034111857 -0.024346398 -0.046274412 0.08871941
000280 ee 26 4f bd f2 ae d6 bd 59 ab 84 3c 1a 45 3f 3d
       -0.050574236 -0.10482587 0.016194986 0.04669676
000290 8e 7b 25 3d 29 d6 d2 bd 50 21 ed 3d 4b cc 67 bd
       0.040401034 -0.10294754 0.115786195 -0.056591313
0002a0 e9 3b ba 3d ab 1b 47 bc 16 4a b4 bd 05 99 c0 3b
       0.09093458 -0.012152593 -0.08803193 0.0058776163
0002b0 b6 2e cd 3d 00 dc 49 3b 27 a8 8a ba 8d 9c 42 3d
       0.10018675 0.0030801296 -0.0010578678 0.04751258
0002c0 e8 87 68 bd 46 bd 92 3d 0a 44 a2 bd 21 b9 1d bd
       -0.056770235 0.07165007 -0.07923134 -0.03850663
0002d0 d2 f9 ba bd e4 fe 88 3b 7c 1f 7a 3d de 83 54 3d
       -0.09129681 0.004180776 0.061065182 0.05188357
0002e0 ba 82 18 3d 31 d2 9f 3c 06 68 b1 bd 41 cd 06 3e
       0.037234046 0.019509407 -0.08662419 0.13164236
0002f0 c7 49 9e bd e5 9a ce bc 6b b2 26 3d 88 b6 f7 3d
       -0.07728916 -0.025220344 0.040697496 0.12095362
000300 d6 c8 a2 3c 02 45 a4 bd be 78 94 bd 52 22 b1 bc
       0.019871157 -0.08020975 -0.07249592 -0.02162281
000310 eb 86 8a 3d c9 0f fe bd d7 d7 a5 bd 39 a7 99 3c
       0.06764015 -0.124053545 -0.08097809 0.018756496
000320 45 14 ca 3d 8d 85 d6 3d 72 be bd bd 1a 75 7e bc
       0.09867147 0.104746915 -0.0926484 -0.015530849
000330 76 16 4d 3d 6f 11 f0 bd e1 6b bd 3c 4e 5c 94 3d
       0.05007025 -0.11722075 0.02312273 0.07244168
000340 ac 27 00 3e 45 47 2e bd 3d 9d e7 bc a9 a9 7a bd
       0.12515134 -0.042548437 -0.02827322 -0.061196957
000350 b2 c1 c8 3d 9a 98 a0 bd ab 2f d1 3b 11 5b 59 bd
       0.098025694 -0.078416064 0.0063838563 -0.053065363
000360 36 a1 3c 3d 0a 69 02 be 28 c3 81 3c ea 03 10 be
       0.04605218 -0.12735382 0.015840128 -0.14063993
000370 fc 7b 74 3d dd 35 cc bd 0b 55 ad bc db d6 13 bc
       0.059688553 -0.09971211 -0.021158716 -0.0090233935
000380 32 05 b5 3c 5d 6f 14 bd 6d 39 1e 3d 68 b9 8d 3d
       0.022097204 -0.036239017 0.038628984 0.06920129
000390 f1 de 36 3e 97 e6 b2 bd 34 d4 00 3e b0 ea af 3d
       0.17858483 -0.08735388 0.12580949 0.08589685
0003a0 c2 0e 21 3c d8 e6 48 3c e4 05 89 bb 16 0c e1 3c
       0.009830179 0.012262069 -0.0041816104 0.027471583
0003b0 44 6f 90 3d 00 8c 0a bc 64 6b 7d 3d 9b e8 1a bd
       0.07052472 -0.00845623 0.061869994 -0.037819486
0003c0 60 f7 5e 3d 5e 29 c3 3d d3 76 18 be 4e 2c 63 be
       0.054435134 0.095293745 -0.14889078 -0.2218487
0003d0 59 58 ce 3d 58 07 53 bc d5 ba 85 3d 8d f6 bd bd
       0.10075445 -0.012880169 0.06529776 -0.092755415
0003e0 2e 4a 2d 3a 88 ea 76 bc 48 32 8a bc f1 bd 91 3d
       0.000661048 -0.015070565 -0.01686968 0.071163066
0003f0 c3 73 45 bd 1e 4f af bc f1 e0 60 bd 3e f1 7d 3d
       -0.048206102 -0.02140003 -0.05490202 0.061997645

node_function_neighbor.4.bias f4 [64]
000000 55 d7 2c 3b 98 21 e1 bd 47 09 38 3d 83 69 20 3b
       0.0026373465 -0.109927356 0.044930723 0.0024476952
000010 18 62 33 be 58 07 51 3d 37 0b 49 bc 2d ed 69 bd
       -0.17517889 0.051032394 -0.01227074 -0.057110954
000020 80 db 8c 3c 18 58 2c 3d 33 a2 d4 bd 9a b5 f4 bd
       0.01719451 0.0420762 -0.103824995 -0.119487
000030 dc 4b 12 3e df 54 15 3d 64 16 4c bd c7 bd 31 3e
       0.1428675 0.036457893 -0.04982604 0.1735755
000040 2b 71 ab bd 9a 93 0a 3d 7e 47 e6 3c b9 61 04 3e
       -0.083711945 0.03383217 0.028110262 0.12927903
000050 a0 bf 21 3c 3f 19 4e bd cc e4 41 be 12 7a fa bd
       0.009872347 -0.050317045 -0.18934935 -0.12230314
000060 99 55 c4 3d 2c 23 fc 3c 9a ef 9e bd 7c 6a 08 be
       0.09586639 0.03077849 -0.07760544 -0.1332187
000070 cd d8 07 3d 18 8f a0 bd 84 42 3b 3d 2b 61 80 bd
       0.03316574 -0.07839793 0.04571773 -0.06268533
000080 ea 9b 8d 3c d4 e5 ef bd ec b7 ec 3b 83 b3 10 3e
       0.01728626 -0.11713758 0.0072240736 0.14130978
000090 4c d0 05 3d ec 4e ef bd 57 05 cf bd 13 68 ba 39
       0.03266935 -0.11684975 -0.1010844 0.00035554226
0000a0 42 8e b9 3c ac 83 ca bd b8 8c 86 3d b4 8a 8b 3d
       0.022650842 -0.09888396 0.06569809 0.06813565
0000b0 1d aa 88 3d 40 13 95 bd d9 7f c3 bd 0e 43 3a 3d
       0.066730715 -0.07279062 -0.095458694 0.045474105
0000c0 e2 0e 0c 3d 5d 8b 0c be 85 61 e9 3d 9b 56 8e 3d
       0.03419388 -0.13725038 0.113955535 0.069501124
0000d0 41 35 08 be de 41 8f 3d dc 30 6a 3b 0b 8f dc bd
       -0.13301565 0.06994985 0.003573469 -0.10769471
0000e0 9f 61 28 3c aa e6 f9 bb cd d2 e5 3d 16 38 68 bd
       0.010277181 -0.0076263743 0.11221848 -0.056694113
0000f0 e1 07 21 bd d8 22 3c bd 54 3d 01 be 28 d8 86 bd
       -0.039314155 -0.045931667 -0.12621051 -0.06584197

node_function_neighbor.6.weight f4 [4, 64]
000000 51 26 d9 3d 3d 81 b4 bd a2 9e 12 3e 65 31 2f bd
       0.106030114 -0.08813713 0.14318326 -0.042771716
000010 d6 2c 62 bc ee ab 0b 3d 4e 8b 3b 3d 6d bb 33 3d
       -0.013804635 0.03409951 0.04578715 0.043879915
000020 d2 6d da bc 94 c5 88 bd e3 4e 53 bd 84 01 25 bd
       -0.026663695 -0.0667831 -0.051588904 -0.04028465
000030 b1 b4 0e 3d 9e 39 90 bd d4 02 7b bc d9 b6 d9 bd
       0.03484029 -0.070422396 -0.0153204985 -0.106305785
000040 d1 0c 84 3c 37 fc f2 3d 3a 0d 47 3d d7 16 7c bd
       0.016119393 0.118645124 0.0485966 -0.06154522
000050 5a 8b 60 3d 5e 98 93 bc ed 09 0f bd 64 67 66 3d
       0.054820396 -0.01801699 -0.034921575 0.056250945
000060 39 00 4f bd 4d 9b e5 bb 0d 21 03 3e ce c3 3b 3d
       -0.05053732 -0.0070070387 0.12805577 0.04584103
000070 53 5f 53 3d 2a 73 1f bd fb 29 98 3d 6b 39 15 3c
       0.05160458 -0.03892819 0.07429882 0.009107928
000080 9c 27 95 bd 31 ac 40 3d a5 5e c1 3d a7 47 ec 3d
       -0.072829455 0.047039215 0.0944188 0.11537104
000090 7e bd e1 ba 82 47 02 3c d8 1b 33 bd 12 66 f8 ba
       -0.0017222611 0.007951619 -0.043727726 -0.0018951318
0000a0 87 02 80 bd 73 8e 3d bd 7e cd 4a bc 62 74 aa 3d
       -0.06250482 -0.04627843 -0.012378095 0.083229795
0000b0 3a bf a0 3d 28 fe 48 bc fc a2 6c bd c1 1f 2c 3e
       0.078489736 -0.012267627 -0.05777262 0.16808988
0000c0 9a 70 a5 bd fe 88 04 be e9 88 45 bd 10 58 33 3d
       -0.08078118 -0.12942883 -0.04822627 0.043785155
0000d0 65 04 0f be da 33 4e 3d 48 b5 8d 3d b5 db 8b bc
       -0.1396652 0.05034242 0.06919342 -0.017072538
0000e0 76 e7 0a 3d c6 fa 93 bd 45 ba a3 3d 09 7f 9b 3d
       0.033912145 -0.072255656 0.079945125 0.075925894
0000f0 ac 52 3f bd e0 4d c9 bc ac 9d 95 bd 46 eb d8 3d
       -0.0467097 -0.024573267 -0.07305464 0.1059175
000100 01 2d 8f 3d ec b3 ba 3d 6d 38 1d 3c 7b 0e 9f bd
       0.06991006 0.091163486 0.0095959725 -0.07766434
000110 95 a2 8b bd ce cb 52 3b f4 68 41 bd 0f 23 b8 3d
       -0.068181194 0.0032164934 -0.04721923 0.08991062
000120 11 73 03 3e a4 8d dd 3d 68 0f ed bd 80 83 e7 ba
       0.12836863 0.108180314 -0.11575204 -0.0017663091
000130 61 ec d9 bd a2 8d e5 3c 57 3a c5 bd ed 14 e0 bd
       -0.10640789 0.028021637 -0.09630268 -0.10941491
000140 c9 2f b8 3c c1 af 16 3d bc b7 e6 3d 47 ca 73 3b
       0.022483723 0.036788706 0.11265513 0.0037199424
000150 04 7a ce bd 26 05 bf bc 81 e6 92 bc 29 1e e0 3d
       -0.100818664 -0.023317885 -0.017932178 0.109432526
000160 b9 c8 e4 bd c5 1d eb bd 81 a2 a7 3c f9 d6 44 3c
       -0.11171097 -0.114802875 0.02046323 0.012014144
000170 48 e2 06 3d 2b 9c b2 3d 9a d8 b9 bc 68 c4 ab bd
       0.032930642 0.08721193 -0.022686291 -0.08387071
000180 7f e1 e1 bd 90 0a 3b 3d 04 5a b0 3d a8 e5 84 bd
       -0.11029338 0.04566437 0.08610919 -0.06489116
000190 62 4a e9 bd 2c 34 08 3d aa 44 aa 3c eb f4 9a bd
       -0.113911405 0.03325288 0.020784695 -0.07566246
0001a0 8e 54 5c bd fa bb 83 3d 13 19 cd bc 72 c6 aa bd
       -0.053791575 0.06432338 -0.02503637 -0.08338632
0001b0 e2 a6 b3 bd 4c c9 d8 bd 09 c2 89 3d e3 97 47 3d
       -0.08772065 -0.10585269 0.067264624 0.048728835
0001c0 ac 37 57 bd 0a 8e 37 3d 41 c3 ca 3d c8 ac c0 bd
       -0.052543327 0.044813193 0.09900523 -0.094079554
0001d0 94 f9 24 bd 78 d0 ea 3b 94 96 28 3d 20 c7 d7 3d
       -0.04027708 0.0071659647 0.041159227 0.10536027
0001e0 c0 7b 95 3d b5 94 a1 bd 07 db a4 3d 30 38 5a 3d
       0.07298994 -0.07889692 0.08049589 0.05327624
0001f0 c3 75 4b 3d 4a 9a 96 bd c6 65 ae bd 26 15 bd bd
       0.049672853 -0.07353647 -0.085155055 -0.09232549
000200 70 69 05 3d 32 e6 4e 3d 2f 3b ec bc f1 cf 48 3d
       0.032571256 0.0505125 -0.028836815 0.049026433
000210 9f a6 a2 bd 7c 4a f0 3c ac b6 25 bd 95 3c 21 bb
       -0.07941937 0.029332392 -0.040457413 -0.002460276
000220 6f d1 64 3d 39 6b c3 3a 9b a3 16 3d dc 19 b4 3d
       0.055863794 0.0014909274 0.03677712 0.08793995
000230 71 c4 03 bc 3e 67 f9 3d 8f 47 16 3d b0 ec ce 3d
       -0.008042441 0.12177895 0.036689337 0.10103738
000240 cd fd 08 3e 37 40 ac 3d 84 69 dd 3d 90 13 bc 3c
       0.13378067 0.084106855 0.10811141 0.022958547
000250 88 04 97 3d af d7 c6 3d 7c 17 ee 3c 6c a2 4c bc
       0.07373911 0.09709107 0.029063933 -0.012489896
000260 77 f0 bb bc 47 69 d9 3c d1 9a 23 bd 70 4c 98 bd
       -0.022941811 0.026539458 -0.039942566 -0.07436454
000270 d3 cb 7d bd 15 dd 79 bd 7e 3e bb 3d e1 b2 81 3d
       -0.06196196 -0.061001856 0.09142779 0.063329466
000280 c5 d8 99 bd 89 0f 26 3d 13 be b0 bd 9c 97 df ba
       -0.07512049 0.04054216 -0.08630004 -0.0017058733
000290 b6 38 94 3c da a4 01 3d cb 13 6d 3c 38 73 8a bd
       0.018093448 0.031651355 0.014470051 -0.067602575
0002a0 75 7a 9e 3c c1 67 81 3d 74 5f cf 3d 64 bb ee bb
       0.019345501 0.063186176 0.10125628 -0.0072855223
0002b0 56 18 12 bd 5d d4 18 bd cc 95 de 3c b8 09 0e bd
       -0.03566774 -0.0373119 0.027171038 -0.034677237
0002c0 11 74 ad bd f1 d2 29 be 49 82 0e 3e 54 01 a2 3d
       -0.084694035 -0.16584374 0.13916887 0.079104096
0002d0 3c b7 91 3d 4a 87 37 3c d6 e3 d8 3d 3d ee 42 bd
       0.07115027 0.011201689 0.10590331 -0.047590483
0002e0 39 64 1d 3d 2b cf ab 3d 96 0f c8 3d f0 19 50 bc
       0.038425658 0.083891235 0.09768598 -0.0127014965
0002f0 14 ec ff 3d 7f e2 0d bd 70 52 78 3d 81 f8 e5 bc
       0.124962 -0.03463983 0.060625494 -0.028072597
000300 fb 17 af bb e3 8a b8 3c 89 84 89 bd 10 34 d1 3d
       -0.005343435 0.022527164 -0.06714732 0.10215008
000310 84 08 be 3d 81 d9 7b bd a7 41 54 3d da 51 e7 3d
       0.09278968 -0.061486725 0.051820423 0.11294909
000320 89 5e 95 3d 71 d4 dd bd cf 2c b6 3d 50 e8 0b 3c
       0.07293422 -0.108315356 0.08895265 0.008539274
000330 0b b7 29 bd 76 09 f4 3d 4f 9b cb 3c 72 22 f4 3c
       -0.04143433 0.11915867 0.02485433 0.029801581
000340 1a b6 e2 3b a3 fc 98 3c 95 76 0f 3d c1 8a 17 be
       0.006918681 0.018675154 0.035025198 -0.14799024
000350 87 6d d8 bd 79 d6 a4 bd b2 b1 55 3c e7 b8 13 bd
       -0.10567766 -0.0804872 0.013042854 -0.03606501
000360 f7 55 ea bc 22 77 cd 3c 6f d9 46 bc 5b 93 95 bd
       -0.028605444 0.025081221 -0.012136801 -0.073034965
000370 aa 07 c2 3d c7 00 83 3d dd 34 4f 3d 24 23 2d 3d
       0.09474118 0.06396633 0.050587524 0.04226984
000380 a5 2f f9 3d fd b0 18 3c 55 87 09 3d d1 64 d7 3c
       0.121672906 0.009319541 0.03357633 0.02629319
000390 74 4e c8 3d 4a d5 18 bd db 22 e9 3d 90 c2 94 bd
       0.09780589 -0.037312783 0.11383601 -0.07263672
0003a0 98 51 99 3b 55 d3 37 be ce a3 b1 bd 63 78 6c bc
       0.004678916 -0.1795171 -0.086738214 -0.014432999
0003b0 1f 76 96 bd 09 64 04 bd dc 95 91 3c 8c 7b 82 3b
       -0.073467486 -0.032321963 0.017771654 0.003982013
0003c0 bd a1 33 bd 7c 90 2e 3e 8e 8f 99 3d c8 3b c0 bd
       -0.043855418 0.17047304 0.07498084 -0.09386402
0003d0 3a 84 e4 3c fc f5 37 bd 78 47 0c 3d 5f ad 92 3d
       0.027895082 -0.044912323 0.034247845 0.07161974
0003e0 a7 9d 07 bd ad d2 52 3d f5 d9 5e 3d b6 8f af bb
       -0.033109333 0.051470447 0.05440708 -0.005357708
0003f0 c4 53 4c 3d 1c e3 b8 3c be 1e 9e 3d 2d 35 33 bd
       0.049884573 0.022569232 0.07720707 -0.043751884

node_function_neighbor.6.bias f4 [4]
000000 41 1e 00 3e 70 63 0f be ab ae 16 3c d3 28 80 3c
       0.12511541 -0.14002776 0.0091969175 0.015644467

edge_function.0.weight f4 [64, 4]
000000 b2 ac eb 3e 0f e0 e2 be 81 70 ba 3e 32 80 e4 be
       0.46030194 -0.44311568 0.3641396 -0.44629055
000010 ba bb b3 be ff ff c9 be 76 cb e3 be fc ba 57 3d
       -0.35104162 -0.39453122 -0.44491166 0.052668557
000020 20 7b f7 bd 90 f7 ae 3e dd d2 58 be 0e ea 0b bd
       -0.12084031 0.3417325 -0.21174188 -0.03415876
000030 03 5f 94 3e ee 7b a3 3e d8 5c 17 3e 81 8a b7 3e
       0.28978738 0.31930488 0.14781511 0.35847858
000040 22 e8 6a be a7 4b 9a 3d f7 48 f7 be 52 50 f9 be
       -0.22940114 0.07533961 -0.48297855 -0.48694092
000050 ba 4d 6b 3e fd 3e 68 3e 5f f4 95 bc 5d a1 be 3e
       0.22978869 0.22680278 -0.018305002 0.37232485
000060 ab 4a e9 be 53 c7 b9 3e 47 00 35 be 15 35 ab 3e
       -0.4556478 0.36284885 -0.17675887 0.33438936
000070 2c a4 ff be f5 4c 7a be 1e 67 1c 3e 02 db 8d 3e
       -0.4992994 -0.2444342 0.15273711 0.27706152
000080 9b b3 d3 be 63 d4 69 be c5 4c 6a be 1e 24 ef 3d
       -0.41347966 -0.22834925 -0.22880848 0.11676811
000090 9b 6c d7 3e 99 59 e4 be 77 3b 38 be a0 9b b3 be
       0.42075047 -0.44599608 -0.17991434 -0.3507967
0000a0 ea 92 e6 bd 1c 5d e3 be 05 69 eb 3e c8 21 aa 3e
       -0.112584904 -0.44406974 0.4597856 0.33228898
0000b0 5e e2 d9 3e 62 63 b9 be 46 ca bd bd 03 a3 7c be
       0.42555517 -0.36208636 -0.09267096 -0.24671559
0000c0 df a6 b7 be 0c eb 70 39 89 2c 8d 3e e1 cd 2f 3e
       -0.358695 0.00022975745 0.2757304 0.1716838
0000d0 99 20 69 be cc a9 af 3e a6 20 bf bd bb 55 57 be
       -0.22766341 0.34309232 -0.09332399 -0.21028797
0000e0 d7 3a b3 3e 7f a7 de be e7 dc d2 3e cb b7 af bd
       0.3500583 -0.43487164 0.4118416 -0.085799776
0000f0 62 72 c3 3e 70 f2 c8 3e 96 8f dd be bc 2e 06 3e
       0.38173205 0.39247465 -0.4327361 0.13103765
000100 a0 ef 17 be df 14 cf 3e 91 d5 94 3e 6d 82 89 be
       -0.14837503 0.4044561 0.29069188 -0.2685732
000110 1c 18 29 3e 03 54 b0 3e 02 f9 a0 3e 2d a7 67 be
       0.16513103 0.34439096 0.31439978 -0.22622366
000120 94 f1 3e 3d 22 87 b0 3c 50 f4 c0 3d 5c 2b fd bd
       0.046617106 0.021548811 0.09421599 -0.12361786
000130 8c ab 8e 3e d4 7c b4 3e 06 54 e1 3e 6b 6e 9d be
       0.27865255 0.35251486 0.44009417 -0.30748305
000140 77 89 f3 be 0a 44 65 3e bc ef 78 3e ec eb b2 be
       -0.47565815 0.22389236 0.24310201 -0.3494562
000150 66 53 96 3d f5 31 b7 3e 89 d4 f3 be 8f 2b ee bd
       0.07340126 0.35780302 -0.4762309 -0.11629402
000160 14 e8 fc 3e c0 a6 99 be 2e 96 ea be 47 e4 78 3e
       0.49395812 -0.30010033 -0.45817703 0.24305831
000170 93 51 d6 3d 43 71 0d 3c a0 6d 08 3e 81 c9 16 3e
       0.10464778 0.008632961 0.13323069 0.14725305
000180 0e e5 92 be fa 5f 48 bd 5c 4f 96 3e 58 fa 8b be
       -0.2869038 -0.048919655 0.2935742 -0.27339435
000190 f8 98 ae bc 65 e9 15 be 88 c3 f9 3d a3 5b 4d bb
       -0.021313176 -0.14639814 0.12195498 -0.0031335137
0001a0 52 49 60 be 6b 39 86 be be 75 af 3e 5a 6a 81 be
       -0.2190297 -0.2621568 0.34269518 -0.25276452
0001b0 59 a2 a3 3e e9 9a 6d 3e 63 f6 6b bd f4 f6 13 be
       0.319598 0.23203625 -0.05760802 -0.14449674
0001c0 c5 d0 af 39 bb a8 6d 3c df 75 b3 3e 0f bd 93 bd
       0.00033534146 0.0145055605 0.35050866 -0.072137944
0001d0 eb 11 d0 3e e3 4e f5 bd 0a b9 41 be 19 a6 c6 bd
       0.4063867 -0.11977937 -0.18918243 -0.09699649
0001e0 d1 96 e9 be cf 9d cd be 8e a0 33 be 89 66 e0 be
       -0.45622876 -0.4015946 -0.17541716 -0.43828228
0001f0 69 cc d6 3e 40 5a 9b be d7 c7 f0 bc bb e5 a8 be
       0.41952828 -0.30342293 -0.029392166 -0.3298777
000200 c4 49 21 3e e5 e3 9e bd b1 d7 33 be 24 21 cb bd
       0.15750796 -0.07758311 -0.17562748 -0.099184304
000210 61 3d 27 3e 49 d0 3b bc 77 f4 a9 3d df 5b d8 be
       0.16332008 -0.011463233 0.08298581 -0.42257592
000220 76 88 31 3e e6 c2 81 3d 2c 9e 94 be 39 6d 40 3d
       0.17337212 0.06336002 -0.29026926 0.046979163
000230 6d 7a a6 bd 29 27 d5 be 01 aa 37 3e 74 fd d7 be
       -0.081288196 -0.4163144 0.17935945 -0.42185557
000240 1e 8a bd 3e cb 92 66 be bf 24 a4 be 01 bf be 3c
       0.37019438 -0.22516935 -0.32059285 0.023284437
000250 46 95 c9 3e c6 2e bf 3d e3 7d d8 be c1 7a 4b bd
       0.393717 0.09335093 -0.42283544 -0.049677614
000260 8e 18 92 3e 43 77 86 3e b8 b0 42 be 62 d3 e8 be
       0.2853436 0.26262864 -0.19012725 -0.45473772
000270 d5 d9 7b be 22 b0 bf be 8f cb e8 3c eb fa 26 3e
       -0.24594815 -0.37439066 0.028417377 0.16306655
000280 d6 69 9e 3e 96 c1 68 be a7 c5 9b bd 67 a7 26 3e
       0.3094012 -0.22730097 -0.076060586 0.16274796
000290 9e b4 f3 bd 89 91 08 3e f9 61 5d 3d 62 38 32 3e
       -0.11899684 0.13336767 0.054048512 0.17404321
0002a0 9a 26 c1 3e 8b c5 63 be 4f 63 a3 3e d0 6b b1 3e
       0.37724763 -0.22243325 0.31911704 0.34652567
0002b0 ec 67 d2 3e f1 e1 fd be 4d d8 80 bd c9 b7 15 3e
       0.4109491 -0.49586442 -0.06291256 0.1462089
0002c0 6f a1 9e 3e 16 33 39 be 01 b4 5e 3e d6 90 9a be
       0.3098254 -0.18085894 0.21748354 -0.30188626
0002d0 2a cf e2 3d 32 79 9c be 10 db 8e be 04 ca 03 3e
       0.1107467 -0.30561215 -0.27901506 0.12870032
0002e0 20 2b ca be 0d 29 8b 3e 3c 44 73 be 96 ed cb 3d
       -0.39486027 0.27179757 -0.23756498 0.09957425
0002f0 5c 04 c9 be 92 73 25 3d 1b ac 9f be 8a a6 ad 3e
       -0.39261138 0.04039342 -0.31185994 0.33916122
000300 8b f0 b2 be 9f 66 d4 be fa ec c7 3e 92 3c 72 be
       -0.34949145 -0.41484544 0.39047986 -0.23655918
000310 c5 f6 25 3e 79 f3 e0 be ab c1 bf 3d b9 65 d6 3e
       0.16207416 -0.43935755 0.09363111 0.41874483
000320 56 5b 07 bd d7 df 83 3e 3e 9c bc be 00 fe b8 be
       -0.03304609 0.25756714 -0.36837953 -0.36131287
000330 87 db c2 3e 18 a9 f1 be e0 1c b9 3d 18 d8 2c be
       0.3805811 -0.4719932 0.090387106 -0.16879308
000340 1d 3e 1b be d7 9f ca bd d0 68 87 3e ff 32 80 3d
       -0.15160413 -0.09893768 0.26447153 0.06259727
000350 74 8c ed 3d 68 8b 83 3e 22 14 a1 3d a0 de d2 be
       0.11599055 0.25692296 0.07865168 -0.41185474
000360 cd c8 99 be 88 1a 3c be 98 16 c3 be f9 86 78 be
       -0.3003601 -0.18369496 -0.38103175 -0.24270238
000370 dc 98 bd 3d 96 ff e2 3e bc 76 02 be 9f 54 8a be
       0.09257671 0.44335622 -0.12740606 -0.27017686
000380 28 9e 42 3e b8 30 7a be 37 f4 b8 be d8 e6 02 3f
       0.19005644 -0.24432647 -0.3612382 0.5113349
000390 01 c1 69 3e a1 c4 54 be b1 bd 93 be b0 f6 b5 bc
       0.22827531 -0.20778133 -0.2885566 -0.022212356
0003a0 47 11 58 3e 51 48 b0 be 29 a9 8a be 72 28 8f be
       0.21100341 -0.34430173 -0.27082184 -0.27960545
0003b0 91 cb a9 3d 61 b5 a9 bd 34 48 e0 3c 9b a1 5e bd
       0.0829078 -0.082865484 0.02737818 -0.054353338
0003c0 ad d8 8f 3c ed 8e e4 3d 26 be a5 3e 8e ce fc 3d
       0.017559374 0.111600734 0.32371634 0.12344085
0003d0 af 68 14 be ea 20 ac be ba 96 f5 bd c4 74 ca 3d
       -0.14493059 -0.3361886 -0.119916394 0.098855525
0003e0 bc 45 ae 3c 1c b7 03 3e 34 18 82 3e c1 05 9a be
       0.021273486 0.1286282 0.2540909 -0.30082515
0003f0 d0 56 c2 3d ee 20 f1 3d 27 d9 58 3d 66 66 0f be
       0.094892144 0.11773859 0.052941468 -0.14003906

edge_function.0.bias f4 [64]
000000 cc ed 10 bd 3d 08 a8 3e 42 23 7d 3e 70 18 d3 be
       -0.03538303 0.32818785 0.24720481 -0.41229582
000010 b3 9a 30 3e a5 c4 ba 3e f9 48 e4 bd 00 37 07 be
       0.17246513 0.36478153 -0.11146731 -0.13204575
000020 cd 37 b8 be 21 68 86 be 85 00 4a 3d d6 e1 96 3e
       -0.35980073 -0.2625132 0.0493169 0.29469174
000030 c1 d9 d1 3e 8e ba bf be e5 12 d3 3e 93 cc 6e bd
       0.40986446 -0.37447017 0.41225353 -0.058300566
000040 94 56 05 3f 96 3f 05 3f af ae 00 bf b0 14 2d 3b
       0.5208523 0.5205015 -0.50266546 0.0026410036
000050 8c cb 8a 3e 2c 7f 0d bf a7 b8 3e 3d 35 10 2d be
       0.2710842 -0.55272174 0.046562817 -0.16900714
000060 af f2 e8 3e b5 83 91 3e 89 de a2 be e3 ad 83 be
       0.45497653 0.28420797 -0.31810406 -0.25718603
000070 20 8c 00 3f c8 f5 b9 3d 26 af c7 be e3 54 e5 3d
       0.50213814 0.09080082 -0.39000815 0.111978315
000080 01 43 3b 3e 5f 41 97 3e 80 3b f4 be 30 a9 a6 3d
       0.18287279 0.29542062 -0.47701645 0.08137739
000090 9f 89 c7 be ec ed a6 3e 16 9c 44 3e 71 22 e1 be
       -0.38972184 0.32603395 0.19200167 -0.4397159
0000a0 9a 40 97 bd d6 c5 df be c4 50 86 3a b9 c1 de bd
       -0.07385369 -0.43705624 0.0010247459 -0.108767934
0000b0 7f 18 5d be 3d 21 3c be 03 6b d7 3e bf 28 bf bd
       -0.21591376 -0.18372054 0.4207383 -0.093339436
0000c0 85 51 c9 3d de bc e1 3e 83 04 8b bc 52 f5 b7 3e
       0.09830002 0.44089407 -0.016969925 0.35929352
0000d0 ee 6a dc 3e 40 50 8d bd bb 83 fc 3e 69 05 eb 3d
       0.4305033 -0.06900072 0.49319252 0.11475641
0000e0 9d 95 cd be 06 59 d3 3e 39 1a ed bd e8 8c fe 3e
       -0.40153208 0.41278857 -0.11577267 0.49716878
0000f0 12 0b 89 bc 5f 84 b8 3e 49 a2 9a 3e 0e 88 07 3f
       -0.016728912 0.3603849 0.3020194 0.5294198

edge_function.2.weight f4 [64, 64]
000000 e5 2d 31 bd 83 b7 bd bc 50 1e 3d bc 88 14 ff bc
       -0.04325666 -0.023158794 -0.011542872 -0.03113772
000010 49 c8 d2 3d 2f dd 17 bd 0d 55 81 bd 54 bb 42 bc
       0.102921076 -0.03707617 -0.0631505 -0.011885483
000020 15 51 a5 3d 3e f0 89 bd a7 81 a9 bd ee 7e 07 3e
       0.08072106 -0.06735276 -0.08276682 0.13232014
000030 ca 9c 37 bd f4 c1 df bd 9f 41 e0 bd e4 c9 3e bd
       -0.04482726 -0.109256655 -0.10950016 -0.046579257
000040 46 bc 2d 3d d8 03 9f 3d 97 c9 14 be c4 da 7e 3c
       0.04241588 0.07764405 -0.14530025 0.0155550875
000050 83 b0 ad 3d 4c e1 08 be 60 da 9c bd 12 a0 87 3c
       0.084809326 -0.13367194 -0.07658839 0.01655582
000060 7f de 12 3d 80 9b d1 3d 8e 6d 15 3d 65 63 bf bd
       0.03585672 0.102347374 0.036481433 -0.0934513
000070 37 88 02 3d c8 74 49 3d de ae 87 bd 4b bf 45 3d
       0.031868186 0.049183637 -0.0662515 0.048278134
000080 22 d8 db 3d 96 73 66 bd 4f 4d 98 3d f3 75 d9 bd
       0.107345834 -0.056262575 0.074366204 -0.106182
000090 c8 e8 00 bc 7f 7e 05 3d 3e 6d 28 3b 12 3f 0c 3d
       -0.007867999 0.03259134 0.002569988 0.034239836
0000a0 10 94 43 3d c8 72 27 3d 2b 23 d0 bd b0 ef c2 3d
       0.047748625 0.04088095 -0.10162958 0.09518373
0000b0 35 31 17 be fc 4a 8e 3d ac 54 e6 bc b4 6e ce bd
       -0.14764865 0.06947896 -0.028116547 -0.10079709
0000c0 38 d1 0c be b3 de 41 bc 88 76 80 3d 2b 3b ba 3b
       -0.13751686 -0.011832881 0.06272608 0.005683323
0000d0 3d 28 6e 3d bb bf cd bd a2 af 79 3d 88 0b f1 bd
       0.058143843 -0.10046335 0.060958512 -0.117697775
0000e0 81 ef 81 3d 24 c7 20 bd 7c 64 bb bc 38 32 a7 bc
       0.0634451 -0.039252415 -0.022875063 -0.020409688
0000f0 10 0b 01 be 48 3f c1 bd 6f ee 10 be 9a 36 df bd
       -0.12601876 -0.09435898 -0.14153455 -0.10899086
000100 92 13 1d bd d3 6e 92 bc 1d ca 46 3d 90 2e 0c bd
       -0.03834874 -0.01787511 0.048532594 -0.034224093
000110 2e 0f bc bd f0 69 81 3d b2 c5 13 bd 81 f7 e6 bd
       -0.09182583 0.06319034 -0.03607721 -0.112776764
000120 67 ad df bd f9 19 91 3c 02 37 10 bd cc d2 a9 bd
       -0.10921746 0.01771258 -0.03520871 -0.082921594
000130 d9 f1 00 be 57 0e 07 bd 97 0d 2e 3d 0f 13 88 bd
       -0.12592258 -0.03297266 0.04249343 -0.0664426
000140 6c d6 d2 bd 04 c8 41 bd 41 30 82 3d dd 9e 26 bd
       -0.10294804 -0.04730989 0.0635686 -0.040678848
000150 9e 39 16 3d 18 56 d7 be f3 7c b1 bc 5e 77 f6 3d
       0.03667604 -0.42057872 -0.021666026 0.12034486
000160 b7 1b 82 bd b9 aa c1 3d 98 f8 57 3d a1 ff b0 3d
       -0.063529424 0.09456391 0.05272731 0.08642507
000170 ca 7a c7 3d 6d 25 d4 3d ba dc 30 bd 20 08 49 3d
       0.09740217 0.10358701 -0.04317925 0.049080014
000180 14 5c d6 3c 43 69 8c bd 58 a0 82 3b 85 16 ae be
       0.026166953 -0.068560146 0.0039863996 -0.34001556
000190 4d 8b 2a bd 5b bc cf bd 40 02 a1 bd 8a 65 61 3d
       -0.041636754 -0.10143348 -0.07861757 0.055028476
0001a0 f9 5c f8 3d 2f 6f b4 bd 9a c8 e9 3d a6 15 ac bd
       0.12127108 -0.08810269 0.11415215 -0.084025666
0001b0 d0 07 94 bd ce 0e 6c 3d c3 ce e3 3d 82 13 1c bc
       -0.072280526 0.057631306 0.11123421 -0.009526135
0001c0 83 d1 04 be 70 ee 04 3e bc d3 69 bd 3f 4d ad bd
       -0.12970547 0.12981582 -0.05708669 -0.08461999
0001d0 cf e5 82 bc 40 9f 93 bd c8 f0 de 3d ae de bd bc
       -0.015978722 -0.07208109 0.10885769 -0.023177471
0001e0 f8 fc 05 3e dd 48 ea bb bd 9f 94 bd dc 84 ce 3d
       0.13084781 -0.0071497993 -0.0725703 0.10083935
0001f0 32 64 12 bd 9a ec af 3c 9b aa c1 3c 74 13 44 3d
       -0.035740085 0.021475125 0.023640921 0.047870114
000200 97 e4 e9 bd 9f c0 63 3d b8 e5 24 3d da 35 bb bc
       -0.11420553 0.05560362 0.04025814 -0.022852827
000210 3d b0 54 bc a3 db a9 bd f4 1a 07 bd 68 26 03 3c
       -0.012981472 -0.082938455 -0.03298469 0.008004762
000220 d1 ed 8f 3a a3 c5 f4 bd 8c d1 db bd 2f 6a c4 39
       0.0010980909 -0.11951759 -0.10733327 0.00037463146
000230 4c fc aa 3d 83 bc 2d bd 58 b0 e8 3d 78 eb c9 bd
       0.08348903 -0.042416107 0.1136176 -0.09859365
000240 81 8c 68 bc 0d 37 10 3d cb 08 9e bd 14 f0 c6 bd
       -0.014193655 0.03520875 -0.07716521 -0.0971376
000250 eb cc 22 bd 22 e3 c8 bd 5f eb 6d bd d8 91 6b bc
       -0.039746206 -0.09808947 -0.058085795 -0.014378034
000260 9b 6f db 3d 15 41 d4 3d ff 8e 7e bd 8a be cc 3c
       0.107146464 0.10363976 -0.06214809 0.0249932
000270 ad a2 da 3d 93 9e 6c bd b7 19 9f 3d c9 9e b0 bd
       0.10675559 -0.057768416 0.077685766 -0.08624036
000280 a0 96 77 bd 69 6b 07 3e 3f 4f 88 3c a9 48 d5 bc
       -0.06044638 0.13224567 0.01663935 -0.026035624
000290 2c 4f e0 bc f4 77 fa 3c f0 e4 d5 3d b4 9f 8c 3c
       -0.027381502 0.030574776 0.10444057 0.017165996
0002a0 05 eb d7 bd 9c 7d 2d 3b c5 fb 0b 3e 58 9e 1f 3d
       -0.10542873 0.0026472574 0.13670261 0.038969368
0002b0 b8 bd 8a bc 1f c0 a9 bd c7 ad ef 3d c6 27 7e 3d
       -0.016936168 -0.08288597 0.11703067 0.06204965
0002c0 1f 15 36 3b ec f6 f3 3c 52 91 b4 bd 77 64 3e bd
       0.0027783585 0.029780827 -0.0881678 -0.04648253
0002d0 65 6a 72 3d c4 0c b9 3d 74 87 fb 3d f8 2d ac 3d
       0.059183497 0.09035638 0.12281695 0.08407205
0002e0 79 d3 ac 3c 7b f5 e0 3d ca 62 ae bc f0 2c 0f bd
       0.021096932 0.10984322 -0.02128734 -0.034954965
0002f0 77 cb 06 3e 37 81 d4 3d 70 42 d7 3d 65 93 b4 bc
       0.13163553 0.10376208 0.10510719 -0.02204294
000300 73 31 2d bd 8b 0f ad bd 22 86 96 bd 25 d5 8c bd
       -0.042283487 -0.0845023 -0.073498026 -0.068765916
000310 7a 8c 87 bd 4b 80 66 bd ed 61 88 bd b8 52 ae bb
       -0.06618591 -0.056274693 -0.06659303 -0.0053199194
000320 29 11 ce 3c 25 dd be bd 43 e8 24 bc 35 41 1f be
       0.025154667 -0.09319524 -0.010065141 -0.15552218
000330 f7 dc 31 bd 87 81 a6 3d 4a 8c ff bd 9f 0a b8 3d
       -0.04342362 0.08130174 -0.1247793 0.08986401
000340 3d 76 28 3d 1f 88 9a 3d e0 29 ae bd c0 c1 a5 bd
       0.041128386 0.07545494 -0.08504081 -0.080935955
000350 56 1c a7 bd cb 71 fb 3c d5 61 4e bd 13 72 c0 bd
       -0.081597015 0.03069391 -0.05038627 -0.09396758
000360 36 70 a2 bd 6a c4 2f bd 9e 92 1a be c7 a7 51 3d
       -0.07931559 -0.042911924 -0.15094993 0.051185396
000370 39 1d ea bd 0e e8 0f 3d 4c 2c 42 3d 55 ed 5e bd
       -0.11431355 0.035133414 0.047405526 -0.054425556
000380 05 ef a6 bd e7 13 50 bb f5 a5 39 3c 6e 10 33 bd
       -0.08151058 -0.0031750144 0.011331071 -0.04371684
000390 d5 1c 88 3d e4 b5 bb 3d 9e 2f ac 3d 54 ba ca 3d
       0.06646124 0.09165552 0.0840752 0.098988205
0003a0 5a b4 c7 3d 42 92 a3 3d b8 ff 42 bb 4c 67 30 bd
       0.09751196 0.07986881 -0.002975447 -0.04306726
0003b0 fd 34 b9 3d bd 12 2f 3d ca f3 62 3d 52 8f fc bd
       0.0904331 0.04274248 0.055408277 -0.12332024
0003c0 16 35 b8 bd bc 93 99 bd 26 e4 93 bc 30 08 65 3d
       -0.089945 -0.07498881 -0.018053126 0.05591601
0003d0 31 60 07 bc 5b d4 83 bc ac 28 83 3d ac c9 12 be
       -0.00826268 -0.01609247 0.06404242 -0.14334744
0003e0 2a c0 15 bd ca 14 66 bd 04 55 bc 3d 2c 54 c8 3c
       -0.036560215 -0.05617217 0.09195903 0.024454199
0003f0 4c cc 98 bd a4 ee a8 bd 83 e3 3d 3d e9 51 9e bd
       -0.074608415 -0.08248642 0.04635955 -0.07730467

edge_function.2.bias f4 [64]
000000 28 31 79 bc 31 f7 8b 3d f6 04 ad bc 8c 1b 92 bd
       -0.015209474 0.068342574 -0.02112053 -0.071341604
000010 b6 64 84 bd 7a f8 42 bd b3 46 b2 3d 1b 02 df bd
       -0.064645216 -0.047600247 0.08704891 -0.108890735
000020 dc 73 86 bd 42 9b b9 bd 19 c4 03 bd 28 0a bf bd
       -0.06565067 -0.09062816 -0.032169435 -0.09328109
000030 62 a2 85 3c cf fa 18 3d db 01 1e 3d 6b f5 da bd
       0.016312782 0.037348565 0.03857599 -0.10691341
000040 dc a5 8a bc 5d c4 4d bd a9 27 16 3e 59 69 82 bd
       -0.016924791 -0.050236095 0.14663567 -0.0636775
000050 dd 23 b6 bc 90 03 8a bd e1 f4 1b 3e 1c 57 90 3d
       -0.022233898 -0.06738961 0.15230133 0.07047865
000060 34 87 ad bd 85 5e 09 3e 35 23 89 bd 16 4b a5 bb
       -0.084730536 0.13414963 -0.06696168 -0.0050443513
000070 0b 07 03 be d6 0a c6 3d ce 3d 4e bd 03 59 12 3e
       -0.12795655 0.096700355 -0.05035191 0.14291768
000080 86 58 ef bd ff 2a 84 3d 25 92 97 bd 56 2d 0d be
       -0.116868064 0.06453513 -0.07400922 -0.13786826
000090 b2 3a 07 3e 4e 8a ef bd 6c 6e f3 3d 7d e4 2a be
       0.13205984 -0.116963014 0.11886296 -0.16688724
0000a0 ed 6f ba 3d 0c cf f1 bd 0c 33 a2 3d 35 38 16 be
       0.091033794 -0.11807069 0.07919893 -0.14669879
0000b0 bd b5 28 3d 39 c4 e5 bd 26 f2 bd 3c c0 e5 49 3d
       0.041188944 -0.11219067 0.023186754 0.049291372
0000c0 03 64 96 3d 85 4f 63 bd 37 ac be 3d 74 c9 85 3d
       0.073432945 -0.055495758 0.09310191 0.06532565
0000d0 8a 62 a6 bd f1 f5 b3 3d b2 6e 01 bd 4f 13 c1 3c
       -0.081242636 0.08787144 -0.031599708 0.023568777
0000e0 16 1f 07 bd f1 85 a2 bd 24 c0 b4 3c aa 82 c0 3d
       -0.03298863 -0.079357035 0.022064276 0.09399922
0000f0 c2 00 ca bd 4d e6 a4 bd e3 f3 5f 3d 08 cf da 3d
       -0.09863426 -0.08051739 0.054675948 0.10684019
