Projects/GuoxiangGrayson_T_A study of multi-fidelity graph neural networks/Model_save/Quarter2D/Rank=16-GNN-nB-64-Lr-0.005/model.pth (torch, 114781 bytes, 24 tensors)

node_function_neighbor.0.weight f4 [64, 2]
0.20518395 -0.21996634 0.2816728 -0.10032647 -0.6799926 -0.55967134 -0.40374756 -0.5576597
-0.35102746 -0.3201326 -0.06441837 -0.4748406 -0.44626552 -0.07101386 -0.09398834 -0.23103786
0.07080803 -0.648211 -0.017288856 0.51315683 -0.066221945 0.592952 -0.20587629 0.061885484
-0.04412844 -0.3143403 0.08723413 -0.63181883 0.33779374 -0.060130585 0.034163527 0.31590298
0.26142856 0.090346165 0.6419906 0.15931572 0.31904778 0.5203735 -0.48219943 -0.6014846
-0.23335029 0.27845177 0.25779197 -0.49826267 0.6264843 -0.25337955 0.6133386 -0.07741657
0.56353354 -0.77555734 -0.065024175 -0.31502753 -0.16252446 -0.20451212 0.033895947 -0.11334184
0.2223868 0.07820966 0.23936059 0.23086308 0.09433619 -0.39481995 0.21640214 0.65775496
0.593323 -0.5544698 0.060800076 0.5434211 0.15861958 -0.17904314 -0.48340893 0.5403419
0.3719054 0.17810039 -0.018708186 0.21586645 0.64439356 0.21972784 0.18388428 0.2465253
-0.5081575 -0.23529126 0.511005 0.13210383 0.12142631 -0.13407247 0.38828635 -0.49739033
0.63820475 0.08990677 0.46195588 -0.095563106 -0.06490639 0.38823763 0.019029304 -0.17114463
0.25713444 0.042618997 -0.22315076 0.59629405 -0.5765167 -0.3263758 -0.5551945 0.54882777
-0.38263828 -0.51368076 -0.6158497 -0.30627248 -0.23678017 -0.6368381 -0.27088076 -0.252052
0.45945725 0.15811287 0.28298822 0.57691073 -0.37326282 0.18271151 0.19198981 -0.4341246
-0.08462831 -0.059653163 -0.57616353 -0.5571765 -0.39628416 0.065172225 0.4899754 0.6722065
00000000: be1b 523e db3e 61be 6b37 903e f777 cdbd
00000010: ff13 2ebf 9f46 0fbf 00b8 cebe c9c2 0ebf
00000020: dfb9 b3be 6ce8 a3be c7ed 83bd 4f1e f3be
00000030: ea7c e4be b76f 91bd f57c c0bd 3095 6cbe
00000040: cd03 913d 28f1 25bf 5ca1 8dbc 3f5e 033f
00000050: 5f9f 87bd b4cb 173f 3cd1 52be a27b 7d3d
00000060: 06c0 34bd 36f1 a0be cfa7 b23d e1be 21bf
00000070: 4df3 ac3e 7d4b 76bd 0eef 0b3d 09be a13e
00000080: f7d9 853e 6907 b93d 7f59 243f a923 233e
00000090: 3b5a a33e 3337 053f d8e2 f6be e5fa 19bf
000000a0: 61f3 6ebe 3b91 8e3e 4ffd 833e 491c ffbe
000000b0: 4661 203f f7ba 81be c203 1d3f 948c 9ebd
000000c0: bc43 103f ed8a 46bf 652b 85bd 4a4b a1be
000000d0: d06c 26be a06b 51be 7ad6 0a3d c41f e8bd
000000e0: 5eb9 633e 632c a03d f11a 753e 5f67 6c3e
000000f0: 5533 c13d d725 cabe 8698 5d3e a162 283f
00000100: 04e4 173f bcf1 0dbf 8009 793d a51d 0b3f
00000110: 2c6d 223e 1657 37be 6081 f7be d953 0a3f
00000120: 626a be3e f35f 363e e941 99bc 180c 5d3e
00000130: faf6 243f 5600 613e 294c 3c3e 2171 7c3e
00000140: 9c16 02bf 31f0 70be 39d1 023f 3a46 073e
00000150: 5bae f83d 4b4a 09be 78cd c63e f2a9 febe
00000160: 6361 233f 0a21 b83d 7b85 ec3e 97b6 c3bd
00000170: a4ed 84bd 15c7 c63e 58e3 9b3c 8a40 2fbe
00000180: 20a7 833e 4291 2e3d a281 64be baa6 183f
00000190: 9996 13bf bb1a a7be 3a21 0ebf fa7f 0c3f
000001a0: 2ae9 c3be 9580 03bf 53a8 1dbf bfcf 9cbe
000001b0: 8076 72be d207 23bf e2b0 8abe f60c 81be
000001c0: fb3d eb3e 57e8 213e d5e3 903e 6cb0 133f
000001d0: 4e1c bfbe ba18 3b3e fa98 443e 9445 debe
000001e0: 9b51 adbd e056 74bd 747f 13bf 1ea3 0ebf
000001f0: c2e5 cabe 0479 853d 0ede fa3e ba15 2c3f

node_function_neighbor.0.bias f4 [64]
-0.1372278 0.3709957 -0.022420248 -0.4337743 0.39103922 0.5673567 0.56674606 -0.061916314
0.51202893 0.5507058 0.31180283 -0.055517368 -0.19979683 0.62527466 0.31787533 -0.009671052
-0.011211304 -0.65082383 -0.44119143 0.686246 -0.57321423 -0.2375027 0.34993365 0.4440953
0.11082329 0.23252025 -0.052088644 0.11887126 -0.24261893 -0.15521644 0.0417791 -0.16743915
0.57083744 -0.3804902 -0.08137952 0.6177328 -0.55418074 -0.4755197 0.57634467 0.10930131
0.2397018 -0.21776037 0.170913 0.15121636 -0.68239367 0.21109521 -0.669223 -0.109200686
0.5775583 0.7437752 0.6068201 0.9035586 -0.24862279 0.5059258 0.59179324 0.47581935
0.10552017 -0.3111314 -0.18485145 -0.688346 -0.11137193 0.57592374 0.22185224 0.27741635
00000000: 7285 0cbe 26f3 bd3e abaa b7bc aa17 debe
00000010: 4b36 c83e 4a3e 113f 4516 113f f69b 7dbd
00000020: 5414 033f 0efb 0c3f 9fa4 9f3e 2e66 63bd
00000030: 8a97 4cbe 0012 203f 8ec0 a23e 5573 1ebc
00000040: 9eaf 37bc 649c 26bf d8e3 e1be d1ad 2f3f
00000050: 2bbe 12bf e833 73be 812a b33e 7660 e33e
00000060: 52f7 e23d ca19 6e3e e75a 55bd c672 f33d
00000070: 1971 78be 0ff1 1ebe 9020 2b3d 2b75 2bbe
00000080: 6722 123f 9dcf c2be 4eaa a6bd bd23 1e3f
00000090: cade 0dbf 5177 f3be 538b 133f 5dd9 df3d
000000a0: 6374 753e 93fc 5ebe d103 2f3e 76d8 1a3e
000000b0: 5ab1 2ebf 5829 583e 3352 2bbf 9ca4 dfbd
000000c0: dcda 133f 0d68 3e3f 9058 1b3f 9e4f 673f
000000d0: f996 7ebe 5a84 013f c37f 173f 989e f33e
000000e0: f51a d83d 9d4c 9fbe b349 3dbe 7237 30bf
000000f0: f716 e4bd bd6f 133f 3c2d 633e 8409 8e3e

node_function_neighbor.2.weight f4 [64, 64]
-0.13411802 0.025126942 -0.081555285 0.08117537 -0.1122409 -0.06266787 -0.1349865 0.046182092
0.033686407 -0.042180605 0.0005350872 -0.16047384 -0.1078146 -0.050607767 -0.04883718 -0.12781724
0.0026162283 0.05295358 -0.07197722 -0.07035133 -0.07955016 0.029546231 -0.14961085 0.008235787
0.024345728 -0.045431595 -0.15416835 0.050220404 -0.17008245 -0.041848723 0.02357612 -0.16334583
0.04534292 -0.04453292 -0.058461 -0.015058461 -0.118203074 -0.09415776 -0.14976098 -0.01918688
-0.03946369 -0.16714533 -0.14999123 0.030352643 0.048287712 -0.09079864 -0.0142878825 -0.1306327
-0.0119295735 -0.17225665 -0.0018182656 0.085896894 -0.11863998 0.042718936 0.009034697 -0.04701983
-0.11991083 -0.058813944 -0.11557719 -0.055377703 -0.017810574 -0.024302602 0.079791054 0.0465064
-0.06554349 -0.08934085 -0.11856294 -0.10888691 0.08309007 0.1057017 -0.014463618 -0.030470178
-0.10457499 0.11629939 -0.056130156 0.0006107539 0.025969863 -0.021868348 0.041217387 0.012115881
0.04586482 0.00061538815 0.05889775 0.07553692 0.043345675 0.08004229 -0.11314963 0.07951109
0.008631781 -0.014048129 -0.025128514 0.10117632 0.08690153 -0.10741034 -0.08190951 -0.03880027
-0.0040184557 0.0701513 0.027909711 -0.076584145 -0.023961857 -0.057921723 -0.072653264 -0.09852515
-0.11690913 0.0232037 -0.022715509 -0.0400362 0.10237701 0.029294953 0.06128028 -0.04509653
-0.10726571 0.11828725 -0.007302746 -0.11723314 -0.063543394 0.07995677 0.100504085 -0.03771013
-0.037813783 -0.12036696 -0.050429434 -0.034906417 0.08426952 0.08739795 -0.08096023 0.052747473
-0.00017108195 0.03677355 -0.014503966 0.06889625 0.083284244 -0.028798426 0.044256736 0.07281681
0.05989855 0.023917241 0.044822417 0.06714989 -0.11892892 0.049079966 -0.09661482 -0.16845994
-0.13362956 -0.086208865 -0.035521936 -0.117628045 -0.033173956 0.031628575 -0.08957131 0.0055065765
-0.031763963 -0.06464733 0.056287985 0.037088614 -0.05029898 -0.0013223187 0.03410828 -0.103714526
-0.16789867 -0.14897712 -0.06441619 -0.15316296 -0.04513159 -0.06976199 0.00133995 -0.10285295
-0.10618794 -0.16172019 0.058398034 0.01933388 0.014183483 0.02412129 0.060603652 0.037985276
0.034150153 0.0035803106 -0.08369806 -0.07960378 0.07658231 0.08547104 0.033363912 0.07056351
-0.1553537 0.015041784 -0.052681614 0.04254459 0.01770338 -0.10004346 0.06759184 0.05086569
0.03466405 0.020902142 -0.0066387206 0.01572311 0.021934062 0.059623957 0.027186513 0.056104362
0.009569183 0.037427902 -0.0072781295 -0.02463241 0.10521348 -0.0012832135 -0.10090342 0.0655987
-0.105415896 0.036960766 0.06062697 -0.062183872 0.10916494 -0.022281244 -0.08898643 0.031285748
-0.004087344 -0.025581375 0.10515748 -0.07009289 -0.031655625 0.024531648 0.052881807 -0.08135843
0.042203963 -0.11684255 -0.05584848 0.043305963 -0.031983003 -0.115087464 0.10451695 0.0020501465
-0.09677181 -0.028812423 -0.083953634 -0.035151064 0.009970024 -0.06867233 -0.05781147 0.051114574
-0.11038944 -0.046294183 0.012236372 -0.087750494 -0.0073972642 0.036059767 -0.071965024 -0.025652051
-0.057072297 -0.12048428 0.117447555 -0.11894427 -0.07207571 0.02790597 -0.12319906 0.024047628
00000000: 3c56 09be 04d7 cd3c 7506 a7bd 463f a63d
00000010: 8fde e5bd 0358 80bd e739 0abe 6f29 3d3d
00000020: c2fa 093d 92c5 2cbd 1845 0c3a 4153 24be
00000030: e7cd dcbd 174a 4fbd 7f09 48bd 86e2 02be
00000040: 0775 2b3b dae5 583d cb68 93bd 5c14 90bd
00000050: 32eb a2bd f00a f23c 9633 19be 65ef 063c
00000060: b170 c73c 7b16 3abd 4fde 1dbe e9b3 4d3d
00000070: 182a 2ebe 9169 2bbd b522 c13c 2144 27be
00000080: 7fb9 393d 2768 36bd cd74 6fbd c3b7 76bc
00000090: 7414 f2bd c9d5 c0bd f15a 19be ce2d 9dbc
000000a0: aea4 21bd 2528 2bbe 4d97 19be 1ba6 f83c
000000b0: 56c9 453d a3f4 b9bd b917 6abc 94c4 05be
000000c0: 4274 43bc 0c64 30be df52 eeba b6ea af3d
000000d0: 85f9 f2bd 0dfa 2e3d 4406 143c de97 40bd
000000e0: cf93 f5bd e4e6 70bd bcb3 ecbd bbd3 62bd
000000f0: 7be7 91bc 4016 c7bc 7e69 a33d 7f7d 3e3d
00000100: aa3b 86bd 56f8 b6bd 20d1 f2bd 1a00 dfbd
00000110: 202b aa3d 227a d83d d0f8 6cbc 989c f9bc
00000120: 6a2b d6bd 602e ee3d bce8 65bd 001b 203a
00000130: c0be d43c 4025 b3bc 90d3 283d b081 463c
00000140: c0dc 3b3d 0052 213a c43e 713d 1ab3 9a3d
00000150: 3c8b 313d 36ed a33d feba e7bd b6d6 a23d
00000160: 506c 0d3c 202a 66bc 50da cdbc 8835 cf3d
00000170: 6ef9 b13d f4f9 dbbd 2cc0 a7bd 08ed 1ebd
00000180: 40ad 83bb 7cab 8f3d e8a2 e43c 26d8 9cbd
00000190: a84b c4bc 543f 6dbd 3ccb 94bd 8ec7 c9bd
000001a0: 0e6e efbd b015 be3c e015 babc 00fd 23bd
000001b0: 0aab d13d f8fb ef3c 0801 7b3d 24b7 38bd
000001c0: 20ae dbbd 9640 f23d e04b efbb ee17 f0bd
000001d0: 0a23 82bd 60c0 a33d 16d5 cd3d f075 1abd
000001e0: a0e2 1abd f482 f6bd 188f 4ebd 08fa 0ebd
000001f0: 8095 ac3d b2fd b23d 7ace a5bd bc0d 583d
00000200: 7664 33b9 dd9f 163d 0ba2 6dbc 7a19 8d3d
00000210: ee90 aa3d adea ebbc 8d46 353d fb20 953d
00000220: 2f58 753d 17ee c33c b697 373d e285 893d
00000230: 0191 f3bd 1308 493d fedd c5bd c380 2cbe
00000240: 30d6 08be 468e b0bd 737f 11bd f9e6 f0bd
00000250: 6ae1 07bd f78c 013d 2a71 b7bd 8370 b43b
00000260: ee1a 02bd d265 84bd 3b8e 663d 3bea 173d
00000270: 4e06 4ebd a751 adba 20b5 0b3d 4868 d4bd
00000280: a1ed 2bbe 758d 18be a3ec 83bd c0d6 1cbe
00000290: e7db 38bd 60df 8ebd 43a1 af3a 91a4 d2bd
000002a0: 1079 d9bd fa99 25be c732 6f3d 1662 9e3c
000002b0: d761 683c 039a c53c 893b 783d 7396 1b3d
000002c0: 08e1 0b3d a5a3 6a3b e369 abbd 4e07 a3bd
000002d0: 30d7 9c3d 710b af3d 99a8 083d 9a83 903d
000002e0: 0a15 1fbe d171 763c adc8 57bd 3c43 2e3d
000002f0: ae06 913c 96e3 ccbd 976d 8a3d 8b58 503d
00000300: e4fb 0d3d f83a ab3c a089 d9bb c0cd 803c
00000310: 10af b33c 4038 743d 40b6 de3c b0cd 653d
00000320: 10c8 1c3c 004e 193d 607d eebb e8c9 c9bc
00000330: 2a7a d73d 8031 a8ba 74a6 cebd 9c58 863d
00000340: 4ae4 d7bd 2c64 173d fc53 783d 84b4 7ebd
00000350: de91 df3d 2887 b6bc 843e b6bd 7c25 003d
00000360: 20ef 85bb 0890 d1bc ce5c d73d dc8c 8fbd
00000370: 54a9 01bd 98f6 c83c 989a 583d 409f a6bd
00000380: 10de 2c3d 264b efbd 60c1 64bd 9861 313d
00000390: 9c00 03bd fab2 ebbd fc0c d63d c05b 063b
000003a0: 4c30 c6bd 0808 ecbc e2ef abbd 90fa 0fbd
000003b0: 5059 233c 14a4 8cbd b8cb 6cbd 845d 513d
000003c0: dc13 e2bd f89e 3dbd 107b 483c 88b6 b3bd
000003d0: c064 f2bb 68b3 133d 6662 93bd 4024 d2bc
000003e0: a4c4 69bd 76c0 f6bd 5888 f03d 0e99 f3bd
000003f0: 6e9c 93bd 109b e43c ca4f fcbd 88ff c43c

node_function_neighbor.2.bias f4 [64]
-0.053073566 -0.01008597 -0.023104671 -0.082018614 -0.041670304 -0.052980382 -0.07295777 0.06091159
0.18208967 0.004099707 -0.04387601 -0.0799658 0.04935813 -0.00458291 0.033881802 0.10629203
0.16509438 -0.05717437 0.016577162 -0.023030492 0.059309527 0.058991484 0.019932624 0.0025952647
0.20940123 -0.06502354 -0.13575739 0.028817577 -0.11713732 0.19840708 -0.07821899 0.09331437
-0.09668023 -0.014681892 0.12433028 0.04391566 -0.16394028 -0.093302906 0.137869 -0.11317706
-0.10517704 -0.09449414 0.049668774 -0.06748948 0.059600215 -0.10779765 -0.113262445 -0.059411295
-0.14515418 0.022546915 0.072874114 0.12049617 -0.012790007 -0.03714969 -0.009081875 -0.032006126
0.021590294 -0.121697575 -0.036475 -0.0845696 -0.04269175 -0.12862799 -0.06563467 -0.06336713
00000000: ab63 59bd a03f 25bc 0246 bdbc 60f9 a7bd
00000010: 7bae 2abd f501 59bd e26a 95bd 6e7e 793d
00000020: b775 3a3e d656 863b 55b7 33bd 1cc5 a3bd
00000030: c02b 4a3d 3c2c 96bb a5c7 0a3d a3af d93d
00000040: 800e 293e ac2f 6abd d4cc 873c 71aa bcbc
00000050: 8cee 723d 0ea1 713d be49 a33c 5115 2a3b
00000060: 476d 563e 102b 85bd fc03 0bbe d712 ec3c
00000070: b1e5 efbd 3a2b 4b3e 4731 a0bd 9b1b bf3d
00000080: 4900 c6bd 518c 70bc e0a0 fe3d e8e0 333d
00000090: f6df 27be 9815 bfbd 882d 0d3e 60c9 e7bd
000000a0: 0f67 d7bd 2586 c1bd 7c71 4b3d ed37 8abd
000000b0: 5b1f 743d 04c5 dcbd 24f6 e7bd 4259 73bd
000000c0: 4ca3 14be 4fb4 b83c 063f 953d b2c6 f63d
000000d0: 2d8d 51bc 462a 18bd 25cc 14bc db18 03bd
000000e0: 21de b03c 943c f9bd cf66 15bd d432 adbd
000000f0: 8bdd 2ebd 0eb7 03be 786b 86bd a0c6 81bd

node_function_neighbor.4.weight f4 [64, 64]
-0.14662409 0.094309226 0.07809233 0.03370355 0.06965498 -0.13007927 -0.057646256 0.056663368
0.06457718 0.08724689 0.029684193 -0.062191196 0.060937446 -0.003765265 0.011332327 -0.09035883
-0.06400015 -0.073805004 -0.09030694 -0.110694 -0.05561331 -0.07682039 0.12544532 0.06260215
0.04753886 -0.0037766024 -0.0637955 0.083999835 -0.12202732 0.10191213 -0.00019601498 -0.12403062
-0.014075858 -0.08908873 -0.09733345 -0.0055836947 0.09335329 -0.10031225 -0.11596291 0.07711664
-0.13623373 -0.018863043 -0.062418345 -0.060415342 0.006103389 0.015418447 0.06192112 -0.019446488
0.07497242 0.07766862 -0.06396701 0.12414378 0.04001696 -0.093754046 -0.15053537 -0.04692912
0.04580696 -0.09501891 0.0546732 -0.017864497 -0.13181643 0.03518595 0.004966549 -0.061807215
-0.003952121 0.08687627 0.05892052 -0.01631765 -0.1453877 0.05115211 0.02015518 -0.024280436
-0.0005375539 -0.13279915 0.009945136 -0.04656561 -0.018437725 0.0019015204 -0.1319432 0.079343714
-0.022454396 -0.072682634 -0.11478714 -0.061390053 -0.010026065 -0.054550238 -0.06116278 -0.09612029
-0.02652325 0.04277574 -0.017990902 0.015212319 -0.07104866 -0.043774754 -0.079405785 -0.015882792
0.052942846 0.033735164 -0.039326955 0.090708606 0.020547008 -0.036354363 -0.029285645 -0.11161866
-0.085691124 -0.02062899 -0.07851103 -0.1133652 -0.13732684 -0.13433532 -0.00092712045 -0.09168038
-0.13089654 0.003966646 -0.046607673 0.032376092 -0.09088665 -0.10905195 0.06511687 0.06605384
-0.07615969 0.122340694 -0.11921399 -0.025410075 -0.038472977 -0.08899401 -0.106622525 -0.009698391
-0.040869165 0.014333069 0.013644118 0.10055503 0.06797821 0.043876026 -0.07584376 -0.018607346
0.11984 -0.0243167 0.12739591 0.074234456 -0.043341417 0.09105921 -0.03146341 -0.071827926
0.06627297 0.004872858 -0.030474491 -0.11031164 -0.005278599 -0.121907204 0.08501354 -0.04103838
0.1652525 0.20284526 -0.04979459 -0.010450733 -0.12903795 0.057235703 -0.07299581 0.08983317
0.13903405 -0.020767072 0.035607893 -0.01852519 0.06947282 0.044906765 0.08691811 -0.08576539
-0.024929775 -0.047537386 0.08340606 0.0071423943 0.1020577 -0.05661791 -0.005315885 0.07520808
0.11065149 0.012425588 0.006829184 -0.07105335 -0.051962845 -0.02886848 -0.011675045 -0.09572836
-0.09863975 0.04562685 0.05259287 0.032223806 0.119696505 0.016279897 -0.13499261 0.0733614
0.039968744 0.06835227 0.101794735 0.097667575 -0.094667196 -0.065902054 0.10797691 0.11115335
-0.106888875 -0.032603055 -0.101544455 0.0072208494 -0.12304476 0.0017255247 -0.045907453 0.117804706
0.026278764 -0.020103619 -0.013334945 0.06638329 0.10841727 -0.09972365 0.054563075 0.0920037
-0.039633945 0.08779682 -0.077089906 -0.011759654 -0.021621883 -0.10575326 -0.113444686 0.11359258
-0.096933976 -0.020824715 -0.005832359 -0.08444357 -0.11634886 -0.018239364 -0.08346307 0.08338806
0.046512127 -0.11839257 0.11056885 0.07897489 -0.0037433952 0.04321833 0.09351218 -0.021540046
0.10869606 -0.1182653 0.088339314 0.007977009 0.013887569 -0.02971682 -0.052923158 0.07246405
0.055946887 -0.117297366 -0.032507375 -0.07992251 -0.02145344 -0.010778263 0.054338664 0.014536545
00000000: a024 16be 3225 c13d dfee 9f3d bc0c 0a3d
00000010: 45a7 8e3d 8033 05be 7b1e 6cbd d917 683d
00000020: 0a41 843d 7fae b23d 442c f33c 32bc 7ebd
00000030: 8b99 793d aac2 76bb 39ab 393c 0d0e b9bd
00000040: 8312 83bd 1427 97bd d8f2 b8bd 89b3 e2bd
00000050: c8ca 63bd 0254 9dbd bd74 003e 8e35 803d
00000060: 1cb8 423d e080 77bb 37a7 82bd 1b08 ac3d
00000070: 76e9 f9bd 4fb7 d03d 5f89 4db9 c403 febd
00000080: 6d9e 66bc 2774 b6bd c356 c7bd 6df7 b6bb
00000090: 0230 bf3d 8270 cdbd f67d edbd 54ef 9d3d
000000a0: db80 0bbe ab86 9abc 61aa 7fbd 1476 77bd
000000b0: f0fe c73b a79d 7c3c 00a1 7d3d 3e4e 9fbc
000000c0: 248b 993d ba10 9f3d 2301 83bd 183f fe3d
000000d0: d3e8 233d 1f02 c0bd f225 1abe c038 40bd
000000e0: 14a0 3b3d 4699 c2bd 01f1 5f3d 9158 92bc
000000f0: e3fa 06be 251f 103d 6fbe a23b 9029 7dbd
00000100: cb80 81bb 30ec b13d a556 713d 98ac 85bc
00000110: 83e0 14be e084 513d 7a1c a53c c4e7 c6bc
00000120: a2ea 0cba 80fc 07be ecf0 223c 95bb 3ebd
00000130: b60a 97bc 703c f93a 1e1c 07be f57e a23d
00000140: 48f2 b7bc a2da 94bd 8515 ebbd 2374 7bbd
00000150: 5d44 24bc 1270 5fbd d385 7abd b7da c4bd
00000160: 4947 d9bc 9d35 2f3d a861 93bc 173d 793c
00000170: f681 91bd 284d 33bd 809f a2bd a11c 82bc
00000180: 99da 583d e22d 0a3d 4d15 21bd 6fc5 b93d
00000190: 3352 a83c 50e8 14bd 73e8 efbc 5398 e4bd
000001a0: d47e afbd 21fe a8bc 64ca a0bd 042c e8bd
000001b0: 689f 0cbe 338f 09be 000a 73ba ecc2 bbbd
000001c0: be09 06be a3fa 813b b0e7 3ebd cb9c 043d
000001d0: c822 babd a156 dfbd fe5b 853d 3c47 873d
000001e0: 9df9 9bbd c28d fa3d 7726 f4bd ca28 d0bc
000001f0: d795 1dbd 7e42 b6bd e95c dabd 00e6 1ebc
00000200: 6d66 27bd 40d5 6a3c 948b 5f3c ccef cd3d
00000210: 2938 8b3d 59b7 333d f953 9bbd 6f6e 98bc
00000220: ad6e f53d d133 c7bc 1374 023e 3c08 983d
00000230: c586 31bd 407d ba3d c7df 00bd 851a 93bd
00000240: 1fba 873d 7fac 9f3b a4a5 f9bc 12eb e1bd
00000250: 19f8 acbb 7caa f9bd 941b ae3d dc17 28bd
00000260: f437 293e abb6 4f3e 69f5 4bbd 8d39 2bbc
00000270: 8622 04be fc6f 6a3d d47e 95bd 74fa b73d
00000280: f15e 0e3e b51f aabc 95d9 113d 24c2 97bc
00000290: c447 8e3d 28f0 373d 1f02 b23d c4a5 afbd
000002a0: 8739 ccbc 90b6 42bd ccd0 aa3d bf0a ea3b
000002b0: a103 d13d 2ee8 67bd e030 aebb b206 9a3d
000002c0: 409d e23d b294 4b3c 59c7 df3b 6b84 91bd
000002d0: fed6 54bd 977d ecbc b048 3fbc 3b0d c4bd
000002e0: a303 cabd 38e3 3a3d 9f6b 573d 1cfd 033d
000002f0: 7123 f53d 6b5d 853c 813b 0abe 803e 963d
00000300: 44b6 233d 46fc 8b3d c279 d03d f005 c83d
00000310: e0e0 c1bd a8f7 86bd 0023 dd3d 5ea4 e33d
00000320: 8ee8 dabd c88a 05bd 8af6 cfbd e09c ec3b
00000330: e4fe fbbd 002b e23a 7409 3cbd 9843 f13d
00000340: 9046 d73c 58b0 a4bc d07a 5abc f6f3 873d
00000350: e009 de3d ea3b ccbd 887d 5f3d 706c bc3d
00000360: 3457 22bd d2ce b33d 50e1 9dbd 90ab 40bc
00000370: 6020 b1bc 2a95 d8bd b055 e8bd 3aa3 e83d
00000380: 5285 c6bd 9898 aabc 601d bfbb c0f0 acbd
00000390: 5048 eebd b86a 95bc b0ee aabd 5cc7 aa3d
000003a0: 8083 3e3d ce77 f2bd ec71 e23d 96bd a13d
000003b0: c053 75bb b405 313d 5083 bf3d c074 b0bc
000003c0: 0a9c de3d 1435 f2bd 3eeb b43d 00b2 023c
000003d0: b088 633c b070 f3bc f4c5 58bd 0868 943d
000003e0: 9028 653d 9a39 f0bd 7426 05bd 6aae a3bd
000003f0: 20bf afbc 5097 30bc 3892 5e3d b02a 6e3c

node_function_neighbor.4.bias f4 [64]
-0.04860502 0.00087419164 0.003984828 -0.09530498 0.18191782 -0.16159672 -0.11190593 0.1226797
-0.12092804 -0.0791934 -0.035922356 -0.038301066 0.046249013 -0.057057496 -0.008677243 -0.06578944
0.08675642 -0.18499607 0.04604784 0.01124528 0.08356939 -0.06044911 0.06770389 -0.15533955
0.12931006 -0.06998422 -0.07587022 0.16483492 -0.12343506 0.058955364 -0.14807738 0.096974745
0.022900285 -0.078942545 -0.0033581257 -0.15098469 0.032966856 0.14728588 0.011796967 -0.1609236
-0.09290282 -0.04982475 0.07446194 -0.08858932 -0.058984276 0.037103444 0.11447035 0.12439395
0.10409822 -0.050103422 -0.007992297 0.11445586 -0.08288227 -0.13203187 0.011784503 -0.06251094
-0.049792565 0.0003267232 -0.07025743 0.04857106 0.12903534 -0.08178678 -0.025141045 0.017516166
00000000: 0f16 47bd 022a 653a 2993 823b 422f c3bd
00000010: aa48 3a3e 9c79 25be f02e e5bd 7f3f fb3d
00000020: 1fa9 f7bd 2630 a2bd 5223 13bd 94e1 1cbd
00000030: 9b6f 3d3d 1fb5 69bd ff2a 0ebc 9dbc 86bd
00000040: 5aad b13d 9c6f 3dbe a99c 3c3d 1f3e 383c
00000050: 6e26 ab3d 7c99 77bd 56a8 8a3d 5511 1fbe
00000060: db69 043e e353 8fbd d961 9bbd 7cca 283e
00000070: 85cb fcbd 2e7b 713d 99a1 17be b29a c63d
00000080: 6199 bb3c a1ac a1bd 0014 5cbb bb9b 1abe
00000090: 4108 073d 1cd2 163e 1148 413c 28c9 24be
000000a0: d543 bebd 0915 4cbd 807f 983d 516e b5bd
000000b0: 7f99 71bd c8f9 173d 6e6f ea3d 41c2 fe3d
000000c0: 7331 d53d 3f39 4dbd 20f2 02bc d567 ea3d
000000d0: 2ebe a9bd 5d33 07be ca13 413c bc05 80bd
000000e0: 4af3 4bbd 0c4c ab39 21e3 8fbd 73f2 463d
000000f0: d721 043e d47f a7bd 98f4 cdbc 107e 8f3c

node_function_neighbor.6.weight f4 [4, 64]
-0.06369768 0.09277905 0.037240893 -0.004526362 0.08421193 0.037558172 -0.0880351 -0.07254181
0.015114372 -0.09757438 0.057044886 -0.0562615 -0.117018595 -0.07410191 -0.070722625 -0.04963563
0.007467391 0.006945474 0.047278 0.084888846 -0.06998024 0.11642922 -0.11125817 0.0015304501
0.18601155 -0.11336244 -0.0133344745 -0.054584958 0.05809961 -0.08724173 0.0791299 -0.05076674
-0.12829922 -0.024525074 0.11925232 0.078500494 -0.08595839 0.01695473 0.057000723 0.05018136
0.043145217 -0.10577072 -0.028226342 -0.056540184 -0.12983379 -0.1084509 0.08437663 -0.11700175
0.08022175 0.05613791 -0.013136402 0.0443933 0.066665396 0.009753239 -0.008113438 0.06154491
-0.05697033 0.13091981 -0.12848724 0.07247095 0.074204355 -0.117887646 0.0850658 -0.10517822
-0.03425442 0.10162001 -0.07147139 0.103053465 -0.002605556 -0.002714097 -0.085484594 -0.06939596
0.05811168 -0.030356005 0.13012543 0.04750367 0.02044731 0.020841764 -0.014391451 -0.09892901
-0.06379294 -0.032553792 0.01803223 0.04663774 0.101280145 -0.043998893 0.08479983 0.005843327
-0.23765106 0.010176526 0.049841687 0.035316665 -0.09144045 0.054364074 -0.048146416 -0.02225698
-0.06030234 -0.050950527 0.08300518 -0.012004724 -0.0075194505 0.0039208815 -0.019435748 0.003270438
-0.07865484 0.07690895 -0.04458925 -0.08814029 0.10712867 0.07241898 0.1043612 -0.043408245
-0.019404268 0.0016547726 0.059488416 -0.012663997 0.10879374 0.09308803 -0.077052034 0.0214029
0.018257877 0.12369747 -0.056476597 0.13287109 0.06857079 0.09444107 0.056330234 0.028071502
-0.13072562 0.070358045 -0.10876961 -0.055366486 -0.10782265 -0.040877942 -0.06835832 -0.013200872
0.06937329 0.1072973 -0.039937932 -0.037546486 -0.1237399 0.05880732 -0.022238081 -0.024898795
-0.1297125 0.010688776 0.06875896 0.026186045 -0.04142702 0.1377483 -0.04630472 0.0597967
0.12216883 0.0035996293 0.0086624315 -0.084520124 0.075282454 -0.04993126 -0.059671756 -0.1321065
0.014778494 0.009202428 0.011151034 0.03247529 0.06272748 0.03018627 -0.047587443 0.02982033
0.0353638 0.006301136 -0.13843273 0.0803931 0.067248 0.04193195 0.03588809 -0.08796055
-0.10200725 -0.046704985 -0.101814695 -0.08054602 0.08440541 -0.12027057 0.070687845 -0.057220325
-0.060367633 0.074729785 0.04077237 0.07642796 0.020047035 0.075057134 0.02534929 0.07158115
-0.07974656 0.013359871 0.12099216 0.05770354 0.09893823 -0.056011762 -0.07661525 0.1290023
-0.098318666 0.0038201362 0.07550595 0.0011878522 0.12767957 0.01435988 0.10303864 0.118764326
0.028732017 0.08701407 0.002492274 0.02992852 0.12506312 -0.12542763 0.057273697 -0.08502159
0.09049488 -0.035061996 -0.044677418 0.10633501 0.00062125025 -0.07031463 -0.071437895 0.06725551
0.04292007 -0.07328897 -0.07127689 0.08220608 -0.056246974 0.09458491 0.056974757 0.034770753
-0.041805 -0.053995755 -0.01104535 0.116514385 0.0330412 -0.021151554 0.0516328 0.058892347
0.062011503 0.14565723 0.047122538 0.19514053 0.010724549 -0.089832194 0.097620435 0.02134843
0.08958577 0.002231369 -0.022747586 0.05614834 0.00841921 0.06564193 -0.004879266 -0.05096154
00000000: ee73 82bd f102 be3d e889 183d e051 94bb
00000010: 4e77 ac3d 99d6 193d bf4b b4bd cd90 94bd
00000020: 45a2 773c 14d5 c7bd e6a7 693d 7572 66bd
00000030: 72a7 efbd bec2 97bd 06d7 90bd bb4e 4bbd
00000040: 04b1 f43b dc96 e33b 93a6 413d 34da ad3d
00000050: cd51 8fbd 7172 ee3d 53db e3bd 6299 c83a
00000060: d079 3e3e 912a e8bd d778 5abc 7a94 5fbd
00000070: dbf9 6d3d cbab b2bd db0e a23d c9f0 4fbd
00000080: df60 03be cfe8 c8bc 8f3a f43d dec4 a03d
00000090: f40a b0bd a5e4 8a3c 9779 693d f88a 4d3d
000000a0: 0ab9 303d 529e d8bd ee3a e7bc ae96 67bd
000000b0: 26f3 04be 811b debd a8cd ac3d 9d9e efbd
000000c0: 4d4b a43d ddf0 653d 103a 57bc c0d5 353d
000000d0: de87 883d 0dcc 1f3c 3aee 04bc 8416 7c3d
000000e0: b959 69bd d80f 063e 2992 03be a66b 943d
000000f0: 74f8 973d 146f f1bd fa36 ae3d ae67 d7bd
00000100: 5d4e 0cbd 271e d03d 985f 92bd b20d d33d
00000110: fac1 2abb fede 31bb 8c12 afbd 781f 8ebd
00000120: 8306 6e3d 28ad f8bc 9a3f 053e 3593 423d
00000130: 1e81 a73c 59bc aa3c 1fca 6bbc 4b9b cabd
00000140: dfa5 82bd 2057 05bd 54b8 933c 3707 3f3d
00000150: f76b cf3d 2f38 34bd 89ab ad3d 6179 bf3b
00000160: cd5a 73be 72bb 263c cc26 4c3d 35a8 103d
00000170: 2145 bbbd ddac 5e3d 2d35 45bd 4554 b6bc
00000180: 96ff 76bd 80b1 50bd 9ffe a93d 76af 44bc
00000190: b965 f6bb bd7a 803b b837 9fbc d854 563b
000001a0: ca15 a1bd 7182 9d3d 38a3 36bd e582 b4bd
000001b0: 4766 db3d 6750 943d 53bb d53d d8cc 31bd
000001c0: b3f5 9ebc f4e4 d83a 20aa 733d a77c 4fbc
000001d0: 41cf de3d f0a4 be3d 75cd 9dbd 2255 af3c
000001e0: 8b91 953c 1955 fd3d 0154 67bd 5c0f 083e
000001f0: d86e 8c3d 526a c13d 88ba 663d 35f6 e53c
00000200: f0dc 05be e117 903d 9ac2 debd f8c7 62bd
00000210: 1fd2 dcbd a16f 27bd 72ff 8bbd 7848 58bc
00000220: 9513 8e3d b0be db3d f595 23bd 58ca 19bd
00000230: 586b fdbd f2df 703d a32c b6bc 8ff8 cbbc
00000240: 5bd3 04be fa1f 2f3c 7fd1 8c3d 1e84 d63c
00000250: 61af 29bd e40d 0d3e 05aa 3dbd 62ed 743d
00000260: a733 fa3d c2e7 6b3b dfec 0d3c e318 adbd
00000270: b02d 9a3d b984 4cbd 5f6a 74bd ed46 07be
00000280: 7f21 723c c8c5 163c d4b2 363c cf04 053d
00000290: 4477 803d 3249 f73c 0deb 42bd c449 f43c
000002a0: a2d9 103d c379 ce3b 4fc1 0dbe 23a5 a43d
000002b0: 52b9 893d d6c0 2b3d 64ff 123d a924 b4bd
000002c0: 2de9 d0bd ba4d 3fbd 3984 d0bd 50f5 a4bd
000002d0: bedc ac3d 6b50 f6bd cac4 903d dc5f 6abd
000002e0: 0d44 77bd ee0b 993d ee00 273d 4386 9c3d
000002f0: ae39 a43c 8eb7 993d 50a9 cf3c 2399 923d
00000300: 2a52 a3bd 5ce3 5a3c bdca f73d 8c5a 6c3d
00000310: 20a0 ca3d 976c 65bd 75e8 9cbd 2e19 043e
00000320: 4c5b c9bd 405b 7a3b dda2 9a3d b5b1 9b3a
00000330: 6fbe 023e b445 6b3c ec05 d33d b63a f33d
00000340: 685f eb3c 6f34 b23d 6b55 233b a82c f53c
00000350: 8c10 003e 1a70 00be d397 6a3d cd1f aebd
00000360: 6155 b93d 2b9d 0fbd abff 36bd 2bc6 d93d
00000370: 66db 223a 1e01 90bd 084e 92bd 42bd 893d
00000380: f5cc 2f3d 8718 96bd 9ef9 91bd a95b a83d
00000390: 3a63 66bd bcb5 c13d 5d5e 693d c76b 0e3d
000003a0: b83b 2bbd a72a 5dbd 8ef7 34bc 189f ee3d
000003b0: 3656 073d 0646 adbc ea7c 533d 1a39 713d
000003c0: c6ff 7d3d 2b27 153e 9003 413d ebd2 473e
000003d0: 05b6 2f3c f1f9 b7bd 39ed c73d e7e2 ae3c
000003e0: bf78 b73d 293c 123b 2559 babc cdfb 653d
000003f0: baf0 093c 476f 863d 40e2 9fbb 0cbd 50bd

node_function_neighbor.6.bias f4 [4]
0.06942426 0.042839993 0.082769915 -0.0112764
00000000: 4e2e 8e3d fd78 2f3d 4683 a93d a6c0 38bc

edge_function.0.weight f4 [64, 4]
0.013249747 -0.35855034 0.076533005 0.46843132 0.38953167 -0.030180082 0.17951152 -0.34680212
0.11332095 -0.11033181 -0.06694461 -0.17431042 -0.41698018 -0.24668631 -0.17405578 -0.42332658
-0.38677207 -0.31009933 -0.37870884 0.41466308 0.3027191 -0.2969381 0.1845722 -0.18709606
0.39588425 -0.05923331 0.40706274 0.2890238 -0.19514863 -0.47965613 0.36012286 0.08213213
-0.22574675 0.049711015 0.26630503 -0.08200882 -0.33888584 0.02690346 0.30870655 0.18719308
0.113229625 -0.107587144 -0.38823226 -0.36971897 -0.22847605 0.2956206 -0.4592677 -0.34876573
0.28561723 -0.111672126 -0.31079316 0.21888578 0.42418665 -0.13556193 -0.31137303 -0.05875383
-0.16313916 0.27444407 -0.2320142 0.008484826 -0.2932041 -0.2771543 -0.22737335 0.38511613
-0.15275624 0.10467315 0.40748417 -0.3321442 -0.38845727 -0.4949189 -0.2998704 -0.37591204
-0.1994427 -0.010169264 -0.45867193 -0.021528699 0.26834992 0.03694639 -0.40680698 -0.32055625
0.48121676 -0.41685268 0.34509248 -0.045417268 0.18544196 0.44802105 0.42746463 0.35800728
-0.27056614 0.37040135 -0.29457054 -0.19242388 0.13356733 0.21767151 -0.14998776 0.09787342
0.29862547 -0.4646968 -0.3607619 0.3798886 0.3380303 -0.042514462 0.33859476 -0.31569925
-0.3594453 -0.09992363 0.0072867167 -0.31390145 -0.4210854 0.4616504 -0.37866327 0.14233182
0.28607625 0.25227344 -0.35980207 0.13571759 0.18541588 0.4229861 0.41992646 0.41854003
0.4914174 -0.42366365 0.35293636 -0.44500786 -0.20982023 -0.48801488 0.106475025 -0.32950535
-0.072598055 -0.40218225 0.3594729 0.22395392 0.41909382 -0.12592864 -0.032935962 -0.046208877
0.36245134 -0.47608513 0.007862442 -0.14154617 -0.28097022 -0.07690483 0.35054725 -0.11830564
-0.3914993 0.36958367 -0.22184189 -0.33326748 0.3950752 -0.2668454 -0.03688231 -0.41471696
0.45833173 -0.33830476 0.29974437 -0.26095647 0.3898166 0.28145537 0.4009611 0.07682396
0.31280023 -0.07320313 0.25214037 0.3036284 -0.21105255 0.22357231 -0.020427538 0.29798412
0.40384138 0.17552178 0.40328547 -0.33526087 -0.35791916 0.084392354 0.5133602 -0.38467443
0.47917095 0.10239469 0.21910328 -0.3446414 -0.2853005 0.43329382 -0.42778274 0.5354445
0.3463824 -0.24466242 -0.00979283 0.063872896 0.3897009 0.33144736 0.01425573 0.4818458
0.40849358 0.272856 -0.23336715 -0.5020828 -0.1577205 -0.01734197 -0.23088033 -0.009507128
0.43351936 0.12723467 -0.25464624 0.35696012 -0.024970371 0.39418596 0.5095727 -0.41839808
0.25433305 0.08915136 0.2575044 0.22296332 0.2882101 0.3022377 0.021711705 -0.31192794
0.44237888 0.22403935 0.47201636 -0.12496538 -0.51288205 0.013191919 0.019810347 -0.3180131
0.34125736 -0.02421009 0.1489071 0.44379508 -0.059402466 -0.1875313 -0.05512341 0.2934884
0.42340827 0.2101528 -0.22953027 -0.2725527 -0.44367212 -0.01984718 0.3405978 -0.14458257
-0.38549563 -0.026250418 -0.03536175 -0.44013622 -0.110069275 -0.45657423 0.17767952 -0.08135359
-0.42760953 0.042070344 -0.42749345 -0.24876125 -0.49406934 -0.07399701 0.24349016 0.056157056
00000000: 7815 593c e993 b7be 56bd 9c3d 3bd6 ef3e
00000010: b270 c73e 383c f7bc ded1 373e 0c90 b1be
00000020: d014 e83d a5f5 e1bd 411a 89bd 6e7e 32be
00000030: 6d7e d5be 569b 7cbe ae3b 32be 43be d8be
00000040: fd06 c6be 57c5 9ebe 20e6 c1be b84e d43e
00000050: fffd 9a3e 4508 98be 7f00 3d3e 1c96 3fbe
00000060: 57b1 ca3e a19e 72bd 876a d03e edfa 933e
00000070: 0bd5 47be 7d95 f5be 0662 b83e e434 a83d
00000080: 282a 67be c79d 4b3d 2259 883e 3df4 a7bd
00000090: 7282 adbe a564 dc3c c90e 9e3e 8baf 3f3e
000000a0: efe4 e73d a656 dcbd 61c6 c6be ce4b bdbe
000000b0: a0f5 69be 955b 973e 2325 ebbe 6c91 b2be
000000c0: 6c3c 923e 5bb4 e4bd 4820 9fbe 9823 603e
000000d0: fe2e d93e bfd0 0abe 496c 9fbe dba7 70bd
000000e0: f40d 27be ef83 8c3e 2195 6dbe f103 0b3c
000000f0: d91e 96be 2be7 8dbe 8fd4 68be f12d c53e
00000100: 226c 1cbe e05e d63d c4a1 d03e ce0e aabe
00000110: dfe3 c6be 0366 fdbe 9d88 99be 8b77 c0be
00000120: b53a 4cbe fc9c 26bc 0cd7 eabe f45c b0bc
00000130: 2965 893e 1955 173d 0149 d0be f31f a4be
00000140: 0b62 f63e b76d d5be f6af b03e 7507 3abd
00000150: 7fe4 3d3e 0463 e53e a5dc da3e bb4c b73e
00000160: a587 8abe 3fa5 bd3e f3d1 96be c40a 45be
00000170: e0c5 083e 48e5 5e3e 6496 19be dc71 c83d
00000180: 70e5 983e bdec edbe c9b5 b8be c280 c23e
00000190: 4f12 ad3e a523 2ebd 4b5c ad3e 55a3 a1be
000001a0: 3709 b8be c3a4 ccbd 69c5 ee3b b1b7 a0be
000001b0: 8198 d7be 715d ec3e 27e0 c1be 6fbf 113e
000001c0: 9678 923e fc29 813e fa37 b8be 8df9 0a3e
000001d0: a9dd 3d3e a291 d83e 9a00 d73e e14a d63e
000001e0: 109b fb3e 71ea d8be 13b4 b43e 12d8 e3be
000001f0: 1ddb 56be 16dd f9be 940f da3d edb4 a8be
00000200: 4aae 94bd d5ea cdbe d50c b83e 2d54 653e
00000210: 7793 d63e 70f3 00be dce7 06bd 8545 3dbd
00000220: 3993 b93e 6ec1 f3be 79d1 003c 7bf1 10be
00000230: 54db 8fbe 4880 9dbd ee7a b33e 3a4a f2bd
00000240: 9972 c8be 123a bd3e 852a 63be 09a2 aabe
00000250: 4c47 ca3e f69f 88be e811 17bd c855 d4be
00000260: 75aa ea3e 4836 adbe 1878 993e 169c 85be
00000270: 0b96 c73e eb1a 903e c64a cd3e e155 9d3d
00000280: 5a27 a03e 86eb 95bd 8b18 813e 2f75 9b3e
00000290: 291e 58be 24f0 643e a757 a7bc 6091 983e
000002a0: 4cc4 ce3e fbbb 333e 6f7b ce3e 50a7 abbe
000002b0: 2e41 b7be e6d5 ac3d 936b 033f 0cf4 c4be
000002c0: e555 f53e 4fb4 d13d 9c5c 603e d674 b0be
000002d0: e812 92be b0d8 dd3e 5706 dbbe e412 093f
000002e0: 0959 b13e c988 7abe 1b72 20bc cbcf 823d
000002f0: e086 c73e 78b3 a93e de90 693c 7eb4 f63e
00000300: 1226 d13e c8b3 8b3e ccf7 6ebe 8088 00bf
00000310: 7c81 21be bf10 8ebc e56b 6cbe c9c3 1bbc
00000320: 40f6 dd3e ce49 023e fe60 82be 7ac3 b63e
00000330: aa8e ccbc bed2 c93e 5b73 023f 4638 d6be
00000340: f137 823e fd94 b63d 9ed7 833e 7f50 643e
00000350: 4690 933e e6be 9a3e bfdc b13c 05b5 9fbe
00000360: 7c7f e23e 926a 653e 21ac f13e d9ed ffbd
00000370: 3d4c 03bf eb22 583c 4f49 a23c 9dd2 a2be
00000380: 49b9 ae3e 3d54 c6bc 1a7b 183e 1c39 e33e
00000390: 0050 73bd 3508 40be 16c9 61bd 1d44 963e
000003a0: f8c8 d83e 4c32 573e fc09 6bbe 078c 8bbe
000003b0: fe28 e3be 8e96 a2bc d662 ae3e 740d 14be
000003c0: af5f c5be 1e0b d7bc 7bd7 10bd 8959 e1be
000003d0: 006c e1bd 19c4 e9be 9ff1 353e b69c a6bd
000003e0: a3ef dabe f451 2c3d 6ce0 dabe 45bb 7ebe
000003f0: a8f6 fcbe bf8b 97bd 7c55 793e f104 663d

edge_function.0.bias f4 [64]
-0.020439457 0.3453797 0.46334472 -0.3981594 0.21202686 -0.4839953 0.16112585 -0.008725933
-0.410984 0.32645783 0.4018563 0.19738154 -0.22795571 0.42492867 0.53162545 0.3793275
-0.26775366 0.30066696 -0.089227416 0.19753599 -0.5197014 0.4018784 -0.45660684 -0.32534248
-0.18790197 -0.40813312 -0.024913931 0.079334 0.004276441 -0.15293002 -0.11868051 -0.050935566
0.3004667 0.48627257 -0.18110648 0.44629687 -0.25070402 -0.20398603 0.14104104 -0.26042897
0.44694898 0.008983024 0.45018342 -0.49051437 -0.3673316 0.014574397 0.2501381 -0.044836227
-0.044264905 0.5087203 0.5104875 0.33409753 0.10545566 0.08331421 -0.04741675 0.12649271
0.35402513 0.3827038 -0.14633562 0.46602014 0.13480322 -0.39621606 -0.16297355 -0.2900605
00000000: a670 a7bc 9cd5 b03e 853b ed3e 8ddb cbbe
00000010: 921d 593e 3bce f7be 2dfe 243e 37f7 0ebc
00000020: 7f6c d2be 7b25 a73e 1cc0 cd3e 631e 4a3e
00000030: 396d 69be 4090 d93e 9b18 083f 3737 c23e
00000040: 0217 89be 05f1 993e ddbc b6bd e046 4a3e
00000050: 270b 05bf 01c3 cd3e 5fc8 e9be 4a93 a6be
00000060: 6069 40be d3f6 d0be 4d18 ccbc dd79 a23d
00000070: 6321 8c3b b099 1cbe c40e f3bd d0a1 50bd
00000080: c5d6 993e b8f8 f83e fa73 39be 0681 e43e
00000090: 475c 80be b7e1 50be 106d 103e f256 85be
000000a0: 7fd6 e43e 892d 133c 717e e63e b324 fbbe
000000b0: e312 bcbe 74c9 6e3c 1a12 803e 31a6 37bd
000000c0: 1e4f 35bd 7e3b 023f 4faf 023f d50e ab3e
000000d0: 23f9 d73d a4a0 aa3d 1138 42bd 4e87 013e
000000e0: c842 b53e c1f1 c33e 01d9 15be 319a ee3e
000000f0: db09 0a3e d5dc cabe 8ae2 26be cf82 94be

edge_function.2.weight f4 [64, 64]
0.03881202 0.03364812 0.07469201 -0.04309195 -0.044766363 -0.07061403 -0.0753604 -0.055244498
-0.079172336 0.09147313 -0.033654783 0.057820186 0.0635611 -0.051043015 0.089176066 0.027122173
0.0946386 0.07347381 -0.021694 -0.07843903 0.12031357 0.025103645 0.06502463 -0.019246489
0.003910219 0.14774217 0.11079953 -0.09945579 0.00654557 -0.02831413 0.1605634 0.121789366
0.101104654 -0.011637305 0.13363233 0.11381718 0.06906468 -0.031772006 0.050413582 0.13551897
-0.036926776 -0.09352517 -0.0928555 -0.102098286 -0.002295144 0.045126077 0.06464916 0.070423245
0.110791795 0.11713306 0.012357804 0.038496006 -0.062841095 0.10801262 0.10504067 0.1295678
0.124864236 0.045134522 -0.04147414 -0.07993301 0.10015411 -0.00645674 0.11234953 0.02722447
0.09706759 0.09199999 0.0068782647 0.08434166 -0.13047461 -0.11853044 0.08638899 -0.097218655
0.0121412305 0.041986015 -0.034868352 -0.08276976 0.0031493523 -0.0016282634 -0.057959024 -0.07363247
0.12059922 -0.026205717 0.07599554 -0.08152409 0.042584844 -0.002448912 0.00073407777 0.008192647
0.011086065 0.0709791 -0.021879535 -0.08327566 0.040463682 -0.11887184 -0.011376021 -0.14568746
0.05900107 -0.0119488835 0.02717466 0.037704352 0.035209987 -0.13972014 0.05434027 -0.043361787
-0.014913055 0.01568483 0.081377864 -0.08939626 -0.0008856669 -0.10813331 0.09106691 -0.04629999
0.09343297 -0.0030466507 0.07310752 -0.068722874 -0.04829695 -0.00549772 -0.09066804 0.05262651
-0.13260895 0.02460405 -0.12276156 0.054509148 0.03140156 -0.13783503 -0.012771276 -0.05258319
-0.022265801 0.14572494 -0.04421905 -0.010674412 -0.1602374 0.04909277 0.047950517 0.086198844
0.048260953 0.12424443 -0.018515244 0.02793924 -0.100774914 -0.04871444 0.098252185 0.05175804
0.030871006 -0.10180252 -0.13417692 -0.047526784 -0.012003347 0.07409105 0.114490665 -0.23802067
0.0063450243 0.11551671 -0.02615025 -0.09261619 0.117083095 0.10996356 0.09594723 -0.06628276
-0.06416106 0.07147779 0.16670224 0.07717216 0.09437566 0.019071892 -0.026855651 0.14668249
-0.07412778 -0.02104244 0.14494066 0.05193048 0.10492515 0.048805762 -0.027695036 0.04143308
-0.037368763 0.10049859 -0.017860949 0.08240731 0.11507651 -0.03946908 0.0084065655 -0.0853203
-0.07390529 0.044603538 0.13849841 0.12897475 -0.098048784 -0.009648953 0.04989473 -0.15369177
-0.10662653 0.001006147 -0.08257101 -0.0030499024 0.07132339 -0.06820485 0.1093738 0.1384845
-0.023069102 0.03684179 0.107105605 0.108922064 0.0046640467 0.03315061 0.07347045 -0.076651074
-0.0057853255 -0.10249465 0.03336975 -0.04889266 -0.0003072973 -0.09400858 -0.043852173 -0.23414525
-0.00055591855 0.10040958 -0.0038083773 0.11797473 0.10722584 0.047328923 -0.04673508 0.063916124
0.07416235 0.10993808 -0.045581937 -0.024399774 0.040559165 -0.025309462 0.08260196 0.08530873
0.020005077 -0.032698724 -0.10879891 0.09018583 -0.098725155 0.08567683 0.09834953 -0.068082005
0.09529957 -0.04180224 -0.004623811 -0.039723784 0.0897485 -0.0782263 0.10156512 0.029627929
0.10420991 -0.052742604 0.046077054 -0.10243255 -0.014437546 0.086773746 0.11019142 0.04422225
00000000: 5af9 1e3d 9cd2 093d 20f8 983d 2f81 30bd
00000010: ef5c 37bd 179e 90bd 8e56 9abd 0e48 62bd
00000020: 1b25 a2bd 4456 bb3d 99d9 09bd dcd4 6c3d
00000030: 522c 823d 7b12 51bd f1a1 b63d 522f de3c
00000040: e2d1 c13d 7079 963d 9eb7 b1bc a4a4 a0bd
00000050: f666 f63d 29a6 cd3c a22b 853d d0aa 9dbc
00000060: 4b21 803b b949 173e ddea e23d 7aaf cbbd
00000070: 397c d63b 09f3 e7bc bb6a 243e b46c f93d
00000080: f50f cf3d 65aa 3ebc ead6 083e fb18 e93d
00000090: c871 8d3d 5d23 02bd 797e 4e3d 7cc5 0a3e
000000a0: 8840 17bd 208a bfbd 062b bebd e818 d1bd
000000b0: 206a 16bb 1fd6 383d c766 843d 103a 903d
000000c0: cfe6 e23d 75e3 ef3d 6378 4a3c fdad 1d3d
000000d0: d5b2 80bd b835 dd3d 901f d73d 6cad 043e
000000e0: d2b8 ff3d fade 383d cae0 29bd ebb3 a3bd
000000f0: 991d cd3d 1093 d3bb 8317 e63d da05 df3c
00000100: 5fcb c63d 7e6a bc3d 1163 e13b 52bb ac3d
00000110: 239b 05be 16c0 f2bd b6ec b03d 931a c7bd
00000120: 03ec 463c 87f9 2b3d 1ed2 0ebd 3183 a9bd
00000130: 5d65 4e3b 746b d5ba 7166 6dbd 9fcc 96bd
00000140: b9fc f63d 5fad d6bc 8da3 9b3d 1af6 a6bd
00000150: 726d 2e3d ed7d 20bb 206f 403a 743a 063c
00000160: 54a2 353c 7e5d 913d b63c b3bc 6e8c aabd
00000170: 3fbd 253d 1473 f3bd 7e62 3abc 182f 15be
00000180: 1bab 713d 40c5 43bc 649d de3c e16f 1a3d
00000190: 5938 103d cc12 0fbe e793 5e3d 219c 31bd
000001a0: e355 74bc 797d 803c 70a9 a63d 6315 b7bd
000001b0: 192c 68ba ff74 ddbd 4a81 ba3d 0fa5 3dbd
000001c0: c959 bf3d 51aa 47bb 65b9 953d 94be 8cbd
000001d0: 06d3 45bd 3826 b4bb 2ab0 b9bd e58e 573d
000001e0: a4ca 07be 6f8e c93c 6a6a fbbd fc44 5f3d
000001f0: ec9e 003d a024 0dbe 9d3e 51bc 7961 57bd
00000200: c566 b6bc eb38 153e 091f 35bd bbe3 2ebc
00000210: 4615 24be 8015 493d c367 443d 0589 b03d
00000220: 47ad 453d dd73 fe3d 48ad 97bc d5e0 e43c
00000230: 1463 cebd cb88 47bd 7138 c93d 3d00 543d
00000240: 31e5 fc3c d77d d0bd ad65 09be 72ab 42bd
00000250: b0a9 44bc 0cbd 973d 157a ea3d b1bb 73be
00000260: ece9 cf3b 0694 ec3d 0d39 d6bc 8fad bdbd
00000270: 43c9 ef3d 9334 e13d fb7f c43d 41bf 87bd
00000280: e066 83bd f362 923d feb3 2a3e 700c 9e3d
00000290: 0748 c13d a83c 9c3c 6200 dcbc ef33 163e
000002a0: 4ed0 97bd 3261 acbc 536b 143e 0eb5 543d
000002b0: ffe2 d63d 8de8 473d b3e0 e2bc bcb5 293d
000002c0: fd0f 19bd 34d2 cd3d 2051 92bc 2ac5 a83d
000002d0: 3cad eb3d 54aa 21bd b1bb 093c 69bc aebd
000002e0: a85b 97bd 33b2 363d 87d2 0d3e f511 043e
000002f0: cdcd c8bd a416 1ebc 6b5e 4c3d 6061 1dbe
00000300: 035f dabd b1e0 833a fd1a a9bd dfe0 47bb
00000310: ff11 923d fcae 8bbd 5fff df3d e1ce 0d3e
00000320: 6afb bcbc 6be7 163d 2f5a db3d 8812 df3d
00000330: dcd4 983b efc8 073d ad77 963d 3dfb 9cbd
00000340: d492 bdbb b7e8 d1bd b8ae 083d ab43 48bd
00000350: bf1c a1b9 9287 c0bd 569e 33bd c6c3 6fbe
00000360: 10bb 11ba 8aa3 cd3d f895 79bb bc9c f13d
00000370: 3999 db3d f9db 413d 496d 3fbd 75e6 823d
00000380: 6ee2 973d 3727 e13d 20b4 3abd 09e2 c7bc
00000390: 5e21 263d ca55 cfbc 372b a93d 58b6 ae3d
000003a0: b0e1 a33c 19ef 05bd f7d1 debd 59b3 b83d
000003b0: 6a30 cabd 5577 af3d 7a6b c93d 946e 8bbd
000003c0: 6c2c c33d d338 2bbd 5783 97bb 68b5 22bd
000003d0: 10ce b73d 1c35 a0bd 6001 d03d 45b6 f23c
000003e0: 016c d53d a108 58bd 4bbb 3c3d 28c8 d1bd
000003f0: 758b 6cbc 6fb6 b13d 0aac e13d 6422 353d

edge_function.2.bias f4 [64]
-0.049671646 -0.075571984 0.1396784 -0.016803132 -0.15915179 0.052023746 -0.01699244 0.060934115
0.115820214 0.06168206 0.09541203 0.012169284 0.045228884 0.13604814 -0.078318484 0.010803278
0.1228186 -0.0754692 0.050342847 0.0021394624 0.093381405 0.055469606 0.01582368 0.05684216
-0.0026431184 -0.106265396 -0.014229139 0.05302532 -0.11775708 0.022591567 -0.064101286 -0.0622783
-0.13812722 -0.07206591 -0.005248581 0.037856538 -0.1795183 0.010715157 0.07784274 0.1040427
-0.049352083 0.06603891 -0.14150614 0.06882132 -0.053281117 0.042628013 -0.11530714 0.099449
-0.12145118 0.07775978 -0.09717004 0.061195306 -0.09120415 -0.020384597 -0.08410717 0.022950716
-0.06516708 0.04944264 -0.03260686 -0.13415071 0.11235679 -0.017692342 0.013168477 0.06350413
00000000: 7f74 4bbd 7cc5 9abd db07 0f3e b9a6 89bc
00000010: b0f8 22be da16 553d bb33 8bbc 0d96 793d
00000020: 2633 ed3d 54a6 7c3d 6267 c33d ad61 473c
00000030: ec41 393d 3450 0b3e 7165 a0bd 3b00 313c
00000040: 5188 fb3d 998f 9abd 4d34 4e3d 3936 0c3b
00000050: c03e bf3d 1934 633d aaa0 813c 53d3 683d
00000060: 2b38 2dbb aca1 d9bd 5621 69bc 1431 593d
00000070: a02a f1bd f311 b93c 8947 83bd 8817 7fbd
00000080: 3971 0dbe 4b97 93bd 4afc abbb 750f 1b3d
00000090: a5d3 37be a08e 2f3c 046c 9f3d 5714 d53d
000000a0: 6925 4abd 683f 873d fce6 10be 31f2 8c3d
000000b0: 4d3d 5abd b69a 2e3d 2626 ecbd ebab cb3d
000000c0: 65bb f8bd 8540 9f3d 1601 c7bd eea7 7a3d
000000d0: 3ec9 babd 99fd a6bc 6140 acbd 2403 bc3c
000000e0: 5176 85bd 5e84 4a3d c58e 05bd ce5e 09be
000000f0: 511b e63d 88ef 90bc 99c0 573c 740e 823d

edge_function.4.weight f4 [64, 64]
-0.0038792964 -0.12635545 0.055638798 -0.053938188 -0.037392944 -0.072062075 -0.10851288 0.05416979
0.039599493 0.04477457 0.019149378 -0.013713449 -0.08783087 -0.06869342 -0.031579643 -0.05302253
-0.022166558 -0.018109381 -0.1017905 -0.1048913 0.030224144 0.0068054944 0.070962444 0.060682103
-0.07666674 0.098342806 0.09212226 0.014781195 -0.046356395 -0.039844662 0.046853434 0.06877287
-0.053217903 0.11303122 0.050148863 -0.06259911 -0.0124506205 0.019818753 0.08127038 0.010217458
-0.011287093 -0.08054681 0.017217413 -0.058666598 0.11897308 -0.08522538 0.09628259 0.043684196
-0.12188521 -0.12114115 -0.07218745 -0.10243015 -0.04169639 -0.13140793 -0.08757645 0.040998902
0.04008678 -0.043384496 -0.1271398 0.10219325 -0.119735055 -0.030549943 -0.052127726 -0.100140795
0.031480044 0.041151874 0.031638753 -0.009500859 -0.06755297 -0.06353879 0.033890974 0.033195432
0.088480085 0.08080701 0.026926532 -0.064190395 -0.042498082 0.1239301 0.11553523 -0.018556781
-0.08917268 0.04551969 -0.07343025 0.10800301 0.00084621215 0.029469524 0.10405285 -0.050151404
-0.00069370866 0.024887621 -0.11265567 -0.041085016 0.09718009 0.039217085 0.010220009 0.08720642
-0.0667817 0.020737717 -0.080196515 -0.003355123 0.0039346535 -0.02635374 0.009979473 -0.018220363
0.06734421 0.06484712 0.11325842 0.03779026 0.07049148 0.048016567 0.05672918 0.10278183
0.020492015 -0.110455856 -0.020443587 -0.040345658 -0.12854397 0.084075265 0.012089969 0.10975746
0.043037497 0.13660932 -0.04818599 0.08573013 -0.026762139 0.007803157 -0.06447518 0.08094135
-0.043995615 0.025770377 0.057942457 0.024399797 0.14113195 -0.032347124 0.10327313 0.14375842
0.05699992 -0.0054666093 -0.113773584 -0.09820076 0.058098316 0.11733895 -0.08278015 -0.07832535
0.07714113 -0.04574736 -0.06706766 0.02224631 0.055861495 -0.0683594 -0.019336777 -0.083853684
-0.05195332 0.10323331 -0.09327889 0.12172883 0.059428718 -0.10856838 -0.09912371 -0.109489724
-0.11183916 -0.06318019 -0.0001071071 0.07102421 -0.057356227 0.06505301 0.02338669 -0.06485741
0.094355576 0.08034892 -0.034926176 -0.045462135 -0.108287334 -0.07819197 0.0067685395 -0.09034906
0.022661462 0.026011195 0.094381034 -0.026919637 -0.03259851 0.11623925 -0.051277373 -0.019330243
0.01149656 0.018052222 0.10126775 -0.018714994 -0.11424684 0.08666976 0.06224683 -0.1248698
0.07761557 -0.05882415 -0.07238814 0.039956752 0.10887289 0.057057958 0.00422236 -0.017035093
-0.08720747 -0.10185188 -0.093788326 -0.10853381 0.016318515 0.09339638 -0.08161075 0.07524045
0.122804336 0.08276516 0.007872901 -0.034706827 -0.14426693 -0.03242321 0.017272117 0.050043873
-0.03424894 0.01526919 -0.10505933 0.030537672 -0.05197684 -0.020969076 -0.03147105 -0.07999049
0.14033194 -0.10482651 -0.14164598 0.086766094 -0.030862039 0.04231767 -0.001401489 0.06865815
0.029387206 -0.12642595 0.032735806 -0.059872404 -0.033580285 0.062242072 -0.0809112 0.052496158
-0.07808373 -0.0049613854 0.058527924 -0.068868734 0.070404574 -0.06117935 0.058351256 -0.080599524
-0.0010318266 -0.08294852 -0.09120381 0.16470677 -0.09419939 0.018893287 -0.12716407 -0.078190185
00000000: cb3b 7ebb 5363 01be 82e5 633d 4aee 5cbd
00000010: 5829 19bd 4895 93bd 003c debd 24e1 5d3d
00000020: 1433 223d 8a65 373d 28df 9c3c 60ae 60bc
00000030: ace0 b3bd 23af 8cbd a859 01bd 272e 59bd
00000040: a496 b5bc 205a 94bc 8a77 d0bd 40d1 d6bd
00000050: a098 f73c a000 df3b c254 913d cc8d 783d
00000060: 7403 9dbd f467 c93d 98aa bc3d d32c 723c
00000070: 34e0 3dbd 2834 23bd 63e9 3f3d cad8 8c3d
00000080: 04fb 59bd ea7c e73d e568 4d3d f633 80bd
00000090: b0fd 4bbc f05a a23c 1671 a63d 2067 273c
000000a0: 80ed 38bc baf5 a4bd 880b 8d3c 634c 70bd
000000b0: 28a8 f33d a58a aebd ce2f c53d 33ee 323d
000000c0: f49e f9bd da18 f8bd 04d7 93bd e6c6 d1bd
000000d0: d5c9 2abd cd8f 06be 485b b3bd 77ee 273d
000000e0: 0932 243d f1b3 31bd f030 02be b24a d13d
000000f0: a737 f5bd e043 fabc e283 55bd 9e16 cdbd
00000100: 38f1 003d de8e 283d a397 013d 7ea9 1bbc
00000110: 3659 8abd a020 82bd 43d1 0a3d eff7 073d
00000120: 0c35 b53d 257e a53d 0895 dc3c 4176 83bd
00000130: 7812 2ebd 10cf fd3d bc9d ec3d 6404 98bc
00000140: 2ba0 b6bd db72 3a3d 9962 96bd af30 dd3d
00000150: 56d4 5d3a 126a f13c a919 d53d 8f6b 4dbd
00000160: 00da 35ba 20e1 cb3c 04b8 e6bd c348 28bd
00000170: 5b06 c73d 18a2 203d d371 273c 4899 b23d
00000180: d8c4 88bd 25e2 a93c 123e a4bd a0e1 5bbb
00000190: 44ee 803b cce3 d7bc f280 233c df42 95bc
000001a0: c3eb 893d 91ce 843d 08f4 e73d f6c9 1a3d
000001b0: d65d 903d 05ad 443d db5c 683d 487f d23d
000001c0: dfde a73c ae36 e2bd 4f79 a7bc 7d41 25bd
000001d0: 08a1 03be a72f ac3d 0115 463c 85c8 e03d
000001e0: 1648 303d 50e3 0b3e ac5e 45bd 4793 af3d
000001f0: 463c dbbc a0b1 ff3b 900b 84bd 94c4 a53d
00000200: bf34 34bd 661c d33c 1255 6d3d 15e2 c73c
00000210: e584 103e 6b7e 04bd dd80 d33d 6835 133e
00000220: c078 693d 3e21 b3bb 2002 e9bd 7b1d c9bd
00000230: 80f8 6d3d 674f f03d a488 a9bd 0b69 a0bd
00000240: 2bfc 9d3d 9561 3bbd c55a 89bd e53d b63c
00000250: 06cf 643d 0300 8cbd 2968 9ebc 7bbb abbd
00000260: 01cd 54bd fc6b d33d 0109 bfbd f74c f93d
00000270: 876b 733d 1959 debd 5f01 cbbd 263c e0bd
00000280: ee0b e5bd 9e64 81bd b09e e0b8 2475 913d
00000290: 5dee 6abd 833a 853d 7295 bf3c f6d3 84bd
000002a0: 7f3d c13d f98d a43d c00e 0fbd 8136 3abd
000002b0: c0c5 ddbd 1d23 a0bd a0ca dd3b ee08 b9bd
000002c0: 88a4 b93c 6e15 d53c d84a c13d 9286 dcbc
000002d0: 0486 05bd d80e ee3d 3908 52bd 755a 9ebc
000002e0: 115c 3c3c 41e2 933c 7765 cf3d 3050 99bc
000002f0: 3ffa e9bd ea7f b13d 88f6 7e3d bdbb ffbd
00000300: e9f4 9e3d 98f1 70bd 3c40 94bd b1a9 233d
00000310: c0f8 de3d 9bb5 693d b95b 8a3b 2e8d 8bbc
00000320: d499 b2bd b897 d0bd 1814 c0bd f946 debd
00000330: 68ae 853c 9a46 bf3d 8923 a7bd aa17 9a3d
00000340: d780 fb3d c880 a93d 57fd 003c bf28 0ebd
00000350: b6ba 13be 33ce 04bd 417e 8d3c cefa 4c3d
00000360: 9e48 0cbd a02b 7a3c 5929 d7bd 242a fa3c
00000370: abe5 54bd 57c7 abbc cae7 00bd 0ed2 a3bd
00000380: 2db3 0f3e 48af d6bd a50b 11be 6cb2 b13d
00000390: 63d2 fcbc 4b55 2d3d 2bb2 b7ba a59c 8c3d
000003a0: 70bd f03c ce75 01be fb15 063d c43c 75bd
000003b0: 7b8b 09bd 8bf1 7e3d c5b4 a5bd 3606 573d
000003c0: 5dea 9fbd 1e93 a2bb faba 6f3d 0d0b 8dbd
000003d0: 4630 903d 3397 7abd ba01 6f3d 5d11 a5bd
000003e0: 5b3e 87ba eae0 a9bd 10c9 babd e4a8 283e
000003f0: 9ceb c0bd 18c6 9a3c 4c37 02be 2d22 a0bd

edge_function.4.bias f4 [64]
-0.098620616 0.08653745 -0.0386777 0.09304191 -0.08576386 -0.008515564 0.11426242 -0.0041741547
-0.0982957 0.055855583 -0.100418314 -0.06508457 -0.10383106 -0.017422287 0.07263209 -0.007015951
0.030931508 0.03222029 0.025967058 -0.135822 0.09851299 0.07415263 0.05177381 -0.13165165
0.08329487 -0.12075188 0.10713666 -0.13156849 -0.08668969 -0.08324071 0.013909575 0.021977289
0.058813136 -0.03694543 -0.14596729 -0.06823685 0.09296924 -0.036533058 -0.14909531 0.037756655
0.08680077 -0.11629533 0.08375292 0.13953446 -0.025580972 -0.10559236 0.023221537 -0.05949739
0.04452738 0.12399942 0.017665898 0.074625455 -0.096447356 0.061299134 0.053363893 0.055805262
0.01310592 0.03257335 0.03550434 0.07288054 -0.1046381 -0.13034415 0.021249112 -0.094717644
00000000: 9bf9 c9bd 8c3a b13d 826c 1ebd c28c be3d
00000010: f6a4 afbd dd84 0bbc 6a02 ea3d 59c7 88bb
00000020: 424f c9bd d3c8 643d 1ea8 cdbd 0f4b 85bd
00000030: 61a5 d4bd 2fb9 8ebc 22c0 943d 10e6 e5bb
00000040: 1364 fd3c 6cf9 033d deb8 d43c ec14 0bbe
00000050: 2ec1 c93d 56dd 973d c610 543d b1cf 06be
00000060: 8096 aa3d c34c f7bd 776a db3d e4b9 06be
00000070: 5d8a b1bd 1b7a aabd fce4 633c b709 b43c
00000080: 0be6 703d 1754 17bd 7378 15be c3bf 8bbd
00000090: a866 be3d b0a3 15bd 71ac 18be b9a6 1a3d
000000a0: 9ac4 b13d 3f2c eebd a786 ab3d 1fe2 0e3e
000000b0: 308f d1bc cf40 d8bd 183b be3c 89b3 73bd
000000c0: 5862 363d 68f3 fd3d 13b8 903c 3bd5 983d
000000d0: 3186 c5bd cd14 7b3d 1994 5a3d 0f94 643d
000000e0: 36ba 563c a26b 053d 006d 113d 6442 953d
000000f0: 804c d6bd f078 05be 9e12 ae3c 53fb c1bd
