Projects/GuoxiangGrayson_T_A study of multi-fidelity graph neural networks/Model_save/Canti2D/Rank=123-GNN-nB-64-Lr-0.005/model.pth (torch, 114781 bytes, 24 tensors)

node_function_neighbor.0.weight f4 [64, 2]
0.096264005 0.031327214 0.3107712 -0.50450766 -0.17767176 0.21388842 0.100610614 -0.03675623
-0.5005396 -0.12871127 0.019260406 0.043377724 -0.47018582 -0.58625907 0.13339862 -0.6227568
0.41081566 -0.031247454 0.4651321 0.045531075 -0.05882386 0.31901777 -0.6295392 -0.35945007
-0.38987327 -0.14876226 0.011649585 0.115119636 -0.19386162 -0.4166729 -0.2648427 0.47509545
-0.37472212 -0.53039956 -0.6614966 0.12037057 -0.5162744 0.20511894 0.05444554 -0.18899114
0.5955639 0.50444335 -0.64534724 0.37786335 0.034036394 0.0009127102 -0.16314647 0.6830967
0.46998888 -0.5672486 0.25231075 -0.5414484 -0.37624466 0.038401887 0.12538871 -0.018750899
0.48518574 -0.63444316 -0.5224954 -0.09850491 0.32809806 -0.59332967 -0.5954905 -0.042721856
-0.18466309 -0.12543727 -0.35803062 0.13108812 0.6187829 -0.20989725 -0.34953713 -0.14817543
-0.22989762 -0.080077484 0.026112117 0.26352495 0.6374322 0.29504725 -0.05755773 -0.0172643
0.37216237 0.643876 -0.43160588 -0.11786624 0.15059538 0.047084525 -0.01465572 -0.07292128
-0.3404361 -0.23153698 -0.14822094 -0.40823865 -0.6183357 0.17660931 0.2310984 0.054876562
-0.3806888 0.27946287 -0.51909876 0.5020934 0.49892327 -0.4120593 -0.34770688 0.16138674
-0.12232396 0.04738539 -0.31399524 0.1652356 -0.084115885 -0.083137184 0.27181563 0.31673405
0.4151798 -0.18754692 0.12639233 -0.45565465 -0.53984076 -0.08795775 0.41044497 0.32527784
-0.21314259 0.22686775 0.67099905 0.24557643 0.09552829 -0.3818732 -0.037913386 -0.03793398
00000000: 1026 c53d f750 003d 671d 9f3e 6a27 01bf
00000010: 96ef 35be 9105 5b3e f00c ce3d b38d 16bd
00000020: 5d23 00bf e3cc 03be 00c8 9d3c d7ac 313d
00000030: 32bc f0be 1315 16bf a699 083e fd6c 1fbf
00000040: 6e56 d23e a9fa ffbc cb25 ee3e cb7e 3a3d
00000050: 4af1 70bd 4c56 a33e 7b29 21bf d709 b8be
00000060: 789d c7be 2255 18be e7dd 3e3c d8c3 eb3d
00000070: a983 46be 2656 d5be 7699 87be b63f f33e
00000080: 94db bfbe 44c8 07bf d757 29bf d884 f63d
00000090: 8f2a 04bf b30a 523e 4902 5f3d e586 41be
000000a0: e076 183f 3323 013f 7a35 25bf 4e77 c13e
000000b0: bf69 0b3d f242 6f3a de0f 27be 6ddf 2e3f
000000c0: 62a2 f03e 3437 11bf e02e 813e 5d9c 0abf
000000d0: 24a3 c0be 4c4b 1d3d e665 003e 7c9b 99bc
000000e0: 446a f83e de6a 22bf 42c2 05bf f1bc c9bd
000000f0: 78fc a73e 74e4 17bf 1172 18bf 1dfd 2ebd
00000100: 5218 3dbe a172 00be ca4f b7be f73b 063e
00000110: 8e68 1e3f 4eef 56be 88f6 b2be 4dbb 17be
00000120: 486a 6bbe aaff a3bd 14e9 d53c beec 863e
00000130: c22e 233f 6f10 973e a7c1 6bbd dc6d 8dbc
00000140: 118c be3e 0fd5 243f 72fb dcbe db63 f1bd
00000150: ad35 1a3e b4db 403d 8c1e 70bc c157 95bd
00000160: a44d aebe 0818 6dbe 3bc7 17be a804 d1be
00000170: 404b 1ebf 12d9 343e 0fa5 6c3e 3fc6 603d
00000180: a4e9 c2be c215 8f3e a8e3 04bf 3189 003f
00000190: df72 ff3e 70f9 d2be a306 b2be 9142 253e
000001a0: fc84 fabd 2f17 423d fcc3 a0be 8533 293e
000001b0: f344 acbd d443 aabd 6b2b 8b3e f72a a23e
000001c0: 7292 d43e 4d0c 40be fe6c 013e 914b e9be
000001d0: 0133 0abf 3123 b4bd d825 d23e d18a a63e
000001e0: 0d42 5abe 0550 683e 98c6 2b3f 6378 7b3e
000001f0: 56a4 c33d e284 c3be 114b 1bbd a960 1bbd

node_function_neighbor.0.bias f4 [64]
-0.487259 -0.68167573 0.15351681 0.71131384 0.027005367 -0.69953686 -0.6085615 -0.5594183
0.24189864 -0.32936975 0.07530524 0.26148275 -0.47840106 0.12349946 0.32755408 -0.19001786
0.6409926 -0.1086178 -0.53778684 0.6058661 -0.14448136 0.15775968 0.628625 0.4365795
0.29239747 0.010728609 0.014820203 0.4160928 -0.5869347 0.13312934 -0.5990272 0.17702332
0.3205869 -0.46385846 -0.34502622 0.3556 -0.1185656 0.16996013 0.19799176 0.37136742
-0.0875234 -0.56005245 0.31774002 -0.41405457 -0.0055445884 -0.40006965 0.053765226 0.58418006
0.61053246 -0.2307271 0.40266502 -0.17224427 0.13549305 -0.018026292 0.566049 0.4872777
0.64006954 0.11190184 0.4942339 0.43583262 -0.4965804 -0.46714133 -0.26190695 0.046415273
00000000: 037a f9be 4d82 2ebf 8333 1d3e aa18 363f
00000010: 5c3a dd3c d914 33bf b0ca 1bbf 0a36 0fbf
00000020: 47b4 773e 27a3 a8be a239 9a3d 11e1 853e
00000030: fcf0 f4be 49ed fc3d 2bb5 a73e 0b94 42be
00000040: 1718 243f 0273 debd 66ac 09bf 0a1a 1b3f
00000050: ecf2 13be c18b 213e 91ed 203f 5987 df3e
00000060: 1fb5 953e 0cc7 2f3c 70d0 723c 1e0a d53e
00000070: 5a41 16bf 0f53 083e d959 19bf 9a45 353e
00000080: f723 a43e db7e edbe 47a7 b0be 3411 b63e
00000090: 85d2 f2bd 070a 2e3e 5abe 4a3e df23 be3e
000000a0: 783f b3bd 995f 0fbf d2ae a23e f6fe d3be
000000b0: 61af b5bb eed5 ccbe ed38 5c3d d38c 153f
000000c0: db4b 1c3f ba43 6cbe 1c2a ce3e cd60 30be
000000d0: b1be 0a3e e0ab 93bc 96e8 103f 767c f93e
000000e0: 99db 233f cb2c e53d 3a0c fd3e 7425 df3e
000000f0: c93f febe 262d efbe ab18 86be f11d 3e3d

node_function_neighbor.2.weight f4 [64, 64]
-0.012629954 0.10418161 0.044434346 0.10331601 -0.02938384 -0.014743314 0.053493228 -0.05854121
0.05123818 -0.03887363 0.03460798 0.0519036 -0.10451233 0.102918565 -0.0636683 0.022920383
0.11322644 0.017816206 0.029024748 0.076366216 0.09478064 0.03471121 -0.043249063 0.007480577
4.1901956e-05 -0.0013052011 -0.051735334 0.038984925 0.108399525 0.10035387 0.025377253 0.09264726
0.14389358 -0.021131339 0.033105556 -0.05910175 -0.08922147 0.10319604 -0.034470946 0.07367548
-0.0003043111 0.11402594 0.04633852 0.06026617 -0.10525415 -0.004688557 0.056499366 -0.05467678
0.124000356 -0.10325159 0.015649792 -0.09131911 -0.050774034 -0.042353865 0.16558875 0.102482066
0.07237316 -0.005363343 0.14340009 -0.10513535 0.015230881 -0.10077474 0.032962587 -0.09852508
0.028170811 0.06776201 0.00737911 -0.012232568 0.034906384 0.086572856 0.03777485 -0.066919416
0.027998818 -0.07116318 -0.07372658 0.013348273 -0.12568781 -0.14334513 -0.03090975 -0.11732185
0.03226414 0.05980157 -0.038731225 -0.05848873 -0.09513481 -0.16261369 -0.14208251 0.07528538
0.10198743 0.034492012 -0.15182978 -0.0244223 -0.0609473 -0.08550965 -0.08682264 -0.05954356
-0.049724445 -0.093196675 -0.074595615 -0.078996584 -0.02049529 -0.111297436 0.016712504 0.036467627
-0.02500021 -0.00012903675 -0.013787933 0.08133574 -0.15368839 0.049873736 -0.017423313 0.05701502
-0.014418837 -0.029433219 -0.02224035 -0.17513432 -0.16835824 -0.1233381 -0.13775548 0.08805942
0.06212551 0.070610054 0.0334943 0.025405744 0.071071394 -0.12638417 -0.043694228 0.0790269
0.0049939905 -0.004554884 0.1183458 0.024738548 -0.103495605 -0.13802049 -0.024445578 -0.04793748
0.04816496 -0.028659426 0.08679523 0.095860906 0.019676913 0.059796613 0.0020492566 -0.06692007
-0.13398437 0.11765898 -0.051104035 0.069084294 0.04659233 0.060782835 -0.049493667 0.05108642
0.06768868 -0.044242084 -0.004468805 0.07210657 0.04412942 0.083313756 0.05212039 -0.10238069
-0.09770503 0.069883764 -0.09091872 0.078724414 -0.024200493 0.015332523 0.054502126 0.10330586
-0.09767124 -0.08238054 0.10609673 0.02759295 -0.020185567 -0.038761888 0.053194575 0.031083487
-0.077323936 -0.030790767 0.03157819 0.061325647 0.027924469 0.013649276 -0.10781292 0.10936403
0.028283576 -0.07190939 0.11027809 0.05596646 -0.079316884 -0.0024396782 -0.13610297 -0.095043875
0.116449155 -0.069180354 0.11087841 0.047216874 -0.052154407 0.0869548 0.08055861 -0.07588524
0.08233645 0.07496873 0.021117315 0.08065602 -0.06122516 0.009373206 0.031876996 0.040686376
0.06227746 0.0723199 -0.12234303 0.13165885 0.107123114 0.012604661 0.08730858 0.11428651
0.047503185 0.03547477 -0.009872561 0.15987922 0.07408439 0.11567603 0.062500976 0.02698958
-0.044208765 0.10069158 0.061807655 -0.05185294 0.027653493 0.002988041 0.008067244 0.08456844
0.015571749 0.015234344 0.08250913 0.009876342 0.037768535 0.039119266 0.05546436 -0.018078899
-0.0908923 0.10483689 0.006630645 0.09361228 0.041254047 -0.026012842 -0.0039082137 0.00090763404
-0.0672409 -0.080335125 -0.070222825 0.049520932 0.10401457 -0.040864103 0.01906976 0.046620358
00000000: deed 4ebc 2b5d d53d ca00 363d 5897 d33d
00000010: 61b6 f0bc f18d 71bc b71b 5b3d e8c8 6fbd
00000020: 20df 513d f539 1fbd 19c1 0d3d df98 543d
00000030: 8f0a d6bd f8c6 d23d 8764 82bd 87c3 bb3c
00000040: 44e3 e73d 4bf3 913c 4fc5 ed3c e465 9c3d
00000050: 5a1c c23d 572d 0e3d ee25 31bd a11f f53b
00000060: e2bf 2f38 4813 abba 6ee8 53bd a8ae 1f3d
00000070: 9200 de3d 5486 cd3d f5e3 cf3c d9bd bd3d
00000080: d758 133e a11b adbc b199 073d ad14 72bd
00000090: bfb9 b6bd 7258 d33d 6831 0dbd 2ce3 963d
000000a0: f28b 9fb9 6f86 e93d 76cd 3d3d a9d9 763d
000000b0: 7d8f d7bd 77a2 99bb e16b 673d c2f4 5fbd
000000c0: e6f3 fd3d 9275 d3bd fe33 803c 8305 bbbd
000000d0: 6ff8 4fbd 3f7b 2dbd 1990 293e 1ee2 d13d
000000e0: 6138 943d fbbe afbb 79d7 123e 3451 d7bd
000000f0: f28a 793c fd62 cebd c703 073d 84c7 c9bd
00000100: 79c6 e63c cfc6 8a3d 76cc f13b 1c6b 48bc
00000110: fff9 0e3d 1c4d b13d cdb9 1a3d 0c0d 89bd
00000120: c75d e53c 00be 91bd f6fd 96bd b7b2 5a3c
00000130: 4eb4 00be 11c9 12be 7236 fdbc 7046 f0bd
00000140: 6727 043d 7ef2 743d a2a4 1ebd e191 6fbd
00000150: 0ad6 c2bd 3484 26be 147e 11be 392f 9a3d
00000160: c9de d03d 7f47 0d3d 4479 1bbe 4611 c8bc
00000170: e0a3 79bd af1f afbd 11d0 b1bd f3e3 73bd
00000180: dcab 4bbd e6dd bebd 96c5 98bd f6c8 a1bd
00000190: bde5 a7bc e9ef e3bd a9e8 883c 145f 153d
000001a0: 3ecd ccbc 0a4e 07b9 c8e6 61bc 5a93 a63d
000001b0: 7d60 1dbe 6748 4c3d 56bb 8ebc 9588 693d
000001c0: fc3c 6cbc ef1d f1bc 6531 b6bc 6956 33be
000001d0: 1a66 2cbe b098 fcbd c60f 0dbe 7f58 b43d
000001e0: 5277 7e3d 019c 903d 5231 093d b51f d03c
000001f0: e18d 913d da6a 01be b8f8 32bd dbd8 a13d
00000200: a1a4 a33b 2341 95bb 485f f23d 7fa8 ca3c
00000210: 81f5 d3bd 3e55 0dbe 1842 c8bc 175a 44bd
00000220: 9f48 453d 2cc7 eabc b3c1 b13d b952 c43d
00000230: 7a31 a13c 4bed 743d d24c 063b 640d 89bd
00000240: 3333 09be 31f7 f03d 7752 51bd 117c 8d3d
00000250: 99d7 3e3d 6cf7 783d dfb9 4abd fe3f 513d
00000260: 5da0 8a3d 3037 35bd 0e6f 92bb 9cac 933d
00000270: 0dc1 343d 67a0 aa3d 317c 553d f8ac d1bd
00000280: 9319 c8bd 381f 8f3d 9833 babd 443a a13d
00000290: 1d40 c6bc 4335 7b3c 9f3d 5f3d 0692 d33d
000002a0: dc07 c8bd 21b7 a8bd 3e49 d93d 9c0a e23c
000002b0: 345c a5bc c9c4 1ebd 8ee2 593d cca2 fe3c
000002c0: 035c 9ebd eb3c fcbc 2258 013d 9a30 7b3d
000002d0: dbc1 e43c 37a1 5f3c 05cd dcbd 40fa df3d
000002e0: f5b2 e73c 3b45 93bd 7bd9 e13d 163d 653d
000002f0: e470 a2bd 02e3 1fbb 945e 0bbe 5da6 c2bd
00000300: e57c ee3d 6eae 8dbd 3814 e33d 7b66 413d
00000310: dc9f 55bd 5c15 b23d eafb a43d b969 9bbd
00000320: 03a0 a83d 3589 993d 38fe ac3c fc2e a53d
00000330: 3cc7 7abd 1392 193c 7491 023d c2a6 263d
00000340: a616 7f3d 751c 943d fc8e fabd 94d1 063e
00000350: 5d63 db3d c883 4e3c d7ce b23d 0c0f ea3d
00000360: b392 423d fe4d 113d 86c0 21bc 61b7 233e
00000370: 8fb9 973d 8ee7 ec3d 8300 803d 4019 dd3c
00000380: 4014 35bd 6337 ce3d 062a 7d3d c063 54bd
00000390: 9489 e23c 02d3 433b 792c 043c 3832 ad3d
000003a0: a620 7f3c 7899 793c 8cfa a83d 61d0 213c
000003b0: 2eb3 1a3d 863b 203d 992e 633d 331a 94bc
000003c0: be25 babd b9b4 d63d e245 d93b ccb7 bf3d
000003d0: 01fa 283d e218 d5bc 7910 80bb 4aee 6d3a
000003e0: 99b5 89bd be86 a4bd fcd0 8fbd 76d6 4a3d
000003f0: 9705 d53d 1e61 27bd 2f38 9c3c fdf4 3e3d

node_function_neighbor.2.bias f4 [64]
0.03222873 -0.042014413 0.009619893 0.1253724 0.059162006 0.00020112956 -0.0853514 0.041089993
-0.07108888 -0.009383235 0.13523158 -0.039312486 0.022492751 -0.04693845 0.091742866 -0.055263694
-0.08425937 -0.11949381 -0.024079174 0.04993429 -0.05188051 0.037693724 -0.16328144 -0.09490719
0.13163835 -0.06077999 0.0073530367 0.09515233 -0.026366182 0.051689994 -0.08300921 0.09404901
-0.009276834 0.02856568 0.007090727 -0.08933847 0.058839317 -0.05275055 -0.034232203 -0.044761114
0.073855504 0.058582652 0.03307969 -0.028178053 0.0074323555 -0.043906275 -0.10372016 -0.048364397
-0.054067656 0.008818943 0.027190102 0.02123746 0.07246065 -0.0860971 0.025120929 0.073226884
-0.07989697 0.08393893 -0.003997413 0.02053389 -0.085639186 0.03048008 -0.02665658 -0.059562676
00000000: 4602 043d 4e17 2cbd c19c 1d3c 9f61 003e
00000010: dc53 723d 4ee6 5239 b7cc aebd fb4d 283d
00000020: 0c97 91bd 24bc 19bc 267a 0a3e 2106 21bd
00000030: b842 b83c 8842 40bd afe3 bb3d 2f5c 62bd
00000040: 2d90 acbd 2cb9 f4bd b041 c5bc e687 4c3d
00000050: a880 54bd bc64 1a3d 4033 27be b35e c2bd
00000060: 34cc 063e 70f4 78bd bef1 f03b 3adf c23d
00000070: e4fd d7bc e3b8 533d bc00 aabd c49c c03d
00000080: ddfd 17bc 9302 ea3c 5459 e83b 16f7 b6bd
00000090: 7f01 713d f610 58bd 1137 0cbd 6e57 37bd
000000a0: 8e41 973d 5df4 6f3d 927e 073d a9d5 e6bc
000000b0: 1e8b f33b 11d7 33bd 3c6b d4bd bf19 46bd
000000c0: 0c76 5dbd 547d 103c c7bd de3c 2ffa ad3c
000000d0: 4066 943d ad53 b0bd 68ca cd3c faf7 953d
000000e0: 06a1 a3bd 2ce8 ab3d bbfc 82bb b036 a83c
000000f0: 9963 afbd 5cb1 f93c e65e dabc fef7 73bd

node_function_neighbor.4.weight f4 [64, 64]
-0.14989647 -0.14209355 -0.043458927 -0.06679729 0.04523422 -0.13156079 0.064065576 -0.085448466
-0.07928132 0.029054692 -0.10929189 -0.049017716 -0.10241158 -0.08193604 -0.15537292 -0.049544062
-0.013334708 0.04057221 0.00781332 -0.14032556 0.05583366 -0.008336914 -0.051635705 0.050299738
-0.010897787 0.108343035 0.07829943 0.010498825 -0.0621285 0.033688355 0.059206184 0.01436995
0.044452973 -0.011117643 -0.15733458 -0.012163582 -0.071935885 0.06167342 0.022442615 0.01529016
-0.076713085 0.046595164 0.09230801 -0.0241305 0.063110314 0.047363255 0.06247642 -0.007943778
-0.078991435 0.025306176 -0.07394156 0.099376984 0.089109644 0.0072409264 -0.03225495 0.058531947
0.026915446 -0.045250654 0.0030955703 -0.036317527 -0.07168956 -0.08966811 -0.032544732 0.042053204
-0.03699415 0.006562002 -0.09310004 -0.12786113 -0.07862287 -0.0022935416 -0.088073246 0.08405789
0.010732403 -0.052934363 0.0858898 0.04229241 0.00013972819 -0.014523922 0.0767633 0.025674347
-0.0062178397 0.04988788 -0.0420084 0.086356126 0.063169375 -0.07472078 -0.06064959 -0.034880772
-0.08505569 -0.08383304 0.07997101 -0.024062455 0.048900075 -0.11238768 -0.022359865 -0.07130785
0.08442918 0.003421098 0.0061172037 0.053495258 -0.118690506 0.08643407 0.020664083 -0.120989814
-0.11705051 0.089486755 0.103839256 0.01352488 -0.017545065 0.06412749 0.005262573 -0.102952704
-0.11130877 -0.11002002 -0.06684847 -0.00702948 -0.03500329 -0.10980585 0.0028284192 -0.00027871478
-0.107275516 -0.12545826 0.038020886 -0.050886378 -0.052459795 -0.015918028 -0.11520333 -0.018439347
-0.055156745 -0.04404376 -0.116694555 0.09635283 0.0553621 0.028333794 0.068631485 -0.01272586
-0.03453064 0.049802534 -0.080660425 -0.06534615 0.015772685 0.003614377 -0.024395345 -0.049032684
0.06449229 -0.031887367 -0.08188297 -0.0013080996 -0.08874616 -0.101497285 -0.05484671 4.9581562e-05
-0.13193071 -0.068782195 -0.06605681 -0.09138859 -0.07644442 0.074713334 0.030571988 -0.09478802
0.061875522 0.11309595 0.045382913 -0.06596256 0.1167862 -0.11593042 -0.093147434 -0.0025879415
0.020141134 -0.15048064 -0.06529853 0.01724291 -0.010652753 0.003945532 0.06311155 0.057212345
-0.039559793 0.112538636 0.11603492 -0.1420833 0.06079167 -0.07427238 0.00083070993 0.0034984916
0.063420996 0.065824986 0.07984603 -0.052379996 -0.09481947 0.08124822 -0.13581334 -0.08173785
0.0599536 0.029862136 0.12365736 -0.09785196 0.024733067 -0.07871805 0.06973584 0.05438441
-0.1094864 0.022871137 0.09143464 -0.06320332 0.108673766 -0.054154605 0.03524846 -0.05624841
0.11419357 -0.04134421 0.07397543 0.024244204 -0.11684145 -0.0032364875 -0.014655113 -0.04876925
-0.011193752 0.0246775 -0.04334919 -0.05395399 -0.034225583 -0.107360765 0.08407821 -0.10736503
0.070093036 0.008724511 -0.103716806 -0.056803897 -0.08807099 -0.055255294 -0.057499528 -0.08441143
0.088761374 -0.028892472 -0.06479664 -0.07683869 0.088935435 0.06131801 0.08871026 -0.05495839
0.023886904 -0.053497106 -0.09746006 0.086577296 -0.064564556 0.021552607 0.12272419 0.11263144
-0.045250982 -0.016494647 -0.076811805 0.051759616 0.035026968 0.08368628 -0.063604355 -0.084196374
00000000: 767e 19be f980 11be fd01 32bd 05cd 88bd
00000010: 8447 393d dfb7 06be d034 833d 9bff aebd
00000020: 3f5e a2bd 1b04 ee3c 6dd4 dfbd cdc6 48bd
00000030: 2abd d1bd 15ce a7bd 141a 1fbe b7ee 4abd
00000040: d279 5abc 0c2f 263d 7003 003c 81b1 0fbe
00000050: d6b1 643d 8d97 08bc f67f 53bd 1907 4e3d
00000060: a28c 32bc f4e2 dd3d 745b a03d 4403 2c3c
00000070: 747a 7ebd cdfc 093d 2f82 723d f06f 6b3c
00000080: 5214 363d c626 36bc 511c 21be c349 47bc
00000090: 1f53 93bd 459d 7c3d 93d9 b73c 9483 7a3c
000000a0: c01b 9dbd 92da 3e3d fb0b bd3d 54ad c5bc
000000b0: fb3f 813d f9ff 413d 46e7 7f3d 9f26 02bc
000000c0: 43c6 a1bd e64e cf3c ac6e 97bd 2986 cb3d
000000d0: 1e7f b63d 4b45 ed3b c41d 04bd 32bf 6f3d
000000e0: c87d dc3c c058 39bd 0ddf 4a3b b0c1 14bd
000000f0: fad1 92bd eaa3 b7bd a04d 05bd fb3f 2c3d
00000100: 2e87 17bd 1006 d73b 3cab bebd 07ee 02be
00000110: 0705 a1bd 3e4f 16bb bf5f b4bd 8b26 ac3d
00000120: f6d6 2f3c b4d1 58bd fee6 af3d ce3a 2d3d
00000130: 0084 1239 bef5 6dbc 1436 9d3d 0253 d23c
00000140: 05bf cbbb 3c57 4c3d 0011 2cbd 7bdb b03d
00000150: f25e 813d 3507 99bd b46b 78bd 24df 0ebd
00000160: ad31 aebd a8b0 abbd d7c7 a33d a01e c5bc
00000170: 724b 483d 832b e6bd 092c b7bc da09 92bd
00000180: 35e9 ac3d 8034 603b d372 c83b d81d 5b3d
00000190: 0214 f3bd 5804 b13d b947 a93c 82c9 f7bd
000001a0: 2eb8 efbd d544 b73d ada9 d43d 7597 5d3c
000001b0: abba 8fbc 4655 833d a971 ac3b ded8 d2bd
000001c0: daf5 e3bd 2d52 e1bd dae7 88bd 8d57 e6bb
000001d0: 9c5f 0fbd e4e1 e0bd 005d 393b 7720 92b9
000001e0: 44b3 dbbd 2178 00be cabb 1b3d 3c6e 50bd
000001f0: 15e0 56bd 8666 82bc b9ef ebbd 1d0e 97bc
00000200: 0aec 61bd 3b67 34bd 8efd eebd a254 c53d
00000210: 5fc3 623d 461c e83c aa8e 8c3d 2080 50bc
00000220: 0070 0dbd befd 4b3d 4b31 a5bd 34d4 85bd
00000230: b835 813c 2fdf 6c3b bfd8 c7bc 7fd6 48bd
00000240: 8914 843d 549c 02bd 42b2 a7bd 8a74 abba
00000250: 8cc0 b5bd cfdd cfbd f2a6 60bd ccf5 4f38
00000260: d818 07be aedd 8cbd cb48 87bd f129 bbbd
00000270: e48e 9cbd 4e03 993d 1b72 fa3c 3920 c2bd
00000280: 3071 7d3d d99e e73d 6fe3 393d 6117 87bd
00000290: 9a2d ef3d ee6c edbd 15c4 bebd 749a 29bb
000002a0: 05ff a43c 9917 1abe 3cbb 85bd 0141 8d3c
000002b0: e288 2ebc 8549 813b a140 813d 7e57 6a3d
000002c0: 7309 22bd a87a e63d b7a3 ed3d 497e 11be
000002d0: b000 793d 1e1c 98bd 00c4 593a f346 653b
000002e0: dee2 813d 40cf 863d 5186 a33d 688c 56bd
000002f0: b630 c2bd 7765 a63d a712 0bbe 2d66 a7bd
00000300: e891 753d 70a1 f43c 1240 fd3d 9c66 c8bd
00000310: 009d ca3c ee36 a1bd aad1 8e3d 30c2 5e3d
00000320: 683a e0bd 405c bb3c 1642 bb3d be70 81bd
00000330: 5a90 de3d 38d1 5dbd b060 103d bc64 66bd
00000340: 52de e93d 8c58 29bd 6e80 973d c89b c63c
00000350: 924a efbd 401b 54bb 001c 70bc 44c2 47bd
00000360: 0066 37bc 7828 ca3c ec8e 31bd dcfe 5cbd
00000370: 2030 0cbd f6df dbbd 3231 ac3d 32e2 dbbd
00000380: f08c 8f3d 40f1 0e3c 7a69 d4bd 34ab 68bd
00000390: 905e b4bd 6053 62bd a084 6bbd e6df acbd
000003a0: 86c8 b53d e8af ecbc 1ab4 84bd 9a5d 9dbd
000003b0: c823 b63d 9828 7b3d baad b53d 0c1c 61bd
000003c0: 78ae c33c c81f 5bbd 2499 c7bd 704f b13d
000003d0: 6c3a 84bd 188f b03c d256 fb3d 50ab e63d
000003e0: 1859 39bd c81f 87bc 824f 9dbd e401 543d
000003f0: 7078 0f3d b663 ab3d 0043 82bd 266f acbd

node_function_neighbor.4.bias f4 [64]
0.028924048 0.004405982 -0.02438108 0.009135932 0.057140887 -0.040119957 -0.07494646 -0.055602107
0.015025482 -0.04428689 0.13123798 -0.13161787 -0.026853262 -0.004332605 0.050231084 -0.055098582
-0.093081824 -0.038958985 -0.017364815 0.09294134 0.09095347 0.16232122 -0.0028176368 0.051959366
-0.04627617 -0.0667786 0.100600995 0.0069043757 -0.12785245 0.07480579 0.06560231 -0.0030566582
-0.093210265 -0.07142536 0.039383586 -0.005757004 -0.07245883 0.04970925 0.008689126 -0.12101246
-0.0986045 -0.08940146 0.14999221 -0.07973767 0.08961112 0.14045288 0.13069086 0.031215403
-0.113541305 0.043515667 0.1016006 -0.058996975 -0.045795187 0.031246334 -0.16440177 0.15518571
-0.13382265 0.10681947 -0.03397791 -0.13963117 0.071784936 0.07312818 -0.14724427 0.0151699465
00000000: 20f2 ec3c 0e60 903b d5ba c7bc e0ae 153c
00000010: 900c 6a3d d354 24bd 887d 99bd 09bf 63bd
00000020: 702d 763c 2c66 35bd 4063 063e d6c6 06be
00000030: 5ffb dbbc 86f8 8dbb 1cbf 4d3d 0daf 61bd
00000040: afa1 bebd 7593 1fbd a840 8ebc 0758 be3d
00000050: d045 ba3d 8937 263e 1aa8 38bb 58d3 543d
00000060: 158c 3dbd 38c3 88bd e507 ce3d 1a3e e23b
00000070: c1eb 02be c733 993d 815a 863d 3752 48bb
00000080: 06e5 bebd 7647 92bd af50 213d 40a5 bcbb
00000090: 4c65 94bd ed9b 4b3d d65c 0e3c 61d5 f7bd
000000a0: 28f1 c9bd 1d18 b7bd 8f97 193e 814d a3bd
000000b0: 0986 b73d e1d2 0f3e d3d3 053e 72b7 ff3c
000000c0: 5888 e8bd 7c3d 323d fa13 d03d d0a6 71bd
000000d0: bc93 3bbd 50f8 ff3c f058 28be 01e9 1e3e
000000e0: ce08 09be 2bc4 da3d 6c2c 0bbd 79fb 0ebe
000000f0: fb03 933d 3ac4 953d 34c7 16be 5e8b 783c

node_function_neighbor.6.weight f4 [4, 64]
-0.06604336 0.02126751 -0.0853015 -0.10600613 -0.043106403 -0.008388747 0.0608151 0.05358108
0.022829026 0.03702418 0.009459992 0.04791234 0.073899366 0.093716875 0.048937533 -0.029229902
-0.008340353 0.11206286 0.09239461 -0.020195879 -0.06228664 0.08816606 -0.07917557 -0.064870216
0.10928627 -0.0052685565 0.01426713 0.09424545 0.13731079 -0.070263304 0.14616135 0.04960421
-0.045974784 0.12496306 0.03595829 -0.08399059 0.04524373 0.06154946 0.081031695 -0.06493832
-0.039061766 0.043746624 -0.16739394 -0.021814957 0.05638072 0.112678014 0.1354866 -0.06680596
0.017726777 0.11517521 -0.037187405 -0.22476326 -0.010999758 0.05454591 0.088615924 0.09475713
0.022012908 0.01632375 0.12342827 -0.070086405 -0.011151586 0.07591594 -0.0011311527 0.03909113
-0.080918305 0.031071175 0.09780528 0.0018069595 -0.065850824 0.022134397 0.020291595 -0.014541886
0.05203326 0.11038813 0.007009611 -0.08303495 0.06860918 -0.015050457 0.054549877 0.040279876
0.12011412 -0.010442824 -0.046471022 -0.040202323 0.10330359 0.09461967 -0.021316571 0.062331032
0.09644879 0.018857403 0.034421403 0.057805996 0.023931138 -0.04880596 -0.03473422 -0.10389333
0.04825608 0.08824958 0.08515337 -0.016928256 0.009771382 -0.04823463 0.07339403 -0.038827214
-0.041828323 0.023549968 0.01975977 0.021392707 0.057071254 0.10844879 0.101007015 0.12581404
0.03748315 -0.06535258 0.12632948 -0.12187303 -0.017555293 -0.04608071 -0.04062814 0.07146406
0.010533696 0.09289599 -0.06837757 0.050446488 0.049695645 0.09295867 -0.07159288 0.02100728
0.032657996 0.06642355 0.06463728 -0.10342814 -0.09534104 -0.0774395 -0.06627887 0.04913465
0.09850061 -0.08475757 -0.028518748 0.02947487 0.019819766 -0.025329933 -0.08672403 -0.0998956
-0.066390015 0.0017419896 0.035534684 0.039658442 -0.008394161 -0.039812896 0.073895365 0.038180344
-0.099790044 0.062076923 -0.12300546 -0.0029915185 -0.0399778 0.03673763 -0.13597314 -0.030514007
-0.013673249 0.04225436 -0.09590321 -0.09042171 -0.023138912 -0.08019918 0.01465272 -0.1156535
-0.10466461 -0.005463906 -0.121263765 0.011418502 -0.12548542 -0.09369656 -0.056580156 -0.10596086
-0.01629534 -0.113273375 0.04148066 -0.064152606 -0.12031869 0.073577866 0.08045916 0.018874854
0.00062372576 -0.08209419 0.072471574 -0.08614087 -0.046485644 0.084367916 0.058514096 -0.15575619
-0.098055325 0.02064936 0.021552408 0.11126049 -0.04989761 -0.031041823 0.06758815 -0.0019530611
-0.0948264 -0.07821846 0.04716243 -0.07490884 0.07685354 -0.065006346 -0.06693117 0.08840183
0.04620362 -0.035234455 0.11038226 0.090994015 0.0448016 0.09413082 -0.1278219 -0.0067718527
0.07544738 0.03330817 0.038643472 0.10100702 -0.07651959 -0.094869986 -0.017233236 0.07243015
0.10868288 -0.010161385 -0.044534076 -0.028421775 0.013548051 0.026820833 0.047426328 0.017801678
-0.011162198 0.0873708 0.07528269 -0.045565914 0.04382737 0.088929825 -0.0639294 -0.030508798
0.046954926 -0.07643639 0.13475487 -0.13376307 -0.0099413125 -0.11186512 -0.1079526 0.08761704
0.058360152 0.050824046 -0.11140557 -0.13897218 0.12538157 -0.052624494 -0.12507005 0.07428355
00000000: be41 87bd 3339 ae3c 8eb2 aebd be19 d9bd
00000010: 5790 30bd f570 09bc 4119 793d d677 5b3d
00000020: f003 bb3c aba6 173d 15fe 1a3c bb3f 443d
00000030: 8d58 973d a2ee bf3d b972 483d 8c73 efbc
00000040: faa5 08bc 3681 e53d 6339 bd3d d471 a5bc
00000050: 4720 7fbd 6890 b43d cd26 a2bd adda 84bd
00000060: 7bd1 df3d dba3 acbb aec0 693c c203 c13d
00000070: 339b 0c3e 35e6 8fbd 52ab 153e c92d 4b3d
00000080: 0e50 3cbd a2ec ff3d 0049 133d 4203 acbd
00000090: 7d51 393d 491b 7c3d f2f3 a53d 62fe 84bd
000000a0: 3bff 1fbd a92f 333d 5169 2bbe 48b5 b2bc
000000b0: 78ef 663d bbc3 e63d 00bd 0a3e 90d1 88bd
000000c0: bf37 913c fbe0 eb3d d251 18bd 5728 66be
000000d0: 5438 34bc 886b 5f3d 447c b53d 0710 c23d
000000e0: 6a54 b43c 63b9 853c f6c7 fc3d 7689 8fbd
000000f0: 24b5 36bc d179 9b3d 3043 94ba 051e 203d
00000100: 7fb8 a5bd fa88 fe3c 224e c83d 80d7 ec3a
00000110: ccdc 86bd 3253 b53c 8f3a a63c 1741 6ebc
00000120: d420 553d 2c13 e23d e1b0 e53b 3a0e aabd
00000130: f882 8c3d 3196 76bc b16f 5f3d 83fc 243d
00000140: 64fe f53d 6118 2bbc 6658 3ebd 31ab 24bd
00000150: d590 d33d f5c7 c13d 17a0 aebc d34e 7f3d
00000160: f186 c53d d77a 9a3c 75fd 0c3d fbc5 6c3d
00000170: 3c0b c43c c2e8 47bd 7845 0ebd 07c6 d4bd
00000180: 2ba8 453d 32bc b43d e464 ae3d 20ad 8abc
00000190: 2618 203c ad91 45bd 9c4f 963d 4909 1fbd
000001a0: 2d54 2bbd ddeb c03c 3edf a13c c23f af3c
000001b0: 8cc3 693d 661a de3d c4dc ce3d 65d5 003e
000001c0: ee87 193d 93d7 85bd 845c 013e 9198 f9bd
000001d0: 1ed0 8fbc 20bf 3cbd b169 26bd c05b 923d
000001e0: 8695 2c3c 4140 be3d 8a09 8cbd faa0 4e3d
000001f0: a98d 4b3d 1d61 be3d 4a9f 92bd 7617 ac3c
00000200: 64c4 053d 1209 883d 8d60 843d 22d2 d3bd
00000210: 2a42 c3bd 9a98 9ebd 37bd 87bd 6a41 493d
00000220: b0ba c93d 6095 adbd 26a0 e9bc 4875 f13c
00000230: 105d a23c b880 cfbc 5e9c b1bd 1096 ccbd
00000240: 7df7 87bd 7953 e43a d18c 113d e470 223d
00000250: aa87 09bc d912 23bd 7456 973d fe62 1c3d
00000260: b95e ccbd 5f44 7e3d 49ea fbbd 5a0d 44bb
00000270: c3bf 23bd 327a 163d 8b3c 0bbe 83f8 f9bc
00000280: c305 60bc e812 2d3d e768 c4bd 042f b9bd
00000290: d18d bdbc 783f a4bd f611 703c bedb ecbd
000002a0: 665a d6bd 910a b3bb 2359 f8bd ab14 3b3c
000002b0: 407f 00be fbe3 bfbd 98c0 67bd 0202 d9bd
000002c0: ce7d 85bc dffb e7bd a0e7 293d 7162 83bd
000002d0: a569 f6bd feaf 963d c6c7 a43d 709f 9a3c
000002e0: 8781 233a 0021 a8bd fa6b 943d a06a b0bd
000002f0: bb67 3ebd 16c9 ac3d 7aac 6f3d 8d7e 1fbe
00000300: 3bd1 c8bd d928 a93c ad8e b03c 8adc e33d
00000310: 7061 4cbd 6c4b febc a86b 8a3d dbfd ffba
00000320: 5834 c2bd 0031 a0bd 642d 413d ce69 99bd
00000330: 6465 9d3d 0c22 85bd 3613 89bd 050c b53d
00000340: 0240 3d3d 0152 10bd 1810 e23d 125b ba3d
00000350: e281 373d a9c7 c03d bfe3 02be 6be6 ddbb
00000360: 2884 9a3d 266e 083d 9e48 1e3d c5dc ce3d
00000370: 4eb6 9cbd 324b c2bd b72c 8dbc 4256 943d
00000380: 2195 de3d f07b 26bc 5d69 36bd c8d4 e8bc
00000390: a5f8 5d3c 5db7 db3c 1c42 423d d3d4 913c
000003a0: a7e1 36bc 76ef b23d d02d 9a3d 53a3 3abd
000003b0: 5484 333d d720 b63d 6bed 82bd 96ed f9bc
000003c0: cf53 403d af8a 9cbd 2efd 093e 30f9 08be
000003d0: e3e0 22bc 8a19 e5bd 4116 ddbd 9070 b33d
000003e0: 0e0b 6f3d e02c 503d 9a28 e4bd b94e 0ebe
000003f0: 0764 003e c88c 57bd 5d12 00be f921 983d

node_function_neighbor.6.bias f4 [4]
0.048701275 -0.046931762 0.021660496 0.043727618
00000000: fd7a 473d 853b 40bd 5a71 b13c bb1b 333d

edge_function.0.weight f4 [64, 4]
0.31470895 -0.2590293 -0.32383484 -0.036850445 -0.11331513 0.27175063 -0.37814686 -0.25073007
-0.08612776 0.41528767 0.02664079 -0.13901879 0.39594543 0.45231527 -0.19004112 -0.05685675
-0.12415484 -0.056888286 0.26351234 -0.24136199 0.48817548 0.16241671 -0.20569478 0.0756561
0.3865884 -0.37026885 0.43490776 -0.34980756 -0.28227457 -0.4435168 -0.31589928 0.384921
0.025175845 -0.22090667 0.33764735 -0.12933841 0.019057594 -0.41623494 0.3444099 -0.39576456
-0.12515663 0.32157195 0.039312262 0.15411147 0.43436638 -0.3053921 0.4667606 -0.17936987
-0.2920804 0.47232684 -0.2719243 -0.33701614 0.41979063 -0.16978866 -0.3708235 0.030598404
0.33981395 -0.017168596 0.101207726 -0.40898138 -0.11395191 -0.21723486 -0.12278698 0.24878868
-0.18967672 -0.3308771 -0.256391 0.041887652 -0.1411386 -0.115543365 0.17735828 -0.30041504
-0.42780402 -0.34541652 0.031276166 0.054674163 0.023941446 0.17794862 -0.011183522 -0.37849703
-0.39329314 -0.2711833 0.314982 -0.18440136 -0.34973997 0.3273897 -0.23392037 0.42703828
-0.36091188 0.32173505 0.381405 0.24340734 0.33782786 0.37142843 -0.21302444 -0.16745672
-0.29708695 0.32510984 -0.36486697 -0.39823297 0.18211593 0.3960482 0.037007723 0.37515756
-0.055248883 -0.07744597 -0.16415803 -0.0793362 -0.27561313 0.17317775 -0.2794272 0.09241933
-0.3845556 -0.23055135 -0.22716954 -0.31291935 0.33803675 -0.1236697 0.23533745 0.37166765
0.16442958 -0.5004651 -0.31098706 -0.3719162 -0.00016506066 0.060354866 -0.060453158 0.09417351
0.3243834 0.32259092 -0.2763494 -0.3056989 -0.017155997 -0.11577284 -0.039062917 -0.025109192
0.22214684 -0.120343335 0.25757593 0.18931185 0.29559496 -0.046140127 -0.067386806 0.27387977
0.28118044 -0.037003122 -0.047711916 0.06680561 0.041066553 -0.1571095 0.0869218 0.1807784
-0.054619282 -0.1677642 -0.20198208 -0.25827163 0.4267802 0.37371022 0.42626324 -0.056111366
-0.26844785 -0.013764676 -0.42091963 -0.13538167 -0.050632287 -0.046135914 -0.049988844 -0.027333675
0.35489863 0.41468433 -0.27945727 -0.0030897574 -0.4504125 0.052147318 -0.15423249 0.05767535
0.29482964 -0.28843617 -0.0016529262 -0.3379192 -0.43544155 -0.042534888 -0.20259699 0.10785299
-0.28590047 -0.36254144 0.14258896 -0.3337693 0.08860232 0.25321296 0.24342796 0.42494804
-0.49437392 -0.3325664 0.4260771 -0.030643428 0.21438855 0.018515265 -0.2599543 -0.34683254
0.003873805 0.2929527 -0.45915416 0.05681825 0.39711004 -0.08065102 -0.15206414 -0.23891877
-0.35214114 -0.13230206 -0.3677341 0.20735657 -0.23756811 0.34458497 -0.20671062 0.33072436
-0.18688516 0.4702709 0.46622157 0.2096921 0.1871411 0.16614775 0.054806706 0.006185409
0.3617293 -0.3146452 -0.4400178 0.22243655 -0.30211574 -0.16772822 0.11226076 0.17464817
-0.37299562 0.23342885 -0.22578622 -0.25632718 -0.3146498 0.07798708 -0.24608177 0.49260026
0.47061476 -0.27491766 0.035667118 0.078499496 -0.27144298 0.25695655 0.2780353 -0.062176213
0.3188129 -0.23385549 -0.10027227 -0.27788278 -0.025816673 0.034072887 0.07004999 -0.0063581923
00000000: 8821 a13e 7d9f 84be aecd a5be 7ef0 16bd
00000010: c311 e8bd e622 8b3e 779c c1be b15f 80be
00000020: c063 b0bd 96a0 d43e c93d da3c f15a 0ebe
00000030: 5cb9 ca3e de95 e73e 249a 42be a0e2 68bd
00000040: e544 febd b103 69bd 17eb 863e 9927 77be
00000050: 23f2 f93e 9150 263e a7a1 52be 96f1 9a3d
00000060: eaee c53e e193 bdbe 3bac de3e fa19 b3be
00000070: 4b86 90be a214 e3be 8dbd a1be 5e14 c53e
00000080: 933d ce3c 5c35 62be 1de0 ac3e 4a71 04be
00000090: ac1e 9c3c bf1c d5be 7f56 b03e a7a1 cabe
000000a0: 0f29 00be 14a5 a43e e505 213d 66cf 1d3e
000000b0: 4565 de3e 5a5c 9cbe 3ffb ee3e bcac 37be
000000c0: 908b 95be d3d4 f13e a939 8bbe 618d acbe
000000d0: ccee d63e 14dd 2dbe 94dc bdbe 81a9 fa3c
000000e0: 18fc ad3e 28a5 8cbc ff45 cf3d 0266 d1be
000000f0: 9e5f e9bd d172 5ebe bd77 fbbd 76c2 7e3e
00000100: 9d3a 42be b968 a9be ae45 83be 6392 2b3d
00000110: a386 10be 00a2 ecbd 699d 353e 00d0 99be
00000120: 2109 dbbe 6fda b0be 701b 003d 04f2 5f3d
00000130: da20 c43c 2a38 363e 173b 37bc 5dca c1be
00000140: b85d c9be 8ad8 8abe 5245 a13e b6d3 3cbe
00000150: 1e11 b3be 9f9f a73e d288 6fbe c3a4 da3e
00000160: 71c9 b8be 75ba a43e 8447 c33e c63f 793e
00000170: c6f7 ac3e de2b be3e 1423 5abe c679 2bbe
00000180: c81b 98be cc74 a63e d8cf babe 31e5 cbbe
00000190: 997c 3a3e d4c6 ca3e 6995 173d a714 c03e
000001a0: a74c 62bd fe9b 9ebd 0b19 28be 057b a2bd
000001b0: 2a1d 8dbe 8255 313e 1511 8fbe 5846 bd3d
000001c0: 79e4 c4be a715 6cbe 229f 68be f736 a0be
000001d0: 2713 ad3e 8a46 fdbd 4dfc 703e 394b be3e
000001e0: 3a60 283e 7b1e 00bf b239 9fbe cd6b bebe
000001f0: 2214 2db9 aa36 773d bb9d 77bd 0bde c03d
00000200: 9515 a63e a32a a53e ab7d 8dbe 9184 9cbe
00000210: bc8a 8cbc 501a edbd 7000 20bd cbb1 cdbc
00000220: 767a 633e 9176 f6bd fee0 833e f7da 413e
00000230: 3958 973e 6efd 3cbd 1802 8abd f839 8c3e
00000240: e2f6 8f3e 9690 17bd 926d 43bd 61d1 883d
00000250: 6735 283d 50e1 20be 0f04 b23d f91d 393e
00000260: 78b8 5fbd 61ca 2bbe 64d4 4ebe 2e3c 84be
00000270: ef82 da3e f256 bf3e 2d3f da3e 08d5 65bd
00000280: ff71 89be 3c85 61bc c782 d7be 7ea1 0abe
00000290: cd63 4fbd 03f9 3cbd 1ac1 4cbd dfea dfbc
000002a0: 46b5 b53e 8151 d43e 0615 8fbe 877d 4abb
000002b0: 789c e6be 6d98 553d 1fef 1dbe fd3c 6c3d
000002c0: e9f3 963e e8ad 93be 00a7 d8ba bf03 adbe
000002d0: 32f2 debe 1039 2ebd 9675 4fbe 07e2 dc3d
000002e0: 8c61 92be 089f b9be d702 123e cfe3 aabe
000002f0: 2275 b53d 21a5 813e 2e45 793e ca92 d93e
00000300: 941e fdbe 2546 aabe c726 da3e ed07 fbbc
00000310: ac88 5b3e 53ad 973c bb18 85be 0994 b1be
00000320: aadf 7d3b e5fd 953e 4116 ebbe 41ba 683d
00000330: 0252 cb3e 5d2c a5bd b4b6 1bbe 1fa7 74be
00000340: d84b b4be 317a 07be a547 bcbe 4855 543e
00000350: 0e45 73be 716d b03e f3ab 53be b454 a93e
00000360: d35e 3fbe 59c7 f03e 98b4 ee3e 87b9 563e
00000370: eba1 3f3e a322 2a3e ff7c 603d f9ae ca3b
00000380: 9534 b93e 2d19 a1be 034a e1be 68c6 633e
00000390: eaae 9abe f2c0 2bbe f8e8 e53d f8d6 323e
000003a0: 48f9 bebe f907 6f3e 8134 67be 513d 83be
000003b0: c719 a1be b1b7 9f3d dcfc 7bbe 1a36 fc3e
000003c0: 6bf4 f03e 02c2 8cbe af17 123d 58c4 a03d
000003d0: 93fa 8abe cf8f 833e a55a 8e3e 7cac 7ebd
000003e0: 723b a33e d077 6fbe 8c5b cdbd a746 8ebe
000003f0: 7d7d d3bc 0390 0b3d 5f76 8f3d 6258 d0bb

edge_function.0.bias f4 [64]
-0.25014472 -0.14151593 0.025445146 0.23974933 0.33085287 0.4956951 0.20830244 0.20609523
-0.22750612 0.07319527 -0.2654391 -0.5149973 0.3076304 0.24433686 0.12896353 0.37147394
0.13097124 0.2649153 0.005295742 0.18877009 -0.40771043 0.4103093 -0.030741107 0.45133504
-0.24549954 0.18959194 0.08346478 0.260546 0.33064622 -0.05619619 -0.33140442 0.49092707
0.22921962 0.018036742 0.54472053 -0.46511364 0.20494504 0.3969784 -0.29805154 -0.42546764
0.2697579 0.30200574 -0.3089931 0.035991527 0.28586736 -0.21904095 0.006549493 0.55367255
-0.012684458 0.1686814 0.032243144 -0.25373077 0.17992668 0.24401851 0.06395906 0.4825611
0.05430733 0.4199139 -0.5074621 0.31915137 -0.08815552 0.1890612 -0.23148048 -0.174737
00000000: f812 80be 8de9 10be 5772 d03c d980 753e
00000010: 8c65 a93e c0cb fd3e 3c4d 553e a10a 533e
00000020: 5df7 68be 67e7 953d a2e7 87be ddd6 03bf
00000030: bb81 9d3e 7133 7a3e 040f 043e d531 be3e
00000040: 531d 063e faa2 873e e787 ad3b f24c 413e
00000050: 6cbf d0be 1014 d23e c6d4 fbbc 6315 e73e
00000060: 3b64 7bbe 6424 423e 95ef aa3d 4966 853e
00000070: 764a a93e fa2d 66bd d7ad a9be cb5a fb3e
00000080: 8cb8 6a3e cac1 933c ce72 0b3f 6023 eebe
00000090: 1ddd 513e c140 cb3e 369a 98be e5d6 d9be
000000a0: b51d 8a3e 7fa0 9a3e 5834 9ebe da6b 133d
000000b0: 355d 923e 454c 60be 219d d63b 7cbd 0d3f
000000c0: 79d2 4fbc d1ba 2c3e 6311 043d 00e9 81be
000000d0: b33e 383e fddf 793e f8fc 823d 4012 f73e
000000e0: 5d71 5e3d f4fe d63e 09e9 01bf cf67 a33e
000000f0: e28a b4bd 4299 413e 3809 6dbe 42ee 32be

edge_function.2.weight f4 [64, 64]
-0.041761972 -0.022074435 -0.13334464 -0.017830288 -0.017461829 -0.091125116 -0.006383801 0.056249257
-0.07281492 -0.13292618 0.032387923 -0.0006500302 0.081425816 0.039909165 0.08097877 -0.06251315
-0.07951792 -0.04229751 0.07026472 -0.09355758 -0.09622302 -0.03583869 -0.018345183 0.079405166
-0.05245104 -0.011977131 -0.0721306 -0.06399471 0.056856252 0.095897734 -0.018370416 0.053676583
0.060448725 -0.07079075 0.112071715 -0.07803134 0.1149651 0.12157078 -0.15137629 -0.017771512
-0.08033685 -0.008276292 0.11351017 -0.11579591 -0.10322185 -0.02458284 -0.12868045 -0.06220108
-0.10881304 -0.036380522 -0.007381543 -0.042500753 -0.039904855 0.053580675 -0.013657813 -0.07099844
0.06316119 -0.082352884 0.055902224 0.11451404 -0.10808758 -0.0072801835 0.10807981 0.012653987
0.029328043 -0.05192062 0.0002703815 -0.021660924 -0.08812519 0.09537052 -0.10419254 -0.073105894
0.05028029 0.0061256965 -0.11880989 -0.07830737 -0.07914313 0.059963293 0.057460234 0.12343605
0.06505071 -0.029528784 0.002794893 -0.06065746 0.032876555 0.06639977 -0.10645316 0.068950176
-0.09385564 -0.05125625 -0.159012 0.1048243 -0.0704792 0.12902243 0.014442365 0.08655303
-0.10158015 -0.016591448 0.078560516 -0.016451253 -0.046844758 0.06369783 0.06940057 0.020651162
-0.114392914 -0.14766183 0.072025195 0.015599335 0.10842399 0.044127475 -0.095650785 0.02814191
0.04739598 0.09024474 -0.011343823 0.0016421374 -0.0036025103 0.03526907 -0.0020517344 0.10331948
0.12621586 -0.09539816 -0.09467264 -0.022741828 0.00649004 0.01067001 0.07340519 -0.02714637
0.09018471 0.05807062 0.026843209 -0.049930535 -0.030612346 -0.13164057 -0.071557246 -0.040659312
0.049185984 0.007287557 -0.14720443 0.034564123 -0.062079705 0.08317159 0.09280355 0.07506338
-0.16987167 0.0646679 -0.10801011 0.019299414 -0.00045259105 -0.08362749 0.027730092 -0.08732249
-0.10040439 -0.08099861 0.09570965 -0.092638806 -0.12276365 -0.073996365 0.015767725 0.03894369
0.044792343 -0.123447016 -0.026303278 0.032034665 0.09970697 0.018510927 0.030556666 -0.07523379
0.008225908 0.0049935644 -0.029309785 -0.13233954 -0.035237707 -0.10034877 -0.06508346 0.018549671
-0.14365377 0.110332415 -0.036977466 0.06274883 -0.039292015 -0.0052033328 -0.10335875 -0.06317114
-0.049500093 -0.07524043 0.070998594 0.05416087 -0.08117177 0.03077334 0.062308602 0.003167706
-0.022014262 -0.09317277 -0.08984063 0.013455473 -0.14946704 0.092687115 0.061890513 -0.01752602
0.019695943 -0.047082964 -0.06496552 0.07664547 -0.12948884 -0.10511967 0.061868668 0.08950869
0.041700773 -0.11105008 -0.082150996 -0.11467171 -0.058685407 -0.047165304 0.06640702 0.10015543
-0.13431789 -0.030138727 0.040655814 0.09370071 0.06293377 0.027497863 -0.07790788 0.06957586
-0.072501026 -0.04405105 -0.018301796 0.014617074 -0.12821843 0.045522682 0.048043583 -0.013849184
0.025341844 0.018083835 -0.039856985 0.079859816 0.065379255 -0.04574022 -0.115305156 0.071024776
-0.07723053 -0.12367747 -0.15823969 0.016278172 -0.019254865 -0.01597364 0.09413801 0.0753751
0.07671019 0.07017666 -0.098514795 -0.106932506 0.002936928 -0.08064032 -0.06903651 -0.12357384
00000000: 9a0e 2bbd 72d5 b4bc 7f8b 08be d310 92bc
00000010: 1c0c 8fbc ce9f babd 342f d1bb 9f65 663d
00000020: fd1f 95bd cd1d 08be 33a9 043d ca66 2aba
00000030: 94c2 a63d cb77 233d 33d8 a53d e506 80bd
00000040: 4bda a2bd 2740 2dbd f3e6 8f3d 1e9b bfbd
00000050: 9310 c5bd 97cb 12bd a348 96bc 2d9f a23d
00000060: e7d6 56bd ba3b 44bc 35b9 93bd a90f 83bd
00000070: 1ae2 683d 0866 c43d 8e7d 96bc fadb 5b3d
00000080: 1599 773d befa 90bd db85 e53d e5ce 9fbd
00000090: d372 eb3d 1afa f83d 6302 1bbe 9095 91bc
000000a0: a587 a4bd 4999 07bc 0578 e83d 6826 edbd
000000b0: fa65 d3bd f461 c9bc cfc4 03be 8fc6 7ebd
000000c0: 5fd9 debd be03 15bd dfe0 f1bb 4515 2ebd
000000d0: 4673 23bd 6977 5b3d 05c5 5fbc a167 91bd
000000e0: a75a 813d a1a8 a8bd bbf9 643d 5686 ea3d
000000f0: 055d ddbd 9b8e eebb f358 dd3d ab52 4f3c
00000100: 5d41 f03c b7aa 54bd fec1 8d39 4072 b1bc
00000110: fb7a b4bd 9f51 c33d e662 d5bd 8bb8 95bd
00000120: b5f2 4d3d 11ba c83b 9952 f3bd 9d5f a0bd
00000130: cb15 a2bd 129c 753d 6c5b 6b3d 0acc fc3d
00000140: 4f39 853d 59e6 f1bc 862a 373b f573 78bd
00000150: 91a9 063d 9afc 873d 1d04 dabd c035 8d3d
00000160: 6337 c0bd 13f2 51bd 0bd4 22be 1fae d63d
00000170: 6657 90bd 751e 043e ab9f 6c3c b742 b13d
00000180: 4109 d0bd caea 87bc 56e4 a03d c7c4 86bc
00000190: 4ae0 3fbd 0274 823d e321 8e3d a02c a93c
000001a0: d546 eabd aa34 17be f281 933d 5a94 7f3c
000001b0: 660d de3d 03bf 343d 8fe4 c3bd dd89 e63c
000001c0: 4a22 423d 3cd2 b83d 71db 39bc fd3c d73a
000001d0: 1818 6cbb 4d76 103d 6476 06bb 2a99 d33d
000001e0: bb3e 013e 1c60 c3bd bbe3 c1bd 124d babc
000001f0: 67aa d43b 44d1 2e3c 7655 963d 1062 debc
00000200: c3b2 b83d 75db 6d3d 4ae6 db3c f683 4cbd
00000210: bec6 fabc c9cc 06be 9b8c 92bd 618a 26bd
00000220: 3e77 493d 75cc ee3b c2bc 16be 1c93 0d3d
00000230: 4a47 7ebd de55 aa3d ca0f be3d d4ba 993d
00000240: d7f2 2dbe 9b70 843d 6834 ddbd ce19 9e3c
00000250: be49 edb9 e444 abbd 382a e33c 22d6 b2bd
00000260: d1a0 cdbd 99e2 a5bd 6c03 c43d 6ab9 bdbd
00000270: 826b fbbd 688b 97bd 512b 813c 6b83 1f3d
00000280: 2d78 373d cad1 fcbd f979 d7bc c836 033d
00000290: 2b33 cc3d 3aa4 973c f951 fa3c 2c14 9abd
000002a0: f5c5 063c 0ea1 a33b 131b f0bc 0484 07be
000002b0: 6a55 10bd a883 cdbd 7a4a 85bd 7bf5 973c
000002c0: f919 13be f6f5 e13d af75 17bd 7582 803d
000002d0: aaf0 20bd b880 aabb c1ad d3bd df5f 81bd
000002e0: 9cc0 4abd a817 9abd b667 913d cad7 5d3d
000002f0: 633d a6bd 5f18 fc3c 4e37 7f3d 4a99 4f3b
00000300: 4157 b4bc 5ed1 bebd 5dfe b7bd 5874 5c3c
00000310: e30d 19be bed2 bd3d e880 7d3d ba92 8fbc
00000320: 6359 a13c 11da 40bd a40c 85bd 4df8 9c3d
00000330: b998 04be fb48 d7bd 006a 7d3d 5550 b73d
00000340: 6ece 2a3d 396e e3bd c83e a8bd 00d9 eabd
00000350: 1c60 70bd 6830 41bd 6700 883d 4a1e cd3d
00000360: a18a 09be 7ee5 f6bc b686 263d 28e6 bf3d
00000370: 6ce3 803d 3343 e13c 2b8e 9fbd ca7d 8e3d
00000380: 6b7b 94bd e06e 34bd a6ed 95bc 747c 6f3c
00000390: b14b 03be fe75 3a3d 59c9 443d b0e7 62bc
000003a0: b399 cf3c 8d24 943c 1441 23bd 8b8d a33d
000003b0: 8fe5 853d 195a 3bbd 1c25 ecbd 7075 913d
000003c0: 0a2b 9ebd 9d4a fdbd 9609 22be cd59 853c
000003d0: 61bc 9dbc 27db 82bc 6ecb c03d 435e 9a3d
000003e0: 3b1a 9d3d c8b8 8f3d 20c2 c9bd 6eff dabd
000003f0: 7a79 403b c126 a5bd 0463 8dbd 4814 fdbd

edge_function.2.bias f4 [64]
-0.06354504 -0.017933412 0.06963349 0.049340334 -0.105215244 0.09966576 0.062393516 -0.044693917
-0.0015034974 -0.10405393 -0.08891483 -0.003042683 -0.0019771352 0.017351873 0.02373096 -0.03559721
0.09768103 -0.012710421 0.02475068 -0.0603659 -0.016199613 -0.08624256 0.34533894 -0.01629844
-0.15225515 -0.08657759 0.10444376 -0.13741657 -0.035218526 -0.006399723 -0.0022604163 0.020395631
0.023883456 -0.084877566 0.07194787 0.04654495 0.053664178 0.19427414 0.045159016 0.14986938
0.11819288 -0.1397957 -0.033784255 -0.08994499 -0.02242178 0.027593028 0.097820476 -0.10489554
-0.030075608 -0.10846574 -0.018008625 -0.008225868 -0.06810774 -0.08466473 -0.11711099 -0.016792458
0.045815345 0.008397873 -0.07443737 -0.13125551 0.075893395 0.0050952765 0.06435666 -0.1808934
00000000: e723 82bd 17e9 92bc 019c 8e3d 1719 4a3d
00000010: 177b d7bd 901d cc3d 5890 7f3d f810 37bd
00000020: 0011 c5ba 3a1a d5bd fa18 b6bd c067 47bb
00000030: d392 01bb 8425 8e3c 6e67 c23c 61ce 11bd
00000040: fe0c c83d 5f3f 50bc f0c1 ca3c 3c42 77bd
00000050: 0db5 84bc f09f b0bd 44d0 b03e 4e84 85bc
00000060: c6e8 1bbe 974f b1bd 9ce6 d53d eeb6 0cbe
00000070: 4d41 10bd c4b4 d1bb 7e23 14bb bd14 a73c
00000080: 3da7 c33c 4ad4 adbd 6859 933d eba5 3e3d
00000090: f8ce 5b3d cdef 463e a9f8 383d 5c77 193e
000000a0: 1c0f f23d 9b26 0fbe 5c61 0abd 1435 b8bd
000000b0: e1ad b7bc c60a e23c 1a56 c83d 79d3 d6bd
000000c0: 1f61 f6bc 4923 debd d386 93bc cbc5 06bc
000000d0: 127c 8bbd b464 adbd e3d7 efbd 5690 89bc
000000e0: dfa8 3b3d 3b97 093c 9f72 98bd d867 06be
000000f0: ff6d 9b3d 47f6 a63b 6dcd 833d 1f3c 39be

edge_function.4.weight f4 [64, 64]
0.04058281 -0.063308075 0.02984388 -0.04385299 0.0030002675 -0.09048273 0.09083489 -0.048855934
0.056062475 0.039469827 -0.030469555 -0.0018308461 -0.15101273 -0.058650993 0.08406321 0.0029560195
-0.06339088 0.097442746 -0.05046022 0.048481658 -0.0062521994 -0.03464228 -0.0002131695 -0.024860766
-0.018396655 -0.09477309 -0.08241948 -0.017746188 -0.08880853 -0.02929515 -0.06453673 0.07586818
-0.004680801 -0.122834444 -0.06428477 -0.10963834 -0.07741267 0.011063361 0.025925484 0.065907426
-0.17137499 -0.021484725 -0.15360583 -0.054296456 -0.050209284 0.09443899 0.024837336 0.03845657
-0.06748476 0.05338045 -0.013862922 0.017248075 -0.021947855 0.011659205 0.026250206 -0.056974653
0.0079285605 -0.08593907 -0.06923471 -0.035499364 -0.05240927 0.08081572 0.026850404 0.057787765
-0.124671444 -0.04837275 0.009886037 0.12368665 0.06462952 -0.033452958 0.0021505011 0.106912866
0.056205615 0.083210744 0.017765772 -0.07931709 0.055306714 -0.08215393 0.024689434 0.088300765
-0.06415057 0.12415484 -0.027080834 -0.077128656 -0.067160144 -0.08195983 0.120047726 -0.16092806
0.044604756 -0.08534346 0.09407433 0.063369706 -0.1479349 0.050130922 0.057469703 -0.091723196
0.12922479 -0.06045349 0.08017358 -0.05648482 -0.057949457 -0.038272135 -0.062340643 -0.0014144544
-0.1490576 0.008456758 0.044363294 0.056450307 0.06683214 -0.0012460954 -0.13490929 0.14185724
0.0074453424 -0.08437281 0.06030017 0.070285276 0.023504704 -0.025172813 0.046742875 0.082297005
0.0568464 -0.10309337 -0.06769519 0.05293335 -0.024936259 0.13624476 0.09513122 0.084823206
-0.103859246 0.07559326 0.03841296 -0.11232194 -0.08882365 0.075148515 -0.0069385255 -0.04881099
0.09378299 0.023831442 -0.1242443 0.046307027 -0.114220016 -0.08210643 0.0445916 0.08528817
0.07067554 0.047297314 0.00021913648 -0.11577236 -0.08701388 -0.08218263 -0.08855252 -0.017663423
0.0026089698 0.062614195 -0.12464001 0.07682651 -0.11149926 0.058649983 -0.10410219 -0.045246452
-0.042958006 -0.014367282 -0.048104014 -0.030271873 0.0111035 -0.07342364 0.059633195 -0.039307185
0.052455023 -0.09268044 0.068604626 0.004712075 -0.0042940825 -0.06324136 0.06989427 -0.11121076
0.09350647 0.07930286 -0.054719865 -0.05250777 0.080875665 0.09016058 -0.042563852 0.029245138
-0.037787363 -0.03498206 0.099823356 -0.05104351 0.044075742 -0.08301687 -0.111642584 0.038239256
-0.08780557 -0.02106201 0.072555505 -0.04295697 0.07828546 0.0743024 0.01893341 -0.114085674
-0.10636753 0.0023939395 0.08691876 -0.03722787 -0.1439248 0.074605 0.0085178185 -0.09110179
0.07719982 -0.022474246 -0.07225448 -0.14461985 0.024684208 -0.038579807 0.023048282 0.047427785
-0.039243113 0.015543226 0.07720243 -0.08738507 -0.13661905 -0.08428034 -0.09974541 -0.05302229
-0.03569112 -0.03989391 -0.07457893 -0.017490145 -0.026970156 -0.08920318 -0.04608926 0.06148508
0.08126498 0.028058816 -0.08885228 -0.036661934 0.058167722 0.008733469 0.073255464 0.070001945
-0.0385146 0.038338717 -0.017433196 -0.07767316 -0.095890105 0.029303163 0.08002473 0.060355555
-0.05147674 -0.11334463 -0.06438821 -0.12109618 0.07149459 -0.025998043 -0.14071596 -0.035006847
00000000: 293a 263d aaa7 81bd 277b f43c 319f 33bd
00000010: 23a0 443b 024f b9bd a507 ba3d 291d 48bd
00000020: c4a1 653d 1dab 213d 4a9b f9bc 00f9 efba
00000030: 15a3 1abe 063c 70bd 5529 ac3d c7b9 413b
00000040: 14d3 81bd 1090 c73d 60af 4ebd b494 463d
00000050: 40df ccbb 10e5 0dbd 4086 5fb9 cea8 cbbc
00000060: 95b4 96bc 6518 c2bd 8bcb a8bd 7460 91bc
00000070: 3fe1 b5bd 62fc efbc d52b 84bd c760 9b3d
00000080: 6861 99bb a090 fbbd bca7 83bd 118a e0bd
00000090: 898a 9ebd 1943 353c ae61 d43c 79fa 863d
000000a0: ed7c 2fbe bc00 b0bc d94a 1dbe f665 5ebd
000000b0: 40a8 4dbd 3b69 c13d ab77 cb3c a384 1d3d
000000c0: 7335 8abd 75a5 5a3d 4f21 63bc d64b 8d3c
000000d0: fdcb b3bc 4006 3f3c ac0a d73c 415e 69bd
000000e0: cbe6 013c d300 b0bd edca 8dbd c867 11bd
000000f0: 1aab 56bd b682 a53d 61f5 db3c ddb2 6c3d
00000100: be53 ffbd 8122 46bd 0bf9 213c 6d4f fd3d
00000110: 7b5c 843d f805 09bd 6cef 0c3b 22f5 da3d
00000120: dc37 663d 656a aa3d 8689 913c 0071 a2bd
00000130: 4b89 623d 5240 a8bd 7f41 ca3c 08d7 b43d
00000140: 6061 83bd e544 fe3d a0d8 ddbc a1f5 9dbd
00000150: 428b 89bd 8eda a7bd 95db f53d 53ca 24be
00000160: 7ab3 363d 8dc8 aebd 0baa c03d fac7 813d
00000170: 3f7c 17be 1556 4d3d 5a65 6b3d 5fd9 bbbd
00000180: 8153 043e 149e 77bd 0c32 a43d a05c 67bd
00000190: 695c 6dbd 3ec3 1cbd e758 7fbd 3765 b9ba
000001a0: 8ea2 18be 378e 0a3c 49b6 353d 7038 673d
000001b0: 4adf 883d 0654 a3ba a925 0abe 0643 113e
000001c0: 0ff8 f33b a7cb acbd 50fd 763d baf1 8f3d
000001d0: f08c c03c 3737 cebc 7575 3f3d 558b a83d
000001e0: c5d7 683d 9e22 d3bd c7a3 8abd a4d0 583d
000001f0: 2047 ccbc bf83 0b3e 28d4 c23d cab7 ad3d
00000200: 28b4 d4bd a4d0 9a3d e856 1d3d 0c09 e6bd
00000210: 2ce9 b5bd 77e7 993d 925c e3bb 08ee 47bd
00000220: 4c11 c03d 283a c33c cc73 febd 70ac 3d3d
00000230: 2fec e9bd 6a27 a8bd aea5 363d 90ab ae3d
00000240: 56be 903d d4ba 413d 00c8 6539 0f1a edbd
00000250: 5534 b2bd 5e4f a8bd 065b b5bd e2b2 90bc
00000260: 40fb 2a3b df3b 803d 4343 ffbd 3857 9d3d
00000270: b959 e4bd f73a 703d 8733 d5bd 5854 39bd
00000280: bcf4 2fbd c064 6bbc b708 45bd b8fc f7bc
00000290: 74eb 353c 225f 96bd f041 743d 9200 21bd
000002a0: 14db 563d 3ecf bdbd 9580 8c3d c067 9a3b
000002b0: 60b5 8cbb b084 81bd ba24 8f3d 78c2 e3bd
000002c0: 5280 bf3d 8a69 a23d f021 60bd 6312 57bd
000002d0: 24a2 a53d 1ca6 b83d 6f57 2ebd 8093 ef3c
000002e0: ecc6 1abd 5949 0fbd 3070 cc3d 0013 51bd
000002f0: c488 343d c004 aabd dea4 e4bd c4a0 1c3d
00000300: 68d3 b3bd 3d8a acbc fb97 943d a6f3 2fbd
00000310: 2154 a03d db2b 983d 3d1a 9b3c c0a5 e9bd
00000320: 38d7 d9bd a4e3 1c3b 7602 b23d 407c 18bd
00000330: 0661 13be 82ca 983d 528e 0b3c 9393 babd
00000340: f01a 9e3d e91b b8bc 28fa 93bd 3a17 14be
00000350: 8936 ca3c dc05 1ebd c0cf bc3c a343 423d
00000360: 63bd 20bd 04a9 7e3c 4f1c 9e3d f2f6 b2bd
00000370: dde5 0bbe 2c9b acbd 5247 ccbd e72d 59bd
00000380: da30 12bd cc67 23bd d7bc 98bd 7e47 8fbc
00000390: 84f0 dcbc 28b0 b6bd 18c8 3cbd c7d7 7b3d
000003a0: 416e a63d 9adb e53c 2ff8 b5bd d32a 16bd
000003b0: 4741 6e3d d316 0f3c f606 963d 2e5d 8f3d
000003c0: 7cc1 1dbd 0f09 1d3d 10d0 8ebc 1b13 9fbd
000003d0: 0862 c4bd 300d f03c 01e4 a33d 6337 773d
000003e0: 46d9 52bd 3b21 e8bd f7dd 83bd 4601 f8bd
000003f0: c16b 923d d9f9 d4bc d817 10be 5763 0fbd
