Projects/GuoxiangGrayson_T_A study of multi-fidelity graph neural networks/Model_save/Quarter2D/Rank=28-GNN-nB-64-Lr-0.005/model.pth (torch, 114781 bytes, 24 tensors)

node_function_neighbor.0.weight f4 [64, 2]
0	0x3f2dff70	0.6796789
1	0x3d913cca	0.07091673
2	0xbdb19003	-0.08670046
3	0xbf0f9668	-0.56088877
4	0xbe886f50	-0.26647425
5	0x3ed93dd7	0.42429993
6	0xbee73b08	-0.45162225
7	0x3f29f382	0.6638719
8	0xbf1a8a4c	-0.60367274
9	0x3d7dd7c1	0.061973337
10	0x3f0ddffd	0.55419904
11	0x3e86cf31	0.2632995
12	0xbe22e596	-0.15907893
13	0x3e5160a0	0.20447016
14	0xbeb9ffd3	-0.3632799
15	0xbefd8820	-0.49517918
16	0x3f2cd2df	0.67509264
17	0xbeb2c595	-0.34916368
18	0xbf0f807d	-0.5605543
19	0xbe550bec	-0.20805329
20	0x3f1e3dd3	0.61813086
21	0x3f2316a6	0.63706434
22	0x3eac870f	0.33696792
23	0xbda7262e	-0.08161579
24	0x3efdfd8d	0.49607506
25	0x3e1ed5f8	0.1551131
26	0xbe9fadf6	-0.3118741
27	0x3e589116	0.21149096
28	0xbf2639f8	-0.64932203
29	0xbdd591bd	-0.10428188
30	0x3ed50716	0.4160697
31	0xbf2984ba	-0.6621815
32	0xbf2f5ec5	-0.6850398
33	0x3ebb479e	0.36578077
34	0x3e4a6496	0.19764933
35	0x3f1bbc38	0.60834074
36	0x3e7ee28d	0.2489111
37	0x3e8d8baf	0.27645633
38	0xbe491a33	-0.196389
39	0x3f158ca9	0.58417755
40	0xbf07aece	-0.53001106
41	0x3e403a1f	0.18772171
42	0xbedc9360	-0.43081188
43	0xbd680174	-0.05664201
44	0xbeed78a7	-0.46381113
45	0xbdff1a79	-0.12456221
46	0xbdddfd6c	-0.10839352
47	0xbf003410	-0.5007944
48	0x3eb3d5e3	0.3512412
49	0xbebb8375	-0.3662373
50	0xbf337a1d	-0.70108205
51	0x3bb52432	0.0055279965
52	0xbd06ffdd	-0.032958854
53	0xbda51907	-0.08061414
54	0xbf186929	-0.5953546
55	0x3f0ff260	0.5622921
56	0xbeb14104	-0.34619915
57	0x3c8205ab	0.015871843
58	0x3e18af8e	0.14910719
59	0x3e224edc	0.15850395
60	0xbed543a0	-0.41653156
61	0xbf151942	-0.58241665
62	0xbe098f7b	-0.1343364
63	0x3ef8a768	0.4856522
64	0x3ef6c6e1	0.48198608
65	0xbe8edc3c	-0.279024
66	0xbe33fa50	-0.17575955
67	0x3d25af90	0.040450633
68	0xbaae8ba6	-0.0013316765
69	0x3e3e4378	0.18580425
70	0x3d2e9865	0.042625804
71	0x3f0b5122	0.54420674
72	0x3e1d9f29	0.15392746
73	0x3e9675fd	0.29386893
74	0xbeace1ab	-0.3376592
75	0xbbf7fefc	-0.0075682383
76	0x3cc2fa67	0.023801042
77	0xbedf8336	-0.43654794
78	0x3e40232d	0.18763418
79	0xbdc0a7a4	-0.09406975
80	0x3dd44f65	0.10366706
81	0x3ee8ba99	0.45454863
82	0xbe927532	-0.28605038
83	0x3e2fe3dc	0.17176765
84	0xbf1889d8	-0.5958533
85	0x3d849ad3	0.06474843
86	0x3ed35c16	0.41281193
87	0xbf040c73	-0.51581496
88	0xbef68ec6	-0.48155802
89	0xbd47fd92	-0.048825808
90	0xbf0c0d5b	-0.5470788
91	0xbf29db61	-0.6635037
92	0x3daade7c	0.08343217
93	0xbf0c6b1b	-0.5485093
94	0x3eb34c07	0.35018942
95	0x3ed38f02	0.41320044
96	0xbed99291	-0.42494634
97	0x3df35ad6	0.1188256
98	0x3e323695	0.17403634
99	0x3efcaffb	0.49353012
100	0xbe5c53f5	-0.21516402
101	0xbea3c36c	-0.31985033
102	0x3f172349	0.59038216
103	0xbda4d523	-0.08048465
104	0xbea101e8	-0.31446767
105	0xbeab36a5	-0.33440128
106	0x3ef599af	0.47968814
107	0xbf1beb92	-0.60906327
108	0xbdcb0c7f	-0.09914493
109	0xbf28453b	-0.6573064
110	0x3e93539c	0.28774726
111	0xbeadac83	-0.33920678
112	0xbe40b580	-0.18819237
113	0x3e2298f3	0.15878658
114	0x3f03ecb1	0.5153304
115	0x3f0e72db	0.55644006
116	0xbeb9058c	-0.36137044
117	0x3f0fe523	0.5620901
118	0x3f190436	0.5977205
119	0xbe2d4396	-0.16920313
120	0x3e8544ea	0.2602914
121	0x3ed5c6ba	0.4175318
122	0xbde73bbc	-0.1129069
123	0xbe8cc520	-0.27494144
124	0xbce10a8c	-0.02747085
125	0x3f10a057	0.5649466
126	0xbe9bed01	-0.30454257
127	0x3e955f0d	0.2917408

node_function_neighbor.0.bias f4 [64]
0	0x3ed899d4	0.42304862
1	0x3f3bdb97	0.7338194
2	0x3ecb9134	0.3975922
3	0xbe329b59	-0.17442073
4	0xbe24260b	-0.16030137
5	0x3d7f93fd	0.062396992
6	0x3f265686	0.64975774
7	0x3e047c2e	0.12937996
8	0x3da4cbe7	0.08046704
9	0xbe2a97c4	-0.16659456
10	0x3ef3d2c2	0.47621733
11	0xbeeea87e	-0.46612924
12	0x3e26b98a	0.16281715
13	0x3f2abda1	0.666956
14	0x3e7084d6	0.23488173
15	0x3e0f5df2	0.14000681
16	0xbec3b7f1	-0.38226274
17	0xbf299fd5	-0.6625951
18	0xbee0a96c	-0.4387926
19	0x3d5b7aa5	0.05358376
20	0x3e428886	0.18997392
21	0xbe80c543	-0.251505
22	0xbc6423d5	-0.013924559
23	0xbe0ad8ba	-0.13559237
24	0xbf182e19	-0.5944534
25	0x3e93daf7	0.28877994
26	0xbf043ef1	-0.5165854
27	0x3eeca51e	0.46219724
28	0x3e0086b8	0.12551391
29	0x3eced1f6	0.40394562
30	0xbf1b01ee	-0.6054982
31	0xbedfc4e3	-0.437049
32	0x3e5cc312	0.21558788
33	0x3ea1ad2f	0.3157744
34	0xbf056e62	-0.52121556
35	0x3eb0be61	0.34520248
36	0x3eec8bab	0.46200308
37	0xbdca9958	-0.09892529
38	0xbea72566	-0.3264572
39	0xbe59a6a0	-0.21254969
40	0x3f2a3963	0.66493815
41	0x3e065441	0.13118078
42	0xbe4b0ed6	-0.19829878
43	0x3e820398	0.25393367
44	0x3d423514	0.0474139
45	0x3f11e3ee	0.5698842
46	0xbf12a1b7	-0.5727801
47	0xbe4007d9	-0.18752994
48	0xbe9fb3da	-0.31191903
49	0xbe956940	-0.29181862
50	0x3c95b548	0.018274918
51	0xbe4612d3	-0.19343118
52	0xbdf5f592	-0.120097294
53	0xbf16910a	-0.5881506
54	0x3deb837e	0.114996895
55	0x3f0b3007	0.5437016
56	0xbe93ba15	-0.28852907
57	0xbe337397	-0.17524563
58	0x3d1d2c15	0.038372118
59	0x3e936164	0.2878524
60	0xbe871d51	-0.26389554
61	0x3e94516e	0.28968376
62	0x3d84b1b7	0.06479209
63	0xbd81a843	-0.063309215

node_function_neighbor.2.weight f4 [64, 64]
0	0x3d039906	0.032128356
1	0xbe31a9f2	-0.17349985
2	0xbdc70a7a	-0.09718795
3	0xbc81d55e	-0.015848812
4	0x3d329aa3	0.043604504
5	0xbc198304	-0.009369615
6	0x3d187063	0.037216555
7	0xbd8de35f	-0.06928133
8	0x3d66b3c8	0.056323797
9	0xba855b87	-0.0010174372
10	0xbe0cf7b0	-0.1376636
11	0x3da24fab	0.07925352
12	0x3dd934f7	0.10605805
13	0x3dc07773	0.09397783
14	0xbd8ba3b1	-0.06818331
15	0xbdac309a	-0.084077075
16	0xbcd5cd09	-0.026098745
17	0xbced0b2f	-0.028935997
18	0xbde0381c	-0.10948202
19	0xbe1cf8ae	-0.15329239
20	0xbe0f32c6	-0.13984212
21	0x3c2f3cd4	0.010695655
22	0x3d492beb	0.04911415
23	0xbdbacbd5	-0.09120909
24	0xbd3fb1f6	-0.046800576
25	0xbd282165	-0.041047473
26	0xbdded171	-0.108797915
27	0xbcac4d64	-0.021032996
28	0xbd617e3a	-0.05505202
29	0xbde9def0	-0.11419475
30	0xbc8f1fb8	-0.01747118
31	0xbddfcd1e	-0.10927795
32	0x3cb88ddf	0.022528587
33	0xbd9692f0	-0.07352245
34	0x3d96f076	0.07370083
35	0x3d47835f	0.04870927
36	0xbd9e4f9c	-0.07730028
37	0x3b3697a9	0.0027861393
38	0xbdfbe04f	-0.12298643
39	0x3d21fcfe	0.039547913
40	0xbdac007f	-0.08398532
41	0x3c1e1ba8	0.009650148
42	0xbdbc2aad	-0.09187827
43	0x3dcd2f01	0.10018731
44	0xbcba38ad	-0.022732103
45	0x3d2cba9f	0.042170163
46	0xbd8b6dda	-0.06808062
47	0xbe0acb0e	-0.13554022
48	0xbc545b99	-0.012961292
49	0xbd6144a6	-0.05499711
50	0xbde663f3	-0.112495326
51	0xbd969d1d	-0.07354186
52	0xbbdb1454	-0.006685773
53	0xbd1da006	-0.03848269
54	0xbca77cc6	-0.020445239
55	0x3dc75ce3	0.097345136
56	0xbe06473f	-0.13113116
57	0x3d1a2626	0.037634037
58	0xbddd8dbe	-0.10818051
59	0xbd37ffe6	-0.04492178
60	0x3d4931e0	0.04911983
61	0x3d3aef8e	0.045638613
62	0xbcd5ee1b	-0.026114514
63	0x3d0c3155	0.034226734
64	0xbd4efedc	-0.05053602
65	0x3d9177ec	0.071029514
66	0xbd02d70c	-0.031943366
67	0xbdc460a4	-0.09588745
68	0x3dabe0dc	0.08392498
69	0x3d4508e4	0.048104182
70	0x3b1dfa00	0.002410531
71	0xbdf4677e	-0.11933802
72	0xbcfbe358	-0.030748054
73	0xbd5526c8	-0.052038938
74	0x3d9a16d4	0.07523885
75	0x3d2cef1c	0.04222022
76	0xbdd23106	-0.10263257
77	0x3d2ad2b8	0.041704863
78	0xbdbda5bc	-0.09260127
79	0xbdef7e12	-0.11693968
80	0x3cb3a530	0.021929353
81	0xbdce13bc	-0.10062358
82	0xbd6e6e34	-0.058210567
83	0xbdf8a88a	-0.12141521
84	0xbd6baaf0	-0.057536066
85	0xbdbd3b90	-0.09239876
86	0x3d9e182e	0.07719456
87	0xbde4570c	-0.111494154
88	0xbddef346	-0.108862445
89	0xbdd4c576	-0.10389225
90	0x3dfc65e2	0.1232412
91	0xbd8b24f4	-0.067941576
92	0x3dda50b2	0.10659923
93	0x3d30fe18	0.043211073
94	0xbda3e106	-0.08001904
95	0x3d65070c	0.055914924
96	0x3d0961d0	0.033540547
97	0xbd463588	-0.048390895
98	0xbdea2444	-0.11432698
99	0x3d0190ac	0.03163211
100	0xbc475260	-0.012165636
101	0xbd9690ce	-0.07351838
102	0x3d861b40	0.06548166
103	0x3d02a070	0.031891286
104	0x3dc66c32	0.09688605
105	0x3dd48598	0.103770435
106	0xbdd65bb2	-0.10466708
107	0xbd770810	-0.060310423
108	0x3bfdf3a0	0.0077499896
109	0xbdb6fcd8	-0.08934945
110	0x3d9a4102	0.075319305
111	0x3d0708fc	0.032967553
112	0xbbe6d340	-0.007044226
113	0xbcf90190	-0.030396253
114	0xbc4ee1b0	-0.01262705
115	0xbdac062e	-0.08399616
116	0x3c8efe28	0.017455176
117	0xbce5a728	-0.028033808
118	0xbc7d1220	-0.015446216
119	0xbcc03538	-0.023462877
120	0x3db71a76	0.08940594
121	0x3b58c880	0.0033078492
122	0xbd96df12	-0.07366766
123	0xbda65b4a	-0.08122881
124	0xbd9682b0	-0.073491454
125	0x3b7a0c80	0.0038154423
126	0xbdb47fbc	-0.08813426
127	0x3d0bf19c	0.034165964
128	0xbddff271	-0.10934914
129	0xbcb4a4ac	-0.022051178
130	0x3d2d3aed	0.042292524
131	0xbdef149c	-0.11673853
132	0xbdbb342d	-0.09140811
133	0xbd8a147a	-0.06742187
134	0x3db99bb7	0.090629034
135	0xbd09815f	-0.033570644
136	0xbd56d231	-0.052446548
137	0x3db392e3	0.08768251
138	0xbdb96afd	-0.090536095
139	0x3da586dc	0.08082363
140	0xbda60677	-0.08106702
141	0x3d83ac78	0.0642938
142	0xbd87eca0	-0.066369295
143	0xbded61be	-0.115909085
144	0x3d810d1f	0.06301331
145	0x3d3a5b7e	0.04549741
146	0xbc8f17ff	-0.017467497
147	0x3cb565a1	0.022143187
148	0xbcd668f6	-0.026173096
149	0xbe0dc535	-0.1384476
150	0x3daff47a	0.08591552
151	0xbda3dd40	-0.080011845
152	0xbdb74b7e	-0.08949946
153	0xbe066223	-0.13123374
154	0xbe14ab50	-0.14518476
155	0x3cc0e710	0.02354768
156	0xbd20a70e	-0.039221816
157	0xbce3da0c	-0.027813934
158	0xbe0633af	-0.13105653
159	0x3d10c473	0.0353436
160	0x3ce6b320	0.028161585
161	0x3d85c95b	0.06532546
162	0xbc285eef	-0.01027654
163	0xbd683585	-0.056691665
164	0x3c02d2a4	0.007984791
165	0xbe033af2	-0.12815455
166	0x3d164776	0.036689244
167	0xbd88711c	-0.06662199
168	0x3da86927	0.08223181
169	0xbcf523a8	-0.029924229
170	0xbe1bcbd4	-0.15214473
171	0xbdb6d999	-0.08928222
172	0xb93b146a	-0.00017841315
173	0x3d75731e	0.059924237
174	0xbe09ca2e	-0.13456032
175	0xbdb11cc9	-0.086480685
176	0xbdea5e3e	-0.114437565
177	0xbc5faebd	-0.013652501
178	0xbd9ad29a	-0.075597
179	0x3bc6259b	0.0060469634
180	0x3d1bc38b	0.03802828
181	0xbd9058d4	-0.070481926
182	0x3c082f85	0.008312111
183	0xbcd9e574	-0.02659867
184	0xbcc7dc87	-0.024397148
185	0xbe168185	-0.14697845
186	0xbde487b7	-0.11158698
187	0x3b09d12a	0.0021029213
188	0xbde62735	-0.11237947
189	0x3dbb7489	0.09153087
190	0xbca7b941	-0.020474078
191	0xbd82496b	-0.063616596
192	0x3d52ebc7	0.051494386
193	0x3d486f8b	0.0489345
194	0xbd8c60b8	-0.06854385
195	0x3cdc8fde	0.02692407
196	0xbb948dcd	-0.0045335055
197	0x3c2da32c	0.010597985
198	0x3dc251bc	0.09488246
199	0xbd81577b	-0.06315514
200	0x3cc304b0	0.023805946
201	0xbd6ec53e	-0.058293574
202	0xbc35cc61	-0.011096091
203	0xbd464de8	-0.04841414
204	0xbe09352d	-0.13399191
205	0xbbd01b0f	-0.006350882
206	0xbb91ab25	-0.004445451
207	0x3d787368	0.060656935
208	0x3d5f5328	0.054522663
209	0xbdde1821	-0.10844446
210	0xbd8e025e	-0.06934045
211	0x3d9e31af	0.0772432
212	0x3dc490f7	0.09597962
213	0xbd534eed	-0.05158894
214	0xbbc642b1	-0.0060504307
215	0xbd6daed8	-0.058028072
216	0xbd0c30ec	-0.034226343
217	0x3d5127d3	0.05106337
218	0xbd020507	-0.031743076
219	0xbcf7fde1	-0.030272426
220	0x3d8a5258	0.06753987
221	0xbbb85e81	-0.0056265
222	0xbcc1dfcf	-0.02366629
223	0xbdb9d675	-0.090741076
224	0xbdaa5bd8	-0.08318299
225	0x3da8bb9c	0.08238909
226	0x3cce5c1d	0.025190407
227	0xbd8c30a7	-0.06845217
228	0x3db4fe54	0.08837572
229	0x3b796cff	0.0038059352
230	0x3d68d0d0	0.056839764
231	0x3dbde556	0.09272258
232	0xbc952866	-0.01820774
233	0x3ccea361	0.02522439
234	0x3d463475	0.04838987
235	0xbdd198d4	-0.10234228
236	0xbc7f3eee	-0.015578968
237	0x3cfafc30	0.03063783
238	0x3d5ce036	0.05392476
239	0x3d544b3c	0.05182956
240	0xbda28f9d	-0.07937548
241	0x3daa7da8	0.08324748
242	0xbdaa8510	-0.08326161
243	0x3d8ec4d3	0.06971135
244	0xbc3a6469	-0.011376479
245	0xbd2e43b7	-0.042545047
246	0x3d86da8a	0.06584652
247	0x3cb5dbe3	0.022199577
248	0xbd9ae388	-0.075629294
249	0xbd4da6b4	-0.05020781
250	0x3da0d1aa	0.0785249
251	0xbd04870b	-0.03235535
252	0xbe0fb905	-0.14035423
253	0x3dc617d4	0.096725136
254	0x3c90ab89	0.01765992
255	0xbab15baf	-0.0013531352

node_function_neighbor.2.bias f4 [64]
0	0x3caaf15d	0.020867044
1	0xbdd28d62	-0.10280873
2	0x3d4f08f2	0.05054564
3	0xbcdf57f3	-0.027263617
4	0xbd2d2239	-0.042268965
5	0xbd54b3c7	-0.05192926
6	0x3d3d7018	0.04624948
7	0x3c86b81a	0.016445208
8	0xbdda2dbb	-0.10653254
9	0xbce2a8f0	-0.027668446
10	0xbc8ae808	-0.016956344
11	0xbcb331d8	-0.021874353
12	0x3e1dfa4b	0.1542751
13	0x3d428eb3	0.04749937
14	0x3ccb3899	0.024807261
15	0x3da7489c	0.08168146
16	0x3d9cf284	0.07663444
17	0xbd083db8	-0.033261985
18	0xbda7a86a	-0.08186419
19	0x3e0d099e	0.137732
20	0xbdc92bf0	-0.098228335
21	0xbd986520	-0.07441163
22	0xbdaaba5f	-0.08336329
23	0x3dc3c2ba	0.095586255
24	0xbd9e4dd7	-0.077296905
25	0xbe03e7eb	-0.12881438
26	0xbdd44bba	-0.10366006
27	0x3d38396b	0.044976633
28	0xbe00a06c	-0.12561196
29	0xbd252c47	-0.04032543
30	0x3d416f5c	0.04722534
31	0xbd9a2cbd	-0.075280644
32	0x3bf48f7e	0.0074633947
33	0xbd5796b0	-0.05263394
34	0x3d1920b6	0.03738471
35	0x3c41384c	0.011793207
36	0x3d0c9ebb	0.034331065
37	0x3dac0adc	0.08400509
38	0xbd7f3be2	-0.062312968
39	0xbd0acfec	-0.033889696
40	0xbd04be4d	-0.032408047
41	0x3cd6b4a8	0.02620919
42	0xbc137f4b	-0.009002517
43	0xbcc3ced8	-0.023902342
44	0x3e98e2c6	0.29860514
45	0xbd8dea86	-0.069294974
46	0x3d4484f2	0.04797835
47	0x3ac15885	0.0014751112
48	0xbcdafb00	-0.026731014
49	0x3dc6ef34	0.09713593
50	0x3d7dc049	0.061950956
51	0xbd6fd5e3	-0.058553588
52	0xbd9a0429	-0.07520325
53	0xbd8e1ee8	-0.06939489
54	0x3dba1bc5	0.09087328
55	0xbde13d14	-0.10997978
56	0xbde13e3b	-0.10998198
57	0x3e07ac5f	0.13249348
58	0xbdb9b922	-0.090685144
59	0x3e05ae5f	0.13054799
60	0xbd923abe	-0.071401104
61	0x3c9648c6	0.018345248
62	0xbded02f8	-0.11572832
63	0x3a8aa00c	0.0010576262

node_function_neighbor.4.weight f4 [64, 64]
0	0x3d409a72	0.04702229
1	0x3cceae00	0.025229454
2	0xbc9ea774	-0.019366957
3	0xbe1776fe	-0.14791486
4	0xbdfdbed5	-0.12389914
5	0x3cae9e1f	0.021315632
6	0x3c797fe4	0.015228245
7	0xbda5abd3	-0.080894135
8	0xbde8b893	-0.1136333
9	0xba9ad280	-0.0011812001
10	0xbc959e90	-0.018264085
11	0xbdaf7e1a	-0.08568974
12	0xbde48c22	-0.11159541
13	0x3daf6fe7	0.085662656
14	0xbb11dbc6	-0.002225624
15	0xbe0c81bd	-0.13721366
16	0xbdb24b76	-0.08705799
17	0xbd4f20b0	-0.050568283
18	0xbceb0abe	-0.028691646
19	0x3dc18b69	0.094504185
20	0xbd2335e6	-0.039846323
21	0xbdab5e3d	-0.08367584
22	0xbd41107c	-0.04713486
23	0xbddf6972	-0.10908784
24	0x3cdc0935	0.026859859
25	0xbdb6feb7	-0.08935302
26	0xbd08bebc	-0.033385023
27	0x3dbd3136	0.09237902
28	0xbdf2ee57	-0.11861866
29	0xbd7e4a78	-0.062082738
30	0xbdf2626a	-0.11835177
31	0xbe18a49c	-0.14906543
32	0xbc7c8a13	-0.015413779
33	0xbdbd29a9	-0.09236462
34	0xbdb9bd21	-0.090692766
35	0x3c577840	0.013151228
36	0xbd62f36c	-0.055407926
37	0xbd672595	-0.056432325
38	0x3d0ca836	0.034340106
39	0xbd72151a	-0.059102155
40	0x3c260e02	0.010135176
41	0xbc89cd0f	-0.016821412
42	0xbdab6dca	-0.0837055
43	0xbd6b1f58	-0.05740294
44	0xbe0da29f	-0.13831566
45	0x3c2d8b20	0.010592252
46	0xbddd3732	-0.10801543
47	0x3d38eb78	0.045146435
48	0x3d5e720a	0.054307975
49	0x3d4a9d75	0.04946657
50	0xbd7fc3ef	-0.062442716
51	0x3b066f6e	0.0020513195
52	0xbe1d9d35	-0.15392001
53	0xbcfcd373	-0.030862546
54	0xbcb39168	-0.021919921
55	0xbcdb5bdf	-0.026777206
56	0xbd0582b0	-0.032595336
57	0xbc801883	-0.015636688
58	0x3d8b7302	0.068090454
59	0xbdd55d81	-0.10418225
60	0x3d2a11cc	0.04152088
61	0xbd116eca	-0.035506047
62	0x3bea0132	0.007141256
63	0x3d9cbcf4	0.076532274
64	0xbcf755c8	-0.03019227
65	0xbd79f034	-0.06102009
66	0xbd978f24	-0.07400349
67	0xbd35a810	-0.04434973
68	0x3cc83e88	0.02444388
69	0xbde4cc5e	-0.111717924
70	0xbd8b060c	-0.06788263
71	0xbd93944a	-0.07206018
72	0xbdcd4b6e	-0.10024153
73	0x3cc41658	0.023936436
74	0x3d825eb0	0.063657165
75	0x3d8e6aa8	0.06953937
76	0xbdf1c27e	-0.118046746
77	0xbc10abc0	-0.008830011
78	0xbd3eb9f4	-0.046564057
79	0xbd8dec98	-0.06929892
80	0x3cd99c58	0.026563808
81	0x3c8d0f20	0.017219126
82	0xbd5e38bc	-0.054253325
83	0xbda62eee	-0.0811442
84	0xbd756efc	-0.059920296
85	0xbdc5d6ba	-0.096600965
86	0xbdca2b56	-0.09871547
87	0x3d90fc62	0.07079388
88	0xbd39b7a0	-0.045341134
89	0xbcf79138	-0.030220613
90	0xbb3d2800	-0.0028862953
91	0xbdd983f4	-0.10620871
92	0x3d3c3050	0.045944512
93	0xbd2c9dfc	-0.042142853
94	0xbd2e735c	-0.042590484
95	0xbdae5bac	-0.08513579
96	0x3c07d6b0	0.008290932
97	0xbd457568	-0.04820767
98	0xbdf064cc	-0.117379755
99	0xbc7b3140	-0.015331566
100	0x3dd50678	0.104016244
101	0xbd676964	-0.056496993
102	0xbdad1f1a	-0.08453198
103	0xbcb8f0b8	-0.022575721
104	0x3d560788	0.052253276
105	0xbcf8e918	-0.030384585
106	0xbd1c7dd0	-0.03820592
107	0xbdc383a4	-0.09546593
108	0xbd5de824	-0.054176465
109	0x3c7bc8d0	0.015367702
110	0x3dc27394	0.09494701
111	0xbd5f42c4	-0.054507032
112	0x3d414264	0.047182456
113	0x3c46a200	0.012123585
114	0x3d106908	0.035256416
115	0xbd8b0ba8	-0.06789333
116	0xbdf94b5e	-0.12172578
117	0x3dca99ae	0.09892593
118	0xbdc5ab84	-0.09651855
119	0x3dbcdb5a	0.092215255
120	0x3d45f534	0.048329547
121	0xbdf5ee84	-0.12008384
122	0x3cda4fd0	0.026649386
123	0x3d44e724	0.048071995
124	0xbda34fb4	-0.079741865
125	0xbd8c40a0	-0.06848264
126	0xbd87b648	-0.06626564
127	0xbda9a0a8	-0.08282596
128	0xbd843215	-0.06454865
129	0xbd805cf8	-0.062677324
130	0xbd683632	-0.05669231
131	0xbe0c4246	-0.13697156
132	0xbc9cb818	-0.019130751
133	0xbce98af6	-0.028508645
134	0xbe03af01	-0.12859727
135	0xbda07187	-0.078341536
136	0xbddf86ec	-0.10914406
137	0x3c439040	0.011936247
138	0xbdbbff62	-0.0917957
139	0xba83a1d2	-0.0010042733
140	0xbd0bcaf8	-0.034129113
141	0xbda5d3b6	-0.08097021
142	0xbc508916	-0.012727996
143	0xbd4aac1c	-0.049480543
144	0xbe12dba6	-0.14341602
145	0x3c67d2b0	0.014149353
146	0x3dcbebca	0.099570826
147	0x3cefac27	0.029256893
148	0xbd141ecf	-0.036162194
149	0xbde9fabf	-0.11424779
150	0x3d404433	0.04694004
151	0xbca2dd22	-0.019880835
152	0x3d8e9338	0.069616735
153	0x3d037fd0	0.032104313
154	0xbce910fb	-0.02845048
155	0x3db134d3	0.086526535
156	0xbd31ba41	-0.043390516
157	0x3c9e61fb	0.01933383
158	0x3d14feec	0.036375925
159	0xbaedbe52	-0.0018138385
160	0xbdd0ed3c	-0.10201499
161	0x3d02d87b	0.031944733
162	0xbdffd3d5	-0.12491576
163	0x3d943f39	0.07238621
164	0x3d21a388	0.039462596
165	0xbd7a4888	-0.061104327
166	0x395f4e96	0.00021296213
167	0xbd999db7	-0.07500785
168	0x3d9c8f59	0.07644529
169	0xbe0fb2d9	-0.14033069
170	0x3de801d6	0.11328475
171	0x3cfb3178	0.030663237
172	0x3d494bd4	0.04914458
173	0x3d07730c	0.0330687
174	0xbd31e219	-0.043428514
175	0x3db08525	0.08619145
176	0xbcc250a0	-0.023720086
177	0xbe0c185d	-0.13681169
178	0xbd65f4f5	-0.056141812
179	0xbc972820	-0.01845175
180	0x3d311b76	0.04323908
181	0x3d8582d7	0.06519096
182	0x3d61829c	0.0550562
183	0x3d44884a	0.047981538
184	0xbd0c42d3	-0.034243416
185	0xbe02591f	-0.1272931
186	0x3c90d990	0.017681867
187	0x3c327387	0.010891802
188	0x3cd13cb1	0.025541635
189	0xbda2df2d	-0.07952724
190	0x3d78be21	0.060728196
191	0xbda68ce4	-0.081323415
192	0xbe1ce805	-0.15322883
193	0x3daad8b8	0.08342117
194	0xbde11367	-0.10990029
195	0xbe1de675	-0.15419944
196	0xbdc7d6a9	-0.0975774
197	0xbdc52447	-0.0962606
198	0xbd8a483b	-0.06752058
199	0xbdd12e20	-0.10213876
200	0xbdc03b53	-0.09386315
201	0x3da2ff3a	0.07958837
202	0x3dfa5cf0	0.12224758
203	0x3c25c061	0.0101166675
204	0x3da7a9aa	0.08186658
205	0x3daa440d	0.08313761
206	0x39f313b7	0.0004636326
207	0xbe12239f	-0.14271401
208	0xbd2b82e9	-0.041872893
209	0x3d80d656	0.06290881
210	0x3bd90eb4	0.006624067
211	0xbcecc3b6	-0.028901916
212	0x3d26464f	0.040594395
213	0x3bbfeef1	0.0058573415
214	0xbce11bb6	-0.027479034
215	0x3d05a17f	0.032624718
216	0xbc36cbcb	-0.0111569865
217	0x3b34e0e6	0.002759987
218	0x3dfeb15e	0.12436174
219	0x3db96d7e	0.09054087
220	0xbd17ae28	-0.037031323
221	0x3cea031c	0.028565936
222	0xbd591b03	-0.053004276
223	0xbe18f570	-0.14937377
224	0xbdee1e68	-0.11626893
225	0xbd6f588c	-0.058434054
226	0xbe0d708e	-0.13812467
227	0x3b2aade7	0.0026043595
228	0xbd97f212	-0.07419218
229	0xbe1ec5c2	-0.15505126
230	0xbd9e473a	-0.07728429
231	0x3db7b634	0.08970299
232	0xb6a2f826	-4.8568645e-06
233	0x3c408106	0.011749512
234	0xbb7c65d0	-0.0038512833
235	0xbdb2fc52	-0.087395325
236	0xbb099382	-0.0020992463
237	0xbdbbf264	-0.09177092
238	0xbd43fed5	-0.04785045
239	0xbdb7f971	-0.08983124
240	0x3c7122f0	0.014717802
241	0xbca19b64	-0.019727416
242	0x3d84b80e	0.06480418
243	0x3ae2b92a	0.0017297615
244	0x3daa65cc	0.083201975
245	0xbd890de7	-0.06692105
246	0x3c4892be	0.012242017
247	0x3d3f946f	0.046772417
248	0xbda33335	-0.07968751
249	0x3d5c2447	0.053745534
250	0xbcb88c45	-0.022527823
251	0xbd928011	-0.07153333
252	0xbdcc5e88	-0.09978968
253	0xbd844903	-0.064592384
254	0xbdf71b4c	-0.12065753
255	0xbdb8f3da	-0.09030886

node_function_neighbor.4.bias f4 [64]
0	0xbd714592	-0.058904238
1	0xbd52b358	-0.051440567
2	0xbdf43291	-0.11923707
3	0xbc837513	-0.016047036
4	0x3d5fa971	0.05460495
5	0xbce67686	-0.028132688
6	0x3e34d6b9	0.17660035
7	0xbd8aa73b	-0.06770178
8	0xbe1a0640	-0.15041447
9	0x3c4bbf3e	0.012435732
10	0xbdc8dc0f	-0.09807598
11	0xbbf5780d	-0.007491118
12	0xbe1c5679	-0.15267362
13	0xbd1f6737	-0.038916793
14	0x3da66fa7	0.08126765
15	0x3d870afb	0.06593891
16	0xbe1b0dd4	-0.15141994
17	0xbde7a2a2	-0.113103166
18	0xbdad85bb	-0.08472773
19	0x3ddec206	0.10876851
20	0x3bc024f3	0.0058637797
21	0xbe0bd808	-0.13656628
22	0x3cd68ed0	0.026191145
23	0xbd950829	-0.07276947
24	0xbe064ba5	-0.13114794
25	0x3d7c55eb	0.061605375
26	0xbcfeb9e8	-0.031094506
27	0x3d6217b9	0.055198405
28	0xbcdc0a38	-0.026860341
29	0x3dde3a21	0.10850931
30	0x3c8904ef	0.016725985
31	0xbda66aa6	-0.0812581
32	0xbd08fde5	-0.033445258
33	0x3d422adb	0.04740415
34	0xbc279a4b	-0.010229657
35	0xbc03d0a4	-0.008045349
36	0xbcf1a4eb	-0.029497584
37	0xbca81580	-0.020518064
38	0x3c0a9e38	0.008460574
39	0x3d73a340	0.05948186
40	0xbdc6739a	-0.09690018
41	0xbdce06e8	-0.10059911
42	0xbde59d3c	-0.11211631
43	0x3ccab33a	0.024743665
44	0xbdd339e4	-0.10313776
45	0xbe022ca3	-0.1271234
46	0x3cd85532	0.026407812
47	0xbbea0bb3	-0.007142508
48	0xbd9d9f3d	-0.07696388
49	0xbd13e5fc	-0.036108002
50	0xbd409265	-0.047014613
51	0xbd6f6797	-0.0584484
52	0x3de9fd45	0.114252605
53	0xbdc01eff	-0.09380912
54	0x3d991a25	0.0747569
55	0x3cb59d66	0.02216978
56	0x3e15c3d2	0.14625481
57	0x3e2b4c92	0.16728428
58	0xbe126e5e	-0.14299914
59	0x3c777984	0.015104655
60	0x3cf4135a	0.029794384
61	0xbd48641f	-0.048923608
62	0xbdac3262	-0.08408047
63	0xbe10cd2f	-0.14140771

node_function_neighbor.6.weight f4 [4, 64]
0	0xbd6d1a1b	-0.057886224
1	0xbdc82832	-0.09773292
2	0x3d82d7db	0.063888274
3	0xbb571d07	-0.0032823698
4	0x3d935e10	0.071956754
5	0xbd916a4f	-0.07100355
6	0xbe0e8f86	-0.13921937
7	0xbc9be93f	-0.019032119
8	0xbd8042d7	-0.06262749
9	0x3d81e1a7	0.06341868
10	0x3c9b59f0	0.018963784
11	0xbd646182	-0.055757053
12	0x3d4a2801	0.049354557
13	0x3d9c9f6c	0.07647595
14	0x3db38440	0.08765459
15	0xbd5d9394	-0.05409582
16	0xbda17d61	-0.07885242
17	0xbccc74ed	-0.024958098
18	0x3d3880f6	0.04504486
19	0x3d681183	0.056657325
20	0xbd662af9	-0.056193326
21	0xbd5f4342	-0.0545075
22	0x3d2a43b4	0.041568473
23	0x3c9b2c73	0.018942093
24	0xbd8957a0	-0.06706166
25	0xbdc83c0f	-0.0977708
26	0xbba3fcde	-0.0050045094
27	0xbda8006b	-0.08203205
28	0x3db850b9	0.089997716
29	0xbd20227c	-0.039095387
30	0x3be21bda	0.006900293
31	0xbd519cd8	-0.05117497
32	0xbdcabac1	-0.09898902
33	0x3d994fca	0.07485922
34	0xbcf84d07	-0.030310167
35	0xbd8c6fe8	-0.06857282
36	0x3b5cfd92	0.0033720476
37	0x3dceb0b4	0.10092297
38	0x3dc95f89	0.09832675
39	0x3d945143	0.07242062
40	0xbc2b32da	-0.010449136
41	0x3de2dd9f	0.11077427
42	0xbd294164	-0.041322127
43	0xbda5f5a2	-0.08103491
44	0x3d95eef1	0.07320965
45	0x3ca3dde3	0.020003265
46	0x3db5de80	0.08880329
47	0xbc7a0a99	-0.015261316
48	0x3ce11377	0.027475102
49	0xbc1db4e3	-0.009625646
50	0x3dacfb58	0.084463775
51	0x3d9e172d	0.07719264
52	0x3d301e65	0.042997736
53	0x3dad1eb1	0.084531195
54	0xbdb84e15	-0.08999268
55	0x3a2a68f0	0.0006500622
56	0x3cc472eb	0.023980578
57	0x3dc3ec7d	0.09566591
58	0x3d37a005	0.04483034
59	0xbd612ecd	-0.054976273
60	0x3db6a4ff	0.08918189
61	0x3de3cbe5	0.11122874
62	0x3da81ade	0.082082495
63	0xbcff84ad	-0.031191194
64	0x3e11dcb5	0.1424435
65	0xbd7c0aa8	-0.0615336
66	0x3c2753c7	0.010212845
67	0x379fe365	1.9060166e-05
68	0xbd89d896	-0.067307636
69	0x3d12aad0	0.03580743
70	0x3e6aafbc	0.229186
71	0x3db66047	0.08905082
72	0xbd4c6d3d	-0.049908865
73	0x3d247114	0.040146902
74	0xbd7c3094	-0.061569765
75	0x3df887de	0.121352896
76	0x3dc6be6b	0.09704288
77	0x3c98e89d	0.018665606
78	0xbcbef0e1	-0.02330822
79	0xba4a1914	-0.00077094254
80	0xbda294c1	-0.07938529
81	0x3d94eb7e	0.07271479
82	0xbd85b6ef	-0.065290324
83	0xbd35424f	-0.04425269
84	0x3d58c0cc	0.05291824
85	0xbd24b8bb	-0.040215235
86	0x3d12b995	0.035821516
87	0x3d3a0122	0.045411237
88	0xbd0801fd	-0.03320502
89	0x3d8b7f4d	0.0681139
90	0xbc094164	-0.008377407
91	0x3d5be8b0	0.053688705
92	0xbb69a0f8	-0.0035648923
93	0x3e1fbecc	0.15600127
94	0xbd81f750	-0.06345999
95	0xbd6d8264	-0.05798568
96	0x3dcebe80	0.10094929
97	0x3ca11344	0.019662507
98	0xbb8c8db9	-0.0042893556
99	0x3dd3fdc3	0.103511356
100	0xbd61f6e0	-0.05516708
101	0x3de93b8c	0.11388311
102	0x3dc4c033	0.096069716
103	0x3dc8c0df	0.09802412
104	0xbcb300f7	-0.021851046
105	0xbc8d1ae5	-0.017224738
106	0x3d02fdff	0.03198051
107	0xbd9e4ca0	-0.07729459
108	0x3ca6b271	0.02034876
109	0x3dda85df	0.10670065
110	0x3cf460cb	0.02983131
111	0xbde4c9da	-0.11171313
112	0xbdc20d0f	-0.09475147
113	0xbc60abec	-0.013712864
114	0xbd027748	-0.031852037
115	0x3cf828df	0.030292926
116	0x3d2c6b04	0.042094246
117	0xbd55351f	-0.052052613
118	0xbdc0cfe4	-0.09414652
119	0x3d43ccc6	0.04780271
120	0x3e0779de	0.13230082
121	0x3da6f298	0.0815174
122	0x3dc30cd3	0.095239304
123	0x3c98c8f9	0.018650519
124	0xbddb4114	-0.10705772
125	0xbdb3c7cc	-0.087783426
126	0x3d23bc23	0.039974343
127	0xbd3068ee	-0.04306882
128	0xbd4ae2e9	-0.049532805
129	0x3dc68a2e	0.096943244
130	0xbb97f5a9	-0.0046374393
131	0x3cbff038	0.023429975
132	0xbd4793fa	-0.048725106
133	0xbd9417f3	-0.072311305
134	0xbd38e05e	-0.04513585
135	0xbd30cc81	-0.04316378
136	0xbd88b79d	-0.066756465
137	0xbdaf6653	-0.08564439
138	0xbdd6d9fb	-0.10490795
139	0x3c8d136e	0.017221179
140	0x3cf9b297	0.030480666
141	0x3c8e564c	0.017375134
142	0xbda5c86f	-0.0809487
143	0x3cef2de3	0.029196685
144	0x3dbb2c57	0.091393165
145	0x3bf3f760	0.007445261
146	0xbd2d6d88	-0.042340785
147	0xbde2d774	-0.11076251
148	0x3c1558ca	0.009115407
149	0xbd064cec	-0.032788202
150	0x3d0d33bc	0.034473166
151	0x3d358b1d	0.044322122
152	0x3d394c35	0.045238692
153	0xbc87b391	-0.016565116
154	0x3dd3d14e	0.10342656
155	0xbb654c2e	-0.0034988034
156	0x3cfef2b9	0.031121599
157	0xbe9332e3	-0.2874976
158	0xbe098a70	-0.13431716
159	0xbd7f1f61	-0.062285785
160	0x3f70b35f	0.940237
161	0x3cfaf4be	0.03063428
162	0xbda30ccc	-0.07961425
163	0xbc8fc0ad	-0.01754793
164	0xbd497f27	-0.049193528
165	0xbe15bec3	-0.14623551
166	0xbcd89f5c	-0.026443176
167	0xbaee58c5	-0.0018184414
168	0x3d930198	0.07178038
169	0xbdacc392	-0.084357396
170	0x3de6dc32	0.11272468
171	0xbd9d90f9	-0.07693667
172	0xbdf67c5a	-0.12035437
173	0xbd69cbee	-0.057079248
174	0x3ca1ecf1	0.019766303
175	0x3d90e53d	0.07074974
176	0x3d4caeab	0.049971264
177	0xbdbfc7ac	-0.09364256
178	0x3cdb9484	0.026804216
179	0x3d998b7d	0.074973084
180	0x3c6eb900	0.014570475
181	0x3da6f8ac	0.08152899
182	0xbceaed55	-0.028677622
183	0x3db1c58b	0.086802565
184	0xbdd0720b	-0.10178002
185	0xbdf4dc88	-0.119561255
186	0xbd13fe9f	-0.036131497
187	0xbcdb2952	-0.026753101
188	0x3c33d8fb	0.010977025
189	0xbad3a606	-0.0016147501
190	0x3db8ba05	0.090198554
191	0xbc7c70b3	-0.015407729
192	0xbde7b352	-0.113134995
193	0x3d80bfce	0.06286584
194	0x3d7a3ded	0.061094213
195	0xbd17ea4a	-0.03708867
196	0xbddb4cfe	-0.107080445
197	0xbd93bf83	-0.07214262
198	0xbe895b96	-0.26827687
199	0xbc3c2391	-0.011483089
200	0xbda4a37e	-0.08038996
201	0x3d1d53b8	0.03840992
202	0x3d41fd67	0.047360804
203	0xbaffa5ac	-0.001950433
204	0xbd9ba102	-0.07599069
205	0x3d3e3d38	0.0464451
206	0xbd7e7995	-0.06212767
207	0xbdc8c592	-0.098033085
208	0xbdd450ba	-0.1036696
209	0xbc2f195b	-0.010687198
210	0xbdce4ba7	-0.10073023
211	0xbd13f30b	-0.036120456
212	0x3d4c0bd4	0.049815968
213	0x3d95fd46	0.07323699
214	0xbd8cc99c	-0.068743914
215	0xbb444b13	-0.0029951974
216	0x3d2244c2	0.039616354
217	0xbd48bfb8	-0.049010962
218	0xbd330d04	-0.043713585
219	0xbdfd654c	-0.123728365
220	0xbce7bb8b	-0.02828767
221	0xbe91cbf3	-0.28475913
222	0xbd34e7f1	-0.04416651
223	0xbd0ea75a	-0.034827568
224	0x3dde6091	0.10858262
225	0x3d679208	0.05653575
226	0xbd2aee30	-0.04173106
227	0xbdcf1d99	-0.10113067
228	0xbca4810e	-0.02008107
229	0x3da4c07a	0.080445245
230	0x3cddd612	0.027079616
231	0x3c89843c	0.016786687
232	0xbc1a0bb9	-0.009402209
233	0x3d2567c1	0.04038215
234	0xbcdd4daf	-0.027014581
235	0x3d53ee73	0.051741075
236	0x3dd99457	0.10623997
237	0x3daabd1e	0.083368525
238	0x3d2827c8	0.041053563
239	0xbcb5eebf	-0.02220857
240	0xbd8ee470	-0.06977165
241	0xbca7ac6a	-0.020467956
242	0xbdc6b004	-0.09701541
243	0xbd4a7dfc	-0.049436554
244	0xbe00580d	-0.12533589
245	0xbd3111cc	-0.043229863
246	0x3c0217dd	0.00794026
247	0x3d82d35d	0.063879706
248	0x39ff056b	0.00048641427
249	0xbe06df0f	-0.13171028
250	0xbdc8bde8	-0.09801847
251	0x3df5f976	0.120104715
252	0x3c0a3794	0.008436102
253	0xbdedbce9	-0.116082974
254	0xbbfd7982	-0.007735432
255	0xbd02a4e5	-0.031895537

node_function_neighbor.6.bias f4 [4]
0	0xbd915619	-0.070965
1	0x3e0d9c31	0.13829114
2	0xbd697c38	-0.05700323
3	0xbe31bcfd	-0.1735725

edge_function.0.weight f4 [64, 4]
0	0xbec5eaed	-0.38655797
1	0x3d35ff8c	0.04443316
2	0xbecc2a3e	-0.39875978
3	0xbcba425d	-0.022736723
4	0xbd96d9af	-0.073657386
5	0x3e29dee7	0.16588937
6	0x3e4340c5	0.19067676
7	0x3df3da54	0.11906877
8	0x3ec2cec6	0.3804838
9	0xbcefa8ca	-0.02925529
10	0x3ee46f5d	0.44616213
11	0x3e59c0b7	0.21264921
12	0xbdafd223	-0.08585002
13	0x3ecd71f0	0.4012599
14	0x3eb1d0bc	0.34729564
15	0xbd904f09	-0.07046325
16	0x3ec0b14a	0.3763526
17	0xbe6ff86d	-0.2343461
18	0x3b1c764a	0.0023874217
19	0x3ed9b5df	0.4252157
20	0x3d40629f	0.046969052
21	0x3d4cdf45	0.050017614
22	0x3e3dbe3e	0.18529603
23	0xbe9507b5	-0.29107442
24	0xbedb5204	-0.4283601
25	0x3dbfae21	0.09359384
26	0xbebaa3b0	-0.3645301
27	0x3ed15494	0.4088484
28	0x3eab51c4	0.3346082
29	0x3da53e93	0.08068576
30	0x3c7d8d16	0.015475532
31	0xbea1c873	-0.31598243
32	0xbeac70ce	-0.33679813
33	0x3ecebf78	0.40380454
34	0xbd16e062	-0.036835082
35	0xbe05074d	-0.12991066
36	0x3ebdf874	0.37103617
37	0xbe1ca3f8	-0.15296924
38	0x3ebbc9e5	0.3667747
39	0xbc7385ca	-0.014863441
40	0x3eb9d337	0.36293957
41	0xbd95866c	-0.073010296
42	0x3e95337a	0.29140836
43	0xbebc1064	-0.36731255
44	0x3e8aca6c	0.2710756
45	0xbf02f542	-0.51155484
46	0x3f001b90	0.5004206
47	0x3d6a824d	0.05725317
48	0xbdfac173	-0.12243929
49	0x3cfc5d29	0.030806141
50	0xbdd9f58a	-0.10642536
51	0xbd702e8d	-0.058638144
52	0x3ed7dde0	0.42161465
53	0xbc3715b1	-0.011174605
54	0xbd7dd911	-0.06197459
55	0xbee8c294	-0.4546095
56	0x3e7c2ba3	0.24626021
57	0xbe91641e	-0.28396696
58	0xbe06fe2b	-0.13182895
59	0x3ecc83df	0.3994436
60	0x3e6c8c73	0.23100452
61	0xbe82d7de	-0.2555532
62	0xbeb40913	-0.35163173
63	0xbca9e9d1	-0.020741375
64	0xbefd7733	-0.49505004
65	0xbee1e989	-0.44123486
66	0x3df801a5	0.12109689
67	0x3e331c58	0.17491281
68	0x3ead2203	0.3381501
69	0x3ecf5143	0.40491685
70	0x3ec112d7	0.37709686
71	0xbe871a43	-0.26387224
72	0xbe660fbc	-0.2246694
73	0xbe33980a	-0.17538467
74	0xbe02f8a6	-0.12790164
75	0xbe1f6faa	-0.1556994
76	0x3e8fb2ff	0.2806625
77	0xbe113271	-0.14179398
78	0xbed06217	-0.40699837
79	0xbee9c9b5	-0.45661703
80	0x3e39ce77	0.18145166
81	0xbda4c8e6	-0.08046131
82	0x3ec0d4e3	0.3766242
83	0x3d4a1e9a	0.04934559
84	0xbecb8951	-0.39753202
85	0x3e95fcd5	0.29294458
86	0xbdeea582	-0.11652662
87	0x3ea4c0c3	0.32178316
88	0xbe1c9201	-0.15290071
89	0x3dfe82de	0.12427305
90	0xbeead033	-0.45861968
91	0xbda929ac	-0.082599014
92	0x3cf2fd40	0.029661775
93	0x3d9fa74d	0.07795582
94	0xbdf69fc8	-0.120421946
95	0xbeeb57d0	-0.45965433
96	0xbed6bf19	-0.4194267
97	0x3c43e1e2	0.01195571
98	0xbec77f93	-0.3896452
99	0xbe96d6da	-0.29460794
100	0xbe9d92a4	-0.3077594
101	0xbe98c280	-0.29835892
102	0xbc846e9a	-0.01616602
103	0xbd628c5e	-0.055309646
104	0x3ea4a43d	0.32156554
105	0xbee41708	-0.4454882
106	0xbe8475f6	-0.25871247
107	0x3e5347ce	0.2063286
108	0x3ec75a7b	0.3893622
109	0x3e8d4502	0.2759171
110	0xbec2d155	-0.38050333
111	0xbe145380	-0.14484978
112	0xbee91a15	-0.45527712
113	0xbebfdfa5	-0.37475315
114	0x3ed2b943	0.41156968
115	0x3df11f7c	0.11773583
116	0xbe1d8a8c	-0.15384883
117	0x3df9b029	0.12191803
118	0xbedfe4f5	-0.43729368
119	0x3e94012e	0.2890715
120	0xbe60f766	-0.21969375
121	0xbed7a568	-0.42118382
122	0x3ebd295c	0.36945617
123	0x3e7560a5	0.23962648
124	0x3df1823b	0.117924176
125	0xbec3fe14	-0.38279784
126	0x3ef58baf	0.47958133
127	0xbe400172	-0.18750551
128	0xbe52cd67	-0.20586167
129	0xbeea404f	-0.4575219
130	0x3e2a2679	0.16616239
131	0xbeb471e1	-0.35243133
132	0xbe4a5d28	-0.19762099
133	0xbb79eb17	-0.003813451
134	0xbe84a83a	-0.25909597
135	0xbd604972	-0.054757543
136	0xbe3695d5	-0.17830594
137	0xbe00fd80	-0.12596703
138	0xbd1d9e8f	-0.03848129
139	0xbd8c220b	-0.06842431
140	0xbe1a601e	-0.15075728
141	0xbe0fef44	-0.14056116
142	0x3d658b14	0.05604084
143	0x3e39517a	0.18097487
144	0x3e51157d	0.20418353
145	0x3e87dce3	0.2653571
146	0xbe97f3df	-0.29678246
147	0xbe066b99	-0.13126983
148	0xbe5e59b5	-0.21713908
149	0xbe89cf0c	-0.26915777
150	0xbedfd210	-0.43714952
151	0x3eb8a10f	0.36060378
152	0x3e4ff594	0.20308524
153	0xbebaf453	-0.3651453
154	0x3e3cafb3	0.18426399
155	0xbc42517a	-0.011860246
156	0x3e1d38c8	0.15353692
157	0xbed31be3	-0.41232213
158	0xbe06e6b2	-0.13173941
159	0x3e7eb9c6	0.24875554
160	0x3d81dde4	0.063411504
161	0x3de71456	0.11283176
162	0xbee578e1	-0.44818786
163	0x3eb56a42	0.3543263
164	0xbe427743	-0.18990807
165	0xbe839faf	-0.25707766
166	0x3e7d2de2	0.24724534
167	0x3d7d130b	0.06178574
168	0x3ed31484	0.4122659
169	0x3e03d8d3	0.1287568
170	0xbea1afd1	-0.3157945
171	0xbc99527a	-0.018716086
172	0x3ee7bf59	0.45263174
173	0x3e34796c	0.17624444
174	0xbe12e75c	-0.14346069
175	0x3d6363bd	0.05551504
176	0x3e42cda7	0.19023763
177	0x3e8d67ea	0.27618343
178	0xbcd0011b	-0.025391152
179	0xbe8fecd0	-0.2811036
180	0xbe1afe54	-0.15136081
181	0x3e94095a	0.28913385
182	0xbe58e83f	-0.21182345
183	0x3e65ec5a	0.22453442
184	0xbeafe49f	-0.34354112
185	0xbe856aac	-0.26057947
186	0x3dee3bd5	0.11632506
187	0x3e9bede5	0.30454937
188	0xbe59a81b	-0.21255533
189	0x3e2f43da	0.17115727
190	0xbdfa00b6	-0.12207167
191	0xbe8ddd59	-0.27707937
192	0xbe291106	-0.165104
193	0x3ed43976	0.4145009
194	0x3e864f15	0.2623221
195	0x3ed610e9	0.41809776
196	0xbe828099	-0.25488737
197	0xbdb3683f	-0.08760118
198	0x3d90739b	0.070533
199	0x3bb77146	0.00559822
200	0xbea0d141	-0.31409648
201	0x3e91ce02	0.28477484
202	0xbec48f44	-0.38390553
203	0x3ee67bab	0.45016226
204	0xbe897e89	-0.2685435
205	0xbe22fc1b	-0.15916483
206	0xbe5f23be	-0.21790978
207	0xbed0bc7d	-0.40768805
208	0xbecc714e	-0.39930195
209	0x3e4f93ef	0.20271276
210	0xbf063ad5	-0.5243352
211	0x3e6c481c	0.23074383
212	0xbdf7da07	-0.12102132
213	0xbed34019	-0.4125984
214	0x3ee23117	0.44178078
215	0xbe0f22f2	-0.13978174
216	0xbe082093	-0.13293676
217	0xbe15232f	-0.14564203
218	0x3eab74ad	0.33487454
219	0x3ea533d2	0.32266098
220	0xbec2599d	-0.37958995
221	0x3ee45b34	0.44600832
222	0xbd595449	-0.053058896
223	0xbece2cbd	-0.40268508
224	0x3eeb9e7b	0.46019349
225	0x3e371abd	0.17881294
226	0x3ea82a4c	0.3284477
227	0xbede04e8	-0.43363118
228	0xbea5da2f	-0.32393023
229	0x3e968529	0.29398468
230	0xbe1891ff	-0.14899443
231	0xbe373442	-0.17891029
232	0x3ecf4a3e	0.4048633
233	0xbeb054b3	-0.3443962
234	0xbdb1e791	-0.08686746
235	0x3ed931d2	0.42420822
236	0x3e621d96	0.22081599
237	0xbd3e579e	-0.046470277
238	0x3cc56444	0.024095662
239	0xbe810a5d	-0.2520322
240	0xbdc58570	-0.09644592
241	0xbe5af072	-0.21380785
242	0x3ed31e37	0.4123399
243	0x3eeae475	0.45877424
244	0x3e26138f	0.16218399
245	0xbee8a86a	-0.4544099
246	0xbe96c1cb	-0.29444727
247	0xbef054f5	-0.46939817
248	0xbe214591	-0.15749194
249	0xbddf406a	-0.10900958
250	0x3eb8a4ff	0.36063382
251	0xbe221f1f	-0.15832184
252	0xbe764377	-0.24049173
253	0xbe4b86cd	-0.19875641
254	0x3ebe5fae	0.37182373
255	0x3eb1678f	0.3464932

edge_function.0.bias f4 [64]
0	0xbe4fb07f	-0.20282172
1	0x3e81d669	0.25358894
2	0x3ec96e7d	0.39342108
3	0x3ed34523	0.41263685
4	0x3d2df4c6	0.042469762
5	0x3eb27f5d	0.34862795
6	0x3e47ccd5	0.19511731
7	0x3e772f2c	0.24139088
8	0x3e9c6a1f	0.30549714
9	0x3dd25556	0.10270183
10	0xbed2ba5c	-0.41157806
11	0x3e2f5b07	0.17124568
12	0xbec3fd4b	-0.38279185
13	0xbf01cca0	-0.5070286
14	0xbe98fb0a	-0.29879028
15	0xbe7609ee	-0.24027225
16	0xbede9cae	-0.43478912
17	0x3da2bf70	0.0794667
18	0x3e56fe58	0.20995462
19	0x3edce2a2	0.43141657
20	0x3ebba9e3	0.3665305
21	0xbd8878dd	-0.06663678
22	0x3c3ef62f	0.011655374
23	0xbe289738	-0.16463935
24	0xbe2228a5	-0.15835817
25	0x3d84d9c1	0.06486846
26	0x3ee977ae	0.4559912
27	0x3cfcf82e	0.03088006
28	0xbd5d73e9	-0.05406562
29	0xbe885613	-0.2662817
30	0xbeec8b4b	-0.46200022
31	0x3d723d9a	0.05914078
32	0xbf020ad4	-0.5079777
33	0xbe7d2999	-0.247229
34	0xbb801ef6	-0.003909941
35	0x3dae7832	0.08519019
36	0xbe557f8a	-0.20849434
37	0x3ec60828	0.38678098
38	0x3dc2af7b	0.095061265
39	0xbeb59f79	-0.3547323
40	0x3e170bac	0.14750546
41	0xbe64e4d6	-0.22352919
42	0x3e014a16	0.12625918
43	0xbe9a1417	-0.30093452
44	0xbe7f85e5	-0.2495342
45	0x3e8fc2a5	0.2807819
46	0xbdcf09ca	-0.10109289
47	0x3ee182ca	0.44045097
48	0xbd3399b9	-0.043847773
49	0xbe48b91b	-0.19601862
50	0xbcf1c128	-0.02951105
51	0xbeaaba34	-0.33345187
52	0x3e7db803	0.24777226
53	0xbe8c199d	-0.2736329
54	0xbd2cec27	-0.0422174
55	0xbeddb23c	-0.43300045
56	0xbedb7f93	-0.4287077
57	0x3e22a879	0.1588458
58	0xbe9fc0f6	-0.31201905
59	0x3e4f2d09	0.20232023
60	0x3ec55591	0.38541844
61	0xbd30f90b	-0.043206256
62	0xbe9d8158	-0.30762744
63	0x3d04abd2	0.032390423

edge_function.2.weight f4 [64, 64]
0	0xbdd8ca41	-0.10585452
1	0xbd78d1a4	-0.060746804
2	0x3cde18c4	0.027111419
3	0x3b55562d	0.0032552585
4	0xbd8a9038	-0.06765789
5	0x3d996a79	0.07491011
6	0xbdbcf2c3	-0.092259906
7	0x3dedc503	0.11609843
8	0x3dcfe4f5	0.10151092
9	0xbda50d62	-0.08059193
10	0xbda2d12e	-0.07950054
11	0x3dd959d4	0.106128365
12	0xbdb8c754	-0.09022394
13	0xbda0c0c6	-0.078492686
14	0xbd4d95af	-0.050191578
15	0xbbbd1996	-0.0057708723
16	0xbde3279a	-0.11091538
17	0xbd7cac26	-0.06168761
18	0x3bd4e766	0.0064973114
19	0x3d169d67	0.036771204
20	0x3dc1118c	0.09427175
21	0x3d4be9e5	0.049783606
22	0x3dfb7e0e	0.122799024
23	0xbd20a8a4	-0.03922333
24	0x3dc1e8fd	0.09468267
25	0x3dd560e2	0.104188696
26	0x3d671885	0.056419868
27	0x3e0c9651	0.13729216
28	0xbd8f6b5b	-0.07002898
29	0x3e0e5321	0.13898899
30	0xbd9aa70a	-0.075513914
31	0x3d9c0d8d	0.07619772
32	0xbde9a636	-0.11408655
33	0xbd841b6b	-0.06450542
34	0xbc9f20e8	-0.01942487
35	0xba2b68d2	-0.0006538752
36	0xbca0b4cd	-0.019617463
37	0x3b057c1e	0.002036817
38	0x3d59a21f	0.053133126
39	0x3e0176a5	0.12642916
40	0xbd9f8d52	-0.077906266
41	0x3bd0c67d	0.006371318
42	0xbb1933f4	-0.0023376914
43	0xbda81b7b	-0.082083665
44	0xbd1b240d	-0.037876178
45	0xbd84137f	-0.06449031
46	0x3d01116c	0.031510755
47	0x3d70ba1b	0.058771234
48	0x3d78e83f	0.060768362
49	0xbdb1a935	-0.08674852
50	0x3e16d4f0	0.14729667
51	0x3c55918f	0.013035192
52	0x3d91d067	0.07119828
53	0xbd0b3782	-0.033988483
54	0x3d7db2ab	0.06193797
55	0x3d26fb6f	0.04076713
56	0x3d86fa2e	0.06590687
57	0xbcc998e4	-0.024609037
58	0x3db21834	0.08696023
59	0xbd951fae	-0.07281433
60	0x3c73b324	0.014874253
61	0xbde2bb4b	-0.110708795
62	0x3d0d331d	0.034472574
63	0x3d510bf3	0.051036786
64	0xbdfe7561	-0.12424732
65	0xbde28130	-0.11059797
66	0xbd51458c	-0.051091716
67	0xbda8c564	-0.08240774
68	0x3dfc2647	0.12311988
69	0xbd74a0cc	-0.05972366
70	0xbdac3914	-0.08409324
71	0x3da53d08	0.080682814
72	0x3d1feda8	0.039045006
73	0xbdcd976b	-0.10038646
74	0xbd7eecb4	-0.062237456
75	0xbdbf45c1	-0.093394764
76	0x3dec6b0b	0.11543854
77	0xbd3d3a72	-0.046198316
78	0x3d4e6488	0.050388843
79	0xbda993b3	-0.082801245
80	0x3d6cb577	0.057790246
81	0x3d88644b	0.06659754
82	0x3e015848	0.12631333
83	0x3c593e97	0.0132595515
84	0xbcff1ba2	-0.031141106
85	0xbd29a861	-0.041420344
86	0x3d09ba24	0.033624783
87	0x3de5d1e7	0.11221676
88	0x3d0f9dd3	0.035062622
89	0x3e004c1b	0.12529032
90	0x3d416701	0.047217373
91	0x3ddc2ebe	0.10751103
92	0x3c23b6d4	0.00999232
93	0xbdea0faf	-0.11428773
94	0xbc707ef0	-0.014678702
95	0xbd973dab	-0.07384809
96	0x3dc0255b	0.09382125
97	0x3db33dc9	0.08752019
98	0xbdd17fb3	-0.10229435
99	0xbc778f41	-0.015109838
100	0x3dec034b	0.115240656
101	0xbc935bb2	-0.01798806
102	0x3d55c53d	0.052190054
103	0xbd201486	-0.039082073
104	0x3dcb4f47	0.0992723
105	0xbcbe2037	-0.02320872
106	0x3dcb106f	0.09915244
107	0xbdfe2ae0	-0.124105215
108	0x3a88b6bb	0.0010430434
109	0x3d0b2b24	0.03397669
110	0xbda95803	-0.0826874
111	0x3d9426fe	0.07234
112	0xbd85b507	-0.06528669
113	0xbc540a54	-0.012941916
114	0x3d11fb25	0.0356399
115	0xbc1cca33	-0.009569692
116	0xbd69e07b	-0.057098847
117	0xbda663c9	-0.08124501
118	0xbd736c72	-0.059429593
119	0x3ce48462	0.027895156
120	0xbe092405	-0.13392647
121	0xbc37340b	-0.011181842
122	0x3d8cd3a3	0.06876304
123	0x3e0a2d82	0.13493922
124	0x3dc2d601	0.09513474
125	0xbd77eb73	-0.060527276
126	0x3d60a2c7	0.054842737
127	0xbb0c43aa	-0.0021402636
128	0x3c989619	0.01862626
129	0xbe2c00a6	-0.16797122
130	0x3c994ad8	0.018712446
131	0xbd3c0230	-0.045900524
132	0x3d3b705f	0.045761462
133	0xbda345c4	-0.07972291
134	0xbd17e66b	-0.037084978
135	0xbe1d54e1	-0.1536441
136	0x3d55ef65	0.052230258
137	0xbc2c4fa6	-0.010517037
138	0x3da4886a	0.080338314
139	0xbccbb9bd	-0.02486884
140	0xbd93e974	-0.07222262
141	0xbce06ba6	-0.02739508
142	0x3d831688	0.06400782
143	0x3d73c540	0.059514284
144	0x3c78bff6	0.015182486
145	0xbe26963b	-0.16268246
146	0xbd3c3e5d	-0.04595791
147	0x3c225dc8	0.0099100545
148	0xbcb31406	-0.021860134
149	0xbd013685	-0.031546135
150	0x3e03b2d1	0.12861182
151	0x3b239c3f	0.0024964956
152	0xbd964007	-0.07336431
153	0x3da28415	0.07935349
154	0xbb3f4095	-0.002918278
155	0xbe26d247	-0.16291152
156	0xbdf3fe26	-0.11913709
157	0x3d0f474e	0.03498011
158	0x3de0824a	0.10962351
159	0xbe131d51	-0.14366652
160	0xbcb0e3d1	-0.021593006
161	0x3df4da12	0.11955656
162	0xbd463bfb	-0.048397046
163	0x3d77212e	0.060334377
164	0x3c8ebcdf	0.017424045
165	0x3e0c34f7	0.1369208
166	0xb9060789	-0.00012782043
167	0xbc158b6a	-0.009127477
168	0xbe20b4d0	-0.15693974
169	0xbd5b3b46	-0.053523324
170	0x3d1b9b9b	0.037990194
171	0x3d590013	0.052978586
172	0xbc9b0f27	-0.018928124
173	0x3b601015	0.0034189273
174	0xbe03c538	-0.12868202
175	0xbdaf9af1	-0.085744746
176	0xbe390dad	-0.18071623
177	0x3de20522	0.11036135
178	0x3da156e4	0.07877901
179	0x3d4414a1	0.047871236
180	0xbda03dbd	-0.07824276
181	0xbd9ca173	-0.076479815
182	0xbe0a63d4	-0.13514644
183	0xbc6d1ebd	-0.014472661
184	0xbd91fe26	-0.07128553
185	0xbe157a93	-0.1459754
186	0xbc5d9d99	-0.013526344
187	0xbdc6b02f	-0.09701573
188	0x3d663e01	0.056211475
189	0x3cc696da	0.024241854
190	0x3d88d5d0	0.066814065
191	0xbd951223	-0.0727885
192	0x3dc8d8de	0.09806989
193	0x3d3ad6ae	0.04561489
194	0x3d2af611	0.041738573
195	0xba8e5717	-0.0010859695
196	0xbdb43587	-0.08799272
197	0xbdc1e20a	-0.09466942
198	0x3da97427	0.082741074
199	0xbdc51871	-0.096238025
200	0x3d1fb039	0.03898642
201	0xbe013dea	-0.12621275
202	0x3cf595a8	0.029978588
203	0xbd958dcd	-0.07302437
204	0x3d9b5232	0.07584037
205	0xbdfd57fe	-0.12370299
206	0xbde77a50	-0.11302626
207	0x3de61315	0.11234108
208	0xbdc0f90b	-0.09422501
209	0xbe0a82be	-0.13526437
210	0xbd935984	-0.07194808
211	0xbd5b7d66	-0.053586386
212	0x3c4e598d	0.012594593
213	0xbd634e96	-0.055494867
214	0xbd218dfe	-0.039442055
215	0xbde29d55	-0.11065165
216	0x3dec8140	0.1154809
217	0xbd080d56	-0.033215843
218	0xbd490374	-0.04907556
219	0xbd4da60a	-0.050207175
220	0x3cad1370	0.021127433
221	0xbdb5ce68	-0.088772595
222	0x3e0e591b	0.13901179
223	0xbe27d0f9	-0.1638831
224	0xbd0688c1	-0.032845262
225	0x3d625001	0.05525208
226	0x3bdfe1ea	0.006832351
227	0x3df476f9	0.11936755
228	0xbdcad3b1	-0.09903658
229	0x3c7ff391	0.015622036
230	0x3b0c7f0d	0.0021438033
231	0x3dd96a1f	0.10615944
232	0x3d8ce422	0.068794504
233	0xbd28ac0b	-0.041179698
234	0xbcdd69e1	-0.027028026
235	0x3d8c85fa	0.068614915
236	0xbe031ac7	-0.12803183
237	0xbd1e016e	-0.038575582
238	0x3df9681c	0.121780604
239	0xbdac951c	-0.08426878
240	0xbe09d12d	-0.134587
241	0xbd9f1516	-0.07767694
242	0x3dd66f14	0.10470405
243	0xbdbc2574	-0.09186831
244	0x3e011358	0.12605035
245	0x3c10fbfb	0.008849139
246	0xbe2beea1	-0.16790248
247	0x3be3dd20	0.0069538504
248	0xbd8d934f	-0.069128625
249	0xbddc7498	-0.10764426
250	0x3d8c434c	0.06848773
251	0xbe123233	-0.14276962
252	0xbe0bc400	-0.13648987
253	0xbdb732ee	-0.08945261
254	0xbe70674a	-0.23476902
255	0x3ae56680	0.0017501861

edge_function.2.bias f4 [64]
0	0xbc38622a	-0.011253873
1	0x3c513d36	0.0127709415
2	0xbe260e93	-0.16216497
3	0xbd5d1e5b	-0.053984027
4	0x3da32e6d	0.079678394
5	0x3cc9e492	0.024645124
6	0xbcec74a5	-0.028864214
7	0x3dfbf67f	0.12302875
8	0xbe068f47	-0.13140593
9	0xbcc5dea5	-0.024154017
10	0x3d8cec5f	0.06881022
11	0x3e220e74	0.15825826
12	0xbd0dbaa8	-0.034601837
13	0xbd959ed1	-0.073056825
14	0x3d99edd3	0.075160645
15	0xbd25ecd4	-0.04050906
16	0x3e620c3c	0.2207498
17	0xbc37e64d	-0.011224342
18	0xbddeec60	-0.10884929
19	0x3d28c55c	0.04120384
20	0xbd7a34bf	-0.06108546
21	0x3dabb265	0.083836354
22	0x3bfb22a6	0.0076640425
23	0x3cb1ad4e	0.021689083
24	0x3e22aa72	0.15885332
25	0x3c4201c0	0.011841238
26	0x3d68444a	0.05670575
27	0xbda9d9be	-0.08293484
28	0xbdb6f7dd	-0.08933995
29	0xbd8ddea6	-0.069272324
30	0x3da08546	0.0783792
31	0x3e05a08d	0.13049527
32	0x3bc6c0ff	0.0060654874
33	0xbd2bac24	-0.041912213
34	0x3e17a23b	0.1480798
35	0x3cfff3bf	0.031244157
36	0x3e0e2db1	0.13884617
37	0xbd651ab8	-0.055933684
38	0x3df0051d	0.11719725
39	0x3c33f7a7	0.010984338
40	0x3cd30235	0.025757888
41	0xbd799a92	-0.060938425
42	0xbe2029b8	-0.15640914
43	0x3d064ec8	0.032789975
44	0xbd8cd174	-0.068758875
45	0xbde2355b	-0.11045333
46	0xbca56176	-0.020188075
47	0xbcb0043e	-0.021486398
48	0xbd7d2444	-0.061802164
49	0xbd601ae5	-0.05471315
50	0x3d88f85e	0.06687997
51	0xbcdf2b79	-0.027242409
52	0xbd05d7b9	-0.032676432
53	0xbd81d0df	-0.06338667
54	0xbe2e071d	-0.16994901
55	0xbd5dbc70	-0.054134786
56	0xbd872813	-0.065994404
57	0x3bf1cda1	0.007379249
58	0xbbffb0b9	-0.0078030494
59	0xbd81385b	-0.06309577
60	0x3d05621d	0.03256427
61	0x3df771d3	0.12082257
62	0xbe09f6ee	-0.13473102
63	0xbd817ee1	-0.06323028
