Projects/GuoxiangGrayson_T_A study of multi-fidelity graph neural networks/Model_save/Canti2D/Rank=93-GNN-nB-64-Lr-0.005/model.pth (torch, 114781 bytes, 24 tensors)

node_function_neighbor.0.weight f4 [64, 2]
00000000: d065 27bf c037 62bc 5803 1e3e d08a b53a
00000010: a718 093f 5a06 12bf 1d11 a63e fc32 c0be
00000020: ab37 1bbf dfe3 133f 6a48 26be c9bd b6be
00000030: 3a8c 313e 0e12 31bf 489a 1fbf 2dcd 04bf
00000040: 695b a0be 3ed7 303f b2c2 fe3c 03c4 2c3e
00000050: 7fef 7abe 5353 ad3c ea77 7c3e 70a8 ebbe
00000060: 67b0 6cbe e06a f93d 780b a1be b7e8 45bd
00000070: 3664 7bbe f7ad d33e 602e 17bf 5575 0f3f
00000080: c6b6 c93e 7755 f23e 2e01 e2bd e258 e7be
00000090: 3bf5 adbd 1268 03bd 435c 6bbe 8102 a4bd
000000a0: 3433 27be 9d81 853e 639c 1ebf 09ab 94be
000000b0: 1130 ab3e e733 093f b260 f83e a767 cb3e
000000c0: 7573 af3e 2379 e53e e090 fd3e 4dee 163f
000000d0: d63f fdbe 00c4 a9be 3d16 493e 4e8a b03e
000000e0: 3171 333e 7faa b03a ca77 d23d 34e8 1ebf
000000f0: a46d 563d b3ab a33d d3a8 3a3f ce32 1d3f
00000100: c77b a5be dd7e 4d3e f822 f3bd 79e8 0a3f
00000110: 6f20 8d3d 9873 a3be 4ef1 073f 4aad 813c
00000120: 2140 ae3e 0513 5d3e 7215 8e3e b4d0 053f
00000130: b49b 5b3e 0fb9 07bf 7c9f 113f bcf7 47bc
00000140: 7723 c13e c40b a93e 00ff 8cbe 5b86 9d3e
00000150: 7c42 25be 6eb8 0d3f 588f a8be ae01 0ebf
00000160: 00f3 0fbf 3430 b1be 91e7 153e 9f7c c23d
00000170: 4b04 af3e 55bd e23e f0ed 693e 1610 1b3f
00000180: b7b7 bc3e 25f5 a4be a7a0 cebe 85cf 1bbe
00000190: c82a a2bb d3c0 f33e 0da6 063f ef72 de3e
000001a0: 33ae 16bf e59b a6be e0e0 bebc 00f2 90be
000001b0: c2fb 363e 6990 f93e fb41 5f3e 7fe8 cebe
000001c0: fec3 d4bd 18d5 22bc d79e 09bd ecdd ffbe
000001d0: bbe2 5c3e 5503 a73b 5dfc 753e 48fb f1be
000001e0: 00d2 203f 0cf7 0cbf de49 81bc 9139 c7be
000001f0: e10e 2a3e f245 463e 2229 fe3e c1ca 1e3f
-0.6538973 -0.013807237 0.15430963 0.0013850573 0.5355324 -0.5704094 0.3243493 -0.37538898
-0.6063182 0.5776958 -0.16238561 -0.3569167 0.17338648 -0.69168174 -0.6234479 -0.51875573
-0.3131974 0.69078434 0.031098697 0.16871648 -0.24505423 0.021157896 0.24655119 -0.46026945
-0.23114167 0.12178588 -0.31454062 -0.048317637 -0.24549946 0.41343662 -0.5905514 0.5603841
0.39397258 0.4733083 -0.11035381 -0.45185 -0.084940396 -0.03208167 -0.22984414 -0.0800829
-0.16328126 0.2607545 -0.6195738 -0.2903674 0.3343511 0.5359482 0.48511273 0.39727518
0.34267774 0.44818982 0.49524593 0.5895737 -0.49462765 -0.3315735 0.1963739 0.34480518
0.17523648 0.0013478546 0.10276754 -0.62073064 0.052350655 0.079917334 0.72913855 0.61405647
-0.32320997 0.20067926 -0.11871904 0.54260975 0.06890952 -0.3192413 0.53102577 0.015829701
0.340333 0.21589287 0.27750736 0.5227158 0.21446115 -0.5301675 0.5688398 -0.012205061
0.3772237 0.3301679 -0.275383 0.30766568 -0.16138643 0.5535954 -0.32921863 -0.55471313
-0.56230164 -0.3460709 0.14639117 0.09496426 0.34182963 0.44285074 0.22844672 0.6057142
0.36858913 -0.3221828 -0.40356943 -0.15215881 -0.0049489476 0.4760805 0.52597123 0.43447062
-0.58859557 -0.32540813 -0.023300588 -0.2830963 0.17869475 0.4874299 0.21802513 -0.40411755
-0.10388945 -0.009938501 -0.033598747 -0.49974 0.21570866 0.0050968328 0.2402205 -0.47262025
0.62820435 -0.55064464 -0.015782293 -0.38911107 0.16607238 0.1936262 0.49640757 0.6202813

node_function_neighbor.0.bias f4 [64]
00000000: 9213 86be c4db d9bd 9bf7 3dbe 6091 11bf
00000010: e943 913e 476c 14bf 1728 83be dc98 393f
00000020: 2da2 7e3e a1a9 083f f42a 0fbf a2cd 26bf
00000030: fbf3 9abe b841 c9be fd3d fbbd f6b9 893d
00000040: 15a2 c33c af5a 2e3f 6674 403f 67a3 efbe
00000050: 1da6 fa3c f043 e1be 0d4e 08bf e932 2ebf
00000060: 8e4d d6bd 9ba5 67be 9338 7a3e 197f 10bf
00000070: 354d 303f 073f 7f3e 83c4 273f 8c52 4e3d
00000080: 74db 97be d051 1c3f c1e7 0fbe 505c 28be
00000090: 94e0 2bbf d70e 713e ee39 fe3e a2b2 d3be
000000a0: f14c a8be 1c60 133f 215e bcbe cb42 803e
000000b0: 8d58 423f 8dc0 adbd a865 98bc 2a7a 44be
000000c0: 03ab 2dbf df3d 60be db8b da3e e8f7 3cbf
000000d0: fbdd 413f e171 223f cf98 e73e f070 0ebf
000000e0: 50e7 94be ab38 01be f790 a9be 90ca 30bf
000000f0: 0730 1a3d 98d6 29bf ff83 513f 3096 2bbe
-0.26186806 -0.1063762 -0.18551485 -0.5686245 0.28372124 -0.5797772 -0.25616524 0.7249887
0.24866553 0.53383833 -0.55924916 -0.6515752 -0.30264267 -0.39307952 -0.12267683 0.06724922
0.023880998 0.6810712 0.7517761 -0.46804354 0.030596787 -0.43997145 -0.53244096 -0.6804643
-0.10464011 -0.22621767 0.24435644 -0.56443936 0.6886781 0.24926387 0.6553423 0.05037169
-0.29659617 0.61062336 -0.14053251 -0.16441464 -0.67139554 0.23540817 0.49653572 -0.41347224
-0.32871202 0.57568526 -0.36790565 0.2505096 0.7591637 -0.08483992 -0.018603161 -0.19187227
-0.6783907 -0.21898602 0.42684826 -0.73815775 0.7572934 0.63455015 0.4523377 -0.5564108
-0.29082727 -0.12619273 -0.33118412 -0.69059086 0.03764346 -0.6634307 0.81842035 -0.1675651

node_function_neighbor.2.weight f4 [64, 64]
00000000: cef7 3bbd 65da 6abd 96b7 1fbd 43c4 173c
00000010: 0b2b 233d 52d4 a0bd 0237 f7bb f940 c03c
00000020: 5da3 54bd 92c7 ad3c 606b 08bd d93a f1bd
00000030: 6e40 aabc e786 e13c 076c dcbd 38a4 20bc
00000040: cd1d d2bd 80bc af3d f407 4a3e 167a 2abe
00000050: a688 633c b580 713d c267 763d 7c3c 533d
00000060: ce6e f53d 40ae e7bc 75b4 c53c 3ddd bd3c
00000070: 133c 073e 6100 b1bc 7c38 9e3d e9dd 8e3d
00000080: 647e f5bd 2312 8abb e1ec 0b3d 7629 743d
00000090: 5fe0 f1bd f3cf 8a3d a551 9638 1e09 ab3d
000000a0: e72c 573d 761f babd 92cd cd3d b729 173d
000000b0: 99c9 773c 07f9 c73d d9ac 5c3d cb13 c43d
000000c0: 7867 523d 249f 55bd f3dc 3e3c cd0a d6bd
000000d0: ba15 b33d 7383 27bd f8c9 43bc 32b5 793d
000000e0: 98e3 a23a 3832 683d 5183 8e3c f2eb 84bd
000000f0: 87ce ce3d acbd 0bbd a876 d43d ddb9 60bc
00000100: 8414 a53d 8002 b43d 1cc7 9a3d 46da e43d
00000110: 7b3b b53d a72c ae3d 9587 54bd 5db6 c33d
00000120: 68fc afbd 5afd 73bc b691 83bd 4d25 9a3c
00000130: 3b9c 83bd 224e 01be 2473 b23d ecd4 6e3d
00000140: d1a5 133d bf31 cabc aa1a a43d c540 bebc
00000150: bf5d 77bc 2856 b93b 6b00 0b3d fb6b 06be
00000160: 833f 79bd 8aaf b53d 095b d53d 6d59 0fbd
00000170: 6dad 223e fb55 f4bb 3187 bb3c 686f 093e
00000180: 273b 8c3c 2c08 cabd 7852 933c fb53 90bd
00000190: 9f4b b9bb 35b8 95bd 5dd9 0ebd cd81 273d
000001a0: 0118 2e3d 5167 683d bfce a53d bc68 ce3d
000001b0: ba15 933d d93a 083e 97df fbbd c32d 9f3d
000001c0: e288 2b3a 43c4 ccbd f721 babd 6bc2 c83d
000001d0: b169 4d3d 5bd2 173e 37b3 f0bc 0913 a4bd
000001e0: fac6 a3bd 1ba2 973c 78bb 973d f84b 37bc
000001f0: 2ed6 363d 3eef 4ebd 66ab 123d f944 2e3d
00000200: d34d 443c 5183 193e 9bc3 dd3d 2270 e7bd
00000210: 0e64 b73c fce1 313d 2a86 053e 8140 073d
00000220: 6ebc 01be 1e98 0e3d c34a 7fbc 43be 7d3d
00000230: 810b 5d3d 9cec c13d 22b6 5a3d 4ae3 86bd
00000240: fbc2 4d3d b8a2 a2bd e3ff 4abd f201 de3c
00000250: 7411 30bc 852a df3d 8420 3a3d 6425 e63d
00000260: fa64 6a3d 9698 a4bd 01be d43c 0d7b 46bd
00000270: 2d36 4d3c 740c b73c 6bd5 be3c c020 8cbd
00000280: dcff 89bd 2548 adbd 2663 98bc 7401 d13c
00000290: f029 9f3d 8979 8c3d a74c 9f3d b900 653d
000002a0: a3ef 863d 95cc 02be 7035 973c c1ae fe3c
000002b0: f8b2 e1bc b4ac c93d fcae db3d 11f3 4e3d
000002c0: 9253 87bd c101 083e b85d 5ebd 6c3e 6d3d
000002d0: 4da0 063e 3968 a9bd df97 943d 75ab 8abc
000002e0: 3000 8c3d 313f 9fbb da72 dcbc e2dd b0bd
000002f0: a202 893c 1be2 11bd 33c4 da3d 71e2 c3bb
00000300: 58b9 a5bd 8a59 67ba bdf7 bbbb 8493 9ebd
00000310: 924f e9bd dac3 c53d 7aa7 f4bd d0ed e23d
00000320: 0b01 13be 74d2 52bd 0ccd c4bd fc77 acbd
00000330: dcc2 05be c2ae abbd 89f8 95bd 75db 02bd
00000340: 4c33 753d 878b f6bd e823 1bbe 10a0 07bc
00000350: 3a77 463d d094 1d3d 4c2a 893d 132f c53b
00000360: 5311 81bd f1c5 a4bc 4010 7a3d f7ce ef3c
00000370: 1f5a 52bd 17b5 d8bd 574a 10be 083a 283d
00000380: 58be f6bd d26f 6c3d b15a 473d f76d f8bd
00000390: c352 f1bd f55a 523d b8fc b3bd 6bc1 063d
000003a0: e8f1 18be 3bdb 973c a864 103d 7e1e 883d
000003b0: 525b c9bd 2d46 e93b 52fa 86bd 9dc9 edbd
000003c0: a430 caba e444 57bd c4ef 0abe f135 4c3d
000003d0: e4f6 c03d 9fc6 a8bd 3ffe 8dbd f649 6ebd
000003e0: 7c04 b53d c0d1 233b a93e 90bc cfd0 0fbd
000003f0: 3c56 32be c09d 763d 9190 aa3d 22b5 01be
-0.04589062 -0.057337184 -0.03899344 0.009263101 0.03983597 -0.07852997 -0.0075443992 0.023468481
-0.051913608 0.021213327 -0.033305526 -0.117788024 -0.020782676 0.027530147 -0.10762792 -0.009804778
-0.1025959 0.085808754 0.19729596 -0.16648135 0.01388756 0.058960635 0.060157545 0.051571354
0.11984025 -0.028281331 0.0241339 0.023176784 0.1320651 -0.021606626 0.07725617 0.0697592
-0.11986998 -0.004213588 0.034161452 0.059609853 -0.118103735 0.067779444 7.167765e-05 0.08351348
0.052533057 -0.09088032 0.10048975 0.036905017 0.015123748 0.09764295 0.053875778 0.09574088
0.051368207 -0.05215372 0.011649358 -0.10451279 0.087443784 -0.040896844 -0.011950009 0.060963817
0.0012427447 0.056688517 0.0173966 -0.064903155 0.10097986 -0.034116432 0.103741944 -0.013716188
0.08060554 0.08789539 0.07557508 0.11174445 0.088492356 0.085046105 -0.051887114 0.095562674
-0.085930645 -0.014891947 -0.064242765 0.018816615 -0.06426283 -0.12627462 0.087133676 0.058308527
0.036046807 -0.024681924 0.08012898 -0.023224244 -0.015098034 0.0056560226 0.033935945 -0.13127129
-0.060851585 0.08871372 0.10417754 -0.034997392 0.15886469 -0.0074565387 0.022891613 0.13421404
0.01711805 -0.0986484 0.01798366 -0.07047268 -0.0056547667 -0.07310525 -0.034875263 0.040895272
0.04250336 0.056739155 0.08096074 0.1007857 0.071818784 0.13303699 -0.12298506 0.077724
0.00065435295 -0.099983715 -0.090885095 0.09802707 0.050149623 0.14826338 -0.029382331 -0.08011443
-0.07996936 0.018509915 0.07408804 -0.011187546 0.04463785 -0.050521128 0.03580799 0.042546246
0.011981445 0.149915 0.108283244 -0.113006845 0.022386577 0.043428406 0.13039461 0.0330205
-0.12669536 0.03481304 -0.015581789 0.061949026 0.05396605 0.09468958 0.05339635 -0.06586321
0.050234776 -0.079411924 -0.04956044 0.027100537 -0.010746349 0.10896782 0.045441166 0.112376004
0.057225205 -0.08036916 0.025969507 -0.048457194 0.012525124 0.022344805 0.023295125 -0.06842184
-0.067382544 -0.08461026 -0.018601965 0.025513388 0.07771671 0.068591185 0.07778292 0.055908892
0.06588676 -0.12773354 0.018458098 0.031089189 -0.02755116 0.09847394 0.10726735 0.050524775
-0.06607737 0.13281919 -0.054288596 0.05792086 0.13147087 -0.08271832 0.072555296 -0.01692746
0.06835973 -0.004859828 -0.026910234 -0.08636071 0.016724888 -0.03561602 0.10681953 -0.0059779217
-0.08091992 -0.0008825293 -0.00573632 -0.0774298 -0.1139213 0.09656496 -0.11946006 0.110805154
-0.14355867 -0.051470235 -0.09609422 -0.08421323 -0.13062614 -0.08382942 -0.07322795 -0.03194757
0.059863374 -0.120383315 -0.15150416 -0.008277908 0.048453547 0.038471997 0.066975206 0.0060175746
-0.063021325 -0.020113917 0.061050653 0.029273493 -0.051355477 -0.10581415 -0.14090858 0.041070968
-0.12048024 0.057723828 0.048670474 -0.12130349 -0.11783364 0.051356275 -0.08788437 0.0328993
-0.1493603 0.018537154 0.035252243 0.06646441 -0.09831871 0.0071189613 -0.065907136 -0.1161072
-0.0015425873 -0.052555934 -0.13568026 0.04985613 0.09422091 -0.08241009 -0.06933259 -0.058176003
0.08838746 0.0024996847 -0.017608004 -0.035111245 -0.17415708 0.060209036 0.08328355 -0.12666753

node_function_neighbor.2.bias f4 [64]
00000000: b534 2b3e 0e14 223e c70f 1b3e c1f6 32be
00000010: 34f1 813d 48cd 023e 214c 433e 366f a43d
00000020: c1a3 103e 209d 513c 0ff4 1abd ff2a 69bd
00000030: 680f da3c bcf1 99bd 0865 e2bd 7fcb ed3d
00000040: b36f 07bd 587e 553e ea86 4b3d 556c 19be
00000050: b3d7 133e 274e a53c df61 863d 1a2e a8bc
00000060: ff9a 9a3d 572c 61bc fda3 393e 29c8 c03c
00000070: b8b3 6abc 4083 69bc 7151 203e a77a 283c
00000080: 0f2c 353d 2675 aebd a22b 293e 6df1 223e
00000090: beac b2bc eab2 86bd 2e0d 3a3e 21fe 15bc
000000a0: d78d e93d 8c2f b5bd de77 9b3d a6d5 803b
000000b0: 9ee9 f0bd a45b 933d d1d6 4d3d 219d 6bbc
000000c0: 7a8e d33e bdd9 1f3e 4a35 273d dff1 5abc
000000d0: 883e b83d 9a63 27bd 3cc3 503e 78b0 cc3d
000000e0: 54be 053e 3c9b 95bd 0e53 bdbd 42df cb3d
000000f0: 520e b23b 92ba 863c 93ff 8b3d 458d 74bd
0.16719325 0.15827963 0.15142737 -0.17476942 0.06344834 0.12773621 0.1907201 0.08029024
0.14124967 0.012793809 -0.03783041 -0.05692577 0.026618674 -0.0751681 -0.110544264 0.116110794
-0.03306551 0.20848978 0.04968921 -0.14982732 0.14437751 0.020178868 0.06561636 -0.020529795
0.075490944 -0.013743482 0.18128963 0.023532944 -0.014325075 -0.014252484 0.15656067 0.010283149
0.04423147 -0.08518438 0.16520551 0.15912409 -0.021810886 -0.06577094 0.1816909 -0.009154827
0.11404007 -0.088469595 0.07591222 0.003931719 -0.11763309 0.071952134 0.050253693 -0.014380724
0.41319638 0.15610404 0.040822305 -0.013363331 0.08996302 -0.04086647 0.20386976 0.09994596
0.13060886 -0.07304999 -0.09244357 0.099546924 0.005433836 0.016446386 0.06835856 -0.059705038

node_function_neighbor.4.weight f4 [64, 64]
00000000: 1ec2 01be 160d d83a 2c87 1b3d f40a 05bd
00000010: ec31 94bd c888 c53d 8ead 163d dab8 dfbc
00000020: b5b9 d4bd af52 1c3e 6d7f f63c d322 f4bc
00000030: e37f 473d 92ea 97bc 3862 9cbd f32d 39bd
00000040: 472f 5f3d a651 3abd 8f36 a53d ec78 78bd
00000050: fcf9 113c 60f5 77bd bb4a eebd a59f f2bc
00000060: b3ae 903d 1337 7dbd 7faa 793d 3d43 01bd
00000070: 608c a4bd d602 f9bd 998d 4f3d 6a8c 12be
00000080: c4f0 043d 7004 913d 7386 8f3d c5c1 02be
00000090: 13a3 1dbe 8dde 5dbd fb17 053d 711e 9a3d
000000a0: 1ec0 f2bd b105 58bd 63d5 b2bc 2e63 bc3b
000000b0: 8e0a af3d cd9d 6cbd 85ad 0cbe 7702 61bd
000000c0: 1f3d 263d 624e 5c3c 00d6 3dbd f87c d6bd
000000d0: b569 c43d bd2c b03d adf2 4a3d 6b39 1abd
000000e0: fc53 27bd f082 7bbd 6afd 743d 5fc1 773d
000000f0: 4e8c e3bd 5337 dd3c fcd8 94bd 8042 88bb
00000100: 4a75 9b3d 0f82 23be 6920 5e3d ce29 a1bd
00000110: b43b c53d ac4c 10be 28a4 85bd 4e69 ee3d
00000120: 0deb 543d 8527 9cbd 8ac5 b43c f39f 99bc
00000130: 4e3a 16be 4181 cabc a442 ebbd 2219 963c
00000140: c91a 053d 4502 00be 8aa4 babd f203 fcbd
00000150: d52e 6e3d 2e59 bf3d c125 23be a7c5 bebc
00000160: 37d1 13bd ae8b afbc c1d1 8dbd ee91 b33c
00000170: c28b 03bc cfc6 0bbe 494b 73bd 89d9 c3bd
00000180: f576 bebd 542c 50bd fddb e1bd 372c f5bd
00000190: cdb9 f8bd 194c e3bd 953e 29bd 398c 9b3d
000001a0: 3e96 06be 1fce aabd 66c9 22bc 3e3e debd
000001b0: a770 6e3c 6b56 e7bd 8757 babc a0c3 0b3d
000001c0: 9dab b7bd 15be 963d eaed 8dbd 4bac e7bd
000001d0: 4a99 88ba bc66 d0bd 679f 5a3d c8d4 27bd
000001e0: bb58 9f3c 8634 b4bd 5a3b 143b 7767 2a3d
000001f0: 729e f9bd 91e4 3f3d 74a4 9f3d 8286 d3bd
00000200: c082 053c 60be 8abd 6a1e b3bd ac58 103d
00000210: 80e0 cc3c 402f f4bb a296 cabd cca5 9ebd
00000220: 18ee 4d3d e8a7 31bd 0811 9cbc 9477 ff3d
00000230: 2453 2cbd 5aa6 c43d e89f 53bd 804c a4bc
00000240: 9091 e9bc 3842 dbbc 00bc 95b9 20f7 d93b
00000250: b878 2a3d 38c2 cfbc bc5e 3d3d 7a08 c9bd
00000260: 1086 6dbd 70e6 653d acfc 9cbd 9a12 9ebd
00000270: 1c45 99bd 6080 6f3c be21 b33d 5c00 6dbd
00000280: 58e9 663d 001d 11bd f6af cd3d 9cbc 5bbd
00000290: 3c37 5ebd f60a 9abd f875 263d 9e13 e13d
000002a0: c650 bd3d 5079 eebc 3066 d5bd 78d5 f1bd
000002b0: 1a04 f2bd 0cdd a43d cce4 203d 787b 23bd
000002c0: 024c a7bd b865 ca3c c044 94bd 16c3 c9bd
000002d0: aeed acbd 54f4 fdbd c6ae e0bd 4852 f13c
000002e0: f441 6b3d 8aeb aa3d 1253 a63d 741d 02bd
000002f0: d0f9 e7bc 80fa 56bd 34e5 cb3d 88ff 163d
00000300: 0d9a 473d bd50 73bc 8df2 fd3d 44c3 9ebd
00000310: 3ed4 853d b9c2 1e3d fc6e a83d d0ce 80bd
00000320: 731a ea3d 1ebc de3d 3195 003e 95e3 573d
00000330: f060 5ebd 3731 32bd 2f4d a5bc faff e5bb
00000340: 18cc 063e e9d7 093e b050 143e 9386 57bd
00000350: cfca d43d 22c7 803d e3bf 8a3c 6e48 e3bd
00000360: d8a7 f33d 8db4 cebd c496 9bbc a249 a03c
00000370: 4311 a9bc e20e 7b3d 9b1f ec3d 88c8 bfbd
00000380: 2eac cc3d 3806 e93d 767a 373e 0c1c a13d
00000390: 8317 183d 1a83 dbbc 06a6 9a3d cc92 f53d
000003a0: 693e c43d c645 8cba b835 a5ba b3af c6bd
000003b0: 0bad 9dbb 00ca 883d be44 cf3d 78a4 7e3d
000003c0: 3152 7f3d 44c1 643d 3fc2 c43d a5ff cdbd
000003d0: 3cc9 a9bc af3b f1bd 7530 6e3e ebf5 923d
000003e0: e3d6 5a3d 6480 263d 367b 733c 6dfc 083d
000003f0: 7cf0 d8bc 32d4 83bc 69db 413d 67e6 a1bc
-0.12671706 0.0016483392 0.037970707 -0.03248115 -0.07236084 0.096452296 0.03678661 -0.027309824
-0.10386983 0.15265916 0.030090058 -0.029801762 0.048705947 -0.018544469 -0.07635921 -0.045209836
0.054488447 -0.045488022 0.08067047 -0.060662195 0.008909699 -0.060536742 -0.116353475 -0.02961714
0.07064571 -0.0618201 0.060953613 -0.031558264 -0.08034587 -0.12158744 0.050672147 -0.14311376
0.032456174 0.070809245 0.07008066 -0.1276923 -0.15394239 -0.05416732 0.032493573 0.075253375
-0.1185305 -0.052739803 -0.021830266 0.005749128 0.08546935 -0.057767678 -0.13738067 -0.05493399
0.040585633 0.013446422 -0.046346664 -0.10473055 0.095904745 0.08602283 0.04954784 -0.037652414
-0.040851578 -0.06140417 0.059811987 0.060487147 -0.11110745 0.02700392 -0.07267949 -0.004158318
0.075907305 -0.15967582 0.054230127 -0.07869302 0.09630528 -0.14091748 -0.06525451 0.11641179
0.051981974 -0.07624725 0.02206685 -0.018753028 -0.14670679 -0.024719836 -0.1148732 0.018322531
0.032496247 -0.12500866 -0.091134146 -0.1230544 0.05815013 0.093431816 -0.1593237 -0.023287607
-0.036088195 -0.02142891 -0.06924773 0.02192017 -0.008028926 -0.13650058 -0.05939797 -0.09562976
-0.09300033 -0.050823525 -0.110282876 -0.11971324 -0.12144814 -0.11098499 -0.04131945 0.07595105
-0.1314325 -0.08340096 -0.009935712 -0.108517155 0.014553226 -0.1129578 -0.022746814 0.03412211
-0.089682795 0.07360474 -0.06930144 -0.11312159 -0.001042166 -0.10175845 0.053374674 -0.04097441
0.01945149 -0.087990806 0.0022618384 0.041602578 -0.12188424 0.046848837 0.07795039 -0.1032839
0.008148849 -0.067745924 -0.087460354 0.035240814 0.025009394 -0.0074519217 -0.09892012 -0.07746467
0.050275892 -0.04337302 -0.01905109 0.124739796 -0.042071477 0.096020415 -0.05166617 -0.02005601
-0.028511792 -0.026764974 -0.00028559566 0.006651774 0.041619033 -0.025361165 0.046232924 -0.0981607
-0.05798918 0.056127965 -0.07665381 -0.07718392 -0.07483885 0.014618009 0.0874667 -0.05786167
0.056374878 -0.035428047 0.100433275 -0.05364667 -0.054251894 -0.07521622 0.040639848 0.1099007
0.09243922 -0.02911058 -0.10419881 -0.11808294 -0.118171886 0.08049974 0.039280698 -0.03991267
-0.08168794 0.024706706 -0.072396755 -0.09851663 -0.08443771 -0.124001175 -0.109708354 0.02945818
0.057435945 0.08345707 0.08121313 -0.03176637 -0.028317362 -0.05248499 0.099558264 0.036864787
0.0487309 -0.0148507925 0.123997785 -0.07752088 0.065346226 0.03875992 0.082242936 -0.06289446
0.11430826 0.10875724 0.12556912 0.052707274 -0.054291666 -0.043503966 -0.020178406 -0.00701904
0.13163793 0.1346127 0.14483905 -0.052618574 0.10390245 0.062879816 0.016937202 -0.11097799
0.11897248 -0.10093031 -0.01899279 0.01956636 -0.020638114 0.06129349 0.11529466 -0.0936442
0.09993778 0.11378139 0.17917809 0.07866678 0.037131798 -0.026795913 0.07551198 0.1199089
0.09582216 -0.0010701946 -0.001260451 -0.09701481 -0.004811888 0.066791534 0.101205334 0.06216857
0.062334243 0.055848375 0.09607362 -0.10058526 -0.020725839 -0.11778962 0.23260672 0.071758114
0.05342759 0.040649787 0.014860919 0.033443857 -0.02648186 -0.016092394 0.047328386 -0.019763185

node_function_neighbor.4.bias f4 [64]
00000000: 07b2 853c 8265 07bd 2819 db3c f308 253e
00000010: c39a 173c d7f1 92bb 9e12 413d 1c40 f23c
00000020: 30e2 f53c 66a9 d9bc 79ae b93c 7b74 26bd
00000030: 3729 1c3d 7bc7 a8bd d4f3 393c 04cc 153e
00000040: bed3 1bbd 0790 14be 3263 3f3e 4358 e8bd
00000050: f3b6 c2bc e2c2 0b3e bebe b3bd 8bb3 713d
00000060: a943 e2bd e72a 0f3e eade 9dbc da83 03be
00000070: 8476 c53d bff8 993d c833 17bd 4797 6f3e
00000080: 4ba4 a33c 94d9 f43d 9004 ffbd 8a4e f2bd
00000090: fc29 d63d 02c9 5f3e 2fa9 763c 5a11 033e
000000a0: 0079 d93d bcf8 3cbd 7ea0 40bd 87c1 fdbd
000000b0: 8fcf 9dbd ad26 a9bb 2d9a 88bd 9c57 f53d
000000c0: 0e48 693d 0dc4 e3bd ece2 69bd 1c1d f53c
000000d0: 0f0f 21bd f03e 1d3e 0e41 6f3e dc89 09be
000000e0: 8390 3a3d b0ed 833d 1c1a a1bc c383 073e
000000f0: 95db 2d3e 0ea1 2abd c93c 643d cfaf a83c
0.016320242 -0.03305579 0.026745394 0.16116695 0.009253207 -0.004484396 0.047136895 0.029571585
0.030015081 -0.026570033 0.022666203 -0.04063843 0.038125243 -0.08241173 0.011349637 0.14628607
-0.03804373 -0.14508067 0.18690184 -0.113449596 -0.023768878 0.1364856 -0.087766156 0.059009116
-0.110480614 0.1398121 -0.019271333 -0.12843266 0.09641746 0.07518148 -0.036914617 0.23397551
0.019975802 0.11955562 -0.12452042 -0.118313864 0.10457227 0.21854022 0.015054985 0.12799588
0.10618782 -0.04613565 -0.047028057 -0.12390428 -0.07705604 -0.005162081 -0.06670032 0.11979601
0.056953482 -0.11121378 -0.057101175 0.029921107 -0.039321 0.1535604 0.2336466 -0.13431495
0.045547973 0.0644182 -0.01966577 0.13233857 0.16978295 -0.0416575 0.05572203 0.020591645

node_function_neighbor.6.weight f4 [4, 64]
00000000: 41b2 96bc e95c 433d a804 febd 7aa0 05be
00000010: bee9 c5bd d492 9abd 04a4 0c3d 5683 a63d
00000020: 2d51 b6bd 0a65 03be 1a3d 1dbd 7854 1e3d
00000030: 36e8 443c ddd1 513d 83d0 9bbd 1414 d3bd
00000040: ca83 dbbd 441f 653d 907e 0dbe f3c5 9e3d
00000050: 81bd 5a3c 15f2 c9bd 94c4 f13d bb80 473d
00000060: d07c 363d cb43 34bd baec 80bd 0961 5d3d
00000070: 932e 88bc dfc0 02b7 cbff 19bc 979c 03be
00000080: 3475 2fbd d308 19bd 464b a6bd be66 533d
00000090: e18f bebd 5384 00be ef99 78bd 32d4 f8bd
000000a0: ac23 28bd 14ef 9fbd 78d9 b13d 96a3 9f3b
000000b0: df1d b93d b2c4 f33b f881 2f3d 00dd a2bd
000000c0: 7ac9 d1bd 84a0 b63d 0e84 44bd cffe 61bd
000000d0: fcb8 96bc 8de7 13be 09ea 34be af62 3b3d
000000e0: cc37 263d 7f0e 0fbd c7ff 71bc 0c56 04be
000000f0: 33f9 1bbe f28c c6bd 1cdb b4bd b1a4 f2bd
00000100: 54bf aabc 30b9 41bd 6a81 8e3d 05dd 0fbd
00000110: 9afb bd3d b417 72bc 148e 813c fe73 6abd
00000120: b03b 633d 9348 c5bd 1123 a2bd effa 843d
00000130: 47aa 63bc a0de 943d 8583 f8bd e3b8 f13c
00000140: 7110 1dbc fffe db3c a3c5 2bbd 6189 97bd
00000150: dc6f c7bc d592 9a3d 74bb 103d 2183 f8bd
00000160: bfcb 9ebb bb97 b7bd 9ab4 403d f6a2 533d
00000170: 8321 e3bd 5cd0 97bd 451d 6bbd 5174 cb3c
00000180: f49d 29bd 2908 c13c bc16 4f3d 32c9 963d
00000190: 4b1d 9dbc 42eb ac3b 25dd ab3d e302 13bd
000001a0: c2a1 4e3d 0737 d43d f2dc 98bd 0883 4e3c
000001b0: 5c6f 8c3d 52ef d6bd 94ae cdbd 83a0 5bbc
000001c0: 5f1c 1bbd 1552 c43d 7254 dcbd ada4 19bc
000001d0: b5a7 b8bd aa30 a8bd 9795 673d e87f 103c
000001e0: 3a10 36bd 1747 81bd 3d77 adbd 5f6a 35bc
000001f0: ee69 a8bd 4540 b4bd 9314 693d 203a cdbc
00000200: 6b94 553c cd94 313d 0afd bebd 0497 85bd
00000210: f2b0 b33d 0615 acbc 3df0 10be cb52 b7bd
00000220: e8ee 933d d92c da3d 6a3d 91bd 70ec dd3d
00000230: a559 b63c ea27 133e 026f 623d 8f2a 153d
00000240: 0a31 95bd b36e a03d c1c8 d03c 4704 c8bd
00000250: e2cf eb3b 546f f73d b46e f6bd db87 833d
00000260: 7558 9b3d 3328 7e3c c64c 9f3d ee4d aebc
00000270: 8bec ae3c 6420 fa3c 092d 6fbd 5f3d 553d
00000280: fb70 c3bd 0c9d 113d 38b1 6bbd 0dac b6bd
00000290: c60a 653d 31bf f5ba e946 893a f450 883c
000002a0: 06f3 b93d 2c92 df3c 6d43 c9bb 82df bbbb
000002b0: 2aac a13c e075 463d efee 8fbd 0e58 b73b
000002c0: 5c9c d7bc d621 6d3c 0436 07bd d32a 41bd
000002d0: 638b a1bd d2e4 97bd 9106 2f3d d60d 473d
000002e0: a22f 4e3d e0ba 1fbb 6e95 083d 9390 b9bd
000002f0: 107c cdbd 7235 46bb e50a 88bd f25f 77bc
00000300: 379b aa3d 7e00 15bd d0a8 973c eaa1 a9bd
00000310: db47 82bd bcf6 223c c92d e53c a396 a23c
00000320: 0a13 bfbc 7af3 7dbd 4bfc 42bd 46f4 2fbd
00000330: 5509 c43d 04ce 2abd 82bf a1bd ff47 6c3d
00000340: f1e9 713d ab51 acbd 161f 5bbc 4a07 b3bd
00000350: 053c 343d 77c9 d0bd 2081 f13c e641 263c
00000360: 0e3b bd3d 1a5e a03d e875 85ba 0b31 a93d
00000370: ed6e 973d cc57 97bd ce10 713d 5566 113c
00000380: a8f2 e03d b84b c43d 04aa 53bd 71d6 163e
00000390: e8a6 513d e49e efbc c357 96bd 3cdb c63d
000003a0: 2d66 883d 61f7 05be 5cc4 06be d346 853b
000003b0: ac94 d43d 0811 ce3d 31af 163e c7d1 9cbc
000003c0: 0ca9 c13c df00 9dbd 5518 62bb 1f2b 3fbd
000003d0: 580d 473c ec47 e3bd 4714 b13d 665d 973d
000003e0: b498 be3d 3e64 0d3c b696 dd3d 0b6e a6bd
000003f0: 0422 0e3c ab90 d9bd 1d2f 333e ab5d 8e3c
-0.018395545 0.047696028 -0.12403232 -0.13049498 -0.096637234 -0.075475365 0.034336105 0.08130519
-0.08902202 -0.12831512 -0.03838835 0.038654774 0.012018254 0.05122553 -0.0760813 -0.10306564
-0.10718496 0.05593802 -0.13817811 0.077525996 0.013350845 -0.098606266 0.118050724 0.04870675
0.044552624 -0.044009965 -0.06295152 0.054047618 -0.01662377 -7.79351e-06 -0.009399365 -0.12852703
-0.042836383 -0.03736193 -0.08119826 0.051611654 -0.093047865 -0.12550478 -0.060693678 -0.12149848
-0.041049644 -0.078092724 0.08684057 0.004871796 0.090389006 0.0074392194 0.042848557 -0.07952309
-0.10243507 0.08917335 -0.0479775 -0.055174645 -0.018398754 -0.14443798 -0.17667402 0.04574841
0.040580556 -0.034925934 -0.014770455 -0.1292345 -0.1523178 -0.09694852 -0.08830854 -0.11847819
-0.020843185 -0.04729575 0.069582775 -0.03512289 0.09276505 -0.014776159 0.015814818 -0.057239525
0.055476844 -0.09632983 -0.07916845 0.06493174 -0.013895578 0.07269025 -0.1213446 0.029507106
-0.0095864395 0.02685499 -0.041936528 -0.0739925 -0.02434533 0.07547537 0.03533502 -0.12134386
-0.004846066 -0.08964487 0.047047235 0.051669084 -0.11090376 -0.07412788 -0.05740096 0.024835737
-0.0414104 0.023563461 0.05055879 0.07362594 -0.019179007 0.0052770684 0.08391789 -0.035891425
0.050447233 0.10362058 -0.07464017 0.0126044825 0.068571776 -0.104948655 -0.10043064 -0.013404968
-0.037868854 0.095859684 -0.10758294 -0.009377641 -0.090163626 -0.08212407 0.056539144 0.008819558
-0.04444907 -0.063123874 -0.084700085 -0.011072724 -0.082233295 -0.08801321 0.056904387 -0.02505213
0.013035874 0.043354798 -0.09325607 -0.065229446 0.08773984 -0.021006119 -0.14154144 -0.089513384
0.07223302 0.10653085 -0.07091792 0.108361125 0.022259543 0.14370695 0.055281647 0.03641754
-0.07284744 0.07833614 0.025486352 -0.09766441 0.0071964124 0.12081781 -0.12032834 0.06422397
0.07585231 0.015512514 0.07778315 -0.021277394 0.021353027 0.030533023 -0.05839256 0.05206048
-0.09543034 0.035550162 -0.057542056 -0.08919535 0.055918477 -0.0018748996 0.0010473403 0.016640164
0.09079556 0.02729138 -0.006142071 -0.0057334313 0.019735415 0.048452258 -0.07027995 0.0055952137
-0.026319675 0.014473399 -0.033010498 -0.04715998 -0.07887914 -0.07416691 0.04273087 0.04859718
0.050338395 -0.002437286 0.033345632 -0.090607785 -0.10033429 -0.0030244258 -0.06642703 -0.015098559
0.08330386 -0.036377423 0.018513113 -0.08282836 -0.063613616 0.009946521 0.027975934 0.01984722
-0.023324508 -0.061999775 -0.047603887 -0.042957567 0.095720924 -0.041700378 -0.07897855 0.05768585
0.059060995 -0.084140144 -0.013374111 -0.08741625 0.04400255 -0.10194676 0.029480517 0.010147547
0.092397794 0.078304484 -0.0010182234 0.08261307 0.07394204 -0.07389793 0.058853917 0.0088744955
0.10983783 0.09584755 -0.05167581 0.1473024 0.051184565 -0.02925057 -0.07340958 0.097097844
0.066601135 -0.13082649 -0.13160843 0.004067281 0.103799194 0.10061842 0.14715268 -0.019142998
0.023640178 -0.07666182 -0.0034499366 -0.046671983 0.0121491775 -0.110977024 0.08646446 0.07390861
0.093064696 0.008629857 0.108197615 -0.08126458 0.008675102 -0.10623296 0.17498441 0.017378649

node_function_neighbor.6.bias f4 [4]
00000000: 6e72 6abd e57d 8c3d 5b26 113e d794 113d
-0.057238035 0.0685995 0.14174788 0.035542335

edge_function.0.weight f4 [64, 4]
00000000: 5b69 b93e 09f8 5fbd 40ed d6be 41bd c23e
00000010: 7604 033f c567 db3e 512b 063d 5b56 d93b
00000020: aff0 953d 6b12 08be c744 27be 7cc3 23bd
00000030: bc8e e2bc 5780 e1bd 6224 3fbe 5584 d33e
00000040: d05d 9dbe 1a2e 69be 95e9 01bc 4c7d 20bd
00000050: b3ab 34be 96c7 e7be 3746 9c3d c7ab 9bbc
00000060: f51e 9bbc 592b c83e c590 653e 38bb d8bc
00000070: e300 a5be 2105 953e 4ece fa3e 1916 b1be
00000080: e1d7 23be 44cc 6f3c 6a0b 993e 1ede 73be
00000090: 8277 993e 2ec2 4b3c 1a06 c23e 9a05 e83e
000000a0: 545e 5f3e 23bc fbbd d160 dcbe a226 d6be
000000b0: 7faf 7cbe 8d0a 8dbe 28d3 7d3e 11f4 98be
000000c0: 6f56 e53b ca29 0dbe 9753 7bbe 19ce 40be
000000d0: d4e2 683e 837b dcbe ddf9 debd 0db0 c9be
000000e0: d176 bbbe 40cd 913e e53f 783e 31e8 0cbe
000000f0: 6264 163e 1573 063d dc28 39be 6397 cdbc
00000100: 6162 d2be 0afd fbbe 0d9b 01bd 8d03 1ebc
00000110: 6748 bdbe c25e 9cbe 1de3 443e 39b2 063e
00000120: b596 763d 3943 843e 319a c7be 79f8 073d
00000130: 1ee5 9bbd 3169 1dbe 7d91 8d3e 7735 b8be
00000140: ce10 0abf f3f4 c83d 3e0f f9be db0f ce3e
00000150: 23e2 b7be 240c 6ebe 45b6 803e 6285 3abd
00000160: bf21 37be eda0 cb3e 9f91 f7be 607d 28be
00000170: 726e 3c3e 32d8 0d3d c0a8 b43d fc89 f1be
00000180: c3a5 a0be 52f5 2b3e 3455 bdbe 0396 f43d
00000190: 621f 803e 102a 70be 7c4b 0b3e 2d5a e63d
000001a0: 5a69 abbe fe73 71be bc81 833e 9eaf 863e
000001b0: 614a adbe 7b58 c63d bd33 eb3e 5091 ae3e
000001c0: d9ca b33e 2e58 2fbe d9e7 ac3e a5d1 7d3e
000001d0: ee07 29be 5428 86be 593b 72be 1cee babe
000001e0: ced1 66be 8946 b23e 0e67 c1be 8949 c7bd
000001f0: 6180 55be 49f1 3d3e af7a f4be c255 3cbd
00000200: 6a1a 1e3a 6a3f 89be a1df c6be dcdc 3bbd
00000210: 398a a83c e58d 93be 4fb4 40be 5f7e 71bb
00000220: 21cd 9a3e 3d0b 723d ad3c c83e b2d6 d0be
00000230: 28cc 113e 35af cf3e db79 b83e 81c6 1e3e
00000240: 8923 2c3d fcf4 95bd 47f0 f6bc 8702 6fbe
00000250: 0bd9 343e 02f7 48be e196 803e 43c8 e83e
00000260: 0517 84be d155 803e a3f8 e3bd 7760 c13e
00000270: 5aa7 b73d 1e5f 6e3d 8cf4 823b 95b7 7d3e
00000280: 54e8 fb3e 64f8 b1bd 7e9c 973e 7d21 cb3e
00000290: ccec 223e 57d8 1b3b 96b3 e6bd e45a 3a3e
000002a0: c511 033e ea38 e7be 3378 823e b7f8 3dbe
000002b0: cee2 9f3e 449f 6a3e 0b11 2e3e c718 7abe
000002c0: a0b5 993e 7ab8 a5be 92db be3e 7a59 babd
000002d0: e399 e7bc d4f7 cf3e 9484 c63e 3dae a73e
000002e0: c9a2 afbe b5ef 6dbe 7bbf f8be e913 8b3e
000002f0: 10e7 bfbe dac4 be3e ce64 563e 9596 903e
00000300: 2bd2 983e 124e 4fbd b28f 4dbe 1465 293b
00000310: e596 4e3e 4d5d c43e de61 a63d fcf8 e03e
00000320: 0daa 75be 4585 d43e c460 11be ecbe b93e
00000330: 3560 debe be03 ba3d 1bc1 8abe 720a b6be
00000340: fd87 493e 0c6c d2be 41e3 3cbe f431 5bbe
00000350: 7eb2 14be cd10 c1be 6514 4dbe c6f5 2f3e
00000360: 9458 dc3e 099e 7e3e dadb e43c fea5 76be
00000370: 7d23 9e3e f550 81be 338d a53e d656 423e
00000380: 852a 9cbd bf50 61be 3bf5 da3e ffe0 883e
00000390: 90cd 533e b895 bbbe 283a 97be a370 2b3e
000003a0: 166e 343d 0a01 cb3d 3d07 f33d 82ce 27be
000003b0: 2faa ffbd e2b5 8e3e 2902 f0be cb8d b03e
000003c0: f265 acbe 80f2 bf3e a0c5 5ebe c0d8 2c3b
000003d0: c099 7f3e f245 b53e c452 913c 636a a33e
000003e0: fe77 afbe ca03 a5be 0c3d b63e 46d3 183e
000003f0: 4a23 22be d839 d93e e91a 2c3e ee04 c33e
0.36213192 -0.054679904 -0.41977882 0.38035014 0.5117868 0.42852607 0.032756153 0.006632609
0.073212974 -0.13288276 -0.1633483 -0.03998135 -0.027655952 -0.11010807 -0.18666223 0.413119
-0.30735636 -0.22771493 -0.007929225 -0.039181992 -0.17643623 -0.4526946 0.0763058 -0.019002808
-0.01893566 0.39095572 0.22418506 -0.02645646 -0.3222724 0.29105476 0.48985523 -0.34587172
-0.1600032 0.014636103 0.2989152 -0.238152 0.2997399 0.012436433 0.3789528 0.45316774
0.21813327 -0.122917436 -0.43042615 -0.4182635 -0.24676321 -0.27547112 0.24787581 -0.29873708
0.006998829 -0.13785473 -0.24543606 -0.1882862 0.22742778 -0.43062982 -0.108875014 -0.3939213
-0.36614087 0.28476906 0.24243124 -0.13760449 0.1468673 0.032824595 -0.18081993 -0.0250966
-0.41090682 -0.4921649 -0.03164201 -0.009644401 -0.369693 -0.30541044 0.19227262 0.13153924
0.06020232 0.25832537 -0.38984826 0.033195946 -0.0761206 -0.15372159 0.2765006 -0.3597829
-0.5393189 0.09812345 -0.4864444 0.40246472 -0.35914716 -0.23246819 0.2513906 -0.04553736
-0.17883967 0.39771214 -0.48353288 -0.16454077 0.18401507 0.034630008 0.08821249 -0.47175586
-0.31376466 0.16792801 -0.36979067 0.11942675 0.25023943 -0.23453546 0.13603014 0.112476684
-0.33478814 -0.23579404 0.25684917 0.2630586 -0.3384581 0.09684845 0.4593791 0.3409524
0.35115698 -0.17123482 0.33770636 0.24787004 -0.16506931 -0.26202643 -0.23655452 -0.36509788
-0.22540972 0.3481944 -0.37773937 -0.097308226 -0.20849754 0.18549074 -0.4774985 -0.045980223
0.00060311577 -0.26806194 -0.3884249 -0.045864925 0.020573722 -0.28819194 -0.18818782 -0.0036849005
0.30234626 0.05909275 0.39108792 -0.407888 0.14238036 0.4056336 0.36030468 0.1550541
0.042026076 -0.07322118 -0.03014387 -0.23340808 0.1766092 -0.19625476 0.2511511 0.45465288
-0.25798813 0.25065473 -0.11131408 0.3776891 0.08967467 0.05819618 0.0039964374 0.24777062
0.4920069 -0.08689955 0.29611582 0.39673987 0.15910643 0.0023780072 -0.11264722 0.18198735
0.12799747 -0.4516061 0.2548233 -0.18551908 0.31227726 0.22912318 0.16998689 -0.24423514
0.3002138 -0.32367307 0.37276894 -0.090990975 -0.028271621 0.40618765 0.38773024 0.3275012
-0.34303883 -0.23235972 -0.48583588 0.27163628 -0.37480974 0.3725956 0.20936891 0.28239885
0.29847845 -0.050611563 -0.20074347 0.00258476 0.20174749 0.38352433 0.081241354 0.4393996
-0.2399065 0.41507927 -0.1419707 0.36278474 -0.43432775 0.09082745 -0.27100453 -0.35554844
0.19680782 -0.41098058 -0.18446065 -0.21405774 -0.14521214 -0.3770813 -0.20027311 0.17183599
0.4303633 0.24864973 0.027936865 -0.24086758 0.3088645 -0.25257078 0.3233429 0.18978438
-0.076252975 -0.22003458 0.4276522 0.26734158 0.20683885 -0.36637664 -0.29536557 0.16742186
0.0440503 0.099123076 0.11866615 -0.1638737 -0.12483632 0.2787314 -0.46876648 0.3448318
-0.33671528 0.374897 -0.21755075 0.002637431 0.24960995 0.35404927 0.017739661 0.31917104
-0.34271234 -0.32229453 0.3559345 0.14924344 -0.15833774 0.42426944 0.1680714 0.380897

edge_function.0.bias f4 [64]
00000000: 16f7 7bbe 8912 f53d a12f 3b3e 98d9 f1be
00000010: a915 6bbe aa52 2dbd 3e47 4d3e e290 58be
00000020: 6cf4 93be c39a efbe 0543 08be 7ec0 cabe
00000030: 388c bc3e e394 9dbe be5e c1bd 3074 65be
00000040: 8056 4a3e 26a7 aabe 2eb5 bbbe 9689 3f3d
00000050: c03b 003f 966b 03be c933 bfbe 7e11 e63e
00000060: 940d 903d 3add ce3e 71d7 09bf ebf1 f23e
00000070: 6f92 aa3b 601c c6bd 6a4c cb3e be8b e0be
00000080: f4f4 e9bd 66c0 11ba e7e8 e6be 1a46 39be
00000090: b5b9 9bbd 8b80 f6bd e779 24be e4fb 87be
000000a0: ded4 babe a24c eabe 02ca 25be 52aa 2dbc
000000b0: 56eb 143e 6b74 0fbf 0048 5a3e 0634 fdbd
000000c0: a3ac a63e 4b21 dabe 074a 3e3c 2701 43be
000000d0: f026 bc3d 34af 8f3b aa64 1e3e a872 1cbe
000000e0: 9cff 633e 0b82 853e f6b3 623e 358f cabe
000000f0: 5477 6e3e 1a4a 01bf da76 bf3e 4b81 793e
-0.24605975 0.11966426 0.18279888 -0.47236323 -0.22957481 -0.042315163 0.20046708 -0.21149018
-0.28897417 -0.4679776 -0.13306816 -0.39599985 0.36825728 -0.30777654 -0.09441899 -0.22407603
0.1975956 -0.3333065 -0.36661667 0.04676207 0.5009117 -0.1283401 -0.37344196 0.4493522
0.0703384 0.40403157 -0.5384436 0.47450194 0.0052054445 -0.09673381 0.39706737 -0.43856615
-0.11423674 -0.00055599806 -0.45099565 -0.18093148 -0.0760378 -0.120362364 -0.16062127 -0.26559365
-0.3649053 -0.4576159 -0.16190341 -0.01059969 0.14542899 -0.56037015 0.21316528 -0.12363438
0.32553586 -0.42603526 0.011614329 -0.19043408 0.09187114 0.0043848995 0.15468088 -0.15278113
0.22265476 0.26075777 0.22138962 -0.39562383 0.23287708 -0.50503695 0.37395364 0.24365728

edge_function.2.weight f4 [64, 64]
00000000: 9ffc f9bd 2196 6fbd d4d6 ed3d ff8b cbbd
00000010: c022 0ebc 2208 af3d 5ee4 183e 7566 813c
00000020: 1a99 01bd 49ef a53d 5f19 943d c607 ef3d
00000030: 1ddf b73d 5ce3 47bb 791a d03d eea5 f9bd
00000040: 3d14 073e e9f4 d63d 4831 69bb 2c70 cabc
00000050: 89b3 80bd 5d02 28bd 3a4c 0dbd 55c9 ee3d
00000060: ed8f 943c b0d9 74bd 904e 743d 90ef cfbd
00000070: 13d7 ac3b ec43 9abd 5c4a 06bc d590 98bd
00000080: e8d0 dfbc d083 1c3d fda7 66bd 5481 84bd
00000090: b63d 153c 78eb c9bd b01b 0c3e 2f86 ffbd
000000a0: 0897 26be 8adc 9ebd ad0a 2e3d bc1a 1dbe
000000b0: ec87 bc3d b9f9 acbd c4ff 88bc 5dab f03d
000000c0: 4aab 003d 982b 9fbd 406a 4cbd 2083 023e
000000d0: ce6b 90bc d6c2 afbd 9514 4fbd 5e45 0abd
000000e0: a77e 773d 2d60 ff3c 1c98 413c b8b7 c0bc
000000f0: 0ceb 023e 73f5 20be b17a aabd b442 f6bd
00000100: c920 ac3d fe34 1bbd 0f2d b53c 6237 aa3d
00000110: a02a b03d 8332 1fbe a003 073d 334b c53d
00000120: a93b fcbd 9987 e0bd dfbf d03d e713 803d
00000130: c80b 34bd 13a8 e8bd 1afb 22bd dbc1 9fbb
00000140: 8b2d b13b 922f dbbd cba6 a63c 34ec cdbd
00000150: e11f 773c ad61 15bd 635e 71bd b202 e03d
00000160: 77ab e6bd 81fc 603d b3bb a2bd c5e3 ddbd
00000170: 6068 cc3c 5d37 a43c 0fc5 c23c 9222 a9bd
00000180: 21c8 cebc a4b8 36bd 21df f6bd 9a85 d3bc
00000190: 5f76 8abd 8f64 d33d 606f 1f3d 28cb 1f3d
000001a0: b090 cc3d 263c 133b 1e2c 1bbe 1291 d9bd
000001b0: ea4a 03be 0fe2 eb3b 0c27 88bd 2288 cbbc
000001c0: 1ef2 f83d 8fdc 973d 704f 41bd 1a07 d53d
000001d0: 5c16 f5bc 9f11 9dbb 136b 68bc b6cf b2bd
000001e0: 729c 6a3d f9f1 983d 59da 86bd 2858 14bd
000001f0: 4ae5 da3d 3961 80bd a093 59bc 86a5 b8bc
00000200: 7367 2c3c fed8 c8bd f004 a1bc 31d5 313d
00000210: 664b 9a3d 620f c8bd 96d6 d43b dd44 f0bd
00000220: a53c 02be ada4 083d dd99 73bc 4c46 253c
00000230: a4be 21be d835 8cbd d981 d4bd 99f9 91bd
00000240: 1fcc ad3d 8f5b ee3d 4aa9 873c 41c3 0fbe
00000250: 39b7 963d 58d5 95bd 93b2 06be 8792 28bd
00000260: 48fb e2bb 3b58 943d fa4f c3bc aabe 91bd
00000270: 8d93 983b f789 7d3c 1e88 96bd 0fee 3dbd
00000280: 825e 49bd 7514 b4bb 0b5c 943d 3f90 dbbd
00000290: 4528 1e3d 7511 cd3c 2ea8 c73d 1204 cfbc
000002a0: bef8 ee3d af20 c03d 3fb8 613d ca22 0fbe
000002b0: ac31 f53c 1acc ccbd 4d36 ccbc 7f5c 67bb
000002c0: 345f e9bd 0de5 673d 294d 0cbd 7de7 b0bd
000002d0: b3d6 cebd 7a96 f93c 8a76 b83d b191 ea3d
000002e0: 0698 b23d b24b 193d 2c7e 67bc 478b 84bd
000002f0: ee90 10bd 61a5 c63d 2358 393d 0abf 97bd
00000300: 0be0 91bc 7a67 d7bc 907c d5bd 6a96 673d
00000310: acca a23d c69b aabd f407 82bd 7c69 223d
00000320: 6a7c 393d 41b0 3cbd e7ef 0cbe 16bf ecbd
00000330: b1bf d93d 0f71 15be 1861 823d 4918 a6bd
00000340: 2e56 2dbd 3f17 86bd 2408 8fbd 8a5f 30bd
00000350: 8793 b4bd 0417 e8bd 9e01 8c3d 29c2 ccbb
00000360: 2480 f2bd 8b5e 9a3d b643 ac3a 7959 08be
00000370: b52a 883d ae8f dabd e0bb 96bd 990b 123d
00000380: 0dc4 b2bd 43aa 21be 95bc 1b3d 55d2 f7bd
00000390: 36ef 9b3d 4b9c 473d 654b a4bd 5897 303d
000003a0: cfc9 13be f0f4 1dbe bf3f fdbd 0cc2 b2bc
000003b0: c138 7cbd 01d9 19be 5efa a3bd d33b fdbb
000003c0: fe7c d2bb 534d 94ba 0068 3b3d 7b9f dd3c
000003d0: 81b0 19bd 594d 2cbe 8f47 84bc 5c8c 97bd
000003e0: a4e8 693d 5b94 e0bc b2f3 463d 9297 f0bd
000003f0: aa79 dfbd 867e cd3c 7153 edbd 161a f6bd
-0.12206387 -0.058492783 0.11613241 -0.099388115 -0.008675277 0.08546473 0.14930865 0.015795926
-0.03164015 0.08102281 0.07231402 0.116714045 0.08978102 -0.0030500507 0.10161299 -0.12189852
0.13191314 0.10495932 -0.0035582352 -0.02471169 -0.062842436 -0.04101788 -0.034496523 0.11659495
0.018135035 -0.059777915 0.059645236 -0.10153115 0.0052746623 -0.07532486 -0.00819644 -0.074494995
-0.027321294 0.038211644 -0.05631255 -0.0646998 0.009108951 -0.09859365 0.13682437 -0.12476765
-0.16268551 -0.07756908 0.04249065 -0.1534223 0.092056125 -0.08446068 -0.016723521 0.11751435
0.031413354 -0.07771987 -0.049906015 0.12745333 -0.01762953 -0.08582084 -0.050556738 -0.03375756
0.06042352 0.03117379 0.011816051 -0.023525104 0.12784976 -0.15718631 -0.08324183 -0.12024441
0.08404691 -0.037892334 0.022116212 0.08311345 0.0860188 -0.15546612 0.03296244 0.09633484
-0.12316067 -0.10963363 0.101928465 0.06253796 -0.043956548 -0.113601826 -0.03979025 -0.0048754043
0.0054070405 -0.10702433 0.020343205 -0.10054818 0.015083284 -0.036470104 -0.058927905 0.10938014
-0.11263173 0.054928306 -0.07945957 -0.10834459 0.024952114 0.02004593 0.023775605 -0.08258547
-0.025241913 -0.04460968 -0.12054277 -0.025820542 -0.06760859 0.103219144 0.038924575 0.039012104
0.099885345 0.0022466271 -0.15153548 -0.10623373 -0.12821546 0.007198579 -0.066480726 -0.024845187
0.12155555 0.07415115 -0.047194898 0.10401745 -0.029917888 -0.0047933604 -0.014185685 -0.08731024
0.057278104 0.074680276 -0.06584615 -0.036216885 0.10688265 -0.06268544 -0.013279825 -0.022539865
0.010522711 -0.09807013 -0.019655675 0.043416206 0.07533912 -0.09768559 0.006495307 -0.11731885
-0.12718447 0.033360172 -0.014868227 0.010087561 -0.1579538 -0.068462074 -0.10376329 -0.07127685
0.08486199 0.11638557 0.016560216 -0.14039327 0.07359166 -0.07316083 -0.13154058 -0.041155364
-0.0069269277 0.07243391 -0.023841847 -0.071164444 0.0046562613 0.015474788 -0.07350181 -0.04636961
-0.049162395 -0.0054956027 0.07244118 -0.10720872 0.038612623 0.025032738 0.097488746 -0.025270496
0.116685376 0.09381234 0.05510735 -0.13978115 0.029930912 -0.09999867 -0.024928236 -0.0035302935
-0.11395112 0.056614924 -0.034253273 -0.08637903 -0.100995444 0.03046726 0.090069845 0.1145357
0.087204024 0.037425704 -0.014129203 -0.064718775 -0.035294466 0.09699512 0.04525007 -0.07409485
-0.017807027 -0.026294459 -0.10424149 0.05653993 0.07948813 -0.08330493 -0.06349173 0.03965138
0.045284666 -0.046066526 -0.1376339 -0.11559884 0.10632265 -0.1459391 0.063661754 -0.08110101
-0.042318515 -0.065474026 -0.069839746 -0.043059863 -0.08817201 -0.11332515 0.06836246 -0.0062487316
-0.11840847 0.07537564 0.0013142738 -0.13315381 0.06648771 -0.10671936 -0.07360053 0.03565559
-0.087288 -0.15787606 0.038021643 -0.121006645 0.07613985 0.048733037 -0.08022193 0.043113083
-0.14432453 -0.15425467 -0.12365674 -0.021821044 -0.061577562 -0.15024187 -0.08006738 -0.007728079
-0.0064235916 -0.0011314548 0.04575348 0.027053585 -0.037521843 -0.16826381 -0.016147403 -0.07399818
0.05710663 -0.027414491 0.04857225 -0.1174766 -0.109118775 0.025084745 -0.11588181 -0.12016694

edge_function.2.bias f4 [64]
00000000: a258 9e3c 9926 013d f70f c33d 194f cfbd
00000010: 1e9f adbb def2 9f3d b3ec 453d bc52 b53c
00000020: 9453 2dbe 2955 563c 5c55 d1bc 6fef 603d
00000030: 515c 40bd 3dc7 b03c 6c7d 38bc 1560 3a3d
00000040: 5a5d 86bd 3933 b2bd 9a82 143d 6bff 37bc
00000050: 6ffa 153c 0511 18bd 58ff 19be 65fa ccbd
00000060: 0273 133e 464f 7b3b c10c c53d a74e 3fbd
00000070: afcb 42bd 459a 4dbd 4641 53bc 4e5d 40bc
00000080: 841e f9bc 6c29 603c 9635 d43d b68c c0bc
00000090: 1a44 64bd 6e1d 20be f522 a7bd 712b 4b3d
000000a0: f09d 213d 7c74 42bb 68ff a0bd 0220 0f3d
000000b0: 10ff 8d3d d428 e2ba f1ac f03d 0847 14be
000000c0: 503e 893b a8d1 ee3c 097a 0dbe 4d02 c7bd
000000d0: 686a f83c 19ca b13c 5a29 243c 42da bd3d
000000e0: 8e56 4cbd 2f10 0bbe 3387 98bd 0ea7 f63d
000000f0: 6471 1fbd 08f9 59bd a40a c23d ae16 2e3d
0.019329373 0.03153095 0.095245294 -0.101225086 -0.0052985093 0.07809995 0.048321437 0.022134177
-0.16926414 0.013081827 -0.025553398 0.05491584 -0.04696304 0.02157938 -0.011260372 0.045501787
-0.06560774 -0.08701176 0.036257364 -0.01123033 0.009153946 -0.037125606 -0.15038812 -0.100086965
0.14399341 0.0038346811 0.09621573 -0.046705868 -0.04755753 -0.05019595 -0.01289398 -0.011740996
-0.030410059 0.013681751 0.10361783 -0.023504596 -0.05572901 -0.15636227 -0.081609644 0.049601976
0.03945726 -0.002967148 -0.07861215 0.034942634 0.06933415 -0.0017254599 0.11751736 -0.14480221
0.0041883364 0.029152706 -0.13816084 -0.09717236 0.030324176 0.021702813 0.010019625 0.09270145
-0.049887232 -0.13580392 -0.07447662 0.12043582 -0.038926497 -0.05321601 0.09474686 0.042502098

edge_function.4.weight f4 [64, 64]
00000000: 0c1b c2bc b8e1 5d3d 9d61 eabd 6034 473c
00000010: c346 ce3d 2896 94bc 91c8 35bd 48b9 07bc
00000020: 9b4d d3bd b4fa d5bd 9a50 55bd 6a32 b9bd
00000030: d53f fe3b 68a5 e33d 6283 c2bd d67f dcbd
00000040: e85d 09bd c617 843d 534a 08bd 351a 813c
00000050: 9880 2d3d 25a2 ffbd 47f6 543d 7b7d 633d
00000060: eb07 d5bd 64bc 3bbd f33e 613c 9a05 4ebd
00000070: df47 103d 4e30 a53d 7c00 1abe 6262 7fbb
00000080: b2b4 02be bbbd c53b 71bf e5bd a1cf ac3d
00000090: 6d40 9a3d e76e 893b d4f1 81bd 82b8 12be
000000a0: 9023 843c 2a24 0bbe fb68 d9bc 4ad0 0ebe
000000b0: d1d2 08be b6dc 72bc 2584 2bbd b048 f3bd
000000c0: eb97 4c3d 00e7 46bb 88d3 4d3d 2ec8 ddbb
000000d0: 388d c9bc 7106 a9bc 20eb 85bc d90f 44bd
000000e0: a603 17bd 7dcf 17be 8631 c1bd 703a b6bc
000000f0: b827 99bd 9ad7 973d ea5b 473c c05a e43c
00000100: e7e3 ff3d 5a2f 7abd 261e 1abe da4e 9fbd
00000110: 18fa e3bc 0cb8 34be 1155 16be 8a07 40bd
00000120: 3c8a d6bd a97f d73c 01b2 a4bd 912e 37bb
00000130: d6ca 32be 06cb c83d 60f8 ac3c f69d 68bd
00000140: 60ca 033d 9d22 e3bc e659 b93d 5440 07be
00000150: c55b 28bd 662f 36bd 40d1 0b3c 257a 08be
00000160: 5279 d8bd 0453 3b3d 09b1 ff3d 7dff b13d
00000170: 36dc 2abd 6600 d13d 6b5f a13d 1879 983b
00000180: 6189 6c3d 8ef8 55bb f30e 24be c430 6bbd
00000190: e2a4 5cbe 7dbe 36bd 51f6 853d ab73 16bc
000001a0: 9536 d73d 7a35 ef3c 28df e7bd 1496 833d
000001b0: 6eff d83d c081 44bd 9287 ffbb 5a6b bd3d
000001c0: 989f 483d 5e2a 81bd dc84 543d bbf4 8abd
000001d0: 5311 a23d b967 9cbd 5949 0dbf aeae 0cbd
000001e0: 022b d2bd 08d0 98bd d2f1 17be 8e76 0dbe
000001f0: c2cb a6bd 1813 dbbc cbef 0cbe 5f55 913d
00000200: 5b37 a13d 1217 08be 8980 c7bc 4ca3 593d
00000210: 8099 25bc 7163 eebd 1518 55bd a266 b33a
00000220: f199 e93b 2529 693c 3b4d 93bd 2880 0cbe
00000230: 1704 4bbd 896e 24bc 5e6c 873d 0e74 7dbd
00000240: 6c38 933d c6c1 f73c 9c59 803d 11a6 bebd
00000250: 7899 25bd 275f d1bd d8c2 88bd 22e7 653d
00000260: 60d9 c53b bd1e b6bc 3f11 0cbd 939f 7dbd
00000270: efda 213c 1634 203d bd45 d6bd 57e0 b03c
00000280: 8f11 3e3d 4bfe e53c d813 ae3d ae7e 593d
00000290: 9fa0 68bd bda0 7a3d 8013 de3c 95ab c7bd
000002a0: 996e aabd bc84 17be dc49 08be 58e4 f63d
000002b0: 6b08 963c 88de 863d 5b46 53bd c495 b6bc
000002c0: b184 6a3d af5c 1e3d a10b 0fbc d4b5 10be
000002d0: 3493 f2bd 818a 003e d250 02be bb49 52bd
000002e0: 26e7 25bc c861 2f3c c9d2 06bc 357a 383c
000002f0: 004a a43c 4a7a 813d 119a 9ebd 81f5 c9bd
00000300: c640 c63d bac8 d0bc f116 fdbd 0fa3 a2bd
00000310: be11 7f3c 177f 88bd bbc4 c03d 9321 7bbd
00000320: 022b 0abd 1923 2e3b 4238 bdbc c31a e7bd
00000330: ee29 0dbb 9bda 83bd 2055 d23c 33d8 ae3d
00000340: 7002 e53d 8b11 893d 5ca8 0b3d c65a 14be
00000350: 05e0 93b9 6f46 c1bc 90b0 3abd f1ea 07be
00000360: e9d5 d8bc b3a1 cebd 2a50 c3bb 4f82 cfbc
00000370: 435a 5e3d 0afd 193d a190 c6bd 4c4a 21bc
00000380: 4be4 a3bd c24c 143d 350b 37bd a9f8 b13d
00000390: 4163 693d c176 f5bd f529 d6bc 7fde babd
000003a0: 2d20 19bd 8d12 b3bd 35d8 ab3d 29ad 82bd
000003b0: 08d2 0abe 48d0 4d3d 13bb 2dba 2583 dbbd
000003c0: d8ff 93bd e0b7 d23c 3593 373d 933c 36bd
000003d0: 1515 86bd 09ea dabd 56a0 52bd dd33 ea3b
000003e0: 609d c13d 46c6 063d 33fe b93c 90f2 053d
000003f0: 64d1 4c3d 78db cabc 6298 93bd f4ca e7bd
-0.023694538 0.05417034 -0.114443995 0.012158483 0.100720905 -0.018138006 -0.04438073 -0.008283921
-0.103175364 -0.104482085 -0.05207882 -0.09042819 0.007759074 0.11115533 -0.094977155 -0.1076657
-0.03353682 0.06449847 -0.033274006 0.015759567 0.042358965 -0.124820985 0.05199268 0.05553959
-0.10401901 -0.04583396 0.013747918 -0.05029831 0.03522479 0.08065854 -0.15039247 -0.0038968553
-0.12764242 0.0060345805 -0.11218155 0.084380396 0.075318195 0.004194129 -0.06344953 -0.14328197
0.016130239 -0.13588014 -0.026539316 -0.13946643 -0.1336167 -0.014823129 -0.04187407 -0.118790984
0.049949568 -0.003035009 0.05025056 -0.006768248 -0.024603471 -0.020632954 -0.016347468 -0.047866676
-0.036868714 -0.14825244 -0.09433274 -0.022244662 -0.07478279 0.074141696 0.01216791 0.027875304
0.12494641 -0.061080314 -0.15050563 -0.077787116 -0.027829215 -0.17648333 -0.14680888 -0.04688219
-0.10475585 0.02630599 -0.08041764 -0.002795134 -0.17460188 0.09804349 0.021114528 -0.05679127
0.03217542 -0.027726466 0.0905035 -0.13208133 -0.041103143 -0.044478796 0.008533776 -0.13327844
-0.10570015 0.045733467 0.12484939 0.08691309 -0.041713916 0.10205154 0.07879528 0.0046531074
0.057748202 -0.003264937 -0.16021328 -0.057419553 -0.21547273 -0.044615258 0.06541122 -0.009182851
0.105084576 0.029200304 -0.113218606 0.064251095 0.10595594 -0.0479753 -0.0077981437 0.09248991
0.048980325 -0.06306909 0.051884517 -0.0678496 0.079134606 -0.07636971 -0.55190045 -0.034346275
-0.10262109 -0.07461554 -0.14838341 -0.13814756 -0.081443325 -0.026742503 -0.13763349 0.07096361
0.07871886 -0.1329005 -0.024353283 0.053134248 -0.010107398 -0.11640061 -0.05202492 0.0013687203
0.007128947 0.014231001 -0.07192465 -0.13720763 -0.049564447 -0.010036119 0.06612466 -0.061878256
0.07188496 0.030243766 0.06267092 -0.093090184 -0.040429562 -0.10223227 -0.066777885 0.05612863
0.006037876 -0.022231454 -0.034196135 -0.06191976 0.009878858 0.039112173 -0.1046252 0.021591349
0.046403464 0.028075358 0.08499879 0.053099327 -0.056793805 0.06118845 0.027108908 -0.097495236
-0.08321876 -0.14796728 -0.13309425 0.12055272 0.01831456 0.06585413 -0.051580768 -0.02228821
0.05725545 0.03866261 -0.0087308 -0.14131862 -0.11844483 0.12552835 -0.12726143 -0.051339846
-0.010125911 0.010704465 -0.008228966 0.011259605 0.020054817 0.06322153 -0.077442296 -0.09861279
0.09680323 -0.025486339 -0.12357891 -0.07941257 0.015568195 -0.066648655 0.09412523 -0.061311316
-0.03373242 0.0026571213 -0.023098115 -0.11284401 -0.0021539885 -0.0643818 0.025675356 0.085373305
0.111821055 0.06692799 0.034096107 -0.14487752 -0.00028204932 -0.023593156 -0.04557854 -0.13273217
-0.026469188 -0.100894354 -0.005960484 -0.02533069 0.0542853 0.037594832 -0.096955545 -0.009844374
-0.08002528 0.036206014 -0.044688422 0.08690006 0.05697942 -0.11985541 -0.026143054 -0.09124469
-0.0373842 -0.08743773 0.083908476 -0.06380684 -0.13556683 0.05024746 -0.00066273025 -0.10718373
-0.07226533 0.025722444 0.044818122 -0.04449136 -0.0654699 -0.1068917 -0.05142244 0.007147296
0.09453845 0.032903932 0.02270422 0.03270203 0.050004378 -0.024762854 -0.07206799 -0.11318007

edge_function.4.bias f4 [64]
00000000: 8281 503d cff4 5dbd ab3f aebd 3576 0bbe
00000010: 7f5c f2bd 618a 19be 41aa 69bd 483e 093d
00000020: aab0 4cbd 8ee3 993d 69af 073e 05e7 b63c
00000030: cc4b 4e3d 6381 b83c af9c c0bd cae7 a2bd
00000040: 82da e1bd cb0e 203d 0bee 94bd 1d85 98bd
00000050: eb9f 00be d7c0 1e3e df25 b5bc 2cf4 2cbd
00000060: b2ad 57bb 4b43 f73c e40c b7bd e250 8d3c
00000070: 140f a73d b76c 92bb 3944 dc3d d0e6 10be
00000080: 9d5b d43d 306a 953d 3e91 f2bc 31e8 50bd
00000090: 6569 f0bd daa7 d6bc b8a1 42bd d8bb 043d
000000a0: ada1 eabd 23b0 883d 45ec 01be 1337 0d3e
000000b0: a542 efbd 916a 593d e8bb 23bc 4109 28bd
000000c0: 0e42 74bc a4e2 97bd 6f9d 02be 17b6 fcbd
000000d0: 823c 97bd 98ce d93d bc20 febc 8452 c7bc
000000e0: b9cc d13d 2cec ecbd 58b6 123c 73dd efbc
000000f0: 71af e23d de1f 1ebc aae6 823d 5106 f03e
0.05090476 -0.054188546 -0.085082375 -0.13619311 -0.118340485 -0.14994194 -0.057047132 0.03350666
-0.049973167 0.07514106 0.13250507 0.022326956 0.050365254 0.022522634 -0.09404885 -0.079543665
-0.11028005 0.039076608 -0.072719656 -0.07447264 -0.12561004 0.1550325 -0.022112785 -0.042225048
-0.0032909927 0.030183455 -0.089380056 0.017250482 0.08157173 -0.004468526 0.107552 -0.14150548
0.10369036 0.07295644 -0.029610272 -0.051002685 -0.117388524 -0.026203085 -0.04751751 0.032405704
-0.114566185 0.066742204 -0.12687786 0.1379054 -0.11682633 0.053080145 -0.009993531 -0.04102445
-0.014908327 -0.07416275 -0.12755369 -0.123394184 -0.07384588 0.10635108 -0.031021468 -0.024331339
0.10244126 -0.11568484 0.008954607 -0.0292804 0.11068619 -0.009651152 0.06391652 0.4687982
