Projects/GuoxiangGrayson_T_A study of multi-fidelity graph neural networks/Model_save/Canti2D/Rank=40-GNN-nB-64-Lr-0.005/model.pth (torch, 114781 bytes, 24 tensors)

node_function_neighbor.0.weight f4 [64, 2]
0	0x3eb6a074	0.3566929
1	0x3d887295	0.0666248
2	0x3ed3c983	0.4136468
3	0x3e222b51	0.15836836
4	0xbe784586	-0.24245271
5	0x3e01a948	0.12662232
6	0xbf08aa5a	-0.53384936
7	0xbf1d2e05	-0.61398345
8	0xbf09c9f0	-0.5382376
9	0xbd91e646	-0.07123999
10	0x3eb402f1	0.35158494
11	0x3e9b1788	0.3029139
12	0x3f29c066	0.663092
13	0x3e8618e5	0.26190868
14	0xbf217939	-0.63075596
15	0xbf17c5bd	-0.592861
16	0xbd2503dd	-0.040286887
17	0x3e321fef	0.17394994
18	0xbd95f20b	-0.07321557
19	0x3ea77c90	0.3271222
20	0xbeace167	-0.33765718
21	0x3e84d6b2	0.2594505
22	0xbe865aa1	-0.2624102
23	0xbd75edf5	-0.060041387
24	0xbe5b190d	-0.21396275
25	0xbeee8598	-0.465863
26	0xbe6b2eca	-0.22967067
27	0xbef4caf4	-0.4781109
28	0xbf1b1984	-0.6058581
29	0x3e337ac4	0.175273
30	0xbf038d71	-0.513877
31	0xbe99d5c7	-0.30045912
32	0xbf11f671	-0.57016665
33	0xbedbdc6e	-0.42941612
34	0x3f1b347f	0.6062698
35	0x3e2be8fe	0.16788098
36	0x3bd3d85d	0.0064650015
37	0x3e8c94dd	0.27457324
38	0xbeab99a2	-0.3351565
39	0x3e834e97	0.25645897
40	0x3d8c40c8	0.068482935
41	0x3f099ef7	0.53758186
42	0x3ea60e80	0.32432938
43	0x3dd34310	0.103155255
44	0x3eaa931c	0.3331536
45	0x3ee7903e	0.45227236
46	0xbea72995	-0.32648912
47	0xbf2bb1b4	-0.6706803
48	0x3efedcf2	0.49777943
49	0xbf3076f9	-0.6893154
50	0x3ee8c215	0.45460573
51	0xbea078db	-0.31342205
52	0x3e738bc1	0.2378378
53	0xbf055dd2	-0.52096283
54	0x3f15b5f2	0.5848075
55	0xbe71cfb1	-0.23614384
56	0xbe9ca201	-0.3059235
57	0xbe81d2f9	-0.25356272
58	0x3eaaf5c3	0.33390626
59	0x3e8a8376	0.27053422
60	0xbddfafca	-0.10922201
61	0xbd80e613	-0.06293883
62	0x3f005776	0.50133455
63	0xbf26f013	-0.65210074
64	0x3e6b654d	0.22987862
65	0x3dd90878	0.105973184
66	0xbe86965b	-0.26286587
67	0x3f292cc2	0.6608392
68	0xbef756bc	-0.4830836
69	0xbe06d7ca	-0.13168254
70	0xbf142810	-0.5787363
71	0x3ec6bae6	0.38814467
72	0x3f2918a1	0.66053206
73	0x3ec56568	0.3855393
74	0xbf2381d7	-0.63869995
75	0x3b7642f9	0.003757654
76	0xbf1a9445	-0.6038249
77	0x3ebff99d	0.37495127
78	0x3eb4131e	0.35170835
79	0x3e9cf220	0.30653477
80	0x3ea83828	0.32855344
81	0x3f123a8b	0.5712058
82	0xbf238df4	-0.6388848
83	0xbbd5b380	-0.006521642
84	0xbecc8218	-0.39943004
85	0xbf12e426	-0.57379377
86	0x3f0e1e29	0.5551477
87	0x3b3cc80d	0.0028805763
88	0x3d33e802	0.04392243
89	0x3efee776	0.49785966
90	0xbe7d55b0	-0.24739718
91	0x3e11000e	0.14160177
92	0xbf1d64ec	-0.6148212
93	0xbe2c2238	-0.16809928
94	0xbe869020	-0.26281834
95	0xbea0773b	-0.31340966
96	0xbf1dfde5	-0.6171554
97	0xbe80643d	-0.25076476
98	0x3dc433b0	0.09580171
99	0x3f0a2caf	0.5397443
100	0xbed6ac50	-0.4192834
101	0x3e4fb9cc	0.2028572
102	0x3e994487	0.29935095
103	0xbf031700	-0.5120697
104	0x3f2ea69e	0.6822299
105	0x3f122b5e	0.57097423
106	0x3e14bf7c	0.1452617
107	0xbeb4a695	-0.35283342
108	0x3f3261a3	0.6968023
109	0x3ea82b35	0.32845464
110	0xbd70fe4d	-0.05883627
111	0x3de50c31	0.11183966
112	0x3f336d09	0.7008825
113	0xbe81a135	-0.25318304
114	0x3e88d0af	0.26721713
115	0xbe070de0	-0.13188887
116	0x3f17949c	0.59211135
117	0x3e975691	0.29558232
118	0xbeca690b	-0.39533266
119	0x3f1aa2aa	0.60404456
120	0x3e8d37d8	0.27581668
121	0xbb93f4e7	-0.0045152786
122	0xbf170649	-0.58993965
123	0xbf22aa8b	-0.6354148
124	0xbcb56885	-0.022144565
125	0x3ebbd2e0	0.36684322
126	0xbdec36e9	-0.11533911
127	0x3ead51d3	0.3385149

node_function_neighbor.0.bias f4 [64]
0	0xbf2a28eb	-0.66468686
1	0x3d001472	0.0312695
2	0x3f2097ff	0.6273193
3	0xbe2efe84	-0.17089278
4	0x3e5edafe	0.21763226
5	0xbf2bdfff	-0.67138666
6	0xbdf51dcd	-0.11968575
7	0x3ebde9ec	0.3709253
8	0x3e8bc541	0.2729893
9	0xbe890193	-0.26759014
10	0x3f3212f7	0.6956019
11	0xbf38cabe	-0.7218436
12	0xbf08d8a4	-0.5345557
13	0x3e56bb70	0.20969939
14	0xbe98ecb3	-0.29868087
15	0x3f4a2a10	0.7897043
16	0x3ecb928c	0.39760244
17	0xbeac08f7	-0.3360059
18	0x3e32425e	0.1740813
19	0x3d764df0	0.06013292
20	0x3e508a63	0.2036529
21	0xbe8d77ef	-0.27630565
22	0xbef88418	-0.4853828
23	0xbf3a0195	-0.72658664
24	0xbe652981	-0.22379114
25	0xbe9ef0de	-0.31043142
26	0xbf049e1d	-0.5180376
27	0x3f332d5f	0.69991106
28	0x3f44799c	0.7674806
29	0xbf31b6a7	-0.6941933
30	0xbdc457a4	-0.095870286
31	0x3ed5351f	0.4164209
32	0xbecd8a07	-0.4014437
33	0xbe4105f0	-0.18849921
34	0xbe73472d	-0.2375762
35	0x3d041e3b	0.032255393
36	0x3ed2cb5a	0.4117077
37	0xbef3b553	-0.47599277
38	0xbe99c58b	-0.30033526
39	0x3ed666b8	0.41875243
40	0x3d5a227f	0.053255554
41	0xbf2ac7a0	-0.66710854
42	0xbf0e359b	-0.55550545
43	0xbf0ce61a	-0.5503861
44	0x3f0207c8	0.50793123
45	0xbe9893a1	-0.29800132
46	0x3f4b91fd	0.79519635
47	0x3f2c9932	0.6742126
48	0xbe19577d	-0.1497478
49	0x3ea45f3e	0.32103914
50	0xbeb9e57a	-0.3630789
51	0xbf28aadd	-0.65885717
52	0xbf3f5b46	-0.7474865
53	0xbd947df4	-0.07250586
54	0xbebe1879	-0.37128046
55	0x3db53927	0.088487916
56	0xbeaff6a8	-0.3436787
57	0x3f011c37	0.5043368
58	0xbf167561	-0.58772856
59	0x3eb944f6	0.36185426
60	0x3f050325	0.51957923
61	0x3ec62ab3	0.38704452
62	0xbf008269	-0.5019899
63	0xbee3c577	-0.4448659

node_function_neighbor.2.weight f4 [64, 64]
0	0xbdc55a56	-0.09636371
1	0x3d9d32ba	0.07675691
2	0xbdc2c620	-0.095104456
3	0xbc80b5e8	-0.01571174
4	0x3df8cf44	0.12148908
5	0x3cdc5e80	0.02690053
6	0xbd0a7b58	-0.033809036
7	0xbd96ffee	-0.073730335
8	0xbdb80b22	-0.089864984
9	0x3d5b9610	0.053609908
10	0x3cbdefd8	0.023185655
11	0x3d2deffc	0.042465195
12	0xbd493e74	-0.049131826
13	0xbd9b632c	-0.07587275
14	0x3d5361f0	0.051607072
15	0xbdd4553c	-0.1036782
16	0xbd4afd8c	-0.049558207
17	0x3db01886	0.085984275
18	0x3dbc0408	0.091804564
19	0x3a2edc00	0.0006670356
20	0xbdf01902	-0.1172352
21	0x3d502e98	0.050825685
22	0x3d168ce8	0.036755472
23	0x3cca8d58	0.024725601
24	0xbd414ce0	-0.047192454
25	0xbdcb7840	-0.09935045
26	0x3ce1ee88	0.02757956
27	0xbd1f8a18	-0.038950056
28	0xbdad5374	-0.08463183
29	0xbdc8fb24	-0.09813526
30	0x3de1d086	0.11026101
31	0x3cac0828	0.020999983
32	0x3cb26338	0.021775827
33	0xbdf0923e	-0.117466435
34	0xbd986858	-0.07441777
35	0xba301900	-0.00067175925
36	0xbd438ce4	-0.047741786
37	0xbdd744b8	-0.10511154
38	0x3ded0eda	0.11575098
39	0x3cd9c178	0.02658151
40	0x3dcaf50c	0.0991002
41	0x3c9ef788	0.019405141
42	0x3dd09380	0.101843834
43	0x3dd2cefc	0.102933854
44	0xbd9cf3cc	-0.07663688
45	0xbdf68256	-0.12036578
46	0xbd17537c	-0.03694485
47	0xbdd8b2e6	-0.10580997
48	0xbb59f040	-0.0033254772
49	0xb9c7d000	-0.0003811121
50	0xbc07f7d0	-0.008298829
51	0xbc975c48	-0.01847662
52	0xbcfbd370	-0.03074047
53	0xbd561724	-0.052268162
54	0x3d459e38	0.048246592
55	0x3dc5e22a	0.09662278
56	0xbddbc21c	-0.10730383
57	0x3c26d640	0.010182917
58	0x3d460430	0.048343837
59	0x3cb692a0	0.022286713
60	0xbd33b768	-0.04387608
61	0xbcb8e960	-0.02257222
62	0xbdc94ec4	-0.098294765
63	0xbdba53fa	-0.090980485
64	0x3d42b78c	0.047538325
65	0xbda06948	-0.07832581
66	0xbce53920	-0.02798134
67	0xbcd872c0	-0.026421905
68	0xbdd2a1c6	-0.10284762
69	0xbdb698ce	-0.08915864
70	0xbdfc6d2a	-0.12325509
71	0xbd3f017c	-0.046632275
72	0x3d91cbe4	0.07118967
73	0xbdbca2ae	-0.09210716
74	0xbdd10598	-0.10206145
75	0xbc8009d0	-0.015629679
76	0xbdbc9fc8	-0.09210163
77	0xbd1ab17c	-0.03776692
78	0x3c8f45e0	0.017489374
79	0x3d70b8c8	0.05876997
80	0xbde4118c	-0.11136159
81	0x3df39ae0	0.118947744
82	0xbc2726a0	-0.01020208
83	0xbd2321a4	-0.039827004
84	0x3bfa42c0	0.0076373518
85	0x3c59bd20	0.01328972
86	0x3ddfb7fe	0.109237656
87	0x3d26d454	0.040729836
88	0xbdc56300	-0.096380234
89	0xbd9a8f58	-0.07546872
90	0x3dcc3cc8	0.099725306
91	0x3d84d89c	0.064866275
92	0xbd421690	-0.0473848
93	0xbc776330	-0.015099332
94	0xbdc419ee	-0.09575258
95	0xbda0fe4a	-0.07861002
96	0x3d816bba	0.06319375
97	0x3dca37d2	0.09873928
98	0x3b9b1360	0.0047325343
99	0xbd5a1e78	-0.053251714
100	0xbdd81942	-0.105516925
101	0x3daf5960	0.08561969
102	0x3a92a880	0.0011189133
103	0xbdbffa02	-0.09373857
104	0x3dc4a622	0.09602
105	0xbd3772fc	-0.044787392
106	0x3dd59204	0.10428241
107	0xbb8c2200	-0.004276514
108	0x3db6bc6a	0.08922656
109	0xbdb48a9a	-0.08815499
110	0x3d1152e4	0.03547944
111	0x3de7f2cc	0.11325607
112	0x3cc1b0f8	0.023643956
113	0xbdaa6256	-0.08319537
114	0x3dc3fad2	0.095693246
115	0xbd68ea78	-0.05686423
116	0x3cbab480	0.022791147
117	0x3d2aed40	0.041730165
118	0xbc6d9450	-0.0145006925
119	0xbdb3fa2a	-0.087879494
120	0x3cca3368	0.024682716
121	0x3dd0cbc6	0.10195117
122	0xbd56f174	-0.05247636
123	0xbd49bb1c	-0.049250707
124	0xbdb04fac	-0.08608946
125	0x3dae42f0	0.08508861
126	0x3ce3f268	0.02782555
127	0x3d20d31c	0.03926383
128	0xbe2f740c	-0.17134112
129	0xbe1cbad1	-0.1530564
130	0x3e1c80b8	0.15283477
131	0x3d5a66e1	0.05332077
132	0xbdf6e58c	-0.12055501
133	0xbc8a83f0	-0.016908616
134	0x3c9411c4	0.018074878
135	0x3c1b6ada	0.009485925
136	0xbe8d4f04	-0.27599347
137	0xbd22ae56	-0.03971704
138	0x3e0f2924	0.13980538
139	0x3d59987f	0.053123947
140	0x3c89dd15	0.016829053
141	0xbdb9be92	-0.090695515
142	0xbd6d7ba9	-0.05797926
143	0x3b09ced6	0.0021027825
144	0xbdba5ace	-0.09099351
145	0xbdbbd780	-0.09171963
146	0xbbe9b699	-0.007132363
147	0xbe6ed0aa	-0.23321787
148	0xbe951578	-0.29117942
149	0xbe0545e9	-0.1301495
150	0xbd7dae8c	-0.06193404
151	0xbdb9f7ed	-0.09080491
152	0x3de388a1	0.11110044
153	0xbdd030bb	-0.101655446
154	0x3d7bb229	0.061449204
155	0x3e1e289b	0.15445177
156	0x3e20b6a6	0.15694675
157	0xbddf2670	-0.10896003
158	0x3ca5e786	0.020252
159	0x3d49e0b9	0.049286578
160	0xbe80a2b6	-0.2512414
161	0xbdb7eb33	-0.089804076
162	0xbd1e0788	-0.0385814
163	0xbe76447f	-0.24049567
164	0x3d5e39c8	0.054254323
165	0x3dbe6c1b	0.09297963
166	0xbda6a041	-0.08136035
167	0xbca64ec2	-0.020301227
168	0xbe8418e2	-0.25800234
169	0xbe0ce2b9	-0.13758363
170	0xbe0afb82	-0.13572505
171	0xbd9dcd85	-0.07705215
172	0xbe689769	-0.22714008
173	0x3bee0f28	0.0072649904
174	0xbdef11f4	-0.11673346
175	0x3e139db5	0.14415629
176	0xbc874939	-0.016514407
177	0xbe793a12	-0.24338558
178	0x3c127228	0.00893835
179	0xbd93b623	-0.07212474
180	0xbe39d5f1	-0.18148018
181	0xbd5c407f	-0.053772446
182	0xbe39d27e	-0.18146703
183	0xbe4e20c0	-0.2012968
184	0xbd8e3028	-0.06942779
185	0xbd49242e	-0.04910677
186	0xbd6dd35c	-0.058062896
187	0xbe8c1860	-0.27362347
188	0x3cb458ea	0.022015054
189	0xbcc287f4	-0.023746468
190	0x3df0bda0	0.11754918
191	0x3dd7f6b0	0.10545099
192	0x3c585892	0.013204711
193	0xbe0f91d8	-0.14020479
194	0xbd2160b3	-0.03939886
195	0xbdf2bcb4	-0.118523985
196	0xbd86b9c9	-0.065784045
197	0x3d66c068	0.056335837
198	0xbd7aacc8	-0.061199933
199	0xbd03a36d	-0.032138277
200	0xbd9ef307	-0.077611975
201	0xbc03cfc8	-0.008045144
202	0xbe1111cb	-0.14166944
203	0xbddf64eb	-0.109079204
204	0xbd26327f	-0.0405755
205	0xbd5b4f39	-0.05354235
206	0x3d96dd15	0.07366387
207	0xbc97072d	-0.018436039
208	0x3cc59d45	0.024122844
209	0xbdcc517e	-0.09976481
210	0xbe2e5006	-0.17022714
211	0xbd1a5cbd	-0.0376861
212	0xbcb6c049	-0.022308486
213	0x3cebca17	0.028782887
214	0xbdf2160e	-0.11820613
215	0xbdccf0f4	-0.10006896
216	0x3cd05588	0.02543141
217	0xbd34f5f9	-0.04417989
218	0xbb9b1679	-0.0047329036
219	0x39313738	0.00016900606
220	0xbe010d63	-0.12602763
221	0xbd4cef3b	-0.050032835
222	0x3d2d3e17	0.04229554
223	0xbd08b9e6	-0.03338041
224	0x3d9d03e9	0.076667614
225	0xbc9e74e2	-0.019342843
226	0x3da6c8d0	0.08143771
227	0xbd923acf	-0.07140123
228	0x3d9c14eb	0.07621177
229	0xbdac36e9	-0.08408911
230	0xbbf037ef	-0.0073308866
231	0x3ca884fc	0.020571224
232	0xbd84eda2	-0.06490637
233	0xbcade385	-0.021226654
234	0xbd45649a	-0.048191644
235	0x3ca16f7c	0.01970648
236	0xbc966af6	-0.01836155
237	0xbcc02575	-0.02345536
238	0xbe09f722	-0.1347318
239	0x3cdcee81	0.026969196
240	0x3d778ead	0.0604388
241	0x3d0f3511	0.034962717
242	0x3d42bf5f	0.047545787
243	0x3d9252aa	0.07144673
244	0xbdc8633f	-0.09784555
245	0xbdbbe25b	-0.09174033
246	0xbdb5b8fe	-0.08873175
247	0xbd5ed8d5	-0.054406006
248	0xbdeacc59	-0.114647575
249	0xbd0b59d1	-0.034021202
250	0xbd3b041b	-0.045658212
251	0xbd1ac6e1	-0.037787322
252	0x3d840a24	0.06447247
253	0xbe01cbbf	-0.12675379
254	0xbe022938	-0.12711036
255	0xbd8e3207	-0.06943136

node_function_neighbor.2.bias f4 [64]
0	0xbde852e8	-0.11343938
1	0xbd76e8cc	-0.060280606
2	0x3e389c67	0.18028413
3	0xbaa5a031	-0.0012636242
4	0xbd3b809b	-0.045776945
5	0x3c5e3045	0.013561313
6	0x3a64a203	0.00087216514
7	0xbc61c6f5	-0.013780345
8	0x3e286a50	0.16446805
9	0x3d115355	0.035479862
10	0x3cbd718c	0.023125432
11	0x3d1d1557	0.03835043
12	0x3cab931d	0.020944173
13	0xbdd70585	-0.104991
14	0x3c323523	0.010876927
15	0x3dd875d7	0.10569351
16	0x3d9aef65	0.07565192
17	0xbcfd7421	-0.030939164
18	0x3da557f8	0.08073419
19	0xbd9d3f9e	-0.0767815
20	0xbd7ee5c1	-0.06223083
21	0xbd850079	-0.06494231
22	0x3c8846d7	0.016635342
23	0xbcfa8076	-0.030578833
24	0x3d841512	0.06449331
25	0x3bd50fcb	0.006502127
26	0x3d3134a2	0.043263085
27	0xbe005da8	-0.12535727
28	0x3cfa8eb0	0.030585617
29	0xbd9f3d51	-0.07775367
30	0x3df5ef1a	0.12008496
31	0x3d89eeec	0.06735024
32	0xbd911b44	-0.07085279
33	0xbd72d52d	-0.05928533
34	0x3b34ce6a	0.0027588853
35	0xbda62866	-0.08113174
36	0xbdc76944	-0.09736875
37	0xbaabd4f6	-0.0013109732
38	0x3dc4953d	0.095987774
39	0x3d5d5ac5	0.054041643
40	0xbd2e6d49	-0.04258469
41	0xbdd4375a	-0.1036212
42	0xbdcff49c	-0.101540774
43	0x3d90c7ab	0.07069334
44	0xbcd0a90d	-0.025471235
45	0xbb53c381	-0.0032312574
46	0xbd3c75f3	-0.046010923
47	0xbc5128fb	-0.012766118
48	0x3e2962d5	0.16541608
49	0x3e0cff70	0.13769317
50	0x3dadb67e	0.08482073
51	0xbd2ba4fc	-0.04190539
52	0xbd6ed117	-0.058304872
53	0x3e28df31	0.16491391
54	0xbd97ac80	-0.07405949
55	0xbe08b850	-0.1335156
56	0x3de409ac	0.11134657
57	0xbd690d42	-0.05689741
58	0xbdaf3861	-0.08555675
59	0x3dac8851	0.08424438
60	0x3d108ed4	0.03529246
61	0x3c9bed7a	0.019034136
62	0xbd9fb2bb	-0.07797762
63	0x3d5ab092	0.053391047

node_function_neighbor.4.weight f4 [64, 64]
0	0xbd9ce526	-0.07660894
1	0xbdb3bab0	-0.08775842
2	0x3d97e256	0.07416217
3	0xbc9e1924	-0.019299097
4	0xbb426e88	-0.0029667933
5	0xbd9cda9c	-0.07658884
6	0x3e11e438	0.14247215
7	0x3baf2dff	0.0053460593
8	0xbdb611a6	-0.08890085
9	0xbe073edd	-0.13207574
10	0x3d5bfc86	0.053707622
11	0xbda57907	-0.08079725
12	0x3c519f09	0.012794265
13	0xbd16d86e	-0.036827497
14	0xbd49edec	-0.049299166
15	0xbd3a8c59	-0.045544002
16	0xbdc2cd03	-0.09511759
17	0xbda68386	-0.08130555
18	0xbde8ade2	-0.113612905
19	0x3d5b3454	0.0535167
20	0xbd0af137	-0.033921447
21	0xbd809a57	-0.06279438
22	0xbc88d058	-0.016700909
23	0xbde17448	-0.11008507
24	0x3dc864da	0.09784861
25	0x3c894ed4	0.016761221
26	0x3b97ab9c	0.0046286117
27	0x3d6ce1b0	0.05783242
28	0xbdd1a80b	-0.1023713
29	0xbbed70de	-0.007246121
30	0xbdd56e82	-0.10421468
31	0x3c1bda8c	0.009512555
32	0xbd9e685b	-0.07734748
33	0x3c1f80a8	0.009735264
34	0x3d83f86a	0.064438656
35	0x3cdf54e8	0.027262166
36	0xbde3952d	-0.111124374
37	0x3c857e53	0.016295588
38	0xbdf291c7	-0.11844211
39	0x3df84472	0.1212243
40	0x3cd6a4bf	0.026201604
41	0xbe118ef8	-0.14214694
42	0x3d126545	0.03574111
43	0x3dd0d127	0.10196143
44	0x3d0cd70e	0.03438478
45	0xbd6e6ecb	-0.05821113
46	0xbda85955	-0.08220164
47	0xbd63e5fb	-0.05563925
48	0x3ccb3f90	0.024810582
49	0x3d452142	0.04812742
50	0x3dce3ad0	0.10069811
51	0xbd8ae5dd	-0.06782124
52	0xbcd8249d	-0.026384646
53	0x3d509b5c	0.050929412
54	0xbe12b568	-0.14327013
55	0x3d24af44	0.04020621
56	0xbcb9339d	-0.022607619
57	0xbde43384	-0.11142638
58	0xbda9e001	-0.082946785
59	0xbcef63b7	-0.029222352
60	0xbbc49100	-0.0059987307
61	0xbdd7b5f3	-0.10532751
62	0x3cc89874	0.024486758
63	0x3be4660a	0.006970172
64	0x3df42f3c	0.11923072
65	0x3d3170a8	0.043320328
66	0x3caac45c	0.020845585
67	0xbda67aa2	-0.08128859
68	0x3dedd081	0.116120346
69	0xbd996b08	-0.07491118
70	0xbd8bf246	-0.06833319
71	0xbc781997	-0.01514282
72	0x3dd0f2fd	0.10202596
73	0x3c9819b5	0.018566946
74	0x3cca9252	0.024727974
75	0xbcff95b4	-0.031199314
76	0xbd279f60	-0.040923476
77	0x3ce4abe2	0.027913991
78	0x3da8fd53	0.08251443
79	0xbdac2923	-0.08406284
80	0xbdd93669	-0.10606081
81	0xbdd2e7c2	-0.102981105
82	0xbbde3d60	-0.006782219
83	0xbcf9b7e1	-0.030483188
84	0x3ae487c3	0.001743548
85	0x3dfe0399	0.1240303
86	0x3d944102	0.07238962
87	0xbe2417cb	-0.16024701
88	0xbd2fec1b	-0.042949777
89	0x3d6ebc0b	0.0582848
90	0x3cb2f40e	0.02184489
91	0x3d800cc4	0.06252435
92	0x3e09b7ff	0.13449095
93	0xba479c32	-0.00076145225
94	0x3da353be	0.07974957
95	0x3d479e00	0.048734665
96	0x3d39cb5c	0.045359954
97	0xbd97acbf	-0.074059956
98	0xbcd7cc00	-0.026342392
99	0xbda62b0e	-0.08113681
100	0xbdede638	-0.11616176
101	0x3d1486f2	0.036261506
102	0xbdc6a3eb	-0.096992336
103	0xbcd4661b	-0.025927594
104	0xbd64b6ee	-0.055838518
105	0x3e164e4b	0.14678304
106	0x3da12d82	0.07870008
107	0xbda4bab7	-0.080434255
108	0x3d15f3c2	0.03660942
109	0x3d8d8905	0.069109
110	0x3c5752ce	0.013142301
111	0x3ce9fa16	0.028561633
112	0x3d5bc65a	0.05365596
113	0xbd9bd0c6	-0.0760818
114	0x3d1e2e88	0.038618594
115	0xbdaa48f8	-0.08314699
116	0x3d174715	0.036933023
117	0xbd7f8056	-0.06237825
118	0x3db29d7f	0.08721446
119	0x3d169050	0.03675872
120	0xbb8f193f	-0.0043670232
121	0x3deac3d9	0.11463136
122	0xbd86866d	-0.065686084
123	0xbd28318f	-0.041062888
124	0x3ba7c8e0	0.0051203817
125	0xbd54fd63	-0.05199946
126	0x3d7dd721	0.06197274
127	0xbcf310ee	-0.029671159
128	0x3db23814	0.08702102
129	0x3db00f14	0.08596626
130	0xbde9b047	-0.11410575
131	0xbdaae8a3	-0.08345153
132	0xbdd2d84a	-0.1029516
133	0xbdcf75df	-0.10129904
134	0xbd048b39	-0.032359336
135	0xbe0204a9	-0.1269709
136	0x3d41225e	0.047151916
137	0xbd317220	-0.04332173
138	0xbb973711	-0.0046147187
139	0xbde94383	-0.1138983
140	0xbc051650	-0.0081229955
141	0x3cde238c	0.02711656
142	0x3d8ff0e4	0.07028368
143	0x3d68f29d	0.056872
144	0x3cdff5d3	0.027338898
145	0x3d46d6c0	0.048544645
146	0x3dec6ee4	0.11544588
147	0xbe0b8bf7	-0.13627611
148	0x3d9529d2	0.07283367
149	0xbde3ebe2	-0.111289755
150	0xbe08f441	-0.13374425
151	0xbd66132b	-0.056170624
152	0x3e0397c9	0.1285087
153	0x3b1e1911	0.0024123827
154	0xbe09226d	-0.13392039
155	0x3d825c71	0.06365288
156	0xbd162a60	-0.036661506
157	0xbd1037c6	-0.03520944
158	0xbe08f9d4	-0.13376552
159	0xbded45b4	-0.115855604
160	0x3d7bc7f1	0.061469976
161	0x3b451352	0.003007133
162	0x3d847daf	0.06469285
163	0x3c1fbfd0	0.0097503215
164	0x3dbe3ef2	0.092893496
165	0x3d9c2126	0.0762351
166	0xbc290f84	-0.010318641
167	0x3dc69ecf	0.09698259
168	0xbe0d6b89	-0.13810553
169	0xbdeb203b	-0.11480757
170	0x3d9a084c	0.07521114
171	0x3e05e144	0.13074213
172	0xbde831f8	-0.11337656
173	0x3d8b3b4b	0.067984186
174	0xbe1cbafe	-0.15305707
175	0x3ceb4de5	0.028723666
176	0x3c886102	0.01664782
177	0xbde2cd5b	-0.11074325
178	0xbdb85850	-0.09001219
179	0xbcaaffd7	-0.020873947
180	0xbd81a7c4	-0.06330827
181	0xbd6331fe	-0.0554676
182	0x3da8600d	0.08221445
183	0xbc91afe4	-0.017784066
184	0xbd8c8c39	-0.06862683
185	0xbd2f6d7a	-0.042829014
186	0x3d763a75	0.060114343
187	0x3caf07de	0.021366056
188	0xbbcc5780	-0.0062360168
189	0xbb17ea52	-0.0023180437
190	0xbd87c600	-0.066295624
191	0xbdd2a88a	-0.102860525
192	0x3d861806	0.06547551
193	0x3ddc0958	0.1074397
194	0xbbed0906	-0.0072337417
195	0x3d9a585c	0.075363845
196	0xbe186b13	-0.14884596
197	0x3d8845f7	0.0665397
198	0x3d251e01	0.040311817
199	0xbd270099	-0.040772054
200	0xbd6664ce	-0.05624848
201	0x3d6418e2	0.055687793
202	0x3d6278e5	0.055291075
203	0xbd987f49	-0.07446153
204	0x3c51ffd9	0.0128173465
205	0x3d8aa5eb	0.067699276
206	0xbda5b9c8	-0.080920756
207	0xbdde3df0	-0.108516574
208	0xbe112466	-0.14174041
209	0xba71c754	-0.00092231226
210	0xbd48ed24	-0.04905428
211	0xbdc26d78	-0.09493536
212	0xbd5bbf45	-0.053649206
213	0x3d9b5695	0.075848736
214	0x3e0ed79a	0.13949433
215	0x3d6e3daa	0.058164276
216	0x3d1f130d	0.038836528
217	0xbe078536	-0.1323441
218	0x3d4d19d2	0.050073452
219	0xbca8fd0a	-0.02062847
220	0xbdbe5eb9	-0.09295411
221	0xbd184a72	-0.03718037
222	0xbe1ac5d1	-0.15114523
223	0x3da44d6f	0.08022582
224	0xbe020973	-0.12698917
225	0xbd23083a	-0.039802767
226	0x3c2dd5da	0.010610068
227	0x3da1cfb4	0.07900944
228	0xbe1874bc	-0.1488828
229	0xbca630b3	-0.020286893
230	0xbdbe8dd5	-0.09304396
231	0xbe04869c	-0.12941974
232	0x3c54a016	0.012977621
233	0x3cba23ac	0.022722088
234	0xbc5a4181	-0.013321281
235	0x3d9cb3ab	0.076514564
236	0x3dcd6aad	0.100301124
237	0x3d1fc731	0.039008323
238	0xbcd8f92c	-0.026486002
239	0x3dbc176e	0.09184156
240	0xbd8c4327	-0.06848746
241	0xbdc92778	-0.09821981
242	0x3d0e9188	0.03480676
243	0xbd442e3a	-0.047895648
244	0xbcce0d80	-0.025152922
245	0x3d7faf84	0.062423244
246	0xbde9bc80	-0.11412907
247	0xbdb18b9c	-0.086692065
248	0xbe0ebfa3	-0.13940291
249	0xbcb6b0fc	-0.02230119
250	0x3cbb5153	0.022865927
251	0xbe1ef08a	-0.15521446
252	0x3c6d4fe0	0.014484376
253	0xbdd3cff8	-0.10342401
254	0x3c9a9347	0.018869055
255	0xbc6e2c0a	-0.014536867

node_function_neighbor.4.bias f4 [64]
0	0xbd086746	-0.033301614
1	0xbcf8ce38	-0.03037177
2	0xbd97425f	-0.07385706
3	0xbd3c22b6	-0.04593154
4	0xbdb4817e	-0.08813761
5	0xbe21de42	-0.15807441
6	0xbe164b25	-0.14677103
7	0xbdc740db	-0.09729167
8	0xbd4df22e	-0.05027979
9	0x3e1ee383	0.15516476
10	0xbe041397	-0.12898098
11	0x3dabd064	0.08389357
12	0x3b5c0018	0.0033569392
13	0x3e508019	0.20361365
14	0xbd909fee	-0.07061754
15	0xbc4f40c5	-0.01264972
16	0xbde199d3	-0.11015668
17	0x3d542b4b	0.0517991
18	0x3e075d7c	0.13219255
19	0x3a7ab90a	0.0009564316
20	0xbe17af76	-0.14813027
21	0xbd78e598	-0.060765833
22	0x3d62daf2	0.055384584
23	0x3dd8d905	0.10588268
24	0x3c2cdd29	0.010550776
25	0x3e2ba4c2	0.16762069
26	0x3c96f059	0.018425154
27	0xbcfc6905	-0.030811796
28	0xbe2445df	-0.16042279
29	0xbd1d306b	-0.038376253
30	0x3e47c7ba	0.19509783
31	0xbd9efefb	-0.077634774
32	0xbdc67cb2	-0.096917525
33	0x3dc5c0fb	0.09655949
34	0xbcb43a24	-0.02200038
35	0xbdf7d385	-0.12100891
36	0x3dff59c3	0.124682926
37	0xbd2ad3bf	-0.041705843
38	0x3d0ebc8a	0.034847774
39	0xbd081bf3	-0.03322978
40	0x3a661752	0.00087772787
41	0xbcc74753	-0.024326002
42	0xbc0be317	-0.008538029
43	0xbdca159c	-0.09867403
44	0xbcfa1e82	-0.030532125
45	0xbd950d8a	-0.07277973
46	0xbdd41ed0	-0.103574395
47	0xbdae5e9e	-0.085141405
48	0x3dc3266a	0.09528811
49	0xbc68a31e	-0.014199046
50	0xbdc6253f	-0.09675073
51	0xbe036b1f	-0.12833832
52	0xbdacfba2	-0.08446433
53	0xbd1e9fc0	-0.03872657
54	0x3df67b9a	0.12035294
55	0xbe0d5836	-0.13803181
56	0xbdb97796	-0.09056012
57	0xbdef55c1	-0.11686278
58	0x3dcf9498	0.10135764
59	0x3bf1dcc4	0.0073810536
60	0x3e03461d	0.12819715
61	0x3e2b9bf7	0.16758715
62	0xbc8a800b	-0.016906759
63	0xbe079c9a	-0.13243333

node_function_neighbor.6.weight f4 [4, 64]
0	0x3d384b0e	0.044993453
1	0xbd933831	-0.07188452
2	0x3d555200	0.052080154
3	0xbd9ddee8	-0.077085316
4	0xbe06d09c	-0.13165516
5	0x3d3c68b0	0.045998275
6	0x3d9ce389	0.076605864
7	0xbdaf1f93	-0.08550944
8	0xbdd9d445	-0.1063619
9	0xbd81a4e9	-0.06330282
10	0x3afab990	0.0019128788
11	0x3d2cf64d	0.04222708
12	0xbdb009d8	-0.085956275
13	0xbdf7f339	-0.12106938
14	0xbd1ca449	-0.038242612
15	0x3cc62d7c	0.02419161
16	0x3c38b3ed	0.011273366
17	0x3d3f3cb1	0.04668874
18	0x3d9a3952	0.07530464
19	0x3db85b1f	0.09001755
20	0xbb93b08d	-0.0045071305
21	0x3bb057fe	0.0053815832
22	0x3e06d57f	0.1316738
23	0xbbd3f0bc	-0.0064679068
24	0xbde97a24	-0.114002496
25	0xbc97f2ec	-0.018548451
26	0x3dd2ef4b	0.10299548
27	0x3d410e75	0.047132928
28	0x3da8d5c6	0.08243899
29	0x3d319ce6	0.04336252
30	0xbd92a1bb	-0.07159754
31	0xbdb7e52d	-0.08979259
32	0x3db1b81b	0.086776935
33	0xbcfba905	-0.030720243
34	0x3dac5e62	0.084164396
35	0x3dbfda95	0.09367863
36	0xbd063819	-0.032768343
37	0x3da1e088	0.07904154
38	0x3dad31d9	0.08456773
39	0x3df94a83	0.12172415
40	0x3dc3425a	0.0953414
41	0xbdc29383	-0.09500792
42	0x3e02f309	0.12788023
43	0x3d1e58d9	0.03865895
44	0x3da485a1	0.080333
45	0xbcb70c88	-0.022344843
46	0xbdd288d7	-0.102800064
47	0x3dc128cd	0.0943161
48	0xbdc25fad	-0.09490905
49	0x3e128b33	0.14310913
50	0x3c8ae4ca	0.016954798
51	0x3c9b9f52	0.018996868
52	0xbd04a8af	-0.03238743
53	0xbc96f195	-0.018425742
54	0x3da38c7b	0.07985779
55	0xbd229ef2	-0.039702363
56	0xbdaf4391	-0.08557809
57	0xbdc71aa8	-0.09721881
58	0xbdc9e928	-0.09858924
59	0xbd440628	-0.047857434
60	0xbde01084	-0.1094065
61	0xbd3872f9	-0.04503152
62	0x3cf397c0	0.029735446
63	0xbd237981	-0.039910797
64	0x3d19367f	0.037405487
65	0x3d8cbf9d	0.06872485
66	0x3de45304	0.111486465
67	0xbdae37a2	-0.08506705
68	0xbd8f2a67	-0.069905095
69	0x3dafffc1	0.08593703
70	0xbdb349f1	-0.087543376
71	0xbda70b69	-0.08156473
72	0x3db44cb6	0.08803694
73	0x3d004567	0.031316187
74	0x3da0f617	0.07859438
75	0x3dfadf7a	0.12249656
76	0x3cc11c9f	0.023573218
77	0x3c38ad8a	0.011271844
78	0x3db3731f	0.08762192
79	0xbd853b7e	-0.06505488
80	0xbd707cb3	-0.058712672
81	0x3d8f7fc5	0.07006792
82	0x3d0e2846	0.034706376
83	0xbd026dc8	-0.031842977
84	0xbd61b1f8	-0.055101365
85	0x3cfabc64	0.03060741
86	0x3d1bd309	0.038043056
87	0x3de8f923	0.11375644
88	0x3d35b77e	0.044364445
89	0x3dd778da	0.105210975
90	0xbca9f307	-0.020745767
91	0xbd4605e7	-0.048345473
92	0xbbf8281e	-0.0075731417
93	0xbc63815c	-0.013885822
94	0x3e4192e9	0.18903698
95	0xbce980cf	-0.028503804
96	0x3dbf0d00	0.093286514
97	0x3d4be2ce	0.049776845
98	0xbd5ee2ab	-0.054415386
99	0xbdb72711	-0.08942998
100	0xbc0d23b8	-0.008614473
101	0x3b1ee103	0.0024243004
102	0x3dd94c9a	0.10610314
103	0xbd6f92e0	-0.05848968
104	0xbd5f6154	-0.05453618
105	0x3db0c60a	0.08631523
106	0xbd37df35	-0.0448906
107	0xbc2a1ec3	-0.010383311
108	0xbcbf374e	-0.023341801
109	0xbd130550	-0.03589374
110	0x3dbcd1f4	0.09219733
111	0xbcd6efdb	-0.026237419
112	0xbd0941a3	-0.03350986
113	0xbd900704	-0.07032588
114	0x3de18707	0.110120825
115	0x3e0b5cd9	0.13609637
116	0x3d92c68f	0.07166778
117	0x3c9f3063	0.019432252
118	0x3d267547	0.04063919
119	0xbc2e08b7	-0.010622195
120	0xbdb06b8f	-0.08614265
121	0x3e0161f6	0.12635025
122	0x3ddcb09a	0.107758716
123	0x3da3c7c8	0.079970896
124	0x3dc72007	0.097229056
125	0xbd39cee6	-0.04536333
126	0x3db6a373	0.08917894
127	0x3dfe2ac9	0.12410504
128	0x3d37fdfa	0.044919945
129	0x3d8573c3	0.065162204
130	0xbcce0b16	-0.02515177
131	0x3d79f90c	0.061028525
132	0xbd6a3d1a	-0.057187177
133	0x3ba1cd8c	0.004937833
134	0x3db273c7	0.08713489
135	0xbc46a62f	-0.012124582
136	0xbdb42dff	-0.087978356
137	0xbd84c2e6	-0.064824864
138	0x3da79e9c	0.08184549
139	0x3d124aa8	0.03571573
140	0xbd237efb	-0.03991602
141	0x3dd7b5b3	0.10532703
142	0x3d1e2c29	0.038616333
143	0xbda2b925	-0.0794547
144	0x3d430b30	0.04761809
145	0x3d8c7fc2	0.06860305
146	0x3d216376	0.039401494
147	0xbe6657a1	-0.22494365
148	0x3ca1d774	0.019756056
149	0xbdb3bfca	-0.08776815
150	0xbd491fa9	-0.04910246
151	0xbda07acb	-0.07835921
152	0xbb9594c0	-0.0045648515
153	0x3c8431bf	0.016137002
154	0x3a7d326c	0.00096586975
155	0xbdbc001a	-0.09179707
156	0x3c014e45	0.007892196
157	0x3da4b1f5	0.08041755
158	0x3dcc6ad2	0.09981312
159	0x3dbbbe57	0.09167164
160	0xbb0d994c	-0.0021606265
161	0x3cf12a21	0.029439034
162	0xbdd87df0	-0.10570896
163	0x3d998cd7	0.07497566
164	0x3b03c908	0.0020108838
165	0x3d3903b0	0.045169532
166	0x3d6c90d0	0.05775529
167	0xbc767d24	-0.015044484
168	0xbcba9f1e	-0.022780951
169	0x3d015c99	0.03158245
170	0xbd6bb1d3	-0.057542633
171	0xbd316fcf	-0.04331952
172	0x3db45e0f	0.08807003
173	0xbc4b5070	-0.0124093145
174	0xbd020b58	-0.0317491
175	0xbdb2e34e	-0.08734761
176	0x3c9404f6	0.018068772
177	0x3c42e8bf	0.011896311
178	0xbdb59dca	-0.088679865
179	0x3db0306e	0.08602987
180	0x3b8ea83c	0.004353551
181	0xbd20ed74	-0.039288953
182	0x3de7d16b	0.1131924
183	0xbdb3f88e	-0.087876424
184	0x3d9ca200	0.076480865
185	0xbdcf99a5	-0.10136727
186	0x3de72c74	0.11287776
187	0x3ce55b6e	0.027997699
188	0xbd591ed3	-0.053007912
189	0xbcb492a8	-0.022042587
190	0x3dd3c10c	0.10339555
191	0xbd6955a9	-0.056966458
192	0x3d7169bf	0.058938738
193	0x3c1bde30	0.009513423
194	0xbc8d7bae	-0.01727089
195	0xbd8215d7	-0.06351822
196	0xbaf4388b	-0.0018632574
197	0xbd46b96c	-0.048516676
198	0x3d71a4f3	0.0589952
199	0x3dbf3660	0.09336543
200	0x3da14362	0.078741804
201	0x3de95443	0.11393025
202	0xbd135ae3	-0.03597535
203	0x3df715fe	0.120647416
204	0xbda65217	-0.08121126
205	0x3df09408	0.11746985
206	0x3d5c12c3	0.05372883
207	0xbcbfefc2	-0.023429755
208	0x3d55fdb3	0.0522439
209	0xbdb5df0f	-0.08880436
210	0x3d974135	0.07385484
211	0xbc480916	-0.0122091975
212	0xbd7687ac	-0.06018798
213	0x3d9f9ae4	0.07793215
214	0x3d9b817e	0.07593058
215	0x3d95ccff	0.073144905
216	0xbcea9543	-0.028635627
217	0xbcf8f17c	-0.030388586
218	0xbc946de5	-0.018118808
219	0x3dac89ee	0.084247455
220	0x3d63c5df	0.055608626
221	0x3db85581	0.090006836
222	0xbc41db91	-0.011832134
223	0xbd50c48c	-0.05096869
224	0xbd835088	-0.064118445
225	0x3dca20e6	0.09869556
226	0xbd8e98c0	-0.069627285
227	0xbc863da0	-0.016386807
228	0x3d4494ec	0.047993585
229	0xbda184f6	-0.078866884
230	0xbd2e759b	-0.042592626
231	0xbdb84fa3	-0.089995645
232	0x3c93a5f9	0.018023478
233	0xbd82d1b1	-0.06387652
234	0x3c654716	0.013993999
235	0x3b8114b7	0.003939237
236	0xbd2da13d	-0.042390097
237	0x3d89d80a	0.06730659
238	0xbc269122	-0.010166438
239	0x3d3af295	0.0456415
240	0x3d95426b	0.07288059
241	0xbc805f72	-0.015670512
242	0x3d2293d5	0.039691765
243	0xbcc0319e	-0.02346116
244	0xbd80b060	-0.06283641
245	0x3cba0c46	0.02271093
246	0x3e0445bb	0.12917225
247	0x3d982a39	0.07429928
248	0x3c2291b2	0.009922432
249	0x3db84d2b	0.089990936
250	0xbc856039	-0.016281234
251	0x3b28442b	0.0025675397
252	0x3df16da7	0.11788493
253	0x3e084d81	0.13310815
254	0xbd465148	-0.04841736
255	0xbd1ae468	-0.03781548

node_function_neighbor.6.bias f4 [4]
0	0xbd8b5554	-0.068033844
1	0x3e17218c	0.14758891
2	0x3df904a6	0.1215909
3	0xbcb0b8c9	-0.021572487

edge_function.0.weight f4 [64, 4]
0	0x3ec0f391	0.37685826
1	0x3e8e47a7	0.2778904
2	0x3e828378	0.25490928
3	0xbeb2ae29	-0.348985
4	0xbd8f7458	-0.07004613
5	0x3ce69b5b	0.028150251
6	0x3dafea5d	0.08589623
7	0x3e51da13	0.20493345
8	0xbe5b82c5	-0.21436603
9	0xbe9d14f6	-0.30680054
10	0xbe48f1ac	-0.1962344
11	0xbcad6909	-0.021168249
12	0x3e5daaf6	0.21647248
13	0x3ec1706d	0.37781087
14	0xbebf7222	-0.37391764
15	0xbebac2b8	-0.36476684
16	0xbe1b7c09	-0.15184034
17	0x3e6ecd18	0.23320425
18	0x3c2e4120	0.010635644
19	0xbe138a88	-0.14408314
20	0xbef861e5	-0.48512188
21	0xbe60a6aa	-0.21938577
22	0xbea63718	-0.32463908
23	0xbd683415	-0.056690294
24	0x3e65fad3	0.22458963
25	0x3dc8dbd0	0.09807551
26	0xbed65f0b	-0.41869387
27	0xbeca1bbc	-0.39474285
28	0xbe50bd5e	-0.20384738
29	0xbe77a083	-0.24182324
30	0x3ed86d3a	0.42270833
31	0xbe841f59	-0.25805166
32	0xbe469ca1	-0.19395687
33	0xbeb0e766	-0.34551543
34	0xbea0ac19	-0.313813
35	0xbee6e640	-0.45097542
36	0xbde9f3bc	-0.11423442
37	0xbea479ae	-0.32124084
38	0xbeec72ab	-0.46181235
39	0xbee6c3df	-0.45071313
40	0x3eb93d75	0.361797
41	0xbd5cbe2e	-0.053892307
42	0x3e46aff9	0.19403066
43	0x3e84a4d6	0.2590701
44	0xbd7daba0	-0.061931252
45	0x3e8b134e	0.27163166
46	0x3ea39f39	0.31957415
47	0x3d8bb8dd	0.06822369
48	0xbdb92e83	-0.090420745
49	0x3ebe0e94	0.37120497
50	0x3ebd14d1	0.36929944
51	0x3ec48a4f	0.3838677
52	0xbc6a87c9	-0.0143146
53	0xbde29d76	-0.110651895
54	0xbd375d88	-0.044766933
55	0x3ead3e6f	0.33836696
56	0xbe16c57f	-0.14723776
57	0x3e17bff1	0.14819314
58	0x3e50097f	0.20316122
59	0xbde97095	-0.113984264
60	0xbecd3e55	-0.40086618
61	0xbee70303	-0.45119485
62	0xbde5e346	-0.112249896
63	0xbc9f128b	-0.019418022
64	0x3e5a3543	0.2130938
65	0x3d5cec15	0.053936083
66	0x3df17907	0.11790662
67	0x3edbef3e	0.42955965
68	0x3dcdb55d	0.10044358
69	0xbe90cfd6	-0.28283566
70	0xbe11506b	-0.14190833
71	0xbef112c1	-0.4708462
72	0xbec68143	-0.38770494
73	0x3d9d03cd	0.076667406
74	0xbe6979bb	-0.22800343
75	0x3e971715	0.29509798
76	0x3db24d59	0.08706159
77	0xbeb17bee	-0.34664863
78	0xbe3d775a	-0.1850256
79	0xbeb4ad33	-0.3528839
80	0xbe6f0525	-0.23341806
81	0xbe4cfd69	-0.20018543
82	0xbe82b932	-0.25531918
83	0x3ea9d989	0.3317378
84	0xbdf91003	-0.12161257
85	0x3e4d0379	0.20020856
86	0xbedd5c65	-0.43234554
87	0x3d9b5f34	0.07586518
88	0xbea9bed2	-0.33153397
89	0xbee65da3	-0.44993314
90	0x3e1806b1	0.14846303
91	0x3ec8b288	0.3919871
92	0xbec795d4	-0.38981497
93	0x3eb2ea5d	0.3494443
94	0x3e0c1a58	0.13681924
95	0x3ef52979	0.47883204
96	0xbed9f6c2	-0.42571074
97	0x3e54f356	0.2079595
98	0xbe3cd72c	-0.18441457
99	0x3e82ca8e	0.25545162
100	0x3ebbfe4f	0.3671746
101	0x3e33e441	0.1756754
102	0x3eab3bc1	0.33444026
103	0x3e6dfc50	0.23240781
104	0xbe4f2d2c	-0.20232075
105	0xbea53f08	-0.32274652
106	0xbe8724a5	-0.26395145
107	0xbea8425a	-0.32863122
108	0xbe6c6757	-0.23086296
109	0xbe555f56	-0.20837149
110	0x3cf195ff	0.029490469
111	0x3ddcb0da	0.10775919
112	0x3ea4fbba	0.32223302
113	0x3f01b2d0	0.5066347
114	0x3ed192f2	0.40932423
115	0xbe4e4f34	-0.20147401
116	0x3ea45a20	0.3210001
117	0xbee48d66	-0.44639128
118	0xbe72e5b5	-0.23720439
119	0x3e612587	0.21986972
120	0x3efc9b39	0.49337175
121	0x3eb557bf	0.35418507
122	0xbeb768f0	-0.35822248
123	0xbe70a6ef	-0.2350118
124	0x3e5364dc	0.20643944
125	0xbea30de5	-0.31846538
126	0x3eda4eb4	0.4263817
127	0x3eb0d806	0.34539813
128	0x3e99fa6f	0.30073878
129	0xbe87f892	-0.26556832
130	0xbef6e270	-0.48219633
131	0xbd450f78	-0.048110455
132	0x3e4c8e62	0.1997619
133	0x3e073848	0.13205063
134	0xbe6a22e5	-0.22864874
135	0xbe924690	-0.2856946
136	0xbeb7100d	-0.35754433
137	0xbd08c6cb	-0.03339271
138	0x3e692ccf	0.22771
139	0xbed5119f	-0.41615006
140	0xbe90b95a	-0.28266412
141	0xbeab2285	-0.33424774
142	0x3ec15c4a	0.37765723
143	0xbea91132	-0.3302093
144	0x3e66ff22	0.22558263
145	0xbe025d72	-0.12730959
146	0x3de1dc1b	0.1102831
147	0xbee55d52	-0.4479776
148	0xbe9376a1	-0.28801444
149	0xbeb0f67e	-0.3456306
150	0xbd0ad8c1	-0.03389812
151	0xbe034d81	-0.12822534
152	0x3e1909e3	0.14945178
153	0x3eb089cc	0.3448013
154	0x3e87ec75	0.2654759
155	0x3e45e04b	0.19323842
156	0xbe23fd03	-0.16014485
157	0xbed6d71c	-0.4196099
158	0x3d85dbd5	0.0653607
159	0x3a382443	0.00070244464
160	0x3e7f7e30	0.2495048
161	0xbefde3df	-0.49587914
162	0xbe6af598	-0.22945249
163	0x3d052468	0.032505423
164	0x3dbb2161	0.09137226
165	0xbed7292a	-0.42023593
166	0x370a2fad	8.236541e-06
167	0x3e584e6b	0.21123664
168	0x3e888d68	0.26670384
169	0xbe6db982	-0.23215297
170	0x3cb34f60	0.021888435
171	0x3e6bfa2f	0.23044656
172	0x3ea3e42f	0.32010028
173	0x3ec84a85	0.39119354
174	0xbecbee4d	-0.39830247
175	0xbd5268ae	-0.05136936
176	0xbece4fc3	-0.40295228
177	0x3e61179c	0.21981663
178	0xbd8f9a6f	-0.07011878
179	0x3eaed3ed	0.34146062
180	0xbea61afb	-0.3244246
181	0x3e943d05	0.28952804
182	0xbe0da8c5	-0.13833912
183	0xbee6b479	-0.45059565
184	0x3cb40d2d	0.021978939
185	0x3effa859	0.49933127
186	0x3ce0e9b3	0.027455186
187	0x3d6a4c38	0.057201594
188	0xbdfeb3f6	-0.124366686
189	0x3eaf5f4d	0.34252396
190	0x3d484614	0.048894957
191	0xbddc32eb	-0.10751899
192	0xbe2c53b9	-0.16828813
193	0xbde7bf01	-0.11315728
194	0xbe864bc7	-0.2622969
195	0xbd49ea0f	-0.04929548
196	0x3e323f33	0.17406921
197	0xbe9c1c81	-0.30490497
198	0x3d4b3dfc	0.04961966
199	0x3d901b4d	0.07036457
200	0xbee69058	-0.45032
201	0x3eae2ec3	0.3402005
202	0x3ef8007c	0.4843787
203	0x3e825a0d	0.25459328
204	0x3e743daf	0.23851655
205	0x3ac7cc6e	0.001524342
206	0xbed10189	-0.40821484
207	0xbbe75b93	-0.007060477
208	0xbe7978db	-0.24362509
209	0x3eadd207	0.339493
210	0xbd82cf79	-0.063872285
211	0xbdf01e82	-0.11724569
212	0xbe41c846	-0.18924055
213	0xbdc39c9a	-0.09551354
214	0x3e7968b3	0.24356346
215	0x3da05203	0.078281425
216	0x3d124a4f	0.035715397
217	0xbe6de122	-0.23230413
218	0xbeb06568	-0.34452367
219	0x3e15816e	0.14600155
220	0x3ed11fb3	0.40844497
221	0xbea30f63	-0.31847677
222	0xbd8a46e1	-0.067518
223	0x3e91b9cd	0.28462067
224	0xbc846e23	-0.016165799
225	0xbe938cb7	-0.28818294
226	0x3ec17f65	0.37792507
227	0x3ea23c22	0.31686503
228	0x3eabb68c	0.3353771
229	0x3d07ecfe	0.033184998
230	0xbe1e412a	-0.15454546
231	0xbe0f3bbd	-0.13987632
232	0x3ecf7d4a	0.40525275
233	0xbd2622df	-0.0405606
234	0x3ec042d0	0.37550974
235	0xbccb1164	-0.024788566
236	0xbb761038	-0.0037546288
237	0xbea9a8fe	-0.33136743
238	0x3eb2a0a8	0.34888196
239	0xbef9cdb4	-0.48789752
240	0xbe58b136	-0.2116135
241	0xbdf22dba	-0.11825128
242	0x3e987672	0.29777867
243	0x3d2e448c	0.04254584
244	0xbe11eeee	-0.142513
245	0xbe2451d1	-0.16046835
246	0x3eeae1b4	0.45875323
247	0xbc2c6e10	-0.010524288
248	0x3c45d0a3	0.012073669
249	0xbe105408	-0.14094555
250	0xbe0da069	-0.13830723
251	0xbd12479b	-0.03571282
252	0x3e8652b6	0.26234978
253	0xbed10faf	-0.40832278
254	0x3ef16f79	0.4715536
255	0x3e9ab9bc	0.3021983

edge_function.0.bias f4 [64]
0	0x3ebc2748	0.3674872
1	0x3d9d41f9	0.07678599
2	0x3eaaf62b	0.33390936
3	0xbdb89aa9	-0.09013874
4	0x3e5db5e2	0.21651414
5	0x3ed8969b	0.42302403
6	0xbe1e8658	-0.15480936
7	0x3d7958bc	0.06087564
8	0xbc23cc56	-0.009997448
9	0x3dc2949a	0.09501
10	0xbef615b1	-0.48063424
11	0xbe39b0ed	-0.18133898
12	0x3ee3fb9d	0.44527903
13	0x3b9da361	0.004810736
14	0x3e72244d	0.2364666
15	0xbe49f259	-0.19721355
16	0xbde342f7	-0.11096757
17	0x3e5033ac	0.20332211
18	0xbc8bc7a1	-0.017062964
19	0xbeabe15d	-0.33570376
20	0xbe3dfc9f	-0.18553399
21	0xbe962283	-0.29323205
22	0xbe49a713	-0.1969264
23	0xbee2c963	-0.4429427
24	0xbc02036b	-0.007935385
25	0x3e245157	0.16046654
26	0x3e85d083	0.26135644
27	0x3ed296d1	0.4113069
28	0x3ea91805	0.33026138
29	0xbe82b7be	-0.2553081
30	0xbe9f361f	-0.3109598
31	0xbe9f4d1f	-0.31113526
32	0xbe9e023e	-0.30861086
33	0xbefedb31	-0.49776605
34	0x3e9cb7ba	0.30608922
35	0xbe5918b1	-0.21200825
36	0xbe5226d1	-0.2052262
37	0xbee5e169	-0.44898537
38	0x3f03a1f7	0.51419014
39	0xbc89db55	-0.016828218
40	0x3e3f97a7	0.18710195
41	0x3e77df8c	0.2420637
42	0xbc92c260	-0.01791495
43	0x3e80f3d8	0.25186038
44	0x3d958352	0.07300438
45	0xbef7f3c9	-0.4842818
46	0xbef3f2e7	-0.47646257
47	0x3eb1e773	0.34746894
48	0xbe629aa7	-0.22129308
49	0xbca14761	-0.019687356
50	0x3e15d259	0.14631023
51	0x3ec5a5de	0.3860311
52	0x3efa5547	0.48893186
53	0x3d8282bf	0.06372594
54	0xbec1db2a	-0.3786252
55	0xbeadfec1	-0.33983424
56	0xbf049765	-0.5179351
57	0x3d8533e0	0.06504035
58	0xbec7703c	-0.38952816
59	0xbeae7856	-0.34076184
60	0x3f037eb1	0.5136519
61	0x3e8c84ea	0.27445155
62	0x3e1e0791	0.15432574
63	0x3e634424	0.22193962

edge_function.2.weight f4 [64, 64]
0	0x3caa0f7d	0.020759339
1	0xbda63c59	-0.08116979
2	0xbe0e2be4	-0.1388393
3	0xbda91e7e	-0.08257769
4	0xbbb3acdd	-0.0054832534
5	0x3c8f767d	0.017512554
6	0xbe05bbed	-0.13059969
7	0x3d0f43de	0.034976833
8	0xbd8d6db7	-0.06905692
9	0xbda4cf18	-0.080473125
10	0x3d3a8b82	0.0455432
11	0x3db05e48	0.08611733
12	0xbdb1efcb	-0.08688315
13	0xbe09a030	-0.13440013
14	0x3c768efd	0.0150487395
15	0xbdd0ac7d	-0.101891495
16	0x3cbe3ee4	0.023223348
17	0xbdfa027d	-0.12207506
18	0x3d80fa27	0.06297713
19	0xbd0bb70b	-0.03411011
20	0xbc92394f	-0.017849592
21	0xbd96cbc1	-0.07363082
22	0x3c0b356a	0.008496622
23	0x3d58243a	0.052768923
24	0x3d1d6187	0.038423087
25	0x3d8eb044	0.06967214
26	0x3db421ac	0.08795485
27	0xbd8e5754	-0.0695025
28	0xbe00b71c	-0.1256985
29	0xbdc82437	-0.097725324
30	0x3d83e1a3	0.06439521
31	0xbdd91aa8	-0.106007874
32	0xbd03e8d2	-0.032204457
33	0x3ccb29cd	0.024800206
34	0xbd3ff57e	-0.04686498
35	0xbbc79a52	-0.0060913945
36	0xbdddc749	-0.10829026
37	0x3dba990c	0.091112226
38	0xbe12237f	-0.14271353
39	0x3dfaaf9c	0.12240526
40	0xbd7caa4d	-0.06168585
41	0x3d3b3753	0.04570706
42	0xbda8ced5	-0.08242575
43	0xbc4f90a3	-0.012668761
44	0x3d9f40c4	0.07776025
45	0xbdf67bb7	-0.120353155
46	0xbc1c0daf	-0.009524747
47	0x3c9788e1	0.018497886
48	0xbdd6bb8d	-0.10484991
49	0x3d23a5ac	0.03995292
50	0xbce3e2d8	-0.027818128
51	0xbdcd306a	-0.10019
52	0x3cf181dd	0.029480869
53	0xbdcd0774	-0.10011187
54	0x3dc876c4	0.09788278
55	0xbd063bbe	-0.03277182
56	0xbca675a6	-0.020319771
57	0x3d97c5a7	0.07410746
58	0xbdac03a0	-0.08399129
59	0xbd8f96fb	-0.07011219
60	0xbc527314	-0.01284482
61	0xbdd6b66d	-0.10484014
62	0xbda0965b	-0.07841178
63	0xb9c632ce	-0.00037803355
64	0xbcb1bbfb	-0.021696081
65	0xbc181314	-0.009281892
66	0xbd2d9640	-0.042379618
67	0xbd23314f	-0.039841946
68	0x3b2c02ba	0.0026246742
69	0xbe16b4a1	-0.14717342
70	0x3bf4844d	0.0074620605
71	0xbd8dfbec	-0.06932816
72	0x3da619b4	0.08110371
73	0xbd1cd922	-0.03829301
74	0x3d993f07	0.07482725
75	0xbcafa39b	-0.021440318
76	0x3cb25243	0.021767741
77	0x3d3b7576	0.045766316
78	0x3d71693b	0.058938246
79	0xbcec4684	-0.028842218
80	0x3d732227	0.059358742
81	0xbe0d8ef0	-0.13824058
82	0x3db0d2f6	0.086339876
83	0xbe4342ba	-0.19068423
84	0x3d76a78e	0.060218386
85	0xbe09324f	-0.13398097
86	0xbdbcb328	-0.09213859
87	0xbdc2cc7a	-0.09511657
88	0xbd9185e4	-0.07105616
89	0x3cd4e4f7	0.025988085
90	0xbd657c60	-0.056026816
91	0xbdbb9477	-0.09159177
92	0x3c1efd71	0.00970398
93	0xbe0a144a	-0.13484302
94	0xbdfeab2e	-0.12434994
95	0xbd064803	-0.03278352
96	0xbd8b0a5c	-0.06789085
97	0x3d083acf	0.03325921
98	0x3ca696dd	0.02033561
99	0xbd92260f	-0.07136165
100	0xbdf8a1ad	-0.12140212
101	0xbe5dd3cb	-0.21662824
102	0xbce43b14	-0.027860202
103	0xbd9f169e	-0.07767986
104	0xbddbff0f	-0.10742008
105	0xbde20b9e	-0.11037372
106	0x3d556758	0.05210051
107	0xbdd9df40	-0.10638285
108	0xbd4656d4	-0.04842265
109	0xbdc36e50	-0.09542525
110	0xbe383cfc	-0.17992014
111	0x3d330fe3	0.043716323
112	0xbdb47c80	-0.08812809
113	0x3d66024b	0.05615453
114	0xbbf229b3	-0.007390225
115	0xbb2f261f	-0.0026725603
116	0xbd9661cf	-0.07342874
117	0xbe4218f2	-0.18954828
118	0xbdf5a7fa	-0.119949296
119	0x3c46309a	0.012096548
120	0x3d58f4e3	0.052967917
121	0xbdca5501	-0.098794945
122	0x3ae605bb	0.0017549315
123	0xbdbe6add	-0.09297726
124	0xbe14e502	-0.14540485
125	0xbe186939	-0.1488389
126	0x3cb1751e	0.021662291
127	0xbdc73bf6	-0.097282335
128	0x3d6a7cc9	0.05724791
129	0x3d4ff5f3	0.050771665
130	0xbd593286	-0.0530267
131	0x3d4e1279	0.050310586
132	0xbd1293ae	-0.03578537
133	0xbd60b08e	-0.054855876
134	0xbc5b58f8	-0.013387911
135	0x3c2c88e4	0.010530684
136	0x3cd205ab	0.025637468
137	0x3c13fca9	0.009032407
138	0xbd636f54	-0.055526093
139	0xbcfbbeb7	-0.030730588
140	0x3bc80294	0.006103823
141	0x3d3c1586	0.045918964
142	0xbda8241e	-0.08210014
143	0xbd9a07a6	-0.0752099
144	0xbcbd8561	-0.02313489
145	0x3db77f3e	0.089598164
146	0x3c515966	0.012777662
147	0x3cf64d14	0.03006605
148	0xbd88f8c0	-0.0668807
149	0x3c11161b	0.008855368
150	0x3c30a21c	0.010780837
151	0x3d8dee15	0.06930176
152	0xbdc5867c	-0.096447915
153	0xbdac0384	-0.08399108
154	0xbddb4af7	-0.10707658
155	0x3d84fc3c	0.064934224
156	0x3a513e80	0.00079820305
157	0xbd76d54c	-0.06026201
158	0xbcfc7d7e	-0.030821558
159	0xbde77c8a	-0.11303051
160	0x3e14efdb	0.14544623
161	0x3dd8b044	0.10580495
162	0xbe0a2586	-0.13490877
163	0xbda4bfe6	-0.08044414
164	0x3c9dc157	0.01925723
165	0x3ca78b4d	0.020452166
166	0x3df81fe5	0.121154584
167	0x3bf8c222	0.007591502
168	0x3d7f1379	0.06227443
169	0x3d6624c1	0.056187395
170	0xbdd54551	-0.10413612
171	0x3da03abd	0.078237034
172	0x3b81e43d	0.0039639757
173	0xbce0c561	-0.027437868
174	0x3d760727	0.060065415
175	0xbbf957bd	-0.007609336
176	0xbca8ea4d	-0.020619536
177	0x3c8104a5	0.015749285
178	0xbd94cfc7	-0.07266193
179	0x3d8481c2	0.06470062
180	0x3d808f00	0.06277275
181	0x3b6b5e7a	0.0035914467
182	0x39d1e137	0.00040031385
183	0x3dc73f80	0.097289085
184	0x3cfe99cd	0.031079197
185	0x3e16dbd6	0.14732298
186	0xbe1170f2	-0.14203241
187	0xbdfda7d6	-0.12385528
188	0xbe278ecb	-0.16363065
189	0xbc506668	-0.012719728
190	0x3d0a9f38	0.03384325
191	0xbd4f391d	-0.050591577
192	0xbd7d6a1c	-0.061868772
193	0x3ca1c8d8	0.01974909
194	0xbdf9ccf8	-0.12197298
195	0xbdf77a0a	-0.12083824
196	0xbccb9b89	-0.024854438
197	0x3ced494f	0.02896562
198	0xbcca0a3b	-0.024663081
199	0x3d7695f0	0.060201585
200	0xbdf9c168	-0.121950924
201	0xbe149201	-0.14508821
202	0x3cf705fd	0.030154223
203	0xbd7b51a4	-0.061357155
204	0x3d976c46	0.073936984
205	0x3d79f643	0.06102587
206	0x3c308aba	0.0107752625
207	0xbd5dd894	-0.054161623
208	0xbd63393f	-0.055474516
209	0xbda20061	-0.079102285
210	0x3cc47137	0.023979766
211	0xbcfa5980	-0.030560255
212	0x3c8956a2	0.016764943
213	0xbcba332c	-0.022729479
214	0xbce91c88	-0.028455988
215	0x3d9966b3	0.074902914
216	0xbc8391f1	-0.016060801
217	0xbcabaa3f	-0.020955203
218	0xbdba8eeb	-0.09109291
219	0x3c9b1728	0.01893194
220	0x3dbb37f9	0.09141535
221	0xbdb16a37	-0.08662837
222	0x3d2f0bcd	0.042735863
223	0xbe069cf7	-0.13145815
224	0x3da66c19	0.08126087
225	0xbd777688	-0.060415775
226	0x3afee300	0.0019446313
227	0x3c050770	0.008119449
228	0xbdda10d0	-0.10647738
229	0xbdc30bca	-0.09523733
230	0xbdc9bb66	-0.098501965
231	0xbd3264c8	-0.043553144
232	0xbdb258bc	-0.08708331
233	0xbdf263b2	-0.118354216
234	0xbd4d4ae0	-0.050120234
235	0x3da4b5b9	0.08042473
236	0xbe04584b	-0.12924306
237	0x3d6c8102	0.05774022
238	0xbcf4e296	-0.0298932
239	0xbd4a8a90	-0.04944855
240	0xbd24820d	-0.04016309
241	0x3c13ca0e	0.009020342
242	0xbddf2122	-0.108949915
243	0x3de21672	0.11039437
244	0xbe01d044	-0.12677103
245	0xbc1db690	-0.009626046
246	0x3d73ddcd	0.059537698
247	0xbb422e21	-0.0029629546
248	0xbdf244ac	-0.11829504
249	0xbd1be498	-0.0380598
250	0xbdddc29b	-0.10828134
251	0x3dc5d5f8	0.09659952
252	0x3db430a8	0.08798343
253	0x3dbdd30c	0.092687696
254	0xbe00677a	-0.12539473
255	0xbd512a82	-0.05106593

edge_function.2.bias f4 [64]
0	0x3d781f05	0.060576458
1	0xbd360d99	-0.04444656
2	0x3e0c87bd	0.13723655
3	0xbdcd8c0a	-0.10036476
4	0xbdb9059a	-0.090342715
5	0xbd564241	-0.05230928
6	0x3d5daf64	0.054122344
7	0xbc1c6d7c	-0.0095475875
8	0x3dd5179e	0.10404895
9	0x3c095ad9	0.008383476
10	0xbd36c87e	-0.044624798
11	0x3ba58076	0.005050714
12	0xbd97bb85	-0.074088134
13	0xbdec9ac3	-0.11552956
14	0xbe04ae74	-0.12957174
15	0xbd5bc88d	-0.053658057
16	0xbdb1db50	-0.08684409
17	0x3dabec25	0.0839465
18	0xbd29a179	-0.041413758
19	0xbdc2a82f	-0.09504735
20	0x3d69acf7	0.057049718
21	0x3d895741	0.067060955
22	0x3cfca727	0.030841423
23	0xbe008eae	-0.12554428
24	0xbe1e370f	-0.1545069
25	0x3c950bea	0.018194158
26	0xbddc81f8	-0.10766977
27	0x3d40e6f8	0.04709527
28	0xbdcd7577	-0.1003217
29	0xbbcb873b	-0.006211189
30	0x3d97be46	0.07409339
31	0xbd9e74d4	-0.07737127
32	0x3d92130c	0.07132539
33	0xbd01cfea	-0.031692423
34	0xbe085def	-0.13317083
35	0xbde9dd6b	-0.11419185
36	0xbdc4e1be	-0.096133694
37	0xbd9a5f02	-0.075376526
38	0xbdc8976c	-0.097945064
39	0xbd3e0d07	-0.046399143
40	0x3cc910a3	0.024544066
41	0xbd3a795f	-0.045525905
42	0x3c4a4be9	0.0123472
43	0x3e349b5d	0.17637391
44	0xbd5270f8	-0.051377267
45	0xbd8cfe66	-0.0688446
46	0xbd33f9c9	-0.043939386
47	0xbe0bb1b5	-0.13642009
48	0x3d7a828e	0.061159663
49	0xbd42bcd2	-0.047543354
50	0xbd415555	-0.04720052
51	0xbd51c5b6	-0.051213942
52	0xbb8bd079	-0.0042667952
53	0xbe390fd8	-0.1807245
54	0xbdb2e02d	-0.087341644
55	0xbd7ca9d0	-0.061685383
56	0xbd91b374	-0.07114306
57	0x3d91b304	0.07114223
58	0xbdb38759	-0.0876605
59	0xbd8d4b09	-0.068990774
60	0xbc9e2acb	-0.019307515
61	0xbc955dde	-0.018233236
62	0xbdfa6aba	-0.12227388
63	0x3e4db4fc	0.20088571
