Projects/GuoxiangGrayson_T_A study of multi-fidelity graph neural networks/Model_save/Quarter2D/Rank=37-GNN-nB-64-Lr-0.005/model.pth (torch, 114781 bytes, 24 tensors)

node_function_neighbor.0.weight f4 [64, 2]
00000000: 9e55 b1bd 55cf 293f c7bf c53e 9a2d 34be
00000010: 0e48 e53e 6013 173f b0ab 29bf c181 86be
00000020: d44a fbbe acb4 fbbd 9ee9 fcbe 7745 14bf
00000030: 0364 2b3e 3e4c 17bf bd70 183f 4e16 ba3e
00000040: 237c 493e 7539 b73e a553 c7be 69a3 febe
00000050: 1c9d 88be aeb9 67be 5d57 663e d281 033f
00000060: 5c7e 27bf 208c 0fbe 3a11 8d3e a314 23be
00000070: 59d4 d33e 5319 c5be fb00 293e 568a cd3e
00000080: f2de 693c 4d27 0a3e 96d2 05be adea d83e
00000090: 2ff6 193f 0c68 9fbb e109 0f3f 01a6 e53e
000000a0: 513e 1f3f 83f8 0bbf 8516 20bf 23fd 133f
000000b0: 0c9e 043f d818 ff3e dd49 7ebe f554 eb3e
000000c0: a448 293f b15a 01bc aeb5 a4be f301 6ebc
000000d0: dd65 343d 19a2 543e 3971 1f3f 5f4e 083b
000000e0: adad e33c 038f b9be f448 ae3e cd1f a93d
000000f0: 88a2 e93e ea2d e6be ef9c 15bd 0132 ccbe
00000100: 684f c7be 53f0 9b3e 9250 21bd fefb 7bbe
00000110: 0c29 e9be 5f8c b53e d2c1 d23e 9dd3 a83e
00000120: 97a1 1abe eebd 19bf e45e d0bd 16d8 183d
00000130: 8d89 8d3e 8d7d a83d 6e0b aebe 07df 2a3d
00000140: e033 e0be 8295 193e 0656 1bbe 600b 133f
00000150: 8fc5 2d3f 5028 1b3e 7416 923d c323 22bd
00000160: e263 9c3e 9521 29bf 50fb b4bd 896f 12bf
00000170: 8d0e 43be 62bb 24bf 1413 1bbf 53c9 113e
00000180: 0335 14bf f36a aabe 144a 0dbd 9274 b83d
00000190: 4735 a83e 8d32 1dbf af9a aebe 01f3 833e
000001a0: fde3 a03d a38e 94be 52ec 353e c84d 7fbe
000001b0: c2c6 25bf d2d9 c7bc f82f 9fbe 7257 2e3f
000001c0: ad92 c2be a8cf f13e 9544 6b3d c054 e93e
000001d0: 3137 b63e f416 e5be fb01 943e 087c 0bbf
000001e0: a032 ea3e 7218 273e d118 f13e 24af 05be
000001f0: 8463 183e 7cf5 e73e 09cf e5bd 8524 7b3e
-0.08658908 0.6633199 0.38622877 -0.1759552 0.44781536 0.5901394 -0.662776 -0.2627087
-0.49080527 -0.1229032 -0.49396986 -0.57918495 0.1673737 -0.5910071 0.59547025 0.36345142
0.1967626 0.35786024 -0.38931003 -0.49734047 -0.26682365 -0.22629425 0.22494264 0.51369965
-0.65427184 -0.14018297 0.27552205 -0.15925841 0.41372946 -0.38495883 0.1650428 0.40144604
0.014274346 0.13491555 -0.13068613 0.42366543 0.6014127 -0.0048646983 0.5587445 0.44853213
0.6220446 -0.54676074 -0.6253436 0.5780813 0.5180366 0.49823642 -0.24832864 0.45963255
0.66126466 -0.007895158 -0.3216986 -0.014526832 0.044042457 0.2076496 0.6228214 0.0020798666
0.027792776 -0.36241922 0.34040034 0.08258019 0.45631814 -0.44956905 -0.036526617 -0.398819
-0.3892777 0.3045679 -0.03938348 -0.24607846 -0.4553913 0.35458657 0.41163498 0.32973948
-0.15100704 -0.60055435 -0.10174349 0.03731545 0.27644005 0.08227072 -0.33993095 0.0417166
-0.43789577 0.14998439 -0.15169534 0.5743923 0.67879575 0.15152097 0.07133189 -0.039584886
0.30544955 -0.6606687 -0.088369966 -0.5720144 -0.1904852 -0.64348423 -0.60575986 0.14236955
-0.5789339 -0.3328472 -0.034494475 0.09006609 0.32853147 -0.6140526 -0.3410239 0.25771335
0.07855985 -0.29015073 0.1776593 -0.24932015 -0.64756405 -0.024395857 -0.31091285 0.6810218
-0.3800253 0.47228742 0.05743845 0.45572472 0.35588983 -0.44744074 0.2890776 -0.5448613
0.4574175 0.16317919 0.47089246 -0.13055092 0.14881712 0.45304477 -0.112211294 0.2452565

node_function_neighbor.0.bias f4 [64]
00000000: 2115 443e c4f3 a2be 646c b2be 3c7b 10bf
00000010: ca48 303e f2b0 853e 8b8b 0cbf a98e 393c
00000020: f4f1 173f bdbc c5be e688 033f b05a 1cbe
00000030: df7b 32bf d302 aabe 5cc2 753d fdbc d1be
00000040: 4d20 2bbe b910 1ebe e2de 05bf 4159 863e
00000050: 5958 233f ed2e 89bc 936e d2be dddd 2abf
00000060: 4ee0 c6be d9e3 16bf ac0d f93d 9554 1fbf
00000070: f29c 4a3d 5305 f43e ad0f c43b 802e 0d3f
00000080: c6c6 3f3e 62ce da3e 2911 3f3e 5dcd c7be
00000090: c167 a23e 4c92 3c3e 5338 313f 417d 273f
000000a0: 4b9b 043e aef7 f53e 3188 23be 9859 1fbf
000000b0: a120 813e d2e6 38bf 8b0b 16bf b7ca 073f
000000c0: b820 243f 8b6e a83e 720d 593e 609d 8fbe
000000d0: 360e f33e 245e 7ebe 64c9 193f ac76 e1be
000000e0: 3896 293e 917f a83e e8d6 d13e 644d b03e
000000f0: 3977 d93e e801 dc3c 1881 1a3e d68f 7ebd
0.19148685 -0.31826603 -0.3484832 -0.5643804 0.17215267 0.2611156 -0.54900426 0.011325517
0.59353566 -0.38620558 0.51380765 -0.1526897 -0.6972026 -0.3320528 0.05999981 -0.409645
-0.1671154 -0.15436067 -0.5229322 0.2623997 0.6380668 -0.016746009 -0.41099986 -0.66744787
-0.38843006 -0.5894142 0.12160811 -0.62238437 0.04946608 0.47660312 0.005983314 0.5514908
0.1872817 0.42735583 0.1865889 -0.39023867 0.31719783 0.18415183 0.6922657 0.654255
0.12949865 0.48040527 -0.15969922 -0.62246084 0.25220206 -0.72227204 -0.58611363 0.53043693
0.64112425 0.32896838 0.21196535 -0.28049755 0.4747178 -0.248406 0.6007292 -0.44035852
0.1656121 0.32909825 0.40984273 0.34434044 0.42473772 0.026856378 0.15088308 -0.06214889

node_function_neighbor.2.weight f4 [64, 64]
00000000: bb8b adbc 437d f5bd f4e2 8c3c 18bc d7bc
00000010: 9627 a93d 7026 353d 9700 56bd facf 3d3b
00000020: 026f 073d 26c1 63bd f137 a13c 81a2 16bc
00000030: 2c62 983d 55a0 af3d 9f54 64bd 8f6a 4b3d
00000040: 0f4d 153d d076 e7bd 7685 a53d fa5e 0d3d
00000050: 8638 503d 4b5e 02bc 15e2 65bc add4 6d3d
00000060: 1de5 993d 0440 043d 8a11 f4bd 99a4 7bbd
00000070: b6cd 89bd 6aee 953c 9bd5 b13d 991a ec3c
00000080: 21f5 8c3d a41d 9abd 3f08 2abe 7c79 b23b
00000090: 1713 1a3d 1b3f 11be 4328 463d e737 fcbd
000000a0: d4b5 e23a 8feb 0dbe 6957 c6bb 23c6 bebd
000000b0: 4f47 e83c 0bde ec3b 801b b73d 88ee 1abe
000000c0: fdda 66bd 2725 38be 5791 13bb 4c56 21be
000000d0: 3d13 313d 1615 523d 9c85 04be 5e03 bc3b
000000e0: 514a df3c 54f3 1b3c dee0 cfbc ed4a db3c
000000f0: 73d9 a63b 4553 513d 4d5b f6bd dafe 30be
00000100: 13eb 8abc 124c b73d 20fb babd 7406 3e3d
00000110: 4336 ca3d 86dd c33c f3bd 1d3d 4318 87bd
00000120: bc0c dbbd 602a 923d c1f4 393d 1089 b8bd
00000130: 4b52 dcbd c37f ce3c 626a 853d 7244 10be
00000140: d307 373d cf51 a03d c428 0abe 0491 e03d
00000150: 11eb 153d b48d 2a3d fa16 bfbb 2bcc 90bd
00000160: ee5a adbd e764 4bbd 1cb8 fcbd 0833 abbd
00000170: 495d 7abd 779f 943d 67f2 d23d f907 d23c
00000180: 1fd4 f2bd 5927 27bc 18fd bfbd cacb 33bd
00000190: b8a6 6a3d 1a75 ecbc 0fd5 30bc fb8c b5bd
000001a0: 8e01 78bd 40ea 04be 1bd5 803d bc3d a2bc
000001b0: af17 493d d521 f63d 9cce cdbd 6979 833d
000001c0: 29e5 f7bd 22ee 0abe 642f e13c 4543 963d
000001d0: 54f0 bbbd 7fca 733d 46c7 0dbd e951 e2bb
000001e0: 0e02 363d 645d 20bd 5975 933d e1fc 40bd
000001f0: 4bbd b43c 66df 03be f2d4 b53c a9ac cc3c
00000200: 4f7b 89bd 600d 20bc b7b1 123d 9cc6 aebd
00000210: be26 893c 91e4 1ebd 43d6 ae3d 2067 cc3d
00000220: fc9f 4fbc 88a5 d4bd e45f 83bc b1b7 cebc
00000230: cb51 993d fe8d c7bd aab8 ac3d 23b8 a03d
00000240: 4b58 96bd 4733 cabd 45c7 bc3c a958 b6bd
00000250: b5c6 893d cb15 f1bd 1c23 703d da09 003d
00000260: 2e33 863d d3bf e03d 6d0c c63d 9f0e 89bc
00000270: 41cf 533d 19c3 afbd 96ce 013e bfa0 053e
00000280: 879c b9bc 6771 1d3d b685 febd 9e41 a33c
00000290: ddb0 58bd 6526 8dbd 9b16 243d 140a b23d
000002a0: 3e13 a33d 1371 c2bc 8981 cdbd 09f3 a7bd
000002b0: a4d9 883d 9733 013e b305 dbbd c0f8 7f3d
000002c0: cfd6 e5bd f787 c23c a8b6 423d c1bf cd3d
000002d0: bdf9 8e3d a9dd 063e 2d73 80bb 43c1 8abd
000002e0: efcd 95bd 4b9b 91bd 2ea2 aebc 9ff1 a7bd
000002f0: e671 9abd 5363 5c3d 724f 1abd 0156 b4bc
00000300: ceb5 d6bd caed dabb 11b6 6d3d 7163 c9bd
00000310: 592f 233d eff8 8fbd 2a3b bf3d 232a 743d
00000320: 2052 7c3d 38a2 c7bd 5263 abbd bad4 12be
00000330: 21ca 99bc f998 82bd 1b58 e6bd c533 bc3d
00000340: 8af8 aebd 14d1 81bd 9d99 0abc e3c8 f5bd
00000350: 496c 6abd b2d9 adbd 4c25 efbd 0075 16be
00000360: 7f32 a13d cae7 843d 1039 183d 8769 14be
00000370: 7e1a 0b3d 0a85 513b 0cc0 4d3d 32d8 93bd
00000380: bae2 12be 8480 bc3d 9ad2 7ebd 4bec fdbd
00000390: 2f6e aa3d 814f 2ebe 664c 39bd 669a 33be
000003a0: 0ece f0bc f989 b1bd c37c 063c bf66 66bd
000003b0: 81c5 673c c90c 4cbb 1873 0dbe d7c6 783c
000003c0: 9bf7 8c3d 76ee 85bd 4076 fe3c 8af8 ef3c
000003d0: eb00 debd 7147 10be 5d02 02be efa8 843d
000003e0: 384e 8cbc 0b30 763d 2f84 e8bd 808b ebbd
000003f0: 8093 113c a0a6 fe3c c3a0 01bb 51cf 803d
-0.021184793 -0.119867824 0.017198063 -0.026334807 0.082595035 0.04422611 -0.052246656 0.0028963075
0.03306485 -0.055604123 0.019679995 -0.009194017 0.074406 0.08575503 -0.055744763 0.04966217
0.036450442 -0.113019586 0.08082096 0.034514405 0.050835155 -0.0079570515 -0.014030953 0.05806415
0.07514403 0.032287613 -0.11917408 -0.06143627 -0.067286894 0.018302161 0.0868332 0.028821277
0.06882692 -0.07525185 -0.16604708 0.005446611 0.03761586 -0.14184229 0.04837824 -0.1231535
0.0017296621 -0.1385939 -0.0060529006 -0.09315135 0.028354315 0.007228618 0.08940792 -0.15130055
-0.056361187 -0.17982922 -0.002251705 -0.15755576 0.043231238 0.05128964 -0.12941593 0.005737706
0.027257117 0.009518463 -0.02537578 0.026769126 0.00509184 0.051104803 -0.12029133 -0.17284718
-0.016957795 0.08950056 -0.091299295 0.046392873 0.09873631 0.023909342 0.038511228 -0.065964244
-0.10695788 0.07136989 0.04539943 -0.090105176 -0.10757884 0.025207406 0.065144315 -0.1408861
0.044685196 0.07828104 -0.13492113 0.109651595 0.03660113 0.041639045 -0.0058315964 -0.07070192
-0.08464609 -0.049656775 -0.123398036 -0.08359343 -0.06112412 0.07256978 0.10300141 0.025638567
-0.11856865 -0.010202252 -0.09374446 -0.04389552 0.0572879 -0.028864432 -0.010792985 -0.088647805
-0.060548358 -0.12979984 0.06290647 -0.019804828 0.049094852 0.12018172 -0.10049173 0.064196415
-0.12104256 -0.13567403 0.027488418 0.073370494 -0.09176698 0.059519287 -0.03461387 -0.006906737
0.044435553 -0.039151564 0.07200117 -0.047116164 0.022062918 -0.12878188 0.022196267 0.024984675
-0.067129724 -0.009768814 0.035814013 -0.085339755 0.016742107 -0.038792197 0.08536961 0.09980607
-0.012672421 -0.10383135 -0.016036935 -0.025234075 0.07486304 -0.0974388 0.084336594 0.07847621
-0.07341059 -0.098730616 0.023044238 -0.08903629 0.067273535 -0.11771735 0.058627233 0.031259395
0.065527305 0.109740876 0.09670339 -0.016730605 0.051711325 -0.08582134 0.12676463 0.13049601
-0.022657646 0.038438227 -0.12427847 0.01992875 -0.052903045 -0.06892089 0.04006062 0.086933285
0.079626545 -0.023735559 -0.100344725 -0.08200652 0.06682137 0.12617336 -0.106944464 0.062493086
-0.11222612 0.023746474 0.047537476 0.1004634 0.069812275 0.13170494 -0.00391998 -0.06775143
-0.07314669 -0.07109698 -0.021317568 -0.082003824 -0.07541256 0.05380566 -0.03767342 -0.022013666
-0.10483895 -0.0066811787 0.05803496 -0.0983342 0.039840076 -0.07029902 0.093374565 0.059610497
0.061601758 -0.09747738 -0.08368553 -0.14338961 -0.01877314 -0.063768335 -0.112472735 0.09189562
-0.08543499 -0.063387066 -0.008459476 -0.12001207 -0.057232175 -0.08488788 -0.11677036 -0.1469307
0.078709595 0.06489523 0.037163794 -0.1449338 0.03396081 0.0031970167 0.05023198 -0.0721897
-0.14344302 0.092042 -0.062212564 -0.12398585 0.08321797 -0.17022516 -0.045238875 -0.17539367
-0.02939513 -0.08668894 0.008208456 -0.05625033 0.01414621 -0.003113555 -0.13813436 0.015184126
0.068831645 -0.065396234 0.031062245 0.029293317 -0.10840019 -0.14089753 -0.12696214 0.06477534
-0.017127141 0.06010441 -0.11353337 -0.11501217 0.008885264 0.031085312 -0.001977966 0.062895425

node_function_neighbor.2.bias f4 [64]
00000000: 57cb 033d c016 6d3d 9098 8a3c 92f5 05be
00000010: 9083 293d 311e 203d f3f8 1e3d 9bd1 e23d
00000020: d291 88bd 8f20 ab3d ea8c e93d 3eed 01bd
00000030: 0291 643d 4acb e9bd 7698 19bd 135b 99bd
00000040: 29ac 593d 2f86 cfbd 98ee fe3d 62b4 223e
00000050: dcf0 2c3d 810c 86bb 7456 6e3d 03ed 673d
00000060: 1a18 983c 2d44 2abd 1db7 2abe d545 84bd
00000070: 87e2 68bc b40b 19bd a3cc 03be 962b b4bd
00000080: 1df8 463d dd64 68bd b25a e5bd 1520 cfbd
00000090: a94a 233d 0ccf ac3d 44f3 95bd d3b8 5ebd
000000a0: 2b29 12be 1d41 273e 6138 b9bd d089 b5bd
000000b0: d78c 2f3e e294 b33d 0827 71bd 05fc a43c
000000c0: 48b1 e83c c231 dfbd 424d 5b3e b686 91bd
000000d0: 8230 e6bd 08d3 45bd e7c2 b2bd f317 c93d
000000e0: d25d 873d 5bbb ecbc a391 babd eff3 b3bc
000000f0: 9655 0cbe 664d 953e ea21 303d 46b9 773d
0.03217634 0.057883024 0.01691845 -0.13081959 0.041385233 0.039091293 0.038811635 0.11075135
-0.06668438 0.083558194 0.1140383 -0.031720392 0.055802353 -0.114157274 -0.037498914 -0.07488074
0.0531427 -0.10133015 0.12447852 0.15889123 0.04222189 -0.004090846 0.058187917 0.056622516
0.01856618 -0.041568924 -0.16671415 -0.06458632 -0.014214165 -0.037364677 -0.12871031 -0.08797376
0.048576463 -0.056736816 -0.111989394 -0.10113541 0.039866123 0.084379286 -0.0732179 -0.05437548
-0.14273517 0.16333432 -0.090439565 -0.08864176 0.1714357 0.087686315 -0.058875114 0.020139704
0.028404847 -0.108981624 0.2141619 -0.07105772 -0.11239721 -0.04829696 -0.08728581 0.09819021
0.06609692 -0.028897932 -0.09109809 -0.021966903 -0.13704523 0.29160613 0.043001093 0.060479425

node_function_neighbor.4.weight f4 [64, 64]
00000000: 143f 863d 7dac 33be 2c38 e0bd 889d 11be
00000010: cacf f93d 9b8a 0cbd 8e93 a13d ed73 023e
00000020: fa8f d5bd b3cb 0b3d 3c5c 1ebe 55e6 dcbd
00000030: e0f6 9cbd e880 c939 9793 0f3e beb4 0f3d
00000040: 414e 223d 2a74 c1bd 26a4 77bd b6f0 ad3d
00000050: 120f 0a3d 5f72 743b a41d 393c 741c 95bd
00000060: 9e2b 04be 1df4 833c d9e6 97bd 5edd 9abd
00000070: c4b2 2ebd 16f0 b03d ba94 12be b1f4 d63c
00000080: 0a56 53bc 7b8e 6a3c ac72 10bd a419 41bd
00000090: dfc9 8a3c 101e db3d 8a3c c43d c5ee aa3d
000000a0: a634 cfbd 4d79 5cbd a691 9bbd 4c93 b4bd
000000b0: c568 b6bd 00cb 63bd 0eae f03d 203f 833d
000000c0: b878 ccbc 0e7a 9cbc 76cc 583d 220d 75bd
000000d0: 6cb0 8c3d 7729 86bd a48f 15be 84ad 3bbb
000000e0: 8aab 5ebd 5a6c 2ebc e2c9 b0bb d058 ab3d
000000f0: 7289 ccbc c6f4 d13d 1a3b 43bd 97ca 7c3c
00000100: a856 893c e7fa 16bd 3e92 dd3d 1755 813d
00000110: f8ac 5a3d 8df6 483d 343c 033e 5306 24bc
00000120: 7f05 a8bd 3c6e 103d c520 c13d a642 19bd
00000130: b7f2 0bbc fc1d d2bd c890 6e3d a77f 7ebd
00000140: 9e20 95bc 4dfb a0bd 37ec 15bd a5ab 9dbb
00000150: e81f cc3c 68e9 333d 8a14 89bd 3f6d 12bd
00000160: 7bde 1abc 0d23 e8bd 6f03 a4bd ead4 4fbd
00000170: b456 6b3d 1a64 b3bd d7f2 133d c949 d93b
00000180: b94b 6dbd cfce 02be 7ee2 363d 3d35 cc3d
00000190: b6a6 81bd 3b41 c73d 3b79 16bc 2912 1a3d
000001a0: 798f 1f3d a4c0 ed3d 0b3d 89bd c024 60bd
000001b0: fee9 bbbd c0e3 a5bd 20cb 46bc 8a1f c1bd
000001c0: edcb d33d 93a2 abbd 2b85 09be 819c a93d
000001d0: ea94 573d f8a6 18be 3318 b8b9 c72f dc3d
000001e0: ff87 a3bc 8e0e a7bd 4c24 ae3d 1ec7 39bd
000001f0: 7ce7 41bd cec7 f1bd 046f 6abd e6bc 00be
00000200: 0a05 80bd 4945 9ebd 6e13 dcbd 89cb 7c3d
00000210: f09c 2f3c 42b7 a2bc 33f0 b33d 14e3 a5bd
00000220: e30b 543d f703 8b3c 4b18 ac3d 399f c1bc
00000230: c6db 06be 51fb d4bd 9fba c53d e2d5 dfbd
00000240: f557 813d 8ebb d73d c620 e53d c849 b03d
00000250: ef3c c3bd 103a 0abe 4c6b 7d3c 3310 a23d
00000260: e101 f53c b7b8 c73c adf0 633d cede 04be
00000270: 0f82 88bc 2c6e 553d 3726 a0bd 2e02 65bd
00000280: 8eef 9a3d 014b cfbd 619b 6c3d 8b6e bdbc
00000290: 8855 5dbd fb9b d23c 819d 0dbe 4b3b 583d
000002a0: e153 e2bd 9805 abbd a1ea 253d 822d f03d
000002b0: bea8 74bd 6850 66bd 408a 663b e9c7 ea3d
000002c0: 46c5 bf3d c4d3 adbb 6017 9dbd e1a8 d9bd
000002d0: 5518 953d e4d1 29bc 53f9 803d 04f5 f9bd
000002e0: 4f52 f2bd 244c bfbc e7f2 313d d200 6ebd
000002f0: e2e6 d33d bd1e 833d fdad 593d 3d34 edbd
00000300: 26c4 09be c65c 363d 7938 153d 4768 83bb
00000310: c8b0 3d3d 3738 bdbd 225a abbd c7aa 63bd
00000320: 9861 89bd 4faa 4c3c 39d2 9a3d d536 7ebc
00000330: 82f7 4cbd b3b0 6cbd c9e1 d7bd cfc2 45bd
00000340: d933 823d d9b8 a53d c485 b0bd bf9c 983a
00000350: f974 9e3c b878 f6bc 3c17 f2bd fb36 45bd
00000360: f6a6 3bbd beeb 65bd 8acb dfbc 32f0 823d
00000370: a5b7 3c3d 8a95 b33d 4450 07bc cf31 933d
00000380: 8049 8abd 7c0f d9bc 9f81 debd 6ad2 3bbd
00000390: 79eb 35bd 7122 823d 2026 6bbd 26d8 233d
000003a0: 1d21 ddbd ec72 10be 9a7c f9bd 6e3b b63c
000003b0: c7fa 0bbd 705f a1bd 4028 a8bb b03e 90bd
000003c0: 8bab 85bc 6c6c 48bd f258 83bd f212 6f3d
000003d0: 516d e2bd 0486 85bc 86a4 dabc a2f6 3cbd
000003e0: df6a 433d 9cc6 a0bd ba42 3fbd 039b 39bd
000003f0: 6cea 22be 8266 6f3d 9be6 c9bd 0720 20bc
0.06555 -0.17546268 -0.10948214 -0.1422025 0.12197836 -0.034311872 0.07889472 0.12739535
-0.10427852 0.03412981 -0.15464872 -0.1078612 -0.07664275 0.0003843375 0.14021145 0.03508448
0.03962541 -0.09445985 -0.06045928 0.084931776 0.03370578 0.0037299616 0.011298571 -0.07280818
-0.12907264 0.016107613 -0.074170776 -0.07561754 -0.042650953 0.08639543 -0.14314547 0.026239725
-0.012898931 0.014316197 -0.03526561 -0.047143593 0.016941963 0.10699093 0.095818594 0.08346323
-0.10117464 -0.05382662 -0.075961396 -0.08817157 -0.08906702 -0.055613518 0.11751948 0.064085245
-0.024959907 -0.019101169 0.052929364 -0.059826978 0.06869587 -0.065508775 -0.14605576 -0.002863736
-0.05436281 -0.01064595 -0.00539516 0.08366549 -0.024967883 0.10251765 -0.047663786 0.015429161
0.016764954 -0.036860373 0.10818909 0.06315058 0.053387612 0.049063254 0.12815934 -0.010011273
-0.08204173 0.035261378 0.094300784 -0.037417077 -0.008541754 -0.10259625 0.058243543 -0.062133458
-0.01820403 -0.07860432 -0.036602225 -0.0048117214 0.024917558 0.043923765 -0.06693371 -0.035748716
-0.009452458 -0.113348104 -0.080084674 -0.05074016 0.057455733 -0.08759327 0.036120262 0.0066311103
-0.057933543 -0.12774204 0.044649594 0.09971092 -0.06330626 0.097292386 -0.009184177 0.037614975
0.038955186 0.11609009 -0.06701096 -0.054722548 -0.0917549 -0.081000805 -0.01213339 -0.09429844
0.1034163 -0.08380618 -0.13429706 0.08281804 0.05263225 -0.14907444 -0.00035113245 0.107513
-0.019962309 -0.08157073 0.08503017 -0.04535591 -0.0473399 -0.11805688 -0.05723478 -0.12572059
-0.06250961 -0.07728059 -0.107458934 0.061717544 0.010718569 -0.019862775 0.08786049 -0.08099952
0.05176915 0.016969664 0.08403071 -0.023635494 -0.13169774 -0.10399497 0.09654736 -0.10929467
0.063156046 0.1053382 0.11187892 0.08607823 -0.095331065 -0.13498712 0.015467476 0.07913246
0.029908122 0.024380071 0.05564945 -0.12975618 -0.01666358 0.05210702 -0.07819789 -0.05591028
0.07565223 -0.10121728 0.05776537 -0.023124 -0.054036647 0.025709143 -0.13829614 0.05279092
-0.11051155 -0.08350676 0.040506963 0.1172743 -0.059731238 -0.056229025 0.0035177618 0.11463911
0.09363799 -0.0053047854 -0.07670474 -0.10627914 0.072800316 -0.010364983 0.06297555 -0.12204936
-0.11832105 -0.023351736 0.04344454 -0.05810625 0.10346772 0.06402347 0.053144444 -0.11582229
-0.13453731 0.04452207 0.03643081 -0.0040102336 0.04631117 -0.09239238 -0.08366801 -0.055582788
-0.06708068 0.012491777 0.07559628 -0.015516003 -0.05004073 -0.0577857 -0.10541112 -0.048281487
0.063575454 0.080918975 -0.08619264 0.0011643394 0.019342886 -0.03008686 -0.11820838 -0.048148137
-0.045813523 -0.056133024 -0.027318735 0.0639347 0.046073575 0.08768757 -0.008258883 0.071872346
-0.067523 -0.026496641 -0.10864567 -0.045854963 -0.044414017 0.063542254 -0.057409406 0.040001057
-0.107973315 -0.14106339 -0.12181969 0.022245135 -0.034174707 -0.078795314 -0.0051317513 -0.07043207
-0.01631715 -0.048931524 -0.06413449 0.058367677 -0.11056007 -0.016299255 -0.026689779 -0.046133645
0.047709342 -0.07850382 -0.046694495 -0.045313846 -0.15909737 0.05844737 -0.09858438 -0.009773261

node_function_neighbor.4.bias f4 [64]
00000000: 8332 18be 972b d13d 8656 ddbd a4b5 913c
00000010: 6eac 96bc aead 10be ba6e ea3d f6cc bcbd
00000020: 03be 1bbe ddfd efbd b685 1cbe 0811 06bc
00000030: d831 a7bc fd4f 143d 4a16 2dbd 90b3 2ebc
00000040: 8db9 bd3c 6881 c43c 2cb6 e5bc a7ea 54bc
00000050: 856a ac3d 8806 f43b d68c d8bd 3ce2 5f3c
00000060: d69f 0e3e c868 61bc 57f1 cabd cbc7 e4bc
00000070: e30d c8bd 7df3 7ebd 2dc2 91bc cd6d 1b3e
00000080: 7346 b93d 9561 263e 1a7b 133e afc6 1bbe
00000090: 2784 843d 76d7 023e 6a17 f9bd 40b8 253e
000000a0: 5bcd 053e 0f81 d23d c2bb fdbc 2b64 d9bd
000000b0: 484d 96bc f7f4 12bd 1131 95bc fb6d f2bd
000000c0: fb25 a33d 5768 c9bc a5c1 823c 3016 5a3d
000000d0: 1691 f8bb 2bce 3bbd c384 c63b b21d 1bbd
000000e0: 1c59 833e 7e19 a2bb c987 873d cd10 cd3d
000000f0: 13f0 213e a933 29bd 7cab b83d 4842 073d
-0.14863019 0.10213392 -0.10807519 0.017786808 -0.018392768 -0.14128754 0.11446901 -0.09218781
-0.15209202 -0.117183425 -0.15285382 -0.0081827715 -0.02040951 0.036209095 -0.042257585 -0.010662928
0.023159767 0.023987487 -0.028040968 -0.012995399 0.084187545 0.0074470676 -0.10573737 0.013664778
0.1392816 -0.013757892 -0.09909313 -0.0279273 -0.09768274 -0.062243927 -0.017792786 0.15178604
0.0904664 0.16248162 0.14402428 -0.1521251 0.064705186 0.12777504 -0.12162669 0.16183567
0.13066618 0.10278522 -0.030973319 -0.10614809 -0.018347397 -0.035878148 -0.018211873 -0.11837383
0.079662286 -0.024585886 0.015961478 0.053243816 -0.007585655 -0.045850914 0.006058307 -0.037870117
0.25653923 -0.0049468866 0.06617696 0.1001297 0.15814237 -0.041309033 0.09017083 0.033022195

node_function_neighbor.6.weight f4 [4, 64]
00000000: dde8 08bd 6602 bd3b 5518 c7bd a11a bdbd
00000010: 2be3 003e 84e0 a7bc d783 013e 234d 67bd
00000020: f818 ffbd a4dc 2cbc c14c 803c f609 3bbd
00000030: 2f7c a93d d9b1 b9bc fb0b b0bd 804d 88bd
00000040: ba64 86bd 6989 703d 2425 293e 7e2c d43d
00000050: 8527 b43d df9a 54bd 25f6 2cbd c8d8 aa3d
00000060: 5e61 f23d 4f2e 3bbd 2038 cd3d 31d0 57bd
00000070: fbc9 aa3c 05a6 42bd a08f 7abc 1371 22bc
00000080: d6a9 8d3c 3629 ad3d efe4 053e 8e63 50bd
00000090: 4fa5 333c 47b1 733d 1e3b 683d dd33 db3d
000000a0: d967 8a3b b27e 0b3e 7c7a 93bd cfe0 5ebd
000000b0: 9508 1ebd 6530 a2bd a8a0 8b3c 042a 5fbd
000000c0: f0d0 963d 2356 abbc 99c4 693d 886d 8f3d
000000d0: 2b24 9b3d 5540 ab3d 5876 f5bc 7d87 c23c
000000e0: 5e23 273e bf58 d43d f308 31bd 2dde e53d
000000f0: dfee 853d b111 93bd 9d02 06bd eff0 8bbd
00000100: e8fe 8bbc b562 833d 295d 00bc 0be2 b63c
00000110: 5173 eebb 36e8 9c3d 29f8 ab3d 2515 4fbc
00000120: 097d 80bb b2dd 403c c577 b0bd af8a a9bd
00000130: 280f 723d 12d0 923d f82b 9f3d 1da5 1d3d
00000140: 67cb a6bd 8045 033e c98a 47bc a91e 86bd
00000150: 249f 98bd e1b5 cbbc 19c8 25bd 5b56 9cbc
00000160: 2a35 6d3d 1d7f f33d bb1e be3d 618a 3e3d
00000170: 103d 4ebd 8bbd 993d eb52 a83d a388 da3d
00000180: 5a04 8d3d ce63 b83d 5496 d03d c84b 4ebd
00000190: df95 90bc b5ca 19bd 5daf 99bd dc46 893d
000001a0: 4d03 063e 9898 41bb 0e04 18bd 5b4e 2e3d
000001b0: aac3 3ebd 41e8 2c3d 3c82 4cbd 2b2f 25bc
000001c0: 967a 833b 8f33 1a3d e4ec 62bd 948a 893d
000001d0: 46bc 973c 629b 97bd 99cc bb3c 303a 3bbd
000001e0: ca74 32bd 6afc 5d3d 919d 4fbd 45a8 04bd
000001f0: 5f0a fb3d 952b 96bd 67b2 713d 5279 9abd
00000200: a3b1 553d 4465 92bc 03b0 01bc 4d99 183e
00000210: fe0c 783d b67a 0d3c d95e 9f3d bc03 993d
00000220: 14af b6bd b0b4 cabd 4b7a c83d c161 90bd
00000230: 2f9f 8eba 7cd3 fa3d bdbf d73c d0b9 9dbc
00000240: 9675 e93c 4818 c4bd 2a5d ba3a 58db 9a3c
00000250: 0c39 59bd 8878 85bc 89a0 873d fc6b c9bc
00000260: b857 233d e97a 0bbe d444 9b3d 6ce7 f3bd
00000270: e124 45be 2703 3a3d 33aa de3b 9301 bbbd
00000280: fe45 c9bd afb0 c8bd 22f5 92bd 7d9a 8a3d
00000290: d369 48bc e20f 8abd 88d5 c8ba 3b51 783d
000002a0: 3ccc 85bd e754 12be 84b7 8fbd 5567 9c3d
000002b0: c7eb f2bd 5295 763c 236e 1bbe 347b a93d
000002c0: 7fa6 013c 7ad2 afbd d8a4 bfbd 5b2c 3e3d
000002d0: d9c2 973d e51f 9cbd 6408 58bd 2d0c 623d
000002e0: c977 9abd aadb 04be 6a53 243d 3ec0 aebd
000002f0: 79da 8cbd 8d3a c0bd 8768 b73c 2d83 5e3d
00000300: a3ac 84bd 4dc7 933c 1b60 75bd da28 143d
00000310: de83 ec3b 654e d23c 8fa8 1abe fd84 3dbd
00000320: b550 123c 1f6a 3a3d f4ec adbb ce6b b0bd
00000330: 310c a03d de92 703d c2ce 143c bb1c 19bd
00000340: 4b16 a7bd bc47 7dbd ba48 6f3d 8ac9 00be
00000350: b4f1 ecbc c807 5f3d 3c67 84bd d791 86bd
00000360: d810 fb3b 380d e73d d246 803c 8f05 7cbc
00000370: 535a 9cbd 00e7 a2bd 3e6f a5bd 68db c6bd
00000380: 5a44 fe3c 318a 2ebd 9886 64bd a452 a33d
00000390: 7f16 52bd 1bd9 c6bd 2ef9 7c3d adac 02be
000003a0: b6f5 1d3d 6612 bf3c 7104 a9bd b5d4 b9ba
000003b0: 4561 873d a431 913d a7b7 053d d68f 223d
000003c0: 4e9a 24bc 1435 573d ebd1 47bd b109 febd
000003d0: d750 473d 275c 1cbe 6411 77bd 27a0 c5bd
000003e0: 3d05 a3bd 2cb9 70bd e492 31bc a10c d33d
000003f0: e1ae 73bd 70a8 3b3d 1e3a 0ebd d3d3 cbbd
-0.0334252 0.005768108 -0.09721438 -0.09233595 0.12586658 -0.0204928 0.12647949 -0.056470048
-0.12455934 -0.010550652 0.0156616 -0.045663796 0.08275639 -0.022667812 -0.08596035 -0.06655407
-0.06562181 0.058724795 0.16518074 0.10360049 0.087966 -0.05190551 -0.04222693 0.08342129
0.118349776 -0.04569846 0.100204706 -0.05268878 0.020848265 -0.04752161 -0.015293032 -0.009914654
0.017292898 0.08455126 0.13075612 -0.050876193 0.010964706 0.059495237 0.056697004 0.107032515
0.0042238054 0.13622549 -0.072010964 -0.054413613 -0.038582403 -0.07919387 0.01704438 -0.05448343
0.073640704 -0.020915097 0.057072256 0.07003313 0.07575258 0.0836188 -0.029963657 0.023746246
0.16322085 0.103684895 -0.043221425 0.11224017 0.06539702 -0.07181109 -0.032717336 -0.06833064
-0.017089322 0.06415311 -0.007834711 0.022324583 -0.0072769304 0.07661478 0.08396942 -0.012639319
-0.0039211554 0.011771606 -0.08616594 -0.08278405 0.059096485 0.071685925 0.07772058 0.038487542
-0.08144265 0.12819481 -0.012179085 -0.06548817 -0.07452229 -0.024867 -0.04047403 -0.019084146
0.05791203 0.11889479 0.09283205 0.046518687 -0.050351202 0.075068556 0.0821894 0.10670593
0.068855956 0.09003411 0.10184923 -0.05036524 -0.01764959 -0.037546832 -0.07504151 0.067029685
0.13087197 -0.0029540416 -0.03711324 0.042555194 -0.04657332 0.042213682 -0.04992889 -0.0100820465
0.004012416 0.037646826 -0.055401698 0.06715885 0.018522393 -0.07402684 0.022924708 -0.04570979
-0.04356841 0.0541958 -0.050687376 -0.032387037 0.122578375 -0.07332531 0.05900803 -0.07542671
0.05217136 -0.017870553 -0.0079155 0.1490223 0.060559265 0.008635214 0.07781763 0.074714154
-0.08920112 -0.09897745 0.097889505 -0.07049895 -0.0010881181 0.12247369 0.026336545 -0.019253641
0.028498452 -0.09574944 0.0014218439 0.01890342 -0.05303292 -0.016292825 0.066224165 -0.024587624
0.039878577 -0.13621105 0.07581487 -0.119093746 -0.1925235 0.045413163 0.0067951917 -0.0913116
-0.09827803 -0.09799325 -0.071756616 0.067677476 -0.012232262 -0.06741311 -0.0015322426 0.060624342
-0.06533095 -0.142902 -0.07017425 0.076368965 -0.11861377 0.015050249 -0.15178733 0.08275452
0.007913231 -0.08585067 -0.09357613 0.04642902 0.07410211 -0.07623271 -0.052742377 0.055187393
-0.075423785 -0.1297442 0.040118612 -0.08532761 -0.06877608 -0.09386168 0.02238871 0.054324318
-0.0647824 0.01803937 -0.059906106 0.03617177 0.007217868 0.025672147 -0.15103363 -0.046269406
0.008930375 0.04551136 -0.005307788 -0.08614312 0.07814825 0.058733813 0.009082498 -0.037380915
-0.08158549 -0.06183599 0.058418967 -0.12576881 -0.028923847 0.05445078 -0.06465003 -0.065707855
0.00766192 0.11281818 0.01565877 -0.015382185 -0.076344155 -0.07954216 -0.080778584 -0.09709817
0.031038452 -0.04261226 -0.05579242 0.07974747 -0.051290985 -0.09709378 0.061761074 -0.12761183
0.038564406 0.023324203 -0.082528 -0.0014177772 0.066103496 0.07089546 0.032645848 0.039687954
-0.010046555 0.052540854 -0.048784178 -0.12404192 0.04866108 -0.15269528 -0.06031932 -0.09649687
-0.079599835 -0.058770344 -0.010838244 0.10305143 -0.05949295 0.04581493 -0.034723394 -0.09952512

node_function_neighbor.6.bias f4 [4]
00000000: 57e6 853d e3d7 fc3d dd8d d4bd 2165 04b9
0.065380745 0.123458646 -0.10378621 -0.00012626174

edge_function.0.weight f4 [64, 4]
00000000: 7722 003d 89b0 b03d d71c 16be 401b 033e
00000010: 3d02 54be f492 0fbe be55 e9be 4f0e cdbe
00000020: 79cf a83e a9c6 64be 644b d23e 4b23 3f3e
00000030: 641f bbbe 7d37 b2be c81b 1ebd 3fcf fcbe
00000040: 057f c93e d59a b9be c1fc 403e e5f9 babe
00000050: 3fd6 5c3e 231a 7fbd 3bbc e7be 5dc4 f43d
00000060: c52f cebe 2f9d f5bd 8125 08be 5db0 3cbe
00000070: 48ab 86be cb96 2b3e 27ae a23e 26ed 9e3e
00000080: 8302 433e 5f2d cb3e 0c54 87be 3eee f63c
00000090: f127 80be 5b0d 0bbd 0f0d 72bb cd51 fcbc
000000a0: 9410 14be 01a3 9c3e a12a f3be 82b0 4ebe
000000b0: 53b6 a13e f759 65be 142e 8e3e 8be7 be3e
000000c0: b983 633e d6d6 b8be 3d68 bd3e 48c6 94be
000000d0: f0d2 533e 9935 02be 3421 a13e 3390 f53d
000000e0: f511 063e e1a3 273e 170e 593e 7c53 62be
000000f0: 0f4b 6fbe 1631 babe cbd3 afbe 5499 723d
00000100: b727 4f3e 818a 01be 50f0 853e 450e e43d
00000110: 0f05 8dbe 7ae1 133e c715 303e d99b 063b
00000120: 9a2d 01be f2ef cf3b 7d5b f3be ed52 413e
00000130: 44a9 1d3e 35d6 edbe de77 9cbb 8b88 fc3d
00000140: 5fbb 6c3e 8b47 b5be 0b71 a4bd 3bb8 233d
00000150: 87ef 31bd c105 e23c b12d ebbe e6e1 c7be
00000160: b9af a7be 0aa2 6c3e c5a8 32be e7df f83e
00000170: d9be 073d 15d7 1a3d 4370 f5bb 3da8 b43e
00000180: dbb5 babe 7b02 cbbb 96ee babe 17fb b0be
00000190: e9a6 2cbe 0fb3 c43e b937 b3be e8d6 d1be
000001a0: 5274 f1be f428 d63d 885c a23e 95fc c6bd
000001b0: 4138 8cbe a52a ce3e 8a06 93bc a510 e5be
000001c0: d845 a3be 2dea d03e 04ae 553e 1297 3d3e
000001d0: 6cfa f83e eaa7 e53e 64d7 943c f471 d8be
000001e0: 8b5d 27be f5b5 e33c d742 b73e d098 a3bd
000001f0: cde8 493e 1284 cdbd 5d2b 4fbe 4a63 f53c
00000200: b102 06bf d77a 0ebe 0f69 b43e b1aa d53e
00000210: 52a1 a03d a473 853d d65a 16be 4353 aebd
00000220: 91f0 bc3e e3cb 99be ef0c e0be 63b4 87be
00000230: 7779 0fbe a65d cb3e 81e7 13be 7130 d1be
00000240: 3090 d7be a816 1f3d e82b 8fbe 1bfd f23e
00000250: 0d8c 5fbe 19e4 333c 0c92 2c3d 56a1 b8bc
00000260: 8940 10bd 4755 a33c aa9f fdbe 420d a1bd
00000270: e93b cbbe def4 ef3e accb f4be 9014 cfbc
00000280: bdfb b83e dcc4 2d3e adfd 20bd cd04 d13d
00000290: 6c7d f63d 5570 413e be00 75be a04b 893e
000002a0: 596c cabd d9ae 6bbe 9af4 d73e 6e4f b73e
000002b0: 0ac4 4f3d a4d6 8abe cc6c c43d 1621 963d
000002c0: 55c5 d3be 6289 413e 1656 813e cc19 343e
000002d0: 8745 cdbe bcee aebe ddab 66bd 6fe1 0fbe
000002e0: 3094 f63e 1808 ffbd c37f d93e 85a3 cf3e
000002f0: 876b 953e 029f b5be dc22 623e 8eaa f53e
00000300: 71df abbe ccb0 583e 4e52 abbc 3ff1 853d
00000310: 6f1f b2bd 3647 153e b177 e3bc bbf0 a4be
00000320: cecd debe 37de 88be 33a3 11be 845e dabd
00000330: 1bfc 2abd 96b6 91be 962e b3be cd2d 3c3e
00000340: 6847 ae3d 9328 123e b412 bf3e 1002 ffbd
00000350: 2535 38be f956 d03e 3fa4 d1be 8b08 c83e
00000360: 7cce 3e3e a5f9 703e 9637 ad3e b229 fa3d
00000370: 3818 28bc a05a 453e 83ce 333e f2d6 fbbd
00000380: 5d5d 92be 631b 63be 179a 94be 1af7 c63e
00000390: 95ad a73e 94d4 01bf 4a7b 21be dbe3 ef3e
000003a0: 5dc8 533d a5cf 073b 83f2 86bd c70a 933d
000003b0: 7214 4dbe 7a3d b33e 042c aabe 4b9d 64be
000003c0: 13a1 423e d40b d4be b46f b0be 2475 2ebd
000003d0: 4129 9fbd 0eb2 51be 9a62 3dbe 1228 c83d
000003e0: b070 9d3e 3c5f 91be 7b47 aebe 2a5f c5bd
000003f0: e46f b7be db4d 9c3e d711 153e 1df4 c7be
0.03128287 0.086274214 -0.14659439 0.12803364 -0.20703979 -0.14020902 -0.4557323 -0.4004998
0.3297079 -0.22341408 0.41073143 0.18665807 -0.36547387 -0.3480796 -0.038600713 -0.49376866
0.3935472 -0.3625094 0.18846418 -0.3651878 0.21566103 -0.062280785 -0.45260796 0.11951516
-0.4027082 -0.11992871 -0.13295557 -0.18426652 -0.26302552 0.16756742 0.31773493 0.31040305
0.19043927 0.39683053 -0.2643131 0.0301429 -0.25030473 -0.033948284 -0.0036934053 -0.030800724
-0.14459449 0.30593112 -0.4749346 -0.2018452 0.31584415 -0.223976 0.2776953 0.37286028
0.22218217 -0.36101407 0.3699359 -0.29057527 0.20685935 -0.12715758 0.31470644 0.119903944
0.13092788 0.16371109 0.21196781 -0.2210216 -0.23368476 -0.36365575 -0.34341273 0.059228256
0.20229994 -0.12650491 0.26159906 0.11135534 -0.27542922 0.14441481 0.17195807 0.002053967
-0.12615052 0.0063457424 -0.47530738 0.1887929 0.15396601 -0.4645249 -0.0047750315 0.12330731
0.23118351 -0.35406145 -0.08029374 0.039970618 -0.04344132 0.027590634 -0.45933297 -0.39039534
-0.32751253 0.23108688 -0.17447193 0.48608324 0.03314099 0.037802774 -0.0074901893 0.35284606
-0.3646687 -0.006195364 -0.36510152 -0.34566566 -0.16860546 0.3841786 -0.3500345 -0.40984273
-0.47159058 0.1045703 0.3171122 -0.09716145 -0.27386668 0.4026691 -0.017947454 -0.4473926
-0.31889224 0.40803662 0.20867163 0.1851466 0.48628557 0.4485467 0.018169113 -0.4227444
-0.16344278 0.027796725 0.35793182 -0.07988131 0.19717713 -0.10034956 -0.20231386 0.029954571
-0.52347857 -0.13914047 0.35236403 0.4173179 0.078432694 0.06516197 -0.14683089 -0.08511975
0.36902288 -0.30038366 -0.43759868 -0.26504812 -0.14011179 0.39719886 -0.1444378 -0.4085727
-0.42102194 0.038839966 -0.27963185 0.4745873 -0.21830769 0.010979676 0.04213147 -0.022537868
-0.035217796 0.019938124 -0.49535877 -0.07863857 -0.39694145 0.46866506 -0.4781164 -0.02527836
0.3612956 0.16969627 -0.039304424 0.10205994 0.12035641 0.18890508 -0.23926064 0.2681551
-0.09883947 -0.23015918 0.42178804 0.35802788 0.050724067 -0.27116883 0.09591064 0.073305294
-0.4136149 0.18900064 0.2526099 0.17587966 -0.40092108 -0.34166515 -0.056316245 -0.1405084
0.48159933 -0.12452716 0.42480287 0.40554443 0.291836 -0.35472876 0.2208361 0.47981685
-0.3356891 0.21161193 -0.02091327 0.06540155 -0.08697402 0.14577946 -0.027767034 -0.32214913
-0.43516392 -0.26732036 -0.14222412 -0.10662559 -0.041744333 -0.28459615 -0.3499648 0.18376847
0.085097134 0.1427329 0.37318957 -0.12451565 -0.17989023 0.40691355 -0.40945622 0.39069018
0.18633455 0.23532732 0.3383147 0.12214984 -0.01025968 0.19272852 0.17559247 -0.12296857
-0.28586856 -0.22178416 -0.2902381 0.388604 0.3274962 -0.50714993 -0.15769687 0.46853527
0.051704753 0.002072313 -0.06589224 0.0717979 -0.2002733 0.3500784 -0.33236706 -0.22325628
0.19006757 -0.41415274 -0.34460223 -0.042592183 -0.077715404 -0.20478079 -0.18494645 0.09773268
0.30750036 -0.2839297 -0.3403891 -0.09637292 -0.35827553 0.3052815 0.14557587 -0.3905343

edge_function.0.bias f4 [64]
00000000: 54ac 763b 7b85 17be ddfc 973e cdf1 833e
00000010: c2f2 01be 9697 47be 36db 073e c7ac 703e
00000020: aa37 823d a9dc ef3e 0bdc ae3e 1498 bdbe
00000030: f266 1b3e 089e 87be 75d8 97be 6da1 7cbe
00000040: c3c0 ae3d 4abf e6be a38a fdbe 731d fbbe
00000050: d671 883e f8dc 5cbe b6d0 84bd aee6 c93e
00000060: 02ac 01bf de03 9b3e b13d 093e 7ff5 fcbe
00000070: cdfa 423e 8c52 253e 62e9 893e 66f4 b5bd
00000080: ea35 7ebe 48e0 04bf 71d7 3dbf 60f4 cf3e
00000090: 3f93 d5bc b30f 1bbe 4bf5 2abe 47e5 263e
000000a0: 2ca6 38be 078b d93d 7da9 7d3e 9610 533e
000000b0: fe2e f0be ef6a 85be 1641 b93e bccd c2be
000000c0: d36f 48bb b63b 873e 1e00 183e ac2b 10be
000000d0: 6116 2bbe 9002 9fbe bca7 a53e f92c 2abd
000000e0: be57 0fbf 8830 89be c86f 04bf fb4b a7bd
000000f0: cb27 c73e 3aed de3e 4d8e c23e a542 31bd
0.0037639337 -0.14797013 0.29685107 0.25770417 -0.12690261 -0.19491419 0.13267216 0.2350341
0.06358273 0.46848038 0.34152254 -0.3703009 0.1517599 -0.26487756 -0.2965733 -0.24670954
0.0853286 -0.45067817 -0.49519834 -0.49045905 0.2664935 -0.21568668 -0.06485121 0.39433807
-0.5065309 0.30276388 0.1340244 -0.4940605 0.19040985 0.1614477 0.2693587 -0.08884506
-0.24825254 -0.51904726 -0.7415686 0.4061613 -0.026071189 -0.15142708 -0.16695134 0.162984
-0.1803214 0.106222205 0.24771686 0.20611796 -0.46910852 -0.26058146 0.3618247 -0.38047588
-0.003058423 0.26412743 0.14843795 -0.1407916 -0.16707756 -0.31056643 0.32354534 -0.041546796
-0.5599326 -0.2679484 -0.51733065 -0.08168789 0.38897547 0.43540365 0.37999192 -0.043276448

edge_function.2.weight f4 [64, 64]
00000000: 8506 22bd 62b9 b5bc d0a5 dd3b 0eb8 74bb
00000010: fca2 1fbe 8262 85bd 86a3 5bbc fe1f 43bd
00000020: bcfd 0ebd 24b1 c63c 8d98 343c 2264 df3d
00000030: b0e8 88bd 4a2e e3bd 64ec 8abd 20ad 463a
00000040: d701 bebd d939 85bd 44a3 f13d bef0 adbd
00000050: 169e a639 41c5 1ebe 7cc9 45bd 2c2e 07be
00000060: 8645 4fbd 91b9 35bd addd b8bd fafb 693d
00000070: 5896 9b3d e9df 4ebb 4c79 58bd c8c9 a63d
00000080: c8a8 3f3d 3438 783d 1181 183d ccc3 90bd
00000090: fffc b3bd 1ef6 10bd f5f6 01bd 01af dcbd
000000a0: c2b5 8b3d b5dd 6e3d d0a2 dcbd 9e44 b63d
000000b0: 707c 12bd 971f 85bd 33d3 03bd 7878 92bd
000000c0: b775 6fbd f957 8bbd 8b27 983c e09f adbd
000000d0: 2a77 9e3c 9ec1 d6bd c129 afbd dee4 0abe
000000e0: de9a dfbd 70bd 5c3d a02a 59bd 36ec 4ebd
000000f0: dc49 65bd 71a1 17be 4138 1f3d 9f3f 81bd
00000100: 24ae 693c dbb5 8a3d 5479 f13b 7f35 ed3d
00000110: ab43 5a3d d0af adbc 0480 ee3d d80c d9bd
00000120: 38a6 933d bc5b 333d 9d9e b9bd b65e cabd
00000130: 56eb dbbd e0db 91bd 0853 b2bc b2df da3d
00000140: 1583 3fbc 342c 183e 6f6d bb3d bccd bebd
00000150: e383 f1bd a5e4 ee3d dc33 033d 32d8 abbd
00000160: b95b 3c3b f3bd a63d 0d4f a03d 6f3d 9cbd
00000170: 2dd9 fabc 7ba8 4bbd c5c3 f53c 13ba 193d
00000180: 55b6 d43c c2a3 653c 84bb 82bd e684 653d
00000190: 3324 403d 4ff9 e1bd d57a b43b 012b cf3d
000001a0: 42be 83bc 69b8 443d 3903 693d e17e 1fbe
000001b0: 10d8 b73c 79bf 343c 3832 7b3d caa8 f03c
000001c0: 456c 883d 1588 c03d a77f 54bd eafe 10be
000001d0: ccb8 d13d b50e 363d 090b e73c e6ef 62bd
000001e0: 29c2 ffbd 909b 4abe 7d05 0cbe dfd5 2ebc
000001f0: f573 8dbc d212 87bd 1afd afbd 68f4 cebc
00000200: c54b 03be d0e6 b0bd 00c7 f4bc f8e3 bf3b
00000210: ae45 5a3d 9000 1f3d 6ef7 333d d138 20be
00000220: 48ea babd 9387 31bd fc8f 043d 1011 05bd
00000230: 0fae f3bd 7453 febd 21cc 153c 6d15 973d
00000240: b1f6 e8bd e1f3 92bd b915 5ebd f55f c9bc
00000250: a54d dabc 08aa 21bd e06e a2bd 76fa ecbd
00000260: ef80 dd3c d99b b73d f788 b9bd e56e c7bb
00000270: ac60 fabd cb32 18bc 37ea f6bb 3730 22bd
00000280: 5827 48bd 029c 41bc 43f7 abbe 7332 ed3d
00000290: 41d8 7b3d d5ef e63d ff32 723d da8c 043e
000002a0: 06e4 fc3c fb42 dbbd 2b0d 003d 420a 723d
000002b0: 1fdb 483d 7bf9 1bbd 22db efbd 551e 313d
000002c0: 893b 063e a60f 273d f8ea 68bd 4fad 87bd
000002d0: 8cb4 0cbd aa1e bfbd c288 12be ae23 c1bd
000002e0: 7da0 d5bd a562 9d3c 5a67 843d 5b06 0f3b
000002f0: b7a3 9e3a e5af 333d bfe8 a5bc 4f1a 353d
00000300: 0f80 d03d c0b9 613d 175f 0e3e 0a24 143d
00000310: 2854 39bd 0152 d33d d2ea 1dbe a939 b9bd
00000320: a93e 96bd c149 e6bd 3149 0a3d 2417 b4bc
00000330: 1dd7 6a3d 57ca 0e3e dd4d 503d 6e75 0e3d
00000340: 0c10 1bbd 2a43 6abd fecb c43d bade 803a
00000350: 9695 8f3d eb7e e0bd b105 ba3d 1d7c 14b9
00000360: bbf2 08bd 3953 03be 7c90 1ebe 5fcd e5bd
00000370: a15f 45bd 8885 67bd dd60 423d 8174 aebd
00000380: 7587 cfbd 9691 bcbd bf4f d93e 0cbc 8dbd
00000390: ed24 b03d aade a83d 15c8 bcbd 5d8a 8f3d
000003a0: 9c74 0d3e 499a 083d faf9 b73d d9e9 b2bd
000003b0: 8113 913d c9b2 fabd adfb 47bc 33d8 c8bd
000003c0: 2e71 59bd 06aa cb3d d260 ddbb c146 2c3c
000003d0: c242 743d b905 7a3d eb0e db3d 0652 893d
000003e0: b3b8 653d 27c7 c33d 9753 46bd 9d4a 17be
000003f0: 74f1 8639 04b0 f63d fc49 7ebd 85ea 103d
-0.039557 -0.022183124 0.006764151 -0.003734115 -0.15589517 -0.065129295 -0.013405686 -0.047637932
-0.03490995 0.02425439 0.011022699 0.10907771 -0.066850066 -0.11092813 -0.06783369 0.0007578898
-0.09277695 -0.06505174 0.117987186 -0.084931836 0.0003177977 -0.15504934 -0.048287854 -0.13201207
-0.050603412 -0.044366423 -0.09026656 0.05712507 0.07597035 -0.0031566566 -0.052850053 0.081439555
0.04679182 0.060600474 0.037232462 -0.07068595 -0.087884896 -0.035390966 -0.031729657 -0.10775567
0.06821777 0.058316905 -0.107732415 0.088998064 -0.035763204 -0.06500166 -0.032183837 -0.07151884
-0.05846187 -0.06803889 0.018573543 -0.08477759 0.019343931 -0.10486148 -0.08552886 -0.13563868
-0.109182104 0.0538916 -0.053019166 -0.050518237 -0.05597864 -0.14807679 0.038872007 -0.06310963
0.01426271 0.067729674 0.0073692 0.11582469 0.05328719 -0.021201998 0.11645511 -0.10598153
0.07209438 0.043788657 -0.09063456 -0.09881346 -0.10738246 -0.07122016 -0.021768108 0.10687198
-0.011688967 0.14860612 0.09151732 -0.093165845 -0.117927335 0.11664704 0.03203188 -0.08390845
0.0028741194 0.08141699 0.07827578 -0.07628905 -0.030621136 -0.049721222 0.030000577 0.03753097
0.025965849 0.014016094 -0.06383422 0.056034945 0.046909522 -0.1103388 0.005507807 0.10115624
-0.016081933 0.04802743 0.05688784 -0.15575744 0.022441894 0.011031979 0.06132719 0.02937736
0.06661276 0.094009556 -0.05187955 -0.14159742 0.10240325 0.04444762 0.028203504 -0.055404566
-0.12488205 -0.19785905 -0.13673969 -0.010671108 -0.017267207 -0.065953866 -0.08593197 -0.025263026
-0.12821873 -0.08637774 -0.029880047 0.0058560334 0.053289108 0.038818896 0.04393714 -0.15646674
-0.09126717 -0.043342184 0.032363877 -0.032486975 -0.118984334 -0.12418261 0.009142906 0.073771335
-0.11375178 -0.071754225 -0.054219935 -0.024581889 -0.026648352 -0.039468795 -0.07931304 -0.11571209
0.02703902 0.089652725 -0.09059327 -0.0060862177 -0.1222547 -0.009289454 -0.007535245 -0.039596763
-0.048865646 -0.01181698 -0.33587083 0.11581888 0.061485533 0.11276213 0.059130665 0.12944356
0.030870449 -0.10706135 0.031262558 0.059091814 0.049037095 -0.03807972 -0.11711718 0.043241818
0.13108648 0.040786408 -0.05686471 -0.06624853 -0.03435187 -0.093320206 -0.14309981 -0.094306335
-0.10431001 0.019212076 0.06465025 0.0021823857 0.0012103234 0.043868918 -0.020252584 0.044214543
0.10180675 0.055108786 0.13903461 0.036167182 -0.045246273 0.103183754 -0.15421608 -0.09044201
-0.0733617 -0.11244536 0.033761207 -0.02198369 0.057334054 0.13944374 0.050855506 0.03477996
-0.0378571 -0.05719296 0.09609221 0.0009832003 0.07010953 -0.10961708 0.09083117 -0.00014160616
-0.03343461 -0.12824716 -0.15484804 -0.11220812 -0.048186902 -0.05652383 0.047455657 -0.08518315
-0.10133258 -0.09207456 0.42443654 -0.06920633 0.08600793 0.08245595 -0.0921785 0.070088126
0.13814014 0.033350263 0.08983226 -0.08736009 0.07083798 -0.12241132 -0.012206 -0.09806862
-0.053086452 0.09944539 -0.0067559266 0.010514916 0.059633978 0.061040614 0.10696205 0.06705098
0.056084346 0.0955947 -0.04841956 -0.14774556 0.00025738368 0.12045291 -0.062082276 0.035379905

edge_function.2.bias f4 [64]
00000000: 212d 2c3d 3c4c a8bc f831 513b 1493 203d
00000010: 6e14 6dbd 1f93 c93d 97d4 5abd 90b6 b63d
00000020: e2cb e6bc eaee 6dbd 710a 383e 2745 0fbe
00000030: 1cd1 ca3d 8d8e 3abe 685e 8fbc e65e e4bd
00000040: 306a f9bd 0801 35bd 54c2 b4bd 8072 e2bd
00000050: 5de5 a63d b5ef 153e 68b3 a4bd 7747 99bc
00000060: baea 893c 8e4f 513c 05d4 893d c33a c73c
00000070: 07d2 b9bd 930e 84bc 97b0 e4bd ba1f 643b
00000080: 1b63 4ebd 958c 2bbd 75b2 80bd 1d47 4c3d
00000090: 9694 83bd 27d3 cfbc 9074 94bc 6d0d f2bd
000000a0: 4758 553d 899a 613d 65cf 953c e19e 02be
000000b0: 80c0 98bd 184a efbd 7f24 72bc 49f6 89bc
000000c0: 68bb c5bd 408e 003d 89b9 ca3b 05fe 5ebd
000000d0: d8fb 7537 0f9b 8a3c 6895 b4bd 8d3b 013e
000000e0: 4602 cbbd c2aa 903d 998b ac3d d0bf 683d
000000f0: 0045 563c e0a9 c43d d822 89bd a668 d3bd
0.042035226 -0.020544164 0.0031920653 0.039202765 -0.05788081 0.09842514 -0.053425398 0.0892154
-0.02817339 -0.058089174 0.17972733 -0.13991223 0.09903166 -0.18218441 -0.017501071 -0.11150913
-0.12178457 -0.044190437 -0.08826128 -0.110569954 0.08149216 0.14642222 -0.080420315 -0.018710835
0.01683556 0.012775315 0.06729893 0.024320012 -0.09073263 -0.01612023 -0.11166494 0.003480895
-0.050387483 -0.041882116 -0.06284038 0.049872506 -0.06424825 -0.02536924 -0.018121988 -0.11818967
0.05208614 0.055079017 0.01828737 -0.1275592 -0.074585915 -0.11684054 -0.014779209 -0.01684107
-0.096548855 0.03138566 0.0061866683 -0.05444147 1.4661775e-05 0.01691964 -0.088175595 0.12620373
-0.09912543 0.070638195 0.08425064 0.05682355 0.013077974 0.096027136 -0.06696099 -0.103226945

edge_function.4.weight f4 [64, 64]
00000000: f21d 14be fc6d 1bbd 9570 e0bd fa8e d3bb
00000010: c2ed 8f3d d99e 3ebd 3719 87bd 7d8d b4bd
00000020: 318c 0cbe f415 453d d7b0 01be 08ee ec3d
00000030: 5284 90bd 06e5 53bc 0014 eb3b d87a fcbd
00000040: f655 953d a01b 133c 4f46 493d d14c b13d
00000050: 2b22 ecbd 3369 b9bc 8326 fcbd 3196 b1bd
00000060: 7e06 9c3d 8792 c3bd e362 93bd 987a cdbd
00000070: a430 b5bb 857d a43d d40c 39bd 2e26 c83d
00000080: c4e8 953d 1648 68bd d0db 76bc 9706 adbd
00000090: 388a c7bc abb2 0cbe a254 35bd 58b9 9d3d
000000a0: d7d7 023d e332 85bc b272 cfbd bcdf a13d
000000b0: 81fd 1a3c 0d7c 5c3d be4b 843b 45cd c7bd
000000c0: 4efd 19be b0aa f93c 6851 d2bd 4065 3ebd
000000d0: 053e 00be e098 8ebd c4e7 f2bd 4e88 ef3c
000000e0: cb60 ab3d 2d41 f5bc e97f c33c 4be3 0b3d
000000f0: 44ea 38bd 88f5 d63d 4865 a6bc 4014 91bb
00000100: 88c0 14be 4b19 293c ef19 31bc e956 ba3b
00000110: 6c25 44bc 3901 87bd 1519 be3d d162 0abe
00000120: 0594 133d c128 cebc 0155 11bd c09b 0ebc
00000130: b719 c7bd 0ff1 843d 0607 b3bd d4d0 0abd
00000140: 7196 b4bc 3513 c1bd 76c6 04be 9337 c93c
00000150: 8bc1 babd 640b 273c 9f21 acbd 4fcc 4bbd
00000160: 7eb8 52bc 4d24 f53c 49c0 73bd 8e26 c2bc
00000170: b4d6 55bd 14b3 ca3c 9c9a b93b e904 d83c
00000180: 0a88 a73d c710 00be a944 e83b 0a4e a9bd
00000190: a014 613d 645c 04be d957 b53c 5360 fabd
000001a0: 94fb e4bd ff1b 0bbc 6f95 95bd a4a2 243d
000001b0: fe27 28bd 8ad2 ce3d faaa cbbd 2956 aebd
000001c0: 881a 08be 4041 b1bb 9e07 bdbd c0fd bd3c
000001d0: b268 1ebe 4aa9 153d 3478 debd 0463 cfbd
000001e0: 7c7e 4fbd eb08 3a3b 5e8e a4bd 7023 1cbe
000001f0: 0ce4 44bd 9247 febd df80 a4bc 0879 1fbd
00000200: 6bdd 703d 166f 063e d37e af3d 2426 eabd
00000210: 2a2b 343d 8440 a33d 4562 ecbd 3b50 3fbd
00000220: 1086 513d 4428 87bd 8bd7 673d ce8a 173d
00000230: 0b57 963a 9a56 51bd d47c 563d aecc 11bd
00000240: f54e b1bd ae18 923d fffa c6bd e778 993d
00000250: 5b0f bcbd 7daf e9bd 260d c53d c807 b7bd
00000260: 149a 613d 0503 b6bd 2d7f c03d 5fdc 8b3d
00000270: 3e2e a1bc a4d8 d7bc bd18 fa3c ce90 443d
00000280: bcfd af3d 5ad0 acbd d3ec 723c a463 0e3d
00000290: 12a9 25bd 7c55 98bd 727a 523b acd9 cd3d
000002a0: c25a c43d 854e 4d3d 53b9 9a3d 518f 5f3d
000002b0: 9b70 a5bd b12b 8dbd 3a6d 023d bf88 c9bd
000002c0: a1db b7bc d8fb 8abc b4f4 debd eb98 a7bd
000002d0: 9b46 da3d 32a0 a9bc 4040 b73d 3b72 d7bd
000002e0: 0087 8b3d ba38 d83d c485 363d bae5 aabc
000002f0: c8da 84bd 00c6 adbb 7991 d6bd c8b3 c93c
00000300: d060 5abd bbd0 d2bd 3dcd 353d 8018 083d
00000310: ee7b 843d 2164 d03c 5bc1 f13d 7328 79bd
00000320: 56ef e4bd eec0 63bd f70c c33d 9914 c43b
00000330: 1d8e 33bd 862a 0d3e 0079 72bb d687 9eba
00000340: 084b b5bc 1614 52bd 79c5 15bd 4d27 e63d
00000350: 1485 dd3d b766 26bd 8220 203d b3c3 21bd
00000360: 3b20 ab3c fe0c 293d e373 47bd c112 d1bd
00000370: c52f 363c 7000 0cbd cc2d aa3b 1c8f 983d
00000380: 860f 02bd 69f0 90bd 7a1b 9a3d daf9 7dbd
00000390: 1298 b43d 3fe7 c2bc 464d 1bbd 46c5 f03d
000003a0: 610a 9b3d bcfb 333b 26dc 9d3d aa55 d03d
000003b0: 93d0 bb3d 1e5d c73d 0a59 8b3d ff25 1a3d
000003c0: 6375 a53d 748d 5e3d f70a a9bd bd66 c83d
000003d0: 871b e13d 3aea a03d 2434 e43c 49cd f13d
000003e0: 4acb bfbd 7c58 023d 6905 aabd 6813 603d
000003f0: f888 bb3c 0a87 f6bd 51ef c2bd b8d6 9cbc
-0.14464548 -0.037946686 -0.10958973 -0.006456253 0.070277706 -0.046538208 -0.06596606 -0.08816049
-0.13725354 0.04811664 -0.12665115 0.11568838 -0.07056488 -0.012933021 0.007174015 -0.12328118
0.072917864 0.008978754 0.049139317 0.0865723 -0.115299545 -0.02263317 -0.12312033 -0.08671225
0.07618426 -0.09549432 -0.071965955 -0.100331485 -0.00552948 0.080317535 -0.04517825 0.09772907
0.07319787 -0.05670937 -0.015067056 -0.084485225 -0.0243579 -0.13740031 -0.044270165 0.07701367
0.031944122 -0.016259616 -0.10129298 0.07904002 0.009459854 0.05382924 0.0040373495 -0.09755949
-0.15038034 0.030476898 -0.10269433 -0.04648328 -0.12523659 -0.06962752 -0.11860612 0.0292398
0.08368071 -0.029938305 0.023864703 0.03415231 -0.045145288 0.1049605 -0.020311967 -0.004427463
-0.1452657 0.010320972 -0.010809406 0.00568663 -0.011971813 -0.0659203 0.09282128 -0.13514258
0.036029834 -0.025165917 -0.035481457 -0.008704126 -0.097217016 0.06491291 -0.08741574 -0.03389056
-0.022044392 -0.094274916 -0.12966332 0.024562633 -0.09118947 0.010195587 -0.0840485 -0.04975539
-0.012861369 0.029924536 -0.05950955 -0.023700025 -0.05220671 0.024743594 0.005664183 0.026369529
0.08180244 -0.125064 0.007088263 -0.08266838 0.05495131 -0.12925869 0.022136616 -0.12225404
-0.11180797 -0.0084905615 -0.07303893 0.04019417 -0.041053765 0.10098751 -0.099447206 -0.085125275
-0.13291371 -0.0054093897 -0.092299685 0.023192286 -0.15469626 0.0365384 -0.10862771 -0.101263076
-0.050657734 0.0028386663 -0.08034967 -0.15247893 -0.048069045 -0.12415995 -0.020080982 -0.038933784
0.05880491 0.13128313 0.08569112 -0.11433056 0.043986477 0.0797129 -0.11542181 -0.046707373
0.051153243 -0.06599477 0.056602042 0.03699761 0.0011470033 -0.05110798 0.05236514 -0.03559559
-0.08657638 0.071336135 -0.097158425 0.074937634 -0.09182616 -0.11410425 0.096216485 -0.08937031
0.05507858 -0.08887295 0.09399257 0.06829142 -0.01967537 -0.02634842 0.030529374 0.04798966
0.08593318 -0.084381774 0.014826971 0.034762993 -0.04044444 -0.0743818 0.003211644 0.10051283
0.09587623 0.05012371 0.07554879 0.054580037 -0.080781184 -0.06893099 0.031842448 -0.09840535
-0.022443594 -0.016965792 -0.10886517 -0.08183464 0.10657998 -0.02070627 0.089478016 -0.105198346
0.068128586 0.10557695 0.044561163 -0.020861495 -0.06487042 -0.0053031445 -0.104769655 0.02462186
-0.053314984 -0.102937184 0.044385184 0.03322649 0.0646895 0.02543837 0.11804458 -0.06082959
-0.11178462 -0.055603914 0.09523957 0.0059839007 -0.0438367 0.13785753 -0.003699839 -0.0012094926
-0.022130504 -0.051288687 -0.036565278 0.11237965 0.10816398 -0.0406253 0.039093502 -0.039493274
0.020889392 0.041272156 -0.048694503 -0.10208655 0.011119788 -0.034180105 0.0051934477 0.07449171
-0.031753086 -0.070771046 0.07524772 -0.062005855 0.088180676 -0.023791907 -0.03791549 0.11756377
0.07570339 0.0027463278 0.077080056 0.10172589 0.09170642 0.097345576 0.06804092 0.037633892
0.0807903 0.05433412 -0.082540445 0.09785221 0.109915785 0.07857175 0.027856894 0.11806733
-0.09364946 0.031822667 -0.08301813 0.054706007 0.02289246 -0.120374754 -0.09518302 -0.019145355

edge_function.4.bias f4 [64]
00000000: ed61 d03c 06a6 203d 13b7 73bd 27e4 81bd
00000010: 9b40 1d3d 18c7 2cbe 7a4f d6bc e994 bcbd
00000020: 0016 0ebe d1f5 14bd 47fb 10be 22b0 98bb
00000030: be1e 60bd 42a3 e7bd 486c 01bd f71a 963d
00000040: 4fb9 0bbd 03ad 8a3c 0350 593d ce72 0dbd
00000050: f82b 47bc d3bc dbbd 5029 abbd 94b4 c8bd
00000060: 8363 433d e13d 10bd 8cf1 8ebd a745 f8bd
00000070: 90c5 61bd aac2 c23d 9276 8ebd 249a 123e
00000080: 1b95 2b3d 362b 223c a44a adbd 5101 813d
00000090: 5abe 513c 8c4a 02be 73e6 aebd 2718 23be
000000a0: 70f2 ee3d 0acf 11be d9aa 443b 8246 7f3d
000000b0: 32d2 153d def9 983b a701 93bd 4613 96bb
000000c0: 98fa 9c3e a1d2 c43d a1e9 603d 45e8 853d
000000d0: 366c cebc 47d5 20be 52df 203e aa44 34bd
000000e0: 409f 1dbe 0dcc 04be 193a 113d 4bfb ddbc
000000f0: 73a1 c8bd 8806 05be 54ea 98bd 65d9 c73d
0.02543732 0.039220832 -0.059500765 -0.06342345 0.03839169 -0.16872823 -0.026160944 -0.0920809
-0.1387558 -0.03636724 -0.14158355 -0.0046596685 -0.054716818 -0.11310436 -0.031597406 0.07329362
-0.03411227 0.016928202 0.05305482 -0.034533314 -0.012156479 -0.10729375 -0.08357489 -0.098000675
0.047702324 -0.035215262 -0.06979665 -0.1212266 -0.05512005 0.095097855 -0.06956209 0.14316612
0.041890245 0.009897998 -0.08461502 0.06299079 0.012801731 -0.1272375 -0.085400485 -0.15927182
0.11667335 -0.14239135 0.003000906 0.0623231 0.03657741 0.0046684584 -0.071780495 -0.0045799343
0.30659938 0.09610487 0.054910306 0.065384425 -0.025198083 -0.15706359 0.1571019 -0.044010796
-0.1539278 -0.12968464 0.035455797 -0.027097365 -0.09796419 -0.12990773 -0.074665695 0.097582616
