Projects/GuoxiangGrayson_T_A study of multi-fidelity graph neural networks/Model_save/Quarter2D/Rank=57-GNN-nB-64-Lr-0.005/model.pth (torch, 114781 bytes, 24 tensors)

node_function_neighbor.0.weight f4 [64, 2]
000000 5b 00 b3 be 9f 66 00 3f 2a 26 e5 3e 5f 1b 91 3e
       -0.3496121 0.5015659 0.4475568 0.28341195
000010 db 45 1c bd 29 93 f3 3e 54 ac 14 3e e3 58 42 3e
       -0.038152557 0.47573212 0.14518863 0.1897922
000020 8a e5 96 be 32 f4 dd bd b2 a9 f0 be b1 b8 28 bf
       -0.29472 -0.10837592 -0.47004467 -0.65906817
000030 59 23 2f 3e 3f 04 b8 be 2d b5 d3 bd 99 4d 8f 3e
       0.17103328 -0.3594074 -0.10337291 0.2798889
000040 ec 34 a5 3e da 4c 72 be fb e2 a0 be 59 4e 0e 3f
       0.3226694 -0.23662129 -0.31423172 0.555883
000050 00 4c ad be bc 5a e8 3e 3a b8 2c bf f1 13 11 3f
       -0.33847046 0.45381725 -0.6746861 0.56671053
000060 d9 02 0b be 11 93 d3 be ce 02 b7 bd 75 b9 a7 be
       -0.13575305 -0.4132314 -0.08936082 -0.3275868
000070 75 f6 e3 3e 65 51 02 3f 04 8b be be ad 5b 10 bf
       0.4452397 0.5090545 -0.37215436 -0.56389886
000080 40 38 2c 3f 7b 95 2a bf a4 cd 0e 3f bc d2 28 bf
       0.6727333 -0.6663434 0.5578253 -0.65946555
000090 45 f1 a3 3e 78 d8 09 3e 81 98 2c 3d eb fd e2 3e
       0.32020012 0.13461483 0.042137627 0.4433435
0000a0 a6 5a 04 3e a3 98 1e 3f 96 c0 e1 3e a9 21 ea be
       0.12925205 0.61951655 0.44092244 -0.45728806
0000b0 16 87 0e 3e 94 bb 17 be a7 fb d0 3e f0 13 17 3f
       0.13918719 -0.14817649 0.40816996 0.590148
0000c0 cf c6 31 be 08 a3 1d bf 6e 41 e0 be 45 75 e1 be
       -0.17360996 -0.6157689 -0.4379992 -0.44034782
0000d0 de e9 cb be 27 a8 18 be ca 5e 24 3f 37 00 c6 be
       -0.39826864 -0.14907895 0.64207137 -0.3867204
0000e0 a6 4d 95 be 6c ee 63 3e 0b 06 a9 be 28 2e 26 3f
       -0.29160804 0.2225892 -0.33012423 0.6491418
0000f0 d5 8c ac be 45 98 25 3f cd c7 5e 3e f3 fb 39 3d
       -0.33701196 0.6468547 0.21755905 0.045406293
000100 41 8c b3 be b0 99 35 3f d9 79 1d 3e 15 4d e0 3c
       -0.35067943 0.70937634 0.15378512 0.027380506
000110 a9 a0 17 3f a1 24 73 3e 7e 20 6d 3e 06 86 f4 be
       0.5922952 0.23744442 0.23156926 -0.47758502
000120 d6 f5 2b 3f 44 13 f4 be 22 44 fa bd 41 fe d6 be
       0.6717199 -0.47670949 -0.122200266 -0.41990855
000130 db ff 07 3f b5 65 2e 3f 39 da 92 bd 2d 27 26 bf
       0.5312478 0.6812394 -0.07170529 -0.6490353
000140 0b ee 34 bf dd f3 18 bf 88 3a 3c 3e 8f 07 16 bd
       -0.70675725 -0.59747106 0.18381703 -0.036628302
000150 bd ff e0 be 7a 28 1f bf 77 2e ac be 99 fe e4 be
       -0.43945113 -0.6217114 -0.336292 -0.44725493
000160 78 ac ab be 97 3a a2 be 27 62 f5 be 83 b7 a1 be
       -0.3353002 -0.31685326 -0.47926447 -0.3158532
000170 42 96 e8 3e db 76 9a bd 09 7c be 3e f7 39 ae be
       0.45427138 -0.07542201 0.37204006 -0.340286
000180 96 7e 89 3e e9 8c 8f b9 07 3a a3 be 77 61 11 3d
       0.2685439 -0.00027380072 -0.3188021 0.03549334
000190 39 3c e1 be e3 4c f6 3e 93 e2 72 3e fe 4f 8e be
       -0.4399126 0.48105535 0.23719244 -0.27795404
0001a0 e9 bc 90 be 1d 91 d0 bc 79 f3 39 3e b5 4e c8 bd
       -0.28269127 -0.02545982 0.18159284 -0.09780637
0001b0 ba 1b 1c bf 57 5d d8 be 60 54 12 be c9 ee d3 bd
       -0.6097981 -0.42258713 -0.14289999 -0.10348279
0001c0 00 02 cb 3c 8c 0e 48 bd 24 a1 ad 3d e1 6f b5 3e
       0.024781227 -0.048841998 0.08478001 0.3543692
0001d0 74 f6 2d bf 1a 55 18 bf 32 f1 04 3f a6 2e ff be
       -0.6795418 -0.59504855 0.51930535 -0.49840277
0001e0 b2 27 aa 3e 11 2d b5 be 51 65 23 3e 6d 1d 08 be
       0.3323341 -0.35385945 0.15956618 -0.13292475
0001f0 6c 21 c4 3e 07 e0 1c 3f a2 86 1a 3f 7c 1d 0c bf
       0.3830675 0.6127934 0.60361683 -0.5473249

node_function_neighbor.0.bias f4 [64]
000000 88 bf f4 3d af 8c 25 3f b8 80 25 3f 9a 08 58 3d
       0.11950594 0.6466779 0.64649534 0.052742578
000010 7b 25 aa be 1b 1a 36 3f c6 a7 ec be f9 b0 88 be
       -0.3323172 0.71133584 -0.4622175 -0.2669752
000020 41 d7 fc 3e 19 aa 06 bf b2 6a a8 bd 87 25 63 3d
       0.49382976 -0.526033 -0.082234755 0.05545571
000030 34 3a d3 be 3d b7 0b 3f a2 aa 91 bd 06 af 7f 3e
       -0.41255343 0.54576474 -0.07112624 0.2496911
000040 ca e7 2a bf 50 76 1c bf 3c 30 14 be af 10 e2 3d
       -0.6675993 -0.6111803 -0.14471525 0.110383384
000050 b7 db 19 3f 91 50 f2 bd 69 73 c2 3e 60 1e d1 3e
       0.60100883 -0.11831773 0.37978676 0.40843487
000060 58 d2 d0 3e 0e d7 36 be 8d a8 00 3e e4 7c 24 3e
       0.4078548 -0.17855474 0.12564297 0.16063267
000070 78 62 18 bf 93 9f 14 3f f6 02 08 3f be 6e e0 3e
       -0.5952525 0.5805599 0.5312952 0.4383449
000080 c3 cf db be 84 6b ed be 03 6c 23 bf 58 be bc be
       -0.42931947 -0.4637109 -0.6383669 -0.3686397
000090 35 a6 d8 be 4f 10 e6 3e 4b 89 f0 3e 2d 3d 52 3e
       -0.42314306 0.44934317 0.46979746 0.20531149
0000a0 fe 25 a5 be 1e 9c 91 3d 7e 62 e0 be 07 6e 35 3f
       -0.32255548 0.07109855 -0.43825144 0.70871013
0000b0 3b 38 d0 be 90 a0 04 3f 5f 9a 05 bf bb b3 de 3e
       -0.406679 0.518075 -0.52188677 0.43496498
0000c0 a3 44 9a be 83 0a 33 3f f8 33 c1 be fb 2b 6c be
       -0.3013049 0.69937915 -0.37734962 -0.23063652
0000d0 73 3e 0c 3f e6 07 c6 be c9 a8 ef 3e d3 30 29 bf
       0.5478279 -0.386779 0.4680846 -0.66090125
0000e0 c4 82 c6 be 24 29 0b be 4a b3 16 be 16 ee b4 3e
       -0.3877164 -0.13589913 -0.14716831 0.35337895
0000f0 b5 2a e5 be 41 fd fe 3d 0f bf e8 3d b3 d4 14 bf
       -0.44759145 0.12450648 0.113645665 -0.58137053

node_function_neighbor.2.weight f4 [64, 64]
000000 ea 47 b3 3d fe 81 86 bd 1f ee c7 bd 76 d5 5a 3d
       0.08753951 -0.06567763 -0.09762215 0.05342623
000010 b5 d4 7d bd 1a 1a 97 bd e1 87 11 bd e6 2b b7 3b
       -0.06197043 -0.07378025 -0.035529975 0.00558995
000020 ab 81 ce 3d 8d 2e f9 bd bb a6 cf bd 52 3b fd 3c
       0.10083326 -0.12167082 -0.10139223 0.030912075
000030 82 70 04 be 44 e1 0b 3d dc dd 91 bc 63 92 9e 3c
       -0.12933543 0.034150377 -0.017805986 0.019356912
000040 91 4e 8c 3c 5e 61 09 3e 9e 52 e1 bd 16 14 63 bd
       0.017127307 0.13416049 -0.11002086 -0.055439077
000050 82 60 11 be f1 ad d1 3d 75 b8 94 3d a0 fc b5 bd
       -0.14196971 0.10238255 0.07261745 -0.08886075
000060 fa 34 54 3b ae 64 e2 3d 08 81 82 bc 4d 5b 10 3d
       0.003238021 0.110543594 -0.015930668 0.03524332
000070 f5 25 c1 3b c2 5b 16 be 0d bd cc 3b 97 94 89 3c
       0.0058944174 -0.1468344 0.0062481225 0.016794486
000080 ce 77 90 bd a4 6b b0 bc 1d d1 08 be 94 52 d4 3d
       -0.07054101 -0.021535702 -0.1336102 0.10367313
000090 2d 4a b6 3d bd 3b ce 3d 0a 14 c4 3d 3c c5 99 3c
       0.08900867 0.10069988 0.09574135 0.018770806
0000a0 4e 5c 89 3d 0b b8 1f 3d 35 a9 a6 b9 47 72 39 3d
       0.06707059 0.038993876 -0.00031788056 0.045275
0000b0 54 64 35 3d a2 f7 84 bd f3 dc ff bd dd 66 c5 bb
       0.044285133 -0.06492545 -0.124933146 -0.006024225
0000c0 d7 a4 08 be 86 fc 01 3d 77 2a 38 bd b2 90 e0 3c
       -0.13344131 0.031734966 -0.044962373 0.027412746
0000d0 cf 58 e9 3d 58 d5 98 bd bc ce c0 bd f1 12 8c 3c
       0.11393892 -0.07462567 -0.094144315 0.017098876
0000e0 d9 11 b8 3d a6 7a 32 bd 9c 2f 51 3d 7a d9 d4 3d
       0.08987779 -0.043573998 0.051070794 0.10393043
0000f0 01 fd 8b bd 94 3d 02 3d f5 eb a7 3d d4 e7 ca 3c
       -0.06835366 0.031797007 0.08199302 0.024768747
000100 e2 1a 06 3d 51 57 01 bd 0b 07 0f be 97 11 26 be
       0.03274048 -0.031577412 -0.1396753 -0.16217647
000110 05 3c a8 3d b3 78 34 3d f7 a5 3d 3c 5c 50 8d 3d
       0.08214573 0.04406042 0.011575214 0.06900093
000120 65 f0 ba bd f1 a2 c3 3c 33 de 35 3d 88 97 51 bd
       -0.09127883 0.023881407 0.04440136 -0.051169902
000130 96 48 cc 3d 42 64 a1 bd d6 d2 23 be 49 e3 fc 3c
       0.09974782 -0.07880451 -0.15998396 0.030870097
000140 3b ff 3e 3d 28 66 b9 bc 1b 54 98 3c 02 5f a4 bd
       0.046630125 -0.02263172 0.018594792 -0.08025934
000150 a4 43 88 3d 23 ca a9 bd 90 a3 9c bb b9 13 2f bd
       0.066535264 -0.08290508 -0.0047802404 -0.04274342
000160 3f 77 2d 3d ab f2 d4 bd 74 ab d7 3c 95 2b e4 bd
       0.04235005 -0.10397848 0.026326872 -0.11141125
000170 e8 7e 72 3d 16 56 07 be fe d7 96 3d cd ca 1f 3d
       0.05920306 -0.13216433 0.07365416 0.039011765
000180 00 f3 89 3d f8 a3 b5 3c c6 e0 0b be 20 07 4f bc
       0.06735802 0.022172913 -0.13659963 -0.012635976
000190 19 fd c3 3d 10 13 ca 3c 34 d6 db bd 33 a1 f8 3c
       0.09569759 0.024667293 -0.107342154 0.030350303
0001a0 73 79 0b be 2f b4 d9 3d a7 72 d8 bd 10 1c 97 3d
       -0.13620548 0.106300704 -0.10568743 0.07378399
0001b0 a8 46 c3 3d 8e 8d ce bd 38 e1 eb 3c 28 25 e4 bd
       0.09534961 -0.10085593 0.028793916 -0.111398995
0001c0 28 33 c3 bd 5e b3 24 bb a8 91 86 3d 84 b7 80 3d
       -0.09531242 -0.0025131325 0.065707505 0.06285003
0001d0 ee 12 1c bc 65 41 65 3d d7 6e be bb 10 6a b1 3d
       -0.009525998 0.05597057 -0.005811553 0.08662808
0001e0 98 dd 9b bc 98 43 0f be b9 12 15 bd cb e9 06 3c
       -0.019026563 -0.13990629 -0.03639481 0.0082344515
0001f0 d9 d6 21 bd b5 10 2a bc d9 4e 8a 3c c9 ff fb 3c
       -0.039511535 -0.01037996 0.0168833 0.030761616
000200 4e 85 bc bd 0d bf 30 3c 0e d4 73 3c b3 02 e3 bc
       -0.09205113 0.010787738 0.014882101 -0.027711248
000210 8a 69 31 3b 11 20 0a 3d 08 ca d1 bd e3 23 12 bd
       0.0027070963 0.033721987 -0.102436125 -0.035678755
000220 a3 cc ec 3c 2f bd 00 bd 8d a2 25 be 5e 00 91 bb
       0.028906172 -0.03143042 -0.1617529 -0.0044250926
000230 fb 15 fd bc 6a 55 4b bd 89 8a e5 bd 37 b6 b1 3d
       -0.03089427 -0.049642004 -0.11208064 0.08677333
000240 66 b4 60 bd 84 e0 08 3e f2 0b b7 bd 00 48 14 be
       -0.05485954 0.13366896 -0.08937825 -0.14480591
000250 d6 72 26 3d ad 06 c4 bb 6b a6 cb 3d 7b 68 43 3d
       0.04063686 -0.005982241 0.09943851 0.047707062
000260 c0 83 01 3d 23 89 08 bd 25 fb f5 bd 41 5e 09 bd
       0.031619787 -0.03333391 -0.12010793 -0.033537153
000270 50 71 44 be 2d 26 23 be c2 f0 31 be 30 05 15 3c
       -0.1918385 -0.15932532 -0.17376998 0.009095475
000280 91 8e 86 bd e3 eb c2 bd e4 a1 14 be c7 54 6d 3d
       -0.06570161 -0.09517648 -0.14514881 0.057942178
000290 02 46 0a 3d a0 32 99 3d 42 96 d4 3b 48 44 56 3d
       0.03375817 0.07480359 0.0064876387 0.05231121
0002a0 49 6b 59 3c 4a d7 99 bd 84 b5 e3 3c e2 d4 66 bc
       0.013270208 -0.07511766 0.027796514 -0.014088841
0002b0 ee bd 3d 3c 02 3a 93 bd 04 dd d7 bc 89 b0 c7 bd
       0.011580927 -0.071887985 -0.026350506 -0.09750468
0002c0 cb 2e 19 bc e1 97 e8 bd 82 60 07 3c 37 33 8b 3d
       -0.009349535 -0.113570936 0.008262755 0.06796878
0002d0 e6 20 f1 bb 40 69 56 3d 2c 82 67 3d 63 55 1a 3c
       -0.007358658 0.052346468 0.056520626 0.009419772
0002e0 40 2c 09 3b c4 d9 c9 bd 5c 87 ca 3c 3f 9b b6 3d
       0.0020930916 -0.098559886 0.024722748 0.089163296
0002f0 1f 37 01 bd 6b d1 01 bd 40 a4 b8 3c 43 4e a7 3d
       -0.03154671 -0.031693857 0.022539258 0.08169224
000300 b3 95 b1 3d e5 b2 19 be 2e d9 87 bc 25 f1 16 be
       0.08671131 -0.15009649 -0.016583052 -0.14740427
000310 10 66 b2 bd 6f c2 11 bd c6 dc 93 bd 6c 3c d8 3c
       -0.08710873 -0.035585817 -0.072198436 0.026395999
000320 a9 f0 de 3c cc 94 c3 3d 70 54 c0 bd 2b f7 c4 bd
       0.027214365 0.09549865 -0.09391105 -0.09617456
000330 62 a4 71 3b d0 8a d2 3c 5e e5 4b bc 39 c8 0a 3d
       0.0036871661 0.025700957 -0.012444822 0.033882353
000340 f0 38 b4 bd 0d 4f 9e bd 1c 36 28 bb 89 5b e0 bd
       -0.087999225 -0.077299215 -0.0025667017 -0.10954959
000350 04 a8 08 3d a0 b8 dd bd 98 e7 a6 3d 3a 2e c7 bd
       0.033363357 -0.1082623 0.08149642 -0.09725614
000360 bf f2 9e 3c eb ed 05 3e ff c1 bf 3c 6f eb f0 3d
       0.01940286 0.1307904 0.023407934 0.117636554
000370 b2 0c e7 bd 32 0a 06 3e e4 1e 98 3d 1a d8 3f 3c
       -0.11281718 0.13089827 0.07427767 0.0117092375
000380 24 96 b1 3c da 98 c8 bd c5 91 88 bd 74 b7 5e bd
       0.021678038 -0.09794779 -0.06668428 -0.054374173
000390 96 49 e9 3d 7e 16 c6 3b 52 79 79 bd f5 57 c2 3c
       0.113909885 0.0060451617 -0.060906716 0.023723582
0003a0 ab 29 dd 3d 1c c8 b8 3d 52 b7 07 bd 33 61 56 3d
       0.10798963 0.09022543 -0.033133812 0.05233879
0003b0 f6 f7 d1 3d fa 12 d9 bd 6e 05 4e 3d 9b a7 94 bd
       0.10252373 -0.105993226 0.050298147 -0.07258531
0003c0 d3 4b d9 bc ea ce 23 3d 26 6a c0 bd c2 06 ba 3d
       -0.026525414 0.03999225 -0.09395246 0.0908332
0003d0 2b 48 0f 3e 01 2c 5c bd 55 28 29 3c 43 14 ca 3d
       0.13992374 -0.053752903 0.010324557 0.09867146
0003e0 28 01 88 bd d0 6c 44 3d 10 8e 58 3d ef 53 99 bd
       -0.066408455 0.047955334 0.052869856 -0.07486712
0003f0 80 ab 86 bd 77 ac ee bd a6 81 1b be 45 0c af 3d
       -0.0657568 -0.11653989 -0.15186176 0.08547262

node_function_neighbor.2.bias f4 [64]
000000 7e 92 86 3c 2a 90 68 3d 5b d0 64 3d 1a 1e ee 3d
       0.016427275 0.05677811 0.055862766 0.11626835
000010 88 73 fe 3c 44 ca 0a be ae 93 d1 bd 31 f5 87 bd
       0.031060949 -0.1355372 -0.10233246 -0.066385634
000020 e6 da 43 bd 02 2b 0a 3e cd 42 3b 3d 12 a2 1a bd
       -0.04781618 0.13492969 0.045718003 -0.03775222
000030 65 89 b6 3c c7 a8 03 3e 27 18 d6 3c a4 f8 41 3d
       0.022282312 0.12857352 0.026134564 0.047356263
000040 31 05 d0 bc 12 13 28 bd 92 b7 58 bd 20 85 22 bd
       -0.0253931 -0.041033812 -0.05290944 -0.03967774
000050 72 91 10 be 68 c3 87 bd ef e0 00 3c 2c 06 ae bd
       -0.14117983 -0.06629068 0.007866128 -0.08497271
000060 28 f3 a2 bc 52 46 86 bc 4d e7 da 3d 92 01 af 3b
       -0.019891337 -0.016390953 0.106886484 0.0053407634
000070 e7 02 bf 3d 7a 38 3d 3d 42 76 1e 3d 03 3a 46 bd
       0.093267255 0.04619644 0.038687 -0.048395168
000080 5b a3 66 3c 53 e6 c6 3d c6 cc cf ba 70 9e f4 bd
       0.014077033 0.097118996 -0.0015853874 -0.11944282
000090 28 0b 93 3c 99 03 c8 3c 84 28 33 bd af 94 09 be
       0.017949656 0.024415778 -0.04373981 -0.13435625
0000a0 7e 84 32 bd bb 9d d8 bd 26 37 04 3c 96 70 ac bc
       -0.043583386 -0.1057696 0.008069789 -0.021049779
0000b0 45 89 f3 3c 13 3c 9a 3d 74 ad f1 bd fd 54 03 bd
       0.029728541 0.075309895 -0.11800662 -0.032063473
0000c0 89 67 34 bc 09 0d 04 3e 88 24 bd bc 59 f3 bc bd
       -0.011011013 0.12895598 -0.023088709 -0.092261024
0000d0 f9 13 01 3d 5d bc bf 3d 7d 04 fc bd d3 f2 90 bd
       0.031513188 0.09362099 -0.123055436 -0.07077565
0000e0 21 e1 38 bd d7 1f 1b bb fd 99 cf bd f9 d6 43 3d
       -0.045136575 -0.00236701 -0.10136793 0.047812436
0000f0 67 94 8a bd 12 f4 9f 3d c0 78 57 bd 65 83 87 3d
       -0.06766587 0.078102246 -0.05260539 0.066168584

node_function_neighbor.4.weight f4 [64, 64]
000000 f5 52 d3 3b 13 df 79 3d a6 8a 0b bd 35 b9 16 be
       0.0064490982 0.061003756 -0.034067772 -0.14719088
000010 d9 5a 21 bd a3 0c ff bd 60 c5 40 3d 6b 3a 82 bd
       -0.03939328 -0.12453582 0.04706323 -0.063587986
000020 d6 85 59 3d 62 c8 5e bd cf c7 f5 bd 1d 4a ad 3d
       0.05310615 -0.05439032 -0.12001001 0.084614016
000030 58 14 eb bd 44 cc 8e 3d 90 50 9a bc 13 c6 be 3d
       -0.1147849 0.06972554 -0.018837243 0.093151234
000040 37 cb 1b be 68 66 81 3d aa fa c9 37 c0 c6 66 bc
       -0.15214239 0.063183606 2.4077792e-05 -0.014085472
000050 41 8e 7c bd 4d 23 b6 bd 97 78 2f be a8 fc 91 bd
       -0.0616591 -0.08893452 -0.17135845 -0.071282685
000060 b0 fd 90 bd a4 2e c7 bd 5a ce 38 bd df c7 88 bb
       -0.07079637 -0.09725693 -0.045118667 -0.004174217
000070 52 20 d5 bd d9 29 80 bd ae ca ff 3c 5f 1f 6a bd
       -0.10406555 -0.06257982 0.031224575 -0.057158824
000080 e1 04 d1 3c c0 59 6a bd 89 c3 e1 bd cd 58 72 3d
       0.025515022 -0.0572145 -0.110236235 0.05916672
000090 24 d9 51 bd 8d 9a 18 be 66 03 cc 3d 15 12 23 3d
       -0.051232472 -0.14902706 0.09961586 0.039812166
0000a0 18 b2 a8 bd 04 7d 93 bd 19 d4 5c 3d 3e f7 1f bc
       -0.08237094 -0.07201579 0.05391321 -0.009763537
0000b0 6f 8b 39 3d b3 f4 30 bd a8 63 66 bd 2d d1 c5 bd
       0.04529899 -0.043202113 -0.056247383 -0.09659038
0000c0 8d e7 ee 3c 43 e1 ad bd cc bf ba 3d 0a c3 c5 bd
       0.029163146 -0.08490231 0.091186136 -0.096563414
0000d0 a6 6c 0f 3c 2c 48 5c 3a db 71 cb bd 78 6b ba bc
       0.008753931 0.00084030884 -0.099338256 -0.022756323
0000e0 fe f0 4d 3d 07 73 e4 bd a3 5a c0 bd 75 c6 e6 bd
       0.050278656 -0.11154752 -0.093922876 -0.112683214
0000f0 16 09 dd 3d 8c 8b 0b be 54 f7 89 bd 5c 1b 62 3d
       0.10792749 -0.13627452 -0.06736627 0.055201873
000100 3a 40 01 3e 83 19 36 bd 8d 45 a2 bd 59 8e 11 be
       0.12622157 -0.044457924 -0.07923422 -0.14214458
000110 2a 44 31 bc 94 00 01 bc 07 3b 1c 3d 71 d8 74 bd
       -0.010819474 -0.007873673 0.03814223 -0.059776727
000120 a2 19 15 be 00 f1 ed 3c 12 e2 4b 3d d1 0a 53 3d
       -0.1456056 0.029045582 0.049776144 0.051523987
000130 30 4c 11 be a7 4b 3a bd 43 c2 91 3d e1 b4 bd bd
       -0.1418922 -0.045482304 0.071171306 -0.092630155
000140 ac 12 56 bd 61 59 02 3e 47 84 9f bc d0 7b ef 3d
       -0.0522639 0.12729408 -0.019472254 0.11693537
000150 7b af 7b 3c aa 3d 5a 3d 0f 4c 18 bd 27 e9 eb bd
       0.015361662 0.053281464 -0.03718191 -0.1151908
000160 30 25 94 bc 7c d8 e1 bc 70 7d 04 3e 6f b0 83 3e
       -0.018084139 -0.027569048 0.12938476 0.25720546
000170 9b 97 a3 bd 30 09 d6 3d 39 2e 38 bd 57 8b e7 bc
       -0.07987901 0.10450971 -0.044965956 -0.028264685
000180 ce 87 ba 3b c3 b4 d2 3d 2a 4b d7 3b dd 36 0c 3e
       0.0056924587 0.10288384 0.0065702396 0.13692804
000190 9f 76 d0 bd 84 0e d2 3d 5c f5 40 bd 4c 00 58 3d
       -0.10178875 0.10256675 -0.047108993 0.052734658
0001a0 be b3 d1 bd c5 a5 d6 3d 4e d9 12 bb e9 a7 b4 3d
       -0.10239361 0.10480837 -0.0022407356 0.08821089
0001b0 fd a6 08 be a1 8c 1f be 53 6a bf bb 52 cc c3 bd
       -0.13344951 -0.1558099 -0.0058415323 -0.095604554
0001c0 c0 bc 27 be 58 64 27 bd 44 45 08 3d a4 f1 85 3c
       -0.16380596 -0.04086718 0.03326918 0.016350575
0001d0 5e 5a b2 3d eb 1f ab bd cb 92 ca bc 0c 77 6a 3d
       0.087086424 -0.08355697 -0.0247282 0.05724244
0001e0 c0 0a 73 3e 1f b4 65 3c ac 1a 07 3e 7f 63 8a bd
       0.2373457 0.014019995 0.13193768 -0.067572586
0001f0 21 2b cd 3d 84 36 82 3d 0a 1a 8a bd 40 ad 6c bd
       0.10017992 0.06358054 -0.06743248 -0.05778241
000200 07 8f 6b bc 3e 2a e8 3d 10 c3 90 bb 40 04 f9 3d
       -0.014377362 0.11336182 -0.0044177845 0.12159014
000210 b6 fa ef 3c 72 a1 d1 3c 0d 67 ac 3d 3b 5d 82 bd
       0.029294353 0.025589678 0.08418093 -0.063654386
000220 3b 4e 7f bd 53 a6 21 bd 06 9b 03 3c c3 04 de 3d
       -0.062330466 -0.03946526 0.008032566 0.10840752
000230 27 a2 99 bc ad 61 bf 3b c7 f8 a5 bd cf 4b cf bd
       -0.018754078 0.0058405013 -0.08104091 -0.10121881
000240 8d ac a4 3d 76 b8 41 bd c9 22 e4 bd f4 7f 8a bd
       0.08040724 -0.047295056 -0.11139447 -0.06762686
000250 10 01 26 3d f9 5e bb bd b0 4a a6 3d 68 81 e0 bd
       0.040528357 -0.09148974 0.08119714 -0.10962182
000260 54 9e 3c bd 1a fa b6 3d 24 40 ae bb 90 1e a9 bd
       -0.04604943 0.08934422 -0.0053177048 -0.082577825
000270 dc bc 84 3d 2a 5b ad 3c 44 b2 03 3c dd e9 7e bd
       0.064813346 0.021161634 0.008038107 -0.06223475
000280 01 af ad 3d de 27 dd 3d e4 70 13 3e d4 7a 07 bd
       0.08480645 0.1079862 0.14398533 -0.033076122
000290 ad 17 f2 3d 0c 5e 4a 3d 00 64 0c 3b 27 f7 66 bd
       0.11820922 0.049406096 0.002142191 -0.056388047
0002a0 cc 43 8f bd 05 91 d5 3c c8 2f a3 3d 38 90 3e bc
       -0.06995353 0.026070127 0.07968098 -0.011631064
0002b0 7a 2c c8 3d 4c 65 c5 bd 2d f0 9c 3d f4 13 00 3e
       0.09774108 -0.096384615 0.076629974 0.12507612
0002c0 77 75 bd bd 9a 2d 4c bd 53 79 80 3c 6c 5e 4d bc
       -0.0925092 -0.049848177 0.015682852 -0.012534719
0002d0 42 e5 9a bd ba 55 2d bd c6 4e c7 3d 81 5f bc bd
       -0.07563259 -0.042318083 0.09731822 -0.091979034
0002e0 10 90 e5 bc 57 c6 dd bc 48 54 dc 3c bb 64 a4 bd
       -0.028022796 -0.027072115 0.026895657 -0.08027025
0002f0 52 24 67 3d e4 fd 85 3d 2e 6f fa bd 15 a0 a5 3d
       0.056431122 0.065425664 -0.12228237 0.08087174
000300 a7 81 83 3d 8b d8 45 bd b4 a2 8a bd 0c e4 34 bd
       0.064212136 -0.048302215 -0.067693144 -0.044162795
000310 21 a3 45 bd 99 f0 88 bd fc 5b 3b 3d 5c 79 cb 3d
       -0.048251275 -0.06686515 0.04574202 0.09935257
000320 c2 d6 e3 bd b1 af 0a bd d4 8e 4f b9 78 ef 25 3d
       -0.11124946 -0.03385896 -0.00019794266 0.04051158
000330 18 8f 8a bd 29 85 cc bd bc 6c 11 3d 25 eb fe bd
       -0.06765574 -0.09986336 0.035504088 -0.12447194
000340 70 e1 fe bd 56 cb 03 3e e1 71 85 bc d8 66 74 3d
       -0.124453425 0.12870535 -0.016289653 0.059668392
000350 e0 eb f3 3c b4 df a5 bd be 7a f0 bd 2c 23 aa bd
       0.02977556 -0.080993086 -0.11742161 -0.0830749
000360 68 f4 0f bd f7 ca ac 3d e0 2b c0 3c c1 fb c2 bd
       -0.035145193 0.0843715 0.023458421 -0.095206745
000370 a0 4a 86 3d da aa 0c be e1 e5 b9 3d c7 1f b0 bc
       0.06557202 -0.1373705 0.09077049 -0.021499528
000380 e3 36 1f bd 5b f2 8d bd 2e 85 98 3c a8 a3 85 bc
       -0.038870703 -0.06930991 0.018618193 -0.016313389
000390 aa fa 71 bd ca 21 09 bd c8 86 d0 3c 78 af e7 3d
       -0.059076943 -0.03347949 0.025454894 0.11312765
0003a0 6b dd 85 3d 7b d5 d9 3d bc 24 55 3d fd 8a bf bd
       0.06536373 0.10636421 0.052036986 -0.09352682
0003b0 20 0e 13 bd 90 e0 36 bd a5 9f 28 bd 3b d4 8f bd
       -0.035902143 -0.044647753 -0.041167874 -0.070229016
0003c0 87 a9 5c 3d 51 ac 85 ba 64 f2 3b 3d 39 f7 b3 3d
       0.05387261 -0.0010198449 0.04588546 0.08787388
0003d0 17 b3 36 3d 6f 97 d8 3d 7d 07 c7 bd 4f 64 be 3c
       0.044604387 0.10575759 -0.09718225 0.02324119
0003e0 c9 0a f9 3d dd 54 c7 bd b3 49 9c 3d 39 f9 8a bd
       0.1216026 -0.09732983 0.076312445 -0.06785817
0003f0 db 31 4b 3d 48 c8 b3 3d b4 48 12 bd 4e f0 d1 ba
       0.049608093 0.08778435 -0.035713866 -0.0016017051

node_function_neighbor.4.bias f4 [64]
000000 92 ab 13 3d 56 7e 9e bd f8 79 ee bc 16 ba 6c 3d
       0.036052294 -0.077389404 -0.029110894 0.057794653
000010 af c0 ff 3c 44 eb eb 3d ba 8a 39 bd 70 60 0a bd
       0.031219808 0.11519483 -0.045298316 -0.033783376
000020 b1 da 16 be a2 29 04 bd 28 bc 06 3c 70 f5 a0 bd
       -0.14731862 -0.032266267 0.008223571 -0.078593135
000030 46 74 74 bd ca 85 c7 3b e6 d7 f9 bd 1a dd 10 bd
       -0.0596812 0.006088947 -0.121993825 -0.03536711
000040 19 bc 41 bd f4 a9 13 bc b1 47 10 3e 72 bc 9a bd
       -0.047298525 -0.009012688 0.14089848 -0.07555474
000050 e1 56 61 3d bf ae a4 bc 37 df 80 bd 4c e1 d0 bc
       0.055014495 -0.020102857 -0.06292575 -0.025498055
000060 62 cd 26 3e 60 53 c4 3c d5 55 85 bd 43 0e ca 3d
       0.16289285 0.023965538 -0.06510512 0.098660015
000070 88 db d1 3c 59 57 66 3d 3a 99 2f 3e 85 35 97 3d
       0.025617376 0.056235645 0.17148295 0.07383255
000080 52 59 86 bd 56 4d d9 3c 9f f7 87 bc fe 25 33 be
       -0.06560005 0.026526134 -0.016597567 -0.17494962
000090 e4 03 ac bd c7 b9 09 bd 7c 4e 15 3c e4 c0 08 bd
       -0.083991796 -0.033624437 0.00911295 -0.03338708
0000a0 89 1a 1f 3e ff 36 b6 bd 76 f7 5e 3e 28 d3 85 bd
       0.15537466 -0.088972084 0.21774086 -0.065344155
0000b0 48 73 c3 3c e1 bb d3 bd d6 28 2e 3c 66 b7 d4 3c
       0.023858681 -0.103385694 0.010629853 0.025966357
0000c0 f2 ce d5 bc 28 0d 46 bd e9 88 19 3e a1 27 16 bd
       -0.026099656 -0.04835239 0.14993633 -0.036658887
0000d0 9d 92 d6 3c 22 74 88 bd d6 b0 c8 bc 07 71 e0 bd
       0.026192958 -0.066627756 -0.024498384 -0.10959058
0000e0 2e 0b b4 bd 26 95 2d 3d c2 0e 05 3e 37 d0 9f 3d
       -0.08791195 0.042378567 0.12993911 0.07803386
0000f0 1f 9a bf bc 66 b5 46 bd 52 d9 70 3d 80 06 13 bd
       -0.02338892 -0.04851284 0.058801003 -0.03589487

node_function_neighbor.6.weight f4 [4, 64]
000000 02 e7 27 3a 4b be 09 3e 25 9b 95 3d 93 80 6c bd
       0.0006404967 0.13451497 0.07304982 -0.057739805
000010 f0 09 97 3c 98 fb 7a 3d 95 47 1a 3c f1 ed 9b bc
       0.018437356 0.061275095 0.009416481 -0.019034358
000020 03 e1 aa bc 31 a6 f5 3d a5 40 c4 3d a3 a2 64 bd
       -0.020859247 0.11994589 0.095826425 -0.055819165
000030 b3 97 8f 3d 35 93 17 bd a3 af 96 3c d6 30 35 bd
       0.07011356 -0.037005622 0.018394297 -0.044236027
000040 d3 2c 0d 3c ce 2c df 3c df d7 44 3c bf 7f 35 bc
       0.008616644 0.027243044 0.012014358 -0.01107782
000050 f7 b6 5f 3d 69 8a 5d 3d de 96 38 bd da e9 79 bd
       0.05461785 0.054087076 -0.045065753 -0.061014034
000060 99 f5 0c 3e 73 f6 cb bb 72 d6 82 bd b5 32 7a 3d
       0.13765563 -0.0062244474 -0.063885584 0.061083514
000070 d8 51 10 bd 51 a1 3c 3d ee ff 12 3d 03 cf b4 bc
       -0.035234302 0.04605228 0.035888605 -0.022071367
000080 16 15 a4 3d ea dc 90 bd 1c 32 19 3c 74 42 c5 bb
       0.08011834 -0.07073386 0.009350326 -0.0060198847
000090 9a 93 1c 3c 22 91 cd 3d a2 c5 32 3d 2f fc f1 3b
       0.009556675 0.100374475 0.04364551 0.007384799
0000a0 18 cd 15 3e 60 9b 86 bd 50 33 10 3e 25 4c a3 bd
       0.14629018 -0.06572604 0.14082074 -0.07973508
0000b0 92 cc 0a bd 2a e1 be 3c a6 94 cf 3d db 4a 94 3d
       -0.0338865 0.023300726 0.10135774 0.0724084
0000c0 cf 7f 37 3d 3a d4 24 bc 36 90 bb 3d af 13 c4 3d
       0.044799622 -0.010060364 0.091583654 0.09574067
0000d0 1c 9e d5 3c 34 5d 4f bd ee c5 ed bb 82 9f 77 bd
       0.026076369 -0.050625995 -0.007256261 -0.060454853
0000e0 2e b1 c9 3d 44 a4 22 3e 99 35 14 3e 02 59 df 3d
       0.098482475 0.15882975 0.14473571 0.10905649
0000f0 46 ee 08 3e c1 99 4b 3d 14 3c 0c 3e bd 7c 91 3d
       0.13372144 0.049707178 0.13694793 0.0710387
000100 69 a4 f8 bb 7a 59 a8 3d 6f b9 69 bd dc 07 33 bd
       -0.0075879586 0.08220191 -0.05706161 -0.043708667
000110 7d ca e4 3d 3e e8 04 be bd 45 d3 3d 37 a7 d4 3d
       0.11171434 -0.12979218 0.10316036 0.10383456
000120 2f ef bc bd 44 c2 db bd c1 ba d6 3d ee 2f bb 3d
       -0.09225308 -0.107304126 0.10484839 0.09140001
000130 b5 38 37 bd 47 3e ea 3d bd 23 ad bc a2 9a 3d bc
       -0.044731814 0.1143766 -0.021135205 -0.011572512
000140 35 eb d5 3d 0b 21 8e 3d 8a d6 bb 3d dc a5 0a 3d
       0.10445253 0.06939896 0.091717795 0.033849582
000150 63 02 22 bc ad b0 68 3d 24 31 a3 3c fe dc 85 bd
       -0.009888264 0.056809116 0.019920893 -0.065362915
000160 09 91 8c bd b7 98 4b bd 96 80 40 3c c9 41 9c 3d
       -0.06863601 -0.049706187 0.011749407 0.07629735
000170 e0 fd e8 bc f8 41 cb 3d 24 5c b9 3e ab a8 de bb
       -0.02844137 0.09924692 0.3620311 -0.006795009
000180 08 f7 65 bd ab bd 59 3d ca f9 3e bd f0 78 69 bd
       -0.05614379 0.053159397 -0.046624936 -0.0570001
000190 eb c4 b7 3c 15 ff 52 bd 4f ca 27 bd c1 8a 93 3d
       0.022432765 -0.051512796 -0.04096442 0.072041996
0001a0 9c 8c 6e 3d c5 56 00 3e 16 bc 2d be ff bb c5 bd
       0.058239564 0.125331 -0.1696628 -0.09654998
0001b0 ce b5 88 bd 47 3e c9 bd 49 ee 2f bd 4d ce 99 bd
       -0.066753015 -0.098263316 -0.042951856 -0.07510052
0001c0 64 01 c2 3d 23 93 03 3c 21 69 93 bd 06 ea c2 3d
       0.094729215 0.008030686 -0.07197786 0.09517293
0001d0 39 10 1e 3d 3f 7d 41 3d ae da 43 bd 64 54 7d 3d
       0.03858969 0.047238585 -0.04781597 0.06184806
0001e0 f6 3a c7 bc 37 b5 b3 bd 12 e2 d2 bd 56 4f a8 3d
       -0.024320107 -0.08774798 -0.10297026 0.08218257
0001f0 8f 82 a1 3b 9c 82 8c 3d e7 47 c5 bc 31 f7 3f 3d
       0.004928894 0.06860849 -0.024082137 0.0468666
000200 a2 ad 6f 3d c8 d4 33 3d a7 f4 29 3a 6c ba ae bd
       0.0585152 0.043904096 0.00064832944 -0.08531651
000210 7d ff a8 bc 6c e4 55 bd 3e 0d c9 bd 9c 22 98 bd
       -0.020629639 -0.052219793 -0.09816979 -0.07428476
000220 61 84 9c 3d 7c 59 7e 3d 0f da cc bd 46 e0 c0 3d
       0.07642437 0.062097058 -0.10002529 0.09417777
000230 97 ea ce bd e1 57 d0 bd 4f 14 7b bd 6d 4c 31 3d
       -0.10103338 -0.101730116 -0.061298665 0.043285776
000240 29 5e e2 bc c9 36 ec 3c 91 ee 71 bd 30 f2 8a bc
       -0.02763279 0.028834717 -0.059065405 -0.016961187
000250 f6 a4 2c 3d 35 76 cd bd 12 4a 63 3d 85 ab 00 be
       0.042149507 -0.10032312 0.05549056 -0.1256543
000260 f0 a3 4d ba 3c 58 86 3d f5 0d 63 bd 0e 98 dc bd
       -0.0007844558 0.06559798 -0.055433232 -0.1077119
000270 f6 13 89 3d 31 d6 bc bd e6 7e 52 bd 10 cc ea 3d
       0.0669326 -0.09220541 -0.05139055 0.11464703
000280 d1 ce ce bd 56 52 cc 3c db 62 09 bc fb 6a 05 3e
       -0.10098041 0.024941605 -0.008385385 0.13029091
000290 67 57 ff bb 4f c6 d0 bd 5e ea a8 3d 3e af 3e bd
       -0.0077924016 -0.10194074 0.08247827 -0.046553843
0002a0 ca 88 bc bd 19 f8 2d bd 87 80 9b bd 9c 69 bd bd
       -0.09205778 -0.042472932 -0.07592874 -0.09248659
0002b0 4f ff 91 bd 40 70 aa 3d 38 bc 9f bc c6 61 c1 bd
       -0.071287744 0.08322191 -0.01949893 -0.09442477
0002c0 8d fa 73 3c ec 44 c0 bd 9d 40 6c bc 30 c5 1a 3d
       0.014891279 -0.09388146 -0.014419702 0.03778571
0002d0 d7 08 c9 bd 04 aa a5 3c 2e 11 6f bd 76 ee 02 be
       -0.09816139 0.020222671 -0.058365993 -0.12786278
0002e0 8d b3 0f 3d a2 03 da 3d ad 0a 75 3d 0b 76 38 bd
       0.035083342 0.10645224 0.059824634 -0.04503445
0002f0 30 40 08 be ed f1 b4 3c 19 d6 b4 3d ad 19 cb 3d
       -0.13305736 0.022088015 0.088298984 0.09917007
000300 ee 4b 6f bd ae 1b f2 3c 9a dc d6 bd 62 ac fa bd
       -0.05842202 0.029554214 -0.10491295 -0.12239911
000310 13 2a 09 be b9 1a 84 3d e9 17 43 bb a7 a8 bf bd
       -0.13394956 0.064504094 -0.002976889 -0.0935834
000320 3d ce bb 3b f8 6f 07 bd 4a 1a 2b 3d 6c 4d 2f bc
       0.0057313726 -0.033065766 0.041773118 -0.010699611
000330 90 0d b5 bd e3 51 ce bd 31 1e c9 bc 1a e9 7f 3d
       -0.088404775 -0.100742124 -0.02455053 0.062478162
000340 3d d7 4e 3d 05 8e 1d 3d 52 dd eb bd b2 33 69 3d
       0.050498236 0.03846552 -0.11516823 0.056934066
000350 66 dc 3c 3c e1 93 1f 3d f3 47 14 3e b7 cc 86 3d
       0.011527156 0.038959388 0.14480571 0.06582015
000360 2a d3 5a bd 50 d9 03 3d cb cb 42 3d 85 e8 2e bd
       -0.053424038 0.032189667 0.047557633 -0.042702217
000370 80 4f d1 bb 67 3c af bd af 2d dd 3a 6c f8 c7 3d
       -0.006387651 -0.08556443 0.0016874577 0.097641796
000380 74 8b 0b be bd ef 5b bc 62 d6 cb bc 0b b4 2c 3d
       -0.13627416 -0.013423857 -0.0248825 0.04216389
000390 ad 44 00 3c 1a 11 b4 3d be 62 82 3d 33 13 8c bd
       0.007828874 0.08792324 0.0636649 -0.068395995
0003a0 3a d1 be bc 74 7c 73 3d 3f 73 9d bd 5d 9c 4a bd
       -0.023293126 0.05944486 -0.07687997 -0.049465526
0003b0 b0 62 f3 bd 8c d4 95 bd 27 0c d9 bd 91 74 38 bc
       -0.118840575 -0.07315931 -0.10598021 -0.01125826
0003c0 74 bb a6 3d 37 b0 ca bd 89 67 86 bd fd 2b dc 3c
       0.081412226 -0.098968916 -0.065627165 0.026876444
0003d0 9e 07 45 bd 2d a8 c9 bd 12 4d 95 3d 08 31 1d 3d
       -0.048102967 -0.0984653 0.072900906 0.038376838
0003e0 02 d0 14 3c 2a c9 e1 bb b7 49 ab bc be 27 a5 3c
       0.009082796 -0.0068904357 -0.020909173 0.020160552
0003f0 5d ce ae bd 4e c7 90 bd e4 42 dd bc 34 55 95 bc
       -0.085354544 -0.07069264 -0.027009435 -0.018229105

node_function_neighbor.6.bias f4 [4]
000000 6c b5 c3 3d d8 bb 92 bd 00 3b a1 bd c7 56 d1 bd
       0.09556088 -0.071647346 -0.078725815 -0.102216296

edge_function.0.weight f4 [64, 4]
000000 4d 34 cf 3e 44 28 f4 be af f9 83 3d 1a 8d 89 bd
       0.4046959 -0.4768697 0.06444108 -0.06716366
000010 44 6c c1 3e 34 55 70 be 66 35 e3 be c2 64 34 be
       0.37777913 -0.23470002 -0.44376677 -0.17616561
000020 5c 60 45 3e b0 35 e8 be d8 94 b0 be 83 c8 71 3e
       0.1927504 -0.4535346 -0.3448856 0.23611645
000030 a7 d8 af bd 8d 55 9b 3d c0 3a a0 3e 00 ab 01 3e
       -0.08586245 0.07584677 0.31294823 0.12662888
000040 d1 59 e5 3e 46 ba 10 be 41 6c 32 3e 51 77 c3 3e
       0.44795087 -0.14133558 0.17424108 0.3817697
000050 7e dc 62 be 69 cb 02 bf 3b db e3 be 1f b0 d2 bd
       -0.22154424 -0.5109163 -0.44503197 -0.10287499
000060 bf 21 91 be 9f ac 1a 3e 9c 8e a8 3e 2d 29 d3 bd
       -0.2834606 0.15104912 0.32921302 -0.10310588
000070 74 4e 95 bd 19 b0 a8 bd ea 00 a2 3e 55 15 de be
       -0.07290354 -0.08236713 0.31641322 -0.4337565
000080 c3 29 ef be 7c 78 67 3d 5a ba 83 be b8 b8 24 be
       -0.4671155 0.056511387 -0.25728112 -0.1608609
000090 3d c1 ae be ba bd a4 3e d4 72 6a 3e f7 33 c3 bd
       -0.34131804 0.32176 0.22895366 -0.09531396
0000a0 49 38 6e be 0a 3a a9 bd 42 6f 8f be a8 64 c5 3e
       -0.23263659 -0.08263023 -0.2801457 0.38553357
0000b0 ca e1 8e be b4 8c d4 bd 9d bf 4c be 85 b4 c1 3e
       -0.27906638 -0.103783995 -0.1999497 0.37833038
0000c0 e9 1f ec bd c9 44 a2 be e3 36 59 3d b6 bd e3 3e
       -0.11529524 -0.31693104 0.05303086 0.44480675
0000d0 fb 7a a3 bb 69 35 b7 be eb 3b e6 3e ef b0 94 be
       -0.0049890256 -0.35782936 0.4496759 -0.2904124
0000e0 78 a6 d0 be 2c fe d5 3e e2 e1 8a 3e f8 66 03 bd
       -0.40752006 0.4179548 0.2712546 -0.03208062
0000f0 aa 18 43 bd 9c 9b c5 3c f7 26 da 3d 1e 0d 8b 3d
       -0.047630943 0.024122052 0.10651963 0.06789611
000100 7e c4 90 bb 6e ab b7 3e 40 fe 46 bc a6 c5 bd be
       -0.004417955 0.35872978 -0.012145579 -0.37064856
000110 d1 10 4d 3e 31 15 ee 3e 95 3b ae 3c 50 56 6c be
       0.20025946 0.46500543 0.021268645 -0.230798
000120 5f 29 c0 be 08 f5 b2 be 36 5d e7 3c be fa bc 3d
       -0.37531564 -0.3495257 0.028242689 0.09227513
000130 c3 66 87 be 4c c1 80 be b1 10 76 3e f9 91 76 3e
       -0.26445588 -0.25147474 0.24029805 0.24079122
000140 87 ff 9a be d0 92 cc bd 9b 63 f9 be f2 ab f2 3e
       -0.30273077 -0.0998894 -0.48708805 0.4739681
000150 c4 6d d5 be 75 c8 06 3e ca 9d 03 be 09 dd d0 be
       -0.41685307 0.13162406 -0.1285316 -0.40793636
000160 81 51 67 be 2a 4d df 3e d5 52 61 3e 10 3b 6a 3e
       -0.22589685 0.4361356 0.22004254 0.22874093
000170 d6 98 e0 3e e9 3f c5 be f0 b1 af 3e b1 32 e2 3c
       0.43866605 -0.38525322 0.34315443 0.027612062
000180 d9 ec ce be 80 db 92 3d 0f 2f e3 3e 3d d0 39 3c
       -0.40415075 0.071707726 0.4437184 0.011341152
000190 88 2f 9b bd 34 2f ba be 25 2e 3f 3d 5e 40 b9 3d
       -0.07577425 -0.36364138 0.046674866 0.0904548
0001a0 21 82 b4 3c 07 0a b6 3d 7d 9d 5c be 36 36 ed be
       0.022034707 0.08888631 -0.21544452 -0.46330422
0001b0 12 77 f9 bd a9 72 6d bc 2b 1a 4c 3e 2a 73 ef 3e
       -0.12180914 -0.014492669 0.19931857 0.4676755
0001c0 e9 a8 5f be f7 6a 85 3e cb 74 00 bd 6e 5e 18 be
       -0.21841778 0.2605817 -0.031361382 -0.14879772
0001d0 73 35 d4 be a4 54 93 be 43 99 e9 3e 6d ee 9f 3d
       -0.4144703 -0.28775513 0.45624742 0.07809148
0001e0 87 f7 63 3e 3a c1 0c 3e c6 41 02 3e d7 e1 ef 3d
       0.22262393 0.13745585 0.12720403 0.117129974
0001f0 97 1c 85 3d eb 8a dc 3e 11 61 69 3d 88 f6 ad 3c
       0.06499594 0.43074736 0.056977335 0.02123572
000200 e5 98 87 3e 78 4f c3 be fe fe 97 3e 7a 61 fa 3d
       0.26483837 -0.38146567 0.2968673 0.122256234
000210 79 c9 e0 be e0 a0 ac be 88 4a f3 3e 65 dc 50 3c
       -0.4390371 -0.33716488 0.475178 0.012747859
000220 d4 7f d0 be 53 0a 98 bd 83 ff dd 3d 63 b4 b2 be
       -0.40722525 -0.07423844 0.108397506 -0.3490325
000230 ed 52 f2 3e aa d9 f5 3e 4d 5b c2 3c 7a fb 7a 3e
       0.47328892 0.48017627 0.023725176 0.24509993
000240 3a 2f 92 be dd 76 1d be 2f 44 d0 bc 75 a1 a7 be
       -0.28551656 -0.15377374 -0.025423137 -0.3274037
000250 97 c4 c6 3d 5d b5 9b be ca 13 90 be 5f cf e9 3e
       0.09705465 -0.30411807 -0.28140098 0.45666024
000260 c8 ab 82 ba 4c f4 f2 be 09 4e 3c 3e df 1b 12 3d
       -0.0009969408 -0.4745201 0.18389143 0.03567111
000270 47 ef 7e bd 5f ac 74 3e 33 10 e7 be 7d 0b bc 3e
       -0.06223991 0.2389388 -0.45129547 0.36727515
000280 46 54 3a 3e a8 9f cd be 31 f2 ad 3e 68 2c 9c 3e
       0.1819621 -0.4016087 0.3397384 0.3050263
000290 15 d8 d6 3e 07 db 00 be 99 7c b9 bd 02 84 a2 3e
       0.41961733 -0.12583552 -0.09056968 0.3174134
0002a0 06 8f 73 3d d3 4b 9b 3e 83 f6 65 be f8 f2 a7 be
       0.05946257 0.30331287 -0.22457318 -0.32802558
0002b0 4b 27 91 3e 88 69 c9 3e eb 63 ba 3e 21 7c c4 3e
       0.2835029 0.39338326 0.36404356 0.38375953
0002c0 54 94 28 be aa 61 9f 3e e6 c7 ef be e0 26 bd 3e
       -0.16462833 0.311292 -0.46832198 0.36943722
0002d0 7a d4 16 be ac 5d 75 3e 2f a9 83 3d 13 78 71 3e
       -0.14729491 0.23961514 0.064287536 0.23580961
0002e0 3f a6 44 bd 63 d3 a9 be 0a 50 86 3e c7 b4 92 be
       -0.048010107 -0.33169088 0.2623294 -0.28653547
0002f0 e2 8f df 3e 43 50 ca 3e 79 02 9d 3d c6 10 fa be
       0.4366446 0.3951436 0.07666487 -0.48840922
000300 23 e9 dc 3e 2f db 21 3e fc 93 88 be 71 95 bc be
       0.4314662 0.15806268 -0.26675403 -0.36832765
000310 4c 4a 3b be e0 c8 2f be 0f b7 30 3d 8b 0b b5 be
       -0.18290061 -0.17166471 0.04314333 -0.3536037
000320 7c 0a dd bb eb c3 45 be eb 12 ba 3e f2 53 80 3d
       -0.0067456346 -0.19313018 0.36342558 0.06266011
000330 13 93 8b 3c dc 8a a9 be 6f f6 c5 3e 14 dd 9a 3e
       0.017037904 -0.33113754 0.38664576 0.30246794
000340 26 3f 92 3e 5e fd 4f be b6 51 3f 3e fe d2 9c bd
       0.28563803 -0.20311496 0.18683514 -0.07657431
000350 98 7d 98 bd 39 97 ed be 57 eb 39 3e 36 f6 a3 be
       -0.0744583 -0.46404436 0.18156181 -0.32023782
000360 eb 67 28 bd b6 b2 a2 be 70 4d a4 3e 0d bd 7c 3e
       -0.04111473 -0.3177697 0.3209033 0.24681492
000370 f3 28 59 3e bc 3e 60 3e 65 3e ab 3e 9e 33 ff 3e
       0.21207027 0.21898931 0.3344604 0.49844068
000380 58 bf aa be e6 9f bc 3e 1c c0 c6 3b c6 cd fe 3d
       -0.3334911 0.36840743 0.0060653817 0.12441592
000390 cf 58 07 3e f1 05 f1 3e b7 58 27 be d3 51 ba bd
       0.13217472 0.47074845 -0.16342436 -0.09097638
0003a0 5b 56 bc 3e a5 39 91 3e be bc 1f 3e 9e f5 0d 3e
       0.36784634 0.28364292 0.15599343 0.13863227
0003b0 bf e4 02 be 66 2c 2f 3e 8f 04 71 bd 01 c7 5c 3e
       -0.12782572 0.1710678 -0.058842238 0.21560289
0003c0 f3 f9 96 be 5b b6 47 3d 08 c9 76 3e 86 19 eb bd
       -0.2948757 0.048757892 0.24100125 -0.114794776
0003d0 f7 54 b6 bc 60 f7 78 be 95 ef d5 3e e2 93 d7 3d
       -0.022257311 -0.24313116 0.4178435 0.10526253
0003e0 50 aa 96 3e 11 db 73 bc d5 e6 6e be 66 82 f8 bd
       0.29426813 -0.0148837725 -0.23330243 -0.121342465
0003f0 93 97 84 be 11 d7 6c 3d e6 dd ad be 5a 38 4b 3e
       -0.25896892 0.05782229 -0.33958358 0.19845715

edge_function.0.bias f4 [64]
000000 ad 46 5d 3e f2 19 b8 bd c0 d1 71 be 50 b7 8b be
       0.21608992 -0.08989324 -0.2361517 -0.27288294
000010 d7 20 d7 3e 11 d7 a4 3e ea 88 75 be 68 6e 5b 3e
       0.42017242 0.32195333 -0.2397801 0.21428835
000020 42 b0 36 be 40 e3 cc 3e ed 66 87 3e 96 a6 13 be
       -0.17840675 0.40017128 0.26445714 -0.14419016
000030 8b 48 94 be 48 89 d5 3d fb 92 8c 3e 28 e3 3f be
       -0.28961596 0.10426575 0.27455887 -0.18738997
000040 dd f5 8f be be 9c 10 be af 93 da 3e 23 db 1d bd
       -0.28117266 -0.14122292 0.426908 -0.038539063
000050 ec aa 2e be 9e 73 f1 be 7f ca cf 3e 70 a6 07 bf
       -0.17057389 -0.4715852 0.4058418 -0.5298834
000060 b4 5a de 3e 4b cf e9 3e 0d 0e e7 3d 5b e7 c3 be
       0.43428576 0.45665964 0.11281977 -0.38262448
000070 7b 8f a3 be bb 0d 1b 3e dd 40 bf be d1 93 c0 3e
       -0.31945404 0.15141957 -0.37354174 0.37612775
000080 78 48 b6 be 19 99 41 3e 78 e1 86 be 49 fa 0a 3e
       -0.35602164 0.18906058 -0.26343894 0.13572039
000090 51 ab d9 3e 15 50 a2 3e 9d bd 0e be 2c 5f d4 3d
       0.42513517 0.31701723 -0.13939519 0.10369715
0000a0 a9 f4 b6 3e 16 fd 11 bc 58 e9 c5 3e 51 0b 62 3e
       0.35733536 -0.008910438 0.3865459 0.2207463
0000b0 4a fd cb 3e 9a ca 05 3e eb 49 22 bc 62 59 06 3e
       0.39841682 0.13065568 -0.009905319 0.13120034
0000c0 50 8c 74 be 43 30 cf 3e a2 18 16 bf 4b be 02 3f
       -0.2388165 0.40466508 -0.58631337 0.51071614
0000d0 a1 0d a9 3e 10 d5 da 3d 8c 0c 86 3e 47 ad f1 bd
       0.3301821 0.1068517 0.26181448 -0.11800628
0000e0 8f 23 03 bf 16 fa d1 be 9f 1c 2a be 6a 1e a8 be
       -0.51226133 -0.41011113 -0.1661248 -0.32835704
0000f0 c6 2b 00 bf e3 45 f3 3e f0 e2 80 3e f4 0f 4c 3e
       -0.5006679 0.47514257 0.2517314 0.1992796

edge_function.2.weight f4 [64, 64]
000000 80 b2 bd 3b 78 34 8a bc 1e 10 a3 bd 9a 69 b2 3d
       0.005789101 -0.016870722 -0.079620585 0.08711548
000010 88 8f 16 3d 38 2f f6 bd f0 22 72 3c 36 03 cd 3d
       0.036757976 -0.12020725 0.014778838 0.10010378
000020 70 59 1e 3d 40 4e 4b bd c0 ca 17 3c be 82 ef 3d
       0.038659513 -0.049635172 0.009264648 0.11694859
000030 08 63 74 bd 72 22 db 3d 20 69 4b bd 40 0d bb bc
       -0.059664756 0.10699929 -0.049660802 -0.022833467
000040 3a 37 8f 3d 4c 58 b7 bd 00 aa 82 ba 3c 1e c4 bd
       0.069929555 -0.08952388 -0.0009968877 -0.09576079
000050 c6 d2 ca bd a8 1e 0b 3d 80 c1 84 ba 08 61 99 3c
       -0.09903483 0.033964783 -0.0010128468 0.018723026
000060 dc dc f4 bd aa e1 97 3d 00 ec 32 bd 38 dd 39 bd
       -0.11956188 0.07416089 -0.0436821 -0.045376986
000070 ea 3f d8 3d 8c 60 4c bd a8 87 67 bd f6 8e 8a 3d
       0.10559066 -0.04989676 -0.056525856 0.06765549
000080 24 94 89 bd 1e 39 f4 bd 60 a7 9d 3b 16 8f fe bd
       -0.06717709 -0.11924957 0.0048112124 -0.12429635
000090 18 8e d5 3d d0 b1 d8 3c 1c 31 38 3d b8 ee 63 3d
       0.10427493 0.026451975 0.04496871 0.05564758
0000a0 80 7e a0 ba d2 af 99 bd 18 49 ac bc e0 14 a3 bb
       -0.0012244731 -0.07504238 -0.021030948 -0.0049768537
0000b0 d8 04 fd bc 0e b5 f2 bd 90 c5 21 bd 5c d8 2b bd
       -0.030886099 -0.1185094 -0.03949505 -0.041954383
0000c0 4e 04 a8 bd 46 41 86 bd 80 ce 64 3b 40 a9 65 bd
       -0.08203946 -0.06555419 0.0034913123 -0.056069613
0000d0 d0 9c 18 bd f0 82 63 3c c4 39 9e bd 78 98 cc bc
       -0.037258923 0.013886198 -0.07725862 -0.024975047
0000e0 46 d2 fe 3d 20 a0 44 bc c0 1c a6 3c f8 5d 45 3d
       0.1244245 -0.012001067 0.020277381 0.04818532
0000f0 d2 f6 ab bd 2a 4a fe 3d c4 44 76 bd 72 60 93 bd
       -0.083966866 0.124164894 -0.060124174 -0.0719613
000100 be 18 a3 3d 1f f1 2d 3c ed a1 e4 3c 98 7b 05 3d
       0.079637036 0.01061657 0.027909243 0.03258857
000110 bb b6 b0 bd ea ac 41 bd 38 85 8c 3d 90 0e a9 bc
       -0.08628603 -0.047284044 0.06861347 -0.020636827
000120 92 82 be bd 0c 8f 3f bd 42 59 6d bd 90 c8 fd bd
       -0.09302248 -0.04676728 -0.05794645 -0.1239177
000130 56 82 3c 3d f7 92 92 3d de 84 ec bd c2 c2 c7 3d
       0.046022736 0.071569376 -0.1154878 0.09753944
000140 58 67 eb bd 9a b5 61 bd a4 56 70 bc ad 74 01 3c
       -0.11494321 -0.05510483 -0.014669094 0.007901353
000150 ab c2 90 bd 7b f3 16 3b 9a 9e c2 bd 4a 2a 11 3c
       -0.0706838 0.002303331 -0.09502907 0.00886018
000160 cf 30 ae bd c5 3e e2 bd b2 85 b5 bd 20 3f 50 bd
       -0.08505403 -0.110471286 -0.08863391 -0.05084145
000170 5e f8 72 bd c4 c1 4d bd c9 30 9a bd 7b 80 65 bd
       -0.059318893 -0.050233617 -0.07528836 -0.05603073
000180 09 f8 82 bc 2f cd c1 bd a4 c3 ac bd 68 f6 37 bd
       -0.015987413 -0.09462964 -0.08435753 -0.044912726
000190 96 ca 90 3c ab df 07 bd e7 a0 a0 3d 9c c1 b5 bd
       0.017674726 -0.03317229 0.0784319 -0.08874819
0001a0 7c 76 62 bd c4 7f d3 bc 55 d1 34 bd 2f f8 65 3c
       -0.055288777 -0.02581776 -0.044144947 0.014036222
0001b0 9e 3e 2a be e2 5e c8 bd 28 6e 81 bd f6 54 11 bd
       -0.16625449 -0.097837225 -0.06319839 -0.035481416
0001c0 66 56 a5 3d 6a fc 9a bd 65 c9 fb 3c 86 ce d4 bd
       0.0807312 -0.075676754 0.03073568 -0.10390954
0001d0 7f 45 cd bd 93 74 94 3d 04 43 62 bd 6d ef 44 3d
       -0.10023021 0.07248797 -0.055239692 0.048079897
0001e0 94 d2 44 3d 2b 32 11 bd bd 0f 87 bd 0d ab bd 3d
       0.048052385 -0.035448235 -0.06594799 0.09261141
0001f0 4a b5 ee bd 67 4d ed 3d 95 25 3a 3d b7 ab ce bd
       -0.11655672 0.11587029 0.045445997 -0.10091346
000200 75 02 9b bd e6 2b c3 3d 55 ca 05 be 9a bd 19 bd
       -0.07568828 0.09529857 -0.13065465 -0.037534334
000210 74 ae 96 bd 4c 8f 42 bd ec fd 4b 3d 0b f4 06 be
       -0.07357493 -0.04749994 0.049802706 -0.13179033
000220 50 55 1a bd a0 3c be bd fe f2 bf 3c d4 9c 14 3e
       -0.037679017 -0.09288907 0.023431297 0.1451295
000230 16 04 e8 bc 77 70 14 be f2 ed c8 bd 57 d0 c9 3d
       -0.02832226 -0.14496027 -0.098110095 0.09854191
000240 e6 a2 89 bd 36 c9 f9 3d ce a9 6f 3c 58 89 c9 3d
       -0.067205235 0.12196581 0.014627887 0.09840649
000250 9b 6b a3 be b2 c4 19 3d 60 7f 17 bd 5b c1 b3 3d
       -0.31918034 0.0375411 -0.03698671 0.08777114
000260 7c a5 d4 bb 58 1b b4 3d f7 99 0b be d0 e6 c7 3d
       -0.006489454 0.08794278 -0.13632952 0.09760821
000270 d8 28 14 be 11 9e b0 3d 8a 5d d5 bd 26 18 9a 3d
       -0.14468706 0.08623899 -0.10418232 0.07524137
000280 a7 ca 85 3d 85 48 6c 3d fc 50 13 be d8 cc c5 bd
       0.065327935 0.057686348 -0.14386362 -0.096582115
000290 85 cd 3e 3d ab a6 ff bc 23 42 ba bc f3 e8 48 3e
       0.046582717 -0.031207403 -0.022736615 0.19620113
0002a0 44 ab 68 3a 0a 05 9d 3d 3b 27 24 bd 9e 74 2c bd
       0.0008875618 0.07666977 -0.040076476 -0.042103402
0002b0 7c 32 71 3e 0e 28 c6 3a a5 75 08 be a3 18 ed 3d
       0.23554415 0.0015118138 -0.13326128 0.11576965
0002c0 cc 36 92 be 56 5c 55 bc 05 eb 98 3c 72 d1 de 3d
       -0.28557432 -0.013022503 0.018666754 0.10879792
0002d0 fe 5b 81 bd ac 75 f0 bb 87 20 4e 3d 31 bf e2 3c
       -0.06316374 -0.0073382463 0.05032399 0.027679058
0002e0 44 21 ab 3d 72 a4 6c bb 10 50 ec 3c b7 a7 85 bd
       0.08355954 -0.003610876 0.02884677 -0.0652613
0002f0 43 fa 9d 3d 80 95 3e 3d 93 80 69 be d6 a1 43 be
       0.07713749 0.046529293 -0.22802953 -0.19104704
000300 43 8d 27 3d b7 8b 4c bb 72 b8 96 bd d9 ab 97 3d
       0.040906202 -0.0031211206 -0.07359399 0.07405824
000310 7d 90 18 bd 14 de 5e 3c 0a 2e e8 3d a9 78 e4 3d
       -0.03724717 0.013602752 0.11336906 0.111558266
000320 b5 e0 9b 3d 9d 38 e1 bd 7c 0e 71 3b f0 38 68 3d
       0.07611219 -0.10997126 0.0036782315 0.056694925
000330 0c 99 d3 3d 9b 7e 2d 3d 8e e4 5e bd 9b e3 9d bc
       0.10331926 0.04235707 -0.054417185 -0.01927357
000340 b9 a1 0e 3e 7a a6 db 3d 90 0a c4 bd bd 9f 33 3c
       0.1392888 0.10725112 -0.09572327 0.010963378
000350 92 fd ec bd 47 3f 7e bd df 4a 99 bd 15 df 8e bd
       -0.11571802 -0.062072065 -0.07484984 -0.06976143
000360 83 38 d3 bd 69 b7 d8 3c 80 c5 b3 bd 5e 90 ca bd
       -0.10313513 0.026454644 -0.087779045 -0.09890817
000370 18 86 75 ba e7 a0 e4 3d 48 4c d4 bd f7 28 84 3d
       -0.000936599 0.11163502 -0.10366112 0.06453126
000380 64 27 c8 3d 5b c0 98 3d 9a 1c c5 3d 8d 80 a0 bd
       0.09773138 0.07458564 0.09624596 -0.07837019
000390 c9 f0 c3 3d e9 8c 6d 3d da 98 c8 3c 6e 3f 14 3d
       0.095674105 0.05799571 0.024486948 0.036193304
0003a0 0c de 8f 3d a1 01 5d 3c 5f a5 dc bd cf 57 23 bd
       0.07024774 0.013489158 -0.107737295 -0.039878663
0003b0 94 f5 f9 bd cf f1 a2 3d 24 a9 43 3b 13 62 f1 bd
       -0.122050434 0.079562776 0.0029855454 -0.11786284
0003c0 41 f6 28 bd 8c 24 6c 3d 48 64 00 bd 60 37 f6 3c
       -0.04125047 0.05765204 -0.031345636 0.030055702
0003d0 a1 49 34 bb c0 6b b2 3d 73 b1 e4 bd f0 39 93 bd
       -0.0027509707 0.08711958 -0.11166658 -0.07188785
0003e0 6b 89 91 3d 4c 60 c0 bd 4b 35 9a bd 25 8e 5e 3c
       0.071062885 -0.09393367 -0.07529696 0.013583695
0003f0 10 c3 95 bc 8e ca 76 3c 95 92 e0 bd ae 31 bf bd
       -0.01828149 0.015062941 -0.10965458 -0.093356475

edge_function.2.bias f4 [64]
000000 e6 67 a9 bd 76 4b 1e be e6 48 a4 bd 92 35 4c bd
       -0.0827177 -0.15458474 -0.08021717 -0.049855776
000010 fe 64 b8 bd db 0d a5 3c 4f 0e 89 3d e7 88 f2 bc
       -0.09003638 0.020148208 0.06692182 -0.029606296
000020 ea 10 b0 3c e1 aa eb bd 82 ab 0d 3c c0 73 64 3d
       0.02149244 -0.11507202 0.008646848 0.05577445
000030 37 ab e1 3d 85 c8 cc bc e6 1d f6 3c 74 71 90 3d
       0.11018985 -0.024997959 0.030043554 0.070528895
000040 52 be a6 bd a1 f6 ce bd 8a c6 73 3d 2f 80 d2 3d
       -0.081417695 -0.101056345 0.059515513 0.10278355
000050 00 3e 00 3d 8f f3 e7 bd 55 36 7a bd 02 72 a6 3c
       0.031309128 -0.11325752 -0.06108697 0.020318035
000060 38 a5 b1 3c 5c 71 ea bd cd 22 21 3e b7 cf 7f 3d
       0.021685228 -0.11447403 0.15735932 0.06245395
000070 b6 cd f6 bd 00 7f 11 3d df c0 08 bd c6 0d be bd
       -0.12050955 0.035521507 -0.03338706 -0.09279971
000080 52 55 b4 bd d6 db 2c bc f0 14 18 be ab 20 cd 3d
       -0.08805336 -0.01055046 -0.14851737 0.100159965
000090 a3 0e a2 3d 82 f5 c7 3c e2 29 a0 3d 1d 48 d8 3d
       0.07912948 0.02440906 0.078204885 0.105606295
0000a0 76 ea 10 bd 34 df d4 3d 23 80 0b 3e 05 21 fb 3c
       -0.03537985 0.10394135 0.13623099 0.030655393
0000b0 f0 65 f8 bd d2 25 e5 bd 8d d9 12 be 19 ff f0 bd
       -0.12128818 -0.11188854 -0.14340802 -0.11767406
0000c0 2c f6 35 3d 02 02 5f bd 86 b2 33 bd 7d 9d b2 3d
       0.04442422 -0.054445274 -0.043871425 0.08721445
0000d0 44 1d 08 3e f0 a5 db 3d 07 28 d6 3d 89 a7 4a bc
       0.13292414 0.107250094 0.10456853 -0.012369045
0000e0 b8 24 93 bc 79 99 84 bd 4c ae 60 bd 60 4c e5 3d
       -0.017961845 -0.06474585 -0.054853722 0.11196208
0000f0 06 80 06 3d 4b 0d be 3d aa 06 07 be 10 49 48 bb
       0.032836936 0.09279879 -0.13186136 -0.0030561127
