Projects/GuoxiangGrayson_T_A study of multi-fidelity graph neural networks/Model_save/Quarter2D/Rank=17-GNN-nB-64-Lr-0.005/model.pth (torch, 114781 bytes, 24 tensors)

node_function_neighbor.0.weight f4 [64, 2]
000000 a6 5e 02 bd 76 b3 e2 bd 1a 56 06 bf 29 cc 23 3e
       -0.031828545 -0.11069386 -0.5247513 0.1599585
000010 c0 2d 2b 3f 13 e5 12 bf 65 a2 a7 3e 0b d3 2a 3f
       0.66866684 -0.5738079 0.32741085 0.66728276
000020 bf 6f 1c 3f 10 ae d8 be 3d 92 ab be 53 7e 72 bd
       0.6110801 -0.423203 -0.33510008 -0.059202503
000030 26 ae 3f 3e 4e e0 f3 3e 63 e2 21 3f da fa fc be
       0.18718776 0.47632068 0.63236064 -0.49410135
000040 97 b0 e9 3c 1b 72 6c bc c5 f4 ff 3e 1a 08 b9 be
       0.028526587 -0.014431502 0.49991432 -0.36138994
000050 36 da fc 3e 37 8c e7 3e 88 63 1b bf 0a dd 18 3f
       0.49385232 0.45224163 -0.6069875 0.5971228
000060 bd e1 42 be 38 10 d0 3e 09 2c 0f bf d4 22 f2 3e
       -0.19031425 0.40637374 -0.5592657 0.47292197
000070 ae 80 29 3f 5d eb 8c bb 07 21 03 bc ce 76 1a 3f
       0.66211975 -0.0043005184 -0.00800348 0.6033753
000080 1c 19 07 be 73 b0 b0 be 89 b9 2f 3f 43 d4 ea 3d
       -0.13193172 -0.3450962 0.6864248 0.11466267
000090 70 0f 10 3e 83 90 57 be 7c 4d 19 bf 59 68 2f be
       0.14068389 -0.2105122 -0.59883857 -0.17129649
0000a0 ca 44 22 bf 34 25 4c bd a5 fa 35 3e bf 90 c2 3c
       -0.63386214 -0.049840167 0.17771395 0.023750661
0000b0 3c 0b ad be 97 b0 6d 3e e3 a6 19 3e 6d ab ed 3e
       -0.33797634 0.23211895 0.15005068 0.4641985
0000c0 ec 20 a3 3c ab 1e d5 be f2 65 08 3f 0b 1a 89 be
       0.01991316 -0.4162496 0.53280556 -0.26777682
0000d0 d8 d9 5a be 6a ab 03 bf 7a 2f 92 be c4 9f 46 be
       -0.21372163 -0.5143343 -0.28551847 -0.19396883
0000e0 77 72 4c be fe 08 44 be 3d 92 b6 bc ec a7 f0 3e
       -0.1996554 -0.19144055 -0.022286529 0.47003114
0000f0 3f c6 06 3f 7f a4 ee bd 4d 2b ef 3c e8 7c a6 be
       0.5264625 -0.11652469 0.029195452 -0.3251717
000100 25 f5 b9 be 0f 2a d1 be dc f5 09 bf 99 60 b3 bc
       -0.36319843 -0.408524 -0.53890777 -0.021896647
000110 68 53 40 be 24 14 d3 be ce dc 7c 3e 6b fa 11 bf
       -0.18781817 -0.41226304 0.24693605 -0.5702273
000120 24 0b 1d 3f 24 96 eb 3e 6f f0 86 3d 36 8c cc be
       0.61345124 0.46012986 0.06588828 -0.39950722
000130 6d ff 98 be 21 11 f8 bd e6 d9 9c 3e da bb e0 be
       -0.29882374 -0.12112642 0.30634993 -0.4389332
000140 55 7d 8d 3e ef bb 07 3f 20 13 9e 3d 01 c9 0d bf
       0.27634683 0.5302114 0.077184916 -0.5538483
000150 35 7b fc bd f7 a0 24 bf 2c 80 dd be e4 0f 0f 3f
       -0.123281874 -0.6430811 -0.4326185 0.5588362
000160 0f 12 40 3e 29 77 39 bd 4b 62 3e be 25 f0 93 3e
       0.18756889 -0.045279656 -0.18592183 0.28894153
000170 79 e5 cf bd b0 5c 48 bd 84 15 16 3f dc 03 16 be
       -0.1015119 -0.04891652 0.5862658 -0.1464991
000180 c6 29 08 3e aa 7b 8c 3e de bb 0f bf f8 73 22 3e
       0.13297185 0.27438098 -0.5614604 0.15864551
000190 a8 77 26 be 47 d3 ad 3d 42 73 11 3f d0 bd 13 3f
       -0.16256583 0.084875636 0.56816494 0.57711506
0001a0 bf da 21 3f 6d 57 82 3d 2d 59 68 3e 04 82 17 bf
       0.63224405 0.063643314 0.22690268 -0.59182763
0001b0 06 13 de 3e fe b5 22 bd 8d 96 fd 3e 0c 1e 40 3e
       0.4337389 -0.039724343 0.49528924 0.18761462
0001c0 69 2c 8d be da a5 ed 3e 30 9e 83 3e da c3 c4 bd
       -0.27572945 0.46415597 0.25706625 -0.09607668
0001d0 8e f4 93 be a6 34 24 be 00 46 88 3e ad 65 b8 3e
       -0.28897518 -0.16035709 0.26615906 0.36015072
0001e0 52 00 bf 3d f6 ef f5 3e 35 17 0c 3f 4c bd 01 be
       0.09326233 0.48034638 0.5472291 -0.12669867
0001f0 3c 67 08 bf 10 a0 15 bd e2 ee 1a bf 1a 53 35 3d
       -0.53282523 -0.0365296 -0.60520756 0.044268705

node_function_neighbor.0.bias f4 [64]
000000 94 92 d6 3e d8 36 1b 3f e1 5a 35 3f 8b 16 34 3f
       0.41908705 0.6063056 0.70841795 0.703469
000010 6f 68 af be 3f 3d c9 3e b0 a1 ad be 3a a7 63 3e
       -0.34259364 0.3930454 -0.3391242 0.2223176
000020 01 5b 9e be a1 b9 2b bf 27 2c 93 be 28 e8 e7 3d
       -0.30928805 -0.6708012 -0.28744623 0.11323577
000030 31 34 07 bf 62 ec ec 3d 11 e7 e9 be 60 ac 6a be
       -0.5281401 0.11568524 -0.45684102 -0.22917318
000040 18 84 1c 3e 38 3c 13 bf ce a5 e9 3e 5e d0 a1 3e
       0.15284765 -0.5751376 0.4563431 0.31604284
000050 13 e4 b5 be 33 30 eb 3e 1e 43 af 3e 96 b3 d8 3e
       -0.3552557 0.4593521 0.34230894 0.42324513
000060 66 9c 3d be 1a f3 e4 3c a5 eb 8d 3d 5a c2 a0 be
       -0.18516693 0.027947951 0.06929711 -0.31398278
000070 53 b7 38 bf 89 3d cf 3e 07 f7 01 3f a6 23 e9 3d
       -0.7215473 0.40476635 0.5076756 0.113837525
000080 70 d5 04 3f 21 ef 04 bd 95 24 3b be 95 f4 68 bc
       0.5188818 -0.032454614 -0.18275674 -0.014218469
000090 18 36 b0 be f0 af 33 bf 74 24 1f bf 45 2f bc 3e
       -0.3441627 -0.70190334 -0.62165 0.36754814
0000a0 54 08 72 3e d1 79 1f 3f 39 4c 2e bf 47 01 66 be
       0.2363599 0.6229525 -0.68085057 -0.22461425
0000b0 53 be 47 bd 92 1a d7 3e 3a 2d 4f be d9 c5 c2 bd
       -0.04876549 0.4201246 -0.20232096 -0.09510393
0000c0 79 8e e2 3d 04 e6 07 bf 73 de 00 3f 2c 4b 99 bd
       0.11062331 -0.5308535 0.5033943 -0.07485041
0000d0 1f bb 1d be 81 87 de 3c 67 d3 14 3f 69 28 f7 be
       -0.15403412 0.027164223 0.58135074 -0.48273018
0000e0 70 6f 69 be 25 0d a8 be 53 b7 f9 3e 46 fa 86 3e
       -0.22796416 -0.32822528 0.48772678 0.26362818
0000f0 2b 2a 82 bc 0f 2e 1b 3f 58 9e 1a be f7 f9 db 3e
       -0.015889248 0.60617155 -0.15099466 0.42964146

node_function_neighbor.2.weight f4 [64, 64]
000000 1f 8c cf 3d e6 89 96 3d 47 a5 59 3c 7f 6e fc 3c
       0.10134148 0.07350521 0.013284034 0.030814407
000010 80 bd ca bd 83 bb c4 bc 63 95 81 bd 3d 4d af 3d
       -0.098994255 -0.024015194 -0.063273214 0.08559654
000020 a0 8f ce 3b 5c d8 1d be 43 a1 0b 3d 03 c6 1f bd
       0.0063037425 -0.15414566 0.034089338 -0.039007198
000030 d7 bf 23 bd 84 53 ba bd 55 d8 8d 3d a4 6e 00 bd
       -0.039977875 -0.090979606 0.06926028 -0.031355515
000040 5c 09 14 3b 8f 7a ad bd eb 91 c3 3d 16 c6 ba 3d
       0.0022588586 -0.08470642 0.09549316 0.09119813
000050 80 2d c9 bd c1 e7 cc bd 35 54 65 3d f5 f5 0a bd
       -0.098231316 -0.10005141 0.05598851 -0.03392597
000060 4d 91 33 3d 9a 8b 83 bd 66 19 c1 3d b5 ff 7a bc
       0.04383974 -0.06423111 0.094286725 -0.015319754
000070 9b 31 f9 bd 1d 47 c3 bd db 41 85 bd 1b a9 e9 bd
       -0.121676646 -0.09535048 -0.065067016 -0.114092074
000080 6f 19 b2 3d 2e ce bf 3d b1 b5 a9 3d 78 a1 ec 3c
       0.08696257 0.093654975 0.08286608 0.028885588
000090 46 dd 23 be cd e6 33 be 27 f4 11 be 55 e5 12 be
       -0.16002378 -0.17568512 -0.14253293 -0.14345296
0000a0 22 8d a5 3d 63 da 87 3d 85 ee 8e 3d 2e 08 c0 3d
       0.080835596 0.06633451 0.06979088 0.0937656
0000b0 32 d0 a4 bd 50 f6 82 bd 86 b0 99 3d 45 43 c6 3d
       -0.080475226 -0.06394637 0.07504372 0.096807994
0000c0 03 08 90 3d 48 cd b5 3d 00 65 5a bc e6 c5 a2 3c
       0.07032778 0.08877045 -0.013329744 0.019869756
0000d0 ce 77 f0 ba eb 33 44 3d 64 92 8d 3d c2 80 cf 3c
       -0.0018346251 0.047901075 0.069126874 0.025329951
0000e0 82 ae af bd 1d 4d 71 3c 55 9f 5c 3b 07 0e b3 bd
       -0.085782066 0.014727858 0.0033664305 -0.0874291
0000f0 01 2d 05 3d 94 ca d5 bd ec c9 ee bd 6a ec 44 3d
       0.032513622 -0.10439029 -0.11659607 0.048077025
000100 70 8f 13 3e b9 b5 2b bc 40 f3 bb 3c 93 0e 36 bd
       0.14410186 -0.010480338 0.02294314 -0.044447493
000110 38 d6 8c bd e6 dc f7 bd 4c 59 da 3d 56 02 f7 3d
       -0.068767965 -0.1210268 0.10661563 0.120609924
000120 b8 bb dc bc bd fb a7 3b 91 7d 98 3d b5 d1 89 3d
       -0.02694498 0.005126445 0.07445825 0.067294516
000130 b4 ce 63 3c 1b c9 4e 3e e1 a2 ab bc b2 db 01 be
       0.013904262 0.20193903 -0.02095169 -0.12681463
000140 2e 01 e6 3d fe 5f 84 bd 7c 3c 36 bc 77 69 06 be
       0.11230694 -0.064636216 -0.011122819 -0.13126169
000150 62 ec ca bd 3c 67 a2 3d ce 1e a6 bb 45 d5 be bc
       -0.09908368 0.07929847 -0.00506959 -0.023295054
000160 ed 05 0b bd 4f f1 f7 3d 7d 21 7c 3d 0b 9b c4 bc
       -0.0339412 0.12106573 0.061555374 -0.023999711
000170 a6 7e 95 bd 4e 08 e4 3d fc 8d fc bc c3 3b 02 bd
       -0.07299547 0.111343965 -0.030829422 -0.031795274
000180 c8 dd 89 bc 97 b0 70 3c 44 ca ff bd 98 15 3c 3c
       -0.016829386 0.01469054 -0.12489751 0.011479758
000190 58 d4 87 bd 8b 66 98 bd 07 22 dd bd 5c 25 cd 3d
       -0.06632298 -0.074414335 -0.10797506 0.10016891
0001a0 3b 55 86 3c b3 8a 0f 3e 32 f4 a2 bd 1f 44 6d bc
       0.016398063 0.14017753 -0.07956733 -0.014481573
0001b0 cf c9 24 3d d6 58 dc 3c 32 de 0f be f6 5e 24 3e
       0.040231522 0.026897829 -0.14049605 0.1605185
0001c0 e5 36 9f bd aa af 7d bc da 07 a1 3d ca 2d 52 bd
       -0.07774142 -0.015483776 0.07862826 -0.0513132
0001d0 1d 6a 00 bc 62 41 83 3d bf 39 07 3d 9b bb 5a 3d
       -0.007837799 0.06408955 0.033014055 0.05340157
0001e0 cb 39 af 3d da 8e 12 3e 73 8e 90 3d e7 30 e5 3d
       0.08555945 0.14312306 0.0705842 0.11190968
0001f0 9d aa ce 3d 8a 0f 94 3d 5c f6 8f bd 21 d8 93 bd
       0.10091136 0.07229526 -0.07029411 -0.07218958
000200 60 b5 ba 3d 60 fc 9d bd c8 1d a8 bd 90 0c 74 3c
       0.09116626 -0.07714152 -0.08208805 0.014895573
000210 cc 47 c8 3d 50 a7 b5 bd 20 5c c3 bc a0 e1 ea 3b
       0.09779319 -0.08869803 -0.02384764 0.00716801
000220 7a eb d6 3d 7e ad ae 3d 98 89 5c bd ca af 9c bd
       0.10494132 0.08529185 -0.053842157 -0.076507166
000230 c2 1d d6 3d bc 32 7a bd 24 de b5 bd 18 d9 d8 bc
       0.104548946 -0.06108354 -0.088802606 -0.026470706
000240 4c 84 c8 bd 60 69 08 bc 58 9a 62 3d 58 5d 3b 3d
       -0.097908586 -0.008325905 0.055322975 0.045743316
000250 d0 ec 45 bc 70 73 a4 bd 50 4f 0e bc 44 01 d7 bd
       -0.012080386 -0.080298305 -0.008685902 -0.10498288
000260 4a 03 e8 3d 50 16 e3 bc 90 bf da bd 8c a3 c0 bd
       0.11328752 -0.0277206 -0.10681069 -0.09406194
000270 a4 5c 33 3d 30 ac 3e 3c 90 d1 f7 bd 30 15 3d 3d
       0.04378952 0.011637732 -0.12100518 0.046162784
000280 40 5b de bd 3a 84 c5 3d 8c f0 7e bd f0 fa 9a 3d
       -0.10857248 0.09644361 -0.062241122 0.07567394
000290 98 40 cb bc e8 79 9e 3d c0 98 bf bb d0 15 94 3c
       -0.024811074 0.077380955 -0.0058470666 0.018076807
0002a0 d0 51 7d 3c c0 a1 21 bc 30 c4 76 bc fc 46 8c 3d
       0.0154614 -0.009865224 -0.015061423 0.06849477
0002b0 4e 29 a7 3d d0 09 19 bc 7c e0 f9 3d 60 2b ff 3c
       0.08162175 -0.009340718 0.1220102 0.031148612
0002c0 80 a7 b1 bc a6 2b 9c bd 5a 1f 94 bd 34 65 a9 bd
       -0.021686316 -0.07625513 -0.07232542 -0.08271256
0002d0 e8 56 26 3d 00 c0 52 3c d6 b6 82 bd 60 8a a3 bb
       0.040610224 0.012863159 -0.063825294 -0.004990861
0002e0 18 ed 34 3d 02 0c e9 3d 80 70 26 bd 80 7d eb bc
       0.044171423 0.113792434 -0.040634632 -0.028746367
0002f0 96 36 8e 3d a8 a9 5b bd 0e b9 a8 bd b0 60 78 bd
       0.06944005 -0.053628594 -0.082384214 -0.060639083
000300 35 0e ee bc d4 81 e8 3d 7e 73 35 3c b9 b8 72 bd
       -0.029059509 0.11352888 0.011074899 -0.059258197
000310 8d df 01 be ef 24 e4 3c da e0 a4 bb 9c 5a b1 3d
       -0.12682934 0.027849643 -0.005031687 0.086598605
000320 4e 15 f9 bd 51 92 f2 bd 45 9f 42 bc fb 7d 44 bc
       -0.12162267 -0.11844314 -0.011878793 -0.011992927
000330 6a a6 50 3c 07 14 59 3d da 13 c4 bc 35 52 a7 ba
       0.012734989 0.052997615 -0.023935247 -0.0012765588
000340 a6 87 a3 bd fb 8f bc 3d 44 ad 6c 3d 6c 25 f8 bb
       -0.07984857 0.092071496 0.057782426 -0.0075728204
000350 f3 e1 94 bd 49 03 d7 bc ca 1a f0 3d 1c f3 bc 3d
       -0.07269659 -0.026246684 0.117238596 0.09226057
000360 5b 0f 00 3c 03 65 ea bd 10 04 82 bd 38 df f7 3b
       0.007816161 -0.11445048 -0.06348431 0.0075644515
000370 23 67 0d be e5 9c bf 3d 7d 20 9f bd f2 26 16 be
       -0.13808875 0.09356097 -0.077698685 -0.14663294
000380 8d 8d 1e 3c 4e 95 d6 bd 3d b1 cd bd 0d 64 ca 3d
       0.009677303 -0.10477696 -0.10043571 0.098823644
000390 9b 6e ed bd 60 c6 d3 3b 5a 2e 04 be 27 61 93 3b
       -0.11593362 0.006462857 -0.12908307 0.0044976654
0003a0 ce 5c 85 3d 42 bc e6 3a ab 48 0e be ac 96 a4 3d
       0.06511842 0.0017603713 -0.13894908 0.08036551
0003b0 ca 4c b9 3d b6 e0 0f 3d 3e aa 0e be 29 67 f3 bd
       0.090478495 0.03512641 -0.1393213 -0.118849106
0003c0 42 f5 4a 3d 34 7b d5 bd ee a3 bc bd 3c 02 05 3e
       0.049550302 -0.1042389 -0.092109546 0.12989134
0003d0 11 6a 62 3d 7c a4 dd 3b 5d 52 d7 bd 64 f2 a5 bd
       0.055276934 0.006763993 -0.105137564 -0.08102873
0003e0 3d f1 a3 bd e8 00 46 3d db 07 c3 bd d3 44 be bd
       -0.08004997 0.048340708 -0.09522983 -0.09290471
0003f0 e5 47 ce 3d 75 70 7e 3a 95 01 c3 3d 42 17 02 3c
       0.100723065 0.00097060885 0.09521786 0.007940115

node_function_neighbor.2.bias f4 [64]
000000 6f 59 2b 3d df c9 ed 3d 02 ad a8 bd ee 9b 86 bd
       0.041833337 0.116107695 -0.082361236 -0.0657271
000010 33 5c 9d 3d 6f 8f 04 bd 88 3d be bd 9b c8 83 3d
       0.07683601 -0.03236335 -0.0928908 0.06434747
000020 37 48 86 3d 97 64 87 bd e1 1f 92 bd d4 83 37 bd
       0.06556743 -0.06610983 -0.07134987 -0.044803455
000030 45 da ca 3c 53 7b 8f bd 8d ae 36 bd 04 69 79 3d
       0.024762282 -0.07005944 -0.04460006 0.060891166
000040 59 c8 cc bd 52 cf aa bd 25 3e 00 3e 71 36 da 3d
       -0.09999151 -0.083403245 0.12523706 0.10654915
000050 3b d5 1d 3e f5 d1 20 3e 86 75 91 3d 76 2f 27 bd
       0.15413372 0.15705092 0.07102494 -0.040816747
000060 d5 b7 14 bd 95 88 d9 3d 09 36 90 3d 1d ad 01 3e
       -0.03630813 0.10621754 0.070415564 0.12663694
000070 2a 0f e3 3c a3 60 48 bd 07 19 87 bd 12 2f 8d bd
       0.027717192 -0.048920285 -0.065965705 -0.068937436
000080 9e 9f 37 3d 11 9f 10 bd ad 77 17 bc 80 d4 1c 3e
       0.044829957 -0.035307948 -0.0092448415 0.15315437
000090 dd 31 de bd 4c 62 10 3e b1 5a 9e 3d d0 30 08 bb
       -0.108493544 0.14099997 0.07732142 -0.0020781048
0000a0 8a dd 29 3e 06 10 18 be bf 38 18 3d 62 c2 9c bc
       0.16588417 -0.14849862 0.037163492 -0.019135658
0000b0 81 c6 e3 3d 32 2e 3b 3d 1c 52 93 bc fb af 06 3d
       0.11121846 0.045698352 -0.017983489 0.03288267
0000c0 7a fe c1 bb a4 d3 e9 bd f0 93 b6 bc 5f b7 18 bd
       -0.0059202285 -0.1141732 -0.022287339 -0.03728425
0000d0 83 5f d0 3b 21 1f 69 bd 98 5b 14 be d5 a7 ae ba
       0.006359042 -0.056914452 -0.14488065 -0.0013325164
0000e0 26 dc 37 3d 64 7a 40 bd ad a3 56 bd ae a2 0e 3d
       0.044887684 -0.04699172 -0.052402187 0.034823112
0000f0 5c ec ac bd 81 3f 13 bc 54 79 e1 3d 4c 98 33 bd
       -0.084435195 -0.0089873085 0.1100947 -0.043846413

node_function_neighbor.4.weight f4 [64, 64]
000000 7a 14 88 bc 55 3e 19 3e 80 40 dc 3a 46 6a a0 3d
       -0.016611326 0.14965184 0.001680389 0.0783277
000010 dc a5 a2 bd 7c 92 09 3c 6f 42 c0 3d b6 04 c2 bd
       -0.079417914 0.008396741 0.09387671 -0.09473555
000020 dc 4a 1e bd 8f c6 cb bd 27 7f 7f bd 28 8a c8 3d
       -0.03864561 -0.099499814 -0.06237712 0.09791976
000030 e9 ec ad bd 76 84 bb 3d 8c c2 6c 3d 71 fd 07 3e
       -0.08492453 0.09156124 0.05780272 0.13280274
000040 19 3c a2 bb 4c 33 c5 3d 80 25 91 3d 81 53 9f bc
       -0.004951012 0.09628925 0.07087231 -0.019448997
000050 ed 21 85 3d cd 4a af 3d 2e d5 e0 3d 40 08 88 bd
       0.065006115 0.08559189 0.10978161 -0.066421986
000060 6f 9d b9 3d 4e fb fb bb d1 e8 10 3e a3 d7 54 3d
       0.09063231 -0.00768987 0.14151312 0.05196346
000070 0e 71 c8 bd bd ff 85 bc 55 30 df 3c ee 96 8a 3d
       -0.097871885 -0.016357297 0.027244726 0.06767069
000080 72 e3 64 3d d4 f7 3b 3d 33 9a ae 3d 48 aa f8 3d
       0.05588097 0.045890644 0.08525505 0.121418536
000090 e6 6e b3 3d c0 6f 3f 3d a2 c6 85 bd ee 19 e6 bd
       0.087613866 0.046737432 -0.06532027 -0.112354144
0000a0 20 c9 82 bd 2f 8c af bc a5 45 eb 3c 32 2e f4 3d
       -0.06386018 -0.02142915 0.028719733 0.119228736
0000b0 1d c8 59 bd 6c de 90 bd 75 b8 9f bb 5a 26 ac 3d
       -0.05316936 -0.070736736 -0.004874284 0.084057525
0000c0 5c 72 c6 3d ea 2f 67 3c f0 10 e4 bd 02 e3 02 3d
       0.09689781 0.014110545 -0.11136043 0.031954773
0000d0 be cc bb bd e8 d7 96 bd 07 3b 17 3e b7 83 96 bd
       -0.09169911 -0.073653996 0.14768611 -0.07349341
0000e0 fd 98 80 3d 1d 1b 08 3e bf 84 04 3e e5 34 63 3d
       0.0627918 0.13291593 0.12941264 0.055470366
0000f0 87 c6 78 3d 35 89 78 bd 57 cb af 3d d6 1f 5f 3d
       0.060736205 -0.060677726 0.08583706 0.05447372
000100 9d 0a 74 3c 8d 9d eb 3d ae 41 e9 bd 2a fa a8 3d
       0.0148951085 0.1150466 -0.113894805 0.0825084
000110 e0 26 8b 3b d5 18 c0 bd 04 98 e8 bd aa 5a 95 3d
       0.0042465776 -0.09379736 -0.1135712 0.072926834
000120 b6 c4 36 3b 66 5b 27 3d d5 22 9a 3b 12 85 3c 3d
       0.0027888245 0.04085865 0.0047038593 0.046025343
000130 83 da 0c bd 4d 97 47 bc cc 80 52 3d ab b3 b2 3d
       -0.034388077 -0.012182069 0.05139236 0.08725675
000140 2f 13 02 3d f0 df 69 3c 97 82 91 3d 18 9f d4 bd
       0.031756576 0.014274582 0.07104986 -0.10381907
000150 1f 0f 57 3d a6 16 f6 3d 96 db 84 3b 28 82 7a 3d
       0.052504655 0.120160386 0.004054497 0.061159283
000160 17 35 b2 3d c1 b0 f1 bb ac 5d 72 3d 6f 66 8f 3d
       0.08701532 -0.007375807 0.059171364 0.070019595
000170 25 66 94 3d d3 90 6a 3d e0 99 ba bd a5 1b d6 bd
       0.07246045 0.05726702 -0.091113806 -0.104544915
000180 59 ad 30 bc 0d e3 d2 3c de 23 93 bd 73 d6 99 3c
       -0.010783517 0.025743032 -0.071845755 0.018779015
000190 12 54 db 3c cb 9a f1 3d 3c 2e ac bd 34 ec c9 3d
       0.026773486 0.117971025 -0.08407256 0.09859505
0001a0 ae f4 e2 3d ce 97 d1 3d 80 2f 04 3e f1 b6 16 bd
       0.11081825 0.102340326 0.12908745 -0.03679556
0001b0 62 a1 5f bd 85 9f 76 3d 80 bf 01 3d 07 ca 0b 3e
       -0.054597266 0.060210723 0.03167677 0.13651286
0001c0 b9 23 96 3d 7a d7 fa 3c 94 05 35 3d 7b 61 50 bd
       0.07331032 0.030620325 0.044194773 -0.050874215
0001d0 35 80 48 3d c6 5b 8f bd 51 5a d0 bd 39 a5 bc 3d
       0.048950393 -0.06999926 -0.101734765 0.09211201
0001e0 06 89 17 bd f4 73 38 bd 69 5e 73 bd 04 57 1f 3d
       -0.03699591 -0.045032457 -0.05941621 0.038901344
0001f0 3f 99 35 3d 0b 7a d9 bc ef ed 4d 3d 6d 1f cb 3d
       0.0443356 -0.026547452 0.05027574 0.09918103
000200 a0 f7 21 bd 75 84 7b 3d 74 5d 8e 3d fa 04 38 3d
       -0.039542794 0.061405618 0.069514185 0.04492662
000210 96 df 3c bd 8b 89 c0 bd eb 9f 39 bd 2f b3 6b 3c
       -0.046111666 -0.09401234 -0.045318525 0.014385982
000220 78 af 26 3c 74 80 23 bd 27 7a a7 3d d0 b0 b7 bd
       0.010173671 -0.039917424 0.081775956 -0.08969271
000230 79 aa 0b 3d 33 99 b3 bd 13 28 58 bc f8 1f 08 3e
       0.034098122 -0.08769455 -0.013193148 0.13293445
000240 35 3e d9 3d 6d f2 9b 3c 0d 34 94 3d e5 2c cd 3d
       0.10607568 0.019036496 0.072364904 0.100183286
000250 74 39 bb bd 11 40 96 3d 53 5e 0e 3e 6c d9 6f bd
       -0.09141818 0.073364384 0.1390317 -0.05855696
000260 02 08 95 3d 1d 50 3c 3d af c4 91 bd b1 2c 6d 3d
       0.07276918 0.04597484 -0.071175925 0.05790395
000270 05 da a3 3b 95 70 25 3d c5 b7 05 bc bb 01 cb bd
       0.005000355 0.04039057 -0.00816149 -0.099124394
000280 19 50 32 bd f8 9c 09 3e 08 d4 dd 3d b1 44 f7 bb
       -0.04353342 0.13438785 0.108314574 -0.0075460305
000290 33 10 48 bd e5 d7 da 3d 09 19 a1 3d 91 34 b5 bd
       -0.048843574 0.1068571 0.07866103 -0.08847917
0002a0 e6 b5 40 bd 5d 14 b7 bc 5e f4 7d bc c0 46 39 bb
       -0.047048472 -0.022348577 -0.015500156 -0.002827093
0002b0 ce 7c f4 3c 90 09 a3 3b 24 db af bd 65 19 33 bd
       0.029844668 0.004975505 -0.0858672 -0.04372539
0002c0 b0 dc 44 bd 03 48 68 3c 20 f8 d4 bd 12 9b 91 3d
       -0.048062027 0.014177325 -0.103988886 0.071096554
0002d0 99 64 00 3c 0a c0 23 bd 18 0a 52 bd a9 12 bb bd
       0.007836484 -0.039978065 -0.051279157 -0.091344185
0002e0 5f e5 33 3d ed 15 a6 bc 09 44 a0 bd 73 a6 07 be
       0.043919917 -0.020274127 -0.07825477 -0.13247089
0002f0 2a f6 ac bc f7 a1 16 bb 28 64 77 3d 96 cb e4 3d
       -0.021113474 -0.0022984722 0.06039825 0.111716434
000300 69 85 90 3c a5 bf 8b bd c4 be 16 3d fb b4 9e 3d
       0.01764174 -0.06823663 0.036803022 0.07749363
000310 71 98 e2 bc eb d9 fa 3c c9 c0 af bc 89 70 92 3d
       -0.02766058 0.03062149 -0.021454232 0.07150371
000320 09 48 f7 bd fd c0 fa bd 41 5d 02 3c cf 92 5e 3c
       -0.120742865 -0.12243841 0.007956804 0.013584807
000330 7c e9 16 3d f3 71 85 3d 42 c4 d2 bd 71 b4 7c bc
       0.03684376 0.06515875 -0.102913395 -0.01542388
000340 a8 e3 a6 bc a3 a2 a6 bd da ea b3 bc 92 a6 eb bd
       -0.020372227 -0.08136489 -0.021962572 -0.1150638
000350 27 29 86 3d ea b9 0f be 35 45 3f 3d e6 dd 9f 3d
       0.06550818 -0.14035764 0.04669686 0.07805996
000360 f0 c1 fd ba 22 2a 4b bb 77 19 d5 bd f3 44 3a 3d
       -0.0019360166 -0.0031000455 -0.10405248 0.04547591
000370 71 05 a9 bb 10 57 52 3c c3 3b 19 be 5a fe 93 bd
       -0.0051581194 0.01283814 -0.14964204 -0.07226248
000380 f5 67 eb bc 16 f2 e1 bc 95 00 2c 3c f3 28 2a 3c
       -0.028736094 -0.027581256 0.010498186 0.01038574
000390 9f 74 10 be 10 65 69 bd 2c b2 08 be 51 ac 21 bd
       -0.14106987 -0.056981146 -0.13349217 -0.039470974
0003a0 44 78 17 be 2b 59 4d bd ab db 92 bc 5e ec 25 bd
       -0.14791971 -0.050133865 -0.017927011 -0.04050862
0003b0 c7 e4 ae 3d 09 a8 32 be a1 05 65 3d 47 6b 1f be
       0.085397296 -0.17446913 0.05591357 -0.15568267
0003c0 45 83 f8 3c 62 d3 48 3d 28 11 e2 bc 80 7d 02 be
       0.030336032 0.049029715 -0.027596071 -0.12743187
0003d0 77 c6 d8 bd 00 b5 00 be 16 85 08 bd 5a 51 c0 bd
       -0.10584729 -0.12569046 -0.033330046 -0.093905166
0003e0 68 fb 97 bd 64 a5 2b 3c 34 6b 05 be 0f c3 37 3d
       -0.07420999 0.010476444 -0.13029176 0.044863757
0003f0 ba c9 fe bc 8a 29 f6 bc 38 80 26 bb 31 54 d0 bd
       -0.03110205 -0.030049104 -0.0025406014 -0.10172308

node_function_neighbor.4.bias f4 [64]
000000 82 d6 af 3d 56 24 2b bc cc 8c 80 3d cb 5e 2b 3d
       0.08585836 -0.010445675 0.06276855 0.04183845
000010 5c 8f b4 bd a8 16 5b bd 28 07 61 bd ed bb 0a 3d
       -0.08816406 -0.053488404 -0.054938465 0.033870626
000020 d7 dc 0e 3e d5 53 2d 3e 9e cd bc bc c7 9c 87 3d
       0.13951431 0.1692651 -0.023047265 0.066217
000030 70 eb 3c be 49 bb a3 bd 46 5f 9d 3c 34 1f ad 3d
       -0.18449187 -0.07994706 0.019210469 0.08453217
000040 95 83 e4 3c 55 90 c0 3d 99 19 87 3c f2 ff 72 3d
       0.027894774 0.09402529 0.016491698 0.05932612
000050 ed 42 fd bd 89 b4 0a 3e e8 3f 13 3e 2b 3c 1a 3e
       -0.12366281 0.13545431 0.14379847 0.15062015
000060 3e bc 10 3d 7d 25 63 bd 42 1a 1f bd 69 25 95 3d
       0.03533577 -0.055455673 -0.0388434 0.07282526
000070 2c 35 d4 bd db 4b 0a 3e 35 aa 90 bd fd e0 80 bb
       -0.10361704 0.13505499 -0.070637144 -0.0039330707
000080 ab ec b6 bd 57 06 1f 3d 40 8e fb bc 1e 24 db bd
       -0.089318596 0.038824406 -0.030707479 -0.10700248
000090 1d 44 96 bd 59 7c bc bd 6a 63 23 bd 8e 2e a1 3d
       -0.0733721 -0.09203405 -0.03988973 0.07870208
0000a0 76 0c d8 3d ab 86 93 3d 3b 9d 86 bd 6b a8 8e bd
       0.10549252 0.0720342 -0.06572958 -0.06965717
0000b0 f6 1f 8a bd a9 48 8d 3d 89 06 36 3d 35 e0 f5 bc
       -0.06744377 0.068986244 0.044439826 -0.030014137
0000c0 60 d3 d4 3d 06 ea 64 bd 3c 12 69 bd 0f 97 52 3e
       0.10391879 -0.055887245 -0.056902155 0.20565437
0000d0 46 91 15 3b 2a a2 29 3b 74 cd 70 3d e2 30 90 be
       0.0022822185 0.002588401 0.058789685 -0.28162295
0000e0 78 c0 b4 3d 93 ab 20 3d 8d 41 fc bc 7e 96 8d 3d
       0.08825773 0.039226126 -0.030792976 0.0691347
0000f0 8d 1d df 3a 0e 8c 3d bd 0c 0c a4 3d 5d 2f e2 bb
       0.0017022357 -0.046276145 0.0801011 -0.006902619

node_function_neighbor.6.weight f4 [4, 64]
000000 df 4e e8 3c 86 48 6e bd c4 67 08 bd 60 5e 4d 3d
       0.028357921 -0.058174632 -0.033302084 0.05013883
000010 81 1a 07 bd 72 a0 b9 bd d5 c4 bd bd f7 ec 0b 3d
       -0.03298426 -0.09063806 -0.09266058 0.034161534
000020 af 4f b7 3d b2 32 b6 3d 94 c7 e1 bd c8 1f a2 bc
       0.08950745 0.08896388 -0.11024395 -0.019790545
000030 d6 dd db 3c e1 a7 4b bd 66 6b d9 3d 85 06 5f 3d
       0.026839178 -0.04972065 0.10616188 0.054449577
000040 e7 a4 9a bc 31 c2 e1 3d e0 7e 19 bd ed 0f 15 bc
       -0.01887746 0.11023367 -0.037474513 -0.009098035
000050 84 54 ab bd 63 d3 6a 3d 48 cb 50 3d 82 72 37 3c
       -0.083657295 0.0573305 0.050975114 0.011196734
000060 1b 1b 31 bd 9e 03 46 bd 48 53 6f 3d a9 97 02 bd
       -0.04323874 -0.048343293 0.058429033 -0.031882916
000070 a8 56 ac 3d 78 71 81 3d 76 80 61 bd 90 a4 e1 3c
       0.08414966 0.063204706 -0.05505415 0.02754429
000080 ee 47 a2 ba ae 0f 46 bd f6 9d 10 3e df 39 6d bd
       -0.0012381056 -0.048354797 0.14122757 -0.05791652
000090 9b 01 47 bd 7f 86 70 bd 97 d9 9b 3d e4 43 34 3d
       -0.048585515 -0.058722015 0.07609861 0.044010058
0000a0 08 ca 3f 3d aa b3 0d 3b 03 cb 4a bd af 16 9e 3d
       0.04682353 0.002162198 -0.049510013 0.0771917
0000b0 d3 30 39 3d f1 90 8f bd 4b d9 7a 3d 19 eb 35 bc
       0.045212578 -0.07010067 0.061242383 -0.011103415
0000c0 ab 8f b2 3c 75 40 3d bd 87 42 80 bd c3 dc d0 bd
       0.021797022 -0.04620405 -0.06262689 -0.10198357
0000d0 eb a1 b6 bd 0c 8f bd b4 93 53 16 3e 08 a4 f9 ba
       -0.08917602 -3.5308074e-07 0.14680319 -0.0019046078
0000e0 a4 86 59 bc 7c 5e a0 bc b6 12 cf 3d fb 91 2c 3d
       -0.01327673 -0.019576304 0.10110991 0.042131405
0000f0 3f b6 ed bc 38 8b c2 3c 5f 1a ce 3c 43 1b c7 bd
       -0.029017566 0.023748025 0.02515906 -0.09721997
000100 4f 64 16 3d 20 4b 09 bd 9e 14 0a 3d 68 71 c4 3d
       0.036716755 -0.03351891 0.03371107 0.09591943
000110 25 b8 cf 3d 33 6f 96 bd fe 8f bd 3d 29 4d 30 bd
       0.10142545 -0.07345428 0.0925598 -0.043042336
000120 28 53 30 3c eb 0c 11 bd 61 6b ce bb a1 38 54 3d
       0.0107620135 -0.03541271 -0.0062994217 0.051811818
000130 84 f7 6d 3d 61 77 53 bd c1 b5 44 bd 7f 2a 67 bd
       0.058097377 -0.05162752 -0.048024897 -0.05643701
000140 ee 68 9b 3d 67 ae 19 bb e5 be ea bd e1 f3 92 bd
       0.07588373 -0.00234499 -0.114621915 -0.071754225
000150 4c d1 50 bd 00 c6 d3 3d 79 1a 39 bd 08 e3 b0 bd
       -0.05098085 0.103405 -0.045191262 -0.08637053
000160 99 4f 52 3d 63 f0 e7 3d cd 7c 84 bd 21 e7 be 3b
       0.05134544 0.11325147 -0.06469116 0.0058258926
000170 14 0d f2 3d e2 66 72 3c 6e 54 eb 3d d5 74 82 3d
       0.11818901 0.014795037 0.11490713 0.0636994
000180 d3 0c bb 3b f8 5f f8 3d 7a 76 ae 3c 0a f6 07 3d
       0.005708316 0.121276796 0.021296728 0.033193626
000190 7b 17 12 bd 3f 6a cc 3d 40 1b 98 3c b8 8e 0d 3c
       -0.035666924 0.09981202 0.018567681 0.008639984
0001a0 ba d1 dc 3c 5d a1 ab bd 59 07 0d 3e 56 d3 a0 bd
       0.026955474 -0.08380387 0.13772334 -0.07852809
0001b0 73 af 2e be c7 8b 19 3e 0c 84 ff bc 63 de e1 3d
       -0.17059116 0.14994727 -0.031190895 0.11028745
0001c0 f4 75 f5 3d 3a 66 b6 bd 27 9d 20 bc 04 8e 83 bd
       0.119853884 -0.08906217 -0.009803093 -0.06423572
0001d0 65 7c 4e 3d ac 89 a1 3d 0c 19 97 3d b2 4e 02 3d
       0.0504116 0.07887587 0.07377824 0.03181333
0001e0 f0 e6 89 3d 53 b9 58 3d 8a e6 12 3c 6a 15 dd 3d
       0.06733501 0.052911114 0.008966098 0.107951
0001f0 2d 0b b8 3d fe da 31 3d 35 2b 42 3d 2b a8 04 3c
       0.089865066 0.043421738 0.047404487 0.008096735
000200 66 f1 fd 3d 28 14 c4 3d ec 17 9a 3d 64 8a 1e bd
       0.12399559 0.09574157 0.07524094 -0.0387062
000210 f1 36 bd 3d e0 d3 89 bd ff c0 9d 3d 41 c5 5b 3e
       0.09238995 -0.06729865 0.07702827 0.21461965
000220 90 7c 0b 3e 24 fd 06 3e 30 6b 17 3e 00 69 d2 3d
       0.13621736 0.13182503 0.14786983 0.102739334
000230 51 4e a5 bd fe b5 89 bc d0 40 d6 3c a1 ee 1c 3e
       -0.08071578 -0.016810413 0.026153952 0.15325405
000240 d3 e0 24 3e 00 f0 ca 3d bd 57 7e 3d 7d 64 df 3d
       0.16101389 0.099090576 0.062095392 0.109078385
000250 bf 0e 76 3d 4e 3d 91 3d ef 7c 7c 3d 78 fa da 3d
       0.060072657 0.07091771 0.061642583 0.106923044
000260 12 07 39 bc ad c9 a6 3c 88 a7 5e 3d 21 7d cf bd
       -0.01129319 0.020359838 0.05435899 -0.10131288
000270 0e b2 c2 3d a8 21 6d 3d 78 63 09 3d c9 68 05 3d
       0.095066175 0.057893425 0.033542126 0.032570634
000280 c4 bf 42 3c 03 f3 c4 3c 59 3f bf 3b 82 62 94 3d
       0.011886541 0.024041658 0.005836409 0.072453514
000290 e1 d2 13 3e f3 dd 81 bc 76 cd 21 b9 88 5d ef 3d
       0.14435913 -0.015852904 -0.00015430697 0.116877615
0002a0 a6 38 3b bc b2 32 dc 3d 73 10 0d bd 9c e7 ed 3d
       -0.01142708 0.10751857 -0.034439515 0.116164416
0002b0 92 5a 34 be 46 ea 16 bd b6 c1 16 3e cd f5 e6 3d
       -0.17612675 -0.036844514 0.14722332 0.112773515
0002c0 cd ad 25 3d 78 62 6d 3d 1e a2 61 bd 28 ee ba 3d
       0.040448952 0.057955235 -0.055086248 0.09127456
0002d0 59 79 3d bd 41 6d 02 3e 68 40 a5 bd f4 ad 78 be
       -0.046258304 0.1273699 -0.08068925 -0.24285108
0002e0 b4 67 fc 3c 03 be 5c ba c5 ab 9c 3d 1e 08 43 bc
       0.030811168 -0.0008420648 0.0764995 -0.011903791
0002f0 f9 5d ce 3d ad 51 8c bd 56 8b 87 3d 42 40 89 3d
       0.100765176 -0.06851516 0.06618373 0.06701709
000300 04 ba af bd d6 3b 9f 3d c7 c8 1d bc d5 b7 1e bd
       -0.085804015 0.07775085 -0.009630389 -0.038749535
000310 9a 09 74 3d 8b 27 be 3d 38 cf ad 3d fa 82 a7 bd
       0.05957947 0.09284886 0.084867895 -0.08179279
000320 be 87 cc 3c fb b5 df 3d 73 9a d8 ba 43 c7 dc 3d
       0.02496707 0.10923382 -0.0016525522 0.10780194
000330 b0 0c 82 bd 12 87 03 bd 74 4b 24 3a 76 ba e0 3d
       -0.06350076 -0.032111235 0.0006267347 0.109730646
000340 d1 08 c6 3d 34 66 b7 3d 01 07 09 bb 7a fd d5 3d
       0.0966965 0.089550406 -0.0020908716 0.104487374
000350 37 c9 d5 bd 80 ad f7 3c e6 f7 69 3d ec ed d0 3d
       -0.10438769 0.030234098 0.05712118 0.1020163
000360 16 a9 9f bc 25 3f 95 bd c1 4a 6b 3a b9 06 b7 3d
       -0.019489806 -0.072874345 0.0008975678 0.08936829
000370 70 90 60 bc 68 68 44 3d 34 6d 46 bd 52 bf 17 3d
       -0.013706312 0.047951132 -0.048443988 0.03704769
000380 62 15 be bd 95 69 12 bc a9 c3 56 bd 1b 7d bd 3b
       -0.09281422 -0.0089363055 -0.05243269 0.005782736
000390 dd 8b 0c 3c 44 67 7e bd 97 ea 61 bd 14 43 b9 bd
       0.008578268 -0.0621102 -0.055155363 -0.09045997
0003a0 36 6d bc 3d 1a 96 f0 3d c9 04 65 3d 96 04 84 3c
       0.09200518 0.117473796 0.055912767 0.016115468
0003b0 0e cc 99 3d cb da c5 bd b1 41 9c 3d da e2 36 bd
       0.075096235 -0.09660872 0.07629717 -0.044649936
0003c0 d6 0d 53 3d 7b 6f 0a 3c c5 9d c8 bd 2d c9 af 3d
       0.051526867 0.008449431 -0.09795717 0.08583293
0003d0 7a 90 45 bd 10 13 7f bd 6a 75 91 bd 0c 34 8f be
       -0.048233487 -0.06227404 -0.07102473 -0.27969396
0003e0 10 c1 9a 3d ab 18 cc 3d cf 1d 44 bd c2 a0 90 3d
       0.07556355 0.099656425 -0.04787999 0.07061912
0003f0 3b 77 d9 bd 9b 34 a4 bc 66 95 01 be 0a 77 89 3c
       -0.106184445 -0.020044615 -0.12654647 0.016780395

node_function_neighbor.6.bias f4 [4]
000000 51 20 32 3d 43 9c 2c bd 9e 2f be 3d 94 b2 50 bc
       0.04348785 -0.04214121 0.09286426 -0.012737889

edge_function.0.weight f4 [64, 4]
000000 80 85 c4 3e 01 e7 71 3e af 6e 80 be 4a 6b 81 be
       0.38383102 0.23623277 -0.25084445 -0.25277168
000010 b2 e5 dc bb 65 3c b1 bd a2 c0 be be 6b eb f6 3e
       -0.006741249 -0.086540975 -0.37256342 0.48226485
000020 b4 5f 76 be c7 32 61 be d3 a4 2c be 1a 47 6e bd
       -0.24059945 -0.21992026 -0.1685975 -0.058173276
000030 4e 41 da be 1c 6b ad 3d 3e f5 83 be c1 43 96 bc
       -0.4262795 0.08467695 -0.25773042 -0.018342854
000040 0c a5 8b 3c 73 f6 3d 3d 25 e2 89 3e 19 17 2d bd
       0.017046474 0.04637761 0.26930347 -0.042258356
000050 83 2d 40 be 25 b6 41 3e 6b ec 44 3d de 55 69 be
       -0.18767361 0.18917139 0.04807703 -0.22786662
000060 3b 52 b1 bd 39 52 1c 3b 9e eb 62 be 41 b4 eb 3e
       -0.08658262 0.002385272 -0.22160193 0.4603596
000070 e6 93 b1 be 55 2a 81 3e 28 e6 19 3e 2a d4 8c bd
       -0.3468315 0.2522761 0.15029204 -0.068764046
000080 b8 d5 e5 bd 42 ed c8 be a4 11 1f be 7f b5 a4 3d
       -0.11222404 -0.39243513 -0.15534073 0.0804243
000090 7e 69 50 be f4 56 64 ba 5a 17 d1 3e c5 99 1c be
       -0.20352742 -0.0008710467 0.40838128 -0.15293033
0000a0 d1 0a 86 be dc 7e ef be 3a a4 b4 be a5 60 c0 3e
       -0.26180127 -0.46776474 -0.35281545 0.37573734
0000b0 e6 1a 96 3e d4 ab a9 be df 9d 90 3e d3 f1 78 3e
       0.29317397 -0.33138907 0.28245446 0.24310999
0000c0 9f aa 2a 3e f3 94 0c 3b cf 65 08 3c 0c 82 58 be
       0.1666665 0.0021451085 0.008325054 -0.21143359
0000d0 4d 63 d9 3e 11 4c c9 be a2 71 f0 3e 02 55 2a be
       0.42458573 -0.39315847 0.46961695 -0.1663399
0000e0 92 c6 17 3e 7b e4 e3 3d 04 63 b5 3e 42 53 de be
       0.14821842 0.111275636 0.35427105 -0.43422896
0000f0 8c 67 00 3e 22 6c 8d 3e fa f4 e6 be de 90 72 3d
       0.125395 0.2762156 -0.45108777 0.059220187
000100 83 40 e0 bd 09 93 ce be 19 91 72 3e 32 e8 bb 3e
       -0.10949805 -0.40346554 0.23688163 0.36700588
000110 e4 d2 d4 3e d0 c3 a8 3e 46 db 14 be 51 de 51 be
       0.41567147 0.32961893 -0.14536771 -0.20494963
000120 10 45 b6 3e fc 15 de be e2 92 48 3e f7 28 8f be
       0.35599566 -0.43376148 0.19587281 -0.2796094
000130 3d b8 e8 3e ed 99 96 3d ba 37 15 3e 4c ca a6 be
       0.45453063 0.07353578 0.14572039 -0.32576215
000140 5d c0 c0 3e 43 17 0b 3e 7c 90 4a 3e f4 4f 49 3e
       0.37646762 0.13583092 0.19781679 0.19659406
000150 fa 33 03 be f5 2c 1e be 22 b7 2b bd a1 de 5c be
       -0.12812796 -0.15446837 -0.041922696 -0.21569301
000160 9b 32 dd be 75 5d c3 be c3 b1 c1 3e 3b 96 18 3e
       -0.4320267 -0.3815724 0.37830934 0.14901058
000170 a4 31 23 3e 6a 35 cf bd 54 1e 7f be aa a9 df be
       0.15936905 -0.1011761 -0.24913913 -0.4368413
000180 ec e5 28 3e 60 0b 31 3e 18 63 28 be a9 5b c7 3e
       0.16493958 0.17289495 -0.16444051 0.3893712
000190 8f cf d7 bd 3f ef c8 3d 85 e5 df 3e 94 d0 c8 be
       -0.105376355 0.098112576 0.43729797 -0.39221632
0001a0 9e 56 6c be 55 ab e6 be 6f 0c 2b be ac a6 04 3e
       -0.23079917 -0.4505259 -0.16703962 0.12954205
0001b0 57 9b 27 be 40 b3 a8 bd ed 82 6f be 45 6e 51 be
       -0.16367851 -0.08237314 -0.23389788 -0.2045222
0001c0 56 48 f2 bc be 55 63 3e d5 2a 8d be db 74 be be
       -0.029575508 0.22200677 -0.2757174 -0.3719853
0001d0 85 1a 1d bc 23 f7 77 be 47 e4 d5 3d 14 9a 84 3e
       -0.009588842 -0.24215369 0.10443931 0.25898802
0001e0 d1 de c5 be ce 7e 5c 3e 92 bc 85 be a5 36 04 be
       -0.38646558 0.21532747 -0.2612043 -0.1291147
0001f0 cd fd 29 be 2c c9 3f 3e 0e 75 ac 3e 13 43 ad 3e
       -0.16600724 0.18729085 0.33683056 0.33840236
000200 8f d8 2f 3e b2 6d da bd c9 6a 95 3e 83 85 85 be
       0.17172454 -0.10665454 0.29183033 -0.26078424
000210 76 6f 55 3e 83 4f 6c 3e 7b fb b0 be 37 23 88 bd
       0.208433 0.23077206 -0.34566864 -0.06647342
000220 58 b0 9b 3e 29 41 80 be 02 98 0b 3e 84 68 e7 3e
       0.30407977 -0.25049713 0.13632205 0.45196927
000230 ed 6b cb 3e df 1c 3a 3e 7b b1 81 3e b8 10 d9 3d
       0.39730778 0.18175076 0.2533072 0.10598892
000240 10 2e c6 3e da 5a 99 be cf 1d d2 be 54 51 ec 3d
       0.38707018 -0.29952127 -0.41038367 0.115389496
000250 39 f9 af bd c5 01 d1 3e df 07 cb be ed ba 3e 3e
       -0.08592457 0.40821663 -0.39654443 0.18625994
000260 53 cf 90 3d 01 5a fb 3e 15 8a dd be bd 92 03 be
       0.07070794 0.49092105 -0.4326941 -0.12848945
000270 22 ff 76 bc 8b 1b aa bd 06 99 5d be cb 12 d3 3e
       -0.015075477 -0.08306035 -0.21640405 0.41225275
000280 d3 9f 62 be 86 14 90 3e de e8 b3 be 99 ca bf 3e
       -0.2213128 0.28140658 -0.351386 0.37459257
000290 6a 70 53 be 24 f8 c1 3d fa fd c7 be 89 14 23 3e
       -0.20648351 0.09471157 -0.39060956 0.15925802
0002a0 b3 94 da be 5b 0e 56 3e a4 8d 38 3e 9e 70 98 be
       -0.42691574 0.20903914 0.18022782 -0.2977342
0002b0 11 a4 0c 3e 97 52 47 3d 23 96 6c 3e f5 98 ad be
       0.13734461 0.04866275 0.23104148 -0.3390576
0002c0 ed 20 9c 3e 64 5c d5 be d7 bc ab 3e 38 04 8c 3e
       0.3049387 -0.4167205 0.3354251 0.2734697
0002d0 0c be 6e be 33 3f c1 3d 29 99 7d 3d 4e 59 0f be
       -0.23314685 0.094358824 0.061913643 -0.13998911
0002e0 05 ef 8a bd c3 79 f8 3e e7 d1 cf 3c c3 76 86 be
       -0.067838706 0.48530397 0.025368644 -0.26262483
0002f0 5e c3 22 be d1 1f dd be 0e fa ad 3d 8d e1 ce 3e
       -0.15894839 -0.43188336 0.0849496 0.40406457
000300 3e 66 c1 be ec 72 86 be 5d 60 0b 3e 70 bd 64 3d
       -0.37773317 -0.26259553 0.13610978 0.055844724
000310 5e 68 1e 3e 54 aa c7 be 64 ff 79 3e 2d b4 b5 be
       0.154695 -0.38997138 0.2441383 -0.35489026
000320 77 0c a2 be b9 af 2e be f1 8b 37 be 1d 25 df be
       -0.31650135 -0.1705922 -0.17924477 -0.43583003
000330 a5 db fe be 68 f5 8d 3e 47 0a a9 be 2a e8 d5 3e
       -0.4977695 0.27726293 -0.33015653 0.4177869
000340 73 88 39 3e 8f df 87 be 0b f2 ae 3c 98 6f c5 3e
       0.18118457 -0.2653775 0.02135565 0.38561702
000350 e3 ef 9d 3e b8 70 f3 3d f1 76 b8 3d e0 8d 9e 3e
       0.30847082 0.11886734 0.09007061 0.30967617
000360 d7 9c e3 be 58 4b 9d bd 49 6a b1 3e c2 45 a1 bd
       -0.44455597 -0.07680386 0.34651402 -0.07874633
000370 b5 c0 a5 bd 5a ad 9e 3e d9 3d 7e bd a5 8c d2 be
       -0.080933966 0.30991632 -0.0620707 -0.41122928
000380 37 d5 c0 bc b9 31 ae 3c b4 f3 a8 be b7 67 af be
       -0.023539169 0.021263944 -0.3299843 -0.34258816
000390 20 ab d4 be 45 ba 71 be 93 c3 92 be e7 e0 b1 3e
       -0.41536808 -0.23606212 -0.28664836 0.347419
0003a0 c6 cc e5 3e 28 45 ce 3e 2e 9c 38 bd f8 2b e7 bd
       0.44882792 0.40287137 -0.04507082 -0.11287683
0003b0 da e8 b4 bd ea b8 19 3e 4c c6 8b 3e 9a b0 dd be
       -0.088334754 0.15011945 0.27299726 -0.432988
0003c0 56 00 f3 bc fc 58 f5 3c 80 6f 37 be 2e eb f6 3d
       -0.029663246 0.029949658 -0.17913628 0.12056576
0003d0 67 d6 39 be ce 8e a7 bd 15 62 11 be 4d b1 a8 3e
       -0.18148194 -0.08181535 -0.14197572 0.3294777
0003e0 60 8a 7e 3e 65 4e ab be 33 0c 89 3e 8a 49 e6 be
       0.24857473 -0.33458248 0.2676712 -0.4497798
0003f0 3a 9b b0 be 04 7a 83 3e 0f c9 a6 bd 3c d1 c6 3e
       -0.34493428 0.25679028 -0.08143818 0.38831508

edge_function.0.bias f4 [64]
000000 32 8b 91 be 27 76 ba be 13 8a 93 bc 03 d8 3e 3e
       -0.2842651 -0.36418268 -0.018010175 0.1863709
000010 30 9f c7 3d 7c 6a d3 be 65 8a e9 be 79 75 20 3e
       0.097471595 -0.4129218 -0.456134 0.15669812
000020 6f dd 88 be e5 0b ad 3e 0c 05 cf bd 09 5d f6 be
       -0.2673144 0.33798137 -0.101083845 -0.48117855
000030 56 1a cb 3e 36 06 96 3e d2 5f d3 3d 4a d1 64 bd
       0.3966853 0.29301614 0.10321011 -0.055863656
000040 5c e3 03 bf 30 09 01 be a6 20 75 be 16 57 44 3e
       -0.515188 -0.12601161 -0.23938236 0.19173846
000050 ba f6 d7 be 2a 7c 99 3e a6 3e ec be 23 c6 45 3e
       -0.42180425 0.29977542 -0.46141547 0.19313864
000060 70 4b aa bd e2 34 5c bd d7 ca 7a be 00 aa e8 3e
       -0.0831517 -0.05376137 -0.2449144 0.454422
000070 38 60 72 3e c7 3c 9e bd ae d2 e7 be a0 99 8e 3e
       0.23669517 -0.07726436 -0.45277923 0.27851582
000080 a5 e7 fb be a4 35 42 be 73 46 2d be cb 9d c2 be
       -0.49200168 -0.18965775 -0.16921405 -0.3801101
000090 ac 17 ff be 4c d8 95 3e df b6 a1 3d 02 f7 1a be
       -0.49822748 0.29266584 0.07896208 -0.15133289
0000a0 a8 a1 59 3e 6d b9 97 be 58 04 d4 3d 90 f8 aa be
       0.21253073 -0.29633656 0.10352391 -0.33392763
0000b0 9b f5 b4 be 80 8a f2 be c1 6f f6 3e 66 7c f3 be
       -0.35343632 -0.47371292 0.48132136 -0.47555846
0000c0 d0 db 6c be 49 1b 6e be 62 9c a2 be 42 04 d3 bc
       -0.23130727 -0.23252596 -0.31759936 -0.025758866
0000d0 21 dd a9 3e 46 70 0a be 6c 0b c7 3e 66 dc f3 3c
       0.3317652 -0.13519391 0.38875902 0.02976818
0000e0 08 d6 49 be 45 69 e8 3d 0e e0 fe be dd a4 b4 be
       -0.19710553 0.113482036 -0.49780315 -0.3528203
0000f0 33 ee f6 3d 05 3c 3d 3c b6 53 da 3e 7e 0c 98 3e
       0.12057152 0.011549954 0.4264199 0.2969703

edge_function.2.weight f4 [64, 64]
000000 91 f4 3a bd 24 e7 87 3d 16 30 51 3d 02 33 d3 3d
       -0.045643393 0.066358835 0.05107125 0.10312463
000010 66 fb e4 3c 60 58 8c bc 50 f6 a4 bd 6e 28 f1 bd
       0.027951907 -0.017131984 -0.08054793 -0.117752895
000020 6c 16 ab 3d 96 82 08 be a5 0c c1 3d b6 b5 93 3d
       0.08353886 -0.13331065 0.0942624 0.07212393
000030 72 d2 8c bd cc 22 01 bd 5e 7e 0c be dd b9 d0 bd
       -0.06876077 -0.031527326 -0.1372008 -0.101917006
000040 d7 70 d7 bc 5c 6f b8 3d f0 df d6 3d d4 17 84 3d
       -0.026298923 0.09005615 0.104919314 0.06449857
000050 37 bd 2d 3c 2d 75 b7 3c 0b d9 89 3d c8 13 7a 3c
       0.010604194 0.022394741 0.06730851 0.015263505
000060 b6 fb df 3d 7b 24 00 be 30 b8 99 3d 4d 81 df bd
       0.10936682 -0.12513916 0.07505834 -0.10913334
000070 3d 83 b2 3d 38 93 2d bc cc 44 3a 3d 9a 9a c3 3d
       0.08716438 -0.010594182 0.045475766 0.09550972
000080 07 b3 41 bd e2 aa 12 3d d1 21 a9 bd 12 cd ea bc
       -0.047289874 0.035807498 -0.08258403 -0.028662238
000090 c6 94 ca bd f2 d2 8d 3d bd b0 bb 3d 46 14 ad 3c
       -0.098916575 0.06925 0.091645695 0.021127831
0000a0 45 f1 a6 3c ef 67 e1 3d fd f4 6f bd 2d bb 9d bd
       0.020378718 0.11006152 -0.05858325 -0.077017166
0000b0 1e 86 80 bd b9 f3 be 3d 6d cd 3a bd d4 d6 a7 3d
       -0.06275581 0.0932383 -0.045606066 0.08195272
0000c0 fb aa 30 3c f0 95 c1 3a a9 b0 09 3d fd 9c 95 3d
       0.010782952 0.0014769416 0.033615742 0.07305334
0000d0 3f 29 5d 3d 81 3f aa bd ba 8c bf bc f8 e9 9b 3d
       0.053994413 -0.08312894 -0.023382533 0.076129854
0000e0 89 49 ef 3d fa f3 aa bd 4e 59 a2 3d 4e cf 8a bc
       0.116839476 -0.08347316 0.0792719 -0.016944554
0000f0 53 80 5a bd ae f1 96 3d 98 5f ac bd 17 e9 b1 3d
       -0.053345036 0.073703155 -0.084166706 0.086870365
000100 56 4e 41 bd 49 90 16 3d f0 84 1f 3d 57 41 f3 39
       -0.047193848 0.036758695 0.03894514 0.00046397254
000110 22 b5 33 3c 52 51 bc bd 07 24 57 3d 9b 0f e0 bd
       0.010968478 -0.09195198 0.052524593 -0.109404765
000120 f0 da c8 bd 9a 85 b9 bd 5c 6d a4 bd be 9f b5 3b
       -0.09807384 -0.090586856 -0.08028671 0.0055427244
000130 9b 73 c8 3d db e8 67 bc 96 45 d4 bd 42 d4 d1 3d
       0.09787675 -0.014154638 -0.10364835 0.10245563
000140 db d1 12 3d ad 55 a6 3d 1c dc 8c 3d d7 79 b7 3a
       0.035844665 0.0812181 0.0687792 0.0013998103
000150 7f 23 0a bd 3d b1 b9 3b 6c 60 18 3c 2a 84 a7 3d
       -0.033725258 0.0056668804 0.0093003325 0.08179505
000160 f1 b9 06 3b ca b2 eb bd 8c aa 35 bb d8 39 aa 3d
       0.0020557607 -0.11508711 -0.0027720062 0.08311814
000170 c5 e4 6f 3d a4 6e e9 bc a3 f4 08 be 55 2c 08 bd
       0.05856778 -0.02849514 -0.13374572 -0.033245403
000180 a7 6f 89 bc 65 7d 68 bd 35 7f 2b 3d 40 c9 e7 ba
       -0.016776873 -0.05676021 0.04186936 -0.0017683879
000190 a6 ab 76 3d d7 dc c2 3d 30 e7 76 bd 5b 1e f1 3d
       0.06022229 0.09514778 -0.06027907 0.11773368
0001a0 3b 18 da 3c 38 62 8c 3d e2 69 f3 bd bf e4 95 3d
       0.026622882 0.06854671 -0.1188543 0.073190205
0001b0 25 ab 98 3d 13 da 9c bd 43 af f8 bd 7c 89 fa 3c
       0.07454518 -0.07658782 -0.121428035 0.030583136
0001c0 ee 5b 92 bb 79 ea 9c 3d 90 f4 ab bd e1 d3 67 3b
       -0.0044665253 0.076619096 -0.08396256 0.0035374092
0001d0 af c7 94 3d 96 c1 99 3c 0d 26 51 bd 04 78 7d 3d
       0.07264649 0.018769067 -0.05106168 0.061882034
0001e0 29 e8 44 bd 7b ec 0c bd 48 d1 18 3d 55 97 13 be
       -0.048072968 -0.034405213 0.03730896 -0.14413197
0001f0 0a b4 12 bd 04 fa 21 bd 18 62 b0 bd 1b 7c 25 bd
       -0.03581623 -0.039545074 -0.0861246 -0.04040156
000200 85 7a dc bd c7 80 08 bd 81 b4 66 3d 60 d6 27 3a
       -0.10765556 -0.033325937 0.056324486 0.0006402489
000210 62 e1 e9 3b db 7b ee 3d ee cf 98 3d 8e 33 9b 3d
       0.0071374634 0.11644717 0.074615344 0.07578193
000220 1c 7a f3 3d 71 3e e6 bd 65 af cd 3d fa 9f 8a bd
       0.11888525 -0.112423785 0.100432195 -0.06768794
000230 2a 00 d5 bc e8 1c 76 3d c3 6c fe bd 22 5e 4b 3d
       -0.026001055 0.06008616 -0.124230884 0.04965032
000240 04 ba 47 3d 79 e8 07 bd 54 b7 f6 3d 13 8e ce bd
       0.048761383 -0.033180688 0.12046686 -0.10085692
000250 01 2f b7 3c 26 af 4f bd 42 89 44 3d a3 1d d9 bd
       0.02236128 -0.050704144 0.04798246 -0.10601356
000260 a2 5d 52 3d 97 28 d1 3d 2e 3c 93 bd 0a b5 1c bd
       0.051358826 0.1021282 -0.07189213 -0.03825859
000270 f3 61 fc 3c 68 e6 01 3d 10 68 f2 3c e9 d5 d8 3b
       0.030808425 0.031713873 0.029590636 0.006617297
000280 fd b3 92 3b 99 c0 04 bd d4 68 44 bd 53 52 08 be
       0.0044770227 -0.032410238 -0.047951534 -0.13312654
000290 b2 80 4b 3c 51 ce 6e 3d 05 57 3b bd e6 d9 c2 bd
       0.01242082 0.058302227 -0.045737285 -0.09514217
0002a0 96 a5 4b 3d 80 04 8f 3d bf 20 ac bd 26 0c 28 bd
       0.049718462 0.0698328 -0.08404683 -0.04102721
0002b0 ed bb 3d bd fe 56 c5 3d 72 b7 6c bd cb db d4 3d
       -0.046321798 0.09635733 -0.057792135 0.10393485
0002c0 ee 7f ab bc d3 e3 8d 3d e4 28 e6 bd 29 f7 72 3c
       -0.020935025 0.0692822 -0.11238268 0.014829435
0002d0 97 b0 a9 bd 8e cd 9d 3d 0c 18 a3 3d 90 68 d0 bd
       -0.08285635 0.07705222 0.07963571 -0.10176194
0002e0 98 94 c9 bd e5 88 43 bc 09 91 a1 3c b3 10 d4 bd
       -0.09842795 -0.011934494 0.019722478 -0.103547476
0002f0 67 97 d4 3d 24 5a 35 bc 51 30 45 bd b6 02 80 3d
       0.1038044 -0.0110688545 -0.04814178 0.06250517
000300 15 4f 4f 3d 93 60 ec 3d 33 df 8b bd 9b 33 b6 3d
       0.050612528 0.115418576 -0.06829681 0.08896562
000310 70 62 c0 bd 92 8b c2 3d 0c a9 da 3d d7 47 04 be
       -0.093937755 0.09499277 0.106767744 -0.1291803
000320 da a7 a6 3c ac 9a d9 bc 04 5e d1 b9 88 fe e3 3d
       0.02034371 -0.026563011 -0.00039933634 0.11132532
000330 16 c5 f4 3b 8a 43 9c 3d e0 81 38 3b 65 7c ba bc
       0.0074697835 0.076300696 0.0028153583 -0.022764394
000340 38 29 6d bc 26 69 1f 3d b9 f9 96 bb 4f 0b 09 3e
       -0.014475159 0.038918637 -0.004607406 0.1338322
000350 f8 28 11 3e 28 83 a4 bd 7d 98 90 bd 70 fb 3b 3d
       0.14175785 -0.080328286 -0.07060335 0.045894086
000360 35 d3 d1 bb 8e bb 70 3d aa cd 71 3c 7b 25 f4 bd
       -0.0064033517 0.058772616 0.014758507 -0.11921211
000370 d9 5f 81 bd 50 64 df 3d 86 92 c5 bd 6d 2e e6 3d
       -0.063171096 0.10907805 -0.09647088 0.11239324
000380 d6 c4 81 3d ff 6e 0a 3e 75 b3 b4 ba 20 77 1b 3d
       0.063363716 0.13518904 -0.0013786393 0.037955403
000390 10 52 5c bd b1 0d 9d 3d dc e2 6b bd b9 8a 90 bd
       -0.0537892 0.07668627 -0.057589397 -0.07057709
0003a0 67 5e 18 3e 1f 06 87 bd 43 1b 26 3d fe 43 46 bd
       0.14879762 -0.065929644 0.040553343 -0.048404686
0003b0 3b 49 10 3e 61 6f 1c 3d 95 c6 86 3d a6 f5 bf bd
       0.14090435 0.038192157 0.06580845 -0.093730256
0003c0 ee 9b f4 bc 55 b9 60 3d 89 3f 24 3d 34 07 8b 3c
       -0.02985951 0.054864246 0.040099654 0.016971208
0003d0 ad d3 9e bd 03 08 81 bd 15 82 1b be a1 f4 1a bd
       -0.07755218 -0.06300356 -0.15186341 -0.037830953
0003e0 e4 78 c0 bd c5 18 e9 3d ad f7 1e 3e fd bc c5 bd
       -0.09398058 0.113816775 0.15524168 -0.09655187
0003f0 65 7f 75 3c b0 6b ae 3d 34 81 e7 bd ab c3 c3 3d
       0.0149839865 0.085166335 -0.113039404 0.09558805

edge_function.2.bias f4 [64]
000000 fd 20 50 bd 56 f6 1b bd ba 7d c4 bd 0b 55 82 3d
       -0.05081271 -0.03807672 -0.09594293 0.06363877
000010 b4 20 ed bd fc 90 97 3d a2 f2 4e bd 3f 71 68 bc
       -0.11578503 0.074007004 -0.05052436 -0.014187156
000020 3f e0 d3 bd 51 e9 79 bd d4 8f 09 3d 4f 61 3f bc
       -0.10345506 -0.061013523 0.03358443 -0.011680915
000030 d1 d6 52 3c 16 83 19 bc 53 a3 9a bd c3 f4 c6 bc
       0.012868599 -0.009369632 -0.07550683 -0.024286633
000040 38 88 42 3d d8 a9 ea 3d b1 e9 3e bd 6e 91 86 3d
       0.04749319 0.114581764 -0.046609584 0.06570707
000050 2b 40 c3 bd 4d 04 d0 3d dd 88 de bd a4 8a 94 bc
       -0.095337234 0.1015707 -0.10865948 -0.018132515
000060 a9 30 1a be da 11 6d bc 84 34 69 bd 38 9e 89 bc
       -0.15057625 -0.014469588 -0.05693485 -0.016799077
000070 6a 58 bc bd 4e fb 1c 3d 8f c4 5a bd 97 8d 7c bc
       -0.09196551 0.0383256 -0.05341011 -0.015414617
000080 9c 1f 10 ba 34 7e 5d 3d 34 2f b2 3d 8a 15 e9 3c
       -0.0005497874 0.054075435 0.087004095 0.028452653
000090 1e 52 d7 bc 94 12 6e 3b 2d 9c cb 3c 72 a5 46 bc
       -0.026284274 0.0036326991 0.024854744 -0.012124406
0000a0 b5 30 d6 bd e4 16 35 bd 78 74 e1 bd e4 a0 ea 3d
       -0.10458509 -0.044211283 -0.11008543 0.11456469
0000b0 1a bd d6 3d 23 1d 91 bd 9e 66 73 bd 40 7c a2 bd
       0.10485287 -0.070856355 -0.059424035 -0.07933855
0000c0 35 cd a4 3d ea 75 a0 3d b9 a2 0c be ec 09 20 3c
       0.08046953 0.0783499 -0.13733949 0.009767991
0000d0 d9 9a fa bd 67 a3 26 bd cc 1b b1 bc 38 7e 36 3d
       -0.12236566 -0.040683176 -0.0216197 0.044553965
0000e0 f2 e9 f2 3c 44 45 aa 3d 04 d5 23 3d 73 5b 60 3a
       0.02965257 0.083139926 0.03999807 0.0008558549
0000f0 12 88 e5 bd 38 dc 07 be 33 7d 7c 3d 77 b7 6b bc
       -0.11207594 -0.132676 0.061642837 -0.014387003
