Projects/GuoxiangGrayson_T_A study of multi-fidelity graph neural networks/Model_save/Quarter2D/Rank=200-GNN-nB-64-Lr-0.005/model.pth (torch, 114781 bytes, 24 tensors)

node_function_neighbor.0.weight f4 [64, 2]
0	0x3ef40005	0.47656265
1	0x3f0f1fad	0.5590771
2	0x3d24207d	0.040070046
3	0xbebd28a5	-0.36945072
4	0xbf111d9f	-0.56685823
5	0x3e5c256b	0.21498649
6	0x3da543d4	0.08069578
7	0x3eeafc3e	0.4589557
8	0xbc8ec667	-0.01742859
9	0x3ee9b36d	0.45644704
10	0x3e124aeb	0.14286391
11	0x3eba52c7	0.3639128
12	0xbf0f0d0b	-0.55879277
13	0xbcfdc7df	-0.030979095
14	0xbf15c25f	-0.5849971
15	0xbe4b848f	-0.19874786
16	0xbf1b063b	-0.6055638
17	0xbef20fcf	-0.47277686
18	0xbf2db3ff	-0.6785278
19	0x3e97a148	0.29615235
20	0xbebd5cf5	-0.36984983
21	0x3f1ebdcc	0.6200836
22	0x3f23e6b7	0.6402392
23	0x3e4b1ae6	0.1983448
24	0xbf0ca216	-0.54934824
25	0x3ee5faf6	0.4491803
26	0xbe990648	-0.29887605
27	0x3e40221d	0.18763013
28	0xbd825098	-0.06363028
29	0xbea851bc	-0.32874858
30	0xbc9182d4	-0.017762579
31	0x3d8aca53	0.067768715
32	0xbf29fdd8	-0.6640296
33	0x3f0dacca	0.5534178
34	0x3e047b57	0.12937675
35	0x3ef843c5	0.48489204
36	0x3f125396	0.5715879
37	0xbf20bd30	-0.6278868
38	0x3f1ecf7e	0.6203536
39	0x3ea4bbdb	0.32174572
40	0xbf15e6dd	-0.58555394
41	0xbef792c4	-0.4835416
42	0x3e8db211	0.27674916
43	0xbbfc0665	-0.007691192
44	0x3f0bf204	0.5466616
45	0xbe237720	-0.15963411
46	0x3f206417	0.62652725
47	0x3f1e3155	0.61794025
48	0x3df58e0a	0.119899824
49	0x3edf98d1	0.43671277
50	0x3f006051	0.5014697
51	0x3e1cbf29	0.15307297
52	0x3f044795	0.51671726
53	0xbc129505	-0.008946662
54	0xbf0a3dc4	-0.54000497
55	0xbeaeabf4	-0.34115565
56	0xbf051545	-0.5198558
57	0x3f287953	0.65810126
58	0x3f107028	0.56421137
59	0xbe76fe92	-0.24120548
60	0x3f2d23d8	0.6763282
61	0xb86c6e51	-5.6369525e-05
62	0x3e8d5806	0.2760622
63	0x3f0ec580	0.5577011
64	0x3ebeaeba	0.3724268
65	0x3f174c87	0.59101146
66	0xbf09c307	-0.53813213
67	0xbe3e477f	-0.18581961
68	0xbee93bda	-0.45553476
69	0x3ebdd216	0.37074345
70	0x3e943773	0.28948554
71	0xbeb7268c	-0.35771596
72	0xbf089007	-0.5334477
73	0x3d83a60d	0.06428156
74	0x3f1b8d68	0.60762644
75	0xbf0dbdc0	-0.5536766
76	0xbecbfae5	-0.39839855
77	0x3de2abbb	0.11067911
78	0xbe0a5212	-0.1350787
79	0xbf1f0e40	-0.6213112
80	0xbd17a0c0	-0.037018538
81	0x3f0654a1	0.52472883
82	0x3f2a5284	0.6653216
83	0x3f30e8b0	0.6910505
84	0xbeed4497	-0.46341392
85	0x3f294c84	0.6613238
86	0x3e93f993	0.28901348
87	0xbe519b8d	-0.20469494
88	0xbe43a697	-0.19106518
89	0xbe8e4223	-0.27784833
90	0x3d25c99f	0.040475484
91	0x3cef2489	0.029192226
92	0x3ac2ba87	0.0014856615
93	0x3ed0b53d	0.40763274
94	0xbcc7e066	-0.024398994
95	0xbcae8f94	-0.021308698
96	0xbb853389	-0.0040649814
97	0x3f1bee64	0.6091063
98	0x3d527458	0.051380485
99	0xbe4d9e89	-0.20080008
100	0xbef2f5f9	-0.47453287
101	0xbe8b440a	-0.27200347
102	0x3f2daf33	0.6784546
103	0x3e520874	0.20511037
104	0xbe7ab383	-0.24482541
105	0x3eaa007b	0.33203492
106	0x3ec2d89b	0.38055882
107	0xbf182c0e	-0.5944222
108	0xbee8ee1b	-0.4549416
109	0xbef37617	-0.47551033
110	0xbe9d41c1	-0.3071423
111	0x3ed03507	0.40665457
112	0x3f1ce865	0.61292106
113	0x3da6ae5e	0.08138727
114	0xbf2fda47	-0.6869244
115	0x3de5dfbf	0.11224317
116	0x3e9399b5	0.28828207
117	0xbef18ef8	-0.4717939
118	0xbf0f11fe	-0.5588683
119	0xbd9210e6	-0.07132129
120	0xbdb2dc2c	-0.08733401
121	0x3eb51f92	0.3537565
122	0xbf1e8e05	-0.61935455
123	0x3eaf1a4d	0.34199753
124	0x3f032941	0.51234823
125	0x3f190169	0.59767777
126	0x3f21488d	0.6300133
127	0xbec4351b	-0.38321766

node_function_neighbor.0.bias f4 [64]
0	0xbef285d7	-0.47367737
1	0x3eaca8fb	0.33722672
2	0x3f29351d	0.6609667
3	0x3e36807c	0.1782245
4	0xbda95926	-0.08268957
5	0xbdbf153c	-0.09330222
6	0x3ecf52cd	0.4049286
7	0xbf0bd64a	-0.54623854
8	0xbe3edc5c	-0.18638748
9	0x3edb94f4	0.4288708
10	0x3f35a5a9	0.709559
11	0x3d64b0e8	0.055832773
12	0xbe327430	-0.17427135
13	0xbe8220f4	-0.25415766
14	0x3e69fcff	0.22850417
15	0x3f2c79d4	0.67373395
16	0x3ec2d7d4	0.3805529
17	0xbeb78c53	-0.35849246
18	0xbee614e4	-0.44937813
19	0xbdf6f2ed	-0.12058053
20	0xbdd03190	-0.10165703
21	0x3e87e23e	0.26539797
22	0x3eac7561	0.33683303
23	0x3ee4ccf8	0.4468763
24	0xbeb392ee	-0.35073036
25	0xbe1dbd52	-0.15404251
26	0xbeaa9691	-0.33317998
27	0xbed1fab1	-0.41011575
28	0xbe080281	-0.13282205
29	0x3ebd99f0	0.37031507
30	0x3baf46e8	0.005349029
31	0xbf1ae1b4	-0.60500646
32	0x3e64df35	0.22350772
33	0xbebafd53	-0.36521396
34	0xbd941506	-0.072305724
35	0xbeb8a6e2	-0.3606482
36	0xbc5c84ab	-0.013459365
37	0x3e87e57b	0.26542267
38	0x3e13c3b5	0.14430125
39	0xbdee33cc	-0.11630973
40	0xbe8d065c	-0.27543914
41	0xbe554eee	-0.2083089
42	0x3d4e3d39	0.050351355
43	0xbde8989b	-0.11357232
44	0x3f080e15	0.5314649
45	0xbf10d78e	-0.5657891
46	0xbe940a20	-0.28913975
47	0x3ebaeaac	0.36507165
48	0x3e37993d	0.1792955
49	0xbdf1192c	-0.11772379
50	0xbe052be1	-0.1300502
51	0xbf2f6686	-0.68515813
52	0x3de7c10b	0.11316117
53	0x3cbcf137	0.023064239
54	0x3f2920ef	0.6606588
55	0xbea4e15c	-0.32203186
56	0x3debe702	0.115186706
57	0xbe469fa4	-0.19396836
58	0x3f31c3bd	0.694393
59	0x3e4adbe1	0.1981044
60	0xbd94db9c	-0.0726845
61	0xbe841b2a	-0.25801975
62	0xbe2d86b7	-0.16945921
63	0x3f0dc6aa	0.5538126

node_function_neighbor.2.weight f4 [64, 64]
0	0xbde14e24	-0.11001232
1	0x3d381ddb	0.044950347
2	0x3d914179	0.07092566
3	0xbdb3ce0b	-0.08779534
4	0xbcc44500	-0.023958683
5	0xbdcc2ec7	-0.099698596
6	0xbdaf1197	-0.08548277
7	0xbc5ae741	-0.013360799
8	0x3d46e802	0.048561104
9	0x3db3a08b	0.087708555
10	0xbd916cba	-0.07100816
11	0xbdaf7f7b	-0.08569237
12	0xbd2bc912	-0.041939802
13	0xbdfe1e07	-0.12408071
14	0x3cd87d2f	0.02642688
15	0xbd91cd8c	-0.07119283
16	0xbde92e1e	-0.11385749
17	0xbc994048	-0.01870741
18	0xbdb158d0	-0.08659518
19	0xbdbc8c5a	-0.092064574
20	0xbe0df305	-0.13862236
21	0xbd7cd767	-0.06172886
22	0xbda0b292	-0.078465596
23	0xbd174606	-0.036932014
24	0x3dfcbeba	0.12341066
25	0x3b08bff3	0.0020866364
26	0xbd23f3d3	-0.04002745
27	0xbd29f16b	-0.04149
28	0xbd3b906c	-0.04579203
29	0xbdef6d9d	-0.11690829
30	0xbca1c3b9	-0.019746648
31	0xbd7884c0	-0.060673475
32	0x3ddd1a72	0.1079606
33	0x3da29139	0.07937855
34	0xbdb7c002	-0.089721695
35	0xbd7ec4e6	-0.062199496
36	0xbe0c88aa	-0.13724008
37	0xbd8d881c	-0.069107264
38	0xbde63836	-0.1124119
39	0xbd91aeac	-0.07113394
40	0xbca28d98	-0.019842908
41	0x3d3d77cf	0.046256837
42	0x3cb2d559	0.021830248
43	0x3c590cb0	0.013247654
44	0x3d39fbf5	0.0454063
45	0x3dab64c2	0.083688274
46	0xbdd3c9cc	-0.10341224
47	0xbd41e8a6	-0.04734101
48	0x3c09d1bb	0.00841182
49	0x3acf0fc9	0.0015797551
50	0x3ce643d5	0.028108517
51	0xbd8b4bb4	-0.068015486
52	0x3c364c04	0.011126522
53	0xbe0cb924	-0.137425
54	0xbcb84254	-0.022492565
55	0xbd9f5ef3	-0.07781782
56	0x3cab1ec5	0.020888695
57	0xbd736df5	-0.059431035
58	0xbc9c491a	-0.019077826
59	0xbd3a9546	-0.045552514
60	0xbdbe52ac	-0.09293112
61	0xbd5dc078	-0.05413863
62	0x3c3d4268	0.011551477
63	0x3d6c6dfc	0.057722077
64	0x3b4871aa	0.0030585327
65	0xbe1aca91	-0.15116335
66	0xbe2bc518	-0.16774404
67	0xbbf27740	-0.0073994696
68	0x3da3669b	0.07978555
69	0xbb563a01	-0.0032688382
70	0x3db68811	0.08912671
71	0x3d9d5dfd	0.076839425
72	0x3db3e3f7	0.08783715
73	0xbca50e4d	-0.02014842
74	0x3d2b0aff	0.041758534
75	0x3d921399	0.07132644
76	0xbe217dd2	-0.15770653
77	0x3da158da	0.07878275
78	0x3d6ff72e	0.05858534
79	0xbdb36f06	-0.087614104
80	0xbdba90b5	-0.09109632
81	0x3c25d449	0.0101214135
82	0xbdd6453d	-0.10462425
83	0x3cbd56d1	0.023112686
84	0x3cda8875	0.026676396
85	0x3cc926f6	0.02455471
86	0x3d22ab6a	0.039714254
87	0x3dc27642	0.09495212
88	0x3d6dbabc	0.058039412
89	0x3db2f898	0.08738822
90	0x3da909dd	0.082538344
91	0xbc825798	-0.015910909
92	0x3d0c2203	0.034212124
93	0x3cae1ea4	0.021254845
94	0xbdbfe8f1	-0.09370602
95	0xbd7aa847	-0.061195638
96	0x3dc087d2	0.09400906
97	0x3d13f609	0.03612331
98	0xbd3590fc	-0.04432772
99	0xbd1c7d80	-0.038205624
100	0x3bfff4f4	0.007811183
101	0xbda5f78f	-0.08103859
102	0xbdf7f682	-0.121075645
103	0xbc621a99	-0.013800287
104	0x3d13af2d	0.036055733
105	0xbd5d47f0	-0.054023683
106	0x3d9a0c2d	0.075218536
107	0x3c92acbf	0.017904637
108	0xbd0a6d09	-0.03379539
109	0x3dbefb24	0.09325245
110	0xbd97bf66	-0.07409553
111	0xbd8418fa	-0.064500764
112	0x3c5b6b2a	0.013392249
113	0x3c608246	0.013702935
114	0x3dc72026	0.09722929
115	0xbd31ee33	-0.043440055
116	0x3daaec3f	0.083458416
117	0xbcd3ecd8	-0.025869772
118	0x3dbe82aa	0.09302266
119	0x3c07067e	0.008241294
120	0x3ca5133c	0.020150773
121	0x3da27236	0.0793194
122	0x3ccdfd0e	0.02514508
123	0xbcba626d	-0.022752011
124	0xbdf85c2a	-0.12126954
125	0xbe26af92	-0.16277912
126	0xbcdb0bcc	-0.026739024
127	0xbd06697d	-0.032815445
128	0xb991e066	-0.00027823745
129	0xbc8431d6	-0.016137045
130	0x3c7e7c26	0.015532529
131	0xbbc9f7c1	-0.006163568
132	0x3be34fa8	0.006936986
133	0xbdb1e195	-0.086856045
134	0xbd7e8679	-0.062139962
135	0xbd8d209a	-0.06890984
136	0x3d24301f	0.040084954
137	0x3d86275d	0.06550477
138	0xbcd4c3b7	-0.02597223
139	0x3cb7b3c9	0.022424595
140	0xbdd8ca40	-0.10585451
141	0xbe4a0792	-0.1972945
142	0x3d986504	0.07441142
143	0x3e1cfec0	0.15331554
144	0x3c9d80b2	0.019226406
145	0xbbfdaf3b	-0.0077418364
146	0x3d96525c	0.073399276
147	0x3e07cee7	0.1326252
148	0x3d0f250d	0.034947444
149	0xbd0fa3e9	-0.035068426
150	0x3d958d9d	0.07302401
151	0x3c8475b7	0.016169412
152	0x3c371c3f	0.011176168
153	0x3d187114	0.037217215
154	0x3e0ed9dd	0.13950296
155	0xbd6a40a1	-0.05719054
156	0xbb2c081e	-0.0026249955
157	0x3d71ba1a	0.05901537
158	0x3d4418a8	0.047875077
159	0x3b85f091	0.0040875156
160	0xbd2efd84	-0.04272224
161	0xbda07477	-0.07834714
162	0xbdf72c6a	-0.12069018
163	0x3d0e0061	0.03466833
164	0xbd1e8b83	-0.038707267
165	0x3d29a7df	0.04141986
166	0x3cec195e	0.02882069
167	0x3e1bc8ee	0.15213367
168	0x3cdf74fe	0.027277466
169	0xbd8d2e2c	-0.06893572
170	0xbdf3fa54	-0.11912981
171	0x3e05bc74	0.1306017
172	0x3ab2f679	0.0013653777
173	0x3c6fc53c	0.014634427
174	0xbd877927	-0.06614905
175	0xbd0b8e77	-0.034071412
176	0x3d8e1ba9	0.069388695
177	0x3e0a99d0	0.13535237
178	0xbab8ae73	-0.0014090076
179	0x3d78cbca	0.060741223
180	0xbdeac020	-0.11462426
181	0x3e0c1d6b	0.13683097
182	0x3b2da0e3	0.00264936
183	0x3da68fc2	0.081328884
184	0xbd0a59f7	-0.033777203
185	0xbe1a3b09	-0.15061583
186	0x3d039ceb	0.03213207
187	0xbd0460fa	-0.032319047
188	0x3cab1a1b	0.020886471
189	0xbc77a54d	-0.015115094
190	0xb7b9ce4e	-2.2149787e-05
191	0x3cd00aea	0.02539583
192	0x3ccdcb6e	0.025121417
193	0x3cba3211	0.022728952
194	0xbdb17598	-0.08665007
195	0xbdaa1b9c	-0.08306047
196	0xbdf75fc0	-0.1207881
197	0x3ca1a314	0.019731082
198	0xbd3a09f1	-0.045419637
199	0xbbdb514c	-0.006693041
200	0x3d8e66b3	0.06953182
201	0xbd9fd74d	-0.07804737
202	0x3dd311e4	0.10306147
203	0x3d97aebb	0.07406374
204	0xbb78fb17	-0.0037991458
205	0x3deaf063	0.114716314
206	0x3d002349	0.03128365
207	0x3d9d86c8	0.07691723
208	0xbde4a3f3	-0.11164083
209	0xbdab129d	-0.083531596
210	0xbccb97f1	-0.024852725
211	0xbdf05186	-0.11734299
212	0xbd482f98	-0.048873514
213	0x3d9b0ccd	0.07570801
214	0x3cf27c67	0.029600335
215	0xbdd0b310	-0.101904035
216	0xbdad7a9c	-0.084706515
217	0x3de210ba	0.110383466
218	0x3dad8b8f	0.08473884
219	0x3d5e2de1	0.054242972
220	0x3dbd6b44	0.09248975
221	0x3dc213bb	0.094764195
222	0x3e064f48	0.13116181
223	0x3ddc0ee1	0.107450254
224	0xbde6d372	-0.11270799
225	0xbdbdabba	-0.0926127
226	0xbd0ebfba	-0.034850813
227	0x3e278cb5	0.16362269
228	0xbdc9ed3c	-0.09859702
229	0x3dbe2bb5	0.0928568
230	0xbdc96075	-0.09832851
231	0xbd0c2bbd	-0.0342214
232	0x3dcabeb3	0.09899654
233	0x3dbc437f	0.09192561
234	0xbd8a0fb3	-0.06741276
235	0xbd2891df	-0.04115474
236	0x3d88fc0f	0.06688701
237	0xbc682cb8	-0.014170818
238	0x3ddffcc4	0.10936883
239	0xbd701f49	-0.058623586
240	0x3de6aea3	0.11263778
241	0xbcaf60e7	-0.021408511
242	0xbc1a8639	-0.009431415
243	0x3dbf8424	0.09351376
244	0xbbb90ae2	-0.0056470493
245	0x3d893249	0.06699044
246	0x3ded3245	0.11581854
247	0x3cc529aa	0.024067719
248	0x3dcd24c2	0.100167766
249	0x3c7788b1	0.015108273
250	0x3d8270ba	0.06369157
251	0xbdd6733f	-0.104712
252	0xbaaaaf4b	-0.0013022212
253	0x3c2a4573	0.010392535
254	0x3d28a8f9	0.04117677
255	0xbd284bf0	-0.041088045

node_function_neighbor.2.bias f4 [64]
0	0x3b6c2fcf	0.0036039238
1	0xbe3a2823	-0.18179373
2	0x3d07967e	0.033102505
3	0x3e07b6b6	0.13253292
4	0xbca9a1d7	-0.020707054
5	0xbdd68a6d	-0.10475621
6	0xbdd556ea	-0.10416968
7	0xbdeafc43	-0.11473896
8	0xbd2d790b	-0.042351764
9	0xbdd13385	-0.10214905
10	0xbcbada3e	-0.022809144
11	0xbd984161	-0.07434345
12	0x3da0d416	0.07852952
13	0xbe01ecc8	-0.12687981
14	0xbdcb7f1a	-0.09936352
15	0xbdff37ca	-0.12461813
16	0x3ccb5ce0	0.02482456
17	0x3d844696	0.06458776
18	0xbe11aa5e	-0.14225146
19	0x3d95b737	0.07310336
20	0xbe0ab60b	-0.13546006
21	0xbdf12078	-0.11773771
22	0x3dc98413	0.09839644
23	0xbe1200a7	-0.14258061
24	0x3d399d63	0.04531611
25	0xbdb76dcf	-0.08956491
26	0x3e2a0f5a	0.16607419
27	0xbd100c88	-0.0351682
28	0xbd9e53d1	-0.077308305
29	0xbdabed3a	-0.08394857
30	0xbccb6824	-0.024829932
31	0x3d06e33d	0.032931555
32	0xbdfba4fa	-0.12287326
33	0x3d250cb5	0.04029532
34	0xbdfb11e7	-0.12259274
35	0xbe134260	-0.14380789
36	0xbdc7d7ba	-0.097579435
37	0xbdb40a97	-0.08791082
38	0x3e0fbcc0	0.14036846
39	0x3daaefb3	0.083465
40	0xbddf2b0e	-0.10896884
41	0xbd534ae9	-0.05158511
42	0x3dafc435	0.085823454
43	0x3d96eaae	0.0736898
44	0x3d7e718a	0.062119998
45	0x3dae3359	0.085058875
46	0xbd56c996	-0.05243834
47	0x3d2127de	0.03934466
48	0xbdfafe88	-0.12255579
49	0xbdd51f75	-0.104063906
50	0x3da6be28	0.08141738
51	0xbc5b52ef	-0.013386472
52	0xbdbaca0b	-0.09120568
53	0xbc141f12	-0.009040611
54	0x3dcb7861	0.0993507
55	0xbd6c063e	-0.05762314
56	0xbd794cf8	-0.06086442
57	0xbdaaf3d2	-0.08347286
58	0xbd32d63b	-0.043661337
59	0xbde3c354	-0.1112124
60	0x3db48b78	0.08815664
61	0xbdc95a7a	-0.0983171
62	0xbd95c219	-0.07312412
63	0x3dc8354a	0.09775789

node_function_neighbor.4.weight f4 [64, 64]
0	0xbdc961c7	-0.09833103
1	0xbd0a77c0	-0.03380561
2	0xbdbbc3cc	-0.09168205
3	0xbaaadc00	-0.0013035536
4	0x3dcfde00	0.10149765
5	0xbc33966e	-0.010961158
6	0x3d84c187	0.06482225
7	0xbe1b8a0d	-0.15189381
8	0x3d4516c4	0.048117414
9	0xbd84c75c	-0.06483337
10	0xbceb2e90	-0.028708726
11	0x3d95ad4c	0.073084444
12	0x3c20028c	0.009766232
13	0x3bb661c1	0.0055658524
14	0x3d2dd540	0.0424397
15	0x3dfcad74	0.12337771
16	0xbc9d27a8	-0.019183949
17	0x3daf028f	0.0854541
18	0x3d8c8eba	0.068631604
19	0xbe027bc8	-0.12742531
20	0xbd6fd7b7	-0.05855533
21	0x3ddf325a	0.10898276
22	0x3c736aa7	0.014856971
23	0xbdc8ea9e	-0.09810375
24	0xbdd9735b	-0.106177054
25	0x3c989860	0.018627346
26	0xbe196573	-0.14980106
27	0x3dbbc728	0.091688454
28	0xbdee1ce2	-0.11626603
29	0xbdf11656	-0.11771838
30	0xbdc3977e	-0.09550379
31	0x3db10698	0.08643836
32	0x3d7d0276	0.061769925
33	0xbda2c518	-0.07947749
34	0x3debcba6	0.11513452
35	0x3c32c095	0.010910173
36	0x3ccf891b	0.025333932
37	0x3c3f3270	0.01166974
38	0xbde87aa2	-0.11351515
39	0x3d5a10d4	0.053238705
40	0x3db6f317	0.089330845
41	0xbde48215	-0.11157624
42	0x3d80b04a	0.062836245
43	0xbddf3fb8	-0.10900825
44	0xbd9bca84	-0.07606986
45	0xbdb01dbd	-0.08599422
46	0xbe03953a	-0.12849894
47	0xbd13b09c	-0.0360571
48	0xbde86a44	-0.113483936
49	0xbd986825	-0.07441739
50	0x3d22e670	0.039770544
51	0xbd250308	-0.040286094
52	0xbdf6fd1e	-0.12059997
53	0xbe191023	-0.14947562
54	0xbdc9562a	-0.098308876
55	0xbdadf81e	-0.0849459
56	0xbd11b183	-0.03556968
57	0xbbdae320	-0.0066799074
58	0xbcf0e560	-0.02940625
59	0xbd558c18	-0.052135557
60	0x3d00e858	0.03147158
61	0x3d736acc	0.05942802
62	0x3c8c2e81	0.017112019
63	0x3d1ce97d	0.03830861
64	0x3d59e047	0.053192403
65	0xbe123315	-0.14277299
66	0x3cba2190	0.022721082
67	0x3d0003a0	0.031253457
68	0x3df237f2	0.11827077
69	0xbe0b2929	-0.1358992
70	0x3ca5ed86	0.020254862
71	0xbc827e51	-0.015929373
72	0x3ccf93c2	0.025339011
73	0xbc8c6f10	-0.017142802
74	0x3d7c8e09	0.061658893
75	0xbc45304a	-0.012035439
76	0x3d282541	0.041051153
77	0xbdc7b199	-0.09750671
78	0x3c1d231d	0.009590891
79	0xbc90a6d8	-0.017657682
80	0x3d6ab9c4	0.057306066
81	0xbcf8080c	-0.030277275
82	0x3b623295	0.0034515013
83	0xbd4f8af9	-0.050669644
84	0xbcaadeb7	-0.020858152
85	0x3ca42bf0	0.020040482
86	0x3dd34b06	0.10317044
87	0x3c813c74	0.015775897
88	0x3df3b2ff	0.11899375
89	0xbd1b0969	-0.03785077
90	0x3d7443d7	0.05963501
91	0xbdb67860	-0.089096785
92	0xbb4c884c	-0.003120917
93	0x3d38828d	0.045046378
94	0x3d84b2d4	0.06479421
95	0xbe1f1733	-0.15536194
96	0x3d03db16	0.03219136
97	0x3d9eca61	0.077534445
98	0x3cdebbf1	0.027189227
99	0xbddd1093	-0.10794177
100	0xbd1e5e3c	-0.038664088
101	0x3dd561e8	0.10419065
102	0xbb772468	-0.0037710909
103	0xbd28205b	-0.04104648
104	0xbdb561db	-0.08856555
105	0xbd155f5f	-0.036467906
106	0x3dbbe325	0.09174184
107	0x3d3197bb	0.043357592
108	0x3bc673b2	0.0060562724
109	0xbd940289	-0.07227046
110	0xbcd6f217	-0.026238484
111	0xbc4b972b	-0.012426178
112	0xbd60d694	-0.054892138
113	0xbe16a8a2	-0.14712766
114	0x3d850a5c	0.064961165
115	0xbda76dec	-0.08175263
116	0x3dfaea55	0.122517265
117	0xbd9d03b4	-0.07666722
118	0x3df09712	0.117475644
119	0xbb556617	-0.003256207
120	0x3c19aa73	0.009379017
121	0x3d8e6272	0.06952371
122	0x3e148124	0.14502388
123	0xbdc38deb	-0.09548553
124	0x3bba35d1	0.005682685
125	0xbda3bd11	-0.07995046
126	0xbd0967e6	-0.03354635
127	0xbca2f1f1	-0.019890757
128	0xbcae58c0	-0.021282554
129	0xbd9a1561	-0.07523609
130	0xbde2c0be	-0.11071919
131	0xbc41ad78	-0.011821143
132	0x3d8bb87f	0.06822299
133	0x3dd86eb0	0.10567987
134	0x3d73598c	0.05941157
135	0x3d91b8dc	0.07115337
136	0xbcc73760	-0.024318397
137	0xbd076e70	-0.033064306
138	0xbe1be40b	-0.1522371
139	0x3c0ace10	0.008471981
140	0xbcc1dbe8	-0.02366443
141	0x3d8dc110	0.069215894
142	0xbd0e36d7	-0.034720268
143	0x3d841d6e	0.06450926
144	0xbca500e8	-0.020142034
145	0x3ba0f320	0.0049117953
146	0x3dac9f34	0.08428803
147	0x3db8d589	0.090251036
148	0xbd3d12d4	-0.046160534
149	0x3c8a3af8	0.016873822
150	0x3c1cd780	0.009572864
151	0xbd18dd4a	-0.037320413
152	0x3d128ea4	0.035780564
153	0x3ce30736	0.0277134
154	0x3c9568c1	0.018238427
155	0xbbcb68a0	-0.0062075406
156	0x3c417f6e	0.011810167
157	0xbdddd551	-0.108317025
158	0x3cbe7a4d	0.023251677
159	0x3da221e0	0.079166174
160	0xbe04b6b4	-0.1296032
161	0x3c566fd0	0.013088182
162	0x3b0371c0	0.0020056814
163	0xbca22172	-0.019791339
164	0xbd828bef	-0.063743465
165	0x3dc33dd1	0.09533275
166	0x3d989be4	0.07451609
167	0xbbbbefe2	-0.0057353834
168	0xbdc2eaca	-0.09517439
169	0xbe05fe2b	-0.13085239
170	0xbda6da85	-0.08147148
171	0x3d70668f	0.058691557
172	0xbce90b80	-0.028447866
173	0xbe0d9561	-0.13826515
174	0x3db24e5f	0.08706354
175	0x3cdae066	0.02671833
176	0xbdf1baa4	-0.11803177
177	0xbdf666e2	-0.12031342
178	0xbdebfd96	-0.11522977
179	0x3de652a4	0.11246231
180	0x3d7afbec	0.061275408
181	0x3ca0c5a0	0.019625485
182	0xbe0eb658	-0.13936746
183	0x3d057046	0.032577775
184	0x3d8b5306	0.06802945
185	0xbd8495d4	-0.0647389
186	0xbe070d19	-0.1318859
187	0xbca183f1	-0.019716235
188	0xbd90b7e8	-0.07066327
189	0xbdd8cc93	-0.105858944
190	0xbd1a095a	-0.037606575
191	0xbdfc834d	-0.12329731
192	0x3d050186	0.032472156
193	0xbe34e379	-0.17664899
194	0xbb876de4	-0.004132973
195	0xbcda906d	-0.026680196
196	0xbc96ff95	-0.018432418
197	0x3c07781d	0.008268383
198	0xbd9e846c	-0.07740101
199	0xbcbe7139	-0.023247348
200	0x3d109735	0.035300452
201	0x3e191d39	0.14952554
202	0x3e2dfcaf	0.16990922
203	0xbd95fbd6	-0.073234245
204	0xbe99b283	-0.30019006
205	0xbe21c09a	-0.15796128
206	0xbe386535	-0.18007357
207	0x3d5bc720	0.053656697
208	0xbd817cca	-0.0632263
209	0xbc99b024	-0.018760748
210	0x3dd23f92	0.10266031
211	0xbdf71f7f	-0.12066554
212	0x3d90038c	0.070319265
213	0x3d0fa290	0.03506714
214	0xbd744357	-0.059634533
215	0xbdfee582	-0.12446119
216	0x3d9c7707	0.0763989
217	0xbda36cbe	-0.07979725
218	0xbd812d53	-0.06307473
219	0x3d0b3d5c	0.033994064
220	0xbdea971e	-0.114546046
221	0x3d4223ed	0.047397543
222	0x3db7884a	0.08961542
223	0x3dbb8009	0.0915528
224	0xbda21770	-0.079146266
225	0x3da9fdef	0.08300387
226	0x3d7e1d32	0.06203956
227	0xbcc2dc63	-0.02378673
228	0xbdf18ce0	-0.11794448
229	0xbc99d7d9	-0.018779682
230	0x3e841fd2	0.25805527
231	0x3cb73778	0.022365317
232	0xbdb7fc02	-0.089836136
233	0xbea31234	-0.31849825
234	0xbd5b73ad	-0.053577114
235	0xbd0702eb	-0.032961767
236	0xbcda37c3	-0.026637917
237	0xbe0056da	-0.12533131
238	0xbd3327a9	-0.043738995
239	0xbf3e8f25	-0.7443717
240	0x3d0d4f14	0.034499243
241	0xbdb1c043	-0.08679249
242	0xbf18aae5	-0.59635764
243	0x3be4fa40	0.00698784
244	0x3d8385a6	0.06421976
245	0x3f7329b1	0.9498549
246	0x3da29a0e	0.0793954
247	0x3d153230	0.036424816
248	0xbca5d44b	-0.02024283
249	0xbb80d360	-0.003931448
250	0x3dd4a0cb	0.10382231
251	0xbc5dea1f	-0.013544588
252	0xbe10ae72	-0.14129046
253	0xbea36188	-0.31910348
254	0xbecaa374	-0.3957783
255	0x3d83e984	0.06441024

node_function_neighbor.4.bias f4 [64]
0	0xbdc1a8e4	-0.094560415
1	0x3dbeb896	0.09312551
2	0xbdc29554	-0.09501138
3	0x3d72d0ce	0.059281163
4	0x3dcc7d97	0.09984892
5	0xbcad335b	-0.021142652
6	0x3da62be0	0.08113837
7	0xbe0c244b	-0.1368572
8	0xbd0f4bac	-0.034984276
9	0x3d4dfdec	0.050290987
10	0xbd995054	-0.074860245
11	0x3c846038	0.016159162
12	0xbd14e920	-0.036355138
13	0xbe0d7ab9	-0.13816346
14	0xbcde1447	-0.027109278
15	0xbc9220cd	-0.017837906
16	0xbd18969c	-0.037253007
17	0xbe1c99f9	-0.15293111
18	0xbdb9946e	-0.09061514
19	0xbc807496	-0.015680593
20	0xbd8b96b9	-0.068158574
21	0x3e3517ce	0.17684862
22	0x3d4d79e5	0.050165076
23	0x3e28b2ca	0.16474453
24	0xbddae98a	-0.10689075
25	0x3d317643	0.043325674
26	0xbaf6f492	-0.0018841198
27	0x3d1c0293	0.038088392
28	0x3dbdb67d	0.092633225
29	0x3d568085	0.05236866
30	0x3d60e17f	0.05490255
31	0xbc8652b9	-0.016396867
32	0xbe151001	-0.14556886
33	0xbe14fe56	-0.14550146
34	0xbdff0122	-0.12451388
35	0xb9b54263	-0.00034572472
36	0xbc73c1a7	-0.014877713
37	0xbcb22809	-0.021747606
38	0xbd6bffbe	-0.05761694
39	0x3a07fe16	0.0005187703
40	0x3d6ecee6	0.058302782
41	0x3dd9647b	0.10614868
42	0xbdd5fea0	-0.104489565
43	0x3d40d321	0.04707635
44	0x3da25ac3	0.07927468
45	0xbe2727e7	-0.16323815
46	0x3c9d604a	0.019210953
47	0xbb6bf542	-0.003600434
48	0x3d9574b5	0.07297651
49	0xbb508770	-0.0031819008
50	0x3de31de3	0.11089685
51	0xbd8e4875	-0.06947414
52	0xbc2cfc6f	-0.010558232
53	0xbd9de3b7	-0.07709449
54	0xbc55749a	-0.013028288
55	0x3ca93c87	0.020658744
56	0x3d837dc1	0.0642047
57	0x3da2ef85	0.07955841
58	0x3cb22e89	0.021750705
59	0xbdef1da6	-0.11675577
60	0x3e445483	0.19172864
61	0x3d27a89a	0.040932275
62	0x3c137932	0.009001063
63	0xbe1346ff	-0.14382552

node_function_neighbor.6.weight f4 [4, 64]
0	0x3d4fbc1b	0.0507165
1	0x3d294d77	0.04133364
2	0x3da27f18	0.079343975
3	0x3d03eec2	0.03221012
4	0xbdbffc58	-0.093743026
5	0xbd3790b2	-0.044815727
6	0xbd02c9d4	-0.03193076
7	0x3dd76f61	0.10519291
8	0x3d8180ba	0.06323381
9	0xbdfd1439	-0.12357373
10	0xbdbb0fb8	-0.091338575
11	0xbd63eb44	-0.05564429
12	0x3ddfc0f6	0.10925476
13	0x3ce3127e	0.027718779
14	0xbdc91615	-0.09818665
15	0xbddcae3d	-0.10775421
16	0xbadf69d1	-0.0017045086
17	0x3d6de84a	0.058082856
18	0x3d0687a6	0.03284421
19	0x3aa3343f	0.0012451484
20	0xbe049ba1	-0.12949993
21	0xbca3d961	-0.020001115
22	0x3d25e781	0.040503982
23	0x3d30c859	0.043159816
24	0x3d5a5e9d	0.053312887
25	0x3d18c777	0.0372996
26	0xbd952bc2	-0.07283737
27	0x3cbaa89b	0.022785475
28	0xbd8d487f	-0.06898593
29	0xbd429793	-0.047507834
30	0x3c451974	0.012029994
31	0x3d27c609	0.040960345
32	0x3c725292	0.014790194
33	0x3cd8457e	0.026400324
34	0xbd1c01b9	-0.03808758
35	0x3d774c58	0.06037554
36	0x3df4696e	0.119341716
37	0xbcaaa4fc	-0.020830624
38	0xbdb35c2c	-0.08757815
39	0x3c5f3512	0.013623493
40	0xbdac2e06	-0.08407216
41	0xbd5dd0e0	-0.054154277
42	0xbde02996	-0.10945432
43	0xbdaa0f91	-0.0830375
44	0xbd016bef	-0.031597074
45	0xbcb62f53	-0.022239363
46	0x39fffec4	0.00048827205
47	0xbd43d132	-0.047806926
48	0xbda34cd7	-0.079736404
49	0x3d8bbe31	0.068233855
50	0xbd8db7e7	-0.06919842
51	0xbdcd6c6f	-0.10030448
52	0x3d7f466f	0.06232303
53	0xbd0ec68e	-0.034857325
54	0xbd59826d	-0.0531029
55	0x3dbd0263	0.09228971
56	0x3d85fb57	0.0654208
57	0x3d434af9	0.04767892
58	0x3d24f5e2	0.040273555
59	0xbd3a2a5b	-0.04545055
60	0xbdcb57d5	-0.09928862
61	0x3d9f6118	0.07782191
62	0xbd8f3dfc	-0.069942445
63	0x3dde009e	0.108399615
64	0x3d93e5ad	0.072215416
65	0x3dabccf6	0.083887026
66	0xbc7af51e	-0.01531723
67	0x3ea670cd	0.32507935
68	0xbbdd0b15	-0.006745706
69	0xbd376d34	-0.04478188
70	0xbb9045f3	-0.00440287
71	0x3e1c2247	0.15247451
72	0x3aa9e0c4	0.0012960662
73	0x3d8173d7	0.06320923
74	0xbcb0a4dc	-0.021562986
75	0x3ddc001c	0.10742208
76	0x3d8f2e6d	0.06991277
77	0xbd1097c9	-0.035301004
78	0x3bd302cf	0.006439544
79	0x3d61d345	0.055133123
80	0xbda28ac6	-0.07936625
81	0xbd6eaa5f	-0.058267947
82	0xbdc49da0	-0.09600377
83	0xbdc6ad71	-0.0970105
84	0xbc75f5b7	-0.015012196
85	0xbd861cc0	-0.065484524
86	0xbdc58936	-0.096453115
87	0xbde95f5d	-0.11395142
88	0xbdc6c23e	-0.097050175
89	0xbc829cb6	-0.015943866
90	0x3df9c250	0.12195265
91	0xbd88bbe4	-0.06676462
92	0xbc4df518	-0.012570642
93	0xbd3da0f0	-0.04629606
94	0xbcba32da	-0.022729326
95	0xbd9895b0	-0.074504256
96	0x3d942646	0.072338626
97	0x3daf3f67	0.08557015
98	0xbd8bf2a2	-0.06833388
99	0x3d4c1980	0.049829006
100	0xbdb047de	-0.086074576
101	0x3b9f078b	0.004853194
102	0xbcd372e7	-0.025811626
103	0x3d3f7f4a	0.04675225
104	0x3c13df3a	0.009025389
105	0xbdb8cb7b	-0.09023186
106	0xbcca809c	-0.024719529
107	0xbc12fdb1	-0.008971618
108	0xbc84d364	-0.01621408
109	0xbda0e692	-0.07856478
110	0x3d9efd14	0.077631146
111	0x3cb663f4	0.022264458
112	0x3df4d719	0.11955089
113	0xbd0bfb7f	-0.034175392
114	0x3dbe13f8	0.092811525
115	0xbcd97c95	-0.026548663
116	0xbdd47504	-0.103738815
117	0xbd941894	-0.072312504
118	0x3c28ff49	0.010314771
119	0x3dc226aa	0.09480031
120	0xbd89bf9d	-0.067260005
121	0xbddb1cb6	-0.106988356
122	0x3d71b2b4	0.059008315
123	0xbcb701b1	-0.022339674
124	0xbd99bd27	-0.07506781
125	0x3cbfd74f	0.023418097
126	0xbd2fac9c	-0.042889223
127	0xbd0ac07b	-0.03387497
128	0xbd25767a	-0.04039619
129	0xbd08d5b6	-0.033406936
130	0xbd4d6f7c	-0.050155148
131	0xbdba711b	-0.091036044
132	0xbcada14b	-0.021195075
133	0xbd44ae82	-0.048017986
134	0xbd3600ab	-0.04443423
135	0x3d9c5b1c	0.07634565
136	0xbdef485b	-0.116837226
137	0x3cb6c4cf	0.022310643
138	0xbd010719	-0.03150091
139	0x3dc2f506	0.09519391
140	0xbc0b77c3	-0.00851244
141	0xbc41bce4	-0.01182482
142	0x3d9f16ca	0.077680185
143	0xbc5e98ef	-0.013586267
144	0x3dca65df	0.098827116
145	0xbdc6519c	-0.096835345
146	0xbbf5add5	-0.007497529
147	0xbd0f4850	-0.034981072
148	0xbda0a472	-0.078438655
149	0x3de5f69a	0.11228676
150	0x3c137a12	0.009001272
151	0x3dfef1d2	0.12448467
152	0xbd704fee	-0.058669977
153	0xbcac4e93	-0.02103356
154	0x3d4788f2	0.048714586
155	0x3d92de6c	0.0717133
156	0xbbd9ecf3	-0.006650561
157	0xbd195975	-0.03743883
158	0xbd64f232	-0.055895038
159	0x3d32bf68	0.04363957
160	0x3d3e797c	0.046502575
161	0x3d365eb2	0.044523902
162	0x3d8357a1	0.06413198
163	0xbd832d9b	-0.06405183
164	0xbd5e9066	-0.054336928
165	0xbb58b9f7	-0.0033069828
166	0xbdb2ce32	-0.08730735
167	0xbd5f2253	-0.054476094
168	0x3dbbe7dd	0.09175084
169	0x3d8ec045	0.06970266
170	0xbcacf3b3	-0.021112299
171	0xbd08ca18	-0.033395857
172	0x3d9673f3	0.07346334
173	0x3c8dcd43	0.01730979
174	0x3df2304e	0.1182562
175	0xbddc9a2d	-0.10771594
176	0x3dfb9122	0.12283541
177	0xbd8c8335	-0.06860963
178	0xbd9f2aed	-0.07771859
179	0x3df8f4cd	0.12156067
180	0x3dc31392	0.09525217
181	0xbd59a4a5	-0.053135533
182	0x3cfd7783	0.030940777
183	0x3dd78487	0.105233245
184	0x3d93a5a2	0.07209326
185	0x3d5d1e28	0.053983837
186	0x3dc29e96	0.09502904
187	0xbb253f5e	-0.0025214772
188	0x3de21aaa	0.11040242
189	0x3d117379	0.035510514
190	0xbd88aabf	-0.06673192
191	0xbdf26ab1	-0.11836756
192	0x3c33c01a	0.010971094
193	0x3db89aab	0.090138756
194	0xbda3e9cd	-0.08003578
195	0x3cf09233	0.029366588
196	0xbd725212	-0.0591603
197	0xbd2fe590	-0.042943537
198	0x3c5d5ec5	0.013511364
199	0x3d2be4aa	0.041966118
200	0xbdbdba4f	-0.09264051
201	0xbc992bac	-0.018697582
202	0x3d1b515b	0.037919383
203	0x3d6bc9bf	0.057565447
204	0x3c19c768	0.009385921
205	0xbd95414c	-0.07287845
206	0xbe1f5403	-0.15559392
207	0xbc2c57b6	-0.010518959
208	0xbd3ec707	-0.046576526
209	0xbc2e32a6	-0.010632193
210	0x3dedbd8f	0.11608421
211	0x3846a987	4.7364763e-05
212	0xbdf0e1f8	-0.1176185
213	0x3d783926	0.060601376
214	0xbd95a005	-0.07305912
215	0x3dd0768a	0.101788595
216	0x3dc75c10	0.097343564
217	0x3d0e83c6	0.034793638
218	0x3d1e3fdb	0.038635116
219	0x3daedbbf	0.08538007
220	0xbd21b727	-0.03948131
221	0x3d158946	0.036507867
222	0x3d39ad22	0.045331128
223	0x3c1bfc39	0.009520584
224	0xbd92d8c2	-0.071702495
225	0xbdb8b205	-0.090183295
226	0x3dacc7ef	0.08436572
227	0xbd1641f0	-0.036683977
228	0x3de2c395	0.110724606
229	0x3e08b15d	0.13348909
230	0x3d8d8164	0.06909445
231	0xbda14813	-0.07875075
232	0xbd7cd580	-0.061727047
233	0xbda0f917	-0.0786001
234	0xbd89e2d8	-0.0673272
235	0xbcaafd7e	-0.020872828
236	0xbdf1042c	-0.11768374
237	0xbc79a250	-0.015236452
238	0x3d04b34f	0.032397565
239	0x3d14aedd	0.036299575
240	0xbc82fe8c	-0.015990518
241	0x39feae3f	0.0004857648
242	0xbb8d6a24	-0.0043156315
243	0x3c997ac7	0.018735303
244	0xbd93757f	-0.07200145
245	0x3d41b1a0	0.047288537
246	0x3c994afd	0.018712515
247	0x3db35bf6	0.087577745
248	0xbde871b8	-0.11349815
249	0xbdf5bf91	-0.11999429
250	0xbd856cae	-0.0651487
251	0x3ca21565	0.019785592
252	0x3e046f5e	0.12933108
253	0xbcba10c0	-0.022713065
254	0x3ca80a9e	0.020512875
255	0xbd6e5f05	-0.058196086

node_function_neighbor.6.bias f4 [4]
0	0xbdcef904	-0.1010609
1	0x3da91aa0	0.082570314
2	0x3e1e30d6	0.15448317
3	0x3de1de08	0.11028677

edge_function.0.weight f4 [64, 4]
0	0x3e4d9d2a	0.20079485
1	0x3d54a7ad	0.05191772
2	0x3cb5eb4b	0.022206923
3	0x3df72965	0.12068442
4	0x3e2575a3	0.16158156
5	0xbdd77d94	-0.10521999
6	0xbedb0863	-0.42779836
7	0xbc3e4ba5	-0.011614715
8	0xbe273dcd	-0.16332169
9	0xbd29dc05	-0.041469593
10	0x3ed17a15	0.40913454
11	0x3d7c12dc	0.061541423
12	0xbea5b1e0	-0.3236227
13	0xbde62343	-0.112371944
14	0x3e61a25f	0.22034596
15	0x3e3a4406	0.18190011
16	0xbe20d85d	-0.15707536
17	0xbdb0cd69	-0.08632929
18	0xbeb90e97	-0.36143944
19	0x3eea2695	0.4573256
20	0xbeb4f5cd	-0.3534378
21	0xbeb0d515	-0.3453757
22	0x3eaafb65	0.33394924
23	0xbeab91e8	-0.33509755
24	0x3da9b3e0	0.082862616
25	0x3edd6070	0.43237638
26	0xbed88de9	-0.4229577
27	0x3daa13b6	0.08304541
28	0x3edf7b05	0.43648544
29	0x3eb10dbe	0.34580797
30	0x3e82f950	0.25580835
31	0x3e326f7d	0.17425342
32	0x3eb7f30a	0.35927612
33	0xbeecaaed	-0.46224156
34	0xbdabc13a	-0.083864644
35	0x3eeed582	0.4664727
36	0x3d9107d1	0.07081569
37	0xbeb580ed	-0.35449925
38	0xbe7f8640	-0.24953556
39	0xbea0105c	-0.3126248
40	0x3db7397f	0.089465134
41	0xbe2de083	-0.16980176
42	0x3d0834ba	0.03325341
43	0xbe17d6f1	-0.14828087
44	0x3e96daf5	0.29463926
45	0xbd3b9bce	-0.045802884
46	0x3eb16afa	0.3465193
47	0x3d7d15be	0.061788313
48	0xbeee5560	-0.4654951
49	0x3ed0b8f2	0.40766102
50	0x3eb83449	0.3597739
51	0xbeb3a8b9	-0.35089663
52	0xbe81138b	-0.25210223
53	0x3e3da445	0.18519695
54	0xbeea79e6	-0.45796126
55	0x3e51702e	0.2045295
56	0x3eaf7170	0.34266233
57	0xbd22346a	-0.039600767
58	0xbeb476c8	-0.35246873
59	0x3e9943b5	0.2993447
60	0xbe1575c3	-0.14595704
61	0x3e05ec6b	0.13078468
62	0xbe327f6c	-0.1743142
63	0xbce7f2be	-0.02831399
64	0xbed5bb4e	-0.41744465
65	0xbce46fc6	-0.027885329
66	0x3dd89040	0.105743885
67	0x3f082ee3	0.53196543
68	0xbe7d7ede	-0.24755427
69	0xbe757cc2	-0.23973373
70	0x3d503c7a	0.050838925
71	0xbd54d4b4	-0.051960662
72	0x3dc91de2	0.09820153
73	0xbec6cea2	-0.38829523
74	0x3eb8d903	0.36103067
75	0xbeebf453	-0.46084842
76	0x3e619915	0.22031052
77	0xbed5ba90	-0.41743898
78	0xbeada4bd	-0.33914748
79	0xbdc2dedc	-0.09515163
80	0xbdf6d87f	-0.12053012
81	0xbec5407e	-0.38525766
82	0x3eb980d3	0.36231098
83	0xbe83aa66	-0.2571594
84	0xbe68786d	-0.22702189
85	0x3e300153	0.17188005
86	0xbe99f1c1	-0.30067256
87	0x3eef8fbc	0.46789348
88	0xbeb82b54	-0.35970557
89	0xbecd291d	-0.4007043
90	0xbe370ea9	-0.17876686
91	0x3cbcf7f3	0.02306745
92	0xbd83212e	-0.06402813
93	0xbe81f1c2	-0.2537976
94	0x3e8870bb	0.26648507
95	0x3e93bd40	0.28855324
96	0x3d03fa20	0.03222096
97	0xbe9075ef	-0.28214976
98	0x3e59d55b	0.21272795
99	0x3d937fd8	0.07202119
100	0xbc99f5be	-0.018793937
101	0xbe10b136	-0.141301
102	0x3e20d619	0.15706672
103	0xbe44873c	-0.19192213
104	0x3e8bde04	0.27317822
105	0x3cb0e220	0.0215922
106	0xbdeb135f	-0.11478304
107	0x3eee23d2	0.46511704
108	0x3d7dfd35	0.062009055
109	0x3e44a800	0.19204712
110	0x3ec9eac9	0.3943694
111	0xbecddb84	-0.4020654
112	0x3ef1a30f	0.47194716
113	0xbd2b4191	-0.041810576
114	0x3e52f9e1	0.20603134
115	0x3df86c35	0.12130014
116	0xbdda0d7e	-0.10647105
117	0x3e877646	0.26457423
118	0xbebce0e4	-0.36890328
119	0x3eaf3b76	0.34225053
120	0xbd28ffeb	-0.041259687
121	0x3e251179	0.16119947
122	0xbd8009db	-0.0625188
123	0x3eb51972	0.35370976
124	0x3e084747	0.1330844
125	0x3eb0e9b7	0.3455331
126	0x3e9a6a4b	0.3015922
127	0xbeea4782	-0.4575768
128	0xbecffb09	-0.40621212
129	0x3e3c55fb	0.18392174
130	0xbec1cb0d	-0.37850228
131	0x3e6d660d	0.2318346
132	0xbe8a8778	-0.2705648
133	0x3ee922d9	0.455344
134	0x3e3ccb39	0.18436898
135	0x3e8c41d5	0.27393976
136	0xbef4350b	-0.4769672
137	0x3e5b79d4	0.21433192
138	0x3e84a23d	0.25905028
139	0x3d7dd2eb	0.061968725
140	0x3e587f9c	0.21142429
141	0x3eb23075	0.34802595
142	0x3edb3329	0.4281247
143	0x3edff62a	0.43742496
144	0x3d31e7a4	0.0434338
145	0x3de8e3ee	0.11371599
146	0x3e5b2ae7	0.21403085
147	0x3e92a3a2	0.28640467
148	0xbe8189c8	-0.2530043
149	0x3dc68f7d	0.09695337
150	0x3eae4cbe	0.34042925
151	0x3eb39997	0.35078117
152	0xbea57cee	-0.32321876
153	0xbd8d63de	-0.06903814
154	0x3e8755cd	0.26432648
155	0x3ce09a0b	0.027417203
156	0x3d74a3ff	0.05972671
157	0x3df22c32	0.11824836
158	0x3d1f52ac	0.0388972
159	0x3ead5801	0.33856204
160	0x3e8ab298	0.2708938
161	0x3dc88417	0.09790819
162	0xbeb2d463	-0.34927663
163	0xbe61955f	-0.22029637
164	0xbe2ec13d	-0.17065902
165	0xbebbdfad	-0.3669409
166	0x3ea7caf0	0.32772017
167	0xbea0e6dc	-0.31426132
168	0x3ead229d	0.3381547
169	0xbdf58a65	-0.11989287
170	0x3ed15a4c	0.40889204
171	0xbe66df83	-0.225462
172	0xbe5bdc1a	-0.21470681
173	0x3d2d91fb	0.042375546
174	0x3eb7a573	0.35868415
175	0x3e3ecce2	0.18632844
176	0x3e512334	0.20423585
177	0x3e197ab0	0.14988208
178	0x3e224bab	0.15849178
179	0x3ded4433	0.115852736
180	0xbeaec176	-0.34131974
181	0x3e3cca99	0.1843666
182	0xbe6ffa4b	-0.23435323
183	0xbe82b5d0	-0.25529337
184	0xbc8f6d0b	-0.01750805
185	0x3ecbf4ce	0.3983521
186	0xbeb7571c	-0.35808647
187	0xbe1add59	-0.151235
188	0xbeae01ab	-0.33985648
189	0xbe20175a	-0.15633908
190	0x3eed19b7	0.4630868
191	0x3b69249e	0.0035574804
192	0xbeec4d67	-0.46152803
193	0xbeee24d7	-0.46512482
194	0xbeed8bb4	-0.46395648
195	0xbe63e550	-0.22255445
196	0xbe15430b	-0.14576356
197	0xba80e1d0	-0.0009832922
198	0x3e9f750c	0.31143987
199	0xbd93225a	-0.071842864
200	0xbed38d5e	-0.41318792
201	0xbe48d97d	-0.19614215
202	0xbe3a2648	-0.18178666
203	0xbd83a7c5	-0.06428484
204	0xbea7f8b7	-0.32806942
205	0xbecef7a0	-0.40423298
206	0x3ef9508e	0.4869427
207	0x3cdfe9c4	0.027333148
208	0xbe1be1e2	-0.15222886
209	0x3ed0288d	0.40655938
210	0x3e47c314	0.1950801
211	0x3dad2c93	0.084557675
212	0x3e01c68a	0.12673393
213	0x3e6d1ed3	0.2315629
214	0xbe4f2539	-0.20229043
215	0x3eef07e4	0.46685708
216	0x3ec2fce8	0.38083577
217	0x3ed6c41a	0.4194649
218	0x3eaf5ed3	0.34252033
219	0xbee9de1b	-0.45677266
220	0x3ee145c7	0.43998548
221	0xbe518602	-0.20461276
222	0x3e281ef2	0.16418055
223	0x3ebbaac3	0.36653718
224	0xbe8f1f36	-0.279535
225	0xbd89c6df	-0.06727385
226	0x3ed0f015	0.40808168
227	0xbdfb0bbf	-0.122581
228	0x3c258268	0.010101892
229	0xbcb7ef72	-0.022453044
230	0x3e90f8e2	0.28314883
231	0xbc5fda91	-0.01366295
232	0xbeab3e9e	-0.3344621
233	0xbdcb52ab	-0.09927877
234	0xbe31e644	-0.17372996
235	0x3ecc2c55	0.39877573
236	0x3da45802	0.08024599
237	0x3e4c8932	0.19974211
238	0x3e86c5c6	0.26322764
239	0xbc9709a9	-0.018437224
240	0xbefde9e7	-0.49592516
241	0xbeae12cd	-0.3399872
242	0x3ef7cf1e	0.48400205
243	0xbedc31ee	-0.43006843
244	0xbed66e17	-0.41880867
245	0x3eda7876	0.4267003
246	0xbe6e3814	-0.2326358
247	0xbe6688ae	-0.22513077
248	0x3eb349fd	0.35017386
249	0xbebf6d21	-0.37387946
250	0xbef46a74	-0.47737467
251	0xbd28e30e	-0.04123216
252	0xbebba0f8	-0.36646247
253	0x3e21974e	0.15780374
254	0x3d4bfa32	0.04979915
255	0x3e455306	0.19269952

edge_function.0.bias f4 [64]
0	0xbe5f96f2	-0.21834925
1	0xbe6ef7e7	-0.23336755
2	0xbe994072	-0.2993198
3	0xbd943f8c	-0.07238683
4	0x3e617010	0.22015405
5	0xbb1518cf	-0.0022750383
6	0x3e9c8e22	0.3057719
7	0xbe3e51fd	-0.18585964
8	0x3e34d7d5	0.17660458
9	0x3ea2181c	0.3165902
10	0x3ef8a321	0.48561957
11	0xbec384bf	-0.38187215
12	0xbe61415d	-0.2199759
13	0x3e5216ca	0.20516506
14	0xbea2e759	-0.3181713
15	0x3e2e2f1c	0.17010158
16	0x3f216da4	0.63057923
17	0x3efa50ba	0.48889714
18	0x3d951ae7	0.07280522
19	0xbe3373f7	-0.17524706
20	0x3f0a1bab	0.5394847
21	0x3d226155	0.039643604
22	0x3e3a9129	0.18219437
23	0x3daa5172	0.08316316
24	0x3e480aa9	0.19535317
25	0xbd14154a	-0.036153115
26	0xbde9787f	-0.11399936
27	0x3dde0538	0.10840839
28	0x3db848f9	0.089982934
29	0xbe6c4c2b	-0.23075931
30	0x3ea6f906	0.32611865
31	0x3ed4540c	0.41470373
32	0xbdf07090	-0.117402196
33	0x3ea91b36	0.33028573
34	0x3ebf1478	0.37320304
35	0xbe497254	-0.19672519
36	0xbddbbf42	-0.10729839
37	0x3e4dc3b7	0.2009419
38	0xbe09f6a3	-0.1347299
39	0xbd47ed9e	-0.048810594
40	0x3eccc36b	0.39992842
41	0xbe806e5a	-0.25084192
42	0xbdd4684e	-0.10371457
43	0xbee1c955	-0.44098917
44	0xbdce2ed2	-0.10067524
45	0x3d859d9c	0.06524202
46	0x3ea422ef	0.32057902
47	0x3ea8dd9c	0.32981575
48	0x3e9c1b88	0.30489755
49	0x3e7ecd96	0.24883112
50	0xbeddc437	-0.43313763
51	0xbf01a310	-0.5063944
52	0xbecdfac0	-0.4023037
53	0x36a06c71	4.780996e-06
54	0x3c25a2d1	0.010109619
55	0xbe03db66	-0.12876663
56	0x3f0ca6c9	0.54941994
57	0xbe2a991a	-0.16659966
58	0xbea0b340	-0.31386757
59	0x3e583afb	0.2111625
60	0x3e170b4b	0.14750402
61	0xbe2743c3	-0.16334443
62	0x3e48ab62	0.19596627
63	0xbea6e084	-0.32593167

edge_function.2.weight f4 [64, 64]
0	0xbde37561	-0.111063726
1	0xbb900ff9	-0.0043964353
2	0x3d884356	0.06653468
3	0xbdc6d3e8	-0.09708387
4	0xbd181cf2	-0.03713698
5	0x3d9ff566	0.07810478
6	0xbd9a71b9	-0.07541222
7	0x3d6f7c82	0.05846835
8	0x3d94bec0	0.07262945
9	0xbcae3daa	-0.021269638
10	0xbd4083ea	-0.047000803
11	0xbd4b2fbb	-0.049606066
12	0x3d8ddbd2	0.06926693
13	0xbd855cfe	-0.065118775
14	0x3dfb42d4	0.12268606
15	0x3d1648f5	0.03669067
16	0xbc8313ff	-0.016000746
17	0x3d647108	0.055771858
18	0x3c028a2f	0.007967516
19	0xbd7fc4f0	-0.062443674
20	0x3e117de8	0.14208186
21	0xbddb40c8	-0.107057154
22	0xbd560e24	-0.05225958
23	0x3d6cc864	0.057808295
24	0xbdd5d577	-0.10441106
25	0x3db20948	0.086931765
26	0xb8c789a7	-9.514699e-05
27	0x3d6bcf6d	0.057570864
28	0x3d2f27cb	0.04276256
29	0xbddf933a	-0.10916753
30	0x3d979a18	0.07402438
31	0x3e13e5ff	0.14443205
32	0x3d733caf	0.059384044
33	0xbd1028e5	-0.03519525
34	0xbd80e899	-0.062943645
35	0xbdb21fa1	-0.08697439
36	0xbc8564e5	-0.016283462
37	0xbdbad608	-0.091228545
38	0x3d6f8903	0.058480274
39	0xbd45d39b	-0.048297506
40	0xbdf2d614	-0.118572384
41	0xbcc20666	-0.023684692
42	0x3daf6aa4	0.08565262
43	0xbddad6d3	-0.10685506
44	0x3daa3bd0	0.083121896
45	0xbdcc1c4d	-0.099663354
46	0xbd90c354	-0.07068506
47	0x3dec5bc3	0.1154094
48	0x3dfdbb9e	0.12389301
49	0x3d89594f	0.067064874
50	0xbde496ad	-0.111615516
51	0xbd25a362	-0.040439017
52	0x3db29eac	0.087216705
53	0xbd94015e	-0.07226823
54	0xbdd5c5c3	-0.10438111
55	0xbd9ed971	-0.077563174
56	0xbdb0e106	-0.0863667
57	0xbdd33f19	-0.10314769
58	0xbd35a4dd	-0.04434668
59	0xbd1e75cf	-0.03868657
60	0x3dbaa621	0.09113718
61	0xbda5d61a	-0.08097477
62	0xbd8b147b	-0.06791016
63	0xbd57586c	-0.05257456
64	0xbd8843f1	-0.06653584
65	0xbc98440c	-0.018587135
66	0xb9d05a04	-0.00039739918
67	0xbdbd2dae	-0.09237228
68	0xbc0e92f6	-0.00870203
69	0x3d984f27	0.07436972
70	0x3e005caf	0.12535356
71	0x3db19cbf	0.08672475
72	0xbdaf534a	-0.08560808
73	0x3db0840c	0.08618936
74	0x3d9fab47	0.077963404
75	0x3d384fe1	0.044998053
76	0xbdaa616e	-0.083193645
77	0xbe15a8e9	-0.14615215
78	0xbd29307a	-0.041305996
79	0xbd563e84	-0.052305713
80	0x3d4e1eca	0.05032233
81	0x3d809b1a	0.06279583
82	0x3d80ec14	0.06295028
83	0xbaf28338	-0.0018502241
84	0xbd32460c	-0.043523833
85	0xbddd6dd5	-0.108119644
86	0x3c0bddcd	0.008536768
87	0xbd907322	-0.0705321
88	0x3d122db0	0.035688102
89	0x3dc30840	0.09523058
90	0x3e06af04	0.131527
91	0x3c662135	0.014046003
92	0x3e0edf1d	0.13952298
93	0x3dff64bd	0.12470386
94	0xbc39f7a8	-0.01135055
95	0x3d4b8da1	0.049695615
96	0x3d371b99	0.044704054
97	0x3cd8bcd8	0.026457235
98	0xbd09e04f	-0.033661183
99	0x3df985cf	0.12183725
100	0x3db23901	0.08702279
101	0x3db639b0	0.08897722
102	0xbe11ef75	-0.14251502
103	0x3da0d1a6	0.07852487
104	0xbddfcda9	-0.109278984
105	0xbb2114fa	-0.0024579153
106	0x3d239105	0.039933223
107	0x3cb7ec14	0.022451438
108	0x3d8c558b	0.068522535
109	0xbe017bfb	-0.12644951
110	0xbbd5ac77	-0.0065208036
111	0xbd912653	-0.07087388
112	0xbd700ebe	-0.05860781
113	0xbdc812b5	-0.09769193
114	0x3d13c8b1	0.036080066
115	0xbdd66ad9	-0.10469598
116	0xbd552f6e	-0.052047186
117	0x3d080c64	0.03321494
118	0xbbf061fb	-0.007335899
119	0xbd30aec7	-0.04313543
120	0xbc226c5a	-0.009913528
121	0xbd92a5e4	-0.071605474
122	0xbe0374f8	-0.12837589
123	0x3db92f0f	0.09042179
124	0x3d222ceb	0.03959362
125	0xbc909334	-0.017648317
126	0xbd417760	-0.047232985
127	0xbc41442a	-0.011796037
128	0x3d4e4ff8	0.050369233
129	0x3c13bd83	0.009017351
130	0xbcde9e0f	-0.027174978
131	0xbcf4b72c	-0.0298725
132	0xbd924862	-0.07142712
133	0xbd78a394	-0.060702875
134	0xbd8c2014	-0.06842056
135	0xbded2cec	-0.11580834
136	0xbd9c5301	-0.07633019
137	0xbce38aee	-0.027776208
138	0xbdda0c38	-0.10646862
139	0xbc1bd904	-0.00951219
140	0xbe153f08	-0.14574826
141	0xbda4f90f	-0.08055317
142	0xbd9a7e95	-0.07543675
143	0xbd673f74	-0.056456998
144	0xbd1f3513	-0.038868975
145	0x3d58436c	0.052798674
146	0x3d58f05a	0.052963592
147	0x3d56c9fa	0.052438714
148	0xbbab797b	-0.0052329875
149	0x3de82fdd	0.11337254
150	0xbe1a8f2a	-0.15093675
151	0x3d4f0f61	0.050551776
152	0xbdca8392	-0.09888376
153	0x3c80a8db	0.015705517
154	0x3d6ce229	0.05783287
155	0xbdd71651	-0.105023034
156	0x3e030db8	0.12798202
157	0xbc4bd697	-0.012441299
158	0xbdcc8fd3	-0.0998837
159	0x3d878fdc	0.06619236
160	0x3d3c9db1	0.046048824
161	0xbc5aa321	-0.013344557
162	0xbe18085e	-0.14846942
163	0x3d0fd652	0.0351165
164	0x3d001c03	0.031276714
165	0xbd9f20d0	-0.0776993
166	0xbdca237b	-0.098700486
167	0x3d91e2aa	0.07123311
168	0xbdc2d5d0	-0.09513438
169	0x3d546f01	0.051863674
170	0xbd75c9d2	-0.060006924
171	0xbd35c52e	-0.0443775
172	0x3d22ab39	0.039714072
173	0x3ca7ca35	0.020482162
174	0x3d2a526d	0.041582514
175	0x3d17a902	0.037026413
176	0x3da17af2	0.07884778
177	0x3d46a837	0.048500266
178	0xbe10dd16	-0.14146838
179	0x3da6edee	0.0815085
180	0xbdb94fa6	-0.09048395
181	0x3db6bc80	0.08922672
182	0xbe087a9d	-0.13328023
183	0x3df60b43	0.12013867
184	0xbcf3a10f	-0.029739885
185	0xbe09e436	-0.13465962
186	0xbe19c58a	-0.15016761
187	0x3dd437a8	0.10362178
188	0xbde3a6bb	-0.11115786
189	0xbde151de	-0.11001943
190	0x3c4bf73b	0.012449081
191	0xbd8e4d76	-0.06948368
192	0x3d4e0d1c	0.05030547
193	0x3cbf2198	0.023331448
194	0x3c400b60	0.011721462
195	0xbd353234	-0.04423733
196	0x3c86d300	0.016458035
197	0x3ce2bdf0	0.02767846
198	0xbda66b9e	-0.08125995
199	0xbcfb0b70	-0.030645102
200	0xbd9b51ee	-0.07583986
201	0xbd301910	-0.04299265
202	0xbce74518	-0.028231189
203	0x3df6fd9a	0.120600894
204	0xbd728068	-0.05920449
205	0xbcc3e540	-0.023913026
206	0x3d87dcf2	0.06633939
207	0xbd82dd02	-0.0638981
208	0x3da7d72e	0.08195339
209	0xbb967c00	-0.0045924187
210	0xbcce9178	-0.02521585
211	0xbdcfd286	-0.10147576
212	0xbcb0ab78	-0.021566138
213	0xbd890e04	-0.066921264
214	0xbd951af8	-0.072805345
215	0xbd4b928c	-0.049700305
216	0x3d7e55d8	0.062093586
217	0x3d6d560c	0.05794339
218	0x3d1557d4	0.036460713
219	0x3cc64180	0.024201155
220	0x3c857f18	0.016295955
221	0xbd3c926c	-0.046038076
222	0xbd4da33c	-0.0502045
223	0x3dc1be08	0.09460074
224	0xbbd9ebe0	-0.006650433
225	0xbdd9bcd0	-0.10631716
226	0xbd94ff52	-0.07275261
227	0xbc634150	-0.013870552
228	0xbda6c672	-0.08143319
229	0x3cf5fe78	0.030028567
230	0x3d5df020	0.05418408
231	0xbd6acf5c	-0.05732666
232	0xbde6b886	-0.11265664
233	0xbcb960c8	-0.022629157
234	0x3d908734	0.07057038
235	0x3b8b7640	0.00425604
236	0x3d30ca1c	0.043161497
237	0xbdf0e330	-0.117620826
238	0x3def948e	0.116982564
239	0xbbdcd9c0	-0.006739825
240	0xbdc3d5a8	-0.09562236
241	0x3dafc05e	0.08581613
242	0x3df22c40	0.11824846
243	0xbdcad31e	-0.09903549
244	0xbdf0f060	-0.11764598
245	0xbddb98a0	-0.1072247
246	0xbd42eb90	-0.04758793
247	0xbd891ef8	-0.0669536
248	0xbc8c42f0	-0.017121762
249	0xbd81be88	-0.06335169
250	0x3dbf9d9c	0.093562335
251	0x3d31f6ec	0.043448374
252	0x3d5bfaa0	0.05370581
253	0x3d2482a4	0.04016365
254	0x3df2c4b2	0.11853923
255	0xbdef2f72	-0.11678971

edge_function.2.bias f4 [64]
0	0x3e42a30b	0.19007508
1	0x3e45a265	0.1930023
2	0xbdc2e2b2	-0.09515895
3	0x3d2acd44	0.041699663
4	0x3e32e88f	0.17471527
5	0x3e09b326	0.13447246
6	0xbd7c0f95	-0.061538298
7	0xbdc8fa71	-0.09813393
8	0x3e34eee2	0.17669252
9	0xbdfc3388	-0.12314516
10	0x3d885aca	0.06657942
11	0x3e0b7e93	0.13622503
12	0x3d54eb08	0.051981956
13	0xbc521352	-0.012821989
14	0x3cd57333	0.026055908
15	0xbd0cea2b	-0.034403007
16	0x3d4c0820	0.049812436
17	0xbdb16db1	-0.086635
18	0xbd5484f1	-0.051884595
19	0xbcee4512	-0.02908567
20	0xbde3ce68	-0.11123353
21	0x3d03e5bb	0.03220151
22	0x3c926307	0.017869486
23	0x3d1a42c7	0.03766134
24	0x3c3e30cd	0.011608315
25	0x3e1e0625	0.15432031
26	0x3d89c9a3	0.06727912
27	0x3e0091de	0.12555644
28	0x3d3561c0	0.044282675
29	0x3d1dbb68	0.038508803
30	0x3d97bc3f	0.07408952
31	0xbe1b6857	-0.15176521
32	0xbc99d2e6	-0.018777322
33	0xbd07d54f	-0.03316241
34	0xbc32790c	-0.010893118
35	0x3d076970	0.033059537
36	0x3d67396c	0.056451246
37	0xbdf6ace0	-0.12044692
38	0xbd2fea1c	-0.042947873
39	0xbdc6675c	-0.09687683
40	0xbd5e2ee8	-0.054243952
41	0xbd0f3d7b	-0.03497074
42	0xbd673c7d	-0.05645417
43	0x3c433e26	0.011916673
44	0x3d84697f	0.06465434
45	0xbc4a596c	-0.012350421
46	0xbcb6c358	-0.022309944
47	0x3d2a89d1	0.04163534
48	0xbd06c93f	-0.032906767
49	0x3dfc850a	0.12330063
50	0xbc4adf97	-0.01238241
51	0x3d31bde8	0.043394
52	0xbc4ee11c	-0.012626912
53	0x3db9d22d	0.09073291
54	0x3dcc126e	0.09964453
55	0x3b2d2f4e	0.00264259
56	0xbd340e9a	-0.043959238
57	0xbd290b7c	-0.041270718
58	0x3cddfff5	0.027099589
59	0x3e3bc860	0.18338156
60	0xbd79e170	-0.06100601
61	0x3da67239	0.08127255
62	0xbc30c529	-0.010789194
63	0xbdcd8740	-0.100355625
