Projects/GuoxiangGrayson_T_A study of multi-fidelity graph neural networks/Model_save/Quarter2D/Rank=239-GNN-nB-64-Lr-0.005/model.pth (torch, 114781 bytes, 24 tensors)

node_function_neighbor.0.weight f4 [64, 2]
0	0x3f002e3b	0.5007054
1	0xbf18877c	-0.5958173
2	0x3e7dd413	0.24787931
3	0xbe95fbda	-0.2929371
4	0x3f2f67d8	0.6851783
5	0xbda30d18	-0.07961482
6	0xbf1dbd5d	-0.6161707
7	0xbb46c196	-0.0030327789
8	0x3f234998	0.6378417
9	0x3f0341bd	0.51272184
10	0x3ede2755	0.43389383
11	0x3e164ca4	0.14677674
12	0xbe42407a	-0.18969908
13	0x3eef80d6	0.46777982
14	0xbd05b71c	-0.03264533
15	0x3ef3e417	0.47634956
16	0x3edafcf6	0.4277112
17	0x3e858640	0.26078987
18	0xbf20a211	-0.62747294
19	0xbf1c41f0	-0.6103811
20	0x3d71ecc8	0.059063703
21	0xbdc0d7de	-0.094161734
22	0xbf14e739	-0.5816532
23	0x3f1ad6fe	0.604843
24	0x3f33e524	0.70271516
25	0xbe5b39b0	-0.21408725
26	0xbe56311c	-0.20917171
27	0xbee2a29f	-0.44264695
28	0x3ea8cfb9	0.3297098
29	0xbee5a21d	-0.44850245
30	0x3d769dd0	0.060209095
31	0xbcbd3940	-0.023098588
32	0xbee2a573	-0.44266853
33	0x3e9176ba	0.28410894
34	0xbf23b2d4	-0.63944745
35	0xbd2fa90c	-0.042885825
36	0xbf0f1a7e	-0.558998
37	0x3d71654e	0.058934502
38	0xbe40604d	-0.18786736
39	0x3e1a5b6e	0.1507394
40	0xbe2caeaa	-0.16863504
41	0x3f2d130a	0.67607176
42	0xbe935d9c	-0.28782356
43	0x3eab0cc1	0.33408168
44	0xbe6f71a4	-0.23383194
45	0x3ed15c8e	0.40890926
46	0xbe4ed0d0	-0.20196843
47	0xbe43ed99	-0.19133605
48	0xbca030ea	-0.019554574
49	0x3edafdcb	0.42771754
50	0xbefb3348	-0.49062562
51	0x3ec919ff	0.39277646
52	0x3df42e09	0.11922843
53	0xbe291578	-0.16512096
54	0xbf188ec2	-0.5959283
55	0xbef5e28f	-0.48024413
56	0xbe0bad1a	-0.13640252
57	0x3ee4989e	0.44647688
58	0x3eebba2e	0.4604048
59	0x3ee8ad90	0.45444918
60	0x3f244375	0.6416543
61	0x3f2d1297	0.6760649
62	0xbf195b5e	-0.5990504
63	0xbe8f67af	-0.28008792
64	0x3ede3607	0.43400595
65	0x3e8fe0f6	0.2810132
66	0x3c74647e	0.014916537
67	0x3d551c2b	0.052028816
68	0x3ecb940b	0.39761385
69	0x3e289251	0.16462065
70	0xbeb61fa1	-0.35571006
71	0xbe2612ee	-0.16218159
72	0x3d116179	0.035493348
73	0xbe87ca8e	-0.26521724
74	0xbea63546	-0.3246252
75	0xbe3f1067	-0.18658601
76	0xbf35c171	-0.70998293
77	0x3e426e38	0.18987358
78	0x3cf50936	0.029911619
79	0xbc561d26	-0.013068473
80	0x3e0b4a58	0.13602579
81	0x3e2396d4	0.15975505
82	0xbe38efcb	-0.18060224
83	0xbec1a841	-0.3782368
84	0xbf1af4ae	-0.605296
85	0x3eb3c566	0.3511154
86	0x3f273638	0.65317106
87	0x3e90ccf0	0.28281355
88	0x3eab255d	0.33426943
89	0xbd959c1a	-0.07305165
90	0x3e4f9563	0.2027183
91	0xbd01ac35	-0.03165837
92	0xbf20bc9c	-0.62787795
93	0x3e851f32	0.26000363
94	0xbeab4ef4	-0.33458674
95	0x3d2518df	0.040306922
96	0x3f1c6fa8	0.61107874
97	0x3f270976	0.6524881
98	0x3f2b6508	0.66951036
99	0x3dc5d992	0.09660639
100	0x3e863857	0.2621486
101	0xbe9a5bac	-0.30148065
102	0x3e95b696	0.29240865
103	0x3ec14268	0.37745976
104	0xbf20e808	-0.6285405
105	0x3f17d6c6	0.59312093
106	0xbe6e0ff9	-0.2324828
107	0x3eb026d3	0.3440462
108	0x3eb2b5f1	0.34904435
109	0xbebb0ffb	-0.3653563
110	0xbdda66b5	-0.10664121
111	0x3eb955ce	0.36198276
112	0xbeb2a580	-0.3489189
113	0x3f03f202	0.5154115
114	0xbf1a87d3	-0.603635
115	0x3f1a34e0	0.6023693
116	0xbe5d89fd	-0.2163467
117	0xbe54eb21	-0.2079282
118	0xbe1becce	-0.15227053
119	0x3d889c21	0.06670404
120	0x3eafbb02	0.34322363
121	0xbd223750	-0.03960353
122	0xbeaff295	-0.34364763
123	0x3e2de431	0.1698158
124	0x3ebacefe	0.36486048
125	0x3e1d0265	0.15332945
126	0x3f233a0c	0.6376045
127	0x3ed9822e	0.42482132

node_function_neighbor.0.bias f4 [64]
0	0x3e1223f4	0.14271528
1	0x3e380451	0.17970397
2	0xbe58c0fd	-0.21167369
3	0xbe8fd064	-0.28088677
4	0x3eaecd80	0.3414116
5	0xbe5d60e3	-0.2161899
6	0xbecb97c3	-0.39764223
7	0x3f208de1	0.6271649
8	0x3ed5d3fd	0.41763297
9	0x3e90fc02	0.28317267
10	0xbed95f10	-0.4245534
11	0xbef09353	-0.469874
12	0x3f3b7c80	0.73236847
13	0x3eacad69	0.3372605
14	0xbeaa6811	-0.3328252
15	0x3f3b4b8a	0.7316214
16	0xbf0097aa	-0.5023142
17	0xbd36d6f6	-0.044638596
18	0xbeb391a8	-0.35072064
19	0x3f02bc0a	0.51068175
20	0x3e953cd6	0.29147977
21	0x3e621d60	0.22081518
22	0x3ed025af	0.4065375
23	0xbeea1da9	-0.45725754
24	0xbe9efda6	-0.31052893
25	0x3ed04bd8	0.40682864
26	0xbdd43b67	-0.103628926
27	0xbeec95a9	-0.46207932
28	0xbd8b25b8	-0.06794304
29	0x3e893721	0.26799873
30	0xbec1af98	-0.3782928
31	0x3e00846c	0.12550515
32	0x3e96d680	0.29460526
33	0xbf2a9678	-0.6663585
34	0x3ee4e0db	0.447028
35	0x3ef1258b	0.47098956
36	0xbea7a1e2	-0.32740694
37	0x3eea6def	0.45786998
38	0xbf46afb8	-0.77611876
39	0xbe928d73	-0.28623542
40	0x3d5c3a27	0.053766396
41	0x3e1db954	0.15402728
42	0xbf1a5164	-0.6028044
43	0x3cec3156	0.028832119
44	0x3dfd4ae6	0.12367801
45	0x3f4a82da	0.79105914
46	0x3f353caf	0.7079572
47	0xbf3abbe9	-0.7294298
48	0x3f08a6ee	0.53379714
49	0x3ed5ecab	0.41782126
50	0x3e0f8891	0.1401694
51	0xbec38130	-0.381845
52	0xbe4efb33	-0.20213012
53	0xbe1f053b	-0.15529339
54	0xbf1cd147	-0.6125683
55	0x3e7d12b5	0.24714167
56	0xbe308645	-0.1723872
57	0x3e120e2d	0.1426322
58	0xbf388f74	-0.7209389
59	0x3dbe84da	0.09302683
60	0xbeb3742d	-0.35049573
61	0xbec2f840	-0.38080025
62	0xbf0f6819	-0.56018215
63	0xbdc5ce12	-0.096584454

node_function_neighbor.2.weight f4 [64, 64]
0	0x3dcfa140	0.10138178
1	0xbcf6257d	-0.030047173
2	0xba210e2d	-0.0006143775
3	0x3cc35d52	0.02384821
4	0xbdec9212	-0.11551298
5	0xbe061b11	-0.13096263
6	0xbb59e3eb	-0.0033247422
7	0xbdccfe87	-0.10009485
8	0xbdd283fc	-0.1027908
9	0xbd342718	-0.043982595
10	0x3c259392	0.010105984
11	0x3dc6cc97	0.09706991
12	0x3e0c959c	0.13728946
13	0x3d434335	0.047671515
14	0x3a0a4114	0.00052739796
15	0x3d028059	0.031860683
16	0x3d118dad	0.035535503
17	0x3d83b0e3	0.06430223
18	0x3d23d0a5	0.0399939
19	0xbe00f589	-0.12593664
20	0x3d96c941	0.07362605
21	0xbe022aa2	-0.12711576
22	0xbdf1f914	-0.11815086
23	0x3d267060	0.040634513
24	0xbd6a07c3	-0.05713631
25	0xbe06397b	-0.13107865
26	0x3c96df08	0.018416896
27	0x3e329053	0.17437868
28	0x3cd4b8c5	0.025967011
29	0x3c589350	0.013218716
30	0x3dd6572b	0.10465845
31	0x3d7a7f01	0.061156277
32	0x3daa8459	0.083260246
33	0xbccb0f4f	-0.024787573
34	0x3d69e6c7	0.057104852
35	0x3d82862e	0.06373249
36	0x3e1cd2cc	0.15314788
37	0xbdcca27f	-0.09991931
38	0x3db7e5b0	0.08979356
39	0xbc522980	-0.012827277
40	0xbdc059e6	-0.09392147
41	0x3d5de51a	0.054173566
42	0x3d6cca2c	0.057809994
43	0xbd0abcee	-0.033871584
44	0x3bbb741e	0.0057206294
45	0xbdf0295f	-0.11726641
46	0xbe367d65	-0.17821272
47	0x3edc9c18	0.4308784
48	0x3bde7ea2	0.006789998
49	0x3c875fc0	0.01652515
50	0xbd382cba	-0.04496453
51	0x3d911257	0.07083576
52	0xbd9c5bad	-0.07634673
53	0x3d9f13fc	0.077674836
54	0x3ddf4ddf	0.109035246
55	0xbd6903f8	-0.05688855
56	0xbe09f932	-0.13473967
57	0xbe115d09	-0.14195646
58	0x3e3eb95c	0.18625396
59	0xbd74d96b	-0.05977766
60	0xbcf19220	-0.029488623
61	0x3d65cbab	0.056102436
62	0x3d622a73	0.055216264
63	0xbc3b0ee0	-0.011417121
64	0x3e43556e	0.19075558
65	0x3e1f5b29	0.15562119
66	0xbda600b0	-0.081056
67	0xbdea8cc2	-0.11452629
68	0xbd95e088	-0.073182166
69	0x3e15d0c4	0.14630419
70	0x3c275e3f	0.010215341
71	0x3e15af2a	0.14617601
72	0x3cdc65b7	0.02690397
73	0x3d80fd36	0.06298296
74	0x3cf74af9	0.030187117
75	0x3d9fdef6	0.07806198
76	0x3e3b8b2a	0.18314806
77	0x3de11297	0.10989874
78	0xbcebb99a	-0.028775025
79	0x3cd5d3de	0.026102003
80	0x3b303254	0.0026885467
81	0xbd5c56ba	-0.053793646
82	0x3dcb3db2	0.09923877
83	0x3c776ce2	0.015101643
84	0x3d3188bf	0.0433433
85	0x3d183e9d	0.037169088
86	0xbda83d94	-0.0821487
87	0x3dcbb9fc	0.09947583
88	0xbdadbb75	-0.0848302
89	0xbcd20677	-0.025637848
90	0xbd0d7461	-0.034534816
91	0x3d288651	0.04114372
92	0x3df608d7	0.12013405
93	0x3dd8d452	0.10587372
94	0x3c20b309	0.00980831
95	0xbc9dbb8d	-0.01925447
96	0xbbf8350a	-0.007574682
97	0x3d92cbf5	0.07167808
98	0xbd7dcde0	-0.061963916
99	0x3d370dc0	0.044690847
100	0x3d89967a	0.06718154
101	0x3de9e5ea	0.11420806
102	0xbdc93550	-0.09824622
103	0x3cf858f8	0.030315861
104	0xbb10eea2	-0.0022114892
105	0x3c416110	0.011802927
106	0xbe15a130	-0.1461227
107	0x3bd17035	0.00639155
108	0xbcf54513	-0.029940164
109	0x3ddd9092	0.1081859
110	0xbd9c8f8c	-0.07644567
111	0xbe228dfd	-0.15874477
112	0xbd55f072	-0.05223126
113	0x3e143419	0.14472999
114	0x3ce54b6b	0.027990064
115	0xbd7a66d8	-0.061133236
116	0x3e4d9f31	0.20080258
117	0x3cf121e6	0.02943511
118	0x3e328570	0.17433715
119	0xbd216b04	-0.0394087
120	0xbd67ad9e	-0.05656206
121	0x3d1eed48	0.038800508
122	0xbd354787	-0.044257667
123	0xbd9933fc	-0.07480618
124	0x3df0fd61	0.11767078
125	0xbe176b55	-0.14787038
126	0x3d838149	0.064211436
127	0xbd71b5a9	-0.059011135
128	0x3db3a6ae	0.08772026
129	0x3d04dc2d	0.03243654
130	0xbe07cb42	-0.1326113
131	0x3cf7c28a	0.03024413
132	0xbdc31d1c	-0.095270365
133	0xbdc0666d	-0.09394536
134	0xbdc550da	-0.09634562
135	0xbc4ad4b8	-0.012379818
136	0x3cbda317	0.023149056
137	0x3d9b533c	0.07584235
138	0x3d96aa6e	0.07356726
139	0x3d95bb76	0.07311146
140	0xbe15831a	-0.14600793
141	0x3d952cf2	0.07283963
142	0xbc498c0b	-0.012301455
143	0x3c8120f1	0.015762778
144	0xbcc4a17b	-0.024002781
145	0xbdb36ee9	-0.08761389
146	0x3d458971	0.048226777
147	0x3d996f77	0.07491963
148	0x3ccb4ccb	0.024816891
149	0x3de4fc57	0.111809425
150	0x3d25d323	0.04048456
151	0xbd69b48b	-0.057056945
152	0xbd8f70df	-0.0700395
153	0x3d291be9	0.041286383
154	0x3daba9a2	0.08381964
155	0xbd2cd472	-0.04219479
156	0xb9fa22df	-0.00047709697
157	0x3d6c2b17	0.05765828
158	0x3dd2c60d	0.102916814
159	0xbde28c31	-0.11061896
160	0xbdaf9fcb	-0.085754
161	0xbda252e8	-0.07925969
162	0xbcd43bd3	-0.025907433
163	0xbd89ac62	-0.067223325
164	0xbdc1af0d	-0.094572164
165	0xbdaf8bb1	-0.08571566
166	0xbd1f8e52	-0.038954087
167	0x3cc13eb8	0.023589477
168	0x3d7c310b	0.06157021
169	0x3d181f6b	0.037139338
170	0xbd8609ef	-0.065448634
171	0xbdb8ab7d	-0.09017084
172	0xbd0e9e78	-0.034819096
173	0xbd4e1927	-0.050316956
174	0xbd8e7d3f	-0.069574825
175	0x3cc00d0b	0.02344372
176	0xbdc692c2	-0.096959606
177	0x3cb5052a	0.022097189
178	0xbdb0c753	-0.08631768
179	0x3c34e799	0.011041545
180	0xbd3527b4	-0.044227317
181	0x3ccd4d0b	0.025061151
182	0x3d4c21bc	0.04983686
183	0xbe01cca9	-0.12675728
184	0xbd2c7f0e	-0.042113356
185	0x3ccde516	0.02513365
186	0x3b78f240	0.003798619
187	0xbd813531	-0.063089736
188	0xbd8d4101	-0.06897164
189	0x3d1dca7d	0.038523186
190	0xbd7e2f9c	-0.062057123
191	0x3d98bb37	0.074575834
192	0xbd0f23c7	-0.03494623
193	0x3e2c019f	0.16797493
194	0x3e13e32d	0.1444213
195	0xbe07c3dc	-0.13258308
196	0x3e0f3046	0.13983259
197	0x3990c9a5	0.00027616057
198	0xbb00e622	-0.001966842
199	0x3b54d4a4	0.0032475377
200	0x3d73cb1f	0.059519883
201	0xbdb184ed	-0.08667932
202	0x3e48cd6c	0.19609612
203	0x3c059c64	0.008154962
204	0x3e06a37c	0.13148302
205	0x3e05fa29	0.1308371
206	0x3e517a27	0.20456754
207	0xbd97ba46	-0.07408576
208	0x3d3d80ee	0.046265535
209	0x3d22d726	0.039755963
210	0x3d9bf847	0.076157145
211	0xbaeb76e7	-0.0017964513
212	0xbdc25688	-0.09489161
213	0x3d28a914	0.04117687
214	0x3dae4338	0.08508915
215	0x3ccc51da	0.024941374
216	0xbcfe3d5c	-0.031035118
217	0xbd8749c8	-0.066058695
218	0x3e29c72f	0.16579889
219	0xbda8ab3d	-0.08235786
220	0x3dcaf05d	0.09909127
221	0xbd33bc0d	-0.04388051
222	0x3d9e160d	0.077190496
223	0xbd4b024b	-0.049562734
224	0xbc6446ed	-0.013932926
225	0xbd9fd370	-0.078040004
226	0x3d0e2874	0.034706548
227	0x3c9ddeed	0.019271338
228	0x3dc55428	0.09635192
229	0x3df80b85	0.12111572
230	0x3cbf90c3	0.023384457
231	0x3d9c0220	0.07617593
232	0x3db1b95c	0.086779326
233	0xbbbfa822	-0.0058489004
234	0xbdfb861b	-0.12281438
235	0x3e03b977	0.12863718
236	0xbbb562f1	-0.0055354764
237	0x3e1e0235	0.1543053
238	0x3b492ccc	0.0030696867
239	0xbd5107ec	-0.051032946
240	0x3d820c5d	0.06350014
241	0x3d63680c	0.05551915
242	0x3d3d233a	0.046176173
243	0xbc82216a	-0.015885074
244	0x3c926f1a	0.017875243
245	0x3db971d3	0.09054913
246	0xbc10d4f7	-0.008839837
247	0x3e07bbf8	0.13255298
248	0x3de155d2	0.11002697
249	0xbd2ff2ca	-0.04295615
250	0xbda97094	-0.08273426
251	0xbe030123	-0.12793402
252	0x3d075a9e	0.033045404
253	0x3cc93897	0.024563117
254	0x3de7e49a	0.11322899
255	0x3e122580	0.14272118

node_function_neighbor.2.bias f4 [64]
0	0x3d078c2a	0.033092655
1	0x3dafbba0	0.085807085
2	0xbdd0d430	-0.101967216
3	0x3da9d3f1	0.08292378
4	0x3d473873	0.04863782
5	0x3da90777	0.08253377
6	0x3c4f4c20	0.012652427
7	0x3dd59289	0.1042834
8	0x3e1cfe0d	0.15331288
9	0x3c233d95	0.009963413
10	0xbc0760f8	-0.008262865
11	0xbdf149de	-0.11781667
12	0xbd324123	-0.04351915
13	0xba88080c	-0.0010378375
14	0xbe1ca940	-0.15298939
15	0x3cb8f6b3	0.022578573
16	0x3c76aa24	0.015055213
17	0x3d68f5b8	0.05687496
18	0xbded2848	-0.11579949
19	0xbd893c6c	-0.06700978
20	0x3d4a583c	0.049400553
21	0x3d3cc62d	0.046087433
22	0xbd81f184	-0.063448936
23	0xbddd2173	-0.107973956
24	0xbe3a7961	-0.18210365
25	0xbdb53e7f	-0.08849811
26	0xbd16969b	-0.036764722
27	0xbc0f04ee	-0.008729203
28	0xbdc9f7ec	-0.098617405
29	0xbd207332	-0.03917236
30	0xbe33cdfe	-0.17559049
31	0xbe042c0e	-0.1290743
32	0xbd8b0de3	-0.06789758
33	0x3e1d677d	0.15371509
34	0xbdeabc2d	-0.11461673
35	0xbc8f203a	-0.017471422
36	0x3dc3a792	0.09553446
37	0xbdf8ae37	-0.12142604
38	0x3cc5b892	0.024135862
39	0xbcfd41c8	-0.030915156
40	0x3c698170	0.014252052
41	0x3d05c840	0.032661676
42	0x3cfcdbcb	0.030866524
43	0x3e07b51f	0.13252686
44	0xbdd7d410	-0.105384946
45	0x3d97bcc0	0.07409048
46	0xbdc50fd9	-0.09622163
47	0x3b2f6e68	0.0026768688
48	0xbdb0a0ed	-0.08624444
49	0xbc5aa611	-0.013345257
50	0xbdcbf65c	-0.09959099
51	0x3c14f029	0.009090462
52	0xbcb8c8b7	-0.022556646
53	0xbbcc24d4	-0.006229976
54	0xbd015e2b	-0.031583946
55	0xbe14e254	-0.14539462
56	0x3d45ffd9	0.0483397
57	0xbd90c81b	-0.07069417
58	0xbe16c1c0	-0.14722347
59	0x3dfb36d5	0.12266318
60	0x3c5c088d	0.013429773
61	0xbdaee977	-0.08540624
62	0xbcceea70	-0.025258273
63	0xbd2ccfdc	-0.042190418

node_function_neighbor.4.weight f4 [64, 64]
0	0x3bf7ee67	0.0075662616
1	0xbc9c384d	-0.019069815
2	0xbd154134	-0.036439136
3	0xbcc5111e	-0.024056014
4	0xbb607a6b	-0.0034252654
5	0xbe0cfacc	-0.13767546
6	0xbd8a8520	-0.06763673
7	0x3db4ada7	0.08822184
8	0x3d05a361	0.032626513
9	0xbcf89385	-0.03034378
10	0xbd9cecd5	-0.076623596
11	0xbca6f038	-0.020378217
12	0xbe1945cb	-0.1496803
13	0x3ccfb0a4	0.025352784
14	0x3d5ea06b	0.054352205
15	0xbdc488ab	-0.0959638
16	0xbd1b58a8	-0.037926346
17	0xbdc6645f	-0.09687113
18	0xbde92608	-0.11384207
19	0x3dd5cdac	0.104396194
20	0x3d9e3a14	0.07725921
21	0xbd40bef9	-0.047057126
22	0xb9d02000	-0.00039696693
23	0xbcebb842	-0.028774384
24	0xbde3c1f3	-0.11120977
25	0xbdbcd408	-0.09220129
26	0xbd144dff	-0.036207195
27	0xbdd2b6e9	-0.102887936
28	0xbdd1ae8d	-0.10238371
29	0x3d4cd347	0.050006177
30	0x3dafb9e8	0.08580381
31	0x3d9a9ea4	0.075497895
32	0xbdce0f15	-0.100614704
33	0xbe0c2e6f	-0.13689588
34	0xbd848ac3	-0.06471779
35	0x3d6daae6	0.05802431
36	0xbda7a00b	-0.08184823
37	0x3c0d771a	0.008634353
38	0xbd695b08	-0.05697158
39	0x3d20a600	0.03922081
40	0x3da09ba0	0.07842183
41	0x3d1b121c	0.037859067
42	0xbe102209	-0.14075483
43	0xbb870794	-0.0041207764
44	0x3d238201	0.039918903
45	0xbd9db0cb	-0.07699736
46	0x3d20e596	0.03928145
47	0x3c700092	0.0146485735
48	0xbd036aaa	-0.032084145
49	0xbaaa6bbf	-0.0013002082
50	0xbd97cfb6	-0.074126646
51	0xbdfd8958	-0.12379712
52	0xbddbe114	-0.107362896
53	0xbd44e283	-0.04806758
54	0xbc745e20	-0.014915019
55	0xbd042702	-0.032263763
56	0xbd9b5c09	-0.07585914
57	0xbada7723	-0.0016667586
58	0x3d72786f	0.059196886
59	0xbe076ff5	-0.13226302
60	0x3d010c25	0.031505723
61	0xbbac2ae0	-0.0052541345
62	0x3d842eed	0.06454263
63	0xbbe2b5f6	-0.006918664
64	0x3de63f2e	0.11242519
65	0xbdc87c72	-0.09789361
66	0xbda838c8	-0.08213955
67	0x3d68bc74	0.056820348
68	0xbd0caae0	-0.034342647
69	0xbdbf55b2	-0.09342517
70	0xbd957f56	-0.07299678
71	0xbd843222	-0.064548746
72	0xbd3ab72c	-0.045584843
73	0x3cd26198	0.025681302
74	0xbd634950	-0.055489838
75	0x3c9758c8	0.018474951
76	0x3dff2d96	0.12459867
77	0x3d2cf1dc	0.042222843
78	0xbdf1faae	-0.118153915
79	0xbda7a62a	-0.0818599
80	0xbd86efe6	-0.06588726
81	0xbde37b72	-0.1110753
82	0x3dfa2722	0.12214495
83	0x3d6fbff8	0.058532685
84	0x3c2fffb0	0.010742113
85	0x3dc1c3e2	0.0946119
86	0x3da58d56	0.08083598
87	0xbdd80e42	-0.105495945
88	0x3cdad660	0.02671355
89	0xbd57a9a8	-0.05265203
90	0x3c890b28	0.016728953
91	0xbde6f8e6	-0.11277942
92	0x3de3af64	0.111174375
93	0xbd6e09f4	-0.05811496
94	0x3dcbe172	0.0995511
95	0x3cba68d0	0.022755057
96	0xbbb2c800	-0.0054559708
97	0xbda93054	-0.08261171
98	0x3d8823dc	0.06647465
99	0x3df00546	0.11719756
100	0xbdcff3ae	-0.101539
101	0xbd20e0a8	-0.03927675
102	0xbda16ee4	-0.07882479
103	0xbddbfdc4	-0.10741761
104	0xbde56d1a	-0.1120245
105	0xbd721dd8	-0.059110492
106	0x3cfcb1e0	0.030846536
107	0xbd843fb0	-0.0645746
108	0xbd43fbe8	-0.04784766
109	0x3d8fa610	0.07014096
110	0x3c1a3710	0.009412542
111	0x3dc3c4e6	0.0955904
112	0xbdc7cf12	-0.097562924
113	0xbc6fa260	-0.014626116
114	0x3c95f950	0.018307358
115	0xbd202214	-0.039095
116	0x3bd9d420	0.0066476017
117	0x3d8732b0	0.06601465
118	0xbdca2210	-0.09869778
119	0xbd106e28	-0.035261303
120	0x3d4f4754	0.050605133
121	0xbdfd2ba6	-0.12361841
122	0x3bec6980	0.007214725
123	0x3b6670c0	0.003516242
124	0xbd2f4ed0	-0.04279977
125	0xbd5c46b4	-0.053778365
126	0x3d67f2d4	0.056628063
127	0xbdb086d4	-0.086194664
128	0x3d76b7e9	0.060233984
129	0xbd59765c	-0.053091392
130	0x3ba445a6	0.0050131856
131	0xbd6e2903	-0.05814458
132	0x3d995f5e	0.07488893
133	0xbd6df26c	-0.05809252
134	0xbd538344	-0.051638857
135	0xbdbb15cd	-0.091350175
136	0xbd0af724	-0.033927098
137	0x3d803c64	0.062615186
138	0xbdfae62c	-0.12250933
139	0x3d688ff0	0.056777894
140	0xbd88dc8f	-0.06682693
141	0xbdb27b8a	-0.087149695
142	0xbd77754a	-0.06041459
143	0x3d8e6a30	0.069538474
144	0xbe108a8d	-0.14115353
145	0xbd02d0e7	-0.031937506
146	0xbdcad144	-0.099031955
147	0xbd00c644	-0.03143908
148	0xbd384ca6	-0.044994973
149	0x3c088585	0.008332615
150	0xbddfc9e2	-0.10927178
151	0x3d9ccec4	0.07656625
152	0x3bade440	0.0053067505
153	0x3b15e56b	0.002287234
154	0xbb0a1379	-0.0021068736
155	0xbd89ab1f	-0.06722092
156	0xbde50267	-0.11182099
157	0x3dab4dc2	0.083644405
158	0xbd76b16c	-0.060227796
159	0xbc5310b0	-0.012882397
160	0x3dc6fab8	0.097157896
161	0x3d64b1b0	0.05583352
162	0x3d9403dc	0.072272986
163	0x3d3e6bac	0.046489403
164	0xbdf8d54a	-0.12150057
165	0xbd3c42ec	-0.04596226
166	0xbda0d800	-0.07853699
167	0xbda16711	-0.078809865
168	0xbd33d1cc	-0.04390125
169	0xbde20b09	-0.11037261
170	0xbc4138db	-0.011793341
171	0xbced40a7	-0.028961493
172	0x3db70b10	0.08937657
173	0x3c88acad	0.0166839
174	0xbc9d1094	-0.019172944
175	0xbe02c072	-0.12768725
176	0xbdf45265	-0.11929778
177	0xbda7b75a	-0.081892684
178	0xbb88f580	-0.0041796565
179	0xbe02be4b	-0.12767904
180	0xbc76106c	-0.015018564
181	0x3d1657b3	0.03670473
182	0xbe09f9d9	-0.13474216
183	0x3db84b7c	0.089987725
184	0x3d9596d4	0.07304159
185	0xbd99b356	-0.07504909
186	0xbe06428b	-0.13111322
187	0x3cb069f6	0.021534901
188	0xbd88f597	-0.066874675
189	0xbbb27f80	-0.005447328
190	0xbd68aedd	-0.056807388
191	0xbc33c696	-0.01097264
192	0xbd6d8a71	-0.057993356
193	0xbe0c2af2	-0.13688257
194	0xbe156fa5	-0.1459337
195	0x3c031fed	0.008003217
196	0xbd6a2c04	-0.057170883
197	0x3dd27b54	0.10277429
198	0xbdd78744	-0.10523847
199	0x3d2382b6	0.039919578
200	0xbc98a49b	-0.018633178
201	0xbdf2f871	-0.11863793
202	0xbdc6ae4d	-0.09701214
203	0x3d51504c	0.051101968
204	0xbc4c4d1c	-0.012469556
205	0xbc88a2ac	-0.01667913
206	0x3d816755	0.06318537
207	0x3dbff375	0.093726076
208	0xbd4bd40e	-0.049762778
209	0xbda842b0	-0.08215845
210	0xbe176690	-0.14785218
211	0x3d608fec	0.054824755
212	0x3b056700	0.0020355582
213	0xbe01d28a	-0.1267797
214	0xbceb7af8	-0.02874516
215	0x3d3141ca	0.043275632
216	0xbd60dbe4	-0.054897204
217	0xbd12fac5	-0.035883684
218	0xbe14c837	-0.14529501
219	0xbdbd603f	-0.09246873
220	0xbda2feb3	-0.07958736
221	0xbdeaa1d2	-0.11456646
222	0xbc87fd50	-0.016600281
223	0x3dc5b318	0.096533
224	0xbd5a74ac	-0.053333923
225	0x3d86cf43	0.06582501
226	0xbd5c5144	-0.05378844
227	0xbdfcbfa5	-0.12341241
228	0x3c3d9015	0.011569996
229	0xbb967ba7	-0.004592377
230	0xbb87c020	-0.004142776
231	0xbd34d46c	-0.044147894
232	0x3d184f4c	0.037185
233	0xbdf95376	-0.12174122
234	0xbd5a4ccd	-0.0532959
235	0xbd8180a9	-0.06323368
236	0x3da31be2	0.079643026
237	0xbda3cd99	-0.07998199
238	0xbd9340a4	-0.071900636
239	0xbe12f468	-0.14351046
240	0x3cc606d9	0.024173187
241	0xbc8566d8	-0.016284391
242	0xbd272550	-0.04080707
243	0x3d8cc304	0.06873134
244	0xbd980e1f	-0.074245684
245	0x3c987e6c	0.01861497
246	0xbdfe1cc9	-0.12407834
247	0xbddbe9f0	-0.107379794
248	0xbdb6ab9c	-0.08919451
249	0x3d06f314	0.03294666
250	0xbd90f702	-0.07078363
251	0x3c83c6b6	0.016085964
252	0xbe036058	-0.12829721
253	0x3da1c676	0.078991815
254	0xbde18b3a	-0.110128835
255	0xbcf3786e	-0.029720511

node_function_neighbor.4.bias f4 [64]
0	0xbd337b5a	-0.04381881
1	0xbd5799e8	-0.05263701
2	0xbd163c1c	-0.03667842
3	0xbdc9826e	-0.098393306
4	0x3d433f1b	0.047667604
5	0x3bd64a60	0.006539628
6	0xbd5f828b	-0.054567855
7	0x3cff7df8	0.031187996
8	0xbc337e70	-0.010955438
9	0x3d179fdd	0.037017692
10	0x3d8b9e56	0.068173096
11	0x3c9a4d80	0.018835783
12	0x3d38dcea	0.045132555
13	0xbdab860a	-0.08375175
14	0xbde89342	-0.11356212
15	0x3dc90607	0.09815603
16	0xbb58cd0d	-0.0033081204
17	0xbdfbbf83	-0.12292387
18	0x3d90c8e4	0.07069567
19	0xbdca3628	-0.09873611
20	0xbd631bdb	-0.055446487
21	0x3dbbb90c	0.09166154
22	0x3b48bc6a	0.0030629882
23	0x3c56285a	0.013071144
24	0xbc9b88ec	-0.018986188
25	0xbd6930e0	-0.056931376
26	0x3c9759df	0.018475471
27	0x3d1e0999	0.03858337
28	0x3d9de99f	0.07710575
29	0x3deffbba	0.11717935
30	0x3c8c9395	0.017160216
31	0x3d459af9	0.048243497
32	0x3d828553	0.06373086
33	0xbc8ac499	-0.016939448
34	0xbd839e2f	-0.064266555
35	0x3c61f4de	0.013791291
36	0xbce620f5	-0.028091887
37	0xbd972085	-0.073792495
38	0xbd9e5ad4	-0.07732168
39	0xbc482114	-0.012214918
40	0x3e0a75ce	0.13521501
41	0xbddd91d5	-0.10818831
42	0x3a6cd52a	0.00090344495
43	0xbd0b0db0	-0.0339486
44	0xbd4e893f	-0.050423857
45	0xbde3d8ca	-0.111253336
46	0x3db08ad6	0.08620231
47	0x3cb34e3c	0.021887891
48	0x3dce34dc	0.10068676
49	0xbdbf7708	-0.09348875
50	0xbbf085ab	-0.007340153
51	0x3e0136b4	0.12618524
52	0x3c600561	0.013673157
53	0x3cf01562	0.029307071
54	0xbe198eaf	-0.14995836
55	0x393aaf16	0.00017803567
56	0x3e40ea07	0.18839274
57	0xbd19166f	-0.03737491
58	0xbe19d9dd	-0.15024514
59	0x3ca603b7	0.020265443
60	0xbc3041b0	-0.010757849
61	0x3de15e61	0.110043295
62	0x3d915e9a	0.07098122
63	0xbdc52c26	-0.09627561

node_function_neighbor.6.weight f4 [4, 64]
0	0xbc07d15c	-0.008289661
1	0xbd4b2918	-0.049599737
2	0xbe1330a5	-0.14374025
3	0x3dfa4370	0.12219894
4	0x3dec7a77	0.11546796
5	0xbde0baac	-0.10973105
6	0x3d3837de	0.044975154
7	0xbd9e26c5	-0.077222385
8	0x3d97d377	0.074133806
9	0x3c8d7899	0.01726942
10	0x3dc0c97f	0.09413432
11	0x3dde18f0	0.108446
12	0xbd7445a5	-0.05963673
13	0xbd358db1	-0.04432458
14	0x3d3f236a	0.046664633
15	0xbd7f5b1c	-0.062342748
16	0x3ca9e00a	0.020736713
17	0x3c598ebd	0.01327866
18	0x3e0a2645	0.13491161
19	0x3e127268	0.14301455
20	0x3ddc866f	0.10767829
21	0x3da3360a	0.079692915
22	0x3d9ee69e	0.077588305
23	0x3d93cb95	0.072165646
24	0xbe0fffd0	-0.14062428
25	0x3d92d9d2	0.07170452
26	0x3d0a7b49	0.03380898
27	0xbc042ff9	-0.008068078
28	0x3d670d1c	0.056408986
29	0x3dd50542	0.104013935
30	0xbe0fe814	-0.14053375
31	0xbd45a7b6	-0.048255645
32	0xbd978b89	-0.07399661
33	0x3ddf044e	0.10889493
34	0x3d0bda00	0.034143448
35	0x3dacafd3	0.08431973
36	0xbccdb1d0	-0.025109202
37	0x3e10822b	0.14112155
38	0xbdcfcb74	-0.101462275
39	0x3da2047e	0.07911013
40	0x3dd451bf	0.10367154
41	0xbd1d7d54	-0.0384496
42	0xbc6bce47	-0.014392442
43	0x3d046cd0	0.032330334
44	0xbd6af15c	-0.057359084
45	0x3b1c629f	0.0023862494
46	0x3d977177	0.073946886
47	0x3d23d8f3	0.04000182
48	0xbc932a2b	-0.017964443
49	0xbca34f2e	-0.019935217
50	0x3d3e294f	0.046426114
51	0x3e027414	0.12739593
52	0xbdb24fbe	-0.08706616
53	0xbe0ae1c4	-0.13562685
54	0xbc00e433	-0.007866907
55	0x3d87d8e8	0.066331685
56	0xbd25e998	-0.040505975
57	0xbcfcb9c0	-0.030850291
58	0x3dae615a	0.08514662
59	0xbdb3f021	-0.08786035
60	0xbd04502c	-0.03230302
61	0xbd796d64	-0.06089534
62	0xbd8f115f	-0.06985735
63	0xbd3144a5	-0.043278355
64	0x3cb59418	0.022165343
65	0xbd97a7d6	-0.07405059
66	0x3d94b0f9	0.07260317
67	0xbd242445	-0.04007365
68	0xbda1b2c5	-0.07895426
69	0xbcd9c018	-0.026580855
70	0x3d930918	0.07179469
71	0x3e19dabb	0.15024845
72	0xbd9b259a	-0.07575531
73	0xbd8451f0	-0.06460941
74	0xbdd7dffb	-0.10540768
75	0xbdaba430	-0.08380926
76	0x3be0b11f	0.006857052
77	0xbd4e5720	-0.050376058
78	0xbd8a2f89	-0.06747348
79	0x3db285d2	0.087169304
80	0x3d6161aa	0.05502478
81	0x3e0b0bab	0.1357867
82	0x3df689ea	0.12038024
83	0x3dfba94b	0.122881494
84	0xbbde3d43	-0.0067822053
85	0xbd976bf4	-0.07393637
86	0xbcc5cf73	-0.024146771
87	0x3d73512c	0.059403583
88	0x3d46f66e	0.048574857
89	0x3da524ac	0.08063635
90	0x3e09f974	0.13474065
91	0xbdd603d8	-0.10449952
92	0xbda8643f	-0.082222454
93	0xbd8dc14c	-0.06921634
94	0xbe0c0e88	-0.13677418
95	0x3de83a2c	0.113392204
96	0x3d66acd3	0.05631716
97	0xbd3be457	-0.04587206
98	0x3dd21930	0.102587104
99	0x3e142e56	0.14470801
100	0x3d760e91	0.060072485
101	0xbd8a33b3	-0.06748142
102	0x3d8319a6	0.064013764
103	0x3cd42fdf	0.025901733
104	0x3e0b6c81	0.1361561
105	0xbd0ab533	-0.03386421
106	0xbd466d9d	-0.04844438
107	0x3db84f36	0.08999483
108	0x3d5bec88	0.05369237
109	0xbbcb5c94	-0.0062061045
110	0x3dafbdb6	0.08581106
111	0xbda2c5a8	-0.07947856
112	0xbdf8545d	-0.12125466
113	0x3c534cb4	0.012896705
114	0x3d972ba2	0.07381369
115	0x3d4bddc6	0.049772047
116	0xbd78e885	-0.060768623
117	0x3da5faad	0.08104453
118	0xbccd0232	-0.02502546
119	0xbd4a4814	-0.049385145
120	0x3e1bee7d	0.15227695
121	0x3ddb4d3e	0.10708092
122	0x3d2c93c8	0.042133123
123	0x3ddd3e78	0.108029306
124	0xba800fc8	-0.0009770328
125	0x3da764b1	0.08173502
126	0x3db458fb	0.08806034
127	0x3da65ede	0.08123563
128	0xbd5bec4e	-0.053692155
129	0xbdc528ee	-0.09626947
130	0xbd95a31e	-0.07306503
131	0x3d42d1e8	0.047563463
132	0x3d9f5e25	0.077816285
133	0xbd0b128c	-0.033953235
134	0xbb855ef9	-0.0040701595
135	0x3dea3f32	0.11437835
136	0x3d6703aa	0.05639998
137	0x3d8dfbb3	0.069327734
138	0xbd03664d	-0.032079984
139	0x3ddc8c9c	0.107690066
140	0xbcad794d	-0.021176005
141	0x3e203078	0.1564349
142	0x3b5c61b7	0.0033627579
143	0x3ccf36e9	0.025294738
144	0x3cbecc7b	0.023290863
145	0xbce2d99a	-0.027691651
146	0x3d497c40	0.04919076
147	0xbcd51f7b	-0.026015988
148	0xbb40c9d6	-0.0029417179
149	0x3dd7e703	0.10542109
150	0xba09ffd3	-0.0005264256
151	0xbc70bb9e	-0.014693169
152	0xbcd24f99	-0.02567272
153	0xbd8f3eca	-0.06994398
154	0xbb8e53aa	-0.0043434696
155	0x3d69b43b	0.057056647
156	0x3c808a5a	0.015690971
157	0x3dc91ee8	0.09820348
158	0xbd03387b	-0.032036286
159	0x3cfc1423	0.03077132
160	0x3d65ac6b	0.056072634
161	0x3d88b7d8	0.066756904
162	0x3db10f56	0.08645503
163	0xbcc6004a	-0.02417006
164	0x3d0cdc45	0.034389753
165	0x3df6c80b	0.12049874
166	0x3d915012	0.0709535
167	0xbd659f23	-0.056059968
168	0x3d19ea51	0.037576977
169	0x3c396231	0.011314915
170	0x3e27251c	0.1632275
171	0x3d8cb72e	0.06870876
172	0x3d968b95	0.07350842
173	0xbb1dcae2	-0.0024077226
174	0xbdc7ffff	-0.09765624
175	0xbd3f9fe4	-0.046783343
176	0x3cda6ccf	0.026663212
177	0x3c8128cc	0.015766524
178	0x3ded7a6a	0.11595614
179	0x3d92e6dd	0.0717294
180	0x3cf17865	0.029476354
181	0xbd8feee9	-0.0702799
182	0xbd3691e6	-0.044572733
183	0x3d6193c9	0.05507258
184	0xbda1c46e	-0.07898794
185	0xbbe92e47	-0.0071161124
186	0xbda5b28b	-0.08090695
187	0x3d354ef3	0.044264745
188	0xbda182fb	-0.07886311
189	0x3cfd544e	0.030923989
190	0x3d94e642	0.07270481
191	0x3d601589	0.054708038
192	0x3ceac14c	0.028656624
193	0xbce79d78	-0.02827333
194	0x3dd5c565	0.10438041
195	0x3dd61a81	0.10454274
196	0x3dd814dd	0.10550854
197	0xbdc9f304	-0.09860805
198	0xbda5dec3	-0.08099129
199	0xbc7d1f52	-0.015449362
200	0xbca6fc23	-0.0203839
201	0x3b4ea31f	0.0031530333
202	0x3c7d9e1a	0.015479589
203	0x3d94704a	0.0724798
204	0x3de4d721	0.11173845
205	0xbd1bb217	-0.038011637
206	0xbd8944d9	-0.06702585
207	0xbda0a4ba	-0.07843919
208	0xbd28ddf1	-0.041227285
209	0x3db79a19	0.08964939
210	0x3c8c35d1	0.017115505
211	0xbdf75469	-0.12076647
212	0xbcdde54f	-0.027086882
213	0xbdb71013	-0.08938613
214	0xbbe0a7a9	-0.006855924
215	0xbd9f75fc	-0.077861756
216	0x3d1aba05	0.03777506
217	0xbc99e878	-0.018787608
218	0x3de12e4f	0.10995161
219	0x3d8756a0	0.06608319
220	0xbdad3ed4	-0.08459249
221	0x3dc6eaf6	0.09712784
222	0xbd85ed8b	-0.06539448
223	0x3c304d0f	0.01076056
224	0xbdb0c886	-0.08631997
225	0xbbdba0e2	-0.0067025283
226	0xbbcb131e	-0.0061973473
227	0x3d96e3f7	0.073676996
228	0xbdb3bac5	-0.08775858
229	0x3e049949	0.12949099
230	0xbd5071cc	-0.050889775
231	0xbcf5c0ed	-0.02999922
232	0x3d94c518	0.07264155
233	0x3d3ef936	0.046624385
234	0xbcf70bb9	-0.030156957
235	0xbcc206f0	-0.023684949
236	0x3d3cb979	0.046075318
237	0x3d93a6c6	0.07209544
238	0x3cb9b19f	0.022667704
239	0xbdc97e28	-0.098385155
240	0xbda010f4	-0.078157336
241	0xbdf18d29	-0.11794502
242	0xbd9b9771	-0.075972445
243	0x3e54baf4	0.20774442
244	0xbdb5fcdf	-0.08886122
245	0x3ddf972c	0.109175056
246	0xbcceeff6	-0.025260907
247	0xbd8cab92	-0.06868662
248	0xbd10c4d7	-0.03534397
249	0x3de808e4	0.11329821
250	0x3ccb4859	0.024814771
251	0xbdaf54b2	-0.08561076
252	0xbd6792e2	-0.056536563
253	0x3d9777d0	0.07395899
254	0x3d5d033f	0.053958174
255	0xbdf8924d	-0.1213728

node_function_neighbor.6.bias f4 [4]
0	0x3d1423fb	0.036167126
1	0x3ce9f5c3	0.028559571
2	0x3db56fd8	0.08859223
3	0x3ddeb08c	0.108735174

edge_function.0.weight f4 [64, 4]
0	0x3e88b5d9	0.2670124
1	0xbef16f47	-0.4715521
2	0xbd791235	-0.06080838
3	0x3e85977c	0.26092136
4	0xbe606964	-0.21915203
5	0x3def7199	0.11691589
6	0xbef62cd7	-0.48081085
7	0xbededa4f	-0.4352593
8	0xbe5691ca	-0.20954052
9	0x3b64c620	0.003490813
10	0x3e885ca4	0.2663318
11	0xbe37a2e5	-0.17933233
12	0x3e2cf107	0.1688882
13	0xbcf308eb	-0.029667338
14	0xbe63e4a9	-0.22255196
15	0x3e3180a9	0.17334236
16	0xbe94e86c	-0.29083574
17	0xbda5d16d	-0.080965854
18	0x3ddefb6f	0.10887801
19	0xbdb83cac	-0.08995947
20	0xbd50445e	-0.05084645
21	0xbe443781	-0.19161798
22	0xbe7112e9	-0.2354237
23	0x3efdd9ec	0.49580324
24	0x3e33d833	0.17562942
25	0xbe3f1672	-0.18660906
26	0xbec36391	-0.381619
27	0xbe44577f	-0.19174002
28	0xbe7f573c	-0.24935621
29	0xbebce4d9	-0.36893347
30	0xbe9f5d78	-0.31125998
31	0x3f00e9dd	0.5035685
32	0xbea8b0d6	-0.32947415
33	0xbe45ad3d	-0.19304366
34	0x3eeb394c	0.45942152
35	0x3e9929f8	0.29914832
36	0x3d9f0a3e	0.077656254
37	0x3c75c92f	0.015001579
38	0xbe590703	-0.21194081
39	0xbe48d779	-0.19613446
40	0x3e9f603c	0.31128109
41	0x3e540f39	0.20708932
42	0x3cc00ea3	0.02344448
43	0x3e8e8881	0.2783852
44	0xbe08bf96	-0.13354334
45	0x3e30ceed	0.17266436
46	0x3e3e136e	0.185621
47	0xbc07707d	-0.008266565
48	0x3e58ed97	0.21184383
49	0xbe1d3c09	-0.15354933
50	0xbe446a8d	-0.19181271
51	0x3dd481f2	0.103763476
52	0xbdba6188	-0.09100634
53	0xbd101522	-0.035176404
54	0x3da03ffe	0.078247055
55	0x3d37a3e4	0.044834033
56	0xbedd707f	-0.4324989
57	0xbe037a2b	-0.12839572
58	0xbe1bfb1f	-0.15232514
59	0x3e119dea	0.14220396
60	0xbea1412a	-0.3149503
61	0xbe2e23ad	-0.17005797
62	0xbe854eec	-0.26036775
63	0xbe9189d4	-0.28425467
64	0x3e6ece38	0.23320854
65	0x3e9a4531	0.30130914
66	0x3ce6cdb6	0.028174262
67	0x3e931317	0.28725502
68	0x3eb97424	0.3622142
69	0x3c001397	0.007817171
70	0x3cf21869	0.029552655
71	0x3e871766	0.2638504
72	0x3c2dc2ab	0.0106054945
73	0xbe0eb8fd	-0.13937755
74	0x3d3ce56a	0.046117224
75	0x3e9d31a4	0.30701935
76	0x3b64764e	0.0034860554
77	0xbe1bcd11	-0.15214945
78	0xbe2cf53b	-0.16890423
79	0x3ede1790	0.43377352
80	0xbebcaeb0	-0.36852026
81	0x3e851185	0.2598993
82	0xbea52e85	-0.32262054
83	0x3e8a56f4	0.27019465
84	0x3e8788af	0.2647147
85	0x3db7c3ad	0.08972869
86	0x3e74ce5c	0.23906845
87	0xbe6b50f8	-0.22980106
88	0xbee20bdf	-0.44149682
89	0xbdf1808f	-0.11792099
90	0xbeebf24a	-0.4608329
91	0x3f03b110	0.5144205
92	0xbeca542e	-0.3951735
93	0x3e73efa5	0.23821886
94	0x3e590f1a	0.21197167
95	0x3cc50092	0.024048124
96	0xbe8bca65	-0.27302852
97	0xbdc90569	-0.09815485
98	0x3eb23c8f	0.34811828
99	0xbed54531	-0.4165435
100	0x3ef036cd	0.4691681
101	0xbecbe250	-0.398211
102	0x3ee379e3	0.4442893
103	0xbda2ae2b	-0.07943376
104	0xbdfaa35d	-0.1223819
105	0x3dd069a3	0.101763986
106	0xbd827e7f	-0.063717835
107	0x3eaa41b2	0.33253247
108	0x3e79431e	0.2434201
109	0x3e9e85d4	0.30961478
110	0xbddac132	-0.1068138
111	0xbea29cd2	-0.3176027
112	0x3ebdc061	0.37060836
113	0x3ef27067	0.4735138
114	0xbec7d6f3	-0.3903118
115	0x3eda7457	0.42666885
116	0x3dd26bd5	0.102744736
117	0xbe9e8e8c	-0.3096813
118	0xbe67ff7c	-0.22656053
119	0x3ede39da	0.43403512
120	0x3d41f1fb	0.04734991
121	0x3e2398ce	0.15976259
122	0xbedeb1cc	-0.43495023
123	0x3c298fee	0.010349257
124	0x3c7e86d5	0.015535076
125	0xbcc4dc8a	-0.024030942
126	0xbe392966	-0.18082199
127	0xbed24133	-0.41065368
128	0x3e859b05	0.26094833
129	0x3bc3b7d2	0.005972841
130	0x3eecc9de	0.46247762
131	0x3ec53573	0.3851734
132	0x3eeba73d	0.4602603
133	0xbf01031d	-0.50395375
134	0x3ea7fe68	0.32811284
135	0x3ec2c327	0.38039514
136	0x3e151474	0.14558583
137	0x3e07f493	0.13276891
138	0xbe0e8232	-0.13916853
139	0x3ebe4eb9	0.37169436
140	0x3dfe03f1	0.124030955
141	0x3d7380d8	0.059449047
142	0xbe8fdc67	-0.2809784
143	0xbe8e381a	-0.27777177
144	0x3e9f38d4	0.31098044
145	0xbc7775cd	-0.0151037695
146	0xbdc0b79d	-0.094100215
147	0x3ea88ded	0.3292078
148	0xbe80c784	-0.25152218
149	0x3ef9dfdf	0.48803613
150	0xbe69c39b	-0.22828524
151	0xbd344627	-0.044012215
152	0xbe9f3246	-0.31093043
153	0x3d99fc81	0.075188644
154	0x3e534186	0.20630464
155	0xbee88504	-0.45413983
156	0x3e80fe15	0.2519385
157	0xbd0a125b	-0.03370891
158	0x3ee600b1	0.44922403
159	0x3eecb8e7	0.4623482
160	0xbde379e2	-0.11107232
161	0xbe7752dd	-0.24152704
162	0x3eb741be	0.35792345
163	0x3db7cc2e	0.08974491
164	0x3e826ed7	0.2547519
165	0xbed889c3	-0.42292604
166	0x3ed1dd58	0.40989184
167	0x3e40effe	0.1884155
168	0xbc01cea2	-0.0079228
169	0xbbed4c0e	-0.0072417324
170	0xbea9e92d	-0.33185712
171	0x3e9ba841	0.30401805
172	0x3e307f95	0.17236169
173	0xbed038ca	-0.40668327
174	0xbe3d1cae	-0.18467972
175	0x3e3bdd5b	0.18346159
176	0xbeb07c03	-0.34469613
177	0x3eaf8e61	0.34288314
178	0xbe161665	-0.1465698
179	0xbe5c8a8c	-0.21537226
180	0x3d8c38ba	0.06846757
181	0xbdf2a05b	-0.11846992
182	0xbd25b42e	-0.040455036
183	0x3eaccaea	0.3374856
184	0xbe9affb6	-0.30273217
185	0xbe4f1d31	-0.2022598
186	0xbdc72ebf	-0.09725713
187	0xbe5aa7a1	-0.21353008
188	0xbeb688c4	-0.3565122
189	0xbe8dee6e	-0.2772097
190	0x3e95b684	0.2924081
191	0x3ceda0fa	0.029007424
192	0xbe1f02a6	-0.15528354
193	0x3e89d99b	0.26923832
194	0x3e193e0f	0.1496508
195	0xbe8e83f9	-0.27835062
196	0xbe62975e	-0.22128054
197	0xbd9d75d1	-0.07688487
198	0x3ea2f4a5	0.31827274
199	0x3e95a714	0.29229033
200	0xbef9dc53	-0.48800907
201	0xbdf33c5c	-0.11876747
202	0x3ee9b913	0.45649013
203	0x3b443e7e	0.0029944475
204	0xbebfda50	-0.37471247
205	0x3d1c6a5d	0.038187373
206	0xbe83b100	-0.25720978
207	0xbe2ff238	-0.17182243
208	0x3ee8edbd	0.4549388
209	0xbe85e8e2	-0.26154238
210	0x3d985fea	0.07440169
211	0xbe7574cd	-0.23970337
212	0x3d54a963	0.051919352
213	0x3e852af5	0.26009336
214	0x3edcde3a	0.43138295
215	0x3ea22741	0.31670573
216	0x3ea24279	0.3169134
217	0xbe603166	-0.21893844
218	0x3eb39b5f	0.35079476
219	0x3e16b6be	0.14718148
220	0xbee6e012	-0.45092827
221	0x3e48ddb1	0.19615819
222	0x3e7bf7ed	0.24606295
223	0xbe05bc9f	-0.13060234
224	0x3eb69f5b	0.35668454
225	0xbec53fc6	-0.38525218
226	0x3e0d05d9	0.13771762
227	0x3e91f4ed	0.28507176
228	0x3e895846	0.2682516
229	0xbd025332	-0.031817622
230	0x3ef8657a	0.4851492
231	0x3e8b98fa	0.2726515
232	0xbe6a4ff8	-0.22882068
233	0xbc3de39c	-0.011589911
234	0x3d501d19	0.050809
235	0xbef0534f	-0.4693856
236	0xbdf8d8bf	-0.12150716
237	0x3e3179ce	0.17331621
238	0x3ec5d7ad	0.3864111
239	0x3cf6903f	0.030098079
240	0x3e98ccf4	0.29843867
241	0x3ddc6648	0.10761696
242	0xbe7dd43c	-0.24787992
243	0xbed6bc1c	-0.4194039
244	0x3d7f11c3	0.0622728
245	0xbe2cf622	-0.16890767
246	0x3e080d55	0.13286336
247	0x3e8e4a59	0.27791098
248	0xbeb36fba	-0.35046178
249	0xbe8297e7	-0.25506517
250	0xbea1a346	-0.3156988
251	0x3ecf3028	0.40466428
252	0xbe9b39b0	-0.3031745
253	0x3edb3289	0.42811993
254	0x3d0e0dcd	0.03468113
255	0xbda4dfd4	-0.08050504

edge_function.0.bias f4 [64]
0	0x3eaa95b6	0.33317345
1	0x3ea61553	0.32438144
2	0xbeb81dc0	-0.35960197
3	0xbdfd4a18	-0.12367648
4	0xbe477112	-0.19476727
5	0xbeacf508	-0.33780694
6	0xbdedae0a	-0.11605461
7	0x3ee9ff91	0.45702794
8	0x3dbfa610	0.09357846
9	0xbe2d1356	-0.16901907
10	0x3e85cf4b	0.26134714
11	0x3d1b3097	0.037888136
12	0xbefac3ae	-0.48977417
13	0xbf348d39	-0.7052799
14	0x3ecca941	0.3997288
15	0x3d2e2b57	0.0425218
16	0xbecb6d0b	-0.3973163
17	0xbeb3e083	-0.35132226
18	0xbe7511b2	-0.23932531
19	0xbd83a4f2	-0.06427945
20	0xbf0c5001	-0.54809576
21	0x3f1a0bdd	0.6017435
22	0xbe4bf878	-0.19919002
23	0xbd5180d1	-0.05114824
24	0xbe38104f	-0.17974971
25	0xbc4dcfdb	-0.012561764
26	0x3ed1462a	0.40873843
27	0xbea49a1e	-0.32148832
28	0xbee60b13	-0.44930324
29	0x3e8c9a0e	0.27461284
30	0xbddd662a	-0.10810502
31	0xbdd8966f	-0.10575568
32	0xbf0f3636	-0.55942094
33	0xbde3172f	-0.11088406
34	0x3e8a65b0	0.27030706
35	0xbecd22d2	-0.40065628
36	0x3d0b9a07	0.03408244
37	0x3d6d9c3d	0.05801033
38	0xbec8f86d	-0.39252034
39	0x3ef980f8	0.48731208
40	0xbdc645f8	-0.09681314
41	0xbef25f9f	-0.47338578
42	0x3d5cd36d	0.05391257
43	0x3cd22636	0.025652986
44	0x3ecf8cd9	0.40537146
45	0xbed15095	-0.40881792
46	0x3e800aed	0.25008336
47	0xbeae833c	-0.340845
48	0x3efe31a6	0.49647254
49	0x3ec4fc56	0.38473767
50	0x3d9736f5	0.07383529
51	0x3e6a00d7	0.22851883
52	0xbd2a72c0	-0.04161334
53	0xbe3ce20c	-0.18445605
54	0x3f0197fb	0.5062253
55	0x3f02884e	0.50989234
56	0xbeb3480c	-0.35015905
57	0x3ec86e8c	0.3914684
58	0xbecca505	-0.3996965
59	0x3e96c422	0.29446512
60	0x3e2e94da	0.1704897
61	0xbe1128fc	-0.1417579
62	0x3e05983f	0.13046359
63	0x3ef4514a	0.4771827

edge_function.2.weight f4 [64, 64]
0	0xbd1d8f46	-0.038466714
1	0xbd0508ad	-0.032478977
2	0xbd87c187	-0.06628709
3	0xbbeed3fc	-0.007288454
4	0x3de4434d	0.11145649
5	0xbda7178f	-0.0815879
6	0xbdc83bbb	-0.09777018
7	0xbddac7b7	-0.10682624
8	0xbbe10a4a	-0.0068676816
9	0xbdce7a91	-0.100819714
10	0xbdde4a35	-0.108539976
11	0x3d4da302	0.050204284
12	0x3c141f1c	0.00904062
13	0x3ddaf206	0.106906936
14	0x3da973d2	0.08274044
15	0x3d5bcc03	0.053661358
16	0x3d77cf6b	0.060500544
17	0x3cd6d5c9	0.026224988
18	0xbde072f7	-0.10959428
19	0xbd634f26	-0.055495404
20	0xbe10e02f	-0.14148019
21	0x3e06e156	0.13171896
22	0xbdfca0da	-0.123353675
23	0x3d842550	0.06452429
24	0x3df5eba7	0.12007838
25	0x3c967ecf	0.018371014
26	0xbd9e5e0f	-0.07732784
27	0xbd96f06f	-0.07370078
28	0xbaf12a38	-0.0018399423
29	0x3d8faebb	0.07015749
30	0xbd87f761	-0.06638981
31	0x3d249902	0.040184982
32	0x3d8ecffa	0.06973262
33	0xbdc8056b	-0.097666584
34	0x3bdc909e	0.006731107
35	0x3db654e0	0.08902907
36	0x3d69e0fe	0.057099335
37	0x3c8c5f3c	0.017135255
38	0x3ce8d6c1	0.028422715
39	0x3dfbae8a	0.1228915
40	0xbd6dd247	-0.058061864
41	0xbe8b210f	-0.2717366
42	0xbd6b7bc2	-0.05749107
43	0xbc98c85e	-0.01865023
44	0xbd9b0e26	-0.07571058
45	0x3bd444f8	0.0064779483
46	0x3dad6d5b	0.084681235
47	0xbdcd8b2d	-0.10036311
48	0xbd2d8f8c	-0.042373225
49	0x3dba5381	0.09097958
50	0x3d4d48d5	0.050118286
51	0xbca3ebb7	-0.020009859
52	0x3de771a5	0.11300973
53	0xbdbd8f3d	-0.09255836
54	0x3d069075	0.03285261
55	0x3dad0302	0.08447839
56	0xbdb6c34f	-0.08923971
57	0x3e0d6d21	0.1381116
58	0x3dd62588	0.10456377
59	0xbc521590	-0.012822524
60	0x3d5f8111	0.054566447
61	0x3d756f64	0.059920684
62	0xbda18d3d	-0.07888267
63	0xbd52c82c	-0.05146043
64	0xbd94ff77	-0.072752886
65	0x3d255120	0.04036057
66	0x3cbdc7dd	0.023166591
67	0x3d25296d	0.04032271
68	0xbda0f091	-0.078583844
69	0xbdd50a5a	-0.10402365
70	0x3e193553	0.14961748
71	0xbcd11b7f	-0.025525806
72	0x3d57bb84	0.052669063
73	0xbd98e04e	-0.07464658
74	0xbdae0d31	-0.0849861
75	0xbbf42385	-0.0074505233
76	0x3d36854e	0.044560723
77	0xbddb8b50	-0.10719931
78	0xbd48cdd4	-0.049024418
79	0x3b033e3c	0.0020026108
80	0xbdc7a287	-0.097477965
81	0x3da1bf0b	0.07897767
82	0xbbdbfd7a	-0.0067135664
83	0xbce16981	-0.027516128
84	0xbd3988a0	-0.04529631
85	0x3ccb5e0e	0.024825122
86	0xbd6a9e5d	-0.057279933
87	0xbe24a98e	-0.16080305
88	0x3c804202	0.015656475
89	0xbe06f73e	-0.13180253
90	0xbe0b9395	-0.13630517
91	0x3d7a6214	0.06112869
92	0xbb0a791f	-0.0021129323
93	0x3d1500fa	0.036377884
94	0xbdb4e6a7	-0.08833056
95	0x3d057384	0.032580867
96	0x3cccfd7a	0.02502321
97	0xbdbade08	-0.0912438
98	0xbd4e4c12	-0.050365515
99	0xbd85a053	-0.0652472
100	0xbcb923ff	-0.022600172
101	0xbd54cbdc	-0.051952228
102	0xbd459649	-0.048239026
103	0xbe1daa9f	-0.15397118
104	0x3db08673	0.08619394
105	0xbe023267	-0.1271454
106	0xbd5cc17d	-0.053895462
107	0xbddedf11	-0.1088239
108	0x3d503ea3	0.050840985
109	0xbceb25c3	-0.02870453
110	0xbe0eb0e8	-0.13934672
111	0xbd71bb2b	-0.059016388
112	0xbd7081ee	-0.05871766
113	0xbd0de876	-0.03464552
114	0x3d7a07da	0.061042644
115	0xbca6432f	-0.020295708
116	0xbdecd10c	-0.1156331
117	0x3cd30b81	0.025762321
118	0xbcfe89f9	-0.03107165
119	0xbe0c6070	-0.13708663
120	0xbcd8bfd8	-0.026458666
121	0xbd3b3903	-0.045708667
122	0xbe1cb62a	-0.15303865
123	0x3c17d846	0.009267872
124	0xbe1bfa73	-0.15232258
125	0xbd410d4a	-0.047131814
126	0xbdcddf85	-0.100523986
127	0xbdea1a7c	-0.11430833
128	0x3d95360a	0.07285698
129	0x3d400b26	0.046885632
130	0xbcb8cbdb	-0.022558143
131	0x3d4150e5	0.047196288
132	0xbcbdcf97	-0.023170276
133	0x3c551e00	0.013007641
134	0xbdaa0091	-0.08300889
135	0xbd9143fe	-0.070930466
136	0x3d2e9046	0.04261806
137	0xbe115e54	-0.1419614
138	0x3df1445e	0.11780618
139	0xbdb7b785	-0.089705504
140	0xbe0ad0dc	-0.13556236
141	0xbe4e99a0	-0.20175791
142	0x3ae6c0a0	0.0017605014
143	0x3dbee771	0.09321488
144	0xbc4197a9	-0.011815944
145	0x3d47f9a8	0.048822075
146	0x3d162e1a	0.03666506
147	0x3db89dac	0.090144485
148	0x3d36bd95	0.044614393
149	0x3d6d8200	0.057985306
150	0xbdaa004e	-0.08300839
151	0xbd5f116f	-0.054459985
152	0xbc9793c6	-0.018503081
153	0x3d921f19	0.07134838
154	0x3cb8bfaa	0.02255233
155	0xbd93123e	-0.07181214
156	0x3da7278e	0.08161841
157	0x3cd35ab4	0.025800087
158	0xbddc123b	-0.10745665
159	0x3d382b68	0.04496327
160	0xbdc1e6bd	-0.09467838
161	0xbde49588	-0.11161333
162	0x3e094557	0.13405357
163	0x3d3bbc04	0.045833603
164	0xbd0869ed	-0.033304144
165	0x3d557251	0.052110974
166	0xbbcc7610	-0.00623966
167	0x3d41d0d6	0.047318302
168	0x3d9df800	0.07713318
169	0xbe5ec63f	-0.21755312
170	0xbcc086c5	-0.023501763
171	0xbd51bd1b	-0.051205736
172	0xbdc4a1a3	-0.09601142
173	0x3c29f644	0.010373656
174	0x3d12103f	0.035660025
175	0x3c778218	0.0151067
176	0x3d830a02	0.06398393
177	0x3dc7b9f1	0.097522624
178	0xbcdbfcde	-0.026853975
179	0xbe171bd4	-0.1475671
180	0xbdae0eed	-0.084989406
181	0x3aba334e	0.0014205964
182	0x3d757868	0.05992928
183	0x3c3537c5	0.01106066
184	0x3dcf49f5	0.10121528
185	0x3cd89b12	0.02644113
186	0x3d777136	0.0604107
187	0xbdd26a55	-0.102741875
188	0xbd2f7472	-0.04283566
189	0x3dab0567	0.0835064
190	0xbe11841b	-0.1421055
191	0x3d93dcf4	0.07219878
192	0xbc135428	-0.008992232
193	0xbdc271c6	-0.09494357
194	0x3d289d3e	0.041165583
195	0xbe1f533b	-0.15559094
196	0xbdeb42d2	-0.11487354
197	0xbda38c2e	-0.079857215
198	0x3d8cc05b	0.068726264
199	0x3c855bf7	0.016279204
200	0xbd8b20c4	-0.06793359
201	0xbd79dac2	-0.06099964
202	0x3da311ed	0.079624034
203	0xbde4d4c4	-0.11173394
204	0xbe2c5891	-0.1683066
205	0xbd80d5b5	-0.062907614
206	0x3db57ec1	0.08862067
207	0x3d85824d	0.065189935
208	0xbd1eb629	-0.03874794
209	0x3d6cbe62	0.05779875
210	0x3cbabb7c	0.022794478
211	0xbe0a0d00	-0.13481522
212	0x3d35ad7b	0.044354897
213	0xbdec8dda	-0.115504935
214	0xbdebde78	-0.11517042
215	0xbddb0dba	-0.106959775
216	0xbda9f496	-0.08298604
217	0x3cf8eec4	0.03038729
218	0x3dad605b	0.08465644
219	0x3c7d1cc5	0.015448754
220	0x3dadaee2	0.08480622
221	0xbe211bf8	-0.15733325
222	0xbd8259f9	-0.06364817
223	0x3d58323e	0.05278229
224	0xbd0b4e4a	-0.03401021
225	0x3b26c834	0.002544892
226	0x3daa2043	0.08306935
227	0xbd4a03c5	-0.04932
228	0xbda10346	-0.078619525
229	0x3dd154de	0.10221265
230	0xbe086a86	-0.13321885
231	0x3d14b547	0.036305692
232	0xbd6a961a	-0.057272054
233	0x3a299ee1	0.0006470513
234	0xbdb1488a	-0.08656414
235	0x3b8a6652	0.0042236233
236	0xbd4b61d0	-0.04965383
237	0x3c21db06	0.009878879
238	0xbc48cb70	-0.0122555345
239	0x3d8e14ee	0.06937586
240	0x3d1905e8	0.03735915
241	0x3dc265cb	0.09492072
242	0xbdc1b454	-0.09458223
243	0xbc4542e0	-0.01203987
244	0xbd1e039e	-0.03857767
245	0xbc9923c4	-0.018693812
246	0x3d919503	0.071085
247	0x3d4314ec	0.047627375
248	0xbdadd34c	-0.08487567
249	0xbd971d52	-0.07378639
250	0xbde01422	-0.1094134
251	0x3da8a24d	0.082340814
252	0xbcc426ee	-0.023944344
253	0x3db00cec	0.08596215
254	0xbcedcab8	-0.029027328
255	0xbda68fbb	-0.08132883

edge_function.2.bias f4 [64]
0	0xbd0638c2	-0.032768972
1	0xbd91cd53	-0.071192406
2	0x3e1dbed2	0.15404823
3	0xbde4cb70	-0.11171615
4	0xbca1d339	-0.01975404
5	0xbd02af31	-0.031905357
6	0xbca6dea6	-0.020369839
7	0xbcbe01a9	-0.023194151
8	0xbd2275db	-0.039663177
9	0x3e2afb17	0.16697346
10	0xbce412bc	-0.027840964
11	0xbcf2f8e8	-0.029659703
12	0x3d8df42a	0.06931336
13	0x3cdf5dd7	0.027266426
14	0x3dcae5c0	0.099071026
15	0x3c8db38d	0.01729753
16	0xbcd81599	-0.026377486
17	0x3d987a9d	0.074452616
18	0x3d86f784	0.065901786
19	0x3d9faa26	0.07796125
20	0x3d8dd948	0.06926209
21	0xbd4ffac4	-0.050776258
22	0x3e76212f	0.24036096
23	0xbd29cc3c	-0.04145454
24	0xbd9ffd47	-0.07811981
25	0x3e0dcf48	0.13848603
26	0x3e68bed2	0.22729042
27	0x3e516e01	0.2045212
28	0x3d40a4e1	0.04703224
29	0x3e0ee170	0.13953185
30	0xbda47a8d	-0.08031187
31	0x3dd9d6a6	0.10636644
32	0xbe0727ca	-0.13198772
33	0xbcc2ed6d	-0.023794854
34	0xbc471b06	-0.012152439
35	0x3bd21d51	0.006412186
36	0xbd68a3e8	-0.05679694
37	0x3dedd055	0.11612002
38	0x3d896085	0.06707863
39	0xbcd925d0	-0.026507288
40	0xbdc29d70	-0.09502685
41	0xbe187004	-0.1488648
42	0xbb22cee0	-0.0024842545
43	0xbd3f239b	-0.046664815
44	0xbe223a44	-0.15842539
45	0xbb43098a	-0.0029760324
46	0x3d6355e3	0.05550183
47	0x3d7a53ee	0.061115198
48	0x3b021b00	0.001985252
49	0xbd9ec33b	-0.07752081
50	0x3c946291	0.018113406
51	0x3e1a3c25	0.15062006
52	0xbdddd489	-0.108315535
53	0xbd780f7a	-0.060561635
54	0x3e12ef77	0.14349161
55	0xbe1417cb	-0.14462201
56	0xbd6a99a1	-0.05727542
57	0xbd8e39a8	-0.06944591
58	0x3d77cb7e	0.0604968
59	0xbd52e3d0	-0.05148679
60	0x3e26b1e6	0.162788
61	0xbd35563e	-0.0442717
62	0x3e2d5f07	0.16930781
63	0xbda475cb	-0.0803028
