Projects/GuoxiangGrayson_T_A study of multi-fidelity graph neural networks/Model_save/Quarter2D/Rank=195-GNN-nB-64-Lr-0.005/model.pth (torch, 114781 bytes, 24 tensors)

node_function_neighbor.0.weight f4 [64, 2]
-0.18929088 -0.101699814 -0.22876996 0.5669176 0.08639454 -0.3210943 -0.2800614 -0.1360621
0.43316033 0.10352023 0.42769423 -0.1576952 0.23311038 -0.3859914 -0.35954028 -0.0089458525
0.31752852 0.21874194 -0.4937236 -0.47593898 0.52203053 0.064936675 -0.5127469 0.44472745
-0.255232 -0.116772234 -0.20116682 -0.050790325 0.07975117 -0.14680262 -0.035139285 -0.42261076
0.16727477 -0.41434476 -0.44146532 -0.51334524 0.20272963 0.48859397 -0.47950497 -0.3807479
0.6513878 -0.11184177 0.41975436 0.41519344 0.46190766 0.20500837 -0.4112888 -0.53206885
-0.6286212 0.41761371 -0.52570236 0.37738508 0.5809246 0.5347951 0.50191635 -0.41574493
-0.6072303 -0.48051912 0.21327358 -0.25630754 0.42623544 0.43586063 -0.54848856 -0.6557208
-0.58691716 0.7057211 -0.02599332 0.5540636 -0.5905073 0.008330551 0.45811185 0.28381583
0.35967904 0.05674392 0.5435123 -0.29069227 0.5437102 -0.26861838 0.41986737 0.65619695
-0.06098246 0.16724193 0.53483415 -0.51857424 -0.39242294 -0.48953566 -0.051329818 -0.00067919155
0.11170957 0.3881369 -0.70490694 -0.6678795 0.44136876 -0.13569847 0.3293108 -0.3695785
-0.008406596 -0.67808247 -0.32375368 0.33678338 -0.5828478 -0.4710795 0.004208579 0.0653169
-0.33634672 -0.026295118 -0.5758901 -0.6010163 0.1418315 0.45708218 0.6358887 -0.011657061
0.5884181 0.57977223 -0.3285526 0.65950376 0.31475395 -0.39585254 0.64429104 -0.23472242
0.595273 -0.44339585 0.4484194 0.047348935 -0.054140925 -0.050640777 -0.59022164 -0.59539217
00000000: 78d5 41be fe47 d0bd ac42 6abe 8321 113f
00000010: 9fef b03d 7966 a4be 3564 8fbe dd53 0bbe
00000020: 31c7 dd3e 6a02 d43d bdfa da3e da7a 21be
00000030: 7db4 6e3e aaa0 c5be aa15 b8be a091 12bc
00000040: 1993 a23e e3fd 5f3e 57c9 fcbe 46ae f3be
00000050: cba3 053f 85fd 843d 6143 03bf 51b3 e33e
00000060: c5ad 82be 4826 efbd adfe 4dbe 8409 50bd
00000070: 9554 a33d 6d53 16be 36ee 0fbd 7060 d8be
00000080: 144a 2b3e ff24 d4be be07 e2be 986a 03bf
00000090: 5b98 4f3e fd28 fa3e ad81 f5be 64f1 c2be
000000a0: 5ac1 263f 4c0d e5bd 0bea d63e 3c94 d43e
000000b0: 297f ec3e b7ed 513e 7294 d2be aa35 08bf
000000c0: 52ed 20bf 77d1 d53e 6e94 06bf 9e38 c13e
000000d0: 79b7 143f 55e8 083f 977d 003f 85dc d4be
000000e0: 7273 1bbf 9a06 f6be 6464 5a3e be3a 83be
000000f0: 883b da3e 2029 df3e bf69 0cbf 51dd 27bf
00000100: 3440 16bf 23aa 343f f1ef d4bc 1dd7 0d3f
00000110: 7d2b 17bf dd7c 083c a38d ea3e 4f50 913e
00000120: da27 b83e 506c 683d 9f23 0b3f 9ed5 94be
00000130: 9730 0b3f 5988 89be dbf8 d63e 86fc 273f
00000140: bec8 79bd 7841 2b3e e4ea 083f 48c1 04bf
00000150: a9eb c8be 6ba4 fabe 373f 52bd c60b 32ba
00000160: fdc7 e43d e1b9 c63e c874 34bf 27fa 2abf
00000170: 16fb e13e 8af4 0abe 6d9b a83e 6539 bdbe
00000180: d2bb 09bc d096 2dbf 0bc3 a5be df6e ac3e
00000190: 8335 15bf 5531 f1be 1fe8 893b dec4 853d
000001a0: a335 acbe dc68 d7bc 896d 13bf 34dc 19bf
000001b0: 473c 113e ad06 ea3e 9ac9 223f 42fd 3ebc
000001c0: 92a2 163f f46b 143f 0c38 a8be 3dd5 283f
000001d0: 6e27 a13e 2fad cabe 42f0 243f 135b 70be
000001e0: d063 183f c804 e3be 3a97 e53e f5f0 413d
000001f0: e0c2 5dbd b46c 4fbd c418 17bf 9f6b 18bf

node_function_neighbor.0.bias f4 [64]
0.58285546 0.35515386 0.4565299 -0.5133239 -0.08137085 0.45651197 0.54894006 0.58463335
0.1526333 0.1931489 0.54417694 0.6596765 -0.4002226 -0.65142816 0.11654322 0.3706519
-0.32163814 0.28928605 -0.73831826 0.46036315 0.110658854 0.23529798 0.12597845 -0.24881563
0.034012843 0.67974347 -0.3942754 0.61247426 -0.25695246 -0.46395648 0.748724 -0.17831582
0.60801977 0.078981236 0.57527626 0.22045033 0.58634645 0.09757037 0.41276515 0.098839924
0.66351753 0.18935008 0.16283223 0.17045817 0.08104066 -0.38669217 -0.49688834 0.39154193
-0.34403113 0.1391804 0.22004656 0.19716597 0.68336385 0.28848064 0.70493513 -0.19968845
-0.35937417 0.5504602 0.39182112 -0.23774341 -0.6349637 -0.31590247 -0.48655635 -0.40577576
00000000: 0436 153f bad6 b53e 49be e93e 3269 03bf
00000010: c3a5 a6bd f0bb e93e 5687 0c3f 88aa 153f
00000020: e74b 1c3e d3c8 453e 2e4f 0b3f 8fe0 283f
00000030: fae9 ccbe ffc3 26bf 36ae ee3d 16c6 bd3e
00000040: c1ad a4be 4d1d 943e 6d02 3dbf b8b4 eb3e
00000050: 1ca1 e23d f4f1 703e 7f00 013e 86c9 7ebe
00000060: 0d51 0b3d ab03 2e3f 77de c9be 1dcb 1c3f
00000070: 468f 83be b48b edbe 60ac 3f3f 6c98 36be
00000080: 2fa7 1b3f eac0 a13d 4e45 133f bbbd 613e
00000090: cd1a 163f f9d2 c73d f455 d33e 966c ca3d
000000a0: 49dc 293f fde4 413e 7ebd 263e 968c 2e3e
000000b0: a5f8 a53d 84fc c5be 2668 febe 2f78 c83e
000000c0: d924 b0be 4f85 0e3e e353 613e e0e5 493e
000000d0: eff0 2e3f bcb3 933e a176 343f 217b 4cbe
000000e0: e4ff b7be f6ea 0c3f c79c c83e 0273 73be
000000f0: fb8c 22bf f8bd a1be ea1d f9be d7c1 cfbe

node_function_neighbor.2.weight f4 [64, 64]
0.05949419 0.07434063 -0.06250774 -0.11885795 0.08330172 0.005459761 -0.066366084 0.1257151
0.06375057 0.10973635 0.004166768 0.013774613 0.046359673 0.0077346526 -0.1242168 -0.06595412
0.012612644 0.09123073 0.061152834 0.124845594 0.08589198 0.106275916 -0.09156484 0.10743834
0.091522306 0.094264895 -0.03584742 0.05027896 -0.031810507 -0.1303314 -0.02857818 -0.062495854
0.102281004 0.118765 0.13757186 -0.034765985 -0.0734851 -0.124870285 0.060657278 0.024171835
-0.08633321 0.014385746 -0.007357944 0.04965422 0.06514118 -0.09766052 0.025243964 -0.028148958
-0.004789882 0.08007254 0.053557493 0.09688368 -0.10139485 -0.058570184 -0.054107923 0.075416684
-0.13580993 0.13133205 0.11498513 -0.03625748 -0.042704996 0.10281463 -0.08790545 0.07159267
-0.043501426 0.01839653 0.065208815 0.092274696 0.015221405 0.060800016 0.06921838 0.071261466
-0.019235194 -0.06850919 -0.0774547 -0.0622756 0.0043122172 0.03716226 -0.035916965 0.026195804
-0.035754483 0.058300883 -0.070591986 0.027271893 -0.05756803 0.06674675 -0.08785217 -0.03546568
-0.071252674 -0.10154621 0.058022663 -0.08396472 -0.13712786 0.04935309 -0.12626913 -0.13978049
-0.030520583 -0.045775093 -0.11285369 -0.049609337 0.076542094 0.04920625 -0.13548571 -0.055138055
-0.043780018 -0.07604888 0.039919928 0.023273706 -0.0035381916 -0.035523746 -0.069992274 0.00056111626
0.0323578 -0.07485054 -0.1255602 0.0115076555 -0.0920988 -0.023980489 -0.040105823 -0.027587084
-0.15315723 -0.014110985 -0.08111357 0.088876635 -0.12676725 0.078614466 0.06952758 -0.010295822
0.009235722 -0.07098589 0.072674744 0.08494728 -0.13065016 0.008770087 -0.022848163 0.037020806
0.063839555 -0.109502114 0.08005805 0.01174024 0.024001595 -0.026852312 0.08187574 -0.118020765
-0.1283481 0.005922115 0.06639015 0.05019993 -0.121605396 -0.15429816 0.067885205 -0.010404247
-0.13292646 0.087969914 -0.012135277 0.060846623 -0.068078995 -0.09964048 -0.11864729 0.053781126
-0.106253915 0.04823527 -0.10354543 -0.10517913 0.07635806 -0.0137416385 -0.15694548 -0.10476613
-0.08561841 -0.027660148 0.10970976 -0.041975915 -0.037869863 -0.08804713 -0.060256537 0.004972431
-0.036360264 -0.12223213 -0.054573894 0.023310758 -0.055529866 0.039983332 0.017956797 -0.06754799
-0.005800781 0.04813882 0.073691115 -0.03858614 -0.053259365 0.059679545 -0.12056964 0.033253722
-0.069711685 0.09359457 -0.12478567 0.08164423 0.110590756 -0.047687825 -0.048780285 -0.001254773
0.01394784 -0.057130028 0.00055857666 -0.05044193 0.064153954 0.066912 -0.12859064 -0.10446237
-0.04027887 -0.0143313585 -0.104042105 0.097188115 -0.11743502 0.004731897 0.052252315 0.038229816
0.08516293 -0.037337586 0.0064190538 0.0021191617 0.03265893 -0.03514781 -0.06766406 -0.12529315
0.12169706 0.11066168 -0.074332014 0.05008654 -0.04147798 -0.20324053 -0.21578445 -0.10067064
0.011083641 -0.14483187 -0.10354493 0.09793131 -0.020498466 -0.069593005 -0.041532017 -0.03678796
0.09739333 0.13171026 -0.061011344 -0.06887277 -0.021438899 -0.012965339 0.09285653 -0.10041195
0.049587395 0.026576487 0.010458605 -0.027911251 0.034294367 -0.08626009 -0.003326968 0.0052170535
00000000: 2eb0 733d e63f 983d 0f04 80bd cc6b f3bd
00000010: 189a aa3d cbe7 b23b f1ea 87bd 76bb 003e
00000020: a98f 823d 74bd e03d 6289 883b eaae 613c
00000030: a4e3 3d3d f872 fd3b 6165 febd f412 87bd
00000040: 43a5 4e3c 2dd7 ba3d 657b 7a3d 0caf ff3d
00000050: 22e8 af3d 30a7 d93d 5986 bbbd a208 dc3d
00000060: 0c70 bb3d f40d c13d bfd4 12bd 50f1 4d3d
00000070: bc4b 02bd 9875 05be ca1c eabc a7fb 7fbd
00000080: b478 d13d 103b f33d a3df 0c3e c766 0ebd
00000090: 5b7f 96bd febb ffbd c473 783d 0304 c63c
000000a0: 77cf b0bd 31b2 6b3c e81a f1bb 3962 4b3d
000000b0: bd68 853d 3d02 c8bd 6ecc ce3c a598 e6bc
000000c0: 71f4 9cbb 12fd a33d 1a5f 5b3d f36a c63d
000000d0: 1aa8 cfbd 4ae7 6fbd 45a0 5dbd 1074 9a3d
000000e0: c211 0bbe e97b 063e 537d eb3d b982 14bd
000000f0: 6feb 2ebd 7a90 d23d c607 b4bd 2e9f 923d
00000100: 8d2e 32bd 52b4 963c 338c 853d 84fa bc3d
00000110: 3363 793c 7009 793d 5ec2 8d3d 88f1 913d
00000120: 2093 9dbc 8c4e 8cbd 92a0 9ebd b314 7fbd
00000130: 804d 8d3b 7437 183d ab1d 13bd 9598 d63c
00000140: 4b73 12bd e8cc 6e3d 8892 90bd 4e69 df3c
00000150: 74cc 6bbd 85b2 883d d7eb b3bd 7644 11bd
00000160: ecec 91bd 76f7 cfbd 2ca9 6d3d b2f5 abbd
00000170: 3f6b 0cbe 7726 4a3d b24c 01be 9e22 0fbe
00000180: 4d06 fabc aa7e 3bbd d61f e7bd 2933 4bbd
00000190: 1ac2 9c3d 7e8c 493d c4bc 0abe 71d8 61bd
000001a0: ad52 33bd 84bf 9bbd 1483 233d 80a8 be3c
000001b0: 01e1 67bb 5981 11bd 1c58 8fbd e017 133a
000001c0: 9d89 043d 3d4b 99bd da92 00be 9b8a 3c3c
000001d0: 4c9e bcbd bb72 c4bc 0146 24bd 4ffe e1bc
000001e0: 40d5 1cbe c331 67bc df1e a6bd f404 b63d
000001f0: 46cf 01be 9f00 a13d 7a64 8e3d cfaf 28bc
00000200: 6d51 173c 0d61 91bd 7fd6 943d d7f8 ad3d
00000210: 28c9 05be 69b0 0f3c 122c bbbc 21a3 173d
00000220: 50be 823d a542 e0bd 7af5 a33d 235a 403c
00000230: fe9e c43c 61f9 dbbc 78ae a73d dfb4 f1bd
00000240: af6d 03be 4d0e c23b 8ff7 873d 719e 4d3d
00000250: 400c f9bd 5600 1ebe 6607 8b3d 9376 2abc
00000260: e01d 08be 9229 b43d 0ad3 46bc 4f3a 793d
00000270: 006d 8bbd 4f10 ccbd 5afd f2bd 9949 5c3d
00000280: a79b d9bd 5992 453d a00f d4bd 2868 d7bd
00000290: 9d61 9c3d 9c24 61bc 51b6 20be a08f d6bd
000002a0: b458 afbd 8997 e2bc 83af e03d f0ee 2bbd
000002b0: 6e1d 1bbd 0e52 b4bd 8fcf 76bd c6ef a23b
000002c0: 80ee 14bd d754 fabd e088 5fbd 34f6 be3c
000002d0: 4973 63bd 90c5 233d 221a 933c 9a56 8abd
000002e0: 7a14 bebb 362d 453d 5eeb 963d 800c 1ebd
000002f0: 7e26 5abd 8a72 743d 37ed f6bd 0e35 083d
00000300: 00c5 8ebd 83ae bf3d a18f ffbd 1735 a73d
00000310: 687d e23d 4f54 43bd d6cd 47bd 3277 a4ba
00000320: 7b85 643c 2d01 6abd 726d 123a 329c 4ebd
00000330: 2663 833d 2909 893d 44ad 03be 5ef0 d5bd
00000340: 75fb 24bd 13ce 6abc 0714 d5bd 900a c73d
00000350: c681 f0bd 070e 9b3b 8606 563d de96 1c3d
00000360: e769 ae3d 4cef 18bd ed56 d23b a2e1 0a3b
00000370: 5fc5 053d 26f7 0fbd 7493 8abd d94c 00be
00000380: 4f3c f93d 97a2 e23d 623b 98bd 8b27 4d3d
00000390: d0e4 29bd 491e 50be 99f6 5cbe 692c cebd
000003a0: 2998 353c ce4e 14be 5d0f d4bd 3690 c83d
000003b0: 66ec a7bc c786 8ebd 7a1d 2abd f9ae 16bd
000003c0: 2776 c73d 0edf 063e 08e7 79bd 2b0d 8dbd
000003d0: a1a0 afbc 936c 54bc 902b be3d c8a4 cdbd
000003e0: 271c 4b3d efb6 d93c 925a 2b3c 23a6 e4bc
000003f0: 4078 0c3d 21a9 b0bd 4309 5abb d1f3 aa3b

node_function_neighbor.2.bias f4 [64]
0.048705477 -0.055306707 -0.11046878 -0.0781002 0.13193375 0.083246715 -0.0075845122 0.06924225
-0.0137245525 0.029695889 -0.07859314 -0.047696855 -0.08871463 0.09674463 -0.08858077 0.052329537
0.07647934 -0.13765875 0.13332675 0.13681972 0.035250016 -0.13776897 -0.13508822 -0.114465244
-0.04120352 0.06413417 0.14508735 -0.01983874 -0.04700126 -0.019553892 0.13813126 0.1630467
-0.15857959 0.026124649 0.0050610094 -0.05677524 0.14291988 0.16257292 -0.017785925 -0.030388827
-0.07637097 0.10984181 -0.00021507769 -0.0123481965 -0.14295182 0.019146081 -0.018272256 0.0049807085
-0.123806275 0.19723064 -0.02053475 0.039740454 0.013575015 0.10592588 -0.06013648 0.21420904
0.15230486 0.09525943 0.010851985 0.15058362 0.07987451 -0.04705693 0.024888173 -0.042914268
00000000: 657f 473d 4989 62bd 753d e2bd fff2 9fbd
00000010: a419 073e 417d aa3d 8087 f8bb e1ce 8d3d
00000020: f2dc 60bc cb44 f33c 71f5 a0bd c75d 43bd
00000030: 04b0 b5bd 0c22 c63d d669 b5bd 7f57 563d
00000040: 33a1 9c3d 6af6 0cbe cf86 083e 781a 0c3e
00000050: 5262 103d 4f13 0dbe 9154 0abe c16c eabd
00000060: 06c5 28bd c758 833d c791 143e da84 a2bc
00000070: 6584 40bd 7c2f a0bc 4872 0d3e b7f5 263e
00000080: b062 22be 5c03 d63c d3d6 a53b 278d 68bd
00000090: 9759 123e 8479 263e cab3 91bc fdf1 f8bc
000000a0: 6268 9cbd bef4 e03d 7a86 61b9 1750 4abc
000000b0: f661 12be 3ed8 9c3c b3af 95bc 3635 a33b
000000c0: 258e fdbd d4f6 493e 7e38 a8bc e3c6 223d
000000d0: bd69 5e3c abef d83d ab51 76bd 9d59 5b3e
000000e0: cef5 1b3e 6017 c33d 86cc 313c 9832 1a3e
000000f0: 3f95 a33d c4be 40bd 48e2 cb3c dfc6 2fbd

node_function_neighbor.4.weight f4 [64, 64]
0.021795806 -0.042243466 -0.122645155 -0.025620729 0.06708593 -0.10983276 0.016625006 0.016220095
-0.109077044 -0.024863876 0.00862232 0.034493428 -0.021049598 -0.11251358 -0.10721379 0.032819416
-0.0766808 0.01813827 -0.048536897 0.039109506 -0.02196076 -0.03015424 0.07299622 0.08215658
0.08764503 0.0495128 -0.05107138 -0.011653136 0.073768385 0.026416194 -0.004011813 -0.11863721
-0.15190563 0.005048661 -0.0323353 0.043718413 -0.12595417 -0.058515396 -0.020875225 -0.061295174
0.14982094 -0.095695555 0.14881803 0.13065249 0.029376056 -0.0393796 0.043147646 -0.11626668
-0.0839255 -0.055594247 0.081320874 -0.15342006 -0.112355806 0.05183892 -0.045627646 -0.045036536
-0.08033392 0.050923124 -0.041024797 0.021418583 -0.008225514 0.046393055 0.056125343 -0.07009425
-0.026236732 -0.114723645 -0.012537334 -0.073614895 -0.13279489 -0.094097055 -0.065268 -0.15608345
0.046688557 -0.07747172 -0.0676239 -0.018175585 0.0025491267 -0.10373649 0.07903434 0.08357932
-0.033594523 0.078476384 -0.11266662 -0.05614271 -0.055474333 0.06130804 0.07267251 -0.14880602
0.024291217 -0.15837233 -0.006451726 -0.039449673 -0.03310663 -0.058744073 0.021206915 -0.06010406
0.063809656 0.036685873 -0.14682773 -0.1392037 0.068038344 0.044633936 0.033497036 0.011006585
0.032181308 0.0709953 0.12172799 0.0010131001 -0.053234823 0.058685616 0.03889738 -0.07686485
0.023417508 -0.09907187 0.11679304 0.03263676 0.03166561 -0.018987825 -0.13666686 0.031152403
-0.100801446 -0.0048682094 -0.15246719 -0.09528633 0.01646919 -0.12494886 0.02415216 0.057082385
0.05069051 -0.04220066 0.012092747 0.092804015 -0.09430908 -0.13677056 -0.038875695 0.07855426
-0.05054599 -0.05998043 0.06817753 0.05850214 0.0822012 -0.1702064 0.04813585 0.0069010826
-0.05420043 0.036742363 -0.13642302 0.08527853 -0.13540445 -0.038260236 -0.107251614 -0.11672599
-0.12707645 -0.12419504 0.09920854 0.10727769 0.0019641612 0.051377006 -0.12608375 -0.103399485
-0.14312592 -0.013274468 0.004712537 0.0927073 0.067504846 0.060079273 -0.09267812 -0.028662533
-0.0011470296 0.05484015 -0.12637411 0.09901208 -0.04340742 -0.09945929 0.10717063 0.03631895
-0.07590283 -0.028343758 -0.091489 -0.0376841 0.076666534 0.03273309 0.00420512 -0.028242761
-0.012072661 -0.09760478 0.05158829 -0.03780789 0.06899228 -0.016483309 0.12115356 0.12700613
-0.16465662 -0.029491432 -0.010922424 -0.03486352 -0.12075905 -0.11620867 0.041344654 -0.04659571
-0.051571593 0.038415767 -0.06973427 0.020341832 0.124383844 0.054445516 -0.029547522 -0.12208514
-0.11857999 -0.16334143 0.058190912 -0.04670376 0.072774485 0.009827554 0.08567463 0.1505942
-0.015305379 -0.13391225 0.02980116 -0.020555485 0.08278697 0.08277294 -0.111335695 0.09830519
-0.036250528 0.07688238 0.0010706164 0.0048246724 -0.06934283 -0.11416493 0.06407553 0.034911837
0.023493664 0.053502776 0.029203534 -0.114083126 0.003504032 0.0023362269 -0.041476995 -0.06154888
-0.10294861 0.022349212 -0.0013922006 -0.03414421 0.107028626 -0.059528466 -0.12747476 -0.011641889
-0.14306687 0.0727694 0.0843058 -0.1369715 -0.022323724 0.006191099 -0.0055981725 0.073065
00000000: 1e8d b23c 7c07 2dbd 622d fbbd 90e2 d1bc
00000010: 5964 893d 00f0 e0bd 2a31 883c 01e0 843c
00000020: c963 dfbd 54af cbbc a244 0d3c fb48 0d3d
00000030: 3570 acbc 856d e6bd e792 dbbd a76d 063d
00000040: d30a 9dbd b696 943c a0ce 46bd 4a31 203d
00000050: 0de7 b3bc 0606 f7bc 0b7f 953d b641 a83d
00000060: 3d7f b33d efcd 4a3d 3930 51bd ccec 3ebc
00000070: e113 973d c666 d83c 8775 83bb 11f8 f2bd
00000080: 268d 1bbe 3d6f a53b 0572 04bd 1412 333d
00000090: 21fa 00be d7ad 6fbd 8502 abbc a610 7bbd
000000a0: a96a 193e 08fc c3bd c163 183e c4c9 053e
000000b0: 0ea6 f03c 814c 21bd 96bb 303d 3a1d eebd
000000c0: 22e1 abbd cbb6 63bd 8f8b a63d 261a 1dbe
000000d0: cd1a e6bd 0c55 543d 0ee4 3abd 3b78 38bd
000000e0: 1c86 a4bd c494 503d 9e09 28bd 0676 af3c
000000f0: 4ec4 06bc a506 3e3d b0e3 653d 938d 8fbd
00000100: 6aee d6bc 3bf4 eabd 6469 4dbc 68c3 96bd
00000110: 62fb 07be f5b5 c0bd 3bab 85bd 57d4 1fbe
00000120: 803c 3f3d 7ea9 9ebd 667e 8abd f7e4 94bc
00000130: 400f 273b cc73 d4bd c2dc a13d a22b ab3d
00000140: 699a 09bd 3ab8 a03d c2bd e6bd e6f5 65bd
00000150: 0e39 63bd 241e 7b3d 53d5 943d 9b60 18be
00000160: 60fe c63c 5b2c 22be 0069 d3bb fb95 21bd
00000170: d19a 07bd a09d 70bd 20ba ad3c ad2f 76bd
00000180: a3ae 823d ed43 163d 025a 16be 6a8b 0ebe
00000190: b057 8b3d 13d2 363d 3034 093d f754 343c
000001a0: 8cd0 033d fc65 913d 864c f93d 00ca 843a
000001b0: c20c 5abd 5460 703d dc52 1f3d 526b 9dbd
000001c0: 13d6 bf3c 31e6 cabd 3031 ef3d 20ae 053d
000001d0: ccb3 013d 5b8c 9bbc 66f2 0bbe 5333 ff3c
000001e0: fd70 cebd 8085 9fbb 5c20 1cbe 7b25 c3bd
000001f0: 65ea 863c 30e5 ffbd c0da c53c 38cf 693d
00000200: daa0 4f3d 99da 2cbd a820 463c 0810 be3d
00000210: 1e25 c1bd 950d 0cbe 1f3c 1fbd 0ee1 a03d
00000220: 5009 4fbd 0aae 75bd a9a0 8b3d f19f 6f3d
00000230: 1a59 a83d 964a 2ebe 192a 453d 7a22 e23b
00000240: 4501 5ebd 297f 163d 7ab2 0bbe 83a6 ae3d
00000250: 77a7 0abe c4b6 1cbd bca6 dbbd 090e efbd
00000260: 5420 02be f859 febd d92d cb3d 68b4 db3d
00000270: 28b9 003b b270 523d 191c 01be 1cc3 d3bd
00000280: 9a8f 12be 277d 59bc a06b 9a3b 53dd bd3d
00000290: fb3f 8a3d af15 763d 07ce bdbd b0cd eabc
000002a0: ed57 96ba 11a0 603d 3768 01be d8c6 ca3d
000002b0: fbcb 31bd 50b1 cbbd 467c db3d 2ec3 143d
000002c0: f172 9bbd 2b31 e8bc 965e bbbd a55a 1abd
000002d0: 5803 9d3d 2213 063d 1acb 893b 5d5d e7bc
000002e0: 69cc 45bc 04e5 c7bd 3e4e 533d 72dc 1abd
000002f0: d34b 8d3d 0108 87bc 5c1f f83d e50d 023e
00000300: bf9b 28be 0498 f1bc f7f3 32bc 0dcd 0ebd
00000310: 8550 f7bd d0fe edbd 0359 293d 25db 3ebd
00000320: bc3c 53bd da59 1d3d d7d0 8ebd eaa3 a63c
00000330: f5bc fe3d 4302 5f3d a50d f2bc c607 fabd
00000340: 11da f2bd fa42 27be 9859 6e3d 714c 3fbd
00000350: ca0a 953d c003 213c 2e76 af3d 5e35 1a3e
00000360: 6ac3 7abc 4b20 09be 9021 f43c fa63 a8bc
00000370: 378c a93d dc84 a93d f803 e4bd 3b54 c93d
00000380: 6f7b 14bd 8274 9d3d ed53 8c3a 4918 9e3b
00000390: 9d03 8ebd 4ecf e9bd 083a 833d b7ff 0e3d
000003a0: c975 c03c ba25 5b3d 403c ef3c 6aa4 e9bd
000003b0: e7a3 653b 621b 193b c8e3 29bd ae1a 7cbd
000003c0: b9d6 d2bd b215 b73c 807a b6ba cdda 0bbd
000003d0: d331 db3d 1fd4 73bd be88 02be 9fbd 3ebc
000003e0: 1f80 12be 2008 953d 85a8 ac3d 4242 0cbe
000003f0: 3ee0 b6bc b4de ca3b e070 b7bb 1aa3 953d

node_function_neighbor.4.bias f4 [64]
0.044809707 -0.030892532 -0.055830307 0.0022936868 -0.046642207 -0.09111889 -0.13508677 -0.016026108
0.04727246 -0.065123 -0.00018266926 -0.0707638 0.03614876 0.1582025 -0.072367795 -0.061074644
0.045739602 -0.02181219 -0.06313782 -0.0791611 0.009592217 0.09941816 0.12515487 0.03454738
0.015497452 -0.09381493 0.16019216 -0.033667993 -0.07502789 0.17234494 -0.06725438 0.03192639
-0.093328185 -0.03230666 -0.04446496 0.13142513 -0.009121931 -0.13695075 0.047869384 -0.04346272
-0.011467866 -0.09588852 -0.024136394 -0.15102668 -0.11465646 0.10929199 -0.03707873 0.07525132
-0.112661295 0.12803592 -0.05709298 0.12975036 -0.087679215 -0.061059184 -0.021675548 0.12381577
-0.06841264 0.08464013 -0.12998062 -0.0494842 0.0859187 -0.13057044 -0.043364584 -0.1494309
00000000: 628a 373d 5612 fdbc 52ae 64bd ae51 163b
00000010: e60b 3fbd 8a9c babd 3054 0abe 2f49 83bc
00000020: c4a0 413d 355f 85bd e88a 3fb9 9cec 90bd
00000030: b910 143d d6ff 213e 9135 94bd 6829 7abd
00000040: 7359 3b3d 7aaf b2bc 674e 81bd 371f a2bd
00000050: ad28 1d3c c09b cb3d 9928 003e 8e81 0d3d
00000060: 06e9 7d3c 0b22 c0bd 6a09 243e 73e7 09bd
00000070: 39a8 99bd 317b 303e aabc 89bd 3fc5 023d
00000080: d922 bfbd fd53 04bd e420 36bd 4f94 063e
00000090: 2774 15bc d13c 0cbe b012 443d f705 32bd
000000a0: b7e3 3bbc 3361 c4bd b0b9 c5bc bda6 1abe
000000b0: 02d1 eabd 7bd4 df3d dedf 17bd 5d1d 9a3d
000000c0: f7ba e6bd d91b 033e 54da 69bd 47dd 043e
000000d0: 2991 b3bd 3219 7abd eb90 b1bc 1f93 fd3d
000000e0: ed1b 8cbd ce57 ad3d a419 05be f2af 4abd
000000f0: 25f6 af3d 42b4 05be 109f 31bd 6a04 19be

node_function_neighbor.6.weight f4 [4, 64]
0.064944215 -0.08583606 0.12469922 0.07177358 0.09978268 -0.051334098 0.05848606 -0.059313845
-0.057088837 -0.06486997 0.007614066 0.022449512 0.13045828 0.105849676 -0.045493226 0.11008744
-0.008763861 0.050707404 -0.07856919 0.07879419 0.05455794 0.05433659 0.074092165 0.04142732
0.02781635 0.077765524 0.044445984 -0.019239433 0.07304395 0.004169547 -0.011677885 0.055957776
0.03376496 0.10870391 0.07462913 -0.0955075 -0.017324591 0.0012062766 0.065545425 -0.057972
-0.061125025 0.019257156 0.050782934 0.11691872 -0.028399888 -0.09641865 0.17712973 -0.04716249
0.0729111 -0.07888643 0.01171993 -0.005873673 -0.018233811 0.021960914 0.10312775 -0.10363955
0.10120403 0.030220281 -0.009101629 0.12828104 0.02248815 -0.08483415 -0.0032516355 0.09903904
0.045073066 -0.025351059 -0.0211141 -0.05127121 -0.14790952 0.104507126 -0.097749785 -0.09894908
-0.039156035 -0.03420489 -0.0725334 0.07445535 -0.1458726 0.027857374 -0.119664535 0.03116819
-0.08426388 0.0022204549 0.049009122 -0.0041779447 0.023282854 -0.08319486 -0.072853 0.037759367
0.13970582 -0.11216962 -0.024142478 0.026643233 0.042366326 -0.11856036 -0.10973922 -0.16154057
-0.021876076 -0.098342866 -0.035031583 -0.09700775 -0.06337649 -0.018158052 -0.06569739 0.01693861
-0.07569527 0.04266423 0.0062263757 -0.04147723 -0.0033683805 -0.08449309 -0.10908052 -0.003088922
0.04278487 -0.030470511 0.08313877 -0.10074904 0.03980376 0.08622831 -0.07834904 -0.12758893
0.10518818 0.07058408 -0.14731453 -0.014328166 -0.0899962 -0.036841467 0.07333229 0.07113583
-0.08764228 -0.039512694 -0.07349967 -0.050253738 0.0561535 0.06162893 -0.05814844 -0.05343603
0.07859808 -0.13321443 0.080474496 0.09713517 0.072462246 0.06598082 0.06492393 0.123323634
0.10147257 -0.039387446 -0.006266683 -0.015562154 0.101341985 -0.007434555 0.085296124 0.010243272
0.10797789 -0.11265629 0.0600544 0.022393452 -0.049442194 0.08683232 -0.045646142 0.017937439
-0.054769453 -0.020580444 -0.10410518 0.066997446 0.0600666 0.01571247 0.10492922 0.07827494
-0.03857538 -0.031654634 0.016382292 -0.12357263 -0.027982673 0.12757017 -0.07652213 0.037915204
0.007853328 0.06981299 -0.027492667 0.01159997 -0.06298455 -0.01287824 -0.0815037 0.068826094
-0.05463306 0.026387852 -0.07520047 0.14481449 0.10860003 -0.026470851 0.02044353 0.0092165675
0.062829204 0.116995074 0.052172083 -0.06478491 0.019384027 0.07693621 -0.045774087 -0.03440847
0.10865426 -0.066100605 -0.069424614 -0.042933274 0.07670857 -0.0629049 0.068742104 -0.034648098
-0.00422512 0.02639877 -0.06321181 -0.027555717 0.030774608 -0.05859384 -0.093126595 0.025978629
0.027724676 -0.037787326 -0.07754927 0.09313771 -0.015976755 -0.027988255 -0.0030817708 0.097614355
0.019225905 0.08538662 0.09554731 0.10659765 -0.04698005 -0.0056281216 -0.13967316 -0.063037105
-0.038991325 0.024404926 0.069975555 -0.012125626 -0.0766849 0.08304014 -0.025022876 -0.02771598
0.0764176 0.0030751356 0.13754287 0.09114368 -0.055307902 -0.0042634457 0.10977275 0.09419083
0.06514097 0.09068133 -0.029540187 0.051539816 0.04320478 0.0025878353 0.07933874 -0.02305507
00000000: 7901 853d d1ca afbd 4e62 ff3d 07fe 923d
00000010: dd5a cc3d b443 52bd 148f 6f3d 13f3 72bd
00000020: fcd5 69bd 8cda 84bd 6a7f f93b 0ae8 b73c
00000030: db96 053e b7c7 d83d 1b57 3abd 8675 e13d
00000040: 4c96 0fbc 91b2 4f3d e2e8 a0bd d95e a13d
00000050: 2678 5f3d 0b90 5e3d a2bd 973d b2af 293d
00000060: 1ddf e33c 8843 9f3d fe0c 363d 049c 9dbc
00000070: 1198 953d b2a0 883b 9a54 3fbc fb33 653d
00000080: 204d 0a3d 28a0 de3d 28d7 983d 7099 c3bd
00000090: 4dec 8dbc ed1b 9e3a ae3c 863d 0c74 6dbd
000000a0: 3c5e 7abd 2fc1 9d3c c401 503d 1573 ef3d
000000b0: e2a6 e8bc 2477 c5bd 7f61 353e 752d 41bd
000000c0: 6a52 953d 358f a1bd f304 403c f177 c0bb
000000d0: 135f 95bc 60e7 b33c a434 d33d f940 d4bd
000000e0: 0f44 cf3d 8690 f73c 001f 15bc 1b5c 033e
000000f0: 1239 b83c 87bd adbd 6419 55bb fbd4 ca3d
00000100: 899e 383d 06ad cfbc 7af7 acbc c301 52bd
00000110: 9875 17be d507 d63d 0a31 c8bd d1a5 cabd
00000120: 1462 20bd 6d1a 0cbd 648c 94bd 0c7c 983d
00000130: a05f 15be 2635 e43c ae12 f5bd 6f54 ff3c
00000140: 8b92 acbd 0d85 113b cabd 483d 24e7 88bb
00000150: afbb be3c 1162 aabd f433 95bd 91a9 1a3d
00000160: 0b0f 0f3e 30b9 e5bd 72c6 c5bc e942 da3c
00000170: 5088 2d3d c6cf f2bd f5be e0bd e46a 25be
00000180: 7535 b3bc fc67 c9bd 477d 0fbd 00ac c6bd
00000190: 88cb 81bd 32c0 94bc 5a8c 86bd d7c2 8a3c
000001a0: 1f06 9bbd b0c0 2e3d a006 cc3b 07e4 29bd
000001b0: 0cc0 5cbb b70a adbd 9c65 dfbd 836f 4abb
000001c0: 303f 2f3d 4b9d f9bc a944 aa3d 8355 cebd
000001d0: 4409 233d 7898 b03d 7675 a0bd aca6 02be
000001e0: e76c d73d 638e 903d 9fd9 16be afc0 6abc
000001f0: ed4f b8bd 14e7 16bd 3d2f 963d a9af 913d
00000200: cc7d b3bd 10d8 21bd ff86 96bd ddd6 4dbd
00000210: 3601 663d 9e6e 7c3d 0f2d 6ebd bddf 5abd
00000220: 08f8 a03d 5d69 08be d0cf a43d ceee c63d
00000230: 1667 943d f420 873d d6f6 843d 1a91 fc3d
00000240: dad0 cf3d bb54 21bd bf58 cdbb 68f8 7ebc
00000250: 638c cf3d 919d f3bb bcaf ae3d 66d3 273c
00000260: 8323 dd3d 57b8 e6bd 9afb 753d 7972 b73c
00000270: e683 4abd 25d5 b13d 73f7 3abd 89f1 923c
00000280: ef55 60bd 5298 a8bc 1935 d5bd f535 893d
00000290: 6508 763d 70b7 803c 22e5 d63d 9d4e a03d
000002a0: 3801 1ebd 4aa8 01bd 2834 863c a613 fdbd
000002b0: eb3b e5bc c1a1 023e a2b7 9cbd f94c 1b3d
000002c0: 3fab 003c 1dfa 8e3d 4d38 e1bc cd0d 3e3c
000002d0: 0bfe 80bd 41ff 52bc 69eb a6bd b2f4 8c3d
000002e0: eac6 5fbd 562b d83c b402 9abd 404a 143e
000002f0: b169 de3d 66d9 d8bc 3179 a73c 1601 173c
00000300: 99ac 803d 1d9b ef3d 65b2 553d f3ad 84bd
00000310: 40cb 9e3c bb90 9d3d 9c7d 3bbd e5ef 0cbd
00000320: 2086 de3d c15f 87bd 7e2e 8ebd cdda 2fbd
00000330: 6219 9d3d 49d4 80bd a9c8 8c3d 2aeb 0dbd
00000340: e072 8abb 3c42 d83c 3275 81bd 87bc e1bc
00000350: 081b fc3c 1800 70bd 28b9 bebd 22d1 d43c
00000360: dc1e e33c e2c6 1abd 27d2 9ebd fcbe be3d
00000370: afe1 82bc a047 e5bc 89f7 49bb 09ea c73d
00000380: a57f 9d3c 2edf ae3d 4fae c33d de4f da3d
00000390: 276e 40bd 1b6c b8bb 7b06 0fbe 9919 81bd
000003a0: 5eb5 1fbd d7ec c73c 584f 8f3d 90aa 46bc
000003b0: f90c 9dbd f310 aa3d c6fc ccbc 9f0c e3bc
000003c0: d580 9c3d 3788 493b 0ad8 0c3e 8aa9 ba3d
000003d0: 8a8a 62bd 60b4 8bbb 89d0 e03d 1fe7 c03d
000003e0: a168 853d 22b7 b93d 43fe f1bc 6a1b 533d
000003f0: 7ff7 303d ac98 293b 597c a23d fcdd bcbc

node_function_neighbor.6.bias f4 [4]
-0.0658446 -0.12575041 0.1866963 -0.03424952
00000000: 89d9 86bd b7c4 00be 512d 3f3e 3a49 0cbd

edge_function.0.weight f4 [64, 4]
0.1460686 0.4792133 -0.324754 -0.1471792 0.39314812 0.23761268 -0.052270506 -0.44773355
-0.4843774 0.4396201 -0.37273753 0.12001663 0.12963308 -0.2012476 -0.37205988 0.46339005
-0.28366876 -0.08954094 -0.24787772 -0.4267568 0.3082115 0.3318119 0.13703905 0.06277518
0.34 -0.14456005 -0.0837876 -0.3661626 -0.29151 -0.24235632 -0.1739902 0.20880917
0.15230301 0.2573189 -0.40762752 -0.13691624 -0.35216507 0.12858708 -0.42579395 -0.17109294
0.11565641 0.23239937 -0.43417346 -0.20592055 -0.53417677 0.22976162 -0.31839395 0.33430412
0.45330527 0.3248968 0.40012488 0.45001045 0.3984462 0.10430831 0.18985553 0.17610672
-0.14502573 0.19972989 -0.27298814 -0.2254293 -0.4060605 -0.21580592 0.1086168 0.21851583
0.32988858 0.14520286 -0.20272315 0.2794899 -0.40091056 -0.05540354 0.22074713 -0.4021115
-0.4656687 -0.21486853 0.2474184 -0.47367257 0.2589508 0.11892239 0.36640885 -0.022353625
-0.16335154 -0.25767285 -0.13313614 0.041892868 -0.20596223 -0.2581468 -0.41131446 0.24833396
0.22603658 -0.14347054 0.17365861 0.4206107 0.19147718 -0.004224974 0.31393576 -0.20159578
-0.23204373 0.09807949 0.3386623 -0.28317142 -0.36510783 0.15076368 0.09216932 0.07745815
-0.18892016 -0.049523205 -0.27878025 0.19296181 -0.40947652 -0.064301506 -0.0067454646 -0.052941848
0.2654077 -0.2770998 -0.49482793 0.014836178 -0.20484744 0.2229638 -0.0973451 -0.08941266
0.27265176 0.22923955 0.46324933 0.16355012 0.27408007 -0.44443133 -0.33779666 0.08749172
-0.41915724 0.18788338 -0.114707425 0.23726651 0.15661761 -0.16144143 0.22037609 -0.44330278
0.2740788 -0.12583324 0.2694834 -0.07066138 0.17050573 -0.4456238 0.33144218 0.166475
-0.4026838 0.29112077 0.46901008 0.011111346 0.37555507 -0.1879381 0.21078208 -0.17375508
0.13882723 -0.27202842 0.2498349 -0.09064568 0.009860444 0.0026729866 0.043756932 0.48256806
-0.2209093 0.32404387 -0.49837422 0.09173966 0.0076771146 0.048417356 0.36598858 0.45246646
-0.41670153 0.293307 0.23591687 -0.33713695 -0.19631836 0.08194378 -0.082315 0.3902102
-0.32202542 -0.13469364 -0.20562074 0.2490684 0.3403688 -0.34357956 0.255825 -0.2076879
-0.341207 0.029196564 0.008388058 -0.48092067 0.2622043 -0.24563752 -0.11942568 0.1843714
-0.05173388 0.37037405 0.011890447 0.3428427 -0.19586079 0.427441 0.23657241 -0.22691803
-0.092993006 0.010848839 0.40687454 0.015826842 0.2013933 -0.14863418 0.24482176 0.16882896
-0.17117526 -0.3961928 0.5077683 0.3028889 -0.057182427 0.36988983 -0.15606183 -0.02229071
-0.2338628 0.052948453 -0.06344271 0.2794375 -0.30282873 -0.3456857 -0.119946994 -0.43219456
-0.039018493 -0.16563572 0.019768951 0.053373918 -0.040629115 0.1831002 -0.18635914 0.37130708
0.08119161 0.33232826 0.40969947 -0.20762746 -0.03789052 -0.12984852 -0.39946976 0.48052523
-0.3533929 0.20606859 -0.47949588 -0.17246057 -0.43275672 -0.25574687 0.14490984 -0.20635095
-0.17285919 -0.32554093 0.33456388 -0.388629 0.35269234 -0.10924433 -0.12132148 -0.051197603
00000000: 0293 153e 725b f53e 2846 a6be 25b6 16be
00000010: b64a c93e bd50 733e 9919 56bd 553d e5be
00000020: 5100 f8be e315 e13e 74d7 bebe 47cb f53d
00000030: 89be 043e da13 4ebe a27e bebe 7641 ed3e
00000040: 083d 91be 3e61 b7bd a8d3 7dbe de7f dabe
00000050: e6cd 9d3e 40e3 a93e f753 0c3e 4690 803d
00000060: 7b14 ae3e 8d07 14be d598 abbd aa79 bbbe
00000070: cc40 95be 412c 78be 7d2a 32be 12d2 553e
00000080: 52f5 1b3e 4ebf 833e 8eb4 d0be c533 0cbe
00000090: fb4e b4be 55ac 033e aa01 dabe fd32 2fbe
000000a0: 45dd ec3d 1afa 6d3e fc4b debe d6dc 52be
000000b0: cfbf 08bf a146 6b3e 8804 a3be e929 ab3e
000000c0: a117 e83e e058 a63e 2bdd cc3e c567 e63e
000000d0: 2401 cc3e 989f d53d 7d69 423e 5255 343e
000000e0: a081 14be fe85 4c3e 1ac5 8bbe f0d6 66be
000000f0: 29e7 cfbe 3afc 5cbe 7c72 de3d 9dc2 5f3e
00000100: 28e7 a83e 0fb0 143e a896 4fbe 4d19 8f3e
00000110: 2644 cdbe d3ee 62bd 890b 623e 8fe1 cdbe
00000120: 216c eebe 7f06 5cbe 405b 7d3e 3685 f2be
00000130: 3395 843e 958d f33d f199 bb3e f31e b7bc
00000140: a045 27be b2ed 83be d754 08be db97 2b3d
00000150: c3e7 52be d12b 84be cf97 d2be 424b 7e3e
00000160: 2276 673e f1e9 12be 90d3 313e 495a d73e
00000170: 9812 443e a771 8abb 30bc a03e 206f 4ebe
00000180: df9c 6dbe e6dd c83d 2565 ad3e d8fb 90be
00000190: 6aef babe cb61 1a3e 45c3 bc3d 61a2 9e3d
000001a0: 4974 41be d8d8 4abd 49bc 8ebe c897 453e
000001b0: e8a6 d1be 82b0 83bd 0f09 ddbb 8dd9 58bd
000001c0: 85e3 873e 06e0 8dbe 165a fdbe 7113 733c
000001d0: 87c3 51be 9f50 643e de5c c7bd fc1d b7bd
000001e0: 0399 8b3e c6bd 6a3e 042f ed3e af79 273e
000001f0: 3954 8c3e 818c e3be aff3 acbe dc2e b33d
00000200: c79b d6be 8064 403e baeb eabd fef5 723e
00000210: 5e60 203e e750 25be 45aa 613e 95f8 e2be
00000220: 0e54 8c3e 6eda 00be baf9 893e eab6 90bd
00000230: 0e99 2e3e cd28 e4be cab2 a93e 6c78 2a3e
00000240: 922c cebe c80d 953e 1722 f03e 5d0c 363c
00000250: c148 c03e d872 40be 42d7 573e daec 31be
00000260: ba28 0e3e 4f47 8bbe b8d4 7f3e 71a4 b9bd
00000270: b38d 213c 462d 2f3b 783a 333d 2913 f73e
00000280: 0c36 62be 14e9 a53e e82a ffbe 01e2 bb3d
00000290: 4e90 fb3b 4751 463d db62 bb3e afa9 e73e
000002a0: e759 d5be 562c 963e 3194 713e 379d acbe
000002b0: ae07 49be 24d2 a73d c494 a8bd a2c9 c73e
000002c0: 84e0 a4be 21ed 09be 3e8e 52be c90b 7f3e
000002d0: d244 ae3e a9e9 afbe 7ffb 823e 23ac 54be
000002e0: afb2 aebe a22d ef3c 116e 093c 3c3b f6be
000002f0: a43f 863e 6788 7bbe 7395 f4bd dbcb 3c3e
00000300: e8e6 53bd aba1 bd3e 26d0 423c 1489 af3e
00000310: bb8f 48be 8cd9 da3e 0a40 723e 335d 68be
00000320: 1e73 bebd 54bf 313c dc51 d03e 4ba7 813c
00000330: 0c3a 4e3e 8f33 18be 8eb2 7a3e 80e1 2c3e
00000340: 9148 2fbe c8d9 cabe 1afd 013f 4114 9b3e
00000350: 1f38 6abd 3362 bd3e acce 1fbe 029b b6bc
00000360: bb79 6fbe 7ae0 583d 40ee 81bd 6f12 8f3e
00000370: 5e0c 9bbe b7fd b0be c5a6 f5bd 9b48 ddbe
00000380: dbd1 1fbd 699c 29be 7ff2 a13c 9c9e 5a3d
00000390: b76a 26bd 9e7e 3b3e eed4 3ebe f61b be3e
000003a0: c947 a63d ee26 aa3e 21c4 d13e 4b9c 54be
000003b0: 1733 1bbd 03f7 04be 4d87 ccbe 6707 f63e
000003c0: eaef b4be a503 533e 7c80 f5be 8199 30be
000003d0: 4a92 ddbe 41f1 82be 3f63 143e aa4d 53be
000003e0: 0002 31be 4dad a6be f54b ab3e 61fa c6be
000003f0: 1794 b43e 7ebb dfbd 6577 f8bd 94b4 51bd

edge_function.0.bias f4 [64]
-0.301689 0.5035024 -0.02146971 -0.16564105 -0.2536926 0.6063453 -0.3844108 -0.16056196
-0.03350003 0.37234586 0.3729199 0.6796196 -0.35823497 0.14490126 0.43469092 -0.38611594
-0.28814813 -0.44896758 0.11168567 0.37248826 0.30941278 -0.4593904 -0.609005 0.49681205
-0.33228692 0.41298825 0.121329166 0.3333352 0.4473954 0.021093214 -0.21080865 -0.2518306
-0.1349131 0.22131772 0.17704713 0.630794 0.19836955 0.33808956 -0.33290508 0.4806348
0.27070335 0.013814883 -0.11826712 -0.11388861 -0.57267016 0.10642732 -0.00016638116 -0.38717443
0.17564078 0.047738146 -0.048384327 0.26366258 -0.31738046 0.3505632 0.60067403 0.33987132
0.14437988 0.0003716669 -0.22287944 -0.22079904 -0.14971603 -0.03320604 -0.2324514 0.48076454
00000000: fb76 9abe 89e5 003f 3fe1 afbc cf9d 29be
00000010: ffe3 81be 7239 1b3f 7ed1 c4be 5b6a 24be
00000020: 5437 09bd 1ea4 be3e 5bef be3e 8dfb 2d3f
00000030: 936a b7be ff60 143e cf8f de3e fdb0 c5be
00000040: 2788 93be 14df e5be 75bb e43d c8b6 be3e
00000050: 5a6b 9e3e 3835 ebbe c0e7 1bbf 265e fe3e
00000060: 8321 aabe 3273 d33e 6d7b f83d e9aa aa3e
00000070: 0311 e53e adcb ac3c 39de 57be f1ef 80be
00000080: a926 0abe 1da1 623e d84b 353e b77b 213f
00000090: 6321 4b3e 131a ad3e 8972 aabe c415 f63e
000000a0: a199 8a3e d257 623c 0836 f2bd 6e3e e9bd
000000b0: 839a 12bf 91f6 d93d 9a76 2eb9 ba3b c6be
000000c0: 2ddb 333e 1389 433d a52e 46bd c8fe 863e
000000d0: b17f a2be 057d b33e c6c5 193f 9d03 ae3e
000000e0: 52d8 133e 49dc c239 823a 64be 2519 62be
000000f0: 294f 19be 0e03 08bd bd07 6ebe c526 f63e

edge_function.2.weight f4 [64, 64]
-0.009046337 0.076155104 -0.004162889 -0.066160426 -0.10136737 0.069456466 -0.039727326 0.07885677
0.024716668 -0.017162777 0.046822816 0.08194775 -0.04756771 0.08091958 0.025193213 0.059955016
0.01071777 0.08628641 -0.10037755 0.05639508 -0.113381185 0.0785783 0.018469943 -0.03998816
-0.022941269 0.021138746 -0.0109927645 -0.0047309273 0.07253575 -0.0075484393 0.072640665 -0.031463727
0.034177482 -0.027881294 -0.09590961 0.095711134 -0.12793897 0.020124862 -0.1422284 0.055130742
0.059666026 -0.11643652 -0.12074892 -0.093737416 -0.04435704 0.109906875 -0.04786441 -0.06741544
0.061251633 0.0777928 -0.026410764 -0.1259057 -0.18421814 -0.01834807 -0.023925357 0.06171736
0.02867455 -0.05399081 0.10471934 0.09002361 0.09685342 -0.08258925 -0.12526475 -0.051178135
0.042790584 0.070084 -0.10696183 -0.005891855 -0.028592395 0.036328983 0.049040195 -0.0811354
0.028729992 -0.18786173 0.046733726 -0.07706477 -0.02886 0.040070683 -0.082536735 0.016469374
0.09310896 -0.123721905 0.059103403 0.11656893 -0.09328395 0.073422015 0.024358729 0.10238369
0.15249853 -0.015453683 0.017247621 -0.15189628 -0.042721555 -0.074426554 -0.010494147 0.0029421686
0.08911872 -0.09929976 -0.06994845 0.10641401 -0.029475646 0.026600517 0.04979983 0.093001135
-0.11376343 -0.072797574 -0.048416726 0.123655684 -0.10229454 0.051808666 -0.01553478 0.05560861
-0.1066782 -0.002250152 0.08116945 0.050241884 -0.08971637 0.11938702 0.03758555 -0.011642041
-0.06599439 0.08536928 -0.054531664 0.0009012448 0.031355906 -0.117351905 0.025544766 0.025788784
-0.14143205 0.098865725 3.0551782e-05 0.041929856 -0.03373413 -0.03345514 -0.07878857 0.08869626
-0.06843457 -0.089325964 0.056788165 -0.008779703 0.08851082 -0.090999484 0.021887047 -0.008371636
-0.0146192685 0.0044174 0.110623375 0.056007266 -0.04294202 -0.033345833 -0.0049479166 -0.09798515
-0.05210638 0.06798277 -0.060861163 -0.0143425325 -0.076032884 0.04181266 0.040810365 -0.03870989
0.031433612 -0.058258567 -0.05687581 0.0116711315 -0.1118581 0.040613335 -0.07168324 -0.096488565
-0.041595332 -0.041720904 0.10661558 0.03649386 -0.036759373 -0.05372867 -0.0076157087 0.070441395
0.08865386 0.0812732 0.017894687 -0.046096362 -0.04651786 -0.027410204 0.10707054 0.028195094
0.11384422 -0.030994937 0.066942886 -0.06684008 -0.032956768 -0.05175387 0.01616864 0.08780593
-0.040380217 -0.06449173 -0.10717266 -0.02139562 -0.053652555 -0.05533353 -0.13428462 -0.082043916
0.016055187 0.02377622 -0.10645935 0.067727454 0.0660165 -0.13995542 0.0036584933 -0.029912978
0.017916162 -0.10853364 -0.05066894 0.058264196 -0.02311651 -0.11445791 -0.06543578 -0.11822173
-0.044243664 0.03606141 -0.0031224254 -0.01905944 -0.06389544 0.02423854 -0.1378807 0.065971985
0.056274142 -0.08749046 -0.12924905 -0.13629295 0.059079185 0.028383859 0.036891554 -0.15452552
0.018572142 -0.029452352 0.12976304 -0.08426008 0.10363111 -0.04209219 0.11484747 0.007727383
0.0893266 0.047356546 -0.010623237 -0.056672152 0.088753425 0.04501931 -0.120963335 -0.021000318
-0.1407598 -0.023980327 0.09782474 0.049127422 -0.06698526 0.12068204 -0.0898007 -0.11796114
00000000: 1637 14bc 35f7 9b3d d868 88bb 1e7f 87bd
00000010: b299 cfbd 313f 8e3d 1fb9 22bd a97f a13d
00000020: 9c7a ca3c f498 8cbc 48c9 3f3d 39d4 a73d
00000030: 5cd6 42bd 2ab9 a53d ff61 ce3c 6493 753d
00000040: 9699 2f3c eeb6 b03d bf92 cdbd 87fe 663d
00000050: 6534 e8bd a9ed a03d 474e 973c a0ca 23bd
00000060: 54ef bbbc 2a2b ad3c ff1a 34bc e505 9bbb
00000070: a08d 943d e658 f7bb a1c4 943d 1ce0 00bd
00000080: b0fd 0b3d 5067 e4bc 426c c4bd 3304 c43d
00000090: 6f02 03be e5dc a43c 52a4 11be c6d0 613d
000000a0: 5d64 743d 4576 eebd 364b f7bd 67f9 bfbd
000000b0: baaf 35bd db16 e13d 790d 44bd 1b11 8abd
000000c0: fee2 7a3d d551 9f3d 635b d8bc 6ced 00be
000000d0: aea3 3cbe b14e 96bc 1cff c3bc 58cb 7c3d
000000e0: e4e6 ea3c 7825 5dbd 1877 d63d 4c5e b83d
000000f0: 165b c63d 8d24 a9bd 6745 00be 2aa0 51bd
00000100: 2e45 2f3d 3388 8f3d ce0e dbbd 7610 c1bb
00000110: 993a eabc b3cd 143d 5fde 483d 512a a6bd
00000120: 295b eb3c d35e 40be dd6b 3f3d 22d4 9dbd
00000130: cf6b ecbc 2821 243d 0509 a9bd c8ea 863c
00000140: e9af be3d e961 fdbd 6916 723d b1bb ee3d
00000150: a80b bfbd 485e 963d f58b c73c 8aae d13d
00000160: 9328 1c3e 7231 7dbc e24a 8d3c b38a 1bbe
00000170: ccfc 2ebd f36c 98bd a5ef 2bbc 66d1 403b
00000180: e083 b63d ac5d cbbd 2241 8fbd 97ef d93d
00000190: e976 f1bc 54e9 d93c e8fa 4b3d 6177 be3d
000001a0: cdfc e8bd e516 95bd 9e50 46bd 313f fd3d
000001b0: cd7f d1bd 5335 543d 9785 7ebc dbc5 633d
000001c0: 1a7a dabd 4977 13bb 2b3c a63d 6fca 4d3d
000001d0: 37bd b7bd 2f81 f43d 4ef3 193d 42be 3ebc
000001e0: 1128 87bd 17d6 ae3d 985c 5fbd 8441 6c3a
000001f0: 0d6f 003d 3256 f0bd 4243 d13c 0043 d33c
00000200: 90d3 10be 1d7a ca3d ba24 0038 a4be 2b3d
00000210: cd2c 0abd 4208 09bd e75b a1bd 62a6 b53d
00000220: 6d27 8cbd 88f0 b6bd b59a 683d bed8 0fbc
00000230: 2945 b53d f05d babd 774c b33c 3029 09bc
00000240: a885 6fbc d6bf 903b 828e e23d e067 653d
00000250: f9e3 2fbd a495 08bd 2222 a2bb 70ac c8bd
00000260: 806d 55bd 8d3a 8b3d 8e49 79bd f1fc 6abc
00000270: 21b7 9bbd c043 2b3d c528 273d 438e 1ebd
00000280: 88c0 003d 89a0 6ebd 9cf6 68bd 4638 3f3c
00000290: dc15 e5bd 2b5a 263d aace 92bd cc9b c5bd
000002a0: de5f 2abd 8ae3 2abd 4559 da3d 967a 153d
000002b0: ff90 16bd 9812 5cbd 328d f9bb 9443 903d
000002c0: 2890 b53d 9072 a63d e197 923c 8acf 3cbd
000002d0: 8389 3ebd 5d8b e0bc cd47 db3d 66f9 e63c
000002e0: 2927 e93d 18e9 fdbc 5a19 893d 74e3 88bd
000002f0: adfd 06bd defb 53bd 1974 843c 98d3 b33d
00000300: ba65 25bd 3d14 84bd 577d dbbd de45 afbc
00000310: c8c2 5bbd 69a5 62bd e881 09be a406 a8bd
00000320: 2b86 833c 59c6 c23c 5c07 dabd b1b4 8a3d
00000330: a933 873d 7950 0fbe 55c3 6f3b 100c f5bc
00000340: eac4 923c e346 debd 3c8a 4fbd 70a6 6e3d
00000350: d65e bdbc e968 eabd 3203 86bd 3c1e f2bd
00000360: d838 35bd 21b5 133d 9ba1 4cbb 8b22 9cbc
00000370: 9ddb 82bd e78f c63c 9930 0dbe 521c 873d
00000380: b77f 663d 332e b3bd dd59 04be 6190 0bbe
00000390: 04fd 713d 4485 e83c 991b 173d f03b 1ebe
000003a0: 9b24 983c 0f46 f1bc 9ae0 043e 8c90 acbd
000003b0: 8c3c d43d dc68 2cbd 2635 eb3d fd35 fd3b
000003c0: ddf0 b63d f0f8 413d 160d 2ebc 0f21 68bd
000003d0: 5bc4 b53d 2b66 383d a0bb f7bd dc08 acbc
000003e0: 5623 10be 6472 c4bc 5658 c83d d639 493d
000003f0: 912f 89bd 2528 f73d 6ee9 b7bd 9c95 f1bd

edge_function.2.bias f4 [64]
0.034556963 0.042931233 0.060320545 -0.1651301 -0.11624253 0.051739715 0.07584338 0.24794927
0.05925308 0.12013601 0.189277 0.08626822 0.090688296 -0.060791165 0.005711201 0.24159446
-0.09433901 0.19409661 0.12876391 0.030523924 0.24421363 0.046518162 0.1285039 0.22181155
-0.096482955 0.08773089 -0.0514507 0.22216973 0.028721236 0.0985939 -0.12576944 0.13821892
-0.06318864 0.05805996 0.13144206 0.11175496 -0.036394518 -0.09406772 0.0004979596 -0.06812397
0.15814765 0.10036462 -0.003550324 0.036080793 -0.035842594 0.071916305 -0.07305839 0.2524642
-0.0055146483 -0.09987476 0.27721992 -0.030899111 -0.042188287 0.19959347 0.24449255 0.12147057
-0.04701578 0.29327455 0.1490176 -0.047703087 -0.11095667 -0.08866091 0.07829815 -0.17639646
00000000: 9a8b 0d3d a9d8 2f3d ad12 773d dd17 29be
00000010: 9010 eebd 06ed 533d c653 9b3d 6ae6 7d3e
00000020: 5cb3 723d de09 f63d d4d1 413e 64ad b03d
00000030: c9ba b93d 2800 79bd 0725 bb3b 8a64 773e
00000040: d034 c1bd 43c1 463e b0da 033e 4f0d fa3c
00000050: 2313 7a3e d489 3e3d 8796 033e 9122 633e
00000060: db98 c5bd 41ac b33d f8bd 52bd 7680 633e
00000070: cc48 eb3c 99eb c93d b4c9 00be 4389 0d3e
00000080: 0c69 81bd 48d0 6d3d bf98 063e c9df e43d
00000090: 6b12 15bd 94a6 c0bd 8189 023a 9484 8bbd
000000a0: 75f1 213e f78b cd3d 8dac 68bb 74c9 133d
000000b0: afcf 12bd db48 933d a39f 95bd fd42 813e
000000c0: 39b4 b4bb 238b ccbd c5ef 8d3e 2220 fdbc
000000d0: a0cd 2cbd 3b62 4c3e 415c 7a3e 90c5 f83d
000000e0: 9e93 40bd 1528 963e 1298 183e 5064 43bd
000000f0: 403d e3bd da93 b5bd c85a a03d 46a1 34be

edge_function.4.weight f4 [64, 64]
-0.049032863 0.010566118 0.11107109 0.034032002 0.06278741 -0.027409036 -0.045892276 -0.030073417
0.018582467 0.00218842 0.00018333863 0.12299158 -0.0954024 0.062664896 0.108780466 -0.08439077
0.08681691 0.08447094 -0.024085863 0.041463554 0.07584062 0.12266976 -0.13671279 0.06803903
0.023075059 0.03385519 -0.056518555 0.119594455 -0.073101856 0.13023098 -0.104784705 -0.0009259249
0.042445026 0.118450895 0.09332034 -0.09937402 0.047753762 -0.011409812 -0.11716989 -0.14346217
-0.02484323 0.021413345 0.089826666 0.002690205 0.08196205 -0.091115385 0.0044137635 -0.043857463
0.04277703 -0.10742251 0.03430372 -0.046294056 -0.06992595 0.01726851 0.073531374 -0.01656093
-0.08676068 0.011538671 0.083427 -0.026856737 0.077257514 -0.028891489 -0.026280897 -0.11831737
0.083914846 0.04135477 0.006404192 0.038887925 -0.007293626 0.023201242 -0.022127552 -0.016316384
0.13883878 -0.09510645 -0.045374174 -0.07941148 0.010513511 0.10209039 0.13373327 0.01756535
-0.0783156 0.108611554 -0.10059468 0.030717468 -0.09944312 0.029530007 0.08935201 0.06568564
-0.044633247 0.016336558 0.103135385 0.12303806 0.035807908 0.08615797 0.041792266 0.048822306
0.1036645 0.03259241 -0.086512275 0.055293616 0.06491434 0.0903116 0.029064683 0.07128643
-0.102761745 -0.02982319 -0.12130458 -0.14912611 -0.016074793 -0.11920691 -0.06201971 0.103621535
0.02267315 0.06507895 0.13426137 0.06972929 -0.0052954257 0.020978523 0.04030858 -0.057892315
-0.07767846 -0.10866997 0.022914037 0.0946677 0.08434729 -0.06761564 -0.09055016 -0.010901027
-0.1559858 -0.031303957 0.04617008 0.08414211 0.06795926 -0.16402668 0.064167246 -0.035378847
-0.020012613 -0.0879796 -0.059232913 -0.08000749 -0.1452026 0.033431754 0.08641486 0.012411977
0.0065972656 -0.060772035 -0.07277831 -0.13064781 0.012795503 0.0014496576 -0.049735326 0.014211203
-0.093030974 -0.09209621 -0.08084572 -0.033538017 0.0067340136 -0.088476025 -0.09889287 -0.07836274
-0.08916451 0.0011768012 -0.014184882 0.059352502 -0.14553715 -0.06383092 -0.089105524 -0.14734842
0.059423197 -0.16155764 -0.093893446 -0.09134183 0.050746758 0.0076889023 -0.060163166 -0.014185304
-0.15230426 0.07734934 -0.023697445 -0.035871543 -0.08281224 0.052085534 -0.17916153 -0.15259448
-0.14577545 -0.004129029 0.043110106 -0.0177515 0.080357045 0.080348164 0.03355196 -0.0024464012
0.042527944 0.028569698 0.014685275 -0.026058525 -0.13016635 -0.007019944 -0.019371554 0.037473608
-0.09778836 -0.006658492 -0.03630369 -0.025179014 -0.0872167 -0.10115142 -0.0011724681 -0.0026306463
-0.09949553 0.09112063 -0.021945886 -0.15197814 -0.06305313 -0.072748646 -0.018613402 -0.043346837
0.091183424 0.050082587 -0.045176208 -0.05499257 -0.00871788 -0.05908303 -0.08417134 -0.13973439
0.10169168 -0.14955151 -0.12253878 -0.008447142 -0.09205022 0.015322199 -0.07630654 -0.042189997
-0.094956204 -0.11177541 -0.066755876 -0.09117303 0.046363734 0.02740576 0.0057631414 0.014189497
-0.048530683 0.04705591 0.00982821 -0.06843467 -0.09491332 0.0952211 -0.07019825 -0.14763327
-0.03876266 -0.014884189 -0.011666522 -0.029568443 0.00059972703 -0.096895754 -0.08167386 0.0907021
00000000: afd6 48bd 831d 2d3c 3d79 e33d 2465 0b3d
00000010: b096 803d ea88 e0bc 8af9 3bbd 875c f6bc
00000020: 423a 983c 986b 0f3b 973e 4039 02e3 fb3d
00000030: 5562 c3bd 7456 803d 4bc8 de3d 11d5 acbd
00000040: 10cd b13d 1aff ac3d b74f c5bc b0d5 293d
00000050: 5452 9b3d 483a fb3d 70fe 0bbe 0c58 8b3d
00000060: e807 bd3c bdab 0a3d 0080 67bd f0ed f43d
00000070: 6db6 95bd 455b 053e 5d99 d6bd c5b9 72ba
00000080: d6da 2d3d 6296 f23d bc1e bf3d 9b84 cbbd
00000090: 7399 433d 38f0 3abc c4f6 efbd bfe7 12be
000000a0: 0884 cbbc 0a6b af3c 0bf7 b73d 264e 303b
000000b0: b8db a73d b49a babd 55a1 903b e2a3 33bd
000000c0: f836 2f3d 5500 dcbd 0f82 0c3d d69e 3dbd
000000d0: 5635 8fbd b176 8d3c 9e97 963d caaa 87bc
000000e0: 95af b1bd b20c 3d3c c6db aa3d a902 dcbc
000000f0: 3039 9e3d d8ad ecbc 094b d7bc 6150 f2bd
00000100: 8cdb ab3d 9f63 293d 42da d13b f248 1f3d
00000110: 5fff eebb 8810 be3c d744 b5bc f0a9 85bc
00000120: c12b 0e3e 2cc7 c2bd 45da 39bd 7ca2 a2bd
00000130: dc40 2c3c c414 d13d 60f1 083e 35e5 8f3c
00000140: ee63 a0bd bc6f de3d 9504 cebd 33a3 fb3c
00000150: d6a8 cbbd eae8 f13c 30fe b63d 3186 863d
00000160: 5ad1 36bd 3fd4 853c a538 d33d 61fb fb3d
00000170: 50ab 123d 9773 b03d 5e2e 2b3d e6f9 473d
00000180: 0e4e d43d 9e7f 053d 592d b1bd 8f7b 623d
00000190: cff1 843d 4af5 b83d 0f19 ee3c 9ffe 913d
000001a0: c074 d2bd c34f f4bc 896e f8bd 84b4 18be
000001b0: 49af 83bc c122 f4bd 6108 7ebd 8737 d43d
000001c0: 0bbd b93c 1d48 853d d07b 093e 3bce 8e3d
000001d0: 4085 adbb 27db ab3c 9c1a 253d 7e20 6dbd
000001e0: e215 9fbd 5c8e debd 38b6 bb3c 24e1 c13d
000001f0: 46be ac3d 127a 8abd 5d72 b9bd 399a 32bc
00000200: beba 1fbe 9438 00bd d61c 3d3d b352 ac3d
00000210: 392e 8b3d 9cf6 27be 1e6a 833d 69e9 10bd
00000220: 7ef1 a3bc a62e b4bd 369e 72bd f8da a3bd
00000230: feaf 14be bcef 083d 46fa b03d 9b5b 4b3c
00000240: e02d d83b 19ec 78bd cb0c 95bd 8ac8 05be
00000250: 3ba4 513c 7002 be3a 45b7 4bbd 1bd6 683c
00000260: 0687 bebd f09c bcbd 7192 a5bd 295f 09bd
00000270: 00a9 dc3b eb32 b5bd 5888 cabd a57c a0bd
00000280: e29b b6bd e53e 9a3a b567 68bc 9c1b 733d
00000290: b107 15be c9b9 82bd f57c b6bd 81e2 16be
000002a0: bd65 733d 5e6f 25be 354b c0bd 6d11 bbbd
000002b0: d5db 4f3d 30f3 fb3b a76d 76bd 7a69 68bc
000002c0: a6f5 1bbe 5569 9e3d 2521 c2bc 0aee 12bd
000002d0: 7799 a9bd a457 553d 1f76 37be ba41 1cbe
000002e0: 2946 15be ce4c 87bb 3994 303d 986b 91bc
000002f0: 3c92 a43d 948d a43d c86d 093d cd53 20bb
00000300: c831 2e3d 000b ea3c 829a 703c b078 d5bc
00000310: 544a 05be 8f07 e6bb 18b1 9ebc ed7d 193d
00000320: 4445 c8bd 7b2f dabb 2eb3 14bd 3844 cebc
00000330: ab9e b2bd 7a28 cfbd 80ad 99ba ec66 2cbb
00000340: 50c4 cbbd 749d ba3d dcc7 b3bc 28a0 1bbe
00000350: 0022 81bd 3efd 94bd 227b 98bc 748c 31bd
00000360: 60be ba3d 6623 4d3d b00a 39bd e43f 61bd
00000370: 70d5 0ebc 0c01 72bd 0662 acbd 8816 0fbe
00000380: ba43 d03d 0824 19be 9df5 fabd e265 0abc
00000390: d384 bcbd f609 7b3c 9a46 9cbd 6bcf 2cbd
000003a0: 6678 c2bd 82ea e4bd 4eb7 88bd edb8 babd
000003b0: e6e7 3d3d 0b82 e03c bcd8 bc3b 107b 683c
000003c0: 1cc8 46bd b3bd 403d 8006 213c 7a27 8cbd
000003d0: ea61 c2bd 4803 c33d 1ac4 8fbd 2d2d 17be
000003e0: 98c5 1ebd d0dc 73bc f124 3fbc 8539 f2bc
000003f0: 0037 1d3a 4871 c6bd a044 a7bd 06c2 b93d

edge_function.4.bias f4 [64]
0.18224536 0.08214759 -0.045719646 -0.12984858 -0.18206169 0.0064541437 -0.06569456 -0.007161877
0.13113035 -0.13453318 -0.13823937 -0.101305254 0.07324126 0.025345678 -0.1278024 -0.035865504
-0.027208924 0.24395227 0.13641068 -0.15999958 -0.13566737 0.21024555 0.23123367 0.037367426
-0.103743255 0.064345755 -0.030540505 0.19329053 0.27063373 -0.039828014 -0.03103154 -0.047584236
-0.018534914 -0.09582109 -0.059653386 0.23857783 -0.11433284 0.014723751 0.0839346 0.23657444
0.014773384 0.036692813 -0.081701644 0.17915574 -0.14857861 0.085781224 0.08523239 0.056522477
0.054829437 0.18968344 -0.0778652 0.020198802 0.056616865 -0.099173404 0.13572514 0.14227141
0.20561166 0.14173219 0.07637617 0.22710484 0.06299524 0.18958597 0.08985084 -0.05120091
00000000: 879e 3a3e ff3c a83d 8644 3bbd 07f7 04be
00000010: 616e 3abe 487d d33b df8a 86bd 2eae eabb
00000020: 0947 063e 11c3 09be 9f8e 0dbe 2179 cfbd
00000030: 84ff 953d bda1 cf3c a2de 02be b5e7 12bd
00000040: 40e5 debc a0ce 793e 3eaf 0b3e eed6 23be
00000050: 63ec 0abe 9c4a 573e 85c8 6c3e 960e 193d
00000060: 5877 d4bd b5c7 833d 1530 fabc f4ed 453e
00000070: 8190 8a3e b322 23bd db35 febc b0e7 42bd
00000080: 88d6 97bc d93d c4bd 1c57 74bd bf4d 743e
00000090: 5627 eabd e33b 713c e7e5 ab3d 9240 723e
000000a0: 100c 723c 344b 163d 3153 a7bd 9a74 373e
000000b0: fe24 18be 11ae af3d 528e ae3d 1d84 673d
000000c0: d594 603d 603c 423e ca77 9fbd f577 a53c
000000d0: 16e7 673d 6d1b cbbd 88fb 0a3e 99af 113e
000000e0: dd8b 523e 3e22 113e 1c6b 9c3d 2c8e 683e
000000f0: a603 813d d322 423e b803 b83d 0cb8 51bd
