Projects/GuoxiangGrayson_T_A study of multi-fidelity graph neural networks/Model_save/Quarter2D/Rank=193-GNN-nB-64-Lr-0.005/model.pth (torch, 114781 bytes, 24 tensors)

node_function_neighbor.0.weight f4 [64, 2]
0	0x3e70d5eb	0.23519103
1	0xbb8fb4ee	-0.004385582
2	0x3dcd78e5	0.100328244
3	0x3ea2d899	0.31805876
4	0x3ef3df6c	0.47631395
5	0x3ef6e8c6	0.48224467
6	0x3eb4b522	0.35294443
7	0x3bedc5f4	0.007256264
8	0xbab3cf3e	-0.0013718379
9	0xbf0e4052	-0.55566895
10	0x3e281737	0.16415106
11	0x3f16903e	0.58813846
12	0xbeb56eff	-0.35436246
13	0xbde3c21e	-0.11121009
14	0xbf1edb33	-0.6205322
15	0x3e20e6c9	0.15713038
16	0xbea3a983	-0.31965265
17	0xbef0ae5c	-0.47008026
18	0xbec2c36d	-0.38039723
19	0x3ebec666	0.3726074
20	0x3f208399	0.627008
21	0xbf288ff3	-0.6584465
22	0xbdd4ff9a	-0.10400315
23	0x3eecdbba	0.46261388
24	0x3f220c00	0.6329956
25	0xbefa84e7	-0.4892952
26	0x3c7bc07c	0.015365716
27	0x3e999b13	0.30001125
28	0xbdb5a4cb	-0.088693224
29	0x3ee2b83a	0.4428118
30	0xbe4ed2e4	-0.20197636
31	0xbf18e48d	-0.5972374
32	0x3ec28e88	0.37999368
33	0xbee03e05	-0.43797317
34	0xbf17b335	-0.59257823
35	0xbf1fb6c7	-0.6238827
36	0x3d4c5789	0.049888168
37	0x3efd7490	0.49502993
38	0x3ed9c4f9	0.4253309
39	0x3ec8abf5	0.39193693
40	0x3f32fd3f	0.6991767
41	0xbf2a069d	-0.6641634
42	0xbd1428d0	-0.036171734
43	0xbe2a80bd	-0.16650672
44	0xbdda4760	-0.10658145
45	0xbee0b3cf	-0.43887183
46	0xbc7fc8d6	-0.015611848
47	0x3f00153f	0.5003242
48	0xbf29fb92	-0.6639949
49	0xbf20698f	-0.6266107
50	0xbc96f43b	-0.018427005
51	0xbeb15bba	-0.34640294
52	0xbf063651	-0.5242663
53	0xbe951162	-0.29114825
54	0xbf2848ad	-0.65735894
55	0x3f30784b	0.6893355
56	0xbf1fad7d	-0.623741
57	0x3c0b8b62	0.008517118
58	0x3e33054e	0.17482492
59	0x3eccaf5f	0.39977548
60	0x3b6c432f	0.0036050787
61	0xbe93bb4c	-0.28853834
62	0x3f1061da	0.5639931
63	0x3eaf7999	0.3427246
64	0xbe0b8d0b	-0.13628022
65	0x3e4bff8f	0.19921707
66	0x3e934194	0.2876097
67	0xbed51491	-0.41617253
68	0xbd5baf3e	-0.05363392
69	0x3d6cd63c	0.057821497
70	0x3f2fb161	0.68630034
71	0x3df5dce0	0.12005019
72	0xbe5195ee	-0.2046735
73	0xbe0825dd	-0.13295694
74	0x3f07ba15	0.53018314
75	0x3dbe87e5	0.093032636
76	0x3f2d7642	0.6775857
77	0xbf00b221	-0.50271803
78	0xbe240dc5	-0.16020878
79	0x3ee5ef64	0.44909203
80	0x3ee87301	0.4540024
81	0x3eafa77a	0.34307462
82	0x3ead5d71	0.33860353
83	0x3d1f72c1	0.038927797
84	0xbde5c77d	-0.1121969
85	0xbedf4ee1	-0.43614867
86	0x3e028602	0.12746432
87	0xbf254c3d	-0.64569455
88	0xbeed1392	-0.46303993
89	0xbeb56419	-0.3542793
90	0xbf0183a3	-0.50591487
91	0xbd5bd413	-0.053669047
92	0xbd7582d3	-0.059939217
93	0x3e63f954	0.2226308
94	0x3efb109e	0.49036115
95	0xbf15cf64	-0.5851958
96	0x3eaba233	0.33522186
97	0xbf0a0096	-0.53907144
98	0x3e565dd5	0.20934232
99	0xbefa46c6	-0.4888212
100	0xbe8ad2ed	-0.2711405
101	0xbf00be62	-0.502905
102	0xbe08a084	-0.13342482
103	0x3f2b9ddb	0.67037743
104	0x3f3b2b8c	0.7311332
105	0xbf23c6b4	-0.6397507
106	0xbd7ae6f4	-0.06125541
107	0xbeedd38d	-0.46450463
108	0x3f1050f9	0.56373554
109	0xbef72e07	-0.48277304
110	0x3f302dbd	0.6881979
111	0xbf18c9db	-0.59683007
112	0xbe8266ce	-0.2546906
113	0xbd9ea548	-0.07746369
114	0xbd4a6982	-0.049417026
115	0x3f0df0c3	0.554455
116	0xbe43dff1	-0.19128396
117	0x3e4031c0	0.18768978
118	0x3e78d86f	0.24301313
119	0x3cf272e7	0.029595805
120	0xbdcc7ee2	-0.099851385
121	0x3f1b63a8	0.6069894
122	0x3f23221e	0.63723934
123	0x3f0c4a85	0.5480121
124	0x3eaf0c33	0.34188995
125	0xbebd129c	-0.3692826
126	0x3f057809	0.52136284
127	0x3ee6e627	0.45097467

node_function_neighbor.0.bias f4 [64]
0	0xbf054f0f	-0.5207376
1	0xbe96bc9a	-0.29440767
2	0xbef0a578	-0.47001243
3	0x3f1e3d40	0.6181221
4	0xbd2eca59	-0.042673443
5	0xbf060d91	-0.5236445
6	0x3f0328dd	0.5123423
7	0xbefafd4f	-0.49021384
8	0xbe5054ed	-0.20344897
9	0x3e80d842	0.25164992
10	0xbe8ff8e3	-0.28119573
11	0x3e8ec26a	0.278827
12	0x3e8cbdbe	0.27488512
13	0x3e817f7e	0.2529258
14	0xbed668e0	-0.41876888
15	0xbea5963e	-0.32341188
16	0xbeeb86d7	-0.46001312
17	0x3decc392	0.115607396
18	0xbd8e0c55	-0.06935946
19	0x3e6cfaa6	0.2314249
20	0x3f0090e5	0.5022109
21	0x3ee1ca42	0.44099623
22	0x3f228861	0.6348935
23	0x3f27e344	0.65581155
24	0xbea4a07b	-0.32153687
25	0xbddd0e26	-0.10793714
26	0x3f08fb4f	0.53508466
27	0xbf1ab31c	-0.6042955
28	0x3f068953	0.5255329
29	0xbf0eac5d	-0.55731755
30	0xbdc6e436	-0.097114965
31	0x3ec0a629	0.3762677
32	0xbf01c3d8	-0.5068946
33	0x3f1cc69d	0.6124056
34	0x3f28d92e	0.6595639
35	0xbec6fba3	-0.3886386
36	0xbed4b4f9	-0.4154432
37	0xbf3d6dcf	-0.7399568
38	0x3f13e799	0.57775265
39	0xbdb54ac6	-0.088521525
40	0xbf20f928	-0.6288018
41	0x3ec3a79c	0.38213813
42	0xbe4475d9	-0.1918558
43	0xbec1dbef	-0.3786311
44	0x3f3396e6	0.7015213
45	0xbe2f5d75	-0.17125495
46	0xbead38b6	-0.3383233
47	0xbe977264	-0.2957946
48	0x3f27482b	0.65344495
49	0x3e726176	0.23669991
50	0xbe8d3dab	-0.2758611
51	0xbd199191	-0.03749234
52	0xbe0f18ec	-0.1397435
53	0x3f243887	0.64148754
54	0xbe7f0707	-0.24905024
55	0x3f0e6826	0.5562767
56	0xbf2b504f	-0.66919416
57	0x3f0c563b	0.5481908
58	0x3e2029c9	0.1564094
59	0x3f366e2f	0.71261877
60	0x3f369954	0.7132771
61	0x3d09eb32	0.033671565
62	0x3f026f4e	0.5095109
63	0xbef06702	-0.4695359

node_function_neighbor.2.weight f4 [64, 64]
0	0x3db3ff19	0.087888904
1	0xbdc06abf	-0.0939536
2	0xbd8a7d11	-0.06762136
3	0xbd9602f0	-0.07324779
4	0xbc9e17d9	-0.01929848
5	0x3d850499	0.064950176
6	0x3d350da9	0.04420248
7	0xbd48ff58	-0.04907164
8	0xbd1bd7a0	-0.038047433
9	0x3d3a531b	0.04548941
10	0x3c6bb08d	0.014385355
11	0xbccf7dd7	-0.02532856
12	0xbd27de73	-0.04098363
13	0x3b5e04f0	0.0033877455
14	0x3cee0836	0.02905665
15	0xbd006862	-0.031349547
16	0x3db4ee4f	0.08834516
17	0x3dbdbf32	0.09264983
18	0x3dc74c4f	0.097313516
19	0x3d94ead2	0.07271351
20	0xbcb5949b	-0.022165587
21	0xbc10504b	-0.008808206
22	0x3a6dfdda	0.00090786594
23	0xbcc72d60	-0.024313629
24	0xbcdd7a58	-0.027035877
25	0x3ce98383	0.028505092
26	0xbdac7d99	-0.08422393
27	0xbd8b40a4	-0.067994386
28	0x3dfbfafd	0.123037316
29	0x3dc9005d	0.098145224
30	0x3e039f07	0.12853633
31	0xbc246fb8	-0.010036401
32	0xbd7bc65e	-0.061468475
33	0x3d3a0e4d	0.045423795
34	0x3c00e04b	0.007865976
35	0xbdb74349	-0.089483805
36	0x3c4b13be	0.012394844
37	0x3dd2c3c0	0.102912426
38	0x3cabcbb1	0.020971151
39	0x3de5a515	0.112131275
40	0x3cfaf973	0.030636525
41	0x3cc6aef3	0.024253344
42	0x3c658a49	0.0140100205
43	0x3e02dbdd	0.12779184
44	0x3d540ffe	0.051773064
45	0xbd75d3bc	-0.06001638
46	0x3dd8a6f1	0.105787165
47	0x3dabddd2	0.08391918
48	0x3e11a266	0.14222106
49	0x3d8f9da1	0.07012487
50	0x3d10cc6d	0.035351206
51	0x3b8adfbc	0.004238097
52	0x3b740206	0.0037232651
53	0x3d80a567	0.06281548
54	0xbd928235	-0.07153741
55	0x3e0c94ed	0.13728686
56	0xbdabcfcc	-0.083892435
57	0x3df4d185	0.11954025
58	0xbc423c78	-0.011855237
59	0xbca539e2	-0.020169202
60	0xbd6f7564	-0.05846156
61	0x3c374fa9	0.011188426
62	0xbd363f68	-0.044494063
63	0xbd3d6067	-0.046234515
64	0xbc376b08	-0.011194952
65	0xbd30faf1	-0.043208066
66	0xbc918329	-0.017762737
67	0xbcee4125	-0.029083798
68	0x3d2a4f8c	0.041579768
69	0x3d887fff	0.06665038
70	0xbdb342e9	-0.087529965
71	0xbd430703	-0.04761411
72	0xbcd2d0c4	-0.025734313
73	0xbdb6695f	-0.08906817
74	0xbd44b42d	-0.04802339
75	0xbd7271a2	-0.0591904
76	0x3e103af1	0.14084984
77	0xbda5d232	-0.08096732
78	0x3db91cfa	0.0903873
79	0x3cca4a20	0.024693549
80	0x3d9c6e48	0.07638222
81	0x3d5806e5	0.05274095
82	0xbd9c4dd3	-0.07632031
83	0x3cafcddf	0.021460472
84	0xbd06aafb	-0.032877903
85	0xbd0954a6	-0.033527993
86	0xbc702ae8	-0.014658667
87	0x3d4803f1	0.048831884
88	0x3d213b3a	0.039363123
89	0xbdf18ba4	-0.117942125
90	0x3c5ed9e6	0.013601756
91	0xbe49b13c	-0.19696516
92	0xbdc1ed1b	-0.094690524
93	0xbd6e9783	-0.05824996
94	0xbdda646b	-0.106636845
95	0xbc0c0458	-0.0085459575
96	0xbee5e34a	-0.4489997
97	0x3df16ac8	0.11787945
98	0x3e3327be	0.17495629
99	0x3b5a6998	0.00333271
100	0xbdfa78e9	-0.12230093
101	0x3d8eeefc	0.069791764
102	0xbd6ca2ba	-0.057772376
103	0xbda7b31c	-0.08188459
104	0x3b82bd40	0.0039898455
105	0xbd948552	-0.07251991
106	0x3d5376c8	0.05162695
107	0xbd4ac6ff	-0.049506184
108	0x3cfd470b	0.030917665
109	0x3d6da027	0.05801406
110	0xbd328b62	-0.043589957
111	0x3cda60f0	0.026657552
112	0xbda20b12	-0.07912268
113	0xbd5e6ed0	-0.054304898
114	0xbd0225a0	-0.031774163
115	0xbd86cee2	-0.065824285
116	0x3dc44337	0.09583133
117	0xbdddf81e	-0.1083834
118	0x3d9127e5	0.070876874
119	0x3dfc1611	0.12308896
120	0xbe27a6b0	-0.1637218
121	0x3e1764de	0.14784572
122	0xbe042021	-0.12902881
123	0x3e1e625e	0.15467212
124	0xbd400d64	-0.04688777
125	0x3e027b50	0.12742352
126	0x3c922705	0.017840872
127	0xbd10f39b	-0.03538857
128	0xbdccc2cb	-0.09998091
129	0x3dd09f74	0.10186663
130	0xba9edf96	-0.0012121077
131	0x3c1fa1c8	0.0097431615
132	0x3dacd96c	0.084399074
133	0x3cfed2d0	0.031106383
134	0xbcdb5abb	-0.026776662
135	0x3d9c0475	0.076180376
136	0xbcecea02	-0.028920177
137	0xbd77f14d	-0.060532857
138	0x3d8dea53	0.069294594
139	0x3d2847af	0.041083988
140	0x3d0f17dc	0.034934863
141	0xbc70e690	-0.014703408
142	0x3da60f52	0.08108391
143	0x3d7b2bf3	0.06132121
144	0xbdebebc7	-0.1151958
145	0xbdf01117	-0.1172201
146	0x3d398294	0.045290545
147	0x3d57d211	0.05269057
148	0x3c6dda53	0.014517385
149	0x3df1ca17	0.11806124
150	0x3d018c72	0.03162808
151	0xbd6909bb	-0.056894045
152	0x3d230f56	0.039809547
153	0xbd772723	-0.060340058
154	0xbd227612	-0.039663382
155	0xbd842949	-0.06453187
156	0x3d8ff2fc	0.070287675
157	0x3d80fd2e	0.0629829
158	0xbda7175c	-0.08158752
159	0x3dcae40d	0.099067785
160	0xbd8be130	-0.068300605
161	0x3da04ea0	0.078274965
162	0x3d2c16e0	0.042014003
163	0x3d8c50a9	0.06851322
164	0x3c115879	0.008871191
165	0xbd0ac45a	-0.03387866
166	0x3cdb2cff	0.026754854
167	0xbcfbcac5	-0.030736336
168	0x3dc130a3	0.09433105
169	0xbde39b3f	-0.11113595
170	0x3d97e369	0.07416422
171	0x3dea339e	0.114356264
172	0x3dc58f7f	0.0964651
173	0xbd8c32ab	-0.06845602
174	0xbddebf3f	-0.10876321
175	0xbc13b140	-0.009014428
176	0xbd2109f5	-0.039316136
177	0x3d1bd1e3	0.03804196
178	0xbb90d275	-0.0044196197
179	0xbd855eee	-0.06512247
180	0xbd8b69b2	-0.06807269
181	0xbbdc9b1d	-0.006732358
182	0xbdc9742e	-0.09836613
183	0xbde3d1e1	-0.111240156
184	0x3d29c440	0.041446924
185	0xbd66cad0	-0.05634576
186	0x3d585158	0.05281195
187	0xbc40d5e8	-0.011769749
188	0x3c9244b5	0.017855028
189	0x3dcd2bfd	0.10018156
190	0xbcc80e29	-0.024420815
191	0xbd508f61	-0.050917987
192	0xbddd843a	-0.10816236
193	0x3c72af10	0.014812246
194	0x3d7afd0d	0.061276484
195	0x3d916f0a	0.07101257
196	0xbcac03a1	-0.020997824
197	0xbe11634b	-0.14198034
198	0x3dc164ec	0.094430774
199	0x3cd9cfb2	0.026588295
200	0x3d3021bf	0.043000933
201	0x3ddbbe4a	0.10729654
202	0xbe0daebc	-0.13836187
203	0x3d5cf589	0.053945098
204	0x3d8fde15	0.07024781
205	0x3c9635e4	0.018336244
206	0xbd559219	-0.052141283
207	0x3d9f0270	0.07764137
208	0xbde9ec34	-0.11422005
209	0xbda77129	-0.081758805
210	0xbe025ee0	-0.12731504
211	0xbd7d8db6	-0.061902724
212	0xbdb1c555	-0.08680216
213	0xbd915f7f	-0.070982926
214	0x3dc5febb	0.096677266
215	0xbdd63686	-0.10459618
216	0x3d629dfc	0.055326447
217	0xbdb899cd	-0.0901371
218	0x3da11a64	0.07866362
219	0xbdb93e5c	-0.09045097
220	0xbe09b19d	-0.1344666
221	0xbe2f3e16	-0.17113528
222	0x3d308433	0.043094825
223	0xbc1f87dd	-0.009736982
224	0x3ca01dd2	0.01954547
225	0xbd927023	-0.07150295
226	0xbd2132a5	-0.03935494
227	0x3db4ba9b	0.08824655
228	0x3d939fb9	0.07208199
229	0xbd8080d4	-0.06274572
230	0x3dd598ab	0.1042951
231	0xbdd5857a	-0.10425849
232	0x3d53775e	0.05162751
233	0xbd747bc7	-0.059688356
234	0xbcb0e5d7	-0.021593971
235	0xbd6d9ba7	-0.05800977
236	0x3db1337b	0.08652397
237	0xbd0ed9e3	-0.03487576
238	0x3d8b7464	0.06809309
239	0x3d8fc2d3	0.07019582
240	0x3da6c391	0.0814277
241	0x3dd25bca	0.102714136
242	0x3d940c7e	0.07228945
243	0xbdaf0346	-0.08545546
244	0x3cb528f8	0.022114262
245	0xbdff0bb0	-0.12453401
246	0x3dd54b3e	0.10414742
247	0x3def0891	0.11671556
248	0x3c583ab5	0.013197591
249	0xbdf633b5	-0.12021581
250	0x3dbe1364	0.09281042
251	0x3d2ea16a	0.042634405
252	0xbd8d324e	-0.068943605
253	0xbdbd85c0	-0.092540264
254	0xbdde5226	-0.10855512
255	0xbdab042e	-0.083504066

node_function_neighbor.2.bias f4 [64]
0	0x3dae2e26	0.08504896
1	0x3d3f50bd	0.046707857
2	0x3d921bae	0.07134186
3	0x3dccdd91	0.10003198
4	0xbdec20f9	-0.115297265
5	0x3e51972b	0.20467822
6	0x3c9c4500	0.01907587
7	0xbd72de2e	-0.05929392
8	0xbd957c0d	-0.072990514
9	0x3da7833b	0.08179327
10	0x3cc11e4d	0.023574019
11	0x3dab0a51	0.08351577
12	0xbdb97666	-0.09055786
13	0x3c1fd7a9	0.009756007
14	0xbc9410b8	-0.018074378
15	0x3cd3e83f	0.02586758
16	0xbcad4cb5	-0.02115474
17	0xbda955cc	-0.082683176
18	0x3d6fc23b	0.058534842
19	0xbd001b5c	-0.031276092
20	0x3d818991	0.06325067
21	0x3d9b18ac	0.07573065
22	0x3df25717	0.11833017
23	0x3d1d5799	0.038413618
24	0xbbe07a6a	-0.0068505304
25	0x3de56d3e	0.11202477
26	0xbceeadb9	-0.029135572
27	0xbda97a7c	-0.08275315
28	0xbbf63493	-0.0075135916
29	0x3d800d1c	0.062525004
30	0x3ddc672e	0.107618675
31	0x3d9b7ac1	0.07591773
32	0xbdc89e04	-0.09795764
33	0xbd2a2f17	-0.041548815
34	0xbc9609cc	-0.018315218
35	0xbd5aed9c	-0.05344926
36	0xbdee4ed3	-0.11636128
37	0xbde01488	-0.10941416
38	0xbd522c41	-0.051311735
39	0x3d430b00	0.047617912
40	0xbde399f1	-0.11113346
41	0x3dcafea9	0.09911854
42	0x3d23c6b4	0.03998442
43	0xbd71fffc	-0.059082016
44	0x3dfab1d1	0.12240947
45	0x3df11134	0.11770859
46	0x3d27159e	0.0407921
47	0x3dc65ca1	0.09685636
48	0x3cf09a0b	0.029370328
49	0xbde48ae6	-0.11159305
50	0x3d34c3a1	0.04413188
51	0xbd3216f0	-0.043478906
52	0x3b9d6056	0.004802744
53	0xbd0f75af	-0.03502434
54	0x3d1d6f5e	0.038436286
55	0xbceb4358	-0.028718635
56	0x3d64bc92	0.055843897
57	0x3cacf3bb	0.021112313
58	0x3e379c68	0.17930758
59	0x3d886d76	0.06661503
60	0x3ced469c	0.028964333
61	0xbddc5346	-0.10758071
62	0x3c2f76a8	0.010709442
63	0x3dcab734	0.098982245

node_function_neighbor.4.weight f4 [64, 64]
0	0x3abd87ca	0.0014460024
1	0xbda8e5a0	-0.082469225
2	0x3dae1035	0.08499185
3	0xbd1fbd49	-0.038998876
4	0xbd9922c8	-0.07477337
5	0x3db041ab	0.08606275
6	0xbdd7292d	-0.105059005
7	0xbc86f6e7	-0.016475154
8	0x3dd3ab22	0.10335375
9	0xb914e530	-0.00014199759
10	0x3d381375	0.04494043
11	0xbdf17273	-0.117894076
12	0x3df05a55	0.117359795
13	0x3ccd64f9	0.025072562
14	0xbd674328	-0.05646053
15	0x3db44659	0.0880248
16	0x3d954be8	0.072898686
17	0x3d08e510	0.033421576
18	0x3d81f0cb	0.06344756
19	0x3df28836	0.118423864
20	0x3da8763c	0.082256764
21	0x3ce28720	0.027652323
22	0xbdb21de6	-0.08697109
23	0x3da7cd97	0.0819351
24	0x3cdf6be9	0.027273135
25	0x3de0979a	0.10966416
26	0xbe16b164	-0.14716107
27	0x3d902fc7	0.07040363
28	0x3c89a9f8	0.01680468
29	0x3de38b4c	0.11110553
30	0xbd1d489a	-0.038399316
31	0xbde16761	-0.11006046
32	0xbd86578f	-0.06559669
33	0x3cb7029e	0.022340115
34	0xbe0508fe	-0.12991711
35	0x3c794314	0.015213747
36	0xbdada9f7	-0.08479684
37	0xbc9adf79	-0.018905388
38	0xbccff5f8	-0.025385842
39	0x3a060b2a	0.0005113358
40	0xbe0da806	-0.13833627
41	0xbdeaa39e	-0.11456989
42	0xbe07b144	-0.13251215
43	0xbc119f7b	-0.008888121
44	0xbdc807d4	-0.09767118
45	0xbda1ee20	-0.07906747
46	0xbd3a857e	-0.045537464
47	0xbd0bfe71	-0.0341782
48	0x3d2fefc5	0.04295327
49	0xbe14c4d5	-0.1452821
50	0xbd5f1d0d	-0.054471064
51	0x3d966ff7	0.07345574
52	0xbd74912a	-0.05970875
53	0xbdf9428e	-0.121708974
54	0xbdf9e3c8	-0.12201649
55	0x3d9269c0	0.071490765
56	0xb9b22413	-0.00033977683
57	0xbde47b42	-0.11156322
58	0x3ddd9787	0.10819917
59	0x3d5bf80d	0.053703357
60	0x3b26421b	0.0025368992
61	0xbdfccfb7	-0.12344306
62	0xbe0edea0	-0.13952112
63	0xbca11f0a	-0.01966812
64	0xbc9dee93	-0.0192788
65	0xbca0386e	-0.019558158
66	0xbd5e3046	-0.054245256
67	0x3da4192b	0.08012613
68	0x3d5e35a2	0.054250367
69	0x3c6a47aa	0.014299313
70	0x3e0281b7	0.12744795
71	0x3e0886cf	0.13332675
72	0xbcec6589	-0.02885701
73	0xbdbf1575	-0.093302645
74	0x3bbe6c54	0.0058112536
75	0x3ca6f8c9	0.020382302
76	0xbbf6d435	-0.0075326213
77	0x3e0239c3	0.12717347
78	0x3d85347c	0.06504151
79	0x3dba96e3	0.091108106
80	0x3c02360f	0.007947459
81	0x3dec5152	0.11538948
82	0x3bb81134	0.005617285
83	0xbd68a470	-0.056797445
84	0xbda3fe72	-0.08007516
85	0xbbb59bf1	-0.0055422713
86	0x3d8f8724	0.07008198
87	0xbd0a5aa3	-0.033777844
88	0xbd89e6e6	-0.067334935
89	0xbde99ba2	-0.11406638
90	0x3d907170	0.070528865
91	0x3e15d4c7	0.1463195
92	0x3cc25b92	0.023725305
93	0xbcf0e130	-0.029404253
94	0xbda4b9d4	-0.080432564
95	0xbcdaae2d	-0.026694382
96	0xbb7c788a	-0.0038523995
97	0xbca00fab	-0.019538721
98	0xbd0d04fe	-0.03442859
99	0x3d15ca56	0.036569916
100	0x3d308c4b	0.043102544
101	0xbdb3113a	-0.0874352
102	0xbd9da234	-0.076969534
103	0xbd92f059	-0.07174749
104	0xbd561512	-0.052266188
105	0xbd2f1471	-0.042744104
106	0x3e088812	0.13333157
107	0x3dc7eb4c	0.09761676
108	0x3dcb4c30	0.09926641
109	0x3cd769dc	0.026295595
110	0x3dac7339	0.084204145
111	0x3bb17e0a	0.0054166364
112	0xbbd7d15b	-0.0065862364
113	0xbdd2a110	-0.102846265
114	0xbd2767b2	-0.040870376
115	0x3ce6b885	0.028164158
116	0x3c84a76b	0.016193112
117	0xbd487993	-0.048944067
118	0xbdb8f12e	-0.090303764
119	0xbd6365fc	-0.05551718
120	0xbde13ad4	-0.10997549
121	0xbd8c5eb3	-0.06854
122	0x3e2db4a7	0.16963445
123	0xbc2b92d0	-0.010472015
124	0x3da825a3	0.08210304
125	0x3cb1e437	0.021715267
126	0x3d4e0eb7	0.050307002
127	0x3e02051b	0.1269726
128	0x3cc40e05	0.023932466
129	0x3c52153e	0.012822447
130	0x3d5dd78e	0.054160647
131	0x3dc5fdbe	0.09667538
132	0xbdd2e1c0	-0.10296965
133	0x3d3b73f6	0.045764886
134	0x3d55246b	0.052036684
135	0x3ccc9a7f	0.024976013
136	0x3e022136	0.12707981
137	0xbcfff2bf	-0.03124368
138	0xbd06d07e	-0.032913677
139	0xbceb8196	-0.028748315
140	0x3d5fac22	0.054607518
141	0x3d1d9851	0.03847534
142	0xbd715db4	-0.058927253
143	0x3e09a032	0.13440016
144	0xbdc9ecff	-0.098596565
145	0xbc17b2c0	-0.009258926
146	0x3db1bb9b	0.08678361
147	0x3cc48408	0.023988739
148	0xbcb50041	-0.022094848
149	0xbdd35e74	-0.1032075
150	0xbd2570e6	-0.04039087
151	0xbd8705e9	-0.06592924
152	0xbda2e1ea	-0.07953246
153	0x3d6dd52c	0.058064625
154	0xbdd09256	-0.10184161
155	0xbd82c97b	-0.063860856
156	0xbbf6477c	-0.007515846
157	0x3d8dcebe	0.069241986
158	0x3db7b8d5	0.08970801
159	0xbe0fe463	-0.14051966
160	0x3de8e5a4	0.113719255
161	0xbd33d375	-0.043902833
162	0xbdf6124e	-0.1201521
163	0xbc9d8a73	-0.019231057
164	0xbdd546c0	-0.10413885
165	0x3c5630dc	0.013073172
166	0xbc9890c8	-0.018623725
167	0x3d0a6782	0.03379012
168	0x3d7fb845	0.062431592
169	0x3d382bfb	0.044963818
170	0xbcaeec51	-0.021352919
171	0xbd69031c	-0.05688773
172	0xbe0f762e	-0.14009926
173	0xbbf38cfa	-0.007432577
174	0x3d3bb3f9	0.045825932
175	0xbc187da8	-0.009307303
176	0xbdd27006	-0.10275273
177	0xbb90e11b	-0.004421366
178	0x3bb1d34e	0.005426801
179	0xbe0a3268	-0.13495791
180	0xbb384704	-0.00281185
181	0xbd4ec036	-0.050476275
182	0xba9bd136	-0.0011887911
183	0x3d087388	0.033313304
184	0xbd8a23cd	-0.0674511
185	0x3c9185e9	0.017764049
186	0xbd1951f9	-0.03743169
187	0xbd5c1b95	-0.05373724
188	0x3d31153f	0.043233152
189	0x3bee68a1	0.0072756563
190	0x3d44f4af	0.04808491
191	0x3daac444	0.08338216
192	0x3d20303b	0.039108496
193	0xbd0026e0	-0.031287074
194	0x3c27c70f	0.01024033
195	0x3dc63df2	0.09679784
196	0x3d727cc5	0.05920102
197	0x3e043a75	0.12912925
198	0x3e0a11bf	0.13483332
199	0x3d857359	0.065161414
200	0x3def6923	0.11689975
201	0xbc89d9c4	-0.016827472
202	0x3e074a5b	0.13211958
203	0x3dc54b72	0.09633531
204	0x3da6e76a	0.081496075
205	0x3dba2e5f	0.09090876
206	0xba7d5700	-0.0009664148
207	0x3d547a09	0.051874194
208	0x3d1507b8	0.036384314
209	0xbd725f7c	-0.059173092
210	0x3d50c90b	0.05097298
211	0xbda1dcc2	-0.07903434
212	0x3dbfcccd	0.093652345
213	0xbd7d863f	-0.061895605
214	0x3db40af8	0.087911546
215	0xbd70071b	-0.058600526
216	0xbcb2541a	-0.021768618
217	0xbcf15f70	-0.029464453
218	0x3d775484	0.060383335
219	0xbd8260db	-0.0636613
220	0x3dedf2a3	0.11618545
221	0xbbc65060	-0.006052062
222	0x3c66d9ad	0.014089984
223	0xbcbaa6ee	-0.022784676
224	0xbe01296b	-0.12613456
225	0xb9e9b449	-0.00044575546
226	0xbd87da92	-0.06633486
227	0xbca81fbc	-0.020522945
228	0x3d4f8ab2	0.05066938
229	0x3d53fa7b	0.05175255
230	0x3c08af4a	0.008342573
231	0x3d6e8bd7	0.05823883
232	0xbdbac0c2	-0.09118797
233	0xbb507476	-0.0031807697
234	0x3e13887e	0.14407536
235	0xbd93b68d	-0.07212553
236	0x3a6a3e2e	0.0008935657
237	0x3d9d0696	0.07667272
238	0xbd3964a0	-0.04526198
239	0x3dbfdee0	0.09368682
240	0x3e1a6b15	0.15079911
241	0x3dbf07c9	0.09327657
242	0x3ca89bb1	0.020582052
243	0x3dc4bd92	0.0960647
244	0x3dc37d07	0.095453314
245	0xbbe06e05	-0.006849053
246	0xbd3e5ffa	-0.04647825
247	0xbab690a9	-0.001392861
248	0xbc13a272	-0.009010898
249	0x3d5fb30e	0.05461412
250	0x3e451cce	0.1924927
251	0xbdac6ea6	-0.08419542
252	0xbdd90150	-0.105959535
253	0x3dfca98d	0.12337027
254	0xbc7e5506	-0.015523201
255	0xbd1ab2bb	-0.037768107

node_function_neighbor.4.bias f4 [64]
0	0xbd5b8827	-0.053596642
1	0x3dfb1cc9	0.1226135
2	0x3cb18bf2	0.021673176
3	0x3d6728cc	0.05643539
4	0xbd85261d	-0.0650141
5	0x3d282af8	0.041056603
6	0x3df48405	0.11939243
7	0x3e2444c1	0.16041853
8	0xbe021d6d	-0.12706538
9	0xbd011d13	-0.031521868
10	0x3d40cc0a	0.047069587
11	0x3bb0fbfd	0.005401133
12	0xbced6721	-0.02897984
13	0x3e00df60	0.12585211
14	0x3d93b737	0.0721268
15	0x3d7c54ff	0.061604496
16	0xbdcf3026	-0.101166055
17	0xbdb5fb45	-0.088858165
18	0xbd4a447e	-0.049381725
19	0xbe05d753	-0.13070421
20	0x3dd2aae9	0.10286505
21	0xbbd24850	-0.0064173117
22	0x3d96b839	0.073593564
23	0xbcaa593c	-0.020794503
24	0xbe2d5adc	-0.16929191
25	0x3dd08178	0.10180944
26	0x3da5fcdd	0.081048705
27	0xbc2f00e8	-0.010681368
28	0x3d840b54	0.06447473
29	0xbd526417	-0.051364984
30	0xbdd9ba50	-0.106312394
31	0x3df2393e	0.11827324
32	0x3dd1e248	0.10248238
33	0x3d5d71f6	0.05406376
34	0xbd53ccfc	-0.05170916
35	0x3dda3b24	0.106558114
36	0xbdb1fc10	-0.08690655
37	0x3dfb8034	0.12280312
38	0xbd40008a	-0.046875514
39	0x3d773ecd	0.060362626
40	0xbdba1c58	-0.090874374
41	0xbd943fe9	-0.072387524
42	0x3ce4ba16	0.027920764
43	0x3d53b23b	0.051683646
44	0x3c163b1d	0.009169367
45	0xbd267b28	-0.040644795
46	0xbd282dde	-0.041059367
47	0x3dab25bb	0.08356806
48	0xbcdb5130	-0.026772112
49	0xbd99f25a	-0.07516928
50	0x3d7630b8	0.060105056
51	0x3e478b06	0.19486627
52	0x3d358e20	0.044324994
53	0x3d338b41	0.043833975
54	0x3da12b05	0.078695334
55	0x3cc177dc	0.023616724
56	0xbda8515d	-0.08218644
57	0x3d011526	0.03151431
58	0x3d985952	0.074389115
59	0x3dcfcf3e	0.1014695
60	0x3d2cde6b	0.0422043
61	0x3d4a40be	0.04937815
62	0xbe1eda1a	-0.15512887
63	0x3d61593f	0.055016752

node_function_neighbor.6.weight f4 [4, 64]
0	0xbb0a1644	-0.00210704
1	0x3d169430	0.036762416
2	0xbdc8a3b4	-0.09796849
3	0x3cf91108	0.030403629
4	0xbd511958	-0.05104956
5	0x3d9cc244	0.07654241
6	0x3db42dbd	0.087977864
7	0xbbc37caa	-0.005965789
8	0xbd347d2f	-0.044064697
9	0xbd891125	-0.06692723
10	0x3d74d32c	0.0597717
11	0x3d29188e	0.041283183
12	0x3dccb3bd	0.0999522
13	0xbd867caa	-0.065667465
14	0x3dc6cb6e	0.0970677
15	0xbd9e5865	-0.07731704
16	0x3c88ce19	0.016699838
17	0xbd36eab3	-0.04465742
18	0x3dfc8f78	0.12332052
19	0x3d37081a	0.04468546
20	0x3d84e7d3	0.064895295
21	0x3c53b85b	0.012922372
22	0x3e0d659a	0.13808289
23	0xbde92210	-0.1138345
24	0xbc989eb7	-0.018630369
25	0x3dbc32c4	0.0918937
26	0xbcb8d107	-0.02256061
27	0xbc9a90ec	-0.018867932
28	0x3dc3182f	0.09526097
29	0x3cbf9de8	0.023390725
30	0x3dd5d582	0.10441114
31	0xbd581b12	-0.05276019
32	0x3dcb088d	0.0991374
33	0xbcbcbf32	-0.023040388
34	0xbd87db30	-0.066336036
35	0x3c77e713	0.015130776
36	0xbd4751a3	-0.04866184
37	0xbdc37d36	-0.095453665
38	0x3d88b41f	0.0667498
39	0x3c93d409	0.018045442
40	0xbda46d64	-0.08028677
41	0x3d87b86b	0.06626972
42	0x3d1c7a35	0.038202483
43	0x3c593d90	0.013259307
44	0x3d12955e	0.03578698
45	0xbdcc946b	-0.09989246
46	0xbd1bd19a	-0.03804169
47	0xbd44677d	-0.047950257
48	0xbd33b4d6	-0.04387363
49	0xbdd33633	-0.10313072
50	0xbc58a35f	-0.013222544
51	0xbd2d4530	-0.04230231
52	0x3c199747	0.009374446
53	0x3de1750d	0.11008654
54	0x3d36e6cb	0.044653695
55	0x3db6581a	0.08903523
56	0xbd68e99d	-0.056863416
57	0x3db93b1a	0.09044476
58	0x3dc21cbf	0.09478139
59	0xbdc425ba	-0.09577508
60	0x3b0bcdce	0.0021332386
61	0xbd94189d	-0.07231257
62	0x3d65abc7	0.056072023
63	0x3dd9a58b	0.10627278
64	0x3d3388b5	0.043831546
65	0x3c0f43b9	0.008744174
66	0xbc23e8fd	-0.010004279
67	0x3dd6f9b7	0.10496848
68	0xbce0374b	-0.027370116
69	0x3dabbd2b	0.0838569
70	0x3da2e9ae	0.07954727
71	0x3de814fe	0.11332129
72	0xbd495fd5	-0.04916366
73	0xbd1510e3	-0.036393058
74	0x3e0a9b2a	0.13535753
75	0x3e0c26a7	0.1368662
76	0x3c2bfbb3	0.0104970215
77	0x3de63e13	0.112423085
78	0x3ce70ec4	0.028205283
79	0xbd52ed1a	-0.05149565
80	0xbcfd2026	-0.030899119
81	0x3cb342ab	0.021882376
82	0x3ce9672c	0.028491579
83	0xbd1d9589	-0.038472686
84	0x3d86c11e	0.06579803
85	0xbb4c9c21	-0.003122099
86	0xbc82760f	-0.015925435
87	0xbd826603	-0.063671134
88	0xbd92a6f3	-0.07160749
89	0x3d291014	0.0412751
90	0x3dd6a2a8	0.10480243
91	0x3c000d81	0.00781572
92	0xbd79b300	-0.060961723
93	0xbc6ee9af	-0.014582082
94	0xbdf14480	-0.117806435
95	0x3d013ab8	0.03155014
96	0x3d898b50	0.06716025
97	0xbd0318d4	-0.0320061
98	0xbccb2594	-0.024798192
99	0x3c190289	0.009338983
100	0xbcac103d	-0.021003837
101	0x3d9fc65f	0.07801508
102	0xbbdfd3a0	-0.0068306476
103	0x3cbbf22f	0.02294263
104	0x3c436190	0.011925116
105	0xbe068728	-0.13137496
106	0x3d46ec01	0.048564915
107	0x3c2a761c	0.010404136
108	0xbb6cd04d	-0.00361349
109	0xbb98e932	-0.004666471
110	0x3deb9f83	0.11505034
111	0x3d8f91b9	0.07010216
112	0x3dc2a756	0.09504573
113	0x3d59182d	0.05300157
114	0x3de1e01b	0.11029073
115	0x3e0e1a63	0.13877253
116	0xbd825ae5	-0.06364993
117	0x3dcd3eb2	0.10021724
118	0xbd928be8	-0.07155591
119	0x3d8d2713	0.068922184
120	0xbe0217bd	-0.12704368
121	0x3dbf24e1	0.09333206
122	0x3dcaddd3	0.09905591
123	0x3db16810	0.086624265
124	0xbd48320e	-0.04887586
125	0xbcc3c3a8	-0.023897007
126	0xbd7a3a89	-0.06109098
127	0x3e005cbc	0.12535375
128	0x3d367071	0.044540826
129	0x3cdb0c37	0.026739223
130	0xbda677fc	-0.08128354
131	0x3dcb81cb	0.099368654
132	0x3d8fb24b	0.070164286
133	0xbd5f155a	-0.05446372
134	0x3e076735	0.13222964
135	0x3d93502c	0.07193026
136	0xbdaf8c07	-0.0857163
137	0xbc2395d1	-0.0099844495
138	0x3cd6efc0	0.026237369
139	0x3cc9094e	0.02454057
140	0x3da49723	0.080366395
141	0xbd9bddd9	-0.076106735
142	0x3c376eda	0.011195863
143	0x3dcb0ffc	0.09915158
144	0xbda5972b	-0.080854736
145	0xbda37cc3	-0.07982781
146	0xbd24dc61	-0.040249232
147	0x3deb851a	0.114999965
148	0x3d823d0a	0.063592985
149	0x3c4f7482	0.012662055
150	0xbdc1e929	-0.094683
151	0xbdbd6350	-0.09247458
152	0x3c0ceaed	0.008600933
153	0x3d0ec264	0.034853354
154	0x3df9b0d8	0.121919334
155	0xbd38efca	-0.045150556
156	0xbda8079c	-0.082045764
157	0xbd8905a6	-0.066905305
158	0xbcdc39f0	-0.026883096
159	0xbbc48e15	-0.005998383
160	0x3d9a5943	0.075365566
161	0x3d0b05bb	0.033941012
162	0x3d0d4e52	0.03449852
163	0x3db3384d	0.08750973
164	0x3cdc5fd8	0.02690117
165	0x3dbd0a0b	0.09230431
166	0x3b18ad4d	0.0023296655
167	0x3bd2fade	0.006438597
168	0x3cf62a60	0.030049503
169	0xbd9245b3	-0.071422
170	0xbb4e5e23	-0.0031489215
171	0x3d4fee3f	0.05076432
172	0x3b9df731	0.0048207273
173	0xbb8c212e	-0.0042764163
174	0xbd083925	-0.033257622
175	0x3cee173b	0.029063812
176	0x3d805ef0	0.06268108
177	0x3dd7e50f	0.10541736
178	0x3db3ce9e	0.087796435
179	0x3cf8316c	0.030297004
180	0x3dcc383e	0.09971665
181	0xbe05f977	-0.13083445
182	0x3a6a2886	0.000893243
183	0xbd160c39	-0.03663275
184	0x3c7b0bf5	0.015322675
185	0xbd9f13fc	-0.077674836
186	0xbcdaa7ce	-0.026691344
187	0xbdd93887	-0.10606485
188	0x3c4cfba3	0.012511167
189	0xbd17d5fa	-0.0370693
190	0x3dafa872	0.0857705
191	0x3cd20a92	0.025639806
192	0x3ca7715f	0.020439802
193	0xbdef78fd	-0.116929986
194	0xbdfc023a	-0.12305112
195	0x3b387876	0.0028147972
196	0xb9133772	-0.00014039667
197	0xbdda8259	-0.10669393
198	0xbcd07711	-0.0254474
199	0x3d8a178f	0.06742775
200	0xbe0ce2ce	-0.13758394
201	0xbe0c1d85	-0.13683136
202	0xbd1c8d63	-0.038220774
203	0x3d848a32	0.06471671
204	0xbd3fd68d	-0.04683547
205	0x3c29328c	0.010326993
206	0x3d469268	0.048479468
207	0xbdc7800f	-0.09741222
208	0xbd3bf8e0	-0.045891643
209	0xbdf17ad9	-0.117910095
210	0x3d65f62b	0.056142967
211	0xbe08ec70	-0.13371444
212	0xbd2dfff1	-0.042480413
213	0x3d1df204	0.038560882
214	0x3d5ee129	0.05441395
215	0x3cd17ec7	0.025573147
216	0xbdbcc17a	-0.0921659
217	0x3d08c661	0.033392314
218	0xbce09d7e	-0.027418848
219	0xbc86f6f2	-0.016475175
220	0xbb15e1de	-0.0022870223
221	0x3d37a3be	0.04483389
222	0xbcc49058	-0.02399461
223	0xbd7209c3	-0.05909134
224	0xbdad3dab	-0.08459028
225	0xbdc1b423	-0.094581865
226	0x3b3cbadf	0.0028797907
227	0xbd670c66	-0.05640831
228	0xbd935893	-0.071946286
229	0x3d471e35	0.048612792
230	0xbde81059	-0.11331243
231	0xbe01e209	-0.12683882
232	0xbd440c10	-0.047863066
233	0x3ab7c9fe	0.001402199
234	0xbdb44b25	-0.08803395
235	0x3d58408b	0.052795928
236	0x3c2dabad	0.010600013
237	0xbe1d9c9e	-0.15391776
238	0x3d94fd9f	0.07274937
239	0xbd02568a	-0.03182081
240	0x3c9b8166	0.0189826
241	0x3d2011f4	0.03907962
242	0x3d4d3bbf	0.050105806
243	0x3d77b948	0.060479432
244	0xbe033aa9	-0.12815346
245	0xbe3fba0b	-0.18723314
246	0xbe09774c	-0.13424414
247	0x3c795731	0.015218542
248	0x3d5023ed	0.05081551
249	0x3c2ca185	0.010536556
250	0xbdae7fbb	-0.085204564
251	0xbcbbbed9	-0.022918152
252	0x3cd0b959	0.025479006
253	0x3d8ae706	0.067823455
254	0xbce4a78b	-0.027911922
255	0x3db778d0	0.0895859

node_function_neighbor.6.bias f4 [4]
0	0x3d919de9	0.07110197
1	0x3e41b3b3	0.18916206
2	0x3d8ee47c	0.06977174
3	0xbe44ebcd	-0.19230576

edge_function.0.weight f4 [64, 4]
0	0xbd4adce3	-0.04952706
1	0xbd0329b1	-0.032022182
2	0x3d71665c	0.058935508
3	0x3e5cc0f4	0.21557981
4	0xbecd23a3	-0.4006625
5	0xbed7b782	-0.42132193
6	0x3e404a0a	0.18778244
7	0x3eb6702b	0.35632452
8	0xbd89843d	-0.067146756
9	0x3eaaf542	0.33390242
10	0xbef40b77	-0.47664997
11	0x3ea8eb58	0.32992053
12	0xbe1e6ca2	-0.15471128
13	0x3de1fe34	0.110348135
14	0xbed41b17	-0.41426918
15	0x3ed1013b	0.4082125
16	0xbeca22fb	-0.39479813
17	0x3e162bee	0.14665195
18	0xbedf1df7	-0.4357755
19	0x3e8663ec	0.2624811
20	0x3adb2612	0.001671972
21	0x3ea21d4d	0.3166298
22	0xbe909925	-0.2824184
23	0x3e0b1f44	0.13586146
24	0x3e970a69	0.2950013
25	0xbec7ef23	-0.39049634
26	0x3ec0fb5c	0.37691772
27	0x3e9329f0	0.28742933
28	0xbe726dcd	-0.23674698
29	0xbe29d768	-0.16586077
30	0xbe5de16e	-0.21668026
31	0x3d822763	0.06355169
32	0xbd91651f	-0.070993654
33	0x3ded1366	0.115759656
34	0x3ef1b055	0.47204843
35	0xbeb7843d	-0.35843077
36	0xbe982c86	-0.2972147
37	0x3d3856b7	0.045004573
38	0x3e92231c	0.2854241
39	0x3d82e71a	0.063917354
40	0xbd07bdb8	-0.033139914
41	0x3e8f5db9	0.28001192
42	0x3dc78483	0.097420715
43	0x3d7ea883	0.062172424
44	0xbe71f190	-0.23627305
45	0x3dd41615	0.10355774
46	0x3ecf0ec2	0.40440947
47	0xbf01f23c	-0.50760245
48	0xbe003be6	-0.1252285
49	0xbe8a6a70	-0.2703433
50	0xbe98badf	-0.2983007
51	0xbeb51c47	-0.35373136
52	0x3eda3089	0.42615154
53	0xbed35246	-0.41273707
54	0xbed92172	-0.4240833
55	0x3ea1a589	0.31571606
56	0x3ecf1eb3	0.4045311
57	0x3e1a559a	0.15071717
58	0xbe04be6a	-0.12963262
59	0xbda59c27	-0.08086424
60	0x3e506e82	0.20354655
61	0x3e7134c1	0.2355528
62	0x3d477ef2	0.04870505
63	0x3dfd5e35	0.12371484
64	0xbe967af1	-0.29390672
65	0xbe8a0256	-0.26954907
66	0x3ebda903	0.37043008
67	0x3e92f2c2	0.28700835
68	0xbda59cac	-0.080865234
69	0xbeef64ef	-0.46756694
70	0xbee46365	-0.44607082
71	0x3e90bcd3	0.2826906
72	0x3daae860	0.08345103
73	0x3dc64d0f	0.096826665
74	0x3ee193ac	0.44057977
75	0xbead24de	-0.3381719
76	0x3dee6cf9	0.11641879
77	0xbedd1144	-0.43177235
78	0x3eb33e2c	0.3500837
79	0x3ee9e7c2	0.4568463
80	0x3e4de81f	0.20108078
81	0x3e8603fb	0.26174912
82	0x3ec9f5dc	0.39445388
83	0x3e3f391f	0.18674134
84	0xbed5ef1e	-0.41783994
85	0xbe2d6ca7	-0.16935979
86	0xbe89bce9	-0.2690194
87	0x3ef9de19	0.4880226
88	0xbe759e4a	-0.23986164
89	0x3eb5f4fa	0.35538465
90	0x3d3cc67e	0.046087734
91	0x3ea702df	0.32619378
92	0xbed0cd8c	-0.4078182
93	0x3e6f1bc5	0.23350437
94	0x3e25b079	0.161806
95	0x3eb7793d	0.35834685
96	0xbed6f5eb	-0.41984496
97	0xbe92b111	-0.28650716
98	0x3ee324eb	0.44364104
99	0x3ed8dd48	0.42356324
100	0x3c880375	0.016603211
101	0x3e35a7f2	0.17739847
102	0x3ee2f0e0	0.44324398
103	0x3e66119e	0.22467658
104	0xbd3ac2e1	-0.045596007
105	0xbe9901f2	-0.29884297
106	0x3e1f5352	0.15559128
107	0x3ea05d0c	0.3132099
108	0x3e3eff3e	0.18652055
109	0xbdeed130	-0.11660993
110	0x3e8af8ac	0.27142847
111	0xbdd0e137	-0.10199206
112	0xbeb61ea7	-0.3557026
113	0xbecb3893	-0.396916
114	0xbeb73abd	-0.35787
115	0xbd932d64	-0.07186392
116	0x3ea3f1ce	0.3202042
117	0x3d7abc0b	0.061214488
118	0x3e400609	0.18752302
119	0xbeb2fe86	-0.3495981
120	0x3edc99f4	0.43086207
121	0x3e19477e	0.14968678
122	0x3e8281e7	0.25489733
123	0x3e0b434b	0.13599889
124	0xbe82eaad	-0.25569668
125	0xbe6b57f4	-0.2298277
126	0xbda57d2c	-0.08080515
127	0x3e1fbb02	0.15598682
128	0x3d8619df	0.06547903
129	0x3e198a7e	0.14994237
130	0x3e8f8644	0.28032124
131	0xbea8df07	-0.32982656
132	0xbe0f4d38	-0.139943
133	0x3ee3c2e5	0.4448463
134	0xbe93f521	-0.28897956
135	0xbe2351ff	-0.15949248
136	0x3df85cc7	0.12127071
137	0xbeefa016	-0.46801823
138	0x3df770b4	0.12082043
139	0x3e374a29	0.17899384
140	0x3cd92232	0.026505563
141	0x3ec23864	0.37933648
142	0x3d00958d	0.031392623
143	0x3e664e62	0.22490838
144	0x3efb7dd6	0.49119443
145	0x3edefabd	0.43550673
146	0xbd9b03e6	-0.07569103
147	0xbeb82ec3	-0.35973176
148	0x3d99f637	0.07517665
149	0xbe6c23e7	-0.2306057
150	0x3e761e56	0.2403501
151	0xbd93851e	-0.072031245
152	0xbeef4e7a	-0.4673956
153	0xbd689d5e	-0.056790702
154	0xba00406b	-0.00048924115
155	0x3eb6c518	0.35697246
156	0x3e601d1e	0.21886107
157	0xbbb96580	-0.0056578517
158	0x3e912e44	0.2835561
159	0xbe3dfc15	-0.18553193
160	0xbec817a4	-0.39080536
161	0x3e088492	0.13331822
162	0xbe901192	-0.28138405
163	0xbeec6815	-0.46173158
164	0x3ec6a52e	0.38797897
165	0xbe84c95f	-0.25934884
166	0xbc56333a	-0.013073737
167	0x3ebdc1ea	0.37062007
168	0x3e852fd6	0.26013058
169	0xbece6b3c	-0.40316188
170	0xbe89d598	-0.26920772
171	0xbeef2426	-0.46707267
172	0x3b9faf2e	0.004873178
173	0xbdfdf61c	-0.12400457
174	0xbece15c0	-0.4025097
175	0x3eb33ff8	0.35009742
176	0x3eb04acf	0.34432074
177	0xbecb7c82	-0.3974343
178	0xbe13bec3	-0.14428239
179	0x3e75f74d	0.24020119
180	0xbe1cbfbb	-0.15307514
181	0x3edbdcfa	0.4294203
182	0xbe258be1	-0.16166641
183	0x3edf8f6e	0.43664116
184	0x3e78a6b8	0.24282348
185	0xbed5c2ed	-0.4175028
186	0xbef1fb9f	-0.47262284
187	0x3e4de46f	0.20106672
188	0x3dedd741	0.11613322
189	0x3e4abd84	0.19798857
190	0xbeac1ffd	-0.33618155
191	0xbe6b550f	-0.22981666
192	0x3dd62e7d	0.10458086
193	0x3eabfe12	0.33592278
194	0xbed6427c	-0.418476
195	0x3ebd40a2	0.36963373
196	0xbc727fa5	-0.014800941
197	0xbee4aa5d	-0.44661227
198	0x3e7ab77d	0.24484058
199	0x3e782af3	0.24235134
200	0xbe96b460	-0.2943449
201	0x3ef55cf6	0.47922486
202	0x3ea5cb34	0.32381594
203	0x3e9c089e	0.30475324
204	0x3e358938	0.17728126
205	0xbeda312f	-0.4261565
206	0xbed28742	-0.4111882
207	0xbe631dc7	-0.22179328
208	0xbed6ea96	-0.4197585
209	0xbebb4e84	-0.3658334
210	0x3ed869b2	0.4226814
211	0xbebd069e	-0.3691911
212	0x3e83c700	0.25737762
213	0xbe9c39eb	-0.30512938
214	0x3e1bf2f2	0.15229395
215	0x3ee6e58c	0.45097005
216	0xbec425b8	-0.38310027
217	0x3e309781	0.17245294
218	0xbec37e84	-0.3818246
219	0xbd46d05e	-0.04853856
220	0xbe8ce6d2	-0.27519852
221	0x3ef2a2ac	0.47389734
222	0xbe93d423	-0.28872785
223	0x3e9d5a57	0.30732986
224	0xbee0f804	-0.4393922
225	0xbed4c5b2	-0.4155708
226	0xbe957a44	-0.29194844
227	0x3e96643c	0.29373348
228	0x3e4cd086	0.2000142
229	0x3e90a60e	0.2825169
230	0xbe247acc	-0.16062468
231	0xbeb11d11	-0.34592488
232	0x3cf66a6e	0.030080047
233	0x39a6cd66	0.0003181502
234	0x3e6d498a	0.23172584
235	0xbd4bd591	-0.04976422
236	0xbe35de0b	-0.17760484
237	0xbec9a60a	-0.3938449
238	0x3e827d58	0.25486255
239	0x3e999aa9	0.3000081
240	0xbcf40e81	-0.029792072
241	0x3e83b22f	0.2572188
242	0xbc899e49	-0.016799109
243	0xbe737d0b	-0.23778169
244	0xbe0eb3f4	-0.13935834
245	0xbeb70a6f	-0.35750148
246	0x3ec71b17	0.38887855
247	0xbe907f1f	-0.28221986
248	0xbdf04168	-0.11731225
249	0xbeea11d1	-0.45716718
250	0x3d522567	0.0513052
251	0x3e5d186c	0.21591347
252	0x3e9bd57d	0.30436316
253	0x3ec486b6	0.38384026
254	0xbe7f67ab	-0.2494189
255	0xbd3c3a7a	-0.045954205

edge_function.0.bias f4 [64]
0	0xbef6bfe0	-0.48193264
1	0xbae2306e	-0.0017256865
2	0xbd918a45	-0.07106451
3	0xbdacbee4	-0.08434847
4	0x3e03ba18	0.12863958
5	0xbcc5090b	-0.024052164
6	0x3d7e4935	0.062081534
7	0x3e03aa6f	0.12857984
8	0x3ee48f6d	0.44640675
9	0x3dd614b6	0.10453169
10	0xbd7e1898	-0.062035173
11	0x3e2e5330	0.17023921
12	0xbe502b51	-0.20329024
13	0x3ef7ce73	0.48399696
14	0xbea7454b	-0.32670054
15	0xbc8a19b7	-0.016857965
16	0xbdb4bd17	-0.088251285
17	0x3e6568ab	0.22403209
18	0xbea3ab9c	-0.31966865
19	0xbe96aaad	-0.2942709
20	0xbecd580d	-0.4010624
21	0x3e2d7196	0.16937861
22	0xbee0b6ff	-0.43889615
23	0x3eff24ec	0.49832857
24	0xbea833eb	-0.3285211
25	0xbe67a1c2	-0.226203
26	0x3df26be8	0.11836988
27	0xbe73e3fd	-0.2381744
28	0xbd1f2e1a	-0.038862325
29	0x3e90e60b	0.2830051
30	0xbc1b929a	-0.009495402
31	0xbe321fdb	-0.17394964
32	0xbdc4d3f1	-0.09610737
33	0x3d27bfe1	0.040954474
34	0x3e5db7be	0.21652123
35	0x3e43de01	0.19127657
36	0xbe5f420e	-0.21802542
37	0x3db8edd8	0.0902974
38	0xbec9e54d	-0.39432755
39	0x3d973fea	0.073852375
40	0x3e0bbc03	0.1364594
41	0x3ef71a8b	0.48262438
42	0x3ef678ee	0.48139137
43	0xbd4828d6	-0.04886707
44	0xbec113a8	-0.3771031
45	0x36c0e5fb	5.748819e-06
46	0x3e8f96c2	0.28044707
47	0x3ebcaeb6	0.36852044
48	0x3e53948a	0.20662132
49	0x3ea1397e	0.31489176
50	0xbe4ddfb2	-0.20104864
51	0x3ef89faf	0.4855933
52	0x3d957cdb	0.07299205
53	0xbe5b970a	-0.21444336
54	0x3eb81d0d	0.35959664
55	0xbc4c6ba6	-0.012476837
56	0xbd146e0c	-0.03623776
57	0x3e9d86e1	0.30766967
58	0xbb391102	-0.0028238897
59	0x3e6975f6	0.22798905
60	0x3e424d08	0.18974698
61	0xbf013aab	-0.50480145
62	0x3de2daa2	0.11076857
63	0xbebff682	-0.37492758

edge_function.2.weight f4 [64, 64]
0	0x399b5630	0.00029628119
1	0xbc3d6772	-0.011560308
2	0x3ccb9c49	0.024854796
3	0xbd4500c3	-0.04809643
4	0xbdb1b5f0	-0.0867728
5	0xbda69619	-0.081340976
6	0xbd941a7a	-0.072316125
7	0x3c050fc9	0.008121439
8	0xbe14b654	-0.14522678
9	0x3d5654e3	0.052327048
10	0x3d3bb1a5	0.045823712
11	0x3d847986	0.06468491
12	0x3da8709d	0.08224604
13	0x3a78c58d	0.00094898866
14	0x3da6a58f	0.081370465
15	0xbc43f043	-0.011959138
16	0x3d547779	0.05187175
17	0xbdcd168e	-0.100140676
18	0xbd0e6f38	-0.034774035
19	0xbdff2fe0	-0.12460303
20	0x3d8b6f84	0.06808379
21	0xbe10d1eb	-0.14142577
22	0xbe194603	-0.14968114
23	0xbc171038	-0.009220175
24	0xbe0a0ebe	-0.13482186
25	0x3d527774	0.05138345
26	0xbda225a1	-0.079173334
27	0x3d8124da	0.06305857
28	0xbd80961e	-0.062786326
29	0xbdb61a35	-0.08891717
30	0x3dae7729	0.08518822
31	0x3d2e6708	0.042578727
32	0x3d07b12f	0.03312796
33	0xbd7e2bc8	-0.06205347
34	0xbd736de6	-0.05943098
35	0x3da23470	0.07920158
36	0xbda6f660	-0.08152461
37	0xbd4918f4	-0.049096063
38	0x3db61d5e	0.0889232
39	0xbde82cd6	-0.11336677
40	0xbdab2c97	-0.08358114
41	0xbd9428c2	-0.072343364
42	0x3cf11812	0.029430423
43	0xbdbaa6c9	-0.09113843
44	0xbaf19ca9	-0.0018433529
45	0xbdfee74c	-0.1244646
46	0xbd9d41ff	-0.076786034
47	0xbd7f8ca8	-0.06239
48	0x3dbe87cb	0.09303244
49	0x3d695287	0.05696347
50	0xbde9444b	-0.11389979
51	0xbe00e776	-0.12588295
52	0xbd232cd3	-0.03983767
53	0xbdd029a5	-0.10164193
54	0xbc888be2	-0.016668264
55	0xbdc2ac19	-0.09505481
56	0x3d1c5a4a	0.038172044
57	0x3cbac071	0.022796841
58	0x3d7b3b27	0.06133571
59	0x3dab5bf0	0.08367145
60	0x3c60e122	0.013725551
61	0xbd7329a0	-0.05936587
62	0x3d4a2bde	0.04935824
63	0xbd5eb58f	-0.054372367
64	0x3d7fb938	0.062432498
65	0xbe21132d	-0.15729971
66	0xbc6b6cf0	-0.014369234
67	0x3b164024	0.0022926414
68	0xbd251b9a	-0.040309526
69	0x3d52181a	0.051292516
70	0xbc38f2a2	-0.011288317
71	0x3d3871e0	0.045030475
72	0x3d607382	0.054797657
73	0x3dde20bf	0.108460896
74	0x3c31c5d6	0.01085039
75	0x3e05886d	0.13040324
76	0xbc734b26	-0.01484946
77	0xbdfdea5f	-0.12398218
78	0xbe1fe5c4	-0.15614992
79	0xbcea26db	-0.02858298
80	0xbc019824	-0.007909808
81	0xbdc89b92	-0.09795298
82	0x3dcc9768	0.09989816
83	0x3d9b89fb	0.07594677
84	0xbe03aa09	-0.12857832
85	0xbdd936ad	-0.10606132
86	0x3a8bfd6f	0.0010680387
87	0xbe189fa7	-0.14904653
88	0xbce3c282	-0.02780271
89	0x3c8c9acb	0.017163655
90	0x3c9b0c55	0.018926779
91	0xbe3c2107	-0.18371974
92	0x3ca7013e	0.020386335
93	0xbcdfd072	-0.027321074
94	0xbbab2e0b	-0.0052239946
95	0x3b3527c3	0.0027642108
96	0x3cc27799	0.02373867
97	0xbdb0bb2c	-0.0862945
98	0xbdf53c9e	-0.119744524
99	0xbe0cc517	-0.13747059
100	0xbd31ef23	-0.04344095
101	0xbde34717	-0.11097544
102	0xbc89c0b0	-0.016815513
103	0xbe110c5a	-0.14164868
104	0x3ddd3e10	0.10802853
105	0xbc0573ef	-0.0081453165
106	0x3db12163	0.08648946
107	0x3cf7250e	0.030169036
108	0xbd1bfd81	-0.038083557
109	0x3d83a4ec	0.06427941
110	0x3d3455d9	0.044027183
111	0xbd97c453	-0.07410493
112	0xbdc3393c	-0.09532401
113	0xbdf71d76	-0.12066166
114	0xbdb4f12d	-0.08835063
115	0x3c1c716a	0.009548524
116	0xbd8b9487	-0.06815439
117	0x3c8563d6	0.016282957
118	0xbdf7bd01	-0.120965965
119	0xbdeb5b2d	-0.11492
120	0xbbe75149	-0.0070592505
121	0x3cea88db	0.02862971
122	0x3cab6d9f	0.020926295
123	0x3d6933ba	0.056934096
124	0x3dd30ca0	0.103051424
125	0x3d9904a5	0.07471589
126	0xbe061804	-0.13095099
127	0xbdfc64a2	-0.12323882
128	0xbdcf09ae	-0.10109268
129	0xbdd6d935	-0.10490648
130	0x3d93f73c	0.072248906
131	0x3d95091d	0.07277129
132	0x3cc64fc9	0.024207966
133	0x3d87e319	0.06635112
134	0xbd80c1a8	-0.06286937
135	0x3acdd8f3	0.0015704915
136	0xbde63203	-0.11240008
137	0xbd049951	-0.032372776
138	0xbdfe0e7f	-0.12405109
139	0x3d25a3fe	0.0404396
140	0x3dba8bea	0.09108718
141	0x3d6c580f	0.057701167
142	0x3d41e0ff	0.047333714
143	0x3d00ffb5	0.03149386
144	0xbdba40c0	-0.09094381
145	0xbcb2b293	-0.021813666
146	0xbd758c5f	-0.05994832
147	0xbd95dfe4	-0.073180944
148	0x3dd23fc7	0.10266071
149	0x3cd8b3bf	0.026452897
150	0x3c70d57f	0.014699339
151	0x3c3b884a	0.011446068
152	0x3d3e1051	0.04640228
153	0x3cdbfb80	0.026853323
154	0xbdeefa94	-0.11668888
155	0x3da90bb6	0.08254187
156	0x3e006e5d	0.125421
157	0xbd91274e	-0.07087575
158	0xbbd180f6	-0.006393547
159	0xbcd8b7be	-0.026454803
160	0x3dd709e3	0.104999326
161	0xbd975377	-0.073889665
162	0xbcd4c4e0	-0.025972784
163	0xbdee9c48	-0.11650902
164	0xbdd7c628	-0.10535842
165	0x3d558d69	0.052136812
166	0x3df8f66b	0.121563755
167	0x3da694a6	0.08133821
168	0x3de3d3b5	0.11124364
169	0xbd7ab07c	-0.061203465
170	0xbdbe7a6a	-0.093006924
171	0xbd14a125	-0.036286492
172	0x3d719d7f	0.05898809
173	0xbdd2b84d	-0.10289059
174	0x3d6ca98d	0.057778884
175	0xbcc8975c	-0.024486236
176	0xbe06630d	-0.13123722
177	0xbda4a981	-0.08040143
178	0xbd2a2ca3	-0.041546475
179	0x3df313d0	0.11869013
180	0x3d39557c	0.04524754
181	0xbd18ca2c	-0.03730218
182	0x3c637853	0.013883668
183	0xbcf68650	-0.030093342
184	0x3de85907	0.113451056
185	0xbc3492fe	-0.011021374
186	0x3d39472a	0.045233883
187	0x3dafc74a	0.08582933
188	0xbd804a7a	-0.06264205
189	0x3e060fad	0.13091917
190	0x3d9bac14	0.07601181
191	0x3d950d3c	0.07277915
192	0xbda476bc	-0.08030459
193	0x3ddeb5e7	0.10874539
194	0xbda79db2	-0.08184375
195	0x3d8583ad	0.06519256
196	0x3dcb8700	0.099378586
197	0xbcd5faf6	-0.026120644
198	0xbe0e9073	-0.1392229
199	0x3dc3de15	0.09563843
200	0xbcc8ec02	-0.0245266
201	0xbd93b3c2	-0.072120205
202	0xbde4780e	-0.11155711
203	0x3dbb17a0	0.091353655
204	0x3de36af8	0.11104387
205	0xbdd1b66e	-0.10239874
206	0xbdadec70	-0.084923625
207	0xbdd45437	-0.10367625
208	0xbd7c6be3	-0.061626326
209	0x3bf98589	0.0076147956
210	0x3d54503e	0.051834337
211	0xbccb46a8	-0.024813965
212	0xbd216943	-0.039407026
213	0x3d5de3d5	0.054172356
214	0xbce7f173	-0.028313374
215	0x3d9acb69	0.07558329
216	0x3d7decce	0.061993413
217	0xbe1c3d04	-0.1525765
218	0x3da9c962	0.08290364
219	0xbd9f80bd	-0.07788227
220	0xbd47a4e8	-0.04874125
221	0xbcb12c3a	-0.021627534
222	0xbde30f07	-0.110868506
223	0x3bc3f2a4	0.0059798528
224	0xbd209934	-0.039208606
225	0x3df5adc2	0.11996032
226	0xbe0dc8f9	-0.13846196
227	0xbdb0b507	-0.08628278
228	0xbd3034f9	-0.04301927
229	0xbdce62e7	-0.10077458
230	0xbd257d81	-0.040402893
231	0x3d852ecb	0.06503066
232	0xbdb22114	-0.086977154
233	0xbdd67b7f	-0.10472774
234	0x3dec89b4	0.11549702
235	0x3c97fb27	0.018552376
236	0xbe05ad55	-0.13054402
237	0xbc4009f6	-0.011721125
238	0x3df732f4	0.120702654
239	0x3daa95d7	0.08329361
240	0x3db42ec2	0.08797981
241	0xbc41ce6d	-0.011829001
242	0x3cec8097	0.02886991
243	0x3d3e26bb	0.046423655
244	0xbd5c6643	-0.053808462
245	0x3c68ff1f	0.014220982
246	0x3d1d0e64	0.038343802
247	0x3cc8a1d8	0.024491236
248	0x3ddb2753	0.1070086
249	0x3ddaad86	0.10677628
250	0xbdaa921e	-0.08328651
251	0x3d1a1240	0.03761506
252	0x3dd2d741	0.10294963
253	0xbd91b194	-0.071139485
254	0x3d8df1b5	0.069308676
255	0x3debf29b	0.11520883

edge_function.2.bias f4 [64]
0	0xbe1ab4b2	-0.15107992
1	0xbc26c02a	-0.010177651
2	0xbdffa07a	-0.1248178
3	0xbdb2a232	-0.087223426
4	0xbcda7323	-0.02666623
5	0x3d28e8da	0.04123769
6	0xbda15ade	-0.0787866
7	0xb84ce206	-4.884789e-05
8	0xbdc2a2c1	-0.09503699
9	0x3d9f4552	0.07776894
10	0x3d515a8a	0.051111735
11	0x3e03706f	0.12835859
12	0x3d1c31ef	0.038133558
13	0x3d332b21	0.043742303
14	0xbc9ec778	-0.019382223
15	0x3dd2b7ec	0.102889866
16	0xbe34c9b4	-0.17655069
17	0x3d16cb46	0.03681495
18	0xbdc0f567	-0.09421807
19	0x3d7c30cb	0.06156997
20	0xbd9ddb7c	-0.07707879
21	0xbc78c670	-0.01518403
22	0x3dbd41e6	0.09241085
23	0x3c16571f	0.009176045
24	0xbbc73207	-0.006078962
25	0x3dc4c64b	0.09608134
26	0xbda4b0a1	-0.08041502
27	0xbd98134d	-0.07425556
28	0x3d8bad61	0.06820179
29	0xbd91f6e4	-0.07127169
30	0xbe264314	-0.16236526
31	0xbc9e0dca	-0.019293685
32	0xbce7309f	-0.028221427
33	0xbd40ee66	-0.047102354
34	0x3d9d9ed6	0.07696311
35	0x3d778fd3	0.060439896
36	0xbd9adc7a	-0.07561584
37	0xbdec2b47	-0.11531692
38	0x3d493cee	0.049130373
39	0x3d92576e	0.07145582
40	0x3cf523fa	0.029924382
41	0xbcfdf824	-0.031002112
42	0x3cdd4837	0.027011974
43	0xbd864904	-0.065568954
44	0x3d7e1988	0.062036067
45	0x3c9b799e	0.01897889
46	0x3dc944dc	0.09827587
47	0xbd4de33c	-0.050265536
48	0x3ddee727	0.108839326
49	0xbce3f8bb	-0.027828565
50	0xbe09ac61	-0.13444664
51	0xbdc164e2	-0.0944307
52	0x3de6f801	0.11277772
53	0xbe0bc1a7	-0.13648091
54	0x3d27aa89	0.04093412
55	0xbda69b12	-0.08135046
56	0xbca89e2b	-0.020583233
57	0x3e14b717	0.14522968
58	0xbdbd2372	-0.09235276
59	0x3d9cda69	0.07658846
60	0x3e0bb845	0.13644512
61	0xbd3ad852	-0.045616455
62	0x3d224a8b	0.03962187
63	0x3c936a69	0.017995076
