Projects/GuoxiangGrayson_T_A study of multi-fidelity graph neural networks/Model_save/Quarter2D/Rank=207-GNN-nB-64-Lr-0.005/model.pth (torch, 114781 bytes, 24 tensors)

node_function_neighbor.0.weight f4 [64, 2]
0.28638348 -0.5391203 0.1167059 0.44893536 -0.3776211 -0.5268802 0.32445315 0.34183
0.21949495 0.41913143 -0.0001253325 -0.1772563 -0.33954653 -0.5747661 -0.31325614 0.5231764
0.3223614 0.5650368 0.6121844 -0.26750818 0.2979845 0.50271267 -0.6011137 0.22747676
0.6149745 0.13519977 -0.07508271 0.05242099 -0.20861469 -0.042632654 -0.08345378 -0.11035007
0.50687486 0.08461632 0.18371692 0.110435426 -0.40867266 -0.46684343 -0.6077254 0.51427025
0.61827356 -0.054983184 0.11536224 -0.17621556 -0.07158645 -0.23712328 0.04918191 -0.5596373
0.37040696 -0.34068936 0.35658604 0.15277444 0.21078134 -0.48102748 0.6980648 -0.33689463
-0.08408585 0.08089795 0.060888555 -0.13861088 -0.033053163 -0.54656607 0.052331194 0.2654709
-0.31226316 0.6731512 -0.45805228 0.57511747 0.17597008 0.3309043 0.36740726 -0.21157268
-0.50353855 0.16538636 -0.4088265 0.1877968 0.39289105 -0.5459183 0.13934496 0.13772126
-0.5211247 0.117982075 -0.37943283 0.39211637 -0.35584718 -0.19351992 -0.2049324 0.5577775
-0.032004636 -0.60063773 0.541836 0.43226182 0.3258498 0.3333149 -0.5061636 -0.11187731
-0.16713738 0.10550915 0.5888402 0.52276593 -0.68750685 -0.52315843 -0.5349055 -0.5336876
-0.2824561 0.5692376 -0.28421932 -0.19206735 -0.7091349 -0.61574453 -0.10674479 0.3783112
-0.15079017 -0.6431445 0.037256915 -0.556338 0.48610178 0.4947956 0.5798059 -0.5049312
0.48427358 -0.4249826 0.22856265 -0.5054728 0.23342527 -0.06438329 0.19174576 -0.40367886
00000000: dba0 923e ca03 0abf 8103 ef3d dbda e53e
00000010: 8e57 c1be 9fe1 06bf b91e a63e 5704 af3e
00000020: 49c3 603e 6598 d63e b06b 03b9 ad82 35be
00000030: 0bd9 adbe df23 13bf 1c63 a0be e3ee 053f
00000040: 8e0c a53e 40a6 103f 1eb8 1c3f d5f6 88be
00000050: 6d91 983e c7b1 003f 96e2 19bf abef 683e
00000060: f86e 1d3f cf71 0a3e f7c4 99bd 64b7 563d
00000070: 179f 55be 949f 2ebd d1e9 aabd 38ff e1bd
00000080: 8dc2 013f 524b ad3d 4a20 3c3e f82b e23d
00000090: 8b3d d1be 1a06 efbe e493 1bbf 37a7 033f
000000a0: 2d47 1e3f 0c36 61bd 0a43 ec3d da71 34be
000000b0: eb9b 92bd 72d0 72be f872 493d 6444 0fbf
000000c0: fba5 bd3e d66e aebe 7292 b63e e770 1c3e
000000d0: 10d7 573e 3c49 f6be 60b4 323f 747d acbe
000000e0: 3435 acbd d3ad a53d 4766 793d 03f0 0dbe
000000f0: c162 07bd c1eb 0bbf 3c59 563d cdeb 873e
00000100: f5e0 9fbe a353 2c3f d485 eabe e63a 133f
00000110: 8031 343e 4a6c a93e ce1c bc3e 82a6 58be
00000120: e7e7 00bf 0b5b 293e b551 d1be ce4d 403e
00000130: 0429 c93e 4dc1 0bbf 72b0 0e3e cd06 0d3e
00000140: 6e68 05bf 96a0 f13d 0545 c2be 7ac3 c83e
00000150: 9a31 b6be 162a 46be cdd9 51be 82ca 0e3f
00000160: 4b17 03bd 65c3 19bf c4b5 0a3f 6c51 dd3e
00000170: c9d5 a63e 40a8 aa3e f093 01bf ee1f e5bd
00000180: 1026 2bbe 2e15 d83d 3bbe 163f fdd3 053f
00000190: 7300 30bf b6ed 05bf 91ef 08bf c09f 08bf
000001a0: 169e 90be 8eb9 113f 3285 91be 4ead 44be
000001b0: dd89 35bf 6fa1 1dbf 039d dabd 01b2 c13e
000001c0: bd68 1abe 1ea5 24bf b59a 183d 2b6c 0ebf
000001d0: 55e2 f83e d955 fd3e 296e 143f 2c43 01bf
000001e0: b5f2 f73e 5297 d9be 540c 6a3e aa66 01bf
000001f0: 0907 6f3e 63db 83bd 0059 443e ffae cebe

node_function_neighbor.0.bias f4 [64]
0.6455905 0.11310462 0.41770276 0.049945887 -0.4197664 -0.24758647 -0.61227065 0.027581055
-0.3542211 0.52309877 -0.39399597 0.26365092 0.24295633 -0.65328425 -0.75939083 -0.3673566
0.5065428 0.3078833 -0.18302172 0.64983106 -0.55888295 -0.612767 -0.04824572 0.06618052
0.14818849 0.17480679 -0.6854535 0.38880593 0.5260233 -0.2650119 0.589677 0.5076069
-0.012897449 -0.56525356 0.2747685 0.15895097 0.41524836 -0.16348559 0.21763743 -0.109691314
0.28072402 -0.4377166 0.48062438 -0.030626105 -0.6562077 0.6101771 0.05161188 0.7139418
0.31085506 -0.574611 -0.1746381 -0.022027895 0.22335586 -0.3389651 0.50402546 -0.65565467
-0.50727785 -0.5522796 -0.30300772 -0.15754801 -0.2400839 0.6080784 0.5625013 0.7060373
00000000: 6b45 253f 65a3 e73d 23dd d53e 0f94 4c3d
00000010: 9feb d6be 4f87 7dbe c5bd 1cbf aaf1 e13c
00000020: 785c b5be cde9 053f d7b9 c9be 41fd 863e
00000030: 8bc9 783e a33d 27bf 7067 42bf 2a16 bcbe
00000040: caac 013f e1a2 9d3e 0c6a 3bbe 545b 263f
00000050: f412 0fbf 4cde 1cbf 4e9d 45bd a789 873d
00000060: b9be 173e 8d00 333e e179 2fbf 9211 c73e
00000070: 77a9 063f a4af 87be 12f5 163f 87f2 013f
00000080: d24f 53bc 75b4 10bf 75ae 8c3e 0bc4 223e
00000090: 6f9b d43e c468 27be 59dc 5e3e d7a5 e0bd
000000a0: 0fbb 8f3e 641c e0be 6614 f63e 99e3 fabc
000000b0: 3afd 27bf 9134 1c3f fb66 533d e4c4 363f
000000c0: 6528 9f3e b519 13bf 55d4 32be d873 b4bc
000000d0: 66b7 643e d58c adbe d007 013f fcd8 27bf
000000e0: f6dc 01bf 3262 0dbf d423 9bbe 4454 21be
000000f0: 8ed8 75be 07ab 1b3f 1600 103f dcbe 343f

node_function_neighbor.2.weight f4 [64, 64]
-0.09240404 0.05708671 -0.0052866787 0.016070843 -0.0031670644 0.0805359 0.016873196 0.03331822
-0.031280395 -0.077139094 -0.12757473 -0.0047977967 0.0171997 0.072736084 0.09996116 0.09202866
-0.15381049 -0.074144445 0.021309644 0.036287896 0.022917151 -0.017747179 0.0070846975 0.08553873
-0.07984434 0.009210842 0.0142453015 -0.017451108 -0.09397866 0.107318625 -0.06673044 -0.06009433
-0.1284861 -0.06495376 0.0839299 -0.07988916 -0.1062797 -0.13808095 0.09111531 -0.14245762
0.06326214 0.022717007 -0.09844257 -0.12907292 -0.109664306 -0.06922769 0.026816908 -0.03590022
0.050495356 -0.08787519 -0.12387207 -0.0005724132 0.0912675 0.10481952 -0.07910311 -0.09160004
-0.11044839 0.08785465 -0.10881977 -0.008681163 0.11674109 0.1085099 -0.0030129366 -0.07565756
0.029835204 -0.12065551 0.036366176 -0.051332098 0.045663267 -0.04582544 0.037147578 0.024654651
0.04405606 -0.059468042 -0.008322763 -0.028989488 -0.014250996 0.28835163 0.13290077 0.062099904
0.014537399 -0.14053947 -0.035889022 6.7594934e-05 0.07467541 -0.010723922 0.035073046 0.004293101
-0.106665224 -0.07888535 0.009682446 -0.19886747 -0.023207981 -0.16264984 0.034056753 0.10800567
0.10893256 0.122751534 -0.012688826 -0.042186137 0.024164788 -0.050191063 -0.18203332 -0.10558573
0.12420567 -0.10280496 0.063017614 -0.09543308 0.058109626 -0.008429036 0.020684792 0.11505293
0.06833622 -0.01949554 0.052267224 -0.0039133276 0.055281304 0.03377547 -0.07481239 0.01596561
0.0631943 -0.0801771 0.030698255 -0.012014761 -0.2013728 0.015382975 -0.19086485 0.09032529
0.01012529 -0.1178668 -0.01905095 0.055610932 0.0520219 0.076147184 -0.09850728 -0.07333687
-0.1565076 -0.105461225 -0.15261042 -0.06471795 0.016885836 -0.13675265 -0.15219836 -0.13354336
-0.025940286 0.054402333 -0.13009097 -0.016622836 0.050197113 0.01412702 0.068264 -0.053501345
-0.069035225 -0.07373318 -0.012012894 -0.00020988783 0.037531808 -0.034227755 0.045312997 -0.10865278
-0.04799063 0.0010667607 -0.08464488 -0.14343773 0.09697846 0.08498378 0.05692588 -0.08569781
-0.03650398 0.06123343 -0.06097826 0.023860717 0.06354558 -0.17593959 -0.11168384 -0.0024088267
-0.078368634 -0.034914326 -0.120094225 -0.11882589 -0.093722105 0.011689228 -0.051198743 0.04450904
0.03137216 0.023436865 -0.051250335 -0.07319809 -0.1420643 0.07189832 -0.1605089 -0.12788312
0.013396272 0.05538677 0.061140954 -0.049130462 -0.09080963 0.11810782 -0.029326698 0.116712146
-0.07763107 -0.1267747 0.05650267 0.015997263 -0.09764674 -0.073876426 0.040204573 0.08144693
-0.11459775 0.0023934643 0.07129605 -0.01914725 0.07912914 -0.09716699 0.122718796 -0.058470022
0.011484501 0.039813533 0.06153594 -0.09650504 0.07688396 0.027263075 -0.013185955 -0.060800344
0.096182175 0.058006044 0.046916492 -0.093034215 0.14856231 0.09859663 0.026686514 -0.0020666588
0.1300445 -0.0854401 -0.014923187 -0.053342085 -0.07313193 -0.021949137 -0.005881644 0.067908034
0.0127228545 0.06475253 0.07113778 0.12827814 0.0006933894 0.021036139 -0.055908397 0.03669141
0.15834707 -0.059897657 0.04875321 -0.07249978 -0.050900776 -0.08687632 -0.1633187 0.045424324
00000000: 543e bdbd c1d3 693d e03b adbb 00a7 833c
00000010: 868e 4fbb 02f0 a43d a839 8a3c b078 083d
00000020: df1f 00bd 1afb 9dbd f3a2 02be d636 9dbb
00000030: 63e6 8c3c a8f6 943d 70b8 cc3d 8679 bc3d
00000040: 7f80 1dbe 0bd9 97bd 9091 ae3c 9ea2 143d
00000050: c0bc bb3c 8862 91bc c026 e83b ee2e af3d
00000060: 6e85 a3bd 12e9 163c 2065 693c a0f5 8ebc
00000070: e277 c0bd dec9 db3d f8a9 88bd 7925 76bd
00000080: dc91 03be 7a06 85bd 70e3 ab3d ee9c a3bd
00000090: 2ca9 d9bd 1865 0dbe aa9a ba3d 69e0 11be
000000a0: 958f 813d 0419 ba3c 429c c9bd b12b 04be
000000b0: ae97 e0bd 3fc7 8dbd 22af db3c 1c0c 13bd
000000c0: 38d4 4e3d e8f7 b3bd a4b0 fdbd 000e 16ba
000000d0: 74ea ba3d 9eab d63d d000 a2bd cd98 bbbd
000000e0: c432 e2bd 24ed b33d e6dc debd 703b 0ebc
000000f0: f415 ef3d 703a de3d b074 45bb 5af2 9abd
00000100: f568 f43c 3c1a f7bd b3f4 143d 9b41 52bd
00000110: 6809 3b3d 75b3 3bbd 0f28 183d 8df8 c93c
00000120: 2174 343d c394 73bd 335c 08bc 5d7b edbc
00000130: 027d 69bc d3a2 933e 2417 083e 785c 7e3d
00000140: 452e 6e3c 94e9 0fbe 5e00 13bd c1c1 8d38
00000150: 6cef 983d 64b3 2fbc c1a8 0f3d 24ad 8c3b
00000160: 4c73 dabd a48e a1bd 1fa3 1e3c eaa3 4bbe
00000170: aa1e bebc ae8d 26be 187f 0b3d 1432 dd3d
00000180: 0918 df3d 2865 fb3d cbe4 4fbc 5fcb 2cbd
00000190: 3cf5 c53c 2595 4dbd f166 3abe 553d d8bd
000001a0: 8b5f fe3d 688b d2bd 610f 813d 6b72 c3bd
000001b0: 5c04 6e3d f019 0abc 2773 a93c dfa0 eb3d
000001c0: dcf3 8b3d 1cb5 9fbc 2816 563d 5f3b 80bb
000001d0: a66e 623d 2658 0a3d 3d37 99bd 50ca 823c
000001e0: 036c 813d e433 a4bd e87a fb3c 8fd9 44bc
000001f0: ac34 4ebe e008 7c3c 1372 43be 77fc b83d
00000200: 8be4 253c 2664 f1bd bd10 9cbc 4ac8 633d
00000210: ea14 553d 0ef3 9b3d 2fbe c9bd a431 96bd
00000220: 8743 20be 0efc d7bd e845 1cbe d88a 84bd
00000230: 2a54 8a3c e308 0cbe e3d9 1bbe 97bf 08be
00000240: b980 d4bc fbd4 5e3d 9136 05be 9d2c 88bc
00000250: 7d9b 4d3d 0475 673c ffcd 8b3d 3a24 5bbd
00000260: 5762 8dbd 6c01 97bd bbd1 44bc 5615 5cb9
00000270: f4ba 193d 6732 0cbd 1f9a 393d 5985 debd
00000280: d391 44bd 8dd2 8b3a 4b5a adbd 57e1 12be
00000290: a59c c63d fa0b ae3d 1d2b 693d 5582 afbd
000002a0: 3385 15bd e8cf 7a3d 57c4 79bd 8d77 c33c
000002b0: 2f24 823d 8229 34be 7fba e4bd 68dd 1dbb
000002c0: bc7f a0bd 5302 0fbd f6f3 f5bd fd5a f3bd
000002d0: 60f1 bfbd 2d84 3f3c c6b5 51bd 1c4f 363d
000002e0: 1880 003d abfe bf3c dfeb 51bd e1e8 95bd
000002f0: 4e79 11be 6d3f 933d 725c 24be cbf3 02be
00000300: 0a7c 5b3c 3ddd 623d f06e 7a3d 063d 49bd
00000310: 66fa b9bd 83e2 f13d 8b3e f0bc c706 ef3d
00000320: 0afd 9ebd 3ad1 01be 586f 673d b10c 833c
00000330: 04fb c7bd 864c 97bd 8dad 243d a6cd a63d
00000340: 3ab2 eabd abdb 1c3b aa03 923d b2da 9cbc
00000350: 750e a23d 7dff c6bd fe53 fb3d 437e 6fbd
00000360: 7d29 3c3c 8413 233d 1c0d 7c3d 6fa4 c5bd
00000370: 5675 9d3d d056 df3c e709 58bc c809 79bd
00000380: 29fb c43d bf97 6d3d 822b 403d b988 bebd
00000390: b820 183e 08ed c93d ad9d da3c c870 07bb
000003a0: 632a 053e 38fb aebd 6280 74bc 3b7d 5abd
000003b0: 31c6 95bd adce b3bc ceba c0bb 5e13 8b3d
000003c0: 8573 503c f99c 843d afb0 913d 585b 033e
000003d0: 93c4 353a fb53 ac3c 3400 65bd bb49 163d
000003e0: bc25 223e 3f57 75bd 72b1 473d c47a 94bd
000003f0: 557d 50bd 36ec b1bd 043d 27be db0e 3a3d

node_function_neighbor.2.bias f4 [64]
-0.08230693 -0.05313753 -0.11183604 -0.056518957 -0.026253838 -0.074610114 -0.12257455 0.044013128
-0.035680152 -0.06802863 0.099438354 -0.072926305 0.05504257 0.028605578 -0.08661509 0.039881334
0.027540753 -0.036085185 0.04212365 -0.058621064 0.026040027 0.0923298 -0.06029799 -0.13992974
-0.13512483 -0.0635976 -0.14007114 0.15051703 0.007814302 -0.12064992 -0.062052164 -0.03156244
-0.12077901 -0.0052335956 -0.053208098 0.0912312 0.06992406 -0.14569792 0.027825193 -0.029516561
0.11512088 -0.1552721 -0.12829807 -0.102147095 -0.0025810148 -0.1211577 0.0894231 0.057103273
-0.10968877 -0.09517081 0.100084245 0.1025683 0.098093875 -0.03362735 -0.018704008 0.06933807
0.053744253 -0.01614274 0.038369715 0.10305923 0.054793954 0.049933217 0.12833719 -0.12825608
00000000: 8990 a8bd bda6 59bd 4b0a e5bd 6c80 67bd
00000010: 4a12 d7bc 30cd 98bd 5e08 fbbd 1c47 343d
00000020: 5a25 12bd 9852 8bbd 56a6 cb3d 635a 95bd
00000030: 5174 613d 3f56 ea3c 4163 b1bd 9c5a 233d
00000040: 259d e13c 0fce 13bd d989 2c3d a41c 70bd
00000050: e551 d53c 6817 bd3d 06fb 76bd be49 0fbe
00000060: 2a5e 0abe 753f 82bd cf6e 0fbe 2321 1a3e
00000070: 8f07 003c 4e17 f7bd 692a 7ebd 9e47 01bd
00000080: fc5a f7bd 957e abbb bcf0 59bd 6cd7 ba3d
00000090: 5834 8f3d d631 15be a9f1 e33c b7cc f1bc
000000a0: 7fc4 eb3d a6ff 1ebe 9260 03be 7f32 d1bd
000000b0: 3e26 29bb 8721 f8bd 7523 b73d 1fe5 693d
000000c0: 81a4 e0bd eae8 c2bd f8f8 cc3d 540f d23d
000000d0: 71e5 c83d d5bc 09bd 2639 99bc 1e01 8e3d
000000e0: ef22 5c3d c83d 84bc 9029 1d3d b810 d33d
000000f0: a06f 603d c686 4c3d d36a 033e 9055 03be

node_function_neighbor.4.weight f4 [64, 64]
0.00922528 -0.13381238 -0.08565967 0.005546248 -0.044228505 -0.037545517 0.015639387 0.1028516
0.044166766 -0.17017235 0.09659395 -0.1428374 -0.067558505 0.003893194 -0.052122608 -0.0142767355
0.041078582 -0.056891143 0.023240397 -0.13627367 -0.14225164 -0.052325886 -0.14397447 -0.14681977
0.06110117 -0.083512925 -0.066048145 -0.030038549 0.03691005 -0.12471444 -0.15858461 -0.13824528
0.038974017 -0.06548608 -0.048286907 -0.024364281 0.046469934 -0.09094736 -0.10054314 -0.0298391
0.04864722 0.028628621 -0.0127196405 0.053328507 -0.1369171 -0.08509735 -0.023065574 -0.034973264
-0.13926545 -0.044440553 0.0677543 -0.027241278 0.08084542 -0.17548175 -0.0152672855 -0.12654498
0.061212473 -0.09192772 -0.107891075 -0.08449654 -0.09822497 0.11654931 -0.045539837 0.07416838
-0.1243957 -0.030885994 0.047888044 0.0018458389 0.055685803 -0.047687083 0.005961967 -0.14971693
0.120210186 -0.060244896 0.028908072 -0.1607601 -0.07205821 -0.07860952 -0.06827554 -0.010343175
-0.1504664 -0.053335026 0.01579435 -0.15539087 0.08154268 -0.022501007 -0.020471314 -0.0817074
0.022781665 0.11367798 -0.029365819 -0.098726116 -0.032426 0.043676134 -0.16848837 -0.02129926
-0.048379947 -0.06161491 0.057377256 -0.04038727 -0.19216236 0.07050903 0.0023645486 -0.015132204
-0.0020782216 -0.06230243 -0.13354751 -0.06750362 0.08983582 -0.042676233 0.037754223 0.1052352
-0.04239788 0.11447784 0.043043353 -0.039577514 -0.11004528 -0.08614869 0.0497842 0.07108037
-0.14404891 -0.011627213 0.04027013 0.1475989 -0.1104535 0.14167744 -0.045455307 -0.14543381
-0.022447929 -0.04860273 0.03801151 -0.037368227 0.09396362 -0.0573017 0.15186438 -0.1693976
0.09274672 -0.091197014 -0.13007213 0.025292093 0.052303962 0.07443091 0.056823965 -0.02861599
-0.08248787 0.10632059 -0.091282815 0.05990494 -0.122957505 -0.10423448 0.03886336 0.06911137
-0.14741501 -0.043974027 -0.09497879 -0.15515088 -0.05093874 -0.0840187 -0.06588398 -0.012141055
0.052390333 0.06548889 -0.06609459 -0.040297907 -0.03174664 -0.03019445 -0.096643284 0.11114243
-0.02175477 -0.018856345 -0.14425048 -0.13446696 -0.0067796246 -0.013968423 -0.12068447 -0.12754741
0.021324579 0.0977913 0.07289923 0.042807013 -0.07949287 0.056376606 0.08478164 -0.12052417
0.04663 -0.044469655 -0.058092076 -0.12369358 0.12361921 0.020430133 -0.11643278 -0.16015905
-0.07447782 -0.08534966 0.0017184403 -0.12530386 0.030903766 0.0071768463 0.061489854 0.07096382
0.10468278 0.034731735 -0.0512137 -0.01509515 -0.002051554 0.0060612783 -0.00075008406 0.079608515
-0.05864423 -0.059138246 0.045899097 0.06523212 -0.022605574 0.027185576 0.007239533 -0.017642708
-0.028029764 0.11086401 -0.09604067 0.05693815 0.13101387 0.015537024 -0.08317646 0.04985881
-0.03499229 -0.037708104 -0.0057088383 0.08615121 -0.120649114 -0.010772967 0.06304254 -0.04439382
-0.12910694 -0.12128658 -0.0028805928 0.021385156 -0.1661524 -0.07398297 -0.11012795 0.0021227053
0.06322283 -0.06557484 -0.11147192 -0.031569783 0.007193356 -0.10514913 -0.055057894 -0.035226446
0.05056599 -0.045668263 -0.06929247 0.15392484 0.079506546 0.053324826 0.10610571 0.045309536
00000000: a125 173c 1d06 09be 566e afbd 4dbd b53b
00000010: f328 35bd 54c9 19bd 2c1e 803c dca3 d23d
00000020: 36e8 343d a941 2ebe 0dd3 c53d f843 12be
00000030: 1d5c 8abd f524 7f3b 847e 55bd f8e8 69bc
00000040: 0442 283d b006 69bd a562 be3c 538b 0bbe
00000050: 6aaa 11be ab53 56bd 0b6e 13be ec57 16be
00000060: 3845 7a3d d308 abbd 4044 87bd 6713 f6bc
00000070: fe2e 173d 496a ffbd 0164 22be 2c90 0dbe
00000080: 38a3 1f3d 911d 86bd 7ec8 45bd 9a97 c7bc
00000090: 4257 3e3d 9c42 babd 90e9 cdbd 2171 f4bc
000000a0: 4f42 473d 9286 ea3c 0a66 50bc fe6e 5a3d
000000b0: ff33 0cbe 8547 aebd 04f4 bcbc 2040 0fbd
000000c0: 9a9b 0ebe 4c07 36bd c4c2 8a3d 1a29 dfbc
000000d0: 4992 a53d 7db1 33be a323 7abc 0295 01be
000000e0: eeb9 7a3d 9a44 bcbd fff5 dcbd 860c adbd
000000f0: 2c2a c9bd 68b1 ee3d fb87 3abd 97e5 973d
00000100: 2cc3 febd a004 fdbc 4126 443d 13f0 f13a
00000110: cc16 643d 8853 43bd 9b5c c33b 654f 19be
00000120: c230 f63d 5ac3 76bd 9fd0 ec3c 4c9e 24be
00000130: 4193 93bd 07fe a0bd 0cd4 8bbd 6c76 29bc
00000140: dd13 1abe d475 5abd 2763 813c c91e 1fbe
00000150: d9ff a63d 0854 b8bc 75b3 a7bc 3656 a7bd
00000160: 9da0 ba3c 00d0 e83d 9690 f0bc eb30 cabd
00000170: 20d1 04bd bfe5 323d 3788 2cbe c97b aebc
00000180: 0d2a 46bd ea5f 7cbd 6a04 6b3d 1f6d 25bd
00000190: 36c6 44be 0a67 903d 8bf6 1a3b 10ed 77bc
000001a0: c632 08bb d530 7fbd aec0 08be 573f 8abd
000001b0: d8fb b73d 46cd 2ebd 2ca4 1a3d 8d85 d73d
000001c0: 66a9 2dbd 5c73 ea3d 3a4e 303d 081c 22bd
000001d0: 6b5f e1bd b96e b0bd 84ea 4b3d 9692 913d
000001e0: 8f81 13be 1180 3ebc 4bf2 243d 2b24 173e
000001f0: 7235 e2bd e413 113e 582f 3abd 9aec 14be
00000200: b8e4 b7bc a813 47bd f5b1 1b3d 6d0f 19bd
00000210: 0070 c03d 30b5 6abd 5682 1b3e 9176 2dbe
00000220: fef1 bd3d 80c5 babd a131 05be 5d31 cf3c
00000230: ae3c 563d 3c6f 983d 3fc0 683d 156c eabc
00000240: 66ef a8bd 9cbe d93d 7cf2 babd e25e 753d
00000250: 25d1 fbbd e378 d5bd 302f 1f3d 438a 8d3d
00000260: f6f3 16be 1c1e 34bd 3d84 c2bd dfdf 1ebe
00000270: 24a5 50bd ff11 acbd 2eee 86bd 47eb 46bc
00000280: 3f97 563d 0a1f 863d 9a5c 87bd 6b0f 25bd
00000290: c408 02bd 5a5a f7bc eaec c5bd a49e e33d
000002a0: 0f37 b2bc 9f78 9abc 66b6 13be b5b1 09be
000002b0: 9d27 debb d0db 64bc 6b29 f7bd ca9b 02be
000002c0: e2b0 ae3c ce46 c83d 314c 953d 6856 2f3d
000002d0: 28cd a2bd 28eb 663d ffa1 ad3d 60d5 f6bd
000002e0: 19ff 3e3d d025 36bd f5f1 6dbd 0f53 fdbd
000002f0: 122c fd3d 185d a73c 4f74 eebd bc00 24be
00000300: d487 98bd cdcb aebd 4a3d e13a a84f 00be
00000310: e529 fd3c c02b eb3b c9dc 7b3d 7b55 913d
00000320: ed63 d63d dd42 0e3d 75c5 51bd a651 77bc
00000330: 5d73 06bb b09d c63b 4aa1 44ba ca09 a33d
00000340: ef34 70bd f23a 72bd b100 3c3d 6b98 853d
00000350: 532f b9bc 49b4 de3c 9b39 ed3b 7187 90bc
00000360: ad9e e5bc ac0c e33d f9b0 c4bd fa37 693d
00000370: 8028 063e 008f 7e3c 6b58 aabd c038 4c3d
00000380: 1354 0fbd d073 1abd 3511 bbbb 0c70 b03d
00000390: e216 f7bd 1981 30bc 721c 813d 4bd6 35bd
000003a0: 9c34 04be 1965 f8bd 54c8 3cbb ec2f af3c
000003b0: db23 2abe 6284 97bd c38a e1bd 161d 0b3b
000003c0: f97a 813d 1a4c 86bd 644b e4bd 514f 01bd
000003d0: 3eb6 eb3b 6d58 d7bd 6384 61bd 9b49 10bd
000003e0: 491e 4f3d a50e 3bbd 36e9 8dbd 799e 1d3e
000003f0: 54d4 a23d 226b 5a3d f34d d93d 7e96 393d

node_function_neighbor.4.bias f4 [64]
0.07188782 -0.15359673 0.041632023 0.11517197 -0.04358357 0.021218682 -0.076183036 -0.058211233
-0.017996265 -0.06946281 -0.023901787 -0.09518932 -0.04490355 -0.007702023 0.064026944 -0.14248964
0.09181748 0.022923233 0.13429551 -0.08355941 0.119505845 -0.0441218 0.07100968 -0.06602916
-0.029017009 -0.039329015 0.022023924 -0.13504742 0.18366182 0.08868121 0.09237547 -0.07746916
0.05578245 0.037108015 -0.04948287 -0.10205077 0.13618822 0.058314748 -0.016455673 -0.032809567
-0.08502532 -0.021930799 -0.058682203 0.036055293 -0.0951257 -0.04269203 0.08214251 -0.09162256
0.024907364 0.15067625 -0.039614588 -0.08414728 -0.0042635924 0.011855741 -0.11454721 0.04914683
0.054208152 0.07680479 -0.102325685 0.07026951 0.11340136 -0.14421102 -0.10991384 0.015358239
00000000: ec39 933d 7648 1dbe 5786 2a3d 48df eb3d
00000010: af84 32bd cdd2 ad3c da05 9cbd e76e 6ebd
00000020: e76c 93bc 8542 8ebd aecd c3bc 9ef2 c2bd
00000030: c9ec 37bd 4061 fcbb 8f20 833d cee8 11be
00000040: ce0a bc3d 81c9 bb3c c384 093e 3221 abbd
00000050: 7bbf f43d 10b9 34bd 866d 913d 4c3a 87bd
00000060: 14b5 edbc 7617 21bd 846b b43c df49 0abe
00000070: d811 3c3e 7f9e b53d 5a2f bd3d 27a8 9ebd
00000080: 237c 643d 93fe 173d 8dae 4abd feff d0bd
00000090: ed74 0b3e 72db 6e3d 0cce 86bc 5363 06bd
000000a0: c121 aebd 38a8 b3bc c05c 70bd b7ae 133d
000000b0: 43d1 c2bd d7dd 2ebd 553a a83d 9ca4 bbbd
000000c0: 870a cc3c e04a 1a3e e842 22bd 6955 acbd
000000d0: 9bb5 8bbb 953e 423c ba97 eabd 304e 493d
000000e0: 5e09 5e3d d44b 9d3d 2190 d1bd 76e9 8f3d
000000f0: f93e e83d 0eac 13be 821a e1bd 20a1 7b3c

node_function_neighbor.6.weight f4 [4, 64]
0.02475368 0.027407015 0.10486269 0.060248233 0.03291629 -0.045924384 0.042315453 0.06411181
-0.063473925 -0.046057373 -0.06181615 0.0014925258 0.09006554 0.045246586 -0.04923613 -0.09403341
0.071377374 0.012622092 0.084271505 0.08879959 0.12364488 0.09296099 0.028213607 -0.023696544
0.008358739 -0.0046572178 0.09011969 -0.0671041 0.030526405 0.051804494 0.012001337 -0.0076549915
0.020584563 0.013353826 0.031097274 0.008617835 0.111704156 -0.08911328 -0.03281575 0.10991872
0.04224512 0.056274753 0.113281004 -0.027104285 -0.0028177663 0.028212337 0.067347206 -0.053558916
0.033572968 0.059250228 0.05726114 -0.09456267 -0.02755902 0.04511979 0.002559881 -0.046475247
0.107251756 -0.0019736455 -0.032056365 0.118638635 0.11204226 -0.025206855 -0.0780524 0.01909914
0.11251194 0.065941356 -0.04260026 0.072665535 -0.0690489 -0.066139065 -0.056126393 -0.013254047
0.05932168 0.10743994 0.030013934 -0.095250756 -0.09634954 0.014395639 -0.024148209 -0.008675635
0.0034153927 -0.08001225 -0.017512368 -0.031142117 -0.04074689 0.09526761 -0.008285976 0.036557946
-0.032305162 0.08563286 0.11974558 -0.106416285 0.1389074 -0.07072105 -0.0007784205 0.09672453
0.091552794 0.002863277 0.07507184 0.04174591 0.00647184 -0.02402122 -0.07889434 0.103203446
0.0029494832 -0.062087525 -0.1853491 -0.023922222 0.0010827786 -0.10035624 -0.06702036 0.06764093
-0.005754676 0.11695822 -0.10045752 -0.103789374 -0.062460717 0.089838535 -0.042618074 0.06679801
0.0583016 0.049591303 -0.037011888 0.026595667 0.0614222 -0.10174127 -0.008482143 -0.050300904
-0.017408472 -0.05809843 0.006353041 0.04285053 0.04808759 -0.14612773 0.017702177 -0.03182095
0.12328791 -0.020392917 0.09685635 0.044679668 0.053419195 -0.02435179 -0.11092427 -0.047310255
0.01657431 -0.108987495 0.033346098 0.13131759 0.09166386 -0.07933967 0.012987732 0.05465444
0.049932625 -0.038888656 -0.07801678 -0.109953076 0.014963405 0.05472117 0.008442787 -0.14451617
-0.0007266358 -0.063805684 -0.09628374 -0.0066287993 0.028816469 0.103076816 0.03488765 -0.057245124
-0.0059043122 -0.009228797 0.031455036 -0.052143935 -0.012539371 -0.054902017 -0.09214314 0.120056376
-0.030392677 -0.033168007 -0.11898954 0.059372522 -0.08121227 -0.10014694 0.05899675 -0.002429293
-0.04693418 -0.042584613 0.0051227603 -0.079708055 0.06547668 0.09303172 0.054304928 -0.024867492
0.037874404 -0.027003838 0.043819018 -0.06699197 -0.044741742 -0.013969632 0.029780969 -0.05601678
0.07212492 -0.049834635 0.047476865 0.12263902 0.023069795 -0.049094215 -0.058059994 -0.047955528
0.014991209 -0.08794436 -0.07648757 0.09734536 -0.107997425 -0.05863591 -0.03992975 -0.058964487
0.08192148 -0.079194255 -0.037060715 0.050021887 -0.035730377 -0.080927424 0.055468418 0.0015517678
0.09239751 -0.018591516 -0.0008080317 -0.0666448 -0.097169355 0.028925428 -0.09109884 0.11755009
-0.015584647 -0.0074074934 0.13652915 -0.055127572 -0.05749736 0.0015228068 -0.13549665 -0.104539216
0.036421858 -0.048167594 0.032779172 -0.03333764 0.056981854 0.07981778 -0.08620128 0.07883573
-0.058436356 -0.058097716 -0.052873243 0.07092079 0.069046475 0.051186416 0.04087071 0.13433091
00000000: 3bc8 ca3c ad84 e03c 40c2 d63d dac6 763d
00000010: 3bd3 063d 351b 3cbd f852 2d3d 0d4d 833d
00000020: 9efe 81bd a8a6 3cbd ee32 7dbd dba0 c33a
00000030: 4874 b83d 7c54 393d d3ab 49bd 9794 c0bd
00000040: 4d2e 923d e4cc 4e3c 8a96 ac3d 8fdc b53d
00000050: 8739 fd3d 5562 be3d 3920 e73c 411f c2bc
00000060: 18f3 083c 939b 98bb ac90 b83d e06d 89bd
00000070: 8312 fa3c f330 543d 41a1 443c b9d6 fabb
00000080: f5a0 a83c 01ca 5a3c b6bf fe3c d231 0d3c
00000090: 26c5 e43d 0681 b6bd cf69 06bd 111d e13d
000000a0: 3809 2d3d 5b80 663d dfff e73d ce09 debc
000000b0: 46aa 38bb 8f1d e73c 55ed 893d 9860 5bbd
000000c0: cf83 093d 5eb0 723d a88a 6a3d 13aa c1bd
000000d0: 74c3 e1bc 87cf 383d adc3 273b d45c 3ebd
000000e0: cfa6 db3d 4758 01bb 894d 03bd d0f8 f23d
000000f0: 6a76 e53d 9b7e cebc f0d9 9fbd cd75 9c3c
00000100: a96c e63d 430c 873d 9c7d 2ebd abd1 943d
00000110: 8269 8dbd eb73 87bd cae4 65bd 8127 59bc
00000120: 4afb 723d 7909 dc3d c8df f53c d412 c3bd
00000130: e852 c5bd b0db 6b3c 77d2 c5bc 4024 0ebc
00000140: c8d4 5f3b 76dd a3bd 1976 8fbc c11d ffbc
00000150: 36e6 26bd aa1b c33d e7c1 07bc c9bd 153d
00000160: 6b52 04bd 4860 af3d 2c3d f53d c8f0 d9bd
00000170: be3d 0e3e 33d6 90bd ea0e 4cba 8317 c63d
00000180: 0880 bb3d d1a5 3b3b 44bf 993d c2fd 2a3d
00000190: bb11 d43b 26c8 c4bc 5b93 a1bd 545c d33d
000001a0: 1e4c 413b 7d4f 7ebd 28cc 3dbe 89f8 c3bc
000001b0: 05ec 8d3a 9387 cdbd f841 89bd 5487 8a3d
000001c0: b991 bcbb cb87 ef3d acbc cdbd 868f d4bd
000001d0: cfd6 7fbd 44fd b73d 4a90 2ebd 65cd 883d
000001e0: a9cd 6e3d 4020 4b3d c799 17bd 28df d93c
000001f0: d895 7b3d ba5d d0bd b0f8 0abc 5208 4ebd
00000200: 369c 8ebc 9ff8 6dbd 2c2d d03b 0a84 2f3d
00000210: 7ef7 443d 82a2 15be 2804 913c af56 02bd
00000220: 5f7e fc3d 0c0f a7bc 9f5c c63d 0702 373d
00000230: 16ce 5a3d 687d c7bc 432c e3bd 66c8 41bd
00000240: d9c6 873c d634 dfbd eb95 083d 1e78 063e
00000250: 43ba bb3d d67c a2bd 7fca 543c 56dd 5f3d
00000260: 2786 4c3d b649 1fbd 43c7 9fbd 142f e1bd
00000270: 1229 753c 4e23 603d 9e53 0a3c 0cfc 13be
00000280: b47b 3eba 8eac 82bd 6930 c5bd 6636 d9bb
00000290: 8410 ec3c f019 d33d 5ae6 0e3d dd79 6abd
000002a0: f678 c1bb 6134 17bc ffd6 003d e194 55bd
000002b0: ef71 4dbc f0e0 60bd 8bb5 bcbd 1ee0 f53d
000002c0: 10fa f8bc 2ddb 07bd cab0 f3bd 9a30 733d
000002d0: 9e52 a6bd d719 cdbd 93a6 713d c634 1fbb
000002e0: 0e3e 40bd 346d 2ebd d4dc a73b fa3d a3bd
000002f0: a318 863d 6a87 be3d d86e 5e3d e9b6 cbbc
00000300: 3122 1b3d 2737 ddbc 927b 333d 1633 89bd
00000310: 1e43 37bd e2e0 64bc 38f7 f33c da71 65bd
00000320: 3bb6 933d 671f 4cbd 1a77 423d 2b2a fb3d
00000330: defc bc3c 0417 49bd 51d0 6dbd 046d 44bd
00000340: b09d 753c 2c1c b4bd 84a5 9cbd 015d c73d
00000350: c12d ddbd 352c 70bd 618d 23bd bf84 71bd
00000360: 73c6 a73d 9930 a2bd facc 17bd c0e3 4c3d
00000370: 045a 12bd 47bd a5bd da32 633d b064 cb3a
00000380: e83a bd3d 3c4d 98bc 17d2 53ba 127d 88bd
00000390: ba00 c7bd 05f5 ec3c 0792 babd 1abe f03d
000003a0: bf56 7fbc 8fba f2bb 4cce 0b3e 73cd 61bd
000003b0: 5a82 6bbd eb98 c73a a2bf 0abe a818 d6bd
000003c0: 162f 153d 624b 45bd 7443 063d 0d8d 08bd
000003d0: ce65 693d 8177 a33d 4c8a b0bd a174 a13d
000003e0: f65a 6fbd dff7 6dbd 9d91 58bd eb3e 913d
000003f0: 3d68 8d3d d9a8 513d 0c68 273d 0b8e 093e

node_function_neighbor.6.bias f4 [4]
0.049761746 0.0966672 0.09743448 0.09635685
00000000: f9d2 4b3d 74f9 c53d bb8b c73d bd56 c53d

edge_function.0.weight f4 [64, 4]
-0.42005315 0.004495484 -0.28454867 -0.25294757 0.06856426 0.023028046 -0.15374336 0.2506312
-0.34563166 0.17812026 0.008943325 -0.13784695 0.057430126 -0.36315164 -0.2900236 -0.20281406
-0.1460606 0.1083612 0.40792203 -0.46074247 -0.45071238 -0.00035799525 -0.21984775 -0.46859896
-0.30636948 -0.10629673 -0.17949149 -0.43111482 -0.30290362 -0.007982068 -0.15857661 0.2647489
-0.22871636 -0.38350067 -0.21056353 -0.11962772 0.40418386 -0.18615335 0.15738788 0.032700196
0.29648945 0.30413353 -0.400127 -0.14687207 0.41730335 0.31970826 0.06859286 -0.3740424
0.13014896 0.38016284 -0.41967535 -0.21087348 -0.47914827 0.16455634 -0.35617846 0.13178724
0.14061998 -0.14697719 0.005689709 0.42961362 -0.42768663 -0.118168816 0.4234496 0.09276828
0.17315128 -0.12252024 0.19043154 -0.37567517 -0.14407341 0.30510575 0.055305224 0.37331453
-0.07103847 0.28742442 -0.28226003 0.34225604 -0.14251882 0.13717404 0.096445985 -0.17392823
0.18382786 0.41149107 -0.43236545 0.20668307 0.02384243 -0.3061136 -0.07109775 0.25619075
0.05534251 -0.03777437 0.31634113 0.2330382 0.29822254 0.40883848 0.29976282 -0.16432905
-0.2748465 0.22877699 -0.10615602 0.0015711834 0.19333023 0.10676206 -0.47034305 -0.31201914
-0.40007284 0.21577352 -0.076880336 0.090805516 -0.08209341 -0.2764975 -0.38989028 0.13149944
0.31585404 -0.0036815796 0.2606258 0.04537989 0.44090787 -0.288384 0.45032448 0.131812
0.27683178 0.023947308 -0.24759413 0.3195774 0.39710227 -0.3594649 -0.04636736 -0.17978746
-0.14600743 -0.017451145 0.4370042 0.2101316 -0.28922555 0.40034863 0.09770427 -0.14210966
0.25343814 0.10447121 0.17637257 0.42716485 0.28597566 0.106628634 0.4096854 0.16479741
0.39924532 -0.2729174 0.1758218 -0.31849518 0.41256663 0.29729632 0.36559525 -0.31077334
-0.32436875 -0.056882545 -0.2661123 -0.17536396 -0.48502102 -0.24358565 0.09461992 0.08197078
-0.3337311 -0.027600212 0.2754664 -0.08879863 0.30468294 0.42248756 0.492866 -0.42813903
0.27616543 -0.060621507 -0.2307642 -0.0654831 -0.50473946 -0.2569105 0.12825905 -0.19098115
-0.25068548 -0.4737303 0.43719983 0.39287102 0.10722344 -0.23190512 -0.25046283 -0.21912983
-0.053687397 -0.36761293 -0.2701005 -0.005870447 -0.16059364 -0.09857475 0.292805 -0.31254664
-0.23582658 -0.43794954 0.32533598 0.10959411 0.39354992 -0.25226477 0.07014976 0.029899351
-0.13959245 0.10977105 -0.23739289 0.13338535 0.31643584 -0.13079628 -0.1004799 0.3366279
-0.49360487 -0.16007835 0.43415666 0.3185722 0.44728413 0.32063475 -0.34388196 0.44842783
0.09033739 -0.1669245 0.00722444 -0.34273648 0.2338705 -0.23366956 -0.07438634 0.24446416
-0.29479647 0.2553317 0.023077236 0.3230311 -0.48432738 -0.27220982 -0.45525652 -0.08044889
0.09832605 -0.063055575 -0.18786113 0.2321107 0.41921416 -0.29353955 -0.06843985 0.4787095
0.09475891 -0.36639655 0.07219705 0.341148 -0.3276663 -0.49171814 0.2522858 0.21950409
0.02795873 0.22446194 0.29550385 0.31895223 -0.089417905 -0.050297808 0.109249316 -0.23328546
00000000: 3511 d7be da4e 933b 5db0 91be 5882 81be
00000010: 6b6b 8c3d 50a5 bc3c e66e 1dbe bc52 803e
00000020: a2f6 b0be 2865 363e 0687 123c c027 0dbe
00000030: da3b 6b3d 03ef b9be f97d 94be 7dae 4fbe
00000040: e990 15be 7aec dd3d 28db d03e 70e6 ebbe
00000050: c6c3 e6be 4fb1 bbb9 c51f 61be 34ec efbe
00000060: 76dc 9cbe 1ab2 d9bd 9ecc 37be 15bb dcbe
00000070: 2f16 9bbe 38c7 02bc e861 22be 2b8d 873e
00000080: 9f34 6abe 335a c4be f79d 57be 61ff f4bd
00000090: 30f1 ce3e fc9e 3ebe 4a2a 213e a4f0 053d
000000a0: 77cd 973e 64b7 9b3e 72dd ccbe a265 16be
000000b0: c9a8 d53e cdb0 a33e 6a7a 8c3d 7c82 bfbe
000000c0: c545 053e b4a4 c23e b0df d6be 38ef 57be
000000d0: ec52 f5be 7581 283e 065d b6be 3cf3 063e
000000e0: affe 0f3e 3081 16be bd70 ba3b 51f6 db3e
000000f0: bef9 dabe 7e02 f2bd 63ce d83e 4cfd bd3d
00000100: 924e 313e e4eb fabd 7c00 433e 7f58 c0be
00000110: fb87 13be d236 9c3e bb87 623d 1523 bf3e
00000120: 9e7c 91bd 4b29 933e 6384 90be 2f3c af3e
00000130: 74f0 11be 5a77 0c3e 7985 c53d 3e1a 32be
00000140: 5f3d 3c3e f5ae d23e 015f ddbe baa4 533e
00000150: 3351 c33c ecba 9cbe b29b 91bd 6f2b 833e
00000160: d4ae 623d 4cb9 1abd 77f7 a13e 91a1 6e3e
00000170: a0b0 983e 4753 d13e 837a 993e e045 28be
00000180: aeb8 8cbe 8444 6a3e 5468 d9bd 2bf0 cd3a
00000190: 5cf8 453e 11a6 da3d ced0 f0be f9c0 9fbe
000001a0: 59d6 ccbe bcf3 5c3e 7073 9dbd 3ef8 b93d
000001b0: 9720 a8bd 1591 8dbe b39f c7be caa7 063e
000001c0: 9fb7 a13e a846 71bb bf70 853e 43e0 393d
000001d0: adbe e13e 11a7 93be ee90 e63e baf9 063e
000001e0: e5bc 8d3e 252d c43c 5189 7dbe a69f a33e
000001f0: fd50 cb3e c90b b8be b3eb 3dbd 341a 38be
00000200: f982 15be b4f5 8ebc 04bf df3e bd2c 573e
00000210: 5f15 94be 7ffa cc3e 2d19 c83d 3285 11be
00000220: a5c2 813e 00f5 d53d 039b 343e 5ab5 da3e
00000230: 676b 923e 1d60 da3d 49c2 d13e a7c0 283e
00000240: e269 cc3e d4bb 8bbe a10a 343e cd11 a3be
00000250: ef3b d33e 3937 983e 4d2f bb3e af1d 9fbe
00000260: a913 a6be acfd 68bd df3f 88be 9c92 33be
00000270: ad54 f8be 846e 79be 17c8 c13d 4ce0 a73d
00000280: cede aabe d719 e2bc ef09 8d3e 0edc b5bd
00000290: 67ff 9b3e 4a50 d83e ef58 fc3e 0a35 dbbe
000002a0: 8e65 8d3e 424e 78bd 734d 6cbe 011c 86bd
000002b0: 9b36 01bf c689 83be 5756 033e 9090 43be
000002c0: d959 80be c78c f2be a8d8 df3e 6426 c93e
000002d0: f797 db3d 8978 6dbe aa3c 80be 9263 60be
000002e0: 51e7 5bbd c337 bcbe 9d4a 8abe e15c c0bb
000002f0: a972 24be 8fe1 c9bd 89ea 953e 1d06 a0be
00000300: 867c 71be ec3a e0be 7092 a63e e072 e03d
00000310: 607f c93e d928 81be adaa 8f3d 7cef f43c
00000320: 53f1 0ebe a5cf e03d 1f17 73be 2b96 083e
00000330: e103 a23e 76ef 05be 68c8 cdbd 7e5a ac3e
00000340: c7b9 fcbe 94eb 23be c849 de3e e51b a33e
00000350: 6d02 e53e 3d2a a43e 4c11 b0be 5598 e53e
00000360: cf02 b93d 42ee 2abe ffba ec3b 287b afbe
00000370: c07b 6f3e 1347 6fbe de57 98bd d054 7a3e
00000380: 90ef 96be d6ba 823e 790c bd3c 5564 a53e
00000390: c2f9 f7be 165f 8bbe 6217 e9be 63c2 a4bd
000003a0: 2b5f c93d 4823 81bd ab5e 40be 6dae 6d3e
000003b0: 3da3 d63e d14a 96be 312a 8cbd 6919 f53e
000003c0: f610 c23d 5498 bbbe 0cdc 933d f3aa ae3e
000003d0: e1c3 a7be 7bc2 fbbe 9b2b 813e aec5 603e
000003e0: b509 e53c 5ad9 653e 484c 973e b54d a33e
000003f0: bc20 b7bd 1305 4ebd 1bbe df3d 62e2 6ebe

edge_function.0.bias f4 [64]
0.3716102 -0.08450704 0.30713767 0.06190272 0.049723934 0.45197642 0.30177608 -0.21922268
-0.2113641 0.113727465 0.105430655 0.108967535 -0.46887973 0.16301374 -0.1479392 -0.040043034
-0.29267353 0.34806022 0.20273261 0.18532665 0.14124842 -0.20391418 -0.1047346 0.3392604
0.25016326 0.26615593 -0.2792967 0.3615918 -0.5634373 -0.02809092 0.20606136 0.42021987
-0.06206679 -0.21569683 0.04435221 0.20610526 0.40309796 -0.4560387 0.16669372 -0.085150614
-0.14050232 0.16242176 0.21750419 0.13883315 0.06055357 0.09545866 -0.3329107 -0.05991255
-0.23170954 -0.41950497 -0.38619524 -0.2412212 -0.4340643 0.10829083 -0.5221557 -0.077117875
0.04332763 -0.30199495 0.3399924 0.5330262 0.10011317 0.13725208 -0.02160634 -0.4276766
00000000: b143 be3e 0712 adbd 2641 9d3e b58d 7d3d
00000010: 53ab 4b3d 7469 e73e 6582 9a3e e97b 60be
00000020: d56f 58be f2e9 e83d 07ec d73d 5f2a df3d
00000030: 0111 f0be 13ed 263e 607d 17be 2a04 24bd
00000040: 4ed9 95be f334 b23e 2399 4f3e 45c6 3d3e
00000050: 6da3 103e e1ce 50be 187f d6bd 8ab3 ad3e
00000060: 6615 803e 9745 883e faff 8ebe 8f22 b93e
00000070: 6d3d 10bf ee1e e6bc c001 533e 0f27 d73e
00000080: bf39 7ebd a1df 5cbe aaaa 353d 420d 533e
00000090: db62 ce3e e87d e9be c2b1 2a3e 7263 aebd
000000a0: d7df 0fbe e451 263e 6bb9 5e3e 472a 0e3e
000000b0: 0507 783d d47f c33d 4573 aabe dd66 75bd
000000c0: 4445 6dbe 5bc9 d6be 62bb c5be b102 77be
000000d0: ad3d debe 95c7 dd3d ffab 05bf faef 9dbd
000000e0: 5078 313d 159f 9abe 7c13 ae3e 6874 083f
000000f0: 2208 cd3d cf8b 0c3e c7ff b0bc 6df8 dabe

edge_function.2.weight f4 [64, 64]
-0.040608086 0.074551046 -0.11997225 0.063694306 -0.07470843 -0.037412714 -0.12800339 -0.1660047
-0.06781345 -0.035450827 0.013779244 -0.06769615 0.053555094 -0.014624442 -0.0029853466 0.03513587
0.06694027 0.058705915 0.046297446 -0.09669493 0.097224325 0.10190121 -0.09267062 0.06276201
0.009523316 0.029253896 0.08006522 -0.062255852 -0.100638434 -0.06969035 0.0889236 -0.07713225
0.018837666 0.100129075 -0.014132677 -0.07415704 0.08290747 0.043267976 0.087045655 -0.13208108
-0.059238102 -0.11407372 0.13419078 -0.05876089 0.10242193 -0.049836487 0.023250328 -0.10131283
-0.026014445 0.08430011 -0.024312092 0.12788792 -0.054026026 0.06286311 0.054565534 0.13207898
0.023065677 0.11399373 -0.10678634 0.0014588599 -0.032819003 -0.0026235743 -0.10766711 0.073794395
-0.022485737 0.057725027 -0.10644972 0.10031427 0.04873935 -0.0198126 -0.103953764 -0.017655384
0.071334 -0.07828446 0.09235495 -0.008557613 0.06355675 -0.14229958 -0.052697774 0.0031299845
0.0049750754 0.08738269 -0.10057572 -0.15387101 0.12502363 -0.017816966 0.046194516 -0.11830178
-0.053516854 0.118380845 -0.16149645 -0.035847504 -0.031865645 0.101570986 0.10524757 0.08012292
-0.097532175 -0.126138 -0.046061642 0.049058538 -0.088041805 -0.00472133 -0.10316363 -0.0059546116
-0.0881166 0.027645672 -0.0493502 0.017085543 0.06302888 0.10393488 0.04236474 0.025989499
-0.106464386 -0.051962364 0.07633524 0.05545352 -0.12869276 0.037678476 0.04255752 0.08902331
0.04028906 -0.047538493 -0.023097737 0.11486339 0.1303747 -0.16681568 0.06764088 -0.051513314
-0.06858262 -0.06977141 -0.020528475 -0.13730006 -0.06942184 0.066606574 -0.09854335 0.049826324
-0.13004462 -0.11102085 -0.0020712318 -0.12158856 -0.1372781 0.10355557 -0.0008768551 -0.01975191
-0.01687654 0.008099473 -0.094263494 -0.012829321 -0.13942587 -0.0880166 0.017036602 0.11170122
-0.10608248 -0.013235359 -0.019522887 0.03862618 -0.15641049 -0.09991383 0.00853808 -0.121522814
0.11390919 0.120770425 -0.015817719 -0.051244516 -0.13738166 0.013786462 -0.1445679 -0.031479448
0.10547857 -0.038839735 -0.102648936 0.06543218 -0.08717733 0.05959003 -0.015621574 0.06736545
0.10693431 -0.068625376 0.06581265 0.07119026 0.09004368 -0.14486977 0.05361932 -0.09072395
-0.06747606 -0.055856176 -0.08733385 -0.17640334 -0.09705353 0.01620713 -0.12084932 -0.072165914
0.029554984 -0.0151234595 -0.08489767 0.09856338 -0.112712294 -0.049399756 0.09123062 0.07502818
0.08473974 -0.056661695 0.12380137 -0.028166527 -0.0112154465 0.08424075 0.09652897 -0.027900299
-0.080995284 -0.0061696535 0.12902449 -0.014305646 0.11875361 0.04512626 -0.050022155 -0.06841376
-0.10992443 0.09257372 0.03884191 0.102005616 -0.061148137 -0.060099144 0.12516278 0.01743866
0.05398656 -0.036016207 0.110582106 0.051181395 0.11747717 -0.0777019 0.058910113 -0.098527096
0.017619334 -0.06964535 0.04235964 -0.029365169 -0.15658121 -0.050406195 0.046584267 -0.013130636
0.002591714 0.050637465 -0.11620803 0.06271451 -0.122837424 0.04055562 -0.035271175 0.08486419
0.06311397 -0.012775604 0.021162916 0.051316988 -0.022548666 -0.06916974 0.11583793 0.087325424
00000000: aa54 26bd 38ae 983d 03b4 f5bd 2972 823d
00000010: bc00 99bd 133e 19bd 5213 03be 23fd 29be
00000020: c7e1 8abd e334 11bd 57c2 613c 47a4 8abd
00000030: 965c 5b3d 5b9b 6fbc cea5 43bb a1ea 0f3d
00000040: fb17 893d 9d75 703d 64a2 3d3d fe07 c6bd
00000050: 8c1d c73d 95b1 d03d 18ca bdbd 5e89 803d
00000060: af07 1c3c dea5 ef3c 3cf9 a33d feff 7ebd
00000070: 861b cebd d0b9 8ebd 941d b63d 83f7 9dbd
00000080: 7351 9a3c 7910 cd3d be8c 67bc a5df 97bd
00000090: 64cb a93d c339 313d fe44 b23d 4340 07be
000000a0: a7a3 72bd 7c9f e9bd 4f69 093e 42af 70bd
000000b0: 97c2 d13d 5821 4cbd 7977 be3c 1a7d cfbd
000000c0: 3f1c d5bc 89a5 ac3d 272a c7bc 0df5 023e
000000d0: 654a 5dbd 60be 803d 1c80 5f3d b63f 073e
000000e0: 3bf4 bc3c 8b75 e93d ccb2 dabd 3737 bf3a
000000f0: 386d 06bd 46f0 2bbb 9380 dcbd 8421 973d
00000100: 0234 b8bc 1471 6c3d 5002 dabd 9171 cd3d
00000110: eaa2 473d 094e a2bc b6e5 d4bd 06a2 90bc
00000120: 8f17 923d 9a53 a0bd 9824 bd3d 3b35 0cbc
00000130: 0b2a 823d fbb6 11be 9fd9 57bd 6d20 4d3b
00000140: f505 a33b b2f5 b23d a5fa cdbd 5d90 1dbe
00000150: 3206 003e e3f4 91bc 7636 3d3d 3448 f2bd
00000160: 7d34 5bbd a871 f23d 535f 25be d5d4 12bd
00000170: 8d85 02bd 7304 d03d 0a8c d73d 7c17 a43d
00000180: f3be c7bd 522a 01be 22ab 3cbd 9bf1 483d
00000190: 434f b4bd 63b5 9abb 7447 d3bd e71e c3bb
000001a0: 7a76 b4bd 2d79 e23c 6f23 4abd fbf6 8b3c
000001b0: 4915 813d cfdb d43d a686 2d3d eee7 d43c
000001c0: 000a dabd 7dd6 54bd a655 9c3d 3b23 633d
000001d0: 09c8 03be bf54 1a3d cb50 2e3d da51 b63d
000001e0: 2406 253d b9b7 42bd 7737 bdbc 7f3d eb3d
000001f0: f280 053e bbd1 2abe 4d87 8a3d a0ff 52bd
00000200: 0b75 8cbd 50e4 8ebd 552b a8bc 6398 0cbe
00000210: 0a2d 8ebd 0769 883d 19d1 c9bd b016 4c3d
00000220: 6b2a 05be e65e e3bd 81bd 07bb 6c03 f9bd
00000230: a192 0cbe f114 d43d c0dc 65ba c2ce a1bc
00000240: ab40 8abc a7b3 043c 380d c1bd 1332 52bc
00000250: a8c5 0ebe 0c42 b4bd 5890 8b3c 9cc3 e43d
00000260: c541 d9bd 1fd9 58bc 76ee 9fbc 7c36 1e3d
00000270: 122a 20be 9f9f ccbd 4ee3 0b3c f4e0 f8bd
00000280: 3949 e93d 7c56 f73d 2994 81bc c5e5 51bd
00000290: c7ad 0cbe 9de0 613c 9c09 14be 98f0 00bd
000002a0: 2605 d83d 6a16 1fbd 9b39 d2bd 4f01 863d
000002b0: 078a b2bd ad14 743d a1f1 7fbc e6f6 893d
000002c0: 6000 db3d 768b 8cbd c8c8 863d 33cc 913d
000002d0: d268 b83d be58 14be ef9f 5b3d 7acd b9bd
000002e0: e330 8abd 72c9 64bd 17dc b2bd 14a3 34be
000002f0: 00c4 c6bd d1c4 843c d97f f7bd b9cb 93bd
00000300: 4b1d f23c 63c8 77bc d4de adbd 99db c93d
00000310: b4d5 e6bd 6657 4abd 1fd7 ba3d 60a8 993d
00000320: 078c ad3d 1816 68bd 938b fd3d 7dbd e6bc
00000330: fec0 37bc 6a86 ac3d fbb0 c53d 2b8f e4bc
00000340: dbe0 a5bd ce2a cabb ff1e 043e 3a62 6abc
00000350: 1835 f33d 50d6 383d 08e4 4cbd 831c 8cbd
00000360: 0f20 e1bd 4a97 bd3d b218 1f3d 52e8 d03d
00000370: 7876 7abd 852a 76bd ac2a 003e 85db 8e3c
00000380: 0321 5d3d bb85 13bd df78 e23d 95a3 513d
00000390: df97 f03d 2c22 9fbd bb4b 713d 93c8 c9bd
000003a0: 6c56 903c 39a2 8ebd 4d81 2d3d 398f f0bc
000003b0: d356 20be ba76 4ebd 25cf 3e3d e121 57bc
000003c0: bfd9 293b 3b69 4f3d 7afe edbd 7770 803d
000003d0: 3092 fbbd a61d 263d 8278 10bd 47cd ad3d
000003e0: e641 813d c450 51bc da5d ad3c c331 523d
000003f0: fbb7 b8bc dda8 8dbd 703c ed3d acd7 b23d

edge_function.2.bias f4 [64]
-0.098874345 0.019991089 0.056379687 0.07212269 0.050344493 0.04671739 -0.06433098 -0.028881071
0.029463561 0.057947714 -0.17250228 -0.008372041 0.0018882027 -0.06338216 0.041864336 0.059923783
0.0866646 -0.087946035 0.1552904 0.06265465 0.15434991 0.10691522 -0.10988857 0.053696163
-0.028478274 0.09590141 0.010613082 -0.022684881 0.021573575 -0.10065955 0.061159182 -0.0985194
0.13164397 -0.010975891 0.011973558 0.023743486 0.11547378 0.002538458 -0.118648 0.046208598
-0.047871105 -0.12707259 -0.13089465 0.010352196 0.024046142 0.0027966562 0.025188575 -0.1305424
0.01135854 -0.08246379 -0.018114783 0.15082592 -0.09402831 -0.14879529 0.011370063 0.038883816
-0.110439174 -0.12468975 0.01186837 0.0024866466 -0.093377575 -0.041871116 0.11104863 0.09332636
00000000: a27e cabd 5ac4 a33c 63ee 663d 10b5 933d
00000010: 0736 4e3d bc5a 3f3d f6bf 83bd ff97 ecbc
00000020: 915d f13c 955a 6d3d 70a4 30be e32a 09bc
00000030: 927d f73a 82ce 81bd f079 2b3d a472 753d
00000040: 367d b13d 0d1d b4bd 7204 1f3e 1551 803d
00000050: e70d 1e3e 5ef6 da3d 420d e1bd 82f0 5b3d
00000060: 454b e9bc f567 c43d 7ee2 2d3c a5d5 b9bc
00000070: 11bb b03c 9826 cebd 0d82 7a3d 8ac4 c9bd
00000080: adcd 063e 39d4 33bc be2c 443c b381 c23c
00000090: 847d ec3d 425c 263b b9fd f2bd 3a45 3d3d
000000a0: 7e14 44bd 511f 02be 3f09 06be 429c 293c
000000b0: 6afc c43c 1b48 373b 4558 ce3c e8ac 05be
000000c0: 2b19 3a3c c7e2 a8bd 7465 94bc 1c72 1a3e
000000d0: ea91 c0bd cb5d 18be 8049 3a3c a344 1f3d
000000e0: ef2d e2bd 575d ffbd 8d73 423c 02f7 223b
000000f0: be3c bfbd 0c81 2bbd 776d e33d e421 bf3d

edge_function.4.weight f4 [64, 64]
-0.093361855 -0.046142574 0.05642921 -0.106048256 -0.14546812 -0.015579285 -0.13167335 0.046221927
-0.10928088 0.062975645 -0.042653993 0.017132983 -0.064889126 -0.0944161 -0.1459732 -0.15455365
-0.13254005 -0.07421357 -0.04944191 0.028434888 -0.037608005 0.0885088 0.042644814 -0.0951176
-0.10584803 -0.05192793 0.04331479 0.0027410802 0.020039469 -0.10537389 0.04446449 0.0029210465
0.08906317 -0.03316592 0.0057097697 -0.060104337 0.004183532 -0.074386634 -0.06533018 0.079345986
-0.029595137 -0.056647643 0.023655877 0.063866645 -0.15041617 -0.016526453 -8.317839e-05 0.08413227
0.09885859 -0.042558365 -0.0032692165 -0.018115459 -0.11425628 -0.06565507 -0.08545993 0.08854589
0.07696307 0.018995387 0.0072508305 -0.024288073 0.06423724 0.04697358 0.1222379 -0.057025142
0.11652789 0.05960982 -0.07739634 0.08379033 -0.06962253 -0.024542868 -0.057711653 0.119095966
-0.109623164 0.017846571 0.014731785 0.024772858 0.043306883 -0.03841073 -0.12245144 -0.037434112
-0.11579299 -0.048664544 -0.10987838 0.027628902 0.012917175 0.046674233 0.10060397 0.0034683524
0.07856279 0.05859373 0.018118756 -0.010415385 -0.0038305444 0.09463766 -0.021966027 -0.08804653
0.13016735 0.03101519 0.006917578 0.083256826 0.055405293 0.10829451 0.02544068 0.006939461
0.088637985 0.01354352 0.04805452 -0.101155795 -0.047136806 0.094735965 -0.009726198 -0.11410212
-0.1350998 0.027418802 -0.15534489 0.05769178 0.052362777 -0.12851046 -0.10512155 -0.10412748
0.08211841 -0.11328825 -0.09649135 -0.1030238 0.0014088311 0.06587326 0.0143790785 0.115607284
-0.11966307 0.026639597 -0.03880412 0.04961733 -0.114829354 0.061687298 -0.13549557 -0.21231586
0.053828213 -0.11815585 -0.069961525 0.045504898 -0.147958 -0.124976076 -0.05249963 0.10238613
-0.063492514 0.08438965 -0.097020835 -0.13146481 -0.034955453 0.076233044 -0.11600123 0.051764943
-0.07937259 -0.03443002 0.035679407 0.08864314 -0.15620929 7.0851835e-05 -0.08685898 -0.081913225
-0.073884696 -0.037805792 -0.091374636 -0.13176976 -0.032135814 0.008260643 -0.0895034 -0.071404874
0.035993926 0.0108136535 0.06588527 -0.106378466 0.08143929 0.042413164 -0.00052359694 0.042342074
-0.14534423 -0.007072063 0.0008914576 0.060456283 0.06478965 0.0939754 -0.12414676 -0.14443548
0.22115852 -0.049503725 -0.09415991 -0.09604888 -0.061083123 0.023396693 -0.10579131 0.051585786
-0.01450434 -0.039523892 0.11103934 0.12815718 -0.08159837 0.07124146 0.00334013 0.020591004
0.10725811 -0.088999435 0.10240617 -0.1234047 0.07888706 -0.14469263 -0.087562606 0.1488835
0.061519418 -0.13195965 0.14735503 0.043040734 0.0007554131 0.11346776 0.07969639 -0.096407965
0.11452631 -0.035429973 0.037838608 -0.04783164 0.15057036 0.12752275 -0.075508125 -0.14886032
-0.07459951 0.079021454 0.13498417 -0.011048145 0.10164276 -0.070345074 -0.072307564 0.14730616
-0.053404454 -0.004501643 -0.1435879 0.03546264 0.060213495 -0.10400313 0.006423891 0.01452664
0.039911654 -0.028436568 -0.024551628 -0.034927852 0.09815042 0.086074054 -0.05114223 -0.005156087
0.0066779545 -0.018156918 0.069515154 -0.089870535 0.081083275 -0.100706875 0.08833592 -0.031810496
00000000: 8034 bfbd ffff 3cbd 5122 673d d42f d9bd
00000010: 98f5 14be 4240 7fbc 61d5 06be 3453 3d3d
00000020: a7ce dfbd 60f9 803d f4b5 2ebd 785a 8c3c
00000030: 97e4 84bd 3a5d c1bd 007a 15be 5043 1ebe
00000040: 94b8 07be 49fd 97bd 9a83 4abd 48f0 e83c
00000050: da0a 1abd 1a44 b53d 54ac 2e3d 04cd c2bd
00000060: dac6 d8bd 62b2 54bd d96a 313d b2a3 333b
00000070: d029 a43c 44ce d7bd 6620 363d 076f 3f3b
00000080: c066 b63d fdd8 07bd 0519 bb3b f72f 76bd
00000090: 0316 893b 0558 98bd d4cb 85bd 2680 a23d
000000a0: 8071 f2bc 5c07 68bd f8c9 c13c 84cc 823d
000000b0: b206 1abe 7c62 87bc 0f70 aeb8 8a4d ac3d
000000c0: 5f76 ca3d ae51 2ebd 5a40 56bb df66 94bc
000000d0: 32ff e9bd 2a76 86bd 9e05 afbd 8c57 b53d
000000e0: d09e 9d3d 379c 9b3c 6098 ed3b c8f7 c6bc
000000f0: d08e 833d 5e67 403d dd57 fa3d 3293 69bd
00000100: 2da6 ee3d 6d29 743d f981 9ebd 449a ab3d
00000110: 4296 8ebd 200e c9bc 0e63 6cbd 96e8 f33d
00000120: 1c82 e0bd f932 923c 965d 713c 73f0 ca3c
00000130: 8f62 313d 9254 1dbd d2c7 fabd 8354 19bd
00000140: e024 edbd 7954 47bd eb07 e1bd 0256 e23c
00000150: 8fa2 533c 7b2d 3f3d 7409 ce3d 4c4d 633b
00000160: 87e5 a03d fbff 6f3d c96d 943c 4aa5 2abc
00000170: df09 7bbb 64d1 c13d 19f2 b3bc bd51 b4bd
00000180: 974a 053e 9113 fe3c daac e23b 8e82 aa3d
00000190: a9f0 623d 83c9 dd3d f968 d03c 6b64 e33b
000001a0: d587 b53d a4e5 5d3c d1d4 443d c52a cfbd
000001b0: 8612 41bd ee04 c23d a25a 1fbc 5fae e9bd
000001c0: 9a57 0abe 659d e03c bb12 1fbe 374e 6c3d
000001d0: 5a7a 563d 3f98 03be f849 d7bd ca40 d5bd
000001e0: b22d a83d ac03 e8bd 429d c5bd 24fe d2bd
000001f0: 87a8 b83a 8fe8 863d 3a96 6b3c 83c3 ec3d
00000200: e911 f5bd 493b da3c 12f1 1ebd 8b3b 4b3d
00000210: a72b ebbd d2ab 7c3d 5abf 0abe 5469 59be
00000220: f97a 5c3d b2fb f1bd fd47 8fbd 5863 3a3d
00000230: 4d82 17be 75f3 ffbd da09 57bd d2af d13d
00000240: 5d08 82bd 7bd4 ac3d dcb2 c6bd b69e 06be
00000250: 732d 0fbd 1220 9c3d 0e92 edbd 7a07 543d
00000260: 198e a2bd 7e06 0dbd 9224 123d 898a b53d
00000270: 54f5 1fbe 4a96 9438 1fe3 b1bd 1fc2 a7bd
00000280: dc50 97bd 3fda 1abd a022 bbbd a7ee 06be
00000290: d8a0 03bd a657 073c 8f4d b7bd b83c 92bd
000002a0: 5e6e 133d c02b 313c dbee 863d f4dc d9bd
000002b0: a4c9 a63d 6db9 2d3d ff41 09ba e26e 2d3d
000002c0: 1ed5 14be c4bc e7bb b5b0 693a 02a1 773d
000002d0: 70b0 843d 2d76 c03d a840 febd e5e6 13be
000002e0: 6177 623e 6bc4 4abd e9d6 c0bd 46b5 c4bd
000002f0: 4c32 7abd 6caa bf3c 1da9 d8bd 9e4b 533d
00000300: 9ca3 6dbc cee3 21bd 9868 e33d a33b 033e
00000310: 0c1d a7bd 0be7 913d 15e6 5a3b 77ae a83c
00000320: 24aa db3d 5645 b6bd 53ba d13d 9abb fcbd
00000330: 8a8f a13d 4e2a 14be 0654 b3bd eb74 183e
00000340: c9fb 7b3d 6e20 07be 3de4 163e 7b4b 303d
00000350: ea06 463a c961 e83d dc37 a33d 8a71 c5bd
00000360: c58c ea3d 051f 11bd a8fc 1a3d 1ceb 43bd
00000370: 1e2f 1a3e 5395 023e 01a4 9abd d76e 18be
00000380: a1c7 98bd 00d6 a13d 4a39 0a3e 4703 35bc
00000390: 142a d03d 1411 90bd fd15 94bd 6dd7 163e
000003a0: a1be 5abd 8582 93bb b508 13be 4641 113d
000003b0: 6da2 763d 98ff d4bd 817f d23b 2501 6e3c
000003c0: 677a 233d cef3 e8bc 7f20 c9bc 8210 0fbd
000003d0: 1603 c93d 9847 b03d 847a 51bd 65f4 a8bb
000003e0: bed2 da3b d1bd 94bc f65d 8e3d 0b0e b8bd
000003f0: fd0e a63d 683f cebd 76e9 b43d b94b 02bd

edge_function.4.bias f4 [64]
-0.026775844 0.093235135 0.054654993 0.25229535 0.034973826 -0.07018204 -0.07815909 0.14666986
-0.052173752 0.13791864 -0.16757704 -0.0051371926 -0.053073954 0.08061043 0.17822737 0.02892823
-0.07600931 -0.041216277 -0.029514275 0.065394476 0.07257957 -0.058664426 -0.105124705 -0.029866701
-0.1060027 0.046150193 0.037866488 0.30236086 0.09840599 0.08148251 0.115249924 0.034210734
-0.0018399609 -0.050640203 -0.15454252 -0.125758 -0.124554306 0.09629688 0.04185484 -0.06593312
0.08820035 0.019334605 0.072736256 -0.008013441 0.09153574 0.08566669 0.053203084 0.10268913
0.057150934 -0.050814364 -0.044976346 0.051044885 0.112113975 0.20311897 -0.0428936 -0.03965886
-0.034157436 -0.0566774 0.048310377 0.17837895 -0.08883336 0.03804864 -0.06486083 0.13441308
00000000: 0459 dbbc 10f2 be3d eadd 5f3d db2c 813e
00000010: b740 0f3d 9abb 8fbd df11 a0bd a030 163e
00000020: 25b4 55bd 8b3a 0d3e 5199 2bbe e555 a8bb
00000030: 1364 59bd 1517 a53d 3c81 363e e5fa ec3c
00000040: c5aa 9bbd 66d2 28bd ecc7 f1bc 8aed 853d
00000050: 99a4 943d 1c4a 70bd 9f4b d7bd 03ab f4bc
00000060: f217 d9bd fc07 3d3d e419 1b3d 0bcf 9a3e
00000070: 1489 c93d 4de0 a63d 2708 ec3d 8e20 0c3d
00000080: d82a f1ba 1a6c 4fbd 6540 1ebe b5c6 00be
00000090: 5416 ffbd 4c37 c53d fb6f 2b3d f207 87bd
000000a0: 63a2 b43d 9b63 9e3c bff6 943d cf4a 03bc
000000b0: 1777 bb3d 0472 af3d 7aeb 593d ae4e d23d
000000c0: 1917 6a3d b922 50bd 1e39 38bd 7114 513d
000000d0: 039c e53d 6bfe 4f3e 33b1 2fbd 5471 22bd
000000e0: abe8 0bbd 9026 68bd 1ae1 453d f9a8 363e
000000f0: 44ee b5bd e4d8 1b3d c1d5 84bd 95a3 093e
