Projects/GuoxiangGrayson_T_A study of multi-fidelity graph neural networks/Model_save/Quarter2D/Rank=168-GNN-nB-64-Lr-0.005/model.pth (torch, 114781 bytes, 24 tensors)

node_function_neighbor.0.weight f4 [64, 2]
0	0x3e3a0629	0.18166412
1	0xbef8c328	-0.48586392
2	0xbf1e5192	-0.61843216
3	0xbdc30009	-0.09521491
4	0xbbc86e8b	-0.0061166934
5	0x3ef41366	0.4767105
6	0xbd857199	-0.06515808
7	0x3eeadbc2	0.45870787
8	0xbf00f15d	-0.5036829
9	0xbd94c09d	-0.072633006
10	0xbecddd41	-0.40207866
11	0xbe8c43bc	-0.27395427
12	0xbf37143a	-0.7151524
13	0xbdd8cb6f	-0.10585677
14	0x3ee4bdc1	0.4467602
15	0xbf143be6	-0.579039
16	0xbe8c548f	-0.27408263
17	0x3e0df07e	0.13861272
18	0x3eb108be	0.34576982
19	0x3f1c4972	0.6104957
20	0x3de66a7f	0.11250781
21	0x3e9ac404	0.30227673
22	0x3e834cbe	0.25644487
23	0xbdf44d9a	-0.11928864
24	0xbe01a460	-0.1266036
25	0xbebc3d4b	-0.36765513
26	0x3e89b7ce	0.26898044
27	0x3ec829ab	0.3909429
28	0xbf24734d	-0.64238435
29	0x3b225a37	0.002477301
30	0xbe6f784d	-0.23385735
31	0xbeaec448	-0.34134126
32	0x3b101201	0.0021983387
33	0xbc3e0258	-0.0115972385
34	0x3e95d60d	0.2926487
35	0x3e2beccf	0.16789554
36	0x3f010ad4	0.5040715
37	0xbf2d926b	-0.6780154
38	0xbd316173	-0.043305825
39	0x3ee26068	0.44214177
40	0xbea627a9	-0.32452133
41	0x3f063c7f	0.5243606
42	0xbe92dd52	-0.2868448
43	0x3f1e8374	0.6191933
44	0xbef16db3	-0.47154006
45	0x3c20eb01	0.009821654
46	0xbe917ed6	-0.2841708
47	0x3e8df6cc	0.27727354
48	0xbdb3b696	-0.0877506
49	0x3e133852	0.14376953
50	0x3db35acb	0.08757552
51	0xbe3c3f2e	-0.18383476
52	0xbf2b04a7	-0.66803974
53	0x3e0f834e	0.14014933
54	0xbea7b837	-0.32757732
55	0xbf0e0188	-0.55471087
56	0x3dbe9b33	0.09306946
57	0xbef0e4c7	-0.47049543
58	0xbf17d251	-0.5930529
59	0x3ec8ea2c	0.3924116
60	0x3e9333fa	0.28750592
61	0xbe84125d	-0.2579526
62	0xbe72f325	-0.23725565
63	0xbe949833	-0.2902237
64	0x3f1f3ad8	0.62199163
65	0xbe58084f	-0.2109692
66	0xbe38c476	-0.18043694
67	0x3ec3bf76	0.3823201
68	0x3ed0b661	0.40764144
69	0x3f0611af	0.52370733
70	0x3f1f8bb8	0.6232257
71	0x3e2d7142	0.16937736
72	0xbe697ae9	-0.22800793
73	0xbef36880	-0.47540665
74	0xbe04c199	-0.12964477
75	0x3ecfa10c	0.40552557
76	0x3e6fbe25	0.23412378
77	0xbeff9300	-0.4991684
78	0x3e4869bf	0.19571589
79	0xbd33e1a2	-0.043916352
80	0xbf2eaa76	-0.6822885
81	0xbd0bf58c	-0.03416972
82	0xbe9f4954	-0.31110632
83	0x3e1545f0	0.1457746
84	0x3ed22dd4	0.4105059
85	0xbdcd58a5	-0.10026673
86	0x3ef87145	0.48523918
87	0x3ef71f24	0.48265946
88	0xbf0e3ff2	-0.5556632
89	0x3daa804e	0.083252534
90	0x3e693173	0.2277277
91	0x3ec2e791	0.38067296
92	0xbf0e80bc	-0.55665183
93	0xbf084e45	-0.5324443
94	0x3f347643	0.70492953
95	0x3e86ffd3	0.26367053
96	0x3f0fc7b2	0.56164086
97	0xbf08d23f	-0.5344581
98	0xbed44fae	-0.4146704
99	0x3f23e0e5	0.64015037
100	0xbda3b15e	-0.079928145
101	0x3ca01a19	0.019543694
102	0x3f1b00b5	0.60547954
103	0x3ef55ff6	0.47924775
104	0x3ee6fc76	0.45114487
105	0xbe872d37	-0.26401684
106	0xbf003c69	-0.5009218
107	0xbe8d65f2	-0.2761684
108	0xbed4a4fb	-0.4153212
109	0x3e3c6c96	0.18400797
110	0x3f202000	0.6254883
111	0x3f276d1c	0.6540086
112	0xbef7aa5f	-0.4837217
113	0x3e99a491	0.30008367
114	0x3dfb58af	0.122727744
115	0xbdc71b89	-0.09722049
116	0xbf154a79	-0.5831676
117	0xbda15103	-0.0787678
118	0x3e80ea6a	0.25178844
119	0xbf16d8fe	-0.58924854
120	0x3ede6cdc	0.43442428
121	0x3e22f44f	0.15913509
122	0x3e95fabc	0.29292858
123	0x3e496b22	0.19669774
124	0x3eb1e4b5	0.34744802
125	0x3e65e96a	0.22452322
126	0x3f008f2f	0.5021848
127	0xbebd62a7	-0.36989328

node_function_neighbor.0.bias f4 [64]
0	0xbe1d54e4	-0.15364414
1	0x3f1cd481	0.61261755
2	0xbe9c9d9e	-0.30589002
3	0x3b4db11f	0.003138609
4	0x3de21b2b	0.11040338
5	0x3e8300b8	0.25586486
6	0xbea83bfb	-0.3285826
7	0x3ea66694	0.32500136
8	0xbf0efd8a	-0.5585562
9	0xbf336efe	-0.70091236
10	0xbed845e4	-0.42240822
11	0xbf1f96d8	-0.62339544
12	0x3f346a81	0.7047501
13	0x3e86589a	0.26239473
14	0xbe37eacc	-0.17960662
15	0x3eb8ef43	0.36120042
16	0xbe912669	-0.28349617
17	0x3e3e10a5	0.18561037
18	0xbf32835e	-0.697317
19	0xbda53f73	-0.080687426
20	0xbebf86e3	-0.37407598
21	0x3e392487	0.1808034
22	0xbf1be700	-0.60899353
23	0xbf0fee2b	-0.5622279
24	0x3f0935dd	0.53597814
25	0xbdf1a291	-0.11798585
26	0x3e72919e	0.23688361
27	0x3e9918bd	0.29901686
28	0x3e48ba3b	0.19602291
29	0xbe9d72f2	-0.3075176
30	0xbec7bd2b	-0.3901151
31	0xbf12ce09	-0.57345635
32	0x3f1a9579	0.6038433
33	0x3e2f15fe	0.17098233
34	0xbee1d662	-0.44108874
35	0xbe581152	-0.21100357
36	0x3d54562f	0.051840004
37	0x3f0426b8	0.5162158
38	0x3f21a6f9	0.63145405
39	0x3ea1e0a6	0.31616706
40	0xbec7dfc7	-0.39037916
41	0xbed037dc	-0.40667617
42	0x3cc0cd16	0.023535293
43	0xbccc0088	-0.024902597
44	0x3d6749fe	0.05646705
45	0x3eec7cca	0.46188956
46	0xbf231e13	-0.63717765
47	0xbedb17fe	-0.42791742
48	0x3f0ff9e0	0.56240654
49	0x3f3db8f7	0.7411036
50	0x3f4577ee	0.77136123
51	0xbde2ff7c	-0.11083886
52	0x3f2698e1	0.65077025
53	0xbf1e689c	-0.6187837
54	0x3f0a48ee	0.5401753
55	0xbf14bafa	-0.58097804
56	0xbea5cb8a	-0.3238185
57	0x3efef7aa	0.49798328
58	0xbf38c6e4	-0.72178483
59	0x3eb2d18e	0.34925503
60	0xbd9f2db3	-0.07772388
61	0x3ee7d475	0.4527928
62	0xbe75baa2	-0.23996976
63	0x3e5e6ecd	0.21721955

node_function_neighbor.2.weight f4 [64, 64]
0	0xbcb4bca8	-0.022062615
1	0xbde1c430	-0.11023748
2	0xbd634360	-0.055484176
3	0x3d1f94e0	0.038960338
4	0x3d275384	0.04085113
5	0x3d261ffc	0.040557846
6	0x3df856bc	0.12125918
7	0xbd233a18	-0.039850324
8	0x3c836710	0.016040355
9	0xbdc3984a	-0.09550531
10	0x3d310d00	0.04322529
11	0x3d41f7ac	0.04735534
12	0x3d944ff2	0.07241811
13	0xbddb55d0	-0.10709727
14	0x3d0ae980	0.03391409
15	0xbd84fe16	-0.064937755
16	0xbde920d4	-0.113832146
17	0xbdece318	-0.11566752
18	0x3d5cfd48	0.053952485
19	0x3d99840c	0.07495889
20	0x3df3a450	0.118965745
21	0xbd8408b4	-0.064469725
22	0xbd899754	-0.06718317
23	0xbde9cbc4	-0.11415818
24	0x3c99c008	0.018768325
25	0xbda5202a	-0.080627754
26	0x3d16bd24	0.036801472
27	0xbdb45b22	-0.08806445
28	0x3cde8758	0.027164146
29	0x3d7a34cc	0.061085507
30	0xbcdd75a8	-0.027033642
31	0x3d607f04	0.05480863
32	0x3ad37100	0.0016131699
33	0xbd2bfa24	-0.0419866
34	0x3d002244	0.03128268
35	0x3daa53ea	0.083167866
36	0xbd8e4c1c	-0.069481105
37	0xbd546dc0	-0.05186248
38	0xbbbe28e0	-0.0058032125
39	0xbca00818	-0.01953511
40	0x3dde6ff8	0.108612
41	0x3d975946	0.073900744
42	0xbdbe403e	-0.09289597
43	0x3c89ed80	0.016836882
44	0x3d2fe65c	0.042944297
45	0xbdc27c5c	-0.09496376
46	0xbdf464a4	-0.11933258
47	0xbdc82bb8	-0.09773964
48	0xbdecf3ee	-0.115699634
49	0xbda0a364	-0.07843664
50	0xbdb0408a	-0.0860606
51	0xbdf84cce	-0.12124024
52	0xbd9e6ff8	-0.077362
53	0xbd6c9070	-0.057754934
54	0x3d2cbe28	0.042173535
55	0xbdb83996	-0.08995359
56	0xbdeec9e2	-0.116596
57	0x3dfa3a34	0.122181326
58	0xbd69d5b0	-0.057088554
59	0x3dc2e342	0.09516002
60	0xbb51ddc0	-0.0032023042
61	0x3dd75d74	0.10515872
62	0xbdf60352	-0.12012352
63	0x3d9212a6	0.07132463
64	0xbc329154	-0.010898907
65	0x3e0c5842	0.13705543
66	0xbe10cd0c	-0.14140719
67	0xbe0d8ede	-0.13824031
68	0x3c83a274	0.016068675
69	0x3d8ef3d6	0.06980102
70	0x3dbd9bb5	0.092582144
71	0xba679c20	-0.0008835215
72	0x3ded4c0c	0.115867704
73	0xbc9ce322	-0.019151274
74	0x3d75a38d	0.059970427
75	0xbd20b5c2	-0.039235838
76	0xbcc89852	-0.024486694
77	0xbdf8168d	-0.12113676
78	0x3dc1ef68	0.09469491
79	0xbd8c91ad	-0.06863723
80	0xbcfb02c0	-0.03064096
81	0x3d512f15	0.05107029
82	0x3d65104a	0.055923738
83	0xbce34a21	-0.027745308
84	0x3d155349	0.03645638
85	0x3d2729c4	0.040811315
86	0xbdce095c	-0.10060379
87	0xbe043d83	-0.1291409
88	0xbd773008	-0.06034854
89	0x3d06ce52	0.032911606
90	0x3d895804	0.06706241
91	0x3da7a29f	0.081853144
92	0xbdf5a181	-0.11993695
93	0x3d810aba	0.06300874
94	0xbda3760f	-0.07981502
95	0xbe119648	-0.14217484
96	0xbdc9ac79	-0.0984735
97	0x3da033fa	0.07822414
98	0xbdd84e51	-0.10561813
99	0x3d2ef35b	0.04271255
100	0xbd5ad614	-0.053426817
101	0x3d1e111b	0.03859053
102	0xbe1d29a9	-0.15347923
103	0x3d4b52c3	0.049639475
104	0x3d6a1275	0.05714651
105	0x3dd55bd6	0.10417907
106	0xbdf2a503	-0.1184788
107	0x3b65cb94	0.003506397
108	0x3e20870c	0.15676516
109	0xbd980f00	-0.07424736
110	0xbd25775b	-0.04039703
111	0xbd84be74	-0.064816386
112	0x3d3e8e1d	0.04652225
113	0xbd71dcc4	-0.05904843
114	0x3de5f5f4	0.112285525
115	0x3c4429dd	0.011972872
116	0xbdca9ae2	-0.09892823
117	0x3da4e3d1	0.08051265
118	0x3c0470d3	0.00808354
119	0xbcbf2a01	-0.023335459
120	0x3df27b7f	0.11839961
121	0x3c4b8e24	0.012424026
122	0x3c74a595	0.014932056
123	0xbdc50864	-0.09620741
124	0x3c12b6d5	0.008954723
125	0x3daaf02d	0.08346591
126	0x3d4ef73d	0.050528754
127	0x3c1ddbc6	0.009634918
128	0xbe1df9cc	-0.15427321
129	0xbc7f69d8	-0.0155892
130	0xbe25af37	-0.1618012
131	0x3d666519	0.056248758
132	0xbe1963f3	-0.14979534
133	0x3da43f28	0.080198586
134	0xbdbfe3f0	-0.093696475
135	0x3d61b3f7	0.05510327
136	0xbd91f73b	-0.071272336
137	0xbd8b694e	-0.06807195
138	0xbe034419	-0.12818946
139	0xbdacd1cd	-0.08438454
140	0x3c38b5c7	0.011273808
141	0xbd1f5e6e	-0.038908415
142	0xbe0004bb	-0.12501805
143	0xbdbf4499	-0.09339256
144	0xbdb34861	-0.087540396
145	0x3d1ce926	0.038308285
146	0xbd4211a5	-0.04738011
147	0xbddab80d	-0.10679636
148	0xbd513e98	-0.051085085
149	0xbceaa6f2	-0.028644059
150	0xbb4ed1a7	-0.0031558068
151	0xbdf1d6eb	-0.118085705
152	0xbd123427	-0.035694268
153	0x3d843ab5	0.0645651
154	0xbe2314f9	-0.15925969
155	0xbda94b76	-0.08266346
156	0x3d98e4fc	0.0746555
157	0xbd1d5688	-0.0384126
158	0x3d65aefe	0.05607509
159	0xbc9b1892	-0.018932614
160	0xbd75f2b7	-0.060045924
161	0x3c6539ec	0.01399086
162	0x3d23b22c	0.03996484
163	0x3d9b28f6	0.07576172
164	0xbe173df4	-0.14769727
165	0xbc8b0f26	-0.016974997
166	0x3d101dae	0.035184555
167	0x3dd728ac	0.105058044
168	0xbe0359f4	-0.12827283
169	0xbe392b48	-0.18082917
170	0x3c369379	0.011143559
171	0x3cce73d6	0.02520172
172	0x3d2758e5	0.04085626
173	0x3d87e9c8	0.06636387
174	0x3cb117db	0.02161782
175	0xb9ffbaae	-0.00048776477
176	0x3cd43fa9	0.025909262
177	0x3ce7d7e0	0.02830118
178	0x3dc442bf	0.09583043
179	0x3de88174	0.11352816
180	0xbdeceb76	-0.11568348
181	0x3ce7f228	0.028313711
182	0xbdb08b9d	-0.08620379
183	0x3d1fc90a	0.039010085
184	0xbe84bee3	-0.25926885
185	0x3d92b43d	0.07163284
186	0xbdabb231	-0.08383597
187	0x3d09fb53	0.033686947
188	0x3dd2ea27	0.10298567
189	0x3d9b8980	0.075945854
190	0x3e2d53ed	0.16926546
191	0x3bc9ae4e	0.006154812
192	0xbe1db572	-0.15401247
193	0x3dad411b	0.084596835
194	0xbdfa4f05	-0.12222103
195	0xbd63672b	-0.05551831
196	0xbb9f521b	-0.0048620827
197	0xbdba105f	-0.09085154
198	0xbc6a1b76	-0.014288774
199	0xbd62a00f	-0.055328425
200	0x3d852d41	0.06502772
201	0x3cc84712	0.024447951
202	0x3d71ff8a	0.05908159
203	0xbc878ea7	-0.016547514
204	0xbdccdd80	-0.10003185
205	0xbc6a1b3b	-0.014288719
206	0x3d709f39	0.058745597
207	0x3ddb7a5c	0.107166976
208	0x3c1e84f9	0.009675258
209	0xbde4a7eb	-0.1116484
210	0xbdf9b5c2	-0.12192871
211	0xbcbac0f1	-0.02279708
212	0x3d7b7472	0.061390348
213	0x3d9445b7	0.072398596
214	0x3e05b329	0.13056625
215	0xbb287307	-0.0025703327
216	0xbce0dbe9	-0.027448611
217	0xbd31183c	-0.043236002
218	0x3dd2caab	0.10292562
219	0x3cf7caec	0.030248128
220	0xbdd1ecb9	-0.102502294
221	0xbdd9133a	-0.1059937
222	0xbd032a05	-0.032022495
223	0xbd62bd3a	-0.05535624
224	0xbca2ca91	-0.019871982
225	0x3dde7a2c	0.10863146
226	0x3d46ddec	0.048551485
227	0x3dbd91f3	0.09256353
228	0xbbd8c61b	-0.006615413
229	0x3daac2d4	0.08337942
230	0x3d5f6bdf	0.054546233
231	0x3dacb942	0.084337726
232	0xbb3e8806	-0.0029072776
233	0x3dc0be83	0.09411337
234	0xbd841f66	-0.06451301
235	0xbd717717	-0.058951464
236	0xbda78c4f	-0.081810586
237	0xbd53942a	-0.051654972
238	0xbe0c2ddd	-0.1368937
239	0x3d3151f2	0.04329104
240	0x3aca6472	0.0015441312
241	0x3e02dcd9	0.12779559
242	0x3dc5baa1	0.09654737
243	0x3dde7464	0.108620435
244	0x3db4256f	0.087962024
245	0x3d2d827d	0.04236077
246	0x3d841bb9	0.064506
247	0xbcc9ebc5	-0.024648556
248	0xbdbfa007	-0.09356695
249	0x3d996dea	0.074916676
250	0x3d8f35c9	0.069926806
251	0xbde76307	-0.11298185
252	0xbcf1c753	-0.02951399
253	0x3dd88911	0.10573018
254	0xbdc8101d	-0.09768698
255	0xbc3f1933	-0.011663723

node_function_neighbor.2.bias f4 [64]
0	0xbc3efd80	-0.011657119
1	0x3c76d6d0	0.015065864
2	0x3d88e09d	0.066834666
3	0x3dbe290b	0.09285172
4	0xbd85c6b9	-0.06532044
5	0x3e32d40d	0.17463703
6	0x3ddafea6	0.106931016
7	0x3d05011a	0.032471754
8	0xbe192803	-0.1495667
9	0x3d425cba	0.047451712
10	0x3e03f086	0.12884721
11	0x3d4434bb	0.04790185
12	0x3dadebc5	0.08492235
13	0xbdbe6830	-0.09297216
14	0xbdd44d7f	-0.10366344
15	0x3c3194fa	0.010838741
16	0xbdf4bb89	-0.11949832
17	0xbd40b7e8	-0.047050387
18	0x3d1aee7b	0.03782509
19	0xbcc43f7d	-0.023956055
20	0x3d38e221	0.04513753
21	0xbd6cccfe	-0.057812683
22	0xbc616c86	-0.013758784
23	0xbca9b6d9	-0.020717071
24	0x3e22d126	0.15900096
25	0x3e5ce7a0	0.21572733
26	0x3df8f5dd	0.1215627
27	0xbd1cc1f4	-0.038270906
28	0x3e0c3cbf	0.13695048
29	0xbd0b54c7	-0.034016397
30	0xbdef72b2	-0.11691798
31	0xbd51184c	-0.051048562
32	0x3e985672	0.29753453
33	0x3ded9721	0.11601091
34	0x3e20fa6a	0.15720525
35	0x3e2efff2	0.17089823
36	0x3e6ab51d	0.22920652
37	0x3dc4ff34	0.09618989
38	0xbb161340	-0.0022899657
39	0xbdf4ec5a	-0.11959143
40	0xbd66a78e	-0.056312136
41	0xbe152999	-0.1456665
42	0xbde311bd	-0.11087368
43	0x3dc70864	0.09718397
44	0xbca2cd07	-0.019873155
45	0xbd92971b	-0.07157727
46	0x3d3cb46b	0.046070497
47	0x3dc3cca5	0.09560517
48	0xbd8b6bbd	-0.06807659
49	0xbe1a63ea	-0.15077177
50	0x3c8116cb	0.015757939
51	0x3d331ae1	0.043726806
52	0xbd8ee560	-0.069773436
53	0xbd67f71b	-0.056632143
54	0xbc9f1c8c	-0.019422792
55	0x3d2ed661	0.042684916
56	0xbd6c9139	-0.057755683
57	0x3d8772a0	0.0661366
58	0x3e2ff0bc	0.17181677
59	0xbd0fa5b8	-0.03507015
60	0xbc6379e2	-0.01388404
61	0xbe26984d	-0.16269036
62	0x3e1a86f9	0.1509055
63	0xbcea20d6	-0.02858011

node_function_neighbor.4.weight f4 [64, 64]
0	0x3cc635c8	0.024195567
1	0xbda0744f	-0.07834684
2	0x3d4bfb9c	0.0498005
3	0xbd9248f3	-0.0714282
4	0x3e0705cc	0.13185805
5	0xbca3896b	-0.019962987
6	0x3d244ab9	0.040110324
7	0x3d5eebb5	0.054424006
8	0xbddcc9be	-0.10780667
9	0xbdbb86fc	-0.091566056
10	0x3c9f912e	0.019478407
11	0x3ba0d8a5	0.0049086385
12	0xbde0d2c2	-0.10977699
13	0x3d90f8f1	0.07078732
14	0xbdfac59b	-0.122447215
15	0x3d4371cc	0.047715947
16	0xbd06c98f	-0.032907065
17	0xbd122138	-0.03567621
18	0xbdf1f46e	-0.118141994
19	0xbe08114a	-0.13287845
20	0xb9d97321	-0.00041475243
21	0xbb368c43	-0.0027854599
22	0x3d6e38a9	0.058159504
23	0xbd8c4c30	-0.06850469
24	0x3de3d13a	0.11123891
25	0xbd6e0d0e	-0.05811792
26	0xbbbf6ab4	-0.0058415774
27	0x3cbe60a8	0.023239449
28	0xbda3986e	-0.07988058
29	0xbded4775	-0.11585895
30	0xbd970320	-0.07373643
31	0xbd8238a4	-0.063584596
32	0xbda35671	-0.07975472
33	0x3d81a474	0.06330195
34	0xbda47ea1	-0.08031965
35	0x3cac0ddd	0.021002704
36	0xbd16787b	-0.036735993
37	0xbd92302e	-0.07138096
38	0xbd8fcca2	-0.070214525
39	0x3dabed6b	0.08394893
40	0x3cd9322d	0.026513183
41	0xbca95c90	-0.02067402
42	0xbd8f666d	-0.07001958
43	0xbddb3322	-0.10703112
44	0x3db6df40	0.089293
45	0x3bb9d140	0.0056706965
46	0x3db316bc	0.087445706
47	0xbc2dc1f4	-0.010605324
48	0xbbb285ef	-0.005448095
49	0xbdd4d80e	-0.10392772
50	0x3d649c82	0.05581332
51	0xbe0659e0	-0.13120222
52	0xbd6dc858	-0.05805239
53	0xbd830bb8	-0.063987195
54	0x3d0f51cb	0.034990113
55	0x3cc39ac7	0.023877515
56	0xbddf9c9a	-0.10918541
57	0x3d81fa4b	0.06346568
58	0xbe0656ee	-0.13119099
59	0x3ca5d338	0.020242319
60	0xbe050bd3	-0.12992792
61	0xbdb8895a	-0.09010573
62	0xbd3e5b7f	-0.046473976
63	0xbd35b09a	-0.044357873
64	0x3de19ef4	0.11016646
65	0xbd751151	-0.059830967
66	0x3c219235	0.009861519
67	0xbcb17ff2	-0.021667454
68	0xbd223beb	-0.039607923
69	0x3e0216b6	0.12703976
70	0x3c157a7b	0.00912344
71	0xbdb86b68	-0.09004861
72	0x3d1ff80e	0.039054923
73	0x3dfbce88	0.12295252
74	0xbd13c000	-0.036071777
75	0x3d4c38b6	0.04985877
76	0x3cce6b27	0.025197579
77	0x3ddd9029	0.10818512
78	0xbcfc76e3	-0.030818408
79	0xbc82bcd0	-0.015959173
80	0x3dd52389	0.104071684
81	0x3e0125ab	0.12612025
82	0xbd08ce6d	-0.033399988
83	0x3e0362a5	0.12830599
84	0xbc0ef6a0	-0.008725792
85	0x3bf097be	0.007342308
86	0xbdb7d661	-0.089764364
87	0xbca3c7c4	-0.019992717
88	0x3dad9c95	0.08477131
89	0x3df8a99d	0.12141726
90	0xbcd42cbb	-0.025900235
91	0x3d8f28b0	0.069901824
92	0x3e3c71af	0.18402742
93	0x3d25d5da	0.040487148
94	0xbdf25afb	-0.118337594
95	0x3dea39b7	0.114367895
96	0x3e80f906	0.2518999
97	0xbcfc35c2	-0.030787352
98	0x3ce26837	0.027637584
99	0x3d06306b	0.03276102
100	0x3e18ee8a	0.14934745
101	0xbb9f9e0d	-0.004871136
102	0xbd366758	-0.04453215
103	0xbde86911	-0.11348165
104	0xbd0b73e2	-0.03404606
105	0xbc74335b	-0.014904822
106	0x3e0e63d1	0.13905264
107	0x3cd227d1	0.025653752
108	0x3d8fb3a9	0.07016689
109	0x3d466b05	0.048441906
110	0x3d734065	0.059387583
111	0xbd112a42	-0.03544069
112	0x3da238b1	0.07920969
113	0xbda88ea1	-0.08230329
114	0xbd8263a7	-0.063666634
115	0x3d38a994	0.045083597
116	0x3dda075e	0.106459364
117	0x3dd665df	0.10468649
118	0x3e17f13c	0.14838117
119	0x3d54a124	0.05191149
120	0xbd996f34	-0.074919134
121	0x3e18e956	0.1493276
122	0xbd94010a	-0.07226761
123	0xbcaa4f19	-0.02078967
124	0x3dc7966e	0.09745489
125	0x3cb4d79d	0.022075469
126	0x3b41a569	0.0029548055
127	0xbc2327d8	-0.00995823
128	0xbc96e7c8	-0.018421069
129	0xbd870ad6	-0.06593864
130	0x3d5c661a	0.05380831
131	0xbe07f43b	-0.1327676
132	0x3c768830	0.015047118
133	0xbdb962a5	-0.09052018
134	0xbdabc4f1	-0.08387173
135	0xbd8794e8	-0.066201985
136	0x3dc31f7e	0.09527491
137	0xbd2c56a8	-0.04207483
138	0xbdbd7dac	-0.09252486
139	0x3a452a00	0.0007521212
140	0x3db33049	0.08749444
141	0xbda8ab46	-0.08235793
142	0x3cb259d8	0.021771356
143	0xbcac92c0	-0.02106607
144	0xbd318655	-0.043341
145	0xbdf03974	-0.11729708
146	0xbddaa06b	-0.106751285
147	0x3d284523	0.04108156
148	0x3d5ff954	0.054681137
149	0xbdb4ad5a	-0.08822127
150	0x3df5a844	0.11994985
151	0xbd37854e	-0.044804864
152	0xbdeb01e6	-0.114749715
153	0xbd7ca0da	-0.061676838
154	0xbdfdf730	-0.12400663
155	0x3ce49248	0.027901784
156	0x3d98cf42	0.07461406
157	0xbbd491c0	-0.0064871013
158	0xbd29b799	-0.041434858
159	0xbd6adea2	-0.057341225
160	0x3ccc5f10	0.024947673
161	0x3a98ced1	0.0011658316
162	0xbc853737	-0.01626168
163	0x3d681725	0.056662697
164	0x3d6ea37d	0.058261383
165	0xbd3bdf10	-0.045867026
166	0x3c87ff10	0.016601115
167	0xbd184474	-0.037174657
168	0x3d799e6c	0.0609421
169	0xbd1fd13c	-0.0390179
170	0x3db014cc	0.08597717
171	0xbe2402ff	-0.16016768
172	0xbd60fa94	-0.05492647
173	0xbd0733fc	-0.03300856
174	0xbd1ae4cc	-0.037815854
175	0xbc0198ff	-0.007910012
176	0xbdd8ecec	-0.10592064
177	0xbd50ffb0	-0.051025093
178	0xbe072738	-0.13198555
179	0x3d1b8479	0.037968133
180	0x3dfd4d72	0.12368287
181	0x3dc212b6	0.09476225
182	0xbdf85cc6	-0.1212707
183	0xbdd59224	-0.10428265
184	0xbcb7dfe2	-0.022445623
185	0xbe0476c6	-0.12935933
186	0x3c34f95e	0.011045782
187	0xbdbe19d0	-0.09282267
188	0xbcba6c58	-0.02275674
189	0xbda6d7db	-0.0814664
190	0xbc0201fa	-0.007935042
191	0x3db2ea77	0.08736127
192	0x3de04802	0.109512344
193	0xbd3c0b14	-0.045909002
194	0xbc04142c	-0.00806145
195	0xbdbaee1e	-0.091274485
196	0x3d2895c4	0.041158453
197	0x3dd5fb2c	0.10448298
198	0xbced83c0	-0.028993487
199	0x3c787f40	0.0151670575
200	0x3dbf2a1c	0.093342036
201	0x3cfa2ed7	0.030539913
202	0xbd90d2ff	-0.07071494
203	0x3dc36da4	0.09542397
204	0xbdaa5ad3	-0.083181046
205	0xbd2cc728	-0.042182118
206	0xbd976deb	-0.07394012
207	0x3d87a57e	0.06623362
208	0xbdb5ddc1	-0.08880187
209	0x3df78c3e	0.12087296
210	0xbdae06fc	-0.08497426
211	0xbddfef46	-0.1093431
212	0xbd85054c	-0.06495151
213	0xbdbbcdff	-0.0917015
214	0xbd80d432	-0.06290473
215	0x3db2f112	0.08737387
216	0xbd10da28	-0.0353643
217	0xbdd868fa	-0.10566898
218	0x3d4e2c79	0.05033538
219	0xbd4cc738	-0.049994677
220	0xbdc1bdb6	-0.094600126
221	0x3d0ccf74	0.03437753
222	0x3c6c55d0	0.014424756
223	0x3c964208	0.018342033
224	0xbd8a5d6c	-0.067561
225	0xbd97ad35	-0.074060835
226	0x3aad4400	0.0013219118
227	0xbdba4a7e	-0.090962395
228	0xbdfc4109	-0.12317092
229	0xbd2cab3c	-0.04215549
230	0x3cff3628	0.031153753
231	0xbd05f770	-0.032706678
232	0xbd80d8a5	-0.06291322
233	0x3da48fb0	0.08035219
234	0x3d52ad60	0.051434875
235	0xbd2b11a4	-0.04176487
236	0x3baa6ac0	0.005200714
237	0xbdcada46	-0.099049136
238	0x3da23444	0.07920125
239	0x3dc00c26	0.09377317
240	0xbd647058	-0.0557712
241	0xbda9a604	-0.08283618
242	0x3d18f3bd	0.037341822
243	0xbbdc81c5	-0.006729337
244	0x3df3baaa	0.11900838
245	0x3d0437bc	0.032279715
246	0xbc8a5560	-0.016886413
247	0xbd8c8a18	-0.06862277
248	0x3d4894bc	0.04896997
249	0x3cec2c80	0.028829813
250	0xbd8fc52e	-0.07020031
251	0x3d57a5a4	0.0526482
252	0x3d830466	0.06397323
253	0x3d8add56	0.06780498
254	0xbe1b2463	-0.15150599
255	0xbd129a30	-0.035791576

node_function_neighbor.4.bias f4 [64]
0	0x3d8402be	0.064458355
1	0x3db6bdf8	0.089229524
2	0x3c668f6a	0.0140722785
3	0xbdb0f1f9	-0.086399026
4	0xbde1fea9	-0.11034901
5	0x3e42c8fd	0.19021983
6	0xbd9d334e	-0.07675801
7	0x3d9c8e4e	0.0764433
8	0xbd2dc9fb	-0.04242895
9	0x39f35bad	0.00046416876
10	0x3da0fff1	0.07861317
11	0x3e1a5101	0.15069963
12	0xbd96b83d	-0.073593594
13	0xbe0d6418	-0.13807714
14	0xbda5d185	-0.08096603
15	0x3e4fa23f	0.20276736
16	0xbe1e90ae	-0.15484878
17	0xbd31b81b	-0.043388467
18	0x3ddf47c5	0.10902361
19	0xbdca4858	-0.0987708
20	0xbd74ad2c	-0.059735462
21	0x3d34f981	0.044183258
22	0x3dce689b	0.10078546
23	0xbdb06b22	-0.08614184
24	0xbd94664e	-0.072460756
25	0x3d460432	0.048343845
26	0x3cf79820	0.030223906
27	0x3bc815b5	0.0061061033
28	0x3dfad03d	0.122467496
29	0x3e4c2e08	0.19939435
30	0xbdf07168	-0.117403805
31	0xbd78b105	-0.060715694
32	0xbd6b70d4	-0.05748065
33	0x3e3b3b5f	0.18284367
34	0xbe1d7d36	-0.15379795
35	0xbb593f02	-0.0033149128
36	0xbda0ca27	-0.078510575
37	0xbe01cb22	-0.12675145
38	0xbd4e971c	-0.050437078
39	0x3dd66432	0.104683295
40	0xbdaa2c2d	-0.08309207
41	0xbe20507e	-0.15655705
42	0x3e0aae48	0.13543046
43	0xbe00a02c	-0.125611
44	0x3dcdf6d9	0.10056848
45	0x3d7765fa	0.060399987
46	0x3e17de7f	0.1483097
47	0x3d7de2c2	0.06198383
48	0x3db586f8	0.08863634
49	0x3d593516	0.053029142
50	0xbd8921c3	-0.06695893
51	0xbde2501e	-0.110504374
52	0xbe299642	-0.16561225
53	0xbe203b8a	-0.15647712
54	0x3d300ae4	0.042979136
55	0xbdd2287c	-0.10261628
56	0xbe1c3559	-0.15254726
57	0x3cec54df	0.028849063
58	0x3d953ea7	0.072873406
59	0xbdc1b9a3	-0.094592355
60	0xbc50d1e5	-0.012745355
61	0xbdacfdfa	-0.0844688
62	0x3cf30811	0.029666932
63	0x3dc6cef3	0.09707441

node_function_neighbor.6.weight f4 [4, 64]
0	0xbde25588	-0.1105147
1	0x3d405ebb	0.046965342
2	0x3d30f528	0.04320255
3	0xbdaf875a	-0.08570738
4	0x3c9aa9ee	0.018879857
5	0x3cafd070	0.021461695
6	0xbd1322e9	-0.035921965
7	0x3c98ea33	0.018666362
8	0x3d8af913	0.067857884
9	0x3d06b063	0.03288306
10	0x3d6e93a8	0.058246285
11	0x3e0dce74	0.13848287
12	0xbcbc5a21	-0.022992196
13	0xbdab0393	-0.08350291
14	0xbde2d203	-0.11075213
15	0x3ddafa54	0.106922776
16	0x3cd7da11	0.0263491
17	0xbd883aaf	-0.06651818
18	0xbd6716a9	-0.056418095
19	0x3b7caf42	0.003855661
20	0x3da521be	0.080630764
21	0x3dad9b8b	0.08476933
22	0xbd3fe059	-0.046844814
23	0x3de16aec	0.11006722
24	0x3dbe0da3	0.09279945
25	0xbdc8b915	-0.098009266
26	0x3d0099c5	0.031396646
27	0x3b50feab	0.0031890075
28	0x3bff5fb1	0.0077933897
29	0x3deafc84	0.11473945
30	0xbdb79526	-0.08963995
31	0xb8a652e0	-7.9309335e-05
32	0x3d9e234e	0.077215776
33	0x3d8160ba	0.06317277
34	0xbd758378	-0.05993983
35	0xbd10c667	-0.03534546
36	0x3da97e4e	0.08276044
37	0x3d61297c	0.054971203
38	0xbd15fb96	-0.036616884
39	0xbd886900	-0.06660652
40	0xbd7851ec	-0.060625
41	0x3c76ced5	0.015063961
42	0x3d81d10c	0.06338701
43	0x3e036e56	0.12835059
44	0x3d84f1f8	0.064914644
45	0x3dec039c	0.11524126
46	0xbd3846a7	-0.044989254
47	0x3d42f529	0.047597084
48	0x3d447690	0.047964633
49	0x3d3544c8	0.044255048
50	0x3d1179e4	0.035516635
51	0x3d1d59bb	0.03841565
52	0x3d495b0d	0.0491591
53	0xbd2358ed	-0.039879728
54	0x3d62ee46	0.055403017
55	0xbda66f72	-0.08126725
56	0x3d1d440d	0.038394976
57	0x3d30c553	0.043156933
58	0xbc454f6f	-0.012042864
59	0x3d086684	0.03330089
60	0xbd8061cc	-0.06268653
61	0xbbae6b3b	-0.0053228415
62	0x3d753b4d	0.059871007
63	0xbc82a34c	-0.015947007
64	0x3c877425	0.016534874
65	0x3e0ae197	0.13562618
66	0xbcac5a8c	-0.02103927
67	0xbda97691	-0.08274568
68	0xbd4fa67c	-0.05069588
69	0x3de4720f	0.111545675
70	0xbca0aae3	-0.019612735
71	0x3c3f4f6a	0.011676649
72	0xbd378d6e	-0.044812612
73	0x3d4e32ef	0.050341543
74	0x3e145a30	0.14487529
75	0x3dcfd417	0.10147875
76	0x3d33e9b7	0.04392406
77	0x3ca66dae	0.020315971
78	0x3d077c28	0.03307739
79	0x3d97119c	0.073764056
80	0xbc30f7df	-0.010801285
81	0xbd7befa6	-0.061507843
82	0x3e28bec2	0.16479018
83	0x3d5fb60a	0.054616965
84	0xbd094abc	-0.033518538
85	0x3db294c2	0.087197796
86	0x3d42c18f	0.047547873
87	0xbd9eeed8	-0.077603996
88	0xbde644cf	-0.11243593
89	0xbd173fc2	-0.03692604
90	0xbdb6b0e3	-0.08920457
91	0xbc1873bf	-0.00930494
92	0x3d9cc899	0.076554485
93	0x3dcc714f	0.099825494
94	0xbd9d9ae8	-0.07695562
95	0x3c770c67	0.015078641
96	0x3dd3f1df	0.103488676
97	0x3e192062	0.1495376
98	0x3c3bc23f	0.011459886
99	0x3def8b06	0.116964385
100	0xbd452174	-0.048127607
101	0xbd585151	-0.052811924
102	0x3e0a6e28	0.13518584
103	0x3dc56999	0.09639282
104	0x3dd2fad3	0.10301747
105	0xbd8e9d28	-0.06963569
106	0x3de3fc02	0.11132051
107	0xbd0ee491	-0.034885947
108	0x3e091311	0.1338618
109	0x3dd22974	0.10261813
110	0x3e20dc15	0.15708955
111	0x3e29da1f	0.16587113
112	0x3dafdbbb	0.08586832
113	0x3e11c9e9	0.14237179
114	0x3c8bfefa	0.017089356
115	0x3d028ef5	0.031874616
116	0x3db74ce4	0.089502126
117	0xbdbe93fd	-0.0930557
118	0x3e2aff9e	0.16699073
119	0x3d84780b	0.06468209
120	0xbcbad6b4	-0.022807457
121	0x3de9aa0f	0.11409389
122	0xbd9a9a3f	-0.07548951
123	0xbd207bcd	-0.039180566
124	0xbda3e315	-0.08002297
125	0xbd26e689	-0.0407472
126	0x3d973907	0.07383924
127	0x3dfb1ce0	0.12261367
128	0xbd939512	-0.07206167
129	0x3d9721b8	0.07379478
130	0xbda1d0d8	-0.07901162
131	0xbd9737b2	-0.0738367
132	0x3d5a6c10	0.053325713
133	0x3d2d5d7c	0.04232548
134	0x3d050009	0.032470737
135	0x3d87215b	0.06598159
136	0xbcd37d52	-0.025816593
137	0x3cabf1d4	0.020989336
138	0x3c732dfa	0.014842505
139	0x3b9acc2f	0.0047240476
140	0x3df79801	0.12089539
141	0xbccd328d	-0.025048519
142	0xbdb72da4	-0.08944252
143	0x3d99c9b3	0.07509174
144	0xbd40d25e	-0.04707562
145	0x3d913996	0.07091062
146	0xbdebbeda	-0.115110114
147	0x3d2beaf3	0.041972112
148	0xbc2df156	-0.010616621
149	0x3d25a5eb	0.040441435
150	0x3d927daf	0.071528785
151	0x3d452268	0.048128515
152	0xbdbb78f8	-0.09153932
153	0x3b0c24e5	0.0021384296
154	0x3d86c433	0.06580391
155	0x3d947e35	0.072506346
156	0xbd5509e2	-0.052011378
157	0x3d9ebbbd	0.07750652
158	0x3d005b54	0.031337097
159	0xbda9feb2	-0.083005324
160	0xbd959946	-0.07304625
161	0x3dc2e4d9	0.095163055
162	0x3c47411f	0.012161522
163	0xbc93f21f	-0.018059788
164	0x3d1d04fa	0.038334824
165	0xbd18f5a1	-0.037343625
166	0x3ca313c7	0.019906892
167	0x3ce78840	0.028263211
168	0x3cee9b8f	0.02912691
169	0xbcde352b	-0.027124962
170	0x3de06d65	0.10958365
171	0xbd932138	-0.0718407
172	0x3d89fbf5	0.0673751
173	0x3e08cd97	0.13359676
174	0xbd62189c	-0.05519925
175	0xbc2781bd	-0.010223803
176	0xbcfb99bc	-0.030712955
177	0x3d0e8b1f	0.034800645
178	0x3d19d6e0	0.037558436
179	0x3d6f86b5	0.058478076
180	0xbd13eba6	-0.036113404
181	0xbd278efa	-0.040907837
182	0x3de46c5e	0.11153482
183	0x3d13890a	0.036019363
184	0xbde3564d	-0.11100445
185	0x3dc1c028	0.09460479
186	0xbd904c39	-0.07045788
187	0xbd4fd07d	-0.05073594
188	0xbbee0563	-0.0072638257
189	0xbd2c9c33	-0.04214115
190	0xbdcdbb96	-0.10045545
191	0xbdcfd5be	-0.1014819
192	0x3d61b6d0	0.055105984
193	0xbc6f9883	-0.014623764
194	0xbe3ea313	-0.18616895
195	0x3c9d7d5e	0.019224819
196	0x3dfb173f	0.12260293
197	0x3d48bed2	0.049010105
198	0x3dd21602	0.10258104
199	0x3bce662d	0.0062988014
200	0xbc8a26e9	-0.016864257
201	0x3ddd193a	0.10795827
202	0xbdd3aaef	-0.10335337
203	0xbd0e58a9	-0.03475252
204	0xbd982e37	-0.0743069
205	0x3d9073e6	0.07053356
206	0xbd31ff7f	-0.04345655
207	0xbb61e5b6	-0.0034469194
208	0x3d5c2777	0.053748574
209	0xbd0aacc8	-0.033856183
210	0xbd8a7328	-0.067602456
211	0xbca9e0b9	-0.020737039
212	0x3dd52ad5	0.1040856
213	0xbda6c2d1	-0.08142627
214	0x3d11c6f6	0.035590135
215	0xbcb55ff3	-0.022140479
216	0xbdd2f426	-0.10300474
217	0xba3e0656	-0.0007248869
218	0xbd1b8db5	-0.03797694
219	0xbdad3581	-0.08457471
220	0xbc542e9e	-0.0129505675
221	0x3dae5862	0.085129514
222	0xbcd7f090	-0.026359826
223	0x3cc4e883	0.024036651
224	0x3c2afa73	0.010435688
225	0xbd849afa	-0.06474872
226	0x3c8ea711	0.017413648
227	0x3de9a22c	0.11407885
228	0x3dd07442	0.101784244
229	0x3d36e5d3	0.04465277
230	0xbd570dd3	-0.05250342
231	0xbdae8d4a	-0.085230425
232	0x3b4d5cb2	0.0031335768
233	0xbd81084b	-0.0630041
234	0xbc7066b9	-0.0146729285
235	0xbd81119c	-0.06302187
236	0xbd962748	-0.07331711
237	0xbd348bcc	-0.044078633
238	0xbca3b559	-0.019983934
239	0xbe1639af	-0.14670442
240	0x3c3a742f	0.011380239
241	0x3b6cc014	0.003612523
242	0xbce4632d	-0.027879322
243	0x3ce5088b	0.027958175
244	0xbdc91ccc	-0.09819946
245	0x3c5f5f78	0.013633601
246	0xbddc784f	-0.107651345
247	0xbd625a95	-0.055262167
248	0x3bb6a52b	0.005573889
249	0x3d39b87f	0.045341965
250	0xbdab761b	-0.08372136
251	0x3dc15aec	0.0944117
252	0x3d33b976	0.04387804
253	0xbc9bdacc	-0.019025229
254	0x3de8abdf	0.11360907
255	0x3df585ad	0.11988387

node_function_neighbor.6.bias f4 [4]
0	0x3dfc00dd	0.12304852
1	0x3e364829	0.17800964
2	0xbceef314	-0.029168643
3	0x3d7b8b3d	0.061412085

edge_function.0.weight f4 [64, 4]
0	0x3c509b33	0.012732315
1	0xbe849e2e	-0.25901932
2	0xbebe4446	-0.37161463
3	0xbd9ed320	-0.07755113
4	0x3ecdbae4	0.4018165
5	0xbe318da9	-0.17339195
6	0xbed61941	-0.41816142
7	0x3e85d088	0.2613566
8	0x3dc6bf79	0.09704489
9	0xbec56704	-0.38555157
10	0x3c64a573	0.013955462
11	0x3ee38508	0.44437432
12	0x3ebd4d47	0.3697302
13	0x3ed19338	0.40932631
14	0xbe3f1c2f	-0.18663095
15	0x3eee39b1	0.4652839
16	0xbe9d3bd6	-0.30709714
17	0x3e6fb382	0.2340832
18	0xbe4d6e79	-0.20061673
19	0xbe5f6d4b	-0.21819036
20	0x3ebc39c3	0.3676282
21	0x3e191b12	0.14951733
22	0xbe01aaca	-0.12662807
23	0x3eac0cb9	0.33603457
24	0xbeb1b52f	-0.34708545
25	0xbec3ce79	-0.38243464
26	0xbee73f86	-0.45165652
27	0xbe41e048	-0.18933213
28	0x3ecaccc8	0.3960936
29	0x3ebbca55	0.36677805
30	0xbe338c1c	-0.17533916
31	0xbee2472b	-0.44194922
32	0x3ec81d1e	0.39084715
33	0x3d73e628	0.059545666
34	0x3ed29e21	0.41136268
35	0xbe8ef04d	-0.2791771
36	0xbe13ad0e	-0.14421484
37	0x3eed7573	0.4637867
38	0x3e741c52	0.23838928
39	0xbe7b7020	-0.24554491
40	0xbda85251	-0.082188256
41	0x3dbef2a0	0.09323621
42	0x3e920a09	0.2852328
43	0xbeaf6838	-0.342592
44	0xbda7f96b	-0.082018696
45	0xbe64c146	-0.22339353
46	0x3ee94d64	0.45566857
47	0xbe3da4af	-0.18519853
48	0xbef48f91	-0.47765782
49	0xbdca87cb	-0.09889182
50	0xbec493b4	-0.3839394
51	0xbea9c11b	-0.3315514
52	0x3eeab769	0.45843056
53	0xbebdc73c	-0.37066066
54	0x3ef19dcf	0.4719071
55	0x3de5e988	0.11226183
56	0x3ec4effc	0.38464344
57	0xbeea9f19	-0.45824507
58	0x3e1645a3	0.14675002
59	0x3ee1e196	0.4411742
60	0xbc137872	-0.009000884
61	0xbda1bd37	-0.07897418
62	0xbeea2a53	-0.45735416
63	0xbd44f3ac	-0.048083946
64	0xbebdd9f4	-0.37080348
65	0x3df9f497	0.12204855
66	0x3ebedd6a	0.372783
67	0x3d8342ab	0.064092
68	0x3e1ddf1c	0.1541714
69	0xbeae3d36	-0.34031075
70	0xbef33195	-0.47498766
71	0xbef32628	-0.47490048
72	0x3e991867	0.2990143
73	0xbebe8398	-0.37209773
74	0x3eac37e0	0.3363638
75	0xbeb3b8f7	-0.35102054
76	0xbe9de3dc	-0.30837905
77	0x3f008fd6	0.50219476
78	0xbe57143f	-0.21003817
79	0x3ed73fea	0.4204095
80	0x3d206b1f	0.03916466
81	0xbe82741e	-0.25479215
82	0x3ebce859	0.36896017
83	0x3dd9c81d	0.10633872
84	0xbee3b702	-0.4447556
85	0xbee0522c	-0.43812692
86	0x3e3af1e8	0.18256342
87	0xbbfbe934	-0.007687712
88	0xbe6e16aa	-0.23250833
89	0xbeaf9a60	-0.34297466
90	0x3efe193c	0.49628627
91	0x3eb4f25e	0.3534116
92	0x3e582f7a	0.21111861
93	0xbd06e78b	-0.03293566
94	0xbdee7be0	-0.11644721
95	0x3dd416c9	0.103559084
96	0xbebd9b42	-0.37032515
97	0xbefe6750	-0.49688196
98	0x3e054a26	0.13016567
99	0xbe86aaa6	-0.2630207
100	0x3d363f23	0.044493806
101	0x3db87ca9	0.09008152
102	0xbe162c06	-0.14665231
103	0xbed07492	-0.40713936
104	0xbee52bed	-0.44760075
105	0xbebf83b9	-0.37405184
106	0x3efe22aa	0.49635822
107	0x3e902bda	0.28158456
108	0x3d592f3c	0.05302356
109	0x3e8ec7ec	0.27886903
110	0xbe1bd98e	-0.1521971
111	0x3de413d1	0.11136592
112	0xbdbe10b7	-0.09280532
113	0x3d833152	0.064058915
114	0x3a98a3aa	0.0011645455
115	0x3e9840ae	0.29736847
116	0xbe3e50a5	-0.18585451
117	0xbe403b5b	-0.18772642
118	0x3e438754	0.19094592
119	0xbed9c87e	-0.42535776
120	0x3ea9caa3	0.33162412
121	0x3e2bd640	0.16780949
122	0x3edd45f9	0.43217447
123	0x3ee862b6	0.4538781
124	0x3eb6203a	0.35571462
125	0x3d682395	0.05667456
126	0xbecc8281	-0.39943317
127	0xbdbfb9ab	-0.09361585
128	0xbe0c593f	-0.1370592
129	0x3e11baca	0.1423141
130	0xbe9203a4	-0.28518403
131	0xbeeaec38	-0.45883346
132	0xbee85661	-0.45378402
133	0xbecf915a	-0.40540582
134	0xbde845c2	-0.1134143
135	0x3eb1c297	0.34718773
136	0x3ed60c1a	0.41806108
137	0xbe94b221	-0.29042152
138	0x3e925077	0.28577015
139	0x3e3bb4e1	0.18330719
140	0x3efd4521	0.49466804
141	0x3ec44101	0.38330844
142	0x3ed3fe74	0.4140507
143	0x3ea72f0d	0.32653084
144	0xbe635560	-0.22200537
145	0x3ee9b1e9	0.45643547
146	0x3eaf825b	0.3427914
147	0x3e54db32	0.20786741
148	0xbe4fc25d	-0.20288987
149	0x3eb4a81f	0.35284516
150	0x3d6dd196	0.058061205
151	0x3edae1fa	0.4275053
152	0xbbb7aec0	-0.0056055486
153	0xbee521de	-0.447524
154	0x3e9226e5	0.285453
155	0x3ea0d60e	0.3141331
156	0x3dba5337	0.09097903
157	0x3d989365	0.07449988
158	0x3e573659	0.21016826
159	0x3d58cf9e	0.052932374
160	0x3e057b4d	0.13035317
161	0x3d63e20f	0.05563551
162	0xbeb21efe	-0.3478927
163	0xbe2594aa	-0.16169992
164	0xbd72fe3a	-0.05932448
165	0x3de2e386	0.11078553
166	0xbe0a3125	-0.1349531
167	0xbe964126	-0.2934658
168	0xbccd305f	-0.02504748
169	0xbdf0187f	-0.11723422
170	0xbe6e3f0f	-0.23266242
171	0x3eeba710	0.46025896
172	0xbe4a21b8	-0.19739425
173	0x3ebacc6f	0.36484095
174	0x3e81f552	0.25382477
175	0xbe34a8a9	-0.17642464
176	0x3dc6b3fa	0.097022966
177	0xbe1bded5	-0.15221722
178	0xbee4d300	-0.4469223
179	0xbdb144c3	-0.086556934
180	0xbee06a54	-0.43831122
181	0x3dce70f9	0.100801416
182	0x3e4966cc	0.1966812
183	0xbea30e3b	-0.31846794
184	0xbe453cea	-0.19261518
185	0xbe62f822	-0.22164968
186	0x3e8dd530	0.27701712
187	0xbea07bc6	-0.31344432
188	0xbe6adba7	-0.22935353
189	0x3ceb274b	0.02870526
190	0x3da7c1c3	0.08191254
191	0xbea9beef	-0.33153483
192	0xbec92ead	-0.39293423
193	0x3e5e49f9	0.21707906
194	0x3dd50fcc	0.10403404
195	0x3e3645c8	0.17800057
196	0xbe2d0037	-0.16894613
197	0x3d3cf24b	0.046129506
198	0xbda27e91	-0.07934297
199	0x3cb7e866	0.022449683
200	0xbd7c84e1	-0.06165016
201	0x3e438b54	0.19096118
202	0x3eeabaf7	0.45845768
203	0xbe24003c	-0.16015714
204	0xbe2733c8	-0.16328347
205	0x3e461d94	0.1934722
206	0x3de0c957	0.109759025
207	0x3ddabaae	0.106801376
208	0xbe147747	-0.14498626
209	0xbeb55565	-0.35416713
210	0x3eecaa21	0.46223548
211	0x3db84530	0.089975715
212	0xbec40cbd	-0.3829097
213	0xbeece791	-0.4627042
214	0xbef4514f	-0.47718284
215	0x3c321d3f	0.010871231
216	0xbee63f30	-0.44970083
217	0xbe4d542d	-0.20051642
218	0x3e481d59	0.19542445
219	0xbee09cc9	-0.43869618
220	0x3e9eea90	0.31038332
221	0xbd460ef6	-0.04835411
222	0x3e40fb45	0.18845852
223	0x3ea5fed4	0.3242098
224	0x3d989423	0.0745013
225	0xbea765c3	-0.32694826
226	0x3cf78ba6	0.030217957
227	0xbea3a713	-0.31963405
228	0x3e2fd852	0.17172363
229	0xbebd6ceb	-0.3699716
230	0x3e780581	0.2422085
231	0xbc81267f	-0.015765427
232	0xbd3ffd15	-0.046872217
233	0xbe5abb12	-0.21360424
234	0x3e2083fd	0.1567535
235	0xbed6a088	-0.4191935
236	0xbe9b22df	-0.30300042
237	0x3ed2545f	0.41079995
238	0xbed7333a	-0.4203127
239	0x3ede64fa	0.43436414
240	0x3e588c80	0.21147346
241	0x3e87a457	0.2649257
242	0x3ec1e94e	0.3787331
243	0x3dc25a70	0.09489906
244	0xbe8e797d	-0.27827063
245	0xbd96721f	-0.073459856
246	0xbbd20722	-0.0064095417
247	0x3e637958	0.22214258
248	0xbebd771d	-0.3700494
249	0x3eb99095	0.3624312
250	0xbedc4cda	-0.43027383
251	0x3eb3f274	0.35145915
252	0xbd93608e	-0.07196151
253	0x3eac0032	0.335939
254	0x3ea30c76	0.31845444
255	0xbee7cebf	-0.45274922

edge_function.0.bias f4 [64]
0	0x3ea3814a	0.31934577
1	0xbf060d80	-0.5236435
2	0xbdbb5dd4	-0.09148756
3	0x3d958e93	0.073025845
4	0xbda6034a	-0.08106096
5	0xbe037920	-0.12839174
6	0x3ec83294	0.39101088
7	0x3eea4028	0.45752072
8	0xbeed5a86	-0.46358126
9	0x3cf695da	0.030100752
10	0x3e0570d9	0.13031329
11	0xbd8fed5f	-0.07027697
12	0x3ebb0ed7	0.3653476
13	0x3e1d295b	0.15347807
14	0xbe5a5516	-0.2132152
15	0xbe9ef1d7	-0.31043884
16	0xbee3660b	-0.4441379
17	0xbb99f6cf	-0.0046986113
18	0xbeac054a	-0.33597785
19	0x3e90edaf	0.28306338
20	0xbd91625b	-0.07098838
21	0x3e564d64	0.2092796
22	0x3bdb0de8	0.0066850074
23	0x3e8392bc	0.25697887
24	0xbeb64b7c	-0.35604465
25	0x3d89d189	0.06729419
26	0xbe5a0e62	-0.21294549
27	0x3e46036e	0.19337246
28	0x3ed6cc5b	0.41952786
29	0xbd26a11a	-0.040680982
30	0xbd0cc7f5	-0.03437038
31	0x3e13a380	0.14417839
32	0xbde0ad64	-0.10970572
33	0x3e92c045	0.28662315
34	0x3ea8508f	0.3287396
35	0x3ec5833a	0.3857668
36	0x3e9257fd	0.28582755
37	0xbeb0c21b	-0.3452309
38	0xbdf3403c	-0.11877486
39	0x3eb41ddc	0.3517903
40	0xbe8a4f50	-0.27013636
41	0x3deea1bf	0.11651944
42	0xbdf96b78	-0.12178701
43	0x3eaa25d5	0.3323199
44	0x3e7d3c50	0.24730039
45	0x3e69bdf6	0.2282637
46	0xbeb692a6	-0.3565876
47	0x3d6cc177	0.05780169
48	0xbd97abfe	-0.07405852
49	0xbe91b417	-0.2845771
50	0x3ee992bc	0.45619762
51	0x3e3f8360	0.1870246
52	0xbe8c57f8	-0.27410865
53	0xbea9b715	-0.33147493
54	0xbe89c0b2	-0.26904827
55	0xbdd3e859	-0.10347051
56	0x3da11f50	0.078673005
57	0xbcd13514	-0.025538005
58	0x3d817877	0.06321805
59	0xbd36b0f4	-0.04460235
60	0x3ec145a1	0.37748435
61	0x3f0c2f1d	0.5475939
62	0xbec18a42	-0.37800795
63	0xbed62364	-0.41823876

edge_function.2.weight f4 [64, 64]
0	0x3d36e0c8	0.04464796
1	0x3d2ff591	0.0429588
2	0x3d8a40be	0.0675063
3	0x3dbcf9bc	0.092273206
4	0xbc1ca664	-0.009561155
5	0xbe120f8f	-0.14263748
6	0x3d9470f6	0.07248108
7	0xbdbc47b3	-0.09193363
8	0xbccfde9c	-0.025374703
9	0x3dcbf7d6	0.0995938
10	0x3b3d4ab6	0.0028883643
11	0xbe1ae269	-0.15125431
12	0x3dcffc18	0.10155505
13	0x3d877860	0.066147566
14	0xbd6af795	-0.05736502
15	0x3d8ad5bf	0.0677905
16	0x3da61c06	0.08110814
17	0xbcbf401b	-0.023345998
18	0x3ca69937	0.02033673
19	0xbdd4b57f	-0.1038618
20	0x3d82a237	0.06378596
21	0x3dbd79b7	0.09251731
22	0xbc90bb60	-0.017667472
23	0xbc0d7a61	-0.008635134
24	0xbdb5fc42	-0.08886005
25	0xbe0fa1a6	-0.14026508
26	0x3d327a3a	0.043573596
27	0x3caa2273	0.02076838
28	0x3c1108cb	0.008852194
29	0xbdda22d8	-0.10651177
30	0x3d378f29	0.044814263
31	0xbdd760ef	-0.105165355
32	0xbdd6ccac	-0.10488257
33	0x3db497d9	0.08818025
34	0xbd7b6301	-0.061373714
35	0x3c48aa79	0.012247675
36	0x3d33a548	0.043858796
37	0xbd8f9652	-0.07011093
38	0xbdd1bede	-0.10241483
39	0x3c951222	0.018197123
40	0x3c8c8d51	0.017157229
41	0xbd025bfb	-0.031826
42	0x3d38af31	0.04508895
43	0x3db7eb93	0.08980479
44	0xbe03d913	-0.12875776
45	0x3a8c96d7	0.0010726106
46	0x3d8a463e	0.06751679
47	0x3d979e6a	0.07403262
48	0x3de64636	0.112438604
49	0xbd44a258	-0.048006386
50	0x3d2edce1	0.042691115
51	0x3d472fda	0.04862962
52	0x3c1b7d7b	0.009490366
53	0xbe147329	-0.14497055
54	0xbd9e7a45	-0.07738165
55	0x3d72e758	0.059302658
56	0xbd55ecbf	-0.05222773
57	0x3d931450	0.07181609
58	0xbd9436c1	-0.07237006
59	0x3d5221f6	0.05130192
60	0x3c0b6935	0.00850897
61	0xbc70e5ec	-0.014703255
62	0x3d2ec61b	0.042669397
63	0x3dba8b1d	0.09108565
64	0xbd95c29a	-0.07312508
65	0xbbee21c5	-0.0072672092
66	0xbdb8cd13	-0.0902349
67	0x3e0aac71	0.13542344
68	0x3d8d3e4b	0.06896647
69	0x3dc5c80b	0.09657296
70	0x3d84f23a	0.064915136
71	0xbd3b158a	-0.045674838
72	0x3da0a344	0.078436404
73	0x3d8b7360	0.068091154
74	0xbd0bb007	-0.03410342
75	0x3b5d6aec	0.0033785654
76	0xbe19f32d	-0.1503417
77	0xba852670	-0.001015855
78	0xbcc19c56	-0.023634117
79	0x3d0ba454	0.034092262
80	0xbdaf96f0	-0.08573711
81	0x3cf0592d	0.029339397
82	0x3df7f1b9	0.12106652
83	0x3d93528e	0.071934804
84	0x3daaa284	0.08331779
85	0x3d2e8e59	0.042616222
86	0xbdd37b11	-0.103262074
87	0xbd6ed70f	-0.058310565
88	0x3d995ea7	0.074887566
89	0xbcfd3306	-0.030908119
90	0xbd545e13	-0.05184753
91	0xbda45fb7	-0.08026069
92	0xbd7b7cd8	-0.061398357
93	0xbd8ace31	-0.06777609
94	0x3d3ee14f	0.04660159
95	0x3dbebc38	0.09313244
96	0xbc5045e3	-0.012711975
97	0x3d8f3f3c	0.06994483
98	0xbd6e42e4	-0.05816926
99	0xbc89be0c	-0.016814254
100	0x3cd29e4f	0.025710253
101	0x3a392aea	0.00070635846
102	0x3ded0f1c	0.115751475
103	0x3db10319	0.08643169
104	0xbdaa6d16	-0.08321588
105	0xbddf3ecb	-0.10900649
106	0x3c7d6c84	0.015467767
107	0x3d6150ef	0.055008825
108	0x3ce6de7c	0.02818226
109	0xbd79f439	-0.061023924
110	0xbe037583	-0.12837796
111	0xbe2ad237	-0.16681753
112	0xbe103398	-0.14082181
113	0xbdebd69a	-0.115155414
114	0x3ce6c56d	0.028170312
115	0x3cabb906	0.02096225
116	0xbda25a6b	-0.07927402
117	0x3d31b6b0	0.043387115
118	0xbe337b08	-0.17527401
119	0xbb7d15e6	-0.0038617789
120	0xbcb5d210	-0.022194892
121	0x3e25d759	0.1619543
122	0xbe04eccd	-0.12980957
123	0xbdfa4f90	-0.122222066
124	0x3db94522	0.09046389
125	0xbe1aac3a	-0.15104762
126	0x3d95f3bc	0.07321879
127	0xbc9d02a6	-0.019166302
128	0x3d160757	0.036628094
129	0xbde79147	-0.11307006
130	0xba0ca9d9	-0.00053658854
131	0x3e06413c	0.13110822
132	0xbd9a3676	-0.07529919
133	0x3d92a6b4	0.07160702
134	0x3bde1fcc	0.006778693
135	0xbdd34001	-0.10314942
136	0x3ddb2861	0.10701061
137	0x3d8d73f8	0.06906885
138	0xbc9ef8f3	-0.019405818
139	0xbdec428e	-0.11536132
140	0x3d5738c1	0.05254436
141	0xbd13f09c	-0.036118135
142	0x3d123468	0.03569451
143	0x3dbefa01	0.09325028
144	0xbdd2e1f7	-0.102970056
145	0xbc902ec0	-0.017600417
146	0xbd81b598	-0.063334644
147	0x3d8cc269	0.06873018
148	0x3dd56181	0.10418988
149	0xbb031558	-0.0020001736
150	0x3e01acd3	0.12663583
151	0xbcffa190	-0.031204969
152	0x3daa832f	0.083258025
153	0xbde6f249	-0.11276681
154	0xbd426d61	-0.047467593
155	0x3db64452	0.0889975
156	0x3c90fb3f	0.017697928
157	0xbdf4a856	-0.1194617
158	0xbc02ec0e	-0.00799085
159	0xbe02770f	-0.1274073
160	0xbdc18f89	-0.09451205
161	0x3d957bbd	0.07298992
162	0x3dd0584c	0.10173091
163	0xbd6aa839	-0.057289336
164	0x3b83371e	0.004004373
165	0xbda745de	-0.08167623
166	0x3e0adf47	0.13561736
167	0xbda8496c	-0.08217129
168	0xbdf4cb3f	-0.119528286
169	0x3d9eff65	0.077635564
170	0x3dc381f0	0.09546268
171	0x3d594d35	0.053052146
172	0x3dbda34d	0.09259663
173	0xbd3c71ae	-0.04600685
174	0x3b82793a	0.0039817365
175	0xbdf58b73	-0.119894885
176	0xbccdd1db	-0.025124481
177	0x3d8bf2b4	0.06833401
178	0xbc5fcc04	-0.013659481
179	0x3d0e011b	0.034669023
180	0x3db03a96	0.086049244
181	0xbd7feda0	-0.062482476
182	0xbd0b0aa0	-0.03394568
183	0x3d746f8a	0.059676684
184	0xbe087dd5	-0.13329251
185	0x3b1f4c6f	0.0024307033
186	0x3d96e8e2	0.073686376
187	0xbdf3514f	-0.11880743
188	0x3d1354c0	0.035969496
189	0x3cba9fb4	0.02278123
190	0xbcf6fec9	-0.030150788
191	0xbd656823	-0.056007516
192	0x3ce0da0e	0.027447727
193	0x3c87f983	0.016598469
194	0xbd24c9d4	-0.04023154
195	0xbcb5069d	-0.02209788
196	0x3c864244	0.01638902
197	0xbdbe4803	-0.09291079
198	0xbd92b9fd	-0.07164381
199	0x3c51ccd2	0.012805181
200	0x3c53b592	0.012921708
201	0x3d417825	0.04723372
202	0x3d714c95	0.058910925
203	0xbd669b81	-0.056300644
204	0xbe25a81f	-0.16177414
205	0x3d023ccf	0.031796273
206	0xbde3252d	-0.11091075
207	0x3cb0aef6	0.021567803
208	0xbd5ff13c	-0.05467342
209	0xbd8054c0	-0.06266165
210	0x3d5bc32b	0.053652924
211	0xbd74155b	-0.05959068
212	0xbdd11d61	-0.10210682
213	0xbdbb094a	-0.09132631
214	0x3da26a6d	0.07930455
215	0x3d57936b	0.052630823
216	0xbdd6fcf7	-0.10497468
217	0x3dbf90a7	0.09353762
218	0xbbcef48a	-0.0063157724
219	0x3cf1005a	0.029419113
220	0xbdbd32e7	-0.092382245
221	0x3d58c49a	0.05292187
222	0x3d862bf1	0.0655135
223	0xbe5e2b1b	-0.21696131
224	0xbe25ba9d	-0.16184469
225	0x3c2461a0	0.010033041
226	0x3cb37536	0.021906476
227	0xbb894099	-0.004188609
228	0x3d8de94e	0.06929265
229	0x3cada82b	0.021198353
230	0xbc8e4369	-0.017366128
231	0xbe032c99	-0.12809981
232	0xbbbef7c5	-0.0058278763
233	0xbdd48748	-0.10377365
234	0xbdf1365c	-0.11777946
235	0x3d4954d4	0.049153164
236	0xbe05b26f	-0.13056348
237	0x3d500908	0.050789863
238	0xbce61124	-0.028084345
239	0xbddfa386	-0.109198615
240	0x3c0dcfd6	0.008655509
241	0xbc7745ce	-0.015092326
242	0xbd8616ba	-0.065473035
243	0xbcf32bc8	-0.029683962
244	0xbdd9ad3e	-0.106287464
245	0x3cf97bae	0.030454483
246	0xbd940bc7	-0.07228809
247	0xbc2de4ee	-0.010613663
248	0xbdfedb1c	-0.124441355
249	0xbdae15f6	-0.085002825
250	0x3c82f493	0.015985763
251	0xbcb9e313	-0.022691285
252	0x3dc4868b	0.095959745
253	0xbe285a27	-0.1644064
254	0xbc66d96c	-0.014089923
255	0x3de47aac	0.1115621

edge_function.2.bias f4 [64]
0	0xbc899fa3	-0.016799754
1	0x3db6563b	0.08903166
2	0x3c4b685a	0.012415016
3	0xbd791060	-0.060806632
4	0xbd440d72	-0.047864385
5	0xbd990b8a	-0.07472904
6	0x3da7f669	0.08201296
7	0x3d578d00	0.052624702
8	0xbdfdbe1a	-0.123897746
9	0xbd06a370	-0.03287071
10	0x3ced9d13	0.029005563
11	0xbdb862cc	-0.09003219
12	0x3e1b6614	0.15175658
13	0x3cd00ca9	0.025396662
14	0xbcfc83c2	-0.030824546
15	0xbd976455	-0.07392184
16	0x3da6d469	0.08145983
17	0x3e11209a	0.14172593
18	0xbcb0c895	-0.02158002
19	0x3dd91c02	0.10601045
20	0x3c2ddc63	0.010611626
21	0xbd3054b0	-0.043049514
22	0xbd422589	-0.047399078
23	0x3cd73783	0.026271587
24	0x3cac8a8d	0.02106216
25	0x3d5cf4fd	0.053944577
26	0xbdb1e25b	-0.08685752
27	0xbdb3b2c2	-0.0877433
28	0xbdd3e409	-0.10346229
29	0x3c64fb51	0.013975934
30	0x3cf37e1b	0.029723218
31	0xbd9418a1	-0.0723126
32	0xbdbe7ee2	-0.09301545
33	0x3e1e8275	0.15479453
34	0x3e070b8d	0.13188
35	0x3dcb617c	0.09930703
36	0x3db91c24	0.090385705
37	0xbe0d708c	-0.13812464
38	0x3c66ad7d	0.014079449
39	0x3df01c72	0.117241755
40	0xbd17ce24	-0.037061825
41	0x3d30a324	0.043124333
42	0xbde06744	-0.10957196
43	0x3d29a514	0.041417196
44	0x3d10bba6	0.035335205
45	0xbe11757e	-0.14204976
46	0xbdc5d6fe	-0.09660147
47	0x3e243ead	0.16039534
48	0x3c8a306c	0.016868792
49	0x3e529d2f	0.20567773
50	0x3da4b076	0.0804147
51	0x3d0e5aa6	0.034754418
52	0x3d1b441d	0.037906755
53	0xbd9d48d6	-0.07679908
54	0x3cab7ce0	0.020933568
55	0x3e0cfdab	0.13768642
56	0xbc247e56	-0.010039886
57	0xbd5bd597	-0.053670492
58	0x3da6b8ae	0.081406936
59	0x3e1fcf17	0.15606342
60	0x3e1fcc4a	0.15605274
61	0x3b316811	0.0027070085
62	0x3e46806c	0.19384927
63	0x3db5931f	0.08865952
