Projects/GuoxiangGrayson_T_A study of multi-fidelity graph neural networks/Model_save/Quarter2D/Rank=147-GNN-nB-64-Lr-0.005/model.pth (torch, 114781 bytes, 24 tensors)

node_function_neighbor.0.weight f4 [64, 2]
0	0xbeca4516	-0.39505833
1	0xbeb9fe8a	-0.3632701
2	0x3f1934da	0.5984627
3	0x3f2397a1	0.6390324
4	0xbee1ae98	-0.44078517
5	0xbe761d1f	-0.24034546
6	0xbe9818de	-0.29706472
7	0x3e3802b1	0.17969777
8	0xbebb6b2b	-0.366052
9	0x3ec8a8ab	0.39191183
10	0x3f132bbe	0.5748862
11	0xbd0b45bf	-0.034002062
12	0x3e894060	0.26806927
13	0xbddf1db1	-0.10894335
14	0xbe949763	-0.2902175
15	0x3dacfe1c	0.08446905
16	0xbe33e258	-0.17566812
17	0xbed43a89	-0.4145091
18	0x3e2499e1	0.16074325
19	0x3f1e1114	0.6174481
20	0x3f2b4612	0.66903794
21	0xbce85ca9	-0.028364496
22	0xbe9372d3	-0.2879854
23	0x3ec08ccc	0.3760742
24	0x3e386da9	0.18010582
25	0xbf00072d	-0.5001095
26	0xbf1adafb	-0.6049039
27	0xbe82d1fa	-0.25550824
28	0x3d879392	0.06619944
29	0xbf2db620	-0.67856026
30	0xbe628755	-0.22121938
31	0x3f090adc	0.53532195
32	0x3f01280e	0.50451744
33	0xbf074892	-0.5284511
34	0xbe895ccc	-0.2682861
35	0xbbd90912	-0.0066233957
36	0x3efa9e14	0.4894873
37	0xbe9003a0	-0.28127766
38	0xbefdb502	-0.4955216
39	0xbea09f82	-0.31371695
40	0x3f11bdf8	0.56930494
41	0x3ea8a80a	0.32940704
42	0xbcb6d138	-0.02231656
43	0xbf0e42f1	-0.55570894
44	0x3eed6a80	0.46370316
45	0x3cd36d97	0.025809092
46	0xbeb8cb6c	-0.360927
47	0xbdca97d3	-0.098922394
48	0xbe1fdb49	-0.15610994
49	0xbe6982f1	-0.22803856
50	0xbf0e0f2e	-0.5549191
51	0x3f04fbbc	0.51946616
52	0x3e14ca93	0.14530401
53	0x3f156da4	0.58370423
54	0xbd5ef7ae	-0.054435425
55	0x3e9b6385	0.30349365
56	0x3e3f8a53	0.1870511
57	0xbe58a849	-0.21157946
58	0x3ed0f230	0.40809774
59	0x3ed37219	0.41297987
60	0x3f305543	0.688801
61	0xbef68f29	-0.48156098
62	0x3ef43b4b	0.47701487
63	0x3e89b8dd	0.26898852
64	0xbeeccd40	-0.46250343
65	0x3f350971	0.7071753
66	0x3f1d121b	0.6135575
67	0x3b56fb63	0.0032803647
68	0xbe3a0817	-0.18167149
69	0x3eb672be	0.35634416
70	0x3f1d632e	0.6147946
71	0xbf19ce7e	-0.6008071
72	0x3eb16219	0.34645155
73	0x3cba0197	0.022705836
74	0x3e8f2c58	0.2796352
75	0x3ea0a80a	0.31378204
76	0x3f0b5e54	0.5444081
77	0x3e648dff	0.22319792
78	0x3e2f4032	0.17114332
79	0xbe9cdbdd	-0.30636492
80	0xbbd665db	-0.006542904
81	0xbf1467e1	-0.57971007
82	0xbe9b3746	-0.30315608
83	0xbdddbc75	-0.10826961
84	0x3f28930d	0.6584938
85	0xbeee7ca8	-0.4657948
86	0xbf0b90f6	-0.5451807
87	0xbd7222e7	-0.059115317
88	0x3e48ff6d	0.19628687
89	0xbf2ddac0	-0.6791191
90	0x3e9bd8ec	0.30438936
91	0xbee4b8d9	-0.44672278
92	0x3e792ee9	0.24334301
93	0xbe2ab6cc	-0.16671294
94	0x3f1cfc61	0.613226
95	0xbefeeb17	-0.49788734
96	0x3ef90c09	0.48641995
97	0xbe878bea	-0.26473933
98	0xbbf0ebe7	-0.0073523405
99	0x3ef27e62	0.47362047
100	0xbf2c25ce	-0.67245185
101	0xbf0c9e80	-0.5492935
102	0xbe86a388	-0.2629664
103	0x3e91c3a7	0.28469583
104	0xbe915bf7	-0.28390476
105	0x3de4db6b	0.11174663
106	0xbf0c46c2	-0.5479547
107	0xbeb5c4e0	-0.35501766
108	0x3ed2829f	0.4111528
109	0x3e96d4a3	0.29459104
110	0xbe867c82	-0.26266867
111	0xbf1c8710	-0.6114359
112	0x3ec63621	0.38713172
113	0xbe2ccf95	-0.16876061
114	0xbeab7fb7	-0.33495876
115	0xbeb9e54f	-0.3630776
116	0xbf146579	-0.57967335
117	0x3f0a11cd	0.5393341
118	0x3d7a173b	0.06105731
119	0x3e8160f6	0.25269288
120	0xbe93eee1	-0.28893188
121	0xbee56daa	-0.4481023
122	0xbe5643d5	-0.20924313
123	0xbebc885c	-0.36822784
124	0x3dbc62ef	0.091985576
125	0xbf360775	-0.7110513
126	0xbef2ef60	-0.47448254
127	0x3f2aa9bc	0.66665244

node_function_neighbor.0.bias f4 [64]
0	0xbf092cd2	-0.53584015
1	0xbeaee5b0	-0.34159613
2	0x3f33a98c	0.70180583
3	0x3eb7e6c4	0.35918248
4	0x3f0affd0	0.5429659
5	0x3dd5c083	0.10437109
6	0xbebfba7b	-0.3744696
7	0xbf138cb8	-0.57636595
8	0xbea93190	-0.33045626
9	0xbef41813	-0.47674617
10	0x3ed77bb9	0.4208658
11	0x3f16d378	0.58916426
12	0x3da69c1f	0.081352465
13	0xbef1b351	-0.4720712
14	0x3e527319	0.20551719
15	0xbe2b3ba2	-0.16721967
16	0xbec251a9	-0.37952927
17	0x3e81da02	0.2536164
18	0x3f555cd5	0.83344775
19	0xbe2c9b7d	-0.16856189
20	0xbde00345	-0.109381236
21	0xbf2f2ddd	-0.68429357
22	0x3f19c960	0.600729
23	0xbeb11bde	-0.34591573
24	0xbf151de9	-0.58248764
25	0xbea7a171	-0.32740358
26	0xbe3a61ca	-0.18201366
27	0x3eae6e1d	0.34068385
28	0x3f1e6335	0.6187013
29	0xbe0ee457	-0.13954292
30	0xbe0b096e	-0.13577816
31	0xbf1775d8	-0.5916419
32	0x3eba2b83	0.36361322
33	0x3e2933ba	0.16523638
34	0x3e492988	0.19644749
35	0x3dab5982	0.08366682
36	0xbdd3638a	-0.1032172
37	0x3e1c2f7a	0.15252486
38	0xbefeff03	-0.49803934
39	0x3eab3fcd	0.33447114
40	0x3ed7ff68	0.42187047
41	0x3cfef7e3	0.031124061
42	0xbe671038	-0.2256478
43	0xbeffdcc8	-0.4997313
44	0xbef216ac	-0.47282922
45	0x3e9c8261	0.3056822
46	0xbf146a18	-0.57974386
47	0x3f2cb9c6	0.6747097
48	0x3d5aa2e7	0.053378012
49	0xbe619c43	-0.22032265
50	0x3f1eeefb	0.62083405
51	0x3eeefdc2	0.46677977
52	0x3da55917	0.08073633
53	0xbe46ff58	-0.19433343
54	0x3d8901c6	0.066897914
55	0x3e51ec73	0.20500354
56	0xbf292cc2	-0.6608392
57	0xbec2f76a	-0.38079387
58	0x3d24b387	0.040210273
59	0x3f122ad4	0.570966
60	0x3d2c53aa	0.042071976
61	0x3e9c8523	0.30570325
62	0x3eda555a	0.42643243
63	0x3ef50631	0.47856286

node_function_neighbor.2.weight f4 [64, 64]
0	0xbd47300b	-0.0486298
1	0xbd22a662	-0.039709456
2	0xbcdb93bd	-0.026803846
3	0x3d4a7fa3	0.04943813
4	0x3dfb5a20	0.12273049
5	0x3bd5f297	0.006529163
6	0xbe076d05	-0.13225181
7	0xbb9936e2	-0.004675732
8	0x3dcc7b95	0.09984509
9	0x3d37e6ad	0.044897724
10	0x3dbdb7b7	0.092635565
11	0x3cb3fa95	0.021970073
12	0xbd1aa9aa	-0.03775946
13	0x3db9bf09	0.0906964
14	0xbd12a925	-0.03580584
15	0x3dbb74d1	0.0915314
16	0x3dcde14e	0.10052739
17	0x3e1d545a	0.15364209
18	0x3df7279c	0.12068102
19	0x3d5ae7d6	0.053443752
20	0xbd2df1bf	-0.042466875
21	0xbe076aa7	-0.13224278
22	0x3df0b3ca	0.11753042
23	0xbd833bc5	-0.064078845
24	0xbd0d3224	-0.034471646
25	0x3c44c0e0	0.012008876
26	0xbde911da	-0.11380358
27	0xbcc7471d	-0.024325902
28	0x3dd1a0a3	0.10235717
29	0x3d7aee34	0.061262324
30	0x3d7b9bdc	0.061427936
31	0x3d1bc2dd	0.038027633
32	0x3e15a5c6	0.14614019
33	0xbd173001	-0.036911014
34	0xbcba38d6	-0.02273218
35	0x3e020846	0.12698469
36	0xbd1771e4	-0.03697385
37	0x3d551125	0.052018303
38	0xbc4bfae7	-0.0124499565
39	0xbd018403	-0.031620037
40	0x3e09bf86	0.13451967
41	0xbbcad860	-0.0061903447
42	0x3b2bacdf	0.0026195568
43	0xbd2d4e50	-0.042311013
44	0x3c18d1f6	0.009327402
45	0xbca7dfdb	-0.020492485
46	0xbcc14fc3	-0.023597604
47	0xbb98a5c3	-0.004658432
48	0xbda1314d	-0.078707315
49	0xbda57205	-0.08078388
50	0x3d3a607d	0.045502175
51	0xbd4b6338	-0.04965517
52	0x3d87254a	0.06598909
53	0x3cbcd27e	0.02304959
54	0x3d810067	0.06298905
55	0x3dacd5fa	0.0843925
56	0xbda84e43	-0.08218052
57	0xbd8d7fba	-0.069091275
58	0x3c6806d0	0.0141617805
59	0xbc19ae1c	-0.00937989
60	0x3dac9c2c	0.08428225
61	0xba774413	-0.0009432446
62	0xbdb26a2a	-0.087116554
63	0xbcaffc3c	-0.02148258
64	0x3d9b96f0	0.075971484
65	0xbdb2034d	-0.08692036
66	0x3d99447d	0.07483766
67	0xbdffdc6b	-0.12493213
68	0x3caba6e7	0.020953609
69	0x3dba2332	0.09088744
70	0x3d91e826	0.07124357
71	0xbe0117db	-0.12606756
72	0xbd2b9b80	-0.041896343
73	0x3db81622	0.089885965
74	0x3e06ea2c	0.13175267
75	0xbd6be5ef	-0.05759233
76	0x3dbe70f0	0.09298885
77	0xbd91e771	-0.07124222
78	0xbcc6687a	-0.02421974
79	0xbd9063f2	-0.07050313
80	0x3cbf36af	0.023341505
81	0xbdd050d2	-0.10171665
82	0x3e0e7a38	0.1391381
83	0x3c8f3eef	0.017486064
84	0x3d5e869c	0.054327592
85	0x3d65481a	0.055976965
86	0x3d64b3ae	0.05583542
87	0x3d04546a	0.032307066
88	0xbccd9c91	-0.02509907
89	0xbddf0f5a	-0.108916
90	0xbd6464a9	-0.05576006
91	0xbdd7c8cd	-0.105363466
92	0x3e088a27	0.13333951
93	0xbd80f6d5	-0.062970795
94	0xbd007fa3	-0.031371724
95	0xbdc7d9e7	-0.097583584
96	0x3d3108d7	0.04322132
97	0xbde25893	-0.110520504
98	0xbbbd61a9	-0.0057794643
99	0x3d31e46e	0.04343074
100	0x3d1a4b46	0.037669443
101	0xbcf634a5	-0.0300544
102	0xbda0f7c7	-0.0785976
103	0x3d712bcc	0.05887966
104	0xbbb9a2cb	-0.0056651584
105	0x3de65baf	0.11247956
106	0xbd2fb8b8	-0.04290077
107	0xbe0e9db9	-0.13927354
108	0xbdcf9dc0	-0.1013751
109	0xbd0cb704	-0.034354225
110	0x3da82acf	0.0821129
111	0xbcdf7c6a	-0.027281005
112	0x3da62945	0.0811334
113	0x3d02edd2	0.031965084
114	0xbd678b11	-0.05652911
115	0xbd546153	-0.051850628
116	0x3d470724	0.048590794
117	0xbdc5ea64	-0.09663847
118	0xbdf4dfaf	-0.11956727
119	0xbdaf1712	-0.08549322
120	0xbc46db08	-0.012137182
121	0xbd3acbc2	-0.045604475
122	0xbe12d9f5	-0.14340957
123	0xbda91da0	-0.08257604
124	0x3b8602ba	0.0040896805
125	0x3de45a03	0.11149981
126	0xbd81d1e5	-0.06338862
127	0x3cc34713	0.023837602
128	0xbcdf2142	-0.027237538
129	0x3cd45555	0.025919596
130	0xbd8b0483	-0.0678797
131	0x3de16e20	0.11007333
132	0x3dfa4629	0.12220413
133	0xbdb82b22	-0.08992602
134	0xbd313685	-0.043264885
135	0xbe3cdbb0	-0.18443179
136	0xbe0b9b76	-0.13633522
137	0x3dc410ab	0.09573492
138	0x3dae9f90	0.08526528
139	0x3da14fb6	0.07876532
140	0xbe0f77fc	-0.14010614
141	0x3ca57578	0.020197615
142	0x3d9b3856	0.075791046
143	0x3ddfa80e	0.10920726
144	0xbdaaec18	-0.083458126
145	0x3d346cd2	0.04404909
146	0x3e18688e	0.14883634
147	0x3da5733e	0.08078621
148	0x3b44dbc3	0.0030038215
149	0x3d811071	0.06301964
150	0xbdaf48a8	-0.0855878
151	0xbcf0035f	-0.029298482
152	0xbe0dc824	-0.13845879
153	0xbd9d50ed	-0.07681451
154	0x3bd56c23	0.006513135
155	0xbd79e0b0	-0.061005294
156	0x3dcae9e4	0.09907892
157	0x3d74c662	0.059759505
158	0x3d7297e1	0.059226874
159	0x3d69e286	0.057100795
160	0x3d1a4a81	0.03766871
161	0x3e05c1e6	0.13062248
162	0x3dea4473	0.11438837
163	0x3da38828	0.07984954
164	0xbda3357b	-0.07969185
165	0xbd3664d2	-0.044529743
166	0x3d27c599	0.04095993
167	0xbde23052	-0.110443726
168	0xbdab541e	-0.083656535
169	0x3d75a1b4	0.059968665
170	0xbda78a11	-0.08180631
171	0x3a6922bc	0.00088934205
172	0xbd8d8c7b	-0.0691156
173	0x3e00e6a8	0.12587988
174	0x3d83f7c7	0.06443744
175	0x3b5c12fb	0.003358065
176	0xbd16cbbb	-0.036815386
177	0xbd1cb5da	-0.038259365
178	0xbdb1da16	-0.08684175
179	0x3cd3454d	0.025789881
180	0xbd24a8a1	-0.04019988
181	0x3cfefc0c	0.031126045
182	0xbd9c4b04	-0.076314956
183	0xbcf9e591	-0.030504974
184	0x3d9a8572	0.07544984
185	0xbe0d9209	-0.13825239
186	0x3dda7f01	0.10668755
187	0xbda85a57	-0.08220356
188	0xbd7485a8	-0.059697777
189	0xbe0d9b1d	-0.13828702
190	0x3c015c3e	0.007895527
191	0x3dc6e37d	0.09711359
192	0xbcc539fa	-0.024075497
193	0x3dd7121a	0.105014995
194	0x3ddef87e	0.1088724
195	0xbd8bc2d4	-0.0682427
196	0x3d6b166b	0.057394426
197	0xbddda7df	-0.108230345
198	0x3dcf2617	0.10114687
199	0x3dccbd30	0.09997022
200	0x3dcd4003	0.10021975
201	0x3c8f0dd1	0.017462643
202	0x3d77bb55	0.060481388
203	0xbce85e50	-0.028365284
204	0x3d6cd839	0.057823393
205	0xbd4a0b0f	-0.049326953
206	0x3dd329fd	0.10310743
207	0x3c8d8047	0.017273081
208	0x3d18d02c	0.037307903
209	0x3de2f402	0.11081697
210	0x3d6a224a	0.057161607
211	0xbd1ca1ec	-0.03824036
212	0x3d4168ab	0.04721896
213	0xbd8725b0	-0.06598985
214	0x3d5a6736	0.053321086
215	0x3d81f798	0.06346053
216	0xbd9adb9b	-0.07561418
217	0xbbb9daf6	-0.005671854
218	0xbd68b2c7	-0.05681112
219	0xbd490a95	-0.049082357
220	0x3c16bf1f	0.00920084
221	0x3c2b6f04	0.01046348
222	0xbd3eaa7f	-0.046549316
223	0xbdb26a33	-0.08711662
224	0xbcfabf3f	-0.030608771
225	0x3c78bb52	0.015181379
226	0xbdcd9ebd	-0.100400425
227	0xbcea5f53	-0.028609907
228	0x3d65aaa6	0.056070946
229	0xbd3815b6	-0.04494258
230	0x3c0ebf73	0.008712637
231	0x3d089d99	0.03335342
232	0xbd048224	-0.032350674
233	0x3df318f2	0.11869992
234	0x3ddada32	0.10686149
235	0xbbe6bec6	-0.007041785
236	0x3d98db0f	0.07463657
237	0x3d8dc074	0.06921473
238	0xbdc0c382	-0.0941229
239	0xbc224189	-0.00990332
240	0xbc8bcf85	-0.017066726
241	0x3c6b037d	0.014344093
242	0x3df93ca3	0.12169769
243	0x3dea6eac	0.1144689
244	0x3b81fbbf	0.003966778
245	0xbd60ea32	-0.054910846
246	0x3c3f83c5	0.011689131
247	0xbd13ff5d	-0.036132205
248	0xbddc01ca	-0.10742529
249	0xbd67c50c	-0.056584403
250	0x3e094d3d	0.1340837
251	0x3d946864	0.072464734
252	0x3dc4511d	0.09585784
253	0xbc4f7600	-0.012662411
254	0xbd92c6c8	-0.07166821
255	0x3dc409ca	0.095721796

node_function_neighbor.2.bias f4 [64]
0	0xbcee11ad	-0.029061163
1	0x3dc6c23d	0.09705017
2	0x3e0809fb	0.13285057
3	0x3dc0686f	0.09394919
4	0x3dff6071	0.124695666
5	0x3c2d4674	0.010575879
6	0x3cf5a06f	0.029983727
7	0xbde0fdac	-0.10985884
8	0xbc0011bf	-0.007816731
9	0x3d3615b4	0.04445429
10	0x3cfcd14c	0.03086152
11	0x3df32d97	0.1187393
12	0xbdc837dd	-0.0977628
13	0x3d9a950f	0.07547962
14	0x3d01d8f1	0.031701032
15	0xbd0321c5	-0.032014627
16	0x3d156614	0.036474302
17	0x3e0c123b	0.1367883
18	0xbda28560	-0.079355955
19	0xbe0b62e1	-0.13611938
20	0xbd8a84cf	-0.067636125
21	0x3e3256c7	0.17415915
22	0x3e080058	0.13281381
23	0x3dbf7fa3	0.09350517
24	0x3dc8cfe5	0.09805278
25	0x3cf56746	0.029956471
26	0x3e466fff	0.1937866
27	0x3d968035	0.07348672
28	0xbe0009e6	-0.12503776
29	0xbd24a972	-0.04020066
30	0xbcd577e3	-0.026058143
31	0xbd8e1a4a	-0.06938608
32	0xbd0a7756	-0.033805214
33	0xbd8b6be8	-0.06807691
34	0x3d048003	0.032348644
35	0x3d7d9908	0.06191352
36	0xbdb65e9a	-0.089047626
37	0xbe24408d	-0.16040249
38	0x3e2da449	0.16957201
39	0x3dbdf5c2	0.0927539
40	0xbdf0f9c9	-0.11766393
41	0xbce705f4	-0.02820108
42	0x3d7ae220	0.061250806
43	0x3be75603	0.007059814
44	0x3d82f765	0.06394843
45	0xbc45f046	-0.012081211
46	0xbe1b0889	-0.15139975
47	0xbd21b581	-0.039479736
48	0x3e2f81fd	0.1713943
49	0xbd977887	-0.07396036
50	0xbe1dbba3	-0.15403609
51	0x3e741541	0.23836233
52	0xbe00035c	-0.12501281
53	0xbd8e9ff1	-0.069641
54	0xbbc85251	-0.0061133285
55	0x3df15cdf	0.11785292
56	0xbd7785fe	-0.06043052
57	0x3d4b5238	0.049638957
58	0x3d53ebbd	0.05173849
59	0x3d998279	0.07495589
60	0x3bcc4546	0.006233844
61	0xbcde3f24	-0.027129717
62	0xbd6e4e69	-0.058180247
63	0x3d397146	0.04527404

node_function_neighbor.4.weight f4 [64, 64]
0	0x3d4c57a2	0.04988826
1	0x3d92c0ca	0.07165678
2	0xbdd0f49c	-0.102029055
3	0xbca651d5	-0.020302692
4	0xbdbc41ef	-0.09192263
5	0x3dffb45c	0.12485573
6	0xbdf3cb0a	-0.11903961
7	0x3c056b30	0.008143231
8	0x3c903d5d	0.017607385
9	0xbc15c01c	-0.009140041
10	0x3d430561	0.04761255
11	0xbd04b69d	-0.032400716
12	0x3d3268c4	0.043556944
13	0xbcbff867	-0.023433877
14	0xbc83a352	-0.016069088
15	0xbd8eb0d7	-0.06967323
16	0x3db641bd	0.08899257
17	0x3dca5d2c	0.098810524
18	0x3dd5b34f	0.10434591
19	0xbd9f5a2b	-0.0778087
20	0xbcbffb1a	-0.023435164
21	0xbdd7eb54	-0.10542932
22	0x3b567690	0.0032724477
23	0xbdad708f	-0.084687345
24	0xbd5d7222	-0.054063924
25	0xbdbe32ae	-0.0928701
26	0xbde4113b	-0.11136099
27	0x3c96d527	0.018412186
28	0xbd278ea1	-0.040907506
29	0x3d4977ea	0.049186625
30	0xbd26cf51	-0.040725056
31	0x3da693a7	0.08133631
32	0xbd93f5a2	-0.07224585
33	0x3bdb923d	0.0067007826
34	0x3d917c66	0.07103805
35	0x3d34146a	0.04396478
36	0xbdcfef9a	-0.10153122
37	0x3d03e594	0.032201365
38	0x3c1ac0a1	0.00944534
39	0x3a662fcb	0.00087809254
40	0xbc31eef2	-0.010860192
41	0x3de307c7	0.11085468
42	0x3c89e057	0.016830606
43	0x3d72f6d4	0.059317425
44	0x3cdca373	0.026933407
45	0xbd6248b0	-0.0552451
46	0xbda42583	-0.08014967
47	0x3da5486b	0.08070453
48	0xbd24942e	-0.040180378
49	0xbde9f392	-0.114234105
50	0x3da6cae8	0.0814417
51	0xbe1f5fe5	-0.15563925
52	0x3dc5b98b	0.0965453
53	0x3da02213	0.07818999
54	0xbdf31349	-0.11868913
55	0xbe0ef895	-0.13962014
56	0x3db4d231	0.08829153
57	0x3b7b6955	0.0038362343
58	0xbd9ba448	-0.075996935
59	0x3dcee602	0.10102464
60	0x3c375056	0.011188587
61	0xbd25eb8f	-0.04050785
62	0xbdbc2ea3	-0.09188583
63	0xbd58412e	-0.052796535
64	0x3d1c023d	0.038088072
65	0x3c5e103c	0.013553675
66	0xbc4e0e88	-0.012576707
67	0x3d58db5b	0.05294357
68	0xbc92606e	-0.017868247
69	0x3d15d9e6	0.036584757
70	0xbdb82479	-0.089913316
71	0xbc31f454	-0.010861475
72	0x3d5eab37	0.054362502
73	0x3dc379e4	0.09544733
74	0xbc6c3f97	-0.014419458
75	0xbdae34a0	-0.08506131
76	0x3d815e1c	0.06316778
77	0xbcdcc0bb	-0.02694737
78	0x3c12154b	0.008916209
79	0xbc0de9f4	-0.008661736
80	0xbcdfba8a	-0.027310628
81	0xbe015c38	-0.12632835
82	0xbe083ef5	-0.13305266
83	0x3d6b5691	0.057455603
84	0xbde5a7a6	-0.11213617
85	0xbde89e01	-0.11358262
86	0xbdd510b6	-0.10403578
87	0xbdafb313	-0.085790776
88	0xbd807d65	-0.06273917
89	0xbd9465f8	-0.072460115
90	0x3cbccbc9	0.023046391
91	0x3c990ef9	0.018683897
92	0xbd7c14d3	-0.061543297
93	0xbe186e61	-0.14885856
94	0x3d3022de	0.043002002
95	0x3d8ef6e5	0.06980685
96	0xbb653840	-0.0034976155
97	0xbdba3d8b	-0.0909377
98	0xbdee86c8	-0.11646801
99	0x3d45a3f9	0.04825208
100	0x3b345d53	0.0027521446
101	0x3c908407	0.01764108
102	0xbdd1bee3	-0.10241487
103	0xbda3f505	-0.08005718
104	0xbc7e65e7	-0.015527225
105	0x3c813334	0.015771486
106	0x3d8007a4	0.06251457
107	0xbde37fd4	-0.11108366
108	0x3b1dcb5e	0.0024077515
109	0xbd83dab0	-0.06438196
110	0xbc9de037	-0.019271953
111	0xbe13666d	-0.14394541
112	0x3d0f3621	0.03496373
113	0x3c45eb72	0.01208006
114	0xbd145e76	-0.036222897
115	0xbd829a71	-0.063771136
116	0xbdf99a1c	-0.12187597
117	0xbc94dc3b	-0.01817142
118	0xbdf25680	-0.11832905
119	0x3c94ef75	0.018180588
120	0xbddeef85	-0.108855285
121	0x3da58092	0.080811635
122	0x3d04d445	0.032429
123	0x3daf2a6a	0.08553012
124	0x3df9c49f	0.121957056
125	0xbdea139d	-0.11429522
126	0x3cf4d193	0.029885089
127	0xbdf2ff39	-0.11865086
128	0xbcf858a7	-0.03031571
129	0x3d5b5094	0.053543642
130	0xbc659eac	-0.014014881
131	0xbca33b60	-0.019925773
132	0x3c392b0e	0.011301769
133	0xbcfa616b	-0.03056403
134	0x3cb484af	0.022035925
135	0x3db749d4	0.089496285
136	0x3d083a0e	0.03325849
137	0x3ddf9ab9	0.10918183
138	0xbbb05f39	-0.005382445
139	0xbdb04bdf	-0.08608221
140	0xbbc147a8	-0.0058984347
141	0x3daca8f0	0.0843066
142	0x3d2161e8	0.03940001
143	0xbdc769b2	-0.09736957
144	0x3dc15e71	0.094418414
145	0x3d1d61f8	0.03842351
146	0xbd5d6f42	-0.05406118
147	0x3d6c3d86	0.05767586
148	0x3a85786f	0.0010182987
149	0x3d7d4ea2	0.06184257
150	0x3d001c02	0.03127671
151	0x3e2db050	0.16961789
152	0x3dec40d3	0.11535802
153	0x3c6f9f20	0.014625341
154	0x3db780cf	0.08960115
155	0x3dc60e16	0.096706554
156	0xbcb48a0f	-0.022038488
157	0x3d432ca8	0.04765001
158	0xbd7fb979	-0.06243274
159	0xbd3aebb4	-0.04563494
160	0x3d5758bd	0.05257486
161	0xbd9b90b7	-0.075959615
162	0x3ddcbd95	0.107783474
163	0x3d76e11d	0.06027328
164	0x3db0599b	0.08610841
165	0x3ab39c1d	0.0013703142
166	0x3de10cd4	0.10988775
167	0x3c8eb5d5	0.017420689
168	0x3ded5114	0.1158773
169	0x3da595ca	0.080852106
170	0x3e2cfb95	0.16892846
171	0x3cf44bf9	0.029821383
172	0x3e304459	0.17213573
173	0x3bb86341	0.0056270664
174	0x3c866fde	0.016410764
175	0xbdd63ea9	-0.1046117
176	0xbd907ef3	-0.07055464
177	0x3d594dff	0.0530529
178	0x3d766a3b	0.060159903
179	0xbdb43200	-0.08798599
180	0x3e2793a3	0.16364913
181	0xbd2e5f74	-0.0425715
182	0x3d96d63f	0.07365083
183	0x3da3e391	0.08002389
184	0x3ddda61d	0.10822699
185	0x3cac0e21	0.021002831
186	0x3e08da53	0.13364534
187	0xbd836a77	-0.06416791
188	0xbd4d88c4	-0.050179258
189	0x3d97f17e	0.07419108
190	0xbdaf2e22	-0.08553721
191	0xbd7bcd45	-0.061475057
192	0xbcc7d5c0	-0.024393916
193	0xbc5f26fa	-0.013620133
194	0x3d864e29	0.065578766
195	0x3ccd3644	0.02505029
196	0x3bf017f2	0.0073270733
197	0x3c9cc6ae	0.019137707
198	0x3d82dc6d	0.06389699
199	0xbda1a582	-0.07892896
200	0xbd5060d2	-0.050873585
201	0x3defd7d3	0.11711087
202	0x3dc4fefe	0.096189484
203	0xbb8fdc5b	-0.004390282
204	0xbd9626a6	-0.0733159
205	0x3c78017d	0.015137074
206	0x3d00b943	0.03142668
207	0x3dbd8e1b	0.0925562
208	0x3ce60977	0.028080685
209	0xbc4cd06d	-0.012500864
210	0x3cc3f5c3	0.0239209
211	0x3dd251a7	0.1026948
212	0xbc410aa6	-0.011782324
213	0xbc3a405a	-0.011367882
214	0x3e16a8be	0.14712808
215	0xbd7c1cf5	-0.061551053
216	0x3da1f558	0.07908124
217	0xbde91036	-0.11380045
218	0x3e479b6c	0.19492882
219	0x3d2c10e5	0.0420083
220	0xbda06251	-0.07831252
221	0x3da18395	0.078864254
222	0x3e051313	0.12995557
223	0x3e1743f4	0.14772016
224	0xbb9f8362	-0.004867957
225	0xbd86caec	-0.06581673
226	0xbd86ad1c	-0.06575987
227	0xbcb6707a	-0.02227043
228	0xbb937682	-0.004500211
229	0x3cbce799	0.023059653
230	0x3db7ce93	0.08974948
231	0x3ceb03e6	0.028688382
232	0x3d3cbb6c	0.046077177
233	0xbd9ed75c	-0.0775592
234	0x3e164c24	0.14677483
235	0xbcae4cdb	-0.021276882
236	0x3dc57f75	0.09643451
237	0x3da0850c	0.07837877
238	0xbc08ec54	-0.008357126
239	0x3dd60f0e	0.1045209
240	0x3dcd5520	0.10026002
241	0xbd0e05f0	-0.03467363
242	0xbca7f0e7	-0.020500613
243	0x3e023f73	0.12719516
244	0x3deb37fe	0.11485289
245	0xbd5f101b	-0.05445872
246	0xbc85e1a0	-0.016342938
247	0x3d06ac17	0.03287896
248	0xbd4f9c3b	-0.050686102
249	0x3e0367c5	0.12832554
250	0xbd073577	-0.033009972
251	0x3df4b4c1	0.119485386
252	0x3cc7136a	0.02430125
253	0xbcf55540	-0.029947877
254	0xbcb76430	-0.02238664
255	0xbb02cbf8	-0.0019958

node_function_neighbor.4.bias f4 [64]
0	0xbd08e620	-0.03342259
1	0xbd7d78c1	-0.061882738
2	0x3dc6cd8c	0.09707174
3	0x3de375ad	0.11106429
4	0x3ded862e	0.11597858
5	0x3dbf3d3b	0.09337851
6	0xbdf7fcee	-0.121087894
7	0xbe17d6ae	-0.14827988
8	0xbe1ad36c	-0.15119714
9	0x3d9977ee	0.07493578
10	0x3df9b649	0.12192971
11	0xbd276ca3	-0.04087509
12	0xbdaa4df7	-0.08315652
13	0xbd0a5bb6	-0.03377887
14	0xbdd30def	-0.10305392
15	0x3dacfaa0	0.084462404
16	0xbd705899	-0.058678243
17	0x3c805331	0.015664669
18	0x3dd3441d	0.10315726
19	0x3d36c0df	0.04461753
20	0x3c86cbc7	0.01645459
21	0xbd3bd88b	-0.04586081
22	0xbdf82f71	-0.12118424
23	0x3cfa9b0d	0.030591512
24	0xbde2c205	-0.110721625
25	0x3e057264	0.13031918
26	0xbdef74b1	-0.11692179
27	0xbc7008b9	-0.014650517
28	0xbe1c51e7	-0.15265618
29	0x3dc89c94	0.0979549
30	0x3d9f76fb	0.077863656
31	0xbd0cd9e4	-0.034387484
32	0xbd66eaa6	-0.056376122
33	0xbc3040ef	-0.010757669
34	0x3d62704c	0.055282876
35	0x3de787d9	0.11305208
36	0x3d8bf88a	0.068345144
37	0xbd9dea89	-0.0771075
38	0x3d2acf09	0.04170135
39	0x3d0f4501	0.034977917
40	0x3e104cfb	0.14091866
41	0xbdac47d5	-0.084121384
42	0x3d9fc890	0.07801926
43	0x3df23102	0.11825754
44	0x3e092d3c	0.13396162
45	0x3d07dd08	0.033169776
46	0x3e08c6f3	0.13357143
47	0xbd2f5279	-0.04280326
48	0x3d3bb49c	0.04582654
49	0x3c2b677e	0.010461686
50	0xbdef2ca3	-0.11678436
51	0x3c5cb26c	0.013470273
52	0x3d84ecba	0.064904645
53	0x3e18d3ab	0.14924495
54	0xbdbe1364	-0.09281042
55	0x3d13a72b	0.036048096
56	0xbd8c3a4d	-0.068470575
57	0x3d0acba0	0.0338856
58	0xbdf8b302	-0.12143518
59	0xbd2926d7	-0.041296806
60	0x3dd978db	0.106187545
61	0x3d826ca5	0.063683785
62	0xbd60587d	-0.05477189
63	0xbdf75c82	-0.12078191

node_function_neighbor.6.weight f4 [4, 64]
0	0x3dd9ba08	0.10631186
1	0xbb3c69f1	-0.002874967
2	0xbc583fb5	-0.013198783
3	0x3dd86698	0.10566443
4	0x3d85a25f	0.065251105
5	0xbdaa8914	-0.08326927
6	0x3c9f6228	0.019455984
7	0x3dea222a	0.114322975
8	0xbd44a75c	-0.04801117
9	0x3ce08655	0.027407805
10	0x3d90fca0	0.070794344
11	0x3d8eb29e	0.06967662
12	0xbd25d145	-0.040482778
13	0x3e15d9d0	0.1463387
14	0x3dee1cbd	0.11626575
15	0xbc8a34db	-0.016870907
16	0xbda902de	-0.082525
17	0xbd9bc914	-0.07606712
18	0xbd0327f8	-0.03202054
19	0x3db18283	0.08667471
20	0xbd770284	-0.060305133
21	0xbbeeea5b	-0.007291121
22	0x3db48160	0.08813739
23	0xbd459be0	-0.048244357
24	0xbda35e29	-0.07976944
25	0x3dd4e0d0	0.10394442
26	0x3d90d845	0.070725
27	0x3d37ad1f	0.044842836
28	0xbd9e66a1	-0.07734419
29	0x3dfcef40	0.12350321
30	0x3db32099	0.08746452
31	0x3cc278c1	0.02373922
32	0xbca7131d	-0.020394856
33	0xbdcfa9e1	-0.10139824
34	0xbdbbe9aa	-0.09175427
35	0xbd058d99	-0.03260574
36	0x3d971c08	0.073783934
37	0xba9448cf	-0.0011313203
38	0x3adf58a5	0.0017039968
39	0x3de836b0	0.11338556
40	0x3dda672a	0.10664208
41	0x3d33485e	0.043770187
42	0xbd76d8e9	-0.060265455
43	0x3d1a6703	0.037695896
44	0x3dd2a495	0.10285298
45	0x3d1fb6da	0.03899274
46	0x3b18483f	0.0023236421
47	0x3d672db0	0.056440055
48	0x3e0344cb	0.12819211
49	0x3cf794ea	0.030222375
50	0x3bca55f4	0.006174797
51	0xba1be65a	-0.0005947106
52	0x3ce0bee4	0.027434774
53	0x3de66828	0.11250335
54	0x3e00a8a6	0.12564334
55	0x3d7e5c40	0.062099695
56	0xbd8e7fb1	-0.06957949
57	0xbd5a04ec	-0.05322735
58	0xbd47167c	-0.048605427
59	0xbda693fa	-0.08133693
60	0x3ddc1179	0.1074552
61	0x3d039f9f	0.03213465
62	0x3d80c4cd	0.06287537
63	0x38e2841a	0.000108011256
64	0x3c84ced0	0.016211897
65	0x3db3d4b9	0.08780808
66	0xbcc6ae72	-0.024253104
67	0x3ba6ff09	0.0050963205
68	0x3d5cdff2	0.05392451
69	0xbd07035b	-0.032962184
70	0xbd952ae5	-0.07283572
71	0xbcd47c9b	-0.025938323
72	0x3cc83a5f	0.024441896
73	0xbd39dc7a	-0.04537628
74	0x3d2a904b	0.041641515
75	0xbd733aec	-0.059382364
76	0x3d5e90e0	0.054337382
77	0x3cb2c5f5	0.021822909
78	0x3db46ac1	0.08809424
79	0xbd8e8743	-0.06959393
80	0xbdc11981	-0.094286926
81	0xbd1387ae	-0.036018066
82	0x3d0f520a	0.034990348
83	0x3d515f78	0.051116437
84	0xbd6217fa	-0.055198647
85	0x3dea8784	0.11451629
86	0x3d90b99f	0.070666544
87	0xbd5c471e	-0.05377876
88	0xbd56a809	-0.052406345
89	0xbbea0468	-0.0071416385
90	0x3de8ffee	0.1137694
91	0x3cc44018	0.023956344
92	0x3c97e977	0.018543942
93	0x3d4e449c	0.0503584
94	0x3e0fb5de	0.1403422
95	0xbda2a5de	-0.07941793
96	0x3d8716da	0.065961555
97	0x3d0910b0	0.03346318
98	0xbd8568f8	-0.06514162
99	0xbd14199c	-0.036157236
100	0xbdc121e9	-0.09430296
101	0x3c5ccade	0.013476102
102	0x3ccfa9b3	0.025349474
103	0xbdaad9fd	-0.08342359
104	0x3e088542	0.13332084
105	0x3c753659	0.014966571
106	0xbd1f71f3	-0.03892703
107	0x3d995cbc	0.07488391
108	0x3dab5388	0.08365542
109	0xbd54b879	-0.05193374
110	0xbdd6e34d	-0.10492573
111	0x3db9b8cd	0.09068451
112	0xbdad2942	-0.08455135
113	0x3b08a3cf	0.002084959
114	0x3d3afccb	0.04565124
115	0x3d9fde8c	0.07806119
116	0x3cf9cede	0.03049415
117	0xbdd8a351	-0.10578025
118	0xbd2acae8	-0.041697413
119	0x3dd55b86	0.10417847
120	0x3d5e99c7	0.054345872
121	0x3c352c29	0.011057892
122	0x3e0ca251	0.13733794
123	0x3d274be6	0.040843867
124	0xbdecc77e	-0.115614876
125	0x3c983aed	0.018582786
126	0x3dea19a2	0.1143067
127	0xbd1ff2fa	-0.03905008
128	0x3d7f69e5	0.06235685
129	0xbd8a692d	-0.06758342
130	0x3c1733e1	0.0092286775
131	0x3d25f321	0.04051507
132	0x3c180779	0.009279125
133	0x3df0f361	0.11765171
134	0xbd67fecd	-0.05663948
135	0x3cf0e76c	0.029407226
136	0x3df309c5	0.11867098
137	0x3c29e624	0.010369811
138	0xbcfed320	-0.031106532
139	0x3cb91011	0.022590669
140	0x3dc8765c	0.097882
141	0xbdcca0f9	-0.099916406
142	0x3d2fecb2	0.04295034
143	0xbc2b1538	-0.010442071
144	0x3df4d348	0.11954361
145	0x3d51ec1a	0.051250555
146	0xbdbfb898	-0.0936138
147	0x3d115ae0	0.035487056
148	0xbba61654	-0.0050685797
149	0xbda70e67	-0.08157044
150	0xbd3ebefb	-0.046568852
151	0xbc8db66b	-0.017298898
152	0x3ce96b05	0.028493414
153	0xbd81dba7	-0.063407235
154	0x3d841486	0.06449227
155	0x3d45640d	0.04819112
156	0x3d948fe4	0.072540075
157	0x3d5d7e7d	0.054075707
158	0xbd5e784f	-0.054313954
159	0x3b7a58fd	0.0038200014
160	0x3c0c922e	0.008579774
161	0xbd70de77	-0.05880591
162	0xbd52b79d	-0.05144464
163	0xbd93ccf1	-0.07216824
164	0xbd3cf398	-0.046130747
165	0x3d32ea42	0.043680437
166	0xbb102133	-0.0021992445
167	0x3c69a5c0	0.014260709
168	0xbd85ddf9	-0.065364785
169	0xbd36be05	-0.04461481
170	0x3d93cf05	0.0721722
171	0xbc57668d	-0.013147009
172	0xbd9bbb79	-0.07604117
173	0xbc670d35	-0.01410227
174	0xbd6ce586	-0.057836078
175	0x3d13901a	0.036026098
176	0x3db3a397	0.08771437
177	0x3c92770d	0.017879033
178	0x3dd68193	0.10473933
179	0x3d6f05d9	0.058355186
180	0xbde5bb3c	-0.11217353
181	0xbcf75f19	-0.030196713
182	0x3d004d8c	0.031323954
183	0x3cdf10a0	0.027229607
184	0x3dc26775	0.09492389
185	0xbd678276	-0.0565209
186	0xbd84e851	-0.06489623
187	0xbb3a73ce	-0.0028450373
188	0xbd8aaad5	-0.06770865
189	0x3db9759a	0.09055634
190	0xbd8a0ea3	-0.06741073
191	0xbdabeb7f	-0.08394527
192	0xbd2d3c63	-0.042293917
193	0xbcbc4d6f	-0.022986142
194	0xbe028c78	-0.12748897
195	0xbdf731a6	-0.120700166
196	0x3c73444d	0.014847827
197	0xbe01f4f0	-0.12691092
198	0x3c068b85	0.008211975
199	0x3e15630a	0.14588562
200	0xbd113837	-0.035454
201	0xbd8dc5b7	-0.06922477
202	0xbe2c3209	-0.16815962
203	0x3d22d78c	0.039756343
204	0xbcf49180	-0.029854536
205	0x3d0f91ed	0.035051275
206	0x3cd91797	0.026500506
207	0xbe01ca07	-0.12674724
208	0xbd613109	-0.054978404
209	0xbd99e98a	-0.07515247
210	0xbd9295ef	-0.07157504
211	0xbd73606d	-0.05941813
212	0x3dbda926	0.09260778
213	0xbd18a877	-0.037270036
214	0x3c61b053	0.013774949
215	0xbba4ad7a	-0.005025563
216	0x3bc629c1	0.006047458
217	0xbc9c103b	-0.019050708
218	0x3dde643d	0.10858963
219	0x3cd1a752	0.02559248
220	0xbda9c3ca	-0.08289297
221	0xbd993de7	-0.0748251
222	0xbbf7bc7c	-0.007560311
223	0xbdb1276c	-0.08650097
224	0xbdce5fe0	-0.100768805
225	0xbd6c258f	-0.057653006
226	0xbdb676fa	-0.08909412
227	0xbddb089c	-0.106950015
228	0x3d48e62e	0.04904764
229	0x3dd0b274	0.10190287
230	0xbd4402cf	-0.04785424
231	0x3c6ddb23	0.014517578
232	0xbe102832	-0.14077833
233	0x3d19094e	0.03736239
234	0xbd6da67b	-0.058020096
235	0xbdf611d8	-0.12015122
236	0xbdf4b678	-0.11948866
237	0xbcca66ae	-0.024707165
238	0xbdcd37f7	-0.1002044
239	0x3d40467e	0.046942227
240	0xbd215878	-0.03939101
241	0x3c3ec873	0.0116444705
242	0xbc9412a7	-0.0180753
243	0x3d1c891d	0.0382167
244	0xbb402f44	-0.0029325048
245	0xbd7a9169	-0.06117383
246	0x3d8c5699	0.06852455
247	0xbd2a1c08	-0.04153064
248	0xbdd4fe18	-0.10400027
249	0xbd8378be	-0.06419514
250	0xbdd181bc	-0.10229823
251	0x3c501c2f	0.012702032
252	0xb9ff99c8	-0.00048751966
253	0xbdbad38c	-0.091223806
254	0x3c3b018e	0.011413945
255	0xbe3b7e13	-0.18309812

node_function_neighbor.6.bias f4 [4]
0	0x3e27929d	0.16364522
1	0xbe214024	-0.15747124
2	0xbbc81c2d	-0.0061068744
3	0xbe4f6f50	-0.20257306

edge_function.0.weight f4 [64, 4]
0	0x3e8de263	0.27711782
1	0x3e9dd347	0.30825254
2	0xbe4d88c0	-0.20071697
3	0xbddccb20	-0.107809305
4	0xbd33e95c	-0.04392372
5	0xbea6c333	-0.325708
6	0x3e471939	0.19443215
7	0xbe854692	-0.26030403
8	0x3dbf1c1e	0.09331535
9	0x3e44b82a	0.19210878
10	0xbe5b07b5	-0.21389659
11	0xbeaab32a	-0.33339816
12	0xbb849958	-0.0040466003
13	0x3ef7a134	0.48365176
14	0x3e4c95f6	0.1997908
15	0xbeb7f520	-0.35929203
16	0xbd837819	-0.06419391
17	0x3eb40127	0.3515713
18	0xbeaa6937	-0.33283398
19	0xbe464733	-0.19363098
20	0x3e28bc66	0.16478118
21	0xbec1d573	-0.3785816
22	0x3eedc263	0.46437368
23	0x3e8f1916	0.27948827
24	0x3e9854e1	0.29752257
25	0x3eead886	0.4586832
26	0xbe685654	-0.22689182
27	0xbe8003f4	-0.25003016
28	0xbed803c1	-0.42190364
29	0xbe7e62d4	-0.24842387
30	0xbe1302bd	-0.14356513
31	0x3dd0a7a9	0.10188229
32	0xbec6d3b4	-0.38833392
33	0x3ec676a1	0.38762382
34	0x3cd17eca	0.025573153
35	0x3e896510	0.26834917
36	0xbdb234db	-0.08701488
37	0x3e9925ee	0.2991175
38	0xbe8669ab	-0.26252493
39	0x3ca8ebbe	0.020620223
40	0x3eb8350d	0.35977975
41	0x3e76255b	0.24037687
42	0x3dcb32e9	0.0992182
43	0x3eb29903	0.34882364
44	0x3e22e75d	0.1590857
45	0x3ee22e8d	0.4417614
46	0xbd551b8c	-0.052028224
47	0x3eec151c	0.46109855
48	0x3e93abd1	0.28842023
49	0xbe9e4831	-0.30914453
50	0xbd9f57c6	-0.07780413
51	0x3ea58060	0.32324505
52	0x3eb65e4a	0.35618812
53	0x3d03a955	0.03214391
54	0xbe2ebedd	-0.17064996
55	0x3e81fab8	0.25386596
56	0x3e4ddd1c	0.20103878
57	0xbef960d3	-0.48706684
58	0x3ee7b978	0.4525869
59	0x3e02bc1d	0.12767072
60	0xbea66c92	-0.32504708
61	0xbefd246b	-0.49441847
62	0x3e166821	0.1468816
63	0x3e9968fe	0.29962915
64	0xbe12fddb	-0.1435465
65	0x3ed39452	0.41324097
66	0x3e9456ed	0.2897257
67	0xbe3fb49c	-0.18721241
68	0xbe408e62	-0.18804315
69	0x3ec1cda9	0.3785222
70	0x3e89c726	0.2690975
71	0xbabfbf6d	-0.0014629193
72	0x3ea866e7	0.32891008
73	0xbef4f41a	-0.47842485
74	0xbe26d188	-0.16290867
75	0x3e38b44e	0.18037531
76	0xbeedd708	-0.46453118
77	0x3d1f8468	0.03894463
78	0x3d2bb5c4	0.041921392
79	0x3e8c39b4	0.27387774
80	0xbe960bd0	-0.29305887
81	0x3c78f2a4	0.015194569
82	0xbe9f4d9a	-0.31113893
83	0xbe2788bf	-0.16360758
84	0x3edb9f27	0.4289486
85	0x3e7a63ae	0.24452087
86	0xbe274992	-0.16336659
87	0xbed62906	-0.41828173
88	0x3ec2bc4b	0.3803428
89	0x3ec11018	0.3770759
90	0xbec45d43	-0.38352403
91	0xbee2fafa	-0.44332105
92	0xbee9c94a	-0.45661384
93	0x3e51c731	0.20486142
94	0x3df3435b	0.118780814
95	0xbee32838	-0.44366622
96	0xbdf52e7c	-0.11971757
97	0x3e905688	0.28191018
98	0x3de5dd50	0.11223853
99	0xbe0e1d7c	-0.13878435
100	0xbe7a1df5	-0.2442549
101	0x3e17dc19	0.14830054
102	0x3e343876	0.17599663
103	0xbe541f17	-0.20714985
104	0xbe4a7aa5	-0.19773348
105	0xbe78e32c	-0.24305409
106	0xbf00a091	-0.50245005
107	0xbd6f6862	-0.058449157
108	0xbe7bd0da	-0.2459139
109	0x3dd5314c	0.10409793
110	0x3e709d29	0.23497452
111	0xbc47b2be	-0.012188612
112	0xbe94451f	-0.28958985
113	0x3e41ebc9	0.18937601
114	0xbecaa9ab	-0.3958257
115	0xbe441eda	-0.19152394
116	0xbe9b4400	-0.30325317
117	0x3ea5c93e	0.32380098
118	0xbee2f962	-0.4433089
119	0x3ed01954	0.40644324
120	0xbe34d09a	-0.176577
121	0x3e85915d	0.26087466
122	0x3e9f5442	0.3111897
123	0xba8d24ca	-0.001076841
124	0x3ec75049	0.3892844
125	0xbeb4a4c4	-0.35281956
126	0x3dadf9b7	0.08494895
127	0xbe30370a	-0.17208496
128	0xbebc9cb9	-0.3683832
129	0xbd91c5e8	-0.07117826
130	0x3cacf52e	0.021113005
131	0xbeabaf29	-0.33532074
132	0x3e9e6880	0.30939102
133	0xbeb9e701	-0.36309054
134	0xbd44404b	-0.047912877
135	0x3db1b3bf	0.08676862
136	0x3eba0850	0.36334467
137	0x3cd01b38	0.025403604
138	0x3e9d12a8	0.30678296
139	0xbdc0706a	-0.09396441
140	0x3cef2dc1	0.029196622
141	0x3c1f8464	0.009736154
142	0x3e10e9ae	0.14151642
143	0xbe4240b0	-0.18969989
144	0x3d251bdd	0.040309776
145	0x3e76eef8	0.24114597
146	0xbee25a18	-0.4420936
147	0x3e8dd241	0.27699474
148	0xbcf032bf	-0.029321073
149	0xbef84bfb	-0.48495468
150	0x3e4c98e9	0.19980206
151	0xbea2f3cf	-0.31826636
152	0x3e617982	0.22019008
153	0x3e20ae0b	0.15691392
154	0x3e4bb970	0.19894958
155	0xbe86806d	-0.26269856
156	0xbe36d4c3	-0.178546
157	0x3e77e102	0.24206927
158	0xbd220e85	-0.03956463
159	0x3e78b380	0.24287224
160	0x3e95be77	0.29246876
161	0xbe4fd038	-0.20294273
162	0x3e6453d7	0.22297607
163	0x3e2a8f00	0.16656113
164	0xbe8d5b79	-0.2760885
165	0x3ef3776b	0.47552046
166	0xbecc8ec9	-0.39952686
167	0xbefd24e0	-0.49442196
168	0xbe6f3390	-0.23359513
169	0x3ec442f7	0.3833234
170	0xbe9b9865	-0.30389705
171	0xbef8597c	-0.4850577
172	0xbe29102e	-0.16510078
173	0xbe0c4552	-0.13698319
174	0xbe193cda	-0.1496462
175	0x3dee6769	0.11640818
176	0x3ea71466	0.3263275
177	0x3ed39105	0.4132158
178	0xbd8e53b9	-0.069495626
179	0x3e07d99f	0.1326661
180	0x3d84b7d7	0.06480377
181	0x3eaa1de2	0.33225924
182	0x3ee4699b	0.4461182
183	0xbed56b2b	-0.41683325
184	0x3ea574de	0.32315725
185	0xbd7562d1	-0.05990869
186	0xbe810c87	-0.2520487
187	0x3e91d80b	0.2848514
188	0xbe235bec	-0.15953034
189	0x3eb4ad57	0.35288498
190	0x3e435026	0.19073543
191	0x3d5f5ad9	0.05453
192	0xbe83dbd8	-0.25753665
193	0xbe43508f	-0.190737
194	0x3e31d5fe	0.17366788
195	0x3e8bbaa2	0.27290827
196	0xbe79bc15	-0.24388154
197	0xbebaa68e	-0.36455196
198	0xbcb84665	-0.022494504
199	0xbe15b6b0	-0.14620471
200	0x3ea90446	0.33011073
201	0xbea52476	-0.3225438
202	0xbbe125d9	-0.006870967
203	0x3e642cf5	0.22282775
204	0x3ed53fb2	0.41650158
205	0xbee894ac	-0.45425928
206	0x3e57b7c5	0.21066196
207	0xbec75522	-0.3893214
208	0xbeea0d1f	-0.45713136
209	0xbe9e6463	-0.30935964
210	0x3edcb836	0.43109292
211	0x3ec31020	0.3809824
212	0xbeea2a9d	-0.45735636
213	0x3eb0528f	0.34437987
214	0x3cc6817d	0.024231667
215	0xbb8bb007	-0.0042629275
216	0x3ecf058e	0.40433925
217	0x3e163278	0.1466769
218	0x3e0cdd65	0.1375633
219	0xbe72f646	-0.23726758
220	0xbe766d1c	-0.2406506
221	0xbee43c82	-0.44577414
222	0x3e9f9ca0	0.31174183
223	0x3ea89a97	0.32930443
224	0x3e6f5a04	0.23374182
225	0x3e03d8ef	0.12875722
226	0x3ec5fbca	0.38668662
227	0xbeee4a8b	-0.46541247
228	0x3edee00c	0.4353031
229	0xbe49e3d0	-0.1971581
230	0x3eb0d67b	0.34538636
231	0xbed4f6bb	-0.4159449
232	0xbc9b40ff	-0.018951891
233	0x3db5768f	0.08860504
234	0x3e9cd3bb	0.30630288
235	0xbc0bdf16	-0.008537075
236	0x3ef86867	0.48517153
237	0xbcedfb2d	-0.029050434
238	0xbe8e1f04	-0.27758038
239	0xbd86e688	-0.06586939
240	0x3e0719ce	0.13193437
241	0x3ee722b2	0.45143658
242	0xbdca08b0	-0.09864938
243	0xbe8fae01	-0.28062442
244	0x3eaaab2d	0.33333722
245	0xbea11d06	-0.31467456
246	0x3e468864	0.19387966
247	0x3e5f1727	0.21786176
248	0xbe8d23cd	-0.27566376
249	0xbea7d23a	-0.32777578
250	0x3e7aa824	0.24478203
251	0xbdd2a27f	-0.102849
252	0xbea93d2f	-0.33054492
253	0xbe84d5b6	-0.25944299
254	0xbee1e2ab	-0.44118246
255	0x3eb66e45	0.35631004

edge_function.0.bias f4 [64]
0	0xbefa5726	-0.48894614
1	0xbe218226	-0.15772304
2	0xbeaa855b	-0.33304867
3	0x3dc5e364	0.09662512
4	0xbeffd46b	-0.4996675
5	0x3e89bf5a	0.26903802
6	0xbeb73f3a	-0.35790426
7	0xbe97098b	-0.29499468
8	0xbe5b4e35	-0.21416552
9	0x3e941588	0.28922677
10	0xbe609129	-0.21930374
11	0xbdf87b8b	-0.12132939
12	0x3d767904	0.060174003
13	0xbe1a5f66	-0.15075454
14	0xbf0136aa	-0.50474036
15	0x3ed2b1c7	0.41151258
16	0xbee20186	-0.44141787
17	0xbee27728	-0.44231534
18	0xbeadc6d4	-0.33940756
19	0x3db26334	0.08710328
20	0xbe4defc3	-0.20110993
21	0xbedb68c7	-0.42853376
22	0xbea7c5f7	-0.32768223
23	0xbe26d6d0	-0.16292882
24	0x3cc02662	0.023455802
25	0xbed7c8be	-0.42145342
26	0xbe956598	-0.29179072
27	0x3ea8964e	0.32927173
28	0x3ef38fb9	0.4757059
29	0x3ed85721	0.42253974
30	0xbeb77854	-0.3583399
31	0xbed1da7c	-0.40987003
32	0xbda75725	-0.081709184
33	0xbec33c41	-0.38131908
34	0xbe99398e	-0.29926723
35	0xbeba2412	-0.36355644
36	0x3d954dcb	0.072902285
37	0xbd82cd4c	-0.063868135
38	0x3eb9c98d	0.36286584
39	0x3e27f64e	0.16402552
40	0xbd4863d3	-0.048923325
41	0x3ef2b6ac	0.47404993
42	0xbe978f7a	-0.2960165
43	0x3cbaf4cb	0.022821805
44	0xbea7c0db	-0.32764325
45	0xbddfb594	-0.10923305
46	0x3e4e9539	0.20174111
47	0xbeab6188	-0.33472848
48	0x3e8a3586	0.2699396
49	0x3eeb4e23	0.4595805
50	0xbdec44d7	-0.11536568
51	0x3e281f39	0.1641816
52	0x3eae8226	0.3408367
53	0xbe4934d8	-0.19649065
54	0xbeff98cd	-0.49921265
55	0xbeecfabc	-0.46285045
56	0xbd8af111	-0.06784261
57	0xbef9376a	-0.4867509
58	0x3e843664	0.25822747
59	0xbe0c6cd6	-0.13713393
60	0xbedb0970	-0.42780638
61	0xbe3abaf3	-0.18235378
62	0x3cd1032b	0.025514206
63	0x3e3acd05	0.18242271

edge_function.2.weight f4 [64, 64]
0	0x3dcbc945	0.099504985
1	0xbd518d4e	-0.05116015
2	0x3d38b82b	0.04509751
3	0xbb5fe6c2	-0.0034164642
4	0x3d9f320f	0.0777322
5	0xbcd24a61	-0.025670232
6	0xbd7662b3	-0.06015272
7	0x3a8f5a17	0.0010936883
8	0xbdb9fdec	-0.09081635
9	0x3dd5da24	0.10441998
10	0x3dc1d6c4	0.094647914
11	0xbb30cb3f	-0.0026976613
12	0x3e1e895b	0.15482084
13	0xbc89d500	-0.0168252
14	0x3d3ab312	0.04558093
15	0xbc898027	-0.01678474
16	0xbdf226f6	-0.118238375
17	0x3d1fb16a	0.038987555
18	0x3d948c90	0.07253373
19	0xbd11e442	-0.035618074
20	0x3d821884	0.06352332
21	0x3dd0d0cc	0.10196075
22	0xbdb93144	-0.090426
23	0x3df24590	0.11829674
24	0xbbe65e91	-0.007030316
25	0x3d5b5e7d	0.053556908
26	0x3dd51a5d	0.10405419
27	0xbc60edd8	-0.013728581
28	0x3d849cff	0.06475257
29	0x3e004270	0.12525344
30	0xbddb5535	-0.10709611
31	0x3c08d7f5	0.008352269
32	0x3d91af70	0.0711354
33	0xbd0a1e3e	-0.033720247
34	0xbdd6e984	-0.10493758
35	0xbddc6fa1	-0.10763479
36	0xbd5a8d34	-0.053357318
37	0x3dddf300	0.10837364
38	0x3e09c5d9	0.13454379
39	0xbd881221	-0.06644083
40	0x3e090b96	0.13383326
41	0x3db66e40	0.08907747
42	0x3d7c2cd9	0.061566208
43	0x3df18641	0.11793185
44	0x3c9f9c58	0.01948373
45	0x3bd36f0f	0.006452448
46	0xbd0022f5	-0.031283338
47	0xbce71f29	-0.0282131
48	0xbdb3d0ea	-0.087800816
49	0x3c874ca9	0.016516047
50	0xbcb0b179	-0.021569
51	0xbdce4ccb	-0.10073241
52	0xbd927bbb	-0.07152506
53	0xbd4754f4	-0.048665002
54	0xbd88b053	-0.06674256
55	0x3d504c70	0.050854146
56	0xbd64eded	-0.055890966
57	0x3d848d9d	0.06472323
58	0xbd238884	-0.039925113
59	0xbd9c6e6c	-0.07638249
60	0x3d1f4fcc	0.03889446
61	0x3d9bf156	0.076143906
62	0xbde99f45	-0.114073314
63	0x3dcdb299	0.100438304
64	0xbd6eb909	-0.058281932
65	0xbdde82fb	-0.10864826
66	0x3d5ae29c	0.053438768
67	0xbd6e0a15	-0.058115084
68	0xbdde5ddd	-0.10857747
69	0xbd1d77c0	-0.03844428
70	0xbaf03e6a	-0.0018329148
71	0x3de0b64d	0.10972271
72	0x3d2c0480	0.04199648
73	0x3cda4677	0.026644928
74	0x3d1eecff	0.038800236
75	0xbd691aa3	-0.05691017
76	0xbe0d58d5	-0.13803418
77	0xbd6bbbc5	-0.057552118
78	0x3d5d668a	0.054052867
79	0xbd566633	-0.05234356
80	0xbcc23b8b	-0.023710033
81	0xbdec68d2	-0.115434304
82	0x3c2b0d31	0.010440157
83	0x3c947644	0.0181228
84	0x3d7ebebc	0.062193617
85	0xbd5f0828	-0.054451138
86	0xbd415ec1	-0.047209505
87	0xbccf29a6	-0.025288414
88	0xbe21faf2	-0.15818384
89	0xbd270f56	-0.04078611
90	0xbdcdb204	-0.100437194
91	0x3d033781	0.032035355
92	0x3df9a4f6	0.12189667
93	0xbcc6b2e6	-0.024255227
94	0x3cdd6506	0.02702571
95	0xbdadce44	-0.08486608
96	0x3d717b6a	0.058955587
97	0xbde804f0	-0.11329067
98	0x3c32d5e3	0.010915252
99	0xbdb7693c	-0.08955619
100	0x3d22116f	0.039567407
101	0xbddfb603	-0.10923388
102	0xbddeedad	-0.10885177
103	0x3d997642	0.07493259
104	0x3d3f81ae	0.04675453
105	0x3d80dbc0	0.06291914
106	0x3dc71d50	0.09722388
107	0x3e06437b	0.1311168
108	0x3b687d6b	0.0035475146
109	0xbd843974	-0.06456271
110	0x3dd252a2	0.10269667
111	0xbdd1914f	-0.102327935
112	0x3d195cfb	0.03744219
113	0xb7d81083	-2.5756895e-05
114	0x3cfe8aa3	0.031071967
115	0x3d082f25	0.033248086
116	0x3d228269	0.03967515
117	0x3da114f0	0.07865322
118	0x3c82c628	0.015963629
119	0xbd89cb4d	-0.0672823
120	0x3c0e52bd	0.0086867185
121	0xbd136bd4	-0.035991505
122	0xb9a8b420	-0.0003217766
123	0x3b2a1904	0.0025954852
124	0x3dad17e3	0.08451822
125	0x3dc539f0	0.09630191
126	0x3de87c61	0.113518484
127	0x3c04241e	0.008065252
128	0xbda488b9	-0.0803389
129	0xbd566dbc	-0.052350745
130	0x3a7fe30b	0.000976131
131	0x3c4bb994	0.012434382
132	0x3ce35d86	0.027754556
133	0xbd6b8ff2	-0.057510324
134	0x3d152ade	0.036417834
135	0xbdc71559	-0.097208686
136	0x3d9cc20d	0.076542
137	0xbe0abfb5	-0.13549693
138	0xbdb31420	-0.08744073
139	0x3c1a1c88	0.009406216
140	0x3dc2db65	0.095145024
141	0x3d818440	0.06324053
142	0xbd7aadec	-0.06120102
143	0xbd825063	-0.06362989
144	0xbda13638	-0.078716695
145	0xbd1b3c4b	-0.037899297
146	0x3d60d20e	0.054887824
147	0x39d5b7fb	0.00040763602
148	0xbd88e6c6	-0.066846415
149	0xbd7fcc3b	-0.06245063
150	0xbe0e80e6	-0.13916358
151	0x3d256fc4	0.04038979
152	0xbdaaf428	-0.0834735
153	0xbabf5cb9	-0.0014599777
154	0xbdcf0051	-0.10107482
155	0x3d60ac77	0.054851975
156	0xbd15db09	-0.03658584
157	0xbda0c433	-0.07849922
158	0xbce3c284	-0.027802713
159	0xbdbfb520	-0.09360719
160	0xbe25596a	-0.1614739
161	0x3d45aa0d	0.048257876
162	0x3d8a47ed	0.06752
163	0x3da23dc6	0.079219386
164	0x3cd73344	0.026269563
165	0xbd33b050	-0.043869317
166	0x3db46793	0.08808818
167	0xbd9e87d2	-0.077407494
168	0xbdaa6b8c	-0.08321294
169	0x3ab7c19c	0.0014019492
170	0xbded270b	-0.115797125
171	0x3ab799b2	0.0014007597
172	0x3dbaf1ca	0.09128149
173	0xbdd156a9	-0.10221607
174	0xbcf1212d	-0.029434765
175	0x3dce20da	0.1006486
176	0xbdb294df	-0.08719801
177	0x3cc8d0a3	0.024513548
178	0x3ca9fb6f	0.020749776
179	0xbdf38f95	-0.118926205
180	0xbe0a9b73	-0.13535862
181	0xbd276274	-0.040865377
182	0xbc312fbc	-0.010814603
183	0xbdde6de3	-0.10860803
184	0xbd7a20d1	-0.061066452
185	0xbe21ae0f	-0.15789054
186	0x3c2f138d	0.010685814
187	0xbd0bef24	-0.03416361
188	0x3daaa87c	0.08332917
189	0x3da34388	0.07971865
190	0xbd22a7d4	-0.039710835
191	0x3c4066b7	0.011743239
192	0xbda40058	-0.08007878
193	0xbe007f8d	-0.12548657
194	0x3df9f50e	0.122049436
195	0x3e025153	0.12726335
196	0xbd898d3a	-0.0671639
197	0xbd80cc3a	-0.06288953
198	0xbc62ca67	-0.013842202
199	0x3ca670b1	0.020317407
200	0x3e15b3b7	0.14619337
201	0x3d06a542	0.032872446
202	0x3cc62689	0.024188297
203	0x3cd98787	0.026553882
204	0x3d882bdb	0.0664899
205	0xbe134d3e	-0.14384934
206	0xbdde9b1b	-0.10869428
207	0xbd81e4b2	-0.06342448
208	0xbde30715	-0.11085335
209	0xbd8ca4d9	-0.0686738
210	0xbe2e38fb	-0.17013924
211	0xbd5aeb08	-0.0534468
212	0xbe325903	-0.17416768
213	0xbe4df077	-0.20111261
214	0xbce64405	-0.028108606
215	0xbc4747f5	-0.012163152
216	0x3d98e11d	0.07464812
217	0x3c501e28	0.012702502
218	0x3d93e7e6	0.072219655
219	0x3d650189	0.055909667
220	0xbd23ea5d	-0.040018428
221	0x3dae1fe9	0.0850218
222	0x3df479dd	0.11937306
223	0xbc2510a7	-0.010074771
224	0x3da844d3	0.08216252
225	0xbde12fdd	-0.10995457
226	0x3cf0aba2	0.029378716
227	0x3d8d349d	0.06894801
228	0xbd82b188	-0.06381518
229	0xbe013a23	-0.12619834
230	0xbd88ee00	-0.0668602
231	0x3d73d8f3	0.05953307
232	0x3dd79971	0.105273135
233	0xbce43873	-0.027858948
234	0xbd1bb788	-0.038016826
235	0xbde81f99	-0.11334152
236	0xbd416949	-0.04721955
237	0x3d903274	0.07040873
238	0xbe133ff8	-0.14379871
239	0xbb7295a5	-0.0037015465
240	0x3dc2c896	0.09510915
241	0xbdacb891	-0.08433641
242	0xbccce83d	-0.025013084
243	0x3d9a1e1b	0.075252734
244	0xbce31ed5	-0.027724663
245	0x3deebe42	0.116573825
246	0x3bd2d449	0.006433998
247	0xbe0bf554	-0.13667804
248	0xbce9eb3b	-0.02855455
249	0xbdea9938	-0.114550054
250	0x3d9df8d0	0.07713473
251	0xbc9726d9	-0.018451141
252	0xbd0c8299	-0.034304235
253	0xbd1ce02a	-0.038299717
254	0xbdb0b22f	-0.08627736
255	0xbe09fa48	-0.13474381

edge_function.2.bias f4 [64]
0	0x3dac1947	0.08403259
1	0xbd89fe67	-0.067379765
2	0xbd963353	-0.07334008
3	0x3dbcc979	0.09218115
4	0x3d25a3c6	0.04043939
5	0xbd41a56c	-0.0472769
6	0x3e44e646	0.19228467
7	0xbdabf182	-0.08395673
8	0xbd5fc413	-0.05463035
9	0x3cbedd05	0.02329875
10	0xbde70dba	-0.11281915
11	0xbd5ae095	-0.053436834
12	0x3e0e6ec1	0.13909437
13	0x3c1fdb70	0.009756908
14	0x3d866303	0.06561854
15	0x3da67c02	0.08129121
16	0xbd6a9e71	-0.057280008
17	0x3d9515bc	0.07279536
18	0x3dc2ae6c	0.095059246
19	0x3de015d8	0.10941666
20	0x3cfdfdb8	0.031004772
21	0xbccd39bb	-0.025051942
22	0xbdd1eabb	-0.102498494
23	0x3d2f066b	0.04273073
24	0xba395ac1	-0.00070707133
25	0xbd255930	-0.04036826
26	0xbde1d200	-0.110263824
27	0xbd648c3e	-0.055797808
28	0x3e06ceae	0.1316478
29	0xbd500607	-0.050786998
30	0x3dd22ec6	0.102628276
31	0x3bdaf90d	0.006682521
32	0xbcfa0af0	-0.030522794
33	0xbd36127e	-0.04445123
34	0xbb782ca3	-0.0037868402
35	0x3d1abe4a	0.03777913
36	0xbc9fd3b3	-0.019510126
37	0xbce7b18a	-0.0282829
38	0xbd883c82	-0.06652166
39	0xbd1385d0	-0.036016285
40	0x3d290152	0.041261025
41	0x3ce12dd8	0.02748768
42	0x3bfe653e	0.007763534
43	0x3de1b41c	0.11020681
44	0xbdb89007	-0.09011846
45	0x3cb7d4e6	0.022440385
46	0x3c98dca1	0.018659892
47	0xbe09c6e5	-0.13454778
48	0xbd98670e	-0.07441531
49	0x3ddc7242	0.107639804
50	0xbe00fcd4	-0.12596446
51	0xbca04f5e	-0.019569095
52	0xbd990df6	-0.07473366
53	0xbd484a21	-0.04889882
54	0x3a8cab98	0.0010732291
55	0x3d03409a	0.03204403
56	0xbd3a5f67	-0.04550114
57	0x3d61319b	0.054978948
58	0x3cbaedf0	0.022818536
59	0x3e356226	0.17713222
60	0xbd127e52	-0.035765
61	0xbd0deb1c	-0.034648046
62	0x3db0cf3b	0.08633276
63	0x3e2772d5	0.16352399
