Projects/GuoxiangGrayson_T_A study of multi-fidelity graph neural networks/Model_save/Quarter2D/Rank=105-GNN-nB-64-Lr-0.005/model.pth (torch, 114781 bytes, 24 tensors)

node_function_neighbor.0.weight f4 [64, 2]
-0.06660754 -0.03252445 -0.3697406 0.54319465 0.6485794 -0.6972818 0.33824697 0.10788097
0.118152834 -0.29267973 0.458538 -0.4020503 0.6961004 -0.115420334 0.55459917 -0.2230014
-0.60182846 0.27625516 0.13055637 -0.3438177 -0.54126877 0.4320267 0.22526154 0.57662857
0.058732983 0.100291826 0.634451 0.6001155 0.2087336 -0.5428318 0.4153349 0.65349257
-0.56692415 0.4056108 -0.59632766 -0.26947916 0.073542036 0.3356181 -0.5008997 -0.58086306
-0.5530922 0.48546782 0.42938116 0.4757166 0.17778079 -0.21362321 0.021046981 -0.3414158
0.045938622 0.19478713 -0.29557085 -0.6302577 0.5265615 0.34257355 -0.34517565 -0.17864744
0.26227498 0.6298259 0.025135662 -0.48156795 -0.45446903 0.22778419 -0.23176175 -0.034186404
0.0650615 -0.0239865 -0.6433992 0.09144045 -0.506271 0.29642302 0.49441615 -0.37202385
0.27063954 -0.32052252 0.35706806 0.14020279 0.021543443 -0.05083306 0.11554609 0.27712736
-0.40196058 -0.46688074 0.0816518 0.2913868 -0.38672438 0.42068887 0.19590262 -0.270491
-0.15306666 0.6526839 -0.1291896 0.11932042 -0.41499484 0.47541744 0.33768398 0.6223827
0.5629415 -0.33976546 -0.6537397 -0.22928362 -0.029539892 -0.432136 0.3279555 -0.44107148
0.14806244 -0.37421152 0.234473 -0.5664189 -0.22065774 -0.2109531 0.14409578 -0.679348
-0.10036044 -0.5039813 0.30881986 -0.15454166 0.45109287 -0.26272523 -0.4480442 0.6330209
0.3014691 -0.52466965 -0.36354536 -0.46134907 0.059474234 0.01832586 -0.62593496 -0.6283684
00000000: 8969 88bd 5c38 05bd a44e bdbe ce0e 0b3f
00000010: 4d09 263f 0f81 32bf b52e ad3e b3f0 dc3d
00000020: 1dfa f13d 1eda 95be 7ec5 ea3e 89d9 cdbe
00000030: a333 323f 7f61 ecbd 36fa 0d3f 7b5a 64be
00000040: 6e11 1abf 5171 8d3e 92b0 053e e008 b0be
00000050: 9790 0abf 9b32 dd3e f6aa 663e ee9d 133f
00000060: ff91 703d cd65 cd3d 616b 223f 2ba1 193f
00000070: 43be 553e 06f7 0abf c7a6 d43e 4a4b 273f
00000080: f121 11bf 38ac cf3e eea8 18bf 2cf9 89be
00000090: 359d 963d 23d6 ab3e f63a 00bf 71b3 14bf
000000a0: 7397 0dbf 3d8f f83e d9d7 db3e 2091 f33e
000000b0: 2b0c 363e 0bc0 5abe b86a ac3c 0dce aebe
000000c0: 232a 3c3d 4776 473e 1055 97be 9258 21bf
000000d0: bccc 063f cd65 af3e ddba b0be 5bef 36be
000000e0: e848 863e 453c 213f 4ee9 cd3c 1390 f6be
000000f0: 2ab0 e8be 4240 693e f452 6dbe 0b07 0cbd
00000100: f73e 853d 567f c4bc cfb5 24bf 2145 bb3d
00000110: fa9a 01bf c2c4 973e 1d24 fd3e e979 bebe
00000120: 4491 8a3e 871b a4be a0d1 b63e 5291 0f3e
00000130: e07b b03c 5436 50bd 6ea3 ec3d a3e3 8d3e
00000140: c7cd cdbe fe0a efbe 0f39 a73d a730 953e
00000150: bd00 c6be 8864 d73e b29a 483e cc7d 8abe
00000160: 82bd 1cbe 4b16 273f 474a 04be 445e f43d
00000170: 347a d4be ea69 f33e eae4 ac3e 7954 1f3f
00000180: ef1c 103f bdf5 adbe 7c5b 27bf 53c9 6abe
00000190: a5fd f1bc ee40 ddbe c9e9 a73e 1fd4 e1be
000001a0: ae9d 173e a798 bfbe b119 703e d400 11bf
000001b0: 1af4 61be 1704 58be d88d 133e c0e9 2dbf
000001c0: c689 cdbd eb04 01bf a31d 9e3e 2b40 1ebe
000001d0: a5f5 e63e ec83 86be 0d66 e5be a80d 223f
000001e0: 285a 9a3e c050 06bf 9e22 babe f235 ecbe
000001f0: 419b 733d 1d20 963c 463d 20bf c0dc 20bf

node_function_neighbor.0.bias f4 [64]
-0.3082442 0.0917719 0.11848464 0.20818442 0.20190307 0.6747428 -0.5930011 0.6931447
0.41294375 -0.6790041 -0.36538792 -0.28519365 0.6742152 0.5646091 0.36566886 0.3166404
0.7023166 -0.06402351 -0.64692855 -0.4137869 0.7103581 0.0889725 0.45208335 0.6931187
-0.28952622 -0.24558719 -0.6912586 -0.21329904 0.22766647 0.7544956 -0.49068403 0.14865555
-0.026657922 0.14482564 0.063282095 0.33904758 -0.30499378 -0.40866795 0.46877158 -0.46191856
0.6249284 -0.5141704 0.39219454 0.34525126 0.022191148 0.84144634 0.6478847 -0.54541844
0.6005413 -0.66925687 -0.2989224 -0.18960702 0.35564765 0.7294154 -0.1490529 -0.0126050925
-0.0159767 -0.7036083 -0.33189744 -0.33852458 -0.7840067 0.5868146 0.1368025 0.5627518
00000000: 2fd2 9dbe e8f2 bb3d 13a8 f23d 4c2e 553e
00000010: aebf 4e3e f2bb 2c3f ecce 17bf ee71 313f
00000020: 5d6d d33e 36d3 2dbf 2014 bbbe e704 92be
00000030: 5e99 2c3f 398a 103f f338 bb3e b11e a23e
00000040: 05cb 333f c21e 83bd 1c9d 25bf e0db d3be
00000050: 07da 353f 3737 b63d 7877 e73e 3a70 313f
00000060: c83c 94be 357b 7bbe 53f6 30bf 106b 5abe
00000070: 6621 693e a026 413f f03a fbbe 2939 183e
00000080: b761 dabc 2c4d 143e 0b9a 813d a597 ad3e
00000090: 2528 9cbe ed3c d1be d402 f03e 9780 ecbe
000000a0: 4ffb 1f3f aca0 03bf b9cd c83e c6c4 b03e
000000b0: 36ca b53c 0769 573f c6db 253f 8ba0 0bbf
000000c0: 13bd 193f 6b54 2bbf 5b0c 99be 5828 42be
000000d0: 7317 b63e f8ba 3a3f 53a1 18be 9785 4ebc
000000e0: 91e1 82bc ac1f 34bf 76ee a9be 1853 adbe
000000f0: aab4 48bf 7b39 163f f415 0c3e 8110 103f

node_function_neighbor.2.weight f4 [64, 64]
0.063163474 0.03219038 -0.00083580293 -0.03910512 -0.10714546 0.0865669 -0.11820098 -0.11474902
0.085185245 -0.15294881 -0.13140497 -0.050230913 0.08446296 0.03675876 -0.045084666 0.05104528
0.049569774 0.061619114 -0.09279823 -0.13750929 -0.14913407 0.005399048 0.09898918 0.09138439
0.056961477 -0.090101756 0.06427218 -0.03043156 -0.044961967 -0.095189214 -0.041284706 0.00369396
-0.15541738 0.012754542 0.03404436 -0.12270133 0.07543729 0.077303335 0.05946786 -0.12424529
-0.085153215 0.062323827 -0.041120272 -0.070343226 -0.16641814 -0.15592456 -0.18470079 -0.09250893
0.028828291 0.06896461 -0.09436032 -0.005084539 -0.13086312 0.07811091 0.024248065 -0.08947124
0.0052181063 0.019016763 0.09024155 -0.05416719 0.08986057 -0.09280625 0.09314756 -0.12227099
0.036035348 -0.05200352 -0.04646005 -0.099334866 0.026041634 0.06389151 -0.028647512 0.090057895
0.017719852 0.0013630415 -0.058527935 0.059114426 -0.098399244 0.048173532 0.034815755 0.08262889
-0.15452583 -0.05307352 -0.07646352 -0.0076795206 0.0052326536 0.09492598 -0.0905983 0.020811329
-0.058750253 0.026895398 0.05443982 -0.03640583 -0.10975604 -0.013850841 0.08654288 0.020567639
0.013347513 -0.026048401 -0.02442483 -0.073352605 -0.122141466 -0.06048433 0.018005036 -0.08091193
0.053452097 0.04274846 0.06474833 0.020050682 -0.090372905 0.08926013 -0.09598114 0.071721576
-0.12277224 -0.092073 0.07565506 0.10759981 -0.041197393 -0.052572038 -0.014200197 -0.10551397
-0.14542384 -0.11486493 0.097343735 -0.0042268 -0.12392149 -0.019984832 -0.039839685 -0.08225862
0.025222473 0.029045455 -0.07416048 -0.043945137 0.09683315 -0.110537045 -0.07826258 0.05525218
0.02479669 0.080063984 0.06126309 -0.01770866 0.021675322 0.0849006 0.0753652 0.10323984
0.026457252 0.040776134 -0.032536462 -0.15154906 0.020614637 -0.0030926443 0.014896789 -0.028633773
-0.044753376 -0.030622097 0.1015401 0.017573338 0.03837229 -0.12758689 -0.019997211 0.07714495
-0.07228456 -0.15404364 0.06211719 -0.16283187 0.040783018 -0.02436287 0.07831603 0.005190599
0.083541706 0.086803816 -0.05189 -0.030788293 -0.02426066 -0.050272997 0.14399281 0.012225859
0.01763008 -0.16423677 -0.07781278 0.05598986 0.091460526 0.07376549 -0.07926953 -0.00055950903
-0.003408271 0.019727042 0.027698014 0.15665725 0.09234729 -0.09345991 0.04320141 -0.0675984
0.022731913 -0.12075073 0.08520486 -0.14477725 0.084677316 -0.11146691 0.08089038 -0.11985843
-0.11879648 -0.12897766 0.09345271 -0.13121085 -0.023728916 -0.024246896 0.08383549 0.07132729
0.058555096 -0.10248339 -0.16600269 -0.027306374 -0.078928106 -0.0065917596 -0.08046547 0.09653234
0.03448412 0.085194275 0.019713208 0.03942357 0.0984308 -0.020539973 0.038897652 -0.045821305
0.0827654 0.10167991 0.019530423 -0.1149249 -0.118719965 -0.18579434 -0.050950836 -0.1530482
-0.040854458 -0.19069201 0.11857953 -0.08052442 0.044315077 0.07362402 0.08777098 -0.18251792
0.008112401 0.048013948 -0.040174685 0.009767522 0.039380528 0.072983876 -0.10121928 0.07598637
-0.0035235402 0.03319586 -0.12226889 0.13082415 -0.009688993 -0.13060172 -0.0034089987 -0.0920346
00000000: da5b 813d 0fda 033d c919 5bba b12c 20bd
00000010: 146f dbbd fd49 b13d 5b13 f2bd 8901 ebbd
00000020: 9a75 ae3d 9d9e 1cbe 068f 06be eebe 4dbd
00000030: ebfa ac3d 5b90 163d b3aa 38bd db14 513d
00000040: ad09 4b3d 5364 7c3d 000d bebd 3ccf 0cbe
00000050: 9ab6 18be 7fea b03b d7ba ca3d bd27 bb3d
00000060: 7050 693d 4587 b8bd 22a1 833d 9b4b f9bc
00000070: 0a2a 38bd 90f2 c2bd 271a 29bd 5d16 723b
00000080: bc25 1fbe 6df8 503c 1972 0b3d d64a fbbd
00000090: de7e 9a3d 3651 9e3d 9294 733d 5174 febd
000000a0: cf64 aebd 4547 7f3d bb6d 28bd 1c10 90bd
000000b0: 8469 2abe b0aa 1fbe 3422 3dbe 5275 bdbd
000000c0: 4f29 ec3c 513d 8d3d fc3f c1bd 349c a6bb
000000d0: fb00 06be 9df8 9f3d e1a3 c63c b33c b7bd
000000e0: a6fc aa3b 0bc9 9b3c 90d0 b83d 6ade 5dbd
000000f0: d208 b83d 3411 bebd 26c4 be3d 3669 fabd
00000100: cd99 133d a501 55bd e54c 3ebd 1470 cbbd
00000110: 4455 d53c 8dd9 823d 30ae eabc 4670 b83d
00000120: 3929 913c 15a8 b23a fdba 6fbd f821 723d
00000130: 8b85 c9bd 9c51 453d f79a 0e3d 5639 a93d
00000140: 053c 1ebe 9f63 59bd e898 9cbd 7da4 fbbb
00000150: ae76 ab3b 8d68 c23d 9a8b b9bd 857c aa3c
00000160: 1ba4 70bd bd53 dc3c 4afc 5e3d 481e 15bd
00000170: c6c7 e0bd a3ee 62bc 653d b13d 777d a83c
00000180: 87af 5a3c 7563 d5bc 9516 c8bc e439 96bd
00000190: 4e25 fabd 6bbe 77bd 4c7f 933c 27b5 a5bd
000001a0: 96f0 5a3d 0219 2f3d c69a 843d 5441 a43c
000001b0: 6e15 b9bd 04ce b63d c391 c4bd c3e2 923d
000001c0: 0370 fbbd c590 bcbd 0af1 9a3d 4a5d dc3d
000001d0: 99be 28bd c755 57bd f1a7 68bc b517 d8bd
000001e0: fde9 14be 4e3e ebbd 275c c73d f880 8abb
000001f0: 8dca fdbd 3bb7 a3bc f02e 23bd 3577 a8bd
00000200: 5c9f ce3c bcf0 ed3c 73e1 97bd d1ff 33bd
00000210: 7550 c63d 3f61 e2bd 2248 a0bd 1c50 623d
00000220: 6e22 cb3c 96f8 a33d 02ef 7a3d c011 91bc
00000230: 7290 b13c 5ee0 ad3d 1259 9a3d 696f d33d
00000240: e1bc d83c e004 273d f444 05bd ad2f 1bbe
00000250: 07e0 a83c f6ad 4abb a911 743c 6091 eabc
00000260: 514f 37bd 31db fabc 42f4 cf3d f6f5 8f3c
00000270: 432c 1d3d 23a6 02be 31d1 a3bc 2cfe 9d3d
00000280: ed09 94bd 9ebd 1dbe 986e 7e3d 66bd 26be
00000290: 180c 273d a494 c7bc 2864 a03d e615 aa3b
000002a0: ea17 ab3d 33c6 b13d 9c8a 54bd bb37 fcbc
000002b0: 4bbe c6bc 0feb 4dbd da72 133e f84e 483c
000002c0: f56c 903c af2d 28be 4f5c 9fbd a055 653d
000002d0: a84f bb3d 5c12 973d 1058 a2bd 04ac 12ba
000002e0: 4c5d 5fbb 9b9a a13c f2e6 e23c c26a 203e
000002f0: 9320 bd3d e967 bfbd f6f3 303d 0871 8abd
00000300: 4738 ba3c 294c f7bd e37f ae3d 7d40 14be
00000310: 4d6b ad3d c348 e4bd dba9 a53d 5678 f5bd
00000320: 924b f3bd b812 04be 2264 bf3d 235c 06be
00000330: 2563 c2bc 6da1 c6bc f1b1 ab3d 0b14 923d
00000340: 78d7 6f3d d0e2 d1bd 9cfc 29be 9eb1 dfbc
00000350: 0fa5 a1bd b0ff d7bb 15cb a4bd bfb2 c53d
00000360: 383f 0d3d 567a ae3d 987d a13c 9c7a 213d
00000370: 1696 c93d 7243 a8bc 2553 1f3d 1faf 3bbd
00000380: e880 a93d 8f3d d03d 44fe 9f3c bf5d ebbd
00000390: 7423 f3bd df40 3ebe d3b1 50bd abb8 1cbe
000003a0: 0157 27bd c444 43be d3d9 f23d fde9 a4bd
000003b0: ba83 353d 31c8 963d 46c1 b33d fae5 3abe
000003c0: e0e9 043c 46aa 443d 368e 24bd f507 203c
000003d0: 7a4d 213d 9278 953d 0e4c cfbd be9e 9b3d
000003e0: 32eb 66bb 62f8 073d 1d68 fabd c4f6 053e
000003f0: 95be 1ebc 75bc 05be 8269 5fbb a37c bcbd

node_function_neighbor.2.bias f4 [64]
-0.12682989 -0.060194295 0.03790076 -0.08085882 -0.025641875 0.063411154 0.15044849 0.040265758
-0.08223878 0.05760605 0.1591235 -0.054273397 0.009106256 -0.03772252 -0.036296323 -0.0152735645
0.08208577 -0.14680338 -0.05213778 0.0765554 0.117826365 0.011064515 0.032581158 0.12433416
0.14596345 0.026284235 0.053909544 -0.0018799142 -0.15532711 -0.11595527 0.055396456 0.10382692
-0.026236827 0.033808794 0.038493145 0.049049225 0.18029046 0.06541598 -0.027827356 0.09026145
-0.050210137 0.08081476 -0.14203165 0.0152296135 0.060899824 0.09070186 -0.015667146 -0.024865791
-0.07809356 -0.008441825 -0.04855112 -0.11755567 -0.030891335 -0.11525495 0.009787524 0.04174301
0.10121381 -0.15487804 0.107908875 0.009656729 -0.025629032 -0.0835289 -0.17294678 0.019577082
00000000: b2df 01be 4b8e 76bd d43d 1b3d 4f99 a5bd
00000010: e90e d2bc b5dd 813d 2b0f 1a3e b5ed 243d
00000020: ce6c a8bd 52f4 6b3d 45f1 223e c84d 5ebd
00000030: 6832 153c ee82 1abd 74ab 14bd f93d 7abc
00000040: 961c a83d a053 16be 6d8e 55bd 14c9 9c3d
00000050: f34e f13d f147 353c d273 053d e8a2 fe3d
00000060: 7177 153e 0952 d73c 41d0 5c3d 7467 f6ba
00000070: 120e 1fbe f579 edbd 65e7 623d 35a3 d43d
00000080: 9dee d6bc 177b 0a3d fdaa 1d3d d7e7 483d
00000090: 109e 383e d0f8 853d 32f6 e3bc ffda b83d
000000a0: 25a9 4dbd 3582 a53d bf70 11be a185 793c
000000b0: 1872 793d e6c1 b93d 6358 80bc 58b3 cbbc
000000c0: 84ef 9fbd 954f 0abc 8add 46bd 07c1 f0bd
000000d0: d30f fdbc ca0a ecbd da5b 203c b8fa 2a3d
000000e0: 3049 cf3d 5998 1ebe 54ff dc3d 4237 1e3c
000000f0: faf3 d1bc 3311 abbd f618 31be 1e60 a03c

node_function_neighbor.4.weight f4 [64, 64]
0.08220663 0.038247317 -0.07874186 0.019873565 0.06432812 -0.066877306 -0.13082248 -0.034620762
-0.0061442256 0.014069812 -0.14795999 0.095029645 -0.033583626 0.021421058 -0.09253231 0.08272247
0.063698806 -0.11589388 0.019282438 0.015138409 -0.030665398 -0.049151875 0.112554535 -0.063286185
0.011423484 -0.10690058 -0.024935907 0.008797094 0.019316126 0.06390696 -0.12303698 0.058520522
0.001821667 -0.027426258 0.02442929 -0.11259353 -0.07276001 -0.12232631 -0.06631567 -0.140749
-0.14864503 0.079426415 -0.0076357424 -0.028309792 0.03316268 -0.034163028 -0.110312045 -0.1150221
0.06938066 -0.008896717 0.029493302 -0.06270726 0.0972617 -0.028045291 0.08084595 -0.010452368
0.026949143 0.10927823 -0.14137994 0.027395127 0.0055679725 -0.12695676 -0.1329169 0.06782368
-0.08557166 0.04012437 -0.097281635 -0.10272063 -0.12104497 -0.09920389 -5.6007462e-05 -0.052236255
-0.08098517 0.0024229826 0.088319644 -0.057729233 -0.07989484 -0.04194167 -0.06975499 -0.11855011
-0.11816189 -0.061030492 -0.12100445 -0.01925613 0.054653455 0.1004615 0.08381863 0.06463246
-0.13924582 -0.0442483 0.061040897 0.0526421 0.07870889 0.027571544 -0.13738883 0.00914286
0.049998563 -0.14603618 -0.036138788 -0.07141591 -0.05029466 -0.049092483 -0.076371625 -0.034113888
0.057954207 -0.020780683 -0.033101603 0.06993875 -0.083034165 0.05266119 -0.09677127 0.09146014
0.05558841 0.10538396 0.11289466 0.007286057 -0.101353005 -0.09556322 0.030898344 0.0045204633
0.098688185 0.067756504 -0.056382746 0.05256467 0.06103755 -0.08653711 -0.14271215 -0.11187768
0.15321162 0.02143948 0.011193517 -0.03342496 0.06369961 -0.08477791 0.10908061 0.07585319
-0.062398776 0.04550018 0.024004841 -0.021084212 0.05887046 -0.038070504 -0.04071027 0.0010690858
0.06025217 -0.0699032 -0.017234936 0.15837574 -0.021746565 -0.062048443 0.010039107 -0.04116957
-0.066070125 0.07547014 0.042625844 0.14896053 0.034671787 0.029370902 0.13920744 0.025250278
0.099347316 0.06418505 0.0842322 0.044562023 0.12355013 0.06941056 -0.02772688 0.057798624
-0.049485024 0.1553331 0.106142394 -0.005715775 0.03835716 0.0632934 0.02048133 -0.10616455
-0.013650499 0.09800559 -0.050050475 0.049150288 -0.059149556 -0.01213811 0.10270798 0.13988805
0.07775279 -0.073016986 0.18446101 -0.09213891 0.05267127 -0.04081605 -0.012176539 0.0029472564
-0.003040413 0.024330117 0.040738136 -0.13524057 -0.018090064 0.12992917 -0.04406173 -0.07205406
-0.116189495 0.05379216 -0.046031937 -0.03824575 0.14876595 0.08469522 0.10890962 0.05973483
0.09682182 -0.08619119 -0.09739522 0.018761294 -0.0143020665 0.033528 -0.05358261 -0.064002946
0.09884053 0.12241077 -0.080459595 -0.06884504 0.051377345 -0.048709594 -0.0061094435 0.06881684
-0.08802536 -0.051248148 -0.01012946 -0.042840388 -0.042297557 -0.03176459 0.10405052 -0.09031107
0.025328353 -0.044133037 -0.09937368 0.12648365 -0.087155536 0.10399697 0.04650777 0.07219331
0.041863702 -0.0689534 -0.00281909 0.028796857 -0.041007064 -0.13180175 -0.048659787 -0.045074876
0.048491288 0.06799056 0.08352852 -0.08572614 0.057512105 -0.038705714 0.028044537 0.01563077
00000000: f35b a83d 38a9 1c3d 6a43 a1bd e3cd a23c
00000010: 76be 833d f8f6 88bd 54f6 05be 80ce 0dbd
00000020: 8055 c9bb 1285 663c d382 17be e79e c23d
00000030: fc8e 09bd 377b af3c 9481 bdbd 666a a93d
00000040: 8574 823d c559 edbd 34f6 9d3c 1707 783c
00000050: 0036 fbbc 7a53 49bd fe82 e63d 309c 81bd
00000060: 9129 3b3c b1ee dabd 6346 ccbc b021 103c
00000070: da3c 9e3c a7e1 823d d0fa fbbd 37b3 6f3d
00000080: 00c5 ee3a 08ad e0bc ef1f c83c 7097 e6bd
00000090: 3303 95bd 3786 fabd 83d0 87bd 8120 10be
000000a0: 6736 18be 51aa a23d 4035 fabb f0e9 e7bc
000000b0: 97d5 073d 88ee 0bbd 48eb e1bd b590 ebbd
000000c0: 7317 8e3d 89c3 11bc f09b f13c aa6c 80bd
000000d0: 2431 c73d 3dbf e5bc 9092 a53d 6940 2bbc
000000e0: 73c4 dc3c 44cd df3d e7c5 10be bf6b e03c
000000f0: 8a73 b63b f400 02be 5e1b 08be 24e7 8a3d
00000100: 3240 afbd 7459 243d 983b c7bd 325f d2bd
00000110: 6de6 f7bd 692b cbbd 8ee9 6ab8 aff5 55bd
00000120: 8edb a5bd e7ca 1e3b eee0 b43d 7d75 6cbd
00000130: e89f a3bd 07cb 2bbd b4db 8ebd 66ca f2bd
00000140: dcfe f1bd 1cfb 79bd 2ed1 f7bd 08bf 9dbc
00000150: 4ddc 5f3d c2be cd3d 1aa9 ab3d 065e 843d
00000160: 7596 0ebe b53d 35bd 0506 7a3d 3e9f 573d
00000170: 2032 a13d b8dd e13c a8af 0cbe efcb 153c
00000180: 4bcb 4c3d 828a 15be 4406 14bd 8142 92bd
00000190: c601 4ebd 3315 49bd ba68 9cbd 01bb 0bbd
000001a0: 6461 6d3d 403c aabc 8c95 07bd 0c3c 8f3d
000001b0: d10d aabd 43b3 573d 0430 c6bd 744f bb3d
000001c0: acb0 633d 8cd3 d73d 5135 e73d e0bf ee3b
000001d0: 2a92 cfbd a6b6 c3bd 861e fd3c 6520 943b
000001e0: 081d ca3d ecc3 8a3d 98f1 66bd 0d4e 573d
000001f0: 8302 7a3d 5e3a b1bd 2223 12be 2020 e5bd
00000200: 82e3 1c3e d9a1 af3c 0365 373c 9ce8 08bd
00000210: f174 823d 0aa0 adbd a865 df3d eb58 9b3d
00000220: dc95 7fbd 665e 3a3d cda5 c43c ccb8 acbc
00000230: 2722 713d d1ef 1bbd d0bf 26bd 9120 8c3a
00000240: fbca 763d 6929 8fbd 4830 8dbc 402d 223e
00000250: da25 b2bc 8226 7ebd 117b 243c 6ca1 28bd
00000260: c64f 87bd 1790 9a3d 7098 2e3d 1c89 183e
00000270: 0104 0e3d 3f9b f03c 658c 0e3e acd9 ce3c
00000280: 9b76 cb3d 7473 833d ef81 ac3d ab86 363d
00000290: da07 fd3d 2027 8e3d 7b23 e3bc 40be 6c3d
000002a0: cfb0 4abd a40f 1f3e 2f61 d93d 654b bbbb
000002b0: 661c 1d3d f89f 813d 76c8 a73c cd6c d9bd
000002c0: 58a6 5fbc 28b7 c83d ba01 4dbd d051 493d
000002d0: ce46 72bd ecde 46bc 9058 d23d d03e 0f3e
000002e0: db3c 9f3d ee89 95bd 59e3 3c3e 53b3 bcbd
000002f0: d4bd 573d bb2e 27bd 1b80 47bc c226 413b
00000300: aa41 47bb f44f c73c 08dd 263d 817c 0abe
00000310: 9d31 94bc 270c 053e 137a 34bd 1491 93bd
00000320: c2f4 edbd 2b55 5c3d fc8b 3cbd 93a7 1cbd
00000330: 1a56 183e b074 ad3d 020c df3d 82ac 743d
00000340: 854a c63d 0285 b0bd 2577 c7bd 49b1 993c
00000350: 3753 6abc a854 093d 7079 5bbd fa13 83bd
00000360: e76c ca3d 7fb2 fa3d 00c8 a4bd a1fe 8cbd
00000370: 0d71 523d b683 47bd ba31 c8bb d8ef 8c3d
00000380: a446 b4bd 94e9 51bd 09f6 25bc 6779 2fbd
00000390: 3440 2dbd 961b 02bd 7018 d53d 03f5 b8bd
000003a0: 687d cf3c d8c4 34bd 6e84 cbbd ee84 013e
000003b0: 9a7e b2bd 5dfc d43d ee7e 3e3d 16da 933d
000003c0: 4679 2b3d 7137 8dbd 7bc0 38bb 63e7 eb3c
000003d0: 06f7 27bd 0af7 06be 7c4f 47bd 6fa0 38bd
000003e0: cd9e 463d a23e 8b3d 0011 ab3d 3091 afbd
000003f0: d091 6b3d e289 1ebd a8bd e53c 1a0c 803c

node_function_neighbor.4.bias f4 [64]
-0.025664037 -0.018346258 0.009029868 -0.07292468 0.0017387458 -0.15456775 -0.04913586 -0.11267384
-0.08877004 -0.06829087 0.07159022 -0.019920314 0.07712164 -0.08954048 0.07163082 -0.119070515
-0.053988706 -0.012941523 0.18692061 0.17679869 -0.08190463 0.06943358 0.21954349 0.14919965
-0.01728235 0.2378525 -0.02655937 0.15856232 0.039555483 0.049946476 0.17873074 -0.029946344
0.03208929 -0.12041483 -0.07970991 0.15228593 0.07487118 0.12444498 0.11570853 0.03091966
0.09417446 0.15186007 0.06989971 -0.00875102 -0.0015154575 -0.0048715556 0.010283946 -0.10148402
0.099585265 0.12231089 0.22099288 0.2292138 -0.01555634 -0.06463522 -0.15284742 0.11509206
0.03891112 0.023240058 -0.09095136 -0.10813869 -0.12749487 0.0203724 -0.0068271197 0.17357066
00000000: 633d d2bc e44a 96bc 03f2 133c 8959 95bd
00000010: a1e6 e33a 0247 1ebe af42 49bd 8bc1 e6bd
00000020: 11cd b5bd 15dc 8bbd e59d 923d ed2f a3bc
00000030: f3f1 9d3d 0061 b7bd 2eb3 923d 3edb f3bd
00000040: 4323 5dbd af08 54bc 1e68 3f3e b70a 353e
00000050: 9dbd a7bd 3133 8e3d 02d0 603e cbc7 183e
00000060: b793 8dbc 9b8f 733e 0993 d9bc 295e 223e
00000070: ee04 223d ad94 4c3d 3105 373e 0952 f5bc
00000080: 0f70 033d 0d9c f6bd f33e a3bd d8f0 1b3e
00000090: 1056 993d 02dd fe3d 98f8 ec3d 3a4b fd3c
000000a0: 8ade c03d 3581 1b3e 9427 8f3d 7060 0fbc
000000b0: 51a2 c6ba 92a1 9fbb ff7d 283c dbd6 cfbd
000000c0: 5cf3 cb3d 227e fa3d f54b 623e 06b7 6a3e
000000d0: 05e0 7ebc 785f 84bd 0984 1cbe 63b5 eb3d
000000e0: 4461 1f3d ef61 be3c b544 babd d177 ddbd
000000f0: 048e 02be 05e4 a63c 08b6 dfbb 82bc 313e

node_function_neighbor.6.weight f4 [4, 64]
-0.050134208 0.078360334 -0.08505409 -0.054758526 0.09737465 0.07664829 0.016094033 -0.04180782
0.046604928 0.052800044 -0.029354308 0.054964785 -0.051351573 -0.068880774 0.09027281 0.070109546
0.039023425 0.017222207 0.019574806 -0.009122786 0.10163791 0.0686806 -0.084579535 0.0678269
0.068466134 -0.028160311 -0.07528921 0.012145304 -0.047111247 -0.016485993 -0.0037151447 -0.06683204
-0.07393152 -0.06731477 -0.02643812 -0.02063921 0.017989796 0.09021631 0.114656605 0.10136286
0.05891843 0.06363672 0.1259727 -0.018984899 0.10870172 -0.003972933 -0.097449385 -0.06678371
0.03052467 0.10415268 -0.023030633 0.10337884 0.1209871 -0.025130788 -0.118516 -0.10315674
-0.06538396 0.07187817 -0.06849457 -0.09752631 0.12268354 0.021579903 0.05079084 0.013439064
0.11589996 0.024946045 0.028788583 0.026791329 0.07382243 -0.080252975 0.112570755 -0.04463783
-0.068476364 0.047679115 0.0063616387 0.097258 -0.019241445 0.061996587 0.08784479 0.08013059
0.058640745 0.018235961 -0.016837731 0.008375715 -0.019841177 0.036740284 0.04137131 0.039252494
0.096508965 -0.060214087 0.014208344 -0.033852745 -0.00768618 -0.074438184 -0.046425335 -0.007004799
0.044939376 -0.06399657 -0.026193071 -0.036061022 -0.060247235 -0.09875445 0.10907959 0.027635848
0.016912743 0.04624984 -0.10973281 -0.08007583 0.08672497 0.06819469 -0.023357423 0.0679705
-0.10893257 -0.031640485 -0.010982161 -0.06858883 0.014462843 0.043523744 0.043896727 -0.08944724
-0.014703715 0.11085135 -0.06940711 0.08035927 -0.11248931 0.11287751 0.05448875 -0.02456594
-0.08289542 0.08445891 0.05330798 -0.11720326 -0.13712503 0.06387935 0.011394015 0.123051
-0.079664454 -0.14812647 0.06142494 0.007866025 0.010538511 -0.10755522 0.06740844 -0.07680407
-0.012927671 -0.09662622 0.09082314 -0.008255249 -0.028691975 0.08318249 0.06656933 0.009519381
-0.02996397 -0.056768775 0.06386048 -0.010982792 0.08614358 0.074630216 0.07916169 0.042332705
-0.05161674 -0.032468513 -0.011949742 0.11366045 0.10071551 0.013624364 0.12135715 -0.052498046
0.114010006 0.10445466 0.07267698 0.11786923 0.024662122 -0.022488058 0.006098864 -0.031093067
0.12448324 -0.05093575 0.0078097177 -0.035031248 -0.10168653 -0.0968007 0.081923254 0.066261776
-0.012383615 0.09317633 -0.13760713 -0.06668134 0.035989437 -0.14154176 0.020716302 0.023568008
0.0072289947 0.02599555 -0.13033992 0.002409529 0.0334737 0.05527587 -0.055417344 -0.06994526
0.10594378 0.035941754 0.13841875 -0.16082862 0.009375348 -0.11152655 -0.14052448 0.03860587
0.027582085 -0.11302438 -0.13188313 -0.13762367 0.050367523 0.028404517 -0.19178909 -0.08556414
0.0089380285 -0.24600017 -0.008966745 -0.10897253 0.018958539 -0.11393422 -0.12646218 -0.022455683
-0.0986138 0.028594973 -0.029689996 -0.14248475 0.019236669 -0.126346 0.019524943 -0.10052509
-0.059407055 -0.019732485 0.012827397 -0.0391604 -0.0682107 -0.0506361 -0.024918502 0.07205761
-0.14216076 -0.06491248 -0.14473885 -0.15331362 0.0053086244 0.15009736 0.010370713 -0.14567372
0.031606432 -0.108165205 -0.09327284 -0.12521903 0.05512764 -0.008184036 0.01574702 -0.09891141
00000000: 8759 4dbd 627b a03d d730 aebd 7a4a 60bd
00000010: 5c6c c73d c7f9 9c3d a2d7 833c ad3e 2bbd
00000020: cfe4 3e3d dc44 583d 7278 f0bc c122 613d
00000030: 0756 52bd 5d11 8dbd f3e0 b83d 9895 8f3d
00000040: 07d7 1f3d 9615 8d3c 585b a03c bd77 15bc
00000050: 8927 d03d 6aa8 8c3d 0938 adbd d4e8 8a3d
00000060: f937 8c3d 74b0 e6bc 3b31 9abd 19fd 463c
00000070: b9f7 40bd a20d 87bc c979 73bb 3ddf 88bd
00000080: 6969 97bd 53dc 89bd c294 d8bc 8f13 a9bc
00000090: 565f 933c 54c3 b83d 15d1 ea3d 5597 cf3d
000000a0: 7454 713d f853 823d fdfe 003e 3886 9bbc
000000b0: 029f de3d 612f 82bb 8b93 c7bd e6c5 88bd
000000c0: df0e fa3c 004e d53d bdaa bcbc 49b8 d33d
000000d0: 16c8 f73d 15df cdbc 84b8 f2bd d743 d3bd
000000e0: 07e8 85bd dd34 933d e246 8cbd e0bb c7bd
000000f0: 8241 fb3d 56c8 b03c 0e0a 503d 852f 5c3c
00000100: f55c ed3d a65b cc3c 09d6 eb3c 7d79 db3c
00000110: 3730 973d ac5b a4bd 7f8b e63d 28d6 36bd
00000120: 563d 8cbd 2d4b 433d 4b75 d03b 342f c73d
00000130: 3ca0 9dbc 22f0 7d3d f8e7 b33d 821b a43d
00000140: 4731 703d 9563 953c 48ef 89bc 4c3a 093c
00000150: f789 a2bc fb7c 163d f674 293d 39c7 203d
00000160: 7ea6 c53d 0ca3 76bd 1dca 683c 2da9 0abd
00000170: 5adc fbbb 0c73 98bd 7e28 3ebd 8388 e5bb
00000180: 5a12 383d a210 83bd da92 d6bc b9b4 13bd
00000190: cec5 76bd c63f cabd 1f65 df3d 9364 e23c
000001a0: 988c 8a3c 7970 3d3d 98bb e0bd ccfe a3bd
000001b0: dc9c b13d a8a9 8b3d 1158 bfbc 1e34 8b3d
000001c0: 0a18 dfbd 7499 01bd 86ee 33bc 4d78 8cbd
000001d0: 8ff5 6c3c f445 323d 0ecd 333d 1d30 b7bd
000001e0: dae7 70bc 0806 e33d 5125 8ebd 6793 a43d
000001f0: cc60 e6bd 532c e73d 982f 5f3d 833e c9bc
00000200: 13c5 a9bd cbf8 ac3d 7859 5a3d 4308 f0bd
00000210: 816a 0cbe 2dd3 823d f6ad 3a3c 2a02 fc3d
00000220: 1e27 a3bd 77ae 17be b898 7b3d 80e0 003c
00000230: b8a9 2c3c e945 dcbd 700d 8a3d 744b 9dbd
00000240: 95ce 53bc f8e3 c5bd 7c01 ba3d 0641 07bc
00000250: 6f0b ebbc 955b aa3d 8055 883d 2ef7 1b3c
00000260: 0077 f5bc 6086 68bd 49c9 823d 2bf1 33bc
00000270: 0c6c b03d bad7 983d 861f a23d 0f65 2d3d
00000280: 136c 53bd b4fd 04bd dac8 43bc cfc6 e83d
00000290: ef43 ce3d b938 5f3c 198a f83d 3108 57bd
000002a0: 147e e93d 53ec d53d abd7 943d 6c65 f13d
000002b0: 3808 ca3c e038 b8bc fbd8 c73b e3b6 febc
000002c0: 12f1 fe3d 01a2 50bd a9e8 ff3b ed7c 0fbd
000002d0: 0741 d0bd 723f c6bd 61c7 a73d 41b4 873d
000002e0: a5e4 4abc 3bd3 be3d e2e8 0cbe 3a90 88bd
000002f0: a969 133d 53f0 10be 3cb5 a93c b211 c13c
00000300: 34e1 ec3b 9ff4 d43c d477 05be 30e9 1d3b
00000310: b81b 093d f368 623d 4cfd 62bd 763f 8fbd
00000320: 0df9 d83d a937 133d a5bd 0d3e 42b0 24be
00000330: 0f9b 193c 0868 e4bd a6e5 0fbe 3021 1e3d
00000340: d3f3 e13c 5379 e7bd 5f0c 07be 38ed 0cbe
00000350: 2d4e 4e3d 97b0 e83c 5c64 44be 403c afbd
00000360: cf70 123c 78e7 7bbe 41e9 12bc fd2c dfbd
00000370: f04e 9b3c 5856 e9bd 4d7f 01be fbf4 b7bc
00000380: 08f6 c9bd 0140 ea3c 6f38 f3bc 86e7 11be
00000390: 3896 9d3c d960 01be c6f2 9f3c 19e0 cdbd
000003a0: d054 73bd 05a6 a1bc 012a 523c a866 20bd
000003b0: 0db2 8bbd cd67 4fbd e321 ccbc f192 933d
000003c0: 9792 11be d6f0 84bd 6c36 14be 3ffe 1cbe
000003d0: f8f3 ad3b 1fb3 193e ece9 293c 7e2b 15be
000003e0: bf75 013d b885 ddbd d505 bfbd 6b39 00be
000003f0: 85cd 613d 5616 06bc e5ff 803c 1192 cabd

node_function_neighbor.6.bias f4 [4]
0.031471536 -0.08434634 0.122768626 -0.25293663
00000000: 4ce8 003d c6bd acbd 1e6e fb3d e980 81be

edge_function.0.weight f4 [64, 4]
-0.031539537 0.32471603 -0.3286177 0.2848806 -0.118433215 -0.30673462 0.0848718 0.47983643
-0.25541317 0.4556127 -0.23875968 -0.25813863 -0.39856973 0.1361792 0.23860973 -0.3413966
-0.024087112 -0.02657371 0.46987543 0.20171218 -0.43487176 0.37696454 0.33998838 0.36286694
0.049462777 -0.19834843 0.19130634 -0.4618387 0.4157275 -0.12885517 0.34441647 0.37396413
0.2833243 0.16547202 0.30811307 0.28935152 0.18633582 -0.3008134 -0.15548874 -0.3451496
0.019834246 -0.42696452 0.3689775 -0.24689175 -0.21846908 0.43932903 0.033241153 -0.17315142
0.15188223 0.1927075 0.38373244 0.35160795 -0.40046507 -0.42448896 -0.39788735 0.48551106
0.4753827 0.38882664 -0.014199555 0.274451 0.39395082 -0.20230699 0.45732164 0.16816747
-0.16926676 -0.030186491 0.09675357 -0.07016894 0.03904262 0.19440192 -0.14408632 0.4119748
0.28555346 0.06690036 0.06842905 0.14651504 0.46323696 0.32234636 -0.43791473 -0.2949773
0.14008428 -0.07466157 0.13448061 0.19607209 -0.38416922 0.015430935 -0.40487635 -0.23381452
0.16142431 0.180297 0.3729562 -0.4640535 0.001738702 -0.009380648 0.49678025 0.44630277
0.10395022 0.41397378 0.3705648 0.25116226 -0.28447416 0.089269884 -0.17233746 0.47465128
0.13680221 0.18652259 -0.46978083 0.39461485 -0.114723645 -0.013872735 -0.13575122 0.3512308
-0.13030499 -0.15373537 0.2708845 -0.12487513 0.16815914 -0.21254857 -0.44914275 -0.26898193
0.14935945 -0.054950852 0.18731661 -0.37233424 -0.053180583 -0.35657728 -0.037819967 0.40997642
-0.05169685 -0.28170773 -0.3084447 -0.40869024 -0.23944882 -0.3147916 0.50322896 0.07460189
-0.0007620211 -0.28081927 0.008778705 -0.36241207 0.31677806 0.26783016 -0.3808243 -0.4548584
-0.49933267 -0.3114274 -0.25800082 -0.10516068 0.40507725 -0.24333647 0.29458365 0.17970857
0.43703988 0.15488599 -0.03598235 -0.35334107 0.17029074 0.12114537 -0.026079582 0.27860063
0.27931407 -0.22438058 -0.082787514 -0.04177114 0.17968825 0.230812 -0.42360634 -0.2620969
-0.38925335 -0.1581953 -0.16711949 0.18069777 -0.3026317 -0.025962483 -0.22864494 -0.32983613
0.07596955 0.1739598 0.28955564 0.059470687 -0.37935528 -0.26303592 0.2804535 0.011608236
0.43640816 0.058226492 -0.39947265 0.2762071 -0.13304323 0.47787407 -0.37068963 0.08448917
0.10433285 -0.25892583 -0.0289068 -0.15676537 0.41480985 -0.15059811 -0.3623853 0.45190385
0.25303575 0.35343915 -0.061099317 -0.41400874 0.38148436 0.16641764 -0.07483663 -0.010307966
0.122499876 -0.09467827 0.055984125 -0.47472128 0.15115331 0.19650283 0.06729706 0.2758471
-0.37432146 0.13858193 -0.14240566 0.057198524 -0.092205495 -0.075255096 -0.3613735 -0.25909793
-0.38656852 0.17242412 -0.38416055 -0.032701686 0.39068505 0.0427502 0.354755 0.12900966
0.30771643 -0.4605233 -0.093113825 -0.2847702 0.46164176 -0.31535146 -0.38296106 0.020330604
-0.19777422 -0.353005 -0.4018977 0.28565657 0.43458328 -0.03893358 -0.10864362 0.071729064
0.25508368 0.17469907 0.37335896 -0.21721245 -0.36920998 -0.14489077 -0.060553886 0.27892324
00000000: 9a2f 01bd 2e41 a63e 9440 a8be dfdb 913e
00000010: 1d8d f2bd 520c 9dbe 44d1 ad3d 1fad f53e
00000020: 84c5 82be 1146 e93e 6b7d 74be bf2a 84be
00000030: 5511 ccbe 8f72 0b3e 1c56 743e 89cb aebe
00000040: 5652 c5bc 1cb1 d9bc 8393 f03e a38d 4e3e
00000050: 83a7 debe 7f01 c13e f512 ae3e b2c9 b93e
00000060: 7b99 4a3d da1b 4bbe cfe5 433e 1f76 ecbe
00000070: 3cda d43e 9cf2 03be 5b57 b03e 3a78 bf3e
00000080: e20f 913e 7f71 293e ffc0 9d3e e225 943e
00000090: d1ce 3e3e 3704 9abe 7138 1fbe 73b7 b0be
000000a0: 6e7b a23c 189b dabe 9eea bc3e 31d1 7cbe
000000b0: 5cb6 5fbe bcef e03e e027 083d 9b4e 31be
000000c0: 0487 1b3e 1d55 453e 9478 c43e f505 b43e
000000d0: c209 cdbe 9e56 d9be e4b7 cbbe e894 f83e
000000e0: 5c65 f33e 4914 c73e 40a5 68bc d784 8c3e
000000f0: ecb3 c93e 9029 4fbe 1026 ea3e 1834 2c3e
00000100: 4454 2dbe a949 f7bc bc26 c63d bcb4 8fbd
00000110: 28eb 1f3d 4c11 473e 5d8b 13be 5cee d23e
00000120: 1034 923e 0e03 893d 8824 8c3d 0a08 163e
00000130: 652d ed3e 950a a53e 5c36 e0be 4407 97be
00000140: 4172 0f3e 2ae8 98bd 49b5 093e 1fc7 483e
00000150: d4b1 c4be 08d2 7c3c f44b cfbe 136d 6fbe
00000160: 6a4c 253e c79f 383e 1df4 be3e 6c98 edbe
00000170: 28e5 e33a 4ab1 19bc fb59 fe3e cc81 e43e
00000180: dae3 d43d 5ff4 d33e abba bd3e 5798 803e
00000190: 99a6 91be 21d3 b63d 3b79 30be 7e05 f33e
000001a0: e115 0c3e c7ff 3e3e 1d87 f0be f50a ca3e
000001b0: 3bf4 eabd 784a 63bc 5e02 0bbe 86d4 b33e
000001c0: ac6e 05be ce6c 1dbe 60b1 8a3e 88be ffbd
000001d0: e931 2c3e 55a6 59be 0af6 e5be 00b8 89be
000001e0: aff1 183e 2514 61bd edcf 3f3e 98a2 bebe
000001f0: e2d3 59bd 4c91 b6be 1ce9 1abd 6ee8 d13e
00000200: 14c0 53bd ff3b 90be 77ec 9dbe d93f d1be
00000210: 1232 75be 5d2c a1be 9dd3 003f e0c8 983d
00000220: 5fc2 47ba 8bc7 8fbe 8fd4 0f3c 138e b9be
00000230: bc30 a23e 0921 893e 67fb c2be 33e3 e8be
00000240: 88a8 ffbe 6a73 9fbe af18 84be 7c5e d7bd
00000250: 4966 cf3e 322d 79be abd3 963e 8605 383e
00000260: b1c3 df3e 6f9a 1e3e 3b62 13bd 1fe9 b4be
00000270: b260 2e3e 101b f83d d9a4 d5bc bea4 8e3e
00000280: 4102 8f3e 06c4 65be 808c a9bd 3718 2bbd
00000290: 3200 383e fb59 6c3e eee2 d8be 9131 86be
000002a0: 374c c7be f3fd 21be 5f21 2bbe d608 393e
000002b0: 8bf2 9abe 46af d4bc e621 6abe 48e0 a8be
000002c0: ec95 9b3d 8522 323e a340 943e 8997 733d
000002d0: db3a c2be a5ac 86be 9a97 8f3e 7830 3e3c
000002e0: e470 df3e e77e 6e3d ae87 ccbe 046b 8d3e
000002f0: 7c3c 08be e9ab f43e 08cb bdbe a808 ad3d
00000300: 76ac d53d ed91 84be f4cd ecbc 1a87 20be
00000310: f561 d43e 6436 1abe 918a b9be f15f e73e
00000320: e78d 813e faf5 b43e 4743 7abd f4f8 d3be
00000330: eb51 c33e 6369 2a3e f243 99bd bee2 28bc
00000340: 37e1 fa3d aee6 c1bd 9c4f 653d ab0e f3be
00000350: efc7 1a3e 0a38 493e 0ad3 893d d53b 8d3e
00000360: 10a7 bfbe 6ce8 0d3e cad2 11be 0049 6a3d
00000370: 3cd6 bcbd 581f 9abd f305 b9be 7ca8 84be
00000380: 4fec c5be f38f 303e b1b0 c4be 34f2 05bd
00000390: df07 c83e d51a 2f3d 73a2 b53e 1c1b 043e
000003a0: 028d 9d3e b6c9 ebbe 76b2 bebd 66cd 91be
000003b0: 4f5c ec3e bf75 a1be 7913 c4be 5e8c a63c
000003c0: 5385 4abe 12bd b4be 89c5 cdbe 9441 923e
000003d0: b381 de3e d178 1fbd 8c80 debd b0e6 923d
000003e0: 549a 823e 50e4 323e e828 bf3e f16c 5ebe
000003f0: 1709 bdbe 3f5e 14be 5a07 78bd 07cf 8e3e

edge_function.0.bias f4 [64]
0.119707584 -0.15128781 0.13044885 0.07762055 0.15856917 -0.12909772 -0.06210287 0.032525945
-0.15500705 0.49446848 0.4425535 0.455708 -0.10711938 0.060793348 -0.21722205 -0.5583655
-0.22205164 -0.2900592 -0.33361465 -0.20467749 0.3756654 0.33189145 -0.14134216 0.38390017
0.3979161 0.23900838 -0.40647557 -0.46845385 0.24043432 0.2404077 -0.20994632 0.4319919
-0.23030484 0.065195955 0.13780718 0.48805988 -0.39495894 0.4465415 -0.1336739 -0.18654603
-0.274366 0.2597293 -0.4124182 -0.114595205 -0.31046715 -0.23608094 0.44283098 -0.2723204
0.40386698 -0.349027 -0.32783687 -0.31188428 0.44627637 0.4458425 0.006139972 -0.27698648
0.06425967 -0.055758964 -0.074281976 -0.033913124 0.049959686 -0.08990269 -0.36195523 0.32124886
00000000: 4029 f53d 31eb 1abe 6294 053e 86f7 9e3d
00000010: f55f 223e 3132 04be 945f 7ebd ed39 053d
00000020: 2bba 1ebe f92a fd3e 5f96 e23e 8f52 e93e
00000030: 6861 dbbd 7202 793d 756f 5ebe 0bf1 0ebf
00000040: 8161 63be a482 94be 8acf aabe fa96 51be
00000050: 3757 c03e aded a93e 00bc 10be 908e c43e
00000060: a9bb cb3e 9dbe 743e 911d d0be 2fd9 efbe
00000070: 6a34 763e 702d 763e 2bfc 56be 0b2e dd3e
00000080: 08d5 6bbe 7585 853d 531d 0d3e fce2 f93e
00000090: 0f38 cabe 16a1 e43e d0e1 08be ec05 3fbe
000000a0: b379 8cbe 3dfb 843e 7a28 d3be e4b0 eabd
000000b0: 8df5 9ebe 34bf 71be beba e23e 946d 8bbe
000000c0: a7c7 ce3e abb3 b2be 3cda a7be 4caf 9fbe
000000d0: 567e e43e 7845 e43e d131 c93b 2cd1 8dbe
000000e0: 939a 833d 8363 64bd 2621 98bd 7de8 0abd
000000f0: 87a2 4c3d e71e b8bd 3252 b9be bb7a a43e

edge_function.2.weight f4 [64, 64]
0.08087541 0.00939891 -0.02711077 -0.045861717 -0.04675313 0.028860824 -0.048023455 0.029424647
0.060174942 -0.022991467 0.061567795 0.08639687 0.014274854 -0.06482713 0.026115203 0.028267216
0.0644995 -0.013662229 -0.08457497 -0.13684879 0.056047376 -0.061016925 0.02597128 -0.16584724
0.053840905 -0.1321687 -0.11186744 -0.078718156 0.05787416 0.027600026 0.04244767 0.04298039
-0.099803895 -0.03459775 -0.09104503 -0.106260024 -0.035800766 -0.1381146 -0.04254131 0.029059326
0.041852128 -0.07502635 0.068763725 -0.05420187 0.00086010096 0.07644151 -0.15027595 0.07565068
0.03403381 -0.0078114327 0.08106399 -0.121143214 -0.12897302 0.040323343 -0.038963422 0.08463988
-0.031965848 -0.08859949 0.03920887 0.013743068 -0.039827205 -0.14682813 -0.026649848 -0.066555895
0.0665367 -0.019897077 -0.17894465 -0.13206391 0.15282601 -0.0030679842 -0.015581025 0.08835372
0.02104866 -0.09501769 -0.042393144 0.058674634 0.13915478 -0.0048933644 -0.08059678 -0.016713673
-0.025075633 0.13145709 0.089463346 -0.17980307 0.05235546 0.030810365 -0.09144042 -0.016633773
-0.11126444 -0.09821536 -0.052156597 -0.037520133 0.01811153 -0.0028945028 -0.049760267 0.07862124
-0.14945662 -0.048546948 -0.027949013 -0.019331565 -0.12148552 0.06582739 0.07164227 0.04730545
-0.06686155 0.053176727 -0.011514445 0.037082106 0.01362099 -0.110435575 0.14167076 -0.14516464
0.044072617 -0.027596215 -0.14823572 -0.034469556 -0.040326208 0.09152411 -0.005307333 0.04324848
-0.10247314 -0.082241826 0.10436026 -0.060731046 -0.11001005 0.14114217 0.05162306 0.0662064
-0.10207164 -0.010808085 -0.0272209 0.014950534 -0.07897996 0.099720135 -0.025235478 -0.10411435
0.04450872 -0.05680718 0.105684824 0.13059247 -0.07727255 0.12396944 -0.14883478 -0.06578247
-0.07191592 0.09990529 -0.05415188 0.07543515 -0.055526257 -0.023346731 -0.032821834 0.13435727
0.008856396 0.057679467 0.091484785 0.113755025 0.067872025 0.055845596 0.0143228145 0.034340076
-0.108142525 0.06281894 0.10955184 -0.0015907474 0.02074258 0.10330882 0.06836782 -0.06694915
-0.1311348 0.09414702 0.010141723 0.13509522 -0.112423584 -0.034839448 0.06824437 0.031409334
-0.06678857 0.10633251 -0.098097265 -0.025133425 -0.08113971 -0.07399199 -0.088687666 -0.067335
0.06235309 -0.084633246 -0.12422536 0.12173736 -0.030734891 -0.06120254 -0.03966769 -0.040310323
0.09484949 0.09161032 -0.058403566 0.03373368 -0.067720056 0.0030875285 0.005328046 -0.042051066
-0.07341253 0.049232602 0.07846792 -0.14985713 0.007665469 0.090175785 0.003158001 0.12777129
-0.19282678 -0.0010402108 0.030303888 0.01792355 0.11899871 0.032894634 -0.07150769 0.07391653
-0.0044693677 0.114647925 -0.11169491 -0.13018784 0.125548 0.033629734 -0.09846471 -0.03963618
-0.074314035 -0.08510501 -0.12026499 0.019187195 -0.047332514 -0.01930463 -0.09457416 0.03933534
0.13568185 -0.023444664 0.067487 -0.080179535 -0.09488463 0.02698501 -0.106695846 -0.025794918
0.109440476 0.011218083 -0.08505986 -0.047474023 -0.09496868 0.13603474 0.112377994 -0.14619133
0.054394014 -0.0042332383 0.095733985 -0.026261097 -0.09099681 -0.0042563756 0.058109973 -0.065019384
00000000: 02a2 a53d e3fd 193c 6817 debc 7fd9 3bbd
00000010: 3680 3fbd 896d ec3c 3eb4 44bd f50b f13c
00000020: 007a 763d 9a58 bcbc 832e 7c3d d8f0 b03d
00000030: 14e1 693c 16c4 84bd 8def d53c a690 e73c
00000040: 5018 843d 8bd7 5fbc a435 adbd 1722 0cbe
00000050: ef91 653d e2ec 79bd b9c1 d43c dcd3 29be
00000060: 4888 5c3d 3b57 07be c21a e5bd fc36 a1bd
00000070: 750d 6d3d 7319 e23c 9cdd 2d3d 350c 303d
00000080: fc65 ccbd 5fb6 0dbd d175 babd db9e d9bd
00000090: d3a3 12bd ea6d 0dbe cc3f 2ebd d30d ee3c
000000a0: 236d 2b3d 6aa7 99bd ffd3 8c3d c802 5ebd
000000b0: 6678 613a 5e8d 9c3d f0e1 19be beee 9a3d
000000c0: 0967 0b3d 0cf7 ffbb e104 a63d ef19 f8bd
000000d0: 8111 04be 172a 253d 1c98 1fbd ac57 ad3d
000000e0: 9fee 02bd a673 b5bd 7b99 203d 9b2a 613c
000000f0: da21 23bd 1d5a 16be c850 dabc 754e 88bd
00000100: 6544 883d 32ff a2bc 443d 37be c33b 07be
00000110: 6c7e 1c3e 3c10 49bb 8e47 7fbc ccf2 b43d
00000120: 3d6e ac3c a298 c2bd 6fa4 2dbd d054 703d
00000130: 977e 0e3e 8458 a0bb ed0f a5bd 1deb 88bc
00000140: 6a6b cdbc b09c 063e 8f38 b73d 4c1e 38be
00000150: ae72 563d 0566 fc3c 1d45 bbbd 8d43 88bc
00000160: 9cde e3bd 2225 c9bd 28a2 55bd b6ae 19bd
00000170: a25e 943c b3b1 3dbb 6cd1 4bbd 2c04 a13d
00000180: 280b 19be 2ad9 46bd 54f5 e4bc 3b5d 9ebc
00000190: 66cd f8bd 83d0 863d 2fb9 923d 5cc3 413d
000001a0: b5ee 88bd d7cf 593d 15a7 3cbc 68e3 173d
000001b0: 932a 5f3c 0c2c e2bd 2412 113e 0aa6 14be
000001c0: 7d85 343d 7511 e2bc 1bcb 17be f32f 0dbd
000001d0: 182d 25bd fe70 bb3d 23e9 adbb 5125 313d
000001e0: 70dd d1bd 676e a8bd d5ba d53d 1ec1 78bd
000001f0: f34c e1bd 9387 103e b472 533d 3997 873d
00000200: f00a d1bd 6514 31bc 5dfe debc 16f3 743c
00000210: 3fc0 a1bd 123a cc3d a2ba cebc e839 d5bd
00000220: c74e 363d a5ae 68bd 4971 d83d 08ba 053e
00000230: 1241 9ebd b1e3 fd3d 2568 18be f6b8 86bd
00000240: a748 93bd 259b cc3d 5dce 5dbd be7d 9a3d
00000250: 806f 63bd a541 bfbc 3070 06bd f494 093e
00000260: 6b1a 113c 4e41 6c3d 605c bb3d 65f8 e83d
00000270: 7d00 8b3d 5abe 643d 3daa 6a3c 2ea8 0c3d
00000280: d479 ddbd 37a7 803d b75c e03d a080 d0ba
00000290: 58ec a93c 9393 d33d 6d04 8c3d a31c 89bd
000002a0: 3348 06be 27d0 c03d 7829 263c 6756 0a3e
000002b0: 563e e6bd cfb3 0ebd b4c3 8b3d 13a7 003d
000002c0: 72c8 88bd dcc4 d93d 38e7 c8bd 9de4 cdbc
000002d0: 942c a6bd 1d89 97bd e1a1 b5bd efe6 89bd
000002e0: f465 7f3d 3254 adbd de69 febd 7051 f93d
000002f0: bdc7 fbbc 84af 7abd 967a 22bd 701c 25bd
00000300: 7340 c23d 319e bb3d 9438 6fbd 542c 0a3d
00000310: d0b0 8abd 2258 4a3b e496 ae3b bd3d 2cbd
00000320: 4f59 96bd 20a8 493d cab3 a03d 2674 19be
00000330: 9d2e fb3b 15ae b83d 77f6 4e3b 7ad6 023e
00000340: 6274 45be af57 88ba dc3f f83c 69d4 923c
00000350: 98b5 f33d 86bc 063d a072 92bd 8d61 973d
00000360: c673 92bb 88cc ea3d 4dc0 e4bd f64f 05be
00000370: a88f 003e 55bf 093d dea7 c9bd 8c59 22bd
00000380: f531 98bd 894b aebd 7e4d f6bd 772e 9d3c
00000390: bddf 41bd be24 9ebc 19b0 c1bd 181e 213d
000003a0: 2ff0 0a3e 060f c0bc a036 8a3d 2b35 a4bd
000003b0: df52 c2bd ab0f dd3c 5a83 dabd dd4f d3bc
000003c0: 5422 e03d 0dcc 373c dd33 aebd 1f74 42bd
000003d0: f07e c2bd b14c 0b3e 6f26 e63d 2eb3 15be
000003e0: 42cc 5e3d fab6 8abb 2e10 c43d 8321 d7bc
000003f0: 895c babd 1179 8bbb b904 6e3d e228 85bd

edge_function.2.bias f4 [64]
-0.19345841 -0.029968556 0.13889872 0.13974841 0.013558359 -0.044140376 0.03573204 0.022780834
0.10927046 -0.123070724 0.092587404 -0.102752775 -0.11644064 0.09004609 -0.039945383 -0.029500553
-0.033281866 -0.0662512 0.0057187527 -0.01209187 0.11327946 0.06756718 -0.044490583 0.11920884
-0.019429721 -0.0562882 0.05784118 -0.07133524 0.0043273903 0.04727209 0.089218915 0.00783775
0.01462648 -0.103829324 0.14394954 -0.11670704 -0.097370714 -0.009671635 -0.0725027 -0.040271286
0.037176352 -0.04841782 0.09281001 -0.10823104 -0.09216983 0.06514881 -0.1428443 -0.11363176
-0.04025724 0.13510159 -0.090784386 -0.055605426 0.11258086 0.055056542 0.014334941 0.06675826
0.05645502 0.11829195 -0.14514847 0.008614059 -0.013363498 -0.045983467 0.009204066 -0.019218504
00000000: f619 46be 9e80 f5bc 773b 0e3e 351a 0f3e
00000010: e123 5e3c 8acc 34bd c25b 123d df9e ba3c
00000020: 31c9 df3d 810c fcbd 779e bd3d 0c70 d2bd
00000030: 6e78 eebd 166a b83d c59d 23bd 25ab f1bc
00000040: 9152 08bd b6ae 87bd 6064 bb3b fb1c 46bc
00000050: 10ff e73d a960 8a3d c23b 36bd c423 f43d
00000060: 142b 9fbc 758e 66bd e0ea 6c3d 3618 92bd
00000070: c8cc 8d3b 61a0 413d 68b8 b63d e869 003c
00000080: e7a3 6f3c 78a4 d4bd 8267 133e 1a04 efbd
00000090: 4c6a c7bd c775 1ebc 4c7c 94bd 81f3 24bd
000000a0: 3b46 183d c451 46bd 2d13 be3d 3ca8 ddbd
000000b0: 89c3 bcbd bd6c 853d c745 12be c5b7 e8bd
000000c0: c7e4 24bd 1258 0a3e 2aed b9bd 84c2 63bd
000000d0: cb90 e63d f882 613d 1add 6a3c 8eb8 883d
000000e0: 613d 673d 0d43 f23d cda1 14be fb21 0d3c
000000f0: 93f2 5abc 2959 3cbd a7cc 163c 2070 9dbc

edge_function.4.weight f4 [64, 64]
-0.14754952 -0.046873216 0.021829205 -0.050166305 -0.02215626 0.07180428 -0.022558022 -0.14616147
0.045084782 0.08366493 -0.094878204 0.0388006 -0.064598896 0.11496664 0.040100593 0.049865972
-0.096186265 0.0064474028 -0.027312756 0.10979071 -0.05564233 0.13103677 0.06342833 -0.018771447
-0.08222331 -0.121756285 -0.031343892 -0.16138852 -0.073692374 0.07932561 0.071210265 -0.029651256
-0.07415721 -0.07706561 -0.11412626 -0.048888482 -0.13781197 0.08492624 0.042020578 -0.09358622
0.0738139 -0.13711445 -0.08484165 0.08803783 0.09711959 -0.0966391 -0.056048114 -0.06347798
0.049422707 -0.014528657 0.09749517 -0.07019103 0.041509558 0.114917226 -0.1480654 0.07858285
0.16060646 -0.091579124 0.039693512 -0.10569353 -0.0031517139 0.01927554 0.03252737 0.032293715
-0.039448652 0.05621702 -0.14672975 -0.012016957 -0.01295967 0.085581124 0.09145817 0.044393584
-0.09567766 -0.090085104 0.039865267 -0.07773042 -0.07961004 -0.04090713 0.0803061 0.001968049
-0.12306014 -0.044845764 0.0121174455 -0.15258272 -0.09331361 -0.06614104 0.05303508 0.027556062
-0.13623823 -0.07593408 -0.16030872 -0.1292597 -0.115398526 -0.052488204 -0.09959559 -0.0055024326
0.119314834 -0.16907491 -0.11119661 -0.14665544 0.11691107 -0.009485718 -0.023740396 -0.05902285
-0.0065885647 -0.076144375 -0.13896011 -0.099836454 -0.0370303 -0.04581533 -0.111587115 0.051007316
-0.052847836 -0.11903198 0.012025611 -0.1446496 -0.044269368 -0.002214752 0.00025900302 -0.062292036
0.020097882 -0.09715037 -0.101427235 -0.05174366 0.07478076 -0.09782823 0.100942 0.022735722
0.011804089 0.098902196 0.019598048 0.104658045 -0.111260384 -0.042338975 0.014165886 -0.038589
-0.105934024 0.015026586 0.02222514 -0.010032564 0.014210542 -0.045776978 0.008464322 -0.07082066
0.15067115 0.05059646 -0.0066147894 -0.15604475 -0.0029221496 0.09453096 -0.013258785 -0.032555517
-0.14281799 -0.057181746 -0.04585881 0.09956089 0.03299286 0.14348345 0.0071674287 -0.12482601
-0.11865726 -0.050515953 0.10187584 0.11358447 0.06873881 0.03773662 0.07479039 -0.06353624
-0.10402915 0.05264369 0.029424725 0.12910046 -0.09848773 0.060777415 0.08471198 0.104693435
-0.124299824 -0.034950648 0.08117727 -0.11016371 0.06670542 -0.062969185 -0.04710528 0.024880657
0.0031517134 0.09406445 -0.028619636 -0.012689181 -0.009637775 0.030929163 0.104080774 -0.0033110343
-0.08862291 -0.0022289013 0.07767879 0.019837506 0.06712134 -0.10005614 -0.037623268 0.045630686
0.031089313 0.10665703 0.032980926 -0.04965888 0.07254211 0.03857801 0.016064266 0.05127482
-0.101038165 -0.0588124 -0.035355896 0.121533975 0.11088769 -0.057781626 0.11208049 0.064529076
-0.0859804 0.09540524 -0.05271028 0.0542284 -0.09524781 -0.05801798 0.0660637 -0.013957426
-0.09659532 -0.006631435 0.08626359 -0.15287694 0.08681351 -0.08269258 0.03844856 0.031254448
0.06909623 -0.001048354 0.11372344 0.003225021 0.026947148 0.11093642 -0.089448296 -0.084805354
0.07991205 -0.10327877 -0.0067149466 0.05161406 -0.0026600931 0.16172485 0.10946372 -0.025730796
-0.03193684 -0.001280913 0.00032240828 -0.02978729 -0.117797635 -0.01700653 0.09765146 -0.035032943
00000000: 3917 17be 21fe 3fbd 29d3 b23c 2f7b 4dbd
00000010: 0c81 b5bc 1f0e 933d 9acb b8bc 5aab 15be
00000020: d2aa 383d 8558 ab3d 814f c2bd 61ed 1e3d
00000030: 6d4c 84bd a173 eb3d 8540 243d 4340 4c3d
00000040: 4efd c4bd bc44 d33b 00bf dfbc f4d9 e03d
00000050: 36e9 63bd 812e 063e b6e6 813d 94c6 99bc
00000060: b264 a8bd 5c5b f9bd 7462 00bd 0843 25be
00000070: 07ec 96bd 7775 a23d b0d6 913d 31e7 f2bc
00000080: bcdf 97bd 93d4 9dbd 07bb e9bd 4a3f 48bd
00000090: 951e 0dbe cfed ad3d c51d 2c3d 22aa bfbd
000000a0: be2b 973d bb67 0cbe 76c1 adbd 2e4d b43d
000000b0: a3e6 c63d b8ea c5bd b592 65bd be00 82bd
000000c0: 776f 4a3d 9b09 6ebc 8cab c73d 51c0 8fbd
000000d0: ed05 2a3d b959 eb3d 759e 17be 0cf0 a03d
000000e0: 0576 243e d68d bbbd aa95 223d d975 d8bd
000000f0: fc8c 4ebb bde7 9d3c 6b3b 053d 6a46 043d
00000100: e994 21bd d143 663d 5340 16be c5e2 44bc
00000110: cc54 54bc 2845 af3d 6c4e bb3d 0cd6 353d
00000120: a6f2 c3bd 8a7e b8bd c349 233d 2031 9fbd
00000130: 970a a3bd 3c8e 27bd 8677 a43d 62fa 003b
00000140: f406 fcbd 31b0 37bd 4088 463c a53e 1cbe
00000150: 351b bfbd f474 87bd 503b 593d 40bd e13c
00000160: 0982 0bbe 5483 9bbd f827 24be a85c 04be
00000170: 1056 ecbd dffd 56bd c6f8 cbbd c04d b4bb
00000180: 565b f43d f921 2dbe 0cbb e3bd d82c 16be
00000190: 126f ef3d fc69 1bbc 387b c2bc f2c1 71bd
000001a0: e3e4 d7bb 95f1 9bbd 8f4b 0ebe 0e77 ccbd
000001b0: 15ad 17bd dba8 3bbd c987 e4bd 0ced 503d
000001c0: f976 58bd 0ac7 f3bd 1107 453c 061f 14be
000001d0: cc53 35bd 5f25 11bb ccca 8739 ef25 7fbd
000001e0: 50a4 a43c c6f6 c6bd 15b9 cfbd 29f1 53bd
000001f0: a826 993d 2b5a c8bd aeba ce3d 4440 ba3c
00000200: f065 413c 3c8d ca3d 168c a03c f556 d63d
00000210: 7cdc e3bd a26b 2dbd 0818 683c 800f 1ebd
00000220: f0f3 d8bd 1232 763c 7f11 b63c a05f 24bc
00000230: 55d3 683c a480 3bbd f1ad 0a3c 6c0a 91bd
00000240: 8a49 1a3e 3c3e 4f3d e0c0 d8bb 32ca 1fbe
00000250: 8981 3fbb 7399 c13d 603b 59bc ef58 05bd
00000260: e13e 12be 6837 6abd 73d6 3bbd 94e6 cb3d
00000270: 8523 073d 53ed 123e c0dc ea3b c7a4 ffbd
00000280: 9402 f3bd d1e9 4ebd 48a4 d03d f99e e83d
00000290: efc6 8c3d b791 1a3d b42b 993d 4a1f 82bd
000002a0: 3c0d d5bd e9a0 573d 1f0c f13c e932 043e
000002b0: efb3 c9bd bdf1 783d 797d ad3d 8369 d63d
000002c0: e890 febd 6928 0fbd 4540 a63d 839d e1bd
000002d0: da9c 883d fdf5 80bd 77f1 40bd 85d2 cb3c
000002e0: fa8c 4e3b dda4 c03d ba73 eabc 48e6 4fbc
000002f0: c2e7 1dbc 285f fd3c 4d28 d53d f0fd 58bb
00000300: ee7f b5bd c212 12bb 0f16 9f3d 4482 a23c
00000310: ea76 893d 3cea ccbd db1a 1abd 3ee7 3a3d
00000320: 04af fe3c 006f da3d 0217 073d 1c67 4bbd
00000330: f590 943d fa03 1e3d 3599 833c 8c05 523d
00000340: 19ed cebd 45e5 70bd 58d1 10bd cee6 f83d
00000350: 1619 e33d 6dac 6cbd 758a e53d d227 843d
00000360: 7e16 b0bd d363 c33d bce6 57bd 991e 5e3d
00000370: 4911 c3bd 43a4 6dbd 684c 873d b0ad 64bc
00000380: c4d3 c5bd 824c d9bb f7aa b03d c68b 1cbe
00000390: 48cb b13d ba5a a9bd 3d7c 1d3d aa04 003d
000003a0: 5382 8d3d ec68 89ba d6e7 e83d e05a 533b
000003b0: 44c0 dc3c a232 e33d ab30 b7bd 6eae adbd
000003c0: eea8 a33d d283 d3bd 0e09 dcbb 4469 533d
000003d0: f554 2ebb 339b 253e 842e e03d 64c9 d2bc
000003e0: 34d0 02bd 4fe4 a7ba e808 a939 7a04 f4bc
000003f0: e33f f1bd 4751 8bbc 7dfd c73d b47e 0fbd

edge_function.4.bias f4 [64]
0.09447768 -0.02061854 -0.09420636 0.1456198 0.11124892 0.06915822 0.0071125445 -0.12770465
0.0025757502 -0.101176284 0.06981072 0.037375554 -0.027351936 -0.04791409 0.17195402 0.026074445
-0.08471498 -0.13136035 -0.113356926 -0.0009199739 -0.06268713 -0.06594841 0.13724482 -0.14986348
0.1278807 0.06815572 0.023271007 -0.02623727 -0.107135266 -0.101578034 0.099565156 0.10838523
0.1280982 0.05056685 0.026717208 -0.08310014 -0.085287616 -0.04569975 -0.1277968 0.15747815
-0.0141999945 0.021118265 0.16870885 0.07951203 -0.12221958 -0.034326866 -0.042694476 -0.14529188
0.16717505 -0.06618006 0.06696916 0.030151084 0.03480732 -0.018886857 -0.1416276 0.022532446
0.032207407 0.3586558 -0.028647674 -0.017585779 -0.051424205 0.13666496 -0.09283183 0.029438341
00000000: 847d c13d 36e8 a8bc 44ef c0bd 5b1d 153e
00000010: 79d6 e33d d3a2 8d3d 5910 e93b 02c5 02be
00000020: ebcd 283b 8335 cfbd ecf8 8e3d 1c17 193d
00000030: 2b11 e0bc 9141 44bd b714 303e 139a d53c
00000040: 0c7f adbd 5483 06be ad27 e8bd 672a 71ba
00000050: 1c62 80bd f60f 87bd e889 0c3e d075 19be
00000060: 29f3 023e 3a95 8b3d d7a2 be3c 8bef d6bc
00000070: bc69 dbbd 2508 d0bd d1e8 cb3d 13f9 dd3d
00000080: 2d2c 033e 2f1f 4f3d 0cde da3c 6830 aabd
00000090: 46ab aebd a92f 3bbd 2add 02be f441 213e
000000a0: 18a7 68bc 3600 ad3c 03c2 2c3e 34d7 a23d
000000b0: 424e fabd 549a 0cbd 67e0 2ebd 65c7 14be
000000c0: f02f 2b3e 6989 87bd 2127 893d 68ff f63c
000000d0: 1f92 0e3d 9cb8 9abc d306 11be f795 b83c
000000e0: eaeb 033d bca1 b73e 87ae eabc 0d10 90bc
000000f0: 30a2 52bd e6f1 0b3e 9d1e bebd ad28 f13c
