Projects/GuoxiangGrayson_T_A study of multi-fidelity graph neural networks/Model_save/Quarter2D/Rank=190-GNN-nB-64-Lr-0.005/model.pth (torch, 114781 bytes, 24 tensors)

node_function_neighbor.0.weight f4 [64, 2]
0	0x3e2d2b93	0.16911153
1	0xbf3648d1	-0.7120486
2	0xbe936744	-0.28789723
3	0xbec0bc1a	-0.3764351
4	0xbe2054f0	-0.15657401
5	0xbf1c623e	-0.61087406
6	0x3e0e19a7	0.13876973
7	0x3e95f955	0.29291788
8	0xbed181ef	-0.40919444
9	0xbeb3beb2	-0.35106426
10	0x3f12badc	0.57316375
11	0xbe626793	-0.22109823
12	0x3ed0f2d4	0.40810263
13	0xbe896592	-0.26835304
14	0xbf2a6572	-0.66561043
15	0xbe1f5fd5	-0.15563901
16	0x3e6932ac	0.22773236
17	0x3ec5fa86	0.38667697
18	0x3f170a87	0.5900044
19	0xbeb26f0e	-0.34850353
20	0xbebbc9e5	-0.3667747
21	0x3e254140	0.16138172
22	0x3c5b8ce4	0.01340029
23	0x3e15cf37	0.14629827
24	0x3f2e0a6a	0.6798464
25	0x3e86c384	0.26321042
26	0xbf1d6878	-0.6148753
27	0xbdabf766	-0.08396797
28	0x3eda7f9a	0.42675477
29	0xbee41933	-0.44550475
30	0x3f02aa25	0.5104087
31	0x3f2b1849	0.6683393
32	0xbe2aab0b	-0.1666681
33	0x3e8c9345	0.27456108
34	0xbeba385f	-0.36371133
35	0xbcbaff3d	-0.022826785
36	0x3e97cea5	0.29649845
37	0xbed37d14	-0.41306365
38	0x3ef6e6ca	0.48222953
39	0xbe439388	-0.19099247
40	0x3e8e0de5	0.27744976
41	0x3e560f4d	0.20904274
42	0xbf32be9e	-0.6982211
43	0xbb9d669b	-0.0048034913
44	0x3edd342c	0.43203866
45	0xbf1f80ce	-0.62305915
46	0xbec67611	-0.38761953
47	0xbd7c9bae	-0.061671905
48	0xbea9496c	-0.3306383
49	0x3ebe0f24	0.37120926
50	0x3e04c421	0.12965442
51	0x3edca64b	0.4309562
52	0xbefd6206	-0.49488848
53	0x3eace4c3	0.3376828
54	0x3e996cba	0.29965764
55	0x3ef60775	0.48052564
56	0x3f0e532f	0.5559568
57	0xbe56f484	-0.20991713
58	0x3f288ef2	0.6584312
59	0x3ed8c317	0.42336342
60	0xbe60b55b	-0.21944182
61	0x3f1094aa	0.56476843
62	0x3e4f614d	0.20251961
63	0x3f3723a1	0.7153874
64	0xbf102479	-0.5630565
65	0xbef28b19	-0.47371748
66	0x3e328586	0.17433748
67	0xbeadf5dd	-0.3397664
68	0xbe127f2b	-0.14306323
69	0xbed808d6	-0.4219424
70	0xbed6b8c1	-0.4193783
71	0x3f164226	0.58694685
72	0x3ecc5c3e	0.39914125
73	0xbf033a95	-0.51261264
74	0xbe8653f1	-0.26235917
75	0xbef95ead	-0.48705044
76	0x3e168a89	0.14701284
77	0xbd19ee48	-0.03758076
78	0x3eca0402	0.39456183
79	0x3e55c54b	0.20876043
80	0xbebf8eda	-0.37413675
81	0x3e89f6c5	0.26946083
82	0xbecc9537	-0.39957592
83	0x3ec7b8a9	0.39008072
84	0x3b2c86be	0.002632543
85	0x3f04480f	0.5167245
86	0x3ee605bf	0.4492626
87	0xbebc513a	-0.3678072
88	0xbc6f1158	-0.014591537
89	0x3f0e237f	0.5552291
90	0xbdf158f8	-0.117845476
91	0xbe8e87bc	-0.27837932
92	0x3f26d7d5	0.65173084
93	0x3f0ecadc	0.5577829
94	0x3d84358c	0.06455526
95	0x3efe8581	0.4971123
96	0x3f23c7e6	0.63976896
97	0x3db5e786	0.0888205
98	0x3f0ada78	0.54239607
99	0xbd872aa1	-0.06599928
100	0xbded8df9	-0.11599345
101	0x3e06e12f	0.13171838
102	0xbf1debd1	-0.6168795
103	0xbe8512ca	-0.25990897
104	0x3e2c2bd9	0.16813602
105	0x3e5a0109	0.21289457
106	0xbf16e72d	-0.58946496
107	0x3d891b28	0.06694633
108	0x3e834991	0.25642064
109	0xbf1050cf	-0.56373304
110	0x3ef47d8e	0.4775204
111	0x3ef764bc	0.48319042
112	0x3f00fb24	0.5038321
113	0xbdc089fb	-0.09401318
114	0x3f0e50d0	0.5559206
115	0x3f0b7c42	0.5448648
116	0xbe54bd4a	-0.20775333
117	0x3da56562	0.08075978
118	0x3de2e9da	0.1107976
119	0xbd49db7b	-0.04928158
120	0x3f07d369	0.5305696
121	0xbf18e51c	-0.59724593
122	0x3dc83e46	0.09777503
123	0x3d9d5642	0.07682468
124	0xbf286cf0	-0.65791225
125	0xbf263641	-0.64926535
126	0x3f282fa4	0.65697694
127	0x3e982164	0.29712975

node_function_neighbor.0.bias f4 [64]
0	0x3d073db4	0.03301783
1	0x3eb97a4f	0.36226127
2	0x3ee41b9e	0.4455232
3	0xbe8cce3b	-0.2750109
4	0xbf1b1031	-0.6057158
5	0x3f104f80	0.5637131
6	0x3ecf59ef	0.404983
7	0xbcdf4a12	-0.027257
8	0x3f083844	0.53210855
9	0xbef18822	-0.47174174
10	0x3ddbb0df	0.10727095
11	0xbe8582a0	-0.2607622
12	0xbf035d56	-0.51314294
13	0xbec947b7	-0.39312527
14	0xbf255f3d	-0.6459845
15	0x3ec14b18	0.37752604
16	0xbe97cfcb	-0.2965072
17	0x3eabb1e8	0.3353417
18	0x3ed612f4	0.41811335
19	0x3d786dc8	0.06065157
20	0x3d8919a9	0.066943474
21	0xbdf6029a	-0.12012215
22	0xbe0cf423	-0.13765006
23	0xbea62b8a	-0.32455093
24	0x3f2ed37a	0.6829144
25	0xbdad10e6	-0.08450489
26	0xbea2c751	-0.3179269
27	0xbeaf236b	-0.3420671
28	0x3dd05c36	0.10173838
29	0x3ebaa2aa	0.36452228
30	0xbf1262c0	-0.5718193
31	0x3f2425c1	0.6412011
32	0xbebe5cf0	-0.3718028
33	0xbeefdacc	-0.46846616
34	0x3f094a71	0.53629214
35	0x3f0673bf	0.52520365
36	0x3f28f616	0.660005
37	0xbe08e542	-0.13368705
38	0xbee14fa8	-0.44006085
39	0x3f3413f9	0.70342976
40	0xbeb54808	-0.35406518
41	0x3ef34944	0.47516835
42	0xbec352d0	-0.38149118
43	0xbdcbbae1	-0.09947754
44	0xbf24b767	-0.6434235
45	0x3d35d2ba	0.044390418
46	0x3f0b33bc	0.54375815
47	0x3ecdf7af	0.4022803
48	0xbf10454c	-0.5635574
49	0x3f2bf286	0.67166936
50	0xbe7bd577	-0.24593149
51	0x3f27b9aa	0.65517676
52	0xbefb987c	-0.49139774
53	0x3d57bf2d	0.052672554
54	0xbe35c371	-0.17750336
55	0xbed972a6	-0.42470282
56	0xbe8475bc	-0.25871074
57	0xbe71373c	-0.23556226
58	0xbe14416b	-0.1447808
59	0x3ef2eacc	0.4744476
60	0xbdf5602c	-0.11981234
61	0x3eade6f8	0.33965278
62	0xbecf02db	-0.40431866
63	0xbe864497	-0.26224205

node_function_neighbor.2.weight f4 [64, 64]
0	0xbdf25122	-0.11831881
1	0xbd62d038	-0.055374354
2	0x3d9049ac	0.07045302
3	0x3d60781d	0.05480205
4	0xbd537ecd	-0.0516346
5	0x3cf644ad	0.030062044
6	0x3d538d0e	0.051648192
7	0xbbc56940	-0.0060245097
8	0xbd41ee8b	-0.047346633
9	0xbdc4f48f	-0.09616958
10	0x3d909bae	0.070609435
11	0x3da27466	0.079323575
12	0x3dcd17f3	0.100143336
13	0x3dabac2a	0.08382447
14	0xbd5ceb79	-0.0539355
15	0xbdbc1a80	-0.09184742
16	0x3d421791	0.047385756
17	0xbd01bca8	-0.031674057
18	0x3b29c2d6	0.0025903485
19	0x3d7c2ddf	0.061567184
20	0xbcac0b91	-0.021001609
21	0x3d0c4311	0.034243647
22	0xbe1b9224	-0.15192467
23	0x392ca37d	0.00016464102
24	0x3c7548a4	0.014970932
25	0xbc7bbfce	-0.015365554
26	0x3dc9a765	0.09846381
27	0xbe16bad2	-0.14719704
28	0x3cf958dd	0.030437881
29	0xbe03a8f0	-0.12857413
30	0x3cc9eea8	0.024649933
31	0x3d577b55	0.052607853
32	0x3dcd8393	0.100348614
33	0x3c5f5c9c	0.01363292
34	0xbe06468b	-0.13112848
35	0x3d0bc759	0.03412566
36	0xbd7b7188	-0.06138757
37	0xbc89eb40	-0.016835809
38	0x3d08b0dc	0.03337179
39	0x3d9985a5	0.07496194
40	0x3dcdc689	0.10047633
41	0x3bfa0111	0.0076295217
42	0xbcc48c8d	-0.023992801
43	0xbd1d772f	-0.03844374
44	0x3def52ac	0.1168569
45	0xbde07447	-0.10959678
46	0x3d11a877	0.03556105
47	0x3dba9228	0.09109908
48	0xbddf6b3f	-0.109091274
49	0xbd412100	-0.047150612
50	0x3dbabe47	0.09118324
51	0x3ac17521	0.0014759639
52	0xbd5eec17	-0.05442437
53	0xbc4f2978	-0.012644164
54	0xbd80db9b	-0.062918864
55	0x3c9419fa	0.018078793
56	0x3d8c1251	0.06839431
57	0xbddf5ecc	-0.10906753
58	0x3d453a50	0.048151314
59	0xbd102e4d	-0.035200406
60	0x3d1b6f86	0.037948154
61	0xbc3e5ccb	-0.011618803
62	0x3cd24904	0.025669582
63	0xbddc4689	-0.10755641
64	0x3d1cac7e	0.03825044
65	0xbcbd2442	-0.023088578
66	0xbc174f01	-0.009235145
67	0xbcaec93d	-0.021336192
68	0x3c8867c7	0.016651047
69	0xbd69e4dd	-0.057103027
70	0xbb80db09	-0.003932361
71	0xbdb452a9	-0.08804829
72	0xbca5913d	-0.020210857
73	0x3d3720a7	0.044708874
74	0x3da775fb	0.081768
75	0x3bcf57b4	0.0063275937
76	0x3e0b94d4	0.13630992
77	0x3cfeff55	0.031127611
78	0x3d72ced4	0.059279278
79	0x3e0d8fc5	0.13824375
80	0xbddb1221	-0.10696817
81	0xbd31f33f	-0.04344487
82	0x3d3e9b42	0.046534784
83	0x3e1af9aa	0.15134302
84	0x3e16e33c	0.1473512
85	0x3d2b4e78	0.04182288
86	0x3bf2c681	0.0074089174
87	0xbc03b43e	-0.008038579
88	0x3d2e0ba8	0.042491585
89	0x3d5782b2	0.052614875
90	0xbbcb7d4b	-0.0062100044
91	0xbd5dceee	-0.05415242
92	0x3b94812e	0.004532001
93	0xbcf5cad5	-0.030003944
94	0xbc6196d4	-0.01376887
95	0x3db41e64	0.08794859
96	0x3d07c473	0.033146333
97	0x3d2f36d0	0.042776883
98	0xbbcba9e8	-0.0062153228
99	0xbca01c1b	-0.019544652
100	0xbb08aebb	-0.00208561
101	0x3d82a521	0.06379152
102	0x3df1e201	0.11810685
103	0x3d565ffd	0.052337635
104	0xbdd0cc1b	-0.1019518
105	0xbc2232b3	-0.009899783
106	0x3d2a868b	0.041632216
107	0x3d30cd0b	0.043164294
108	0x3dca40e2	0.09875657
109	0x3d3daae6	0.04630556
110	0x3e3383a6	0.17530689
111	0xbd82d0e8	-0.06387502
112	0x3d1502e7	0.03637972
113	0x3b8db1d4	0.0043241773
114	0x3dbc4f47	0.091948085
115	0xbcc53a45	-0.024075637
116	0x3c601e45	0.013679092
117	0x3da40913	0.08009543
118	0xbdafb4a7	-0.085793786
119	0xbcdaa586	-0.026690256
120	0x3afb4b47	0.0019172215
121	0x3baf35ae	0.0053469753
122	0x3dd4d74e	0.103926286
123	0x3e001685	0.1250859
124	0xbcc62f19	-0.02419238
125	0x3e13c3fe	0.14430234
126	0x3d676025	0.056488175
127	0xbd83876e	-0.064223155
128	0x3c973037	0.018455608
129	0xbe0954aa	-0.13411203
130	0x3cedb637	0.02901755
131	0xbd30bd24	-0.04314913
132	0xbd1eeab5	-0.038798053
133	0x3cddff3d	0.027099246
134	0x3dcb2243	0.09918644
135	0xbd6a3b20	-0.057185292
136	0xbd5c9f01	-0.053862575
137	0xbca95a35	-0.020672897
138	0x3d94577b	0.07243248
139	0xbdce7a9c	-0.1008198
140	0x3c53e9b6	0.012934139
141	0xbdcb69ff	-0.099323265
142	0x3d8d4ab1	0.06899012
143	0xbe10be2e	-0.14135048
144	0x3ac2d6f6	0.0014865089
145	0xbdd76c41	-0.10518695
146	0xbe0790b7	-0.13238798
147	0x3d574bea	0.05256263
148	0xbd8d0a62	-0.06886746
149	0xbdd5bbed	-0.104362346
150	0x3d8ed48a	0.06974132
151	0xbca9522b	-0.020669064
152	0x3c8a9248	0.016915455
153	0xbd2fd8b7	-0.042931285
154	0xbd022612	-0.031774588
155	0xbd948d01	-0.07253457
156	0xbd8df0e5	-0.069307126
157	0x3db97071	0.090546496
158	0xbd5237b8	-0.05132267
159	0x3db8554a	0.090006426
160	0xbd9156fd	-0.0709667
161	0xbd7abc1b	-0.061214548
162	0xbe027c9f	-0.12742852
163	0xbd967c95	-0.07347981
164	0x3d8fa48f	0.07013809
165	0xbdef3dea	-0.11681731
166	0x3d237d44	0.039914384
167	0xbd862564	-0.065501004
168	0x3d88fcdb	0.06688853
169	0xbdd49635	-0.10380212
170	0xbdb94d91	-0.09047998
171	0xbe0b2cf4	-0.13591367
172	0xbbc6b884	-0.0060644764
173	0xbbee62bc	-0.0072749536
174	0x3d8e3c26	0.06945066
175	0xbda9bc2d	-0.08287845
176	0xbd22e5ab	-0.03976981
177	0x3b3cc695	0.0028804888
178	0xbe16ea80	-0.14737892
179	0xbdd44819	-0.10365314
180	0x3c16bde9	0.009200552
181	0x3d6ab131	0.05729789
182	0xbd21ff17	-0.039549913
183	0x3d688748	0.05676964
184	0xbd47395f	-0.048638698
185	0xbdbb25a7	-0.09138041
186	0xbdd19589	-0.102336
187	0xbe1db255	-0.1540006
188	0xbb49a920	-0.0030770972
189	0xbd5ee4f8	-0.05441758
190	0x3d82c44e	0.063850984
191	0xbd83c04b	-0.06433161
192	0xbd982de1	-0.07430626
193	0xbc703553	-0.014661151
194	0xbe23fb3b	-0.16013806
195	0xbce0bd46	-0.027434003
196	0xbd481d49	-0.048856054
197	0xbc8951e3	-0.01676268
198	0xbd19f697	-0.037588682
199	0xbc09582e	-0.00838284
200	0xbdeb473e	-0.11488198
201	0xbe180063	-0.14843898
202	0xbe16f7eb	-0.1474301
203	0xbd34d35e	-0.044146888
204	0xbc40acb6	-0.0117599275
205	0xbd69b15c	-0.05705391
206	0x3d9e466d	0.077282764
207	0xbc80c74e	-0.015720036
208	0x3d39b124	0.04533495
209	0x3c1177ef	0.008878692
210	0xbcde080e	-0.02710345
211	0xbddf53ba	-0.109046414
212	0xbb9a4ab1	-0.004708611
213	0xbde905e3	-0.11378076
214	0x3d70bffb	0.058776837
215	0xbe30a25c	-0.17249435
216	0xbe26a55e	-0.1627402
217	0x3da94dd8	0.08266801
218	0x3d558b65	0.05213489
219	0xbdec2bbd	-0.1153178
220	0x3d1953f8	0.037433594
221	0xbd6a0881	-0.057137016
222	0xbcbd0e9d	-0.023078257
223	0x3d07e935	0.033181388
224	0xbdf7f700	-0.121076584
225	0xbd7cb146	-0.0616925
226	0xbca41fb1	-0.020034643
227	0xbc38903b	-0.011264856
228	0xbd7ed1db	-0.062211853
229	0xbde33918	-0.11094874
230	0xbd39fdf4	-0.045408204
231	0x3db07148	0.08615357
232	0xbc2a517a	-0.010395402
233	0xbe04c758	-0.12966669
234	0x3d3400d9	0.04394612
235	0xbd80153d	-0.06254051
236	0x3d1f0055	0.038818676
237	0xbd65d978	-0.056115597
238	0x3ccb4a4c	0.024815701
239	0xbe1ef555	-0.15523274
240	0x3d648530	0.05579108
241	0xbdd03b5c	-0.10167572
242	0xbd768e37	-0.06019422
243	0x3c0a237b	0.008431311
244	0xbd39d421	-0.045368318
245	0xbe513079	-0.20428647
246	0xbdec1fee	-0.115295276
247	0xbd13e0fb	-0.03610323
248	0xbdcd33a5	-0.10019616
249	0xbd6ba39a	-0.05752907
250	0xbcd8056d	-0.026369775
251	0x3cb22d86	0.021750223
252	0xbd6b2cd5	-0.057415802
253	0xbdd1955c	-0.10233566
254	0xbd0f3466	-0.03496208
255	0xbe0a9f53	-0.1353734

node_function_neighbor.2.bias f4 [64]
0	0xbe311208	-0.17292035
1	0x3d91d015	0.071197666
2	0x3cd988ef	0.026554553
3	0xbd2b82e2	-0.041872866
4	0xbdc47bae	-0.095939025
5	0x3d7429e1	0.05961025
6	0xbbbaed71	-0.0057045748
7	0xbdfb6e0a	-0.12276848
8	0xbda716de	-0.081586584
9	0xbc4a4861	-0.012346358
10	0xbd3ea5f1	-0.046544973
11	0xbd9b399f	-0.0757935
12	0xbd249f6d	-0.040191103
13	0xbe017f7d	-0.12646289
14	0xbdd9fc3b	-0.10643812
15	0x3c913d89	0.017729538
16	0xbc12f5d2	-0.008969741
17	0x3c87fa85	0.01659895
18	0xbd4a75df	-0.049428817
19	0x3d284a9a	0.04108677
20	0x3d2a829b	0.04162846
21	0xbc22312c	-0.009899419
22	0xbdcefcad	-0.10106788
23	0xbe024514	-0.12721664
24	0x3e09b70c	0.13448733
25	0x3cb996a7	0.022654844
26	0x3d1244dd	0.035710204
27	0xbd41316f	-0.047166284
28	0xbdfaedbb	-0.12252375
29	0x3daf6990	0.08565056
30	0xbe08486d	-0.13308878
31	0x3d20d887	0.039268997
32	0xbd6cfb2d	-0.057856727
33	0x3d8e2781	0.069411285
34	0xbcf1af99	-0.029502677
35	0xbdf5230f	-0.119695775
36	0x3c865a5c	0.016400509
37	0x3cc48dd1	0.023993405
38	0xbc644c10	-0.01393415
39	0xbe0f1651	-0.13973357
40	0xbe33eafc	-0.17570108
41	0xbdbf70d1	-0.0934769
42	0x3c197e15	0.009368439
43	0xbd7d1930	-0.0617916
44	0xbccf2cb8	-0.025289878
45	0x3d8f4fb8	0.06997627
46	0xbe023bb5	-0.12718089
47	0xbe140dc4	-0.14458376
48	0xbe0b1efc	-0.13586038
49	0x3de5a0ca	0.11212309
50	0x3d40654e	0.04697161
51	0xbe278df9	-0.16362752
52	0x3cabbdd4	0.02096454
53	0xbd1bdf90	-0.038055003
54	0xbdc718d4	-0.097215325
55	0xbde3eb6a	-0.11128886
56	0xbdb86b4f	-0.090048425
57	0xbd93dbca	-0.07219656
58	0xbcfa1f7f	-0.030532597
59	0xbda8b96f	-0.08238494
60	0x3d444d20	0.047925115
61	0x3d9816d9	0.07426233
62	0xbe047153	-0.12933855
63	0xbdc46437	-0.09589427

node_function_neighbor.4.weight f4 [64, 64]
0	0xbdd08399	-0.1018135
1	0xbd8c23eb	-0.06842788
2	0x3dfed511	0.12442983
3	0xbd2091c6	-0.03920152
4	0xbd09d144	-0.033646837
5	0x3c9e2605	0.019305239
6	0xbda6029b	-0.08105966
7	0xbda997ce	-0.082809076
8	0x3e1762d2	0.1478379
9	0x3e00eb02	0.12589648
10	0xbd948596	-0.07252042
11	0xbd16ea67	-0.036844637
12	0xbcb35b1d	-0.021894032
13	0x3e07b494	0.13252479
14	0xbdab77e8	-0.0837248
15	0x3dd14611	0.10218442
16	0x3d9bfce0	0.076165915
17	0x3db459d1	0.088061936
18	0xbd5b76b7	-0.053580012
19	0xbcb17c82	-0.021665815
20	0xbd31147f	-0.043232437
21	0x3c6d31a0	0.014477164
22	0x3d80809b	0.062745295
23	0x3dd05340	0.10172129
24	0xbd06c32c	-0.032900974
25	0xbd987085	-0.074433364
26	0x3d9e87ea	0.07740767
27	0x3d52c13f	0.051453825
28	0xbc9bf873	-0.019039368
29	0x3d1a4b48	0.03766945
30	0xbcfa7670	-0.030574054
31	0xbd824b15	-0.06361977
32	0x3dfb33b6	0.122657225
33	0xbd8b7695	-0.06809727
34	0x3d869e4b	0.06573161
35	0x3e04f6fd	0.12984844
36	0x3e0b5bd5	0.1360925
37	0x3c3042ac	0.010758083
38	0x3d07d364	0.033160582
39	0x3d9bca38	0.076069295
40	0xbcc095f5	-0.023509005
41	0x3c8ec866	0.017429542
42	0x3ddeceae	0.10879265
43	0x3d3d13b4	0.04616137
44	0x3ddd5848	0.10807854
45	0x3e02e49c	0.1278252
46	0xbd644d37	-0.0557377
47	0x3d77d6b0	0.060507476
48	0xbdd327e8	-0.10310346
49	0xbd8cae9c	-0.068692416
50	0xbcb8eeb8	-0.022574767
51	0x3d7671d7	0.06016716
52	0xbd4a9247	-0.049455907
53	0xbc62de87	-0.013847
54	0x3c1941b0	0.00935404
55	0x3d6b2839	0.057411406
56	0xbdff55c0	-0.124675274
57	0xbdc785e4	-0.097423345
58	0xbe0de39a	-0.13856354
59	0x3d46c825	0.048530716
60	0xbddb69ac	-0.10713515
61	0x3cc5322e	0.02407178
62	0xbccefe52	-0.025267754
63	0xbda21a06	-0.0791512
64	0xbd78f2e8	-0.06077853
65	0xbe4036f0	-0.18770957
66	0x3d97ef0a	0.0741864
67	0x3c70bd71	0.014693604
68	0xbde5f643	-0.11228611
69	0x3dc66216	0.09686677
70	0xbcc80350	-0.024415642
71	0xbd978c18	-0.07399768
72	0xbd20c2d2	-0.039248295
73	0xbd68ee7b	-0.056868058
74	0xbd88177c	-0.06645104
75	0x3d105c4c	0.03524427
76	0xbbba9d06	-0.005694988
77	0x3b4230f7	0.0029631236
78	0x3e03f639	0.12886895
79	0xbd106ec7	-0.035261896
80	0xbbefa8ae	-0.0073138094
81	0xbdcd15ec	-0.10013947
82	0xbb67edda	-0.0035389573
83	0xbe006b6e	-0.12540981
84	0x3dff11a4	0.124545366
85	0x3d626294	0.055269793
86	0x3df55356	0.11978786
87	0xbe0e64b5	-0.13905604
88	0x3c572060	0.013130277
89	0x3d8b6f9c	0.06808397
90	0xbd6b8c6c	-0.057506964
91	0x3b59ccee	0.003323372
92	0x3d0c7fe7	0.034301665
93	0xbd1b3cd0	-0.037899792
94	0x3dd37b72	0.1032628
95	0xbdfeadc5	-0.12435488
96	0xbccb971d	-0.02485233
97	0xbdf5ff35	-0.120115675
98	0xbdda48d6	-0.106584236
99	0x3d90f852	0.07078613
100	0x3dab758c	0.0837203
101	0x3d0bff60	0.03417909
102	0xbdb1274e	-0.08650075
103	0x3d728f89	0.059218917
104	0x3c83b4a3	0.016077345
105	0xbdd5f807	-0.10447698
106	0x3d205daa	0.039151825
107	0x3d6e8fd4	0.058242634
108	0xbd678690	-0.056524813
109	0x3d6d19a1	0.05788577
110	0x3d1d5132	0.038407512
111	0xbd637319	-0.055529688
112	0xbb472876	-0.0030389107
113	0x3cc490a0	0.023994744
114	0xbcffb5be	-0.031214591
115	0x3d9a19eb	0.07524475
116	0x3dd59d54	0.104303986
117	0x3d8acf69	0.067778416
118	0x3d4b0810	0.049568236
119	0xbc8c6828	-0.01713951
120	0xbe24dddc	-0.16100258
121	0xbd0e5f2d	-0.034758735
122	0x3c4410c7	0.011966891
123	0xbd6662b3	-0.05624647
124	0x3d8c9992	0.06865229
125	0xbd6aafe1	-0.057296637
126	0x3d42585d	0.04744755
127	0x3d0a9617	0.033834543
128	0xbd006aab	-0.031351727
129	0xbdb5f501	-0.088846214
130	0x3d8bf2ee	0.068334445
131	0xbd0050b5	-0.03132697
132	0xbc92d0c7	-0.017921818
133	0xbd84dee5	-0.06487826
134	0x3dbb8b39	0.09157414
135	0x3d249ef7	0.040190663
136	0xbdb5e078	-0.08880705
137	0xbe0cda9b	-0.13755266
138	0xbdd06806	-0.10176091
139	0x3d246628	0.040136486
140	0xbd8cfc53	-0.068840645
141	0xbd49de8f	-0.049284514
142	0x3dc8bf6c	0.09802136
143	0xbd8ba06f	-0.0681771
144	0xbcbc84e1	-0.02301258
145	0xbd5610a7	-0.052261975
146	0x3dc4e334	0.09613648
147	0xbd847f57	-0.06469601
148	0xbd72a218	-0.059236616
149	0xbdd722b2	-0.105046645
150	0x3d218326	0.039431714
151	0x3ca71092	0.020393644
152	0xbbe0bba5	-0.0068583065
153	0xbd7f4acc	-0.06232719
154	0xbd61a3ca	-0.055087842
155	0x3d91f311	0.07126439
156	0x3cfd5023	0.030922001
157	0x3dffe5f6	0.124950334
158	0xbd064976	-0.0327849
159	0x3d83cc5c	0.06435463
160	0xbe06852c	-0.13136739
161	0x3df0c0a1	0.11755491
162	0x3da65d28	0.08123237
163	0x3d9c6ec3	0.076383136
164	0x3da4658c	0.08027181
165	0xbe1e73da	-0.15473881
166	0xbcf84108	-0.030304447
167	0xbc935412	-0.017984424
168	0xbd94f5a9	-0.072734185
169	0x3d982091	0.074280865
170	0xbcf60719	-0.030032681
171	0x3d88f3c4	0.066871196
172	0x3d9b2a32	0.075764075
173	0x3b84081f	0.0040292884
174	0xbd860e9c	-0.06545755
175	0xbd000795	-0.03125723
176	0x3d80608d	0.062684156
177	0xbccc7df0	-0.024962395
178	0x3def3958	0.11680859
179	0xbde326b7	-0.11091369
180	0x3d2c897c	0.042123303
181	0x3dba26d1	0.09089435
182	0x3db5f2f2	0.08884229
183	0x3d8ab1fd	0.0677223
184	0xbdfc1be1	-0.12310005
185	0xbdab6c82	-0.083703056
186	0xbafa41d5	-0.0019093106
187	0xbd4484e5	-0.0479783
188	0x3d9025bc	0.07038447
189	0x3d782b79	0.060588334
190	0x3dd808e9	0.105485745
191	0xbda3f06b	-0.080048405
192	0xbe2e065c	-0.16994613
193	0x3c86b0e3	0.016441768
194	0x3deecf3b	0.1166062
195	0xbdd758ab	-0.10514959
196	0xbd9e1cad	-0.07720313
197	0xbd1426a0	-0.03616965
198	0x3c36b225	0.011150871
199	0x3e414cb3	0.18876915
200	0x3db45396	0.08805005
201	0xbddc2890	-0.10749924
202	0xbd523efb	-0.051329594
203	0x3d5c2f82	0.053756244
204	0x3c903c73	0.01760695
205	0x3d3bd23c	0.045854792
206	0xbd947b49	-0.07250077
207	0x3dbe04ae	0.09278236
208	0x3d395135	0.04524346
209	0x3daddd98	0.08489531
210	0xbe0bc5f6	-0.13649735
211	0xbd9108b6	-0.070817396
212	0x3e0f3a36	0.1398705
213	0x3d0f6da0	0.035016656
214	0x3def93af	0.1169809
215	0x3d2351e9	0.039873037
216	0x3d8570fb	0.0651569
217	0xbd6a0f52	-0.057143517
218	0xbd0f080d	-0.034919787
219	0x3d98239b	0.07428666
220	0x3cd593d2	0.026071463
221	0x3d8cc908	0.06874281
222	0x3cca99a1	0.02473146
223	0x3d863a08	0.06554037
224	0x3c354376	0.011063447
225	0xbd831d0c	-0.064020246
226	0x3d62594c	0.05526094
227	0xbd791ee7	-0.060820486
228	0xbd290bf3	-0.04127116
229	0x3d8ef9e6	0.06981258
230	0xbde43bec	-0.11144242
231	0x3d045904	0.032311454
232	0x3d9eeb9e	0.07759784
233	0x3e051ab2	0.12998465
234	0x3cc55472	0.024088118
235	0x3dc994b6	0.098428175
236	0x3d746204	0.059663787
237	0x3db9673a	0.09052892
238	0x3e0e35d4	0.13887721
239	0xbbb39593	-0.005480477
240	0x3d6582ef	0.05603307
241	0x3dfb8376	0.122809336
242	0xbd74bbcf	-0.05974942
243	0x3ce216da	0.027598787
244	0xbd5b9e7f	-0.05361795
245	0xbbb2b07a	-0.0054531666
246	0xbd10e28c	-0.035372302
247	0x3d5e2198	0.054231256
248	0xbd2c7cac	-0.042111084
249	0xbe0f674d	-0.1400425
250	0x3d8a8744	0.06764081
251	0xbb93e182	-0.0045129666
252	0x3d2462c8	0.040133268
253	0xbda4bb34	-0.08043519
254	0x3bf4a384	0.0074657816
255	0x3da73318	0.08164042

node_function_neighbor.4.bias f4 [64]
0	0x3c90efd9	0.017692493
1	0x3da9730a	0.08273895
2	0xbd6017a7	-0.054710057
3	0x3e1c6996	0.15274653
4	0xbc3779fb	-0.011198516
5	0xbd9e363c	-0.07725188
6	0x3dc381fc	0.09546277
7	0x3d3fe6ee	0.04685109
8	0xbdbe77c9	-0.09300191
9	0x3d605bb8	0.05477497
10	0x3d0575d6	0.03258308
11	0x3e2149ec	0.15750855
12	0xbdfdb7d6	-0.123885795
13	0xbd8f9183	-0.07010176
14	0xbcf47a12	-0.029843364
15	0x3d8fcd6f	0.07021605
16	0xbe203da4	-0.15648514
17	0xbdb77a2e	-0.08958851
18	0x3d9ccb5a	0.07655974
19	0x3d7bde58	0.06149134
20	0xbcf3ce4f	-0.029761462
21	0xbe219d76	-0.15782723
22	0xbdab9db6	-0.0837969
23	0x3de74f91	0.11294473
24	0x3ca591ed	0.020211184
25	0xbddcc99d	-0.10780642
26	0xbd162ae5	-0.036662
27	0xbdedfc6b	-0.116204105
28	0x3d8c831a	0.06860943
29	0xbcc14d60	-0.023596466
30	0x3dd2dd2c	0.102960914
31	0xbde739cc	-0.11290321
32	0x3cf03b5a	0.029325176
33	0x3d3a04f9	0.0454149
34	0xbd610772	-0.05493874
35	0xbdd1872b	-0.10230859
36	0xbdde6f5c	-0.10861084
37	0x3cf61fc0	0.030044436
38	0x3be636be	0.0070255687
39	0x3d3daec8	0.046309263
40	0xbe0b4d5b	-0.13603728
41	0xbd851755	-0.06498591
42	0xbd9d1352	-0.07669701
43	0xbc0317a7	-0.008001245
44	0xbe0d6c3e	-0.13810822
45	0xbd202820	-0.039100766
46	0x3e2c9366	0.16853103
47	0x3bec1273	0.0072043478
48	0xbd513c55	-0.051082928
49	0xbe210af9	-0.15726842
50	0xbd8cd247	-0.06876045
51	0xbd7b4e72	-0.06135411
52	0x3d3a3eaa	0.045469917
53	0x3da6461c	0.08118841
54	0xbdf67be2	-0.120353475
55	0x3d2a27a7	0.04154172
56	0xbe0b62ee	-0.13611957
57	0x3df00432	0.1171955
58	0xbb97422e	-0.0046160435
59	0xbbbf1bad	-0.0058321566
60	0x3e3b9fb9	0.18322648
61	0xbbcc7a10	-0.006240137
62	0xbc6012fc	-0.013676401
63	0x3dad93bf	0.08475446

node_function_neighbor.6.weight f4 [4, 64]
0	0xbd4f540a	-0.050617255
1	0xbdf85459	-0.12125463
2	0x3ce0e049	0.027450697
3	0x3c48edea	0.012263754
4	0xbe066dea	-0.13127866
5	0xbcb8e766	-0.022571277
6	0xbd129e0d	-0.03579526
7	0xbd489ce3	-0.048977744
8	0xbdcb8ac3	-0.09938576
9	0x3cc9ad5b	0.024618795
10	0x3de6ca3c	0.11269042
11	0xbeac36dc	-0.33635604
12	0x3dbb2c8b	0.09139355
13	0x3d18eac1	0.037333254
14	0x3c95c808	0.018283859
15	0xbca7bc11	-0.02047542
16	0x3d2df5d6	0.042470776
17	0x3d68c272	0.056826063
18	0x39c4335e	0.00037422305
19	0x3d74c0e0	0.059754252
20	0xbdc641d1	-0.09680522
21	0xbd4ec01e	-0.050476186
22	0xbc32bd96	-0.010909459
23	0xbd1a807a	-0.03772018
24	0xbdf8d758	-0.121504486
25	0x3e08279b	0.13296358
26	0xbd897a5f	-0.067127936
27	0x3d91c3fe	0.07117461
28	0x3c42ceed	0.011890155
29	0x3bf690ea	0.0075245993
30	0x3dee56b1	0.11637629
31	0xbdb9ebda	-0.09078188
32	0x3b5fdc90	0.0034158565
33	0x3d738e3e	0.059461825
34	0x3d46648b	0.04843573
35	0x3df58705	0.119886436
36	0x3daaff36	0.08349459
37	0x3da2e574	0.07953921
38	0xbcdd8625	-0.027041504
39	0x3cd78aa0	0.026311219
40	0x3d84c85d	0.06483529
41	0xbddc620c	-0.107608885
42	0x3d6194a4	0.055073395
43	0x3d827bad	0.063712455
44	0x3d0c59a4	0.034265175
45	0x3d9a13ec	0.07523331
46	0x3e1c2688	0.15249074
47	0x3d3cb459	0.04607043
48	0x3c27f856	0.010252079
49	0xbd862ccb	-0.06551512
50	0x3d73f013	0.059555124
51	0x3dd266bd	0.10273502
52	0xbd1fc85c	-0.039009437
53	0x3c917435	0.017755607
54	0x3cf76616	0.030200046
55	0x3d0779cb	0.033075135
56	0xbdaa0afd	-0.08302877
57	0xbdc74d5c	-0.09731552
58	0x3da95736	0.08268587
59	0xbd794b5e	-0.06086289
60	0xbb9a2b9b	-0.004704905
61	0x3c1f35ac	0.009717386
62	0xbdaf7b23	-0.08568408
63	0xbcb7b412	-0.022424731
64	0x3d21a4d5	0.039463837
65	0x3d783a9d	0.060602773
66	0x3d6fc7b7	0.058540072
67	0xbe122c11	-0.14274622
68	0xbdca9cf4	-0.09893218
69	0x3d691507	0.05690482
70	0xbdab5fa6	-0.08367853
71	0xbddb4eda	-0.10708399
72	0xbda816e3	-0.0820749
73	0xbd760ba9	-0.060069714
74	0xbe04460d	-0.12917347
75	0xbf06f20a	-0.5271307
76	0xbd5e3627	-0.054250862
77	0x3d50b699	0.05095539
78	0xbde70db5	-0.11281911
79	0xbc3f4cec	-0.011676054
80	0x3df96802	0.12178041
81	0xbdaf6987	-0.085650496
82	0xbde311d5	-0.110873856
83	0x3c2bd565	0.010487889
84	0xbdafb13c	-0.08578727
85	0x3d9cf79e	0.07664417
86	0xbd6ce8d9	-0.05783925
87	0xbb98dbce	-0.0046648746
88	0x3d49df9f	0.049285527
89	0xba2ceddc	-0.0006596723
90	0xbdcd87a0	-0.10035634
91	0xbdc0586a	-0.09391864
92	0x3e0793d6	0.13239989
93	0xbd8410cc	-0.06448516
94	0xbdb055ed	-0.08610139
95	0x3d92f732	0.07176055
96	0x3d7eab98	0.062175363
97	0xbcf24437	-0.029573543
98	0xbceb0845	-0.028690467
99	0x3e3199a1	0.17343761
100	0x3da3bb60	0.07994723
101	0xbda38871	-0.079850085
102	0xbdab399b	-0.08360597
103	0x3d918ef0	0.07107341
104	0xbce13cd6	-0.02749483
105	0x3c4c7e43	0.012481275
106	0x3b8c07ed	0.0042734058
107	0x3d00a364	0.03140582
108	0x3d011c2d	0.03152101
109	0xbd3e2d21	-0.046429757
110	0x3d148d0f	0.036267336
111	0xbd41e6db	-0.0473393
112	0x3c93778b	0.018001338
113	0x3d9e3ad4	0.07726064
114	0x3d6b9ffb	0.057525616
115	0xbdb40b85	-0.0879126
116	0xbcdfe6d8	-0.027331755
117	0xbcb88eec	-0.022529088
118	0xbcba68f3	-0.022755122
119	0x3db45f7e	0.08807276
120	0x3c5e0f02	0.013553383
121	0xbb2508d0	-0.0025182255
122	0x3e5b66b9	0.21425904
123	0x3cc11888	0.023571268
124	0xbe080ff1	-0.13287331
125	0xbd850af0	-0.06496227
126	0xbdb769d4	-0.08955732
127	0x3a70441e	0.00091654237
128	0x3cc36cd9	0.023855614
129	0x3d9eab30	0.07747495
130	0xbde2a318	-0.11066264
131	0xbd91259a	-0.0708725
132	0xbd784ab6	-0.060618125
133	0xb96c8b43	-0.00022558593
134	0xbc542e22	-0.012950452
135	0x3cc2418d	0.023712898
136	0xbc92efa5	-0.017936537
137	0x3cfd414c	0.030914925
138	0xbd9ebaf9	-0.07750506
139	0xbe0fe07a	-0.14050475
140	0xbd91a076	-0.071106836
141	0xbd3166d2	-0.043310948
142	0xbdd9f1a3	-0.10641792
143	0xbd46d0d2	-0.04853899
144	0x3d3d5fbe	0.046233885
145	0xbd66794a	-0.056268014
146	0xbd9bd88a	-0.07609661
147	0xbd6a5c71	-0.057217065
148	0xbd84f92e	-0.0649284
149	0xbc62a08d	-0.013832224
150	0xbd648da2	-0.055799134
151	0xbe10be99	-0.14135207
152	0x3dc744c6	0.09729914
153	0xba25c6c5	-0.00063238695
154	0x3dba3d8d	0.09093771
155	0xbd917748	-0.07102829
156	0xbcd4b674	-0.025965907
157	0xbdd6bf2b	-0.10485681
158	0x3ce3392b	0.02773722
159	0xbc093ea8	-0.008376755
160	0xbdbcb75b	-0.0921466
161	0xbdf6f8e9	-0.120591946
162	0xbdacac7a	-0.08431335
163	0x3e7732e8	0.24140513
164	0x3cd40817	0.025882764
165	0xbcc2c655	-0.023776213
166	0x3d887591	0.06663049
167	0xbdf6c900	-0.120500565
168	0x3cfae0ba	0.030624736
169	0x3d9cc4b6	0.07654707
170	0x3d5a877f	0.053351875
171	0xbd06b7a7	-0.03288999
172	0xbd531d76	-0.051541768
173	0xbc8b3975	-0.016995171
174	0xbcf0b782	-0.029384378
175	0xbd090e99	-0.033461187
176	0x3c04f34c	0.008114647
177	0x3d9cc698	0.07655066
178	0xbdcf7084	-0.101288825
179	0xbdab647a	-0.08368774
180	0x3bbc898a	0.0057537006
181	0xbd6620c2	-0.056183584
182	0xbd4a7bb0	-0.049434364
183	0xbdd80a65	-0.105488576
184	0x3d8badb3	0.0682024
185	0xbc8b51ea	-0.017006833
186	0x3d888a61	0.06667019
187	0x3d2e6499	0.042576406
188	0xbdb1c360	-0.08679843
189	0x3da1ab3b	0.07893988
190	0xbdeec229	-0.11658127
191	0xbe0b585b	-0.13607924
192	0x3dbd8667	0.09254151
193	0xbdaa7127	-0.08322363
194	0xbcd8ba06	-0.02645589
195	0xbd060c5c	-0.03272663
196	0x3d183e3a	0.03716872
197	0xbd50e383	-0.050998222
198	0xbc45e6bd	-0.012078938
199	0xbc469218	-0.012119792
200	0x3d4586bd	0.0482242
201	0x3e06f898	0.13180768
202	0xbdda030e	-0.10645114
203	0x3e8007d2	0.25005966
204	0xbdb6ae50	-0.08919966
205	0x3b7b3a38	0.0038334262
206	0x3bf69a0c	0.007525688
207	0x3db157ef	0.0865935
208	0x3d957de4	0.07299402
209	0xbda925a9	-0.08259136
210	0x3da707ef	0.0815581
211	0x3da663b8	0.081244886
212	0xbe09cb05	-0.13456352
213	0x3d9b31db	0.075778686
214	0xbd65c73d	-0.05609821
215	0x3decec5a	0.11568518
216	0xbd628ae7	-0.05530825
217	0x3cebd3bc	0.028787486
218	0x3d5bcb9b	0.05366097
219	0xbca016bf	-0.019542096
220	0x3d2d9b8a	0.04238466
221	0x3dc68592	0.09693445
222	0x3e01b26f	0.12665723
223	0xbdcf8e8c	-0.101346105
224	0x3d06e235	0.03293057
225	0x3dd1ff7e	0.102538094
226	0x3d85c926	0.06532507
227	0x3cb76c4a	0.022390503
228	0xbdaf52fd	-0.08560751
229	0xbe1e5ca3	-0.15465026
230	0xbcc69af7	-0.024243815
231	0x3d8571b7	0.0651583
232	0x3da0e09d	0.078553416
233	0xbda1688a	-0.07881267
234	0x3c3e5bbf	0.011618554
235	0xbcb44a8c	-0.022008203
236	0x3d65691f	0.056008454
237	0x3e008804	0.12551886
238	0x3d03d8b9	0.032189105
239	0x3d49f1ca	0.049302854
240	0x3dbc308c	0.09188947
241	0xbde14aac	-0.11000571
242	0xbc85869f	-0.016299544
243	0x3dc1026c	0.0942429
244	0xbd3c9651	-0.04604179
245	0xbd825e16	-0.06365602
246	0xbb63c914	-0.0034757303
247	0x3db59cb4	0.088677794
248	0x3cfa571c	0.030559115
249	0xbd765888	-0.060143024
250	0x3d833db9	0.06408257
251	0x3c752ab9	0.014963799
252	0xbda0a13a	-0.078432515
253	0xbc9453a7	-0.018106295
254	0xbdce3bdf	-0.10070013
255	0xbd6c01e5	-0.057618994

node_function_neighbor.6.bias f4 [4]
0	0x3ca80d54	0.020514168
1	0xbe05cb84	-0.13065916
2	0xbce88176	-0.028382044
3	0x3dd44d54	0.10366312

edge_function.0.weight f4 [64, 4]
0	0xbe0b7fbf	-0.1362295
1	0xbdb2a45e	-0.08722757
2	0x3ea5ef87	0.32409307
3	0x3dffb3e4	0.12485483
4	0x3dc6a917	0.0970022
5	0xbed73df8	-0.42039466
6	0x3e4e4cf3	0.20146541
7	0xbcdace3c	-0.026709668
8	0xbdb3891d	-0.08766387
9	0x3ebf5583	0.37369928
10	0xbeecb1d3	-0.4622942
11	0xbd16b38b	-0.03679232
12	0x3e08deae	0.13366196
13	0xbd58a91a	-0.052895643
14	0xbe622761	-0.22085334
15	0x3e85c937	0.26130077
16	0xbe6a63c2	-0.22889617
17	0xbee53c55	-0.44772592
18	0xbc8493af	-0.016183702
19	0xbe384541	-0.17995168
20	0x3d146b19	0.03623495
21	0xbec4b72e	-0.38421005
22	0x3e266a87	0.16251574
23	0x3ea004b8	0.312536
24	0xbd6a14f1	-0.057148878
25	0x3e53cb1e	0.20682952
26	0xbdbec52d	-0.09314952
27	0x3e9b93c3	0.3038617
28	0x3ee8cdf9	0.45469645
29	0xbda2837a	-0.079352334
30	0xbe28db9a	-0.16490021
31	0xbe4e8896	-0.20169291
32	0x3e9d76b3	0.30754623
33	0x3eec8184	0.46192563
34	0x3ece22eb	0.40261015
35	0xbead5210	-0.3385167
36	0x3e8e2ba7	0.2776768
37	0xbdb2d509	-0.087320395
38	0x3d641e60	0.05569303
39	0xbe235ded	-0.15953799
40	0xbc897c66	-0.01678295
41	0x3dfb663d	0.1227536
42	0x3ee91490	0.455235
43	0x3da772cb	0.08176192
44	0x3dadd3a6	0.08487634
45	0x3eeb707b	0.45984253
46	0x3e8fd709	0.28093746
47	0xbe187e94	-0.14892036
48	0x3d22fb95	0.03979071
49	0x3d11c5c4	0.035588995
50	0xbef47621	-0.47746375
51	0x3e94590b	0.28974184
52	0xbe22c134	-0.15894014
53	0xbdc71b85	-0.09722046
54	0x3e236e34	0.15960008
55	0x3dd0704f	0.10177671
56	0xbe40e342	-0.18836692
57	0x3e469677	0.19393335
58	0x3e042880	0.12906075
59	0xbce4e38f	-0.02794054
60	0xbec1b905	-0.3783647
61	0xbe2c1cbe	-0.1680784
62	0xbec21b6e	-0.37911552
63	0xbe005dbd	-0.12535758
64	0xbebdb112	-0.37049156
65	0x3d0e85d5	0.0347956
66	0xbe0a4a7a	-0.13504973
67	0x3edd6fea	0.43249446
68	0x3dbb2d21	0.09139467
69	0xbebb2f13	-0.36559352
70	0x3ec15f98	0.37768245
71	0xbeb8cc94	-0.3609358
72	0xbe92fcc1	-0.2870846
73	0xbbfb7454	-0.0076737795
74	0x3d507d4c	0.050900742
75	0xbdc1b760	-0.09458804
76	0xbde6ae73	-0.11263742
77	0xbe4e644b	-0.20155446
78	0xbe90df42	-0.28295332
79	0xbeeb7c80	-0.45993423
80	0x3e932c5b	0.28744778
81	0xbe7348b2	-0.237582
82	0x3cfdee1d	0.03099733
83	0xbe12fbd9	-0.14353885
84	0x3ee36c03	0.44418344
85	0x3e26b0ed	0.1627843
86	0x3e91f31c	0.2850579
87	0x3ed60272	0.4179874
88	0xbd86775d	-0.065657355
89	0xbed09e8f	-0.4074597
90	0xbea4def1	-0.3220134
91	0x3ee5d7cd	0.44891205
92	0xbe2572d3	-0.16157083
93	0xbe8d1ad6	-0.27559537
94	0x3ec886ee	0.39165443
95	0xbeef8f68	-0.46789098
96	0x3eb423ce	0.35183567
97	0xbe8b87aa	-0.2725194
98	0xbebb8510	-0.36624956
99	0xbe1249b5	-0.1428593
100	0xbd3324eb	-0.04373638
101	0xbe108bce	-0.14115831
102	0xbdeaea8a	-0.11470516
103	0xbe2e1319	-0.16999473
104	0xbe2b5375	-0.16731055
105	0xbe2719e7	-0.16318475
106	0xbebe4dde	-0.37168783
107	0xbdf5d38b	-0.12003239
108	0xbeb19d70	-0.34690428
109	0x3eab0bd2	0.33407456
110	0xbe70633d	-0.23475356
111	0x3e9284ff	0.28617093
112	0xbed509b1	-0.41608956
113	0x3e8d3d05	0.27585617
114	0xbeb02c6e	-0.34408897
115	0x3ed0a654	0.40751898
116	0xbe2ff2ff	-0.1718254
117	0xbead581e	-0.3385629
118	0xbe6ef8df	-0.23337124
119	0x3eb55611	0.35417226
120	0x3ebc95eb	0.36833128
121	0x3ed98c96	0.4249007
122	0xbe777b7a	-0.24168196
123	0xbeff3522	-0.49845225
124	0xbe2ce4c7	-0.16884147
125	0xbe9f51d7	-0.31117126
126	0xbe8c23bc	-0.27371013
127	0xbecbca83	-0.39802942
128	0x3e04f175	0.12982734
129	0x3e181fa4	0.1485582
130	0x3e8adf3b	0.27123436
131	0x3ddf062f	0.10889851
132	0xbe12f0a9	-0.14349617
133	0x3e5239b1	0.2052982
134	0x3ea0bcac	0.31393945
135	0xbe87c455	-0.26516977
136	0xbe4e9a45	-0.20176037
137	0x3dacf40f	0.08444988
138	0x3eac5543	0.336588
139	0x3e56442c	0.20924443
140	0xbeced163	-0.40394124
141	0xbea76e82	-0.32701498
142	0xbacad818	-0.0015475778
143	0xbe224d63	-0.15849833
144	0xbc19fe55	-0.009399016
145	0x3cc3b870	0.023891658
146	0x3e507848	0.20358384
147	0x3e9a5c7b	0.30148682
148	0xbdd60f07	-0.10452085
149	0x3e232227	0.15930997
150	0x3eab7c46	0.3349325
151	0x3d7617ff	0.06008148
152	0x3eab26d4	0.3342806
153	0x3e27f498	0.16401899
154	0x3ee4d5ac	0.4469427
155	0xbeff8b8e	-0.4991116
156	0x3ee980a7	0.45605966
157	0x3e892933	0.26789245
158	0xbe924f0b	-0.2857593
159	0xbdd24cbf	-0.102685444
160	0xbe85a5eb	-0.26103148
161	0x3e0afe60	0.13573599
162	0x3da993d4	0.08280149
163	0xbed4f938	-0.4159639
164	0xbe92c3c3	-0.2866498
165	0xbddb39a4	-0.107043535
166	0xbe3451ff	-0.17609404
167	0xbeaf669a	-0.34257966
168	0x3e0257de	0.12728831
169	0xbe02a050	-0.12756467
170	0xbd2a2083	-0.04153491
171	0x3da17a0a	0.07884605
172	0x3cd1f692	0.02563027
173	0xbe08ec89	-0.13371481
174	0x3dd84c67	0.105614476
175	0xba8e0510	-0.0010835249
176	0x3e66fff1	0.22558571
177	0x3da7e615	0.081981815
178	0xbeb7f657	-0.3593013
179	0xbe6d35ce	-0.23165056
180	0x3ed573d3	0.4168993
181	0xbd983368	-0.0743168
182	0x3eaf6fea	0.3426507
183	0xbee35e1e	-0.44407743
184	0x3de9445d	0.113899924
185	0x3e8b9be7	0.27267382
186	0xbe098e0c	-0.13433093
187	0xbd4b986d	-0.04970591
188	0xbbd53c22	-0.0065074125
189	0x3ee5610f	0.44800612
190	0x3e8a72dc	0.27040756
191	0xbec9ed94	-0.3943907
192	0x3e938dea	0.2881921
193	0xbece2e81	-0.40269855
194	0x3d24e981	0.04026175
195	0xbeaa4300	-0.33254242
196	0x3dce1901	0.10063363
197	0xbe1ea881	-0.15493967
198	0x3e0ea058	0.13928354
199	0x3d2f42e2	0.042788394
200	0x3ec7e388	0.3904078
201	0xbee46462	-0.44607836
202	0x3c99de4b	0.018782755
203	0xbe95d378	-0.292629
204	0xbeb7b52d	-0.35880414
205	0xbdd4eae8	-0.10396367
206	0x3d1932ea	0.03740207
207	0xbec5fe37	-0.38670513
208	0x3d8152d9	0.0631463
209	0xbe843fe4	-0.25829995
210	0x3e8412a4	0.25795472
211	0xbe9b8c8c	-0.30380666
212	0x3d61dd95	0.055142958
213	0x3e3d692e	0.18497154
214	0x3eba8c85	0.36435333
215	0xbdae5fb3	-0.08514347
216	0xbe7dc5b0	-0.24782443
217	0xbe45e509	-0.19325651
218	0x3ebaf01f	0.36511323
219	0xbec3f785	-0.3827478
220	0xbe06a919	-0.13150443
221	0xbf059332	-0.5217773
222	0xbefe8a58	-0.49714923
223	0x3ebdcaa2	0.3706866
224	0xbe2c23d5	-0.16810544
225	0xbdbde8a6	-0.0927289
226	0xbedd1bf5	-0.43185392
227	0xbdcf1f8d	-0.1011344
228	0xbec5b010	-0.38610888
229	0xbdf3f891	-0.11912645
230	0xbe7a1d38	-0.24425209
231	0xbd132fcb	-0.03593425
232	0x3ec6f09f	0.38855454
233	0xbe453b83	-0.19260983
234	0x3cf32cd4	0.029684462
235	0x3cc61b88	0.02418305
236	0x3e9d0de3	0.30674657
237	0xbed65a67	-0.41865847
238	0x3e61b532	0.22041777
239	0x3e5f8b33	0.21830444
240	0xbea8a4a5	-0.32938114
241	0xbeec9aea	-0.4621194
242	0xbe9206c6	-0.28520793
243	0x3c9002c1	0.017579438
244	0x3e7116d6	0.23543867
245	0xbe070cff	-0.13188551
246	0x3e61b7ee	0.2204282
247	0xbe072b40	-0.13200092
248	0xbeedebba	-0.46468908
249	0xbe6243aa	-0.22096124
250	0xbe0f021e	-0.13965651
251	0x3e8be42e	0.27322525
252	0x3ea5966f	0.32341334
253	0x3e793345	0.24335964
254	0x3ec74353	0.38918552
255	0x3eb035ef	0.34416148

edge_function.0.bias f4 [64]
0	0x3e08243a	0.1329507
1	0x3e173d4b	0.14769475
2	0xbe75da6f	-0.24009107
3	0x3e8ccbd8	0.2749927
4	0xbedf9c4c	-0.43673933
5	0x3e5b5b2f	0.21421503
6	0xbea5aa91	-0.32356694
7	0x3e9366f7	0.28789493
8	0x3d9320be	0.071839795
9	0x3e4d30a8	0.20038092
10	0xbe8d6293	-0.2761427
11	0x3dc3f363	0.09567907
12	0xbe596021	-0.21228077
13	0x3ec8b073	0.3919712
14	0xbd92a2b6	-0.07159941
15	0x3e7d622f	0.24744485
16	0xbe4d9d9b	-0.20079653
17	0xbe75b5c5	-0.23995121
18	0xbe0a03e5	-0.13478048
19	0xbde6a9f1	-0.112628825
20	0x3e83e7c2	0.25762755
21	0xbe0829c9	-0.1329719
22	0xbed79084	-0.42102444
23	0xbde27494	-0.11057392
24	0x3ede8e65	0.43468013
25	0x3e20ca3f	0.15702151
26	0x3ea18ed1	0.31554273
27	0x3e2db656	0.16964087
28	0xbeecc193	-0.46241435
29	0xbeee7fce	-0.46581882
30	0x3edd2690	0.43193483
31	0xbe43a823	-0.19107108
32	0x3eaf4c25	0.3423778
33	0xbead4b1a	-0.3384636
34	0x3f01c2f4	0.506881
35	0x3e62d4fc	0.2215156
36	0xbd97aebb	-0.07406374
37	0xbeedffee	-0.4648432
38	0x3b90381e	0.004401221
39	0xbef87a41	-0.48530772
40	0x3dc03887	0.09385782
41	0xbe31b25f	-0.173532
42	0x3cbda7c3	0.023151284
43	0xbeeaa949	-0.4583228
44	0xbddb188d	-0.10698042
45	0x3c96298a	0.018330354
46	0xbeb39da5	-0.3508121
47	0x3e57d83f	0.21078585
48	0xbea16e9d	-0.31529704
49	0x3e922d17	0.28550026
50	0x3e81b244	0.25331318
51	0xbe1a02a2	-0.15040067
52	0x3b23db1e	0.002500243
53	0xbed83541	-0.4222813
54	0xbe07eb58	-0.1327337
55	0xbe94744f	-0.28994986
56	0x3e81e522	0.25370127
57	0x3cd03501	0.0254159
58	0x3cfc28fd	0.030781263
59	0x3ea37c10	0.3193059
60	0xbebb77f5	-0.36614957
61	0xbc1376f9	-0.009000533
62	0xbe452ab9	-0.19254579
63	0xbdc33130	-0.09530866

edge_function.2.weight f4 [64, 64]
0	0x3dbed924	0.0931876
1	0x3dc1c9de	0.09462331
2	0xbcad3ebf	-0.021148084
3	0x3cdae81a	0.026722003
4	0xbdd313b1	-0.1030649
5	0x3df0b21e	0.11752723
6	0x3d9d0a02	0.076679245
7	0x3d3644e3	0.04449929
8	0x3d88f17f	0.06686687
9	0xbdbf10e9	-0.09329397
10	0x3d9f9781	0.07792569
11	0x3cd9b665	0.02657623
12	0x3d5aefe7	0.053451445
13	0xbd4d143f	-0.050068136
14	0x3dc40e3e	0.09573029
15	0x3d5f1e54	0.054472283
16	0x3d4c81fb	0.049928647
17	0x3cbef6ad	0.023310984
18	0xbde55596	-0.11197965
19	0xbd3f271e	-0.046668164
20	0xbd21a91c	-0.039467916
21	0x3dc520a7	0.096253686
22	0x3c85a7b4	0.016315319
23	0xbe122146	-0.14270505
24	0x3b21fec2	0.0024718498
25	0x3d5c804b	0.053833287
26	0x3d9fe828	0.07807952
27	0x3df1546e	0.11783682
28	0x3db88049	0.090088435
29	0xbcf1c8ca	-0.029514689
30	0x3dbf82bd	0.09351108
31	0x3dc43418	0.095802486
32	0x3c101287	0.00879348
33	0x3ce61478	0.028085932
34	0xbc9f5a5e	-0.01945227
35	0x3c66f286	0.014095908
36	0xbbe93232	-0.0071165795
37	0x3cb3df74	0.021957137
38	0x3dc8de7a	0.09808059
39	0x3bedf323	0.00726165
40	0xbe0d94d9	-0.13826312
41	0xbd3ac472	-0.0455975
42	0x3d3ed4c6	0.046589635
43	0x3da5b899	0.0809185
44	0x3c9db43b	0.01925098
45	0xbdc2bee0	-0.09509063
46	0x3c35068c	0.011048924
47	0x3ca01007	0.019538892
48	0x3d744b8f	0.05964237
49	0x3c02c827	0.00798229
50	0x3b6f20fa	0.0036488161
51	0xbe17535e	-0.14777896
52	0x3da00b8e	0.07814704
53	0xbd99355a	-0.07480879
54	0xbca644e2	-0.020296518
55	0x3dae0837	0.084976606
56	0x3d1038b8	0.03521034
57	0x3d9c370b	0.07627686
58	0x3dd7fb67	0.10545998
59	0xbd49a22e	-0.049226932
60	0xbd911c33	-0.07085457
61	0x3bc7d2c6	0.006098124
62	0x3d82b1d8	0.06381577
63	0x3de4c76d	0.1117085
64	0xbd291b4a	-0.04128579
65	0x3cd58a0a	0.026066799
66	0x3d9ba741	0.076002605
67	0xbcbdf2b3	-0.023187017
68	0xbd573cdf	-0.052548286
69	0xbdd6f571	-0.10496033
70	0xbe039d96	-0.12853083
71	0xbdfbbde5	-0.12292079
72	0xbe0ae946	-0.13565549
73	0xbdb74265	-0.089482106
74	0x3d1ef389	0.038806472
75	0xbe3d9750	-0.18514752
76	0x3d3f1c88	0.04665807
77	0x3d0422ab	0.032259624
78	0xbe1c30ba	-0.15252963
79	0x3d9d3400	0.07675934
80	0xbdb10ff6	-0.086456224
81	0xbbd8933c	-0.0066093486
82	0xbd6b7f28	-0.057494313
83	0x3cf27537	0.029596908
84	0x3d9e17e0	0.077193975
85	0xbc8d34ab	-0.017237028
86	0x3b914341	0.004433066
87	0xbda3a6db	-0.079908095
88	0x3db3d0f7	0.08780091
89	0xbbcc9158	-0.0062429123
90	0x3df257af	0.118331306
91	0x3da38591	0.0798446
92	0xbd81d30a	-0.06339081
93	0xbd9fe9c0	-0.07808256
94	0xbe2a8dc0	-0.16655636
95	0x3d83f056	0.06442325
96	0xbe06c3be	-0.13160607
97	0xbe0f8a31	-0.1401756
98	0xbdfb9e14	-0.122860104
99	0xbdc80e91	-0.09768403
100	0xbdd3c1bf	-0.103396885
101	0xbde0f53a	-0.10984273
102	0xbd19c32d	-0.03753965
103	0x3c3ccddb	0.011523689
104	0xbced04a5	-0.028932879
105	0x3d99a38b	0.075018965
106	0x3cc4047d	0.023927921
107	0xbe7cf95a	-0.24704495
108	0x3d87315c	0.066012114
109	0x3d5f770c	0.05455689
110	0xbdd4b227	-0.10385542
111	0x3c29cb8c	0.010363471
112	0x3d768586	0.06018593
113	0xbd824be0	-0.06362128
114	0x3d6f39da	0.05840478
115	0x3cae7297	0.021294875
116	0x3cccfe9b	0.02502375
117	0xbdda8b8c	-0.10671148
118	0xbd28e028	-0.041229397
119	0x3de1d300	0.11026573
120	0xbd88514d	-0.06656132
121	0x3cfa573e	0.030559178
122	0x3da76eff	0.08175468
123	0x3da4e65b	0.08051749
124	0xbd1685d7	-0.036748733
125	0xbe296702	-0.165432
126	0x3d8298dd	0.063768126
127	0xbc87fc42	-0.016599778
128	0xbc07cfc0	-0.008289278
129	0xbda634e0	-0.08115554
130	0x3d943a60	0.07237697
131	0x3daf5322	0.08560778
132	0xbdcb3674	-0.099224955
133	0x3d33cc54	0.043896034
134	0x3c911350	0.017709404
135	0xbda97c43	-0.08275654
136	0xbd8b165a	-0.067913726
137	0xbca250c9	-0.019813912
138	0xbd0134f4	-0.03154464
139	0xbd84df76	-0.06487934
140	0xbdbfc5e1	-0.09363914
141	0xbd80cab2	-0.06288661
142	0xbd68ce44	-0.056837335
143	0xbe1d7ab3	-0.15378837
144	0x3d8222c2	0.06354286
145	0xbdddfce0	-0.10839248
146	0xbcb43648	-0.02199854
147	0x3ce173d0	0.027521044
148	0x3cbfc9b5	0.023411611
149	0xbd949919	-0.072557636
150	0xbd3d1d4e	-0.046170525
151	0xbd8a97fc	-0.0676727
152	0xbd8de8ba	-0.06929155
153	0x3dabb8b5	0.083848394
154	0xbc7a94b3	-0.015294242
155	0xbdd8ac03	-0.10579684
156	0xbdf6d302	-0.12051965
157	0xbdd2dae8	-0.10295659
158	0xbe1816d4	-0.14852458
159	0x3c9d55a0	0.019205868
160	0xbd55bb18	-0.05218038
161	0x3be8c4e0	0.0071035475
162	0xbd9c72ba	-0.0763907
163	0x3db5552c	0.08854136
164	0x3df33f2a	0.11877282
165	0xbd42d3e4	-0.047565356
166	0xbd686678	-0.056738347
167	0xbe090f04	-0.13384634
168	0x3d36b670	0.04460758
169	0x3c1dea20	0.009638339
170	0xbe116482	-0.14198497
171	0x3c39e3f0	0.011345848
172	0xbe06e500	-0.13173294
173	0x3d28e8e4	0.041237727
174	0x3d521140	0.051285982
175	0x3d9c4d74	0.076319605
176	0xbdd1374e	-0.10215627
177	0x3db38d07	0.08767133
178	0xbd1d7e35	-0.03845044
179	0xbd577050	-0.052597344
180	0xbdaebdd4	-0.085323006
181	0x3ddc9d8e	0.10772239
182	0x3db289fe	0.08717726
183	0xbd48a8e0	-0.048989177
184	0xbdd08a77	-0.1018266
185	0xbd82adea	-0.06380828
186	0xbdb7be52	-0.089718476
187	0x3d5224fc	0.051304802
188	0x3d4fc06c	0.050720617
189	0x3dbaaa36	0.091144964
190	0xbdd09e8e	-0.10186492
191	0xbc288748	-0.01028616
192	0xbba6981b	-0.0050840504
193	0xbe22aadd	-0.15885492
194	0x3d8bccf7	0.06826203
195	0x3dcbd448	0.09952599
196	0xbe1e64b0	-0.15468097
197	0x3ce8a2c2	0.028397921
198	0x3c807f55	0.015685717
199	0x3da3bb75	0.07994739
200	0x3d260b78	0.04053828
201	0xbc845d5b	-0.016157797
202	0xbc35893b	-0.011080082
203	0x3d201b33	0.03908844
204	0x3cff5c23	0.031171864
205	0xbe035666	-0.12825927
206	0x3cc94f2a	0.024573881
207	0xbd2cd544	-0.042195573
208	0x3bc7d98a	0.0060989307
209	0xbdc7cf25	-0.097563066
210	0xbc8d8d84	-0.017279394
211	0xbd2cbd60	-0.04217279
212	0xbda8228b	-0.082097135
213	0x3da89bb0	0.0823282
214	0x3e00bb35	0.12571414
215	0xbdeef03b	-0.11666914
216	0xbd8cd080	-0.06875706
217	0xbe30e52a	-0.17274919
218	0xbda349f3	-0.07973089
219	0xbd823927	-0.06358557
220	0xbdacdced	-0.08440576
221	0x3d7b290d	0.061318446
222	0xbd94cd47	-0.07265716
223	0x3cebbcbc	0.028776519
224	0x3d8e2d01	0.069421776
225	0x3d6d7f2a	0.0579826
226	0x3df0f7b4	0.117659956
227	0x3ca01482	0.019541029
228	0x3ddb29bf	0.10701322
229	0xbb4e4a89	-0.0031477532
230	0x3d031de3	0.032010924
231	0x3d794bb8	0.060863227
232	0xbdcf64dc	-0.10126659
233	0xbb301966	-0.0026870607
234	0x3d017c1d	0.031612504
235	0x3d41ba64	0.047296897
236	0xbb83cbbf	-0.004022091
237	0xbe0b4f7c	-0.1360454
238	0x3d1f9ab9	0.038965914
239	0xbd0a35b2	-0.033742614
240	0xbd2d48fd	-0.042305935
241	0x3dae6167	0.08514672
242	0x3d1aeb05	0.03782179
243	0xbd4866a9	-0.04892603
244	0x3ccab56a	0.024744708
245	0xbdc03b92	-0.09386362
246	0x3da8d448	0.082436144
247	0xbdacb2c9	-0.08432538
248	0xbd99a02d	-0.07501254
249	0xbdbea330	-0.09308469
250	0x3d048620	0.032354474
251	0xbd547037	-0.05186483
252	0xbdf3bcf1	-0.11901272
253	0x3d9cd395	0.076575436
254	0xbdd026f1	-0.101636775
255	0x3d8bff42	0.06835796

edge_function.2.bias f4 [64]
0	0xbd64e44a	-0.055881776
1	0x3d6e8c36	0.058239184
2	0x3da15697	0.07877844
3	0xbd48099c	-0.04883729
4	0x3db80664	0.08985594
5	0xbdb6bf75	-0.08923236
6	0xbc9932f9	-0.018701063
7	0x3dd6c3d0	0.10486567
8	0x3d9af174	0.07565585
9	0x3c9d84d8	0.019228384
10	0x3dbb4ca6	0.09145479
11	0x3d65989c	0.056053743
12	0xbdcd72e0	-0.10031676
13	0xbe1990c9	-0.14996637
14	0xbd8bca50	-0.068256974
15	0x3c9763a7	0.018480135
16	0xbcd3a40a	-0.025835056
17	0xbda4491f	-0.08021759
18	0xbd65c2f7	-0.056094136
19	0x3dbae3f8	0.09125513
20	0xbc90b484	-0.017664202
21	0x3d174b60	0.036937118
22	0x3e1792e1	0.14802124
23	0xbd83c7e9	-0.06434614
24	0xbdc440f6	-0.09582703
25	0xbe298a8d	-0.16556759
26	0x3bd6547f	0.0065408344
27	0xb7c19e45	-2.3081093e-05
28	0x3aeb5c2a	0.0017956544
29	0x3dae53c5	0.085120715
30	0x3dbf2880	0.09333897
31	0xbdfac78d	-0.122450925
32	0xbcca0a00	-0.024662971
33	0xbce8a692	-0.02839974
34	0x3c7abbb2	0.015303539
35	0x3d640591	0.05566937
36	0xbd60359b	-0.054738622
37	0xbc316181	-0.010826469
38	0xbd66780b	-0.056266826
39	0xbd316724	-0.043311253
40	0xbc0e3f03	-0.008682015
41	0x3df693d3	0.12039914
42	0xbd9238f6	-0.07139771
43	0xbde09034	-0.109650046
44	0x3cbdcc43	0.023168689
45	0xbe195428	-0.1497351
46	0x3da4ba57	0.08043354
47	0xbda30fb2	-0.07961978
48	0x3c720e39	0.014773899
49	0xbda83967	-0.08214074
50	0xbc918e29	-0.017767983
51	0x3d92e875	0.07173244
52	0xbdfbd4c7	-0.122964434
53	0x3c26e615	0.010186692
54	0xbda0f455	-0.07859103
55	0x3de1fd82	0.11034681
56	0x3d0af34d	0.033923436
57	0xbd0fa858	-0.035072654
58	0xbdcb42a1	-0.09924818
59	0x3d78b8c1	0.06072307
60	0x3dd72a1c	0.105060786
61	0xbc2456b5	-0.010030438
62	0x3d91687c	0.07100007
63	0xbdb4262d	-0.08796344
