Projects/GuoxiangGrayson_T_A study of multi-fidelity graph neural networks/Model_save/Quarter2D/Rank=165-GNN-nB-64-Lr-0.005/model.pth (torch, 114781 bytes, 24 tensors)

node_function_neighbor.0.weight f4 [64, 2]
0.12421221 -0.10910499 0.6752898 -0.51206005 -0.62827724 0.46800742 0.11209388 0.52475554
0.4352814 0.6678178 -0.17103636 0.43279314 -0.28321147 0.50167215 -0.46575752 -0.020587422
0.33563957 0.060125887 0.18170807 -0.6434837 0.21132015 -0.0893991 0.1229624 -0.43506032
-0.6779779 0.6611141 0.1810391 -0.08149889 0.28489235 0.6263152 -0.32141966 0.0467752
-0.113378145 0.29582343 -0.5109486 0.017698426 -0.37876534 -0.58504534 -0.5733563 0.52079827
0.48387334 -0.5435006 -0.134911 0.40462717 0.27367064 0.33817112 0.055347092 0.09960464
0.19799069 0.44712344 -0.44371733 0.44143635 -0.3612952 0.11088434 -0.4068097 -0.3877229
0.28091106 0.5159154 -0.4423827 0.61453515 -0.5236061 -0.15010276 0.04313748 -0.2436575
-0.03430856 -0.1507781 0.5100336 0.04484281 0.38480172 -0.6213103 -0.23958349 0.24570456
0.050783113 0.19121893 0.5719623 -0.49675205 0.59671307 -0.15663972 -0.22829323 0.42838484
-0.050635744 -0.31844094 -0.26020563 -0.6031665 -0.24667636 0.3794379 -0.54350436 0.4455229
0.01546207 -0.54685646 -0.25780186 -0.2531558 0.04137057 -0.49519032 0.48089164 -0.6517061
-0.05094806 0.29644126 0.24105759 -0.41405958 0.30893356 0.10299938 0.32963312 -0.10871185
0.34367323 0.23543547 0.67822146 0.4509801 -0.10244048 0.2937337 0.09673589 0.3122952
-0.32126048 -0.11200473 0.597019 -0.08060851 -0.4610209 0.39069927 -0.55853605 -0.10359747
-0.040747892 0.52084696 0.633248 -0.503628 0.096538775 0.30631766 -0.026726643 -0.20769028
00000000: f962 fe3d 7072 dfbd cbdf 2c3f 5e16 03bf
00000010: c7d6 20bf ab9e ef3e 7a91 e53d 6156 063f
00000020: 34dd de3e 1bf6 2a3f 2824 2fbe 1097 dd3e
00000030: 1801 91be 966d 003f c577 eebe f4a6 a8bc
00000040: f3d8 ab3e 9046 763d ae11 3a3e 59bb 24bf
00000050: 4f64 583e e016 b7bd b6d3 fb3d 3ac0 debe
00000060: f68f 2dbf c63e 293f 5062 393e e4e8 a6bd
00000070: 69dd 913e 3156 203f 1e91 a4be 5a97 3f3d
00000080: cd32 e8bd 2b76 973e 87cd 02bf 4afc 903c
00000090: 88ed c1be 88c5 15bf 7ac7 12bf 0953 053f
000000a0: 3fbe f73e db22 0bbf 1c26 0abe 4b2b cf3e
000000b0: 8f1e 8c3e c424 ad3e a2b3 623d 84fd cb3d
000000c0: 12be 4a3e 5ded e43e eb2e e3be f203 e23e
000000d0: affb b8be 5417 e33d 5c49 d0be 9e83 c6be
000000e0: 93d3 8f3e 0813 043f fc7f e2be 2d52 1d3f
000000f0: 0d0b 06bf 8ab4 19be edb0 303d 5a81 79be
00000100: 2287 0cbd 9365 1abe 9091 023f 18ad 373d
00000110: bb04 c53e 310e 1fbf 6055 75be fa99 7b3e
00000120: f401 503d e5ce 433e 1f6c 123f 4956 febe
00000130: 30c2 183f 2a66 20be b3c5 69be 4255 db3e
00000140: 6d67 4fbd b10a a3be ac39 85be 1f69 1abf
00000150: ba98 7cbe af45 c23e 1a23 0bbf 941b e43e
00000160: 9f54 7d3c c9fe 0bbf 9bfe 83be a39d 81be
00000170: 3074 293d 9689 fdbe 6e37 f63e 36d6 26bf
00000180: eaae 50bd 26c7 973e cdd7 763e 9eff d3be
00000190: 8a2c 9e3e 57f1 d23d acc5 a83e 52a4 debd
000001a0: f0f5 af3e ff15 713e ec9f 2d3f dde6 e63e
000001b0: 50cc d1bd 4364 963e 771d c63d 28e5 9f3e
000001c0: 417c a4be bc62 e5bd 3dd6 183f 1316 a5bd
000001d0: ee0a ecbe bc09 c83e 38fc 0ebf e92a d4bd
000001e0: 43e7 26bd 3a56 053f 8a1c 223f c4ed 00bf
000001f0: 1fb6 c53d abd5 9c3e d5f1 dabc c3ac 54be

node_function_neighbor.0.bias f4 [64]
0.7047657 0.3513743 0.5555648 -0.27434617 -0.62076193 -0.5032554 -0.7218519 0.014049262
0.10109491 0.62718064 -0.048356794 0.15293095 0.33796105 0.5444851 0.10430981 0.64914405
-0.71685845 0.35343546 -0.6454393 0.3712622 -0.23071727 0.44476166 -0.37205842 0.70250946
-0.43731314 -0.010282982 0.38520858 0.6156518 0.08580603 0.710042 0.63081896 -0.4094453
0.36462918 -0.24386917 0.09648969 0.018444236 -0.13387299 -0.20445225 -0.12978572 -0.504879
-0.21878842 -0.32445264 0.44095325 0.032818917 -0.7148194 0.6090931 0.52125496 -0.06192519
0.15415822 0.17077583 -0.016247017 -0.6251625 0.3180949 -0.075023144 -0.60297316 -0.5270622
-0.13720135 -0.2378584 0.033269465 0.25847852 -0.062549286 -0.45330533 0.16974927 -0.7206428
00000000: 866b 343f 55e7 b33e 7f39 0e3f 1a77 8cbe
00000010: 41ea 1ebf 59d5 00bf 49cb 38bf e02e 663c
00000020: d90a cf3d e98e 203f c611 46bd ee99 1c3e
00000030: 3b09 ad3e 6063 0b3f 62a0 d53d 4e2e 263f
00000040: 0984 37bf 7ef5 b43e 833b 25bf 1416 be3e
00000050: 2641 6cbe cdb7 e33e 717e bebe a9d7 333f
00000060: 82e7 dfbe f479 28bc 0f3a c53e 5b9b 1d3f
00000070: 12bb af3d 50c5 353f 5a7d 213f d0a2 d1be
00000080: adb0 ba3e d7b8 79be 639c c53d 5e18 973c
00000090: 0016 09be ee5b 51be 8ce6 04be c03f 01bf
000000a0: 120a 60be a81e a6be a0c4 e13e 216d 063d
000000b0: 67fe 36bf 87ed 1b3f f770 053f 45a5 7dbd
000000c0: a7db 1d3e dcdf 2e3e 7718 85bc a60a 20bf
000000d0: 56dd a23e bca5 99bd 735c 1abf 8ced 06bf
000000e0: 837e 0cbe 2791 73be 9045 083d 4c57 843e
000000f0: d719 80bd a317 e8be c1d2 2d3e 0c7c 38bf

node_function_neighbor.2.weight f4 [64, 64]
-0.16576216 -0.023584643 -0.0740714 -0.11467953 -0.13940918 0.032747336 -0.15443185 0.09328786
0.046460375 -0.14822276 -0.059466172 -0.016003443 0.056273054 -0.34833977 0.10317992 0.12210666
-0.09072991 -0.11312598 0.024270948 0.11342962 -0.0063402844 0.0017139645 -0.016647954 0.056166034
-0.14912269 0.07089016 0.100975394 0.046157908 -0.05527464 0.07825914 0.015921721 -0.17896272
-0.015749048 -0.0060854815 0.017360754 -0.018598232 -0.030848851 0.05373189 0.018587092 0.074246466
-0.09666334 0.07932436 -0.068543315 0.14304931 -0.13466674 -0.066109434 -0.20092654 -0.10167238
-0.10071446 -0.16432883 0.09661452 -0.1379817 0.07190103 -0.011254658 -0.25787398 -0.13161837
-0.10317906 -0.08191438 0.095812604 0.01054572 0.074463226 -0.10098947 -0.104403034 -0.00047435286
0.061887987 0.105130464 -0.10699426 0.04135554 -0.044599127 0.004932959 -0.06986736 0.089245416
0.029611442 0.11055152 0.11737804 -0.0021335678 -0.02839824 -0.022334283 0.057421308 -0.13286173
-0.041546468 0.065282516 0.038118016 0.040392507 0.08278423 0.10081647 0.1107728 0.05289708
0.07816647 -0.03161707 -0.021562323 -0.041460015 0.087396875 -0.037527964 -0.122112766 -0.031040186
-0.027276179 0.05904643 0.11762901 0.05503731 0.066889346 -0.018947497 -0.017593976 -0.056477312
0.03431081 0.08243597 -0.10992756 -0.098449714 0.009049647 0.033582002 0.07984471 -0.03784522
-0.065684915 0.11637913 0.08453769 -0.043447975 0.07489503 -0.09778269 0.091990806 -0.0711854
-0.050542943 -0.06535152 -0.04308774 -0.08509367 -0.06432071 0.035890006 0.025386117 0.10249062
0.16750471 0.09756909 0.09981078 -0.023019508 0.10689809 -0.011698075 0.06929777 -0.00033539525
0.09943088 0.05230137 0.0072075785 0.016105928 -0.043223154 0.07817211 -0.047122512 0.03647037
-0.16333328 -0.038171858 -0.016179446 0.124401316 0.06989808 -0.020069094 -0.10133848 -0.032766066
-0.054987267 0.042696435 0.013232526 0.042923857 -0.08466764 0.063019894 0.07093114 -0.24506252
0.048639543 0.050168596 0.089367375 -0.03718278 -0.054419078 -0.09959015 -0.016590498 0.055495087
-0.021885887 -0.11502156 -0.021183925 0.071435586 -0.17774999 0.048646815 0.003249135 0.03845473
0.0989487 -0.12690654 0.014563001 -0.021782517 0.11449291 0.13893566 0.016772376 0.067931674
-0.036458395 0.038699087 0.077485465 -0.08146407 -0.023513112 0.10958656 0.013533908 0.0184841
-0.063259736 0.039196037 0.036431577 0.087018274 0.09490583 0.025985068 -0.13276544 0.04671611
0.13917497 -0.012730926 -0.029564137 -0.08144935 -0.111886516 0.044904236 0.06498904 -0.10150404
0.08511825 -0.09772938 -0.0957144 -0.052644446 -0.0883934 0.060224667 -0.106413685 0.03689271
0.049389508 0.07344533 0.040617544 0.020144919 -0.0022414268 -0.07914171 0.044304155 0.045143083
-0.045491505 0.11440631 -0.050882917 -0.14624935 -0.10180457 0.026988812 -0.035163738 0.0002781483
0.009123901 -0.078507826 -0.023242561 -0.07777833 -0.033648685 -0.0195829 0.11724988 0.105232075
-0.012609424 0.04142705 0.100699656 -0.009331661 -0.08635693 -0.0061250846 0.051802825 -0.05230877
-0.06804742 0.122129634 -0.040607873 -0.09760051 0.008482756 0.13603555 0.12141319 -0.09886869
00000000: 8ebd 29be 9534 c1bc bfb2 97bd 1add eabd
00000010: 48c1 0ebe 1222 063d 6223 1ebe b50d bf3d
00000020: 3c4d 3e3d b5c7 17be cd92 73bd a719 83bc
00000030: 937e 663d 9759 b2be fe4f d33d 0e13 fa3d
00000040: 9ad0 b9bd 98ae e7bd ded3 c63c ca4d e83d
00000050: 29c2 cfbb 1ba7 e03a 4a61 88bc 5b0e 663d
00000060: 9eb3 18be dc2e 913d 30cc ce3d 1310 3d3d
00000070: a967 62bd 5446 a03d 456e 823c 0142 37be
00000080: 2604 81bc b868 c7bb 2438 8e3c 525b 98bc
00000090: bbb6 fcbc f815 5c3d f543 983c 880e 983d
000000a0: 6ef7 c5bd cf74 a23d 7060 8cbd 857b 123e
000000b0: 14e6 09be 6264 87bd b0bf 4dbe 9c39 d0bd
000000c0: 6243 cebd d145 28be d5dd c53d 134b 0dbe
000000d0: d940 933d 7565 38bc 0f08 84be f7c6 06be
000000e0: 8b4f d3bd bac2 a7bd 6639 c43d f5c7 2c3c
000000f0: 2d80 983d 91d3 cebd 42d1 d5bd 90b2 f8b9
00000100: 427e 7d3d a44e d73d ce1f dbbd 6d64 293d
00000110: 93ad 36bd a9a4 a13b 9e16 8fbd 4dc6 b63d
00000120: b293 f23c d668 e23d e663 f03d 54d3 0bbb
00000130: 6da3 e8bc 63f6 b6bc 9b32 6b3d e80c 08be
00000140: a12c 2abd d7b2 853d a321 1c3d 9d72 253d
00000150: c78a a93d de78 ce3d dadc e23d 9caa 583d
00000160: be15 a03d e780 01bd 78a3 b0bc fad1 29bd
00000170: 22fd b23d ecb6 19bd 4216 fabd fd47 febc
00000180: 4b72 dfbc abda 713d 7ae7 f03d cd6e 613d
00000190: 48fd 883d c837 9bbc 3e21 90bc c154 67bd
000001a0: 7e89 0c3d 31d4 a83d b321 e1bd 01a0 c9bd
000001b0: f844 143c 488d 093d a085 a33d 9703 1bbd
000001c0: d085 86bd 2e58 ee3d 1922 ad3d 81f6 31bd
000001d0: 9162 993d 4a42 c8bd ad65 bc3d a7c9 91bd
000001e0: 1e06 4fbd 05d7 85bd c57c 30bd 9745 aebd
000001f0: 94ba 83bd 6601 133d 8cf6 cf3c 9ae6 d13d
00000200: 5b86 2b3e 4ed2 c73d 9869 cc3d 6893 bcbc
00000210: 63ed da3d 48a9 3fbc fdeb 8d3d fdd7 afb9
00000220: 6ba2 cb3d f639 563d 8d2d ec3b 94f0 833c
00000230: c30a 31bd b318 a03d 8903 41bd f461 153d
00000240: d740 27be 185a 1cbd c28a 84bc 1ec6 fe3d
00000250: b926 8f3d f167 a4bc 8d8a cfbd b635 06bd
00000260: 543a 61bd 75e2 2e3d 3dcd 583c edd0 2f3d
00000270: 3a66 adbd 9310 813d 5844 913d abf1 7abe
00000280: 423a 473d 967d 4d3d 3e06 b73d f94c 18bd
00000290: 8ae6 5ebd ecf5 cbbd cce8 87bc d14e 633d
000002a0: 084a b3bc 6c90 ebbd e989 adbc d24c 923d
000002b0: 1804 36be e241 473d 71ef 543b b582 1d3d
000002c0: 9ea5 ca3d caf3 01be a799 6e3c 4071 b2bc
000002d0: 427b ea3d 2645 0e3e 3966 893c c31f 8b3d
000002e0: 6655 15bd ef82 1e3d b3b0 9e3d a2d6 a6bd
000002f0: 929e c0bc eb6e e03d 53bd 5d3c f86b 973c
00000300: 528e 81bd 068c 203d 4739 153d a336 b23d
00000310: fd5d c23d a3de d43c aaf3 07be 6459 3f3d
00000320: e283 0e3e 6095 50bc 7d30 f2bc ebce a6bd
00000330: c224 e5bd 81ed 373d f918 853d 5ae1 cfbd
00000340: 7a52 ae3d 5726 c8bd e905 c4bd b4a1 57bd
00000350: 9907 b5bd 24ae 763d 6bef d9bd cf1c 173d
00000360: a74c 4a3d 816a 963d 955e 263d f506 a53c
00000370: e7e4 12bb 0d15 a2bd 4678 353d f4e7 383d
00000380: 4d55 3abd db4d ea3d 9b6a 50bd 64c2 15be
00000390: ea7e d0bd a417 dd3c da07 10bd 6fd4 9139
000003a0: 6a7c 153c b6c8 a0bd 2f67 bebc 3f4a 9fbd
000003b0: 34d3 09bd 516c a0bc b520 f03d ea83 d73d
000003c0: c297 4ebc 69af 293d 9f3b ce3d d3e3 18bc
000003d0: e7db b0bd efb4 c8bb 332f 543d b941 56bd
000003e0: 725c 8bbd 1a1f fa3d 7154 26bd c7e2 c7bd
000003f0: 42fb 0a3c e74c 0b3e 7ba7 f83d ab7b cabd

node_function_neighbor.2.bias f4 [64]
-0.07603239 -0.10318777 0.040756755 0.13376376 -0.08731434 -0.11596117 -0.04263316 -0.12406793
0.038141277 -0.11629001 0.068056874 -0.0121037215 -0.062713444 0.07414826 0.06995193 -0.10289422
-0.13616149 -0.04024803 -0.010303425 -0.1058685 0.11798959 -0.11493035 -0.055376828 -0.0495813
0.03616357 -0.08669047 -0.022087848 -0.086554535 0.0038424737 0.038071625 -0.06775553 0.07183535
-0.020381156 -0.07056303 0.09241025 0.1513494 0.09577343 0.13438699 0.0216559 0.06916499
-0.02774083 -0.012616009 -0.022828998 0.17972586 -0.1237102 -0.13821654 0.07299348 0.177821
0.117720224 -0.08689291 -0.1633965 -0.08269085 -0.053530853 0.119795784 0.12922113 -0.10403262
0.10750635 -0.028107734 0.07891381 0.027492454 0.060615063 -0.029607577 -0.08566794 -0.16488878
00000000: dfb6 9bbd 1c54 d3bd 8ef0 263d 5ef9 083e
00000010: dcd1 b2bd 0d7d edbd 1ca0 2ebd 5417 febd
00000020: 073a 1c3d 7529 eebd 6761 8b3d b04e 46bc
00000030: e86f 80bd 0bdb 973d f542 8f3d 34ba d2bd
00000040: eb6d 0bbe 1edb 24bd b2cf 28bc 96d1 d8bd
00000050: 87a4 f13d 9a60 ebbd d0d2 62bd c315 4bbd
00000060: 4020 143d c68a b1bd 93f1 b4bc 8143 b1bd
00000070: 03d2 7b3b fef0 1b3d 69c3 8abd 691e 933d
00000080: 62f6 a6bc 5a83 90bd 9641 bd3d 56fb 1a3e
00000090: dc24 c43d be9c 093e b767 b13c 60a6 8d3d
000000a0: bd40 e3bc 61b3 4ebc e103 bbbc 0e0a 383e
000000b0: c65b fdbd a388 0dbe 9b7d 953d b516 363e
000000c0: 4d17 f13d e9f4 b1bd 6951 27be d259 a9bd
000000d0: 2b43 5bbd 7e57 f53d 8b52 043e 0e0f d5bd
000000e0: 4a2c dc3d 3142 e6bc 909d a13d db37 e13c
000000f0: 8047 783d 978b f2bc ac72 afbd 9bd8 28be

node_function_neighbor.4.weight f4 [64, 64]
-0.06053531 -0.056785006 -0.056428306 -0.029709514 -0.040179625 -0.030923259 0.11776459 -0.070693344
0.06853145 0.12680466 0.08410798 -0.09841734 0.0028424605 -0.021817356 -0.046960447 0.0022980177
-0.053898644 -0.104382284 -0.10647077 0.096553974 0.043675773 0.05440603 0.0049783587 0.08568416
0.029761797 0.050709385 0.09226252 0.028832426 -0.10681205 0.12162648 0.12904778 -0.005013281
0.08199 0.007057171 -0.001959609 0.0713847 -0.09742602 0.011982016 -0.106192224 0.06377562
0.043115575 -0.13140374 -0.044098437 -0.1051507 0.042083755 -0.15177412 0.018910915 0.059890978
0.005831868 -0.050787415 -0.027839785 0.119590044 0.056573674 -0.11300927 0.017233526 -0.061930228
-0.039211974 0.013786805 -0.011941565 -0.09254364 -0.0612857 0.005211547 -0.11912146 0.061667874
0.0710506 0.0990339 0.02589902 0.01639483 -0.0999859 0.11153358 0.016162207 -0.073251754
-0.1439976 0.14021054 0.118079334 0.038669005 -0.0536786 -0.06490385 0.12293194 -0.07804231
0.07518481 0.06674738 0.0674114 0.09392605 0.04537573 0.017996937 -0.024033904 -0.040216755
-0.013780087 -0.024952486 0.09993406 0.020814726 -0.036251917 -0.056344513 -0.080920845 0.08014891
0.020769654 -0.07726978 -0.09332542 -0.13525467 0.017571328 0.03243716 0.020101499 0.032471456
-0.11239514 0.13780107 -0.074610904 0.026341937 0.018734768 0.0021264998 0.11394056 0.038469624
0.09929638 0.10752621 0.057761565 0.04646443 0.012989512 -0.025666106 -0.08193704 -0.10909704
-0.04857114 -0.07167934 -0.06459355 -0.055606447 0.061808433 0.007541391 0.11084582 0.09089081
-0.02504878 -0.10660276 -0.09119658 0.009996448 -0.021449134 -0.027497336 -0.099927045 -0.018062651
0.030186439 0.015951607 0.10020527 -0.028051138 0.086692624 -0.036242086 -0.03228935 -0.020041063
0.10730309 0.10251201 -0.043124273 0.035602864 0.025260491 0.13047618 0.028294235 0.110058814
0.06454002 0.078762 0.02489879 -0.08193303 0.030901322 -0.040579602 -0.12098845 0.051912844
0.08724382 0.082922205 0.11526273 0.045572966 -0.018110825 0.09453872 -0.07668457 -0.09899141
0.05890116 -0.043981686 0.021601047 -0.017631894 0.09603648 -0.033249166 0.082329355 0.11040495
0.13708526 0.061809152 -0.0037199252 0.005727038 0.13373621 0.028557 -0.11617206 -0.019756781
0.048646778 0.04148758 0.1250066 0.061536737 0.058494948 0.058808926 -0.10799278 0.145199
-0.12343912 -0.00405076 0.081166156 0.094257906 0.10440719 -0.0786294 -0.024431065 0.09094231
-0.13096009 0.092946194 -0.11518347 -0.07696815 0.013035855 0.099657245 0.15616685 -0.11419139
-0.12587361 0.021671535 0.070991255 0.023750124 0.116035186 0.029616116 0.00085641444 0.07137415
0.046875823 0.10053141 0.049959797 -0.09608443 0.10542996 0.013544258 -0.07720582 0.023295393
-0.033781845 -0.11905461 0.0050782133 0.033892702 0.12018784 0.109328866 0.0726306 0.017238703
0.09642498 0.11403972 -0.13881116 0.07766184 -0.07305391 -0.08004914 0.0056480947 0.123746805
0.025863362 -0.052486062 -0.050021216 -0.012693673 -0.0424951 -0.02029612 0.10466831 0.03133568
0.09825528 -0.06985693 0.005653744 -0.051667318 -0.082876265 0.11672346 0.016936645 -0.056929663
00000000: e0f3 77bd 6597 68bd 5e21 67bd 5e61 f3bc
00000010: 6493 24bd c652 fdbc 902e f13d acc7 90bd
00000020: 385a 8c3d 15d9 013e ce40 ac3d 088f c9bd
00000030: 9348 3a3b 50ba b2bc 9959 40bd 579a 163b
00000040: d3c4 5cbd 61c6 d5bd 590d dabd 17be c53d
00000050: 5ee5 323d dbd8 5e3d 8021 a33b 2d7b af3d
00000060: 03cf f33c a5b4 4f3d 22f4 bc3d fb31 ec3c
00000070: 47c0 dabd 4e17 f93d 1a25 043e 7346 a4bb
00000080: 60ea a73d d73f e73b c96c 00bb 2432 923d
00000090: 4b87 c7bd 3850 443c 4f7b d9bd cb9c 823d
000000a0: f599 303d b48e 06be 90a0 34bd 4059 d7bd
000000b0: 0460 2c3d ad6a 1bbe 10eb 9a3c 3e50 753d
000000c0: 4119 bf3b 7706 50bd 4310 e4bc a0eb f43d
000000d0: ccb9 673d 6771 e7bd 532d 8d3c 8daa 7dbd
000000e0: bc9c 20bd 0de2 613c 8ea6 43bc 8587 bdbd
000000f0: b706 7bbd a0c5 aa3b f4f5 f3bd 7497 7c3d
00000100: fa82 913d 49d2 ca3d 2e2a d43c 734e 863c
00000110: 68c5 ccbd b86b e43d 9b66 843c 0405 96bd
00000120: 1b74 13be 5a93 0f3e 94d3 f13d 6463 1e3d
00000130: 17de 5bbd 4fec 84bd bec3 fb3d a6d4 9fbd
00000140: 7efa 993d dab2 883d fd0e 8a3d 4d5c c03d
00000150: e7db 393d 506e 933c c0e2 c4bc 53ba 24bd
00000160: e0c5 61bc 2869 ccbc 3aaa cc3d a583 aa3c
00000170: e47c 14bd 81c9 66bd d4b9 a5bd 1d25 a43d
00000180: 1f25 aa3c 9e3f 9ebd 6621 bfbd 3380 0abe
00000190: bff1 8f3c d4dc 043d e6ab a43c ca00 053d
000001a0: 6c2f e6bd b91b 0d3e 9acd 98bd 0ccb d73c
000001b0: a879 993c bf5c 0b3b ab59 e93d 5392 1d3d
000001c0: e75b cb3d b436 dc3d 6497 6c3d 7c51 3e3d
000001d0: f6d1 543c ba41 d2bc 9bce a7bd 456e dfbd
000001e0: 88f2 46bd 9ecc 92bd a049 84bd 96c3 63bd
000001f0: d72a 7d3d c61d f73b 2203 e33d f624 ba3d
00000200: 1933 cdbc 8c52 dabd 46c5 babd 24c8 233c
00000210: 18b6 afbc 1842 e1bc 8da6 ccbd 20f8 93bc
00000220: 8d49 f73c f2ac 823c 6c38 cd3d 80cb e5bc
00000230: e78b b13d 9572 14bd d641 04bd 282d a4bc
00000240: b9c1 db3d d1f1 d13d 14a3 30bd 4fd4 113d
00000250: 17ef ce3c 8c9b 053e 50c9 e73c 8466 e13d
00000260: 8f2d 843d f94d a13d 8cf8 cb3c 81cc a7bd
00000270: c524 fd3c cc36 26bd cbc8 f7bd 90a2 543d
00000280: e3ac b23d 1ed3 a93d de0e ec3d b8aa 3a3d
00000290: 275d 94bc 849d c13d cd0c 9dbd 02bc cabd
000002a0: 5842 713d 2426 34bd aef4 b03c c370 90bc
000002b0: c6ae c43d 4730 08bd 4b9c a83d fe1b e23d
000002c0: 1460 0c3e 982b 7d3d fdc9 73bb e0a9 bb3b
000002d0: 25f2 083e 5ff0 e93c 9eeb edbd f9d8 a1bc
000002e0: d841 473d e1ee 293d bb01 003e f20d 7c3d
000002f0: 6698 6f3d a1e1 703d 522b ddbd 0caf 143e
00000300: a6cd fcbd 3dbc 84bb 713a a63d 4a0a c13d
00000310: 70d3 d53d 7308 a1bd a823 c8bc f63f ba3d
00000320: 671a 06be 935a be3d 50e5 ebbd 7aa1 9dbd
00000330: 5794 553c 1919 cc3d 34ea 1f3e 2ddd e9bd
00000340: 03e5 00be 8188 b13c dd63 913d 9f8f c23c
00000350: dba3 ed3d 7f9d f23c 0081 603a 9c2c 923d
00000360: dd00 403d 69e3 cd3d a5a2 4c3d eac7 c4bd
00000370: aaeb d73d bce8 5d3c 161e 9ebd fbd5 be3c
00000380: d55e 0abd e7d2 f3bd 2467 a63b 13d3 0a3d
00000390: 0b25 f63d d0e7 df3d 5abf 943d 2e38 8d3c
000003a0: 767a c53d a88d e93d 8324 0ebe 2c0d 9f3d
000003b0: 4a9d 95bd cef0 a3bd a713 b93b f76e fd3d
000003c0: 67df d33c a0fb 56bd 0ce3 4cbd 20f9 4fbc
000003d0: 580f 2ebd 0c44 a6bc 575c d63d d859 003d
000003e0: 103a c93d 2611 8fbd 0b43 b93b 1ca1 53bd
000003f0: 08bb a9bd b60c ef3d b8be 8a3c 142f 69bd

node_function_neighbor.4.bias f4 [64]
-0.09446728 -0.06692953 0.13492694 0.056865767 0.10006677 0.13875811 -0.061965894 0.021172576
0.03559761 0.11931706 -0.13034947 -0.10854523 -0.11835333 -0.14345352 -0.1363297 -0.045644358
-0.01615528 -0.035515625 -0.117462985 -0.07182778 -0.09819016 -0.097601525 0.14132707 -0.0572738
0.05337309 0.0011061114 -0.06411844 0.024281671 0.047816876 0.033238757 0.02709085 0.105982184
-0.10727703 -0.005171347 -0.16482797 0.09159083 -0.06939987 -0.17616582 0.13553463 -0.090763085
0.0041886433 0.15949011 -0.050708234 -0.14446163 0.08570417 0.03881044 0.06654093 -0.024014587
-0.056729138 0.16627134 -0.1509955 -0.01870323 -0.12832372 0.08065577 -0.0421678 -0.044727307
-0.099913865 0.11500865 -0.04476401 -0.11259262 -0.045898415 -0.078549445 -0.10248699 -0.15966229
00000000: 1078 c1bd 5912 89bd 4a2a 0a3e 14ec 683d
00000010: cfef cc3d 9b16 0e3e f3cf 7dbd 1c72 ad3c
00000020: cdce 113d 815c f43d 557a 05be f64c debd
00000030: 3b63 f2bd 7be5 12be 039a 0bbe 94f5 3abd
00000040: 1458 84bc d578 11bd 6f90 f0bd 711a 93bd
00000050: ec17 c9bd 4fe3 c7bd 0bb8 103e ef97 6abd
00000060: be9d 5a3d f1fa 903a 8750 83bd 5bea c63c
00000070: a1db 433d 5d25 083d a1ed dd3c 300d d93d
00000080: 0fb4 dbbd 6774 a9bb aac8 28be f993 bb3d
00000090: 8521 8ebd d064 34be 97c9 0a3e ffe1 b9bd
000000a0: e340 893b 6051 233e 70b3 4fbd c0ed 13be
000000b0: ab85 af3d b2f7 1e3d 9c46 883d 3dba c4bc
000000c0: d05c 68bd 0943 2a3e 909e 1abe 8437 99bc
000000d0: 4b67 03be da2e a53d 25b8 2cbd fb33 37bd
000000e0: a49f ccbd a889 eb3d 775a 37bd f696 e6bd
000000f0: faff 3bbd 88de a0bd b3e4 d1bd 837e 23be

node_function_neighbor.6.weight f4 [4, 64]
0.08052636 -0.08603391 0.024211157 -0.061351325 -0.054073818 0.020235185 -0.107433036 0.088139676
0.051563364 0.09448346 0.046753924 0.060471665 0.10058579 0.07525165 -0.045360334 0.057066947
-0.15317458 -0.02065591 0.087283194 0.030059187 -0.0552793 -0.09065308 -0.016064446 0.10831052
-0.0027577505 0.0026981852 -0.04575853 0.09023068 0.18671218 -0.09723441 -0.0057983426 0.0068920623
0.012000948 -0.08036787 -0.009356184 -0.014231795 0.0713479 0.01881955 0.025953494 0.046134714
0.046167664 -0.018253936 -0.05467488 0.043792643 -0.023410127 -0.09285497 0.08792111 -0.046736903
0.093037516 0.054209493 -0.072890826 0.040388834 0.093967095 0.069913805 -0.048600297 -0.01680127
-0.04592234 -0.036274318 -0.03558842 0.08079456 0.040695447 -0.06539213 0.0155696785 0.05714412
-0.089222535 0.06581981 -0.09780851 0.08321928 -0.10587718 -0.06731683 -0.082887776 -0.012837493
0.12341748 0.06927178 0.058011748 0.022159668 -0.03859674 -0.0077217 0.034974735 0.050567858
-0.06002123 -0.06947163 0.093062125 -0.08247379 -0.059436467 0.10044904 -0.058538903 0.029931456
0.04729039 -0.05467667 0.11976082 -0.09270535 -0.06586136 0.0727802 0.060636543 -0.0951448
-0.09599163 -0.06999244 -0.026358314 0.010810579 0.08774092 0.019271985 -0.0614013 0.04926688
-0.014488234 -0.0314192 -0.09635149 0.07733336 -0.108915515 0.041114576 0.1141207 0.0014706184
0.057272922 -0.0009682588 0.03799735 -0.0069460594 -0.06746335 0.06370354 0.023310225 -0.04761016
0.0041989684 -0.11220682 -0.033666566 0.029066503 -0.089693755 0.109130196 -0.080502465 -0.0729678
-0.0634722 -0.016276741 0.11930915 0.027952552 0.06824963 -0.04324558 -0.0514115 -0.023094734
-0.048079602 0.13842301 -0.04183797 -0.11544595 0.059371866 -0.05421133 0.057665426 -0.007932924
-0.040555395 -0.0532179 0.01624373 -0.0069701225 -0.093591616 -0.07625674 0.058774054 0.07432959
0.13425598 0.022771798 -0.054313462 -0.0010453203 -0.21125126 0.040859196 -0.066291615 0.08077708
-0.10500326 0.09633088 -0.06876528 -0.042848703 0.085602194 -0.072448745 0.008066285 0.017367242
-0.108407065 0.06601177 0.13395834 -0.04976195 0.025289759 -0.041642025 0.030009897 0.01287636
-0.005708517 0.10128322 -0.087025054 0.117910914 0.014091497 0.048868317 -0.12386655 0.015016178
-0.0077034384 0.09378273 -0.08164303 0.06085518 0.12141936 0.057910707 0.013531033 0.13899218
-0.03694991 -0.05170957 -0.04088052 -0.111516155 -0.1366297 -0.16334647 0.022834525 0.14489
0.095089436 -0.0955886 0.060446996 -0.12715374 0.07978103 0.04812568 0.049508873 -0.009559249
-0.08673659 -0.067717806 -0.09672818 -0.0748402 0.041949477 -0.083364226 -0.0439802 -0.09291723
0.08304395 0.062341448 0.018596038 0.028546052 -0.22375341 -0.060758587 -0.12742493 -0.032501567
0.021057604 -0.0101094395 -0.028764047 -0.11856678 -0.07967339 -0.061369512 -0.107209265 -0.095436
-0.10373535 -0.0738049 0.101795405 -0.043254863 -0.064199395 -0.09206083 -0.1646205 0.10406924
-0.038162343 -0.14612693 0.06586042 -0.07259325 -0.14220467 -0.15152921 -0.06403297 0.044708386
0.07108773 -0.049016003 0.053013284 0.019921944 0.00951498 -0.0571421 0.05948832 0.07705588
00000000: 01eb a43d 8c32 b0bd 7a56 c63c 874b 7bbd
00000010: 827c 5dbd 42c4 a53c da05 dcbd 9382 b43d
00000020: 1b34 533d 8b80 c13d 0b81 3f3d 23b1 773d
00000030: ecff cd3d 891d 9a3d c2cb 39bd 08bf 693d
00000040: ccd9 1cbe 9536 a9bc 88c1 b23d af3e f63c
00000050: 8c6c 62bd 52a8 b9bd 9699 83bc e8d1 dd3d
00000060: 60bb 34bb 09d4 303b 4c6d 3bbd ddca b83d
00000070: 7a31 3f3e d622 c7bd 0600 bebb cfd6 e13b
00000080: a09f 443c e997 a4bd ae4a 19bc 7a2c 69bc
00000090: d91e 923d 752b 9a3c 6c9c d43c c1f7 3c3d
000000a0: 4e1a 3d3d 4789 95bc c4f2 5fbd ea5f 333d
000000b0: 98c6 bfbc bf2a bebd fc0f b43d 326f 3fbd
000000c0: 748a be3d c60a 5e3d c947 95bd c36e 253d
000000d0: d271 c03d f82e 8f3d 1b11 47bd d1a2 89bc
000000e0: 1019 3cbd 6194 14bd 2ac5 11bd 9e77 a53d
000000f0: 45b0 263d 4fec 85bd f717 7f3c f40f 6a3d
00000100: 4eba b6bd 89cc 863d d44f c8bd df6e aa3d
00000110: 23d6 d8bd 68dd 89bd 11c1 a9bd 5954 52bc
00000120: 4ec2 fc3d 5dde 8d3d ba9d 6d3d 3188 b53c
00000130: 9e17 1ebd 5006 fdbb ab41 0f3d 3e20 4f3d
00000140: d2d8 75bd 2447 8ebd 5b97 be3d 05e8 a8bd
00000150: a773 73bd 3ab8 cd3d 7dc6 6fbd d032 f53c
00000160: 91b3 413d a5f4 5fbd 2945 f53d 4ddc bdbd
00000170: 52e2 86bd c90d 953d 065e 783d 47db c2bd
00000180: 4297 c4bd 3258 8fbd 64ed d7bc db1e 313c
00000190: 83b1 b33d 48e0 9d3c ee7f 7bbd 11cc 493d
000001a0: 0f60 6dbc 6bb1 00bd ee53 c5bd f460 9e3d
000001b0: 190f dfbd c267 283d 1db8 e93d c4c1 c03a
000001c0: 0397 6a3d c0d2 7dba 1ca3 1b3d c59b e3bb
000001d0: 3a2a 8abd 0077 823d 16f5 be3c df02 43bd
000001e0: 8097 893b b0cc e5bd f4e5 09bd e01c ee3c
000001f0: 5cb1 b7bd a77f df3d 7ade a4bd 2470 95bd
00000200: b6fd 81bd cd56 85bc 5b58 f43d c0fc e43c
00000210: 76c6 8b3d 4722 31bd dd94 52bd 2b31 bdbc
00000220: 1eef 44bd c3be 0d3e 4b5e 2bbd ed6e ecbd
00000230: ea2f 733d b30c 5ebd 9532 6c3d 18f9 01bc
00000240: 6a1d 26bd 03fb 59bd 9211 853c a065 e4bb
00000250: f6ac bfbd 7e2c 9cbd 10bd 703d 1d3a 983d
00000260: 667a 093e ec8b ba3c cb77 5ebd 2103 89ba
00000270: 4052 58be f95b 273d e6c3 87bd 746e a53d
00000280: f30b d7bd 2049 c53d d0d4 8cbd 1f82 2fbd
00000290: 3450 af3d 0260 94bd 7428 043c bf45 8e3c
000002a0: 8604 debd 2e31 873d 602c 093e 30d3 4bbd
000002b0: 782c cf3c d490 2abd 51d7 f53c 5ef7 523c
000002c0: 830e bbbb 946d cf3d 313a b2bd 477b f13d
000002d0: 06e0 663c 252a 483d bfad fdbd 6a06 763c
000002e0: 206d fcbb 2911 c03d 7634 a7bd 4843 793d
000002f0: b7aa f83d c733 6d3d 44b1 5d3c f753 0e3e
00000300: ca58 17bd 6acd 53bd 5572 27bd 9562 e4bd
00000310: a8e8 0bbe 4c44 27be 780f bb3c 0b5e 143e
00000320: 40be c23d f5c3 c3bd 4597 773d 9734 02be
00000330: 3d64 a33d 6f1f 453d d1c9 4a3d 659e 1cbc
00000340: f4a2 b1bd a2af 8abd 6d19 c6bd d245 99bd
00000350: 37d3 2b3d ddba aabd 9524 34bd 644b bebd
00000360: f212 aa3d bf59 7f3d b856 983c 69d9 e93c
00000370: 9d1f 65be ffdd 78bd ae7b 02be 5d20 05bd
00000380: ff80 ac3c 10a2 25bc 94a2 ebbc 24d3 f2bd
00000390: cd2b a3bd 995e 7bbd 8890 dbbd f373 c3bd
000003a0: 3373 d4bd 0627 97bd 1c7a d03d 032c 31bd
000003b0: f97a 83bd 638a bcbd 4792 28be 4122 d53d
000003c0: 1e50 1cbd 4ca2 15be d4e1 863d c5ab 94bd
000003d0: 1a9e 11be 792a 1bbe b823 83bd 2420 373d
000003e0: 7296 913d 01c5 48bd 7524 593d 5833 a33c
000003f0: b8e4 1b3c d60d 6abd 06aa 733d 79cf 9d3d

node_function_neighbor.6.bias f4 [4]
-0.11818723 0.06608798 -0.025010213 -0.06536801
00000000: 250c f2bd 2359 873d 38e2 ccbc aadf 85bd

edge_function.0.weight f4 [64, 4]
-0.15803532 0.27566698 0.20987785 0.4024792 -0.29099238 -0.3999216 -0.48557037 0.38406888
0.33824322 -0.06954539 0.49670047 0.05839563 0.4244823 0.080739126 -0.09220246 -0.252976
-0.4219981 -0.16653402 0.4036941 -0.15672562 -0.015559107 -0.47438785 0.08052696 0.3967347
-0.31735897 0.3323053 -0.24250355 0.0076611615 -0.30303532 0.16902958 0.42670554 0.015401419
-0.3113032 0.3264414 0.40734005 -0.19481276 0.067242034 -0.38370305 -0.4056973 -0.049753133
-0.08000783 -0.38975233 0.22709899 0.2404458 -0.4998354 0.2233362 -0.3302897 -0.49217173
-0.20715639 -0.47971764 0.2682296 0.3635451 0.045229707 -0.18389 0.052400663 -0.14972743
0.075273335 0.25943738 0.21154709 0.4561137 -0.28152928 0.4857916 0.027501721 -0.27581555
-0.38010162 -0.25638384 -0.35179502 0.41132644 0.3382942 0.11740871 -0.37524533 0.41893572
-0.10498856 0.014695536 -0.3321816 0.12501629 -0.16052645 -0.23701099 0.07076638 -0.0124221835
-0.48037136 -0.23709436 -0.3695228 -0.50668526 0.45851165 -0.479894 -0.14576253 0.43476504
-0.022397473 -0.2858605 -0.45229208 -0.30762538 -0.29580927 -0.024093691 -0.24217662 -0.2415084
-0.2291075 0.038073424 -0.016765982 -0.44748896 -0.009359869 0.2999361 0.0921855 0.30582514
-0.007727943 0.064540006 0.20199746 0.10316731 0.41348603 0.0781826 -0.40634447 0.318733
-0.028974256 -0.21368852 0.14570202 0.44081274 -0.09002001 0.06446019 0.27929297 -0.087867625
0.45946875 -0.45301616 0.3689157 -0.26827452 -0.24328151 -0.40159678 0.4674479 0.041045994
0.4495166 0.08969662 0.19408439 0.1269958 -0.18492588 -0.17354651 -0.33439806 0.50478244
-0.4548198 -0.020591462 0.258106 -0.13103749 -0.38146204 0.2907673 -0.19071788 -0.12754041
0.2506351 -0.1009362 0.23296571 -0.27588233 0.24755765 -0.015317341 -0.05075771 -0.32352325
-0.032241065 0.17004308 -0.38862473 -0.4013673 -0.45688573 0.18646929 0.22128281 0.20653637
-0.023047999 0.22985649 -0.44182423 0.13742056 -0.16581567 0.14762175 -0.13344577 -0.05378364
-0.33647913 -0.09680406 0.28894502 0.048628077 0.26670668 0.4082689 0.19981599 0.4055675
-0.09661351 0.11601157 -0.42984682 -0.060792025 0.4647283 0.21186496 -0.41715345 0.34112975
0.12323471 -0.29336536 0.212363 0.08148123 0.25722516 0.4669564 -0.39638382 0.27370602
-0.089241676 -0.09047618 0.3295973 0.41844058 -0.29176855 0.13389465 -0.012841442 0.0013774337
0.4002711 -0.33941865 -0.06218502 -0.4788636 -0.06999377 -0.24499445 0.4400554 0.38060328
-0.17174663 0.17556055 -0.3492926 -0.388069 0.38234732 -0.14793478 -0.16784878 -0.40414
-0.12231454 -0.12946743 -0.083088316 0.17853273 0.14888194 0.13155329 0.034851827 -0.3627621
-0.4228935 -0.065111116 0.0341258 -0.31793505 -0.17512795 -0.30538028 -0.14721595 -0.068796195
-0.0005210388 -0.27008083 -0.33889753 0.3583172 -0.4496891 0.14029309 -0.04369757 -0.1293992
0.101823576 0.4218123 -0.41768926 0.09107649 -0.21108335 -0.22117698 -0.4242107 0.27904302
-0.12353279 0.2699425 0.4155923 -0.21447143 -0.3063314 0.00027231436 0.20506059 -0.17827989
00000000: 03d4 21be 3924 8d3e 38ea 563e c111 ce3e
00000010: f4fc 94be 86c2 ccbe ae9c f8be ada4 c43e
00000020: 372e ad3e d06d 8ebd 864f fe3e 4230 6f3d
00000030: be55 d93e 8e5a a53d a5d4 bcbd 1286 81be
00000040: 2310 d8be e587 2abe feb0 ce3e ae7c 20be
00000050: a0eb 7ebc f7e2 f2be 52eb a43d d020 cb3e
00000060: e07c a2be ec23 aa3e da52 78be 7b0a fb3b
00000070: 7227 9bbe 1716 2d3e 2679 da3e 3c56 7c3c
00000080: 2263 9fbe 5423 a73e e08e d03e ff7c 47be
00000090: 31b6 893d ba74 c4be 8eb7 cfbe f1c9 4bbd
000000a0: 25db a3bd 9e8d c7be a38c 683e 6c37 763e
000000b0: 6dea ffbe 3fb2 643e bb1b a9be effd fbbe
000000c0: ce20 54be 8d9d f5be 6455 893e 9522 ba3e
000000d0: c942 393d a94d 3cbe 14a2 563d 2652 19be
000000e0: e828 9a3d fad4 843e cd9f 583e bc87 e93e
000000f0: 9b24 90be adb9 f83e 4a4b e13c b237 8dbe
00000100: ae9c c2be be44 83be 7a1e b4be 6199 d23e
00000110: e634 ad3e fa73 f03d 2820 c0be be7e d63e
00000120: 3e04 d7bd 8cc5 703c b513 aabe 4504 003e
00000130: 0c61 24be 02b3 72be f7ed 903d 6a86 4bbc
00000140: 3cf3 f5be ddc8 72be 1832 bdbe 20b6 01bf
00000150: 0ac2 ea3e abb4 f5be c642 15be 8699 de3e
00000160: e87a b7bc 4f5c 92be d492 e7be 1381 9dbe
00000170: 5074 97be 2260 c5bc 26fd 77be fa4d 77be
00000180: 289b 6abe e1f2 1b3d d058 89bc 461d e5be
00000190: 235a 19bc 3991 993e c0cb bc3d 1d95 9c3e
000001a0: af3a fdbb 8d2d 843d 6cd8 4e3e 6249 d33d
000001b0: 71b4 d33e 331e a03d 620c d0be f930 a33e
000001c0: 6b5b edbc 2ad1 5abe e932 153e 35b2 e13e
000001d0: 695c b8bd b403 843d 7dff 8e3e f1f3 b3bd
000001e0: 7d3f eb3e bcf1 e7be 85e2 bc3e 475b 89be
000001f0: ca1e 79be 189e cdbe 5555 ef3e d81f 283d
00000200: 0a27 e63e ddb2 b73d 0fbe 463e 300b 023e
00000210: 365d 3dbe 2db6 31be 3936 abbe 6c39 013f
00000220: 24de e8be 6daf a8bc 7826 843e b12e 06be
00000230: fe4e c3be 74df 943e 8c4b 43be f499 02be
00000240: 3e53 803e a3b7 cebd 908e 6e3e 7340 8dbe
00000250: c17f 7d3e 96f5 7abc 51e7 4fbd d7a4 a5be
00000260: 350f 04bd c61f 2e3e d2f9 c6be 0480 cdbe
00000270: edec e9be cef1 3e3e f697 623e 457e 533e
00000280: 28cf bcbc 805f 6b3e c936 e2be fab7 0c3e
00000290: 95cb 29be 282a 173e 02a6 08be 3c4c 5cbd
000002a0: fe46 acbe 3541 c6bd 9af0 933e 3c2e 473d
000002b0: c78d 883e 9f08 d13e 909c 4c3e 8ba6 cf3e
000002c0: 4edd c5bd 7997 ed3d e214 dcbe 0f01 79bd
000002d0: def0 ed3e 21f3 583e 2395 d5be 8fa8 ae3e
000002e0: 7b62 fc3d fc33 96be b075 593e a2df a63d
000002f0: 04b3 833e e914 ef3e d2f2 cabe 3223 8c3e
00000300: 57c4 b6bd 934b b9bd fac0 a83e d83d d63e
00000310: b062 95be ae1b 093e e964 52bc 018b b43a
00000320: 55f0 cc3e 48c8 adbe b8b5 7ebd 9c2d f5be
00000330: e558 8fbd d3df 7abe f14e e13e 6fde c23e
00000340: 59de 2fbe 25c6 333e 7bd6 b2be fbb0 c6be
00000350: 07c3 c33e 377c 17be 8de0 2bbe 70eb cebe
00000360: 0c80 fabd 1c93 04be 352a aabd 49d1 363e
00000370: 8274 183e e8b5 063e cac0 0e3d f4bb b9be
00000380: 7f85 d8be fa58 85bd 7fc7 0b3d 62c8 a2be
00000390: be54 33be ce5a 9cbe c7bf 16be 05e5 8cbd
000003a0: 5296 08ba 0948 8abe fa83 adbe 5a75 b73e
000003b0: a63d e6be fea8 0f3e 39fc 32bd 3981 04be
000003c0: e188 d03d c8f7 d73e 5edb d5be 5086 ba3d
000003d0: 3c26 58be 387c 62be 2532 d9be bade 8e3e
000003e0: c2fe fcbd e735 8a3e 84c8 d43e 669e 5bbe
000003f0: 78d7 9cbe 6ac5 8e39 67fb 513e 018f 36be

edge_function.0.bias f4 [64]
0.36101967 0.28275442 0.18319516 -0.22152033 0.30694142 -0.05760434 -0.3646172 0.12689301
0.3664548 0.22373824 0.10682792 -0.3207977 0.125447 -0.21720669 0.48078004 -0.18678945
-0.004751928 -0.47064054 0.3634759 -0.1442911 -0.43417364 0.42222193 -0.47616702 -0.44299775
0.44547614 0.35932767 -0.2618384 0.019416643 0.17925845 0.14470321 0.07933807 -0.3693629
0.23698972 -0.50212926 -0.19120857 -0.42043984 -0.081316836 -0.341741 0.28483286 0.18781455
-0.47623634 -0.03352054 -0.38859078 0.42618078 0.071537554 -0.24515675 -0.2768654 0.10054652
0.34724084 0.14310679 -0.47786325 -0.21549329 0.03272721 -0.07531051 -0.24061689 -0.4358267
0.4040868 -0.41629273 -0.075020716 -0.35479888 -0.2045534 -0.2982854 -0.29673445 0.032777824
00000000: 92d7 b83e 30c5 903e 8397 3b3e 3ad6 62be
00000010: 6d27 9d3e 87f2 6bbd 1baf babe 3ef0 013e
00000020: f79f bb3e a31b 653e 99c8 da3d 993f a4be
00000030: 2e75 003e 6e6b 5ebe cd28 f63e bc45 3fbe
00000040: 10b6 9bbb ccf7 f0be 8319 ba3e 0cc1 13be
00000050: 024c debe 792d d83e 2acc f3be 9ad0 e2be
00000060: 7315 e43e ccf9 b73e af0f 86be a70f 9f3c
00000070: 878f 373e 142d 143e ff7b a23d 221d bdbe
00000080: 6fad 723e 8b8b 00bf 2ecc 43be e443 d7be
00000090: 7189 a6bd adf8 aebe 9dd5 913e 7552 403e
000000a0: 40d5 f3be d54c 09bd 5ff5 c6be 5e34 da3e
000000b0: 4882 923d 5f0a 7bbe 4dc1 8dbe 55eb cd3d
000000c0: 8dc9 b13e 968a 123e 7eaa f4be 46aa 5cbe
000000d0: f80c 063d 663c 9abd 4664 76be ad24 dfbe
000000e0: 77e4 ce3e 5224 d5be 76a4 99bd 33a8 b5be
000000f0: 7276 51be ddb8 98be 94ed 97be 0a42 063d

edge_function.2.weight f4 [64, 64]
0.05268779 0.040949102 -0.039457932 0.09761529 -0.049894597 -0.074287124 -0.16634092 0.008881628
0.033115458 0.07367235 0.060607016 -0.14423452 -0.13308173 -0.05366443 0.043715194 -0.09420954
-0.08077533 0.10748453 0.07001918 -0.13286354 0.04891838 0.091971256 0.0424808 0.015633922
-0.12435895 0.031019691 0.037652515 0.13191283 0.1323595 -0.09448207 -0.17077479 0.029469782
0.0870297 -0.009634567 -0.15746924 -0.07366046 -0.0061425176 -0.10601031 -0.038812485 -0.09407057
0.095798805 0.01629255 -0.049626548 0.028410992 -0.023762288 0.045220926 -0.07536484 0.015144533
0.073298045 0.05314929 -0.118373014 0.09255964 0.007329334 -0.07876421 0.08309444 0.06600296
-0.03995559 -0.09609436 0.035175662 0.033065032 0.111095406 -0.07737251 0.0772558 0.0020816275
-0.06057029 -0.12851176 0.07137598 -0.13506599 0.0049431045 0.018322738 0.026879016 -0.038373306
-0.06691586 0.0011727489 -0.02564411 -0.084328435 0.08780837 0.061352972 0.026018923 -0.08770208
-0.10251246 0.047718015 -0.07686567 0.044587746 0.04316044 0.14717911 0.05481814 0.08453853
-0.13842797 -0.10827514 0.09364244 -0.03703257 0.01564831 0.032347035 -0.007883021 -0.14536464
-0.06242095 0.036212172 0.074772194 0.07643163 -0.104089156 -0.03545325 0.07576377 0.09428144
-0.06504405 -0.10793806 -0.069106385 -0.035853814 -0.11579664 -0.13335116 -0.09831554 -0.033689983
-0.13691184 0.07170295 -0.085457966 -0.045084007 -0.13136005 0.081054926 -0.04822521 -0.044925343
-0.09812647 -0.14828451 -0.1525971 -0.076451905 0.05836475 0.03499714 -0.054038744 -0.08242571
-0.13348769 0.12642826 0.0025378193 0.09594119 -0.0748659 0.045267846 0.11118246 -0.14994389
-0.0018862593 0.056932025 0.018923005 -0.09307256 0.098199375 0.009368984 -0.11832651 0.04008102
-0.0630277 0.08190004 -0.027077034 -0.05158944 0.050426748 -0.028152607 0.03315116 0.0480156
-0.11595504 0.09918496 -0.0046470514 0.040012397 -0.026859816 -0.055936262 -0.019366145 0.013316754
0.011850058 0.1180398 -0.0563257 -0.1116798 0.07323338 0.10316585 -0.03308505 -0.044523314
-0.054465424 0.022359561 -0.027097998 0.020353233 0.03204462 0.015025966 -0.09534171 0.010267662
0.04269816 -0.07704618 -0.042545907 0.07007423 0.05587144 -0.032914605 0.049381033 -0.10544896
0.013634602 0.013562871 -0.032830365 0.029352706 0.06283197 0.12351617 0.02811141 -0.07415132
0.02809966 0.058570594 0.081724785 -0.020464964 -0.06873941 -0.003788907 -0.020564435 0.04642426
-0.09641523 0.08021141 -0.09425459 0.031637095 -0.12516189 0.07724922 -0.061419304 -0.10950044
0.03707979 -0.05294774 -0.09274512 0.03063086 -0.049334623 0.000388506 0.0595015 -0.12368514
-0.003149796 0.09505694 -0.09693949 0.058087595 0.051597685 -0.083377175 0.041492023 0.0033703428
-0.008956677 0.0027506868 0.04127008 0.01498746 -0.066550575 -0.12215919 -0.12914349 -0.0057596792
-0.12807962 0.09369573 0.0005478074 -0.081044696 -0.033889577 -0.0078025297 -0.04695627 0.032162268
-0.10460875 -0.057433162 -0.06116795 0.10403522 0.10087142 -0.09330459 -0.13888057 0.082931384
-0.12020474 -0.117639355 -0.1452682 0.059777126 0.071202636 0.08111243 -0.029020019 0.03329199
00000000: 27cf 573d 3fba 273d a49e 21bd 86ea c73d
00000010: 475e 4cbd d923 98bd 4655 2abe 3f84 113c
00000020: 13a4 073d 87e1 963d 103f 783d 37b2 13be
00000030: 9446 08be 3ccf 5bbd b40e 333d eef0 c0bd
00000040: 896d a5bd d920 dc3d 3766 8f3d 610d 08be
00000050: a45e 483d 6d5b bc3d 5900 2e3d b612 803c
00000060: e8af febd 021d fe3c 8639 1a3d 2814 073e
00000070: 4089 073e d17f c1bd 96df 2ebe 9d6a f13c
00000080: a13c b23d 4eda 1dbc 9e3f 21be 4cdb 96bd
00000090: 2c47 c9bb ef1b d9bd d7f9 1ebd 12a8 c0bd
000000a0: 2a32 c43d f477 853c 3545 4bbd 2bbe e83c
000000b0: 21a9 c2bc 9439 393d e258 9abd c620 783c
000000c0: 491d 963d 12b3 593d 8d6d f2bd e98f bd3d
000000d0: e92a f03b 214f a1bd 6b2d aa3d 8f2c 873d
000000e0: 79a8 23bd 1fcd c4bd 5b14 103d 336f 073d
000000f0: fd85 e33d 7b75 9ebd 4a38 9e3d ea6b 083b
00000100: 8d18 78bd 9698 03be 922d 923d bd4e 0abe
00000110: c4f9 a13b 9119 963c 6231 dc3c 542d 1dbd
00000120: 2f0b 89bd ecb6 993a 9913 d2bc 63b4 acbd
00000130: e0d4 b33d 414d 7b3d a325 d53c 269d b3bd
00000140: 0df2 d1bd f773 433d c06b 9dbd a4a1 363d
00000150: 00c9 303d 1fb6 163e fc88 603d 8922 ad3d
00000160: 10c0 0dbe 5bbf ddbd 9cc7 bf3d 77af 17bd
00000170: e230 803c 537e 043d c927 01bc 78da 14be
00000180: 1cad 7fbd 3753 143d 2a22 993d 3088 9c3d
00000190: b22c d5bd 6d37 11bd 092a 9b3d a116 c13d
000001a0: d135 85bd a10e ddbd a687 8dbd 73db 12bd
000001b0: ca26 edbd 358d 08be a859 c9bd 82fe 09bd
000001c0: 9e32 0cbe ffd8 923d 9604 afbd 02aa 38bd
000001d0: 4083 06be 2000 a63d cc87 45bd a303 38bd
000001e0: 88f6 c8bd e5d7 17be 6a42 1cbe d192 9cbd
000001f0: e00f 6f3d 2959 0f3d bb57 5dbd d0ce a8bd
00000200: ffb0 08be 6976 013e 8b51 263b d17c c43d
00000210: 4b53 99bd c76a 393d a1b3 e33d e48a 19be
00000220: 5c3c f7ba 8e31 693d 6b04 9b3c d49c bebd
00000230: c11c c93d 5e80 193c 2b55 f2bd ff2b 243d
00000240: ab14 81bd 35bb a73d a8d0 ddbc 734f 53bd
00000250: 478c 4e3d 4ca0 e6bc 83c9 073d 01ac 443d
00000260: d679 edbd 7c21 cb3d 4b46 98bb 0ae4 233d
00000270: 1e09 dcbc 6c1d 65bd c0a5 9ebc 842e 5a3c
00000280: bf26 423c dabe f13d c7b5 66bd 61b8 e4bd
00000290: 62fb 953d 9e48 d33d 3084 07bd 145e 36bd
000002a0: 2317 5fbd 662b b73c 9ffc ddbc d3bb a63c
000002b0: 3841 033d 782f 763c 8442 c3bd b239 283c
000002c0: 44e4 2e3d 63ca 9dbd 9e44 2ebd 1483 8f3d
000002d0: 73d9 643d 77d1 06bd c443 4a3d a0f5 d7bd
000002e0: aa63 5f3c ce36 5e3c 2279 06bd 1675 f03c
000002f0: 0cae 803d 0cf6 fc3d e649 e63c a6dc 97bd
00000300: 4231 e63c b8e7 6f3d 535f a73d 24a6 a7bc
00000310: 3fc7 8cbd 504f 78bb bf76 a8bc 5d27 3e3d
00000320: 5975 c5bd e145 a43d 8d08 c1bd e695 013d
00000330: 702a 00be d734 9e3d cf92 7bbd c441 e0bd
00000340: fae0 173d bbdf 58bd 27f1 bdbd 92ed fa3c
00000350: 1a13 4abd 65b0 cb39 d8b7 733d a24e fdbd
00000360: cf6c 4ebb 37ad c23d 3688 c6bd 42ed 6d3d
00000370: 1858 533d a7c1 aabd 8af3 293d f8e0 5c3b
00000380: 07bf 12bc de44 343b d10a 293d f78d 753c
00000390: ab4b 88bd 992e fabd 313e 04be b1bb bcbb
000003a0: 4e27 03be 8ce3 bf3d bb9a 0f3a c3fa a5bd
000003b0: cccf 0abd 5dac ffbb 3855 40bd 95bc 033d
000003c0: 1d3d d6bd 093f 6bbd 3f8b 7abd 6b10 d53d
000003d0: ad95 ce3d 7a16 bfbd b536 0ebe eed7 a93d
000003e0: e72d f6bd e7ec f0bd 30c1 14be dcd8 743d
000003f0: b0d2 913d 461e a63d 64bb edbc 2f5d 083d

edge_function.2.bias f4 [64]
0.017492274 -0.015435269 -0.1155923 -0.0050473902 0.021058505 0.04440781 -0.010461684 0.0296686
-0.14261664 0.011353237 -0.0021969825 -0.039118808 -0.10230341 0.009905294 0.076640785 -0.077350646
0.029505454 -0.020470353 0.02194038 0.0934345 -0.11939097 -0.022493398 -0.12734257 -0.10926224
0.025276162 0.032260638 0.07966621 -0.030636482 0.0063242386 0.0072121327 0.019820973 -0.0075462433
0.069501005 0.09190224 0.080910236 0.14870413 0.099613 0.039615605 -0.08345305 -0.06048656
-0.04486693 0.076956734 0.005917783 -0.095072046 -0.07599487 -0.10731423 -0.011010825 0.038260207
0.052744556 -0.08272502 -0.06091559 0.01800193 -0.055775743 0.055295333 0.14755155 0.07704883
0.09988188 0.027115377 -0.112979144 0.09634034 -0.098254055 0.04018538 -0.061945524 0.0892009
00000000: f54b 8f3c 36e4 7cbc a8bb ecbd 9464 a5bb
00000010: e382 ac3c f7e4 353d 7c67 2bbc 900b f33c
00000020: 190a 12be ed02 3a3c 40fb 0fbb 0b3b 20bd
00000030: 7384 d1bd d049 223c d8f5 9c3d 046a 9ebd
00000040: 6cb5 f13c 71b1 a7bc 50bc b33c 965a bf3d
00000050: 4183 f4bd 1344 b8bc 1766 02be e2c4 dfbd
00000060: f40f cf3c bb23 043d 0a28 a33d 5cf9 fabc
00000070: 8f3b cf3b c153 ec3b 985f a23c 7a46 f7bb
00000080: 8b56 8e3d 3e37 bc3d 44b4 a53d e545 183e
00000090: e701 cc3d f943 223d 6fe9 aabd c1c0 77bd
000000a0: 63c6 37bd 7e9b 9d3d f6e9 c13b 22b5 c2bd
000000b0: 33a3 9bbd 90c7 dbbd bf66 34bc bcb6 1c3d
000000c0: ad0a 583d bc6b a9bd a082 79bd c978 933c
000000d0: 1b75 64bd 5c7d 623d c117 173e c7cb 9d3d
000000e0: df8e cc3d 1121 de3c 9c61 e7bd 164e c53d
000000f0: 6c39 c9bd 6d99 243d 97ba 7dbd f6ae b63d

edge_function.4.weight f4 [64, 64]
0.06709632 -0.06300077 -0.14013402 -0.018469391 -0.027411714 0.08403528 0.115575306 -0.0031424828
0.054531634 0.062250994 -0.10846132 -0.01897326 0.021641998 0.0030653672 -0.16005637 -0.11905858
0.033880368 -0.020152144 0.12221979 0.06631124 -0.019821277 -0.0009243552 -0.1447386 -0.08737329
0.06239049 -0.05466515 -0.17041731 -0.024007099 -0.070172474 -0.018842012 0.059793666 0.016651433
-0.1214989 -0.0981841 0.027133642 0.082937956 0.074708015 -0.0885382 0.10336908 -0.031782556
0.05222781 0.04204968 -0.0987435 -0.06681774 -0.11998197 -0.024701461 0.0021202245 0.010036554
0.030360773 -0.21355833 -0.052477956 -0.11205678 0.10216477 0.008845633 0.019260118 0.024007658
0.07313803 -0.08656549 0.03482501 0.14247872 -0.014189394 -0.13240586 -0.008608277 -0.12770283
-0.106842324 0.09436022 -0.11083932 -0.012487353 0.008093625 0.0800552 -0.09820525 0.045416612
-0.08082658 0.100916676 -0.10686824 0.050089695 -0.008083964 -0.0044236495 0.06908835 0.0640535
-0.032861486 -0.1318597 0.031577345 -0.07537147 -0.15874118 0.05120118 -0.0604398 0.03995502
0.05313152 -0.06123614 -0.1209332 0.08475991 0.08881894 0.036251392 0.05458895 -0.008548757
0.123500705 -0.08628484 -0.07951065 -0.14094204 0.020767448 -0.11270796 -0.12877283 0.064598285
-0.055898104 -0.11439709 0.0070396364 0.065899976 -0.023417024 0.06498328 0.029585935 -0.05549927
0.070200846 -0.124878995 -0.014468983 0.06852027 -0.09027493 -0.060696136 -0.13054034 0.020774784
-0.1099256 -0.026380267 0.12696226 0.07523877 0.0467848 -0.007854575 -0.05414435 -0.058559347
-0.1648983 0.033370845 -0.16136268 -0.16321166 0.023251332 0.08786436 -0.12913592 -0.08448204
0.028032063 -0.008239406 0.04290782 -0.08551178 -0.094892874 -0.038452335 0.010965661 0.027938021
-0.130617 -0.004205767 -0.03986645 0.0020214883 -0.14665034 -0.107223816 -0.066598676 0.0070929974
-0.0027923835 -0.1084817 -0.12893133 0.07488193 -0.08257734 -0.13876651 0.00032162562 -0.14560713
0.0012450821 -0.071094684 0.04587152 0.07211086 -0.044305634 0.0346977 -0.023981068 0.0486786
-0.017956667 0.02089428 -0.08647805 0.006894995 0.053695176 0.06917629 0.07810389 -0.13469088
-0.05871621 -0.0038950513 0.06733522 -0.023229523 -0.042111598 -0.011241627 0.011717115 0.028885063
-0.10862633 -0.108590275 -0.12353361 -0.049446397 -0.08983986 0.029006133 0.11174378 -0.103253655
0.038893856 0.06261745 -0.11444152 0.016810654 -0.12688641 0.010113685 0.046849117 -0.0028450787
0.050413776 0.07589421 -0.061641693 -0.028330889 -0.13029589 -0.1283036 0.019826615 -0.0061762994
-0.12745188 0.07876275 -0.15488976 -0.042003755 0.08745053 -0.022218326 0.03189083 -0.11241041
-0.1186635 0.028366022 -0.1311686 0.04439687 -0.032303322 0.051429745 -0.10373045 0.048992265
0.002706929 -0.06529092 -0.09646822 -0.12429975 -0.038329598 -0.044281404 -0.14982077 0.05777301
-0.014302925 0.06749118 -0.14827468 -0.0029117772 0.026158743 -0.11106794 -0.11983208 -0.028369531
-0.01878474 0.034388117 0.009414598 0.076744065 -0.017105235 -0.13707308 -0.10036815 0.02595029
-0.0047121453 -0.032976214 -0.05458034 -0.099042624 0.027005177 -0.035501022 -0.14596987 -0.1177967
00000000: cc69 893d 8c06 81bd 4b7f 0fbe 1f4d 97bc
00000010: 888e e0bc b01a ac3d bfb2 ec3d 1df2 4dbb
00000020: 905c 5f3d e6fa 7e3d f820 debd cf6d 9bbc
00000030: 8f4a b13c 54e4 483b d1e5 23be fcd4 f3bd
00000040: 24c6 0a3d 1c16 a5bc 5f4e fa3d 30ce 873d
00000050: 3b60 a2bc 6d50 72ba 5b36 14be c4f0 b2bd
00000060: 2c8d 7f3d 90e8 5fbd e081 2ebe 89aa c4bc
00000070: 96b6 8fbd 905a 9abc 34ea 743d 9668 883c
00000080: 6ad4 f8bd bf14 c9bd 5f47 de3c 60db a93d
00000090: 8400 993d 8453 b5bd 2bb3 d33d 6d2e 02bd
000000a0: d4ec 553d 493c 2c3d 083a cabd bdd7 88bd
000000b0: 1bb9 f5bd b85a cabc 77f3 0a3b 5c70 243c
000000c0: 28b7 f83c 09af 5abe 20f3 56bd 067e e5bd
000000d0: c33b d13d 46ed 103c 65c7 9d3c b5ab c43c
000000e0: 64c9 953d 3f49 b1bd aba4 0e3d f1e5 113e
000000f0: a27a 68bc 6795 07be bb09 0dbc 88c4 02be
00000100: 26d0 dabd ee3f c13d baff e2bd c197 4cbc
00000110: 209b 043c fbf3 a33d d61f c9bd c506 3a3d
00000120: 6888 a5bd 67ad ce3d bcdd dabd da2a 4d3d
00000130: 9a72 04bc 43f4 90bb 317e 8d3d 7b2e 833d
00000140: c499 06bd 3b06 07be 3f57 013d 5b5c 9abd
00000150: 0c8d 22be 54b8 513d b98f 77bd e0a7 233d
00000160: 70a0 593d bfd2 7abd d3ab f7bd 9b96 ad3d
00000170: b4e6 b53d 577c 143d aa98 5f3d 1610 0cbc
00000180: f0ed fc3d 1bb6 b0bd 7bd6 a2bd 1c53 10be
00000190: 7f20 aa3c 6ed3 e6bd 06dd 03be 1b4c 843d
000001a0: 69f5 64bd 0649 eabd c0ac e63b 91f6 863d
000001b0: 0fd5 bfbc f415 853d 345e f23c 3453 63bd
000001c0: 76c5 8f3d 8fc0 ffbd 500f 6dbc 5b54 8c3d
000001d0: 10e2 b8bd 839c 78bd 5eac 05be e12f aa3c
000001e0: ac20 e1bd 6e1b d8bc 6502 023e c916 9a3d
000001f0: 6ba1 3f3d 7ab0 00bc 77c6 5dbd eddb 6fbd
00000200: 1adb 28be deaf 083d 423c 25be f520 27be
00000210: 9479 be3c 3bf2 b33d 353c 04be eb04 adbd
00000220: 7fa3 e53c 93fe 06bc 1cc0 2f3d cd20 afbd
00000230: 3257 c2bd 3280 1dbd 51a9 333c 47de e43c
00000240: 76c0 05be 88d0 89bb 014b 23bd f27a 043b
00000250: 822b 16be 2998 dbbd e364 88bd 606c e83b
00000260: 6c00 37bb a72b debd 9306 04be b35b 993d
00000270: 4f1e a9bd cf18 0ebe dc9f a839 091a 15be
00000280: 0632 a33a 179a 91bd c6e3 3b3d dcae 933d
00000290: d379 35bd 2d1f 0e3d f273 c4bc 3663 473d
000002a0: dc19 93bc 7b2a ab3c 671b b1bd 69ef e13b
000002b0: 79ef 5b3d 4cac 8d3d eff4 9f3d 68ec 09be
000002c0: 6980 70bd 1e44 7fbb 0ce7 893d d74b bebc
000002d0: 367d 2cbd cd2e 38bc 24f9 3f3c 5ea0 ec3c
000002e0: 7b77 debd 9464 debd 30ff fcbd 4e88 4abd
000002f0: f6fd b7bd 459e ed3c ecd9 e43d a776 d3bd
00000300: 2a4f 1f3d 943d 803d 5160 eabd 7fb6 893c
00000310: 83ee 01be dfb3 253c dce4 3f3d 8074 3abb
00000320: ad7e 4e3d 6c6e 9b3d 007c 7cbd 2e16 e8bc
00000330: 496c 05be 0562 03be 6d6b a23c 8e62 cabb
00000340: bf82 02be 5d4e a13d 6c9b 1ebe 210c 2cbd
00000350: 4319 b33d 3503 b6bc f59f 023d 6e37 e6bd
00000360: d905 f3bd dc5f e83c 1051 06be 7ed9 353d
00000370: 7d50 04bd ffa7 523d a170 d4bd 1dac 483d
00000380: bc66 313b 3fb7 85bd 2191 c5bd de90 febd
00000390: 7fff 1cbd 6b60 35bd 9e6a 19be 64a3 6c3d
000003a0: d156 6abc d138 8a3d 51d5 17be 84d3 3ebb
000003b0: dc4a d63c 9777 e3bd 866a f5bd 3867 e8bc
000003c0: 74e2 99bc 8eda 0c3d b03f 1a3c fe2b 9d3d
000003d0: 4720 8cbc e35c 0cbe d18d cdbd b495 d43c
000003e0: 5768 9abb 1112 07bd a28f 5fbd dcd6 cabd
000003f0: f639 dd3c 8569 11bd 2079 15be 653f f1bd

edge_function.4.bias f4 [64]
-0.1485708 0.0754404 0.036753 -0.057141278 0.24396563 0.071341954 0.01656607 -0.13883202
0.031512965 0.014715702 -0.07395844 -0.07328075 0.16784348 0.16313782 -0.039527804 0.10216253
-0.15773559 0.016323932 0.013767781 0.08667667 0.04060579 0.001608877 0.023918683 -0.035771057
-0.10446981 0.12458769 -0.05222639 -0.040373366 -0.030842056 0.007550782 -0.0817542 0.024697967
-0.10970933 -0.032346487 -0.03133049 0.13149454 0.06152952 0.099081635 0.122683495 -0.10102466
0.1012125 -0.019385165 0.054992203 -0.02735401 0.049405035 -0.014073488 0.047849536 0.11763611
0.079177685 0.062476657 0.11100419 -0.08440115 0.07742884 -0.12205349 -0.095617086 -0.022848649
-0.031433165 0.08811302 0.0695188 -0.15000127 -0.1767314 0.09963756 -0.03089616 0.045903154
00000000: f222 18be 7f80 9a3d 508a 163d f90c 6abd
00000010: 20d2 793e bb1b 923d 91b5 873c fb29 0ebe
00000020: bd13 013d 211a 713c 8677 97bd 3814 96bd
00000030: 29df 2b3e 9a0d 273e e8e7 21bd 973a d13d
00000040: 7085 21be c4b9 853c 4292 613c 8a83 b13d
00000050: 4252 263d f4e0 d23a 1df1 c33c ac84 12bd
00000060: 45f4 d5bd d527 ff3d 57eb 55bd 8b5e 25bd
00000070: 7ba8 fcbc 8d6c f73b bf6e a7bd 6453 ca3c
00000080: 49af e0bd c07d 04bd 6654 00bd 81a6 063e
00000090: 6106 7c3d 50eb ca3d 7c41 fb3d 04e6 cebd
000000a0: 8048 cf3d a3cd 9ebc 813f 613d 8415 e0bc
000000b0: ef5c 4a3d 7d94 66bc e0fd 433d 33eb f03d
000000c0: e927 a23d 86e7 7f3d 2a56 e33d 83da acbd
000000d0: 0393 9e3d 2ef7 f9bd e4d2 c3bd 172d bbbc
000000e0: 10c0 00bd 9974 b43d df5f 8e3d ef99 19be
000000f0: 13f9 34be c70e cc3d f219 fdbc f204 3c3d
