Projects/GuoxiangGrayson_T_A study of multi-fidelity graph neural networks/Model_save/Quarter2D/Rank=27-GNN-nB-64-Lr-0.005/model.pth (torch, 114781 bytes, 24 tensors)

node_function_neighbor.0.weight f4 [64, 2]
000000 39 96 c4 bc 71 bf 1e bf 98 89 ce 3e 40 40 0b bf
       -0.023997413 -0.62010866 0.4033935 -0.5439491
000010 36 8c ed bd f5 9d 17 3f 7e b6 03 3f d5 32 74 3e
       -0.11599009 0.592254 0.51450336 0.23847516
000020 33 4b 8a 3e ce 3d 2e 3e e1 32 cd be b9 13 15 3c
       0.27010497 0.17015764 -0.4007788 0.0090989405
000030 a9 04 40 be 77 43 25 3f 61 0d 17 3e 0b c1 bc be
       -0.18751778 0.6455607 0.14751197 -0.3686603
000040 8b 72 07 3f bd da dc 3e 2f 67 4d 3e 91 b1 00 3e
       0.52909154 0.43135634 0.20058893 0.12567736
000050 11 88 17 3f 5b 9a d3 be 48 bf fb be a6 5b f6 3e
       0.59191996 -0.413287 -0.49169374 0.48116797
000060 f1 61 13 3e f8 aa cd 3e 95 8f fb bb 82 3f 84 3b
       0.1439283 0.401695 -0.0076770284 0.004035891
000070 63 c5 03 bf 58 a8 78 3e d6 b9 a6 3d b5 15 e8 bd
       -0.51473063 0.24282968 0.08140914 -0.11332265
000080 b2 94 cf be cf ae c7 be 94 16 9a 3e eb ec ab 3e
       -0.40543133 -0.39000556 0.3009535 0.33579192
000090 e7 0b 8b 3e c8 77 26 bf b5 e5 84 3e fc 8a c9 be
       0.27157518 -0.6502652 0.25956503 -0.3936385
0000a0 ac da c1 3e c0 92 10 bd 52 0e 1e 3f 2a 16 1b bf
       0.37862146 -0.0352962 0.617406 -0.60580695
0000b0 32 93 b9 be 78 8d 6c be eb fd 23 bf 39 07 80 be
       -0.36245114 -0.23100841 -0.64059323 -0.2500551
0000c0 aa ae 23 3c bd 34 dc 3e 02 4d 03 be d0 8d 94 bc
       0.009990374 0.43008986 -0.12822345 -0.018134028
0000d0 20 9d eb be 36 29 f3 3c a5 2a 0c bf 74 8b c5 be
       -0.46018314 0.029682737 -0.5475257 -0.38582957
0000e0 26 36 9d be 4c bf 12 3f 22 76 94 be dd c7 26 3f
       -0.30705374 0.57323146 -0.28996378 0.6514872
0000f0 34 99 f7 bd aa d1 80 3d 08 7c f1 be 3b 10 0f 3f
       -0.12089768 0.0628999 -0.4716494 0.5588414
000100 a9 73 15 bd 16 9c a2 be bf 3f 2d 3f f2 82 9b 3c
       -0.036487255 -0.3175971 0.67675394 0.018983338
000110 98 2f 28 bf 2e 85 06 bf 90 61 b3 bb 02 35 0c be
       -0.6569762 -0.52546966 -0.005474277 -0.13692096
000120 d5 af 06 3f 73 f9 96 bd c1 91 20 bf 05 7a 0d 3f
       0.5261205 -0.073717974 -0.627224 0.5526431
000130 a8 dc 61 bd ef 9a aa be aa 22 0e 3f 16 3d 12 be
       -0.055142075 -0.3332133 0.55521643 -0.14281115
000140 6c 48 8a be c5 33 23 3e 86 36 28 3f 57 2a 36 be
       -0.27008379 0.15937717 0.65708196 -0.17789589
000150 10 e1 aa 3d 8c ef 78 3e 5f 93 d4 be e7 7f f0 3e
       0.083437085 0.2431013 -0.41518685 0.46972582
000160 15 0e 08 bf 70 74 e0 bd c4 97 23 3d 1e 38 ac be
       -0.5314649 -0.10959709 0.039939657 -0.33636564
000170 10 7f 00 bf 19 be 87 be 68 41 9c 3e 3a 7e e6 3e
       -0.5019388 -0.2651222 0.3051865 0.45018178
000180 eb c3 ed be e6 28 90 be 9b f5 29 bf 60 f6 c3 3e
       -0.46438536 -0.28156203 -0.6639039 0.38273907
000190 01 f4 ac 3d 0c 84 09 bf 1a 9f 1b bf e7 13 92 be
       0.084449776 -0.5371711 -0.60789645 -0.2853081
0001a0 ab 89 de 3e ba 9f 0e bf 5b 4f 14 bf 1e 13 11 3e
       0.43464407 -0.55712473 -0.57933587 0.14167449
0001b0 e1 f3 00 3f 3e 45 de bd 7d 60 e5 3e 46 ad c1 be
       0.5037213 -0.10853051 0.44800177 -0.3782751
0001c0 b8 5e 09 3f 18 80 81 3e c5 bb ea be da f6 a7 be
       0.53660154 0.2529304 -0.45846382 -0.3280552
0001d0 17 f2 a0 3d 2e d1 c4 be aa 38 b5 3e 08 75 cc 3e
       0.07858675 -0.3844084 0.35394794 0.39933038
0001e0 b6 3b d0 3e ab ac c9 bd 72 5d 2d 3f aa 21 49 3d
       0.40670556 -0.09847387 0.6772071 0.04910437
0001f0 12 0c e3 3e a3 e2 a4 be 02 05 18 bf 3b 5e c6 be
       0.44345146 -0.3220416 -0.5938264 -0.38743767

node_function_neighbor.0.bias f4 [64]
000000 cb c2 36 bf 24 d9 26 3f 67 36 86 3e 24 24 02 3f
       -0.7139098 0.6517508 0.2621338 0.50836396
000010 11 5a c4 3e 13 78 2a bf a5 56 10 3f 42 a9 bf 3c
       0.38349965 -0.6658947 0.5638221 0.023396138
000020 90 7f c9 3e c6 7d b3 3d 15 d8 fc 3d b5 d3 69 be
       0.39355135 0.08764224 0.12345902 -0.22834666
000030 d0 f3 0b 3f 73 9e 2a bf f4 a5 f7 3e 1f d9 17 bf
       0.54668903 -0.66648024 0.483688 -0.59315675
000040 34 f2 32 3f 29 7f 1e bc 7c ac 17 bf 77 40 1b 3f
       0.6990082 -0.009673872 -0.59247565 0.6064524
000050 25 14 75 3e 42 58 24 bf c1 77 42 3e 9e 7e cf 3d
       0.23933466 -0.6419717 0.18990995 0.10131572
000060 5a 63 f0 be aa 56 16 3f 90 1e f0 be 80 a4 0c bf
       -0.469508 0.5872599 -0.46898317 -0.5493851
000070 de 05 2a bf a9 fc da be 4c 48 ff 3e 10 bc b7 3c
       -0.664152 -0.4277089 0.49859846 0.022428542
000080 32 3d 1a 3d 8e 50 25 bf b1 78 30 bf f8 c3 ba be
       0.037656017 -0.6457604 -0.6893416 -0.36477637
000090 3f ea 27 3f 12 46 d3 be 55 ea f2 be 7d f4 0a bf
       0.65591806 -0.41264397 -0.47444406 -0.5427931
0000a0 e3 29 d0 3d 62 1d 2e 3f 09 aa 0a bf d7 7d 52 3f
       0.10164239 0.68013585 -0.54165703 0.82223266
0000b0 78 f0 c8 3b 73 2b a8 be b2 d5 a2 3e 64 c8 02 bf
       0.0061321817 -0.3284565 0.31803662 -0.5108702
0000c0 0f 87 43 bd e6 c7 4c 3d d7 2a 1a bf de 0b 05 3f
       -0.047736224 0.049995326 -0.6022162 0.5197123
0000d0 49 25 a7 3d f3 f1 68 bd 69 7d 2c bf 59 6f e1 3d
       0.081614085 -0.056871366 -0.6737886 0.11007566
0000e0 01 5f 38 be 6f 01 87 3e 7f 0f 2b bf 4c 66 1a bf
       -0.18004991 0.2636828 -0.6682052 -0.6031234
0000f0 78 9c 2f 3f e9 39 32 3f 22 b7 a5 be 88 59 cf 3e
       0.6859813 0.69619614 -0.32366282 0.40497994

node_function_neighbor.2.weight f4 [64, 64]
000000 d0 7a 5e bc 74 02 0e 3d 74 4d 59 bd 40 96 bb 3d
       -0.0135790855 0.03467031 -0.05305238 0.09159517
000010 a4 13 0f 3d 30 bf ef 3d e8 15 9b bd 54 bf f3 3d
       0.03493084 0.11706388 -0.07572538 0.11901727
000020 44 e8 33 3d 18 c6 cf 3c e6 46 b5 bd a0 bb ba bb
       0.043922678 0.025363013 -0.088514134 -0.005698636
000030 de c8 b2 bd 28 31 d9 bc 3e 2c b8 bd f6 6a 94 bd
       -0.087297186 -0.026512697 -0.089928135 -0.07246964
000040 40 bd 25 3b 60 1e b5 bd 6c 53 f4 bd 10 b4 a4 bc
       0.0025289804 -0.08843684 -0.11929974 -0.020105392
000050 d0 55 f9 bd 20 70 bf 3d 1a 4b c0 bd 20 62 96 3d
       -0.121745706 0.09347558 -0.093893245 0.073429346
000060 7e 84 f5 3d c4 66 61 3d 40 af 49 3b c0 7f 29 3c
       0.119881615 0.055029646 0.0030774623 0.010345399
000070 2e bb a7 bd ea 03 8b 3d 78 fd ef bc 30 1e a7 3d
       -0.081899986 0.06787856 -0.029295668 0.08160055
000080 d8 d1 aa bc 34 64 e6 3d 3c a4 f9 bd 5c 1c a0 3d
       -0.020852014 0.11249581 -0.12189528 0.07817909
000090 96 39 81 3d 6a 24 e3 bd 30 b7 e6 3c 40 31 31 3b
       0.06309812 -0.1109093 0.028163522 0.0027037412
0000a0 2a c3 b5 3d c0 16 1d bd 20 f6 a2 3c 78 4d 7c bd
       0.08875115 -0.038351774 0.019892752 -0.061597317
0000b0 d2 45 ab bd 40 63 54 bc 78 14 b6 bc b0 8f f0 3c
       -0.083629265 -0.012963116 -0.022226557 0.02936539
0000c0 e0 6b 6d 3d 22 5d 9e 3d ac 50 fa bd 4c 5f 57 bd
       0.057964206 0.077326074 -0.12222418 -0.052581117
0000d0 b8 7b ba bc a8 b5 d1 bc 88 84 a9 bc c6 bb ae bd
       -0.022764072 -0.025599316 -0.020693079 -0.08531909
0000e0 5a 81 ba bd 64 20 3f bd 60 d5 58 3c d0 06 8d bd
       -0.09106703 -0.04666175 0.013234466 -0.06886065
0000f0 88 27 99 bc 60 d3 18 bd 80 da 60 bc e8 8e ed bd
       -0.018695608 -0.037310958 -0.013723969 -0.11599523
000100 f3 d4 4d 3d 38 11 1b bd ee ec 7d 3d b7 37 d4 3d
       0.050251912 -0.037858218 0.061993532 0.10362189
000110 3b d3 8a bc 6a 4b 8a bd 34 33 71 3d 20 c8 83 bc
       -0.016946426 -0.06752665 0.05888672 -0.016086638
000120 cf 06 11 be 11 0e 87 3c 75 c6 88 bd 3a 1c a8 bb
       -0.14162754 0.0164862 -0.06678478 -0.005130318
000130 40 a7 04 3d da 60 8a bd 7b 99 de bc fb d8 af bd
       0.032386065 -0.06756754 -0.027172795 -0.085863076
000140 aa 7e c3 bd cf 71 c7 bd 04 94 39 3c 47 72 9f bd
       -0.09545644 -0.09738504 0.011326794 -0.077854685
000150 17 ed 2b be 20 c6 8d bd 3c 10 e8 bc 1d e8 b1 bd
       -0.16789661 -0.06922555 -0.028328054 -0.0868685
000160 7c 12 93 bb 67 75 a9 3c 62 1b 1e 3d 33 7a 12 bd
       -0.0044882875 0.020685865 0.038600333 -0.03576107
000170 4d 93 3a 3d 99 70 c9 3d ec 0b 85 3c 52 3f b5 bc
       0.045550633 0.098359294 0.016241036 -0.02212492
000180 67 a6 95 bd 1b 7f 04 be 0e 2b 2b bd ec 7d c8 3d
       -0.07307129 -0.12939112 -0.041789107 0.09789643
000190 69 a3 81 bc 76 77 b1 3d a6 d0 d0 3c 4f 89 0b be
       -0.01582499 0.086653635 0.025490116 -0.13626598
0001a0 55 6c 57 3d 5a 3e 99 bd a9 bd 3d bd b2 00 fb 3d
       0.052593548 -0.07482596 -0.046323452 0.12255992
0001b0 5d f4 92 3c 62 56 4d 3d 08 58 f6 3c 70 86 42 be
       0.017938787 0.05013121 0.030071273 -0.18996596
0001c0 c7 00 79 3b 4f 93 98 3d 96 66 ba 3d 92 6d b6 3d
       0.0037994848 0.07449972 0.09101598 0.08907618
0001d0 a6 9c 74 bd a3 00 1c bd 34 d9 4c 3d 8a 67 4d bc
       -0.059719704 -0.038086545 0.05001183 -0.012536893
0001e0 a0 2b ca bd 38 43 15 3d 42 9b a8 3d e1 11 64 be
       -0.09871602 0.036441058 0.08232738 -0.22272445
0001f0 0d 95 40 3d 9e 66 04 be 73 bd 00 be f3 e6 a6 bd
       0.047017146 -0.1292977 -0.12572269 -0.08149519
000200 e2 73 0a be 6c 64 48 bd 7c 9b 96 3d f7 6c 29 bd
       -0.13520768 -0.048923895 0.07353875 -0.041363683
000210 99 0b e4 3c 15 55 0b be 80 e0 1a bd 3f c2 d5 3d
       0.027837561 -0.13606675 -0.037811756 0.1043744
000220 9b 72 c7 bb 7f fc 49 bd 12 fc f6 bd 60 15 8f 3d
       -0.00608666 -0.049313065 -0.12059797 0.06986499
000230 db e6 a5 3b 54 a7 3c bd a5 95 c2 3d d3 23 4a 3d
       0.0050629205 -0.046058014 0.09501199 0.04935057
000240 6e a2 5a bc cb 09 77 3d 33 5a 31 3d 16 76 dd bd
       -0.01334439 0.060312074 0.04329891 -0.10813539
000250 56 9f 1b 3d f6 01 ac bd 73 8e 12 3d 3d 98 62 bd
       0.03799375 -0.083988115 0.03578038 -0.055320967
000260 3b 7b 39 bd 58 81 45 bd 27 11 e1 bd 9e 82 b0 3d
       -0.045283537 -0.048219055 -0.109896 0.08618663
000270 27 5c 0d bd 1a 7c c3 bd e7 0f b2 3d 8d 01 11 3e
       -0.03451171 -0.09545155 0.086944394 0.14160748
000280 46 c5 21 bd a2 c7 80 bd b5 a7 b2 ba 04 d0 9f bc
       -0.039494775 -0.06288077 -0.0013630303 -0.01950837
000290 e3 92 d1 bd 5e 14 95 bd f4 d9 38 be 52 89 b5 bd
       -0.102330945 -0.07279275 -0.18051893 -0.088640824
0002a0 43 eb aa bd 74 69 b4 3d a4 0f a4 bc 12 52 bd 3c
       -0.08345654 0.08809176 -0.02002699 0.023110423
0002b0 0d 0e 62 3d 9c 5d b1 bd 2e 79 0b bd e5 66 8f 3d
       0.05518918 -0.08660433 -0.034051113 0.070020474
0002c0 67 80 1d 3d ab 94 49 3d 82 bf 59 3c 00 32 39 bd
       0.038452532 0.049214046 0.013290288 -0.0452137
0002d0 5a f9 34 bd c9 6d c4 3d 01 ea b6 3d 68 b0 98 bd
       -0.044183113 0.09591252 0.089313515 -0.07455522
0002e0 23 56 21 bc 8b d0 ff bd e8 8c 91 bd bd 3d f6 bc
       -0.009847197 -0.12490948 -0.07106954 -0.030058736
0002f0 28 90 56 3d 32 b0 f7 3d e9 06 20 3d a4 52 ea bd
       0.052383572 0.120941535 0.03906909 -0.11441544
000300 3b 15 d6 3c 2e 2e 43 3d e6 14 dc bc 9e 82 bd 3d
       0.02613317 0.047651462 -0.026865434 0.09253429
000310 4f b9 fa bd a1 14 82 3d 0c e4 8f 3d bb 4b a0 bd
       -0.12242376 0.06351591 0.07025918 -0.078269444
000320 73 de 4f 3d 7f 6d 01 be 35 cb 14 be 69 09 b7 bd
       0.050749253 -0.12639426 -0.14530642 -0.08937342
000330 7b e2 b4 3d 4c 68 e1 bc 7c 7e e6 3d 25 1b 5c 3c
       0.0883226 -0.027515553 0.11254594 0.013434206
000340 5f 3a 07 3e 2b b2 69 3d ba a4 a2 3c f1 cc 9b bd
       0.1320586 0.05705468 0.019853938 -0.07607449
000350 3d 17 c0 bd 99 5c 23 bd 40 35 30 bd 06 4d fe 3d
       -0.09379432 -0.03988323 -0.043019533 0.12417035
000360 51 4e 7c 3d fa 6d 16 3e 9a 94 9f bd 31 bd ba bd
       0.061598126 0.1469039 -0.077920154 -0.09118117
000370 02 3b b8 3c 2d 36 aa 3d 8c e6 09 3c 3d 3a 1e 3d
       0.022489075 0.083111145 0.008416783 0.03862976
000380 96 49 16 3e b0 61 bf bd c8 84 84 bc a3 ee f4 bc
       0.14676508 -0.09344804 -0.016176596 -0.029898947
000390 c2 9d 67 bd 47 15 be 3d 19 d4 15 bd c9 cb 41 bd
       -0.056546934 0.09281402 -0.036579225 -0.047313485
0003a0 28 6d 78 3d 57 49 9d 3d 3c 6e b8 3a 5a ce 5b bd
       0.060650975 0.07680004 0.0014070938 -0.05366359
0003b0 77 64 2d bd a2 9a 8a 3c f6 e4 42 bd b8 ed 13 bd
       -0.04233214 0.016919438 -0.047581635 -0.03611538
0003c0 4c 8c 14 3e 29 35 a1 3c 0c db 38 3c fc 4d de 3d
       0.14506644 0.019678669 0.011282694 0.10854718
0003d0 b4 b7 b1 3d ab ab 8c 3d 70 9a 16 be 13 7c a7 bb
       0.08677617 0.068686806 -0.1470735 -0.0051112263
0003e0 a7 24 72 3c 96 f8 2b 3d 6e 00 92 bc d1 4d 8f bd
       0.014779246 0.041985117 -0.01782247 -0.06997264
0003f0 04 f8 cf 3d 73 90 9a 3d 56 e9 8e bd 0b 2d 75 3d
       0.10154727 0.07547083 -0.06978099 0.05985741

node_function_neighbor.2.bias f4 [64]
000000 a8 5e 30 3d e3 46 ab bc ff b1 0b 3e 83 61 26 3e
       0.04305902 -0.020907825 0.13642119 0.16248135
000010 3d 0d b8 bd 46 54 d7 3d 20 41 c3 bd 07 1b 26 3e
       -0.089869 0.10514121 -0.09533906 0.16221248
000020 40 f1 2a 3e 2f 10 c5 bd 22 c3 64 bd 88 61 98 bd
       0.16693592 -0.096222274 -0.055850156 -0.074404776
000030 3f fd 14 bd 07 5b ea 3c a3 93 84 3d ff f9 2c 3d
       -0.036374327 0.028607858 0.06473472 0.042230602
000040 25 d2 e1 bc 0c 8a bb bd 68 25 18 bc cc 60 28 bd
       -0.027566025 -0.0915719 -0.009286262 -0.041107938
000050 8f 93 0e 3e 9e 01 3c 3e e0 c9 7c 3c 4f cf 32 3e
       0.13923477 0.18359992 0.01542899 0.17461894
000060 12 75 ec 3d 8d 37 1f 3e ed 8f 9b bd c1 9f e2 bd
       0.11545767 0.15548535 -0.07595811 -0.11065627
000070 fb 12 44 3d 11 08 b8 bd a2 07 53 3d 3d c4 3b 3e
       0.047869664 -0.089859135 0.05152095 0.18336578
000080 5a ac 80 bd c8 d2 bd bd 93 6e 5b bd 2e f3 1f 3b
       -0.062828735 -0.09268719 -0.05357225 0.002440642
000090 50 58 a4 3c a8 a3 2a 3d 15 d6 d5 bd 48 23 ee 3d
       0.020061642 0.04165998 -0.104412235 0.11627823
0000a0 91 29 81 bd 27 3a 0d be 0a b3 e1 3d 5a 15 a5 bd
       -0.06306756 -0.13791715 0.11020477 -0.08060713
0000b0 65 f3 62 bd e6 79 84 bb cf aa 2c 3e 42 31 39 3e
       -0.0554079 -0.0040428517 0.16862033 0.18085197
0000c0 e6 5e 2c bd 62 f2 12 3e a7 c1 89 3d 68 4e cf 3c
       -0.04208269 0.14350274 0.067263894 0.025305942
0000d0 9a e8 fd 3d e9 09 d7 3d c5 49 1e be cd 71 d5 3d
       0.12397881 0.10499937 -0.15457828 0.104220964
0000e0 b6 99 b5 bd 09 19 02 3d 48 96 5c 3e 72 9d fe bd
       -0.08867209 0.031762157 0.21541703 -0.12432374
0000f0 9a ea c0 bc 6b 38 5e 3c 8e 19 64 bc 2a f7 db bd
       -0.023549367 0.013563256 -0.013922108 -0.10740502

node_function_neighbor.4.weight f4 [64, 64]
000000 70 42 5c bc 75 e2 5c bd 95 4c 5b 3c 85 b4 a4 3d
       -0.013443574 -0.053926904 0.013384958 0.08042244
000010 d3 3c ad 3c 78 f0 cd 3d 58 d7 d9 3d e1 b7 f1 3c
       0.021147167 0.100556314 0.10636777 0.029506626
000020 eb 20 b2 bd 41 25 a9 bd 38 80 73 3d e8 fb ff ba
       -0.08697685 -0.08259059 0.05944845 -0.001953003
000030 95 78 fe bb 4e 47 98 3d 6b df 74 3d 1d 05 e3 3d
       -0.0077658393 0.07435475 0.05978338 0.1108496
000040 a3 31 6d 3c 48 2f 5b bd 18 51 ef bd 11 47 1b be
       0.014477166 -0.053511888 -0.11685389 -0.15163828
000050 22 1d f2 bd 68 0b 45 3d 49 f8 1d be 33 15 3c 3d
       -0.11821963 0.04810658 -0.15426745 0.045918655
000060 d1 3a 7f bd 36 e8 87 bd a7 aa 1b be 3b 8d aa bd
       -0.06231195 -0.066360876 -0.15201817 -0.08327719
000070 e0 fd 20 bc d8 68 42 3d bc 47 c5 bd ca c0 9b bc
       -0.0098261535 0.047463268 -0.09632823 -0.019012827
000080 36 6d c5 bd c0 59 99 bc 56 15 f7 bd b5 57 da bd
       -0.09639971 -0.018719554 -0.120646164 -0.1066126
000090 14 b3 17 3e 54 78 29 3d 50 8b 12 be d2 8f 9a bd
       0.14814407 0.04137452 -0.14310956 -0.07546963
0000a0 e8 d8 29 3d 69 93 31 bd ff 8e 56 bd 84 0f 85 bd
       0.041466624 -0.043353472 -0.052382465 -0.064971
0000b0 04 c4 39 bd 76 9d be 3d 5f 03 02 bd c3 e3 03 be
       -0.04535295 0.09307377 -0.031741496 -0.12879853
0000c0 3a fc d5 bd 2f 2e 08 3d 50 16 4c bd 84 e2 4a 3d
       -0.10448499 0.03324717 -0.049825966 0.04953243
0000d0 e2 52 18 3d ea 7d 9e bd 75 7e ba bd 4e 51 5f bd
       0.03718842 -0.0773886 -0.09106151 -0.054520898
0000e0 20 e7 ab bb 90 0a e7 3c 2f 5c 0c 3d 27 16 64 3d
       -0.005246058 0.028203279 0.0342676 0.05568519
0000f0 79 89 f5 3c be 79 b8 bd 48 7b e9 3c 10 0d 78 3d
       0.029972779 -0.090075955 0.028501168 0.060559332
000100 c0 46 1c 3b b7 c5 ef bd 37 60 f2 bd a9 9f d9 bd
       0.0023845881 -0.11707633 -0.11834758 -0.10626156
000110 ff 08 a2 bc 60 4d a8 3d 92 40 c2 bd 3d f6 0c bd
       -0.01977968 0.08217883 -0.09484972 -0.03441452
000120 77 f7 83 3d 33 6d 1b be 89 be 0c bc 3c d4 32 bd
       0.064436845 -0.15178375 -0.008590349 -0.043659434
000130 ae 74 5b 3d 79 8f 08 bd 84 7a 44 3c 5b 53 42 3d
       0.05357807 -0.03333995 0.011992101 0.047442775
000140 62 69 06 be 50 e6 3f 3c 48 85 58 3d 7d d2 7e bd
       -0.13126138 0.011712626 0.052861482 -0.062212456
000150 02 7e e6 3d 49 11 0e 3e b5 78 4d 3d 6f 5a 33 3d
       0.11254503 0.13873781 0.050163943 0.043787416
000160 93 25 bf 3d 29 7d 6f 3d b0 11 96 3d 30 c9 b7 bd
       0.093333386 0.05846897 0.073275924 -0.0897392
000170 c9 38 37 bd ff e7 08 be 3d 07 b2 bd f1 61 4b bd
       -0.04473189 -0.1336975 -0.08692787 -0.04965395
000180 40 fe c8 3d 70 9a ca 38 50 eb 1b bd 75 0f 70 3d
       0.09814119 9.660877e-05 -0.03806621 0.05860849
000190 f3 55 51 bd 6e c7 9a 3d da a4 16 3d ca 49 1c 3d
       -0.05110736 0.075575694 0.03677831 0.03815631
0001a0 8e bb a2 bd 61 6e f0 bc 39 74 e3 bd 7e 51 b1 3d
       -0.079459295 -0.029349508 -0.11106152 0.086581215
0001b0 1c 59 e7 bd 6f f1 53 3d cf 1f b8 3c d1 8b a6 3a
       -0.11296293 0.05174392 0.022476105 0.0012706463
0001c0 27 8a 4b 3a c1 43 83 bd 36 2c b7 3d 33 10 b7 bd
       0.0007764422 -0.064094074 0.089439794 -0.08938637
0001d0 ae 67 71 3d 06 ef 9f bd 60 6e 17 bd 80 09 c5 3c
       0.058936767 -0.07809262 -0.036970496 0.024052382
0001e0 30 f9 00 3c 7f 1b 63 bd d0 cb 7e 3d c7 bf c0 bc
       0.007871911 -0.055446144 0.06220609 -0.023528947
0001f0 5d e9 60 3d bc fd 8a bd 39 f4 92 3d 18 41 4d bd
       0.054910053 -0.06786677 0.07175488 -0.050110906
000200 18 a3 fa bc 71 56 be 3d a9 66 09 be 2b c6 ba bd
       -0.030595347 0.09293831 -0.13418068 -0.09119829
000210 9f 77 ba 3d fc bc 91 3d 38 c5 e9 3c b0 89 8d 3d
       0.09104847 0.07116124 0.028536424 0.069110274
000220 92 48 af 3d 96 35 e5 3c c5 3c fd bd ca 65 98 3d
       0.085587636 0.027979653 -0.123651065 0.0744129
000230 fd 9e 7f 3d d6 fb 75 3d d1 f7 96 bd 90 a1 c0 3d
       0.062407482 0.060054623 -0.07371486 0.094058156
000240 9d 59 cc 3c 4c 7e 1c bd db b1 9d 3d ad b7 a3 bc
       0.024945075 -0.038206384 0.07699939 -0.019985044
000250 79 ad 8b bd f7 aa 45 bd 0e 2b db 3d 2f c6 04 3d
       -0.06820197 -0.048258748 0.107015714 0.032415565
000260 8b 1e b1 3b 1e a9 69 bd 11 09 d0 bb 7b 08 39 3c
       0.0054052523 -0.05704605 -0.006348737 0.011293526
000270 21 50 24 bd 3e f1 7e 3c ac 57 f9 3d 2b 7f 71 bd
       -0.04011548 0.015560446 0.12174925 -0.058959167
000280 99 8d e1 3d 0e 00 25 bb 81 56 37 bd dd 62 b8 3d
       0.11013336 -0.0025177035 -0.04476023 0.09003232
000290 97 77 57 bd 18 a2 05 3d 33 36 6d 3d 51 a5 c8 3d
       -0.052604284 0.032625288 0.057913017 0.097971566
0002a0 e5 a0 18 3d 4f ab 5a 3c d3 c6 18 be 06 59 bc bd
       0.037262816 0.013346507 -0.14919595 -0.091966674
0002b0 8a 48 a2 bd 34 79 f6 3c 1d 34 c1 bd a0 9d 45 3d
       -0.07923992 0.030087091 -0.09433768 0.048246026
0002c0 7d 61 47 3d dd c7 cb bd 76 5b 17 bd 5e 8e 01 3e
       0.048676956 -0.0995023 -0.03695246 0.12651965
0002d0 3e 65 f2 bb c1 66 f9 3d d4 ba 67 bd 06 2c ab 3d
       -0.007397323 0.12177802 -0.056574658 0.08358006
0002e0 d8 6f 8c bd 08 38 00 3e f9 11 70 be 23 5e c6 bc
       -0.0685727 0.12521374 -0.23444356 -0.02421481
0002f0 a7 b2 b7 bb 13 ab b5 3d 9b 67 9d bd dc d7 4c bd
       -0.005606014 0.088705204 -0.07685777 -0.050010547
000300 08 a2 c8 3d 36 17 a0 3d 82 87 11 3e e7 14 8f bd
       0.0979653 0.07816927 0.14211848 -0.06986409
000310 d4 65 95 bd 31 e3 53 3d 24 36 a5 bd 03 e1 01 3e
       -0.07294813 0.05173034 -0.08066967 0.12683491
000320 d5 e2 86 3d ff d9 65 bc 0d 51 06 bc 0a 60 66 bd
       0.065862335 -0.014029025 -0.008198035 -0.056243934
000330 16 7f ad 3d 86 39 b6 3d a7 eb 17 3d d2 31 16 bd
       0.08471505 0.088976905 0.03708997 -0.036668606
000340 18 10 37 bd f0 1d 36 3d 52 87 84 3d eb 95 35 ba
       -0.044693083 0.044462144 0.06471123 -0.00069269416
000350 96 46 a5 bd b6 74 a6 bd 70 74 2c bc 2c fe d1 3d
       -0.08070104 -0.081277296 -0.010525808 0.102535576
000360 de 78 d9 3c ce 55 57 3c 82 85 96 bd e5 4f e5 bd
       0.026546892 0.013143016 -0.07349683 -0.11196879
000370 dc 0b f5 bd 42 37 8b 3b eb e1 03 3e f1 59 fe 3d
       -0.119651526 0.0042485306 0.1287915 0.12419499
000380 da 2e 7c bd 50 6f c5 bd 88 28 c4 3c e2 2a 82 3d
       -0.06156812 -0.09640372 0.023945108 0.063558355
000390 8a a3 93 bd c0 be 0a 3c b2 46 04 be 24 d0 64 bb
       -0.07208927 0.00846833 -0.12917593 -0.00349141
0003a0 89 7f b3 bc 70 12 ef bd 53 c1 1a 3e cc 00 77 3d
       -0.0219114 -0.116734385 0.1511281 0.060303494
0003b0 2a 49 a7 3d 83 23 c5 3b 58 a8 2f bd 2a 41 db bd
       0.08168252 0.006016196 -0.042885154 -0.107057884
0003c0 6c 41 d2 3d 7b 47 74 3d 4e ef d0 3d 85 c9 7d 3d
       0.102663845 0.05963848 0.10201894 0.061959762
0003d0 40 e9 6b 3c bf 92 a7 3d 22 6f cf bc e5 61 a8 3d
       0.014398873 0.081822865 -0.025321547 0.08221797
0003e0 dc 10 57 3d 8f 7c cb 3d d5 9b ef 3d 5a 83 27 3d
       0.052506313 0.09935867 0.116996445 0.04089675
0003f0 ff 07 85 bd d6 8a a8 bd 38 d7 a0 3d 32 46 af bd
       -0.06495666 -0.08229606 0.0785355 -0.085583106

node_function_neighbor.4.bias f4 [64]
000000 ef 30 c9 bd 5e 05 1b 3d f3 69 14 3b 19 d5 fc 3d
       -0.098237865 0.037846915 0.0022646158 0.12345333
000010 30 0b ba bd 6b 88 4d bc b1 34 8d bd db 8f 56 3e
       -0.09084165 -0.012544732 -0.06894816 0.20953314
000020 51 54 f0 3d b7 99 1a be 36 82 e9 bd 99 bd 3f 3e
       0.11734832 -0.150977 -0.11401789 0.1872467
000030 8a 59 de bd ac 44 2e 3e 97 ec 17 be f0 ee 2c be
       -0.10856922 0.17018384 -0.14836346 -0.16888022
000040 b0 cf 12 bd 20 51 2b 3d 60 09 95 3d 8b 34 50 bd
       -0.035842597 0.041825414 0.07277179 -0.05083136
000050 4a 9d 66 3d d9 74 f2 bd fa c2 af 3c cf 81 d1 3d
       0.056302346 -0.11838693 0.021455277 0.10229837
000060 ba d7 8d 3c 97 fe 21 be 19 04 b6 3c 4d 04 8e 3c
       0.01731478 -0.15819775 0.02221875 0.017336035
000070 4f 6b c6 3c 2c d9 cb 3d 9b b7 f2 3d 21 12 4f 3e
       0.02422109 0.099535316 0.11851426 0.2022176
000080 8a d5 02 be a5 c2 92 bc b3 3a b4 bd d1 cf 88 3d
       -0.12776771 -0.01791508 -0.088002585 0.06680263
000090 62 ac c0 3b 8d 24 08 be 25 47 96 bd 66 60 4a 3d
       0.0058799246 -0.13295193 -0.073377885 0.04940834
0000a0 92 d5 68 3d de 3a 9b 3c 00 ff 55 3d 9c ee 03 3c
       0.0568443 0.018948968 0.05224514 0.008052494
0000b0 02 65 93 3e 1b 80 59 3d 62 36 af bd f3 fa 94 3c
       0.28788 0.053100687 -0.085552946 0.018186068
0000c0 63 b4 e8 bd 53 43 26 bd 18 a5 3b 3e e3 d3 37 bd
       -0.11362531 -0.04059155 0.18324697 -0.044879805
0000d0 b9 e5 53 3c 56 fa a3 bc 3c 52 6b 3c f0 13 d4 bd
       0.012933188 -0.02001683 0.014362868 -0.10355365
0000e0 c2 89 fa bd 48 c1 3e bb 9c 00 d6 bd 68 05 1d bc
       -0.122333065 -0.0029106904 -0.10449335 -0.0095838085
0000f0 45 93 a3 3d 1f 3b 2f be f1 d4 1a be 6c e2 12 be
       0.07987074 -0.17112397 -0.15120293 -0.14344186

node_function_neighbor.6.weight f4 [4, 64]
000000 c6 b5 12 3d 00 36 6c bd 0a 2f c7 bd f4 c4 6a 3d
       0.035817884 -0.057668686 -0.09725769 0.057316735
000010 86 cf d7 bd a9 8d 0e bd 80 c9 59 bd b7 93 f8 bd
       -0.10537629 -0.034803066 -0.05317068 -0.12137549
000020 55 de c4 bb d1 21 c5 bc b0 7a 0d bd f6 81 a7 bb
       -0.0060079494 -0.024063976 -0.034540832 -0.005111928
000030 d8 2a 9f 3d 66 35 b4 bd 58 91 72 3d b2 5c 7f bd
       0.07771844 -0.087992474 0.05922064 -0.06234426
000040 69 62 a7 3d 24 5e 50 3c 84 c5 ff 3d b1 da 40 3d
       0.08173067 0.012717757 0.12488845 0.04708356
000050 70 48 83 bd 39 9b 5c 3d cd 23 88 bd 5d 1d 36 bd
       -0.06410301 0.05385897 -0.066474535 -0.044461597
000060 b3 8d a9 bd 4d 9d 3b 3d e8 00 31 bd f9 51 e0 bd
       -0.0827898 0.04580431 -0.043213755 -0.10953135
000070 c8 54 c8 bd a1 cd e5 bd 32 b2 c8 bc 8f 3e 0d bd
       -0.09781796 -0.11220861 -0.024499033 -0.03448349
000080 db e9 88 bd ab 30 fb bb 6c d5 84 bd 6d 6f 55 bd
       -0.066852294 -0.007665714 -0.064860195 -0.052108217
000090 85 6c da 3d f9 30 59 bd 8b 36 04 be bd 99 4e 3d
       0.1066523 -0.05302522 -0.12911431 0.050439585
0000a0 f9 62 d4 3d e4 96 84 3c f3 ac b1 3c 6e 2d b0 3d
       0.1037044 0.016185232 0.021688914 0.08602415
0000b0 5f 49 84 be ce f7 82 3d 4f 4f da bc b4 66 eb 3d
       -0.25837228 0.06394921 -0.026649145 0.114941984
0000c0 d5 83 8b 3d b8 3f c5 3d ff 7d b7 bd 74 d3 18 bd
       0.06812254 0.09631294 -0.08959579 -0.037311032
0000d0 1b 5c 89 bd 90 6c d5 bd bf b7 3b 3d fc 49 bf 3d
       -0.06707021 -0.10421097 0.04582953 0.09340283
0000e0 91 59 9d 3d 2c e9 0a be 82 bd d0 3d 6d ec 32 3a
       0.07683099 -0.1356551 0.10192396 0.00068253913
0000f0 54 84 f5 3c 1c a8 dd 3d 16 02 22 3c ef 05 5e 3c
       0.029970326 0.1082308 0.009888193 0.013551219
000100 8b 9c 0b 3d 59 9d 3c bd cf df 22 3d bd 6c 24 bc
       0.034084838 -0.046048496 0.03976422 -0.010035691
000110 67 e6 12 bd c6 98 df 3c 1e df 04 bc c1 0a 9d 3d
       -0.03586426 0.027294528 -0.008109836 0.07668067
000120 36 62 62 bd f6 9b 2b 3d 42 70 28 3c 4d 52 4a bb
       -0.055269442 0.041896783 0.010280671 -0.003087181
000130 26 d4 f6 3d dd 6d e5 3d 2a 93 7a bd 4f 67 fe 3c
       0.12052183 0.112025954 -0.061175503 0.03105512
000140 dc b0 f3 3d fb 4f e5 3c e2 6f 7f bd 34 a5 8b bc
       0.118989676 0.02799224 -0.06236256 -0.017046548
000150 83 45 f0 3c f2 17 a4 bd cb f5 d4 bd 79 1e 52 bd
       0.02933002 -0.0801238 -0.10398444 -0.051298592
000160 e1 f7 0f be cc ef e1 bc fb 70 c1 3d c2 76 d8 bb
       -0.14059402 -0.027580164 0.094453774 -0.006605954
000170 d5 b5 30 bc 3a e4 b8 3d 3f 24 f8 3d 43 3b bb 3d
       -0.01078554 0.09027906 0.121162884 0.09142163
000180 32 d0 5d bd 98 23 7f 3d 4f e9 70 3c d0 1a f6 3d
       -0.05415363 0.062289804 0.014704063 0.12016833
000190 bf f1 0b 3d 75 52 b7 bc 6f 84 38 3c 07 fa 16 3d
       0.034166094 -0.022378186 0.011262043 0.03685954
0001a0 de 1e b0 bd 2b 0b 26 3d 37 1f 44 bc dd e8 41 bd
       -0.085996374 0.040537994 -0.011970333 -0.047341216
0001b0 4f 84 31 3d 3d 7b 4a bd 51 e8 92 bb 44 a0 b0 bd
       0.04333907 -0.049433935 -0.0044832607 -0.08624318
0001c0 de 96 e3 3c b1 74 aa bb 4f 7d a6 3d 7c bf 2f 3c
       0.0277819 -0.005201899 0.081293695 0.010726806
0001d0 9e f4 0a bc 0f 94 e0 3d 68 64 f9 3a 15 7f 7a 3d
       -0.008481173 0.1096574 0.0019027116 0.06115635
0001e0 7a 75 2c 3c 8d ee 5f bd 24 15 37 3c 2e e9 e0 3d
       0.0105260555 -0.05467086 0.011174474 0.109819755
0001f0 b6 09 08 bd 12 1d 7c 3d a2 ed d2 3d 66 49 28 3d
       -0.033212386 0.06155116 0.10299231 0.041085623
000200 19 49 78 3d 55 58 10 3b 73 68 75 bd 46 8a 84 bd
       0.060616586 0.0022025306 -0.059914064 -0.06471686
000210 4c 44 d1 3d 89 85 d1 bc 73 b1 73 3c 2d 5b 42 bd
       0.10218105 -0.02557637 0.01487385 -0.047450233
000220 4d 07 84 bd 6e 7a dd ba ad 75 55 bd b6 10 15 bd
       -0.06446705 -0.0016897449 -0.052114177 -0.03639289
000230 38 93 2c 3d 6d 4d be bd 11 ca 83 bc a9 65 81 3d
       0.042132586 -0.092921115 -0.016087564 0.06318218
000240 d0 dc d3 bd 90 88 f4 bc df 0a 4c 3d 7f 44 80 3c
       -0.10344851 -0.029850274 0.049815055 0.015657661
000250 2f 3e fa 3c b3 d8 4c bd f1 6b aa bc c5 6b 32 3c
       0.03054723 -0.050011348 -0.020803424 0.010889952
000260 04 4b 57 3c 70 40 70 bd 2c a6 30 bd 7e 84 13 3d
       0.013140444 -0.058655202 -0.043127224 0.036015026
000270 e2 4d d4 bd aa 26 69 bd 72 54 81 3d 40 1f 15 be
       -0.103664175 -0.05692164 0.06314935 -0.14562702
000280 aa b9 33 3d bf 0d dc 3c 90 f3 82 3c c5 92 02 be
       0.043878235 0.026862023 0.01598528 -0.127513
000290 dc 73 91 bd 1b df 53 3d 1a 0b 85 3d c0 cf c5 bd
       -0.071021765 0.05172644 0.06496258 -0.09658766
0002a0 86 5a 78 bc cd ce d5 bd d3 34 b7 3d 29 c9 81 bd
       -0.015158301 -0.10439835 0.08945622 -0.063371964
0002b0 41 5b 23 bd f3 6d 02 bc 04 62 86 bd f8 6d 23 3d
       -0.03988195 -0.007960784 -0.06561664 0.039899796
0002c0 2d 3a 1e be f8 21 09 be 78 2a 75 bd 13 7b b7 bb
       -0.1545188 -0.13391864 -0.059854954 -0.0055993884
0002d0 47 ac e5 bd ba a1 18 3d 7f 56 7d bd dd cd 6e 3d
       -0.112145 0.03726361 -0.061850067 0.058301795
0002e0 80 82 69 3d a7 53 23 3d 96 49 51 3d c0 86 cf bd
       0.05700922 0.0398747 0.051095568 -0.101331234
0002f0 d0 38 c0 bd bd e9 32 bd 58 ab 64 3c 92 43 28 bd
       -0.09385836 -0.04367994 0.013956867 -0.041080065
000300 af d0 f8 bc 0a 90 86 3c 36 ed 4b 3d 43 e6 cb bd
       -0.030372946 0.016426105 0.04978677 -0.09956028
000310 82 34 2b 3d ac ec 6f bb ca 40 b2 3d dd c0 f2 bd
       0.041798122 -0.0036609573 0.08703764 -0.11853192
000320 5a 4b a1 bd 85 db 7a 3d 01 bd 81 3d e5 36 06 be
       -0.078757 0.061244506 0.06334878 -0.13106878
000330 c8 b7 48 3d a0 df 83 bd 6a 8b a9 3d f7 f8 b3 3b
       0.049003392 -0.064391375 0.08278544 0.0054923254
000340 40 b5 97 3a 0c be 57 bd 81 c1 ac bb 79 a7 87 bd
       0.0011574402 -0.052671477 -0.005272091 -0.0662374
000350 7f 71 0a bd 8e 96 c9 3d ed f7 f1 bd 5b 99 55 bd
       -0.033799645 0.09843169 -0.11814866 -0.052148204
000360 73 c8 fd bd 0a ab 65 3d 76 88 9e bc 0a 6d 14 be
       -0.12391748 0.05607132 -0.019352179 -0.1449472
000370 90 93 7b bd b1 76 58 bd 0f fd ef bd 27 a0 d5 bd
       -0.061420023 -0.052847568 -0.11718189 -0.10430937
000380 14 fb e2 bd 69 02 4a bc 2c ef 37 3d 19 80 d4 3d
       -0.110830456 -0.012329676 0.044905826 0.10375995
000390 11 8d 41 3d ad 73 79 3d 3d 81 b8 3d ad 46 27 bd
       0.047253672 0.060901333 0.09009025 -0.040838886
0003a0 23 40 76 bd 33 31 89 3c b9 61 cd bd af 7e 45 bd
       -0.06011976 0.016747093 -0.10028405 -0.048216518
0003b0 63 49 6d be 6a 1c d4 bd ba 03 8e bd 12 92 6a bd
       -0.23172526 -0.10356982 -0.069343045 -0.05726821
0003c0 38 4d f6 3d df a5 3f bd b4 88 f7 bd d9 1a d0 3c
       0.12026447 -0.046789046 -0.12086621 0.025403427
0003d0 6b 82 52 bd 54 e8 be bd 75 c3 26 bd cc 90 e9 bc
       -0.051393908 -0.09321657 -0.040713746 -0.028511427
0003e0 42 28 6e 3d 1c 5f 04 be 47 21 b0 3d 58 81 69 bc
       0.05814386 -0.12926906 0.08600097 -0.014252029
0003f0 7e c1 f0 bd 80 95 d0 3c 14 f1 88 bd 6e e5 61 bd
       -0.11755656 0.025461912 -0.06686607 -0.05515044

node_function_neighbor.6.bias f4 [4]
000000 be fd 0a bd 1a 14 25 3e ff c7 4f 3d 82 b8 4f bd
       -0.033933394 0.1612095 0.05072784 -0.05071307

edge_function.0.weight f4 [64, 4]
000000 a1 59 65 be 56 36 fc 3e 4f 60 82 3e 4e 62 c8 3c
       -0.22397472 0.49260205 0.25464103 0.024460938
000010 7b 20 49 3e f3 a1 1d be 6c 69 cf 3e 18 75 92 be
       0.19641297 -0.1539381 0.40510118 -0.2860496
000020 2a 93 c4 3e fa 84 ef 3d 58 e7 9b 3e c9 ea 65 3e
       0.38393527 0.11695285 0.3044994 0.22452845
000030 30 65 d5 be 80 76 ac 3e 1e 29 3c 3e 55 66 4a 3d
       -0.41678762 0.33684158 0.1837506 0.049413998
000040 53 57 94 3e a5 1a a4 3e 62 16 ad 3d 24 c9 94 3e
       0.28972873 0.32051578 0.08451535 0.29059708
000050 12 55 80 3e 0d 3c e2 3e 18 26 8b bd 04 79 13 3e
       0.25064903 0.4418644 -0.06794375 0.14401633
000060 18 3d 65 be b5 7d ab 3e 46 e8 24 3e 30 bf 34 be
       -0.22386587 0.33494344 0.1610423 -0.17651057
000070 37 d4 32 be dd cb e1 3e 3c 50 bd be b0 81 b0 3b
       -0.17463766 0.44100848 -0.36975276 0.0053865537
000080 d4 20 24 3e 24 f8 e0 3e 5b 7d 31 3e 3b 6f 7d be
       0.16028148 0.43939316 0.17332976 -0.24749462
000090 0e 6a 84 be 6d 12 8f be a0 28 be 3e 8e 97 83 3d
       -0.25862163 -0.27943745 0.3714037 0.06425391
0000a0 2e 91 9c 3e 88 81 16 3e 0a 51 a0 bc 5a a8 54 be
       0.30579513 0.1469785 -0.019569892 -0.20767346
0000b0 04 f3 88 be 71 72 90 be 72 f5 e7 bd 10 44 9b be
       -0.26747906 -0.28212312 -0.11326112 -0.30325365
0000c0 ce d3 b6 3e 72 c3 74 be c9 ee c5 be 9c e8 c9 3e
       0.3570847 -0.23902681 -0.3865874 0.3943528
0000d0 95 02 54 be 4d a3 a9 bc 2b b6 af bd ec d2 e2 bd
       -0.2070411 -0.02070775 -0.08579668 -0.110753864
0000e0 6b 1c 67 3d d5 45 8a 3e 77 c0 63 be d9 53 23 be
       0.056423586 0.27006403 -0.22241388 -0.15949954
0000f0 81 8d 73 be 84 69 74 3e 1b 7e 3e bd c8 d7 61 3e
       -0.23784448 0.23868376 -0.046506982 0.2205497
000100 f1 a7 62 3e a7 d8 d2 bd 59 14 d9 be 76 42 92 be
       0.22134377 -0.102952294 -0.42398337 -0.2856633
000110 05 6e 86 3e f4 49 c0 3e 21 08 d3 3e 88 7d 8b 3e
       0.26255813 0.37556422 0.4121714 0.2724421
000120 2e a5 08 bb e2 55 bf 3d 12 82 e8 3e 81 47 8c 3d
       -0.0020850408 0.09342553 0.45411736 0.06849576
000130 c1 eb 9a 3c 26 ae 76 bd 8d 36 74 3e 24 59 d3 be
       0.018911244 -0.060224675 0.23848934 -0.41278946
000140 96 a6 e0 be 4b 71 2c bd 20 83 03 be cc 25 5b 3e
       -0.43877095 -0.042100232 -0.12842989 0.21401137
000150 05 d4 c6 be 05 74 e9 3e af 40 bb be 59 80 8c 3e
       -0.38833633 0.45596328 -0.36572787 0.27441671
000160 e4 56 73 39 20 49 8f 3e 97 72 81 3e b7 30 9a 3e
       0.00023206655 0.27985477 0.25282738 0.3011529
000170 d9 b5 5f 3d 24 e3 10 be e7 7a 1b bc f9 b2 cc 3e
       0.054616783 -0.14149147 -0.009489751 0.39980295
000180 a7 6f 12 3e 43 9c f4 be b5 0a f4 3e e7 23 88 be
       0.14300404 -0.47775468 0.4766442 -0.2658989
000190 82 06 cc be 0a ba eb bd f5 30 b5 3e 12 ef ac 3e
       -0.39848715 -0.115100935 0.35388914 0.33776146
0001a0 27 a6 02 3f 9c 8f 6a be 07 89 c9 bd f3 90 80 be
       0.5103478 -0.22906345 -0.09840589 -0.25110587
0001b0 18 72 f3 3d 6c 1f c8 be ac 17 d9 3d b3 e9 8b 3d
       0.11886996 -0.39086473 0.10600218 0.06831684
0001c0 e1 b5 c1 3e 6d 9d 89 3e b3 2a 25 3e 36 41 5f bd
       0.37834075 0.2687792 0.1612957 -0.05450555
0001d0 9c d1 20 be 7c fd c8 3e 32 5c 10 be 00 44 ae be
       -0.1570496 0.39255893 -0.1409767 -0.34036255
0001e0 a6 e1 69 3e f3 14 b2 be 6c 0c 9d be 7e 7a b5 3e
       0.22839984 -0.34781608 -0.3067354 0.35445017
0001f0 56 0d 95 3e 04 4e eb 3e f4 f9 70 3e 76 36 92 3e
       0.29111737 0.4595796 0.2353285 0.28557175
000200 f5 a4 17 be 2e de e9 be d8 d0 aa 3d 53 9b db 3b
       -0.1480902 -0.45677322 0.08340615 0.0067018657
000210 99 75 e5 be da 20 a1 be 97 61 2e be 3a 9f 96 3e
       -0.44816282 -0.31470376 -0.17029415 0.29418355
000220 5e 67 a4 be cf ca cb 3e 71 11 92 3e 6a dd 1e 3e
       -0.32110113 0.39803168 0.28528932 0.1551415
000230 5e 10 99 3e bb 7c 23 be 62 18 e1 be c4 2f 66 3e
       0.298953 -0.1596555 -0.43963915 0.22479159
000240 3b d6 9d bd 61 51 38 be ed 2f 6f 3d 57 78 36 3e
       -0.07706877 -0.17999794 0.058395315 0.17819344
000250 b7 40 68 3e 35 44 e7 3e ed c2 d6 3d c1 c6 26 be
       0.22680937 0.45169225 0.10486398 -0.16286756
000260 0f 37 f1 bd 63 23 2f 3e cf 71 82 3d c4 4d 0d be
       -0.1177808 0.17103343 0.063693635 -0.13799196
000270 5c c9 cd be a7 70 34 be 0e bf 2d be 40 34 a6 3e
       -0.40192688 -0.17621098 -0.16967413 0.3246174
000280 3b 6f 22 be 8f c6 c5 3d 43 8c 74 bd 13 36 19 3e
       -0.15862744 0.09657013 -0.059704076 0.14962034
000290 ee 60 e4 be 5c 0c 71 3e a9 e8 a8 be 65 5b c7 bd
       -0.446052 0.23539871 -0.32990006 -0.09734229
0002a0 b6 6c 96 be ad a9 b1 be 1c eb 8c be 18 85 5f be
       -0.29379815 -0.34699765 -0.27523124 -0.21828115
0002b0 fa 63 fa 3e fd e8 68 be a5 03 d5 be a9 cf dd 3e
       0.489044 -0.22745128 -0.41604343 0.43322495
0002c0 f0 ed b4 be 3e 4c 45 3e d6 98 c0 3e 2a 1f 4a 3e
       -0.35337782 0.19267365 0.37616605 0.1973845
0002d0 15 90 d1 be 4f 80 dc 3e b9 cd a6 bd 6c 5a c6 3e
       -0.40930238 0.43066642 -0.08144707 0.3874086
0002e0 0f 9e 77 3e e9 57 0c be 8d 24 66 be 27 08 f3 3d
       0.24181388 -0.1370541 -0.2247488 0.11866789
0002f0 db dd 91 3e 38 29 1d be 21 85 2d 3e 27 ba 8f 3e
       0.28489575 -0.15347755 0.16945316 0.2807171
000300 0a b8 ae 3e 92 00 e0 be 2f 08 ec 3e af c0 be 3e
       0.34124786 -0.43750435 0.46099994 0.3725638
000310 fe b3 84 be ef 91 e5 3e 60 d4 cf 3e fe 36 da 3e
       -0.25918573 0.448379 0.40591717 0.4262008
000320 01 df e0 3e 55 f8 37 3e cf ba 95 be e8 cb 99 3d
       0.43920138 0.17965825 -0.29244086 0.07509595
000330 51 12 5b be f4 4e 68 bd 10 b2 0c be 69 b4 8b be
       -0.21393706 -0.05671592 -0.137398 -0.2728608
000340 65 58 a4 bc bb 2e 63 be a6 b4 05 3e a6 c5 4a 3d
       -0.020061681 -0.22185795 0.13057193 0.0495049
000350 14 fa b2 be e7 1b 11 3e 9d b7 7a be f6 9c 13 3e
       -0.3495642 0.141708 -0.24484105 0.14415345
000360 a1 90 a0 be ff b3 c5 3e 02 17 3b 3e 8d fa 3d 3e
       -0.31360343 0.3861389 0.18270496 0.18552609
000370 d4 6d db 3e e5 1c 1e be ba 8f 48 3e 87 b7 0c bd
       0.4285723 -0.1544071 0.19586077 -0.034354713
000380 00 72 e9 be cd c3 b7 be 03 6e a6 be 51 c6 e8 3e
       -0.45594788 -0.35891572 -0.32505807 0.45463803
000390 a8 36 66 be 17 86 74 3e 4b 98 18 be bf 19 20 3e
       -0.22481787 0.23879276 -0.14901845 0.15634821
0003a0 94 23 b0 3e ce 3b d4 3e 08 24 8b 3e 78 36 f5 be
       0.34402144 0.41451877 0.27175927 -0.4789312
0003b0 51 76 cb be 5a 3c c7 3e f9 08 c3 3e e1 1b be 3e
       -0.39738706 0.38913232 0.38092783 0.37130645
0003c0 19 c6 6f 3e 47 61 ce be c8 54 53 be 23 b7 08 3e
       0.23415412 -0.40308592 -0.2063781 0.13351111
0003d0 84 ad a5 be 78 0f 44 ba 87 75 e4 be 75 52 83 3e
       -0.32358944 -0.00074791117 -0.44620916 0.25648847
0003e0 f8 5d ba 3e 69 98 48 be 7a f6 a7 be 19 33 b0 3e
       0.36399817 -0.1958939 -0.32805234 0.34413984
0003f0 d4 f6 db 3e cb 45 b2 be 67 63 99 be c4 54 64 bd
       0.42961752 -0.34818873 -0.2995865 -0.0557449

edge_function.0.bias f4 [64]
000000 ce 98 d9 3e 65 7e ef be 8f fa 8b be b7 b2 00 be
       0.42499393 -0.4677612 -0.273396 -0.12568174
000010 64 86 61 bd 2e 80 d1 be 4d ca 96 be 99 7f a2 3e
       -0.055059806 -0.40918106 -0.29451218 0.31737974
000020 b2 8d 0c be 02 a1 18 bd 95 46 bc 3e 02 08 e0 3e
       -0.13725927 -0.037262924 0.367726 0.4375611
000030 de 48 ab be 9e 1f dd 3e ac 38 da 3c db 04 a6 be
       -0.3345403 0.43188184 0.026638351 -0.3242558
000040 cd c3 ce 3d de 5d a7 3e 35 5a 3f be 05 30 79 3e
       0.1009594 0.32688802 -0.18686755 0.24334724
000050 e2 c9 1a 3e 92 93 da be 2b 91 e2 be 29 da 05 bf
       0.15116075 -0.42690712 -0.4425138 -0.5228601
000060 58 fc 7e 3e 7e 94 ad bd 54 88 8f 3d f4 17 83 3d
       0.24900949 -0.08475588 0.070084244 0.06401053
000070 08 e6 59 bc 6f e4 56 3e 1b 90 54 3e 72 f6 bc 3c
       -0.013299473 0.20985578 0.20758097 0.023066733
000080 af 0b 60 be 4c cd 33 be 29 88 a0 be 6a f9 65 3e
       -0.21879457 -0.17558783 -0.31353882 0.22458425
000090 87 5d 48 3e 2f c0 89 be b6 49 c6 3e 5b 0f be be
       0.19566928 -0.26904437 0.38728112 -0.3712109
0000a0 48 ed 17 3f 50 dd f3 be c6 d4 07 3d 3d 45 5c 3e
       0.5934644 -0.47629786 0.0331619 0.21510787
0000b0 8b f9 82 be d5 fe 14 be 32 b3 00 3f 75 c8 99 3e
       -0.2558101 -0.14550336 0.5027343 0.3003575
0000c0 1e 93 6c 3e 8c 3d e8 3e 77 13 d1 3e c6 b5 40 3e
       0.23102996 0.45359457 0.40835163 0.18819341
0000d0 b3 96 70 3d 74 5a a0 3e 2b 2b ff 3e a6 4b ae bd
       0.058737468 0.3131901 0.49837622 -0.085105225
0000e0 31 3a 95 3d ba 7c 5e 3d 28 fe ee be e4 46 06 3e
       0.0728649 0.054318167 -0.4667828 0.1311298
0000f0 7a 0b 85 3e a9 5a 8f 3e e8 ab ed be 62 c9 77 3d
       0.25985318 0.27998856 -0.46420217 0.060494788

edge_function.2.weight f4 [64, 64]
000000 12 4f 72 3d 20 86 b5 bc 0c d8 44 3d 7b 1b aa 3d
       0.05915744 -0.022158682 0.0480576 0.08306023
000010 71 bc 1c bd 04 be 07 3d c6 49 01 bd c1 02 90 3c
       -0.03826565 0.033140197 -0.031564496 0.017579438
000020 39 ed 27 3c e1 bc b7 bd 41 07 7f bd eb 9a c4 bd
       0.010249429 -0.08971573 -0.062262777 -0.09599861
000030 bc f9 bf bd 18 0d 86 bd 9a 98 c0 3d f9 9d ac bd
       -0.09373805 -0.06545466 0.094041064 -0.084285684
000040 9c 9f 28 be fc c1 d6 3d 5f a6 b7 bc 95 50 46 bd
       -0.16467136 0.10486218 -0.0224182 -0.048416693
000050 9b 0f ad bd 1c 3c 25 bc 7f 9a d5 3d 5e 2d dd 3d
       -0.08450242 -0.010085132 0.104298584 0.10799669
000060 2b b0 c0 bd 05 a7 05 3e 49 1c 5e 3d 3e 88 2f 3c
       -0.094086014 0.13051994 0.054226194 0.010713635
000070 dc 44 eb bc 40 3e ff 3d 6e a9 74 3d 76 13 ba 3d
       -0.028719358 0.12463045 0.059731893 0.09085743
000080 27 cc 87 bd e5 45 3c bd db ff 3f bd aa ad da bd
       -0.06630736 -0.045965094 -0.046874862 -0.10677655
000090 38 3b 2c bd 5e 36 b3 bc 35 85 93 3d 7a 10 43 3d
       -0.042048663 -0.02187651 0.072031416 0.047623135
0000a0 66 0d 08 3e 86 78 04 3d 6e 8d 3b be 12 73 0d bd
       0.13286361 0.032341503 -0.1831567 -0.034533568
0000b0 93 d5 b8 bd 80 57 f3 bc 02 0b 30 3d ee 0b aa bd
       -0.09025111 -0.02970481 0.042979248 -0.08303057
0000c0 c8 7a 17 3b 23 6a 48 bd af 79 95 3d 80 ef b5 3b
       0.0023113955 -0.048929345 0.072986 0.0055522323
0000d0 ee f0 78 bd 84 c9 8c 3d 35 9d 69 3d 23 31 b5 bc
       -0.060776643 0.068743736 0.05703469 -0.022118157
0000e0 4c 93 a1 bb 54 2c b5 3d 27 8b 8a bd 04 4c cf 3d
       -0.0049308892 0.088463455 -0.067648225 0.10121921
0000f0 e8 ff 16 be b6 f7 1e bd 6d b9 b8 bd 30 2d 90 3d
       -0.14746058 -0.038810454 -0.09019742 0.07039869
000100 05 37 cf 3c 3b 79 1b be 16 2a 0e 3d a1 8f 89 bd
       0.02529479 -0.15182965 0.034708105 -0.06716848
000110 8a 48 48 bd 73 80 ee bc b2 18 ae bc 28 da bb bd
       -0.048897304 -0.029113984 -0.02125201 -0.091724694
000120 18 96 96 3d 74 2f 2b bc 03 ec 06 be cb e8 a5 bd
       0.07352847 -0.010448325 -0.13175969 -0.08101042
000130 8a b8 de 3c 9d b4 aa bd f6 5b 47 3d b7 53 e5 3b
       0.027187604 -0.083352305 0.048671685 0.006998505
000140 e5 44 b7 bd 9e ac c7 bc df c9 e8 3d d3 ad 52 bd
       -0.089486875 -0.024374302 0.11366629 -0.051435303
000150 ff 83 fa bb 09 ba e4 bd 77 f6 64 3b 17 5d d5 3d
       -0.0076451297 -0.11168296 0.0034936944 0.10418146
000160 0e ac 6a 3d 36 ac bd bc 80 85 09 be c2 31 03 3d
       0.05729299 -0.023153406 -0.13429832 0.032029875
000170 c4 a0 87 bd be 62 01 3d 67 f0 af bd cc 88 a1 3d
       -0.066224605 0.03158831 -0.08590775 0.0788742
000180 0f 17 df bc bb a5 86 bc 25 e6 c2 3d 4d b1 17 be
       -0.027232675 -0.016436448 0.09516553 -0.14813729
000190 46 86 b7 bd 1c 52 fb bd 88 ff e5 bd fe a6 3f be
       -0.089611575 -0.122715205 -0.11230379 -0.18716046
0001a0 3e cd b9 3d 54 cf 3c 3d c0 b8 a2 bd 39 e3 e8 bd
       0.0907235 0.04609616 -0.079453945 -0.11371464
0001b0 64 14 de 3d 19 82 3d 3d 40 27 ca bd 96 93 f4 bd
       0.10843733 0.04626665 -0.098707676 -0.11942212
0001c0 ae 81 c9 ba 63 a1 ef 3d d1 04 a0 3c 51 37 93 bd
       -0.001537373 0.11700704 0.019533547 -0.07188285
0001d0 d4 6d e4 bc d6 2c 35 3b 48 f7 83 3d 52 4d a1 bd
       -0.027884401 0.0027645133 0.064436495 -0.07876076
0001e0 5a 1e c9 bc 99 6f e3 3d 20 60 b5 bd 6e 89 37 bd
       -0.024550606 0.1110527 -0.08856225 -0.044808798
0001f0 8b 2b de bc 50 c1 b6 bd 85 77 aa bd 4c 9b 7c 3d
       -0.027120372 -0.0892359 -0.08323578 0.06167154
000200 58 03 54 bd 67 f8 24 ba ba 2e a2 3d 0d 57 fc bc
       -0.051761 -0.00062931183 0.07919069 -0.030803228
000210 4e 42 27 3d 75 f7 f7 bd f1 52 b2 3d b5 ec 15 be
       0.040834717 -0.121077456 0.08707226 -0.14641078
000220 c5 b8 82 bd 72 b5 ff 3d 96 98 4e 3c 24 97 10 be
       -0.06382898 0.1248578 0.0126096215 -0.14120156
000230 de 72 97 bd ae 8d 0e 3d 7f 8e e0 ba 31 c7 cd bc
       -0.07394956 0.034803085 -0.0017132311 -0.025119396
000240 00 17 9e 3d d2 b9 c9 bd 8d be 9b 3d 2b 08 da 3d
       0.07719231 -0.098498955 0.07604704 0.10646089
000250 a8 48 22 3d cb 0d 3d bd 9a 47 7a bd ca 46 4d 3c
       0.03962007 -0.046155732 -0.06110344 0.012529084
000260 e5 30 c1 bd 60 c5 97 3d ad 76 23 3d 27 1b f1 bd
       -0.09433154 0.07410693 0.0399081 -0.11772757
000270 8f 33 89 bc 0d 13 a6 3d 0d e4 01 3d 56 2a 62 bc
       -0.016748218 0.081091024 0.031711627 -0.013804039
000280 58 c5 d4 bd 65 a7 07 3b ee 54 bb 3c 20 08 49 3d
       -0.10389203 0.002069914 0.022867646 0.049080014
000290 77 60 9e bd 7a 7d 96 3d af 78 e8 bd 19 de df 3a
       -0.07733243 0.073481515 -0.113511436 0.001707974
0002a0 16 08 2e 3c a7 bd cd bd 1a 8c e4 bd af 9a 86 3d
       0.010622045 -0.10045939 -0.11159535 0.06572472
0002b0 91 a2 e8 bd 60 be 8a bd ee df d9 bd da a7 ac 3c
       -0.11359132 -0.067745924 -0.10638414 0.021076132
0002c0 90 3e 1c be ba 4c 64 3d 12 db f2 bd f8 68 83 bd
       -0.1525824 0.055737235 -0.118581906 -0.064165056
0002d0 79 a1 c2 3c ff bd 90 bd 2c f7 62 3d 6f 6c 9c 3d
       0.023758637 -0.07067489 0.055411503 0.076378696
0002e0 3a 7c b1 bd 27 1a 7f bd 5c c3 0e be 7b 74 a3 3d
       -0.086662725 -0.0622808 -0.13941711 0.07981201
0002f0 26 69 33 3d a3 d8 1e be 88 11 a1 bd eb 46 0c be
       0.04380145 -0.15512328 -0.07864672 -0.13698928
000300 3b 98 8e 3d b3 93 89 3b bd c0 8e bd a5 ef b4 bd
       0.069626294 0.0041985153 -0.06970356 -0.08834771
000310 a4 16 f9 bc ae b4 a4 3d 9c ce 12 bd a3 5d f0 3c
       -0.030406304 0.080422744 -0.03584157 0.029341524
000320 79 7e 46 bd dc ea 0e be 76 ee 91 3a 8f bd cb 3c
       -0.048460457 -0.13956779 0.0011133689 0.024870662
000330 05 44 0d be 4d ec ec bd ad 61 83 bd 6e 58 61 3d
       -0.13795479 -0.11568508 -0.064151146 0.055015974
000340 36 48 35 3c f5 c6 cb bd 0b 20 01 3d 69 b4 99 bd
       0.01106458 -0.099500574 0.0315247 -0.07505114
000350 51 c4 b3 bd d1 c4 96 3d 67 60 35 bd 2d 36 14 be
       -0.08777679 0.073617585 -0.04428139 -0.14473791
000360 44 93 bf bc 14 b0 58 bd a2 e3 6f 3d e9 46 84 3c
       -0.023385651 -0.052902296 0.058566697 0.016147094
000370 93 ed 08 bd 25 c9 2d 3d c9 66 80 3d 75 b7 94 3d
       -0.033429693 0.042428154 0.06269605 0.07261554
000380 4c 7d 9c bd 52 f9 81 3d c1 91 0a bc 9b 6a 91 bd
       -0.07641086 0.06346382 -0.008457602 -0.071004115
000390 51 ca 20 bd 3b cb db 3c 6e 60 de bd 6c 0a 01 be
       -0.039255444 0.026830306 -0.10858236 -0.12601632
0003a0 72 25 6c 3d 78 f9 cb bc 57 2b 04 be 11 a2 81 3d
       0.057652898 -0.02489923 -0.12907158 0.0632974
0003b0 ed 47 b0 3d 54 a8 2e 3d 39 ec 02 bd 7a ff 94 3d
       0.08607469 0.042641 -0.03196356 0.07275291
0003c0 84 f2 1b 3d 40 96 a5 bd 86 fb 15 3d db 3f 87 3d
       0.038073078 -0.080852985 0.036616825 0.06603976
0003d0 6f 4f 4a b6 b6 2d f2 bd 45 dc 11 3d 95 e4 58 be
       -3.0146582e-06 -0.11825125 0.035610456 -0.21180947
0003e0 b9 1f c3 bd d1 a2 8d 3d ea e1 07 be 6f f1 cd 3a
       -0.09527535 0.069158204 -0.13269773 0.0015712212
0003f0 fe 4a 2a be 6d 6a 88 3d 82 96 33 3d 6a 02 1f be
       -0.1663017 0.06660924 0.043844707 -0.15528265

edge_function.2.bias f4 [64]
000000 86 8f 42 bb d5 9a b0 3d 08 4d a0 3d 71 29 00 be
       -0.0029687597 0.08623282 0.078271925 -0.12515809
000010 8f 18 f8 bd 13 97 3b 3d 22 f5 c2 3d df 06 30 3d
       -0.12114059 0.045798372 0.095194116 0.042975303
000020 10 0a b9 bc 26 27 85 3b dd 1f 97 bd ee e7 ed 3d
       -0.022587806 0.0040635047 -0.07379124 0.11616503
000030 3f 74 b2 bb a5 df d9 bd e7 e4 63 bc 4a 97 01 be
       -0.0054459865 -0.1063836 -0.013909555 -0.12655368
000040 d3 9b 77 3d 16 7f 0f be d7 36 1e 3c 75 9e cc 3d
       0.06045134 -0.14013323 0.0096566295 0.09991161
000050 1f 79 5b bd 7a a6 fe bd 5d 3c bb bd a9 98 31 3d
       -0.053582307 -0.12434097 -0.09142373 0.04335848
000060 4a d5 69 bb 67 83 3c 3d e5 22 30 bc 2e e5 83 3d
       -0.0035680109 0.046023753 -0.010750507 0.06440197
000070 f0 4a 34 bc 96 d4 0a 3e b6 44 d9 3d 30 90 93 3d
       -0.011004195 0.13557658 0.10608809 0.07205236
000080 09 95 3d 3d 4c fb 11 3e 60 fd c1 bc 09 f6 6f bc
       0.04628471 0.14256018 -0.023680389 -0.014646062
000090 35 ad 5a 3d f0 52 17 bd 1a f3 9e 3d de b2 20 3d
       0.05338784 -0.03694433 0.07761212 0.03923308
0000a0 93 12 8a bb 11 2e 5f bd df 55 d9 bd 16 d3 90 3d
       -0.00421364 -0.05448729 -0.10612082 0.070715114
0000b0 32 b0 90 3d 43 df ee bd af ef 8c 3d 87 26 b8 3d
       0.070648566 -0.116636775 0.068816535 0.089917235
0000c0 93 ff de bd 5f ae b5 bd 05 8b b1 bd 74 36 0e be
       -0.10888591 -0.08871149 -0.08669094 -0.1388796
0000d0 0a 1f ce bd d0 18 90 3c ad 7a 1b 3e 96 32 f9 bd
       -0.10064514 0.017589957 0.15183516 -0.121678516
0000e0 ee ea 21 3e a2 e8 ae 3d c8 7b 10 3c 4a af 0c 3e
       0.15812275 0.08540465 0.008818574 0.13738742
0000f0 ac a9 59 bd d4 a4 e6 3b 6c e4 12 3d 4a 01 43 3d
       -0.053140327 0.007038692 0.03586237 0.04760865
